FAST 3D-CNN P-NET/model/ZGFF/ZGFF_proto_2d-5shotband10.pth (torch, 479981 bytes, 24 tensors)

layer1.0.weight f4 [64, 10, 3, 3]
000000 1e 5a 8c ba fd cb 82 3d f9 bc 98 3d 09 2c c6 bd
       -0.0010708009 0.06386564 0.07457919 -0.09676368
000010 2a d2 c6 3c 4c ac 97 3d 9f 15 37 bd 99 ba cf bd
       0.024270136 0.0740591 -0.044698354 -0.101430126
000020 b3 86 03 be ce 8d 17 bd 7c 41 a1 3c 1f c8 5a 3c
       -0.12844352 -0.03700047 0.019684546 0.013353377
000030 5a f5 1f 3c 0e 47 86 3d 98 2c 85 3c 21 75 7f bd
       0.009763086 0.06556521 0.016256616 -0.062367562
000040 89 80 cd 3d 7c ed 48 bb 77 e4 bd bd e8 8d 85 bd
       0.10034282 -0.003065913 -0.09272092 -0.06521207
000050 17 f2 e2 3d a6 bb 71 bd 12 54 ad 3b 84 a7 9f 3d
       0.11081331 -0.059016846 0.005289563 0.07795623
000060 0e 65 59 bd 06 64 ad 3d ae 4b cf 3d ac 24 85 bd
       -0.05307489 0.084663436 0.10121857 -0.06501135
000070 be 1b 30 3c a1 11 c0 bb f5 e6 c0 3d 78 1e 57 3d
       0.010748802 -0.0058614765 0.094190516 0.05251929
000080 03 98 4e 3d 92 68 90 3d 91 99 dd 3d 35 e4 37 bc
       0.05043794 0.07051195 0.10820306 -0.011223842
000090 d0 84 97 bc 5e 7b 41 bc fe 4f d8 bd 10 1e a6 bd
       -0.018495947 -0.011809198 -0.10562132 -0.08111203
0000a0 f5 8f df 3c 12 40 23 3d 29 4c 4c bd d2 db d3 3c
       0.027290324 0.039856024 -0.04987732 0.025861654
0000b0 6d 12 f2 bd 79 d0 89 bd 80 04 b1 3d 38 cc bf bd
       -0.11819921 -0.06729216 0.086434364 -0.093651235
0000c0 51 b6 49 3c 35 25 40 3d d2 49 96 3d b3 90 80 3c
       0.012311534 0.046910483 0.07338299 0.015693998
0000d0 35 62 97 3d da 59 d0 3d d9 98 55 3d aa 29 a7 bb
       0.073917784 0.10173388 0.05214772 -0.0051014023
0000e0 b5 8c 7e 3d b3 35 36 bd 97 b0 ec bd 62 80 3a bd
       0.062145907 -0.044484805 -0.11557119 -0.04553259
0000f0 d7 6d a3 3d 6b 15 f1 bb d8 94 31 bd db 9e bf bc
       0.07979935 -0.0073572895 -0.04335484 -0.023391178
000100 87 a0 ff 3c 20 d8 c4 bc d4 0a d9 3c 84 45 4a bd
       0.031204475 -0.024028838 0.026494421 -0.0493827
000110 95 10 e6 3c c7 93 54 bd 8d 94 40 3d b8 de 74 bc
       0.028084079 -0.051898744 0.04701667 -0.014945678
000120 10 a6 ac 3d 96 f5 55 3d 42 7f 86 bd 31 1c fc b8
       0.084301114 0.052236162 -0.06567241 -0.000120215474
000130 89 02 45 3d 78 5b f0 bd 3c 39 6d 3d 31 7f e1 bd
       0.04809812 -0.11736196 0.05791591 -0.11010588
000140 33 e0 48 3d 9f 3e 82 39 ee dd cc bd 1c 1a b1 bd
       0.049041938 0.0002484219 -0.10003267 -0.08647558
000150 b3 e6 e1 bd 4c c7 cc bb 0a 70 55 3d ba 2d 75 3d
       -0.110303305 -0.006249344 0.052108802 0.05985806
000160 04 6b 1a 3d a0 83 22 3d 32 56 a3 3c 6d 50 44 bd
       0.037699714 0.03967631 0.019938562 -0.047928263
000170 6d bb 1b 3d 90 e0 4a 3c 92 9a e4 bc c6 f2 ee 3c
       0.03802054 0.012382641 -0.027905736 0.029168498
000180 e0 cc df bc 3d 9d 9a 3d b2 a7 df 3d 19 58 ba 3c
       -0.027319372 0.07549522 0.10920657 0.022747086
000190 5b cd 2b bd ed 99 3e bd 00 b4 b1 3b 49 ab 88 bd
       -0.04194389 -0.046533514 0.005423069 -0.06673295
0001a0 2e 64 44 3d 2b f0 18 3d 60 b4 1a bd a7 8e 8c bd
       0.0479471 0.037338417 -0.037769675 -0.06863146
0001b0 1e b3 7f 3d ec da 9a 3d d9 fc cc 3d f4 46 4c bd
       0.06242668 0.07561287 0.10009164 -0.049872354
0001c0 ab 3a e4 3d bb c6 b5 3c d8 21 9e 3c a1 94 d0 3d
       0.111440025 0.022189489 0.019303247 0.10184599
0001d0 34 65 c8 3d 1e 1b a9 bd 59 27 22 bd bc a4 90 bd
       0.09784928 -0.08257125 -0.039588306 -0.070626706
0001e0 f8 b0 c5 bc 48 61 a4 b9 a4 b1 da bd c2 c8 8e bd
       -0.024132237 -0.00031352998 -0.106784135 -0.06971885
0001f0 e9 8b 0f bd ff 71 32 bd ba 5d 47 3c 23 a4 c0 bd
       -0.035045538 -0.043565746 0.012168342 -0.094063066
000200 75 44 96 3d ae 95 95 3d 54 24 d4 bd fa d2 ed bc
       0.07337276 0.0730394 -0.103584915 -0.029031266
000210 2c 33 75 3c be be 02 3d db 00 b4 bc 1b fb 9d 3b
       0.014965814 0.031920187 -0.021973064 0.004821194
000220 40 06 a7 bd d2 f8 6d 3d 1d ca b0 bd 77 60 9d 3d
       -0.08155489 0.05809862 -0.086323 0.07684415
000230 39 55 07 3d 4f 0d 96 3d 30 b8 a3 bd d2 04 1b bd
       0.03304026 0.07326757 -0.07994115 -0.037846394
000240 39 72 c5 bd 63 10 3f 3d c8 8d 69 bd f6 36 e6 bd
       -0.09640927 0.046646487 -0.05701998 -0.11240952
000250 8d 90 c9 bb ac 60 54 3c 89 dd 0d 3c 23 61 68 bd
       -0.006151265 0.0129625015 0.008658775 -0.05673326
000260 c7 bf 76 bd dc a5 ed 3c 2d 9c ad 3d a8 09 1b 3d
       -0.060241487 0.029009752 0.08477054 0.037851006
000270 77 d8 3c 3d c1 d2 f6 bb 33 13 0b 3d ff 66 b9 3c
       0.046104874 -0.007532448 0.033953857 0.02263212
000280 5e 07 aa bd 11 b3 1d 3d 8c d2 1c 3d 91 49 89 3d
       -0.083021864 0.03850085 0.03828673 0.06703485
000290 0e fd 25 bd 1b ec 1e bd d8 53 09 bc 2d 23 83 3d
       -0.040524535 -0.038799386 -0.008381806 0.064031936
0002a0 de 38 35 3d b6 c8 95 bd e7 8f 41 3d 89 95 ef 3b
       0.044243686 -0.07313673 0.047256377 0.007311527
0002b0 83 ff 92 3c 91 60 b6 bd 8d 62 86 3c 54 2c 5b 3d
       0.017944103 -0.08905137 0.016404415 0.05350907
0002c0 1e 0c 01 3d fe a7 42 bd c6 52 eb bd bb 51 95 bd
       0.031505696 -0.04752349 -0.11490397 -0.072909795
0002d0 17 18 bc 3d 86 a1 11 bd dc 2b a8 bb e1 7e 81 3d
       0.09184282 -0.03555443 -0.0051321816 0.06323028
0002e0 9d 34 ca bd 47 d7 6a 3d 88 1b 96 3d dd af 07 bd
       -0.098733164 0.05733421 0.0732947 -0.0331267
0002f0 31 2e b3 bb 7d bb 71 bc 0b 10 2e 3d a6 e4 75 bb
       -0.005468153 -0.014754173 0.04249577 -0.0037520318
000300 0d a1 5a bd 17 cd 9f bc 4f 6d fd 3c 97 3a ac bc
       -0.053376246 -0.019506974 0.030935911 -0.021024032
000310 04 5d 05 bd 6c 2e 4e bc 40 e3 b8 bd c2 ad d9 bd
       -0.03255941 -0.01258431 -0.090277195 -0.10628845
000320 8b 1a fb 3b 11 7e b4 bc 03 19 8c bd 98 c1 7c 3d
       0.0076630763 -0.02203277 -0.06840708 0.061708063
000330 84 59 03 be 7d cb ef bd 62 41 18 3d f7 aa 35 3d
       -0.12827116 -0.11708734 0.03717173 0.044352498
000340 54 e8 00 3e c5 cb 8c 3d bf 28 56 3d 95 3f 59 bd
       0.12588626 0.068748035 0.052284952 -0.053039152
000350 9e 94 b6 3d f7 13 d1 3d 65 64 21 3c 1e f4 f0 bc
       0.08915065 0.10208886 0.009850596 -0.02941328
000360 0f 76 81 bd b3 6d cb bd be f0 b3 bc 5d 00 17 3d
       -0.06321346 -0.09933033 -0.02196538 0.03686558
000370 86 e5 0c 3c b7 a8 04 3c 95 1c b3 bc be e3 6f bd
       0.0085996445 0.008096865 -0.021864215 -0.0585668
000380 06 06 65 bd 89 55 ee 3d 5b 04 a8 3d a5 f1 b7 3d
       -0.055913948 0.11637408 0.08203956 0.08981637
000390 40 c9 ff bb 4f 2b 22 bd 1f b4 3a bd 4d 2c 8f 3d
       -0.0078059733 -0.039592084 -0.045581933 0.069908716
0003a0 ed 6f d4 3d 9b ae 8d bd 83 1d 70 3c fd 7c b3 bc
       0.10372911 -0.06918069 0.014655474 -0.021910185
0003b0 17 6c c5 bd a1 69 83 bd 02 1f 0d 3d 7d 65 a0 bd
       -0.09639757 -0.064166315 0.0344534 -0.07831857
0003c0 17 2a 8e 3d b0 ad c0 3d e4 b4 73 3d a6 ff 23 3d
       0.06941622 0.09408128 0.059498683 0.040038727
0003d0 eb c0 8e bd 9b 5e 0b bc 51 f5 b6 bd 46 b8 48 3c
       -0.0697039 -0.008506442 -0.08933509 0.012250965
0003e0 23 42 7c bd d4 82 f3 3b b4 30 fe 3c ba e3 26 bc
       -0.06158651 0.0074313674 0.031029083 -0.01018613
0003f0 8c a8 01 3d 5c 28 30 3c c9 23 38 bd a5 04 a9 bd
       0.03165488 0.01075181 -0.044956002 -0.08252839

layer1.0.bias f4 [64]
000000 3a fe 6c 3f ea ea 5a 3f fa d2 67 3f c2 6c 77 3f
       0.9257542 0.855147 0.905563 0.96650326
000010 ea 90 7c 3f 08 d0 7e 3f ce a3 5d 3f 18 38 58 3f
       0.9865862 0.9953618 0.8657807 0.8446059
000020 48 7a 86 3f bd ea 80 3f 8f d3 62 3f cb 86 3c 3f
       1.0506067 1.0071636 0.8860406 0.7364318
000030 fc d7 5b 3f 76 d2 48 3f 5b b2 83 3f c3 89 6c 3f
       0.8587644 0.7844614 1.0288805 0.9239771
000040 61 8e 81 3f 8c 81 47 3f b7 4d 63 3f 01 b1 48 3f
       1.0121576 0.7793205 0.8879046 0.78395087
000050 9b 2e 63 3f 1d ef 80 3f cd ab 62 3f 98 82 80 3f
       0.8874299 1.0072972 0.885434 1.0039854
000060 35 4f 82 3f a5 7a 56 3f 9b 05 67 3f aa c4 5e 3f
       1.0180422 0.8378089 0.9024293 0.87018836
000070 89 92 69 3f 36 1f 81 3f 8f 68 68 3f 4c 89 37 3f
       0.9123922 1.008765 0.90784544 0.71693873
000080 fc c4 7c 3f 37 19 79 3f 7e a3 46 3f 6c 84 7e 3f
       0.98738074 0.973041 0.7759322 0.9942081
000090 fb 4d 71 3f 8e f2 70 3f 15 60 7e 3f ed 37 3c 3f
       0.94259614 0.9412011 0.9936536 0.73522836
0000a0 d8 66 75 3f f6 00 77 3f a7 e0 43 3f 9d 1b 68 3f
       0.9586005 0.9648584 0.7651467 0.90667135
0000b0 54 2d 5d 3f b5 3f 7a 3f 8f c3 57 3f 27 6e 5e 3f
       0.8639729 0.9775346 0.84282774 0.8688683
0000c0 bd e8 75 3f 9d 4f 6b 3f 54 af 6c 3f 7b 86 5a 3f
       0.96058255 0.91918355 0.9245503 0.8536145
0000d0 3e e4 87 3f ef 0e 70 3f 80 f7 4a 3f 64 a4 4d 3f
       1.0616529 0.93772787 0.79283905 0.80328965
0000e0 53 92 61 3f ae 1a 7b 3f 43 8f 59 3f 41 0e 57 3f
       0.881139 0.98087585 0.84984225 0.84006125
0000f0 44 35 85 3f d1 e9 5c 3f b5 f0 55 3f dd 2d 70 3f
       1.040688 0.86294276 0.83570415 0.9381998

layer1.1.weight f4 [64]
000000 79 7b 7d 3f 59 97 7f 3f e7 5e 7f 3f 15 74 7e 3f
       0.9901653 0.99840313 0.99754184 0.9939588
000010 68 2e 82 3f 60 ec 7f 3f cb 1a 78 3f aa 07 80 3f
       1.0170412 0.99970055 0.9691588 1.0002339
000020 56 e8 77 3f 52 a0 82 3f a6 e2 7e 3f 28 47 82 3f
       0.9683889 1.0205176 0.9956459 1.0177965
000030 dd af 81 3f a3 33 7e 3f f1 20 81 3f 4c 21 7f 3f
       1.0131794 0.9929754 1.0088178 0.9966018
000040 e9 81 7d 3f 55 e5 7d 3f ac c4 77 3f 87 d4 7f 3f
       0.9902635 0.9917806 0.9678447 0.99933666
000050 a8 b3 7f 3f 64 78 7b 3f e2 85 7d 3f a3 9e 7e 3f
       0.9988351 0.98230577 0.99032414 0.9946081
000060 09 0d 80 3f 72 30 83 3f ca 24 81 3f c5 41 7f 3f
       1.0003978 1.0249159 1.0089352 0.9970973
000070 fe 74 81 3f fc a1 80 3f d3 38 7b 3f 99 b9 7d 3f
       1.0113828 1.0049434 0.9813358 0.99111325
000080 53 7f 81 3f 0e b0 7f 3f aa 0a 7f 3f 17 16 7e 3f
       1.0116981 0.99878013 0.9962565 0.99252456
000090 0e e4 77 3f 8e 47 80 3f 95 02 81 3f a9 34 81 3f
       0.9683236 1.0021837 1.0078913 1.0094196
0000a0 3c 8e 79 3f 2c 24 7b 3f 5e 93 86 3f 5e 20 81 3f
       0.9748266 0.9810207 1.0513723 1.0088003
0000b0 97 c0 83 3f d7 c9 7d 3f 50 0e 83 3f f4 63 82 3f
       1.0293149 0.9913611 1.0238743 1.0186753
0000c0 cf 69 7f 3f 8b 49 7d 3f aa 00 7c 3f 06 a5 82 3f
       0.99770826 0.9894034 0.98438513 1.0206611
0000d0 83 95 79 3f 76 20 7b 3f 73 6f 82 3f 7f b2 81 3f
       0.9749376 0.98096406 1.0190262 1.0132598
0000e0 50 f4 7b 3f 6c 7b 80 3f 88 4e 83 3f 53 b7 79 3f
       0.98419666 1.0037665 1.0258341 0.97545356
0000f0 01 ed 77 3f 71 9c 7b 3f c2 0f 80 3f 03 42 82 3f
       0.96846014 0.98285586 1.0004809 1.0176395

layer1.1.bias f4 [64]
000000 71 f4 2f bd fd d0 a1 bb af 06 5e bc 71 75 21 bd
       -0.042957727 -0.0049382434 -0.013551398 -0.03941864
000010 cd 62 18 3b 4b 0f d5 bc c2 69 77 3c fc 03 fa 3c
       0.002325225 -0.026008269 0.015100898 0.030519478
000020 01 c4 d7 3c 7f 82 8f bb 1d 7a 6b 3b f2 f8 81 bd
       0.02633858 -0.00437957 0.003593094 -0.06346311
000030 c8 9b 62 bd b4 37 12 3c ad a3 37 bd 95 26 97 bc
       -0.055324346 0.0089244135 -0.044833828 -0.018451015
000040 11 69 83 3b a4 56 49 bd 8b 3a 0f bd 85 95 53 bc
       0.0040103276 -0.049154893 -0.03496794 -0.012914066
000050 c2 03 4d 3c c0 dd 45 bd e8 7f b8 bc a5 5b ae 3c
       0.012513103 -0.04830718 -0.022521928 0.021283934
000060 ff 69 b9 bc 22 ab 7d bd dc 67 19 bd 65 2e eb 3c
       -0.02263355 -0.061930783 -0.037452564 0.028708646
000070 0d 8a 71 bd b3 aa d3 3b b8 18 93 3c 56 50 1c 3c
       -0.058969546 0.006459558 0.017956123 0.009540638
000080 bf 09 3c bd ee 74 35 bc 4e 75 88 3c 1e 21 6c 3b
       -0.045907732 -0.0110752415 0.016657498 0.0036030482
000090 a0 fd 9a bc 5e 25 0d bb 25 a7 a2 bc ed 6c 0e bd
       -0.018919766 -0.0021537165 -0.019855091 -0.03477185
0000a0 8a ce 16 3c c1 0e ce 3b 92 ba 9e bd 73 b5 34 bd
       0.009204516 0.00628838 -0.07750429 -0.044118356
0000b0 df f3 87 bd 94 c7 28 bd 2c 01 04 3a 64 7a fc bc
       -0.066383116 -0.041205958 0.0005035575 -0.03082008
0000c0 95 8c 9a 3c 87 55 bb 3c 73 31 ed bc 33 3a 0a bd
       0.018865863 0.022867931 -0.028954243 -0.03374691
0000d0 17 45 0a 3d f0 fd 03 bd 3f cd 49 bd 69 c4 55 bd
       0.033757295 -0.032224596 -0.049268004 -0.052189264
0000e0 0b f4 00 3d b8 0d f7 bb a6 dc 11 bd 2f 16 b5 3b
       0.031482738 -0.007539477 -0.035610817 0.005526326
0000f0 fe 78 a6 bc ed 16 07 bd 99 79 22 bd b9 7a c1 3c
       -0.020321365 -0.032980848 -0.039666746 0.023618089

layer1.1.running_mean f4 [64]
000000 71 30 5c 3f f7 a2 43 3f cc 52 69 3f b0 cb 74 3f
       0.86011416 0.7642054 0.91141963 0.956233
000010 15 da 71 3f b1 6c 69 3f 61 c4 9a 3f d2 4b 42 3f
       0.9447339 0.91181475 1.209118 0.7589694
000020 bf b8 8b 3f fb fd 72 3f 20 bf 64 3f 38 5b b1 3e
       1.0915755 0.94918793 0.89354134 0.34639907
000030 5c 97 39 3f 0e 6b 44 3f 4b c4 78 3f 57 c1 64 3f
       0.7249658 0.7672585 0.9717452 0.89357513
000040 b6 40 87 3f 21 9d dd 3e 07 b6 a2 3f 85 ef 2b 3f
       1.0566623 0.43283942 1.27118 0.6716235
000050 cb 06 7a 3f e7 a8 8f 3f a2 a7 74 3f 22 45 8a 3f
       0.97666615 1.122342 0.9556829 1.0802348
000060 1b 98 7a 3f 90 43 1a 3f 35 cf 4f 3f b3 c9 49 3f
       0.97888345 0.6025934 0.8117555 0.78823394
000070 5e 76 50 3f d2 64 7b 3f 48 7d 62 3f 8f c4 91 3f
       0.81430614 0.98200715 0.88472414 1.138811
000080 da 19 6a 3f da 20 73 3f a1 56 73 3f 9f aa 5e 3f
       0.91445696 0.94972 0.9505406 0.869791
000090 d2 10 9d 3f ed a6 64 3f 4e 14 7f 3f b8 fc 07 3f
       1.2270758 0.8931721 0.9964036 0.53119993
0000a0 a3 d4 86 3f d3 15 8d 3f 8e 37 a7 3e 08 4e 4e 3f
       1.0533642 1.1022285 0.32659572 0.80587816
0000b0 0a 02 2d 3f b7 2d 83 3f 11 c8 39 3f e5 f2 1a 3f
       0.67581236 1.0248326 0.725709 0.6052688
0000c0 f4 e7 64 3f c7 84 66 3f 47 aa 5a 3f 7b e1 33 3f
       0.8941643 0.9004635 0.8541607 0.7026593
0000d0 43 4a 90 3f 06 12 33 3f b9 7a 03 3f c1 91 1a 3f
       1.1272663 0.69949377 0.51359135 0.6037865
0000e0 ea c1 75 3f e2 37 70 3f 59 c9 3e 3f 64 f7 6f 3f
       0.95999014 0.9383527 0.7452598 0.93736863
0000f0 f7 58 89 3f 2a 0b 70 3f 44 54 08 3f dc 08 61 3f
       1.0730275 0.93767035 0.5325358 0.87904143

layer1.1.running_var f4 [64]
000000 60 56 a6 3f e2 7e 40 3e ea dd 17 3e a4 7e 31 3f
       1.299511 0.18798402 0.14830747 0.69333863
000010 42 d9 d0 3d 04 76 01 3f 45 77 3e 40 81 26 b7 3e
       0.10197689 0.505707 2.9760296 0.35771564
000020 92 34 05 3e c8 68 14 3e c2 95 13 3e 0f cc 97 40
       0.13008335 0.14493096 0.14412597 4.7436595
000030 70 d6 24 3f c0 35 5c 3f 10 03 35 3e df c9 5d 3e
       0.64389706 0.86019516 0.1767695 0.21659039
000040 33 31 11 3e 28 a6 aa 3f c4 00 ed 3f 6f cc b7 3e
       0.14178924 1.3331957 1.8515859 0.35898158
000050 56 e1 6b 3e ba 17 dd 3e 21 dc 55 3e 3e 16 96 3e
       0.23035178 0.43182164 0.20884754 0.29313844
000060 56 98 0d 3e cb 4a a7 3f 4c ac 9f 3e 2d 2a 5c 3e
       0.13827643 1.30697 0.3118614 0.21500464
000070 08 cd ef 3e 09 9b d5 3d aa 08 0f 3e 62 1b 95 40
       0.46836114 0.10429961 0.13968149 4.6595926
000080 cf bd 8a 3e 52 cb 14 3f cb ad 6c 3f a0 75 e6 3e
       0.27097937 0.5812274 0.9245269 0.45011616
000090 c8 97 89 3f b3 59 54 3e 3c 5d 4d 3e 94 27 37 40
       1.0749445 0.20737343 0.20055097 2.8617907
0000a0 e6 20 a4 3e d5 3e e0 3e 73 d3 a8 40 87 9d a6 3e
       0.3205635 0.43797937 5.2758117 0.3254206
0000b0 32 71 64 3f 94 51 33 3e 37 ac ab 3e f3 e5 e0 3f
       0.8923522 0.17511588 0.33529827 1.7570175
0000c0 6b 4e 64 3e 81 0a d3 3e 32 af 2e 3e 01 25 10 3f
       0.22295539 0.4121895 0.17059019 0.56306463
0000d0 fb 38 2d 3e ff 00 69 3f 48 76 22 40 e3 c9 87 3f
       0.16916268 0.91017145 2.5384693 1.0608486
0000e0 18 c7 71 3e c3 a0 3d 3e 20 63 33 3f a2 b1 da 3e
       0.23611104 0.18518357 0.7007313 0.42713648
0000f0 96 f1 de 3d 9f 2e a7 3e 65 7b d0 3f 64 ce 84 3e
       0.108859226 0.32652757 1.6287657 0.25938714

layer2.0.weight f4 [64, 64, 3, 3]
000000 0d 0b 49 3b 57 83 66 bb 10 79 e4 3c 9f 00 4d bd
       0.0030676753 -0.00351735 0.027889758 -0.05004942
000010 66 76 36 bd ba 9c 8d bc 81 49 93 bb 21 ce 1b bd
       -0.044546507 -0.017286647 -0.0044948463 -0.038038377
000020 aa e5 92 bb 9a 2c 14 39 7b 15 f1 3c 2e b0 ab 3c
       -0.0044829445 0.00014130995 0.029429188 0.020958032
000030 7f a9 49 3c 3b fb e5 3b 29 a4 db bc 4a fa 7f 3c
       0.012308477 0.0070184744 -0.026811676 0.015623638
000040 37 44 f2 bc ef 11 2e bc b8 a7 d0 3c 7c e4 75 bc
       -0.029573543 -0.010624393 0.0254706 -0.015008088
000050 f6 db 5a bd 39 fb 1c bd e2 12 b6 bc 06 0c 79 bd
       -0.053432427 -0.038325522 -0.0222258 -0.060802482
000060 f2 e6 f6 bc 31 66 c3 3b f1 c3 98 3c cc 90 69 bc
       -0.03013942 0.00596311 0.01864812 -0.014255714
000070 a5 c5 51 ba e1 05 9d bc 2c d4 9c 3a fa 08 1d 3b
       -0.00080021686 -0.019167842 0.0011965088 0.002396165
000080 f0 19 c7 bc 25 f1 25 3c 8a 53 3e 3c bd 55 db bc
       -0.02430436 0.010128294 0.011616597 -0.026774282
000090 e5 e1 ba bc 77 f1 0c bd 4b 03 4c bd 34 d5 a6 3c
       -0.022812793 -0.034409966 -0.049807828 0.020365335
0000a0 c4 46 40 3c c0 1d 30 bd 47 6b 12 3d 6e 22 19 3b
       0.011735622 -0.04299712 0.03574684 0.002336647
0000b0 ec f7 36 bd 75 96 55 bb 8a 97 21 3c 0d dc a0 bc
       -0.04467003 -0.00325909 0.00986279 -0.019636178
0000c0 60 b5 09 3c 8f 3d 04 3d 0e 62 78 bc 9d ea 7d 3c
       0.00840506 0.03228527 -0.015160097 0.015497831
0000d0 fb b7 7c 3c d3 b4 da bc ac e6 c7 bc 20 ae e3 bc
       0.015424724 -0.026697552 -0.024401985 -0.02779299
0000e0 96 9c 0e bc fa 0d 2d 3d 0e b5 ea bc c6 9e ca bb
       -0.008704325 0.042249657 -0.028650787 -0.006183478
0000f0 06 e8 de bc ea d7 ba bb 0d 9c ec bb 5a 71 d1 3a
       -0.027210247 -0.0057020085 -0.007220751 0.0015979216
000100 87 11 b5 bc 55 c3 33 bc 96 0a 26 bc 93 bc ad 3c
       -0.022103084 -0.010971864 -0.01013436 0.021208083
000110 f8 9b 81 3b 9e 98 a9 bb 47 d2 fd bb c5 0f 0f 3d
       0.0039553605 -0.005175664 -0.0077460143 0.03492715
000120 0d ee d6 b8 61 19 20 bd 03 09 91 bc ae ee 2b 3d
       -0.000102486556 -0.039086703 -0.017704492 0.04197567
000130 d3 e7 2d bc 46 9a b4 bc 76 91 9f bc 2c ab 83 3c
       -0.010614353 -0.02204622 -0.01947854 0.016072832
000140 1e 7b d7 bc 3b e0 be 3b 36 bf 44 bc 58 21 cf bc
       -0.026303824 0.00582507 -0.012008479 -0.025284454
000150 8d 03 a7 bb 6b 87 1c bb d6 1a 59 bd 17 52 79 bd
       -0.005096859 -0.0023884426 -0.05300411 -0.060869303
000160 c8 90 20 bd 9e bf 80 bc 6b ea d6 bc 3d 65 e6 bc
       -0.039200574 -0.01571637 -0.026234826 -0.028124446
000170 62 cb 41 bd 9b a3 be bc 25 1d 47 bd 60 c3 9b 3c
       -0.0473131 -0.023271373 -0.04861178 0.01901406
000180 a0 c5 61 bd 15 7e 31 bd 72 6d 55 bd 55 05 19 3d
       -0.05512011 -0.04333313 -0.05210633 0.0373586
000190 d7 26 a1 bc c4 63 13 bd 1d fb ed 3c 1f 4d c2 bc
       -0.01967184 -0.035983816 0.029050404 -0.023718415
0001a0 6c 2b e4 3c 44 9c 18 bd e4 a0 08 bd c0 2b 37 3d
       0.027852736 -0.0372584 -0.033356562 0.044719458
0001b0 fd 77 ed bc f5 1f 80 3c 32 71 0c bd 8d 5a 25 bd
       -0.028987879 0.015640238 -0.03428764 -0.04036956
0001c0 6b 25 59 bd 15 31 5f bd e4 93 79 bc 54 73 b5 3c
       -0.0530142 -0.054490168 -0.015233014 0.02214972
0001d0 bf aa c0 bc 11 19 08 bd 64 a1 9f 3c 33 cc 80 bc
       -0.023518918 -0.03322703 0.019486137 -0.01572237
0001e0 65 4f 55 3d 1d 3d 3e 3d d8 5c b3 3c 48 84 a4 39
       0.05207767 0.046445 0.021894857 0.00031379075
0001f0 be fd f1 bb ac 67 93 3b 96 f8 12 3d d1 f2 b1 3c
       -0.0073849848 0.0044984426 0.0358816 0.02172223
000200 a3 66 83 3c 47 4b ec 3c 7e 12 52 3d 7d 43 5d bc
       0.016040152 0.028844489 0.051287167 -0.01350486
000210 a6 aa 20 bd 04 39 4b bc fd a7 42 3c a6 9e 00 3b
       -0.039225243 -0.01240373 0.011880872 0.0019625812
000220 ae 4c c5 3c d2 c8 5e bc 93 b8 03 bd e1 57 34 3d
       0.024084415 -0.013597684 -0.032158446 0.04402912
000230 7e 38 7d bb f2 9c bf bc a6 d7 5b bc ca 10 36 bc
       -0.0038638408 -0.023390267 -0.013418114 -0.011112401
000240 51 ad f3 39 99 ab 74 3c 7b 7c 59 bc fa d6 2c bd
       0.00046477703 0.01493349 -0.013274307 -0.042197205
000250 f3 d1 15 3d c4 be 3c bc f9 3f 9a 3c d6 a1 a1 3b
       0.036577176 -0.011520091 0.018829333 0.0049326224
000260 14 6a 62 3c ec 1c d7 3c b0 7f 4e bc ad 13 13 bd
       0.013819236 0.026258908 -0.012603685 -0.035907436
000270 dd 0f 3d bc 6c aa 1a 3d fe a8 0b 3c db d8 93 ba
       -0.011539427 0.037760183 0.008524178 -0.0011279838
000280 ea 49 39 bc 0e a3 49 bd aa 4f 8a bc f6 21 d1 bc
       -0.011309126 -0.049227767 -0.01688369 -0.02552889
000290 36 af 96 3b 53 3f ba 3c 40 f0 31 3d 24 70 9e bc
       0.0045985235 0.022735273 0.04344201 -0.019340582
0002a0 8a 47 0d 3d 2a 36 0a 3b 01 85 4e 3c 03 bc a0 39
       0.034492053 0.0021089413 0.012604953 0.00030657658
0002b0 97 0f 59 bc d6 4d 74 3c 55 8e b4 bc 5c 5e ab 3c
       -0.013248346 0.014911136 -0.022040525 0.020919017
0002c0 63 92 3c bd 07 39 3c 3d 2e 5d db 39 9a c6 03 bd
       -0.046038043 0.045952823 0.0004184036 -0.032171823
0002d0 b8 67 c7 bc a2 21 8e bb 12 01 e5 3c 74 6e 4c bd
       -0.02434145 -0.0043375054 0.027954612 -0.049910024
0002e0 e0 e6 ad bc e6 60 02 3c f5 25 d2 bb a2 33 15 3d
       -0.021228254 0.007957673 -0.0064132162 0.036426194
0002f0 02 7f 04 bd ec b4 11 3d 2e 09 16 bc a2 f2 19 bb
       -0.032347687 0.03557293 -0.009157462 -0.0023490568
000300 84 6c 9a 3c ac 9a 13 bc 59 38 50 bd 7a df 10 bd
       0.018850572 -0.009009045 -0.050834987 -0.035369374
000310 4a 29 1a bc 85 b4 2f bd 33 af 1c 3d 39 c6 0a bd
       -0.009409258 -0.042896766 0.03825302 -0.033880446
000320 dd 33 95 bc 1d a5 f6 bc 91 ce e4 3b 76 49 de bb
       -0.018213207 -0.030108029 0.0069826324 -0.0067836596
000330 6b a3 66 3c 8e cb 62 bd 31 66 24 bd 3f fa d5 b9
       0.014077048 -0.055369906 -0.04013652 -0.00040812974
000340 25 19 14 3c 68 09 33 3b 8e 4a 4f 3c 27 a2 d1 3c
       0.009039198 0.002731884 0.012652053 0.025590016
000350 a9 43 cc bc 5b be b6 3c 26 e1 08 3d 10 73 00 bc
       -0.024934607 0.022307565 0.033417843 -0.007839933
000360 91 11 cc 3b 02 df 3a ba fa 52 79 3c a1 7d 10 3c
       0.00622768 -0.00071285677 0.015217537 0.008819015
000370 d0 1c 89 3c cd a6 a3 bc e5 a6 43 3d af 62 51 3d
       0.016737372 -0.019976998 0.047766585 0.051119503
000380 2b 3a aa bb 67 35 e4 bc 2d b9 35 bd 96 0c 8b 3c
       -0.0051949224 -0.027857495 -0.04436605 0.016973775
000390 fc 35 d8 bc ff 0a a2 bc 8c 5e a2 bc 01 d2 d1 bc
       -0.02639293 -0.019780634 -0.019820474 -0.025612833
0003a0 1a 34 e9 bb de b6 f1 3c b6 e0 1b bd 28 09 d4 bb
       -0.0071168067 0.029506143 -0.038056098 -0.006470818
0003b0 89 61 52 bd a5 2a b4 3c 78 92 5d bb 1e 42 09 bb
       -0.051362548 0.02199299 -0.0033809226 -0.002094395
0003c0 28 0e 55 bc 94 7b 74 3c dc 3a 6f 3c d9 46 ab 38
       -0.013003863 0.014922041 0.0146014355 8.167112e-05
0003d0 47 f2 10 bd 9a 40 e9 3c 19 ff b8 ba bc e8 24 3d
       -0.035387304 0.028473187 -0.0014114111 0.040261015
0003e0 23 ec b6 bc 60 42 5d 3d 74 06 c1 3c 68 a0 35 bc
       -0.022329396 0.05401838 0.023562647 -0.011085607
0003f0 d7 16 0e bd f3 20 0e bb d6 bd 27 bc 36 8f 8f bc
       -0.03468975 -0.002168712 -0.0102381315 -0.017524343

layer2.0.bias f4 [64]
000000 18 9a 76 bc b6 a9 93 3a 5a df 0d bd 21 65 d4 3c
       -0.015051387 0.0011265788 -0.034636833 0.025927128
000010 79 63 3b 3a 0e c8 8d bc 78 56 0a bd 62 77 04 bd
       0.00071483065 -0.017307308 -0.03377387 -0.032340415
000020 94 17 70 3c 86 2c f7 3c c3 1b 6e 3c 11 67 fb 39
       0.014654059 0.030172598 0.014532986 0.0004795124
000030 90 1b 9b 3c db 7e 05 bc 44 94 d6 3c 59 f7 08 bd
       0.018934041 -0.0081479205 0.026193745 -0.033439014
000040 ed 49 b3 3c 41 b1 b6 bc 67 48 11 bd a5 36 75 bc
       0.021885836 -0.022301318 -0.03546944 -0.014966642
000050 10 13 41 bc 69 22 fc 3c 71 c1 06 3d 9d a7 d6 3a
       -0.01178433 0.030778127 0.032899324 0.0016376857
000060 bb d7 79 3c 19 4f 80 bc 06 70 53 bc 1b 42 fe 3c
       0.015249188 -0.015662717 -0.012905126 0.03103738
000070 5e 13 26 bb 31 8a 23 bd 1e 9c 08 3d 84 97 29 bd
       -0.0025341134 -0.03992671 0.03335201 -0.041404262
000080 ab f6 10 bd b6 c5 2e bb 86 63 06 3d d7 00 1f 3d
       -0.03539149 -0.0026668138 0.032809757 0.03881916
000090 01 b8 04 bb 77 d6 24 bd 2f fc 7e 3c 93 51 1c bd
       -0.0020251276 -0.040243592 0.015563055 -0.038163733
0000a0 87 15 00 3d b3 34 27 bd 6f 4f 51 bc 17 ba 5f bb
       0.03127053 -0.040821742 -0.012775286 -0.0034138018
0000b0 6f 45 20 bd a8 75 0e 3d 20 ba 00 3d e0 01 c1 bc
       -0.039128717 0.034780174 0.031427503 -0.023560464
0000c0 ff a3 c6 3b b8 ad 59 3c 94 12 fc 3b ca 7f bf bc
       0.0060620303 0.013286047 0.0076926444 -0.023376364
0000d0 0c c5 a0 3b 02 d9 10 3d 85 7a 28 3c 64 f3 0e bb
       0.0049063023 0.035363205 0.010283117 -0.0021812553
0000e0 e8 4f 16 3d 3c bd 41 b9 22 59 8b bc 06 b2 07 bd
       0.0366973 -0.0001847641 -0.017010275 -0.03312876
0000f0 5f b4 10 bd e5 22 12 bd 6e a6 23 3d 67 4c a4 b8
       -0.035328265 -0.03567781 0.03995364 -7.8343604e-05

layer2.1.weight f4 [64]
000000 c9 2a 81 3f 3e a1 82 3f be a7 80 3f 4f 7d 80 3f
       1.0091182 1.0205457 1.0051191 1.0038241
000010 c5 f6 80 3f 6d 60 7c 3f 8c 4c 7c 3f b6 d3 79 3f
       1.0075308 0.98584634 0.985543 0.9758867
000020 08 24 82 3f 2d 81 7b 3f c1 a9 7d 3f 40 15 81 3f
       1.0167246 0.9824398 0.9908715 1.008461
000030 09 b1 7c 3f 88 3d 81 3f 2b 20 81 3f a8 ec 81 3f
       0.98707634 1.0096903 1.0087942 1.0150347
000040 a7 96 7b 3f b7 42 81 3f 04 ed 83 3f bf e0 7d 3f
       0.9827675 1.0098485 1.0306706 0.9917106
000050 b6 38 7c 3f 28 b3 7e 3f 1c 0e 80 3f 35 08 81 3f
       0.98524034 0.9949212 1.0004306 1.008063
000060 91 2d 7e 3f cc af 7f 3f 1d 8c 81 3f 3c 86 7d 3f
       0.9928828 0.9987762 1.0120884 0.9903295
000070 60 de 7e 3f fa b4 81 3f a1 9c 80 3f 3c ec 7e 3f
       0.9955807 1.0133355 1.0047799 0.99579215
000080 ef ee 82 3f 8a 5c 7f 3f 5d fb 79 3f e3 b5 7f 3f
       1.0229167 0.9975058 0.97649175 0.9988691
000090 af fa 84 3f eb 5d 80 3f 85 08 80 3f 5d 3a 7e 3f
       1.0389003 1.0028661 1.00026 0.99307805
0000a0 87 7e 7d 3f 17 e2 80 3f 21 d8 7c 3f 42 2f 7f 3f
       0.9902119 1.0068997 0.98767287 0.99681485
0000b0 bb 6f 80 3f aa 6b 78 3f 1c 56 81 3f 51 4e 7c 3f
       1.0034097 0.9703928 1.0104403 0.98557
0000c0 0c e3 7d 3f aa c5 81 3f 9c dc 80 3f 38 4e 7c 3f
       0.9917457 1.0138447 1.0067325 0.9855685
0000d0 b6 51 7d 3f 0c fb 81 3f 30 47 7b 3f 83 be 7e 3f
       0.98952806 1.0154738 0.981555 0.9950945
0000e0 65 c4 7c 3f ab df 82 3f 33 30 82 3f 47 24 80 3f
       0.98737174 1.0224508 1.0170959 1.0011071
0000f0 4e c4 7a 3f 0f 36 80 3f 2f 76 85 3f ed 3f 84 3f
       0.9795579 1.0016497 1.0426692 1.0332009

layer2.1.bias f4 [64]
000000 28 74 fb bc 63 4d 99 bd 9e 98 67 bd 10 4b 7d 3a
       -0.030695036 -0.074854635 -0.05654203 0.0009662369
000010 42 44 79 3c d3 18 25 3c d0 b8 00 3c 9e 5a 84 bd
       0.015214028 0.010076719 0.007856563 -0.06462596
000020 27 10 a3 bd 14 ce 2a bc 3c 43 f1 bc 91 02 fb bb
       -0.07962065 -0.010425109 -0.029451005 -0.007660218
000030 25 55 a7 bc 3f 1a 24 bc be 9e 04 bd 67 20 35 bd
       -0.020426342 -0.010016023 -0.03237795 -0.044220354
000040 ae df 15 bd 13 80 55 bd 85 8c 1f bd d5 71 13 bd
       -0.03659027 -0.052124094 -0.03895237 -0.03599723
000050 3b 22 0c bc d1 ea db 3b 17 9a 2c bd 80 a3 be bc
       -0.008553083 0.006711342 -0.04213914 -0.023271322
000060 a0 f4 68 bd fd c3 4c bd 7f 85 1a bd c4 df 45 bd
       -0.056873918 -0.049991596 -0.037724968 -0.048309103
000070 3f 05 33 bd 29 a3 56 3b f5 b4 a7 bc f9 62 35 bc
       -0.043706175 0.003275106 -0.02047203 -0.01107096
000080 cf f5 8b bc a9 91 08 3c 58 b4 18 bd ac 1e e7 3b
       -0.017084984 0.008335509 -0.037281364 0.007053217
000090 5c c8 83 bc d1 c1 96 bc e1 a2 7a bd fb 38 2c bd
       -0.01608675 -0.018402966 -0.06119049 -0.04204653
0000a0 47 11 c5 bd 08 db c6 bc 61 d2 03 bd e2 95 4e 3c
       -0.09622436 -0.024274364 -0.032183055 0.012608977
0000b0 b2 2c aa bc f6 20 92 bc 4d 3c 33 ba 49 1c c3 bc
       -0.020773266 -0.017837983 -0.00068372936 -0.023817198
0000c0 90 7a 4a 3d 70 6b bc bc 75 41 c0 bc 79 22 7b bc
       0.04943329 -0.023000449 -0.023468712 -0.015328043
0000d0 f1 2e 88 bc c7 06 bd 3c 33 3d 20 bd 32 fd 9a bb
       -0.016623946 0.02307452 -0.039120864 -0.0047298903
0000e0 04 49 5e bd b2 0d 04 bc c2 2e 03 bd 1f 0a 28 bc
       -0.054268852 -0.008059906 -0.032027014 -0.010256319
0000f0 55 d7 5e bd 04 58 0b bd a5 9c ed bc 67 18 87 bd
       -0.054404575 -0.034019485 -0.029005358 -0.06596451

layer2.1.running_mean f4 [64]
000000 2a 84 80 bf b6 21 ae be 15 54 eb bd 63 cb 90 bb
       -1.0040333 -0.34010094 -0.11490647 -0.004418777
000010 67 cf 0d 3c 12 b3 15 bf 19 68 57 bf 3c c4 bf 3e
       0.008655406 -0.58476365 -0.84143215 0.37454402
000020 84 8a db be d9 2a 24 3f fd 34 f5 be 56 ca 29 bf
       -0.42879117 0.6412788 -0.4789199 -0.66324365
000030 75 3d 58 bf 6d cd 59 3e 4b 48 7b bf 92 ce 3f bf
       -0.84468776 0.2126977 -0.98157185 -0.74924576
000040 42 a4 bf bd 75 dc b8 be a3 25 3d bd 8f c5 75 bf
       -0.093575016 -0.36105695 -0.04617847 -0.96004575
000050 5c dc 8f be 00 02 5a 3e 31 84 1c 3e c5 eb 72 bf
       -0.28097808 0.21289825 0.15284802 -0.94891006
000060 20 36 b5 be 08 80 b9 bf 7e 31 21 bf cd 4b e0 be
       -0.35392857 -1.4492197 -0.62966144 -0.4380783
000070 90 8f 10 bf d6 4c 49 bf 95 5a 47 bf 58 c3 21 bf
       -0.5646906 -0.7863287 -0.7787259 -0.63188696
000080 a0 d6 57 bf 68 17 ba 3b f2 95 47 bf d4 0b 1b bf
       -0.84311867 0.00567906 -0.77963173 -0.60564923
000090 2c d3 de be d7 d6 8b bf ab 49 16 3f ac 69 08 bf
       -0.43520486 -1.0924939 0.5870616 -0.5328624
0000a0 3a 91 ba 3e 30 df 62 bf 34 9b 0c bf 1c f9 ad be
       0.36438924 -0.8862181 -0.5492432 -0.33979118
0000b0 61 db ba bf 59 76 49 bf 0f 3c 43 bf b2 80 5f be
       -1.4598199 -0.7869621 -0.7626352 -0.21826437
0000c0 a3 e5 89 be 85 be 5a bf cb e1 d6 be 97 d9 2d bf
       -0.2693301 -0.8544696 -0.4196914 -0.6791014
0000d0 8b 3e 56 be 0d a9 b1 be 84 41 fc be 8f e6 cb be
       -0.20922296 -0.34699288 -0.49268734 -0.3982434
0000e0 41 5b e1 be 1c b9 c7 3d 8b 1f 57 bf 0e 9d 00 3e
       -0.44014934 0.09752104 -0.84032506 0.12559912
0000f0 f1 1f 0d bf f9 49 8b be 48 ca 85 bf 37 57 b6 be
       -0.55126864 -0.27204874 -1.0452356 -0.35613415

layer2.1.running_var f4 [64]
000000 b9 e3 fb 3e a1 59 83 3e 3f a0 62 3e 8f 0f c1 3e
       0.49197176 0.2565432 0.22131442 0.37707183
000010 e1 bf c7 3e c1 c9 43 3f a2 72 1b 3f 46 81 a0 3e
       0.3901358 0.7647973 0.6072179 0.31348628
000020 d4 49 82 3e 9e c2 2c 3f 1c 5e 87 3e 27 e8 1a 3e
       0.2544695 0.6748446 0.26438987 0.15127622
000030 53 28 e1 3e 8d 10 d9 3e c8 56 b3 3e a2 f9 cb 3e
       0.43976077 0.4239544 0.35027146 0.39838892
000040 53 42 60 3e 78 ad c8 3e 46 28 74 3e 35 a5 a5 3e
       0.219003 0.39194846 0.23843488 0.32352605
000050 c3 0c 53 3f e7 12 18 3f c2 6b c3 3e 74 51 9c 3e
       0.8244135 0.5940384 0.3816815 0.30530894
000060 79 6f 8f 3e 3b 81 35 3f 2c 1d 59 3e 93 d4 21 3e
       0.28014734 0.70900315 0.21202534 0.15803747
000070 ac 34 55 3e fe 58 b3 3e d1 47 ba 3e 53 f6 2e 3f
       0.20820874 0.35028833 0.36382917 0.6834461
000080 a9 a1 eb 3e 7a 7d 7e 3e 4f aa 07 3f 35 70 bb 3e
       0.46021774 0.24852553 0.52994245 0.36609045
000090 3c 9c 91 3e d1 d2 87 3e 68 31 94 3e d4 93 34 3e
       0.2843951 0.26528028 0.28943944 0.17634517
0000a0 28 96 78 3e 6a 69 f5 3e c9 be d7 3e 57 65 5f 3f
       0.2427603 0.47931987 0.42137745 0.8726401
0000b0 e6 09 dd 3e 71 8b a4 3f 79 89 2d 3f 26 a9 05 3f
       0.43171614 1.2855054 0.6778789 0.52211225
0000c0 b3 5d d4 3e 4e 28 53 3e 3a 04 0f 3f c7 ad d8 3e
       0.41477737 0.20620844 0.55865824 0.42320082
0000d0 25 be 0b 3f 3d e8 ca 3e 5c 05 03 3f b3 a2 e0 3e
       0.5458701 0.3963031 0.5118005 0.4387413
0000e0 e4 30 4a 3e 45 9d 8e 3e fe 35 49 3e e1 a9 e7 3e
       0.19745213 0.27854362 0.19649503 0.45246795
0000f0 7f 21 96 3e 08 ef a1 3e 3e 49 d9 3e ed 2b a4 3e
       0.2932243 0.3162768 0.42438692 0.32064763

layer3.0.weight f4 [64, 64, 3, 3]
000000 cc e6 dd 3c 1c 50 42 3c 47 b1 76 3c 01 cc da bc
       0.027087592 0.01185992 0.015056915 -0.026708605
000010 10 12 33 bc 51 10 46 3d f6 98 0e 3d 12 f2 3f 3d
       -0.010929599 0.048355404 0.034813844 0.046861716
000020 58 6a 81 bc 8b 8b e9 3c 55 31 aa bc c2 eb a9 3c
       -0.015797779 0.028508922 -0.020775476 0.0207423
000030 a1 5d dc bc fa 79 e7 bb 95 ba b8 bc b6 e8 b3 3c
       -0.026900114 -0.0070641013 -0.022549907 0.021961551
000040 09 97 21 bd d9 b1 5c bd c3 b6 d3 bb b4 1a 8a bd
       -0.03945068 -0.053880546 -0.006460996 -0.067433745
000050 b1 09 8d bc 1b ac d5 bc 98 58 8e bd de ee 8e bc
       -0.017216535 -0.026083043 -0.06950492 -0.017447885
000060 16 cb da bc e4 88 ea bc da 22 1f bc 7d 67 c9 bc
       -0.026708167 -0.028629728 -0.009712899 -0.02458548
000070 ab 4d 7d 3b 5f 31 ee ba 31 47 b3 3c 4c 68 9d 3c
       0.003865103 -0.0018172673 0.021884533 0.019214772
000080 dc 40 01 bc 5f 46 d5 bc 16 9a 47 bc 58 12 bc bc
       -0.007888999 -0.026034532 -0.012182733 -0.022957966
000090 ef 18 1a bc 49 7e 89 3a 2d 50 e4 bc 02 56 51 bc
       -0.009405359 0.0010489906 -0.027870262 -0.0127768535
0000a0 0c 0e 5c bd f6 e0 82 bc 98 e2 f8 bc 68 e4 e9 bc
       -0.053724334 -0.01597641 -0.030381486 -0.028551295
0000b0 9d b3 57 bc 20 17 4c 3c 6a e9 09 bd e4 7c 89 3c
       -0.013165382 0.012456685 -0.033669867 0.016783185
0000c0 be fb 4e 3a 8f e3 e8 bc 38 a4 31 3b b4 34 de bb
       0.0007895789 -0.02842882 0.0027105939 -0.006781185
0000d0 34 a9 8e bc 05 40 cd 3a ae f0 1a 3d ee 2e 44 bd
       -0.017414667 0.0015659338 0.037827186 -0.04789632
0000e0 9b f5 30 3c 74 53 a9 3b 11 c4 09 bc 49 28 05 bd
       0.010800744 0.005167419 -0.008408562 -0.032509122
0000f0 7f 9f 54 3b 0c 9a c7 3c db cc 34 3d e2 f3 71 3c
       0.00324437 0.024365447 0.044140678 0.014767619
000100 7e 3d 37 3c cb 5b 26 bd de f3 f2 bc c9 88 b5 3c
       0.0111840945 -0.040614884 -0.0296573 0.02215995
000110 30 cd e6 3c 90 87 d2 bc 05 74 9c bb c2 8a d3 bc
       0.028174013 -0.025699407 -0.004774573 -0.025823
000120 8e 69 8a 3b 28 b0 f2 bc 23 79 3b bc d6 c5 48 3d
       0.004224009 -0.029625013 -0.011442455 0.049016796
000130 ed d2 23 bc bc f3 57 3b e4 79 fd 3a 60 d5 81 3c
       -0.009999019 0.0032951673 0.0019338694 0.015848815
000140 b5 ea de 3c 4e 72 53 bd 35 1e 8a 3c 7e 54 9a bd
       0.027211526 -0.05162268 0.016860107 -0.07535647
000150 c2 27 34 39 12 5c 8e 3c d7 d8 28 bc 55 5d c3 bc
       0.00017180949 0.017377887 -0.010305605 -0.023848215
000160 fd fd 87 3c 64 b1 3c 3c 81 15 b3 3b 78 0a 76 3b
       0.016600603 0.011516903 0.00546521 0.003754286
000170 f3 83 9c bc f3 e3 03 3c ac 93 a5 bb 74 69 00 bb
       -0.019105887 0.008049953 -0.0050530042 -0.0019594105
000180 da 21 4c 3c d9 0c f5 bc e7 5a 4c bc 5d 17 d2 bb
       0.012459243 -0.029913353 -0.012472845 -0.0064114765
000190 c3 25 8e bc 13 0a cc 3c 3d 33 dc 3c 24 db 5f bc
       -0.01735199 0.024907148 0.026879901 -0.013663087
0001a0 05 cb a6 bc ec 01 14 ba ed a1 f8 3c 98 c6 b0 bb
       -0.02036048 -0.00056460383 0.03035065 -0.005394768
0001b0 90 a6 5d bc fe 3d d6 3c d7 c6 13 bd 27 e8 d7 bc
       -0.013528481 0.026152607 -0.0360783 -0.026355816
0001c0 45 f0 02 bc 31 1e 04 3d b1 0b e7 ba c2 1f 5b 3c
       -0.007991855 0.032255355 -0.0017627386 0.013374271
0001d0 53 1d f1 3c 89 a1 f9 3c 17 ca 6c bd 0d e0 9f bd
       0.029432928 0.030472534 -0.057809915 -0.07806406
0001e0 66 74 eb 3c e6 38 0e bd a2 46 00 3c b5 29 8d bc
       0.028742027 -0.03472223 0.00782934 -0.017231802
0001f0 25 97 08 3c 29 80 af bc a1 9d 1a 3d ae c3 10 3d
       0.008336817 -0.021423416 0.037747983 0.035342865
000200 d0 03 ac 3c 48 da e6 3b dd 6b 58 3d 0b a1 0c bc
       0.020997912 0.007045064 0.05283724 -0.0085833175
000210 c2 cd 41 3c 1c 4f 22 bc b7 37 20 ba 40 8a a1 bc
       0.011828842 -0.009906556 -0.0006111818 -0.019719243
000220 c1 6a b8 3b 56 75 e7 3c 88 f7 6a bb 45 0c 31 3d
       0.0056279604 0.028254192 -0.0035853107 0.04322459
000230 7e 40 dc 3c ea 6c 80 3b 30 32 16 3c 94 d8 44 bd
       0.026886221 0.0039192336 0.009167239 -0.048058107
000240 51 a6 62 bc 3e 58 0b 3d b8 6d 2d bc 04 4f e2 bc
       -0.013833598 0.0340197 -0.010585241 -0.027625568
000250 58 28 f1 3b 30 73 05 bb 54 ff cc 3c 1a 8e b0 3b
       0.0073595457 -0.0020362847 0.025024094 0.0053880336
000260 4d 40 88 bc ae c1 ff 3c e9 9a 38 bd 65 e6 71 bc
       -0.016632224 0.031220283 -0.04506961 -0.014764403
000270 b4 d5 22 3c 00 67 aa 3c a1 26 b9 bc 97 a5 00 3d
       0.009938646 0.020801067 -0.022601428 0.03140792
000280 57 83 c1 bb ee ec f0 3c 41 61 88 3c aa f3 0e 3c
       -0.0059055495 0.029409852 0.016647937 0.008725086
000290 27 38 16 bd 60 8b dd 3b 6b 4c 22 3b 4f 0f 94 bd
       -0.036674645 0.0067609996 0.0024764787 -0.072294824
0002a0 58 6a 57 bd 9c 0c 37 bd 0c f5 c3 3b 0c 8a ae 39
       -0.05259165 -0.04468976 0.0059801396 0.0003329072
0002b0 3d 2d 2f bc 56 3b 25 3d 40 61 74 3b 7f 81 41 3c
       -0.010691938 0.04033979 0.003728941 0.011810659
0002c0 d8 a9 5b 3c 05 e4 e0 3c 8e 14 8d bc 3e 47 3d bc
       0.013407193 0.027452478 -0.017221715 -0.01155263
0002d0 e0 82 17 3c 5a dd ae bc a8 6f 83 3c 59 17 2c bd
       0.009247512 -0.021345783 0.016044453 -0.042014454
0002e0 ff 18 88 bc 37 f1 0f bd ef 3b 84 bc cc 87 4e 3c
       -0.016613482 -0.03514215 -0.01614186 0.012605619
0002f0 d1 9a 21 bd 07 df 0b 3d f8 ce d8 3c 8a 49 16 bc
       -0.039454285 0.034148242 0.026465878 -0.0091728065
000300 9b 4c 96 bc 13 15 8e 3b 68 19 0a 3c 6b be 03 bc
       -0.018347075 0.0043360083 0.008428909 -0.008041005
000310 8b 6a 5d bd 01 5d 25 3c 0c 2f 04 bd b1 d0 95 bc
       -0.054056685 0.010092975 -0.03227143 -0.018287988
000320 ae dc b4 bb a3 2a 69 b7 04 69 7a bc 53 4f 4a bd
       -0.005519471 -1.3897809e-05 -0.015283827 -0.049392056
000330 d2 d8 8c bd d1 43 28 3c c7 89 53 3c 5b 66 a8 bc
       -0.06877293 0.010270075 0.012911267 -0.02055662
000340 53 d8 06 3d c4 4b e7 bc a5 dc 2c bc 2a 1d 18 3d
       0.032921147 -0.02823437 -0.010550653 0.037137188
000350 30 53 20 bc 77 be 0d 3d 12 bb 57 bc 1b 4c 7c bc
       -0.009785458 0.03460547 -0.01316716 -0.015399004
000360 5d a5 16 bb d4 80 8f bd 9a 5c a1 bc b3 be fa b8
       -0.0022986748 -0.07006994 -0.019697476 -0.000119564495
000370 5f aa 24 bd 9f 1b ee bc 66 80 80 bd 50 c7 01 3d
       -0.04020154 -0.029065905 -0.0627449 0.03168422
000380 aa b9 d9 bc 35 e0 e7 3c 4c f7 22 3c c2 b0 89 bc
       -0.02657779 0.028305152 0.0099466555 -0.016807918
000390 f7 42 ee bc 1e 27 66 3d 1d 15 84 bc cb d6 f4 bc
       -0.029084666 0.05618965 -0.016123349 -0.029887578
0003a0 94 25 36 3b aa bf cc bc 2d 0e 6e 3a 9a e2 1f 3d
       0.0027793394 -0.024993736 0.0009081092 0.039034463
0003b0 4b c9 2d bc b6 56 52 3d 57 75 8f ba 08 f1 86 bc
       -0.010607074 0.051352225 -0.0010945004 -0.016472355
0003c0 36 a2 f3 bc dd a8 fd 3b 21 24 1f 3c 0c a8 19 bd
       -0.029740434 0.0077410773 0.009713204 -0.037513778
0003d0 92 b4 a4 3a c4 ca 27 3d 37 1b b3 3c a5 79 94 3c
       0.0012566021 0.040964857 0.021863563 0.01812441
0003e0 64 ab 64 3a 29 f0 e0 bc d6 72 e3 bc 08 df ad 3c
       0.0008723049 -0.027458267 -0.027764719 0.021224514
0003f0 d7 d5 17 bc fc 52 be bc e9 69 e9 bc d7 0c 6f 3b
       -0.009267292 -0.02323293 -0.028492885 0.003647616

layer3.0.bias f4 [64]
000000 69 e2 09 bc 72 03 25 3c a3 6f 7a bc 7a 26 17 3c
       -0.008415797 0.010071622 -0.015285405 0.009225482
000010 91 f2 15 3d 99 6e 67 bb 19 43 14 3d 7b e7 ce ba
       0.036608282 -0.0035313724 0.0361968 -0.0015785539
000020 d3 83 d3 bc 9e 14 a6 3b 45 d2 42 bb 71 75 08 bd
       -0.025819695 0.0050683757 -0.0029727381 -0.033315126
000030 49 19 92 bc 93 1d 0a bc 76 04 69 bc 81 9c ea b9
       -0.017834323 -0.008429903 -0.014222255 -0.00044748563
000040 9a fe fc 3c 31 10 99 3c 92 11 8c 3c 98 d3 ec 3c
       0.030883122 0.018684478 0.017098222 0.02890949
000050 af e1 03 bd f8 b3 d5 bc 42 c2 64 bc fd e7 d2 bc
       -0.03219765 -0.026086792 -0.01396233 -0.025745386
000060 a9 08 e4 3c ea bf 92 3c 98 61 a8 3c 82 31 c6 bc
       0.02783616 0.017913777 0.020554349 -0.024193529
000070 75 e3 55 3c 66 f8 2a 3b 9a 2f a0 3c 67 99 95 3c
       0.013054718 0.0026087998 0.019553948 0.018261625
000080 f9 6f 00 3d d9 22 0a 3c 9e 3e b5 3c 52 30 89 3b
       0.031356785 0.00843116 0.022124585 0.0041866684
000090 03 15 21 3d b7 44 22 bd 91 87 b8 3b 4b 46 13 3d
       0.03932668 -0.039616313 0.005631395 0.03595571
0000a0 c0 ae 0c bd 96 14 cd bc 8d 93 61 3c 81 56 0c bd
       -0.034346342 -0.02503423 0.013768089 -0.034262184
0000b0 ad 82 14 3c 32 a8 29 3a 5c 07 aa b9 ab a5 f1 3c
       0.009064359 0.00064719014 -0.0003243041 0.029497942
0000c0 7e 34 73 bc 2d f8 bc bc 20 85 1c 3d 44 12 eb bc
       -0.014844058 -0.023067558 0.038212895 -0.028695233
0000d0 03 63 e9 3c b7 7e 4c 3c 7e 86 73 bc d3 05 15 bd
       0.028489595 0.012481383 -0.014863608 -0.036382508
0000e0 a1 ee 56 bc 2c 81 bf 3b 81 71 ad bc 5f d5 0f 3d
       -0.013118417 0.005844256 -0.021172287 0.035115596
0000f0 71 4c 97 3b e6 11 c7 bb 4a 3b 70 3c 2c d3 00 bd
       0.004617267 -0.0060751317 0.014662573 -0.03145139

layer3.1.weight f4 [64]
000000 c3 13 7c 3f ec 98 83 3f ef 18 75 3f 6d e8 79 3f
       0.98467654 1.0281043 0.9574117 0.9762028
000010 7d 1d 80 3f 87 d4 82 3f 74 f6 7c 3f 79 c7 73 3f
       1.0008999 1.0221108 0.9881356 0.95226246
000020 0e 8b 7d 3f 54 b2 88 3f 34 44 78 3f 65 19 85 3f
       0.99040306 1.0679421 0.9697907 1.0398375
000030 00 de 84 3f 1b 90 82 3f fe e9 7a 3f 79 66 7e 3f
       1.0380249 1.0200227 0.98013294 0.9937511
000040 e7 a7 83 3f 47 6e 88 3f e7 3f 6a 3f 05 99 82 3f
       1.0285615 1.0658654 0.9150376 1.0202948
000050 25 7b 87 3f 6b ec 72 3f a2 dc 82 3f 07 27 81 3f
       1.0584456 0.94891995 1.0223582 1.0090035
000060 97 9d 79 3f f9 7b 82 3f 91 b4 80 3f 2b 68 85 3f
       0.9750609 1.0194083 1.0055104 1.0422415
000070 3e d6 7f 3f be ac 75 3f 5f b0 82 3f 8b 48 88 3f
       0.9993628 0.9596671 1.0210074 1.0647138
000080 b9 96 82 3f 11 fc 77 3f ce ce 7b 3f 5f 46 83 3f
       1.0202247 0.96869 0.98362434 1.025585
000090 01 20 7e 3f ff 9e 75 3f f5 32 79 3f e2 0d 77 3f
       0.99267584 0.95945734 0.9734338 0.9650556
0000a0 19 b4 7b 3f fb 33 74 3f fe 3d 7e 3f ce f9 7f 3f
       0.9832168 0.95391816 0.9931334 0.99990547
0000b0 72 a2 85 3f aa 3d 7b 3f 31 05 81 3f 93 00 76 3f
       1.0440199 0.98140967 1.0079709 0.96094626
0000c0 26 b0 73 3f 50 4c 7e 3f 79 5a 7f 3f da aa 7a 3f
       0.95190656 0.99335194 0.99747425 0.9791695
0000d0 c5 a1 77 3f d6 d8 7e 3f d8 8e 80 3f 23 98 8a 3f
       0.96731216 0.99549615 1.0043592 1.0827678
0000e0 cb b3 77 3f d8 8c 83 3f 7f ff 77 3f 6f e7 75 3f
       0.9675872 1.0277357 0.9687423 0.96056265
0000f0 ce f2 77 3f 1a ca 81 3f 39 81 7e 3f a2 06 7c 3f
       0.96854866 1.0139802 0.9941593 0.9844762

layer3.1.bias f4 [64]
000000 33 d8 8e bd a0 0c 81 bd fb e7 05 bc c8 b9 52 bd
       -0.069748305 -0.06301236 -0.008172984 -0.051446706
000010 8b d8 80 bd 06 29 80 bd 4b 87 81 bd 3d 5e b3 bc
       -0.06291302 -0.062578246 -0.06324633 -0.021895522
000020 0a fe 89 bd e5 bd ee bd 81 78 43 ba 6e ff a1 bd
       -0.06737907 -0.11657313 -0.0007456616 -0.079100475
000030 5b e9 2e bd de 5f 84 bd 2a 94 fd bc e5 4c 60 bd
       -0.042703014 -0.06463598 -0.03095444 -0.054760832
000040 bc 77 1b be 2c 7c b5 bd cc 14 2a bd 47 d5 2d bd
       -0.15182394 -0.088615745 -0.04152374 -0.042439725
000050 af 18 a7 bd 1d 6a 34 bc 6e 1b 21 bd 47 90 12 bd
       -0.08159005 -0.0110116275 -0.0393328 -0.035782125
000060 0e 38 65 bd 3b d1 83 bd 66 4c 46 bc e5 ab aa bd
       -0.05596166 -0.06436392 -0.012103176 -0.083335675
000070 80 aa 69 bd 02 7b e9 bb 88 df a8 bd 31 07 e7 bd
       -0.057047367 -0.0071252594 -0.0824576 -0.112806685
000080 50 32 9d bd a2 f4 3f bd b1 16 ad bc a9 12 83 bd
       -0.07675612 -0.04686416 -0.021128984 -0.064000435
000090 00 cd c2 bd ae e2 d8 bc 77 d4 04 bd 8b be 0b bd
       -0.09511757 -0.026475277 -0.032429185 -0.034117263
0000a0 94 37 3e bd 84 89 c9 bc 2f df 73 bd 6e 88 60 bd
       -0.046439722 -0.024601705 -0.059539016 -0.05481761
0000b0 4a 6c d4 bd c4 85 35 bd 20 50 08 bd 58 70 25 bd
       -0.10372217 -0.044317022 -0.03327954 -0.040390342
0000c0 aa 57 07 bc 3c 6f 8a bd dc c8 70 bd c2 4b 18 bd
       -0.008260647 -0.067594975 -0.058785304 -0.037181623
0000d0 0b 99 c6 bc 96 5d 13 bd ee 10 50 bd 84 e9 9b bd
       -0.024242898 -0.035977922 -0.050797395 -0.07612899
0000e0 d9 ee 5d bd 62 a1 9b bd 0b 45 a0 bc 98 ae aa bc
       -0.05418286 -0.07599141 -0.019564172 -0.020835206
0000f0 2e b0 7c bd 38 7a 71 bd e0 38 9b bd a4 f0 38 bd
       -0.061691456 -0.058954448 -0.075792074 -0.045151368

layer3.1.running_mean f4 [64]
000000 cf 64 56 bf 53 dd 18 bf 9b f6 36 bf 3e eb 56 be
       -0.8374757 -0.59712714 -0.7147004 -0.20988175
000010 c6 8f 38 bf 9b 53 04 3d d4 bb 50 bf 04 75 6e bf
       -0.7209438 0.032306295 -0.815366 -0.931473
000020 46 6d f7 be 29 ae 71 3d 1d c7 ab be 79 da 39 bf
       -0.48325557 0.059003983 -0.3355035 -0.7259899
000030 2c 4a 22 bf 01 cd 40 bf 5a 2d 22 bf 8f 41 bb be
       -0.6339443 -0.7531281 -0.6335045 -0.36573455
000040 6e 94 f2 3e e3 e2 4b 3e 17 5a 26 bf e9 b5 10 bf
       0.47378868 0.19910769 -0.64981216 -0.5652757
000050 e3 3b 21 bf f2 af f1 be b3 98 12 bf 87 ad 16 bf
       -0.62982005 -0.47204548 -0.5726425 -0.5885853
000060 bc 76 08 bf ca 07 20 bf e0 17 36 bf a9 15 a2 be
       -0.53306174 -0.62511885 -0.7113018 -0.3165715
000070 c7 f1 1c bf 5d c6 17 bf 18 89 0b bf b1 15 4b bf
       -0.6130642 -0.59287053 -0.54506063 -0.79329973
000080 1f ff f7 be b2 4c 2b bf 28 19 1b bf 60 e8 06 bf
       -0.4843683 -0.669139 -0.6058526 -0.52698326
000090 6b 3b b7 3d b2 a7 f0 be e5 6b aa be 49 2f 16 bf
       0.0894688 -0.4700294 -0.33285442 -0.586659
0000a0 0a 4f 16 bf fb 05 d7 be 8f 78 18 bf 11 3f 2d bf
       -0.58714354 -0.4199675 -0.5955896 -0.67674357
0000b0 d8 56 8f be a3 35 b5 be 16 3c 3d bf 39 7d 0c bf
       -0.27995944 -0.35392484 -0.7391981 -0.54878575
0000c0 44 f4 01 bf 95 90 3f bf bc 3a 27 bf bc a0 46 bf
       -0.50763345 -0.7482999 -0.65323997 -0.7758901
0000d0 88 97 23 bf 65 39 4b bf 67 30 fa be bc 2b 1d bf
       -0.63903093 -0.7938445 -0.48865053 -0.6139486
0000e0 5c 27 0a bf c8 ca b5 be a0 0b 2f bf 32 77 29 be
       -0.5396631 -0.35506272 -0.68377113 -0.16549376
0000f0 4c ac 3a be 30 d1 df be 29 bd 17 bf 6e fc 9d be
       -0.18229789 -0.43714285 -0.5927301 -0.3085665

layer3.1.running_var f4 [64]
000000 7f c3 c0 3e f8 8b 30 3e ef f8 20 3f 6b 56 ba 3e
       0.37649152 0.17240894 0.6287984 0.36394057
000010 18 88 9a 3e 4f 09 8b 3e 2f 05 7a 3e 30 dd dc 3e
       0.30181956 0.2715554 0.2441604 0.43137503
000020 8a 1d e9 3e be 52 36 3e 8d d2 2f 3f 13 3f 55 3e
       0.4553035 0.17805001 0.6868065 0.20824842
000030 a6 e3 69 3e 46 d6 99 3e ac f9 b1 3e 33 7d 93 3e
       0.22840747 0.3004629 0.34760797 0.28806457
000040 41 ec 5a 3e 39 95 45 3e 86 54 9f 3e 5b 5b 8b 3e
       0.21379186 0.19295205 0.31119174 0.27218136
000050 5e 8a 46 3e b6 12 ad 3e 6c c0 2d 3e 55 b4 41 3e
       0.1938872 0.33803338 0.16967934 0.18916447
000060 d6 1d 9c 3e 14 ca 94 3e 36 d9 4e 3e 85 b8 23 3e
       0.30491513 0.29060423 0.20200047 0.15988357
000070 8f 7a 6e 3e 0d 83 a2 3e 0d 7c 69 3e cc 25 44 3e
       0.2328894 0.3174061 0.22801228 0.19155043
000080 d7 0a 6e 3e d0 51 6d 3e 5c a9 ee 3e c7 5b 92 3e
       0.23246323 0.2317574 0.46613586 0.28585646
000090 7d d4 91 3e f8 7f c8 3e 53 42 c7 3e 04 2d 4d 3e
       0.28482428 0.39160132 0.3891779 0.20036703
0000a0 36 cb bd 3e 63 c6 a0 3e bb ac a8 3e d0 d8 46 3e
       0.370691 0.31401357 0.32944283 0.19418645
0000b0 a6 a5 26 3e d7 1f e8 3e 22 b5 42 3e ec dc 6d 3e
       0.16274127 0.45336792 0.19014409 0.23228806
0000c0 60 e1 8d 3e bf 0c af 3e ae 2c 73 3e b4 05 a9 3e
       0.2771101 0.34189412 0.23747513 0.33012164
0000d0 48 8e f1 3e 07 59 b0 3e 64 1d aa 3e 64 f4 3a 3e
       0.47178864 0.34442922 0.33225548 0.1825729
0000e0 79 73 90 3e 26 56 27 3e 36 b6 c7 3e 7f 53 34 3e
       0.282131 0.16341457 0.39006203 0.17609976
0000f0 0b 01 a2 3e 61 07 5f 3e 36 0f 78 3e 24 4a af 3e
       0.3164142 0.21780159 0.24224553 0.34236252
