FAST 3D-CNN P-NET/model/ZGFF/ZGFF_proto_2d-5shot3.pth (torch, 491287 bytes, 24 tensors)

layer1.0.weight f4 [64, 15, 3, 3]
00000000: 8291 d93a 079f 713d 8c95 d43d 6b9e 51bd
00000010: e772 3e3d 8128 893d 20e4 bfbc 1caf 43bd
00000020: 285e afbd 4834 60bd d24b 303b e850 873c
00000030: 8d90 183d e7a2 2b3d 97ac 5cbc 5095 2cbd
00000040: f61a ae3d 3745 463d 420d c6bd 59ca aebd
00000050: a587 3b3d dc76 9dbd 2344 a0bb af00 163d
00000060: ea68 3cbd a04b ec3c f568 923d 91f6 7abd
00000070: 1a61 b33c 92ea 993a 1493 803d ceaa 4b3d
00000080: 2248 8a3d bbcf 803d 325f cf3d fe67 18bc
00000090: 197b efbb 6a2c 80bc 3be9 b0bd 0ee8 5fbd
000000a0: c1ca dc3c 3f06 3e3d 46b9 dbbc 8cad 0b3d
000000b0: 1f84 85bd 96bc 62bd 4752 463d bd64 90bd
000000c0: 94da 90bb 5f94 353d 72d0 a73d 037e d33c
000000d0: 3d01 443d 12dc a73d 6caa ea3c 4a8e 6abc
000000e0: 9c1d 223d 26ed 30bd 5736 cfbd 3ae4 03bd
000000f0: 1d12 8a3d 7a85 3c3a 324d 8dbc f250 9ebc
00000100: d9f2 843d 1c55 2abd 4958 453d 5bc6 14bd
00000110: 81f4 c4bb fe7e ddbc ced1 a33d 6780 7f3c
00000120: a84e 943d 8524 123d 3240 6dbd f98e 0cbc
00000130: 4be0 d93c 7e8a bbbd bed3 983d 4f9f 87bd
00000140: 8bc2 813d 97a9 42bb e7ab b5bd 3ae9 3fbd
00000150: 8694 9fbd 1921 3abd 915a 083d f32b 983d
00000160: 1514 363d 8f47 2b3a c144 853c 13f1 84bd
00000170: 7642 a83c d92b 8aba 420a fbbc 544c 433c
00000180: 8859 8ebc 76b3 543d c27d a13d 9aca 56bc
00000190: 80d6 94bd c527 79bd 720e d6bc 655c c6bd
000001a0: 2a36 6f3c d882 ce3c 27ed 5bbd a4f6 8dbd
000001b0: 894f bd3b 15a4 3d3d fb89 893d 5935 71bd
000001c0: 03ba 613d d9d3 0e3c 1bb8 aa3b 1de3 853d
000001d0: ee51 aa3d 470d 81bd 6718 373a 244e 5fbc
000001e0: 5524 c13a b67e 44bb 9388 b7bd 1f49 60bd
000001f0: 29f4 19ba 9566 d6bc baeb e8ba 02b5 b9bd
00000200: 264b 493d 5165 f93c 87f5 88bd 5c1c 56bd
00000210: e131 113b 7ade 033d b9e0 4ebd 188e 1fbc
00000220: a7b0 9abb b5bd f43c 0c9a 94bd 09f9 273d
00000230: 8b8b 983b 590a 203d 8ed0 b0bc 23f9 39bc
00000240: 274b 96bd 79d9 0f3d be54 92bd d041 99bd
00000250: cd54 f63b 8130 aa3b 6c59 003c 7d8c 66bd
00000260: e44f 3bbd 4f43 5a3d 6647 ed3d 3bbe 973d
00000270: a091 d73d d710 e43c 3676 873d 84ad 173d
00000280: 83b2 12bd 5e7f 923d dd9b 09bd 0b44 823b
00000290: df0a c3bd 41d9 6abd 5153 00bd 8030 213b
000002a0: c55a 99ba fc91 d1bd b87b 69bc b5dc 033d
000002b0: d094 2d3d e69e 8fbd 2221 e73c bb3b a03d
000002c0: 86a5 b93c 4ff8 bbbc 2733 a0bd ee08 9dbc
000002d0: 2048 963d 5a00 ffbb 69e1 fa3b ef5e 6a3d
000002e0: 4270 99bd 4819 853d 0304 8d3d a0fb a8bc
000002f0: 33b3 053d 6483 40bc a70f 8c3d d033 153b
00000300: d4b1 99bd 4c3b 383c ba1a 8b3d b25e 6dbb
00000310: 6df6 33bd fbe7 143c b39a a8bd 756e b0bd
00000320: 78a4 0c3d 86bc 51bb 3d3f a1bc 26a5 643d
00000330: dba9 3ebd 3668 86bd e350 f93c 29ff 1f3d
00000340: a4bf 843d 29e9 3f3d 16a0 aa3d a8fa fbbc
00000350: 2152 533d 7924 d43d ff6d 5a3c c895 7dbc
00000360: 3412 b1bd 04fd 90bd d17d a9bc 804f af3c
00000370: 5184 033c 38ae 8c3c 8299 3abd e33b e9bc
00000380: ee0e be3b 7cbf 523d cbf0 023d a902 6b3d
00000390: b614 fe3a c95f 3ebd 7264 56bd 1230 793d
000003a0: 4a1c 943d f2f3 73bd c495 473b 1af7 28bc
000003b0: 0997 a1bd e373 62bd 4990 b03c 666e 69bd
000003c0: ed8d e13c 277b 783d a3ed 923d 80e7 083d
000003d0: 48f8 9bbd 0f78 cdbc a4fd 84bd e28f b93c
000003e0: cfd0 93bd 4754 21bc 3b7c a13c 2778 c13b
000003f0: deab a339 699c 253d e809 aabc b573 b0bd
0.0016599151 0.05898955 0.10380086 -0.05117647 0.0464963 0.06697179 -0.023424208 -0.04777442
-0.08562881 -0.05473736 0.0026900661 0.016518071 0.03724723 0.041903403 -0.013468883 -0.042134583
0.08501236 0.048405852 -0.096704975 -0.085346885 0.045783658 -0.07688686 -0.004890935 0.036621746
-0.04599849 0.028844655 0.07148925 -0.0612703 0.021896888 0.0011742881 0.06278053 0.04972344
0.067520395 0.062896214 0.10125579 -0.009302137 -0.0073083756 -0.015646178 -0.08638235 -0.054664664
0.02695215 0.046392675 -0.026821744 0.034101054 -0.06519341 -0.05535563 0.04841831 -0.07050464
-0.004420588 0.04433095 0.08194055 0.025816923 0.047852743 0.08196272 0.028645717 -0.014316151
0.03957902 -0.043194912 -0.101177864 -0.032200076 0.06741736 0.00071915204 -0.017248724 -0.019325707
0.06491632 -0.041585073 0.0481799 -0.03632198 -0.0060105924 -0.027038094 0.079990014 0.015594578
0.07241565 0.03567936 -0.05792255 -0.008579009 0.026596209 -0.09157275 0.074622616 -0.066221826
0.06335934 -0.0029703134 -0.088706784 -0.04685328 -0.077920005 -0.04544172 0.033289496 0.07430258
0.044452745 0.00065337954 0.016268136 -0.06491294 0.020539504 -0.0010541632 -0.03064454 0.0119200535
-0.017376676 0.05192896 0.078853145 -0.013109827 -0.07267475 -0.060828943 -0.026129935 -0.096855916
0.014600316 0.025208876 -0.053692963 -0.069318086 0.0057773036 0.04629906 0.06715771 -0.058888767
0.055109035 0.008717501 0.0052099354 0.06537459 0.08316408 -0.063013606 0.0006984532 -0.01362947
0.0014735559 -0.0029982752 -0.08961596 -0.054757234 -0.00058728695 -0.026171962 -0.0017770447 -0.090677276
0.049143933 0.03044382 -0.066874556 -0.05227314 0.0022154974 0.032194592 -0.05050728 -0.009738468
-0.0047207656 0.029875616 -0.072559446 0.041008983 0.0046553067 0.03907237 -0.021583822 -0.011350903
-0.07338553 0.035119507 -0.071450695 -0.07483256 0.0075174333 0.0051937704 0.00783382 -0.056286324
-0.045730487 0.053286847 0.11585884 0.074093305 0.10525823 0.027840061 0.06614344 0.03703071
-0.035814773 0.071531996 -0.03359591 0.0039753965 -0.09523558 -0.057336096 -0.031329457 0.0024595559
-0.0011700025 -0.102329224 -0.014250688 0.032192905 0.042378247 -0.07012729 0.028214041 0.07823893
0.022661936 -0.022945551 -0.078222565 -0.019169297 0.073379755 -0.0077820243 0.0076562655 0.057219442
-0.074921146 0.06498963 0.06885531 -0.020627797 0.0326416 -0.011750076 0.06838923 0.0022766478
-0.07504621 0.011244606 0.06792207 -0.0036219773 -0.04393618 0.009088512 -0.082326315 -0.08614818
0.034336537 -0.0032003238 -0.019683475 0.05582156 -0.046548706 -0.065628454 0.030434078 0.0390617
0.06481865 0.04685322 0.08331315 -0.03075917 0.051591996 0.10358519 0.013331889 -0.015477605
-0.0864605 -0.07079509 -0.020689877 0.021400213 0.008027152 0.017172918 -0.045556553 -0.028470939
0.0058001196 0.051452145 0.03196792 0.057375584 0.0019384834 -0.046478067 -0.052341886 0.06083686
0.07231958 -0.059558816 0.0030454258 -0.01031282 -0.07890136 -0.0552863 0.021553176 -0.05699005
0.027533496 0.060664322 0.07174232 0.0334239 -0.07615715 -0.025081662 -0.064936906 0.022651616
-0.072175615 -0.009846753 0.019712558 0.005904216 0.00031217834 0.040432367 -0.020756677 -0.08615819

layer1.0.bias f4 [64]
00000000: 63e0 613f 6a57 4e3f 3537 5c3f dd0d 533f
00000010: f17d 513f e388 6d3f 9477 733f 168c 583f
00000020: 2f8c 6a3f c197 543f 200f 613f 3771 663f
00000030: eee3 503f f2f2 4b3f 2c6f 723f 1687 6b3f
00000040: 8537 493f dd20 573f 9119 663f 2e9b 643f
00000050: e0b0 6b3f f11b 713f 7b31 6f3f 12d6 5d3f
00000060: 9008 673f be11 593f 0755 623f a13f 6a3f
00000070: 17ac 5e3f 8d8c 693f bc80 5c3f 644d 803f
00000080: 8b48 4c3f edff 533f 5e58 613f 207b 423f
00000090: 9223 703f 4b57 583f 4c71 6b3f 5a85 503f
000000a0: e72b 593f 46a5 573f 3210 5f3f 995d 5c3f
000000b0: dfdd 593f 4db4 5b3f 1296 523f 8e82 773f
000000c0: 52ef 6a3f e798 5a3f 3de5 573f 6448 523f
000000d0: 69ae 513f 1cce 573f e0d0 573f 5c19 633f
000000e0: 21a7 4c3f 3c36 683f d054 593f f9c0 613f
000000f0: 9358 6e3f a6d8 563f c179 563f 6570 473f
0.8823301 0.80602133 0.8602174 0.8244303 0.81832796 0.92787 0.95104337 0.84588754
0.91620153 0.8304406 0.87913704 0.900165 0.81597793 0.7966758 0.94700885 0.92003
0.7860034 0.8403452 0.8988276 0.89299285 0.92066765 0.9418326 0.93434876 0.8665477
0.9024744 0.847927 0.8841099 0.9150334 0.8698134 0.9123009 0.86133933 1.0023618
0.7979819 0.82812387 0.8802546 0.75969124 0.93804276 0.845082 0.9196975 0.8145348
0.84832615 0.8423656 0.8713409 0.8608032 0.85104173 0.8582199 0.8226024 0.96683586
0.91771424 0.8538956 0.84334165 0.8214171 0.81906754 0.8429887 0.8430309 0.8871057
0.7994252 0.90707755 0.8489504 0.8818508 0.93103904 0.8392433 0.8377953 0.77905875

layer1.1.weight f4 [64]
00000000: b8cf 813f 05dd 833f fb23 7f3f 4272 7f3f
00000010: 6468 813f 904d 813f ded8 7d3f e9ae 7e3f
00000020: e316 813f 4631 813f 1c82 7c3f 0710 7f3f
00000030: caad 7b3f 399a 813f 5da6 7d3f c6cd 833f
00000040: f018 7f3f f71e 7a3f b7ed 803f 7a0c 783f
00000050: e34c 7f3f 9402 813f e49a 813f bd62 823f
00000060: faf1 783f 23df 813f f869 7f3f d07d 803f
00000070: b902 7f3f 3e98 7d3f 0a16 7e3f 86c2 803f
00000080: 8ae3 803f 4f04 793f ab38 843f b0d6 823f
00000090: a638 863f 17d7 7b3f a695 7d3f 215f 7c3f
000000a0: 6546 7b3f 2d28 803f 118d 7e3f 2a3e 813f
000000b0: 29ef 7c3f 55d5 783f c48e 7d3f c477 7d3f
000000c0: 121c 803f dc72 7b3f 8ac7 7f3f 4d0c 7e3f
000000d0: c43a 7c3f f47e 7b3f 5d08 803f ae57 7c3f
000000e0: ff40 813f 257e 803f b49d 7f3f 1d60 7f3f
000000f0: e5d3 7f3f 8f4c 803f 746c 7d3f d274 813f
1.0141516 1.0301825 0.99664277 0.9978372 1.0109982 1.0101795 0.9915904 0.9948564
1.008511 1.0093162 0.9863603 0.9963383 0.98312056 1.012519 0.99081975 1.0297172
0.99647427 0.977035 1.0072545 0.9689404 0.99726695 1.0078912 1.0125394 1.0186383
0.97244227 1.0146221 0.9977107 1.0038395 0.9961353 0.9906043 0.9925238 1.0059364
1.006944 0.972722 1.0329794 1.0221767 1.0486038 0.98375076 0.9905647 0.98582655
0.9815429 1.0012261 0.99434 1.0097096 0.9880243 0.9720052 0.9904597 0.9901087
1.0008566 0.98222136 0.9991385 0.9923752 0.9852717 0.9824059 1.0002552 0.9857129
1.009796 1.0038496 0.9985001 0.9975603 0.999327 1.0023364 0.9899361 1.0113776

layer1.1.bias f4 [64]
00000000: 581b a33b 0094 953c 92bf 943c e3c5 e1bc
00000010: bc73 bdbc e17e 84bc 5dff fc3c e1ce 71bb
00000020: 61ca a83b 7ecf 2abd e83b a8bc b24e 14bd
00000030: 2221 fc3c 91d5 c2bc 14c8 863c 965d 7c3a
00000040: f7b1 33bd 2538 59bb 8088 663a 9b04 cebc
00000050: 2cf3 ff3c b59e 4dbd 2630 25bd 0940 09bd
00000060: a34f 80bd e28f 19bd 06e7 193c c84a 13bd
00000070: 70dc 66bd 816d 85bd 748b 39bd 7981 f4bb
00000080: f343 9dbc ad46 a03c f94f 1cbd 625f b5bc
00000090: 0cbf 49bd 9d15 2fbd e951 883c 38ac 01bc
000000a0: d1ec 5bbd d98d 16bd 98f6 743c 5406 533b
000000b0: 781c 0ebd bf3b 973c 0484 98bc f16a d0bc
000000c0: 6cc3 533c 969a 4a3d 4f61 41bd fa11 013d
000000d0: 2a03 7abd f3dd 263c 60f8 e8bb e6ea 39bc
000000e0: 8fc4 dd3b adfb dbbc 01b6 6d3c 8f3c d9bc
000000f0: fe48 9bbd 1f4b 893c f292 26bd a34d 8dbd
0.004977625 0.018259048 0.018157754 -0.02756018 -0.023126476 -0.016173782 0.030883485 -0.003689699
0.0051510786 -0.041701786 -0.020536378 -0.036207862 0.030777518 -0.023783477 0.016452827 0.00096269825
-0.043870892 -0.0033145037 0.0008794144 -0.02514868 0.031243883 -0.050200183 -0.04032912 -0.033508334
-0.062651895 -0.037490733 0.009393459 -0.03595999 -0.05636257 -0.06515027 -0.04529901 -0.0074617234
-0.01919744 0.01956495 -0.038162205 -0.022140209 -0.049254462 -0.04274522 0.01664062 -0.007914595
-0.053692643 -0.03675637 0.014951371 0.0032199817 -0.03469512 0.018461106 -0.018617637 -0.025441619
0.01292501 0.04946383 -0.04721194 0.031511284 -0.061038174 0.010184753 -0.0071096867 -0.011347508
0.0067678164 -0.026853407 0.014508725 -0.026518134 -0.075822815 0.016759453 -0.04066748 -0.06899574

layer1.1.running_mean f4 [64]
00000000: 66b6 703f e9a1 7a3f c810 893f f3af 653f
00000010: 164d 263f 73f6 713f 8ca7 723f 9124 433f
00000020: cdd8 763f 410c 253f 4203 833f db44 3b3f
00000030: 5b0c 813f f896 5a3f bd0b 863f 970f 4f3f
00000040: 33e4 423f 87f0 583f 301e 533f 5b48 413f
00000050: c620 7e3f 636d 793f 7a14 533f 5f81 1a3f
00000060: 694c 8a3f 334b 5f3f d5b1 603f 62a1 793f
00000070: 43d7 4b3f 5215 403f 5977 3c3f 5710 723f
00000080: bb85 383f b946 623f 8a56 433f 3d7d 103f
00000090: f863 5e3f 5ed0 583f 1a57 7b3f 25fe 453f
000000a0: 2a55 383f b753 393f cbab 853f 5e7c e33e
000000b0: e4d3 893f f6a7 663f e927 323f 6e85 813f
000000c0: f91f 7e3f a0fc 6e3f 9847 313f d14a 433f
000000d0: 07bf 543f cc35 4b3f 67c0 773f 9d6a 523f
000000e0: 8617 543f 9830 6b3f 7d38 713f 94bd 513f
000000f0: 20dc 633f 51e7 613f d683 3c3f 529b ad3e
0.9402832 0.97903305 1.0708246 0.897216 0.64961374 0.94516677 0.94786906 0.7622767
0.9642456 0.6447182 1.0235369 0.7315194 1.0081896 0.8538661 1.0472332 0.80883163
0.76129454 0.84742016 0.8246794 0.7550103 0.9926876 0.97432536 0.8245312 0.60353655
1.0804569 0.8722412 0.8777135 0.97511876 0.7962534 0.7503253 0.7361961 0.9455618
0.72079057 0.88389164 0.76303923 0.564411 0.8687129 0.84692943 0.9817978 0.7734092
0.7200495 0.72393364 1.0443052 0.44430822 1.0767789 0.9010004 0.6959215 1.0118845
0.99267536 0.93354225 0.6924987 0.76286036 0.83103985 0.7937896 0.9677796 0.8219393
0.82848394 0.91871023 0.9422682 0.819299 0.8900776 0.88243586 0.73638666 0.33907562

layer1.1.running_var f4 [64]
00000000: b105 043f 03b2 3d3f 1527 b83f 889c f93e
00000010: 80b7 b33f d769 9e3e 7670 483e c84d 7f3f
00000020: e153 fe3e 1f6d 7a3f f7b4 0e3f 2bae 3b3f
00000030: 3f97 2f3f 6a77 9d3f 1e4a b43e 9c22 323f
00000040: baa3 b33f 60bc 593e 9607 543e e22e 3f3f
00000050: f3b7 983e 1ef8 ea3e 846c 963e cfee a73f
00000060: f775 1b3f d1d4 1d3e 2851 563e d439 9f3e
00000070: fcb4 ad3e 1496 063f 8be2 3f3f c1b0 663e
00000080: 690e 413f 366d 463e 5b44 e63e 30e3 9b3f
00000090: 7f37 443e 6051 853e 5efd 253e f05e 293f
000000a0: 06b1 363f c295 b63e f801 143f a842 0540
000000b0: 7785 7f3f fe32 323e 0a27 a43e c2b4 383f
000000c0: 8e1b 3a3f 775f 9e3e 2ef6 dc3e f8a3 843e
000000d0: a25c df3f f013 7b3e 9a79 d23e fec3 6c3e
000000e0: 0ac9 233e e79e 5c3e 23c3 853e 7103 4b3e
000000f0: 2d9e 0c3f f55f 6d3e 9d26 8c3e 05cc 8640
0.51571184 0.7409975 1.4386927 0.48752236 1.4040375 0.30940124 0.1957415 0.9972806
0.4967337 0.97822756 0.5574488 0.73312634 0.6859016 1.2302067 0.35212797 0.6958406
1.403434 0.21263266 0.20706019 0.7468091 0.29827842 0.45892423 0.29379666 1.3119754
0.60726875 0.15413214 0.20929396 0.31098807 0.33927143 0.5257275 0.7495505 0.22528364
0.75412613 0.19377598 0.44974026 1.2178707 0.19161795 0.26038647 0.16209933 0.6616049
0.71363866 0.3566113 0.57815504 2.0821934 0.99813026 0.17402264 0.32061034 0.72150815
0.72698295 0.3093221 0.4315657 0.25906348 1.7450144 0.24519324 0.411084 0.2312164
0.15994659 0.21544991 0.2612544 0.19825532 0.5492886 0.23181136 0.2737321 4.2124047

layer2.0.weight f4 [64, 64, 3, 3]
00000000: e7e7 cd3c 03ec d5bc f055 e3bc 192d d4bb
00000010: 82d0 f0bc bb2d 0fbd 085d dd3c 4158 83bc
00000020: c8dd 4fbd a760 dcbc f99e ddba 5f81 c7bc
00000030: 01c7 263c af54 89bc 873f 0e3c a3fa 95bb
00000040: 0cd8 dcbc c216 4dbd 1cd4 2cbc fb57 4dbd
00000050: b1e0 213b 71ef b4bc 98cc f9bb a86e 9bbc
00000060: 9664 983b 81d3 173c 8e9a 553a a467 813c
00000070: 183d f7bb e2aa a8bc 04a3 2abd ae9d 40bd
00000080: 8769 1ebd 1960 95ba c982 153d 259c dbba
00000090: 9179 fc3c 556d 37bc 57b3 d33c 7b32 063d
000000a0: 81c6 833c a0a2 173c 66a5 acbc e7da fabb
000000b0: ac3d 27bb 6b93 58bc 4976 e43a 9665 27bc
000000c0: 0934 19bd 94e8 5cbb 6fd0 97bc f41c 0b3d
000000d0: d9d7 003c cde6 043d 2f6e 5d3c 7733 24bd
000000e0: 9791 4dbc 4aaf 343d 917b c83c 2105 c83c
000000f0: 20c1 423d c649 85bb 3e68 db3c 34d1 30bc
00000100: 084e eabc 5ff5 2c3b e4c7 c2bc c60c 8a3c
00000110: cb41 5ebc 6546 753c 82de b6bc 2540 1a3d
00000120: adee 81bb 1d10 a23b daa9 313d cd5e 8dbc
00000130: 66b7 0fbd c463 16ba 1107 873c f0c1 67bd
00000140: e09d 9e3c 5ef6 58bc ca62 14bd 7bb8 e9bb
00000150: 907b a73c 9ade 48bc ed20 773c d7e5 03bc
00000160: 5147 afbb 4462 1e3d e69d f53c cb4f b8bc
00000170: c1d3 343d bca3 243d 84ee abbc 5228 2cbb
00000180: b2cf ed3c 0ea0 d53c feeb aa3c 10c0 1d3c
00000190: 2c08 6dbc d4be 9f3c 1615 b83c 3f6a dcbc
000001a0: 5a2c db3c ee3d 27bc 82a4 e2bc 66e1 48bd
000001b0: b018 03bd 73b3 46bd 3cb8 86bc e502 5f3c
000001c0: fab2 e53b f31b 1dbd f031 b53c 532e bdbc
000001d0: e6ab 1cbd 072c 1abd fda4 033d 1f35 f1bc
000001e0: 6500 1cbc 224e 143d d4b9 ba3c 0f2b aa3c
000001f0: 477c e63c 3eb6 3dbc 3159 95bd faf2 f5b9
00000200: 294f 01ba 837e 653a a1bc 1dbc 9279 37bb
00000210: b2f7 8ebb c58d 7abc 4be7 7abc 8626 e43c
00000220: a577 053d b514 fd3c 3276 003d 9504 e53c
00000230: cc98 b2bc edd0 cbbb b9f2 893c 2ae9 17bd
00000240: 25f4 e63c 9988 853b 6d2a e63b 1c0c 0d3d
00000250: afa6 fabc b30a 093c c62d 89bc fab6 59bb
00000260: 2425 233d d2ac c23b 387d 59bc 707f a53b
00000270: 68dd e93c f58f fabb c795 4f3a 402b 97bc
00000280: 95ec 003b 8a8e ccbc db20 213d 31e6 063d
00000290: cfed f4bc 362a 3f3d 1f37 35bb 3338 173d
000002a0: 2369 053d b1bd c93a ad20 533d e854 5ebc
000002b0: f6e5 e9bb 885a 563d bcb8 0dbc 41f8 c7bc
000002c0: a7b5 d03c f818 58bc 292b 1fbd c6c7 ecb8
000002d0: 4328 2d3d c113 12bd 8cdd 7c3b 16c7 1dba
000002e0: f101 83bb 68fc 0bbd 23e1 a63c c962 0fbc
000002f0: 58f2 a8bb 81a3 98bc 6b27 aa3a 52d4 1e3d
00000300: 74d4 fa3b a337 85bc 9777 a23c c68c 0e3d
00000310: 2490 38bc a091 35bc 02d9 ec3b 8036 0a3d
00000320: 6783 103d e4fa 02bd 2952 d33c ceed 77bb
00000330: baed 2c3d 89ec 9b3c ebb3 333d a6ad e73b
00000340: c1dc 99bc 0813 45bb 0a0a 58bb 1ff2 8ebc
00000350: 84f1 1ebd 1b0a fbbb 6421 e3bc 3939 3abd
00000360: d33b b63c 1ae0 42bd f9a0 9bbc 157c 0f3d
00000370: 9758 5fbc 8e1e ccbc 752f 73bc c851 babc
00000380: 23da a9bc 117f aebc ac5a 91bc 13ef 8bbc
00000390: a100 e43b ad78 5bbc a511 ac3c e129 b13c
000003a0: 2a31 f8bc 66c4 acbb bfc7 95bc f58d e1b9
000003b0: 1a6f ce3c c7e7 1abd a99f 723c 78f7 a43c
000003c0: ac23 65bc d86e f13c 2b3c 283d 43c0 22bc
000003d0: 043c 433c 0feb 0cbd 75fc d0bc 0506 fb3a
000003e0: e17d 033b 2ca8 ea3c d57f 08bd 5a45 67bb
000003f0: a632 823b ca46 15bd 74c0 1b3c 681f 603c
0.025134994 -0.026113516 -0.02775094 -0.0064751026 -0.0293963 -0.03495572 0.0270219 -0.016033294
-0.050748616 -0.026901556 -0.001690834 -0.024353681 0.010179282 -0.016764013 0.008682138 -0.0045769974
-0.026958488 -0.05007053 -0.010548618 -0.050132733 0.0024700577 -0.02208683 -0.0076232664 -0.018973663
0.0046506627 0.009266735 0.00081483356 0.01579649 -0.0075451247 -0.020589296 -0.04165937 -0.047025375
-0.038674857 -0.0011396437 0.03650168 -0.0016754909 0.030819686 -0.0111955 0.025842352 0.032762986
0.016085865 0.009255081 -0.021074962 -0.0076554897 -0.0025518937 -0.013218741 0.0017430271 -0.010217091
-0.03740314 -0.0033707963 -0.018532006 0.03396316 0.007863962 0.03244667 0.013515039 -0.040088143
-0.012546918 0.04411248 0.024472984 0.024416508 0.04754746 -0.0040676324 0.026783105 -0.010792065
-0.028601661 0.002639137 -0.023776956 0.016851794 -0.013565491 0.014970397 -0.022322897 0.03765883
-0.00396522 0.0049457685 0.043374874 -0.017257119 -0.03508701 -0.0005736912 0.016482862 -0.056581438
0.01936239 -0.013242332 -0.036227025 -0.0071325875 0.020444661 -0.012260104 0.015083534 -0.008050404
-0.0053490777 0.038667932 0.029982518 -0.022498986 0.044147257 0.04019521 -0.020987757 -0.002626915
0.0290297 0.026077297 0.020864483 0.009628311 -0.01446728 0.019500174 0.022470992 -0.02690613
0.026754547 -0.010207636 -0.027666334 -0.04904308 -0.032005966 -0.04851098 -0.016445272 0.01361153
0.007009861 -0.038356733 0.022118539 -0.023093378 -0.038249873 -0.037639644 0.032139767 -0.029444275
-0.009521578 0.036207326 0.022793688 0.020772485 0.028135432 -0.011579094 -0.072924025 -0.00046911073
-0.0004932755 0.00087545085 -0.009627492 -0.0027996046 -0.0043630237 -0.01529259 -0.015313934 0.0278504
0.032584805 0.030893663 0.03136272 0.027956286 -0.021801375 -0.0062199743 0.016839372 -0.037087597
0.028192589 0.0040751216 0.0070241005 0.034435377 -0.030597059 0.008364367 -0.01674546 -0.0033220635
0.039830342 0.005941012 -0.013274483 0.005050592 0.028547958 -0.0076465555 0.0007918742 -0.01845324
0.0019672264 -0.024970312 0.039337974 0.03293437 -0.029898552 0.046671115 -0.0027651263 0.03691883
0.03257097 0.0015391615 0.051544834 -0.013570048 -0.007138009 0.05233243 -0.008650001 -0.024410369
0.025477244 -0.013189547 -0.03885952 -0.000112905676 0.042274725 -0.03566337 0.00385842 -0.0006018741
-0.003998034 -0.03417626 0.020371025 -0.00875158 -0.0051558428 -0.018632652 0.0012981718 0.038776703
0.007654721 -0.016261881 0.019832416 0.03480222 -0.011264835 -0.011082083 0.007228018 0.03374338
0.035281565 -0.03197755 0.025796013 -0.0037830952 0.0422189 0.019033687 0.043872755 0.007070261
-0.018782021 -0.0030071158 -0.0032964968 -0.017449437 -0.038804546 -0.007661117 -0.027725883 -0.045464728
0.022245323 -0.047577 -0.018997656 0.035030443 -0.013631961 -0.024916913 -0.014842858 -0.022744074
-0.020733899 -0.021300824 -0.017743431 -0.017081773 0.006958083 -0.013395471 0.021004507 0.021626415
-0.03029688 -0.005272436 -0.018283723 -0.0004302111 0.025199462 -0.037818696 0.014808574 0.020137534
-0.013985556 0.0294718 0.041073006 -0.009933534 0.011916164 -0.034403857 -0.025511006 0.0019151574
0.0020064043 0.028644644 -0.033325035 -0.003528914 0.003973323 -0.036444463 0.009506334 0.013679363

layer2.0.bias f4 [64]
00000000: fd58 39bc 9638 f4bc 173e ea38 284c a2bc
00000010: 371b 743c 4cc5 903c b9d1 a83b a773 313b
00000020: 2078 5cba 526e cb3c a72d 94bc c994 c03c
00000030: eed5 dcbc abd2 9bbc d369 ae3c fbb6 7ebc
00000040: 9a39 063d 20ca 0c3d 3010 b13c 15c6 e1bc
00000050: 2873 f8bc 99b4 fb3c e54f d4bc e739 9cbc
00000060: 252b 15bd 592b bc3c 3746 0fbd 55fb 993c
00000070: 51c1 e03c a532 7abc 82ad 523c 8d74 ce3b
00000080: 52b8 14bd 1c2f 213d 1be5 323c 997e 01bd
00000090: f3f8 403a 5e6c 1e3d 3e7e 49bc ea0e fbba
000000a0: ef77 00bd 23b1 d93b 3d1d 0cbc 585c a4bc
000000b0: 12d6 163d 6755 89bc 6fbc 11bd ccb3 e3bc
000000c0: e27c 43bc 5b73 273d 934c 0abd 7a2e de3c
000000d0: 6849 003d c0d5 ebbc 1ca0 9fbc f0ac 0cbd
000000e0: d32a b7ba 97e9 7e3c f608 25bd 961e 313b
000000f0: 67b3 1bbd 94ff 89bc dd85 6a3c 6b7b 163d
-0.01131272 -0.029812139 0.00011169555 -0.019811705 0.014899067 0.017672203 0.005151954 0.002707699
-0.0008410234 0.024832878 -0.018088175 0.023508446 -0.026957478 -0.019021353 0.021290695 -0.015546556
0.032769777 0.03437245 0.021614164 -0.027560273 -0.030328348 0.030725764 -0.025917003 -0.019070579
-0.0364181 0.022969889 -0.03497907 0.018796602 0.02743593 -0.015270864 0.01285875 0.006300515
-0.036308594 0.039351568 0.010918881 -0.031614874 0.0007361315 0.038677566 -0.012298165 -0.0019154225
-0.031364378 0.006643431 -0.008551893 -0.020063564 0.036825247 -0.016764356 -0.035580095 -0.027795695
-0.01193163 0.040881496 -0.033764433 0.027121771 0.031320006 -0.028788447 -0.019485526 -0.034344614
-0.0013974555 0.015558622 -0.04029175 0.0027026287 -0.03801289 -0.016845502 0.014314142 0.036738794

layer2.1.weight f4 [64]
00000000: 6e76 7d3f 1bd4 7a3f b2a6 7e3f 7e76 813f
00000010: 144f 7e3f 9be5 7f3f 0553 783f dc29 7f3f
00000020: a514 843f 4009 7c3f 9fc8 7f3f 6401 783f
00000030: 058d 7f3f 2cb0 833f e453 7c3f ecf3 853f
00000040: badb 7f3f 8cc4 7d3f c263 803f d83e 7d3f
00000050: 3e6a 813f cf5a 853f 9784 823f 3285 7f3f
00000060: 0f93 7f3f 0605 7d3f 7377 7c3f 6558 803f
00000070: d23f 823f 68bd 7b3f 072c 7f3f 13d2 823f
00000080: fe83 813f a494 7b3f 8a2a 803f fe37 7e3f
00000090: e0ac 803f 2025 7e3f 784f 7d3f 7313 823f
000000a0: 9121 7f3f a198 7b3f bc01 853f f5b8 7e3f
000000b0: 3b5c 803f 4667 7b3f eebb 803f e0cf 7d3f
000000c0: 42af 833f 68c0 7b3f 0a68 7a3f 26f1 7c3f
000000d0: 5f6a 7b3f 7e43 853f e335 7e3f 7632 813f
000000e0: 039c 813f 0d55 823f 1d4b 7e3f cd7d 7a3f
000000f0: 73f2 7d3f 4e44 7b3f e809 813f 465e 853f
0.99008834 0.979799 0.99473107 1.0114286 0.99339414 0.99959725 0.9700168 0.9967325
1.03188 0.98451614 0.999155 0.9687712 0.99824554 1.0288138 0.98565507 1.0465064
0.9994465 0.9912803 1.0030444 0.98924017 1.0110548 1.0418338 1.0196713 0.99812615
0.9983377 0.9883579 0.98619765 1.0026976 1.0175726 0.98335886 0.99676555 1.022036
1.0118406 0.9827368 1.0012982 0.9930419 1.0052757 0.992754 0.98949385 1.0162185
0.99660593 0.9827977 1.0391154 0.9950097 1.0028147 0.9820446 1.0057352 0.9914532
1.028786 0.98340464 0.97815 0.98805463 0.98209184 1.0411222 0.99300975 1.0093524
1.0125736 1.0182205 0.99333364 0.97848207 0.99198073 0.981511 1.0081148 1.0419395

layer2.1.bias f4 [64]
00000000: 06bd 53bc db0b c4bc e5cf e1bc 39ad 95bd
00000010: 5bff d13c fd20 19bd 6f26 99bb fad7 a9bc
00000020: 8259 5ebb ac47 dbbb a8f1 44bd cdbb 07bd
00000030: 2e36 99bc ddf9 86bc 8dcf 7dbc a6e0 0c3d
00000040: 32cd cfbc fdeb 10bc e252 2dbd 97ad bdbc
00000050: f2e2 7c3b 9851 bfbb a342 1abd d8d5 c7bc
00000060: aab5 42bd 1fbd 3fbb 2625 81bc 5f56 17bd
00000070: 0026 9dbd 1431 40bd d9e7 42bd ab48 2abc
00000080: 8b42 92bd 27e4 f6bc 4a33 e03b edd8 10bc
00000090: 6d7d b4bc 0f04 8cbc e0bf 49bc 1697 0fbd
000000a0: 8e08 5dbd e13d e9bc d096 2f3c 379a cebc
000000b0: 52a6 a9bc 3424 36bd 5230 70bb 4766 d1bc
000000c0: cd16 f03c b47d 0cbd b94e 09bc 9b9a 09bc
000000d0: 1d0e 8bbc 3582 b93c 48ce 8bbc 3b95 163c
000000e0: 6106 8dbc bab6 c1bc 9783 cfbc 69d1 f0bb
000000f0: 8cec dbbc 9a31 83bc 2dbc 1cbc 32cf 86bd
-0.012923485 -0.023931434 -0.027564952 -0.0730843 0.025634458 -0.037384976 -0.004673771 -0.020732868
-0.0033927863 -0.0066918936 -0.048082024 -0.033138085 -0.018702593 -0.016476566 -0.0154913785 0.03439393
-0.0253664 -0.0088453265 -0.04231537 -0.023154063 0.0038587418 -0.005838584 -0.037661206 -0.02439396
-0.04753653 -0.0029257012 -0.015764784 -0.036947604 -0.076732635 -0.046921805 -0.04758439 -0.010393302
-0.07141598 -0.030138088 0.0068420516 -0.008840782 -0.022032464 -0.017091779 -0.012313813 -0.035056196
-0.053963237 -0.028471889 0.010717109 -0.02522002 -0.02070919 -0.04446812 -0.0036649895 -0.025561465
0.029307747 -0.034299567 -0.008380585 -0.008398677 -0.016974503 0.022645095 -0.017066136 0.009190853
-0.017214956 -0.023646701 -0.025331302 -0.0073491824 -0.026846193 -0.016014863 -0.009566349 -0.06582488

layer2.1.running_mean f4 [64]
00000000: 044d 873d 376d b5be 6258 68bf 412d 15bf
00000010: 1ac1 293f 9171 31be baed 8b3d a7a3 4bbf
00000020: e78a 76bf 42b9 3ebe 1277 67bf e002 52bd
00000030: 4253 9cbf 2338 b0bf 8a88 25bf 89d3 19be
00000040: a065 febe 21a9 b0be a349 fbbe f0fc 4fbf
00000050: 9d81 71be fa18 4cbe c344 1dbf d27b 5cbf
00000060: 3efa 63bf 08be df3e 56b0 2ebf 7f8d 403f
00000070: 4989 083f 16fd 12bf 19eb b4be 0193 99bf
00000080: c405 07bd 6e44 7cbf caf9 58bf 51a1 c83d
00000090: fd13 6fbf 61a7 10be b128 2fbf 4e8f 823f
000000a0: da47 09bf c1a5 e3be 66ae 53bf c3f9 a1be
000000b0: df32 bbbe d58d 58bf 01ec 52bf e408 78bf
000000c0: dc2d acbf 3d25 b13e 4258 49bf abad fabe
000000d0: 5a82 b3bd 4a5f 3ebf 3416 31bf e32d 56bf
000000e0: b870 35bf 0ddd 4dbf 3c84 23bf 1efd 54bf
000000f0: 6b3c 1fbf 20bc 453f a123 3abf e04b 2ebf
0.066064864 -0.35434887 -0.9075986 -0.58272177 0.66310275 -0.17328478 0.06832452 -0.7954659
-0.963057 -0.18625358 -0.9041606 -0.051272273 -1.2212908 -1.3767132 -0.6466147 -0.150221
-0.4968691 -0.34504035 -0.49079618 -0.81245327 -0.235846 -0.19931403 -0.6143305 -0.86126435
-0.89053714 0.4369967 -0.6823782 0.75215906 0.5333448 -0.5741743 -0.35335615 -1.1997987
-0.032964483 -0.98541915 -0.8475615 0.09796394 -0.93389875 -0.1412635 -0.68421465 1.0199983
-0.5362526 -0.44462398 -0.82687986 -0.31635866 -0.3656225 -0.8459142 -0.82391363 -0.96888566
-1.3451495 0.34598723 -0.78650296 -0.48960623 -0.08765097 -0.7436415 -0.69174504 -0.8366377
-0.7087512 -0.8041542 -0.6387365 -0.83198726 -0.62201566 0.7724018 -0.72710615 -0.68084526

layer2.1.running_var f4 [64]
00000000: 30f0 313f 59b6 f83e 2b96 e03e 877f 323e
00000010: 497d ac3f 452e a63e dcb0 b63f 98d3 523f
00000020: c2aa 903e f0ce 853f 414e 253f d356 663f
00000030: 9e6c 103f 0a4a 7c3f c74a 143f bed2 ae3e
00000040: c556 1f3f e6eb 063f 74fe 023f efe9 033f
00000050: 70f2 0e3f ef30 a83e 16be c53e 49ba 083f
00000060: a54f 8e3e f69e 203f 55e2 e83e e0fe 053f
00000070: f561 343e f335 a43f b71f 643e 9253 483f
00000080: 6e9a 5e3e 5283 f73e 81ef ae3e 2c71 103f
00000090: 00d7 cb3e 29f1 aa3f 1262 bb3f 7540 e33e
000000a0: f410 5f3e 4077 a43e 8783 293f e87b 233f
000000b0: fcc2 cb3e 28c2 103f c911 4b3f dac5 0b3f
000000c0: 03c3 db3e 40ee 0b3f 347d 063f 4f48 113f
000000d0: 8670 f93e ea69 cc3e 59fb 893f 4e73 fc3e
000000e0: 67e9 8e3e 32f2 2f3f 6826 983f 7140 203f
000000f0: ee56 373f c191 f03e be3e 143f 3d0d 853e
0.6950712 0.4857662 0.4386457 0.1743146 1.3475734 0.32457176 1.4272723 0.82354116
0.28255278 1.0453777 0.6457253 0.89976233 0.56415737 0.98550475 0.579266 0.3414516
0.62241775 0.527037 0.51169515 0.5152883 0.5583868 0.32849833 0.38621587 0.5340925
0.2779514 0.62742555 0.45485178 0.52342033 0.17615493 1.2828964 0.22277723 0.7825252
0.21738598 0.48342377 0.34167102 0.56422687 0.3981247 1.3354846 1.4639304 0.44385114
0.21783811 0.3212223 0.6621632 0.6386094 0.397972 0.5654626 0.79324013 0.5459877
0.4292222 0.54660416 0.52534795 0.5675096 0.4871866 0.39924556 1.077983 0.4930672
0.27912447 0.68728936 1.1886721 0.6259833 0.7161702 0.469862 0.57908237 0.25986663

layer3.0.weight f4 [64, 64, 3, 3]
00000000: cbec 97b9 6f42 1f3d 3bd5 713c 383b 763a
00000010: 3dd2 2ebc 97d6 cfbb a904 35bc 93d4 b6bc
00000020: 5881 8ebc 54d2 d23c 08e5 003d 1f3d ee3c
00000030: 82c6 f63c 29b9 743c 2bd8 eabc c22d 30bc
00000040: f2e1 833c 18cd 2a3c a856 11bd cf91 98bc
00000050: cd76 8dbd 01a2 923c 6b9f 77bc 9119 3c3d
00000060: 6112 9d3c 92a8 a7bc c08c ab3c 8369 3c3d
00000070: de8e abbc e082 e3bb 1ab4 bcbc 0eca 22bc
00000080: 3a8b e23c 69a1 513c ba2b cfbc 9c4e fdbb
00000090: 88d3 853c e466 183d 98b7 c43c 29a4 833c
000000a0: b68e 813a 47f0 133c 42f7 1b3c 5ac9 a0bc
000000b0: c2e7 823a 8387 d4b9 421d 183c d5f2 44bb
000000c0: 4c24 64bd c8f0 afbc 33a3 33bc b1ba e8bc
000000d0: aea8 0fbd 31a1 2c3c 943e d8bc aba5 d23c
000000e0: c84c a6bc fcf8 943c ee82 02bd f52e 41bd
000000f0: 1442 28bd 484b b43c 787d 2abd 3c37 42bc
00000100: ed07 f23c 3b78 e7bb df2c f6bb 9f3c 1bbd
00000110: e9da 37bd 72b8 5dbc a5f1 bcbc dbf4 58bd
00000120: bd5a aabc a49a 05bc 8637 90bc 86d5 813c
00000130: c19e 663c c100 5bbd 6f71 b1bb 1b5a e73c
00000140: de7d 37bd 47a4 05bb 8193 4bbd 247f 5bbd
00000150: ec48 503c 5f71 ffbc 0827 953c 8040 ee3c
00000160: b403 25bd 42ab 853c 6e0a ad3c c518 9dbc
00000170: 8180 0c3c c5a4 113d 2c90 8abc fc8c 9e3c
00000180: a6f6 df3c 0aea 0f3d 7ce4 f7bb 6622 bcbc
00000190: 220a 713c 9e70 9fbc acf6 fbbc 6fb0 d33c
000001a0: 9909 6bbb c359 4439 734a ddbc 3b2c 6c39
000001b0: a7e3 07bc 8acc 8f3b 439d 2fbd 5122 aa3c
000001c0: 9e85 0c3d 4b1e 113d af32 243c d248 9bbc
000001d0: 11b0 d8bc 6c4a 2fbd f161 a23c 8422 3dbd
000001e0: 2208 09bd 6a3a e03c 0315 f83c 8081 a4bc
000001f0: c375 eab9 5c12 43bd 8a1b 593c e59a 4abd
00000200: 9acc 53bb 5ac9 f83c be57 1ebc d1f8 f0bc
00000210: 97fb 0fbd 1bf3 ca3b 0de2 613b d689 fd3b
00000220: c3d6 abbc be39 19bd 0e95 973c e22b 9eba
00000230: cfcb a23b f1db 233d a42b 84bc b658 04bd
00000240: f22e 60bc 05a8 013c 82a1 9cbc 3dc9 26bb
00000250: 0444 be3c 5022 45ba d53e 5dbd 8e8e 28bd
00000260: 1fe5 e2bb d26f 15bd 6ab4 53bc 896b 8439
00000270: 70fb 61bb 8d34 da3c c10d 77bc a49f 69bb
00000280: ba78 b33c 3711 e53b e313 3a3c 3d5d 30bd
00000290: 7c1c 003c 4f5a 03bd 015a ba3b 4ccc 80bc
000002a0: 5d92 153c 70b4 a63c dbb8 48bd c41c 75bd
000002b0: 1666 2bbb 6213 b3bc 5b3a 333b 5e3c 883b
000002c0: 7179 c2bb 4f38 013c 1e87 48bc 1f3b a63c
000002d0: cbe1 40bd 1562 bf3c 7cbc b2bc c84b 45bd
000002e0: 7335 0c3d 6fcc 49bd fcea c03c 3825 763c
000002f0: 6ed2 f2bc faed 4d3c 7e07 523c 6572 02bc
00000300: ea85 5fbc 9f27 833c 16d8 cfbc ee44 12bd
00000310: a066 a5bc 5cc7 a7bc ffcd cb3c be43 0c3d
00000320: a467 28bc 2279 dbbb 6297 95bb 1920 e63c
00000330: a918 57bb ee29 c63b ebb2 30bc ca5a 7f3d
00000340: 8ad0 e73c c29b 8abc 9fb1 f9bb 25dc 77bc
00000350: 1972 ad3c 5f27 d93b 6a16 9ebc 5a41 793c
00000360: 41ee 18bc d430 ad3b d763 4dbd 3f36 4ebd
00000370: 6955 98bc 3f37 843c 1f27 d53c 4df0 d1bc
00000380: 0283 c3ba 3c44 2abd c563 f23b de94 e7bb
00000390: 555b 713c 764e 1abb 0e0b 063d dadd 14bd
000003a0: 1f37 123c 6744 45bd df81 67bb ed38 b6bc
000003b0: 07ae 13bd 8b73 ddbb 5385 353c 6d2f 17bd
000003c0: b251 2cbc 925c 933b e1ab 293a 35dc ceba
000003d0: 6e1e 043c 42e1 a2bc 5b6d 14bc 996c 10bd
000003e0: 1390 6fbd beeb 97bd 28e0 e1bb 677d 03bd
000003f0: e104 06bd 616e 19bd bbfc debc d8f2 2dbd
-0.0002897739 0.038881715 0.014760311 0.00093929796 -0.010670242 -0.00634272 -0.011048474 -0.02231816
-0.01739566 0.025735058 0.03146842 0.02908188 0.030123953 0.014936724 -0.02866753 -0.010753097
0.01609895 0.010424875 -0.035483032 -0.018624214 -0.06907425 0.017899515 -0.015113692 0.04592282
0.019173803 -0.020466123 0.020941138 0.04599906 -0.020942148 -0.0069430918 -0.023035098 -0.009935869
0.027654279 0.012794831 -0.025289405 -0.0077303182 0.016336218 0.0372075 0.024013326 0.016069489
0.000988445 0.009029455 0.0095194 -0.019627262 0.0009987282 -0.00040536755 0.009284319 -0.0030051966
-0.055698678 -0.021477118 -0.010964203 -0.028409334 -0.035072975 0.010536478 -0.026397027 0.025713762
-0.020300284 0.018185131 -0.031863146 -0.047163922 -0.041078642 0.022008553 -0.041623563 -0.011853989
0.029544795 -0.007063893 -0.0075126733 -0.03789961 -0.044886503 -0.013532745 -0.023064444 -0.052967887
-0.02079522 -0.008154545 -0.0176046 0.015848886 0.014075936 -0.053467516 -0.0054151337 0.028241208
-0.04479777 -0.0020392106 -0.049701218 -0.053588048 0.012712698 -0.03118199 0.018207088 0.02908349
-0.040286735 0.016317014 0.021123137 -0.01917685 0.00857556 0.035557527 -0.01691445 0.019354336
0.02733929 0.035135306 -0.0075650793 -0.022965621 0.0147118885 -0.01946288 -0.03075727 0.025840966
-0.0035863875 0.00018725455 -0.02701304 0.00022523191 -0.008294023 0.0043883966 -0.042874586 0.020768316
0.034307115 0.03542928 0.01002185 -0.018955622 -0.026451143 -0.042795584 0.019822093 -0.046175495
-0.03345502 0.027371604 0.030283457 -0.020081282 -0.00044719697 -0.04762493 0.013251195 -0.049464125
-0.0032317997 0.03036945 -0.009664474 -0.02941552 -0.035152044 0.006193531 0.0034467012 0.0077373786
-0.02097643 -0.037408583 0.018503692 -0.0012067521 0.0049681435 0.040004674 -0.01613409 -0.032311164
-0.013683068 0.007913594 -0.019119982 -0.0025449537 0.023225792 -0.00075200666 -0.054015 -0.041151576
-0.006924286 -0.036483593 -0.012921432 0.00025257122 -0.0034482144 0.026636386 -0.015078963 -0.0035648132
0.021908153 0.0069905776 0.01135728 -0.04305767 0.007819291 -0.032068547 0.005686999 -0.015722416
0.009129134 0.020349711 -0.049004417 -0.059841886 -0.0026153377 -0.021859828 0.0027348015 0.004157587
-0.005934887 0.00788696 -0.012239246 0.020291863 -0.047090333 0.023362199 -0.021818392 -0.048167974
0.03423066 -0.04926723 0.02354955 0.015023522 -0.029641356 0.012568945 0.012819169 -0.007961844
-0.013642767 0.016010104 -0.025371592 -0.035710268 -0.020190537 -0.020480804 0.0248785 0.03424429
-0.010278616 -0.0066977898 -0.0045651654 0.028091477 -0.0032821095 0.006047479 -0.010784845 0.062342443
0.028297681 -0.016919974 -0.007620051 -0.01512817 0.02117257 0.006627008 -0.019297797 0.015213335
-0.009334148 0.005285362 -0.050144043 -0.0503447 -0.018595414 0.016139625 0.026019631 -0.02562728
-0.0014916363 -0.04156898 0.0073971474 -0.007067307 0.014731248 -0.0023545302 0.032725386 -0.036344387
0.008924275 -0.048160937 -0.0035325212 -0.022243941 -0.036054637 -0.0067581586 0.01107915 -0.036910463
-0.010517525 0.004497119 0.00064724503 -0.001578218 0.008063896 -0.019882802 -0.0090592755 -0.035259817
-0.05848701 -0.07418011 -0.0068931766 -0.032102015 -0.032719497 -0.03745878 -0.02722012 -0.042467922

layer3.0.bias f4 [64]
00000000: 9f45 a13b 0ad5 d63c ef80 933c adec febc
00000010: 68e7 143c 04d1 54bc 97c9 94bc 7dfa 3a39
00000020: 6266 9e3c 8bad d23c b268 0cbc 9251 4fbb
00000030: a3d8 03bd 7cdb d7bc 87ad 1c3d 4238 00bd
00000040: 5e86 e739 2471 4cbc 4eb8 313b 791e 64bc
00000050: 3cd1 91bc 6c89 beba ec2b 8fba 2e40 153c
00000060: c09e e53c 2b9e f3bb 0b6c b03c 9141 23bd
00000070: 2fac 1f3d 4067 3c3c 3824 b53c e4f3 e7bb
00000080: 59f7 fa3c f846 1b3c 47e8 bebc 932b 99bc
00000090: d5de a33c 2bd5 81bb 218a a5bc b228 9c3c
000000a0: 65e6 103d 930f 1a3c a043 acbc 7e75 df3b
000000b0: dd12 423b 59d5 3d3c c3a0 e9bc c4c6 9bbc
000000c0: e36d a7bc 9a50 263c ccd2 493c e3c7 56bc
000000d0: 5dd5 ed3c 9589 b9bc 3b7b 5abb 7041 5f3c
000000e0: c1b9 1a3c 6c91 26bc 1a5d 06bc 728e 03bd
000000f0: 8f33 80ba ca6b b6bc c1b6 b6bc 507b ebbc
0.0049216296 0.026224632 0.018005816 -0.031118715 0.009088375 -0.012989286 -0.018162532 0.00017831656
0.01933593 0.025717517 -0.008569883 -0.0031634313 -0.032189023 -0.026349775 0.038251426 -0.03130365
0.00044159865 -0.012478147 0.002711791 -0.013923281 -0.017799966 -0.0014536805 -0.0010923124 0.00910954
0.0280298 -0.0074346266 0.021535894 -0.03985745 0.038982566 0.011499226 0.022111997 -0.0070786346
0.030635523 0.0094773695 -0.023304118 -0.018697536 0.020003716 -0.003962179 -0.020207467 0.019062374
0.03537597 0.009403127 -0.02102834 0.006819426 0.0029613294 0.011586511 -0.02851904 -0.019015677
-0.02043814 0.010151053 0.012318324 -0.01310918 0.029032404 -0.022648612 -0.0033337611 0.013626441
0.009443701 -0.010166507 -0.008200908 -0.03211827 -0.0009780991 -0.022268195 -0.02230394 -0.028745323

layer3.1.weight f4 [64]
00000000: 6ccb 7a3f ea23 853f f6b8 863f f165 843f
00000010: 0423 763f ab5f 823f 5ce8 813f 5978 793f
00000020: 1613 833f fc3b 7b3f baf1 7e3f fde0 803f
00000030: ead3 783f e975 733f 19ca 783f 55c9 6d3f
00000040: 8d38 783f 2757 703f 9121 803f c187 7f3f
00000050: c052 843f 4ed7 803f 99d1 773f 7e21 813f
00000060: af19 823f 4a48 7c3f 2c68 803f ac46 873f
00000070: 88b5 7c3f 233a 7c3f b1bf 773f e121 803f
00000080: ebfb 863f 2f9c 853f 3b12 7a3f 6c16 7c3f
00000090: b492 833f e586 7e3f 6fb9 7a3f b3a6 823f
000000a0: 99b4 7d3f 0106 7a3f c96a 7c3f 447d 803f
000000b0: 07f1 743f e754 773f a5ae 823f ad70 743f
000000c0: ee54 783f 91c3 793f 4f0c 7e3f 64bf 863f
000000d0: 6252 843f 637d 783f d992 813f dab2 7e3f
000000e0: e277 833f 7700 7a3f a089 733f 0e0b 763f
000000f0: 1f03 823f 1a40 7c3f 9bd7 803f 5f2a 843f
0.9796665 1.0401585 1.0525196 1.034361 0.9614718 1.0185446 1.0149035 0.9744926
1.02402 0.98138404 0.99587595 1.0068661 0.97198355 0.9510179 0.97183377 0.92885333
0.9696129 0.93882984 1.0010244 0.9981652 1.0337753 1.0065706 0.96804196 1.0088346
1.0164088 0.98547804 1.0031791 1.0568442 0.98714495 0.9852621 0.9677687 1.0010339
1.0545629 1.0438288 0.9768407 0.98471713 1.0279145 0.9942458 0.979392 1.0207123
0.99103695 0.9766541 0.9860044 1.0038228 0.9568028 0.96613926 1.0209547 0.9548443
0.9700459 0.97564036 0.9923753 1.0527158 1.0337641 0.97066325 1.0122939 0.99491656
1.027096 0.9765696 0.95131874 0.9611062 1.0157202 0.9853531 1.0065798 1.0325431

layer3.1.bias f4 [64]
00000000: 8096 c1bc 3a20 a2bd 437c a3bd 22ae 09be
00000010: 7473 18bd b09f 93bd c06f a5bd 08e8 38bd
00000020: b44a 95bd a13e 4bbd 021a 8dbd 9771 82bd
00000030: 4138 e0bc 7102 89bd 0be1 24bd 1a1c 21bd
00000040: 466c 14bd 7aa7 71bd b11d 3bbd 19bf 21bd
00000050: 764b 84bd 6ad9 63bd 3dfc 8ebd 4213 85bd
00000060: bc9e 5abd 3bd0 92bd 450d 57bd 9014 b9bd
00000070: b3b4 b9bd 65aa 12bd 8eaa 68bd 470c d5bc
00000080: bbc5 74bd 0c14 dabd b256 3fbc 9454 31bd
00000090: 87c2 a9bd 464a b5bd 8e27 9ebd 3905 87bd
000000a0: 1707 c8bc b9a5 08bd aea9 86bc 04d9 2abd
000000b0: 3944 18bd 4ace a7bd 68bf 6ebd 3fa8 24bd
000000c0: cd0a f3bc 06f8 69bd ca3a 82bc b652 dbbd
000000d0: 2db8 87bd e99b 60bd 5908 c2bd cdf8 eabc
000000e0: e734 b7bd 5fdb e7bb 234a 52bb d95d f7bc
000000f0: db87 29bd a6f1 b1bd 8574 83bd c819 acbd
-0.023631334 -0.07916303 -0.079826854 -0.13445333 -0.03721948 -0.07208192 -0.08077955 -0.045143157
-0.07289639 -0.049620274 -0.06889726 -0.06369322 -0.027370574 -0.06689919 -0.04025368 -0.03933344
-0.03623607 -0.05899761 -0.045682613 -0.039488886 -0.064597055 -0.055627264 -0.069817044 -0.06497814
-0.053374037 -0.07168623 -0.05250289 -0.09037125 -0.09067669 -0.035807032 -0.05680328 -0.02600683
-0.059758883 -0.10648355 -0.011678385 -0.04329355 -0.08289056 -0.08852057 -0.07722388 -0.06592793
-0.024417443 -0.03336117 -0.016438331 -0.04171087 -0.037174437 -0.081936434 -0.058288008 -0.040199514
-0.029668236 -0.0571213 -0.015897173 -0.10709135 -0.066269256 -0.054836188 -0.094742484 -0.02868309
-0.08945637 -0.0070757116 -0.0032087646 -0.030196117 -0.041389327 -0.08688669 -0.06418709 -0.08403355

layer3.1.running_mean f4 [64]
00000000: 07fa 2bbf 9bd1 c4be 508f 04be 0549 f73e
00000010: abe2 18bf 6104 06bf a51c 6fbf 62be 43bf
00000020: 213d 3dbf 09df 0bbf 2347 39bf f18a dcbe
00000030: e18c 5cbf 246c e83c c7d8 8dbe 278a fbbe
00000040: b4a6 2ebf af25 0fbf 034d d7be 9996 e7be
00000050: 85c1 04bf 888c 2ebf e7dd 1cbf f39d 3cbf
00000060: e43a e6be 9d50 0bbf 8c73 41bf 9a13 73bf
00000070: 8ca5 323d afb1 e7be 3060 edbe 3afc 3bbf
00000080: 8c22 07bf 500b cabe 9595 56bf 98fc 3cbf
00000090: 9819 65bf 3ec6 30bf 08de e3be e0da 03bf
000000a0: 34d4 cbbe f1a5 3cbf 267f 50bf 3195 dfbe
000000b0: fd58 e7be 4664 72bd ebae f9be 9216 52be
000000c0: 3cb2 cbbe 23c2 a0be 9f7d 56bf 3e95 c0be
000000d0: 8dcc 15bf 915d bdbe 8a31 e23d f40a 6abf
000000e0: 2a6f d7be 8cdd 59bf 80bd edbe 6a4d 55bf
000000f0: a1b4 32bf 2afe 413e d22b 16bf 5c87 07bf
-0.67178386 -0.38441166 -0.12945294 0.48297897 -0.5972087 -0.5235043 -0.93403083 -0.76462376
-0.739214 -0.546372 -0.7237417 -0.43074754 -0.86152464 0.028371878 -0.2770445 -0.4912884
-0.6822312 -0.55916876 -0.42050943 -0.45232084 -0.5185779 -0.68183184 -0.61276096 -0.7367851
-0.44966805 -0.5441988 -0.75566936 -0.94951785 0.04361491 -0.4525275 -0.46362448 -0.7343174
-0.5278709 -0.39461756 -0.83821994 -0.7382293 -0.8949218 -0.69052494 -0.44505334 -0.5150585
-0.39810336 -0.73690706 -0.81444013 -0.43668512 -0.4518508 -0.05917766 -0.48766264 -0.20516422
-0.3978442 -0.31398115 -0.8378543 -0.37613863 -0.58515245 -0.36985448 0.11044605 -0.91422963
-0.42077 -0.8510368 -0.4643364 -0.8332125 -0.6980687 0.18944612 -0.58660614 -0.52940917

layer3.1.running_var f4 [64]
00000000: ce4c b13e b392 8b3e 03c3 4b3e 8561 813e
00000010: 822c 453f 74f8 a03e c340 983e 3f99 f13e
00000020: c3bc 843e 1022 c53e cf9b cf3e 5251 903e
00000030: 4ca0 b03e d861 b23e 23c0 8d3e 6d1b fd3e
00000040: a505 cf3e 2aba 003f cc38 7d3e fdd2 3f3e
00000050: d98c 4e3e 6f0d 9c3e 20ab f03e cbef 7f3e
00000060: c899 b03e c010 523e 86ce 5c3e 69d0 833e
00000070: 2f76 773e b929 cf3e 4eb5 fe3e 4a3d 5c3e
00000080: 64c2 713e b7aa 223e 2270 553e 4138 d93e
00000090: 0b3c 703e 3dcb 563e e6c9 683e 46a4 5f3e
000000a0: 8387 693e 5ec0 c33e ecc5 763e 0d06 4f3e
000000b0: 3fa3 823e 5fe7 f03e 13ef 513e 8eae 9a3f
000000c0: 0a3b be3e 2682 183f 5c41 5a3f f840 033e
000000d0: 5ce3 873e cfd5 9d3e ae56 833e 36cc 0c3f
000000e0: 287d 953e 90c7 993e 1707 033f 2ac2 fb3e
000000f0: edf1 883e 4746 a13e bc48 553e e64d 6f3e
0.3462891 0.2726036 0.1989861 0.25269714 0.7702104 0.31439555 0.2973691 0.4718723
0.25925264 0.3850255 0.4054856 0.28187042 0.34497297 0.34840274 0.2768565 0.49434987
0.40433994 0.50284064 0.24728698 0.1873283 0.20170917 0.30479 0.47005558 0.24993818
0.34492326 0.20514202 0.21563157 0.25744942 0.24166177 0.4046152 0.497477 0.21507755
0.2360931 0.15885435 0.20843557 0.4242573 0.23460405 0.20975967 0.22733268 0.21840009
0.228056 0.38232702 0.24098939 0.20217152 0.25515172 0.47051522 0.20501356 1.208452
0.37154418 0.5957359 0.8525598 0.12817752 0.2654065 0.30827186 0.2565207 0.549991
0.2919705 0.30035067 0.51182693 0.49171573 0.26747075 0.3149893 0.20828527 0.2336956

layer4.0.weight f4 [64, 64, 3, 3]
00000000: b959 c13b d994 7a3c 7873 3f3d 306c dbbc
00000010: c989 26bb 0020 913d 4a45 ed3c 9126 b0bb
00000020: 4116 0dbd d9bd 60bc 9245 21bb e420 1ebc
00000030: 70c9 753c 76e4 313b 01d3 c1bc aa3f f53b
00000040: 8dcf 28bc 161a c83b 9313 0f3c f206 4bbd
00000050: ef7c b6bd 2db8 a73a be6b b5bc a204 c93c
00000060: 7c99 69bc 7d8e 2dbc aa7e 043c bad1 113d
00000070: 76c6 1fbc d51b d5ba 765e 7fbc 8a11 443b
00000080: 375f 68bc cbc8 273b 37ca 09bc 6571 81bc
00000090: e8c3 5a3b 9122 ae3c fa46 003d 93af 483c
000000a0: 6277 0cba 7cbd 36bc e942 eabb 3251 853c
000000b0: 82de 92ba fa07 273c 608b f4bc 799e 3b3c
000000c0: d300 ed3c ff53 9cbc bdf8 b13c 7c4e c4bc
000000d0: 0753 9abb 224a d639 519a 0dbc d808 94bc
000000e0: b613 033d 0dbd e6bc 9963 1b3c 6880 e3ba
000000f0: 895f 24bc 8566 15bc aebc 493c b6c4 7bbb
00000100: d106 013a 5782 1b3b 8b87 e7bb 320f a73b
00000110: 6494 b1bc 9320 7cbc 4fbe d53c 1d39 d6b9
00000120: ed8e c7bc 5069 a93c 1c1b d3bc cd9c da3c
00000130: 8d2f a0bc cc90 18bd 15bc 99bc ffc1 fe3c
00000140: 166c 27bc 0384 28bc c28a abbc eba6 853c
00000150: fc43 ed3c 9884 b8bb f75e 1a3d f905 07bc
00000160: eb11 32bc 51e2 043c 000d ab3b 68bc c93c
00000170: bcca a43c 1817 a0bc b74b 673c 3876 34bc
00000180: c02e b039 4e9e fdbb 0555 253c 57a7 45bd
00000190: cf80 793d 1012 113d 5a3e 5e3c b41b bebb
000001a0: 0335 9e3c f542 0b3c 0cac af3c afea 9abc
000001b0: fc31 643c 5f6f e93c 40a9 b6bc 8605 943c
000001c0: b1f4 13bd d007 f13b 3076 673b ba4e 94bb
000001d0: fd04 d2bc c367 13bd 2669 83bb 7238 f2bb
000001e0: ad66 66bc 4853 c13c 4357 b33c 01ec 033d
000001f0: 48a0 aabc 4fe1 9e3a 497f 9fbc a998 c33b
00000200: a785 23bd bed7 bebc 4e62 1a3d f143 8d3d
00000210: 4a00 4fbb b97d 3f3c 557d 33bd aae3 623c
00000220: 0162 fc3c f63e 843b 7188 d33c 0949 eebb
00000230: 8f4a 123d 6ef9 773c c99b bc3c 0936 04bd
00000240: e465 1ebc 4d80 4dbc 2e6b c8bc 05fd 1a3d
00000250: c9d6 763b f576 ec3c 5b4e b4bc 5704 c33c
00000260: 5c29 e93c aedb 093d fc67 dbbc 9181 9abc
00000270: 91ea 38bc 06e1 04bd 7832 adbb 49f0 703c
00000280: abb8 8bbc e97c 64bc b3d1 263c 2cd5 753c
00000290: 22cc a3bc 79af 9bbb 4f38 ddbc 8c2c d63c
000002a0: 9e84 db3c 9d72 533c 118a 9f3c d057 a1bb
000002b0: b9f8 3a3c 1a2a 823d 20dd 12bb b60f b2bb
000002c0: b954 563d 6a9e 343c 6216 81bc bde0 88bc
000002d0: 9c2e f8bb 7635 173c 0a7d 083d dd4a 0cbc
000002e0: eb59 963a 19fe ddbc 7c2e bfba 940a dcbb
000002f0: 9997 ce3c 9fc7 47bb f206 5b3d 1753 193d
00000300: 366c 64bb e403 e13b 6d7b fe3c 4c58 013c
00000310: 1301 a13c cc39 063c 722d debc 6f12 6cba
00000320: e84f cfbc 1870 04bc b9d2 a9bb 78b8 09bc
00000330: 0d1d b2bc b4de 0e3c ae8b 333c 525e 933c
00000340: 46ed ce3c 56d5 01bd fcc3 613c 980b ddbc
00000350: caaa 11bd 43d2 e63c 8816 dabc be7b 103c
00000360: 4b81 72bc 5702 a1bb 2669 51bd 51de ccbb
00000370: 340d f73c 8d82 af3c 8a95 2a3b f4e2 ab3c
00000380: f364 29bb 25c6 ddbc 9def 48bb 27e8 d5bb
00000390: 1f1d bf3c 2023 56bc 5697 b63c 2323 65bc
000003a0: bfed 4a3c 8630 f1bc b60d da3c b878 02bd
000003b0: ab9b 4cbc a288 933c 6fcb 353c 1255 34bd
000003c0: aa07 f5bb 00e1 163c 11ad 44bc 61f7 91ba
000003d0: 4fe7 2d3c 7847 17bd 20a3 9a3c 8439 11ba
000003e0: a464 53bd 12ae 943c 4e43 4dbc d279 f83c
000003f0: 2b2d f03c a3a8 c03b 6055 e73c d544 863b
0.0059005884 0.015294277 0.04674098 -0.026784986 -0.0025411716 0.07086182 0.028963704 -0.005375691
-0.03444505 -0.013717138 -0.0024608118 -0.009651396 0.01500164 0.002714423 -0.023660185 0.007484396
-0.01030339 0.0061066253 0.008732694 -0.04956717 -0.08910548 0.0012795978 -0.022146102 0.024538342
-0.014257785 -0.010593054 0.00808684 0.0356004 -0.009751907 -0.0016258905 -0.015586486 0.002991768
-0.014182857 0.002560186 -0.008410028 -0.015801141 0.003338093 0.021256717 0.03131769 0.012248891
-0.00053583656 -0.011153575 -0.0071490896 0.016274069 -0.0011205229 0.010194773 -0.029851615 0.011451357
0.028931057 -0.019083021 0.021725053 -0.023963206 -0.0047096047 0.00040872494 -0.008642749 -0.018070623
0.03200122 -0.028166318 0.009484195 -0.0017356994 -0.010032543 -0.009118681 0.012313051 -0.003841681
0.0004921975 0.0023728812 -0.0070657185 0.005098247 -0.021677203 -0.015388626 0.026091723 -0.00040859813
-0.024360145 0.0206801 -0.025769763 0.026686097 -0.019553924 -0.037247464 -0.018766442 0.031098364
-0.010218641 -0.01028538 -0.020940188 0.016314944 0.028963082 -0.005631041 0.03768822 -0.00824117
-0.01086853 0.008110599 0.0052200556 0.024625972 0.020116203 -0.019542262 0.014117173 -0.011014514
0.00033604167 -0.0077398187 0.010091071 -0.04825529 0.060913857 0.035417616 0.01356467 -0.0058016423
0.019312387 0.0084998505 0.021444343 -0.018910734 0.013927933 0.028495489 -0.022297502 0.01806904
-0.036122028 0.0073556677 0.0035318248 -0.0045259865 -0.025637144 -0.035987627 -0.0040103374 -0.0073919827
-0.014062566 0.023599282 0.021892196 0.032207493 -0.020828381 0.001212159 -0.019469874 0.0059691262
-0.039922383 -0.023296233 0.037691407 0.068977244 -0.0031585866 0.011687689 -0.043820698 0.013848225
0.03080845 0.004035826 0.025821896 -0.00727189 0.035715636 0.015135152 0.023023503 -0.032278094
-0.009667847 -0.012542796 -0.02446517 0.037838954 0.0037664643 0.028865317 -0.022010019 0.02380578
0.028462104 0.03365677 -0.026782982 -0.01886061 -0.011286394 -0.03244116 -0.0052855574 0.014705726
-0.01705583 -0.0139457965 0.010181832 0.015004437 -0.019994799 -0.0047511426 -0.02700439 0.026144288
0.026796635 0.012905744 0.019475015 -0.004923798 0.011411839 0.063556865 -0.0022409633 -0.005434002
0.05232689 0.011024097 -0.015757743 -0.016708726 -0.0075739156 0.009229055 0.03332237 -0.008562771
0.001147089 -0.027098702 -0.0014585997 -0.006715128 0.025218772 -0.0030483974 0.05347342 0.037432756
-0.0034854538 0.006866919 0.031064713 0.007894587 0.019653833 0.008192491 -0.02712128 -0.00090054324
-0.025306657 -0.008083366 -0.005182591 -0.008405797 -0.021742368 0.008720089 0.010958595 0.017989311
0.025259625 -0.031697594 0.0137796365 -0.026983067 -0.035563268 0.028176432 -0.026622072 0.008818565
-0.014801334 -0.004913609 -0.051125668 -0.006252088 0.030157663 0.021424556 0.0026029074 0.020982243
-0.0025847524 -0.027072022 -0.0030660399 -0.006527919 0.023329316 -0.013069898 0.02228896 -0.013985428
0.012385785 -0.029442083 0.026617866 -0.031853408 -0.012488286 0.018009488 0.011095866 -0.044026442
-0.0074777203 0.009208918 -0.012004153 -0.0011136347 0.01061423 -0.036933392 0.018876612 -0.00055398815
-0.05160965 0.01814941 -0.012528254 0.030331526 0.029318413 0.005879478 0.028238952 0.004097561

layer4.0.bias f4 [64]
00000000: fe3e 08bc eddc 133d dd08 9fbc 1a94 0cbb
00000010: 6b7d c53c 5fac 343d b577 ff3c ea38 73bd
00000020: 63a4 903d 38bc 9f3b 36bf 8d3b 7b74 d0bc
00000030: 3603 263c e90a 3abd 4c8b 903c 9a21 7bbc
00000040: 6b42 9bbc 1662 0e3c c9d7 f13c 8ec6 763b
00000050: 0af4 153d 9984 e8bc 7caa 2c3d b824 e7bc
00000060: a3bb 223d 5081 283d 1e63 0f3d 4fab cabb
00000070: b1f0 e4bc f536 8a3d c70f ba3c f51f a93c
00000080: 4eb9 0c3d 94d2 1dbb 828b 013d 225a b1bc
00000090: 5094 7c3d ce27 393d ad37 dfbc f395 f9bd
000000a0: 1283 063d a421 423d e25b 83bc d275 363d
000000b0: 6d8f b73d e210 ebbc e5c5 ccbc 0640 a7bc
000000c0: fb2b 9d3c abbf b7bd c42c a63c 5563 dd3b
000000d0: 53f8 423d c8e2 c13c fcfc ffbc b437 21bd
000000e0: 4f7f 303c 5f5e d73c 5647 0f3c 55b2 16bc
000000f0: 6b5b 283c 6301 333d 0b2d 7a3d e2ee dbbc
-0.0083158 0.036099363 -0.019413406 -0.002145058 0.024107656 0.0441097 0.03118501 -0.05938045
0.07062604 0.0048747323 0.0043257726 -0.025446167 0.0101326015 -0.04542056 0.017644547 -0.015327835
-0.018952569 0.008690378 0.02952184 0.003765497 0.036609687 -0.02838354 0.042154774 -0.028215751
0.039729726 0.041138947 0.035006635 -0.0061849724 -0.027946802 0.067487635 0.022712601 0.020645121
0.034356408 -0.0024081813 0.031627186 -0.021649424 0.06166488 0.045203976 -0.027248228 -0.12186804
0.032839842 0.047395363 -0.016035024 0.044545956 0.08962903 -0.028694574 -0.024996707 -0.020416271
0.01918601 -0.08972105 0.020285018 0.006756226 0.0476001 0.023667708 -0.031248562 -0.039359763
0.01077254 0.026290117 0.008745035 -0.009197791 0.010275702 0.043702494 0.061078113 -0.026847307
