FAST 3D-CNN P-NET/model/ZGFF/ZGFF_proto_2d-5shotband20.pth (torch, 503021 bytes, 24 tensors)

layer1.0.weight f4 [64, 20, 3, 3]
000000 cf ef b4 3c e1 4b 7c 3d 16 2c 81 3d ce 03 0f bd
       0.022087006 0.0615958 0.06307237 -0.034915738
000010 6e 1d 10 3d df 5c 88 3d 69 cb e2 bb b4 6b 4d bd
       0.035184316 0.06658339 -0.006921221 -0.05015154
000020 2e d1 9c bd 52 77 be bc 41 07 35 bc ca 6c ec 3b
       -0.07657085 -0.023250256 -0.011049093 0.007215117
000030 46 39 8f 3c 74 04 21 3d f0 0a 1f ba eb 46 cd bb
       0.017483365 0.039310887 -0.00060669985 -0.0062645576
000040 be 35 2b 3d 3c 43 ad 3b 49 cc 98 bd 7d 88 6c bd
       0.0417993 0.005287556 -0.07460839 -0.057747353
000050 4a b1 6a 3d fe 3c 43 bd 2f 7b 6d 3b da 43 20 3d
       0.057297982 -0.04766559 0.0036236753 0.03912721
000060 7a fb 6a bd fd f7 1d 3d 9e 32 9c 3d 67 bf 02 bd
       -0.057368733 0.03856658 0.07626842 -0.031920817
000070 fb 7d f9 bc 0c b1 44 bc 0f e2 2b 3d 91 22 04 3c
       -0.03045558 -0.012005102 0.041963633 0.008064882
000080 58 37 27 3d d7 82 06 3d f3 61 62 3d 0d 01 97 3c
       0.040824264 0.032839622 0.055269193 0.018433118
000090 bf c3 77 3c b4 8b bc 3b 55 aa 89 bd 0a f4 85 bc
       0.015122353 0.0057539586 -0.067219414 -0.016351718
0000a0 53 f5 79 3c 01 ac 21 3d 8d 37 b8 bc 75 06 d8 3c
       0.015256244 0.039470676 -0.022487426 0.026370266
0000b0 64 55 7a bd ed fc 49 bd b2 f5 13 3d c5 32 a6 bd
       -0.06111659 -0.049313474 0.036122985 -0.08115152
0000c0 b0 46 6f bc 7a 7a 77 3c 97 28 44 3d 38 08 5b ba
       -0.014604256 0.015104884 0.047890272 -0.00083554117
0000d0 82 01 91 3c 4f 3c 3f 3d 33 b9 83 3c 45 84 b7 bc
       0.017700914 0.046688374 0.01607952 -0.022401938
0000e0 5c d6 d9 3c 25 6f 1f 3c 38 5d bb bd 03 56 0b bb
       0.026591472 0.009731089 -0.091486394 -0.0021260984
0000f0 96 d4 5d 3c 58 fb 2e 3a 1d 11 3a bc 8b 59 1f bd
       0.013539454 0.00066750264 -0.011356619 -0.038903754
000100 26 4e f3 3c 14 d7 21 bd df d2 d2 3c d8 ee e6 bc
       0.02970035 -0.039511755 0.025735317 -0.028190061
000110 0d 73 71 3b 0f 16 3b bd b7 ce 63 3d 3b 27 7d 3c
       0.0036842257 -0.045675334 0.05561706 0.015451248
000120 50 21 7a 3d 94 86 bc 3c 53 b0 9e bd b9 db 4f bc
       0.061066926 0.02301339 -0.07748475 -0.012686663
000130 e2 45 a2 3a 11 19 e3 bd ed d5 36 3d 00 39 c0 bd
       0.0012380446 -0.110887654 0.04463761 -0.09385872
000140 3b f5 9b 3c d8 39 15 3d 5f 0e 62 bd 70 58 1b bd
       0.019037833 0.036432117 -0.055189487 -0.037926137
000150 20 0c 44 bd 3a 50 dc 3a 78 23 3e 3d e2 15 92 3d
       -0.047863126 0.0016808577 0.046420544 0.0713308
000160 c4 9c 2d 3d ed eb 2c 3d 95 94 ab 3c de 49 6d bd
       0.04238583 0.042217184 0.020944873 -0.057931773
000170 9b de bd 3c 38 6f e9 3a 05 c1 52 bc ba 18 5b 3c
       0.023177436 0.0017809635 -0.012863402 0.0133725945
000180 1f 21 8d bc 6a bc 8c 3d 46 27 99 3d ce 34 c1 3b
       -0.017227707 0.06871875 0.07478194 0.0058961874
000190 39 de 88 bd f8 2f 7d bd 70 e5 32 bc e4 f7 ca bd
       -0.066830106 -0.061813325 -0.01091896 -0.09910563
0001a0 6c b6 b4 bc 8e 77 62 3c 3b ab 7e bd b8 af d9 bd
       -0.022059642 0.013822449 -0.062175017 -0.10629219
0001b0 ec b3 05 3d 78 14 87 3d 3f c6 71 3d eb f1 cf bc
       0.03264229 0.06595701 0.059026953 -0.02538391
0001c0 b5 97 9b 3d d7 f7 b7 3c 32 da 09 3c a8 a9 99 3d
       0.07597295 0.022457046 0.008413838 0.075030625
0001d0 8f 53 9c 3d e3 a1 84 3b e3 0b 56 3b 31 df 40 bc
       0.07633125 0.0040476187 0.0032660894 -0.011771963
0001e0 39 51 37 3c 8d f5 9a 3b 5f 3d 2a bd da 91 f7 bc
       0.011188799 0.004728979 -0.041562434 -0.030220915
0001f0 2c 56 c0 3b 41 4c 1a bd 45 bd eb 3b a2 81 b6 bd
       0.0058696475 -0.037670378 0.0071941935 -0.08911444
000200 2d 25 f4 3c fe 1b 3c 3d 9d 1d c4 bd 18 62 6d bd
       0.029802883 0.045925133 -0.09575961 -0.057954878
000210 7a 9e 95 bb 90 42 11 bc c9 fd 8d bd 8f 35 cb 3c
       -0.004566011 -0.008865967 -0.06933171 0.024805812
000220 46 16 18 bd d3 b1 53 3d c1 c7 31 bd 5d 4a 67 3d
       -0.037130617 0.05168326 -0.04340339 0.056467403
000230 30 05 a9 3c 22 e6 90 3d 27 e7 56 bd 54 27 d8 bc
       0.020632356 0.07075144 -0.052466538 -0.02638594
000240 24 ba 40 bd 82 0b 01 3d e2 49 73 bd 90 78 62 bd
       -0.047052518 0.031505115 -0.059396632 -0.05529076
000250 30 e3 4e bb 8b 52 91 bb 96 02 b0 3c 5c a9 5b bd
       -0.003156852 -0.0044348887 0.021485608 -0.05362831
000260 eb 09 8c bd 3a 2e 06 3d 62 de 5c 3d a0 50 2f 3d
       -0.06837829 0.03275893 0.05392302 0.0428015
000270 81 71 81 3d 20 63 4e bc 60 78 be 3c 26 ed 14 bb
       0.06320477 -0.012596875 0.023250759 -0.002272436
000280 dc 8d 34 bd 75 79 02 3d 84 2f 68 3c 87 52 b4 3c
       -0.0440806 0.03185411 0.014171485 0.022012008
000290 af 10 99 bd f9 a7 8b bc 23 e1 26 bc a5 e8 3b 3c
       -0.07473885 -0.017047869 -0.010185513 0.011469041
0002a0 b6 b2 f7 3c 9d 9a 98 bd f7 3d b4 ba 24 a4 2d 3d
       0.030236583 -0.07451365 -0.0013751377 0.042392865
0002b0 b4 e0 59 3d e2 1d 37 bd 27 c4 35 3d 73 04 9c 3d
       0.05319281 -0.044706233 0.04437652 0.07618036
0002c0 61 6d 44 3d 11 a4 23 bb e7 22 70 bd c4 8d f1 bc
       0.047955874 -0.0024969617 -0.058627035 -0.029486544
0002d0 8d c5 4c 3d ea 32 e0 bc 0d b4 0d bc d2 98 1e 3d
       0.049993087 -0.027368028 -0.0086488845 0.03871996
0002e0 af 92 9d bd ad a9 19 3d af 09 40 3d 0d 86 e1 bc
       -0.07693993 0.03751533 0.046884235 -0.02752974
0002f0 fd a2 f6 3b 3c 12 34 bc a8 78 95 3d 5b 9a f6 b8
       0.007526754 -0.010990676 0.07298404 -0.00011758945
000300 31 95 c2 bd 10 b7 eb 3c 4a a1 b2 3d ac 69 00 3d
       -0.09501112 0.028773814 0.0872217 0.031350777
000310 d8 a4 4c bd 34 94 8c 3c bc d5 39 bd 2c 50 82 bd
       -0.049961895 0.017160513 -0.04536985 -0.06362948
000320 47 22 5f 3d 8e 48 13 3c 9b 58 0f bd 0d de 7d 3d
       0.05447605 0.008989466 -0.03499661 0.061979342
000330 6c 9f 95 bd 5c f5 61 bd 35 d3 73 3d ec 1d 5d 3d
       -0.07305798 -0.055165634 0.059527595 0.053983614
000340 cd e3 40 3d ca a2 dc 3c ad 10 13 3b e3 bd 40 bd
       0.047092248 0.026933093 0.002244036 -0.04705609
000350 8d 7f 0d 3d c3 49 81 3d 44 6c 97 bc 01 f6 1f 3c
       0.03454547 0.06312897 -0.018484242 0.009763242
000360 5c 06 db bc 20 0b 80 bd 85 f1 8f 3b 52 9d 01 3d
       -0.02673643 -0.06252122 0.004392805 0.031644173
000370 61 1b 13 3c b6 24 e4 3c 77 2b 4c bd b1 88 10 bd
       0.008978696 0.027849536 -0.04984614 -0.03528661
000380 01 69 a6 bb 4f 5e 6b 3d 0a 33 ce 3c ef 8a 4c 3d
       -0.0050784354 0.057462987 0.025170822 0.049937185
000390 a5 17 5e bc 3f f7 5e bd 8e 64 23 bd 19 49 1b 3d
       -0.013555442 -0.05443501 -0.03989082 0.03791151
0003a0 bc 45 74 3d 81 e0 32 bd cf b7 a7 3c 71 0d 9e 3c
       0.059636816 -0.043671135 0.020473389 0.019293519
0003b0 90 c9 5a bc 7f 3c 90 bc 3e b0 e5 3c 44 9d c2 bc
       -0.01335372 -0.017606972 0.02803814 -0.02375663
0003c0 9c 1d a5 3d 9b ee 3a 3d ab ca 39 3d 67 87 fe 3c
       0.08062288 0.04563771 0.045359295 0.031070424
0003d0 c7 50 57 bd 5d 46 02 3b bd 83 60 bd 34 3a e0 3b
       -0.05256727 0.0019878366 -0.054813135 0.006842876
0003e0 1d 51 48 bd f8 2c f4 3a 70 77 e0 3c 69 3b 89 3a
       -0.04890548 0.0018629124 0.027400702 0.0010469976
0003f0 51 19 1a 3d e4 50 d7 3c 2a 18 80 3b 7c f7 68 bd
       0.0376218 0.026283689 0.0039091306 -0.056876644

layer1.0.bias f4 [64]
000000 6e 07 34 3f 8e 6a 4d 3f c1 32 37 3f 24 f4 37 3f
       0.70323837 0.80240715 0.7156182 0.71856904
000010 1c f1 2a 3f 89 58 21 3f 29 a9 3d 3f 91 bd 1f 3f
       0.66774154 0.6302572 0.7408624 0.6239863
000020 88 57 28 3f 5c f0 3c 3f 2b 9f 0b 3f d6 b9 4f 3f
       0.6575856 0.7380426 0.54539746 0.8114294
000030 e8 9f 57 3f 23 28 41 3f 9a 34 17 3f b2 4b 2e 3f
       0.8422837 0.7545187 0.5906464 0.6808425
000040 d2 a5 26 3f 46 6d 39 3f 52 0c 4a 3f 75 bb 34 3f
       0.6509677 0.72432363 0.7892505 0.70598537
000050 ac 42 18 3f cf 82 34 3f b1 ca 3e 3f d3 80 4f 3f
       0.59476733 0.705121 0.7452803 0.81055945
000060 f6 30 3a 3f a8 f2 2f 3f ce e3 2c 3f 5e a2 2d 3f
       0.7273096 0.6872964 0.675351 0.6782588
000070 05 cb 21 3f 75 96 49 3f 45 69 20 3f e8 15 55 3f
       0.6320041 0.78745204 0.6266063 0.8323655
000080 9f 47 35 3f 34 c8 3f 3f 2b c7 45 3f 8c 8b 3a 3f
       0.7081241 0.7491486 0.7725703 0.7286918
000090 d5 81 13 3f 8c 44 1d 3f fb 65 41 3f 24 21 ff 3e
       0.5761998 0.6143272 0.75546235 0.49829972
0000a0 4a 6d 1b 3f 7d dc 46 3f 75 4a 14 3f fe 81 27 3f
       0.60713637 0.7768019 0.5792611 0.6543273
0000b0 e1 bf 1a 3f bc d8 3c 3f fb 5e 2d 3f 2a b1 2c 3f
       0.60449034 0.7376821 0.67723054 0.6745783
0000c0 2b 5d 29 3f 62 01 4e 3f 45 92 57 3f 83 09 3a 3f
       0.6615779 0.8047086 0.84207565 0.72670764
0000d0 8c 26 37 3f 23 dc 3a 3f 2b 11 35 3f 89 ca 1d 3f
       0.7154319 0.7299215 0.7072932 0.6163717
0000e0 57 88 20 3f 71 4f 33 3f b9 e7 3d 3f d1 bb 11 3f
       0.6270804 0.7004309 0.74181706 0.5692721
0000f0 1d 9c 3b 3f 99 12 4f 3f 10 69 30 3f 72 29 2e 3f
       0.73285085 0.8088775 0.6891031 0.6803199

layer1.1.weight f4 [64]
000000 5b 87 82 3f d9 77 7d 3f 4b 3f 7b 3f 4f bb 80 3f
       1.0197557 0.99011 0.9814345 1.0057162
000010 da 1c 7c 3f 1a ed 74 3f a8 5d 81 3f 88 5c 76 3f
       0.98481524 0.9567429 1.0106707 0.9623494
000020 f4 c7 7e 3f e8 33 7f 3f a7 78 7a 3f e4 74 7d 3f
       0.99523854 0.9968858 0.9784035 0.99006486
000030 8e 23 81 3f 0d 91 81 3f 15 2c 7d 3f 90 ae 7b 3f
       1.0088975 1.0122391 0.9889539 0.98313236
000040 64 14 86 3f 6f 74 7d 3f 6a dc 7f 3f e4 a7 7f 3f
       1.0474973 0.9900579 0.999457 0.99865556
000050 bd fc 73 3f 95 66 80 3f 46 f6 81 3f 39 ab 7e 3f
       0.95307523 1.0031306 1.0153282 0.99480015
000060 84 ee 80 3f 19 2c 85 3f 79 c1 81 3f a0 8b 7b 3f
       1.0072789 1.0404083 1.0137168 0.98259926
000070 05 71 80 3f 62 04 85 3f 53 6c 74 3f 70 68 7b 3f
       1.0034491 1.0391963 0.9547779 0.98206234
000080 10 f0 83 3f 1b 01 7e 3f 55 59 7a 3f 16 04 81 3f
       1.0307636 0.99220437 0.9779256 1.0079372
000090 c6 ec 78 3f 15 7a 80 3f 14 9a 7f 3f e0 c1 75 3f
       0.9723629 1.0037256 0.9984448 0.95998955
0000a0 30 66 7b 3f d0 b2 7f 3f ff 9a 81 3f 3d d6 79 3f
       0.982028 0.9988222 1.0125426 0.97592527
0000b0 11 a2 72 3f 93 98 7a 3f e9 83 80 3f 85 b3 7b 3f
       0.94778544 0.9788906 1.0040256 0.983208
0000c0 f9 50 77 3f a8 10 81 3f 00 60 83 3f a9 b0 85 3f
       0.9660793 1.0083208 1.0263672 1.0444537
0000d0 4e 9f 84 3f 0b 87 7b 3f e0 48 7c 3f 38 af 83 3f
       1.0361116 0.98252934 0.985487 1.0287848
0000e0 6f 8f 77 3f 47 dd 80 3f e0 09 78 3f 40 79 7d 3f
       0.9670324 1.0067528 0.9689007 0.9901314
0000f0 33 10 79 3f 6e 91 82 3f 59 ec 7f 3f 74 f6 76 3f
       0.97290343 1.0200632 0.9997001 0.9646981

layer1.1.bias f4 [64]
000000 3d de df bc bd dd 1d b9 81 d1 8f 3c ee 36 7b 38
       -0.027327651 -0.0001505529 0.017555954 5.989422e-05
000010 05 63 47 bd 04 b7 2d 3d 76 5c 8b bd 20 03 0d 3d
       -0.048678417 0.042410865 -0.06804745 0.03442681
000020 dc d5 5f bd 0f 84 0d 3d ba 5a 20 bd a0 fc 31 3d
       -0.05464731 0.03454977 -0.039149024 0.043453813
000030 04 98 30 bd a5 d9 cf 3b 0a 86 2b bd 2c 40 03 3d
       -0.043113723 0.006343084 -0.041875876 0.03204362
000040 09 11 60 bd ab 81 16 3c 14 f0 29 3c 7e 50 f9 bc
       -0.054703746 0.009186189 0.0103721805 -0.03043389
000050 15 9b 80 bb b3 3f 96 bd 1d e2 7b bd 07 da e0 bc
       -0.003924737 -0.073363684 -0.061494935 -0.027447714
000060 6a fa 21 bd 84 ff 6f bd 55 ac af 3c 64 1d 87 bc
       -0.039545454 -0.058593288 0.021444479 -0.016493507
000070 09 60 91 bd 75 b8 18 bd 07 83 f2 3c e0 6d f2 3c
       -0.070983954 -0.037285287 0.029603494 0.029593408
000080 49 4d 81 bd 86 37 a4 3c ae a7 c7 3c 40 96 3a bd
       -0.06313569 0.020046007 0.024371948 -0.045553446
000090 51 ba ef 3c 0c 63 b1 bd 0e 66 c0 3c ed a9 5f 3b
       0.029263647 -0.0866147 0.023486163 0.0034128383
0000a0 03 85 a5 3c ab 34 1c 3d 95 1c 66 bd aa d1 25 3d
       0.020205026 0.038136166 -0.0561796 0.040483154
0000b0 99 9d 2e 3d 0f 8c aa 3c 26 ed 33 bd f4 38 49 bd
       0.042630766 0.020818738 -0.043927334 -0.04912658
0000c0 88 b2 bb bc bc 05 05 bc b9 b8 fd bc 44 41 63 bd
       -0.022912279 -0.008119043 -0.030971872 -0.055482164
0000d0 16 1d de bb c2 da e0 3b ad de 26 3b 1a d7 28 bd
       -0.0067783697 0.0068620155 0.0025462315 -0.04122076
0000e0 dd f8 17 3b 36 6e cb 3a 10 aa 0a bc c6 4d 41 bd
       0.0023189106 0.0015520516 -0.008463398 -0.04719331
0000f0 4b ac 46 3a fe c8 01 bd b1 77 8b bb b8 ce 5e 3b
       0.0007578774 -0.03168582 -0.0042562117 0.0033997726

layer1.1.running_mean f4 [64]
000000 ca 7d 14 3f 5d 7f 5b 3f 9b d4 44 3f 96 37 32 3f
       0.5800444 0.85741216 0.7688691 0.6961607
000010 df 20 59 3f d2 ac 3b 3f 98 53 22 3f 41 13 3a 3f
       0.8481578 0.7331058 0.63408804 0.7268563
000020 0c dc a6 3e fc ae 28 3f e0 96 73 3f 02 49 4c 3f
       0.32589757 0.65892005 0.9515209 0.797989
000030 5b 99 4a 3f d4 9e 47 3f 97 46 20 3d 68 30 3a 3f
       0.7914025 0.7797673 0.03912982 0.7273011
000040 7b 7f d0 3e c4 cc ea 3e ea b7 35 3f a7 81 36 3f
       0.4072226 0.4585935 0.70983756 0.71291584
000050 58 86 47 3f ae 96 07 3f 16 f9 0b 3f 33 8e 30 3f
       0.7793937 0.52964294 0.5467695 0.6896698
000060 13 01 3a 3f 9f 87 ae 3e 18 45 39 3f 1e 01 14 3f
       0.7265789 0.34087846 0.72371054 0.57814205
000070 b5 f4 3c 3f 9a 5a 45 3f c4 0a 69 3f 44 1e 5b 3f
       0.73810893 0.7709137 0.9103205 0.85593057
000080 0a f7 1d 3f 86 3c 3e 3f f8 21 5a 3f 34 4d 2c 3f
       0.61705077 0.743111 0.8520808 0.673053
000090 91 00 6c 3f b9 ed d9 3d 41 ad 34 3f ee 3a 72 3f
       0.92188364 0.10641045 0.70576864 0.9462117
0000a0 46 41 18 3f 91 83 68 3f ff 2a 93 3e 88 46 66 3f
       0.594746 0.90825754 0.2874374 0.8995137
0000b0 78 60 61 3f 39 76 54 3f ce d5 09 3f a8 ad 18 3f
       0.88037825 0.82992893 0.53841865 0.5963998
0000c0 ad ec 59 3f 62 7b 3a 3f 4c 02 47 3f ac bb ca 3e
       0.85126764 0.7284452 0.7773788 0.39596307
0000d0 5d 49 28 3f f6 4b 30 3f b1 47 6c 3f 62 71 ab 3e
       0.65736943 0.6886591 0.9229689 0.33484942
0000e0 70 02 77 3f 86 e6 2c 3f 3e bf 55 3f 09 88 b0 3e
       0.96488094 0.6753925 0.8349494 0.34478787
0000f0 47 04 40 3f 54 e1 4b 3f 1b f1 28 3f e9 f0 62 3f
       0.75006527 0.796407 0.659929 0.8864885

layer1.1.running_var f4 [64]
000000 9e 03 e3 3f b7 48 52 3e e2 b0 64 3e 18 ea 2b 3e
       1.7735479 0.20535551 0.223331 0.16788518
000010 46 b4 b0 3f 9e 0b 42 3f e1 73 ee 3e 2d b7 44 40
       1.3805015 0.75798976 0.46572784 3.0736802
000020 73 fb 1b 40 19 9a 06 3f 22 d6 0c 40 5c 6b 40 3e
       2.4372222 0.52578884 2.2005696 0.18790954
000030 6e 68 0c 3e 32 c6 85 3e 74 40 9c 40 94 9e ab 3e
       0.13711712 0.26127774 4.882868 0.33519423
000040 a2 12 ef 3f ba 7d 5f 3f 04 07 91 3e ae 54 ce 3e
       1.8677561 0.8730122 0.28325665 0.4029898
000050 c0 23 87 3f 04 9b 7a 3f fe cd 6b 3f e9 e4 ae 3e
       1.0557785 0.97892785 0.92111194 0.3415902
000060 8d be 11 3e d9 da 6e 40 6d 4c 92 3e 9a 30 a6 3e
       0.14232846 3.7321074 0.28573933 0.32458955
000070 b0 50 23 3f e4 8d 5c 3e c3 1e b4 3f e0 53 23 3e
       0.63794994 0.21538502 1.4071888 0.15949965
000080 d3 7a 88 3e bd 34 a0 3f a6 3c a9 3e fa e7 b9 3e
       0.26656207 1.2516094 0.33054084 0.36309797
000090 0c 2d 29 40 50 bd 7f 40 de 8c 65 3e 6c 47 a6 40
       2.6433744 3.9959297 0.22417018 5.1962185
0000a0 0f 20 6e 3f 34 c0 d7 3e 63 35 ae 3f f9 f9 df 3f
       0.9301767 0.42138827 1.3610042 1.7498161
0000b0 6c 8d 15 40 d2 bb 9e 3f 4d d1 b4 3e 89 37 9d 3e
       2.3367567 1.2401068 0.35315934 0.30706432
0000c0 19 38 3e 3f 67 34 81 3e e2 42 30 3e a0 58 33 40
       0.7430435 0.25235292 0.17213014 2.8022842
0000d0 66 ae 93 3e ec f2 20 3e 83 07 38 3f b9 17 27 40
       0.28843993 0.15717667 0.7188646 2.610823
0000e0 ee d7 03 40 3b 32 19 3e 21 e2 20 3f 20 15 bb 3f
       2.0600543 0.14960568 0.62845045 1.4615822
0000f0 3c af 02 3f 76 0c 66 3e a4 fa 23 3f 42 da 85 3f
       0.51048636 0.22465691 0.6405432 1.0457232

layer2.0.weight f4 [64, 64, 3, 3]
000000 72 7b 95 3c 6f 14 1b 3b bb 87 22 3c 37 99 ec bc
       0.01824734 0.0023663302 0.009920056 -0.028881652
000010 c1 cb 0a 3c 45 7a cc 3c 08 20 da 3c 51 57 24 3c
       0.00847143 0.024960646 0.026626602 0.0100305835
000020 09 fa 8a bb a4 ce 3d bc 80 0c db 3c 68 86 e2 3c
       -0.0042412323 -0.0115849115 0.026739359 0.02765198
000030 72 02 d0 bc 93 1a da 3a e7 7c 24 3a be 27 ee bb
       -0.025391791 0.001664 0.00062747154 -0.007267921
000040 36 fe 2f 3d 95 a5 38 bd a4 66 0d 3d 9e 4d 7a 3c
       0.042967044 -0.045079786 0.034521714 0.015277294
000050 19 34 ed 3b d1 7b 09 3c 8e c2 e1 3b f1 74 55 3d
       0.0072388765 0.008391337 0.006889648 0.052113477
000060 17 62 cf 3c da d3 43 bc be 42 c1 3c 01 15 cf bc
       0.025315328 -0.011952365 0.023591395 -0.02527857
000070 ea b4 26 bd fc e7 4c 3c b6 a7 19 3d 61 6c 5c 3b
       -0.040699877 0.012506481 0.037513457 0.0033633935
000080 ab 78 13 3b 1e 7f 64 3c 69 26 5f bd b9 6a f7 3a
       0.0022502344 0.013946323 -0.05447999 0.001887641
000090 39 28 dc bb dc 40 03 3d 44 df 06 ba dd a8 d1 3a
       -0.006718662 0.032044277 -0.00051449635 0.001599576
0000a0 87 0a ba bc 61 9e c1 bc 5d 13 86 bc ff 9f 4d 3d
       -0.022710098 -0.023635091 -0.016366655 0.050201412
0000b0 85 b5 16 3d 34 cc 47 3c 94 41 f6 ba 03 8d b2 3c
       0.036794204 0.012194682 -0.0018787854 0.021795755
0000c0 26 32 8e 3b c9 75 15 3c 55 03 42 3c 65 ca 53 3b
       0.0043394743 0.00912232 0.011841615 0.0032316681
0000d0 55 55 e3 3c 87 65 a2 3a 3a 1c 2a 3d 08 5a 07 bd
       0.02775065 0.0012389877 0.041530825 -0.033044845
0000e0 e1 a4 05 bc 80 e4 54 3d d2 5a e7 3c d0 e2 04 bd
       -0.008156986 0.051975727 0.028241549 -0.032442868
0000f0 6d 62 81 3d b9 53 f1 bc 13 42 51 3d 0a 58 24 bc
       0.06317601 -0.029458867 0.051088404 -0.010030756
000100 8b e0 15 3d 23 8f 82 bc 4f 15 cd 3b 43 d0 24 bd
       0.036591094 -0.015937394 0.0062586437 -0.040237676
000110 45 ce 43 3c 8e f9 a6 bc 5f e5 ad bc 3d 32 1b bd
       0.011951034 -0.020382669 -0.021227537 -0.037889708
000120 13 3d 9b 3c 26 9d 0a bc 64 46 3e 3c 44 cc 43 3d
       0.01895002 -0.008460319 0.011613462 0.047802225
000130 43 03 93 3b b4 06 73 bc 28 14 41 3d 5f be 90 3c
       0.004486473 -0.014833141 0.047138363 0.017668901
000140 ce 4d c9 3b 6e fc 53 3d 0c 2b 89 bc 41 de 2f 3d
       0.0061433082 0.051754408 -0.01674416 0.042936567
000150 fd e1 7b bb 94 e0 f7 3c 30 2f bb bc d2 20 7b 3b
       -0.003843426 0.030258454 -0.02284965 0.0038319123
000160 8d 94 7f b9 76 22 4f 3d b0 e2 43 3d 66 c6 fd bc
       -0.00024374035 0.050569974 0.047823608 -0.030978393
000170 a6 f4 c5 bc 0b 1f 19 3d 80 a8 b0 3c 9a 25 ef bc
       -0.024164509 0.03738312 0.021564722 -0.029192735
000180 19 a1 0f 3d 55 e1 07 bc 1e f7 b3 3c 6e 3c de bc
       0.035065744 -0.008293469 0.02196842 -0.027128424
000190 63 44 e4 ba f5 52 f1 bc db a9 91 bd 50 b6 06 3b
       -0.00174154 -0.029458502 -0.071124755 0.0020555444
0001a0 2d b5 28 bc 81 59 5d bc d2 01 d5 bc a9 df 48 bd
       -0.010297102 -0.013510109 -0.026001845 -0.049041424
0001b0 5b 3a 2f bd c8 f6 d8 3c 44 88 40 bc 9e 9c f4 3c
       -0.04278026 0.026484862 -0.011751238 0.029859837
0001c0 4b 57 59 bd 3e ba 1e bd 87 d9 8a 3c e1 f0 3c 3b
       -0.053061765 -0.038751833 0.016949428 0.0028830098
0001d0 e7 02 f1 3b 19 36 02 3d 1e b0 09 3d 46 dc 8b 3a
       0.0073550823 0.031789873 0.033615224 0.0010670505
0001e0 22 bc 3b bc c9 9b 16 3d 80 e0 48 bc 01 0f 85 bb
       -0.011458429 0.036769662 -0.012260556 -0.0040606265
0001f0 72 59 d0 bb 66 06 1e bd 51 76 28 3c ea 39 e2 3c
       -0.006358319 -0.03858032 0.010282115 0.027615506
000200 6b 40 6f bc 5a 0c ea 3c fa 5b d7 bc 48 6e cd ba
       -0.014602761 0.028570343 -0.026288975 -0.0015673125
000210 6e 20 af bc 13 7f 60 bc ff 4f 25 3d 2b af c8 3c
       -0.021377768 -0.013702172 0.040359493 0.02449759
000220 d0 ab 73 3d 12 fb b8 bc f4 d4 01 3c 64 b4 bf 3c
       0.059490025 -0.022580657 0.007924307 0.023401447
000230 6a 14 b6 bc c1 61 16 3d 99 2f cf bc 4e 1f de 3c
       -0.022226531 0.03671432 -0.025291251 0.027114537
000240 f5 b5 a2 bc bf 64 19 3c 4c 75 9d 3c 48 35 35 3c
       -0.019862154 0.009362399 0.01922097 0.0110600665
000250 69 1c 69 bb 41 95 86 3c 8b c6 05 3d ec ac 7a bc
       -0.0035569912 0.016428592 0.03266005 -0.015300017
000260 2d 26 5c 3c 5f 84 8f bb c2 eb 89 bc 6e 5c 2e 3d
       0.013436836 -0.0043797935 -0.01683605 0.042568617
000270 46 ef 34 3d 07 6e 10 bd fd 98 e8 bb 35 df 41 3d
       0.0441735 -0.03526118 -0.0070983157 0.047332007
000280 0b b5 6f 3c 6e 6c 23 bc a2 57 af 3c d6 15 de 3b
       0.014630566 -0.009974582 0.021404091 0.0067775054
000290 69 ea 1a 3d 72 a7 92 3c dc 9f 82 bc 66 8a cf bb
       0.037821207 0.01790211 -0.015945368 -0.006333637
0002a0 a8 ec 0b 3d 7c 0c 1d bd 9e 61 48 3d 50 1e c4 bc
       0.03416124 -0.038341984 0.04892122 -0.023940235
0002b0 80 11 56 bd a4 bf 88 3c f8 d4 14 bc 2a 24 f2 bc
       -0.052262783 0.016692944 -0.009083979 -0.02955826
0002c0 b3 c9 4f 3d 00 15 20 3d 3d 27 87 3c e7 86 f3 bc
       0.050729465 0.039082527 0.016498202 -0.029727412
0002d0 73 cd db 3c 1e 08 2f 3c 90 78 36 3d 89 71 48 bd
       0.026831364 0.010683088 0.04454857 -0.0489364
0002e0 d1 b6 c4 bc c5 3b 72 3c bf b0 87 bd d2 be b4 3c
       -0.024012955 0.014784758 -0.066255085 0.022063646
0002f0 85 72 89 bd 78 f0 28 3c 74 ef 1b bd 0f 13 09 bd
       -0.06711296 0.0103112385 -0.038070157 -0.03346544
000300 f6 43 17 bd 0f 92 95 bd 44 b4 2d bc 19 6b 8a bb
       -0.036930047 -0.07303249 -0.010602061 -0.004224193
000310 09 f4 63 bd e5 ba 2a bc d6 74 b2 3b a3 43 bb 3c
       -0.055652652 -0.010420536 0.005446057 0.0228594
000320 2e 62 06 bd b4 64 d8 bc 8f 0c fd 3b e6 17 b0 3b
       -0.032808475 -0.026415206 0.0077224444 0.0053739427
000330 48 ec 94 3c 6a 74 27 bd 75 09 3f 3d bc 14 0b 3d
       0.018179074 -0.040882505 0.04663988 0.03395532
000340 bc 63 55 3d a1 41 fa bc 69 29 75 3d 63 61 60 bc
       0.052097067 -0.030548872 0.059853945 -0.013695094
000350 df 5b fe 3c a4 71 db bc 18 6c 17 3c 33 cc 31 3c
       0.031049667 -0.026787587 0.00924208 0.010851908
000360 5a 46 a2 3b 0a c6 09 bc 81 c1 0a 3d dd 14 2b 3d
       0.004952234 -0.008409033 0.033875946 0.041767944
000370 3f 1b a4 bb 90 83 15 bd 6b 58 36 3d 64 4a 3d 3d
       -0.005008131 -0.03650242 0.044517916 0.046213523
000380 16 74 a8 bc 33 54 37 3d 45 e0 26 bb 59 cc ac 3b
       -0.020563167 0.044758033 -0.0025463265 0.0052733836
000390 38 fe 78 3d 48 5f 81 bc 2c 0c da 3b ec 15 b7 3c
       0.060789317 -0.015792504 0.006654283 0.02234932
0003a0 0f c9 00 bc 2b f8 ab 3d 98 87 83 3c c9 12 19 3c
       -0.007860436 0.08396944 0.016055867 0.009342858
0003b0 48 51 b8 bc dd 2d a7 bc 99 78 6b bc 2e b3 03 bd
       -0.022499695 -0.020407612 -0.014372014 -0.0321533
0003c0 8f f1 32 bd ee cd 47 3c 20 7d 28 bd 20 24 fa 3b
       -0.0436874 0.012195094 -0.041134953 0.007633701
0003d0 b6 83 15 3d cc 66 1d 3b ba 8e 5d bc 81 ae 00 3c
       0.036502562 0.002401757 -0.013522798 0.007854105
0003e0 7a 0e f6 3c a9 31 18 3c 6a a4 6a bd 68 01 2a bd
       0.0300362 0.009289184 -0.057285704 -0.041505247
0003f0 a1 5b 83 3d ab ef 9b 3c 45 ad d8 3b 1e c3 2b 3d
       0.06413961 0.019035181 0.006612452 0.041934125

layer2.0.bias f4 [64]
000000 05 45 e8 3c 3e cd 58 bc bb 95 fb bc fe 3e 9c 3c
       0.028353224 -0.013232527 -0.030711045 0.019073006
000010 c0 a9 08 3d c5 3f 48 3b fe c7 17 bc 8f a7 e6 bc
       0.03336501 0.0030555588 -0.00926399 -0.02815607
000020 8d 7f c9 39 7e 27 22 bc 6e b4 2c bd 00 2e 87 3c
       0.0003843274 -0.009897111 -0.04216426 0.016501427
000030 a3 19 a2 bb b6 1b 65 3c 22 e4 32 bd d9 e0 4a 3a
       -0.004946904 0.013983658 -0.043674596 0.00077391934
000040 86 53 fc 3c bf f2 bd 3b 49 f1 bb 3a cd 93 e4 3c
       0.030801546 0.00579676 0.0014338876 0.027902508
000050 f8 fd 21 3d f4 bd 80 3c 06 fc 69 bc b9 5a f7 bc
       0.039548844 0.015715577 -0.0142812785 -0.030194627
000060 2f b4 00 3d 06 a4 81 3b c4 7c b1 bc d8 66 26 3d
       0.031421836 0.0039563207 -0.021665938 0.040625423
000070 53 7b f1 3c 9b 03 ac 3c 70 42 96 bc 0e 03 87 bc
       0.02947775 0.020997813 -0.018342227 -0.016480949
000080 73 02 1e bc 10 c6 a4 bc d0 7d be 3b 78 7a 16 bd
       -0.009644139 -0.020113975 0.005813338 -0.03673789
000090 b3 1d 49 bc ee ed b5 3c bc 8b c3 3b 1d c9 06 3c
       -0.012275147 0.02220818 0.0059675854 0.00822666
0000a0 31 4a 04 bc d9 e0 c6 3c b3 aa 8f 3c b5 83 3a 3b
       -0.008074329 0.024277138 0.01753745 0.0028459851
0000b0 91 76 d3 bc 4c d4 18 bd c1 92 bb bc 81 fe 92 bc
       -0.025813373 -0.037311837 -0.022897126 -0.017943623
0000c0 b0 60 8b 3b f8 89 cb bc 2f e3 b2 bc 43 d0 f3 3c
       0.0042534694 -0.024846062 -0.021836845 0.029762393
0000d0 b1 2e 63 bc 35 14 58 3b 27 2a 17 bd 05 12 5a 3c
       -0.013866113 0.0032971029 -0.036905434 0.01330996
0000e0 f2 30 f5 bb cc d3 a4 3c 24 1a ad 3c b1 b9 18 bd
       -0.0074826414 0.020120524 0.021130629 -0.037286464
0000f0 c3 f3 17 bd 18 0c 1f bd 02 5c 1b 3d 5a 0f c4 3c
       -0.037097704 -0.038829893 0.037929542 0.023933101

layer2.1.weight f4 [64]
000000 14 93 82 3f d2 ab 80 3f df 10 82 3f 9e 0a 7b 3f
       1.0201135 1.0052435 1.0161399 0.98063076
000010 fa de 7d 3f 0c 8c 81 3f f0 d0 81 3f 3a 6c 77 3f
       0.9916836 1.0120864 1.0141888 0.96649516
000020 5f 67 82 3f 2e e2 80 3f 49 12 7b 3f d4 fc 82 3f
       1.0187796 1.0069025 0.98074776 1.0233407
000030 72 20 7f 3f 17 3a 79 3f 04 d6 80 3f 6b 63 81 3f
       0.9965888 0.97354263 1.0065312 1.0108465
000040 36 6f 82 3f 06 e7 80 3f 4a 97 7e 3f 13 48 80 3f
       1.0190189 1.0070503 0.994496 1.0021995
000050 2c 49 7f 3f 26 1b 82 3f 6a 22 80 3f e8 86 7a 3f
       0.99721026 1.0164535 1.0010502 0.978621
000060 c5 79 7b 3f 1b bc 81 3f fd c9 7d 3f ba a8 7b 3f
       0.9823268 1.013553 0.99136335 0.9830433
000070 20 63 81 3f 5b 09 80 3f 4d 95 7e 3f 8c 92 7e 3f
       1.0108376 1.0002855 0.99446565 0.9944236
000080 c6 93 79 3f ac f2 7d 3f 2e 8c 7a 3f 95 ed 7e 3f
       0.9749111 0.9919841 0.9787015 0.9958127
000090 54 c3 7f 3f 77 ad 7e 3f 2c 55 7c 3f b9 fe 7c 3f
       0.9990742 0.99483436 0.9856746 0.98826176
0000a0 2d 42 78 3f 6b 1e 86 3f fb b6 80 3f 94 06 82 3f
       0.96975976 1.0478033 1.0055841 1.0158257
0000b0 c0 e8 7e 3f 36 80 7e 3f 41 df 7c 3f 08 ca 7d 3f
       0.995739 0.99414384 0.9877816 0.991364
0000c0 fc 71 7a 3f c7 73 7c 3f 9b 81 7e 3f 17 75 82 3f
       0.97830176 0.9861416 0.9941651 1.0191983
0000d0 8e 1f 83 3f 15 3b 84 3f f0 93 83 3f 6f 4e 78 3f
       1.0244005 1.033053 1.0279522 0.9699468
0000e0 82 f2 81 3f 8b 47 80 3f 1e 5d 7c 3f 6b 01 81 3f
       1.0152133 1.0021833 0.98579586 1.0078558
0000f0 9e b8 7d 3f 52 5e 7b 3f f1 d2 80 3f 2a 5d 7d 3f
       0.9910983 0.98190796 1.0064374 0.9897028

layer2.1.bias f4 [64]
000000 85 b4 0a 3c c3 50 4f 3c f9 bb 22 3d 59 02 62 bd
       0.008465891 0.012653532 0.039730046 -0.05517802
000010 3f 27 a0 bc 75 a4 4f bd 4b 5b 0e bd e3 82 71 3c
       -0.019549964 -0.050693948 -0.034755033 0.0147406785
000020 32 d4 54 bd 7e 3b de bc c8 c2 2e bc 23 e3 e9 bc
       -0.051960178 -0.027127977 -0.010666557 -0.02855069
000030 38 c4 8e bc 63 1f a2 bd d6 8a 1e bd e8 1c 09 bc
       -0.017427549 -0.07916143 -0.038706623 -0.008368708
000040 8e 6c 30 3b 9c 3b ca bc 49 ce 12 bd c6 39 51 bc
       0.0026920172 -0.024686627 -0.03584126 -0.012770122
000050 62 2b bc bb 05 5a e6 bc 50 c4 30 bc fc 63 c0 bc
       -0.0057424763 -0.028119097 -0.010788992 -0.023485176
000060 dd 86 a5 bc cf fe 96 bd da f8 70 bc 3e 95 8a bd
       -0.02020591 -0.0737282 -0.014707768 -0.06766747
000070 2e 07 4c bc 81 9b 44 3c 6a 49 af bc 69 b6 a1 bc
       -0.012452884 0.011999966 -0.021397311 -0.0197403
000080 e1 34 48 bc ce 85 9a bb 98 88 5a bd 4d 6f a6 bd
       -0.012219639 -0.004715658 -0.053352922 -0.08126698
000090 6e 66 3d bd 72 1b 38 bc 2a 84 f2 bc 09 e4 1f bd
       -0.046240263 -0.011237012 -0.029604036 -0.03903583
0000a0 8d 08 0c bd 7f 86 fb bc ed c3 6f 3b 20 da b0 bc
       -0.034187842 -0.030703781 0.0036585287 -0.021588385
0000b0 9f fc da bc 21 1a 3f bd 12 3d a3 bd e5 7c 27 bd
       -0.026731787 -0.046655778 -0.079706326 -0.040890593
0000c0 1e c9 5c bd c1 0c 8c bc 4d ca d6 bc 96 30 96 bd
       -0.053902738 -0.017095925 -0.026219511 -0.07333486
0000d0 eb 8f ee bc a9 79 87 bd dc 1c 64 bd 97 b8 06 bd
       -0.02912136 -0.06615002 -0.055691585 -0.032890882
0000e0 81 14 51 bc 5d b7 7b bd 6e dc 20 bd 5d bf 9c bc
       -0.012761236 -0.061454166 -0.039272718 -0.019134218
0000f0 1d ab ca bb 65 ee c1 bc 6e 3d 54 bd 27 de e7 bc
       -0.006184949 -0.023673246 -0.051816396 -0.028304173

layer2.1.running_mean f4 [64]
000000 09 e3 01 3d 37 a6 51 bf 17 0f 55 bf 3b 86 91 3e
       0.03171066 -0.8189425 -0.8322615 0.28422722
000010 e3 d8 ac bf 99 04 41 bf 42 06 fa be 54 58 77 3e
       -1.3503689 -0.7539764 -0.488329 0.24154788
000020 5f 21 0a bf 37 0b 23 bf 0d 53 5b bf 6f ed 82 bf
       -0.5395717 -0.6368899 -0.856736 -1.0228709
000030 ff 8f 57 bf 91 20 b8 be 29 5d e5 be fb 35 89 bf
       -0.84204096 -0.35962346 -0.44797638 -1.0719599
000040 52 25 3d bf 08 0a 6f bf 6a a7 89 bf 17 f3 50 3e
       -0.7388507 -0.9337468 -1.0754216 0.20405231
000050 2c f3 42 bf 89 d5 13 3f e5 3b 11 bf 61 4c 79 bf
       -0.761523 0.57747704 -0.56732017 -0.9738217
000060 5d 7a ea 3e 82 19 e4 bb cb fd 97 bf 94 d8 0b bf
       0.4579648 -0.0069610486 -1.1874326 -0.54627347
000070 8b 9d 2f bf 4f 9c 90 bf ef 88 be bf 74 86 a3 bf
       -0.68599766 -1.1297702 -1.4885539 -1.2775407
000080 a1 b6 10 bd 6d 86 4d 3e 18 7c 56 3e ec 71 06 be
       -0.03533042 0.2007081 0.20945776 -0.13129395
000090 8f c2 60 bd 62 5d 48 bf 06 9e f1 3d 55 50 e5 be
       -0.054873046 -0.7826749 0.11797719 -0.4478785
0000a0 9a f2 b0 bf 3a e5 8c be 18 e0 39 bf dc f7 96 bf
       -1.3824036 -0.27518636 -0.72607565 -1.1794391
0000b0 03 50 a6 be 65 3d 65 bf e4 95 56 3e c3 7b 06 bf
       -0.3248292 -0.89546806 0.20955616 -0.52532595
0000c0 7a 94 5c bf 49 66 7c 3e 9c 25 5d bf 49 b0 52 be
       -0.8616406 0.24648394 -0.8638551 -0.2057506
0000d0 bc b5 76 bf e3 c9 c7 be 11 c1 83 bf f5 df 7a bc
       -0.96371055 -0.39021215 -1.0293294 -0.015312185
0000e0 96 20 3e bf 4d ef 07 bd 67 02 32 bf 10 23 82 bf
       -0.7426847 -0.0331872 -0.69534916 -1.016695
0000f0 3a 75 9c bf 91 6b 03 bf 9d 1e 06 bf 6b 8d 5e bf
       -1.2223275 -0.5133601 -0.5239046 -0.86934537

layer2.1.running_var f4 [64]
000000 e4 80 8c 3f 27 1c 81 3f 80 93 27 3f 61 ae 72 3f
       1.0976834 1.0086716 0.6545944 0.9479733
000010 11 79 44 3f e3 2e da 3e dd a6 72 3e 0a ce 49 3f
       0.7674723 0.42613897 0.23696466 0.78830016
000020 04 d2 16 3f 42 b8 c2 3e ae 33 75 3f 33 d4 c1 3e
       0.5891421 0.38031203 0.9578198 0.37857208
000030 a7 e8 20 3f c6 9f c0 3e 23 dc 24 3f fa 2c 40 3f
       0.62855 0.37621897 0.643984 0.7506863
000040 c1 dc 8d 3f 5e b7 9c 3e 83 4e 06 3f e2 40 99 3f
       1.1082994 0.30608648 0.5246355 1.1972926
000050 9f ed 29 3f b2 13 d3 3e 75 27 cb 3e ec 17 fd 3e
       0.66378206 0.41225964 0.3967854 0.49432313
000060 35 5c ad 3f 26 f4 32 3e a4 b1 f7 3e 6e 4e 0c 3f
       1.3543764 0.17475948 0.48377717 0.54807174
000070 7d 7e ec 3e 76 2d 24 3f 7b 65 51 3f ae 02 14 3f
       0.46190253 0.6413187 0.8179547 0.5781659
000080 35 84 4d 3f 42 18 fc 3e c0 3a 79 3f ff 24 49 3e
       0.80279857 0.49237257 0.9735527 0.19643019
000090 6e 3e af 3e 1d 8f 6c 3f f6 3a 39 3f 06 bd c6 3f
       0.34227318 0.92405874 0.7235559 1.5526435
0000a0 0b c3 0a 3f a7 25 a1 3e cd cd 1a 3f c8 97 0a 3f
       0.5420386 0.3147404 0.6047028 0.5413785
0000b0 bb 20 a7 3e 32 20 b3 3e dd c7 ec 3e a3 09 87 3f
       0.3264216 0.349855 0.46246234 1.0549816
0000c0 a7 a5 28 3f 15 fb d2 3e 1f fd e0 3e f3 37 6d 3e
       0.65877765 0.41207185 0.43943116 0.23165874
0000d0 fd 4a 0a 3f 57 4b 7a 3e 84 cf d6 3e fa d0 0e 3f
       0.54020673 0.24442802 0.41955197 0.5578762
0000e0 86 aa c0 3e 75 50 29 3e 21 04 ae 3e a1 a3 f4 3e
       0.376301 0.16534598 0.33987525 0.4778109
0000f0 59 77 42 3f 18 69 19 3f 7f a7 a2 3e 99 89 c5 3e
       0.7596336 0.59925985 0.31768414 0.3858154

layer3.0.weight f4 [64, 64, 3, 3]
000000 16 ef 49 bd 8e cf 85 bc f6 66 ba 3c 09 09 7e bd
       -0.049300276 -0.016334321 0.022754174 -0.062020335
000010 06 a0 f2 bc 3e ad e0 bc 1d 42 24 bd 29 44 97 bc
       -0.02961732 -0.027426358 -0.040102113 -0.018465118
000020 3a f0 9a bd 9b 57 09 3d 96 9c 08 3c d1 71 a6 bc
       -0.07565351 0.033530813 0.008338114 -0.020317944
000030 4a 21 98 3c d1 89 54 bd d9 98 26 3b 02 b7 37 3d
       0.018570561 -0.051889244 0.0025420694 0.044852264
000040 1a f5 ea 3b 52 5f 05 bc 75 df 4e 3c d8 ff d7 bb
       0.0071703317 -0.008140402 0.0126265185 -0.0065917782
000050 4c 16 5f bc 33 2d a6 3c 4d e5 29 3c 8f 20 80 bc
       -0.013616156 0.020285225 0.010369611 -0.015640525
000060 9d 6d 8e 3c 83 6a 81 bd 0c c9 1e 3b 13 fd 62 bb
       0.017386252 -0.063191436 0.002422872 -0.0034635707
000070 fc e5 66 bd b6 71 db bd b0 15 04 3d 4f f8 97 bd
       -0.056371674 -0.10715048 0.032247245 -0.07420408
000080 38 72 42 bd 33 3e 31 3a d2 ef 9d bd 35 04 c7 bc
       -0.04747221 0.00067612826 -0.07711758 -0.024293998
000090 6b 51 59 3c 2b 1c 31 bd a0 0c 10 bd a2 28 b3 3c
       0.01326404 -0.043239754 -0.03516829 0.021869961
0000a0 e3 06 3b 3d 55 47 e7 ba 6f 25 b7 bc 08 fc 37 bc
       0.045660865 -0.001764516 -0.022356717 -0.0112295225
0000b0 e2 36 5d 3c 83 43 33 3b 6f 6d 55 bc be e5 ee bc
       0.013501855 0.0027353473 -0.013026579 -0.029162284
0000c0 ad 13 49 bc 70 68 ec 3c c9 08 ff bb 12 cc e3 3c
       -0.0122727575 0.028858393 -0.0077830297 0.02780727
0000d0 e2 f4 51 ba c6 32 28 bb 9c bb 26 bd de 66 ba bc
       -0.00080092077 -0.002566503 -0.040706262 -0.022754129
0000e0 ff f8 21 3d 05 87 7a bc 60 7b 1b bd 13 d2 c8 bc
       0.0395441 -0.01529098 -0.037959456 -0.024514234
0000f0 0d 84 7e 3b d8 09 c5 bc 98 bc 6c 3c af 96 15 bc
       0.0038836033 -0.024052545 0.014449261 -0.009130164
000100 3b bc 90 bc 94 bc e2 bc 20 cc 9e bc bd 0a 75 3b
       -0.01766788 -0.027677812 -0.019384444 0.0037390434
000110 72 0d 07 3c 8c 76 d7 3c 68 c8 eb bc 23 c5 0c bd
       0.008242952 0.026301645 -0.028782085 -0.03436769
000120 c4 14 7f bb f2 c5 0d 3d 68 2b c0 3b 10 60 f0 3b
       -0.003892229 0.034612603 0.0058645494 0.0073356703
000130 46 79 fb bc 34 12 40 3c 17 28 86 bc 2c 5d 59 3c
       -0.030697476 0.01172309 -0.016376538 0.013266843
000140 44 17 31 3c a8 27 b9 3c 2e 1f 1c bd eb 33 00 bc
       0.01080877 0.022601917 -0.038115673 -0.007824878
000150 db 30 3d 3c 04 8a fb bc ef 30 1b 3c d6 97 86 bc
       0.011547293 -0.03070546 0.009472116 -0.016429823
000160 ea 2e 9f 3c dc ed 37 bd 83 76 d9 3b 44 06 a0 3c
       0.01943155 -0.044904575 0.006636442 0.019534238
000170 13 50 28 3c b4 99 97 bc e9 ce 0a 3c b7 eb a4 bc
       0.010272997 -0.018505909 0.008472183 -0.020131929
000180 fe 1b 89 bc d0 cd a4 bc 90 0d 9b bb ba 3d 88 bc
       -0.01673698 -0.02011767 -0.0047318414 -0.016630996
000190 7b 55 b8 bc c0 a7 13 3d 11 58 db bc 40 b3 2f 3c
       -0.022501698 0.03604865 -0.026775392 0.010723889
0001a0 21 74 64 bd 7e 52 0a 3d 93 75 38 bd 6b 86 d2 bc
       -0.05577481 0.033770077 -0.045034003 -0.025698861
0001b0 1e 35 fd 3c 0f 9e f2 3b be 87 8a bc 76 5d 1d bd
       0.030909117 0.007404096 -0.01691043 -0.03841921
0001c0 7a 6c cc ba 28 30 73 bc bb 51 1e bd 3d 3f ee bc
       -0.0015596293 -0.014843024 -0.038652163 -0.029082889
0001d0 82 62 34 bd 0b e2 d6 bc 25 8c 21 bd 71 f3 4f 3c
       -0.044039257 -0.026230833 -0.039440293 0.012692318
0001e0 05 fd 20 3d 86 b3 bc 3c 91 ca 38 bd a4 d2 18 3d
       0.0393038 0.023034822 -0.045115057 0.037310258
0001f0 0e a9 8d bc 23 ab ac bc 63 19 1a bc 6d 81 f8 bc
       -0.017292526 -0.021077698 -0.009405467 -0.030335153
000200 96 af 82 bc b7 e5 34 bd e8 15 cc bc f1 77 64 3b
       -0.015952867 -0.044164386 -0.02491279 0.003486153
000210 f7 0f dd 3b 56 7b 38 3c cf e5 a2 ba 80 4b 0c bd
       0.006746288 0.011259874 -0.0012428107 -0.03425169
000220 90 04 15 bd d1 64 4a bd 27 30 8d 3b 4c dc be 3c
       -0.036381304 -0.049412552 0.0043087187 0.023298405
000230 7d 60 5f bc 09 a6 54 bd f8 f9 f9 bc b7 94 1b bc
       -0.013633844 -0.051916156 -0.030514702 -0.009495906
000240 00 10 0b 3c a0 ff 32 3b cb da f2 3c 04 37 23 3d
       0.008487701 0.002731301 0.029645344 0.03984739
000250 94 08 ef bc 27 58 b5 3c f0 b6 df 3c d1 a5 19 bd
       -0.029178895 0.02213676 0.027308911 -0.03751165
000260 8d 78 a6 3c fc 7c 1c 3c b9 8b 92 ba 2d 3f 28 3d
       0.020321155 0.009551283 -0.0011180557 0.041075874
000270 f0 1c fa bb 52 1d ef 3c 7e 32 1a bb 35 dc f3 bc
       -0.007632844 0.029188786 -0.002352863 -0.029768089
000280 f7 d4 ce 3b 95 23 3a bd 2a 85 e5 3b c1 be 42 3d
       0.0063120085 -0.04544409 0.0070044 0.0475452
000290 68 09 f8 3c 71 a4 fd 38 8c 61 d3 3c 22 7e 37 3d
       0.030277923 0.0001209461 0.02580335 0.044798024
0002a0 82 15 04 3b ce a3 6f 3d ba 55 b1 3c 6e 59 61 ba
       0.0020154421 0.058505826 0.021647323 -0.0008596395
0002b0 dc 16 4d bd 9a ad 80 bd c1 39 a6 bb a5 b7 1f bd
       -0.05007063 -0.06283112 -0.005072803 -0.038993496
0002c0 bc ba 08 bd 47 5e 2e bd 25 8b 6d bd 47 f4 04 bd
       -0.03338121 -0.04257038 -0.057994027 -0.032459524
0002d0 71 4c 7f 3d 9d 73 00 bd 10 cc 9b bc 0b 26 22 3d
       0.06232876 -0.031360257 -0.019018203 0.03958706
0002e0 c5 3a 64 bc d1 db 6e bd 64 0d 37 3c 7f c7 5f 3c
       -0.013930027 -0.058315102 0.011172626 0.013658403
0002f0 b0 a7 e0 bc d1 31 0c bd 85 67 b9 3c ba dd d6 bb
       -0.02742371 -0.034227196 0.02263237 -0.0065571936
000300 07 57 cf 3a 16 90 5b bc 3d 10 9e 3c 93 1b 8f 3b
       0.0015818783 -0.013401052 0.019294852 0.004367301
000310 0d cd d9 bb c8 c0 1e 3d c8 29 3a 3c 7b de f5 bc
       -0.0066467584 0.03875807 0.0113625005 -0.030013314
000320 40 77 d1 3b 99 c5 0f 3d 9e f4 10 bd 1a ee 58 3d
       0.0063923895 0.035100553 -0.035389535 0.052961446
000330 5c db 3e 3c 66 ed 2b bc 38 d4 97 bb 6a e0 4d bd
       0.011648979 -0.010493612 -0.0046334527 -0.050262846
000340 f4 88 2e 3c e4 9a 76 bb 8f 68 ae bc 08 7f ed bc
       0.010652769 -0.0037628943 -0.021290092 -0.028991237
000350 8a 2e 8c 3b 83 f4 76 b9 9f e8 ba 3c 8a 7c f5 bb
       0.004278009 -0.00023551476 0.022816 -0.007491653
000360 9e e3 81 3c d3 19 07 3d f9 16 d8 3c 4d 0b 00 3c
       0.015855607 0.032983612 0.026378142 0.007815194
000370 e1 e0 d3 3c 1d 90 14 3c 25 74 43 bb 38 38 33 bd
       0.025864067 0.009067562 -0.0029823866 -0.043754786
000380 db b6 bf 3c e6 1a 99 bb 92 d4 b7 3c 26 17 45 bd
       0.023402622 -0.004672396 0.022440229 -0.04811778
000390 73 4d 25 3c 6f a6 48 bd 90 4c 94 bc 77 73 06 3d
       0.010089266 -0.04898685 -0.018102914 0.03282496
0003a0 ec eb 6e bd 3e 8e 3b bd 2a 09 b7 3c 8d 2c e3 3b
       -0.05833046 -0.04578995 0.022343237 0.006932801
0003b0 13 5b 4d 3c 74 93 2f bd 8e 0a cb bc c5 ee 42 3c
       0.012533921 -0.04286523 -0.024785306 0.011897747
0003c0 7e bb 01 3d e8 c1 83 bd 71 b7 0d bd 26 3a 21 3d
       0.031672947 -0.06433469 -0.03459877 0.039362095
0003d0 bc ca 7e 3c e8 d8 f4 3c 6d f1 b1 3c 99 8e 45 3b
       0.015551265 0.029888585 0.021721566 0.003014481
0003e0 ac e0 e5 bc 3c 02 4a 3d db b4 9b bc d1 e6 8a bc
       -0.028061233 0.049318537 -0.019007137 -0.016955765
0003f0 35 d3 36 3d 41 a2 8e 3c 6e 3e 3b 3c 91 11 27 3d
       0.044635016 0.017411353 0.011428459 0.040788237

layer3.0.bias f4 [64]
000000 dc b4 1a 3d ae 47 fe bc 00 7d 27 bd 2b 70 14 3d
       0.037770137 -0.031040039 -0.040890694 0.036239784
000010 fb 33 1d 3d 98 a2 4c 3c 3b 25 16 bc 5f 12 77 bc
       0.03837965 0.012489937 -0.00916415 -0.015080064
000020 6e 13 bc 3b b5 50 23 3c b8 02 e4 bb c7 c2 86 3c
       0.005739621 0.0099679725 -0.006958332 0.016450299
000030 08 8d 9f bc 5b 85 7b bc 13 10 25 3d 53 34 d8 3b
       -0.019476429 -0.015351619 0.040298533 0.0065980344
000040 71 fa 10 3d 7d 6a 03 bb 8c 3d 0d 3d 0b c8 c8 3c
       0.03539509 -0.0020052486 0.034482524 0.02450945
000050 a8 53 ab 3c 1c 08 27 3d 3c b9 29 3a ad bc 2d bd
       0.020913914 0.040779218 0.00064744405 -0.042416263
000060 e4 7b 02 3d ef b1 f1 3b 8e 07 72 3c 1c db 30 bc
       0.031856433 0.0073759477 0.014772309 -0.010794427
000070 d4 f1 05 3d b8 e1 f5 3c a2 2a 60 bc a7 18 5b bc
       0.03270133 0.030014858 -0.013682039 -0.013372577
000080 24 65 e7 3c 21 44 d5 3a 4c 80 ea 3c aa bb 27 bd
       0.02824647 0.0016270914 0.02862563 -0.040950455
000090 57 40 f7 bc bc 14 d6 bc f1 bb 8a 3c a3 09 ec 3b
       -0.030182047 -0.026132934 0.01693532 0.007203297
0000a0 37 58 bc bc b9 53 bf 3b dc 0a cf 39 3e 55 a0 3c
       -0.022991283 0.005838838 0.00039490208 0.019571897
0000b0 81 15 d9 3c b3 b1 3e bc 83 2c 1d bd 75 84 c3 39
       0.026499512 -0.0116390465 -0.038372528 0.00037291987
0000c0 98 fe d3 3c c4 bc 24 3d d7 e1 13 bc 22 31 3a bc
       0.025878236 0.040219083 -0.009026012 -0.011364253
0000d0 fc 76 18 bd 0d a4 c2 3c 96 3b 86 3c 94 59 3b ba
       -0.037222847 0.023759866 0.016385835 -0.0007146832
0000e0 4a c5 6e b9 ab 76 24 bd 04 e2 10 3d bd 2d 36 ba
       -0.00022770945 -0.040152233 0.035371795 -0.00069495646
0000f0 05 61 a8 3c f8 3e a3 bb 71 19 62 bc bb 15 03 3d
       0.020554075 -0.0049818717 -0.013800011 0.032003146

layer3.1.weight f4 [64]
000000 ae b9 7a 3f 0e 53 81 3f 0b c6 7d 3f d7 fa 84 3f
       0.97939575 1.0103471 0.99130315 1.038905
000010 f3 a7 87 3f 82 30 7b 3f 0a 41 81 3f 6b e3 84 3f
       1.0598129 0.9812089 1.0097973 1.0381902
000020 fc b9 83 3f cc 14 7e 3f e2 61 80 3f b2 17 80 3f
       1.0291133 0.99250484 1.0029871 1.0007231
000030 20 34 77 3f 3d 07 80 3f be ac 71 3f cd fd 74 3f
       0.9656391 1.0002209 0.9440421 0.9569977
000040 0a 66 73 3f fc a0 73 3f d2 85 7f 3f 0a f3 79 3f
       0.95077574 0.9516752 0.9981357 0.97636473
000050 85 6f 82 3f 48 2f 85 3f a8 36 82 3f f2 01 7a 3f
       1.0190283 1.0405054 1.017293 0.9765922
000060 49 aa 70 3f e4 ed 80 3f 7b 5d 72 3f c3 56 78 3f
       0.94009835 1.0072598 0.9467389 0.9700739
000070 97 93 84 3f 1b 24 80 3f 55 2c 71 3f 5d dd 7e 3f
       1.0357541 1.0011019 0.9420827 0.99556524
000080 dd 6b 7a 3f 42 b7 86 3f dc b2 76 3f 86 22 77 3f
       0.97820836 1.0524676 0.9636667 0.96537054
000090 9c 36 81 3f cc 41 74 3f 83 21 77 3f 48 85 83 3f
       1.009479 0.954129 0.9653551 1.0275049
0000a0 54 82 80 3f 69 d6 75 3f eb c6 76 3f 2d 76 85 3f
       1.0039773 0.9603029 0.96397275 1.0426689
0000b0 a1 0c 7d 3f 29 e1 7e 3f 18 22 82 3f fb a1 7d 3f
       0.98847395 0.9956232 1.0166655 0.9907529
0000c0 e4 f9 70 3f 41 8d 7a 3f 4d 7b 78 3f 31 62 83 3f
       0.941313 0.97871786 0.9706314 1.0264341
0000d0 50 aa 6d 3f ba ce 7d 3f 92 66 82 3f 92 d1 81 3f
       0.92838 0.99143565 1.0187552 1.0142081
0000e0 f0 0e 7e 3f 1f 6f 81 3f 2f 26 87 3f 2e 5f 82 3f
       0.9924154 1.0112036 1.0558528 1.0185297
0000f0 22 a3 7d 3f 2e 1a 84 3f 94 93 7e 3f e6 ce 85 3f
       0.99077046 1.032049 0.99443936 1.0453765

layer3.1.bias f4 [64]
000000 ae eb 41 bd c2 10 8e bd 43 1b c5 bc 24 80 b6 bd
       -0.047343902 -0.0693679 -0.024060851 -0.0891116
000010 7c 34 01 be 38 06 ad bd 37 f7 4a bd 69 10 6b bd
       -0.12617677 -0.08448452 -0.04955217 -0.057388697
000020 fa fa 97 bd 62 93 20 bd 3b 17 de bc 45 27 56 bd
       -0.07420917 -0.039203055 -0.027110687 -0.052283544
000030 51 19 76 bd 69 a8 06 bd ae 7a ea bc a2 ca 27 bd
       -0.060082737 -0.032875452 -0.028622951 -0.04096473
000040 fc e5 70 bd b9 69 20 bd f8 39 83 bd 13 09 63 bd
       -0.05881308 -0.039163325 -0.06407541 -0.055428576
000050 d8 24 9c bd ce 82 ba bd aa c9 a5 bd f6 39 67 bc
       -0.07624215 -0.0910698 -0.08095105 -0.01411294
000060 50 c2 82 bd 75 e7 8c bd 4e 8f 2c bd 01 73 21 bd
       -0.063847184 -0.068800844 -0.042128853 -0.039416317
000070 48 9d 7c bc 87 8a 7a bc c2 f3 3f bd b1 3c 82 bd
       -0.015418358 -0.015291817 -0.046863325 -0.06359232
000080 5a 19 1d bd 65 78 e0 bd 35 71 85 bd 77 b1 4b bd
       -0.038354255 -0.109604634 -0.06515733 -0.04972979
000090 ef 0d 4a bc fb 1c 22 bd b6 18 0f bd ef 4a ab bd
       -0.012332424 -0.03957842 -0.034935676 -0.08363902
0000a0 01 48 7d bd 11 6e 04 bc ae 40 3b bc dc c5 c8 bd
       -0.061836246 -0.0080828825 -0.011428995 -0.09803364
0000b0 fa 34 42 bd 2a 1a 5f bd a1 d6 00 be 02 8c b2 bd
       -0.047413804 -0.05446831 -0.12581874 -0.087181106
0000c0 69 a3 bf bc b0 b5 5c bd 4a 0c 2f bd bb 8b aa bd
       -0.02339335 -0.05388421 -0.04273633 -0.08327433
0000d0 ce 8c 1f bd 48 0d 94 bd 1b 39 91 bd 96 8f 53 bd
       -0.03895264 -0.07229096 -0.0709097 -0.051650606
0000e0 cf e4 91 bd 11 ab d2 bd ea 94 8d bd ba 78 02 bd
       -0.0712372 -0.102865346 -0.06913169 -0.031853415
0000f0 15 cd 19 bd 6c 3c 70 bd de 98 c3 bc 6b b5 c9 bd
       -0.037549097 -0.058651373 -0.023876604 -0.09849056

layer3.1.running_mean f4 [64]
000000 45 23 ec be 43 0c 50 bf ac d1 36 bf 21 d0 13 bf
       -0.4612066 -0.8126871 -0.71413684 -0.57739455
000010 e3 f1 65 3f af 5f 13 bf e6 ed fd be 00 db 02 bf
       0.89822215 -0.57567877 -0.49595565 -0.5111542
000020 ce 9f 16 bf 27 fd 23 bf 57 54 7d bf b9 45 c7 be
       -0.5883759 -0.64058155 -0.9895682 -0.38920382
000030 fd f0 f8 be 00 71 23 bf a3 99 43 bf f5 e7 6d be
       -0.4862136 -0.638443 -0.76406306 -0.23233016
000040 fb 42 de be b1 9b 54 bf 2b b9 2a bf bc 77 fb be
       -0.43410477 -0.83050066 -0.66688794 -0.49114788
000050 99 33 1a bf 6c 03 a5 be 9a 17 f4 be f7 d7 69 bf
       -0.6023498 -0.32229173 -0.47674257 -0.9134516
000060 0c 59 62 bd 43 19 bb be fb eb 86 be c5 fc 7e be
       -0.055260703 -0.3654271 -0.26351914 -0.24901111
000070 5a e1 7e be ec 0b 15 bf ba 05 f2 be 4e ec b4 be
       -0.24890652 -0.58221316 -0.47269994 -0.35336536
000080 41 eb 34 bf 6d ee f9 be e0 db 0a bf ba e5 09 bf
       -0.7067147 -0.48814717 -0.5424175 -0.5386616
000090 4b 38 22 bf 56 4c 80 bf e5 51 d9 be 23 e5 73 bf
       -0.63367146 -1.0023296 -0.42445293 -0.9527151
0000a0 21 58 ca be 8a 76 1d bf 97 62 2d bf b2 31 e0 be
       -0.39520362 -0.61509 -0.6772856 -0.43787915
0000b0 0a 88 02 bf a1 09 6d be 8b b1 e3 3e a3 50 c1 be
       -0.5098883 -0.23148204 0.44471392 -0.37756833
0000c0 0d 9d 1e bf 42 98 28 be 66 00 d8 be 1f e7 00 bf
       -0.6195839 -0.16464332 -0.42187804 -0.5035266
0000d0 d1 ac 45 bf c3 22 26 bf 37 2f 1c bf b8 be e2 be
       -0.7721682 -0.6489679 -0.61009544 -0.44286132
0000e0 27 87 5c 3e 2b 09 e8 be 6e c0 2e bf d1 37 a0 be
       0.21535932 -0.45319495 -0.68262374 -0.31292585
0000f0 d2 18 bf 3d 60 f2 59 bf 12 7b 9c be b0 25 fe be
       0.09330906 -0.8513546 -0.30562645 -0.49638128

layer3.1.running_var f4 [64]
000000 35 8a d0 3e 87 8f 96 3e cb 91 b8 3e 78 16 5e 3e
       0.40730444 0.29406378 0.3604873 0.21688259
000010 16 a0 a0 3e 65 95 93 3e 4b 08 89 3e 37 3a 98 3e
       0.31372136 0.28824916 0.2676414 0.29731914
000020 c8 c2 5b 3e cd 7a 9d 3e 7e 9d e1 3e 5c 48 bd 3e
       0.21461022 0.30757752 0.4406547 0.36969268
000030 35 8c 8d 3e 86 fd 98 3e 43 8b fb 3e d7 81 6c 3f
       0.27646032 0.29880923 0.49129686 0.9238562
000040 6c 23 d6 3e 08 94 9a 3f 2a 3c 83 3e d6 31 b9 3e
       0.418239 1.2076426 0.2563184 0.36170834
000050 25 34 83 3e 0c 58 ac 3e cf 1b 83 3e 62 a2 95 3e
       0.2562572 0.33660924 0.25607154 0.2922545
000060 8a ba 0e 3f 59 54 9d 3e bc 1c d6 3e b1 d5 a0 3e
       0.55753386 0.30728415 0.41818798 0.31413034
000070 e1 18 a0 3e 92 cd 3b 3e da be 8c 3f 63 5a e0 3e
       0.3126898 0.18340138 1.0995743 0.4381896
000080 fd 7b ca 3e 5d 58 6a 3e d4 ae 95 3e 5c 43 55 3f
       0.3954772 0.2288527 0.29234946 0.8330591
000090 4b 6a f7 3e af bc 79 3f fa e7 23 3f c3 46 9f 3e
       0.48323283 0.97553533 0.64025843 0.31108674
0000a0 94 22 99 3e bf 1b 54 3f ac b3 7b 3f 68 73 88 3e
       0.29909194 0.8285484 0.9832103 0.26650548
0000b0 35 bf 7d 3e 1a 8a 9d 3e 63 f5 9c 3e 49 ad ab 3e
       0.24779971 0.30769426 0.30655965 0.33530644
0000c0 e8 83 10 3f 4a c4 9a 3e 0d fc 8c 3e 90 97 54 3e
       0.5645127 0.30227882 0.2753605 0.20760942
0000d0 4f 67 45 3f e2 f0 9f 3e e7 1d 6f 3e ec 5c 75 3e
       0.7711076 0.31238467 0.2335125 0.23961228
0000e0 0f 5f ce 3e f4 0a 29 3e 47 34 5e 3e 93 f9 53 3e
       0.403069 0.16508085 0.2169963 0.20700674
0000f0 f6 0f 70 3e ff e1 ba 3e fe 22 8f 3e fd bb 95 3e
       0.23443589 0.36500546 0.27956384 0.29244986
