FAST 3D-CNN P-NET/model/ZGFF/ZGFF_proto_3d-5shotband60.pth (torch, 488384 bytes, 22 tensors)

layer1.0.weight f4 [8, 1, 7, 3, 3]
0	0x3c07ea3e	0.008295594
1	0x3daa36f5	0.083112635
2	0x3dd5d8fb	0.10441776
3	0xbdc0ace7	-0.094079785
4	0x3d5e8bc3	0.054332506
5	0x3dda5531	0.1066078
6	0xbc4997a5	-0.012304221
7	0xbd88ce85	-0.066800155
8	0xbddf35ae	-0.108989105
9	0xbd746efc	-0.059676155
10	0x3cb70cd9	0.022344993
11	0x3cd64e05	0.02616025
12	0x3d5c1f4c	0.053740785
13	0x3d753bf7	0.05987164
14	0xbbfbe657	-0.0076873708
15	0xbd4a3487	-0.0493665
16	0x3df11d8f	0.11773216
17	0x3d4a14a2	0.049336083
18	0xbdb675cd	-0.089091875
19	0xbd806d52	-0.06270851
20	0x3e071971	0.13193299
21	0xbd932007	-0.07183843
22	0x3c2b73bd	0.010464606
23	0x3dd05387	0.101721816
24	0xbd88ada1	-0.06673742
25	0x3d70ac83	0.05875827
26	0x3e09a0f0	0.13440299
27	0xbd9681c5	-0.0734897
28	0x3d0468aa	0.032326378
29	0x3be62b34	0.007024193
30	0x3defb413	0.11704268
31	0x3d9a5bbc	0.07537028
32	0x3dcf9c3e	0.10137223
33	0x3dce9da2	0.1008866
34	0x3e0b63dd	0.13612314
35	0xbc18eff8	-0.009334557
36	0xbbd45306	-0.0064796237
37	0x3b4a2089	0.0030842146
38	0xbde0b706	-0.10972409
39	0xbd9bf46f	-0.076149814
40	0x3d527764	0.05138339
41	0x3d9ee020	0.07757592
42	0xbce627ab	-0.028095087
43	0x3d8782fa	0.06616779
44	0xbdbc28c2	-0.091874614
45	0xbd802f86	-0.062590644
46	0x3dc98f0b	0.098417364
47	0xbdcd4301	-0.100225456
48	0x3c814baa	0.01578315
49	0x3d6254b6	0.055256568
50	0x3dc2dcc2	0.095147625
51	0x3c3d6715	0.011560221
52	0x3d302178	0.04300067
53	0x3dc71b9d	0.09722064
54	0x3d94c4f9	0.07264132
55	0x3c47e139	0.012199693
56	0x3db3c3eb	0.08777603
57	0xbccad935	-0.024761776
58	0xbdf96d68	-0.12179071
59	0xbce3fc66	-0.027830314
60	0x3df8566a	0.12125857
61	0x3c6e4dae	0.0145448875
62	0xbc8702b2	-0.016480777
63	0xbd041209	-0.032243762
64	0x3dad19a9	0.0845216
65	0xbd1659b8	-0.036706656
66	0x3d487ed9	0.048949096
67	0xbc37193e	-0.011175452
68	0x3cbbf57b	0.022944203
69	0xbd3eca47	-0.046579625
70	0x3daebb1b	0.08531781
71	0x3cd7a1aa	0.026322205
72	0x3dd3d3bf	0.10343122
73	0x3da1e65e	0.07905267
74	0xbd7d052c	-0.06177251
75	0x3c1c2578	0.009530418
76	0x3d5bd83d	0.053673018
77	0xbdd90824	-0.10597256
78	0x3d9c529d	0.07632945
79	0xbdd896e3	-0.10575654
80	0x3d8c87d9	0.068618484
81	0x3ce2a0d0	0.027664572
82	0xbd9e3622	-0.07725169
83	0xbd50852b	-0.05090825
84	0xbdab019d	-0.08349917
85	0x3c9b8b09	0.018987196
86	0x3db943e3	0.090461515
87	0x3dd26095	0.10272328
88	0x3d9623dd	0.07331059
89	0x3da4f626	0.080547616
90	0x3d245d22	0.04012788
91	0xbd4182d1	-0.047243897
92	0x3d887ebe	0.06664799
93	0x3cde74bd	0.027155275
94	0xbc91f234	-0.017815687
95	0x3d42a283	0.047518265
96	0xbc79257e	-0.015206693
97	0x3d9d706b	0.07687458
98	0x3de945ea	0.11390288
99	0xbc1b7f51	-0.009490804
100	0xbda3de7f	-0.08001422
101	0xbd91b81e	-0.07115196
102	0xbca54879	-0.02017616
103	0xbdeb3828	-0.1148532
104	0x3c309637	0.0107780015
105	0xbb0364b5	-0.002004904
106	0xbdb3ae71	-0.087735064
107	0xbe0bea8f	-0.13663696
108	0x3d3996b5	0.04530974
109	0x3db99817	0.09062212
110	0x3defe05b	0.11712714
111	0xbd52f8b5	-0.051506717
112	0x3ddbe3b4	0.1073679
113	0x3cfbb05b	0.030723741
114	0x3ca047c8	0.019565478
115	0x3de35d08	0.11101729
116	0x3ddcb9eb	0.107776485
117	0xbe06e131	-0.13171841
118	0xbd56722f	-0.052354988
119	0xbdb82c33	-0.08992805
120	0xbd563b22	-0.052302487
121	0xbc8e19ec	-0.017346345
122	0xbdff3244	-0.12460759
123	0xbe0916c8	-0.13387597
124	0xbd89c7da	-0.06727572
125	0xbdac525c	-0.08414146
126	0x3b2baf8d	0.0026197166
127	0xbdc711e3	-0.097202085
128	0x3d625764	0.055259123
129	0x3d81b010	0.063324094
130	0xbdd3ecbd	-0.103478886
131	0xbd1ac631	-0.037786666
132	0xba60de4f	-0.00085780484
133	0x3c77b3bd	0.015118537
134	0xbd46c378	-0.048526257
135	0x3bc042e4	0.005867349
136	0xbd780b9f	-0.060557958
137	0x3da04890	0.0782634
138	0xbdad2d0c	-0.08455858
139	0x3db80a16	0.08986299
140	0x3d748404	0.059696212
141	0x3dce1117	0.100618534
142	0xbd8c3749	-0.06846482
143	0xbc0b6a23	-0.008509192
144	0xbe1c7ec6	-0.15282735
145	0x3d06b6e1	0.03288925
146	0xbdf6cde2	-0.12050988
147	0xbe2074a7	-0.156695
148	0x3b2d1926	0.0026412695
149	0x3b5ad87a	0.003339319
150	0xbc9d218c	-0.019181035
151	0xbda0c2b0	-0.07849634
152	0xbdc33d37	-0.0953316
153	0x3dafc8a7	0.08583193
154	0x3e049e2e	0.12950966
155	0x3db7f413	0.089821
156	0x3e171ece	0.14757845
157	0x3ca72198	0.020401761
158	0x3d7e9ce6	0.06216135
159	0x3d54b290	0.051928103
160	0xbd22c369	-0.03973714
161	0x3db4dcc9	0.08831174
162	0xbca7590e	-0.020428207
163	0x3cfea776	0.031085711
164	0xbda8e2ea	-0.082464054
165	0xbd312835	-0.043251235
166	0x3b5fe88f	0.0034165715
167	0x3d52b24c	0.05143957
168	0x3d631122	0.05543626
169	0xbdba03a8	-0.090827286
170	0x3d310166	0.043214224
171	0x3d10acc2	0.035321005
172	0x3d2d66e5	0.042334456
173	0xbda57c59	-0.08080358
174	0x3d2927c9	0.041297708
175	0x3dbb9265	0.09158782
176	0x3cc78d12	0.02435926
177	0xbc305cc0	-0.010764301
178	0xbdbbebee	-0.091758594
179	0xbd7aeca7	-0.061260846
180	0x3dfbc9e4	0.12294367
181	0xbcb2559f	-0.021769343
182	0x3c723ca7	0.014784968
183	0x3da6afe1	0.08139015
184	0xbdb337e8	-0.08750898
185	0x3dae36f1	0.08506573
186	0x3dd09dbc	0.101863354
187	0x3b8c7e73	0.004287535
188	0x3d1ca052	0.03823883
189	0x3c983133	0.018578148
190	0x3dde8788	0.10865694
191	0x3d73e8a1	0.059548024
192	0xbdc83ef1	-0.0977763
193	0x3cd75309	0.026284711
194	0x3dc8e2bd	0.09808872
195	0x3c2622c7	0.0101401275
196	0xbd23d088	-0.039993793
197	0x3c842a37	0.01613341
198	0xbd8a2b63	-0.067465566
199	0xbdd1031a	-0.1020567
200	0x3d87326e	0.066014156
201	0x3c9b953f	0.018992065
202	0xbcf63191	-0.030052932
203	0x3db402b2	0.087895766
204	0xbdffd970	-0.12492645
205	0xbde9ec2c	-0.11421999
206	0x3dc005b5	0.093760885
207	0x3dbd3ec0	0.09240484
208	0x3dd6488a	0.104630545
209	0x3d98f6ec	0.074689716
210	0x3dd1acd3	0.10238042
211	0xbd18b075	-0.037277658
212	0x3d99f707	0.0751782
213	0x3dfff08a	0.12497051
214	0x3bcae3c5	0.006191703
215	0xbc91ebe4	-0.017812677
216	0xbda8c640	-0.08240938
217	0xbdb221da	-0.08697863
218	0x3bb9bf4e	0.0056685572
219	0x3d29b171	0.041428987
220	0x3cecaf8d	0.028892303
221	0x3d477a57	0.048700657
222	0xbd2e2ca7	-0.042523053
223	0xbd75bef1	-0.05999655
224	0xbc5fdad2	-0.013663011
225	0x3def1292	0.11673464
226	0x3d7befa0	0.06150782
227	0x3dcb0116	0.099123165
228	0x3c5591af	0.013035222
229	0xbd5951aa	-0.053056397
230	0xbd5f6424	-0.05453886
231	0x3dabcd74	0.083887964
232	0x3dc6137a	0.096716836
233	0xbd5c45fc	-0.05377768
234	0x3d155683	0.036459457
235	0xbb10b945	-0.0022083085
236	0xbd8c1040	-0.06839037
237	0xbd5bc720	-0.053656697
238	0x3d45b793	0.048270773
239	0xbd70e563	-0.05881251
240	0x3d6dbd2b	0.058041733
241	0x3db64fdc	0.08901951
242	0x3daa1f80	0.083067894
243	0x3d25a323	0.040438782
244	0xbdf8a212	-0.121402875
245	0xbd1392d5	-0.0360287
246	0xbde1c0e5	-0.1102312
247	0x3d252f61	0.040328387
248	0xbdda8787	-0.10670381
249	0xbd1c4dab	-0.038160007
250	0x3cbcb0a3	0.023033446
251	0xbd105edf	-0.035246726
252	0x3d03135c	0.032000884
253	0x3c50f587	0.012753851
254	0xbd6a3a5e	-0.05718457
255	0xbdf58ac6	-0.119893596

layer1.0.bias f4 [8]
0	0x3ddceaf3	0.107870005
1	0x3b627030	0.0034551732
2	0xbd8ac7dd	-0.06776402
3	0x3e195cfb	0.14976875
4	0xbdbfd3d0	-0.09366572
5	0x3d836c03	0.06417086
6	0xbd68ce61	-0.056837443
7	0x3e0451fc	0.129219

layer1.2.weight f4 [8]
0	0x3f79feef	0.9765462
1	0x3f84bb66	1.036969
2	0x3f812b78	1.0091391
3	0x3f803451	1.0015966
4	0x3f7f6941	0.9976998
5	0x3f7e4936	0.9933046
6	0x3f7bbeae	0.9833783
7	0x3f833bc6	1.0252616

layer1.2.bias f4 [8]
0	0x3cbcdd36	0.0230547
1	0x3c96ce93	0.01840905
2	0x3d10017b	0.035157662
3	0xbcfcc82d	-0.03085717
4	0x3c6c8484	0.014435891
5	0x3d26a746	0.040686868
6	0x3bf61ab9	0.00751051
7	0x3c81a17a	0.015824068

layer1.2.running_mean f4 [8]
0	0x3f0ae2cf	0.5425233
1	0x3e97e9cd	0.29670563
2	0x3e8bef0c	0.27330816
3	0x3ed4c76e	0.41558403
4	0x3eed6e27	0.46373102
5	0x3eaaf1e5	0.33387676
6	0x3e5bb2ea	0.21454969
7	0x3ec9c2dd	0.3940648

layer1.2.running_var f4 [8]
0	0x3f920a22	1.1409342
1	0x3ecd0e64	0.40050042
2	0x3ee60451	0.44925168
3	0x3f1e7b13	0.61906546
4	0x3fa83db3	1.3143829
5	0x3ee78e52	0.4522577
6	0x3e0e016d	0.13867731
7	0x3f107267	0.56424564

layer2.0.weight f4 [16, 8, 7, 3, 3]
0	0xbc334dba	-0.010943824
1	0x38b937e0	8.831895e-05
2	0x3c4a46bd	0.012345967
3	0xbc42e76c	-0.011895996
4	0xba8fc10f	-0.001096757
5	0xbc89ebed	-0.016836131
6	0x3c362b2b	0.0111186905
7	0xbcd8df38	-0.026473626
8	0x3d480a72	0.048838086
9	0x3c83ef99	0.01610546
10	0x3a206b55	0.00061195093
11	0xbc6b80cb	-0.014373968
12	0xbd484e87	-0.048903015
13	0xbcefa1b1	-0.029251905
14	0xbc86bb71	-0.0164468
15	0x3d0ea6dc	0.0348271
16	0x3cf7560f	0.030192403
17	0xbd0adbf5	-0.033901174
18	0xbaaa755b	-0.0013004945
19	0xbba5c9ac	-0.0050594416
20	0xbcb9664c	-0.022631787
21	0xbc11de24	-0.00890306
22	0x3d1b03d3	0.037845444
23	0xbd032f20	-0.032027364
24	0x3d02a702	0.031897552
25	0xbd041ac4	-0.03225209
26	0x3cf9531c	0.030435137
27	0x3d224e4b	0.039625447
28	0xbc354439	-0.011063629
29	0xbcfd1edf	-0.03089851
30	0xbb246ae5	-0.0025088128
31	0x3d21f765	0.039542574
32	0x3ad837c9	0.0016496117
33	0xba028f30	-0.0004980443
34	0x3d0856e3	0.033285987
35	0x3cc9ed6e	0.024649348
36	0x3cce587e	0.02518868
37	0xbd17ce33	-0.03706188
38	0x3d133a78	0.035944432
39	0x3c860500	0.016359806
40	0xbb89e142	-0.004207761
41	0x3c5e7d26	0.013579642
42	0x3cc21313	0.023690736
43	0xbc08a61b	-0.008340384
44	0x3d5692a4	0.05238594
45	0x3c576812	0.013147371
46	0x3d351c8c	0.044216678
47	0x3c0975d5	0.00838991
48	0xbc6f3649	-0.014600345
49	0x3d5ad1fe	0.05342292
50	0x3c0c6113	0.008568066
51	0x3b67cbea	0.0035369345
52	0x3d4e8b0b	0.05042557
53	0x3d72b524	0.05925478
54	0xbcba753a	-0.022760976
55	0xbd175bf2	-0.03695292
56	0x3d0f3da7	0.034970906
57	0x3b0e755f	0.002173744
58	0xbcc452e2	-0.023965303
59	0xbbc2b8c6	-0.005942437
60	0xbcc818f4	-0.024425961
61	0x3d39c3df	0.045352813
62	0x3c51e1f3	0.012810218
63	0x3ca7035a	0.02038734
64	0x3d21964e	0.039449982
65	0x3cdf2b9f	0.02724248
66	0x3ccb2888	0.0247996
67	0x3d187be9	0.037227545
68	0x3cc9f168	0.024651244
69	0x3d4d3fd2	0.050109692
70	0x3c3855b7	0.011250905
71	0xbd107178	-0.035264462
72	0xbc9d3a92	-0.019192968
73	0x3d240af6	0.040049516
74	0xbca5e324	-0.02024991
75	0xbc957f79	-0.01824926
76	0x3c839899	0.016063975
77	0x3cedc8f6	0.02902649
78	0x3b511823	0.0031905256
79	0x3be0ed8a	0.0068642544
80	0x3c6b4117	0.01435878
81	0xbcdd20f8	-0.02699326
82	0x3d045a74	0.032312825
83	0xbd15df68	-0.03659001
84	0x3cd3d509	0.025858419
85	0xbc1e462d	-0.009660286
86	0x3ce3c71b	0.027804902
87	0x3d1d525f	0.038408633
88	0x3d2ab9e2	0.041681178
89	0x3d109382	0.035296924
90	0x3d450fa6	0.048110627
91	0xbc4bc4e0	-0.012437075
92	0xbd111f3e	-0.035430185
93	0xbb804b8e	-0.003915257
94	0xbccdbdae	-0.02511486
95	0xbcf3bce8	-0.029753163
96	0xbc39a952	-0.011331873
97	0xbce0e5bc	-0.027453296
98	0xbcd4f375	-0.025994996
99	0x3d97e57b	0.07416817
100	0x3d135dbf	0.035978075
101	0x3c8ac650	0.016940266
102	0x3d41525e	0.047197692
103	0x3d12707f	0.035751816
104	0x3d8cc85f	0.06874155
105	0x3d8baea6	0.06820421
106	0x3c42461a	0.011857534
107	0x3d459c71	0.048244897
108	0x3c30d0ff	0.010792016
109	0x3ca392a5	0.019967386
110	0x3d6c9a76	0.057764493
111	0xbbea97b9	-0.0071592
112	0x3d2121d3	0.039338898
113	0x3c9a4b8e	0.018834855
114	0x3c1e3130	0.009655282
115	0xbcdd01df	-0.026978431
116	0x3bcdf97e	0.0062858453
117	0x3b98230f	0.004642851
118	0xbcb72e95	-0.02236108
119	0xbd36c5c1	-0.044622187
120	0xbd02d55a	-0.03194175
121	0x3ce09965	0.027416894
122	0xbd3f4509	-0.046696696
123	0xbd4ae602	-0.04953576
124	0xbd3542e7	-0.044253256
125	0xbcdbe06e	-0.026840415
126	0x3c43691d	0.011926916
127	0xbd0b27e8	-0.033973604
128	0x3d3b46e2	0.045721896
129	0xbc269cad	-0.01016919
130	0xbc87607a	-0.016525496
131	0x3cacc47b	0.021089783
132	0x3d1e8c8b	0.03870825
133	0x3d3a5440	0.045490503
134	0x3cf0cafa	0.029393662
135	0xbd4c71ca	-0.049913205
136	0xbd1b6d45	-0.037946004
137	0x3d1227b3	0.03568239
138	0xbcccaead	-0.024985636
139	0x3ce040b7	0.027374608
140	0xbd1dbaae	-0.03850811
141	0xbc7d769d	-0.015470174
142	0xba957ec6	-0.0011405579
143	0x3a1f02c6	0.0006065782
144	0x3c456b43	0.012049499
145	0x3c1f437e	0.009720681
146	0xbd034a67	-0.032053377
147	0x3d26846d	0.040653635
148	0x3cde4c78	0.027136073
149	0xbd1b6cfe	-0.03794574
150	0xbd0c10f3	-0.03419585
151	0x3ce1403a	0.027496446
152	0xbccb134b	-0.024789473
153	0xbc7ed1c6	-0.015552944
154	0xbc1c1e22	-0.009528669
155	0x3a0171aa	0.0004937897
156	0xbc6f23c7	-0.014595932
157	0xbc5a48e0	-0.013323039
158	0xbced708c	-0.02898433
159	0xbca94f4b	-0.020667693
160	0x3cde7fdd	0.02716058
161	0x3c39cf61	0.011340947
162	0xbd14f27f	-0.036364075
163	0x3d0fa7f5	0.035072286
164	0xbc0073aa	-0.007840076
165	0xbd02fe80	-0.03198099
166	0x3cac726d	0.021050656
167	0xbccf8dc3	-0.025336152
168	0x3bc6b26f	0.0060637514
169	0x3d2896a6	0.041159295
170	0xbc52e117	-0.012871048
171	0x39edcdb5	0.00045357426
172	0x3c83008a	0.015991468
173	0x3d1b8a43	0.037973654
174	0x3d26087c	0.040535435
175	0x3b37c2e5	0.002803975
176	0xba8cd49b	-0.0010744514
177	0xbcc15658	-0.023600742
178	0x3bb17f70	0.005416803
179	0x3d0478af	0.032341655
180	0x3d0eb5d0	0.03484136
181	0x3bdabb90	0.006675191
182	0x3d88bcfc	0.06676671
183	0x3c0fbd2c	0.008773129
184	0x3b44e2b6	0.0030042357
185	0x3a4435e2	0.0007484836
186	0x3d243ec8	0.040098935
187	0xbcca9904	-0.024731167
188	0x3c8fb14c	0.017540596
189	0x3ce97227	0.028496815
190	0x3c2e2033	0.010627794
191	0x3bda075d	0.00665371
192	0xbd1a1ffc	-0.03762816
193	0x3c8552ad	0.016274774
194	0x3ccf8a22	0.025334422
195	0x3d246fd1	0.0401457
196	0x3d214821	0.039375428
197	0x3d44c902	0.04804326
198	0xbc5bf66f	-0.013425454
199	0x3d3c126a	0.045916
200	0x3c3d5062	0.011554809
201	0x3d3a126e	0.045427732
202	0x3cb8107c	0.022468798
203	0x3d529539	0.05141184
204	0xbc540d4e	-0.012942625
205	0x3c909a17	0.0176516
206	0x3d44f7c3	0.048087846
207	0xbadc3ac3	-0.001680218
208	0x3d1a894d	0.037728596
209	0x3d373aa0	0.044733644
210	0x3cdfe4ea	0.027330834
211	0xbd1c3491	-0.03813607
212	0x3caa833b	0.020814529
213	0xbaa0abe7	-0.0012258262
214	0xbd0466db	-0.032324653
215	0xbd1508de	-0.03638541
216	0x3d067647	0.03282764
217	0xbc33c364	-0.010971878
218	0xbcd7340e	-0.026269939
219	0x3c316f62	0.010829778
220	0xbc4df00b	-0.012569438
221	0x3c9e769c	0.019343667
222	0xbcc80505	-0.024416456
223	0xbc7ab041	-0.015300811
224	0xbc570408	-0.01312352
225	0x3c66f42d	0.014096302
226	0x3d02822d	0.031862427
227	0x3cb47674	0.02202914
228	0x3d103c96	0.03521403
229	0x3c9d49c8	0.01920022
230	0x3d67258f	0.056432303
231	0xbc2d15c6	-0.010564273
232	0x3c2f489c	0.010698464
233	0x3d32cd9a	0.04365311
234	0xbc395be5	-0.011313413
235	0xbc8d922f	-0.01728162
236	0x3c1bc111	0.00950648
237	0x3cd2f687	0.025752319
238	0xbb07194d	-0.0020614446
239	0xbd1425fe	-0.036169045
240	0xbd12710d	-0.035752345
241	0xba9de1c2	-0.001204543
242	0x3ca5a02b	0.020217976
243	0x3ceeb24c	0.029137753
244	0xbd02f993	-0.031976294
245	0x3cc23e21	0.023711266
246	0xbca4cb11	-0.02011636
247	0xbc2de0ee	-0.010612709
248	0xbc3dfa4d	-0.011595321
249	0x3a241092	0.00062585727
250	0xbd0f9de3	-0.035062682
251	0x3d220e21	0.039564256
252	0xbb208732	-0.0024494645
253	0xbcebc79a	-0.0287817
254	0x3d29372a	0.041312374
255	0xbd218dc0	-0.039441824

layer2.0.bias f4 [16]
0	0xbd37a5c3	-0.044835817
1	0xbd805518	-0.0626623
2	0x3c8f5b20	0.017499506
3	0xbd33b60e	-0.043874793
4	0xbb1e165c	-0.0024122214
5	0x3d2d5a7d	0.042322624
6	0xbd240c94	-0.040051058
7	0xbcfac835	-0.030613044
8	0xbc70c6fa	-0.014695877
9	0xbd67867b	-0.056524735
10	0xbc966664	-0.01835937
11	0x3ceb9bcc	0.028760813
12	0xbd2b634a	-0.041842736
13	0xbc077eaa	-0.008269945
14	0x3d34aef8	0.044112176
15	0x3bc29447	0.005938086

layer2.2.weight f4 [16]
0	0x3f7c573d	0.98570615
1	0x3f83747b	1.0269922
2	0x3f798131	0.97462755
3	0x3f8037d4	1.0017037
4	0x3f83f503	1.0309147
5	0x3f7b8a4e	0.9825791
6	0x3f7cb1dd	0.987089
7	0x3f7e6be6	0.9938339
8	0x3f81b99e	1.0134771
9	0x3f7dd933	0.99159545
10	0x3f7c7e05	0.9862979
11	0x3f7840c3	0.9697382
12	0x3f7cdcd9	0.98774487
13	0x3f7de273	0.9917366
14	0x3f81184c	1.008554
15	0x3f813121	1.0093118

layer2.2.bias f4 [16]
0	0x3c953145	0.01821197
1	0x3d8fe87d	0.070267655
2	0x3d04e1c3	0.032441866
3	0x3b3e3d27	0.002902815
4	0x3d960e2a	0.0732692
5	0x3d3e7b16	0.046504103
6	0x3d556feb	0.052108686
7	0x3d981950	0.07426703
8	0x3d4a4963	0.049386393
9	0x3d94d3d3	0.07266965
10	0x3cf399cf	0.029736428
11	0x3d0739a7	0.033013966
12	0x3cb1f823	0.021724766
13	0x3d3755ab	0.044759434
14	0x3cd54ddd	0.026038105
15	0x3d4102b9	0.047121737

layer2.2.running_mean f4 [16]
0	0x3ec31453	0.38101444
1	0x3e948a36	0.29011697
2	0x3f06f1a0	0.5271244
3	0x3e942156	0.28931683
4	0x3ea9e08a	0.33179122
5	0x3ea2fe6a	0.31834728
6	0x3e9b5d4b	0.30344614
7	0x3ea4f156	0.32215375
8	0x3ec3659d	0.38163462
9	0x3e6e2ce5	0.23259313
10	0x3ed67ca7	0.41891977
11	0x3f03ccff	0.51484674
12	0x3eb547a1	0.3540621
13	0x3ea38c45	0.31942955
14	0x3ee83da0	0.45359516
15	0x3eb1afaa	0.34704334

layer2.2.running_var f4 [16]
0	0x40024a2b	2.0357769
1	0x3e0abf8e	0.13549635
2	0x3ec3572a	0.38152438
3	0x3e266507	0.16249476
4	0x3e7ce714	0.24697524
5	0x3f50c3d3	0.81548804
6	0x3eb96179	0.36207178
7	0x3e3cbf68	0.1843239
8	0x3e5b7841	0.21432592
9	0x3e081637	0.13289724
10	0x3e51e50b	0.20497529
11	0x40451c87	3.0798662
12	0x3f4fd19d	0.8117922
13	0x3f34d6d0	0.7064028
14	0x3e3f8ec8	0.1870681
15	0x3e96bdcd	0.29441682

layer3.0.weight f4 [32, 16, 7, 3, 3]
0	0x3c8bef3f	0.017081855
1	0x3c0ec722	0.008714469
2	0x3d42f01b	0.047592264
3	0x3d0de70b	0.034644168
4	0x3bb7868e	0.005600757
5	0x3d41eddd	0.047345985
6	0x3cf1f56f	0.029535977
7	0x3d190d2b	0.037366074
8	0x3ca4a814	0.020099677
9	0xbcf0d51c	-0.029398493
10	0xbc971284	-0.018441446
11	0xbcef6f8e	-0.029227998
12	0x3c897643	0.016780024
13	0xbd01879a	-0.03162346
14	0x3ca3ad14	0.019979991
15	0x3c8c2055	0.01710526
16	0xbc1c0a9d	-0.009524015
17	0x3b97a0ff	0.0046273465
18	0x3cd2e3f3	0.02574346
19	0x3c342b69	0.010996678
20	0xba87c47a	-0.0010358237
21	0x3cdae43f	0.026720164
22	0x3c3804c0	0.011231601
23	0x3cbff92b	0.023434242
24	0x3cdf16eb	0.027232608
25	0xbc9aab89	-0.018880622
26	0x3d02f48e	0.031971507
27	0x3c8f3697	0.017482085
28	0xbc3a0553	-0.011353808
29	0x3c41d110	0.01182963
30	0x3b8c87f5	0.0042886683
31	0x3c2da196	0.010597607
32	0x3b6347aa	0.0034680166
33	0xbc7c56e3	-0.015401575
34	0xbc91afee	-0.017784085
35	0x3c79b141	0.0152400145
36	0x3d1252df	0.035723563
37	0x3cf055ac	0.029337727
38	0xbc7db7d4	-0.015485723
39	0x3d1216d5	0.035666306
40	0xbb042e62	-0.0020169248
41	0x3c72eb40	0.014826596
42	0x3d06028b	0.03271727
43	0xbb80eb0b	-0.0039342693
44	0x3c0b1c78	0.008490674
45	0xbcbd43b5	-0.023103574
46	0x3d1a9647	0.037740972
47	0x3d180f33	0.03712387
48	0x3b8ef37c	0.0043625217
49	0xbc42862e	-0.011872811
50	0x3c958514	0.018251933
51	0xbcc3ab1a	-0.023885299
52	0xba9bbf79	-0.0011882625
53	0x3beb3fc9	0.0071792346
54	0x3cc2cde6	0.02377982
55	0x3c2d1b3e	0.010565577
56	0x3cb7359b	0.022364428
57	0x3adc65db	0.0016815023
58	0x3b04e50a	0.002027812
59	0x3c9ce10e	0.019150283
60	0xbc8e5932	-0.017376516
61	0xbc9bf706	-0.019038688
62	0x3c7e8ac2	0.015536012
63	0x3b8d9314	0.0043205116
64	0xbcfef75d	-0.031123811
65	0xbce2d8e1	-0.027691307
66	0xbc8996b3	-0.016795492
67	0x3c0ff767	0.008787013
68	0xbba56078	-0.0050469004
69	0xbb9a8d75	-0.00471657
70	0xbc24b7f4	-0.0100536235
71	0x3a2dbe58	0.00066277897
72	0x3b1ee23d	0.0024243735
73	0xbc9ca4e9	-0.019121604
74	0xb98453f7	-0.0002523956
75	0xba26cea2	-0.0006363188
76	0xbbc79f91	-0.00609202
77	0xbb1fc5d7	-0.0024379396
78	0x3c55769e	0.013028769
79	0x3c490f8f	0.012271776
80	0xbcd4c8ab	-0.025974592
81	0xbcaf8f37	-0.021430595
82	0x3c8a311b	0.016869118
83	0xbb3d9be2	-0.0028932025
84	0x3abcf47c	0.0014416124
85	0xbbba43ad	-0.005684337
86	0x3cb38188	0.021912351
87	0xbcadfc2c	-0.021238409
88	0xbaee80da	-0.001819636
89	0x3a72de0c	0.0009264655
90	0xbc8bf8e3	-0.017086452
91	0xbbe0b64b	-0.0068576685
92	0xbcca07e2	-0.024661962
93	0xbd2bc18b	-0.041932624
94	0xbd31e1e4	-0.043428317
95	0xbbe3afa6	-0.006948429
96	0xbcb0ae9a	-0.021567632
97	0xbd450093	-0.04809625
98	0xbd032b5f	-0.032023784
99	0xbd382826	-0.044960164
100	0x3a22679a	0.00061952474
101	0xbd1b13e8	-0.03786078
102	0xbd10e3b7	-0.035373416
103	0xbc53baa4	-0.012922917
104	0xbd3148fa	-0.043282486
105	0xbc26ca8e	-0.010180129
106	0xbce220c7	-0.02760352
107	0xbd0b02ed	-0.033938337
108	0xbc10a0fe	-0.008827446
109	0xbd04d7ec	-0.03243248
110	0xbca6d067	-0.020363046
111	0x3a30a5e1	0.0006738585
112	0x3c377cb2	0.011199163
113	0xbc901165	-0.01758642
114	0xbc9c4f66	-0.019080829
115	0x38765df2	5.8738464e-05
116	0xbb68295b	-0.003542504
117	0xbd1eec69	-0.038799677
118	0x3a4adcba	0.00077385793
119	0xbce119b1	-0.02747807
120	0xbd3eff09	-0.04662994
121	0xbd007db6	-0.031369887
122	0xbc9803d0	-0.018556505
123	0xbd2082d5	-0.03918727
124	0xbc45ec29	-0.012080231
125	0xbd014ff8	-0.031570405
126	0x3cf5a881	0.029987575
127	0x3c64de79	0.013969057
128	0x3bb57d81	0.005538643
129	0xbcdd329c	-0.027001671
130	0x3aa6a294	0.0012713247
131	0xbcb27e3c	-0.021788709
132	0xbc24a8f9	-0.010050052
133	0xbc7e96f0	-0.015538916
134	0x3bb335ab	0.005469044
135	0xbc1b0490	-0.009461537
136	0xba27d7f9	-0.0006402727
137	0xbc06ac9b	-0.008219863
138	0xbacd7efd	-0.0015678104
139	0x3c0f7784	0.008756522
140	0xbc545509	-0.012959727
141	0xbc09c6c6	-0.008409208
142	0xbd01428e	-0.031557612
143	0xbd1e991a	-0.038720228
144	0xbcb2ffae	-0.021850433
145	0x3b8a3eb6	0.0042189015
146	0x3d145184	0.03621055
147	0xbb07998d	-0.0020690889
148	0x3c8bdf83	0.017074352
149	0x3b37e683	0.002806098
150	0x3b7fbd4e	0.0039022746
151	0x3c9523f9	0.01820563
152	0x3c84c997	0.016209407
153	0x3a7b98e8	0.0009597675
154	0xbc7c8a3f	-0.01541382
155	0xbc92da41	-0.017926337
156	0xbbe5ebd3	-0.007016638
157	0xbc13d733	-0.009023475
158	0xbcc62bc3	-0.02419079
159	0xbc7c56d7	-0.015401564
160	0xbcce7ae8	-0.02520509
161	0xbcc3676e	-0.02385303
162	0xbc21fb92	-0.009886639
163	0x3ce69006	0.028144848
164	0x3bfd4966	0.007729697
165	0x3c89b63a	0.016810525
166	0x3c81f8e4	0.01586575
167	0xbccfe71f	-0.025378762
168	0xbc771d73	-0.015082705
169	0x3ce24868	0.027622417
170	0x3c18b110	0.009319559
171	0x3ce5f3fd	0.028070444
172	0x3d0a4295	0.033754904
173	0x3b79ba73	0.0038105517
174	0x3c9cccd6	0.019140642
175	0xbacdd20c	-0.0015702858
176	0xbc96aadc	-0.018392019
177	0x3b267f8d	0.0025405616
178	0xbb8f99ae	-0.0043823337
179	0x3c8bb51f	0.017054139
180	0xbca60bac	-0.020269237
181	0x3bda7ba7	0.0066675725
182	0xbd05b7c4	-0.032645956
183	0x3c745d65	0.014914845
184	0xbc3ce877	-0.011530033
185	0xbbc1883f	-0.0059061344
186	0x3c3c01ae	0.01147501
187	0xbc053f64	-0.008132789
188	0xbd029cf8	-0.03188798
189	0x3a977581	0.0011555405
190	0x3cd3c900	0.02585268
191	0xbc87f690	-0.016597062
192	0x3bf1be6e	0.0073774373
193	0xbc273953	-0.010206538
194	0xbc068b90	-0.008211985
195	0xbc74e20e	-0.014946474
196	0x3be5c239	0.0070116785
197	0xbb5ecb00	-0.003399551
198	0x3c4e2d99	0.0125841135
199	0xbc7ec431	-0.015549705
200	0xbb4f55d2	-0.0031636846
201	0x3ca4749f	0.02007514
202	0x3c70ce61	0.014697642
203	0xbc8518fb	-0.016247263
204	0x3c860281	0.016358616
205	0x3c9e35ff	0.019312857
206	0xbc987522	-0.01861054
207	0xbbde3179	-0.0067808
208	0x3c77108c	0.015079629
209	0x3c9a6bce	0.018850233
210	0x3bffe912	0.0078097666
211	0x3b301388	0.002686711
212	0xbc492e5d	-0.01227912
213	0x3b423b61	0.0029637443
214	0x3c323ffc	0.010879513
215	0xbcc9e850	-0.024646908
216	0x3b863d71	0.00409668
217	0xbcae0c9f	-0.021246253
218	0xbd04862b	-0.032354515
219	0xbcedd514	-0.029032268
220	0xbc768d84	-0.015048388
221	0xbd3423d0	-0.043979466
222	0xbca6f2b8	-0.02037941
223	0x3a1e8ad5	0.0006047909
224	0xbc74bfbb	-0.01493829
225	0xbccb1cfc	-0.024794094
226	0x3c81995c	0.015820198
227	0xbcb02b83	-0.021505123
228	0xbc055fa9	-0.008140483
229	0xbc89c2d7	-0.01681654
230	0x3ca07e21	0.019591393
231	0x3bb03e7f	0.005378544
232	0x3b6cb39e	0.0036117802
233	0x3cb6ff51	0.022338541
234	0x3d44d13c	0.048051104
235	0x3d47d67f	0.048788544
236	0x3d7346ce	0.059393696
237	0x3ca6497b	0.02029871
238	0x3c13aab8	0.0090128705
239	0x3d5e5986	0.054284595
240	0x3d2ab967	0.04168072
241	0x3d31fa53	0.04345162
242	0x3d23ab76	0.03995844
243	0x3c541e7c	0.012946721
244	0x3a8f9289	0.0010953705
245	0xbc0540f9	-0.0081331665
246	0x3b029034	0.0019922378
247	0x3bd6fbe5	0.00656079
248	0x3baa3e51	0.005195417
249	0x3c930818	0.017948195
250	0x3affede1	0.001952585
251	0x3ba3a45c	0.0049939584
252	0xbccc5e92	-0.024947438
253	0xbbb8925f	-0.005632683
254	0x3c7346a1	0.014848382
255	0xbce667b0	-0.028125614

layer3.0.bias f4 [32]
0	0xbc178613	-0.009248274
1	0xbd3c2255	-0.04593118
2	0xbc18a665	-0.009317015
3	0xbcda214a	-0.026627202
4	0xbc6a660c	-0.014306556
5	0xbd34ad45	-0.044110555
6	0xbc99ce5f	-0.018775163
7	0xbd213cd8	-0.039364666
8	0x3ba558ba	0.0050459774
9	0xbd62b8b6	-0.055351935
10	0xbcbcad42	-0.023031835
11	0xbd1d3931	-0.03838462
12	0xbd9711ee	-0.07376467
13	0x3bb03100	0.005376935
14	0xbc95a197	-0.018265529
15	0xbd1ea6fd	-0.03873347
16	0xbb1828d5	-0.0023217697
17	0xbc0053c8	-0.007832475
18	0xbce14e12	-0.027503047
19	0xbc251d42	-0.010077776
20	0xbdd193a2	-0.10233237
21	0xbd896990	-0.067095876
22	0xbccb8a87	-0.024846328
23	0xbd8b30d4	-0.067964226
24	0x3ba4d5d7	0.0050303745
25	0xbc4dbe26	-0.012557542
26	0x3c1a43b0	0.009415552
27	0xbd001d21	-0.03127778
28	0x3c999637	0.018748386
29	0x3c87145f	0.016489206
30	0x3ac396a9	0.001492222
31	0x3cde5a54	0.027142681

layer3.2.weight f4 [32]
0	0x3f8e3d7c	1.1112514
1	0x3f8e2931	1.1106321
2	0x3f8e18b4	1.1101289
3	0x3f8df216	1.1089504
4	0x3f8dfea4	1.1093335
5	0x3f8e64a7	1.1124467
6	0x3f8e1cb8	1.1102514
7	0x3f8dfcd0	1.1092777
8	0x3f8e150f	1.1100177
9	0x3f8e552e	1.1119745
10	0x3f8e1a0c	1.1101699
11	0x3f8e39b9	1.1111366
12	0x3f8d74d1	1.1051275
13	0x3f8dcc58	1.1077986
14	0x3f8d9ec9	1.1064082
15	0x3f8e4af3	1.1116623
16	0x3f8e2a61	1.1106683
17	0x3f8da5be	1.1066206
18	0x3f8e4fa1	1.1118051
19	0x3f8d529d	1.1040837
20	0x3f8e1645	1.1100546
21	0x3f8e33a6	1.1109512
22	0x3f8dfea8	1.109334
23	0x3f8dd8eb	1.1081823
24	0x3f8d45bd	1.1036907
25	0x3f8d8eab	1.1059164
26	0x3f8dfbad	1.109243
27	0x3f8dee31	1.1088315
28	0x3f8dfc69	1.1092654
29	0x3f8e1a6c	1.1101813
30	0x3f8e75fe	1.1129758
31	0x3f8e12ff	1.1099547

layer3.2.bias f4 [32]
0	0xb9ab8cc6	-0.00032720546
1	0xb8966ad0	-7.172453e-05
2	0xba305e53	-0.00067279226
3	0xb9b2a091	-0.00034070437
4	0xb928a2f3	-0.00016082432
5	0x3931207f	0.00016892141
6	0x39fca67f	0.00048189235
7	0x3799b81f	1.832476e-05
8	0xba90a86c	-0.0011036522
9	0xba076f75	-0.00051664497
10	0xba188606	-0.0005818311
11	0xb9cf2ece	-0.0003951699
12	0xba262992	-0.0006338592
13	0x3a206ca6	0.00061197055
14	0xba401ea0	-0.0007328782
15	0xb8b78210	-8.750346e-05
16	0x386d88fa	5.6632773e-05
17	0xba36c9a9	-0.0006972799
18	0x39a725e2	0.00031880947
19	0xba0abcc1	-0.0005292409
20	0xb95c0ceb	-0.00020985647
21	0xba25ea28	-0.00063291425
22	0x3922d666	0.00015529394
23	0xb9baefba	-0.00035655295
24	0x39e661b4	0.00043941813
25	0x3a32e51f	0.0006824303
26	0x39688093	0.00022173142
27	0x39d626a1	0.00040846042
28	0xba30c48a	-0.0006743154
29	0xb69aee84	-4.6173245e-06
30	0xba2df71c	-0.00066362484
31	0xb96bfc23	-0.00022505275

layer3.2.running_mean f4 [32]
0	0x3e242fb9	0.1603383
1	0x3e92816f	0.28614375
2	0x3f3b0719	0.73057705
3	0x3e5d975e	0.21639773
4	0x3f26adbc	0.6510885
5	0x3ef9369e	0.48674482
6	0x3eb455a6	0.35221595
7	0x3f0c4236	0.5478853
8	0x3eb37bb0	0.35055304
9	0x3dfa01e5	0.122073926
10	0x3ee80795	0.45318285
11	0x3de11b21	0.109915026
12	0x3e8cb78b	0.27483782
13	0x3f1bca4a	0.60855544
14	0x3e8f728b	0.28017077
15	0x3df6bc08	0.12047583
16	0x3eb211e4	0.34779274
17	0x3ed92845	0.42413536
18	0x3ec24f6f	0.37951228
19	0x3f11c57d	0.5694197
20	0x3e31b881	0.17355539
21	0x3e80f2c2	0.2518521
22	0x3ef57d60	0.47947216
23	0x3e846e16	0.2586524
24	0x3f22a064	0.63525987
25	0x3ef120f5	0.47095457
26	0x3f0ea447	0.5571942
27	0x3ecd0f8a	0.40050918
28	0x3f36cad6	0.71403253
29	0x3f0fc5ad	0.56161004
30	0x3f3de1fc	0.7417295
31	0x3f10891a	0.564592

layer3.2.running_var f4 [32]
0	0x3e4f35ae	0.20235321
1	0x3ec0b797	0.37640068
2	0x3ff70f74	1.9301591
3	0x3e60b29e	0.21943137
4	0x3f6ac6b2	0.91709435
5	0x3efe15aa	0.49625903
6	0x3ea02fd6	0.31286496
7	0x3f13ebec	0.57781863
8	0x3ec4c750	0.38433313
9	0x3e05b77f	0.1305828
10	0x3f1047ec	0.56359744
11	0x3dd8b55d	0.10581467
12	0x3ec95a34	0.39326632
13	0x3f3ac193	0.7295162
14	0x3ecf3c7d	0.40475836
15	0x3e01c5a7	0.12673055
16	0x3e93c3c4	0.28860295
17	0x3efff1de	0.49989218
18	0x3ed36562	0.41288286
19	0x3f3a25eb	0.7271411
20	0x3e308563	0.17238383
21	0x3edafbea	0.4277032
22	0x3f24e577	0.64412636
23	0x3ea322da	0.31862527
24	0x3f51def2	0.8198081
25	0x3f06d670	0.52670956
26	0x3f569e10	0.83834934
27	0x3eb175b5	0.34660116
28	0x3fa9320d	1.3218399
29	0x3f5a394b	0.8524367
30	0x3f6d9eec	0.9282062
31	0x3f5b215e	0.8559779

fc1.0.weight f4 [32, 2400]
0	0xbc801b76	-0.015638094
1	0xbbe77228	-0.007063169
2	0x3c84baa0	0.016202271
3	0x3c821ac8	0.01588191
4	0x3c04a5e2	0.00809619
5	0xbc296769	-0.010339596
6	0xbb8c3a6c	-0.0042794254
7	0x3c416d18	0.011805795
8	0xbc5f8f6e	-0.013645036
9	0x3c31cf68	0.010852672
10	0x38cc9f00	9.757094e-05
11	0x3bea5c3c	0.0071521085
12	0xbc5cc880	-0.013475537
13	0x3c82154c	0.015879296
14	0xbbba4314	-0.005684266
15	0x3b144ea8	0.002262989
16	0xbc199526	-0.009373939
17	0x3c7b1fe0	0.015327424
18	0x3c1181cc	0.008881044
19	0xbc0e2cb7	-0.008677653
20	0xbc81d373	-0.015847897
21	0x3c941a86	0.018079054
22	0xbca5f37f	-0.02025771
23	0x3c5f94dc	0.013646331
24	0x3c8e60b4	0.017380096
25	0xbc16d2c7	-0.009205527
26	0x3c4ea720	0.012613088
27	0xbad46ef0	-0.0016207378
28	0x3c0a2e10	0.008433834
29	0xbca2fdf4	-0.019896485
30	0x3c74e2ec	0.0149466805
31	0xbc03eb57	-0.008051715
32	0xbc8e799c	-0.017391972
33	0x3c8f72ee	0.017510857
34	0x3c7c32a8	0.015392937
35	0x3c822324	0.015885897
36	0x3c9c6d02	0.019094948
37	0x3ca4d9ec	0.020123444
38	0xbc1b8782	-0.009492757
39	0x3c88d32c	0.016702257
40	0xbc396d3c	-0.011317547
41	0xbb931b94	-0.0044893716
42	0xbc88e47e	-0.016710516
43	0x3c87e200	0.016587257
44	0x3b8aaeb0	0.00423225
45	0xbca3929a	-0.019967366
46	0xbc731c1c	-0.014838245
47	0xbc19f94b	-0.009397815
48	0xbbd494e8	-0.0064874776
49	0xbac82a40	-0.001527138
50	0x3c8d5bca	0.017255682
51	0xbc86fb8e	-0.016477372
52	0xba8b8d10	-0.0010646898
53	0xbc721037	-0.014774374
54	0xbc3a260a	-0.011361608
55	0xbbf855ea	-0.007578601
56	0x3c838b08	0.016057506
57	0x3bae9064	0.0053272713
58	0x3b7993d8	0.0038082507
59	0xbc4f3da2	-0.012648972
60	0xbc81b0e4	-0.015831418
61	0x3c9637fa	0.018337239
62	0x3c9d091a	0.019169379
63	0xbc7f39fd	-0.01557779
64	0x3ca221c0	0.019791484
65	0xbb6f8b10	-0.0036551394
66	0x3c07c40a	0.008286485
67	0xbaff93c0	-0.0019498989
68	0xbb2726e0	-0.002550535
69	0x3bb5a1d8	0.005542975
70	0x3c9aa416	0.01887707
71	0xbc19410f	-0.00935389
72	0x3c5022ec	0.0127036385
73	0xbc5e2275	-0.01355802
74	0x3bc4a504	0.0060011167
75	0x3b9395e8	0.004503954
76	0x3c9327a0	0.01796323
77	0x3c77350c	0.015088331
78	0xbc94d914	-0.018169917
79	0x3c5113a8	0.012761034
80	0xbc9b4fc8	-0.018958941
81	0x3c277578	0.010220878
82	0x3c45a264	0.012062643
83	0x3c0e0c1e	0.008669881
84	0x3c6cd8a0	0.014455944
85	0x3c2655a6	0.010152256
86	0x3c1299e4	0.008947823
87	0xbc89417d	-0.01675486
88	0x3c3867cc	0.011255216
89	0x3bae3e84	0.005317511
90	0x3bacf554	0.005278269
91	0x3c67eb68	0.014155246
92	0xbc82c0e6	-0.015961122
93	0x3bea77f8	0.0071554147
94	0xbc49be0e	-0.012313379
95	0xb83f9800	-4.567951e-05
96	0xbbb61878	-0.005557116
97	0xbb6d38f8	-0.0036197286
98	0x3bb96d74	0.0056588
99	0xbc766f0a	-0.015041122
100	0x3c91cb7e	0.017797228
101	0x3c9c322a	0.019066889
102	0x3c565be8	0.013083436
103	0xbc7ac098	-0.015304707
104	0xbb5fee28	-0.0034169052
105	0x3c96aa22	0.018391673
106	0x3ab9a9c0	0.0014164969
107	0xbc5ee39c	-0.013604071
108	0xbb9b00d8	-0.004730325
109	0x3c079cc0	0.008277118
110	0xbc8aa378	-0.016923651
111	0xbc043fd4	-0.008071858
112	0x3c7f953c	0.015599545
113	0x3c68d0c4	0.01420993
114	0xbc9dc5ef	-0.019259421
115	0x3a1cd340	0.00059824064
116	0xbc97904f	-0.018501429
117	0x3c1e3d28	0.0096581355
118	0x3c31d3e0	0.010853738
119	0x3c85f150	0.016350418
120	0x3c147c1c	0.009062793
121	0xbc3f819c	-0.011688616
122	0xba00cce0	-0.0004913341
123	0xbc46e9f2	-0.012140738
124	0xbaba9190	-0.0014234055
125	0x3be9fd5c	0.0071407985
126	0xbca4fcb1	-0.020140024
127	0x3c7d21a8	0.015449919
128	0xbc234c55	-0.009966929
129	0xbc850190	-0.016236097
130	0xbbe2633c	-0.0069088023
131	0xbc9ec2dc	-0.019380026
132	0x3a8660e0	0.001025226
133	0xbc0bf823	-0.008543047
134	0x3c83179a	0.016002465
135	0xb905f380	-0.00012774579
136	0xbc158aae	-0.009127302
137	0xbc271576	-0.010197988
138	0x3b813fcc	0.0039443728
139	0xbc9c6036	-0.019088846
140	0x3c047dca	0.008086631
141	0xbc4a0b22	-0.012331756
142	0xbb22ea10	-0.002485875
143	0x38f7ef00	0.00011822395
144	0xbbfdbb54	-0.0077432785
145	0xbb8c039c	-0.004272891
146	0x3bee9c50	0.0072818175
147	0x3ca5ef9e	0.02025586
148	0x3c519760	0.012792438
149	0xbc96bef0	-0.018401593
150	0x3c5a8c14	0.013339061
151	0xbc63bd03	-0.013900044
152	0xbbd7c724	-0.0065850187
153	0xbbe4afe4	-0.0069789756
154	0x3bdd63d0	0.0067562833
155	0xbca663a9	-0.020311194
156	0x3ca235d0	0.01980105
157	0x3c35be3c	0.011092719
158	0xbbaa92b0	-0.005205475
159	0xbc270ebc	-0.010196384
160	0x3ca477f4	0.02007673
161	0x3c3094bc	0.010777649
162	0xbc64911e	-0.013950614
163	0x3ba2ebd4	0.0049719606
164	0xbc6ead2d	-0.0145676555
165	0x3c715164	0.014728878
166	0xbba85448	-0.0051370002
167	0xbc5ed6ef	-0.013601049
168	0xbb840a00	-0.0040295124
169	0x3c347cc0	0.011016071
170	0x3b310878	0.0027013104
171	0xbc54c5eb	-0.01298664
172	0xbc8a5a4c	-0.01688876
173	0xbb994f48	-0.0046786405
174	0xbc8ef564	-0.017450996
175	0x3c0e05ea	0.008668402
176	0x3c5174f8	0.012784235
177	0x3c863e4a	0.016387124
178	0xbbb8942c	-0.005632898
179	0xbc0a811a	-0.008453632
180	0x3bdbe090	0.0067101195
181	0xbc47197c	-0.012152072
182	0x3c8e494e	0.017368939
183	0x3c8a0ec2	0.01685274
184	0xbad365c0	-0.0016128346
185	0xbc5d0adc	-0.013491359
186	0x3b8eb9e4	0.004355656
187	0x3c3a2eb0	0.01136367
188	0x3b670fc0	0.003525719
189	0xbc13d6ab	-0.009023349
190	0xbc6c4d9f	-0.014422803
191	0xba588cc0	-0.00082607195
192	0x3c41b0c8	0.011821933
193	0xbb25de88	-0.002530964
194	0xbb9fd070	-0.0048771426
195	0xbbe79af6	-0.0070680333
196	0x3bcf66dc	0.0063294005
197	0x3c00fca8	0.007872738
198	0x3c36da0c	0.011160385
199	0x3c132d1e	0.008982925
200	0xbc08a520	-0.00834015
201	0xbc4542cb	-0.0120398505
202	0xbac19a60	-0.0014770739
203	0xbc6c35c0	-0.014417112
204	0x3c80add6	0.015707891
205	0xbb263950	-0.002536375
206	0xbc3f63e6	-0.0116815325
207	0x3bf9e4b0	0.0076261386
208	0x3c090f8e	0.008365525
209	0x3a097c80	0.0005244687
210	0x3c15d7a4	0.009145651
211	0x3ca0da5a	0.019635368
212	0xbc8cb9be	-0.017178413
213	0x3b940c04	0.004518034
214	0xbb3fd9f0	-0.0029274188
215	0x3c82e6d6	0.015979212
216	0xbbcccb98	-0.006249856
217	0x3c98be62	0.01864547
218	0xbc458e96	-0.012057921
219	0xbc8b7686	-0.01702429
220	0x3c6fb3b4	0.014630247
221	0x3c0036e0	0.007825583
222	0xbbf1e8dc	-0.0073824953
223	0xbc97c690	-0.0185273
224	0xbbd7918e	-0.006578631
225	0xbb89ef0c	-0.004209405
226	0x3bf846f4	0.0075768176
227	0x3c43f62c	0.011960547
228	0xbb85dfb4	-0.0040855054
229	0x3c96e26a	0.01841851
230	0x3c583738	0.013196759
231	0xbc86e956	-0.016468685
232	0xbc26078c	-0.010133635
233	0xbb76acc8	-0.0037639607
234	0x3ca0147e	0.019541021
235	0xbc1d6f0c	-0.009608995
236	0xb881de00	-6.19255e-05
237	0x3c8fd95e	0.017559703
238	0xbb2c2160	-0.002626501
239	0x3c85bd9c	0.016325764
240	0xbb3145b0	-0.0027049594
241	0xbc884cb9	-0.016638147
242	0xbc328ec4	-0.010898296
243	0xbbf1a356	-0.0073742075
244	0x3c7e1430	0.015507743
245	0x3b2668e8	0.002539212
246	0x3bb7be24	0.0056073833
247	0x3c5f6168	0.013634063
248	0xbbc0e65e	-0.005886837
249	0xbc5ef3f4	-0.013607968
250	0x3c99df10	0.018783122
251	0xbbc108b8	-0.005890932
252	0x3a8cd560	0.0010744743
253	0xbc4e7fde	-0.012603728
254	0x3b6b3e80	0.0035895407
255	0xbc925075	-0.01786063

fc1.0.bias f4 [32]
0	0xbca6efaf	-0.020377962
1	0x3c934264	0.017975993
2	0x3bc3153c	0.005953459
3	0xbb931d7c	-0.004489599
4	0x3ca53f8a	0.0201719
5	0x3aac78d0	0.0013158564
6	0xbc91096e	-0.017704692
7	0xbbc5f506	-0.006041172
8	0x3c7cc1e4	0.0154270865
9	0x3c741ca8	0.01489941
10	0x3c251612	0.010076063
11	0x3c7e9e04	0.015540604
12	0x3ca2d30e	0.01987603
13	0xba452fe0	-0.00075220875
14	0xbc05a8cd	-0.008157921
15	0x3be8f07c	0.007108746
16	0x3ab1bfa0	0.0013561137
17	0xbc5898b2	-0.013219999
18	0x3c568a2c	0.013094466
19	0x393d2400	0.00018037856
20	0xbc805048	-0.015663281
21	0x3a913000	0.0011076927
22	0xbbfbca1e	-0.0076840064
23	0xbc9ca829	-0.019123154
24	0x3c35dd60	0.011100143
25	0x3c833160	0.016014755
26	0x3bab1044	0.005220445
27	0xbc63899d	-0.01388779
28	0xb910af80	-0.00013798289
29	0xbbda3e98	-0.006660294
30	0x3c455e4c	0.012046408
31	0xb9b1ad80	-0.00033889338

fc2.0.weight f4 [64, 32]
0	0xbdcd6947	-0.10029846
1	0xbd65d6ee	-0.056113176
2	0xbc904748	-0.017612115
3	0x3e1ed3a7	0.15510426
4	0x3e2db62d	0.16964026
5	0xbddcb961	-0.10777546
6	0xbdcf563e	-0.10123871
7	0xbdc8bf35	-0.09802095
8	0xbd640f44	-0.05567862
9	0xbdb7af5d	-0.08968995
10	0xbdd30dff	-0.10305404
11	0x3e01cfc3	0.12676911
12	0x3e15c1af	0.14624666
13	0xbdc8f021	-0.09811426
14	0x3d8dd9a2	0.06926276
15	0xbe1787b2	-0.14797857
16	0xbdb96a3b	-0.09053465
17	0xbd183074	-0.037155584
18	0x3dd78726	0.105238244
19	0xbe2baa46	-0.16764173
20	0xbd203c98	-0.039120287
21	0x3e20559d	0.15657659
22	0xbdecadf5	-0.11556617
23	0x3e20a1c5	0.1568671
24	0xbe0537ed	-0.13009615
25	0x3d2c9448	0.0421336
26	0x3d19fec4	0.03759648
27	0xbe18bd24	-0.14915901
28	0x3e0f64fb	0.14003365
29	0x3d8ce3e8	0.06879407
30	0x3ca5ae08	0.020224586
31	0x3c900da8	0.017584637
32	0x3d7cee30	0.06175059
33	0x3e335ea9	0.17516579
34	0xbe1c8ba6	-0.15287647
35	0x3da9ae42	0.0828519
36	0x3d472c90	0.048626482
37	0x3e0ea5fd	0.13930507
38	0xbe172375	-0.1475962
39	0xbdafb1a6	-0.085788056
40	0xba6b1300	-0.000896737
41	0x3de0231a	0.10944195
42	0xbdf716b3	-0.120648764
43	0xbe3236af	-0.17403673
44	0xbc947398	-0.018121526
45	0xbce1b2f8	-0.02755116
46	0x3dacdf4e	0.084410295
47	0xbdc1a8fb	-0.094560586
48	0x3d9f6da6	0.07784586
49	0x3dbe0a22	0.092792764
50	0x3df07502	0.117410675
51	0xbbe835a0	-0.0070864707
52	0xbdd6cb65	-0.10488013
53	0x3df2d352	0.118567124
54	0xbe200fb6	-0.15630993
55	0x3e2e6ad3	0.17032938
56	0x3e322907	0.17398463
57	0x3c903f08	0.01760818
58	0xbe2e330b	-0.17011659
59	0xbb70ae80	-0.0036725104
60	0x3e04b40d	0.12959309
61	0xbdb7a87e	-0.08967684
62	0xbddccc45	-0.10781149
63	0x3c8a0aa0	0.01685077
64	0x3e15e6f1	0.14638878
65	0x3d092a1c	0.033487424
66	0xbe137126	-0.14398631
67	0x3d726aa8	0.059183747
68	0x3d395988	0.0452514
69	0xbd857aa6	-0.06517534
70	0x3e17b219	0.14814033
71	0x3d763bf0	0.060115755
72	0x3d5e3670	0.054251134
73	0xbcb1c508	-0.021700397
74	0xbdcbac4c	-0.099449724
75	0x3d31f1f8	0.04344365
76	0xbb090140	-0.0020905286
77	0xbd1a23a0	-0.03763163
78	0x3d0c29fc	0.034219727
79	0xbdf80746	-0.12110762
80	0x3d1af2cc	0.037829205
81	0xbd896edf	-0.067106
82	0xbe2c14e1	-0.1680484
83	0x3dc25dc2	0.09490539
84	0xbcbd00a0	-0.023071587
85	0x3e19186b	0.14950721
86	0xbe0e5ff9	-0.13903798
87	0x3e06c591	0.13161303
88	0x3dfb6892	0.122758046
89	0xbd88848e	-0.06665908
90	0xbd9b6eca	-0.07589491
91	0xbe326f28	-0.17425215
92	0x3dc3b3e2	0.09555794
93	0x3d22aec8	0.039717466
94	0x3deab332	0.1145996
95	0xbd497b6c	-0.04918997
96	0x3cbeac40	0.023275495
97	0xbbdfb7c0	-0.0068273246
98	0x3e0e942f	0.13923715
99	0xbe1b238c	-0.15150279
100	0xbdcc0044	-0.09960988
101	0x3d1d20fc	0.038361534
102	0xbe236328	-0.15955794
103	0xbe2c3e54	-0.16820651
104	0xbd8137d6	-0.06309478
105	0x3bb8b400	0.005636692
106	0xbe2046b9	-0.15651979
107	0xbe24b132	-0.1608322
108	0x3daddf72	0.084898844
109	0x3b7ac900	0.0038266778
110	0xbe0a4c8f	-0.13505767
111	0x3d6eedb0	0.058332145
112	0x3d340f90	0.043960154
113	0x3da27a12	0.07933439
114	0xbda85001	-0.082183845
115	0x3dea65a2	0.11445166
116	0x3d794ae8	0.06086245
117	0x3d2b2ad0	0.041788876
118	0x3de6707a	0.11251922
119	0x3e333ae1	0.1750293
120	0x3de1cdce	0.11025582
121	0xbe27b14c	-0.16376227
122	0xbe30e23c	-0.17273802
123	0xbe1a5189	-0.15070166
124	0x3ca7f2a8	0.02050145
125	0xbd99c0ef	-0.07507502
126	0xbd380884	-0.044929996
127	0x3cc35cc8	0.023847952
128	0x3d6d4e04	0.05793573
129	0xbd5c2f20	-0.05375588
130	0x3d0e8644	0.034796014
131	0xbda5047e	-0.080574974
132	0xbd211b9c	-0.03933297
133	0xbe1808d5	-0.14847119
134	0x3df69c82	0.1204157
135	0xbdd561b0	-0.10419023
136	0x3d1d48e4	0.038399592
137	0xbe1410d0	-0.14459538
138	0x3e175b21	0.14780857
139	0x3d8e4c62	0.069481626
140	0xbdb3462e	-0.0875362
141	0x3e304bbf	0.17216395
142	0xbda47044	-0.080292255
143	0x3e22d0bd	0.1589994
144	0xbdefce53	-0.11709275
145	0xbc8c5570	-0.017130584
146	0x3dee735e	0.11643098
147	0x3df0d2be	0.11758946
148	0xbd7eaa56	-0.062174164
149	0xbe34cc89	-0.17656149
150	0x3ca378e8	0.019955114
151	0xbe1e65b5	-0.15468486
152	0x3de7fdb2	0.113276854
153	0x3dfee7d2	0.1244656
154	0x3e1e2f8d	0.15447827
155	0x3d825714	0.06364265
156	0xbdbe1dba	-0.09283014
157	0x3d9e9626	0.07743482
158	0x3c93ce00	0.018042564
159	0x3bc39f40	0.005969912
160	0x3d8e7dfc	0.06957623
161	0xbd8ad58d	-0.06779013
162	0xbd2ed0d4	-0.042679623
163	0xbd93a8f5	-0.0720996
164	0x3dae7b9a	0.08519669
165	0x3d152d5c	0.03642021
166	0xbe111d27	-0.14171277
167	0xbdebb4f8	-0.115091264
168	0x3cc3d3b8	0.023904666
169	0xbdd23331	-0.1026367
170	0x3d9c8302	0.07642175
171	0x3b9cd940	0.0047866404
172	0x3e0a7cff	0.13524245
173	0xbe08f1d0	-0.13373494
174	0xbdcba194	-0.09942928
175	0xbe27b724	-0.16378456
176	0xbc9d1960	-0.019177139
177	0x3e30b509	0.1725656
178	0x3d94ec32	0.07271613
179	0xbde1029c	-0.10986826
180	0xbcb3f730	-0.021968454
181	0x3e05dbe9	0.1307217
182	0x3e260be9	0.16215481
183	0x3d9caace	0.07649766
184	0xbd32b448	-0.04362896
185	0x3dd8a5ae	0.10578476
186	0xbd5914fa	-0.05299852
187	0x3d5a8200	0.053346634
188	0xbd10abfc	-0.035320267
189	0xbb40c6c0	-0.002941534
190	0x3d507bf0	0.050899446
191	0xbc67c920	-0.014147073
192	0x3df9009a	0.12158318
193	0x3c94a6f8	0.018146023
194	0xbdd81a4a	-0.10551889
195	0xbe0c89d2	-0.1372445
196	0x3d81c8ac	0.06337103
197	0xbdcd9b54	-0.10039392
198	0xbe30aaad	-0.17252608
199	0xbe1536c9	-0.1457168
200	0x3ccfb648	0.025355473
201	0xbe265bdf	-0.16245984
202	0x3d46c76c	0.048530027
203	0x3e236123	0.15955023
204	0x3cd2d1f0	0.025734872
205	0xbe264c96	-0.16240153
206	0x3b45ff80	0.0030212104
207	0x3e2827cb	0.1642143
208	0xbe2602f5	-0.16212066
209	0x3b609b00	0.0034272075
210	0x3e26072f	0.16213678
211	0x3dbb8d86	0.09157853
212	0x3d8a5b6e	0.0675572
213	0x3b6e78c0	0.003638789
214	0x3a442e00	0.0007483661
215	0xbdb55f1b	-0.088560306
216	0x3d88179a	0.06645127
217	0x3dfaceb6	0.12246458
218	0xbda2a560	-0.07941699
219	0xbe0502ee	-0.12989399
220	0x3e1ad9af	0.15122102
221	0xbe0a7c05	-0.13523872
222	0xbd6e5220	-0.05818379
223	0xbd60725e	-0.05479657
224	0x3e161eeb	0.14660232
225	0x3dc4b76a	0.09605296
226	0xbc801a68	-0.015637591
227	0xbd90538b	-0.070471846
228	0xbdf20468	-0.11817247
229	0x3e0d8715	0.13821061
230	0x3d6c5204	0.057695404
231	0x3d119814	0.035545424
232	0x3deed22a	0.11661179
233	0xbe035ef1	-0.12829186
234	0x3d7fbe6c	0.06243746
235	0x3df9223e	0.12164734
236	0xbe1df90d	-0.15427037
237	0xbd1a8304	-0.037722602
238	0x3e314623	0.17311911
239	0x3e288753	0.16457872
240	0x3c6d8ff0	0.014499649
241	0x3d9319ee	0.0718268
242	0xbb74ef80	-0.0037374198
243	0x3ddb5a42	0.10710575
244	0x3cb49f90	0.022048742
245	0x3dfb7dfa	0.122798875
246	0x3dea661a	0.114452556
247	0xbdc17614	-0.0944635
248	0xbcec9ee8	-0.028884366
249	0xbdd138cf	-0.102159135
250	0xbd5fe90a	-0.054665603
251	0xbccd7358	-0.025079414
252	0x3e179d19	0.14806022
253	0x3d8039f6	0.06261055
254	0xbdecd3cc	-0.115638345
255	0x3d429054	0.047500923

fc2.0.bias f4 [64]
0	0xbdda5733	-0.10661163
1	0x3da0e376	0.07855885
2	0x3c906d28	0.017630175
3	0x3e2fa1f5	0.17151625
4	0xbe2487c5	-0.16067417
5	0xbdda9088	-0.106720984
6	0xbe09f5cd	-0.13472672
7	0xbded8ce0	-0.115991354
8	0xbe19bf04	-0.15014273
9	0x3e180c0f	0.1484835
10	0x3c72b600	0.0148139
11	0xbd8af5a0	-0.067851305
12	0x3d2a4a28	0.041574627
13	0x3e25c5e5	0.16188772
14	0xbd982974	-0.074297816
15	0x3d8a946e	0.06766592
16	0xbe30d6e4	-0.17269474
17	0x3c2e9770	0.010656223
18	0xbaad9c00	-0.0013245344
19	0xbc844ad8	-0.01614897
20	0x3df6f172	0.12057771
21	0x3e1a275b	0.15054075
22	0x3e2e2a39	0.17008294
23	0xbbeaede0	-0.00716947
24	0xbe0eea3b	-0.1395654
25	0xbe3046ff	-0.17214583
26	0xbe272397	-0.1632217
27	0x3c5f57c0	0.013631761
28	0xbd4d0110	-0.05004984
29	0xbc3a90d0	-0.011387065
30	0xbcadd840	-0.02122128
31	0xbd9d38ba	-0.07676835
32	0x3e08c7e7	0.13357507
33	0x3dc82082	0.097718254
34	0x3e2d5fe7	0.16931115
35	0x3d977d8e	0.073969945
36	0x3db08f2e	0.08621059
37	0xbe14785d	-0.1449904
38	0xbde05120	-0.10952973
39	0xbe1a7c46	-0.15086469
40	0xbdae26ce	-0.08503495
41	0x3dce8dae	0.10085617
42	0x3e09d793	0.13461141
43	0xbd522728	-0.051306874
44	0xbe1102e8	-0.14161265
45	0xbc7fd000	-0.015613556
46	0xbd957f42	-0.07299663
47	0xbe269ed6	-0.16271529
48	0xbe26d4c5	-0.16292103
49	0xbe255dae	-0.16149017
50	0x3e1191a7	0.14215718
51	0xbcb70b90	-0.02234438
52	0xbd0dff58	-0.034667343
53	0x3dcc60de	0.099794134
54	0x3dd6a2d2	0.10480274
55	0x3e33710b	0.17523591
56	0x3d9396c0	0.07206488
57	0x3e1ddbef	0.1541593
58	0x3d1ee588	0.038793117
59	0xbe1fd90f	-0.15610145
60	0x3dc38996	0.09547727
61	0x3d95ed2c	0.073206276
62	0xbda201c5	-0.07910494
63	0x3e0170a7	0.1264063
