FAST 3D-CNN P-NET/model/ZGFF/ZGFF_proto_2d-5shotband45.pth (torch, 560621 bytes, 24 tensors)

layer1.0.weight f4 [64, 45, 3, 3]
000000 95 98 17 3a af 58 06 3d d4 22 11 3d fd 25 2a bd
       0.00057829294 0.03279942 0.035433605 -0.041540135
000010 17 c9 7e 3c 1a b4 25 3d c9 ab a0 bc 14 27 1e bd
       0.015550873 0.04045496 -0.019613164 -0.038611487
000020 f8 86 5d bd 57 c7 fd bc 3c 6e a4 3c 00 56 85 3b
       -0.054083794 -0.030978842 0.020072095 0.00406909
000030 1c 68 a3 bb b9 be fa 3c ed 50 18 3c 14 5a 00 bd
       -0.004986776 0.030608522 0.009296638 -0.031335905
000040 e0 15 87 3d 49 f3 98 3b 55 28 89 bd 5e 2b 4c bd
       0.06595969 0.0046676737 -0.06697146 -0.049846046
000050 7b c4 b6 3c bb 8c 9f bd 8c 50 24 3c f9 ca cf 3c
       0.022310486 -0.07790514 0.0100289695 0.02536534
000060 7f 99 7a bd fa 71 06 3d cc ad d2 3d 22 d5 69 bd
       -0.06118154 0.03282354 0.102870554 -0.057088025
000070 16 0a 0e bc 69 de fd 3a c8 ee 79 3c 0b 6f 60 3d
       -0.008669397 0.0019368652 0.015254684 0.0547934
000080 7a a1 81 3d ec ad 91 3c 13 49 a5 3d 0a 05 cf 3c
       0.06329627 0.017783128 0.080705784 0.025270957
000090 3f 04 33 bd a3 7a da bc 85 89 57 bd ec ab bc bd
       -0.04370522 -0.026669806 -0.052621383 -0.09212479
0000a0 53 18 1e 3c 67 93 8c 3d 48 e0 ec bb 72 c8 00 3c
       0.009649354 0.06864052 -0.007228885 0.00786029
0000b0 52 41 67 bc a7 ab a3 bd 69 1d d8 3c ff bf 7d bd
       -0.014114695 -0.079917245 0.026381211 -0.06195068
0000c0 2f 5e 18 bd b0 13 b0 bc 40 bd 71 3b 0b 4c af bc
       -0.037199195 -0.021493763 0.0036886483 -0.021398565
0000d0 34 8d 60 bc b5 06 6f 3c e4 3a eb 3c 75 be 8b 3b
       -0.01370554 0.014589001 0.028714605 0.0042646476
0000e0 25 26 00 3d fc e4 46 bc db 36 63 bd 1f 6c 93 bc
       0.031286377 -0.012139555 -0.055472236 -0.017995892
0000f0 ec 4f 1d 3d 4f c8 31 bb 0c 3a 90 bc be b7 bb bc
       0.038406298 -0.002712745 -0.017605804 -0.022914764
000100 b2 0c e8 3c a0 0d e6 bc 73 fb 92 3c 70 51 9a bc
       0.028326366 -0.028082669 0.017942166 -0.01883766
000110 57 9b 88 3a 22 ee 0a bd 2d f1 cc 3c 86 76 6b ba
       0.0010422271 -0.033918507 0.025017345 -0.00089822
000120 75 9f 41 3d 53 48 12 3d 7a a2 97 bc 83 18 89 3b
       0.04727121 0.035713505 -0.018510092 0.00418383
000130 bc 6b 97 3d 25 25 77 bc 74 d1 5e 3d 32 8d 23 bb
       0.073935956 -0.01508454 0.05439897 -0.0024955985
000140 58 3c 90 3d 81 41 f4 bb a9 d2 67 bd 71 96 47 bd
       0.0704276 -0.0074540977 -0.056597386 -0.048727456
000150 9e e5 b8 bd c2 9a de 3b e8 30 41 3c 70 96 c4 3b
       -0.09028171 0.006793351 0.011791445 0.005999379
000160 a6 17 06 3d 54 e8 19 3d 3c b0 85 3c cf ea 26 bd
       0.032737397 0.03757508 0.016319387 -0.040751275
000170 92 d5 83 3c b7 ce e9 bb d3 6f ba bc 78 d7 91 3a
       0.01609305 -0.007135238 -0.0227584 0.0011126837
000180 30 33 84 bc 72 ed 14 3b 15 06 64 3d 5c c3 d9 3b
       -0.01613769 0.0022724536 0.055669863 0.006645603
000190 1e 3e 0f bd 9b 11 d9 bc 98 89 02 3a 8c df e3 bc
       -0.03497135 -0.026497653 0.00049796095 -0.027816556
0001a0 75 8c a3 3c c8 71 a4 3c 70 b8 11 bd 6b 1f 1a bd
       0.019964436 0.020073786 -0.035576284 -0.03762762
0001b0 7e 03 cf 3c 14 d7 7b 3c d6 b0 1a 3d f3 70 bd bc
       0.02527022 0.015371103 0.0377663 -0.023125147
0001c0 49 6e 21 3d 16 05 b3 ba 42 c8 66 bc 8c 15 f1 3c
       0.039411817 -0.0013658132 -0.014085831 0.02942922
0001d0 f7 d0 4c 3d 1e 35 20 bc fb e4 b2 bc 5d db 1e bd
       0.050003972 -0.009778289 -0.021837702 -0.03878342
0001e0 83 09 23 bd b7 73 24 3b ab 26 c2 bc 05 28 5d 3b
       -0.039803993 0.0025093385 -0.023700079 0.0033745777
0001f0 8e 72 5a 3c ee 0f 26 bc c1 14 26 3b 36 b7 37 bd
       0.013332976 -0.010135634 0.002534196 -0.044852458
000200 a3 07 91 3c 6c 76 e3 3c 77 2b 48 bd 40 ec 87 bc
       0.017703837 0.027766429 -0.048869576 -0.016592145
000210 58 b4 b3 38 fa cd 54 3c 0a c3 9c bc 8f a0 9f bb
       8.568977e-05 0.012988562 -0.01913597 -0.004871435
000220 c6 f4 1e bd f4 a7 c5 3c 86 c2 3a bd 27 62 1b 3d
       -0.038807653 0.024127938 -0.04559567 0.037935402
000230 e6 e1 06 3c dc d0 0e 3d bc 43 15 bd d5 11 e9 bc
       0.008232569 0.034867153 -0.03644155 -0.028450886
000240 57 9a 11 bd b9 73 7a 3c 4f 52 2c bc 4a 78 19 bc
       -0.03554758 0.0152863795 -0.010517671 -0.009367058
000250 cc f4 bc 3b 4d e3 be 3c b5 4b 49 3a 18 b3 77 bd
       0.0057664867 0.023301745 0.0007678823 -0.06047353
000260 5e 86 b9 bb b0 d0 38 3c 3e fd 17 3d ee 95 f6 3c
       -0.00566177 0.011280224 0.037106745 0.030100789
000270 a7 7e b3 3c ce 3d b3 3c be a9 40 3d cb 97 3c bc
       0.021910978 0.021880057 0.04703688 -0.0115108
000280 97 ae f0 3b ab 1f 7e 3d 18 ad b2 3c 50 bf 8c 3c
       0.0073450315 0.06204192 0.021811053 0.017181069
000290 f8 12 02 bd 4a df b4 bc e0 59 7f 3c d7 4b 13 3d
       -0.03175637 -0.022079129 0.015585393 0.035961
0002a0 90 22 a0 3c 7d 68 7b bd 07 b5 04 3d 85 63 f1 3b
       0.01954773 -0.061378945 0.032399204 0.0073666
0002b0 2c 64 a0 3c 6a 72 32 bd 96 6c 10 3c 89 e1 38 3d
       0.019579016 -0.043566145 0.008814951 0.045136962
0002c0 de 72 7e 3c 3a 41 92 bc a4 3e 3b bd e1 28 fa bc
       0.015530316 -0.017853368 -0.045714036 -0.03053707
0002d0 be b7 20 3d d4 ec 94 bc 4b ef c0 bb 61 b1 b4 3c
       0.03923773 -0.018179335 -0.005887901 0.022057237
0002e0 6d b3 0f bd 54 c9 04 3d 2f d5 21 3d 85 d4 19 bc
       -0.035083223 0.032418564 0.03950995 -0.0093890475
0002f0 d5 19 f1 3b 84 5d 81 bc c9 dd 15 3d 87 6f 84 3b
       0.0073578157 -0.015791662 0.036588464 0.0040416154
000300 c6 27 80 bd 54 2d af bb 40 de c8 3c 18 02 36 3b
       -0.06257586 -0.0053459797 0.02452004 0.0027772244
000310 58 12 3e 3b f5 75 80 3c 41 45 29 bd 5a 8e 65 bd
       0.0029002633 0.015681246 -0.04132581 -0.05604396
000320 be fa b4 3c 34 fb 68 bc 51 42 28 3c 64 e8 83 3d
       0.02209222 -0.014220048 0.010269717 0.06440809
000330 7a f8 8c bd ef 6a a1 bc ea 65 91 3d f7 11 ad ba
       -0.06883331 -0.01970431 0.07099517 -0.0013204206
000340 b7 d2 d9 3c f8 db 22 3c 19 eb e8 3b a4 75 64 3b
       0.026589734 0.00994014 0.007108104 0.0034860158
000350 cd aa bf 3c 1c 33 b8 3c 8d e2 8c 3c 95 4c a8 3c
       0.023396874 0.022485308 0.017197872 0.02054433
000360 7f ce bf bc ae 80 15 bd 95 09 96 bb c1 dc 96 3c
       -0.023413895 -0.03649967 -0.004578779 0.01841581
000370 aa 91 cf 3c d4 63 36 3c dc 09 9c bb 50 2e c4 bb
       0.025338013 0.011132199 -0.0047619175 -0.005986966
000380 d9 49 83 b7 56 da 13 3d 35 93 96 3c dc 82 d2 3c
       -1.5650805e-05 0.036096893 0.01838074 0.025697164
000390 3f 39 ae bb df ff d0 bc 0c d5 ee bc 85 e5 d0 3c
       -0.005316883 -0.025512634 -0.029154323 0.025500068
0003a0 8c 00 12 3d 58 fa 0a bd 0f ea ac bc b0 46 37 bd
       0.035645053 -0.033930153 -0.021107702 -0.044745147
0003b0 d2 ca f7 bc 5a 96 cc 3b e6 70 02 bb 51 dc d2 bc
       -0.03024808 0.0062435092 -0.0019903718 -0.02573982
0003c0 d5 53 90 3c a6 db 50 3c 62 51 10 3d 9f 49 b6 3c
       0.0176181 0.012747681 0.035233863 0.022251902
0003d0 1f 4f 50 bd a2 d1 72 39 16 e4 5f bd bc 00 a7 3c
       -0.050856706 0.00023157013 -0.05466088 0.020386092
0003e0 6d 0f 32 bd 80 47 d6 3b 03 84 fe 3a 89 b2 91 3b
       -0.043471742 0.006539285 0.0019418005 0.004446332
0003f0 bf e7 82 3c e2 38 a9 bc d0 15 f5 bc 5b 79 55 bd
       0.015979646 -0.020657007 -0.029917628 -0.052117687

layer1.0.bias f4 [64]
000000 d3 e9 2b 3f 58 f8 41 3f 04 30 1c 3f 21 7b 2d 3f
       0.6715366 0.7576957 0.61010766 0.67766005
000010 07 8e 3d 3f 50 f4 3b 3f 3e 80 51 3f 00 de 45 3f
       0.7404484 0.73419666 0.8183631 0.7729187
000020 a3 67 4b 3f 23 75 4c 3f 6a ad 53 3f 5b a8 4b 3f
       0.7945501 0.79866236 0.82686484 0.79553765
000030 df 70 4d 3f f1 86 50 3f 18 6e 42 3f 1d 92 5a 3f
       0.8025035 0.81455904 0.7594924 0.853792
000040 67 bf 37 3f 47 7d 44 3f 67 71 35 3f b7 bf 4c 3f
       0.7177643 0.7675366 0.70876163 0.79980034
000050 55 0f 4a 3f e5 fc 22 3f 1a 1e 45 3f 73 58 59 3f
       0.78929645 0.63667136 0.76999056 0.8490059
000060 ae a6 3b 3f 78 f2 36 3f 2e af 3f 3f ab 32 42 3f
       0.7330121 0.7146373 0.7487668 0.75858563
000070 da e3 4f 3f 78 e2 5a 3f 5c 20 58 3f ef 49 3f 3f
       0.8120705 0.85501814 0.84424376 0.7472219
000080 8b ff 44 3f bb 57 5c 3f 19 e2 58 3f 6d aa 3e 3f
       0.7695243 0.86071366 0.8472 0.744788
000090 91 1f 3f 3f ba ce 54 3f fa 9d 2f 3f 5e f0 26 3f
       0.7465754 0.8312794 0.6860043 0.6521052
0000a0 f8 67 44 3f c1 ef 22 3f 73 16 44 3f d4 a0 51 3f
       0.76721144 0.63647085 0.76596755 0.8188603
0000b0 25 9d 47 3f a0 eb 46 3f 3d d1 4f 3f 2c bb 45 3f
       0.7797416 0.77703285 0.8117865 0.77238727
0000c0 eb 00 4b 3f cc fb 45 3f 00 3a 40 3f 2a ad 2f 3f
       0.79298276 0.77337337 0.750885 0.686236
0000d0 b6 9e 33 3f 57 10 22 3f 9b b1 3a 3f 2f 56 5a 3f
       0.7016405 0.6330618 0.72927254 0.85287756
0000e0 ae d6 30 3f b1 51 48 3f 51 c3 56 3f 94 51 50 3f
       0.69077575 0.7824965 0.8389178 0.8137448
0000f0 bf 92 50 3f 9e 2a 52 3f 8b 6c 52 3f a5 97 4c 3f
       0.81473917 0.8209628 0.82196873 0.7991889

layer1.1.weight f4 [64]
000000 5d ba 80 3f 65 f7 7f 3f 74 81 7a 3f a6 a6 80 3f
       1.0056874 0.9998687 0.9785378 1.0050857
000010 99 ec 77 3f 31 3e 7e 3f 16 ba 85 3f e3 4b 85 3f
       0.96845394 0.99313647 1.0447414 1.0413784
000020 4c 61 7d 3f 09 39 84 3f 9e 2c 80 3f 62 c4 85 3f
       0.9897659 1.0329906 1.0013616 1.0450556
000030 e1 f6 7a 3f df 04 83 3f 73 a2 7c 3f e9 38 81 3f
       0.9803296 1.0235862 0.9868538 1.0095493
000040 e4 db 80 3f 1f 06 7b 3f 15 ef 82 3f af 9d 7d 3f
       1.0067105 0.98056215 1.0229212 0.9906873
000050 53 4f 7c 3f 08 39 7d 3f 9a 1a 7b 3f 51 6e 75 3f
       0.9855854 0.9891515 0.98087466 0.95871454
000060 6b a8 83 3f 6c 4e 7b 3f 64 1b 7d 3f 68 b7 82 3f
       1.0285772 0.9816654 0.9886992 1.0212221
000070 27 56 81 3f ee cd 82 3f 40 3c 7c 3f 07 66 7f 3f
       1.0104417 1.0219095 0.98529434 0.99765056
000080 c4 df 7b 3f b8 5b 7f 3f 2b a4 84 3f 5e 0d 78 3f
       0.98388314 0.99749327 1.03626 0.96895397
000090 29 0b 7a 3f f9 94 7d 3f 3d 0e 79 3f f6 11 81 3f
       0.9767328 0.9905544 0.9728735 1.0083606
0000a0 77 a8 7c 3f fd e9 80 3f 36 0f 80 3f 66 13 79 3f
       0.98694557 1.0071408 1.0004642 0.97295225
0000b0 1d 4e 7b 3f cd cc 7f 3f 7a 25 83 3f b7 55 7a 3f
       0.98166066 0.99921876 1.0245812 0.9778704
0000c0 d5 9a 81 3f 43 c8 7a 3f 0d f5 79 3f c5 03 80 3f
       1.0125376 0.97961825 0.9763954 1.000115
0000d0 2e 0f 82 3f 0e b8 7e 3f 28 4f 7f 3f 2b 2b 7e 3f
       1.0160882 0.99499595 0.9973016 0.9928462
0000e0 02 e0 7e 3f a2 46 7f 3f 36 28 83 3f 7b f9 7d 3f
       0.9956056 0.9971715 1.0246646 0.992088
0000f0 52 49 80 3f a4 08 82 3f 86 5f 7b 3f 67 12 7b 3f
       1.0022376 1.0158887 0.9819263 0.98074955

layer1.1.bias f4 [64]
000000 ad 4d 4b bd ea 0e ff bb 79 ab 28 bb ab 5a af bc
       -0.049634624 -0.0077837603 -0.0025736971 -0.021405539
000010 45 b3 be bb 8a 0e 8a bd 47 60 c1 bc f4 8f 00 bd
       -0.0058197104 -0.06741054 -0.023605479 -0.031387284
000020 b3 77 a5 bc 0a e5 42 bd 08 72 4d bd f1 19 6b bc
       -0.020198679 -0.04758171 -0.050157577 -0.014349447
000030 85 de e1 bb a1 72 72 bd bb 3f 05 bd ae f1 19 bd
       -0.0068929815 -0.05919135 -0.03253148 -0.037584
000040 48 cc 0d bd a9 a8 07 bd be 91 65 bd b5 82 7b bc
       -0.034618646 -0.03311983 -0.056047194 -0.015350987
000050 26 29 1d bc 48 bb 32 bb f6 49 05 bd b1 8b 4f 3c
       -0.00959233 -0.0027272273 -0.032541238 0.012667582
000060 8c c0 94 bc 1c f8 fd bc 92 08 42 3c a5 ec 15 bd
       -0.01815822 -0.031002097 0.011842864 -0.036602635
000070 70 69 53 bc 99 72 75 bd db 48 d6 3b 05 74 56 bd
       -0.012903556 -0.059923742 0.006539447 -0.05235674
000080 75 b6 d3 3b 3b d2 15 3d 30 1d 80 bc c0 30 3d bc
       0.0064609596 0.036577445 -0.015638918 -0.011547267
000090 cd 14 51 bc 10 7c 83 ba bd af b0 3c 71 bb 7f bd
       -0.012761307 -0.001003148 0.021568174 -0.062434617
0000a0 f4 fa 02 3b 92 b4 06 bd 16 82 42 bc c4 d0 c5 bb
       0.0019986005 -0.03288705 -0.011871835 -0.0060368497
0000b0 3e 19 97 bc 6c 0b 34 bd fb 7e 19 bd c5 86 62 bc
       -0.018444654 -0.043956205 -0.037474614 -0.013826077
0000c0 2e fa 09 bd c7 b8 4b bd aa 5d 78 ba 6e 55 83 bc
       -0.033685856 -0.049736764 -0.0009474406 -0.016031947
0000d0 0a 94 6b bd c9 b6 0a bc 80 d6 6c bd 14 32 03 bd
       -0.057514228 -0.008466431 -0.05782175 -0.03203018
0000e0 fe 60 a5 3b d6 55 ac bc 69 e5 5c bd e5 26 7a 3c
       0.0050469628 -0.021037024 -0.05392972 0.015268062
0000f0 66 30 e3 bc fb cb e2 bc 58 67 54 bc a1 42 98 bc
       -0.02773304 -0.027685156 -0.012964092 -0.018586459

layer1.1.running_mean f4 [64]
000000 2f e5 42 3f 68 62 51 3f b8 ae 96 3f e1 78 e1 3e
       0.76130956 0.8179078 1.177207 0.44037536
000010 37 f2 90 3f 21 f0 d8 3e 28 96 35 3f 4e 83 ff 3e
       1.1323918 0.42370704 0.70932245 0.49904865
000020 64 60 64 3f d7 1c 26 3f bd b3 61 3f e4 5a 24 3f
       0.8920958 0.64887756 0.88164884 0.6420119
000030 c9 22 80 3f f6 af 24 3f b3 ef 1b 3f 8b 6f 6f 3f
       1.0010616 0.64330995 0.60912627 0.93529576
000040 c5 40 0d 3f 2d 77 89 3f 92 4d b8 3e c2 6a 34 3f
       0.55176955 1.0739495 0.3599668 0.704754
000050 2f c7 34 3f 78 80 8a 3f 46 08 3f 3f af 8c 4c 3f
       0.7061643 1.0820456 0.74622 0.79902166
000060 92 de 11 3f 2d 13 fc 3e 51 31 67 3f 39 ea 06 3f
       0.5698024 0.4923338 0.90309626 0.52701145
000070 7e 8d 4c 3f 09 e9 61 3f 2a cb 44 3f 07 41 db 3e
       0.799034 0.8824621 0.76872504 0.4282305
000080 37 34 62 3f bb dd 6e 3f ea 79 41 3f 05 a5 5e 3f
       0.88360924 0.93307084 0.7557665 0.8697055
000090 59 5f 4e 3f 05 af 5e 3f 1d be 98 3f 9e 48 28 3e
       0.8061424 0.8698581 1.1933018 0.16433951
0000a0 0e e7 56 3f f3 02 ab bd 64 8e 4f 3f 39 dd 68 3f
       0.8394631 -0.08350172 0.81076646 0.9096256
0000b0 3d 0b 6e 3f 95 62 ea 3e 49 63 1a 3f 80 3d 4e 3f
       0.929859 0.45778337 0.6030775 0.8056259
0000c0 5e ee 23 3f 77 0d 6a 3f 4c e2 56 3f 91 d0 7f 3e
       0.64035594 0.91426796 0.8393905 0.24981906
0000d0 9b 62 aa 3e 1e ec 93 3f f2 f6 10 3f 13 30 5b 3f
       0.33278355 1.1556432 0.5662681 0.8562023
0000e0 a2 b5 2b 3f 31 d1 73 3f 27 d9 2a 3f a8 a8 62 3f
       0.67074025 0.95241076 0.667376 0.885386
0000f0 cf 03 43 3f ef 76 45 3f b9 53 4a 3f bd 12 80 3f
       0.76177686 0.77134603 0.79034 1.0005718

layer1.1.running_var f4 [64]
000000 e5 a1 dc 3f 02 4d 13 3f b5 8d e7 40 31 27 17 40
       1.7236906 0.5753938 7.236048 2.361767
000010 d6 ab 19 40 36 1d 17 40 13 55 ad 3e 1e 8a 30 40
       2.401113 2.361158 0.3385397 2.75843
000020 e3 c1 66 3f 93 7e 84 3f 57 14 00 3f a2 79 c3 3f
       0.901396 1.0351127 0.50031036 1.5271494
000030 18 22 55 3f c5 15 8b 3f c7 e6 06 3f ba 00 27 3f
       0.8325515 1.0866019 0.5269589 0.65235484
000040 d1 10 8b 40 04 1b de 3f c7 6f 51 40 9c b8 b4 3e
       4.345803 1.7351995 3.2724473 0.35297096
000050 f7 23 9f 3e 06 45 a4 40 af 98 5c 3f b0 79 f4 3e
       0.31082126 5.1334257 0.86170477 0.4774909
000060 79 f8 38 3f ae b1 bc 3f d4 91 ec 3e c5 59 a1 3f
       0.7225414 1.4741724 0.46205008 1.260552
000070 aa 16 e5 3e 9e a7 14 3f f5 17 c5 3e 0f f8 39 40
       0.44743854 0.58068264 0.3849484 2.9057653
000080 bf ab 0d 3f f0 86 68 3e 2e 99 ce 3e 6e e9 06 40
       0.5534019 0.22707725 0.40351242 2.1079974
000090 cb db c7 3f 0a 3c 96 3e ea c9 88 40 df 22 9d 40
       1.561395 0.2934268 4.2746477 4.9105067
0000a0 7d 2c 9a 3f 6a 57 1c 41 95 79 a3 3e 8d bd 22 3f
       1.2044827 9.771341 0.31928697 0.6357048
0000b0 3f aa 54 3f d7 cd f1 3f 03 c2 07 40 ca 55 dc 3f
       0.83072275 1.8890942 2.1212165 1.7213681
0000c0 08 9f d9 3f 0c 67 ae 3f fe 9a 8a 3f 5d 73 0e 40
       1.7001657 1.3625197 1.082855 2.2257912
0000d0 78 f0 3c 40 2a b6 b2 40 f7 e2 74 40 14 cc 82 3e
       2.952177 5.584737 3.8263528 0.25546324
0000e0 45 57 df 3f 1a f5 d4 3f 94 e1 b2 3f fa d5 9e 3e
       1.7448508 1.6637299 1.3975091 0.31022626
0000f0 1b b3 7f 3e 98 50 05 3f 85 64 8a 3e 17 f8 3e 3f
       0.24970667 0.520761 0.27029815 0.74597305

layer2.0.weight f4 [64, 64, 3, 3]
000000 9a 47 75 3b a6 4c 24 bd 9d 29 e3 3c 1c b9 d5 bc
       0.003742671 -0.04011216 0.027729804 -0.026089244
000010 e8 6e 88 bc fc 89 1c bd d8 81 07 bc f8 73 e4 bc
       -0.016654447 -0.03821753 -0.008270703 -0.02788733
000020 fe 92 0a bd 61 0e a0 bc d8 ba 0b bd 7f bc 79 3c
       -0.03383159 -0.019538106 -0.034113735 0.015242695
000030 23 b0 04 bd eb 5d 32 3c 4e 35 02 bd 4b cb 5e 3c
       -0.03239454 0.01088665 -0.031789117 0.0135982735
000040 5a 5a 87 3c 24 56 4a 3c a5 25 df 3b 9b 31 f2 bc
       0.016522575 0.012349639 0.0068099075 -0.02956467
000050 b6 20 c7 3c f2 64 5d 3a 0a e6 f1 3c 5b 45 e9 bc
       0.02430759 0.0008445523 0.029528636 -0.028475454
000060 9e b2 98 bc 73 b4 d9 bc 37 57 53 bc 4b be 32 3b
       -0.018639859 -0.026575303 -0.012899212 0.0027274068
000070 d5 b6 38 3d ce 1e 81 3d 1f 9f 1b bd ea 62 3d 3c
       0.045096237 0.06304704 -0.037993547 0.0115592275
000080 ea 2e 02 bd e8 79 6c 3c 53 40 98 bc e3 d6 0c bd
       -0.031783022 0.014433362 -0.01858536 -0.03438462
000090 ba 40 ab 3c 59 6c 10 bd b4 fe 88 bc b3 fc 09 3d
       0.020904887 -0.03525958 -0.016723014 0.03368826
0000a0 28 37 b2 3c ea 60 15 3c a0 77 29 3b 07 ce 19 3d
       0.021754816 0.009117344 0.0025858656 0.03755
0000b0 48 39 94 3b 1c 58 59 3c f2 45 9c 3c a1 1c b0 bc
       0.00452343 0.013265636 0.019076321 -0.021498026
0000c0 e0 07 89 bb f1 2f 3f 3c 6b be 0d bd 5b 7b f4 3c
       -0.004181847 0.011669145 -0.034605425 0.029843977
0000d0 f1 45 97 3c 5e 9f 69 bc f0 64 80 bc a8 7d 90 bc
       0.018465968 -0.0142591875 -0.01567313 -0.017638043
0000e0 ed 9c 28 3d 32 60 b4 bb b3 37 61 3b ec 49 79 3c
       0.04116528 -0.0055046314 0.0034365475 0.015215378
0000f0 73 b6 2e bd c6 90 84 3c 90 2d 1b bd a0 b4 95 bc
       -0.042654466 0.016182315 -0.03788525 -0.018274605
000100 28 cb a8 3c 36 ff d6 39 ba fd 8d 3c 85 8c 38 bd
       0.020604685 0.00041007408 0.0173329 -0.045055885
000110 9c 65 b7 bc 71 01 71 3b ee d8 0f 3c a6 f1 40 3c
       -0.022387318 0.003677454 0.008779747 0.0117763635
000120 d2 47 b3 bb 9e 65 fa 3c b0 12 21 bd 29 6b 0c bd
       -0.005471208 0.030566033 -0.039324462 -0.034281883
000130 e7 68 3c bc f8 7c 90 3c 95 ca c5 bb 8c e2 d7 bc
       -0.01149962 0.017637715 -0.0060361126 -0.026353143
000140 13 d6 07 3d 8c 15 dd bb 91 d1 e7 3c 63 8a 3c bd
       0.03316314 -0.0067469534 0.028298171 -0.046030413
000150 de 05 59 bb b6 74 6e bd ca f1 f8 bc 71 51 14 bd
       -0.003311507 -0.058216773 -0.030388732 -0.03621048
000160 2f 86 21 bd cf f8 5d bd f0 80 04 bd 44 68 73 bd
       -0.039434608 -0.05419236 -0.032349527 -0.059425607
000170 a3 ff b9 3c 84 01 cf 3c d1 93 8a 3c e3 e7 88 bc
       0.022704905 0.025269277 0.016916187 -0.016712135
000180 ec 91 b3 3b 92 81 b3 3c 2a ea 82 ba 4f 65 0f bd
       0.0054800417 0.02191237 -0.0009987999 -0.035008725
000190 bd df d7 bc 69 d7 ae bc 9e 9c 32 bc 91 bf 33 bb
       -0.026351804 -0.02134295 -0.010901598 -0.0027427415
0001a0 18 a1 33 bd 6c 32 3d bc 29 48 e5 3b ad 5e eb 3c
       -0.043854803 -0.011547666 0.0069971276 0.028731668
0001b0 d4 66 73 bc d1 e3 99 bc 46 20 0a bb 7b 50 8f bb
       -0.014856059 -0.01878539 -0.0021076365 -0.0043736077
0001c0 c9 2a ae 3c 4a 3d f9 3c ca fc 2e 3d cc b4 0c bd
       0.021260636 0.030424733 0.042721547 -0.03435211
0001d0 23 7e 4b 3d ac e2 2a 3d e9 98 25 3d cc 5f 0b bc
       0.04968084 0.041720077 0.04042903 -0.0085067265
0001e0 0e ba 1f 3d 35 ef 3d bd 06 1f 91 3c 58 51 53 bd
       0.038995795 -0.046370704 0.017714988 -0.051591247
0001f0 d0 4c c8 bb f5 8e 19 bd d0 14 93 bc d8 53 2c 3b
       -0.0061126724 -0.03748985 -0.01795426 0.0026295092
000200 f3 5f 09 bd 55 e5 3d 3c ef 11 3c bc 2e 59 9d bc
       -0.03353877 0.011590322 -0.011478885 -0.019207563
000210 21 ce 24 bd 26 64 3a bb c2 59 8f bc c6 74 f0 3c
       -0.040235642 -0.002844104 -0.017498855 0.029352557
000220 67 5e 24 bd 8d 2e 18 bd 59 b0 87 bd b0 c8 0a bc
       -0.04012909 -0.03715377 -0.066254325 -0.008470699
000230 b7 b8 03 3c 67 a1 7e bc 43 f0 86 bb 75 d6 26 3c
       0.008039645 -0.015541411 -0.004117997 0.0101829665
000240 eb 4d 4d 3b 3a 96 09 3c 80 52 82 3c ff d4 83 bc
       0.003132696 0.008397633 0.01590848 -0.016092775
000250 9f 87 76 3c 3d b9 cd 3c 9c f1 6b bd 2c ad 34 3c
       0.015046983 0.025112743 -0.057603464 0.0110276155
000260 75 53 d9 3b fe a6 95 3c 5b 1d fe bb 00 3e b4 bb
       0.0066322633 0.018268105 -0.0077549643 -0.005500555
000270 29 a1 16 3d 56 82 0c 3d 29 32 0d 3d 96 9a 92 bc
       0.036774788 0.034303986 0.034471665 -0.017895978
000280 f8 b7 fd 3c 28 a3 a6 bc 1e b4 71 3d 9b 7b 4c bb
       0.030971512 -0.02034147 0.059009664 -0.0031201604
000290 e2 36 aa 3c cb 2e 0f bb b2 55 ef bc 6a 9d be 3c
       0.020778123 -0.002184796 -0.029215667 0.02326842
0002a0 f1 f9 a4 3b 5b 7e 1c bd 46 2a 4c 3d 94 3c cd bc
       0.005034678 -0.03820644 0.049845003 -0.0250533
0002b0 d0 92 02 3d db d1 32 bb 03 e6 12 3d 9f 82 ef ba
       0.031878293 -0.0027285728 0.035863888 -0.0018273181
0002c0 d0 b5 30 bd f3 6a ee bc b3 5c 33 bd 48 9f bf bc
       -0.04314214 -0.029103732 -0.043789577 -0.02339138
0002d0 d8 f7 ad 3c ce 5d 18 bd 3b 42 60 bd 14 7b 06 bc
       0.021236345 -0.037198834 -0.054750662 -0.008208055
0002e0 95 d8 a5 bb 14 eb 2d bc 07 36 81 bc 53 17 1c 3d
       -0.005061219 -0.010615129 -0.015772833 0.03810818
0002f0 7d 00 7e 3c 56 8f 2d 3d b7 7c 24 3c c0 22 db 3b
       0.015503046 0.042373024 0.0100395 0.006687492
000300 1a 6a 87 bb fe bc 6e 3c 55 3d 1d bc f1 9e 09 3c
       -0.0041325213 0.014571426 -0.009597142 0.008399711
000310 8f 69 20 bc b2 4c 42 3c c4 53 69 3c 73 d5 d7 bb
       -0.009790792 0.011859106 0.014241163 -0.0065867244
000320 2c 6b 84 bc 4e ab 52 bc 17 ff b8 bc b1 d7 68 bc
       -0.016164385 -0.012858225 -0.022582574 -0.014211581
000330 94 f2 1e 3b b9 fb 24 3c 83 d0 f5 3c 15 05 82 bc
       0.0024253475 0.010069781 0.030006653 -0.015871564
000340 0f 9c d2 bb 87 a8 73 bd a3 d0 3c bc bf 41 a2 3c
       -0.006427295 -0.059486892 -0.011524352 0.01980674
000350 77 66 af 3c f7 f2 17 3d bc 87 08 3d 62 a7 00 3d
       0.021411164 0.037096944 0.03333257 0.03140963
000360 3e 93 19 3d 0d 0d 15 3d d0 2b 39 3d d5 e0 c0 bc
       0.037493937 0.0363894 0.0452078 -0.023544708
000370 3f 3d 73 bc 0c 81 cd bc 44 a6 18 bd f7 c6 21 3d
       -0.014846145 -0.025085948 -0.03726794 0.03949639
000380 91 bd b4 3c b6 6a 0e bd c9 b7 7d 3a 45 e9 32 3d
       0.022063049 -0.034769736 0.000967857 0.043679494
000390 e7 35 a8 3b bf 95 1c 3d 02 42 89 3c c8 30 35 bc
       0.005133379 0.038228747 0.016755108 -0.011058994
0003a0 7c ac 53 3d 05 45 0d 3d 02 4b 62 bd b5 53 17 bd
       0.051678166 0.03448965 -0.055247314 -0.036945064
0003b0 77 4e b9 3c 73 c9 c6 bb a8 30 14 bd a6 d9 eb bc
       0.022620423 -0.006066495 -0.036179215 -0.028790306
0003c0 92 b4 72 bd 6d 84 97 bc 1a f3 d6 bc 9d a3 7e bd
       -0.059254237 -0.018495763 -0.026238967 -0.062167753
0003d0 79 d4 69 3c 3b 20 c4 3b ca 7d d9 b9 ee 6b d9 bc
       0.014271849 0.0059852875 -0.00041483185 -0.026540723
0003e0 08 34 43 bc cf a8 ed bc 66 92 1a bd 97 25 c6 bc
       -0.011914261 -0.029011158 -0.037737273 -0.024187846
0003f0 d2 41 81 bb 93 39 c2 3b d4 30 f9 bb 82 cc 52 bd
       -0.003944614 0.0059272735 -0.0076046977 -0.051464565

layer2.0.bias f4 [64]
000000 73 58 6f bc 64 08 1b 3d 18 93 00 bd 7b 44 9d bc
       -0.01460849 0.0378498 -0.03139028 -0.019197693
000010 f4 e4 1b 3d 8d eb 46 3c ca d8 22 3d 23 66 cc bc
       0.038060144 0.012141121 0.039757527 -0.024951046
000020 92 49 bb bc 97 cf a6 3c be ba e8 bc 1d 68 bd 3c
       -0.02286223 0.020362658 -0.028409358 0.023120934
000030 33 eb 13 3b 0e 8c ea 3b 89 d5 de bc ee f7 e5 3c
       0.002257061 0.007157809 -0.02720143 0.028072324
000040 63 3a 13 3d 71 ad b8 3c 14 63 13 bd 6b 12 07 3b
       0.035944354 0.02254364 -0.03598316 0.0020610343
000050 f3 ad 9f 3c c0 25 68 3c 9a 79 51 3c ff 5a b8 3b
       0.019492125 0.014169157 0.01278534 0.005626082
000060 03 2e e2 3c 22 4b ce 3c 6e 15 4a bc 54 50 d0 3b
       0.02760983 0.02518231 -0.012334211 0.006357232
000070 ab 90 4b 3b cb bf 1e 3c af bc 96 3c c3 48 17 bd
       0.003106157 0.009689282 0.018400518 -0.036934625
000080 1b 78 04 3d 4f c4 3f bc 69 6a 97 3c 96 5a 74 3c
       0.032341104 -0.011704518 0.018483358 0.0149141755
000090 63 08 19 3c bb 88 62 3c ce 34 0c 3d 93 6d 55 3c
       0.009340378 0.013826544 0.034230046 0.013026613
0000a0 cb d7 93 bc 54 75 09 bb c7 79 45 bc 36 f7 92 bc
       -0.018047234 -0.0020974474 -0.01205296 -0.017940145
0000b0 19 d9 a3 3c d4 19 20 3d 18 ab 2c bc 16 dd 4d b8
       0.020000981 0.03908713 -0.010538839 -4.908171e-05
0000c0 1d 97 25 3c 47 24 f7 3c 22 27 2a bd 0d 1a d1 bb
       0.010106829 0.030168666 -0.041541226 -0.0063812793
0000d0 14 b5 c2 bc 3d 56 0a 3d f7 64 12 bb aa 89 2b 3c
       -0.023767985 0.03377365 -0.0022338012 0.010469833
0000e0 c8 c3 85 bb 59 b2 f0 bc fa 1f cc 3b e8 82 ae bc
       -0.004082177 -0.029381918 0.006229398 -0.021302655
0000f0 7e 8b 04 bd 70 f4 90 3c df 56 58 bc 30 45 e0 bb
       -0.032359593 0.017694682 -0.013204305 -0.0068441853

layer2.1.weight f4 [64]
000000 54 e2 7b 3f 7b dc 7d 3f a6 01 7e 3f 40 ce 82 3f
       0.98392224 0.9916455 0.99221265 1.0219193
000010 38 1c 81 3f 10 15 7d 3f c2 1f 81 3f 1f 62 7c 3f
       1.0086737 0.98860264 1.0087817 0.9858722
000020 a4 83 7b 3f 1d d3 7b 3f bf 42 81 3f e5 80 7d 3f
       0.9824774 0.9836901 1.0098494 0.990248
000030 07 bb 78 3f 10 8a 7d 3f aa 88 81 3f a3 27 79 3f
       0.9716038 0.9903879 1.0119832 0.97326106
000040 e1 8b 80 3f ec 60 80 3f 6e b9 7f 3f 6a bf 80 3f
       1.0042688 1.0029578 0.9989232 1.0058415
000050 14 3c 7a 3f 5d d7 80 3f c1 93 80 3f 67 4b 82 3f
       0.9774792 1.0065724 1.0045091 1.0179261
000060 bf cc 82 3f f9 0c 80 3f 96 71 82 3f a1 e3 82 3f
       1.0218734 1.0003959 1.0190914 1.0225717
000070 43 ce 80 3f 0f 1b 86 3f 42 97 82 3f 8c 3a 7c 3f
       1.0062946 1.0477008 1.020241 0.98526835
000080 87 48 7d 3f 47 78 7f 3f 35 8e 81 3f 77 e0 7f 3f
       0.9893879 0.99792904 1.0121523 0.9995188
000090 0a 67 80 3f e8 1f 81 3f 60 6d 81 3f 59 69 7d 3f
       1.0031445 1.0087862 1.0111504 0.9898887
0000a0 17 80 77 3f 56 0f 80 3f 5c 42 80 3f 65 88 76 3f
       0.96679825 1.000468 1.0020251 0.9630187
0000b0 44 17 82 3f cf 22 7a 3f 70 df 78 3f e9 b6 7e 3f
       1.016335 0.97709364 0.9721594 0.9949785
0000c0 5e 4f 7c 3f 6a db 80 3f 37 f1 7f 3f be a4 80 3f
       0.98558605 1.006696 0.9997744 1.0050275
0000d0 8e dd 7a 3f 69 2f 7f 3f cb 28 83 3f 25 78 7e 3f
       0.97994316 0.9968172 1.0246824 0.99402076
0000e0 fc f7 7d 3f b8 a1 76 3f c8 b7 7e 3f c3 fb 80 3f
       0.9920652 0.96340513 0.9949918 1.0076832
0000f0 84 8a 7f 3f 5f 87 82 3f ee a4 80 3f dc 45 80 3f
       0.99820733 1.0197562 1.0050333 1.0021319

layer2.1.bias f4 [64]
000000 20 e8 02 bd 5e e5 6e bc 0c 60 1b 3b a4 65 9b bd
       -0.031959653 -0.014581053 0.0023708371 -0.07587746
000010 1a 52 84 bc b8 3d e3 bc d7 b5 92 bc 82 0b 5a ba
       -0.01615243 -0.02773939 -0.017908974 -0.0008317755
000020 e1 48 93 bb 21 ec a2 bc c9 96 b8 3c a1 64 05 3b
       -0.004494772 -0.019887986 0.022532837 0.002035417
000030 ea 97 c9 bc 1f e1 cf bc d5 b7 40 3c bb 18 ec bc
       -0.024608571 -0.0253759 0.011762579 -0.028820386
000040 2d 77 f4 3c ed d0 51 bd 6e 3d 95 3c 41 56 af bc
       0.029841984 -0.051224638 0.018217769 -0.021403434
000050 81 d8 de bc be 14 7b bd 44 88 e0 3a 03 dc 78 bc
       -0.027202846 -0.06129908 0.0017130454 -0.015189174
000060 99 d3 d9 39 a5 24 74 bc 34 9b 79 bc 81 9c d1 bc
       0.00041547118 -0.014901315 -0.015234757 -0.025587322
000070 aa 72 3a bd db 16 5b bd a0 8e 60 3b 5d 39 af bd
       -0.04551951 -0.053488594 0.0034264699 -0.08555863
000080 e6 31 d8 3b 06 1f e8 bc dd 70 3a bc 2a 3c 93 3b
       0.006597745 -0.028335106 -0.011379448 0.004493256
000090 9b 54 f7 bb 27 68 6d bd 7c b6 62 bc f3 a4 56 bb
       -0.0075479276 -0.057960656 -0.013837453 -0.0032752126
0000a0 a4 ce 88 bc e3 52 74 bd 6e 9a 1b bd 0f a7 34 bd
       -0.016700096 -0.05964936 -0.037989073 -0.044104632
0000b0 c4 49 85 bc d8 84 74 bb a2 75 52 bd d7 94 48 bd
       -0.016270526 -0.0037310626 -0.051381715 -0.04897007
0000c0 9e 90 9b bc a3 02 57 bc d9 77 11 bc 79 60 b8 bc
       -0.018989857 -0.013123187 -0.008878672 -0.02250694
0000d0 de 62 39 bd 92 94 12 bd 63 72 a4 bc ae 68 1f bc
       -0.045260303 -0.03578622 -0.020074075 -0.009729547
0000e0 b4 9a 1b bd 27 99 55 bb 66 41 51 bd 10 cb 9d bc
       -0.037989333 -0.0032592507 -0.05108776 -0.019261867
0000f0 57 2e a9 bc 04 4c eb bc 54 70 aa bc 1a 0f c4 bb
       -0.02065198 -0.02872277 -0.020805515 -0.0059832456

layer2.1.running_mean f4 [64]
000000 c0 af 22 bf 61 6c 78 be 71 8d 96 bf 69 0e 25 be
       -0.63549423 -0.24260093 -1.1761914 -0.16118778
000010 0b c7 33 3e c6 04 9b bf 9f 77 33 bf 50 e0 69 bf
       0.17556398 -1.2110832 -0.701044 -0.913579
000020 e4 be 9d bf ab 9e 96 bf 08 fe c5 bd a9 4d d9 be
       -1.232388 -1.1767172 -0.09667593 -0.42442062
000030 f4 08 08 bf 75 9b 0e be 5e a9 63 bf 82 aa 32 bf
       -0.5313866 -0.1392649 -0.8893031 -0.69791424
000040 8b 22 28 bf d3 3e 11 3f 88 6d 02 bf c6 09 22 bf
       -0.6567771 0.5673649 -0.5094838 -0.63296163
000050 ff 13 86 bf f1 52 81 be 61 af 4d bf 5f da 6e bf
       -1.0474852 -0.25258592 -0.8034573 -0.9330196
000060 d1 2e 47 bf 17 b8 09 bf e5 9e a8 be c3 e1 96 bf
       -0.7780581 -0.53796524 -0.32933727 -1.1787647
000070 42 65 16 bf f8 de 3a be 3e 8e 25 bf 8c 88 a1 3e
       -0.5874826 -0.18249118 -0.6467017 0.3154949
000080 c2 b3 11 be 0f c6 72 bf 4a 54 58 bf 05 80 56 3e
       -0.14228728 -0.94833463 -0.84503615 0.20947273
000090 21 62 33 bf 48 e5 9c bd 68 64 6d bf 7e bd a2 be
       -0.7007161 -0.076609194 -0.9273133 -0.31785196
0000a0 e9 ad 02 bf d4 0a 6f bf 19 67 93 bf d0 58 02 bf
       -0.51046616 -0.933759 -1.1515838 -0.5091677
0000b0 11 b8 44 bf 9c ca be be da b1 3d bf f0 05 18 3f
       -0.76843363 -0.37263954 -0.74099505 0.5938406
0000c0 51 4f 00 bf 86 79 88 3e c0 b9 5f bf 6e af 89 bf
       -0.5012103 0.26655215 -0.87392807 -1.0756662
0000d0 66 cd 25 bf 35 6b 99 bb 09 ca 1a 3d e2 d9 b8 be
       -0.6476654 -0.0046819695 0.037790332 -0.3610373
0000e0 97 d9 14 bf 39 1c c9 be 0f ff 90 3e 49 d2 08 3e
       -0.58144516 -0.39279345 0.28319594 0.13361467
0000f0 1a c7 4c bf d8 fd 1e bf 28 48 65 bf a8 7e ca bf
       -0.79991305 -0.62106085 -0.89563227 -1.5819902

layer2.1.running_var f4 [64]
000000 36 32 ec 3e 51 32 ed 3e f6 1c 8e 3f 6d 10 64 3e
       0.46132058 0.4632745 1.1102588 0.22271891
000010 d9 6c b0 3e 1c a9 77 3f 5c d3 0a 3f 24 b6 3d 3f
       0.34458044 0.96742415 0.5422876 0.7410605
000020 95 3a 1a 3f 3c bc 27 3f fe 2b 7c 3f 9b 2b 11 3f
       0.6024564 0.655216 0.98504627 0.5670716
000030 2c 55 57 3f 19 61 9a 3e fd 63 f2 3e 26 9f 7b 3e
       0.84114337 0.30152205 0.4734191 0.24572429
000040 1d 8f ed 3e 11 4a 96 3e 90 d7 dd 3f 64 fd 9e 3e
       0.4639825 0.29353383 1.733141 0.31052697
000050 7b f8 10 3f 5f 86 09 3e 1a 95 da 3e 16 5f d1 3e
       0.5662915 0.13430165 0.4269188 0.40892857
000060 92 2c fb 3e f2 9c af 3e 6f 17 49 3e 36 ac bb 3e
       0.49057442 0.34299427 0.19637845 0.36654824
000070 6b 17 81 3e 5d b1 75 3e 61 29 bf 3e 13 27 33 3e
       0.2521318 0.2399344 0.37336257 0.17495374
000080 24 1b 97 3f e6 b3 b1 3e cc 42 9c 3e c4 bb 89 3f
       1.1805158 0.34707564 0.30519712 1.0760427
000090 87 6c 0d 3f 1f f8 23 3e cb 40 83 3e 12 67 f5 3e
       0.55243725 0.1601262 0.2563537 0.479302
0000a0 9a bd 8e 3e 1f 3a a4 3e 4b 33 33 3f bf a5 10 3f
       0.2787903 0.32075593 0.7000014 0.5650291
0000b0 52 76 93 3e 87 af 92 3e eb cd 95 3e 75 eb 4b 3f
       0.2880121 0.28649542 0.29258665 0.79656154
0000c0 20 c9 af 3e 87 b1 a6 3e b5 84 8f 3e 0a b6 cf 3e
       0.34333134 0.32557318 0.28030935 0.40568572
0000d0 23 92 80 3e 47 91 0b 3f bb e1 5d 3e aa a3 51 3f
       0.25111493 0.5451855 0.2166814 0.81890357
0000e0 c6 4b ae 3e d3 0b 1b 3f b8 54 8f 3e c6 8c 44 3e
       0.34042186 0.6056492 0.27994323 0.19194326
0000f0 e3 c0 f7 3e 20 8d b9 3e 64 69 c2 3e 22 f4 03 3f
       0.48389348 0.36240482 0.37971032 0.5154439

layer3.0.weight f4 [64, 64, 3, 3]
000000 dc d4 0a 3c db 95 1e 3d 55 9b 4d bc dc 55 19 3d
       0.008473601 0.038717132 -0.012549241 0.037435398
000010 7e b1 95 3c ca 69 ac bb 38 e1 f0 3c 15 3b 1a 3c
       0.018273111 -0.0052616345 0.029404268 0.0094135
000020 a2 01 4d bd 81 23 1c bd 75 63 0f bd 4e c1 67 3b
       -0.050050385 -0.038119797 -0.03500696 0.0035363021
000030 cd 9b 72 bd aa a5 f0 bb a1 cd 50 bd df 15 b6 bc
       -0.059230614 -0.0073439674 -0.050977353 -0.022227226
000040 d4 e7 41 bd da 4b 2a 3d 1c ad 83 3c 29 e5 23 bd
       -0.04734023 0.041576244 0.016073756 -0.040013466
000050 23 0c 8b 3c e6 24 a6 3c 1e 57 38 3c e0 55 6b bd
       0.01697356 0.020281266 0.011251239 -0.057454944
000060 3f af 27 3d a8 fb c7 3c 2b 94 08 bd 21 e6 9a bc
       0.040938612 0.024411991 -0.03334443 -0.018908562
000070 92 24 a9 bc 0b c9 8a bd 6e be cb bc 50 dd fd bb
       -0.02064732 -0.06776627 -0.024871077 -0.00774733
000080 cf 05 e2 3b 8e 97 f7 3b ac b5 27 bd 7c b4 2c bd
       0.006897665 0.0075559085 -0.04094474 -0.04216431
000090 9f c1 00 3d 66 d9 7d b8 0f 6f 84 3c ac 1c 8d 3c
       0.03143465 -6.052237e-05 0.016166238 0.017225586
0000a0 92 27 6e bb 6b 0e e4 bc 24 5d e7 3b 18 8f e9 3c
       -0.0036339504 -0.027838906 0.007060664 0.028510615
0000b0 75 f9 1c bd 92 e2 a2 3c 57 0b b6 ba 71 b0 eb bb
       -0.03832384 0.019883428 -0.0013888878 -0.0071926643
0000c0 23 73 eb 3b 6a 63 c1 3b a0 38 f5 bc 05 99 b7 bb
       0.007185356 0.0059017437 -0.029934227 -0.005602958
0000d0 a4 2d 37 bd b0 b5 77 3c c8 89 3a 3c 2e 64 9c ba
       -0.04472126 0.015119001 0.011385389 -0.0011931711
0000e0 0b 23 5b bc 71 a2 c8 bc 4e 67 72 bc 27 cf f3 bc
       -0.013375054 -0.02449152 -0.014795138 -0.029761864
0000f0 3f 2e a3 bb b4 6a ff 3b 23 9c 2e bd 12 2f 17 bc
       -0.004979878 0.0077947024 -0.042629372 -0.009227531
000100 0f 84 08 3d 16 aa a7 bc a4 18 27 3c d3 38 14 3d
       0.033329066 -0.020466845 0.010198746 0.036187004
000110 b0 47 b7 3b df 9f 2e 3d 8f 5a fb bc 15 81 db bc
       0.0055932626 0.042632934 -0.03068283 -0.02679495
000120 fa 74 86 3b 90 bf b1 3a 15 8e 23 bd ae 65 5e bd
       0.0041033 0.0013561118 -0.03993042 -0.054296188
000130 6d 5e 36 3c e5 33 91 bc 3e 62 50 bd d9 81 84 3c
       0.011130911 -0.01772494 -0.05087494 0.016175197
000140 7a fd 3d 3c a7 ce cb 3c 7b fc 44 3b 47 11 43 3d
       0.011596078 0.024878813 0.0030057717 0.0476239
000150 4d b0 22 bc 6d 67 66 3c 8f 52 85 bc 6d 0d eb bc
       -0.009929729 0.014062745 -0.016274719 -0.028692925
000160 b3 7b 27 bd 4d ae 05 3c 13 96 9a bb 49 5c 8d bc
       -0.040889453 0.008159232 -0.0047175973 -0.017255919
000170 a6 ba a2 ba 90 72 b5 ba df d5 c8 3c 95 6f 47 bc
       -0.0012415245 -0.0013843346 0.024516044 -0.012172599
000180 f9 29 25 bc cc 6c 25 bd d0 88 e9 bb 1c b4 b2 bc
       -0.010080808 -0.04038696 -0.007126905 -0.021814398
000190 a8 01 5e bc a1 7e 02 bd b6 88 52 bd 6a 5a c2 bc
       -0.0135502 -0.031859044 -0.05139991 -0.023724753
0001a0 40 e3 04 bd 9b 63 28 3c f3 1c 21 3c 48 59 a5 3a
       -0.032443285 0.010277654 0.009833562 0.0012615109
0001b0 c5 ee 8e 3c 06 78 b2 bb c2 3e 44 bd 95 2a cd 3c
       0.017447839 -0.005446437 -0.047911413 0.025044719
0001c0 14 72 93 bb e9 aa a3 bc 7b 33 1e 3c 46 f4 be 3b
       -0.004499683 -0.019978957 0.009655829 0.0058274595
0001d0 2f 26 99 3c 8f 10 27 3c 66 1b f6 3c 88 05 64 bd
       0.018694965 0.010196819 0.030042361 -0.055669338
0001e0 32 c7 12 bd 86 c6 9a 3c 59 7e 16 bd cd 5b 62 bc
       -0.0358345 0.018893491 -0.03674159 -0.013815832
0001f0 16 b7 7b ba af 94 8f 3c fe c0 ed 3a 5b a8 3a 3c
       -0.0009602172 0.017526953 0.0018139181 0.011392678
000200 64 8b c5 3c 2e 73 84 bc 22 d4 c5 bc 45 25 1d bb
       0.024114318 -0.016168203 -0.024149004 -0.0023978513
000210 be c6 23 bd 3d ec fd 3c e2 cb a6 bc ae 67 e4 3c
       -0.039984457 0.030996436 -0.02036089 0.02788147
000220 0e d4 3d bc 03 22 a1 3c 3c b9 40 bc 1a 74 02 bd
       -0.011586202 0.019669538 -0.011762913 -0.031849004
000230 18 a7 56 bd 9d ea 2b bd e0 54 c5 3b e3 39 59 3c
       -0.052405447 -0.04197179 0.006022081 0.01325843
000240 c6 de ae 3c 51 82 93 3d 9a 18 3d 3d 86 28 28 3d
       0.021346461 0.0720259 0.04616604 0.04105427
000250 5b f4 49 3d 27 3e f9 bb 29 84 a1 3c b5 e6 d6 bc
       0.0493053 -0.007606286 0.01971634 -0.026233057
000260 b6 ca 89 3d 49 d6 26 bd 7d b0 f1 bc 84 28 ea bc
       0.06728117 -0.040731702 -0.029503101 -0.028583772
000270 89 63 82 bb 93 eb 67 bd bf bf 22 bd d2 b9 59 bc
       -0.0039791507 -0.056621145 -0.039733645 -0.013288932
000280 d5 5d 2a bd d4 fb 2a 3c 00 fc 14 3c 9d 2a 95 3c
       -0.04159339 0.010436017 0.009093285 0.018208796
000290 13 c7 9a 3c 6b 1b fe bc 49 64 09 3c 11 af 37 bd
       0.018893754 -0.031018933 0.008385726 -0.04484469
0002a0 a4 fc 00 bb 57 cb 0b bd 37 36 31 bd f0 d5 7a bc
       -0.0019681836 -0.034129467 -0.043264594 -0.015309796
0002b0 68 ca 09 bd 75 2b e1 3b 77 43 8c bb 5a 04 ef 3c
       -0.033640295 0.0068716356 -0.0042805034 0.02917688
0002c0 cd 25 4c bd 4b 26 41 bd e1 60 59 3c 6b 92 d4 3c
       -0.049840737 -0.04715566 0.013267727 0.025948724
0002d0 ba 97 17 bc 82 dc 9a 3c 6a c4 d4 3c 52 fd 13 bd
       -0.009252483 0.018903974 0.025972564 -0.036130257
0002e0 db 77 96 3b a7 da 55 bc 49 e0 6c 3c 63 b3 2c bc
       0.0045919246 -0.013052619 0.014457771 -0.010540816
0002f0 19 0c df bc a6 1d cf bb 70 2d a6 3c a8 fc 3d bd
       -0.027227448 -0.006320673 0.020285338 -0.04638353
000300 f1 f8 d2 bb 2f 9f 7b 3b a2 00 01 bd d7 a0 ea bb
       -0.0064383675 0.0038394441 -0.031494744 -0.007160287
000310 66 37 00 bd 00 08 2a bd 7f 3e cd 3b 75 bc 30 bd
       -0.031302832 -0.041511536 0.0062635536 -0.043148477
000320 db 9e 23 bc a7 65 fb bc 9d 0b 91 3c 23 fe 18 bd
       -0.009986605 -0.03068812 0.017705733 -0.03735174
000330 a1 9b 83 3c 11 b4 95 3b 39 5c 99 bd 82 58 de 3b
       0.01606542 0.0045685847 -0.07488293 0.0067854533
000340 31 0d ee 3c 74 73 9c 3c 2c e8 65 3d 78 20 fe 3b
       0.029059025 0.019098021 0.05612962 0.0077553354
000350 26 d2 15 3d 61 31 cd 3c 85 7f a4 3c dc 0c 3e 3c
       0.036577366 0.02504796 0.020080337 0.011599746
000360 f5 e5 42 bd e0 02 2d bd f3 87 23 bd 9a 03 0f bd
       -0.047582585 -0.04223907 -0.039924573 -0.034915544
000370 68 aa cd bb ed b9 f9 bb 34 ec 8d bd 8b 94 b9 bc
       -0.0062764175 -0.007621041 -0.06929818 -0.022653839
000380 3e a4 53 bd 0c bc 24 3b df be eb bc d3 47 93 3c
       -0.051670305 0.0025136499 -0.028777538 0.017978584
000390 f9 02 fe 3a fe a6 45 3c 8e 1d 0e 3c e1 92 82 bc
       0.0019379548 0.01206374 0.008674039 -0.015939178
0003a0 22 0b fd bc 64 22 13 bc 69 45 48 3d 11 9d 5c bd
       -0.030889098 -0.008980367 0.04889432 -0.053860728
0003b0 8a c1 ed 3c 22 b6 81 bc c0 8c 69 bc b1 75 01 bb
       0.02902295 -0.015833918 -0.014254749 -0.0019753987
0003c0 e9 94 82 bd 84 de d4 bc b8 37 89 3c 00 9b 90 3d
       -0.063760586 -0.02598501 0.016750202 0.07060814
0003d0 78 1b 25 3c e6 d8 e5 ba 8d e9 72 3d 10 59 0f 3b
       0.01007735 -0.0017535954 0.059304763 0.0021873154
0003e0 7f 1f 11 3d 51 63 7c 3c b5 f0 96 3b 4e 14 0f bc
       0.035430428 0.015404538 0.0046063312 -0.008732868
0003f0 f3 83 22 bd 72 4d 1d 3c da a9 8d 3c fc 89 05 bb
       -0.039676618 0.009600984 0.017292906 -0.0020376435

layer3.0.bias f4 [64]
000000 94 dc 00 3c 12 d4 aa 3b 8f dc ef 3c 27 50 28 3d
       0.00786509 0.005213269 0.029279975 0.041092064
000010 33 e7 33 3c 24 7b f1 bc 01 f9 3a 3c 3c 10 10 bd
       0.010980415 -0.029477663 0.011411906 -0.035171732
000020 26 72 ec 3a cf 63 57 3b a6 d8 8e bc 28 46 27 bd
       0.001803939 0.0032865887 -0.01743729 -0.04083839
000030 8f 64 3b bc 09 72 0d bc f6 2b 93 bc e0 b1 b6 3c
       -0.011437549 -0.008633145 -0.017965298 0.022301614
000040 1e 79 81 3b b1 f7 92 3c 63 e9 af 3c a8 1f 20 3d
       0.003951206 0.017940374 0.021473592 0.03909269
000050 d9 ae 42 bc 00 95 1b 3b 72 0d ab 3c eb f1 08 bd
       -0.011882507 0.0023739934 0.020880435 -0.033433836
000060 6b 11 02 bd 43 a9 cc ba 2f d6 c9 3c 1d aa a4 ba
       -0.031754892 -0.0015614409 0.024638264 -0.0012562905
000070 7c e2 9a 3c 5d 9a 8d 3b 46 68 e3 bc 81 4a 48 bb
       0.018906824 0.00432138 -0.027759682 -0.0030561986
000080 cd 1b e7 bc 39 40 90 3c e5 df bb 3c bd c5 68 bc
       -0.028211499 0.017608749 0.02293391 -0.014207301
000090 91 d5 23 bd f8 94 03 bc 4f ae 1a bc fe dd 96 bb
       -0.039998595 -0.008031122 -0.0094409725 -0.0046041002
0000a0 84 15 b5 3c 4b 50 81 bc 77 62 25 3d 95 e8 db bb
       0.022104986 -0.015785357 0.040377107 -0.0067110755
0000b0 a4 8c 28 3c 2f bc fe 3c c2 22 35 3c 03 1a 83 3a
       0.010287438 0.031095592 0.01105565 0.0010002259
0000c0 b8 ff 09 3d 42 bd b4 39 2a f3 06 3d 08 b0 25 3d
       0.033691138 0.00034473283 0.032946743 0.04045108
0000d0 64 c0 4f 3c 1b 49 e6 3c c9 4c db 3c c5 e7 8e 3c
       0.012680147 0.028111031 0.026770012 0.0174445
0000e0 13 d0 ca bc 6d e0 0e bd 3f ab 11 3b 82 7f 0f bd
       -0.02475742 -0.034881998 0.0022227315 -0.03503371
0000f0 fb 99 10 bc ab ef ee bb c2 b7 e2 3c 4b 1e 6a 3c
       -0.008825774 -0.0072917542 0.027675513 0.014289449

layer3.1.weight f4 [64]
000000 e4 f4 82 3f d2 cf 78 3f 2b d7 7d 3f cd b6 77 3f
       1.0230985 0.9719211 0.99156445 0.96763307
000010 83 55 80 3f 9f d9 88 3f d1 68 7f 3f 44 05 82 3f
       1.0026096 1.0691413 0.9976931 1.0157857
000020 4f a5 7f 3f 7b 3b 7f 3f 50 4c 88 3f 32 3d 84 3f
       0.99861616 0.99700135 1.0648289 1.0331175
000030 4f 28 78 3f 2d 43 6c 3f 9c 2d 7b 3f 92 68 7e 3f
       0.96936506 0.9229 0.9811647 0.9937831
000040 77 84 81 3f 72 43 7d 3f f8 ba 7a 3f 62 fb 75 3f
       1.011855 0.9893104 0.9794154 0.96086705
000050 14 9d 7b 3f 57 b2 84 3f eb 35 7e 3f 68 65 84 3f
       0.9828656 1.0366925 0.9930102 1.0343447
000060 b8 9a 82 3f 2c c7 81 3f fc 31 74 3f 74 eb 7d 3f
       1.0203466 1.0138907 0.9538877 0.991874
000070 44 f8 76 3f f1 04 8d 3f 8c 0e 72 3f 4d e8 84 3f
       0.96472573 1.1017133 0.94553447 1.0383393
000080 1c fc 82 3f 10 22 7f 3f 73 ec 81 3f 6a 30 76 3f
       1.0233188 0.9966135 1.0150284 0.96167624
000090 f0 42 7f 3f d5 a0 85 3f a7 df 7a 3f 5c af 76 3f
       0.99711514 1.0439707 0.97997516 0.9636133
0000a0 5d 39 72 3f ce f5 7a 3f bb 6d 7d 3f f2 84 76 3f
       0.9461878 0.9803132 0.9899556 0.9629661
0000b0 5d 7d 76 3f b2 4f 88 3f 69 ac 7f 3f bf 9b 80 3f
       0.9628504 1.0649321 0.9987245 1.004753
0000c0 af 7c 79 3f 57 2a 81 3f f2 07 83 3f e8 32 7b 3f
       0.9745588 1.0091046 1.02368 0.9812455
0000d0 6a 6a 75 3f 5e 67 70 3f dc 28 79 3f 19 7c 7a 3f
       0.958655 0.93907726 0.9732797 0.9784561
0000e0 69 17 7d 3f 05 a9 7f 3f a8 40 7f 3f 97 55 80 3f
       0.98863846 0.9986728 0.9970803 1.002612
0000f0 6f f6 82 3f 9c 9f 6b 3f b4 a9 83 3f e6 ad 82 3f
       1.0231456 0.9204042 1.0286164 1.020932

layer3.1.bias f4 [64]
000000 06 21 62 bd 38 23 23 bd fb ee 84 bd 0f e7 ff bc
       -0.055207275 -0.03982851 -0.064908944 -0.031238107
000010 14 47 0a bd 2d e7 e4 bd 35 f0 04 bd 73 04 05 bd
       -0.03375919 -0.11176906 -0.03245564 -0.032474946
000020 88 8d 80 bd 00 54 70 bd 82 6d f4 bd c8 eb b2 bd
       -0.06276995 -0.05867386 -0.119349495 -0.08736378
000030 28 a1 16 bd 76 ca 5f bc 20 3d 8b bc 38 b0 32 bd
       -0.036774784 -0.01365911 -0.01699692 -0.043625087
000040 4d 00 38 bd 10 37 9f bc 88 ef 02 bd ce 4d 40 bd
       -0.04492216 -0.019435436 -0.031966716 -0.0469492
000050 46 1a 98 bd 41 78 a3 bd 32 8e 8c bd 72 6d d4 bd
       -0.07426886 -0.07981921 -0.06863059 -0.103724375
000060 c2 a8 70 bd b8 7d b8 bd c0 91 5c bc 43 a4 6b bd
       -0.05875469 -0.09008354 -0.013462484 -0.0575297
000070 86 e7 33 bd fa 5c 04 be c4 2f 4f bd e3 b6 a0 bd
       -0.04392197 -0.12926093 -0.050582662 -0.07847383
000080 a3 20 14 bd 19 7f 15 bd f7 e6 5f bd 21 64 fa bb
       -0.036163937 -0.036498163 -0.054663625 -0.007641331
000090 1f 4d 08 bd 68 12 40 bd be 91 25 bd 9d 25 0d bd
       -0.033276673 -0.046892554 -0.040422194 -0.0344597
0000a0 65 b2 a8 bc 20 6b 2b bd 0d ce d2 bc 9f c3 41 bd
       -0.020592878 -0.04185021 -0.025733018 -0.0473057
0000b0 c3 7c 0f bd 51 4d ed bd ef 09 9a bd 04 2f 34 bd
       -0.03503109 -0.115870126 -0.07521426 -0.04399015
0000c0 07 b5 19 bd f8 40 ab bc 95 c6 21 bd 70 dc 36 bd
       -0.037526157 -0.020905003 -0.039496023 -0.04464382
0000d0 e5 95 81 bc 8d dc f6 bc f3 5a 0c bc d4 81 4c bd
       -0.015818546 -0.030134464 -0.008566606 -0.0499285
0000e0 fd 0e 46 bd ce 88 e4 bc f9 39 80 bd 9a b5 b8 bd
       -0.048354138 -0.027897265 -0.062610574 -0.09019013
0000f0 58 a6 ac bd 81 20 39 bd 85 a8 bb bd 4d 63 99 bd
       -0.08430165 -0.045197014 -0.09163002 -0.07489643

layer3.1.running_mean f4 [64]
000000 54 aa 31 bf 94 72 26 be cf c4 06 bf fe 50 07 bf
       -0.69400525 -0.16254646 -0.52644056 -0.5285796
000010 95 86 f0 be f3 59 8a bf 2a af 47 bf ed 49 f1 be
       -0.46977678 -1.08087 -0.78001654 -0.47126713
000020 f2 68 26 3e 20 db 13 bf 60 b4 fa bd ba 2c 29 bf
       0.16250971 -0.57756233 -0.12241435 -0.6608387
000030 08 41 75 bf 5b 81 25 be 5b 19 4b bf 61 f1 3a bf
       -0.95802355 -0.16162626 -0.79335564 -0.73024565
000040 d2 a6 00 bf d6 19 1d bf 93 14 f6 be 31 e6 ae be
       -0.5025455 -0.6136755 -0.48062572 -0.34159997
000050 f6 74 b8 3e e5 2c 8c be e1 ae 2e bf fb 02 84 be
       0.36026734 -0.27378002 -0.68235594 -0.25783524
000060 7e 22 cc be a1 75 33 3e 69 ab 02 bf bc ac 3b bf
       -0.39870065 0.1752534 -0.510428 -0.73310447
000070 9c 26 e2 be 10 ac c2 ba 42 2a ff be 3f f1 af be
       -0.44170082 -0.0014852304 -0.49836928 -0.34363744
000080 1c 1a a7 be 70 90 5e bf 6a f9 5b be 90 a2 6d bf
       -0.32637107 -0.86939144 -0.21481863 -0.92826176
000090 f6 4d ef be c4 06 66 bf d0 66 0d bf bb 28 96 be
       -0.46739167 -0.89854074 -0.55235004 -0.2932795
0000a0 4d 60 1e bf 95 71 4d bf e5 6e 3c bf af 3d 2b bf
       -0.61865693 -0.8025144 -0.7360671 -0.66890997
0000b0 41 7e f6 be 3d c0 27 bf 48 e6 8d be 43 ce 0c bf
       -0.481432 -0.6552771 -0.27714753 -0.5500223
0000c0 45 39 e9 be bd 40 5b bf ef cc d8 be 9f b5 79 be
       -0.45551506 -0.8564566 -0.42343852 -0.24385689
0000d0 fa 44 d0 be 1c 28 f3 bd 89 b5 26 bf c0 40 27 bf
       -0.40677625 -0.11872885 -0.6512075 -0.65333176
0000e0 b2 2a 56 bf 11 91 09 bf 35 a9 05 3d d0 be 17 3e
       -0.836589 -0.5373698 0.03263207 0.14818883
0000f0 49 ca d6 be 4e 42 dd be 29 dc 2c 3f 49 49 36 3e
       -0.41951206 -0.4321465 0.6752344 0.17801394

layer3.1.running_var f4 [64]
000000 b7 f0 6b 3e a9 ea 2c 3f 96 ca 62 3e 7f 1f aa 3e
       0.23041044 0.67545563 0.22147593 0.33227155
000010 91 67 a0 3e 26 33 8e 3e 7f 6f bf 3e 49 27 79 3e
       0.31329015 0.27773398 0.37389752 0.24331392
000020 c1 65 89 3e af 0b 5c 3e 36 93 49 3e 83 42 be 3e
       0.26835445 0.21488832 0.19685063 0.3716012
000030 bd f0 39 3f c0 59 13 3f 9b 90 f4 3e 2e f2 9b 3e
       0.7263296 0.5755882 0.47766575 0.30458206
000040 8d 6f a5 3e 67 2b 97 3e 51 31 e4 3e 2b cf d9 3e
       0.3231167 0.295253 0.44568875 0.4254087
000050 91 63 96 3e 69 c3 8f 3e e3 13 8d 3e 0f 19 65 3e
       0.29372838 0.28078774 0.27554235 0.2237284
000060 4c ff 4d 3e c8 c8 6a 3e b8 20 e7 3e ae f0 52 3e
       0.2011692 0.22928154 0.4514215 0.20599625
000070 0a ee 30 3f 1f e9 61 3e 52 68 ff 3e 1c 3b 53 3e
       0.6911322 0.22061585 0.49884278 0.20628017
000080 91 19 91 3e 0c c0 87 3e 3d 32 88 3e a4 6a b9 3e
       0.28339818 0.26513708 0.2660083 0.36214173
000090 4b 29 78 3e 27 d1 5d 3e ac f3 77 3e 42 d0 fe 3e
       0.24234502 0.21661817 0.24214047 0.49768263
0000a0 81 9a 1a 3f 2d 92 0a 3f df a6 59 3e bd 22 a7 3e
       0.60392004 0.54129297 0.21255063 0.3264369
0000b0 33 8d 03 3f 84 cf 55 3e 78 25 62 3e 7b 77 ad 3e
       0.5138733 0.20879942 0.22084606 0.3388022
0000c0 1b ab b7 3e 04 9a 7c 3e 02 5e dc 3e 9c 32 f1 3e
       0.3587273 0.24668127 0.43040472 0.47108924
0000d0 df bb a1 3e e1 7a a5 3e 97 67 c2 3e d3 75 b2 3e
       0.31588647 0.32320312 0.37969658 0.34855518
0000e0 4d 0b c4 3e db ea 83 3e 23 54 82 3e c1 be 78 3e
       0.38289872 0.25765118 0.25454816 0.24291517
0000f0 38 c9 77 3e 0d a5 93 3f f4 5c 21 3e 7b ae 35 3e
       0.24197853 1.1534745 0.15758115 0.1774234
