FAST 3D-CNN P-NET/model/ZGFF/ZGFF_proto_3d-5shotband50.pth (torch, 283584 bytes, 22 tensors)

layer1.0.weight f4 [8, 1, 7, 3, 3]
000000 36 ab aa 3d 8d ac ab 3d d2 fb a2 3d 49 46 01 be
       0.08333437 0.08382521 0.07958187 -0.12624468
000010 55 ca 8c 3c 0b 28 fc 3d 1d 10 c4 bd 24 cc e4 bd
       0.017186323 0.12312325 -0.09573386 -0.11171749
000020 86 bd a8 bd 95 f1 55 bd 10 38 c5 3c 2a 32 63 3b
       -0.08239274 -0.052232344 0.024074584 0.0034667351
000030 9b 1f 23 3d 36 48 08 3d 6e f8 19 bd 30 89 11 bd
       0.039825063 0.03327199 -0.037590437 -0.035531223
000040 9e 72 bf 3d fa 15 97 3b 92 f5 de bd 34 a9 7b bd
       0.09348033 0.004610774 -0.108866826 -0.06144066
000050 61 ac f1 3d 75 c8 91 bd 19 8e b7 b8 80 ca c9 3d
       0.11800457 -0.07118312 -8.752588e-05 0.09853077
000060 8e 37 4a bd 69 12 92 3d 3c 6a 3c 3e 79 bf d8 bd
       -0.049369387 0.07132418 0.183999 -0.105833955
000070 44 55 49 3c ac 29 16 bc 68 85 0f 3e c8 65 97 3d
       0.012288395 -0.009165209 0.14015734 0.0739246
000080 b9 c0 e1 bb 53 3a 2e 3e f6 fe 04 3e cc 00 61 bd
       -0.0068894294 0.17014436 0.12987885 -0.0549324
000090 fd bb 5c 3c b3 6a 2c bd c1 3b 96 bd 5a fc 8e bd
       0.013472554 -0.042093944 -0.07335616 -0.06981726
0000a0 11 5d 8e 3d 7e 9b 9e 3d 99 40 db 3b 44 55 7b 3d
       0.06951345 0.077445015 0.0066910503 0.061360613
0000b0 64 6e 00 be 55 9b b7 bc 87 d4 a7 3d d9 c7 01 be
       -0.1254211 -0.022412935 0.08194833 -0.12673892
0000c0 b5 15 9d 3c a0 18 7a 3c 48 33 4a 3d a7 60 8b 3c
       0.01917539 0.01526466 0.04936531 0.01701386
0000d0 f1 aa 5c 3d 4a 3d 57 3d 1a a3 49 3d 67 ab 5c 3c
       0.05387396 0.052548684 0.04922781 0.0134686
0000e0 58 0e a2 3d 79 7f 27 bd 7e 26 f4 bd 8c 51 9c bd
       0.07912892 -0.04089305 -0.11921404 -0.07632741
0000f0 ff 32 bc 3d 64 56 4e 3c 81 da 63 bd e6 45 b7 bd
       0.09189414 0.012593839 -0.055628303 -0.08948879
000100 b6 f9 98 3c c4 ff c6 bd 12 08 89 bb e2 26 a2 bd
       0.018673759 -0.09716752 -0.0041818703 -0.079175726
000110 66 cf 87 3b 1d b2 a1 bd 73 34 26 3d d5 58 9b bd
       0.004144597 -0.078953005 0.040577363 -0.07585303
000120 e1 41 91 3d 0b 72 72 3c 75 66 c2 bd c4 ec 62 3c
       0.070926435 0.014797698 -0.094921984 0.013850395
000130 25 5e 82 3d 79 e1 0c be a6 a7 a6 3d fe 8e 12 be
       0.06365613 -0.13757886 0.08137445 -0.1431236
000140 b3 4d 0c 3d c7 e4 a3 3c b5 80 92 bd 0f 40 82 bd
       0.034253787 0.02000655 -0.07153455 -0.063598745
000150 ed d3 eb bc 58 74 2f 3d d6 11 ab 3d be b0 e6 3d
       -0.028787578 0.042835563 0.08353011 0.1126418
000160 e0 35 1f 3d 76 9c df 3d 33 15 ff 3c c2 39 96 bd
       0.03886974 0.109185144 0.031138038 -0.07335235
000170 d4 d8 cc 3c c1 3c 20 bc f2 a7 aa bc ca 97 04 3d
       0.025005735 -0.00978011 -0.020832036 0.03237132
000180 1a 87 15 bd 44 f4 e8 3c bf b9 9b 3d f8 16 9b bc
       -0.036505796 0.028436787 0.07603788 -0.01893185
000190 71 fd 5a bd 70 6e 8d bd 66 be 19 bd 35 f2 65 bd
       -0.053464357 -0.0690583 -0.037535094 -0.05613919
0001a0 c8 bb 72 bd 30 22 01 bd ad 61 f7 bd 27 2b 4a be
       -0.059261113 -0.031526744 -0.12079177 -0.19743024
0001b0 af c8 7c 3d 2f 04 c3 3d 65 26 c6 3d ed e4 8f bd
       0.061714824 0.09522282 0.09675292 -0.07026086
0001c0 2a 45 a9 3d 21 09 b9 3c cf 4a a7 3d a7 30 18 3e
       0.08265145 0.02258736 0.081685655 0.1486231
0001d0 2c 03 17 3e 41 2e ce bd 74 ce 7f bd 96 6a b0 bd
       0.14747304 -0.10067416 -0.06245275 -0.0861408
0001e0 67 d5 32 bb d9 98 71 bc 97 8d e7 bd db 14 eb bd
       -0.0027287842 -0.014745914 -0.11306303 -0.11478587
0001f0 97 36 00 bd 9e 06 cb bd aa 3a 24 bd 5c bf e3 bd
       -0.03130206 -0.099133715 -0.04009501 -0.11120483
000200 22 72 4f 3d b4 a5 84 3d 2a 39 0d be c6 75 a5 bd
       0.050645955 0.06476918 -0.13791338 -0.08079104
000210 17 c4 2e bd f0 37 da bc ff d6 81 bd 0f 6e 0c bd
       -0.042667475 -0.026638001 -0.063398354 -0.034284648
000220 4d 63 92 bd fb 74 e0 3d ca 7f 07 be ab e2 b4 3d
       -0.07147846 0.10959812 -0.13232341 0.08832296
000230 be cc ac 3d bd ff 0c 3d cf 07 80 bd 63 49 97 3c
       0.08437489 0.03442358 -0.06251489 0.01846761
000240 44 36 b6 bd d8 56 13 bd bc 8f d1 bc 40 83 a4 bd
       -0.08897069 -0.035971493 -0.025581233 -0.080328465
000250 c5 9b 5c bd 6d c2 05 3d 71 ec 30 bd 9f 46 b8 bd
       -0.05385949 0.032656122 -0.043194238 -0.08997845
000260 48 50 ad bd c0 90 00 3e 89 de 28 3d 31 8d 1a 3e
       -0.08462578 0.12555218 0.04122785 0.15092923
000270 23 66 1c 3e 0b a1 0c bd 63 49 96 3d 5f 49 73 3d
       0.15273337 -0.03433327 0.07338216 0.059396144
000280 c6 19 ee bd 3a fb aa 3d b4 c0 40 3d 12 0b cd 3c
       -0.1162601 0.08348699 0.047058776 0.025029693
000290 d6 c7 f8 3b 68 79 e5 bc ee da ed bc e1 46 34 3d
       0.0075921817 -0.028011993 -0.029035058 0.044012908
0002a0 f5 22 07 3d 57 21 29 bd 29 21 ad 3d ac 9b 40 3d
       0.032992322 -0.04129156 0.084535904 0.04702346
0002b0 69 2f c7 3d 47 75 bd bc 44 cc 9a 3c 35 6f b5 3d
       0.0972584 -0.023127211 0.01889623 0.08859102
0002c0 f3 53 5b 3d da 69 28 bd 0b fa dd bd ec 69 6b bd
       0.053546857 -0.041116573 -0.108387075 -0.05747406
0002d0 48 b0 06 3d ac c6 b5 bd 09 fe e1 bc ba a4 45 3d
       0.03288296 -0.08875784 -0.027586954 0.0482528
0002e0 d9 87 de bd ef 13 93 3c f1 b7 13 3e 2e 92 dc bc
       -0.10865755 0.017953841 0.14425637 -0.026925173
0002f0 f5 e5 f5 3c 08 c4 93 3c ae f5 0d 3e 9b 9d 75 3d
       0.030016879 0.01803781 0.1386325 0.059964757
000300 48 18 9e bd 98 dc 8f 3d 48 fa b4 3d e1 cd 39 bb
       -0.07719475 0.07024497 0.088368 -0.0028351473
000310 a3 b9 97 b9 38 57 53 3d 48 8b d9 bd 22 e3 95 bd
       -0.00028939274 0.05159685 -0.10622269 -0.07318713
000320 2b 45 c2 3c 94 8f a2 3c da d5 f1 3c dc 43 73 3d
       0.023714622 0.019843854 0.029520918 0.059390888
000330 99 0d 08 be c7 02 3d bd 0c a6 75 3d e5 34 b9 3d
       -0.13286437 -0.046145227 0.059972808 0.09043292
000340 f7 8a c1 3d 1e ee 39 3d 15 e6 4e 3d 44 ec 38 bd
       0.094503336 0.045393102 0.050512392 -0.045147195
000350 28 29 f8 3c d5 c0 8b 3d b2 c5 4e 3c 28 ee 16 bd
       0.030293062 0.06823889 0.012620376 -0.036848217
000360 12 9f 4c be 9a 12 2c be 63 43 1d be 0e f9 96 bc
       -0.19982556 -0.16803971 -0.15357737 -0.018429305
000370 5a 28 4a bd c7 47 96 bd 13 4d f7 bd 56 4e 08 be
       -0.04935489 -0.07337909 -0.120752476 -0.13311133
000380 9e f9 41 be 9d 9d dc 3d 7e 48 42 3d 18 6a a8 3d
       -0.18942878 0.1077225 0.047432415 0.08223361
000390 c8 ee 10 3d b6 b7 13 bd 34 79 35 bd c5 80 5e 3d
       0.03538397 -0.036063872 -0.04430504 0.054322023
0003a0 ca ed a3 3d 34 97 63 bc 4d 82 64 bc 19 07 ed 3c
       0.08004339 -0.01389103 -0.013947082 0.028934048
0003b0 cb 3a 68 bd 80 0f 4b bd b1 6c 85 3d f6 ee f2 bc
       -0.056696694 -0.04957533 0.06514872 -0.029654961
0003c0 94 7f 09 3d 94 74 b4 3d 5d 47 d5 3d 79 c0 93 3c
       0.033568934 0.08811298 0.10414002 0.018036114
0003d0 ed 7f 94 bd 8e 9d cf bc 5c 22 a5 bd 12 14 88 3c
       -0.072509624 -0.025343683 -0.08063194 0.016611133
0003e0 fe 8c a5 bd ea e7 e7 bc a6 4f d8 38 b0 ad 4e bd
       -0.08083533 -0.028308827 0.00010314518 -0.05045861
0003f0 1c d0 04 bd ae 80 82 bc 5b 68 13 bd b8 a1 41 be
       -0.03242503 -0.0159305 -0.035988193 -0.18909347

layer1.0.bias f4 [8]
000000 4d 22 c4 3d 4d 45 26 bc 3d 59 1c 3d 32 4d 3f 3e
       0.09576855 -0.0101483585 0.03817104 0.18681791
000010 df 58 ec bc 46 2f f3 3d ea 3b 88 3d a8 7e 1d 3e
       -0.02885097 0.11874251 0.06652053 0.15380347

layer1.2.weight f4 [8]
000000 56 c1 6d 3f 17 7f 7a 3f 37 cb 7a 3f 81 e9 7c 3f
       0.9287313 0.97850174 0.9796633 0.987938
000010 18 f6 7f 3f fa 53 81 3f cc 7f 7a 3f a6 80 83 3f
       0.99984884 1.0103753 0.9785125 1.0273635

layer1.2.bias f4 [8]
000000 58 38 23 3e d5 46 89 3d c3 ff 0c 3e 53 10 90 3d
       0.15939462 0.06702963 0.1376944 0.070343636
000010 fc 06 00 3e bc 72 f2 3d d0 95 85 3d cf a4 00 3e
       0.12502664 0.1183829 0.06522715 0.1256287

layer1.2.running_mean f4 [8]
000000 72 a4 b8 3e 63 fd 8f 3e f6 63 8d 3e 49 14 ce 3e
       0.36062962 0.28123006 0.27615327 0.4024985
000010 25 9e 8d 3e 32 20 b0 3e ef 4a 94 3e 0c b9 b2 3e
       0.27659717 0.34399563 0.2896342 0.34906805

layer1.2.running_var f4 [8]
000000 1c a1 ca 3e ce 85 a3 3e 5a df ab 3e 4e a5 bb 3e
       0.39576042 0.31938022 0.3356884 0.36649555
000010 b4 fe b0 3e d5 d2 d7 3e 87 47 72 3e df 5c c0 3e
       0.34569323 0.4215304 0.23660098 0.37570855

layer2.0.weight f4 [16, 8, 7, 3, 3]
000000 5b 2f 81 bd 4d 4b 1d bd 20 48 57 3c 63 fe ea bc
       -0.063078605 -0.03840189 0.0131397545 -0.028685754
000010 9e 06 49 3b 8a 19 16 bc 80 92 9b bc 50 fc 9c bc
       0.003067411 -0.009161362 -0.018990755 -0.01916328
000020 4b 63 50 3d 28 d1 fc 3c e1 0b a5 3a 3e fd a6 bc
       0.050875943 0.030861452 0.0012592041 -0.020384427
000030 00 0d ed bc 2c 0f 8b bc 53 7c 27 bc 5c be 18 3d
       -0.028936863 -0.016975008 -0.010222512 0.037290916
000040 b6 23 06 3d f8 87 f3 bc 7e 48 c4 3c 5a 5a 41 3c
       0.0327489 -0.02972792 0.023960348 0.011801327
000050 60 7e 50 bc b6 2a 25 bd 89 42 08 3c fa 13 01 bd
       -0.012725443 -0.040323935 0.0083166445 -0.03151319
000060 0e 5e 94 3d 61 cb a2 bc 6b 50 d2 3c 29 1e 95 bb
       0.07244502 -0.01987237 0.025673112 -0.0045507145
000070 03 b4 b0 3b 9e 4b f2 bb 76 6b 20 3d 3e 50 aa 3c
       0.005392553 -0.007394268 0.039164983 0.020790216
000080 db b6 18 3d 78 c7 40 3d ea 92 4d 3d 38 c5 81 3d
       0.03728376 0.04706523 0.050188936 0.063364446
000090 ca 37 85 bb 80 d8 97 bd f3 d7 52 3d cb d8 0f bd
       -0.0040654885 -0.07414341 0.051475476 -0.03511886
0000a0 a9 b5 aa bc bb 8f 0e bd c5 df d2 ba 90 03 70 bc
       -0.020838575 -0.03480504 -0.0016088417 -0.014649287
0000b0 84 72 da bc 39 eb ad bc a8 78 ab 3c 6a 89 e9 b9
       -0.026665933 -0.021230327 0.020931557 -0.00044543605
0000c0 1e c1 8c bb 6f d3 3a 3d 7e fc ab 3c 8d 50 17 bd
       -0.0042954823 0.045611795 0.020994421 -0.036942054
0000d0 16 75 2f 3d 39 c7 1d 3d 90 a9 13 bc 0b 96 99 3c
       0.04283627 0.03852007 -0.009012595 0.018748304
0000e0 ca c3 f2 3d c2 f7 64 bb 8c 43 02 bd b4 dd 9d 3c
       0.1185375 -0.0034937714 -0.0318027 0.019270755
0000f0 e6 63 0e bd 62 e1 13 3d cd 3a e6 3b 48 ec 56 3c
       -0.03476324 0.036103614 0.0070260526 0.013117857
000100 71 6e 62 3d 0c de 98 3d 55 2e f6 bb 38 8f cc 3c
       0.055281106 0.07464227 -0.0075128474 0.024970636
000110 e4 14 5c 3d a9 0d 41 3c f3 53 b4 3a 1f c9 0f bd
       0.05373086 0.011783042 0.0013757929 -0.035103913
000120 9a b3 eb 3b 15 81 ee 3b 8a 0c c2 bc e0 60 9a ba
       0.007193041 0.0072785714 -0.02368762 -0.0011778139
000130 5d fe 9c 3c e2 52 1f 3c 74 9f 19 bc 4b 4c 8e 3b
       0.019164259 0.009724351 -0.0093763955 0.004342591
000140 98 02 8d bb 62 23 7f bb 5c 35 0b 3d 23 ea 4b bd
       -0.0043032877 -0.0038931002 0.033986434 -0.049783837
000150 9b 78 1c 3d 06 fe 1a bc 13 a8 2f 3c 23 3b ad 3c
       0.038200956 -0.009459978 0.010721224 0.021146363
000160 18 67 8f 3c 8b d4 d1 3b 80 e6 88 3d 14 8c 23 3c
       0.017505214 0.006403511 0.066845894 0.009982128
000170 6c e9 6b bc 60 08 76 3c 29 24 b5 3c bb c0 1a bd
       -0.014398914 0.015016645 0.022111969 -0.03778146
000180 af ab c8 3c 6b 92 8d bb c7 bc 47 bd f7 44 1a 3d
       0.024495928 -0.004320433 -0.048764016 0.037663426
000190 18 a2 d3 3c 6d 68 95 bb 8d fc da bc 33 e6 2d bb
       0.025834128 -0.0045595677 -0.026731754 -0.0026534915
0001a0 b6 ff c6 bb 4b bf c9 bc 9b d7 cc bc 2d 8e 50 bd
       -0.0060729636 -0.024627348 -0.025005152 -0.05091684
0001b0 ff e1 db 3c ec eb 0d 3c 55 3e 0e bc 71 d8 43 39
       0.026841162 0.008662205 -0.008681853 0.0001867728
0001c0 6b e6 e9 3c 7b f0 3d bd 3a 32 45 3d 4b 67 80 3c
       0.028552255 -0.04637192 0.048143603 0.015674254
0001d0 43 7f f7 bc dd 00 1a 3c 63 da a0 bc ff ed 83 bd
       -0.03021205 0.00939962 -0.019635385 -0.064418785
0001e0 ad 93 92 bd 4a cd fe 3c 7b 45 9b bd 10 32 b5 bd
       -0.07157073 0.031103749 -0.07581612 -0.08847439
0001f0 2a da 4e bd 71 43 70 bd 5b cb d2 3c a1 c9 e7 bc
       -0.050501026 -0.058658067 0.025731733 -0.028294386
000200 ab a2 1c 3d 2c b2 a0 bc ed 69 0e bd 96 f5 58 3b
       0.03824107 -0.019616209 -0.034768987 0.0033105365
000210 6c 4e 61 3c e8 e0 b0 3c 2f 1b dc ba 03 5c 30 bd
       0.013751607 0.021591619 -0.0016792769 -0.0430565
000220 a1 20 c4 bc 3c 16 83 bb 74 a2 33 bd c3 8d 1d bc
       -0.02394134 -0.0040004533 -0.0438561 -0.009616318
000230 8a c7 8d bc 5e 87 97 bc 4e eb 59 bc d1 86 8c 3d
       -0.017307062 -0.018497165 -0.01330073 0.06861652
000240 b0 20 42 3d e6 18 b7 3c 67 e4 3a bc d9 81 fc 3b
       0.047394454 0.02235074 -0.011406994 0.0077059087
000250 bb 3b 6d bc 6a 28 8e bd 43 33 a8 bc ad 89 5b bc
       -0.014479573 -0.06941302 -0.020532256 -0.013399524
000260 74 b3 86 bd d5 7d 03 3d 68 c9 47 bc 68 33 66 3c
       -0.06577197 0.032102425 -0.012194015 0.014050342
000270 e0 5d ec 3b 74 42 2b bd b5 bc b7 bc 65 e4 a8 bc
       0.007213339 -0.04181142 -0.02242885 -0.02061672
000280 d9 29 fa bc 96 20 b2 bc 82 e5 cb bc c2 8c d1 3c
       -0.030537533 -0.021744054 -0.024889711 0.025579814
000290 d0 4e 20 bc d9 5a 11 bd d7 63 24 3d c8 52 c7 3b
       -0.009784415 -0.03548703 0.040134277 0.0060828663
0002a0 78 cb 8e bc 26 47 0b 3c f6 0d b1 39 d4 51 5d bc
       -0.017431006 0.00850085 0.00033770473 -0.013508279
0002b0 49 87 8a bc e3 88 66 bc 83 4b 71 bc c4 a3 0a bb
       -0.016910212 -0.014070722 -0.014727476 -0.002115474
0002c0 9c 3e bf bb 2d ae a2 bd 86 ca 64 bc 60 b6 80 bc
       -0.005836321 -0.07943378 -0.013964301 -0.015711963
0002d0 11 7c 41 3c ba 40 5d bc a4 e5 08 3c 9c 26 1a bd
       0.011809365 -0.013504202 0.008355532 -0.037634477
0002e0 5e 22 f8 bc bc 19 46 bc f1 0f 63 bb 63 93 66 bd
       -0.030289825 -0.0120910965 -0.0034646953 -0.056292903
0002f0 7f 03 a3 bc 41 f2 f8 3c c0 82 fe 3c eb a1 19 3b
       -0.019899128 0.030388953 0.031068206 0.0023442458
000300 9b 9d 3d bd e0 35 39 bb 0d e1 7f 3b 9b 10 6d 3c
       -0.046292882 -0.0028260872 0.0039044053 0.014469291
000310 3f 54 7a 3c 16 43 32 bb d7 f9 ba 3c 3c 9c 30 3d
       0.015278875 -0.002720063 0.022824211 0.043117747
000320 c5 8f 11 3c 37 9a 1e 3d 73 50 1c 3c 9c 45 d0 3b
       0.008884375 0.03872129 0.009540665 0.0063559543
000330 6f aa b9 bb 36 01 2b 3d 8c 1f bd 3c 62 56 20 bd
       -0.005666069 0.0417492 0.023086332 -0.03914488
000340 a4 42 e3 bb a5 49 38 bd ea bb dd bc a4 79 07 bd
       -0.0069354344 -0.044992108 -0.027067143 -0.03307499
000350 30 7a 9e bc 85 60 91 bd 18 4d 06 bd 17 e1 89 bd
       -0.019345373 -0.07098488 -0.032788366 -0.067323856
000360 9e 4c 2b 3d 07 5d 25 bc 0e e1 45 bd 04 12 ab 3a
       0.041821115 -0.01009298 -0.048310332 0.0013051634
000370 2c 72 80 bd a6 8d a8 bc 9e 0b 7b bd 3e 48 29 bd
       -0.062717766 -0.020575356 -0.061290376 -0.04132866
000380 be ac 1d bc 17 60 92 bb 31 b0 a4 bb 43 b0 42 bc
       -0.0096237045 -0.004467021 -0.0050258865 -0.011882844
000390 20 35 4d bc e5 cc 18 bd f1 9f 37 3c ca c5 55 bd
       -0.012524873 -0.037304778 0.011207567 -0.05219058
0003a0 ee 1b 18 bd ab 31 5d ba ba c8 ca 3b a5 30 2c bd
       -0.03713601 -0.0008437882 0.0061884793 -0.04203858
0003b0 dc 6d c1 bc d6 39 f0 3c 95 e2 94 3b 33 de ac bc
       -0.023611955 0.029324453 0.0045436122 -0.021102047
0003c0 65 4b d1 3b d5 b0 df 3c d1 50 24 3d d4 a1 28 3c
       0.0063871616 0.027306 0.040116135 0.010292489
0003d0 f4 13 ab bc 66 06 65 3d 79 02 99 bc b8 5e d3 3b
       -0.020883538 0.055914305 -0.018677937 0.0064505003
0003e0 7f 3c 83 3b be 8f c4 3c 39 51 a7 bc e5 28 cc 3c
       0.0040050144 0.023994323 -0.020424472 0.024921844
0003f0 19 51 37 3c a3 5e 03 bd f5 5a 8e 3b f7 1f fe bc
       0.011188769 -0.032072674 0.004344339 -0.031021101

layer2.0.bias f4 [16]
000000 a0 0c e5 bd ae f7 f1 bd 4f 36 97 bd 1c 19 30 bd
       -0.11184049 -0.11814819 -0.073834054 -0.042992696
000010 fc 97 01 be 47 a9 c0 bc 25 05 22 be 69 ac 95 bd
       -0.12655634 -0.023518218 -0.15822275 -0.07308275
000020 3a 1c e0 3a 1f ad da bd 98 0f 84 bd 1e 7f 98 bd
       0.0017098256 -0.106775515 -0.06448287 -0.07446121
000030 fe b7 93 bd 4e ba a4 bd e5 b7 43 bc 92 a2 96 bd
       -0.07212828 -0.08043347 -0.011945699 -0.073552266

layer2.2.weight f4 [16]
000000 29 44 83 3f b2 d0 76 3f 5d 8f 7f 3f 57 dd 7d 3f
       1.0255176 0.96412194 0.9982813 0.9916586
000010 cc fb 84 3f 9b 2b 78 3f 3b 90 7a 3f 4e 22 81 3f
       1.0389342 0.96941537 0.9787633 1.0088594
000020 17 48 81 3f 43 02 88 3f 15 0e 71 3f 17 db 83 3f
       1.0100125 1.062569 0.9416211 1.0301236
000030 fe 17 76 3f db 97 7b 3f 33 38 7d 3f df e8 83 3f
       0.9613036 0.9827859 0.9891388 1.0305442

layer2.2.bias f4 [16]
000000 6b 4e de bd 12 f7 70 3e 77 e8 32 3c cc 3b c5 3a
       -0.10854801 0.2353175 0.010919682 0.0015047728
000010 5d 69 c1 3c 71 71 5a 3e ea 69 7e bd 20 dd e8 bc
       0.023609811 0.21332337 -0.062112726 -0.028425753
000020 9e a9 50 3d a9 09 d5 bb 3c 4f cb 3d 75 02 b0 3d
       0.05094301 -0.0065013957 0.09927222 0.08594219
000030 12 6d fd 3d c3 13 8c 3e b4 47 10 3e c3 1e 62 3d
       0.12374319 0.27358827 0.14089853 0.055205118

layer2.2.running_mean f4 [16]
000000 a8 09 83 3e 61 f5 36 3e bb 9d 90 3e 53 a1 a2 3e
       0.25593305 0.17867042 0.2824534 0.31763706
000010 c3 50 8b 3e 00 f0 83 3e 64 1f 5e 3e 75 4a 83 3e
       0.27210054 0.25769043 0.21691662 0.25642744
000020 4d 14 84 3e e8 64 76 3e f0 3c 9c 3e 97 f6 99 3e
       0.25796738 0.2406193 0.30515242 0.30070946
000030 4c e6 75 3e 96 3e 3f 3e c3 bc ae 3e dd 58 96 3e
       0.24013633 0.18676218 0.3412839 0.29364672

layer2.2.running_var f4 [16]
000000 0c 7e 4f 3e fc de a7 3d bd 34 46 3e c4 0e 38 3e
       0.20262927 0.08196828 0.19356056 0.17974383
000010 70 59 82 3e 94 cd 1b 3e 22 8d 1d 3e b9 37 57 3e
       0.2545886 0.1521514 0.15385869 0.2101735
000020 e1 1b ff 3d f8 56 06 3e f3 a5 19 3e d6 c1 d6 3e
       0.12456489 0.13119113 0.15004711 0.4194476
000030 08 59 0d 3e e0 a3 e0 3d ad 63 74 3e 85 f8 58 3e
       0.13803494 0.10968757 0.23866148 0.21188553

layer3.0.weight f4 [32, 16, 7, 3, 3]
000000 3a 27 ec 3c 98 2a 05 3d 11 f9 bb 3d fe d2 9c 3c
       0.028827298 0.032511324 0.09178365 0.019143578
000010 b8 68 6d bb 0e c3 9a 3d c6 50 c7 3c 87 25 f5 3c
       -0.0036225747 0.07556735 0.024330508 0.029925121
000020 16 55 c0 3d b8 f3 af 3c e5 eb 19 3d ef b6 3b 3d
       0.09391229 0.021478519 0.037578482 0.045828756
000030 d0 9a a4 3d d7 65 3d 3d d4 1d c3 3d c7 d3 fb 3d
       0.08037341 0.0462397 0.09527174 0.12296253
000040 db ed ec 3d c0 57 03 3e 96 08 54 bc d4 e4 9a bc
       0.11568805 0.12826443 -0.0129415 -0.018907942
000050 ad 1f d5 bc 75 5d 4f bc 1a 58 68 bc e4 9a 44 3b
       -0.02601608 -0.012656559 -0.014181161 0.0029999549
000060 be cc f3 bb dc 6e b9 bc 87 2c eb 3c b8 84 ff ba
       -0.0074401787 -0.02263587 0.028707756 -0.0019494509
000070 4d 5c 0b bd d6 d7 c8 bc 32 bd 82 bc 34 05 c5 bc
       -0.03402357 -0.024516981 -0.015959356 -0.024050333
000080 a2 7c 6b bd f4 77 56 bc e7 9c 1b bd ce 10 3b bd
       -0.057491906 -0.0130901225 -0.03799143 -0.045670323
000090 84 ef 4f bc 00 dd b7 3b ea 18 f2 bb 9e 28 e6 bc
       -0.012691382 0.005611062 -0.007388224 -0.02809554
0000a0 e8 aa 0a bd ae a9 16 bc 47 1f e4 bc 3b 9f 88 bc
       -0.033854395 -0.009195728 -0.027846945 -0.01667749
0000b0 97 85 ab 3b 61 a2 11 bb 3d 12 ae 3b d3 e4 fc bb
       0.005234431 -0.002222203 0.0053122328 -0.0077177077
0000c0 06 bb d4 3c ef 9f 65 3b 44 92 bb bb 95 e1 26 3c
       0.025968086 0.0035037955 -0.0057242233 0.010185619
0000d0 ab 11 af 3b b5 40 9c bc f8 ad 6e bb f4 50 4b bc
       0.0053426824 -0.019073823 -0.0036419611 -0.012409437
0000e0 f8 7b 0e 3c 1d ce 93 bc 44 ed 1d bc 83 87 9f 3c
       0.008696549 -0.018042618 -0.009639088 0.019473797
0000f0 6e 1b 45 3c b2 a8 8d 3c 84 a1 2f 3d 67 30 16 bc
       0.0120304655 0.017292354 0.042878643 -0.009166813
000100 a5 01 8e bc 0e 58 6e bb df 61 00 bd 31 2e d2 bb
       -0.017334769 -0.0036368403 -0.031343337 -0.006414198
000110 28 1d bb bc 23 bf 27 bd 5c 71 f8 bc e0 59 03 bd
       -0.022841051 -0.040953767 -0.030327491 -0.032068133
000120 c7 40 3e 3c 9d 75 13 bc 6b 5b a6 3c 58 29 b1 bb
       0.011612124 -0.009000209 0.020307263 -0.00540654
000130 f3 0c 0c bc 49 1a 92 bb 57 3e af 3c 2c f6 01 3c
       -0.008548009 -0.0044587 0.02139203 0.007932227
000140 08 8c b8 ba 0e 72 c9 bb 64 74 84 bb 6c b1 7a 3c
       -0.0014079819 -0.0061476296 -0.004042195 0.01530109
000150 08 19 cc 3c b4 5d c3 3b 05 bf 9d 3c c7 ae 7a 3d
       0.02491428 0.005962098 0.019256124 0.061201837
000160 bd cc 03 3d 90 71 26 3d 8a f6 a7 3c e4 48 b4 3c
       0.032177676 0.040635645 0.020503301 0.022007413
000170 cb fb 00 3c 19 2e a8 bc cc e3 01 3c ef ab 28 3c
       0.007872532 -0.020529794 0.007927846 0.010294898
000180 e5 1f 0d bd 11 9d bf bc 08 40 89 bd b3 8e 21 bc
       -0.034454245 -0.023390325 -0.06701666 -0.009860682
000190 7c 27 6e 3c 34 10 20 3c 70 63 10 bc ec b3 8e 3b
       0.014535781 0.009769488 -0.00881277 0.0043549445
0001a0 c5 89 99 3c 6a 4a 83 bc fe 91 cd ba a9 72 85 3c
       0.018742451 -0.016026694 -0.0015683768 0.016290026
0001b0 e8 98 71 bd f6 97 22 bd ec eb a3 bb e8 6a a9 bc
       -0.058983713 -0.039695702 -0.0050024893 -0.02068086
0001c0 54 78 2c b8 6b 7c 3c bc d5 4f 92 bc a4 b7 96 3a
       -4.112006e-05 -0.011504273 -0.017860333 0.0011498821
0001d0 17 57 0b bc 66 a3 82 bd 3f 75 92 bd 7c 71 c9 bd
       -0.008504651 -0.06378822 -0.07151269 -0.098360986
0001e0 03 8e 7f bd 61 b6 88 bd 05 3d bc bd 73 f0 68 bd
       -0.062391292 -0.06675411 -0.09191326 -0.056869935
0001f0 49 29 66 bd cb b4 a1 bd 71 0d 28 bd 66 f6 9e bc
       -0.056191716 -0.07895812 -0.041028444 -0.019404601
000200 96 f3 00 bc e7 83 32 bd 93 40 e3 3b e3 71 ae bc
       -0.007870575 -0.043582823 0.006935188 -0.02129454
000210 3c 3f 5f bc 4c f0 03 bc bd 16 3b bc 49 a2 8a bc
       -0.013625916 -0.008052897 -0.011418995 -0.016923087
000220 c0 11 12 bc c0 e0 14 bb 7d 99 e3 bc 2a 9d f1 bb
       -0.008915365 -0.002271697 -0.02778315 -0.0073734717
000230 0d 65 39 bc 97 0f 18 bd 6b ce 84 bd e8 54 87 bd
       -0.011315596 -0.037124243 -0.064846836 -0.066079915
000240 3d 73 fd bc cb 90 b3 3a 8f 98 e3 ba d7 ff a2 ba
       -0.030938739 0.0013699768 -0.0017364192 -0.0012435865
000250 a5 17 ba 3c 1f ec a1 3b 91 e0 bc 3c 92 33 e2 3c
       0.022716353 0.004941478 0.0230563 0.027612481
000260 eb f9 8f 3c cc 3d 75 bd 15 93 a0 bb a3 13 c2 3b
       0.017575225 -0.059873387 -0.004900346 0.005922751
000270 2b 46 76 bd 04 88 e6 39 c3 5b 25 3c 81 15 0c bd
       -0.06012551 0.00043970358 0.0100926785 -0.034200195
000280 dd 6a 2c bc b6 55 1f 3c 93 43 ab 3c c7 b3 10 3d
       -0.010523525 0.009725025 0.020906245 0.0353277
000290 7c fb 85 3c 31 74 3e 3d 5c 3c 82 3d 0f 15 43 3c
       0.016355269 0.046497528 0.06359169 0.011906876
0002a0 c8 fc 13 ba 65 45 5f 3d 04 ef 8b 3c 74 d5 d2 3c
       -0.00056452723 0.05450954 0.017081745 0.025736548
0002b0 96 e9 52 3c 27 ac 52 3b 75 b6 99 3c da 58 6a 3c
       0.012873074 0.0032146068 0.01876376 0.01430341
0002c0 20 04 22 bc 96 ad fb 3c 64 02 97 3c bf 8e 95 3c
       -0.009888679 0.03072242 0.018433757 0.018256543
0002d0 33 16 81 3c f7 13 2d 3d 5a d3 33 3d 34 77 e2 3c
       0.015757656 0.042255368 0.043902732 0.027644731
0002e0 31 41 d2 3c 68 8b 53 3d 03 69 d7 3c 2c cd 90 3c
       0.025665851 0.05164662 0.02629519 0.017675959
0002f0 29 7f 25 3c 18 dd 57 bd 00 f0 a2 bc e0 da 7b bd
       0.010101118 -0.052701086 -0.019889832 -0.061488032
000300 31 6b c7 bc b0 ea 96 bc 9c 6f a0 bc fd 98 09 bd
       -0.024343105 -0.018422455 -0.01958447 -0.033593167
000310 0e 72 1a bb 17 1d ec bb a3 95 22 bb 21 61 8b bc
       -0.0023566517 -0.007205616 -0.0024808429 -0.017014088
000320 58 9d 81 3b 82 ae 05 ba 8b e6 12 3c 33 ed 09 bc
       0.0039555244 -0.0005099551 0.008966099 -0.008418369
000330 f1 a4 8f 3c 0b aa d8 3c c5 d9 dc bc 6e 14 be 3c
       0.017534705 0.02644827 -0.02695931 0.023203101
000340 0e f2 99 3c 0e 42 40 bc 4c 0f 3e 3d e3 41 db 3c
       0.018792178 -0.011734499 0.046401307 0.026764816
000350 f5 a0 bd bc 0b 4a 37 3d ce f0 37 3d 3e ac 4c bc
       -0.02314804 0.044748347 0.044907384 -0.012492238
000360 b3 a0 91 ba fd 29 4a bb d9 80 e0 bb 92 0a 0c bc
       -0.0011110514 -0.003084778 -0.0068512973 -0.008547442
000370 80 e7 a0 3c f4 37 42 bc f1 e7 b6 bb 26 eb 07 3d
       0.019641638 -0.011854161 -0.005581849 0.03318324
000380 1f 9f 5e 3c 94 07 61 bd c8 f5 8f bb 93 cc 41 bd
       0.013587742 -0.054938868 -0.004393313 -0.047314238
000390 5e d6 3f bd 7f 7a 41 bc c9 7c 30 3c e3 53 18 bd
       -0.046835296 -0.0118089905 0.010771939 -0.037189376
0003a0 ce ba ee 3b 7d e6 3b 3d 9c 23 33 bc 5d cf 1e bb
       0.0072854524 0.045874108 -0.010933783 -0.0024232485
0003b0 c6 e2 12 3b f4 c5 a1 bc 60 44 9b bc 61 e9 ab bb
       0.0022413 -0.019747712 -0.018953502 -0.005246327
0003c0 c0 70 f5 bc 77 61 09 bc 7e a5 86 bc 67 13 1c bb
       -0.02996099 -0.008385054 -0.016436335 -0.0023815276
0003d0 c7 78 95 bc 50 24 dc bc 44 bd a8 bc 37 87 8b ba
       -0.018246068 -0.026872784 -0.020598061 -0.0010645156
0003e0 d5 f2 8b bb 34 8c c9 3a b7 da 2e 3c 7b d3 c8 3b
       -0.004270891 0.0015376867 0.010672263 0.006128726
0003f0 f8 c1 48 3c 2b 01 0f 3b 13 51 c5 bb 08 2f 38 3c
       0.012253277 0.0021820765 -0.0060216277 0.011241682

layer3.0.bias f4 [32]
000000 10 3c 4d bd 14 62 57 be 00 d6 94 bd e6 9e 6c bd
       -0.05010611 -0.21033508 -0.0726738 -0.057768725
000010 1e 1d be bd ba 0a dc bc e0 99 75 bd 7a 87 77 be
       -0.092828974 -0.026860584 -0.0599612 -0.24172774
000020 f8 00 96 bd 5e 51 45 bd a1 d4 82 bd f4 84 64 bd
       -0.073244035 -0.0481733 -0.06388212 -0.055790856
000030 8f 94 be bd 1d 6d 90 bd 21 f8 13 bd eb 57 56 be
       -0.09305679 -0.07052062 -0.036125306 -0.20931976
000040 01 5c 8f bd d5 a9 fe bc 1c 0d a6 bd dd fd 94 bd
       -0.0699997 -0.031086842 -0.08107969 -0.07274983
000050 af ed 1f be 51 f5 d2 bd c0 5e bb bd 78 5e 03 be
       -0.15618013 -0.10300697 -0.091489315 -0.12829006
000060 1f 7c e6 bd b3 4b 3f be 32 34 93 bc 1e 9b f1 bd
       -0.11254143 -0.1868122 -0.017969225 -0.117971644
000070 03 47 94 bd 5e 39 78 3c fb fd ab bd 91 a4 c1 bd
       -0.07240107 0.015150396 -0.08398052 -0.09455217

layer3.2.weight f4 [32]
000000 cc c2 fe 3f 0e 9c 02 40 11 21 f9 3f 18 2c f4 3f
       1.9903197 2.0407748 1.9463216 1.9075956
000010 b7 d1 f6 3f 29 f0 f9 3f 2e 21 01 40 c9 9a f7 3f
       1.928275 1.9526416 2.0176501 1.9344112
000020 ea 1c f4 3f 00 41 03 40 22 6e f7 3f d7 aa f1 3f
       1.9071324 2.0508423 1.9330485 1.8880261
000030 e1 25 f0 3f 1d 31 fb 3f a4 f3 f7 3f 14 12 f9 3f
       1.876156 1.9624363 1.9371228 1.9458642
000040 9c 87 07 40 00 cb f3 3f c3 a1 01 40 3b 5f f5 3f
       2.117652 1.9046326 2.0254982 1.9169687
000050 de 13 f6 3f 8a 82 05 40 f8 3f 00 40 3a ca f9 3f
       1.9224813 2.0860925 2.0039043 1.951484
000060 a3 95 fa 3f 98 0b 02 40 15 65 03 40 f7 81 f4 3f
       1.9576916 2.0319576 2.0530446 1.9102162
000070 10 fa f3 3f ec fe ff 3f e9 63 fc 3f 4c c8 fb 3f
       1.9060688 1.9999671 1.971799 1.9670501

layer3.2.bias f4 [32]
000000 ca 4d 64 37 da e4 22 3a 02 3c 86 ba 30 27 51 ba
       1.3607971e-05 0.0006213911 -0.0010241272 -0.00079785567
000010 ad 00 b3 ba 09 71 a8 ba e9 65 d2 3a 6c c4 b7 ba
       -0.0013656818 -0.001285107 0.00160521 -0.001402033
000020 12 53 ea 38 16 2a 1b b9 b5 5f aa ba a2 09 c8 b7
       0.000111734626 -0.0001479763 -0.0012998494 -2.3846344e-05
000030 52 3e 14 ba 7a 74 1d 3a 97 ad d4 ba 02 f1 0b bb
       -0.00056550384 0.0006006431 -0.001622605 -0.0021353369
000040 be 02 03 3a 5f 53 58 bb 9c 45 f6 b9 e9 bc be ba
       0.0004997662 -0.0033008677 -0.0004697264 -0.0014552149
000050 70 eb b0 ba 96 31 0d 3b ef de 4b 39 0b ef 81 ba
       -0.00134979 0.0021544448 0.00019442638 -0.0009913159
000060 52 57 b6 ba 18 1c 48 3a 15 b5 cb b8 c9 03 16 bb
       -0.0013911522 0.0007633581 -9.7135235e-05 -0.002289044
000070 be 6e 52 ba 9c aa 9a 38 59 ca a0 ba 4c 25 35 bb
       -0.0008027366 7.375071e-05 -0.0012267336 -0.002764064

layer3.2.running_mean f4 [32]
000000 13 0d 9f 3d 7b 19 bc 3d 9e ea d9 3d 51 e5 e9 3d
       0.077661656 0.091845475 0.10640453 0.11420692
000010 d3 d1 3b 3e fd 50 98 3e ed 23 a0 3d ff c8 0b 3e
       0.1834176 0.2974929 0.07819352 0.13650893
000020 94 e6 a9 3d e4 7d ec 3d 4d 76 e1 3d a5 b0 13 3e
       0.082959324 0.11547449 0.11008892 0.14422853
000030 5b 23 40 3e ed 1a dd 3d 64 53 3c 3e 57 4c 12 3e
       0.18763487 0.10796151 0.18391186 0.14286934
000040 44 16 95 3d 95 18 1b 3e 2b dc d3 3d 65 71 ea 3d
       0.072796375 0.15146096 0.10344728 0.114474095
000050 82 a4 04 3f 5c a1 91 3d 6e 1d ce 3d 8a 5f 59 3e
       0.5181352 0.07110855 0.10064207 0.21227852
000060 07 60 fd 3d a9 ce c0 3d d8 8f e5 3d 86 3d 40 3e
       0.123718314 0.09414417 0.11209077 0.1877347
000070 97 6b ad 3d 2c 7e 4f 3e f3 88 0b 3e 62 2e e8 3d
       0.08467787 0.20262975 0.1362646 0.11336972

layer3.2.running_var f4 [32]
000000 a5 c3 78 3d 35 a9 b9 3d 35 c6 cc 3d f6 ec 07 3e
       0.060733456 0.09065477 0.099987425 0.13273987
000010 18 9a 3f 3e 97 69 8f 3e 4b b6 7e 3d b2 83 4d 3e
       0.18711126 0.28010246 0.062185567 0.20069769
000020 e6 31 99 3d b8 18 f4 3d 09 9c da 3d 23 75 60 3e
       0.074802205 0.11918777 0.106742926 0.21919684
000030 43 03 84 3e ce fd d2 3d 56 4f ee 3d 45 96 61 3e
       0.25783738 0.10302316 0.11636226 0.2202998
000040 09 23 67 3d 04 df 77 3e 6b ec ee 3d d7 32 08 3e
       0.056429897 0.24206167 0.11666187 0.13300644
000050 c6 31 85 3f 48 41 5c 3d 14 6e e2 3d 6a bf 69 3e
       1.0405815 0.053773195 0.11056152 0.22826925
000060 36 23 2d 3e 23 d3 c2 3d c3 8f e9 3d c0 d0 39 3e
       0.16907963 0.095129274 0.114043735 0.18146038
000070 68 ad 9f 3d 66 a2 42 3e b1 79 51 3e 5b 7c 11 3e
       0.077967465 0.19007263 0.20456578 0.14207594

fc1.0.weight f4 [32, 800]
000000 67 e3 dd bc 24 70 48 bc b6 e4 e5 3c 0a 59 e1 3c
       -0.027085973 -0.012233768 0.02806316 0.027508277
000010 c8 c0 65 3c 48 b5 92 bc e0 e1 f2 bb 0e 83 a7 3c
       0.014023013 -0.017908707 -0.0074121803 0.020448234
000020 e0 9b c1 bc f6 fc 99 3c 00 35 31 39 44 f6 4a 3c
       -0.023633897 0.018797379 0.0001689978 0.012387816
000030 30 34 bf bc 8a 4f e1 3c c2 4e 21 bc 10 70 80 3b
       -0.023340315 0.027503747 -0.0098454375 0.003919609
000040 a6 01 85 bc f0 7a d9 3c 8c 06 7c 3c f6 40 76 bc
       -0.016236138 0.026547879 0.01538242 -0.015030136
000050 7c dd e0 bc f1 42 00 3d ca b7 0f bd 94 a0 c1 3c
       -0.027449362 0.03131384 -0.035087384 0.02363614
000060 02 9b f6 3c ea 9d 82 bc 72 f7 b2 3c 00 f9 37 bb
       0.03010321 -0.01594444 0.021846507 -0.0028072
000070 ac 55 6f 3c bc 27 0d bd f0 13 d4 3c ae 7d 64 bc
       0.014607828 -0.03446172 0.025888413 -0.01394598
000080 24 c6 f6 bc fa 75 f8 3c e8 68 da 3c 82 67 e1 3c
       -0.030123778 0.030329693 0.026661351 0.027515177
000090 fd 77 07 3d f1 c3 0e 3d 3e b1 86 bc d6 fc ec 3c
       0.033073414 0.034854833 -0.016441938 0.028929155
0000a0 90 95 a0 bc 50 cc fe bb d8 1a ed bc 1e 5b eb 3c
       -0.019602567 -0.007775821 -0.028943464 0.028729971
0000b0 70 34 f0 3b 78 a8 0d bd 0d 8a d2 bc 60 58 85 bc
       0.00733047 -0.034584492 -0.025700593 -0.016277492
0000c0 e4 19 38 bc 20 59 2d bb 16 d7 f4 3c fa cb e9 bc
       -0.011236642 -0.0026450828 0.029887717 -0.028539646
0000d0 a0 b5 f1 ba 0c a2 d1 bc 9c 35 a1 bc a0 10 57 bc
       -0.0018440969 -0.025589965 -0.019678883 -0.013126522
0000e0 de d6 e3 3c 48 2d 17 3c f8 23 d8 3b cc 79 b3 bc
       0.027812418 0.0092271045 0.0065960847 -0.021908663
0000f0 a1 a1 e0 bc db 17 02 3d 2d ff 07 3d 5c 08 dd bc
       -0.02742082 0.03176103 0.03320234 -0.026981525
000100 09 69 0c 3d 54 73 cf bb 38 27 6b 3c 20 56 5d bb
       0.034279857 -0.006330887 0.014352612 -0.0033773258
000110 fc c1 90 bb 50 4c 1d 3c 49 ec 05 3d d4 b8 84 bc
       -0.004417656 0.009600714 0.032696042 -0.016201414
000120 5c 40 b4 3c cc 5f c0 bc 98 4c 2a 3c 30 a0 ff 3b
       0.022003345 -0.02348318 0.010394238 0.0078010783
000130 2e e1 fe 3c 76 16 d6 3c f8 e7 00 bd d8 10 b5 3c
       0.031113233 0.026133757 -0.031471223 0.022102758
000140 fb 80 06 bd 0e 06 91 3c 06 28 ab 3c 80 08 76 3c
       -0.03283785 0.017703082 0.020893108 0.015016675
000150 66 1d cd 3c ca 0c 90 3c ac eb 7d 3c ea bb ed bc
       0.025038432 0.017584223 0.015498083 -0.029020268
000160 28 b3 9f 3c 60 e6 16 3c 48 c9 15 3c 26 d9 c8 3c
       0.019494608 0.009210199 0.0091422275 0.024517607
000170 c2 78 e2 bc 48 0e 4b 3c cc b6 ae bc 00 ec a5 b8
       -0.027645472 0.012393542 -0.021327399 -7.9117715e-05
000180 0c b3 1d bc d8 70 cd bb c4 95 20 3c fa 6a d5 bc
       -0.009625208 -0.0062695555 0.009801332 -0.026051987
000190 2e 86 fc 3c 09 45 07 3d ee a3 b9 3c 6c 28 d9 bc
       0.0308257 0.03302482 0.022661176 -0.026508532
0001a0 e8 ed c1 bb b7 7a 02 3d f0 c9 20 3b 12 07 c1 bc
       -0.005918253 0.03185531 0.0024534427 -0.023562942
0001b0 9e 3c 06 bc 2c e3 6a 3c 08 21 f0 bc 04 10 65 bc
       -0.008193163 0.014336389 -0.029312626 -0.013980869
0001c0 62 57 dd 3c c8 9f c9 3c b6 a2 08 bd a0 d0 87 3a
       0.027019206 0.024612322 -0.0333583 0.0010361858
0001d0 0d 42 03 bd f4 09 89 3c d4 00 9a 3c d6 fe e7 3c
       -0.032045413 0.016728379 0.018799223 0.028319757
0001e0 74 97 80 3c 6c d9 a5 bc c0 16 5f ba b2 43 ac bc
       0.015697218 -0.020245276 -0.0008510165 -0.021028373
0001f0 b0 92 21 bb 18 a4 4a 3c 0c e2 0e bd e0 37 db 3c
       -0.0024654083 0.012368225 -0.034883544 0.026760042
000200 9d 6b 8d bc 92 5f e6 bc b4 0e 44 bc c0 7d 09 bd
       -0.017263228 -0.028121743 -0.011966396 -0.03356719
000210 20 c0 e8 3a 16 6f 72 bc f2 0e e3 3c 00 03 68 b9
       0.0017757453 -0.014796993 0.027717087 -0.00022126362
000220 c6 81 81 bc e7 b2 90 bc c0 dd df 3b ea 6c 07 bd
       -0.015808951 -0.017663432 0.0068318546 -0.033062853
000230 54 7b 65 3c 8c f9 ae bc 84 16 8d bb 00 b8 56 39
       0.0140064545 -0.021359228 -0.0043056626 0.00020477176
000240 f6 bc 5b bc f4 82 f2 bb 90 a4 4e 3c 6d b4 0f 3d
       -0.013411751 -0.0074008647 0.012612477 0.035084177
000250 ec 82 b5 3c bb 8c 02 bd 74 44 bd 3c 28 3a c5 bc
       0.022157155 -0.031872492 0.02310393 -0.024075583
000260 80 de 3a bc 7e 0c 46 bc b0 ba 3f 3c ec 18 10 bd
       -0.011405587 -0.012087939 0.011702225 -0.035180017
000270 69 7a 0c 3d e6 64 9d 3c 76 b8 13 bc 14 ad 90 bc
       0.034296427 0.019213151 -0.009016147 -0.017660655
000280 19 6f 0e 3d 72 ec 98 3c d8 f1 c5 bc 0c 18 0d 3c
       0.03477392 0.018667433 -0.024163172 0.00861169
000290 2c b3 ce bc ca fc d0 3c 02 c7 11 bc 18 fc c0 bc
       -0.02523192 0.025511164 -0.008897545 -0.023557708
0002a0 c8 b2 e4 bb 7e 4e 9c 3c a8 50 99 3b 55 44 b8 bc
       -0.00697932 0.019080397 0.0046788044 -0.02249352
0002b0 4a a2 ef bc 24 c5 04 bc 8a 9c f7 bc c0 fd 75 3c
       -0.02925219 -0.008103643 -0.03022601 0.015014112
0002c0 1e 65 b5 3c 26 84 e8 3c 94 d9 1f bc 80 e5 6f bc
       0.022142943 0.028383326 -0.0097564645 -0.014642119
0002d0 54 6b 3e 3c de 6c ac bc 7a 72 f6 3c 76 1f ef 3c
       0.011622269 -0.021048006 0.030083884 0.029189806
0002e0 50 13 37 bb a8 6d bf bc 80 35 f7 3b 18 3d a1 3c
       -0.0027935095 -0.023367718 0.0075442195 0.019682452
0002f0 e8 1a c8 3b 2d 08 80 bc 04 a5 cc bc a0 89 bb ba
       0.006106723 -0.015628899 -0.02498103 -0.0014307983
000300 ae bd a7 3c a0 a5 8f bb 36 67 0a bc 7c 93 48 bc
       0.020476189 -0.0043837577 -0.008447459 -0.012242194
000310 80 9d 33 3c 74 69 5f 3c b0 5a 9e 3c ac ea 7e 3c
       0.010962844 0.013635982 0.019330353 0.01555888
000320 16 ad 6c bc 3e d5 aa bc 50 aa 27 bb 57 90 cc bc
       -0.014445564 -0.020853635 -0.0025583692 -0.02497117
000330 ee e0 de 3c 40 f4 8f bb b2 bf a5 bc fc 69 58 3c
       0.027206864 -0.0043931305 -0.020233009 0.013208862
000340 6c 65 6d 3c 40 22 6e 3a 6e c4 81 3c 81 4d 0b 3d
       0.014489513 0.0009084083 0.015840735 0.03400946
000350 6c be f3 bc 60 36 00 3c ec 25 a6 bb 7a ba e2 3c
       -0.029753886 0.007825464 -0.0050704386 0.02767681
000360 a2 5b 31 bc a9 47 04 3d e0 16 ab bc 96 8e f1 bc
       -0.01082507 0.032294903 -0.020884931 -0.029486936
000370 88 96 cf 3c e4 12 5e 3c f8 7f 51 bc 0a 71 03 bd
       0.025340334 0.013554309 -0.012786858 -0.032090224
000380 18 b0 3a bc 88 e8 ee bb ac 03 57 3c 2c b5 a9 3c
       -0.011394523 -0.0072909035 0.013123434 0.020716272
000390 58 e0 e7 bb 75 ab 02 3d 90 3f bb 3c 6c ac e9 bc
       -0.0070763044 0.031901795 0.022857457 -0.0285246
0003a0 27 c9 8f bc 74 a0 d5 bb 27 a2 0a 3d 77 57 88 bc
       -0.017551972 -0.0065193716 0.033846047 -0.016643269
0003b0 00 f0 e0 b8 66 27 f9 3c bc 11 95 bb 4a a5 e7 3c
       -0.00010725856 0.030414294 -0.0045492332 0.028277058
0003c0 b4 85 99 bb f8 13 ec bc af a2 9a bc c2 43 51 bc
       -0.004685128 -0.028818116 -0.018876402 -0.012772502
0003d0 ec 09 dc 3c 78 1d 90 3b 3c 20 1f 3c 02 74 c1 3c
       0.0268602 0.004398044 0.009712275 0.023614887
0003e0 62 0e 27 bc 39 15 c1 bc a9 41 05 3d 24 2c 27 bc
       -0.0101963 -0.02356969 0.03253332 -0.010203395
0003f0 40 ee f3 3a 74 d5 b2 bc 38 ba cb 3b 7c 6c fd bc
       0.0018610433 -0.021830298 0.0062172674 -0.030935518

fc1.0.bias f4 [32]
000000 b0 e5 c4 3b b4 c1 ab 3c 58 44 8c 3b 84 c6 e6 bc
       0.006008826 0.020966388 0.004280608 -0.028170832
000010 d6 67 bc bc c2 5a d1 3c ac d8 f0 bc 7c 22 84 3c
       -0.022998732 0.025555972 -0.029400192 0.016129725
000020 3b bd c4 bc 18 b3 ec bb 00 2d 50 bb ba 7d e2 3c
       -0.024016013 -0.007223498 -0.0031765103 0.027647842
000030 69 5d b7 bc 0e bf df bc 69 f1 9f bc dd 83 0e 3d
       -0.022383409 -0.027312782 -0.019524293 0.034793723
000040 00 d8 a8 3c 90 1f 5e bb 04 48 9a bb 70 af ba bc
       0.02061081 -0.0033893324 -0.004708292 -0.022788733
000050 fc 6e ba bb dc 09 63 3c 76 0f 2b bc 62 f2 e6 bc
       -0.0056895 0.013857331 -0.010440698 -0.028191749
000060 fc 2c e3 bb e8 f9 06 bd 48 d2 82 3c 55 1c 87 bc
       -0.006932853 -0.032953173 0.01596941 -0.016493002
000070 13 84 01 bd a4 2f ce bc 4c c7 d9 3c 1a 78 d1 3c
       -0.031620096 -0.025169201 0.02658429 0.025569964

fc2.0.weight f4 [64, 32]
000000 dc f1 3d 3d d7 e4 14 3e ed 7c 0a be c6 43 29 be
       0.046373233 0.1454042 -0.13524218 -0.1652976
000010 fa cd eb 3d 98 b0 2a bd 46 bc ca 3d 2f 13 95 bd
       0.11513896 -0.04167232 0.098991916 -0.072790496
000020 30 74 4b bc 6a 82 d1 bd c8 d1 3c bd 70 9e 21 be
       -0.012417838 -0.10229953 -0.0460985 -0.15783095
000030 4e ec d7 bd 61 f9 d2 bd 44 6b 11 be ae dc fd bd
       -0.105431184 -0.103014715 -0.14201075 -0.12395607
000040 d0 0e b3 bc fe cb bc 3d 8c 15 59 3d 55 4c d7 bd
       -0.02185765 0.09218596 0.052999064 -0.10512606
000050 9c 37 7a bd 6e a7 d3 3d 33 1e 09 3e 13 63 2b be
       -0.06108819 0.10334669 0.13390426 -0.16737013
000060 38 31 3f bd 60 b4 13 3d 10 63 ac bd 02 83 b9 3d
       -0.046677798 0.03606069 -0.08417332 0.09058191
000070 e4 03 17 3d 46 82 ba 3d ca a4 d7 3d a7 d6 24 be
       0.036868945 0.09106879 0.10529478 -0.16097508
000080 50 ef 1f be c9 ec 2c 3e 60 c6 ce 3c c0 0f 11 bc
       -0.15618634 0.16887201 0.025241077 -0.008853853
000090 30 0c 15 bd 60 b7 62 3d 3d a0 df bd 99 8a 0c 3e
       -0.036388576 0.05535066 -0.10919235 0.13724746
0000a0 35 cd 20 3e d6 36 96 3d 0d 57 23 3e 7c 11 8e bd
       0.1570328 0.07334678 0.15951176 -0.06936929
0000b0 e0 9a ac bc 88 13 f5 bd 03 3b 1c 3e c0 63 28 3d
       -0.021069944 -0.11966616 0.15256886 0.041110754
0000c0 e0 ed ce 3c 9c e5 41 bd ed e3 a1 bd 80 33 f5 ba
       0.025259912 -0.047338113 -0.079048015 -0.0018707365
0000d0 0b 2a dc bd fc 71 07 be 40 89 ec bb 64 79 22 be
       -0.107502066 -0.13227075 -0.00721851 -0.1586662
0000e0 50 11 0b 3c 60 4d 02 be 72 39 09 be a2 cb ed 3d
       0.008488014 -0.12724829 -0.1340082 0.116111055
0000f0 da 16 d6 3d d6 b2 ed 3d 8d 50 03 3e 0b 53 0d 3e
       0.10453577 0.11606376 0.12823696 0.1380121
000100 ee a9 be 3d 60 74 e7 3c 4f 34 9d bd 63 a7 19 3e
       0.09309755 0.028253734 -0.07675993 0.15005259
000110 63 62 23 be 34 2f 35 3d 49 da c2 bd b8 a2 c5 bc
       -0.159555 0.04423447 -0.09514291 -0.024125442
000120 82 70 e6 3d ad 17 b9 bd 9c b8 23 bd d4 9b 4d bd
       0.11251928 -0.09037719 -0.03997098 -0.050197437
000130 b8 f7 69 3d 3c 58 21 be 5e c5 fd 3d da e7 2a be
       0.05712101 -0.15756315 0.123911604 -0.16690007
000140 70 aa cf bc 06 79 b6 3d 5a 0a 69 bd 42 7a cb 3d
       -0.025349826 0.08909802 -0.056894638 0.09935428
000150 d8 31 dc bd 6f b7 1d 3e 6e b1 9a 3d 18 b5 a7 bd
       -0.107516944 0.15402006 0.07553373 -0.08188838
000160 96 cc a7 3d b6 1b 6f bd d6 07 ed bd c9 28 21 3e
       0.081933185 -0.058376037 -0.1157376 0.15738215
000170 c2 76 bb 3d 2a 22 f2 3d f8 9d 74 3d ef eb 28 3e
       0.09153511 0.118229225 0.059720963 0.16496252
000180 f0 ce b8 bc 74 cc 37 3d 4b 80 20 3e e0 87 9a 3c
       -0.022559613 0.044872716 0.1567394 0.018863618
000190 6b 21 d5 bd 24 cc 06 bd 9a 5d a1 3d 2c 46 8b 3d
       -0.104067646 -0.032909527 0.07879181 0.068004936
0001a0 5b 05 19 3e c0 fb 75 bb 3a 62 e9 3d 1f 9f b3 bd
       0.14943449 -0.0037534088 0.11395688 -0.08770584
0001b0 1e 24 a9 3d 27 99 89 bd 79 90 d2 bd 53 18 09 3e
       0.08258842 -0.067186646 -0.10281462 0.13388185
0001c0 25 dd 02 3e 00 9c 5f bc 52 91 8d 3d a8 0f e5 3c
       0.12779672 -0.013648033 0.06912483 0.027961567
0001d0 a4 c5 35 3d a7 96 e6 bd 65 6e a0 bd b5 b1 2a 3e
       0.044377938 -0.112592034 -0.07833556 0.16669352
0001e0 56 2d eb bd 97 38 22 be 00 f9 e0 bb c9 b8 8d bd
       -0.114832565 -0.158419 -0.0068656206 -0.069200106
0001f0 19 78 93 bd 20 05 99 3b 50 b0 fe bc 95 28 22 3e
       -0.07200641 0.0046698004 -0.031089932 0.15835793
000200 7d 40 21 be af 62 ab bd 68 25 83 3d 75 0a 1a 3e
       -0.15747257 -0.08368432 0.06403619 0.15043052
000210 94 15 2b be 06 f2 e7 3d 5c ec 08 3d 02 40 a7 3d
       -0.1670745 0.11325459 0.033428535 0.081665054
000220 41 86 17 3e b8 7f 90 3c 2a ec e0 3d a8 8f 31 be
       0.14797308 0.017639026 0.10982545 -0.17339957
000230 5c 4b a7 bd d9 16 b7 bd 00 94 ee bb 98 c5 f9 bc
       -0.081686705 -0.08939905 -0.0072808266 -0.030489728
000240 12 89 d2 3d a5 21 23 be 80 37 2e 3d 08 cd c3 bd
       0.1028005 -0.15930803 0.042533398 -0.09560591
000250 b8 e2 8d 3d 30 c2 0b 3d 5e 08 f6 bd 8e e0 9b 3d
       0.06928009 0.03412074 -0.12013315 0.0761119
000260 f6 e7 ed 3d 7e 34 7f bd 20 83 91 bb b5 5d 34 3e
       0.11616509 -0.06230592 -0.00444068 0.17613871
000270 b7 ff 1a be 1a 63 9e 3d 42 8e b4 3d 40 aa 86 3c
       -0.1513661 0.07733746 0.08816196 0.016438603
000280 a0 58 fc 3c 3f 38 08 be db 50 a8 bd b1 0a 2c 3e
       0.030803978 -0.13302706 -0.08218547 0.16800953
000290 f0 6e d7 3c c9 f2 20 be e0 db 11 bd f0 d7 5c bc
       0.026298016 -0.15717615 -0.03561008 -0.013479218
0002a0 f6 57 d4 bd b5 ec 84 bd dc 15 51 bd e3 36 02 be
       -0.1036834 -0.06490461 -0.051046237 -0.1271625
0002b0 79 fd 05 3e 20 d1 fc bc 70 03 b2 3c 63 8b 1a be
       0.13084973 -0.030861437 0.021730155 -0.15092234
0002c0 05 af 0f 3e 8a bc da 3d d7 80 2f 3e 10 96 60 3c
       0.14031608 0.10680492 0.17138992 0.013707653
0002d0 b1 12 a7 bd 80 30 8f 3d b2 72 0d be 9f 68 19 be
       -0.08157862 0.069916725 -0.13813284 -0.14981316
0002e0 7c 20 23 be b6 2f 17 be 5f ba 14 3e ef a1 01 be
       -0.1593036 -0.14764294 0.1452422 -0.12659429
0002f0 99 b6 25 3e d5 36 33 be 50 18 3c bd 22 3b 11 be
       0.16182937 -0.17501386 -0.045921624 -0.14182714
000300 2a e0 ae 3d 4b 91 02 3e 0c e2 8e 3d 70 92 d5 3c
       0.0853885 0.12750737 0.06976709 0.026070803
000310 d0 04 29 bd da e4 e4 3d 42 6e 22 be 90 0d 65 bc
       -0.041264355 0.111764625 -0.15862373 -0.013980284
000320 4f 52 23 3e 72 eb f2 3d f3 4a 14 3e 29 7f 0c 3e
       0.15949367 0.11861314 0.14481716 0.13720383
000330 4b 89 8e bd 58 86 b8 bd a4 e0 13 bd df c8 98 bd
       -0.0695978 -0.09009999 -0.036102906 -0.07460188
000340 1a 48 b1 bd e8 5e 75 3d 52 b6 b5 3d 68 9d e4 3c
       -0.086563304 0.059904963 0.088726655 0.027907088
000350 f4 10 1e 3d 4c 61 5a 3d e8 2c 88 3c c1 09 0e 3e
       0.038590387 0.053315446 0.016622975 0.13870908
000360 0c 49 0c bd 8a eb fc 3d 5e 00 8a bd 48 ac e3 3c
       -0.03424935 0.12349613 -0.06738351 0.027792111
000370 f8 cb 1e 3d 3a 52 b5 3d 50 98 5b bc 85 bb a1 bd
       0.03876874 0.08853574 -0.013403013 -0.07897095
000380 08 77 95 3d db 44 09 3e 43 84 0c be a9 dd 1f be
       0.07298094 0.13405173 -0.13722329 -0.156119
000390 83 4d 0c 3e e0 6b 1c bc 66 1e 7a bd a2 ab 32 be
       0.13701443 -0.009547204 -0.061064146 -0.17448285
0003a0 9d 49 23 3e cd 20 d7 bd ab 7d 34 3e 56 5d c5 3d
       0.1594605 -0.10504303 0.17626064 0.09636943
0003b0 37 e1 ce bd b8 6f 37 3d 2a a1 19 be 8b dd 1d 3e
       -0.1010155 0.044784278 -0.15002885 0.15416543
0003c0 e0 9b d0 bc ca 2c ea 3d c9 35 30 3e 36 a9 cf 3d
       -0.025464952 0.11434324 0.17208017 0.10139696
0003d0 af 11 ba bd b4 a6 02 3d e6 11 93 3d 8c d6 6b 3d
       -0.09085404 0.03189726 0.07181148 0.057577655
0003e0 12 6b 34 be 5b bf 26 3e a6 ab a0 3d 08 27 01 bd
       -0.17618969 0.16283934 0.07845239 -0.031531364
0003f0 5e 8e e6 bd c7 34 1c be 58 7f 43 bd d0 f3 31 bd
       -0.11257623 -0.15254508 -0.047728866 -0.04344541

fc2.0.bias f4 [64]
000000 60 bb 56 bc 9d 31 0f 3e 88 4d e8 3c d2 b1 0f be
       -0.013106197 0.1398377 0.028357282 -0.14032677
000010 85 ce 1c 3e 96 68 8f bd 9b 0d c3 bd 16 1e 04 be
       0.15313156 -0.0700237 -0.095240794 -0.12902102
000020 0c 6b 2d be 57 55 2f 3e a2 62 2f be 4a 5c bd 3d
       -0.16935366 0.17122398 -0.17127469 0.09246118
000030 b4 7b 34 3d e0 d3 fc bc b6 c4 90 3d 15 ba 19 3e
       0.044063285 -0.030862749 0.0706877 0.15012391
000040 b2 96 ff 3d 8b a9 aa bd c8 71 e8 3c 3f 7c b0 bd
       0.12479915 -0.08333119 0.028374568 -0.08617448
000050 9b cf 29 be 41 1f 27 3e 79 d4 df bd ec 0b 80 3d
       -0.16583101 0.16320516 -0.10929198 0.06252274
000060 93 11 03 3e a0 bc 88 bb 92 83 9e 3d 80 fa d7 bc
       0.12799673 -0.0041728765 0.07739939 -0.026364565
000070 02 93 cd bd 73 78 18 be 70 64 16 be 51 f8 1e be
       -0.10037805 -0.14889698 -0.14686751 -0.15524413
000080 8e 26 ac 3d 90 9a 6a 3d 7c e8 fa bd 50 99 20 3c
       0.08405791 0.05727631 -0.12251374 0.009802178
000090 e0 d9 bf bb 1d 45 d8 bd 90 84 01 3c 26 09 8d bd
       -0.00585483 -0.10560057 0.0079051405 -0.068865106
0000a0 69 3c 05 3e fd d1 08 be 57 e7 1a 3e 3a 8d 90 bd
       0.13011326 -0.13361354 0.15127312 -0.07058187
0000b0 d9 20 1e be b6 91 a0 3d 04 20 9e bd 23 b3 1a 3e
       -0.15442218 0.07840292 -0.0772095 0.15107398
0000c0 d9 95 23 be 20 db d8 3c 50 c5 68 3c 3a c2 5c bd
       -0.15975131 0.026471674 0.014207199 -0.053896166
0000d0 c4 72 1d be 38 d7 eb 3c 63 59 06 3e 34 64 32 be
       -0.15375811 0.028789148 0.13120036 -0.17421037
0000e0 b2 83 fa 3d e4 6b 1e 3d 77 af 9d bd f0 b1 44 bc
       0.1223215 0.03867711 -0.07699483 -0.012005314
0000f0 17 e5 18 be 12 2b cf 3d d4 33 af bd c0 b7 db bb
       -0.14931141 0.10115637 -0.08554807 -0.0067052543
