FAST 3D-CNN P-NET/model/ZGFF/ZGFF_proto_2d-5shotband25.pth (torch, 514541 bytes, 24 tensors)

layer1.0.weight f4 [64, 25, 3, 3]
00000000: 3e21 a83b af8a 6f3d 3aec 6c3d fb98 42bd
00000010: 1cc0 fc3c 216e 783d dd0b 3cbc cf52 5abd
00000020: 246d 8dbd ffcc 8abd 898c b3bc be3e 82bc
00000030: 433d ed3c 0c52 3f3d c9db e4bc 5a30 e1bc
00000040: 2cb3 a03d c362 023d 5f23 63bd 2826 09bd
00000050: b917 053c 4a4d 64bd 56e4 063c dfd8 743c
00000060: 6545 c5bc 52ef f23c b87d db3d fa9d 95bd
00000070: 23c7 b8bb f70b e7bc 8985 a33d d39e 873d
00000080: 434a 7b3d 9c8b 843d ced7 c53d e52c 7d3b
00000090: 1603 113c a4c9 983b 16c2 5bbd 5a9f 43bd
000000a0: 9d7f d73c 728f 253d b489 9ebc 4e80 de3c
000000b0: b395 61bd 9702 5dbd cfc1 323d 3735 9bbd
000000c0: a953 423d 0f34 433d 72f5 843c a175 8b3c
000000d0: 76e2 e93c ade1 0bbc 2e9f 063d 140f 7e3b
000000e0: a1c7 1c3d ddbd afbc 3cf4 99bd 70d1 05bd
000000f0: 5a6c 563d afce f0bb 4b06 99bc d878 05bd
00000100: fe00 fa3c f6f8 15bd 735c ec3b 99e3 d9bc
00000110: e1b2 efbb f182 27bd 418c d53c 3345 48bc
00000120: c3ac 0b3d 9ccd 6a3c 5bc3 8ebd 8864 a03c
00000130: 604e ad3d e06f 6dbd 9991 b13d 9c26 b5bc
00000140: 206f 833d 0269 be3c 0786 32bd 662a efbc
00000150: 57cc 66bd de94 d23b a132 233d 5dde 433d
00000160: 5523 ac3c bff6 153d 8388 c43c d9ff 12bd
00000170: 57c5 893c 4d0d 523b d2d4 0bbd 8223 273c
00000180: 7279 f4bc 5f52 773c d9d3 3a3d 4a2f e73a
00000190: 5452 70bd e2a3 1ebd ed4e a8ba 7ff9 61bd
000001a0: 1cc4 91bb 9c0c 243d 2c84 31bd 2084 08bd
000001b0: 40be b2bb 9bee 45bb 4f4e 053d 767f f1bc
000001c0: 586d 8c3d 1c88 34ba eae9 da3c fe26 aa3d
000001d0: 9c0a 8b3d f1dc 1dbd 075d 0dbb 1ae2 b3bc
000001e0: 0e93 35bb 6c96 86bb 8351 6fbd 9808 43bd
000001f0: ecf3 dfbc 4f0b f0bc 66fc 39bb 5317 98bd
00000200: 23f2 e13c b824 9f3d 48ab dfbc e419 8dbc
00000210: 4ffb 1d3d 23d2 fd3c 44c7 2bbc 34b1 bbbc
00000220: bc77 9dbc 64be 9f3c 1427 95bd c743 883d
00000230: 8f7d 1e3c c5fa 933d 8c16 3ebd 88f6 d4bc
00000240: d56a 44bd 2df2 9d3c 72de 8ebd 3b18 57bd
00000250: 21a0 47ba 7113 6fbb bc53 0c3d cf3e aabc
00000260: c5b3 2ebd 5195 ac3c a8e3 573d c080 893c
00000270: 5af4 983d 84a4 f13b 6a01 a23c beb3 9a3c
00000280: 2759 19bd 6c0c fa3c 8f22 e63c 3445 393d
00000290: 61c3 adbc a7b9 4fbc c4fb a23c c2bf 463d
000002a0: ceff f53c e26d 3fbd e626 a33c f9e2 94b9
000002b0: 8cce 853c f3e2 66bd cef5 b23c d5c3 1d3d
000002c0: add9 653c 5fb1 c13b 685b 8fbb ad08 cfbd
000002d0: 92dd 1d3d a319 13bd 02fd 67bd 0db4 bc3c
000002e0: 5aa3 7bbd 3ccf d13c dc9c 513d 081c 503b
000002f0: 1a71 063d d49f f23b 8d33 8d3d 3985 1d3d
00000300: c8e3 6bbd c4bc 133c 7a7f 5b3d 164c 8ebb
00000310: ee92 2dbd 5f29 08bc 8649 62bc f6db 57bd
00000320: 469d 763d ce35 b73c 539a 79bb ec96 6d3d
00000330: 1689 86bd 7ff9 5bbd bcb6 2e3d e71e a5bc
00000340: 107d 083d 0edd c6bc b782 583d 7fdc 0cbc
00000350: 086c bb3a 0abe 2f3d 55ca 3dbc b76c ebbc
00000360: a6c9 8dbd e057 7fbd 789c 21bd c040 4a3d
00000370: de84 f43c 2231 a33c 74f9 a839 b543 b63b
00000380: 5057 aa3b 5048 693d c0fe 9b3c aef9 423d
00000390: 99db 20bb 5393 24bd cccc 37bd 1cf7 fc3c
000003a0: b1bd 173d 335c 57bd 0b1f 573c 562c 063a
000003b0: 5628 babc 8b8d 4abd 1306 023d 3c11 05bd
000003c0: 6afd 573d 381d b93d 579f a73d 90cf 8f3c
000003d0: 4f10 02bd a011 953a bb24 7cbd 87a3 5b3d
000003e0: acdb 64bd 69f8 f3bb 9dbf 453d 7023 19bd
000003f0: e444 ac3c 36a2 8fbc e68c eabc 27f4 abbd
0.005130916 0.05848187 0.05784247 -0.047509175 0.030853324 0.060651902 -0.011477438 -0.05330163
-0.069055825 -0.06777381 -0.021917598 -0.015899058 0.028959876 0.046709105 -0.027936833 -0.027488876
0.07846674 0.031832468 -0.055453654 -0.033483654 0.008123332 -0.05573777 0.0082331505 0.014944284
-0.024080941 0.029655132 0.10717338 -0.07305522 -0.0056389733 -0.028203947 0.07984454 0.0662209
0.06135012 0.06471941 0.09660302 0.0038631496 0.008850833 0.0046627093 -0.05365189 -0.04775939
0.026305968 0.040420003 -0.019352771 0.02716079 -0.055074405 -0.053957548 0.04364186 -0.07578509
0.047443066 0.04765707 0.016230319 0.017023863 0.028550368 -0.008537692 0.03286665 0.0038766311
0.03827632 -0.021452839 -0.07517287 -0.03267044 0.052349426 -0.0073488574 -0.018679759 -0.03258595
0.030518051 -0.03661438 0.0072131692 -0.026597785 -0.007315025 -0.04089636 0.026067855 -0.01222353
0.034100305 0.014331248 -0.06970855 0.019579187 0.084622145 -0.05796802 0.08670349 -0.022113137
0.0641768 0.023243431 -0.04358485 -0.029195022 -0.056347217 0.0064264378 0.039843205 0.047819484
0.021012941 0.03661227 0.023990875 -0.035888527 0.016817732 0.0032051385 -0.03413851 0.010201337
-0.029843066 0.015095322 0.04561219 0.0017637995 -0.058672264 -0.03873051 -0.0012840905 -0.05516958
-0.004448427 0.040051088 -0.04333894 -0.03332913 -0.0054548085 -0.0030202034 0.032545384 -0.029479723
0.06856793 -0.0006886737 0.026722867 0.083082184 0.06789133 -0.038540784 -0.0021570341 -0.0219584
-0.002770606 -0.004107287 -0.058427345 -0.047615618 -0.02733799 -0.029302267 -0.00283792 -0.07426324
0.02758128 0.077706754 -0.027303353 -0.01722426 0.038569745 0.03098399 -0.01048452 -0.022911645
-0.019222133 0.019499965 -0.07282844 0.066535525 0.00967349 0.07225565 -0.04640822 -0.025996462
-0.047953445 0.019280517 -0.06976022 -0.052513342 -0.00076151086 -0.0036480094 0.034259543 -0.020781903
-0.04265191 0.021067293 0.052707344 0.016785026 0.07468481 0.007374348 0.019776065 0.018884536
-0.037438538 0.030523501 0.02809265 0.045232013 -0.021211328 -0.01267854 0.019895442 0.04852272
0.030029204 -0.04673565 0.01991601 -0.00028397868 0.01633384 -0.05636878 0.021845724 0.038516838
0.014028949 0.005911037 -0.00437491 -0.10109077 0.038541384 -0.03591312 -0.05663777 0.023035074
-0.06143508 0.025611512 0.051174983 0.003175499 0.032822706 0.007404307 0.06894598 0.03845713
-0.057590276 0.009017173 0.053588368 -0.0043425662 -0.04237645 -0.008310645 -0.013811475 -0.052700005
0.06020858 0.022364523 -0.003808637 0.05800526 -0.06569116 -0.053704735 0.042654738 -0.020156337
0.033322394 -0.024275329 0.052859034 -0.008597492 0.0014299164 0.042905845 -0.011583884 -0.028738363
-0.06923227 -0.062339664 -0.03945586 0.049378157 0.029848512 0.01992089 0.00032229314 0.0055622705
0.0051983967 0.05695373 0.019042373 0.047601394 -0.0024544953 -0.04017956 -0.044873044 0.03087955
0.03704614 -0.052578162 0.01312996 0.0005118301 -0.022724312 -0.049451392 0.031744074 -0.03248714
0.05273191 0.09038776 0.081846885 0.017555028 -0.031753834 0.001137305 -0.061558466 0.05362275
-0.055873558 -0.0074453843 0.04827844 -0.03738731 0.021028943 -0.017533403 -0.028631639 -0.08396178

layer1.0.bias f4 [64]
00000000: a5ba 4a3f 5dd5 4e3f 7be8 593f e489 483f
00000010: 845b 583f b84a 4c3f 0162 533f 6b35 463f
00000020: 6730 273f e3ad 553f 6ec1 593f 3157 3f3f
00000030: becd 5d3f 16d1 343f a959 463f 95e1 543f
00000040: 409a 423f fcc8 553f 47fd 673f 6959 553f
00000050: 784e 3e3f 9754 6c3f 8827 613f 2799 3a3f
00000060: 994e 503f d8d6 603f 4dca 423f ad80 5f3f
00000070: b2b4 573f ad9b 4c3f da1c 5b3f e202 323f
00000080: 6779 4d3f 991d 4d3f 79bc 183f 32ca 2d3f
00000090: 62b0 2b3f f1c1 473f ea8f 323f 772d 4e3f
000000a0: 60b0 4b3f 6178 573f c74c 3c3f 46de 163f
000000b0: 0dd5 443f ea1b 543f 0afe 363f cddc 4b3f
000000c0: 5080 3e3f e7fe 4b3f 8ade 483f fb6c 373f
000000d0: a8fd 5f3f c3c6 583f d40a 4a3f 26a5 283f
000000e0: b60d 4d3f a148 4c3f 15cd 583f bb19 5d3f
000000f0: e0a4 293f f18c 5f3f 3de7 3d3f 36e8 383f
0.79191047 0.80794317 0.8512036 0.78335404 0.8451464 0.7980151 0.8257142 0.7742526
0.6530823 0.83468455 0.85060775 0.7474242 0.8664206 0.7063154 0.7748056 0.8315671
0.76016617 0.835098 0.90620846 0.83339554 0.74338484 0.92316574 0.87950945 0.7288994
0.8136993 0.87827826 0.76089936 0.8730572 0.84260094 0.7992504 0.855909 0.6953565
0.8026337 0.8012329 0.59662586 0.6788665 0.67066014 0.78030306 0.69750845 0.80538124
0.79566 0.8416806 0.7355465 0.5893291 0.7688759 0.82855093 0.7148138 0.7963379
0.7441454 0.79685825 0.7846457 0.71650666 0.87496424 0.84678286 0.7892277 0.65876997
0.80099046 0.7979832 0.8468793 0.86367387 0.66267204 0.87324435 0.74180967 0.72229326

layer1.1.weight f4 [64]
00000000: 5331 7d3f 3c58 813f 66ee 793f 85d3 803f
00000010: 3ae7 7a3f e201 813f f279 813f b4bd 803f
00000020: 71fc 7a3f b282 7e3f 2d8e 7d3f 4202 823f
00000030: 6ee1 7d3f 117b 843f 839f 783f 92be 803f
00000040: 5d99 7a3f ca6a 823f c045 833f 08da 783f
00000050: b82a 803f a375 813f 9d89 833f cb19 763f
00000060: e01d 7f3f c461 7e3f 50de 7d3f f184 823f
00000070: b56d 7b3f 73b9 813f 849e 7a3f 3352 7f3f
00000080: 8d93 833f 4e2d 7c3f 90fb 863f e851 823f
00000090: fb8e 7b3f cb9b 7e3f 8dab 773f 4b65 7e3f
000000a0: fcea 793f 03f0 7d3f a1b8 793f f179 773f
000000b0: ee29 7a3f 77fe 833f a0c4 7c3f 78bd 7a3f
000000c0: 4166 843f f395 7f3f b178 853f 6262 7b3f
000000d0: 1af7 7a3f 367a 803f 21da 7e3f 8729 793f
000000e0: 811e 853f 9099 7c3f fffe 7d3f 6897 7b3f
000000f0: b5f4 7c3f 4a00 7f3f bbbd 7f3f f33b 823f
0.9890339 1.0105052 0.9762939 1.0064551 0.98009074 1.00787 1.011534 1.0057893
0.98041445 0.99418175 0.9904507 1.0156939 0.99172103 1.0350057 0.97118396 1.0058157
0.97890264 1.018884 1.0255661 0.9720769 1.0013037 1.0114025 1.0276371 0.96133107
0.9965496 0.9936793 0.99167347 1.019682 0.98214275 1.013472 0.97898126 0.997348
1.0279404 0.9850663 1.0545521 1.0181246 0.98265046 0.9945647 0.9674614 0.9937331
0.9762418 0.99194354 0.97547346 0.9667044 0.9772023 1.0312032 0.98737526 0.97945356
1.0343705 0.9983818 1.0427457 0.98196995 0.980333 1.0037296 0.9955159 0.9732899
1.0399934 0.9867182 0.9921722 0.982779 0.98810893 0.99609816 0.9989888 1.0174545

layer1.1.bias f4 [64]
00000000: a59f 1ebd 3134 f6bc 185a 1d3a c70e 983c
00000010: 259f 6dbd 6025 46bd cd22 723c a6a2 063c
00000020: 9b0f ba3c e397 d2bc 6982 bfb9 9835 bfbc
00000030: b5f7 513c c222 5dbd 5143 d8bc b436 d1bc
00000040: 657a e13c 2e10 eabc c9da 0dbd 475b 1cbd
00000050: 68a7 b1bd 3207 cabc 9755 68bd 0ddc cfbb
00000060: 756d f9bc 1ee9 0a3c b5cf c7bd 0a3a 46bd
00000070: d52d c03c 8e6d 1bbd a356 25bd 55b0 20ba
00000080: 0ec8 483c 11a3 b1bb d075 3bbd 21e3 29bd
00000090: 5abd 3bbd 3213 18bc 4b49 06bd 7ae7 6e3d
000000a0: 5930 d03c c01a 35bd f7d7 243c 8e31 8c3a
000000b0: 3af1 c5bc ce9b b0bc c8ed 4abd 4be7 0139
000000c0: 8e59 63bd f30c 8cbc 80e0 08bd 3441 4c3b
000000d0: d21f 2dbd 9100 253c 69c5 fe3b 8fc3 a03c
000000e0: e15e 8b3c 6dbe 203d 5bb3 8d3c 37e5 503c
000000f0: 01db 35bd d860 68bd 153f 483c 70f3 18bd
-0.038726468 -0.030054184 0.00060025 0.018561734 -0.0580131 -0.048375487 0.014778805 0.008217489
0.02271252 -0.02570719 -0.00036527522 -0.023340985 0.012815406 -0.053988226 -0.026399286 -0.02553878
0.027524183 -0.028572168 -0.034632478 -0.038172986 -0.08674508 -0.024661634 -0.05672225 -0.006343371
-0.030447701 0.008478431 -0.09756414 -0.048395194 0.023459354 -0.037946276 -0.040365826 -0.0006129791
0.012254728 -0.0054210504 -0.04576665 -0.041476373 -0.045834877 -0.00928192 -0.03278474 0.058326222
0.025413679 -0.044214964 0.010061256 0.0010695921 -0.024162877 -0.021558668 -0.049543172 0.00012388562
-0.055505328 -0.017096018 -0.033417225 0.0031166794 -0.042266674 0.010070936 0.007774998 0.0196245
0.017013015 0.039244104 0.017297437 0.012749962 -0.04439831 -0.056732982 0.012222071 -0.037341535

layer1.1.running_mean f4 [64]
00000000: 4469 5f3f a3c9 513f 857b 6b3f c2cf 383f
00000010: b4c7 383f bf60 103f 8aec 463f ff62 2f3f
00000020: a1b6 713f 0335 683f ce3e 6a3f 69f4 203f
00000030: 67bb 6e3f 7056 b13e 9426 2d3f 5078 623f
00000040: 7645 843f 773e 423f dd8d 5b3f 5bbe 523f
00000050: aaab 3b3f b9e5 783f 0a36 4c3f 41c7 803f
00000060: 4575 4e3f 1574 603f 2157 f43e f868 633f
00000070: 5131 4b3f b6bd 363f cf4f 8b3f 632a 473f
00000080: abd1 443f f3e1 443f 95ba 023e 722c c13e
00000090: 3f18 633f c824 203f 217a 863f a615 603f
000000a0: e4c6 5d3f 1092 4e3f 06c4 453f 7823 823f
000000b0: f6db 3a3f d7b5 333f 76c6 aa3e 1ca3 903f
000000c0: 010d e43e 8368 543f 72d6 0b3f f94c 903f
000000d0: 8a92 3e3f 5786 483f 112f 603f 0396 6b3f
000000e0: 37e7 373f 2350 5e3f 605e 5c3f 392e 6f3f
000000f0: 5bcc 723e 1953 5e3f f6e9 233f 0046 023f
0.8727 0.819483 0.9198535 0.72192013 0.7217972 0.5639762 0.7770468 0.6851043
0.94419295 0.9070589 0.9150208 0.6287294 0.93254703 0.3463626 0.6763699 0.8846483
1.0333698 0.75876564 0.8576334 0.8232171 0.73308814 0.9722553 0.7976996 1.0060807
0.8064769 0.8767713 0.47722724 0.88832045 0.79372126 0.71383226 1.0883731 0.7779905
0.7688243 0.7690727 0.12766488 0.37729222 0.8870887 0.62556124 1.0506021 0.8753303
0.8663161 0.80691624 0.77252233 1.0167074 0.72991884 0.7019934 0.3335454 1.1299777
0.4454117 0.8297197 0.5462409 1.127349 0.7444235 0.78329986 0.8757182 0.92025775
0.7183718 0.8684103 0.86081505 0.93429905 0.23710768 0.86845547 0.6402887 0.5088806

layer1.1.running_var f4 [64]
00000000: dbcb 403f e286 b03e 8750 293f a067 873e
00000010: a4f6 143f 6d7c 3b3f ad9f 5c3e 2492 c43e
00000020: c2ba d93f 1da6 b13e 6824 dc3e a756 d23e
00000030: 232d 883e 41e5 5840 13cb e83e c3a5 9a3e
00000040: 2448 b53f 695c a13e 1468 603e 34a8 e23e
00000050: b4eb 123f e71b d43e ccb6 a93e 9033 0a40
00000060: 4a5a 073f 271d 633e 3bd4 a43f 6ee0 d53e
00000070: c880 9d3e fb8c 643e eea2 353f 6418 753f
00000080: 16eb 493e 0906 263e 7591 db40 f37e 9f40
00000090: 79ba 2340 dea1 ef3e cf4b fe3f 42c3 623e
000000a0: 92b6 ef3e 1a75 293e a4ec 563f dd48 8540
000000b0: 3608 3d3e aed6 083f b367 1e40 5862 ae3f
000000c0: 5e35 f33f 5e07 193e 0d91 933f 2677 6840
000000d0: a1bd ba3e 7603 693e c8f1 c13e fbbd 3c40
000000e0: 3dda 093f 3146 7d3e ef78 473e a4c6 b13e
000000f0: 4341 0540 17bc db3e cb01 c23e 9a51 1b40
0.7531106 0.34477907 0.661385 0.26446247 0.58188844 0.73236734 0.21545286 0.38392746
1.7010119 0.34697047 0.42996526 0.41081735 0.26596937 3.3889925 0.45467433 0.3020459
1.416264 0.31515816 0.21914703 0.44268954 0.57390904 0.41427538 0.33147275 2.1593971
0.52872145 0.2217909 1.2877268 0.4177279 0.30762315 0.22319405 0.70951736 0.9574034
0.19718584 0.1621324 6.861506 4.9842467 2.5582564 0.46803182 1.9866885 0.22144797
0.46818978 0.16548577 0.83954835 4.1651444 0.18460163 0.53452575 2.4750793 1.3623762
1.9000661 0.14944217 1.1528641 3.6322722 0.364728 0.22755226 0.37879777 2.9490955
0.5384863 0.24733807 0.19479726 0.34721863 2.0821083 0.4291694 0.37891993 2.4268556

layer2.0.weight f4 [64, 64, 3, 3]
00000000: 7329 213d b307 383b 6014 2a3b 50e3 57bd
00000010: 1c33 d0bc a379 74bd 224a 983c c2d7 c5bc
00000020: 4958 923c f52a 0ebd 22a7 f03c a714 00bd
00000030: 88b3 07bd b79b 1dbc c5a5 b73c 87dd 083d
00000040: 665b 413d 75ee 9abc 421c d93b 6e70 b63b
00000050: a94e edba 8a2d 673c 823a 433d 6241 523d
00000060: ac24 153c f249 7ebc b0b0 ea3c 6373 07bd
00000070: f297 6fbc d7d3 96bc 36bd 36bd 0e5f 5bbc
00000080: dd62 b23c 8b4d 8abc 6a55 3b3c 4d14 53bc
00000090: 4166 c13c 2b95 093c 62d3 0a3d c408 afbc
000000a0: 2e9f 0bbd a11a 02bd a6fe dcbc cb01 dbbc
000000b0: ea85 01bd 5606 cd3c 1ecf 8d3c 4deb 323c
000000c0: 38fe 3e3c 376b b4bc b192 a7bc aba3 ddbc
000000d0: 6a54 29bc 199b 0fbd a1e8 fabc aa0f 2ebd
000000e0: 2871 413c 82cd 3d3c e026 d1bc 4c3f fcbb
000000f0: 5dad 8f3c e6a5 62bd 5bc7 4f3c 17ba 26bd
00000100: ce48 e63c f788 a93c 483d b63c 0376 27bc
00000110: b571 13bd 996f ebbc ad30 0dbd 8218 0bbd
00000120: 47ce a3bc c302 73bc f0c3 89ba 4890 03bd
00000130: 7dad f13c 6f5d 93bc c143 adbb 7053 1d3d
00000140: 51d6 b63b 61d7 51bc c21a 8dbc 47e1 64bc
00000150: cac9 bdbc cf32 79bc 1ae8 b0bc d716 053c
00000160: daf5 053c d6e8 423c 71c4 b9bc 5abf ae3c
00000170: f08a 8dbc 199a 633c dae5 f7bc c091 d3bb
00000180: 690f c73c 2a22 e63c 47c8 0d3d 6dcd 86bc
00000190: 37cf cfba be88 98bc 7449 333c eff7 f1bc
000001a0: 8f36 dfbc 7d03 a9bc a5ca cebc 250a c7bb
000001b0: 7a64 5bbb 58fe 9dbc f47e 3e3d 3925 e1bb
000001c0: 0dfa d13c 7bdd f3bc 8788 b33b 6323 ecbc
000001d0: 1d67 4c3c 437b b33c 17a5 daba 76eb 28bd
000001e0: 92f9 d03c 8cdc 1a3a b7a9 c1bc 4f40 13bd
000001f0: 5d37 123c 2c17 69bd cd0d 3a3c 7edb 743c
00000200: 354e 91bc 22b9 913c 9917 123d b6ec e7bc
00000210: 5239 47bb 3e5c 473c 5b68 e8bc 3079 583c
00000220: 4ef2 6d3c 0946 7d3c a737 6dbc f7cc 0cba
00000230: 2137 0b3c 71ca 94bc 738b e4ba b1b1 543b
00000240: e842 153d aa99 1bbc ffbe fc3c 0fa8 003d
00000250: 7eb7 0cbd d0cf 0ebd 8269 eabc b84d c1bc
00000260: 4587 cebc 0163 e23c 6ccb 6b3c 2537 ea3b
00000270: 66d1 2f3c 7328 4aba c8ac 1a3d fe35 2dbd
00000280: c45b 9f3a 4357 4dbd 89c7 3dba a8a9 b7bc
00000290: 8ea6 d5bc d63e 60bb 9340 b3bc f668 143c
000002a0: 72a1 b9bc ec5d 973a 8780 28bc 3757 033c
000002b0: a83f 033d a42c 053d e388 973c 2365 0f3d
000002c0: 908e 1ebd bc42 4bbd 4ad6 703c d245 0d3d
000002d0: c63e 02bd 21b9 38bd d89d 2a3a 6c76 94bc
000002e0: 3657 133c 99b6 00bd 8492 1abb 6cb3 5c3c
000002f0: e7f6 dabb 3567 26bd 1d1b 223c 931a 30bd
00000300: 16a8 cebc 5102 e1bc 597f 51bc 169c 1cbc
00000310: 7af0 0f3d dc11 49bd 3e4c 15bd a225 22bd
00000320: 8e56 d03c 7077 143c e443 f83c 2aca f2ba
00000330: 7233 163d 8440 1abd 3396 1a3c 6fea 58bc
00000340: 2e35 313d 3add 483d 216b 803c 48d3 533c
00000350: b1a8 b73c f137 26bc a84d c33c da74 20bd
00000360: 5ded a13c 107c 9a3c 0791 c0bc 8db9 0b3d
00000370: d17e c2bc 48b0 5b3c 6d79 483d e5f5 6ebc
00000380: a277 e2bc d073 fc3c 9b2b 193d d3b0 0bbc
00000390: 8399 f93b 10ec e53a c299 8f3c c9ff 643c
000003a0: 5903 1b3b 503f 4ebc 22bb 183c 690b 4f3c
000003b0: f378 34bd 3af7 ae3b a645 91bb 3b6f 953b
000003c0: 4697 8fbc d20a babc ae5e 9e3b 2565 283b
000003d0: f015 a9bc 857e fbbb f198 9a3b 1eaa 4f3b
000003e0: 0154 0e3c 93bc f13c 38f1 9cbb 03e7 9a3c
000003f0: 9438 b5ba 65b7 413c e719 5b39 6a1a 123d
0.03934617 0.002808076 0.0025952086 -0.052707016 -0.025414996 -0.059686314 0.018590037 -0.024150733
0.017864363 -0.034708936 0.02937657 -0.031269696 -0.0331302 -0.009619645 0.022417912 0.03341439
0.047206305 -0.018912533 0.006625683 0.005567602 -0.0018105108 0.014109978 0.04766322 0.051331885
0.009102982 -0.01552056 0.028648704 -0.033069026 -0.014623629 -0.01841156 -0.04461404 -0.013389362
0.021775657 -0.016882678 0.0114339385 -0.012883258 0.023608329 0.008397381 0.033892997 -0.021366484
-0.034087352 -0.031763677 -0.026976895 -0.026734253 -0.03162185 0.025027435 0.017310675 0.010920358
0.01165729 -0.02202378 -0.02045569 -0.027055582 -0.010335067 -0.035060022 -0.030628504 -0.042495407
0.011806764 0.011584641 -0.025531232 -0.0076979753 0.01753872 -0.055333994 0.012681807 -0.040704813
0.028110888 0.020695193 0.022246018 -0.010221007 -0.03599711 -0.028739737 -0.03447025 -0.03395892
-0.019995822 -0.014832201 -0.0010510664 -0.03212002 0.029501671 -0.017988889 -0.005287618 0.03840965
0.0055797477 -0.012807698 -0.017224673 -0.013969726 -0.02316751 -0.015209868 -0.02159505 0.008123121
0.008176291 0.011896333 -0.022676678 0.021331478 -0.017278165 0.01389172 -0.030260969 -0.0064565837
0.02429934 0.028092463 0.034614827 -0.016455377 -0.0015854602 -0.018619891 0.010942806 -0.02953717
-0.027247695 -0.020631546 -0.025243113 -0.0060742074 -0.0033476637 -0.01928632 0.04650779 -0.0068708924
0.025631929 -0.029768696 0.005478922 -0.028825467 0.012475756 0.021909362 -0.0016681281 -0.041240178
0.02550963 0.0005907498 -0.023640497 -0.03595 0.008924332 -0.056906864 0.011355829 0.014944909
-0.017737487 0.017788474 0.035667036 -0.028311115 -0.0030399156 0.012167988 -0.028370073 0.013212487
0.014523102 0.015458592 -0.014478601 -0.00053711183 0.0084970305 -0.018162938 -0.0017436579 0.0032454545
0.03644076 -0.009497086 0.030852793 0.031410273 -0.03435468 -0.034866154 -0.028614763 -0.02359663
-0.025210986 0.0276351 0.014391761 0.007147687 0.010731077 -0.0007711716 0.037762433 -0.04228782
0.0012158086 -0.050132047 -0.0007239511 -0.022419766 -0.026080396 -0.003421714 -0.021881377 0.009058228
-0.022659991 0.0011548377 -0.01028455 0.008016399 0.03204313 0.032513276 0.01849789 0.03500856
-0.038710177 -0.04962419 0.014699528 0.034490414 -0.031798147 -0.045098428 0.0006508506 -0.018122874
0.008992961 -0.03142414 -0.0023585865 0.013470512 -0.006682265 -0.04062577 0.00989416 -0.042994093
-0.025226634 -0.027466925 -0.01278671 -0.009558698 0.035141446 -0.049089298 -0.036449663 -0.03958667
0.025431897 0.009061679 0.03030581 -0.0018523384 0.036670156 -0.037659183 0.009435224 -0.013239487
0.043263607 0.049039103 0.015676083 0.012928791 0.022419306 -0.010145173 0.02384074 -0.03917394
0.019766504 0.018857986 -0.023506654 0.034112502 -0.023742111 0.013408728 0.048943926 -0.014584993
-0.027644936 0.030816942 0.0373951 -0.008526045 0.007617177 0.0017541666 0.017529372 0.013977
0.0023653118 -0.012588337 0.00932196 0.012636998 -0.04406066 0.0053395303 -0.0044333516 0.004560379
-0.017528187 -0.022710238 0.004833064 0.0025695052 -0.020640343 -0.0076749944 0.004717939 0.003168709
0.00868702 0.029508865 -0.0047894977 0.018908983 -0.0013826066 0.01182351 0.00020895117 0.03566972

layer2.0.bias f4 [64]
00000000: 2432 7dbc a7ff a4bc 789c ba3c a579 e5bc
00000010: 6167 4c3b c4f0 d1bc 00c0 233d f14a 23bd
00000020: 88b4 003d 274d f5bc 94d3 19bd 40b1 08bd
00000030: 92cc 0fbd 4cb4 59ba 1387 233d 97fd 9b3a
00000040: 280c e73b 972c f6bb a43f 203d da8f b3bc
00000050: a10f bd3c 4470 a83c c398 8c3c 9acc cdba
00000060: 02fa 0abd 798b 1abd 5837 b03c 43cc ef3c
00000070: adc6 9b3c 5c64 04bd c94f 213c a4a7 183b
00000080: d5f3 1abb f2e9 60bb c1d8 be3c a24c 793c
00000090: e473 a6bc 7c27 1a3d 72ca b6bb 789e 033d
000000a0: 61af 1bbc 8092 c63c 2736 99bc 02a6 18bd
000000b0: b6b6 0fbc 1077 00bd d131 14bd 37be 2cbd
000000c0: 8db8 513c 2e2d d73c 89da b03c bc13 0dbc
000000d0: fdfe f3bc e4bd 9f3c fba2 08bd a172 1a3d
000000e0: f756 233d 3ccf 0cbb 8ae4 0e3d bb26 813c
000000f0: 4029 10bd 4635 0a3d e7c9 febc c76e efbc
-0.015453849 -0.020141436 0.022779688 -0.028012106 0.0031189548 -0.025627501 0.039978027 -0.03986639
0.031422168 -0.029944016 -0.037555292 -0.033372164 -0.035107203 -0.00083047594 0.03992374 0.0011901137
0.0070510097 -0.0075126397 0.039123192 -0.02191918 0.023078742 0.020561345 0.017162686 -0.0015701235
-0.033929832 -0.037730668 0.021510765 0.029272204 0.019015634 -0.032322273 0.009845682 0.002329328
-0.002364387 -0.003431913 0.023296716 0.015216025 -0.020318933 0.03763531 -0.0055783326 0.03213355
-0.009502263 0.024239779 -0.01870258 -0.037267692 -0.008771589 -0.031363547 -0.03618032 -0.04217359
0.012800348 0.02626666 0.02158858 -0.008610662 -0.029784674 0.019499727 -0.033358555 0.037706975
0.039877858 -0.0021485826 0.03488592 0.015765538 -0.03519559 0.03374221 -0.031102134 -0.029227627

layer2.1.weight f4 [64]
00000000: e5a6 753f 1c8b 803f 918c 743f 1703 7f3f
00000010: c565 813f f466 7c3f 1e94 803f 577b 813f
00000020: 9e1f 7d3f d757 7f3f e844 853f be62 813f
00000030: fe26 803f 3fb4 7f3f 4a0d 813f e52a 7d3f
00000040: dc09 813f 8ace 803f d11e 7e3f 84a8 7d3f
00000050: c589 803f 8a8f 803f 7aa5 803f ec8c 7d3f
00000060: e66d 7f3f 047e 7a3f 23a1 813f aa57 783f
00000070: 6a84 803f d201 7a3f 4815 7a3f d5ed 803f
00000080: 3ea0 803f 7fc0 7e3f 01f5 823f 2495 773f
00000090: e5d1 833f 4cea 7e3f e623 7e3f 090b 7f3f
000000a0: bf61 7a3f 17e9 7f3f adfe 793f 8c28 833f
000000b0: aa6f 803f 0afb 813f 5845 823f a2ea 803f
000000c0: f03b 7c3f 499c 863f 8b66 7f3f 0d95 813f
000000d0: fc2b 7c3f d6a7 7f3f 5c2c 803f d9cc 7e3f
000000e0: 9285 803f d858 7d3f 987f 7b3f f723 7a3f
000000f0: 5490 7f3f aa12 833f 1765 803f 9db2 7d3f
0.95957786 1.0042453 0.9552699 0.9961409 1.0109183 0.98594594 1.0045202 1.0115765
0.9887637 0.9974341 1.0411654 1.0108259 1.00119 0.9988441 1.008218 0.98893577
1.0081134 1.0063031 0.9926577 0.9908526 1.0042044 1.0043805 1.00505 0.99043155
0.99777067 0.97848535 1.01273 0.97008765 1.004041 0.9765903 0.9768872 1.007258
1.0048902 0.99512476 1.0231019 0.96711946 1.029843 0.9957626 0.99273527 0.99626213
0.978054 0.9996504 0.9765423 1.0246749 1.0034077 1.0154736 1.0177412 1.0071604
0.9852896 1.0516444 0.99765843 1.0123612 0.98504615 0.9986547 1.0013537 0.9953132
1.0040762 0.9896369 0.9824157 0.9771113 0.998296 1.0240071 1.003085 0.9910067

layer2.1.bias f4 [64]
00000000: 8fd2 06bd c2d6 9ebc 9109 a03b 3db3 e3bc
00000010: 94b7 9cbd db64 13bd 330f bdbc b05d d83c
00000020: d1b9 cebc 3e48 71bc 8efd bdbd 3c84 a9bc
00000030: 9a3c 5ebd 1da9 b4bc 88b1 95bb 142b 68bd
00000040: 7740 07bd 87cb 29bd 0a05 7abc 1036 f8bb
00000050: 717d a0bc c10f 96bc fa26 9abc 0d72 743c
00000060: e681 723c c214 1dbc 33e5 4fbd d9fb 4ebd
00000070: 647d 2abc 00bd 183c 6ae9 7abd 60e7 e6bc
00000080: e364 b83b 655e c2bc 3cc6 9ebc 5c3d 8b3c
00000090: 4628 05bd edd4 59bd 33a0 09bd 193b a0bc
000000a0: 7912 4bbd 4b59 8bbb d8dc cdba d64b dbbd
000000b0: b1c6 8e3c d155 93bc d38f 69bd 2fad 3bbd
000000c0: 089e 55bd 8a9d 69bd 0921 e8bc 9b4e a8bd
000000d0: 006f 20bc c664 b7bc a92f 4bbd f26b d7bc
000000e0: e652 4fbb 9a75 91bd 2619 90bd da0c 64ba
000000f0: 2350 a3bc a4aa f63c d844 66bc 9f6f 10bc
-0.032915648 -0.019389514 0.004883953 -0.027795428 -0.07652202 -0.035984855 -0.023078537 0.026411861
-0.025235089 -0.014726697 -0.09276877 -0.020692937 -0.054257013 -0.022053296 -0.0045682825 -0.056681708
-0.033020463 -0.041453864 -0.0152599905 -0.007574804 -0.019591065 -0.018318059 -0.018817414 0.01491977
0.014801478 -0.009587469 -0.05075569 -0.05053315 -0.010405872 0.009322405 -0.061257757 -0.0281865
0.005627261 -0.023726651 -0.019381635 0.016997032 -0.03250911 -0.053181577 -0.033600044 -0.01955943
-0.049578164 -0.004252588 -0.0015706075 -0.10707824 0.017428728 -0.017985256 -0.057021927 -0.045819458
-0.052152663 -0.057035007 -0.028336065 -0.08218118 -0.009792089 -0.02238692 -0.049606 -0.02629659
-0.0031635105 -0.07102509 -0.07036047 -0.0008699425 -0.019935673 0.030110665 -0.0140545 -0.008815675

layer2.1.running_mean f4 [64]
00000000: daa9 20bf fa98 423e 4b42 163e 3960 94bd
00000010: afe1 c7be 1cbc c83e 54d5 94bf ed71 b0be
00000020: f10e 243e 091d 34bf 72e2 d3be 70d2 80bf
00000030: 9bad f7be ce64 1dbe 09af 2cbe 5c1d 4bbe
00000040: b878 58be 1902 063f 7fb4 b1be 35ee 49bf
00000050: 3b0f 41bf a12e 85bf 3207 92bf f77b 91bf
00000060: 482c adbe 7a56 44bf 4bec 67bf 2646 09bf
00000070: 5f4d 243e 6638 82bf b646 82bf 2521 02bf
00000080: 008f 9dbe 2a4e dcbc 6f1e 6ebd 45b7 d73d
00000090: 72d7 aabf 52cd aebe 8f30 99bf a57d 53bf
000000a0: 2c59 05bf 376a 95bb 08a5 b9bf efdf b43d
000000b0: 571e 77bf bd9a 90bf 7c91 fcbe 854e 97be
000000c0: c3f2 313f 1394 b4be 1de3 82bf cca2 413e
000000d0: e68d 5abf e501 5cbf 91f7 37bf 026d 423e
000000e0: 3bf9 27bf 9c6b 29bf 314e f4be 7b50 3dbe
000000f0: d58f 96bf 2ea3 a13e b65f 3dbf 135c e5bd
-0.6275917 0.19003668 0.14673726 -0.072449155 -0.3903937 0.39206016 -1.1627603 -0.34461918
0.16021325 -0.70356804 -0.41383702 -1.006422 -0.48374638 -0.15370485 -0.16863646 -0.19835418
-0.211398 0.5234695 -0.3470802 -0.788791 -0.75413865 -1.0404855 -1.1408446 -1.1365956
-0.33822846 -0.7669445 -0.9059493 -0.53622663 0.1604514 -1.0173461 -1.0177829 -0.50831825
-0.30773163 -0.02689274 -0.058134492 0.10533003 -1.3346999 -0.34141022 -1.1967944 -0.82613593
-0.5208919 -0.004559781 -1.4503489 0.088317744 -0.9653067 -1.1297222 -0.49329746 -0.29552093
0.6951105 -0.35269222 -1.022556 0.18909758 -0.8537277 -0.8594039 -0.7186213 0.18986896
-0.6561467 -0.66179824 -0.47715905 -0.18487732 -1.1762644 0.3156981 -0.7397417 -0.111992024

layer2.1.running_var f4 [64]
00000000: c0d0 063f adee a03e 4deb 283f 345c eb3e
00000010: d4ce 923e 4e7c 5e3f fd4d 923e 9eb7 363f
00000020: 0272 013f 3804 883e 0959 033e 942d ea3e
00000030: a14c 683e 1359 923e a398 0c3f 45fb d73e
00000040: 43b1 a63e 15e8 c93e 7c82 2f3f 3961 d13f
00000050: 9c87 e13e 1599 063f 06c4 cd3e 4ce9 d33e
00000060: 339e ad3e 8773 c33e 21de b93e b81e d13e
00000070: f72b fd3e 4b04 693f 1570 f63e 70c4 803e
00000080: 927e b53e b2a2 853e f8d2 f23e 1921 c83e
00000090: 2dc9 e93e 4be9 ce3e e70a dd3f 041e f13e
000000a0: c4b7 013f fc36 d43e 29b8 003f c984 2e3e
000000b0: 4d37 9f3e 9b8c ff3e 95fc 8b3e 3b75 b03e
000000c0: fed9 753f 69db 463e 4981 c03e ee87 2b3e
000000d0: 8a69 023f 1957 8b3e d023 ce3e b713 a43e
000000e0: 42ba df3e d98c 7a3e add8 af3e 8802 393f
000000f0: 69d9 c43e fc63 773f e067 e63e 2bbb b03e
0.5266228 0.31432095 0.6598404 0.45968783 0.28673422 0.86908424 0.28575125 0.7137393
0.5056459 0.2656572 0.12826933 0.45737898 0.22685482 0.28583583 0.54920405 0.4218389
0.32557115 0.39434877 0.6855848 1.6357795 0.44048774 0.52577335 0.40188617 0.4138893
0.3390976 0.38174078 0.36302283 0.4084375 0.49447605 0.91022176 0.48132387 0.2514987
0.35448128 0.2610069 0.4742658 0.39087752 0.45661297 0.40412363 1.7268952 0.47093213
0.5067103 0.414482 0.50281006 0.17042841 0.3109688 0.4991196 0.27341142 0.3446444
0.96035755 0.19419636 0.37598637 0.16751072 0.5094229 0.27214888 0.40261698 0.3204629
0.4369679 0.24467792 0.34344998 0.7226949 0.3844712 0.9663694 0.45001125 0.34517798

layer3.0.weight f4 [64, 64, 3, 3]
00000000: 95eb 2d3c 96b4 76bc 71ce b43c 59c8 2c3c
00000010: 4796 c53c 6234 2cbc fa7c 67bc 94eb 923b
00000020: 72fd 1abd b224 093d 9320 4fb9 b8a3 16bd
00000030: c873 713c 1edc 513c b9ad 29bc 880a 9abc
00000040: 3760 04bd 5c27 283c c65b 9b3c a9a5 f1bc
00000050: 6d26 99bb b63c 893c 2499 2c3d 2a94 0ebd
00000060: e4d5 5a39 7d70 763c 1260 7ebc da87 92bd
00000070: 5d11 d6bc cc80 963c 5e7b 38bd 9ecb c03c
00000080: 6009 14bd 1a94 c9bb a21a e1bc 40fe 6abd
00000090: b316 69bc 6614 70bc 8bf5 23bc acf5 803c
000000a0: d191 b73c 5d4b 873d 2ca0 293a 808e a63c
000000b0: 491e 5f3c 79b9 aabc 3004 50bc db29 96bb
000000c0: e4f8 f7bc 88d1 cabc b186 2f3c 59e4 1a3c
000000d0: da50 d639 8216 183c fe11 d1bc eaaa 7e3c
000000e0: ffde 8cbc 2584 203d 4d4e e33c b036 94bc
000000f0: 8fa3 3c3d d9a5 003d 3658 fdbc a862 2a3d
00000100: ce1d 563d adff d3bb 8957 453c bc99 173c
00000110: 1566 9cbc 1325 61bc 5b4e fbbc 2e98 6abc
00000120: 95a9 0a3d 6e9e 613c 5bc3 31bc 0284 133d
00000130: 126c e73c 01c3 4dbc e8d0 1abd fc28 4c3c
00000140: 40d4 afba 8b9d a1bc 431d 7fbc b521 c339
00000150: cb40 f5bb 400c b03c 4d2e 913b b1ee 39bd
00000160: 43ca febc 8c9e aebb 0819 0d3c b36e 36bc
00000170: 1cc2 af3b f224 3cba c1d3 96bc 15a6 3cbd
00000180: 6197 66bc f2cc 6e3c 8791 8bbd e928 bebc
00000190: c70c 8f3c 5b21 e43c 238e 2bbd 43ac 773b
000001a0: 2581 e73a 471e 2bbd b4b0 833c 2c7b 8fbb
000001b0: 90d0 8d3c 028a 313c f59e f93c f341 ebbb
000001c0: 902b 2a3c b2fb e4bc 10d9 673c f924 a83c
000001d0: 9344 3e3c 7a63 d7bc de2b 69bc e84d 11bc
000001e0: 5bbb f13b aa5e c2bc 0d3d e139 a754 59bd
000001f0: 664f 8c3a 620e 6dbc 2ae2 d0bc a0e1 a83c
00000200: 2b3e 3c3d 5682 2cbc b655 bc3b cd85 4bbc
00000210: 8286 95ba b8eb 8dbc 99f0 15bd 3689 1f3d
00000220: 72bd 18bd 84fc a63c 326f e8ba eb03 a7bc
00000230: f8cf b7bc 545a 6cbb 0b03 f9bc ec08 7c3c
00000240: a042 49bd aaf3 7cbc a7b6 2ebc 4637 dcbc
00000250: e1c6 5739 3f64 25bd a8d1 543c 7fc1 60bd
00000260: 8041 543c 325e 5fbd 9c33 93bd 5a50 40bd
00000270: 3e3f c0bc afca 43bc a8f9 393c 0615 3cbc
00000280: 6081 4bbc 7a8f aabc 3874 febb 3b75 22bc
00000290: 2bad 68bc c8d0 42bc c74b ff3c ba6e 2abc
000002a0: 027a a4bc caac 3dbd 65df f1bc 87a8 b83c
000002b0: 1b59 09bd 299f a6bc 5c50 c33a 4c7e a33c
000002c0: cc19 5abd 0333 3a3c beea 88bc 5c74 a83c
000002d0: c02e 3ebd 8513 71bd e784 8abd e455 b13b
000002e0: 4504 a8bc d639 b7bc 9589 8a3c 5284 27bd
000002f0: 36d9 09bd b778 bebc 9efe 27bd 453f 49bd
00000300: 75a7 193c 9285 743c 541e 51bd 0bdd 80bd
00000310: 4c8b 60bc 445a d8bb 8776 023d 3695 1abc
00000320: 43d5 b5ba 2319 ce3c 94f3 413d dce8 803c
00000330: e7ed 273c 79cb d9bb 3f1d 56bc ce4b c3bc
00000340: f90e ed3c f7af 323a 8f8a 1dbc fcc4 bc3b
00000350: 60fa b03c 623e 5fbd 948e 37bd a51b edba
00000360: cdbc 65bc afd5 c03b 70c7 e7ba c967 483c
00000370: b97b 36bd bde0 163d adbd 273c 5fff 37bd
00000380: 3335 873c 4d4f ee3b 813a eab9 6d7d 233c
00000390: 7e4a 84bc b7a8 efbb 1c01 073b 533c 7b3b
000003a0: 3d60 343d b4cd 113d cd29 55bd 15ad 5dbd
000003b0: c598 32bd 4052 323d 302a e33b 3538 183d
000003c0: 8cb2 c03c 18fe 0bbb a372 b9bc 6cf3 c7bb
000003d0: c487 023c da03 0fbd 2c53 e2bc 6cba 4fbc
000003e0: 30c0 673c 4df3 37bc b93c 153d b8fa 4cbd
000003f0: 8a7b 9a3c 12b2 b03c 6671 cabc c4ee 9a3c
0.010615249 -0.0150577035 0.022071095 0.0105458135 0.02411951 -0.010510536 -0.014128918 0.0044836495
-0.03783936 0.03348226 -0.00019753193 -0.036777228 0.014737077 0.012808828 -0.01035636 -0.01880385
-0.03231832 0.01026329 0.01896466 -0.029497938 -0.00467377 0.016752582 0.042138234 -0.03480927
0.0002086978 0.015041468 -0.015525835 -0.07154818 -0.026131326 0.018371962 -0.045039527 0.023534592
-0.036141753 -0.0061516883 -0.02747852 -0.057371378 -0.014226603 -0.014653301 -0.0100072725 0.015742145
0.022408398 0.06606171 0.0006470706 0.020331621 0.01361806 -0.020840393 -0.012696311 -0.0045826263
-0.030270047 -0.024758115 0.010713265 0.009453856 0.000408775 0.00928271 -0.025521275 0.015543679
-0.017196177 0.039188523 0.027747298 -0.018092483 0.04605442 0.031408165 -0.030925851 0.041597992
0.052274518 -0.006469688 0.012044796 0.009252962 -0.019091645 -0.013741749 -0.030677011 -0.014318509
0.033853132 0.013770683 -0.010849799 0.036014564 0.028249774 -0.0125587 -0.037796885 0.012460943
-0.0013414696 -0.019728443 -0.015570941 0.00037218412 -0.0074845306 0.021490216 0.0044305683 -0.04539365
-0.031102305 -0.005328959 0.008611925 -0.011134791 0.005363716 -0.0007177136 -0.018411519 -0.046056826
-0.0140741775 0.01457523 -0.068148665 -0.023212867 0.017462147 0.027847936 -0.0418836 0.0037791885
0.001766239 -0.04177692 0.01607547 -0.004378697 0.017311364 0.010836126 0.030471304 -0.0071794926
0.010386363 -0.027952049 0.014150873 0.020525442 0.011613029 -0.026292551 -0.01423165 -0.008868672
0.007377071 -0.02372678 0.0004296083 -0.053059246 0.0010704815 -0.014468761 -0.025498468 0.020615399
0.045957725 -0.010529121 0.005747522 -0.012422037 -0.0011407884 -0.017324314 -0.036606405 0.038949214
-0.037290044 0.02038408 -0.0017733334 -0.02038761 -0.022438034 -0.0036064582 -0.030396959 0.0153829865
-0.049135804 -0.015438953 -0.010663665 -0.026881825 0.00020578086 -0.040378805 0.012989439 -0.054872032
0.01295507 -0.05453319 -0.07187578 -0.04695163 -0.023467656 -0.011950179 0.011351027 -0.011479622
-0.012420982 -0.020820368 -0.007765319 -0.009915645 -0.014201443 -0.011890598 0.031164063 -0.010402376
-0.02007771 -0.046307363 -0.029525468 0.022541298 -0.033532243 -0.020339565 0.0014901268 0.019957684
-0.053247258 0.011364701 -0.016713496 0.020563297 -0.046431303 -0.058856506 -0.0676363 0.0054118503
-0.020509848 -0.022366446 0.016911307 -0.040897675 -0.033654414 -0.02325092 -0.041014306 -0.049132604
0.009378304 0.014924424 -0.051054314 -0.062921606 -0.013705086 -0.0066025574 0.031851318 -0.009434989
-0.0013872761 0.02515847 0.047351435 0.015736036 0.010249591 -0.0066465703 -0.013068496 -0.023839857
0.028937804 0.0006816382 -0.0096155545 0.005760787 0.021603763 -0.054502852 -0.044813707 -0.0018089904
-0.014022064 0.005884848 -0.0017683338 0.012231776 -0.044551585 0.03683542 0.010238093 -0.044921275
0.01650486 0.007272637 -0.00044675547 0.009978634 -0.016148802 -0.0073138135 0.0020600026 0.0038335517
0.044037092 0.035596564 -0.052041817 -0.054120142 -0.043602724 0.04353547 0.0069325194 0.03716298
0.023522638 -0.0021361168 -0.02263767 -0.006102016 0.007966939 -0.034915783 -0.02762755 -0.012678724
0.014144942 -0.011227441 0.036434863 -0.05004379 0.018857736 0.021569286 -0.024712276 0.01891268

layer3.0.bias f4 [64]
00000000: 5fa8 1dbd 0e7e 00bc 428d e43b f350 4c3c
00000010: a3c5 07bd 5853 b53c 825f 043d 17c1 763b
00000020: 9b46 b3bb 524a 043d cf3e 853b 2683 1b3d
00000030: d28d 81bc 9e11 2dbb 5dd5 a9bc 3f84 293c
00000040: 7176 bcbc b25d dabc 4594 dabc 0dc4 b9b9
00000050: 4acc 8bbc 2980 1abd 51fd 553c 37b6 91bc
00000060: 3fb1 b8ba 9d3e d6bc d4c1 ad3c 5738 be3c
00000070: 62c1 81bc 419b 393b 4ae7 353b cb4a f6bc
00000080: ac3a 053d 1bca d7bc e5ed 713c 95db 063d
00000090: 71a5 14bc 517d 1c3b ef8b f63c 812c 9dbc
000000a0: 267c d8bc ccec 4f3c b555 853c decf 983c
000000b0: 3180 073d 147f 0fbd 984d ab3c 7ecf c3bc
000000c0: 5822 0d3c e2b2 ebbb 2c2c 203d 53cb 72bb
000000d0: 46e9 0b3d 3c63 93ba 17e5 a53c 4c99 143d
000000e0: 0432 833c d34d 87bc fa6f a53c 3737 6fbc
000000f0: 3c88 073d c0dd 543b 266f 2bbd da43 fa3c
-0.03849065 -0.007842554 0.006974847 0.012470472 -0.033147465 0.022134468 0.032317646 0.0037651712
-0.0054710633 0.03229744 0.0040663253 0.03796687 -0.015814696 -0.0026408206 -0.020731622 0.010346471
-0.023005696 -0.026656006 -0.026682029 -0.0003543202 -0.017065186 -0.03771988 0.013060884 -0.017787082
-0.0014090909 -0.026152903 0.021210589 0.023220224 -0.015839282 0.0028321298 0.0027756267 -0.030064961
0.032526657 -0.026341489 0.014766191 0.032924253 -0.009072647 0.0023878405 0.030096022 -0.01918626
-0.026426386 0.012690734 0.01627622 0.018653806 0.033081237 -0.0350333 0.020911023 -0.02390265
0.008614145 -0.0071929554 0.039104626 -0.003704746 0.034158014 -0.0011244784 0.02025084 0.036279008
0.01601506 -0.016516602 0.020194996 -0.014600567 0.033088908 0.0032480806 -0.041854046 0.030549932

layer3.1.weight f4 [64]
00000000: 3249 713f eec9 7c3f 0426 813f abe8 7b3f
00000010: d3b7 7c3f 3bb4 7d3f 47d7 7c3f 063a 813f
00000020: bf7b 7c3f 16ae 793f f814 853f f6b5 813f
00000030: 1d92 843f 1387 803f c8c8 7a3f 0005 853f
00000040: d782 843f 4a77 813f 4605 843f 3009 843f
00000050: c9bb 783f 5730 7d3f 331e 763f 5dc5 803f
00000060: 3ebf 7d3f 4659 7b3f e08d 853f 7dfb 7f3f
00000070: 796e 7d3f 5b2b 783f df97 7a3f 50d1 7f3f
00000080: 6581 7f3f 1711 793f f4c8 833f ad29 7f3f
00000090: 86d0 763f 90bc 7f3f d95f 813f 3a06 783f
000000a0: 216e 823f 0d37 7c3f fb84 7c3f a184 753f
000000b0: f3b3 823f bd9b 7d3f 45d0 793f 90a9 823f
000000c0: 6b82 733f f0e7 853f a665 7f3f 7eb7 783f
000000d0: c18a 773f 2265 803f b722 863f d450 713f
000000e0: ddac 7e3f 15ea 813f f017 8d3f 9da6 7d3f
000000f0: 7e4b 883f 1dbd 803f 0785 703f c7b8 7e3f
0.9425231 0.9874562 1.0089726 0.984019 0.98717993 0.99103135 0.9876599 1.0095832
0.9862632 0.9753126 1.0397024 1.0133655 1.035709 1.0041221 0.9796262 1.0392151
1.0352429 1.0114529 1.0314109 1.0315304 0.9716154 0.98901886 0.9613983 1.006023
0.9911994 0.98183095 1.0433922 0.99993116 0.9899669 0.96941155 0.97887987 0.9992876
0.99806815 0.972917 1.0295701 0.9967297 0.9641193 0.998971 1.0107375 0.968845
1.0189859 0.985215 0.9864041 0.959055 1.0211166 0.9906576 0.9758342 1.0207996
0.9512088 1.0461407 0.9976448 0.97154987 0.96696097 1.0030863 1.0479344 0.9426396
0.9948252 1.0149561 1.102293 0.99082357 1.0648038 1.0057713 0.93952984 0.995007

layer3.1.bias f4 [64]
00000000: 4822 2bbd ddcd 9abc a58e d9bc 98ec 8dbd
00000010: 8c1c 2a3c 75da 74bc 7974 21bd 35fd 24bd
00000020: b278 7ebd 66bf 1bbc fa4f 10bd c032 6abd
00000030: 7a4a d8bd f9c5 dcbc acfb a5bd 4c90 52bd
00000040: d3e5 5fbd 9a6f 11bd 5435 93bd efa2 e8bd
00000050: 6c88 6fbc 73d1 95bd 3a24 8dbd a5d0 92bd
00000060: a49c 1cbc e2f1 16bc d2e5 a1bd 8279 4fbd
00000070: 32bb 8fbd 26bd 89bd 32a7 b3ba 1548 05bc
00000080: 08f8 d7bc f018 08bd bcad c3bc 5a65 79bd
00000090: e193 84bd 14aa 0ebd 70f2 49bd 9b56 ccbc
000000a0: 265d c6bd f041 d5bc d75f 6cbd c445 70bc
000000b0: e789 02bd 3f79 a6bd 1f99 60bd 1437 b4bd
000000c0: 850a 99bb a79d c4bd 228c 9abc 4f71 97bd
000000d0: a5b8 39bd 875b 8abd 9adf 9abd fa07 99bd
000000e0: 9921 96bd 079c 00bd 14c2 d2bd a0ad 89bd
000000f0: 5ddf aebd 9c93 ffbc 0970 bcbc 586a 41bd
-0.04178074 -0.018896991 -0.026557276 -0.06929892 0.010382783 -0.014944662 -0.039417718 -0.04028054
-0.062126823 -0.009506082 -0.03523252 -0.057177305 -0.1056108 -0.02694987 -0.08104643 -0.051407143
-0.054662537 -0.035506822 -0.07187906 -0.11359202 -0.014619928 -0.0731534 -0.06891675 -0.07168702
-0.00955883 -0.009212943 -0.07905163 -0.05065299 -0.070181265 -0.0672553 -0.0013706444 -0.0081348615
-0.026363388 -0.033226907 -0.023886554 -0.060887672 -0.06473518 -0.034830168 -0.049303472 -0.02494364
-0.096857354 -0.026032418 -0.057708587 -0.014665071 -0.031869795 -0.081285946 -0.054833528 -0.08799568
-0.0046704435 -0.09600382 -0.018865649 -0.07394659 -0.045342106 -0.06755739 -0.0756218 -0.074722245
-0.07330627 -0.0313988 -0.10290924 -0.067225695 -0.08538697 -0.031198315 -0.023002641 -0.047220558

layer3.1.running_mean f4 [64]
00000000: 1b21 21bf 8c6a cebe 2c98 dfbe 50b8 50be
00000010: aabb 62bf f264 0cbf 93ff 0dbf d697 70bf
00000020: fb74 cdbe 9c40 5dbf 8d83 59bf 2d1d 43be
00000030: 9b88 14bf 86c0 36bf 673b 6c3e c196 8abf
00000040: 15fa 37bf 23b7 48bf 025c 09bf 9131 dc3e
00000050: 061d 30bf ce4b 01be 039f 4b3e 10ec 3dbf
00000060: 9558 64bf 284a 6abf 2543 21bf ec91 03bf
00000070: 2beb 943d 21e8 81bb 5a7c 01bf 739c 62bf
00000080: 0c62 30bf 219d 11bf 933a 47bf fcc4 21bf
00000090: 3a5a 34bf 8f1d 11bf b7b4 5cbe f936 48bf
000000a0: c0ad be3c 7854 2bbf e4d2 87bf 5a05 09be
000000b0: 3b3a 8bbe 6645 d1bd b148 7bbf 9c4e 5cbe
000000c0: cc51 07bf dc1a 20bf cc5a 6abf 2fa7 bcbe
000000d0: c64e 68bf fbb5 1fbf 6834 25bf df51 03bf
000000e0: b107 1fbf c137 56bf 75b3 0bbf 5832 b2be
000000f0: ba42 9dbe d411 48bf 2cf6 57bf 9ee5 47bf
-0.6294114 -0.40315664 -0.43670785 -0.2038281 -0.885676 -0.5484153 -0.554681 -0.93981683
-0.40128312 -0.8642671 -0.84966356 -0.19054098 -0.58020943 -0.7138752 0.23069535 -1.0827256
-0.7186597 -0.78404444 -0.5365602 0.43006566 -0.68794286 -0.12626573 0.19884877 -0.7418833
-0.89197665 -0.91519403 -0.6299308 -0.51394534 0.07271417 -0.0039644395 -0.5058037 -0.8851997
-0.6889961 -0.56880385 -0.7782375 -0.631912 -0.70450175 -0.5668573 -0.21553312 -0.7820888
0.02327621 -0.66925764 -1.0611234 -0.13380948 -0.27192864 -0.10218315 -0.98157793 -0.21514362
-0.5285919 -0.62540984 -0.91544795 -0.368463 -0.907452 -0.62387055 -0.6453309 -0.512968
-0.6212111 -0.83678824 -0.54570705 -0.34804034 -0.3071497 -0.78152204 -0.84360003 -0.78084743

layer3.1.running_var f4 [64]
00000000: 013d b23e 26bf e73e b109 b83e 652a 9c3e
00000010: 4afe ca3e e0e3 583e 8ced c63e 9e9d 8d3e
00000020: c02d bc3e 9b0a e43e 169e 693e 98f8 b73e
00000030: 767b 5f3e b740 b23e b845 973e 6bb3 703e
00000040: 51b6 653e ae14 803e 15ad 873e da1f 533e
00000050: 7cea c53e a4d2 a13e 30c5 b33e e464 633e
00000060: 5e05 9c3e f4aa 043f f5f4 773e 635f 913e
00000070: 633b a93e cf22 733e 2f7a 9b3e fb75 cd3e
00000080: ed68 843e 7a71 a23e 1877 893e e4cb 293e
00000090: f1c0 9e3e 8383 8b3e a42c 913e e022 b03e
000000a0: 3721 823e a4ab de3e 1ecc 9a3e 8240 f13e
000000b0: 882c 9e3e e8a8 873e 6958 b43e de5a 2f3e
000000c0: 73f5 cc3e 3b53 5a3e 15e0 933e 14c0 e03e
000000d0: f828 c73e 858a 583e fdb8 593e 1a3c c63e
000000e0: 7ea9 903e 2062 533e c9f0 ef3d 3f8b ad3e
000000f0: a3f3 4a3e 017d c53e a653 903e 3cb2 753e
0.34812167 0.45263022 0.35944894 0.30501094 0.39647132 0.21180677 0.3885311 0.27659315
0.36753654 0.4453934 0.22814211 0.3593185 0.2182444 0.34814999 0.2954538 0.23505943
0.2243283 0.25015777 0.2649924 0.20617619 0.3865546 0.3160602 0.3511138 0.22206455
0.30472845 0.51823354 0.24214537 0.28393087 0.3305312 0.23743747 0.30366656 0.40129074
0.25861302 0.317272 0.26848674 0.16581684 0.31006578 0.27248773 0.2835437 0.34401608
0.25415966 0.43490326 0.30233854 0.47119528 0.3089335 0.26496053 0.35223702 0.17124507
0.40031013 0.21320812 0.288819 0.43896544 0.38898444 0.21146591 0.21261974 0.3871773
0.28254312 0.206429 0.11715848 0.338953 0.19819503 0.38571933 0.2818882 0.23993772

layer4.0.weight f4 [64, 64, 3, 3]
00000000: b1e7 0c3c ce8c 413c eada 053d f7d4 dc3b
00000010: b062 1b3d 789c fbbc 0bc6 ab3c 2fc5 21bd
00000020: 269e 143d da81 7dbc 8669 b73b fe21 69bd
00000030: df4d 13bc c6e4 0c3d b658 9a3b 9838 20bc
00000040: 73e0 9f3c 4c92 b33c 8c99 a53c 7b8f 0a3c
00000050: ac2d c83c a7d0 39bc 47ba 843c 8523 8e3d
00000060: 28ae 973c 2bc9 febb b7ef 12bd df16 cd3b
00000070: 1600 b13b 1734 1bbd cee8 033c 079b 9fbc
00000080: 7866 a53c 1184 c0b9 3eb3 3fbb 8acb 03bc
00000090: de2e ee3b a6c6 173c cf4c 0f3d 7e5f 1b3c
000000a0: c996 8dbc 5104 b23c 5060 2cbc 7074 ebba
000000b0: e18a 08bd e2eb 71bc e6c4 92bc dd62 b1bb
000000c0: c106 583c 94a1 1abd b641 b83b 5190 8e3b
000000d0: cd82 32bb 8d3d 38bc e5c6 01bd c9ed 783c
000000e0: 1f2f c73c de94 2b3c 035f 61bc f508 203d
000000f0: 589b 94bc 340c 8f3a e0e6 31bd 0ba9 a63c
00000100: 8e77 2c3c 6f51 76bc 27d3 6c3b 11e4 773c
00000110: 3ce9 b43c 0432 a7bc 2eaf 943c 2d95 a6bb
00000120: 8319 b53c 58c2 0dbb 18c0 cfbc f364 96bc
00000130: cc17 90bb cfa8 d13b 3140 503c bee3 e43b
00000140: c9e6 b8bc d7af e3bc 84f0 e63c 676d 87bc
00000150: 6711 82bb 981f 1eba ce26 a13c 5708 f9bb
00000160: c4c4 a1bc 25ad 0ebd 14b5 28bd 899e 963c
00000170: 5812 7f3d dd36 cdbc ea66 aeb9 94d0 b13d
00000180: 6e06 233c d59f 42bc 1a7a debc eb13 c3bc
00000190: d64a f03b 3e87 edbb 3014 8f3c 3428 b83b
000001a0: 6541 ca3c fd11 d3bc 7a09 9b3c 026c 0a3c
000001b0: 4cbe d83c deb6 ecbc d659 0dbd a2c5 e9ba
000001c0: bf3c 1cbb 22a0 16bd b0f5 cdbc 24ff be3c
000001d0: c2d5 8d3c 0dd2 a5bc a505 843c a9aa 3b3d
000001e0: cb76 fabc ffc0 cfbc 5123 063d 2ce0 f93c
000001f0: 66e4 aabc 83e5 193c 1aa6 7d3c aed2 cabc
00000200: c976 833a 3b0b a73b ddc4 553c f96b 40bc
00000210: b8f6 1cbc 76f7 22ba 96f4 ebbb 20c2 c83b
00000220: 03e7 3d3c 04bd 4c3b 645a 153c b6ea ce3a
00000230: d7dc 243c 5cfa 973c fed4 2cbc df11 c4bc
00000240: fee7 6cbb f2fd 44bc 1d85 0c3d 6500 74bc
00000250: 0014 6d3b 09c4 b93d 5fd2 bb3b a027 2dbc
00000260: df4c 8dbd 292e 46bc 6464 bc3c 8f67 393c
00000270: 1369 b83c 0072 193c a443 73bb a93c 973c
00000280: 1373 d73c 4a4b d93c 2d8d 2b3c 4490 c73c
00000290: 0b5d 613c bfd6 6dbc b839 ff39 7acf f0bc
000002a0: b9d8 cabb 4e91 abb9 8dbd 9e3c d1ac f8bc
000002b0: f9dd f13c efbc 83bb aef2 453c 3f4d 84bb
000002c0: 3141 50bc 8c5e 8ebc 5391 373c cd54 5fbc
000002d0: d879 963c af67 33bd fb46 143d 6c77 753c
000002e0: cbb2 103c 0626 5a3c 5df0 f2ba 3e73 95bc
000002f0: 42db 16bd dc30 05bb b803 2abc 1b9c 9dbc
00000300: 8d83 bdbb 3cbd a73c 1c13 acbc 1650 9dbb
00000310: 971b 07bc bb99 13bc 35f2 ef3c d542 31bc
00000320: a724 b13c 6276 5abc 3690 4e3c a7e1 6aba
00000330: 1071 ac3b 01b1 c3bb 3789 4a3c 69c3 013c
00000340: 2403 d53c 7496 74bd 102f 473c 80be a23c
00000350: 3b0f b9bc f28e 88bc 48e8 bd3b 55ba d53c
00000360: 2683 953c d534 de3b d1eb 133d f4a3 513c
00000370: f62d 333c c140 233d 0797 063c d124 673b
00000380: 36ec b1bc 03e4 f2bc b3fe fa3b ce93 d63c
00000390: 1d19 883c 8255 3e3c c75b 193c 33c5 7abb
000003a0: 539a 033c 4d66 eabc 9841 533c 84c4 8dbc
000003b0: 1cce 29bd a7b9 903c 7ac3 96bb ab45 13bd
000003c0: 7940 f7bb 9343 bc3c 25d0 9d3c 615a a33c
000003d0: b0b9 1d3c 83c3 e838 23de d9bc 82f9 8a3a
000003e0: f87f 98bc 1734 7fbc 9901 f93c b152 7c3a
000003f0: 5aca c93b 4559 86bb a0c6 643d 65e1 0f3c
0.008600161 0.011813356 0.032679476 0.0067392546 0.037935913 -0.030714259 0.020968458 -0.03949469
0.036283635 -0.015472854 0.005597296 -0.056917183 -0.008990734 0.034397863 0.004710282 -0.009779118
0.019516205 0.021920346 0.020214818 0.00845706 0.02443584 -0.0113412505 0.016202105 0.069403686
0.018515661 -0.007775446 -0.03587314 0.00625883 0.0054016216 -0.037891474 0.00805111 -0.019483102
0.020190462 -0.0003671949 -0.0029251124 -0.008044133 0.0072687706 0.00926367 0.03498536 0.009483216
-0.017283814 0.021730574 -0.01052101 -0.0017963778 -0.03333557 -0.0147657115 -0.017916154 -0.0054133967
0.013185204 -0.03775175 0.0056230677 0.0043507 -0.0027238608 -0.011245144 -0.03168382 0.015193411
0.024314461 0.010472504 -0.013755563 0.039071042 -0.01814048 0.0010913671 -0.04343307 0.020344278
0.010526551 -0.015034064 0.0036136599 0.015130059 0.022083871 -0.020409591 0.018149938 -0.005083701
0.022106891 -0.002163073 -0.025360152 -0.018358683 -0.004397368 0.0063982974 0.012710617 0.006985157
-0.022570984 -0.027793808 0.028190859 -0.01653166 -0.0039693597 -0.00060319295 0.019671824 -0.007599871
-0.019747145 -0.034833092 -0.041188315 0.018386142 0.062273353 -0.025050575 -0.00033264543 0.08682361
0.009950263 -0.011878927 -0.027157832 -0.023813209 0.00733314 -0.007248788 0.01746568 0.005620027
0.024689386 -0.025765413 0.018925417 0.008448603 0.026457928 -0.028895792 -0.034509502 -0.0017835388
-0.0023839918 -0.03677381 -0.025141567 0.02331502 0.017313842 -0.020241762 0.016115973 0.04581705
-0.030574223 -0.025360582 0.032748524 0.030502401 -0.020860862 0.009393099 0.015481496 -0.024758663
0.0010029908 0.0050977743 0.013047424 -0.011744493 -0.009580307 -0.0006216684 -0.007200788 0.006126657
0.011590722 0.0031240592 0.009115789 0.0015786502 0.010062418 0.018551998 -0.010548828 -0.023934303
-0.003614902 -0.012023436 0.034306634 -0.014892672 0.003617525 0.09070594 0.0057318653 -0.010568529
-0.068994276 -0.012095966 0.022997089 0.011316194 0.02251104 0.009365559 -0.0037119174 0.018461542
0.026299989 0.026525158 0.010470671 0.024360783 0.013755093 -0.0145165315 0.00048680394 -0.029395808
-0.006190386 -0.00032723922 0.019377494 -0.030355843 0.02952479 -0.0040203254 0.012081785 -0.0040375288
-0.012710855 -0.017379068 0.011204082 -0.013631058 0.018368647 -0.043800052 0.036200505 0.014982086
0.00883169 0.01331473 -0.0018534769 -0.018243428 -0.036830194 -0.0020323312 -0.010376863 -0.019239476
-0.0057835043 0.020475976 -0.021005206 -0.0048008068 -0.008246324 -0.00900882 0.029290298 -0.010819157
0.021623923 -0.013333889 0.012607625 -0.00089600164 0.0052625015 -0.0059720282 0.012361816 0.007920125
0.026002474 -0.059713796 0.012157217 0.019866228 -0.02259027 -0.016669724 0.0057955123 0.026089827
0.018251013 0.0067812004 0.036113564 0.012795437 0.010936251 0.039856676 0.008214719 0.0035269747
-0.02171908 -0.02964974 0.007659757 0.026193526 0.016613537 0.011617066 0.00936026 -0.0038264513
0.008032399 -0.028613234 0.012894057 -0.01730562 -0.041456327 0.017666651 -0.0046009393 -0.035955112
-0.0075455275 0.02298144 0.01926429 0.019940557 0.009626791 0.00011099039 -0.02659518 0.0010602924
-0.018615708 -0.015576384 0.03039627 0.0009625359 0.0061581554 -0.004099997 0.055853486 0.008781766

layer4.0.bias f4 [64]
00000000: 80ca e8bc ea36 f13c 4aed 86bc 57bd 0b3c
00000010: 3a22 dabb 4d9d cd3c fb19 953c 2452 0abd
00000020: 90a6 96bc 1690 09bd 0603 703d bbc4 31bc
00000030: 2961 c63b e9ac e3bc 3151 513c 41ed 1f3d
00000040: a0a8 e7ba 770a b8bc 4068 86bc dd1c 44bb
00000050: b7c7 a0bc e15e 96bb 7fbb 043c 4c50 9b3c
00000060: 71fa 34bc bd8f b1bc eca0 c1bc 5130 dd3c
00000070: e2e4 a63c 830f 873d 6aa0 1ebd 2976 793c
00000080: bd00 213d 764a da3c 881f 953c 85bb 873c
00000090: f984 353d 057c 293c c607 493d 83be 4e3d
000000a0: e0ed f53c 86e8 21bd e19e fdbc 3a7e 1d3c
000000b0: ac1d ed3c c7f2 b83c 977c aebc 8e63 6bbc
000000c0: 6dbe fe3c e6db f3bc 3baa 0f3c 5d05 57bc
000000d0: 9c8c a2bc b0af 313d 27be 9ebc 052f 90bb
000000e0: d0e2 613c 00d1 83bc 7cf7 28bd 593b 77bc
000000f0: 87d2 863b f7d8 873c adfa 413d a45b dd3c
-0.028416872 0.02944513 -0.01647057 0.008529029 -0.006656912 0.02509942 0.018200865 -0.03376974
-0.01838997 -0.033584677 0.058596633 -0.010850127 0.006054063 -0.02779241 0.012775705 0.039044622
-0.0017674156 -0.022465928 -0.016407132 -0.002992443 -0.019626481 -0.004588947 0.008101343 0.018959187
-0.011046038 -0.021674985 -0.023636304 0.027000578 0.020372812 0.065947555 -0.0387272 0.0152259255
0.039307345 0.026646834 0.018203512 0.016568908 0.044316266 0.01034451 0.04907968 0.050474655
0.030020654 -0.039528392 -0.030959548 0.009612614 0.028944813 0.022576703 -0.021299643 -0.014366997
0.031096661 -0.029767942 0.008768613 -0.013123837 -0.019842438 0.04338044 -0.019377781 -0.0044001364
0.0137869865 -0.01609087 -0.041251644 -0.015089833 0.0041144523 0.01658295 0.047358204 0.027021237
