FAST 3D-CNN P-NET/model/ZGFF/ZGFF_proto_2d-5shotband70.pth (torch, 618221 bytes, 24 tensors)

layer1.0.weight f4 [64, 70, 3, 3]
0.00013778974 0.01294525 0.043647565 -0.03152797 0.029275056 0.06348792 -0.012604001 -0.03537568
-0.030459851 -0.021555984 0.009985261 -0.000647086 0.009727579 0.02017006 -0.013219775 -0.028132766
0.031469487 0.0023591786 -0.046385504 -0.036408935 0.02466167 -0.03785261 -0.008195468 0.013993542
-0.03705552 0.011871236 0.030474069 -0.038292255 0.0064336224 -0.0016449223 0.029613785 0.019441698
0.01957855 0.025810566 0.035199128 -0.007771299 -0.012411377 -0.012160291 -0.035639264 -0.031377062
0.01501722 0.014598793 -0.011116077 0.02394787 -0.03139604 -0.06364049 0.036052424 -0.008667325
0.011606161 0.01834952 0.020781552 -0.034888446 -0.0027071652 0.08226058 0.06277388 0.0065775635
0.013827696 -0.045659658 -0.025077822 -0.03727464 0.007829031 0.0071942606 0.008461577 -0.02399141
0.027069323 -0.033061367 0.0048183734 -0.008852949 -0.003120287 -0.023011107 0.01663891 -0.0011407301
0.02873929 0.03129342 -0.017922146 -0.0021002078 0.023995735 -0.048642006 0.03197948 -0.034290895
0.037342656 -0.0077102375 -0.039986208 -0.028952908 -0.043700293 -7.867086e-05 0.018282903 0.025297567
0.022707319 0.026806269 0.013788993 -0.020291245 0.0128203565 0.0050483146 -0.0027461052 0.0055666165
-0.010487582 0.0130514605 0.029377814 -0.0053025517 -0.022804633 -0.01241017 -0.005485582 -0.032886464
-0.0044677574 0.01108135 -0.019528491 -0.033495005 0.02923714 0.05551629 0.06278153 -0.008589614
0.066217646 0.040017758 0.027098075 0.06592428 0.07097893 -0.016807966 0.012146215 -0.013007439
-0.00022689295 0.010639256 -0.020903284 -0.021343378 0.004035882 -0.0009592538 -0.007054733 -0.036173947
0.02430916 0.02176289 -0.033726364 -0.027168406 0.008689187 0.017433349 -0.01467376 0.00893505
-0.023756092 0.019405313 -0.032420147 0.033722986 0.017623315 0.037635334 -0.037598334 -0.010499198
-0.045294605 -0.012291012 -0.04861981 -0.012779646 -0.024127806 0.0144882575 0.013282579 -0.030382127
0.0010031895 0.012197833 0.042612627 0.019160843 0.03168789 -0.0079314485 0.031289626 0.03634226
-0.036085606 0.029280208 -0.0066013006 0.011429109 -0.026464041 -0.014779739 0.0015601915 0.012357937
0.016579252 -0.030167159 0.014807519 0.009065721 0.006315128 -0.01714813 0.0013992458 0.011375542
-0.0019220649 -0.026492018 -0.042956002 -0.013929124 0.034877803 -0.0128097255 -0.0059273224 0.020419937
-0.03332411 0.01990844 0.022643471 -0.0136585925 -0.0010984725 -0.021156605 0.024736691 -0.001618284
-0.036485333 0.012640187 0.019154226 -0.005804491 -0.03931129 0.004614641 -0.025405582 -0.036982227
0.0068888813 -0.002885357 -0.01359493 0.01743411 -0.047916844 -0.04869615 0.019153628 0.015163594
0.039727405 0.025875097 0.028522318 -0.009276099 0.01145031 0.039777774 -1.1318697e-05 -0.0055834427
-0.028556112 -0.03296707 -0.007846894 0.006920462 0.0034867 0.0026654552 -0.018869402 -0.028183095
-0.018810892 0.04510344 0.035559226 0.05246679 0.017078869 0.009930144 0.007413588 0.047352504
0.06672552 0.012708404 -0.011052303 -0.009939889 -0.03435227 -0.028670887 0.025519207 -0.036506206
0.012549781 0.028225753 0.019404033 0.025438638 -0.026057154 -0.011121872 -0.038857333 0.029430892
-0.036658004 -0.0040885396 0.024302797 0.0010778736 0.02799981 -0.01767679 0.021177324 -0.03599341
00000000: a77b 1039 5018 543c cac7 323d 7923 01bd
00000010: 3ed2 ef3c f405 823d 0381 4ebc 17e6 10bd
00000020: f086 f9bc 2d96 b0bc 3899 233c 35a1 29ba
00000030: 6c60 1f3c af3b a53c c197 58bc b076 e6bc
00000040: 26e6 003d 739c 1a3b bafe 3dbd 8921 15bd
00000050: 4507 ca3c 570b 1bbd 4946 06bc 2b45 653c
00000060: 87c7 17bd 937f 423c c1a4 f93c 57d8 1cbd
00000070: 23d1 d23b 6f9a d7ba 9c98 f23c 3244 9f3c
00000080: 3263 a03c ae70 d33c f62c 103d 62a6 febb
00000090: 1759 4bbc f53b 47bc 7afa 11bd 3c85 00bd
000000a0: c90a 763c c72f 6f3c 3520 36bc 532e c43c
000000b0: 2299 00bd f255 82bd b5ab 133d 6501 0ebc
000000c0: c427 3e3c bc51 963c 133e aa3c 30e7 0ebd
000000d0: b26a 31bb 3c78 a83d 988f 803d 9a88 d73b
000000e0: 908d 623c 9f05 3bbd 0170 cdbc 4bad 18bd
000000f0: 5645 003c d5bd eb3b 6da2 0a3c a289 c4bc
00000100: 7cc0 dd3c 5b6b 07bd 72e3 9d3b f60b 11bc
00000110: bb7d 4cbb ca81 bcbc 534e 883c 8d84 95ba
00000120: a96e eb3c 872d 003d 77d1 92bc a4a3 09bb
00000130: b492 c43c d73c 47bd eafc 023d 9c74 0cbd
00000140: 9df4 183d 29a6 fcbb 94c8 23bd a62e edbc
00000150: 14ff 32bd 19fc a4b8 07c6 953c d83c cf3c
00000160: b304 ba3c d298 db3c 3aeb 613c d339 a6bc
00000170: 790c 523c 556c a53b 00f8 33bb 2a68 b63b
00000180: 1bd4 2bbc cbd5 553c bea9 f03c 07c1 adbb
00000190: c8d0 babc 0754 4bbc 66c0 b3bb f5b3 06bd
000001a0: 4466 92bb 8d8e 353c 37fa 9fbc 0f32 09bd
000001b0: ba82 ef3c 0d65 633d 9a93 803d 74bb 0cbc
000001c0: 1e9d 873d a9e9 233d c8fc dd3c 4f03 873d
000001d0: 675d 913d dcb0 89bc eb00 473c 271d 55bc
000001e0: 1dea 6db9 4650 2e3c 5d3d abbc 4fd8 aebc
000001f0: 6f3f 843b 6f76 7bba 642b e7bb 222b 14bd
00000200: 0124 c73c 1748 b23c a824 0abd 4790 debc
00000210: 175d 0e3c 62d0 8e3c 366a 70bc 5164 123c
00000220: 239c c2bc e4f7 9e3c fdca 04bd 1d21 0a3d
00000230: c55e 903c 8227 1a3d b600 1abd d404 2cbc
00000240: d686 39bd 3e60 49bc 9125 47bd b861 51bc
00000250: ada7 c5bc 2860 6d3c 2d9f 593c f0e3 f8bc
00000260: 747d 833a 6bd9 473c 948a 2e3d 33f7 9c3c
00000270: 29cb 013d e8f2 01bc 8d29 003d 9fdb 143d
00000280: 80ce 13bd 0cdd ef3c b94f d8bb 2841 3b3c
00000290: 1ecb d8bc b826 72bc 577f cc3a f278 4a3c
000002a0: 36d1 873c 1e21 f7bc 3c9b 723c 6488 143c
000002b0: 22ef ce3b 3c7a 8cbc e666 b73a 7b60 3a3c
000002c0: cced fbba ca05 d9bc a2f2 2fbd fb36 64bc
000002d0: 07dc 0e3d e2df 51bc fc39 c2bb b647 a73c
000002e0: dd7e 08bd 0617 a33c cd7e b93c 4ac8 5fbc
000002f0: 9ffa 8fba 9e50 adbc 9aa4 ca3c 9a1c d4ba
00000300: a571 15bd c918 4f3c 53e9 9c3c 9a33 bebb
00000310: e004 21bd 6a36 973b 5e1f d0bc ad7a 17bd
00000320: 20bc e13b 4218 3dbb 45bd 5ebc fbd1 8e3c
00000330: 7444 44bd 9d75 47bd 12e8 9c3c b970 783c
00000340: 34b9 223d 03f8 d33c a3a7 e93c c7fa 17bc
00000350: 159a 3b3c 05ee 223d 6fe5 3db7 50f5 b6bb
00000360: 82ee e9bc 7a08 07bd 4290 00bc 0bc5 e23b
00000370: 1e81 643b ebae 2e3b 0194 9abc 3ce0 e6bc
00000380: 4d19 9abc 62be 383d 8da6 113d 6be7 563d
00000390: fce8 8b3c 0bb2 223c afed f23b b3f4 413d
000003a0: 64a7 883d e936 503c b814 35bc ebda 22bc
000003b0: f7b4 0cbd 35df eabc a80d d13c 8887 15bd
000003c0: 999d 4d3c b239 e73c 35f5 9e3c b164 d03c
000003d0: d075 d5bc 8338 36bc de28 1fbd 0e19 f13c
000003e0: b426 16bd 28f9 85bb a916 c73c 7047 8d3a
000003f0: dc5f e53c eace 90bc 117c ad3c d36d 13bd

layer1.0.bias f4 [64]
0.7317123 0.89584965 0.72743446 0.79540586 0.8269263 0.8281982 0.87964416 0.71792746
0.78524685 0.7299538 0.6617577 0.8340487 0.87236714 0.8090762 0.79177773 0.91796434
0.7181041 0.6625555 0.7987598 0.75603163 0.6838149 0.838133 0.6756483 0.6687257
0.88003093 0.83126676 0.7746378 0.66354644 0.8404507 0.7467049 0.8440799 0.8414003
0.9135373 0.7005977 0.8296526 0.88276064 0.8867308 0.88149333 0.87993854 0.8568526
0.74967355 0.7232579 0.81625414 0.7541638 0.7206926 0.8102781 0.8933788 0.7764767
0.8862082 0.8628821 0.8375953 0.8320999 0.6348914 0.91714996 0.9030391 0.71168065
0.9073163 0.7349619 0.78035647 0.732888 0.8777773 0.6662659 0.865644 0.83661205
00000000: 7f51 3b3f 6756 653f 2539 3a3f b89f 4b3f
00000010: 71b1 533f cc04 543f 5c30 613f 18ca 373f
00000020: f005 493f 41de 3a3f f468 293f 3784 553f
00000030: 7453 5f3f 9e1f 4f3f f2b1 4a3f b6ff 6a3f
00000040: acd5 373f 3d9d 293f 867b 4c3f 4a8b 413f
00000050: 7e0e 2f3f e28f 563f 49f7 2c3f 9c31 2b3f
00000060: b549 613f e6cd 543f aa4e 463f 2ede 293f
00000070: c727 573f 0d28 3f3f 9f15 583f 0366 573f
00000080: 95dd 693f 5f5a 333f 1d64 543f 9afc 613f
00000090: ca00 633f 8ca9 613f a743 613f b15a 5b3f
000000a0: 9bea 3f3f 6e27 393f 08f6 503f e110 413f
000000b0: 4f7f 383f 636e 4f3f 79b4 643f 2dc7 463f
000000c0: 8ade 623f d7e5 5c3f a56c 563f 8004 553f
000000d0: 3e88 223f 57ca 6a3f 922d 673f b430 363f
000000e0: e245 683f 7726 3c3f 71c5 473f 8c9e 3b3f
000000f0: 03b6 603f 6790 2a3f d89a 5d3f 352c 563f

layer1.1.weight f4 [64]
0.98069036 1.0187953 0.9987719 1.0063508 0.9989603 1.0135887 1.0547365 1.0178509
0.992951 0.9809568 1.0085106 0.9936407 0.9707915 0.9807077 0.97295904 1.0115342
0.9548512 0.97119486 0.9788178 0.9758562 0.9638792 1.0128859 1.0171446 0.9836444
0.99157745 0.9752416 1.0139145 1.0222929 1.0094239 0.98019356 0.9701034 0.97245145
1.0291445 0.989123 0.98015714 1.007618 1.0047935 1.013067 1.0054438 1.0113972
1.0234185 0.98283297 1.0075425 0.97492516 0.97204024 0.9835064 1.0054963 0.97460675
1.0030464 1.030566 1.0227492 0.9963684 1.0043176 0.98727214 1.0258479 1.0180634
1.0163158 1.0146762 0.98968846 1.0227673 0.983061 0.99708706 1.0075897 1.0103499
00000000: 860e 7b3f e267 823f 84af 7f3f 1ad0 803f
00000010: ddbb 7f3f 46bd 813f 9b01 873f f048 823f
00000020: 0932 7e3f fc1f 7b3f e016 813f 3d5f 7e3f
00000030: cb85 783f a90f 7b3f d813 793f f479 813f
00000040: 2171 743f 3aa0 783f ce93 7a3f b6d1 793f
00000050: cac0 763f 3fa6 813f cb31 823f 1fd0 7b3f
00000060: 05d8 7d3f 6fa9 793f f3c7 813f 7eda 823f
00000070: cd34 813f f7ed 7a3f b258 783f 94f2 783f
00000080: 02bb 833f 2a37 7d3f 94eb 7a3f a0f9 803f
00000090: 139d 803f 2eac 813f 62b2 803f 7775 813f
000000a0: 61ff 823f f19a 7b3f 27f7 803f b294 793f
000000b0: a1d7 783f 13c7 7b3f 1ab4 803f d47f 793f
000000c0: d363 803f 96e9 833f 72e9 823f 0012 7f3f
000000d0: 7b8d 803f debd 7c3f fc4e 833f e74f 823f
000000e0: a316 823f e9e0 813f 395c 7d3f 0aea 823f
000000f0: e3a9 7b3f 1941 7f3f b3f8 803f 2553 813f

layer1.1.bias f4 [64]
-0.0059905695 -0.055443347 -0.031166017 -0.006465147 -0.0144934235 -0.05378374 0.0003250042 -0.017306993
-0.02831817 -0.0075370083 -0.05361144 0.0064996746 0.011777198 0.0066841845 -0.004675238 -0.043461803
-0.020159738 -0.03263378 -0.06043426 -0.0088940365 -0.0041093295 -0.008531707 -0.053288184 0.0026607716
-0.012791658 0.0036205521 -0.048147745 -0.05466077 -0.012272504 0.018143978 -0.026240556 -0.001953747
-0.044938445 -0.03864784 0.027087208 -0.016043263 -0.006696089 -0.042368073 -0.043305412 -0.026873903
-0.043900367 0.0008047688 -0.026581846 -0.0014990009 -0.043879755 0.0057163015 0.0027006746 0.020567449
-0.019276466 -0.02730713 -0.058607142 -0.033630256 -0.07278831 -0.017403781 -0.037895016 -0.053299673
-0.037948124 -0.060982972 -0.028289352 -0.06724173 -0.03864443 -0.05825502 -0.04075075 -0.053117394
00000000: 8a4c c4bb 9018 63bd e04f ffbc 95d9 d3bb
00000010: d375 6dbc 574c 5cbd 5365 aa39 65c7 8dbc
00000020: 82fb e7bc 02f9 f6bb ab97 5bbd 39fb d43b
00000030: 26f5 403c 0107 db3b bd32 99bb 0105 32bd
00000040: 0926 a5bc 00ab 05bd ea89 77bd 4bb8 11bc
00000050: 8ea7 86bb 93c8 0bbc b644 5abd 5760 2e3b
00000060: 1a94 51bc c946 6d3b 9236 45bd f9e3 5fbd
00000070: 9d12 49bc aea2 943c 6ff6 d6bc 6f0a 00bb
00000080: 6011 38bd 334d 1ebd fee5 dd3c 296d 83bc
00000090: de6a dbbb 258a 2dbd 0461 31bd a926 dcbc
000000a0: dfd0 33bd 1ff7 523a 2cc2 d9bc 207a c4ba
000000b0: 42bb 33bd d04f bb3b cdfd 303b 117d a83c
000000c0: aee9 9dbc 34b3 dfbc 0b0e 70bd e1bf 09bd
000000d0: 0a12 95bd 6092 8ebc ce37 1bbd c250 5abd
000000e0: 7e6f 1bbd 48c9 79bd 12bf e7bc 08b6 89bd
000000f0: 9f49 1ebd d19c 6ebd 42ea 26bd a091 59bd

layer1.1.running_mean f4 [64]
1.0580982 0.7308753 0.1987107 0.53506196 0.7229222 0.8672295 0.77455944 0.34917778
0.7635059 1.2091551 -0.07571982 1.0581583 0.77716523 0.930659 1.1927577 0.842272
0.28053123 0.97134763 1.0220518 0.8079259 1.0421126 0.64785665 0.14095943 1.4278568
1.006329 0.93384194 0.4570776 0.07421737 0.76852524 1.1350398 0.69477934 0.99987173
0.7838039 0.18787947 0.9654972 0.7425513 0.64715284 0.8209181 0.9638379 0.7259806
0.42971826 1.1062526 0.4085042 0.777978 0.37437114 0.8602444 0.92987907 0.8588243
0.7727274 0.7650359 0.5143573 0.8935317 0.08173993 0.8912061 0.7600701 0.1480627
0.8244748 0.29733202 0.44048703 0.31715745 0.7143176 0.24105822 0.6775267 0.8185703
00000000: c36f 873f a51a 3b3f d17a 4b3e d2f9 083f
00000010: 6e11 393f c102 5e3f 8749 463f 6ec7 b23e
00000020: 1f75 433f 98c5 9a3f fe12 9bbd bb71 873f
00000030: 4df4 463f ab3f 6e3f 49ac 983f 239f 573f
00000040: caa1 8f3e 3daa 783f 98d2 823f 3bd4 4e3f
00000050: f263 853f efd9 253f ab57 103e 03c4 b63f
00000060: 64cf 803f 4410 6f3f 1306 ea3e 47ff 973d
00000070: 12be 443f fc48 913f 0fdd 313f 98f7 7f3f
00000080: 5fa7 483f 7a63 403e d32a 773f d817 3e3f
00000090: cfab 253f b027 523f 15be 763f ddd9 393f
000000a0: 0804 dc3e af99 8d3f 7627 d13e 9129 473f
000000b0: 93ad bf3e fa38 5c3f 8e0c 6e3f e9db 5b3f
000000c0: 76d1 453f 65d9 433f ecac 033f 7ebe 643f
000000d0: 4467 a73d 1526 643f f493 423f c09d 173e
000000e0: c810 533f e73b 983e 8487 e13e 7662 a23e
000000f0: 85dd 363f f7d7 763e 6472 2d3f d38d 513f

layer1.1.running_var f4 [64]
1.9639695 0.93158364 3.505409 1.4027147 1.1740994 2.0266812 0.5493683 3.708974
1.5227572 5.1011677 10.862955 1.7243549 1.4360129 0.8147613 3.4648576 0.66530734
4.0336213 5.468043 3.4824271 3.0096195 6.9845853 1.3690103 7.9663453 9.043805
0.9034023 1.7667578 2.2774053 11.247898 0.68455243 3.0857441 0.7567839 1.0264261
0.63866144 3.6954126 1.0927422 0.5141077 1.3598006 0.4912406 1.7933279 0.74987406
3.3431118 3.460208 2.0890903 2.64457 1.694262 1.6795743 0.49092856 2.4409688
0.780899 0.901572 2.2896304 0.7180784 11.543812 0.41358536 0.92945755 7.8755903
0.39547738 4.6538386 1.3575879 5.997303 0.628216 7.289949 0.8726338 1.2620506
00000000: 5a63 fb3f 447c 6e3f 9f58 6040 288c b33f
00000010: e448 963f 25b5 0140 67a3 0c3f d45f 6d40
00000020: b5e9 c23f c43c a340 aace 2d41 a9b7 dc3f
00000030: 45cf b73f 3294 503f 3ac0 5d40 9551 2a3f
00000040: 6d13 8140 35fa ae40 16e0 5e40 9b9d 4040
00000050: b981 df40 bb3b af3f 4dec fe40 6db3 1041
00000060: 6045 673f 1f25 e23f 02c1 1140 64f7 3341
00000070: d43e 2f3f d57c 4540 97bc 413f ee61 833f
00000080: 517f 233f a481 6c40 fade 8b3f 909c 033f
00000090: f20d ae3f e383 fb3e c58b e53f bff7 3f3f
000000a0: 8bf5 5540 0c74 5d40 a8b3 0540 a340 2940
000000b0: 94dd d83f 4afc d63f fd5a fb3e d538 1c40
000000c0: ffe8 473f 6ccd 663f 4e89 1240 fcd3 373f
000000d0: 74b3 3841 76c1 d33e eef0 6d3f d604 fc40
000000e0: 037c ca3e 3fec 9440 71c5 ad3f e8e9 bf40
000000f0: c4d2 203f 4347 e940 ee64 5f3f e08a a13f

layer2.0.weight f4 [64, 64, 3, 3]
-0.038225506 0.011935893 -0.018183209 -0.016049542 -0.043747917 -0.04678668 0.00023058594 0.013150935
-0.035549678 -0.014994902 -0.019326633 -0.05156029 0.008858899 -0.00013145777 0.008200177 -0.006885967
-0.0389366 -0.0041820337 -0.014028917 0.00051787274 -0.0020878008 0.04591687 0.034168478 0.03464767
-0.004351954 0.037298325 0.020646911 -0.014272553 0.028708255 0.005238457 -0.025083039 0.0018702606
0.0053992495 0.021154778 -0.0013100997 -0.008004642 -0.0386085 -0.0056905993 -0.014942102 0.020516675
0.015473127 0.038720515 -0.0059116255 -0.006945699 0.0099024465 -0.03705961 0.0056405035 -0.0112596825
0.002423828 -0.02378559 0.0007193686 -0.0017038815 -0.06604919 -0.081395425 0.013837412 -0.030911889
0.008694045 0.0072082267 -0.02210141 0.03390066 0.03445703 -0.0052339383 0.04848485 -0.017952597
0.016010407 0.03523974 0.0068927077 -0.0032256467 -0.033689104 0.022446027 -0.0367336 0.0070774592
4.096814e-05 0.012733701 0.013036267 -0.0034332683 -0.020294188 0.02089283 0.017945975 0.046520624
-0.008691373 0.010316773 0.015177728 -0.017596805 0.03182716 -0.004744719 -0.021840457 -0.028666452
0.046160754 -0.026795974 0.027653076 -0.040033687 -0.022512946 0.026975935 -0.042685185 -0.041216075
-0.031746533 0.012093501 -0.028912429 0.041803673 -0.028976483 -0.030190565 0.02410033 -0.016892998
0.038725805 0.003735784 0.050608043 0.03506635 0.022228438 -0.01855219 0.036019675 -0.003971504
-0.046040934 0.010489854 0.032241378 0.030825868 -0.03329259 -0.014770913 -0.023078728 -0.019677397
-0.020183826 0.008384191 -0.013914019 0.009288734 0.05194955 -0.000830067 0.023123816 0.034086153
-0.010552709 0.0065919543 0.000549231 0.022710003 0.023530258 -0.01950803 -0.011881064 -0.0247079
-0.009829262 -0.017291784 -0.03508297 -0.026202839 -0.03773898 0.017803542 0.016237337 -0.010137604
-0.017287659 -0.04156387 -0.0040648715 -0.032737512 -0.042268712 0.0088182585 -0.026022084 0.0053449706
0.03467561 -0.048912402 0.017622441 -0.0074979104 0.0050447728 0.019630073 0.016692568 -0.012293702
-0.05007571 -0.02005873 -0.01840802 0.03582018 0.043516245 0.00616172 0.004236221 0.03469786
-0.023172148 0.010934906 0.014209265 -0.044965573 -0.02126112 0.0038274627 -0.03438597 0.023133717
-0.05621476 -0.052228745 -0.014094788 0.0011713632 0.021348218 0.0044475175 0.02058958 -0.03934655
-0.0048782993 0.009501362 -0.03701771 -0.026177242 -0.019031499 0.019452838 0.02927269 -0.04445492
0.04212942 -0.046624884 0.0494136 0.010998809 0.03247444 -0.021344304 0.033609696 -0.020717144
0.022092596 0.0022485163 -0.037829004 -0.031071894 -0.012078408 -0.062297914 -0.011967273 0.018873692
0.0019715622 -0.02387297 0.030798556 0.02587787 -0.004138373 0.0015061724 0.026469296 -0.0159979
0.00567621 -0.006996225 -0.03211987 -0.029231772 -0.027666567 -0.029205916 -0.00030592005 0.031671595
0.030845234 0.04534108 0.028832192 -0.016766725 -0.011122087 -0.017468521 0.0064690416 0.053425092
0.0005830017 0.0024404083 0.028864134 0.02736979 0.04160374 -0.017641364 -0.032686707 0.032613695
0.004160102 0.012615878 -0.025466431 0.028431023 -0.03850364 0.012977705 -0.014015073 0.008308261
-0.04042433 -0.022281874 -0.043189287 -0.037524335 0.02776773 -0.04525869 0.01805107 -0.012694572
00000000: 5992 1cbd c48e 433c f4f4 94bc 547a 83bc
00000010: 0431 33bd 64a3 3fbd 71c9 7139 0577 573c
00000020: 8a9c 11bd 2dad 75bc e352 9ebc e230 53bd
00000030: ea24 113c edd7 09b9 095a 063c aea3 e1bb
00000040: fc7b 1fbd 7109 89bb 8bd9 65bc dac1 073a
00000050: 7cd3 08bb 5413 3c3d 3ff4 0b3d b7ea 0d3d
00000060: d69a 8ebb 21c6 183d b623 a93c 6dd7 69bc
00000070: 932d eb3c 5da7 ab3b f27a cdbc 8823 f53a
00000080: 30ec b03b c94c ad3c a7b7 abba e725 03bc
00000090: f223 1ebd 3578 babb b8cf 74bc 9612 a83c
000000a0: 0083 7d3c 6799 1e3d 4fb6 c1bb bf98 e3bb
000000b0: df3d 223c d1cb 17bd f9d3 b83b 887a 38bc
000000c0: 16d9 1e3b ffd9 c2bc 0294 3c3a c754 dfba
000000d0: cc44 87bd a5b2 a6bd 50b6 623c ee3a fdbc
000000e0: 7871 0e3c fd32 ec3b 040e b5bc 6bdb 0a3d
000000f0: d122 0d3d 7581 abbb 0d98 463d 5311 93bc
00000100: 4228 833c 8c57 103d 39dc e13b 5f65 53bb
00000110: 96fd 09bd bbe0 b73c f975 16bd 08ea e73b
00000120: 35d5 2b38 03a1 503c 1196 553c af00 61bb
00000130: ff3f a6bc 7127 ab3c 7003 933c 698c 3e3d
00000140: 4366 0ebc af07 293c 01ac 783c 2d27 90bc
00000150: 325d 023d 9679 9bbb c2ea b2bc e8d5 eabc
00000160: 0f13 3d3d 3b83 dbbc b488 e23c 5dfa 23bd
00000170: 126d b8bc a3fc dc3c a9d6 2ebd 30d2 28bd
00000180: a708 02bd d223 463c c2d9 ecbc 543a 2b3d
00000190: 1760 edbc 3452 f7bc 0e6e c53c 2f63 8abc
000001a0: f39e 1e3d 0ed4 743b 614a 4f3d bca1 0f3d
000001b0: 6a18 b63c c3fa 97bc 5e89 133d 6423 82bb
000001c0: 6b95 3cbd a3dd 2b3c 890f 043d 8886 fc3c
000001d0: d05d 08bd b301 72bc 9a0f bdbc 7e32 a1bc
000001e0: 8d58 a5bc d95d 093c a0f7 63bc c62f 183c
000001f0: 0dc9 543d da98 59ba 286e bd3c ec9d 0b3d
00000200: 45e5 2cbc 5201 d83b 45fa 0f3a 540a ba3c
00000210: 87c2 c03c 4ecf 9fbc cba8 42bc 3968 cabc
00000220: ea0a 21bc 80a7 8dbc 29b3 0fbd 56a7 d6bc
00000230: 3094 1abd bcd8 913c 2a04 853c 3118 26bc
00000240: d99e 8dbc e03e 2abd 9d32 85bb c517 06bd
00000250: f521 2dbd 757a 103c 442c d5bc dd24 af3b
00000260: 0308 0e3d 5f58 48bd f05c 903c 08b1 f5bb
00000270: 9f4e a53b 3fcf a03c dabe 883c 866b 49bc
00000280: 301c 4dbd 3552 a4bc 6acc 96bc 2eb8 123d
00000290: 173e 323d 41e8 c93b ffcf 8a3b 581f 0e3d
000002a0: 84d3 bdbc 5228 333c facd 683c d22d 38bd
000002b0: cd2b aebc 2bd6 7a3b 4ed8 0cbd ec82 bd3c
000002c0: 7341 66bd cfed 55bd d3ed 66bc 6d88 993a
000002d0: 75e2 ae3c 7bbc 913b 7bab a83c d929 21bd
000002e0: 24da 9fbb 9aab 1b3c e29f 17bd a871 d6bc
000002f0: f2e7 9bbc 8f5b 9f3c 48cd ef3c 5d16 36bd
00000300: e68f 2c3d bcf9 3ebd ea65 4a3d 5934 343c
00000310: eb03 053d 40da aebc 52aa 093d 00b7 a9bc
00000320: 88fb b43c d85b 133b 96f2 1abd 7c8a febc
00000330: 84e4 45bc 192c 7fbd 6212 44bc 009d 9a3c
00000340: 5335 013b 3f91 c3bc 414d fc3c d4fd d33c
00000350: 309b 87bb c26a c53a 23d6 d83c 070e 83bc
00000360: 80ff b93b 9740 e5bb 2090 03bd 7877 efbc
00000370: ffa4 e2bc 3f41 efbc e563 a0b9 13ba 013d
00000380: 25af fc3c 91b7 393d 7d31 ec3c 5f5a 89bc
00000390: 6a39 36bc 251a 8fbc 41fa d33b 45d4 5a3d
000003a0: 95d4 183a 42ef 1f3b 7a74 ec3c 9c36 e03c
000003b0: af68 2a3d 9f84 90bc 7fe2 05bd f095 053d
000003c0: 7751 883b d4b2 4e3c fa9e d0bc 2de8 e83c
000003d0: feb5 1dbd 71a0 543c 7a9f 65bc 5f1f 083c
000003e0: fb93 25bd 7a88 b6bc 40e7 30bd 1eb3 19bd
000003f0: 2779 e33c 2d61 39bd d6df 933c e5fc 4fbc

layer2.0.bias f4 [64]
-0.03686941 -0.012014208 0.03339886 0.006057993 0.01216415 0.008021704 0.00052686245 -0.015751822
0.026889836 -0.016704442 0.00914866 0.006553345 -0.040492285 -0.031596567 0.025782073 -0.0051498553
-0.023220962 0.0049993857 -0.020285903 -0.040135466 0.020745184 -0.004587845 0.025354514 0.020202175
0.02965515 0.006797363 -0.025138522 0.039088994 0.022438368 0.004454099 -0.012406083 0.018671652
0.021324005 -0.013808971 -0.0070660985 -0.019103518 0.024200827 0.008804309 0.008238258 -0.03669677
-0.014954407 0.03183009 -0.03914142 -0.0020589759 0.038634364 -0.012219296 0.032882992 0.0011443375
0.029219523 0.022254458 -0.014916061 0.014955814 -0.0047608926 -0.033072162 -0.037092563 0.020131886
-0.021310996 -0.0140454 -0.029643763 -0.011365597 -0.007314967 -0.037888315 0.008754805 -0.035342902
00000000: 6104 17bd 3ed7 44bc 3ecd 083d 2182 c63b
00000010: 254c 473c 776d 033c 241d 0a3a f709 81bc
00000020: 1348 dc3c c1d7 88bc 43e4 153c 71bd d63b
00000030: 3ddb 25bd 676b 01bd ed34 d33c 1ec0 a8bb
00000040: e339 bebc e3d1 a33b 9f2e a6bc 1665 24bd
00000050: cef1 a93c a255 96bb 45b4 cf3c 087f a53c
00000060: 5bef f23c 6abc de3b 4def cdbc c81b 203d
00000070: abd0 b73c b1f3 913b e242 4bbc 4bf5 983c
00000080: aeaf ae3c 063f 62bc bb8a e7bb fb7e 9cbc
00000090: d040 c63c f33f 103c c2f9 063c 5a4f 16bd
000000a0: 5403 75bc 4560 023d c152 20bd e2ef 06bb
000000b0: 113f 1e3d 7133 48bc 51b0 063d 98fd 953a
000000c0: c85d ef3c fb4e b63c 7f62 74bc 3b09 753c
000000d0: 4301 9cbb ad76 07bd 5fee 17bd a0eb a43c
000000e0: 6694 aebc ad1e 66bc 7ad7 f2bc c536 3abc
000000f0: 64b2 efbb c730 1bbd 5070 0f3c b8c3 10bd

layer2.1.weight f4 [64]
0.9916972 0.9722009 1.0229691 1.0217804 1.0017397 1.0278767 1.010965 1.0098897
1.0044277 0.98656803 0.98754644 0.99914783 1.0134966 0.9775388 0.9876244 0.9976311
0.9996489 0.9937272 0.9744854 0.9937791 0.9886559 0.9962963 1.0110373 0.99145997
0.977441 0.99307644 1.0093359 0.9961324 0.9933248 1.0124518 0.9783826 1.0228118
0.9947314 0.9967573 0.9936527 0.9984533 0.99376845 0.99464244 1.0021052 0.9954295
1.0247266 1.0363275 0.9960838 0.99870515 1.0075889 0.9899034 1.0020968 0.981447
0.98670256 0.995031 0.96950877 1.0104929 0.9910561 1.0347365 1.0039958 0.99005526
0.9902497 1.0027345 0.9864537 1.0201126 1.0065347 1.010611 0.95709556 1.0207046
00000000: dedf 7d3f 28e2 783f a7f0 823f b3c9 823f
00000010: 0239 803f 7791 833f 4d67 813f 1144 813f
00000020: 1691 803f b98f 7c3f d8cf 7c3f 27c8 7f3f
00000030: 42ba 813f fc3f 7a3f f4d4 7c3f c064 7f3f
00000040: fee8 7f3f e864 7e3f e077 793f 4f68 7e3f
00000050: 8e18 7d3f 460d 7f3f ac69 813f 52d0 7d3f
00000060: 9339 7a3f 423a 7e3f eb31 813f 8802 7f3f
00000070: 894a 7e3f 0598 813f 4877 7a3f 7feb 823f
00000080: b8a6 7e3f 7d2b 7f3f 0660 7e3f a39a 7f3f
00000090: 9c67 7e3f e3a0 7e3f fc44 803f 78d4 7e3f
000000a0: 3e2a 833f 61a6 843f 59ff 7e3f 24ab 7f3f
000000b0: acf8 803f 4f6a 7d3f b544 803f 1c40 7b3f
000000c0: 8a98 7c3f 5aba 7e3f ba31 783f d557 813f
000000d0: dab5 7d3f 3f72 843f ef82 803f 4374 7d3f
000000e0: 0181 7d3f 9b59 803f 3b88 7c3f 0d93 823f
000000f0: 21d6 803f b45b 813f 3704 753f 73a6 823f

layer2.1.bias f4 [64]
-0.04779853 -0.027370906 -0.02118997 -0.074969165 -0.055743955 0.0031177301 -0.017050035 -0.044216808
-0.03897209 -0.008742114 -0.003693053 -0.020504246 0.0009125775 -0.03380693 -0.014676532 -0.024730718
-0.04386849 -0.04860235 -0.038404815 -0.013938307 -0.047506917 -0.02302728 -0.04330859 0.009697875
-0.008266873 -0.08293878 -0.008191937 -0.018381814 -0.015090883 -0.0039852895 -0.05446774 -0.025879113
-0.038506087 -0.012813808 -0.017059254 -0.030878905 -0.043053307 -0.01581617 -0.030581703 -0.07970736
-0.105092 -0.040732965 -0.030491779 -0.06471482 -0.015061455 -0.027278043 -0.03429243 9.0383444e-05
-0.020629752 -0.015232175 0.0066938605 -0.048542354 -0.027194934 -0.069673 -0.054863278 -0.037609015
0.0075799855 -0.07491447 -0.015408109 -0.006900948 0.016458396 -0.028648619 -0.02609022 -0.04743318
00000000: 64c8 43bd f338 e0bc 9796 adbc 6f89 99bd
00000010: c653 64bd d552 4c3b 84ac 8bbc af1c 35bd
00000020: 33a1 1fbd 153b 0fbc 2607 72bb 85f8 a7bc
00000030: 0a3a 6f3a 2379 0abd d675 70bc 1398 cabc
00000040: 72af 33bd 4213 47bd 5e4e 1dbd 7f5d 64bc
00000050: 9d96 42bd b5a3 bcbc 5964 31bd d6e3 1e3c
00000060: c771 07bc cfdb a9bd 7937 06bc 7595 96bc
00000070: c03f 77bc 0897 82bb 9119 5fbd 6f00 d4bc
00000080: 8fb8 1dbd 02f1 51bc d9bf 8bbc c2f5 fcbc
00000090: aa58 30bd ea90 81bc 7b86 fabc 9d3d a3bd
000000a0: 793a d7bd 9cd7 26bd e5c9 f9bc 3489 84bd
000000b0: 52c4 76bc 3476 dfbc 3876 0cbd 3e8c bd38
000000c0: baff a8bc 5f90 79bc 2c58 db3b 59d4 46bd
000000d0: e9c7 debc b8b0 8ebd 51b8 60bd e90b 1abd
000000e0: 8761 f83b c26c 99bd 4b72 7cbc 5921 e2bb
000000f0: c2d3 863c 82b0 eabc 28bb d5bc 4b49 42bd

layer2.1.running_mean f4 [64]
-0.5439539 -0.8047165 -1.0713904 -0.35126138 -0.7146194 -0.76630825 -0.45869544 -0.4914008
-0.7679267 -0.31403437 -1.1920981 -0.9323232 -0.7557726 -0.56482893 -0.47227892 -0.8962277
-0.97685504 0.20939906 -0.7785852 -1.0261009 0.24632692 0.3971082 -0.9836065 -0.6426529
-0.80005944 0.31435886 -0.5660262 0.008086159 -0.6479994 -1.0202627 -0.84253615 -0.27812466
0.22519025 -0.92865753 -1.3052287 -1.2106582 0.452321 -1.1062838 0.07713935 -0.011029203
-0.5239077 -0.884306 -0.15211083 -0.024477405 -0.3162255 -0.07076443 -0.4610393 0.19956398
-0.44604063 -1.0654708 -0.041714307 -0.40543213 0.5449003 -0.41004616 -0.6228238 0.36125425
-0.104701504 0.077216044 -0.026415452 -0.95105493 -1.2038032 -0.8264706 -0.20364888 -0.2870542
00000000: 9040 0bbf e701 4ebf 5223 89bf 88d8 b3be
00000010: 4cf1 36bf c72c 44bf 21da eabe e398 fbbe
00000020: d896 44bf 1dc9 a0be ac96 98bf bcac 6ebf
00000030: 507a 41bf a198 10bf 8bce f1be 2e6f 65bf
00000040: 2c13 7abf b56c 563e 5c51 47bf 4657 83bf
00000050: 203d 7c3e c451 cb3e a3cd 7bbf e784 24bf
00000060: b2d0 4cbf a5f3 a03e 18e7 10bf cf7b 043c
00000070: 4ae3 25bf f897 82bf 73b0 57bf 5b66 8ebe
00000080: 4698 663e 80bc 6dbf bc11 a7bf d9f6 9abf
00000090: 9e96 e73e b59a 8dbf 3cfb 9d3d d5b3 34bc
000000a0: d11e 06bf e161 62bf f1c2 1bbe d784 c8bc
000000b0: 4fe8 a1be f1ec 90bd 580d ecbe 805a 4c3e
000000c0: 705f e4be 5961 88bf 9fdc 2abd cd94 cfbe
000000d0: 967e 0b3f 92f1 d1be 6171 1fbf 51f6 b83e
000000e0: be6d d6bd 7223 9e3d 3865 d8bc 5678 73bf
000000f0: 3916 9abf 9493 53bf 5589 50be c5f8 92be

layer2.1.running_var f4 [64]
0.36842537 0.5320755 0.30693805 0.33232933 0.3848239 0.39855623 0.2306252 0.27334008
0.33240798 0.309024 0.725989 0.4911219 0.2897001 0.9958038 0.8070882 0.44881797
0.55161476 0.3449247 0.39110357 1.2500694 0.24462566 0.64200675 0.3723851 1.7885852
0.4359557 0.2140084 0.49634266 0.73418486 0.41838485 0.3562558 0.4367516 0.32991266
0.3468434 0.36370364 1.1468396 0.5952734 0.24029632 0.5126647 0.32470167 0.14865132
0.14993739 0.17915249 0.59799623 0.22483405 0.5923152 0.6597596 0.3958126 0.40815753
0.62301314 0.7092461 0.65327364 0.25846958 0.67310023 0.27678984 0.3784234 0.9157363
0.4762692 0.1903235 1.1137154 0.5846509 0.45829442 0.1879362 0.7145966 0.3601814
00000000: 40a2 bc3e 1a36 083f fc26 9d3e 1227 aa3e
00000010: a307 c53e 900f cc3e 0329 6c3e 3bf3 8b3e
00000020: 6131 aa3e 6538 9e3e 6ada 393f 5474 fb3e
00000030: 9253 943e ffec 7e3f 559d 4e3f 78cb e53e
00000040: a036 0d3f f899 b03e ba3e c83e 4602 a03f
00000050: 267f 7a3e 8e5a 243f 43a9 be3e 5cf0 e43f
00000060: 9635 df3e 0525 5b3e a020 fe3e 8af3 3b3f
00000070: 8a36 d63e 2967 b63e e89d df3e 50ea a83e
00000080: 7595 b13e 5d37 ba3e a4cb 923f d663 183f
00000090: 3d10 763e fe3d 033f 4c3f a63e 0d38 183e
000000a0: 3089 193e c073 373e 4816 193f e63a 663e
000000b0: f8a1 173f 01e6 283f f3a7 ca3e 06fa d03e
000000c0: ca7d 1f3f 2791 353f f13c 273f 2056 843e
000000d0: 4c50 2c3f 66b7 8d3e b6c0 c13e b26d 6a3f
000000e0: 8ed9 f33e 2ae4 423e 3a8e 8e3f aeab 153f
000000f0: 91a5 ea3e 5972 403e ceef 363f b269 b83e

layer3.0.weight f4 [64, 64, 3, 3]
0.011716565 0.006161398 -0.016696496 -0.029449604 -0.008783621 0.0344537 -0.004733065 0.04148602
0.0119505655 -0.004994053 -0.032138597 -0.03580595 -0.00088602735 -0.0026352939 -0.048094165 0.006904585
0.0025437493 0.017279215 -0.030914411 -0.0005482017 0.036847137 -0.009318036 0.06469229 -0.036305852
0.06531983 0.048107978 -0.019605827 0.01854298 -0.013380227 -0.032616686 -0.031392768 -0.02085041
0.03366048 -0.013356888 -0.0150568485 0.016688695 0.00085419696 -0.00046648303 -0.013806435 0.011119105
0.009624969 -0.00044633012 -0.03970942 -0.0034154356 -0.012032205 0.054881748 0.053901557 0.0037158774
0.043772887 0.023705631 0.0078033865 0.02465447 0.003003244 -0.0058830925 -0.032324765 0.021612247
-0.019733254 0.0153167965 -0.021394795 -0.019387318 -0.02112874 -0.014902119 -0.002594519 0.026850315
0.0036407656 -0.025460381 0.034331024 0.023050211 0.012112662 -0.07695381 -0.028266806 -0.011735129
-0.024205446 -0.0050852424 -0.041250993 0.038968727 0.033095583 -0.0067142793 0.0067927428 0.070105925
0.022993343 -0.03676746 -0.034123972 -0.03200531 0.036746744 0.007829121 0.0019315155 -0.050557535
0.0050301533 -0.007706784 -0.05609499 -0.031335853 -0.022367401 0.042481966 0.040260244 0.015889198
-0.024658363 -0.0052934475 -0.0093645435 0.027888214 -0.023385556 0.014218567 0.025336653 0.00679612
-0.03642829 -0.029724998 -0.013519461 -0.00495106 0.04940372 0.079003036 0.02400672 -0.01481729
-0.015038077 0.027088417 -0.0014318154 0.017381951 -0.037454292 -0.0106294695 -0.038584504 0.0019251667
-0.011663473 0.015609794 0.015599742 0.04811751 0.037495904 -0.030274885 0.0029920014 -0.03076437
-0.02844879 -0.00762808 -0.00742888 -0.023696952 -0.03479323 -0.010899934 -0.002645184 0.029432265
0.019574996 0.022690535 0.043198366 0.040486135 0.024249692 -0.015701788 -0.027334517 0.027503328
0.035738133 -0.042849503 -0.05202208 -0.0101582715 0.03928811 -0.017017987 -0.0004814948 0.053292386
-0.004881221 -0.01562528 0.029615013 -0.011884356 0.022917083 0.030873248 0.033641547 -0.023986464
-0.0003266675 -0.03821622 0.0035212028 -0.009826142 0.011391455 0.03769905 0.054392632 0.0077069565
-0.03801698 0.015420599 0.048216138 -0.03884306 -0.03995437 -0.016202591 0.010357481 0.029393349
-0.016832393 -0.011147454 0.008564017 -0.04560605 -0.032043334 0.0054579377 0.029061401 -0.008387733
-0.012141866 0.00196566 0.0129802935 -0.035446018 0.027417442 -0.012019107 0.020214487 0.017507462
-0.02152147 -0.031760745 0.038906004 -0.007562707 0.02000523 -0.0117718475 -0.030707717 -0.011232392
0.020004772 -0.0037870358 -0.0038794389 -0.020950712 -0.017423486 -0.01673323 0.022612352 0.0017919804
0.054267187 0.05229331 0.014689192 -0.004800195 0.029259091 -0.027574105 -0.03780444 -0.022227786
0.046743136 -0.027955811 -0.005535731 7.517356e-05 0.016965076 -0.028818227 -0.009016928 0.038107503
-0.013857797 0.022859592 0.0042279 0.03383641 0.042159792 0.03352557 0.0024636025 0.030490657
0.030534929 -0.007790989 -0.021799313 0.016689137 0.0129905315 -0.049261373 0.01944223 0.02273723
-0.047639754 -0.0039063403 0.039154 -0.005335172 0.056050014 0.017520811 -0.0009821432 0.009499651
0.026344538 0.044309653 -0.022323104 0.006883146 -0.043505408 -0.044125777 -0.008119242 -0.017993215
00000000: d6f6 3f3c 8de5 c93b 17c7 88bc 4c40 f1bc
00000010: 2de9 0fbc 531f 0d3d d417 9bbb 3fed 293d
00000020: 4ecc 433c 27a5 a3bb c3a3 03bd 43a9 12bd
00000030: 4a44 68ba e5b4 2cbb 63fe 44bd db3f e23b
00000040: 08b5 263b 248d 8d3c 3840 fdbc 31b5 0fba
00000050: 06ed 163d adaa 18bc 647d 843d 72b5 14bd
00000060: 67c6 853d df0c 453d 669c a0bc 73e7 973c
00000070: bd38 5bbc 1399 05bd b495 00bd 7bce aabc
00000080: 92df 093d d9d6 5abc 00b1 76bc bbb6 883c
00000090: 30ec 5f3a 4b92 f4b9 6334 62bc e82c 363c
000000a0: 0cb2 1d3c 6a01 eab9 58a6 22bd 80d5 5fbb
000000b0: ba22 45bc afcb 603d e1c7 5c3d 1486 733b
000000c0: 334b 333d 5032 c23c 8db3 ff3b 2cf8 c93c
000000d0: 13d2 443b f5c6 c0bb f966 04bd 2b0c b13c
000000e0: a2a7 a1bc 4df3 7a3c 2344 afbc 27d2 9ebc
000000f0: 2e16 adbc 0428 74bc ce08 2abb 31f5 db3c
00000100: e999 6e3b 4a92 d0bc b09e 0c3d ccd3 bc3c
00000110: 3074 463c f699 9dbd ca8f e7bc b344 40bc
00000120: 804a c6bc 1ba2 a6bb cdf6 28bd ac9d 1f3d
00000130: 3c8f 073d 7503 dcbb a895 de3b b293 8f3d
00000140: 895c bc3c 7a99 16bd 94c5 0bbd 0018 03bd
00000150: c183 163d b745 003c e82a fd3a 6b15 4fbd
00000160: fcd3 a43b 3189 fcbb dcc3 65bd 065a 00bd
00000170: d73b b7bc 9201 2e3d ede7 243d 102a 823c
00000180: 5600 cabc a874 adbb be6d 19bc d375 e43c
00000190: 1193 bfbc fef4 683c d08e cf3c fdb1 de3b
000001a0: d535 15bd d781 f3bc bb80 5dbc 803c a2bb
000001b0: 8e5b 4a3d 58cc a13d bea9 c43c 38c4 72bc
000001c0: 4462 76bc 87e8 dd3c c1ab bbba 9864 8e3c
000001d0: ac69 19bd 3a27 2ebc c90a 1ebd e055 fc3a
000001e0: 2718 3fbc 39c0 7f3c 0f96 7f3c de16 453d
000001f0: 4e95 193d 0903 f8bc 7415 443b 8f05 fcbc
00000200: 700d e9bc f9f4 f9bb f66d f3bb 1c20 c2bc
00000210: 5983 0ebd a395 32bc d35a 2dbb ef1b f13c
00000220: be5b a03c 80e1 b93c c5f0 303d cad4 253d
00000230: 4aa7 c63c 09a1 80bc a3ec dfbc a94e e13c
00000240: 2662 123d f682 2fbd 1b15 55bd e16e 26bc
00000250: 92ec 203d 4e69 8bbc 2371 fcb9 1e49 5a3d
00000260: a6f2 9fbb 9600 80bc 2f9b f23c 9ab6 42bc
00000270: 9bbc bb3c e5e9 fc3c b8cb 093d 437f c4bc
00000280: 9244 abb9 9c88 1cbd fbc3 663b d4fd 20bc
00000290: 3aa3 3a3c 526a 1a3d cfca 5e3d a38a fc3b
000002a0: b1b7 1bbd aea6 7c3c 497e 453d e719 1fbd
000002b0: 32a7 23bd 4cbb 84bc 6db2 293c 52ca f03c
000002c0: 16e4 89bc d0a3 36bc 1750 0c3c 69cd 3abd
000002d0: df3f 03bd 80d8 b23b 2d12 ee3c b46c 09bc
000002e0: adee 46bc 4dd2 003b 4cab 543c d82f 11bd
000002f0: 8b9a e03c caeb 44bc da98 a53c cf6b 8f3c
00000300: cb4d b0bc 8e17 02bd e75b 1f3d 96d0 f7bb
00000310: 02e2 a33c b5de 40bc c08e fbbc 1108 38bc
00000320: 0ce1 a33c eb2f 78bb 2f3e 7ebb d4a0 abbc
00000330: b3bb 8ebc 2014 89bc 8a3d b93c e2e0 ea3a
00000340: 4547 5e3d 8331 563d f0aa 703c f44a 9dbb
00000350: c3b0 ef3c 17e3 e1bc d4d8 1abd 0c17 b6bc
00000360: bb75 3f3d 9603 e5bc 1465 b5bb 7fa6 9d38
00000370: 58fa 8a3c 3414 ecbc bdbb 13bc 9d16 1c3d
00000380: d00b 63bc 0a44 bb3c 328a 8a3b 0c98 0a3d
00000390: bfaf 2c3d 1c52 093d 6474 213b 8bc7 f93c
000003a0: 6324 fa3c 8d4b ffbb 7994 b2bc a8b7 883c
000003b0: 3dd6 543c 4bc6 49bd 5045 9f3c 6d43 ba3c
000003c0: e721 43bd c200 80bb f25f 203d abd2 aebb
000003d0: b394 653d ce87 8f3c 42bb 80ba 6da4 1b3c
000003e0: 80d0 d73c 0a7e 353d f1de b6bc 038c e13b
000003f0: ba32 32bd 3bbd 34bd 9206 05bc 8266 93bc

layer3.0.bias f4 [64]
0.0050338316 0.025209341 0.03207247 0.021688025 -0.004155484 -0.010084296 -0.030630449 0.0069068614
-0.0026062527 -0.0069197887 0.023313459 0.0019916792 -0.023807662 0.017620329 0.0003593789 0.004843731
-0.034277678 0.03278708 0.00587671 0.0069498457 -0.037084937 0.003591168 0.027333673 -0.019808704
0.032603934 -0.018702885 -0.037330642 0.037010223 0.023065124 0.017522726 0.017985972 -0.03759071
0.03931865 0.009718105 0.017109426 -0.00014289544 0.034582794 -0.020468488 -0.009061425 -0.0417772
0.02691659 0.029475298 -0.011171502 -0.02642643 -0.035297107 0.019849638 0.008801657 -0.033059414
-0.006913122 -0.033996258 0.0024108891 -0.011645996 -0.010294272 0.030113274 0.009691766 -0.02992415
0.026342938 0.019092148 -0.010153432 0.0038617696 0.037150644 -0.037459947 -0.032351416 -0.037298124
00000000: d7f2 a43b d283 ce3c 6c5e 033d 16ab b13c
00000010: ba2a 88bb 9a38 25bc b5ec fabc f452 e23b
00000020: aacd 2abb 65bf e2bb defb be3c d586 023b
00000030: 4908 c3bc 8258 903c 056b bc39 29b8 9e3b
00000040: c066 0cbd bf4b 063d 6b91 c03b 88bb e33b
00000050: 60e6 17bd cd59 6b3b deea df3c dd45 a2bc
00000060: b48b 053d cb36 99bc 04e8 18bd 0898 173d
00000070: 12f3 bc3c d28b 8f3c 5157 933c b7f8 19bd
00000080: 980c 213d b038 1f3c 1129 8c3c 34d6 15b9
00000090: b0a6 0d3d 88ad a7bc 5f76 14bc 921e 2bbd
000000a0: 2e80 dc3c 2e76 f13c ad08 37bc 3e7c d8bc
000000b0: b393 10bd b59b a23c d334 103c 4f69 07bd
000000c0: 7887 e2bb a93f 0bbd 0200 1e3b d9ce 3ebc
000000d0: 4ea9 28bc 1db0 f63c 37ca 1e3c 7e23 f5bc
000000e0: 25cd d73c 2367 9c3c 955a 26bc be15 7d3b
000000f0: 462b 183d 9a6f 19bd eb82 04bd ebc5 18bd

layer3.1.weight f4 [64]
0.9606233 0.98240817 1.0068383 0.9788602 1.0015204 0.9623749 0.9885134 0.9799979
1.0096185 0.95976907 1.0359516 0.98831636 0.9961815 1.0232402 0.976151 1.0129013
1.0446255 0.95673484 1.0269322 0.9614624 1.0129588 0.98728234 0.96719927 1.0032377
0.9843529 1.0345759 0.9677153 0.9542633 1.0019529 1.0025548 1.0041465 1.0081131
1.0197563 0.96246475 0.97813386 0.9759938 1.0228297 1.0240042 1.0307364 0.96136135
1.0577663 0.9522564 1.0287309 0.9627535 1.0250411 0.9804735 0.96882224 1.0284485
0.9473284 1.0070673 0.99474204 1.0069945 0.9702914 0.96413064 0.99024653 1.0005766
1.0771576 1.0569324 1.0223968 0.98849136 1.0022857 1.0051498 1.0596836 0.98388237
00000000: 69eb 753f 1a7f 7b3f 14e0 803f 9596 7a3f
00000010: d231 803f 345e 763f 370f 7d3f 24e1 7a3f
00000020: 2e3b 813f 6db3 753f 109a 843f 4d02 7d3f
00000030: c005 7f3f 89f9 823f 08e5 793f c0a6 813f
00000040: 4ab6 853f 93ec 743f 8472 833f 6622 763f
00000050: a2a8 813f 89be 7c3f 5f9a 773f 186a 803f
00000060: 8dfe 7b3f fc6c 843f 31bc 773f 9a4a 743f
00000070: fe3f 803f b753 803f df87 803f da09 813f
00000080: 6087 823f 1764 763f fb66 7a3f bbda 793f
00000090: 15ec 823f 9212 833f 2cef 833f c71b 763f
000000a0: e364 873f 13c7 733f 74ad 833f 0377 763f
000000b0: 8c34 833f 5000 7b3f bc04 783f 33a4 833f
000000c0: 1d84 723f 95e7 803f 6aa7 7e3f 32e5 803f
000000d0: 0465 783f 44d1 763f cc80 7d3f e512 803f
000000e0: 4de0 893f 9049 873f e6dd 823f c50d 7d3f
000000f0: e64a 803f c0a8 803f b6a3 873f b7df 7b3f

layer3.1.bias f4 [64]
-0.065286145 -0.026570018 -0.030292956 -0.04117465 -0.03908228 -0.027665554 -0.06453053 -0.010514686
-0.058379054 -0.028048983 -0.06561343 -0.06132411 -0.055102117 -0.06122751 -0.07868753 -0.044040397
-0.058479227 -0.07043192 -0.073868796 -0.040689506 -0.07208173 -0.06282886 0.005718709 -0.05518042
-0.055160295 -0.04359452 -0.00609021 -0.023878591 -0.096715726 -0.04048001 -0.05345067 -0.019224262
-0.111512974 -0.026007872 -0.040883496 -0.06966783 -0.06713856 -0.11839853 -0.066873275 -0.022332331
-0.10593248 -0.03584388 -0.093100354 -0.06012368 -0.05173853 -0.03456228 -0.0052695847 -0.0685025
-0.012251255 -0.05838087 -0.063448295 -0.09791623 -0.036189724 -0.055046514 -0.058346115 -0.041761864
-0.08960386 -0.09589909 -0.02435875 -0.03487985 -0.046797697 -0.053623497 -0.13188054 -0.029783033
00000000: beb4 85bd 5ea9 d9bc ef28 f8bc c0a6 28bd
00000010: be14 20bd dfa2 e2bc 9528 84bd ca45 2cbc
00000020: e01e 6fbd fbc6 e5bc 5660 86bd fd2e 7bbd
00000030: c2b2 61bd b3c9 7abd ed26 a1bd b463 34bd
00000040: ea87 6fbd 9c3e 90bd 8648 97bd 0aaa 26bd
00000050: 969f 93bd 6bac 80bd 0264 bb3b dd04 62bd
00000060: c3ef 61bd 2b90 32bd 6290 c7bb 099d c3bc
00000070: e512 c6bd 5ece 25bd 17ef 5abd 337c 9dbc
00000080: ea60 e4bd 760e d5bc 7475 27bd 02ae 8ebd
00000090: f17f 89bd ee7a f2bd dbf4 88bd 4bf2 b6bc
000000a0: 21f3 d8bd 08d1 12bd 66ab bebd 3f44 76bd
000000b0: c8eb 53bd 2d91 0dbd 7bac acbb 0a4b 8cbd
000000c0: 7db9 48bc c720 6fbd 2ef1 81bd 4e88 c8bd
000000d0: ad3b 14bd 7478 61bd 56fc 6ebd 7d0e 2bbd
000000e0: 3b82 b7bd be66 c4bd 008c c7bc 2cde 0ebd
000000f0: f1ae 3fbd 50a4 5bbd b10b 07be 8cfb f3bc

layer3.1.running_mean f4 [64]
0.07493808 -0.72157323 -1.1079292 -0.5824926 -0.67676634 -0.564366 -0.6601138 -0.88055444
-0.7402887 -0.5454747 -0.76329017 -0.26201743 -0.8776147 -0.75901955 0.18525922 -0.4549727
-0.81807184 -0.54512006 -0.97901684 -0.57526237 -0.7121337 -0.37353703 -0.15764703 -0.5280938
-0.7217396 -0.5979392 -0.7895685 -0.2568478 -0.33291683 -0.12423911 -0.6040794 -0.98096144
0.21574618 -0.76387477 -0.7176762 -0.16341826 -0.6009583 0.25668243 -0.7649839 -0.20119618
-0.18180183 -0.39820462 0.09528602 -0.7669998 -0.73984456 -0.68067324 -0.9337736 -0.93013597
-1.1422547 0.24060495 -0.14116824 -0.35162342 -0.5834732 -0.2192578 -0.61298925 -0.37102395
-0.5889741 -0.79708433 -0.8038062 -0.3675693 -0.4969219 -0.8995557 -0.40179038 -0.67026144
00000000: 2379 993d 06b9 38bf a0d0 8dbf 3c1e 15bf
00000010: 8f40 2dbf 4a7a 10bf 38fd 28bf 046c 61bf
00000020: 8f83 3dbf 3ba4 0bbf fc66 43bf 2627 86be
00000030: 5bab 60bf 1b4f 42bf 98b4 3d3e 2ff2 e8be
00000040: 286d 51bf fd8c 0bbf d9a0 7abf 6544 13bf
00000050: 654e 36bf 3f40 bfbe 396e 21be 2831 07bf
00000060: edc3 38bf 8b12 19bf 2921 4abf 8e81 83be
00000070: 1374 aabe 1371 febd f3a4 1abf 4a20 7bbf
00000080: 91ec 5c3e 4c8d 43bf a1b9 37bf 1e57 27be
00000090: 67d8 19bf e16b 833e fcd5 43bf 5f06 4ebe
000000a0: 422a 3abe 7ae1 cbbe 5125 c33d 195a 44bf
000000b0: 7466 3dbf 9a40 2ebf c90b 6fbf 641d 6ebf
000000c0: 6735 92bf 2561 763e 688e 10be fc07 b4be
000000d0: 805e 15bf 1e85 60be ddec 1cbf daf6 bdbe
000000e0: 02c7 16bf b80d 4cbf 3ec6 4dbf 0b32 bcbe
000000f0: 8c6c febe 4849 66bf 78b7 cdbe 4196 2bbf

layer3.1.running_var f4 [64]
0.2746035 0.40007952 0.3536849 0.32763773 0.46635607 0.60224766 0.3604497 0.45207947
0.41393584 0.36039528 0.379017 0.3381892 0.3048398 0.32902575 0.30717775 0.2568816
0.2293764 0.32366943 0.38967115 0.2710827 0.21492831 0.29123393 0.41809347 0.38908654
0.21463782 0.27833697 0.49585468 0.94571835 0.18784381 0.28602698 0.33282095 0.3424598
0.19645649 0.4742838 0.4359297 0.2526062 0.26336625 0.23891458 0.23746473 0.7455
0.2720912 0.6042663 0.21813044 0.5860711 0.20579405 0.23092337 0.3497724 0.23684601
0.9265717 0.36537546 0.2728601 0.20569944 0.28066772 0.3389503 0.44416168 0.32509777
0.2540735 0.26871595 0.24000624 0.3672219 0.28685275 0.2956927 0.24136423 0.34241408
00000000: d498 8c3e 39d7 cc3e 3016 b53e 22c0 a73e
00000010: 39c6 ee3e e72c 1a3f dd8c b83e f676 e73e
00000020: 66ef d33e bb85 b83e 840e c23e 2327 ad3e
00000030: f613 9c3e 1076 a83e 6746 9d3e fc85 833e
00000040: a6e1 6a3e 00b8 a53e fa82 c73e 5acb 8a3e
00000050: 2b16 5c3e 9d1c 953e 5910 d63e 5a36 c73e
00000060: 04ca 5b3e 2f82 8e3e aae0 fd3e 991a 723f
00000070: 215a 403e 2172 923e 8267 aa3e e456 af3e
00000080: e42b 493e 54d5 f23e 2d32 df3e 9a55 813e
00000090: f1d7 863e 06a6 743e f429 733e 17d9 3e3f
000000a0: 8a4f 8b3e 32b1 1a3f 965d 5f3e c108 163f
000000b0: adbb 523e 2d77 6c3e 5e15 b33e c387 723e
000000c0: ce33 6d3f 7e12 bb3e 52b4 8b3e e0a2 523e
000000d0: aeb3 8f3e e58a ad3e 2969 e33e 3773 a63e
000000e0: ec15 823e 2395 893e 32c4 753e 8204 bc3e
000000f0: 5dde 923e 0965 973e 2f28 773e e650 af3e

layer4.0.weight f4 [64, 64, 3, 3]
0.03193533 0.0063147475 0.024926053 -0.043632995 -0.008899481 0.0263525 0.017247735 -0.01003193
-0.03300597 0.0032167947 -0.01646661 -0.011441146 -0.006782172 0.010271795 0.012816232 0.012520521
0.0035183902 0.02022226 0.02359798 0.02212726 -0.011301409 -0.009361524 0.011601154 -0.012521811
0.014632581 -0.0123169655 -0.0072805313 -0.03715713 0.037821166 0.041451942 -0.014891153 -0.014993215
-0.020196753 -0.025049523 -0.008332996 0.014250355 -0.007998543 -0.022399088 -0.054914284 0.012243028
0.0252029 0.063134156 -0.035785943 0.055175517 0.13108777 0.0050574793 -0.0011510747 -0.012634486
-0.00939198 -0.0034911311 0.01187858 -0.024080452 0.03890915 0.062080376 -0.00037247673 0.0029900044
-0.021183781 0.014573323 -0.0024820638 0.027302705 -0.026104307 0.03005489 -0.017393893 0.014693403
0.026493756 -0.0138119785 -0.0088004265 -0.002054672 0.01251066 -0.011969629 -0.05455255 -0.07043997
-0.018257435 -0.007501031 0.019400498 0.035784584 -0.015762897 0.0017619572 0.00076108024 0.03206833
-0.042707592 0.03607436 -0.0015189463 -0.029064765 0.013149518 0.01251239 -0.004068021 -0.06802499
-0.013295099 0.006777352 -0.009297598 -0.007826519 0.047111902 -0.006145542 0.026313292 -0.04233986
-0.048489414 -0.032573115 0.037097253 0.004852612 0.033115305 -0.018899193 0.018211337 0.026347023
0.029842818 -0.003649011 0.02555057 0.035858534 -0.015291844 -0.021932859 -0.009074996 -0.007316124
-0.0016858765 0.029020768 0.057197116 0.027606523 -0.036730286 -0.022587135 0.035076685 0.019170992
0.0064826924 0.02309388 -0.01498645 -0.034986682 0.024765134 -0.053547572 -0.009232422 0.020131515
0.019968944 -0.026250385 -0.026877262 -0.0045442255 0.019311232 -0.0049118493 0.012891635 -0.024766058
-0.032314323 -0.015044952 0.0007927378 0.017530695 0.015898645 0.030031897 -0.007310883 0.023696912
0.00751647 0.0054237605 0.018281 -0.022946252 -0.0060801515 -0.032851905 0.023542613 0.013073586
-0.015150736 0.0146313505 0.017235106 -0.012051892 0.02131744 0.002649903 -0.013098383 0.0074273567
0.0059656305 -0.030431883 0.016146036 0.0017345895 0.008118284 -0.012644333 0.005994149 -0.0027030816
-0.0068344683 0.009105584 -0.03431961 0.024858795 0.017425874 0.001709312 -0.006033168 -0.027545005
0.011478926 -0.0475929 -0.06464744 -0.064786695 0.007132905 0.018223448 0.012293144 -0.010456309
0.003909292 0.024889052 0.0404156 0.035227053 0.013833688 -0.005371776 -0.02269831 -0.027436892
-0.04371655 -0.01566011 0.064543195 -0.011514254 -0.010861256 0.07235488 0.012817014 -0.021819223
0.041557997 0.0148045905 -0.026566314 -0.024863865 0.0067515755 -0.052902136 -0.0099427 -0.018200371
0.014787842 -0.009520854 8.896268e-05 0.017663313 0.038088486 -0.008265776 -0.008459413 0.04095097
-0.019170992 -0.0070443945 -0.0030081042 0.016282475 0.019453982 0.018366795 -0.012488656 -0.040634815
0.026821474 0.022235302 0.004099207 0.017161591 0.0057475977 0.015391036 -0.03195352 -0.004733126
-0.00037075215 -0.008787315 0.004954575 -0.014685091 -0.02196175 0.017190335 -0.00016352518 0.017845651
0.031538017 0.03134792 0.0721288 0.00896838 0.020686401 0.008401827 0.037436694 0.02842142
0.003774748 -0.020957671 0.016250573 0.009927345 0.0058103097 0.025230069 -0.0127919745 0.016113851
00000000: 9fce 023d f1eb ce3b b931 cc3c 83b8 32bd
00000010: 21cf 11bc 33e1 d73c 1f4b 8d3c f75c 24bc
00000020: 4531 07bd dcd0 523b fce4 86bc a573 3bbc
00000030: fb3c debb 084b 283c 2cfb 513c df22 4d3c
00000040: cb94 663b 27a9 a53c 8d50 c13c 3a44 b53c
00000050: 8c29 39bc 1461 19bc c412 3e3c 4828 4dbc
00000060: 7ebd 6f3c 19cd 49bc 8691 eebb 1332 18bd
00000070: 5eea 1a3d 83c9 293d 06fa 73bc 1aa6 75bc
00000080: a973 a5bc a834 cdbc 1e87 08bc 527a 693c
00000090: 520c 03bc 4b7e b7bc cded 60bd fb96 483c
000000a0: 5076 ce3c 7b4c 813d 4894 12bd b9ff 613d
000000b0: df3b 063e 36b9 a53b a8df 96ba e000 4fbc
000000c0: d2e0 19bc 76cb 64bb 609e 423c 5e44 c5bc
000000d0: 335f 1f3d fe47 7e3d fb48 c3b9 f3f3 433b
000000e0: 9c89 adbc f2c4 6e3c 1faa 22bb eca9 df3c
000000f0: b3d8 d5bc ac35 f63c a37d 8ebc 99bc 703c
00000100: 6f09 d93c a34b 62bc aa2f 10bc ada7 06bb
00000110: 83f9 4c3c 431c 44bc 7f72 5fbd d542 90bd
00000120: 9e90 95bc 35cb f5bb cbed 9e3c db92 123d
00000130: 3121 81bc 79f1 e63a 3b83 473a 155a 033d
00000140: 28ee 2ebd b5c2 133d 6117 c7ba 3b19 eebc
00000150: 1371 573c c400 4d3c 094d 85bb b050 8bbd
00000160: b0d3 59bc 8d14 de3b f454 18bc cd3a 00bc
00000170: 69f8 403d 8b60 c9bb f98e d73c 906c 2dbd
00000180: d69c 46bd 636b 05bd 4af3 173d a902 9f3b
00000190: eaa3 073d 7bd2 9abc f12f 953c b6d5 d73c
000001a0: ed78 f43c 3f24 6fbb 6e4f d13c 66e0 123d
000001b0: a48a 7abc 8aac b3bc 4baf 14bc 19bc efbb
000001c0: a1f8 dcba f6bc ed3c 8647 6a3d 1327 e23c
000001d0: 7f72 16bd a808 b9bc 92ac 0f3d 7c0c 9d3c
000001e0: c46c d43b 602f bd3c ba89 75bc 324e 0fbd
000001f0: 40e0 ca3c b354 5bbd 9643 17bc d9ea a43c
00000200: e995 a33c 0c0b d7bc b42d dcbc bae7 94bb
00000210: 9732 9e3c 94f3 a0bb 7037 533c 30e2 cabc
00000220: 065c 04bd 1a7f 76bc bccf 4f3a 889c 8f3c
00000230: e03d 823c 7405 f63c 2290 efbb 0720 c23c
00000240: b84c f63b cdb9 b13b 09c2 953c c7f9 bbbc
00000250: 023c c7bb b88f 06bd 70dc c03c 9832 563c
00000260: cb3a 78bc 55b8 6f3c a330 8d3c 4c75 45bc
00000270: e9a1 ae3c ffa9 2d3b 9a9a 56bc 2f61 f33b
00000280: 567b c33b 494c f9bc b144 843c 2a5b e33a
00000290: 8d02 053c 2d2a 4fbc 916a c43b 2f26 31bb
000002a0: adf3 dfbb 962f 153c b892 0cbd aca4 cb3c
000002b0: b5c0 8e3c fe0a e03a e2b1 c5bb 10a6 e1bc
000002c0: 1b12 3c3c c6f0 42bd e165 84bd e3ae 84bd
000002d0: 25bb e93b 5749 953c 2f69 493c f050 2bbc
000002e0: 8519 803b 20e4 cb3c d48a 253d 3e4a 103d
000002f0: b1a6 623c b905 b0bb cef1 b9bc 55c3 e0bc
00000300: 2010 33bd a249 80bc 392f 843d 48a6 3cbc
00000310: 69f3 31bc cc2e 943d 74fe 513c 3abe b2bc
00000320: b838 2a3d f48e 723c 99a1 d9bc 4eaf cbbc
00000330: 523c dd3b e9af 58bd b5e6 22bc f218 95bc
00000340: b448 723c 5bfd 1bbc 7a91 ba38 a7b2 903c
00000350: ac02 1c3d 2d6d 07bc 5a99 0abc 34bc 273d
00000360: 7c0c 9dbc aad4 e6bb 9d23 45bb d362 853c
00000370: f55d 9f3c f675 963c 389d 4cbc b170 26bd
00000380: b5b8 db3c cf26 b63c a452 863b 7796 8c3c
00000390: 5856 bc3b af2a 7c3c b2e1 02bd 5718 9bbb
000003a0: 8361 c2b9 acf8 0fbc fd59 a23b bc99 70bc
000003b0: 21e9 b3bc bfd2 8c3c f577 2bb9 0b31 923c
000003c0: 022e 013d ad66 003d 44b8 933d 1df0 123c
000003d0: 8776 a93c d1a7 093c 3857 193d 0ad4 e83c
000003e0: c361 773b 6caf abbc ec1f 853c 4ea6 223c
000003f0: 6964 be3b 4aaf ce3c 6e95 51bc 3201 843c

layer4.0.bias f4 [64]
0.030978002 0.034726862 -0.041731223 0.010193552 -0.019642454 -0.005607601 0.005462003 -0.04370693
0.011456892 0.041392725 -0.045509484 0.006030413 0.026704302 0.030227043 -0.026805941 0.031800378
0.026659418 0.03303961 -0.007620844 -0.04135644 0.045660976 -0.006323128 -0.034399185 -0.054104876
-0.023016285 -0.004190793 -0.024319904 0.04343533 -0.015368369 -0.014947087 -0.054853406 -0.033538297
-0.04297255 -0.024718318 -0.02480129 0.019359497 0.014960146 -0.018063614 0.017826796 0.019182688
0.024397777 -0.013327046 -0.008018087 0.022416063 0.05826645 0.04344332 -0.01808181 0.0334917
-0.005148405 0.0009424751 -0.044697203 0.04753599 -0.014912181 0.035143755 -0.07203897 -0.02421423
-0.0015722022 -0.017013444 0.04527178 0.041760534 -0.019848283 0.018546581 0.05885786 -0.0012831041
00000000: 94c5 fd3c c13d 0e3d 5cee 2abd db02 273c
00000010: 36e9 a0bc f7bf b7bb 9afa b23b 0a06 33bd
00000020: b0b5 3b3c 6b8b 293d 2768 3abd c59a c53b
00000030: fbc2 da3c b49e f73c 2298 dbbc 1d41 023d
00000040: da64 da3c 8b54 073d 46b8 f9bb 5f65 29bd
00000050: 0107 3b3d 3e32 cfbb 29e6 0cbd 139d 5dbd
00000060: a68c bcbc eb52 89bb 893a c7bc 3fe9 313d
00000070: 9dcb 7bbc a0e4 74bc f7ad 60bd 745f 09bd
00000080: fc03 30bd 127e cabc 132c cbbc cf97 9e3c
00000090: 661b 753c 25fa 93bc 8009 923c 0325 9d3c
000000a0: d9dd c73c af59 5abc 4b5e 03bc e4a1 b73c
000000b0: cda8 6e3d 9ff1 313d 4e20 94bc 982e 093d
000000c0: f4b3 a8bb 6f10 773a 6a14 37bd 19b5 423d
000000d0: 3852 74bc e6f2 0f3d 2b89 93bd ec5c c6bc
000000e0: 5a12 ceba c75f 8bbc e76e 393d 180d 2b3d
000000f0: de98 a2bc 00ef 973c f014 713d d42d a8ba
