FAST 3D-CNN P-NET/model/ZGFF/ZGFF_proto_2d-5shotband55.pth (torch, 583661 bytes, 24 tensors)

layer1.0.weight f4 [64, 55, 3, 3]
000000 c4 68 b4 bb 46 6c 7f 3d 5b 76 a2 3b 95 71 1c bd
       -0.005505653 0.062359117 0.0049579567 -0.038194258
000010 e2 2d a4 3c e9 03 65 3d 3d 32 6b bc 67 4f d8 bb
       0.02004141 0.055911932 -0.014355239 -0.0066012624
000020 51 f6 3e bd 49 99 00 bd dd c4 61 3b 12 59 8e bb
       -0.046621624 -0.031396184 0.0034449615 -0.004344114
000030 f3 15 83 3c c5 cc 80 3c e9 45 16 bc 1b 57 97 bc
       0.016001677 0.015722642 -0.009171941 -0.018474152
000040 4b 5b 37 3d 11 be 6a 3c 49 f8 15 bd db 7c d2 bb
       0.044764798 0.014327542 -0.036613736 -0.0064235753
000050 16 69 77 3d 5f e8 98 bc ae b9 80 3c ce 2f 6b 3d
       0.060402952 -0.01866549 0.015713539 0.057418637
000060 85 2d b2 bc 1c 4c 39 3d 0a df 6b 3d 29 3e 20 bd
       -0.021750221 0.0452386 0.057585754 -0.03912178
000070 35 15 8f 3b 06 94 2d bc 3d 1a 27 3d 9d 80 a0 3c
       0.0043665417 -0.010594374 0.040796507 0.019592578
000080 52 df 16 3d 7d 99 36 3d 6a 87 68 3d 01 13 8f bb
       0.03683407 0.04457997 0.056769766 -0.004366279
000090 f1 0e b8 bb 49 27 0e 3b 91 38 40 bd ff 21 b9 bc
       -0.0056170155 0.0021690896 -0.046928946 -0.022599218
0000a0 ca 3f ba 3c b0 fe 07 3d 7d 38 54 bb 72 e9 12 3d
       0.022735495 0.033201873 -0.0032382302 0.035867162
0000b0 8c bb da bc e8 10 02 bd 34 cc f9 3c 55 a1 34 bd
       -0.026700757 -0.031754404 0.03049288 -0.04409917
0000c0 3d 1b 2e 3b 8e d7 8a 3c 3d af ea 3c c1 1a 25 3c
       0.0026566528 0.016948488 0.028648013 0.010077179
0000d0 d7 97 ac 3c fe c0 18 3d ee be 53 3d b5 b4 ef 3c
       0.021068497 0.037293427 0.051695757 0.029260973
0000e0 5b 03 4e 3d a2 5d 49 3b a3 78 1d bd 4e 66 89 3b
       0.05029617 0.0030725976 -0.038445126 0.004193104
0000f0 73 a4 37 3d 9a 6a 6a 3b 02 02 14 bc fe 05 32 bb
       0.044834565 0.0035769106 -0.009033682 -0.0027164216
000100 d7 e1 62 3c f9 38 1c 3c ba 2c 99 bb 60 e6 4b 3c
       0.01384779 0.009535068 -0.0046745213 0.012445062
000110 12 dd f0 3b 80 9c d1 bb ef 2d b6 3c 9a f8 66 3c
       0.0073505724 -0.00639683 0.0222387 0.014097357
000120 24 2e 2b 3d c1 c7 19 3d 36 a3 cc bc 91 84 38 3c
       0.04179205 0.037544016 -0.024980169 0.011262075
000130 de 0f cd 3c ba b5 da bc 7b 64 57 3d e9 f6 97 bc
       0.02503198 -0.026697982 0.05258606 -0.018550353
000140 80 e5 54 3d 7c 42 f6 3c 0d 6c 64 bc d6 d8 a4 3c
       0.05197668 0.030061 -0.013941777 0.020122927
000150 10 51 73 bd b7 92 10 3d fa e8 4c 3c 31 70 73 3d
       -0.05940348 0.03529617 0.012506718 0.059433166
000160 90 9b f0 3b 0c 36 97 3d ad fd a9 bc 46 63 0e 3c
       0.0073427632 0.073833555 -0.020750845 0.008690661
000170 8c 09 a2 bc 5b f3 ab bc 50 65 28 bd 8a 29 b4 3b
       -0.019779943 -0.020990064 -0.041112244 0.005498116
000180 38 f0 06 bb b4 b5 b0 3c a7 fc 07 3d c1 f5 6d 3c
       -0.002058996 0.021571018 0.033199932 0.014523924
000190 fb 51 28 bc b5 c6 2c bc 24 a6 d0 bb 4b ce 37 bd
       -0.010273452 -0.010545422 -0.0063674618 -0.04487447
0001a0 ab c9 69 3c 04 e1 19 ba fa ea e8 bc 04 bc 5b bd
       0.014269273 -0.0005870017 -0.028432358 -0.053646103
0001b0 ea d0 f4 bb fb 4f 80 3c e8 78 46 3d 07 6c 9d bd
       -0.0074711936 0.015663138 0.04845515 -0.0768662
0001c0 df 97 c2 3c 69 f1 89 3b f6 dd 11 3d bd 45 ee 3c
       0.023754058 0.0042096865 0.03561207 0.029085988
0001d0 cc 8c 33 3d a7 db 8e bc 39 cd 60 3c 90 f8 26 bc
       0.043835446 -0.017438723 0.013720804 -0.010191098
0001e0 c4 83 4c 3c ee 80 81 3b 8b 82 ed bc 2b 9c c1 bc
       0.012482587 0.003952137 -0.028992912 -0.023634037
0001f0 e0 71 c3 bb f8 af 96 bc 14 b3 19 bc 8c a3 4e bd
       -0.0059645027 -0.018394455 -0.009381074 -0.05044894
000200 f6 21 cd 3c ed e2 30 3d 2b 75 63 bd ec a1 51 bc
       0.025040608 0.043185163 -0.055531662 -0.012794953
000210 32 d6 df bc ce e6 6d bc 8b 72 0a bd d7 2b 80 3c
       -0.027323816 -0.01452036 -0.033800643 0.015645904
000220 51 7f f7 bc ed 5e 97 3d 3f b6 88 bd 6c 44 cc 3c
       -0.030212076 0.073911525 -0.06675386 0.02493497
000230 63 95 49 3d 8a 36 83 3d a1 69 c6 bc ea 55 6c bc
       0.049214732 0.06406887 -0.02422029 -0.01442478
000240 95 3c 00 bd 62 ee 25 3d 85 4e 2f bc d4 8a f6 bc
       -0.031307776 0.040510543 -0.010699873 -0.030095495
000250 50 15 c4 3b 02 a9 ae 3c 4e 88 63 3c 8d b9 c0 bc
       0.005983986 0.021320824 0.013887478 -0.023525978
000260 e7 ff e5 bc de 5f f1 3c 1f fc 22 3d 8e dd 28 3d
       -0.028076125 0.029464658 0.039791223 0.041226916
000270 f3 7b 42 3d 77 7f ae bc 5b 97 c2 3c 70 50 0c bb
       0.04748149 -0.021301014 0.023753813 -0.002141025
000280 a9 da 20 bd 73 bf ab 3c 29 e7 01 3c 02 fd 9c 3c
       -0.03927103 0.020965314 0.007928648 0.019163612
000290 fc fc e8 bc ef f6 2f bc cd 41 e7 3b 9b 58 ad 3c
       -0.028440945 -0.010740026 0.0070574046 0.021160414
0002a0 8b 6c 05 3d 40 eb e8 bc 05 07 e4 3c 95 4b e4 3b
       0.032574218 -0.028432488 0.027835378 0.006967018
0002b0 c0 74 66 3c fa 07 e2 bc d4 ac 91 3c 15 89 34 3d
       0.014065921 -0.027591694 0.017782606 0.044076044
0002c0 63 4b dc 3c d2 58 17 bb 4c 71 da bc 50 37 ec ba
       0.026891416 -0.0023093713 -0.026665352 -0.0018021856
0002d0 e5 c4 bb 3c f7 42 03 bd e2 79 a5 bc 5a 3b ac 3c
       0.022921035 -0.032046285 -0.02019972 0.021024395
0002e0 63 a0 5f bd b5 6f 05 3c 65 02 01 3d b9 8c 50 bc
       -0.054596316 0.008144309 0.031496424 -0.012728863
0002f0 55 1d 1b 3a 3d 6b 0b bb 4d 54 32 3d 8b 14 97 3c
       0.00059171516 -0.0021273636 0.043537427 0.018442413
000300 69 20 11 bd bf 4b 4f 3c db ce 3b 3d ac ba 63 3c
       -0.0354313 0.012652337 0.04585157 0.0138994865
000310 40 e8 ac 3b 3d 6e 38 3c d9 ba 0a bd e6 27 43 bd
       0.00527671 0.011256752 -0.033869598 -0.047645472
000320 28 89 f1 3c 59 ea dc 3a 70 81 9f bc 1a b0 d8 3c
       0.029484347 0.0016854509 -0.0194709 0.02645116
000330 c4 19 51 bd 6c cb d9 bc 87 99 f1 3c b1 fb 17 bc
       -0.051049963 -0.026586257 0.029492153 -0.0092763165
000340 bf a9 22 3d 0b 5f 93 bc 6c 68 d3 3c ee 6c 10 bd
       0.039712664 -0.017989656 0.025806628 -0.035260133
000350 b2 44 2b 3c b6 f1 60 3d 38 89 d9 3a 13 7c 2c bd
       0.01045339 0.054918014 0.001659668 -0.042110514
000360 cc 19 dc bc 34 c8 df bc e0 78 76 3b f3 e3 a5 3c
       -0.02686777 -0.027317144 0.0037608668 0.020250296
000370 9a 2a cb 3c f6 0a f1 3c fd 29 b6 bb 7c 66 d8 39
       0.024800587 0.029424172 -0.0055592046 0.00041275087
000380 0c 0b d8 3c 4d 96 6e 3d 1f 6d 56 3d bd fb 57 3d
       0.026372455 0.058248807 0.05235016 0.05273031
000390 4d d0 52 3b b4 b5 e6 bc 23 12 c6 bc f5 24 b5 3c
       0.0032167614 -0.028162815 -0.02417857 0.022112349
0003a0 7e 77 0c 3d 13 6b e2 bc f5 db 60 3c cf 9d 2f 3c
       0.034293644 -0.027638948 0.013724317 0.010718777
0003b0 e7 2b aa bc d7 a6 29 bd 93 cc 46 3c 39 23 dd bc
       -0.020772887 -0.041418876 0.012133735 -0.026994335
0003c0 73 55 26 3c 6b 08 03 3d 00 0b 64 3c 72 76 b4 3b
       0.010152209 0.03199045 0.013918638 0.005507284
0003d0 eb eb 57 bd f9 55 ca bc 41 6f 35 bd d1 08 d2 3a
       -0.052715223 -0.024699198 -0.044295553 0.0016024356
0003e0 92 1d 54 bd e4 87 9d bb 79 93 48 3c 76 0c 26 bc
       -0.051786013 -0.004807459 0.0122421915 -0.010134807
0003f0 a5 89 7a 3c 51 55 77 3c 43 4c 52 bc cf db f8 bc
       0.015291606 0.015096025 -0.012835565 -0.03037825

layer1.0.bias f4 [64]
000000 56 01 3b 3f 3f fe 29 3f 6f cd 56 3f fe 27 58 3f
       0.73048913 0.66403574 0.83907217 0.84436023
000010 40 14 58 3f 4c 66 36 3f 96 86 27 3f b6 80 5b 3f
       0.844059 0.7124984 0.65439737 0.8574327
000020 3e 3d 56 3f dd b4 55 3f 2c 29 11 3f 6a b1 44 3f
       0.836872 0.834791 0.5670345 0.7683321
000030 b7 87 49 3f d7 18 50 3f 93 26 3b 3f 5c 54 58 3f
       0.7872271 0.812879 0.73105735 0.8450372
000040 14 01 50 3f eb ef 01 3f 5b d0 4f 3f 7d 1e 4e 3f
       0.81251645 0.5075671 0.811773 0.8051527
000050 aa f3 13 3f 52 82 4f 3f f2 8b 65 3f ee d7 27 3f
       0.57793677 0.8105823 0.89666665 0.6556386
000060 1e 8b 25 3f 3f 47 48 3f 2f e0 35 3f 60 b8 18 3f
       0.646654 0.7823371 0.710452 0.59656334
000070 19 35 4e 3f f5 53 40 3f 7a e4 61 3f 7b 1c 36 3f
       0.8054977 0.7512811 0.8823925 0.7113721
000080 bd f8 32 3f 8f ae 57 3f 04 a8 0d 3f 83 0f 3f 3f
       0.69910794 0.8425073 0.55334496 0.74633044
000090 85 67 00 3f f7 73 51 3f e7 f4 1a 3f 06 b3 4a 3f
       0.5015796 0.81817573 0.6052994 0.7917942
0000a0 85 f7 47 3f ac c8 49 3f e1 9c 5d 3f 27 a7 38 3f
       0.7811206 0.78821826 0.86567503 0.72130054
0000b0 dc 40 34 3f 1c 04 39 3f 69 3a 4b 3f 98 38 3d 3f
       0.7041147 0.72271895 0.79386 0.7391448
0000c0 ce 28 02 3f 4a ed 4e 3f 47 d8 37 3f d8 df 39 3f
       0.50843513 0.80830824 0.7181439 0.72607183
0000d0 2d 4a 37 3f b5 1e 37 3f 37 ff 4c 3f 90 8b 18 3f
       0.7159756 0.7153123 0.80076927 0.59587955
0000e0 e7 d9 11 3f 33 39 5a 3f d2 a9 39 3f 4b 5a 4f 3f
       0.5697312 0.8524353 0.7252475 0.8099715
0000f0 a1 9b 54 3f dc 55 47 3f ce c5 45 3f b6 3c 45 3f
       0.8304997 0.77865386 0.7725495 0.7704576

layer1.1.weight f4 [64]
000000 b3 22 7d 3f 2b 73 7d 3f f1 3e 7e 3f c4 ee 7d 3f
       0.9888107 0.9900386 0.9931479 0.9919245
000010 00 42 80 3f 53 5e 7a 3f c5 e2 78 3f e6 c5 7e 3f
       1.0020142 0.9780018 0.9722102 0.9952072
000020 a4 bf 80 3f 2b 74 7e 3f f9 67 73 3f e2 11 83 3f
       1.0058484 0.9939601 0.95080525 1.0239832
000030 03 ab 83 3f d5 2b 80 3f 8e ed 76 3f c1 ea 81 3f
       1.0286564 1.0013376 0.9645623 1.0149766
000040 0e 9c 80 3f 13 c8 75 3f cc 98 85 3f 23 2b 72 3f
       1.0047624 0.96008414 1.0437255 0.9459707
000050 8e 29 83 3f 69 c0 7f 3f e0 df 7b 3f d3 b1 79 3f
       1.0247056 0.9990297 0.9838848 0.97536963
000060 1a 7b 73 3f c6 23 82 3f a0 37 75 3f 85 db 83 3f
       0.95109713 1.0167167 0.95788 1.0301367
000070 e2 ae 7c 3f fa 03 83 3f da f9 7e 3f ec 55 81 3f
       0.9870435 1.0235589 0.99599993 1.0104346
000080 61 fe 77 3f d9 25 7e 3f e1 5a 81 3f ae c1 78 3f
       0.96872526 0.992765 1.0105859 0.9717053
000090 d7 ba 85 3f 75 f0 76 3f f7 49 76 3f 26 c8 80 3f
       1.0447644 0.9646066 0.9620661 1.006108
0000a0 d1 db 83 3f 75 9c 86 3f 6c 9c 83 3f 7f 42 7d 3f
       1.0301458 1.0516497 1.0282111 0.9892959
0000b0 45 73 7e 3f 42 47 77 3f 5d f4 79 3f 4d 8f 80 3f
       0.9939464 0.96593106 0.97638494 1.0043732
0000c0 b9 03 82 3f 48 28 7d 3f ad ae 7b 3f 25 46 80 3f
       1.0157386 0.9888959 0.9831341 1.0021406
0000d0 94 36 82 3f 9d 30 7d 3f 75 06 80 3f 69 77 82 3f
       1.0172906 0.98902303 1.000197 1.0192691
0000e0 e3 37 82 3f 7d 88 82 3f 73 4a 7c 3f 87 92 80 3f
       1.0173305 1.0197903 0.985511 1.0044717
0000f0 f6 20 7d 3f 26 0a 7d 3f 0d 4c 83 3f 86 b3 80 3f
       0.9887842 0.9884361 1.0257584 1.0054786

layer1.1.bias f4 [64]
000000 7d ca e8 3c 94 c8 e1 bb 33 00 7a bc 56 b6 c4 bb
       0.028416866 -0.006890366 -0.015258837 -0.0060031815
000010 d5 55 06 bb 5a 62 e7 bb ac 95 41 bd 21 03 89 3c
       -0.0020497937 -0.007061285 -0.04726188 0.016725125
000020 ae ac 06 bd 92 ba 7a bd 66 73 84 3c dc bb 3a bd
       -0.032879524 -0.061213084 0.016168308 -0.045589313
000030 c1 3f 6e bd 5a 74 01 bd 25 1c 1b bc 59 96 96 bd
       -0.05816627 -0.031605102 -0.009467159 -0.07352895
000040 54 66 30 bd d4 72 c2 bc 62 90 9d 3b e7 15 a3 3c
       -0.043066338 -0.023736395 0.0048084715 0.019907905
000050 6c 47 84 bd 70 52 91 bc 74 16 e2 bb 46 7b 22 3d
       -0.06458935 -0.017739505 -0.0068996493 0.039668344
000060 61 83 8e bc 32 1e 19 bd 9b 2c 69 3b 59 83 7b bd
       -0.01739663 -0.037382312 0.0035579565 -0.06140456
000070 3a fa 39 bc bf 14 3a bd 1e 95 91 bb de 9c 1b bd
       -0.011351163 -0.04542994 -0.004442825 -0.037991397
000080 5b 0d 6d 3b b0 62 93 bc 8b c4 65 bd 86 a6 3d 3c
       0.003617129 -0.017991394 -0.05609564 0.011575347
000090 4a 27 42 bd 56 7c 47 3d 69 a2 2e 3c 8c a9 ee bc
       -0.04740075 0.04870256 0.010658839 -0.02913358
0000a0 0e b3 4e bd 21 e8 29 bd a8 80 ad bc f4 f4 8f bc
       -0.05046373 -0.04148114 -0.021179512 -0.017572857
0000b0 49 df 86 bd 6f 4a 87 bb cc 60 00 3c fa 13 4e 3c
       -0.06585557 -0.004128746 0.007835578 0.012578005
0000c0 80 7e 7f bd 73 4d 50 bd 36 a8 93 bd 09 d8 3b bd
       -0.0623765 -0.05085511 -0.07209818 -0.045860324
0000d0 da 47 20 bd fb 97 49 bd 15 b8 13 bd d8 cf 54 bd
       -0.039131023 -0.049217205 -0.036064226 -0.051956028
0000e0 10 fa 51 bd 4f 65 1f bd d3 c0 3b bd 15 d6 5e bd
       -0.05126387 -0.038914975 -0.04583819 -0.054403383
0000f0 26 8a d3 bc 82 e2 20 bd c6 2f 1c bd 73 94 51 bd
       -0.02582271 -0.039278515 -0.038131498 -0.051166963

layer1.1.running_mean f4 [64]
000000 20 d2 9c 3f f6 73 8e 3f 00 48 35 3f a0 b0 4d 3f
       1.2251625 1.1129138 0.7081299 0.80347633
000010 af bb 3d 3f 43 6e 2a 3f 85 61 36 bc fb da 3e 3f
       0.7411451 0.66574496 -0.011131649 0.7455289
000020 3a 24 35 3f f2 0b 33 3f 56 ac c1 3c 90 5d e3 3e
       0.707584 0.699401 0.023641746 0.4440732
000030 54 74 12 3f 05 61 49 3f 77 04 64 3f f4 c8 27 3f
       0.5720875 0.78663665 0.8906931 0.65541005
000040 0f f4 4f 3f cf 15 ac 3f bd 4b 35 3f cc dd 79 3f
       0.8123178 1.3444155 0.7081869 0.9760406
000050 01 e7 c6 be a5 ff 3a 3f aa 73 64 3f ac 66 86 3f
       -0.38848117 0.7304633 0.8923899 1.0500083
000060 6e b9 8b 3f 6f 7f 54 3f 9c ef 96 3f 9a 0b 7c be
       1.0915964 0.8300695 1.1791873 -0.246138
000070 58 cd 6f 3f 89 02 ae 3e d4 37 7f 3f 57 8f bd 3e
       0.93672705 0.3398631 0.9969456 0.37023422
000080 74 49 35 3f a9 5f 33 3f 16 62 6a be cf 66 89 3f
       0.70815206 0.7006784 -0.2288898 1.07345
000090 57 ea 9e be 64 77 6d 3f f3 ef 11 3f c4 90 1d 3f
       -0.31038162 0.927603 0.5700676 0.6154902
0000a0 f6 54 35 3f e6 93 1a 3f f6 ff 42 3f 7a 87 99 3f
       0.70832765 0.60381925 0.76171815 1.1994469
0000b0 40 fb 90 3e e6 61 82 3f 38 1d 78 3f 49 9d 10 3f
       0.2831669 1.0186126 0.96919584 0.5649
0000c0 c6 21 e8 be bf ae 07 3f 01 44 7e 3f d7 be c4 3e
       -0.45338267 0.53001016 0.99322516 0.3842685
0000d0 9f 1c 3d 3f 88 8b 9d 3e 7c dd 38 3f d8 5d 74 be
       0.738718 0.30770516 0.7221296 -0.23863924
0000e0 b5 e1 b1 bd 67 c9 40 3f 1e c1 09 3f ff 3c 5f 3f
       -0.08685628 0.75307316 0.538103 0.8720245
0000f0 03 cf 6f 3f 85 9b 28 3f f4 a6 3f 3f b7 0f f9 3e
       0.9367525 0.65862304 0.74864125 0.48644802

layer1.1.running_var f4 [64]
000000 e3 2c 3c 40 c4 04 88 40 55 8a 4d 3f b0 56 d6 3e
       2.9402397 4.2505817 0.802892 0.41863012
000010 10 88 23 3f 48 7a f0 3f e0 08 9c 40 f4 51 fa 3e
       0.6387949 1.8787317 4.8760834 0.4889065
000020 62 eb 25 3f 81 2a 6b 3f ba 18 26 41 4d 90 0c 40
       0.6481229 0.9186173 10.381037 2.1963074
000030 22 ed 50 40 1a 31 f2 3e 58 4d bf 40 32 51 33 3f
       3.2644734 0.47303087 5.9781914 0.7004577
000040 56 b4 e3 3e 36 c4 99 41 27 f8 ae 3e 7f 68 ed 3f
       0.44473523 19.220806 0.341737 1.8547515
000050 e1 78 d6 41 5a dd a5 3e c4 f2 34 3f 5c d5 80 40
       26.809023 0.3239544 0.7068293 4.026045
000060 01 15 a4 40 1d d9 f5 3f f6 5d 23 40 82 02 7a 41
       5.127564 1.9206883 2.55261 15.625612
000070 d2 d3 86 3f 41 be 74 40 71 9c 4d 3f 55 db 1a 40
       1.0533392 3.8241122 0.80316836 2.419637
000080 cb 50 1c 40 0b 5d 30 3f e8 62 94 41 50 0a 09 40
       2.4424312 0.6889197 18.548294 2.1412544
000090 00 15 af 41 6d 64 34 3f 2e ad c7 40 ab 8e a1 3f
       21.885254 0.7046574 6.23989 1.2621664
0000a0 11 34 6b 3f 53 ad 8b 3f 01 7e d4 3e 8f 47 9b 40
       0.9187632 1.0912269 0.41502383 4.852485
0000b0 c2 ee 67 40 5f 96 66 40 fc 0e ad 3f b6 0a 79 3f
       3.6239476 3.602928 1.3520198 0.9728197
0000c0 f7 38 9c 41 8c 8e a0 3f 18 c7 21 40 4b 02 8f 40
       19.527815 1.2543502 2.5277767 4.46903
0000d0 aa c4 eb 3f a0 4d 68 40 30 55 a8 3f f7 0f 93 41
       1.8419392 3.6297379 1.3150997 18.382795
0000e0 92 10 12 41 78 3a 11 3f c0 17 c5 3f df 6d 47 3f
       9.1290455 0.5672984 1.5397873 0.77902025
0000f0 75 2c 78 3f 45 90 39 3f 0a 50 a7 3e ab c6 04 40
       0.96942836 0.7248576 0.32678252 2.0746257

layer2.0.weight f4 [64, 64, 3, 3]
000000 f4 53 8b bc 08 4b 02 bd 31 ad 4b 3d 74 cc 3e 3d
       -0.017007805 -0.031809837 0.049725715 0.0465817
000010 d5 20 ef 3c 98 2f 9e bc 05 11 16 bd c5 fd 06 ba
       0.02919046 -0.019309804 -0.036637325 -0.0005149509
000020 51 d2 f2 3c 9a 8d 22 3c 13 79 f3 bc 4d bf 1f bd
       0.029641302 0.009921456 -0.029720819 -0.039000798
000030 69 fa 7b bc 2b f3 28 bd da 30 8e bc 2b 01 0f bd
       -0.015379527 -0.041247528 -0.017357279 -0.034913223
000040 c8 07 84 3c d7 cf da 3c be 56 a4 bb 53 7b f0 3c
       0.016116992 0.026710434 -0.0050152233 0.02935568
000050 6d e3 c8 bc c9 a5 d0 3c 6d cf 48 3c 7a 71 c3 3b
       -0.024522508 0.025469678 0.012256485 0.005964455
000060 57 27 ad bc f8 a4 19 bc 4c b4 fa ba d7 7c ef 3c
       -0.021136923 -0.0093777105 -0.0019127219 0.029234333
000070 bb f7 4a bd e2 ba 0b bd 20 bf e5 bc 73 f6 04 bd
       -0.04955266 -0.034113772 -0.028045237 -0.032461595
000080 ff f3 b7 bc 44 91 12 3d 46 fc 99 3b 89 fa 2a bd
       -0.022455214 0.035783067 0.004699263 -0.041742835
000090 a8 e5 ab 3b bf 15 35 bd 84 e1 15 3d 52 70 cb 3c
       0.005245883 -0.04421019 0.03659202 0.024833832
0000a0 52 30 9e 3c 0f 1a dc bc eb f0 b4 3c 8f 37 c7 3b
       0.01931015 -0.026867894 0.022087535 0.006079621
0000b0 f6 72 c4 3c 10 d1 00 bd 4d f2 13 3d fb a8 b8 bc
       0.023980599 -0.031449378 0.036119748 -0.022541514
0000c0 c4 65 86 bc a8 d6 0f 3c 27 7f 45 3c 3c 7c 7f 3c
       -0.016405948 0.008779205 0.012054241 0.015593585
0000d0 83 1a dd 3c 9e d4 25 bd 70 c8 63 3c 6c 52 b5 3c
       0.02699018 -0.04048597 0.0139027685 0.022134028
0000e0 f7 9e a3 bc 75 fa 83 bc 78 3f ba bc ac 55 94 bc
       -0.019973261 -0.016110638 -0.022735342 -0.018107258
0000f0 80 25 fc bc df fb 3d 3d 75 60 f2 bc 40 6e de bc
       -0.0307796 0.04638278 -0.02958701 -0.02715218
000100 f5 f5 7f bd 4e be c1 bd 99 ad b8 bc 6e 7e 1f bd
       -0.062490422 -0.09460126 -0.022543715 -0.038938932
000110 94 01 db ba 90 62 15 3d f6 b4 2a 3d 11 e4 4e 3d
       -0.0016708844 0.03647095 0.041676484 0.05051047
000120 46 0a 01 3c 0f 47 86 3b d3 5f 48 3c 76 73 3a bc
       0.007875985 0.0040978263 0.0122298775 -0.011380067
000130 da 33 fd bc b6 4c 40 3c fc 74 8d bb da 93 81 bc
       -0.030908514 0.011737039 -0.004316924 -0.015817571
000140 3b e2 4d bd f9 6b ce 3b 8d 91 96 bc 3c e8 72 3c
       -0.05026458 0.0062994924 -0.01837995 0.014825877
000150 8e 6e 66 bc 0a 63 84 3b 24 09 6a bd da c3 06 bc
       -0.014064444 0.0040401267 -0.057137623 -0.008225406
000160 cf f2 e6 bc fc be e0 bc e2 47 36 3c ae a3 cd 3c
       -0.028191952 -0.027434818 0.011125537 0.025102463
000170 7e 02 e5 bb fb da 12 bd a6 c6 30 bc 51 a7 6c 3c
       -0.0069888225 -0.035853367 -0.010789549 0.014444188
000180 d8 e4 5a 3c 28 57 98 bc fb 06 1f bd ab c2 88 bc
       0.013360225 -0.018596247 -0.038825016 -0.016694387
000190 10 25 4d 3c 29 de 0e bd 38 e6 19 3d 4d b4 29 bd
       0.012521043 -0.034879837 0.03757307 -0.041431714
0001a0 cc c5 f8 bc 13 4b 28 3b 2c ee da bc 51 e0 2d bc
       -0.030367754 0.0025679513 -0.026724897 -0.010612563
0001b0 3e a4 2b 3b ea b8 2e bd a2 6e 29 3d 9c a4 27 3b
       0.0026190425 -0.042656817 0.041365273 0.0025580293
0001c0 29 c0 d1 3b 26 e4 83 bc 3e 04 36 bd fe 3f bd bc
       0.006401081 -0.0161 -0.04443764 -0.023101803
0001d0 2d b4 95 bc 6f cb 72 bd e1 62 26 3c 49 1d f8 bc
       -0.018274391 -0.05927604 0.0101554105 -0.030287402
0001e0 32 11 7b bd 4a 3b dd 3c 9f 29 01 bd fa ec d8 3c
       -0.061295696 0.02700581 -0.031533834 0.026480187
0001f0 1c d6 4e bb 76 75 e2 ba 9c 91 aa bb 6a f4 38 bc
       -0.0031560725 -0.0017277438 -0.0052053463 -0.011288742
000200 2e 85 27 bd 42 54 03 bd 8c 0e 17 3c 46 fb 7c 3c
       -0.040898494 -0.032062776 0.009219777 0.015440768
000210 d3 bc a2 3c df 87 8f bb 90 ee 1c bd 3b ea bc bc
       0.019865429 -0.004380211 -0.03831345 -0.023060909
000220 d4 b8 a0 3c f5 0c 06 3c ab 5e 10 3c aa e0 05 bd
       0.019619383 0.0081818 0.008811633 -0.03268496
000230 9f a9 19 bd 5a 79 1b 3c 43 83 ca bc 4d b8 a1 bc
       -0.03751528 0.009489382 -0.024720794 -0.019741202
000240 4b f1 25 bd e0 94 c0 3c cb 0d b5 3c ff bc b2 3c
       -0.040513318 0.02350849 0.022101304 0.021818636
000250 8f 80 a6 3c 3e ee fb bb 2a b1 70 3d b0 13 c3 3c
       0.020324973 -0.007688313 0.058762707 0.023813099
000260 fd db ec bc 82 1f 02 bc 57 85 e3 3c 66 3a 7f 3c
       -0.028913492 -0.007942082 0.027773542 0.015577888
000270 a0 27 b5 3c 9e db 9f 3b bf 6e d1 3c 06 9d d1 bb
       0.022113621 0.0048784753 0.025565503 -0.0063968925
000280 e5 18 a8 3c e5 ee ed bb 9c d5 c7 3c 90 e4 17 bd
       0.020519683 -0.0072611445 0.02439385 -0.03708321
000290 53 db 4f bc 1c c6 78 bd 76 5b aa ba 0a c7 1d bc
       -0.012686568 -0.060735807 -0.0012997228 -0.009629974
0002a0 42 ce c3 3c 7b ae 9c 3c 94 9d 3d bd 9a a1 02 3c
       0.023902062 0.019126168 -0.046292856 0.007973099
0002b0 1b ed 4f bb e8 22 d1 bb 4b 6a d3 3c d2 a3 c4 3c
       -0.003172702 -0.006382335 0.02580752 0.024003897
0002c0 ec a0 c3 3c 94 09 ec 3c b1 2e 4e bc 32 bc 93 3c
       0.023880444 0.028813161 -0.012584374 0.018034074
0002d0 8f 26 9a 3a c8 5f 9a bc ef ff 23 bb a8 81 23 bc
       0.0011760759 -0.0188445 -0.0025024374 -0.009979643
0002e0 29 ab 53 ba a9 7d d2 ba ee 9f 15 bd 8d de a4 3b
       -0.0008074516 -0.0016059178 -0.036529474 0.005031413
0002f0 51 7c f3 bc 6c 2c 06 bd 65 e5 69 bd e9 db 20 bd
       -0.029722365 -0.032757208 -0.057103533 -0.039272223
000300 b7 23 48 3d b7 68 46 bb 01 f9 ab 3c 34 d4 3e 3c
       0.048862185 -0.0030274817 0.020992758 0.011647273
000310 20 ed 38 3d 81 c0 7d 3c 33 8d 13 bd 1f c6 35 bd
       0.045148015 0.015487791 -0.03602333 -0.044378396
000320 b3 46 87 3c 41 23 2a 3c cd c3 c6 3c 6d e3 86 3c
       0.016513204 0.010384382 0.024263287 0.016465867
000330 51 b7 34 3c 70 7a 1f 3c f4 95 50 bc 97 47 27 bd
       0.011030034 0.009733781 -0.012731064 -0.040839758
000340 2f 1d 6d bc ca 48 fe 38 45 c7 80 bc df 0a ac bb
       -0.01447229 0.00012125222 -0.01572002 -0.0052503194
000350 3c 03 7c bc c1 7d 06 bd 3e f8 c7 ba 9e 53 a5 bc
       -0.0153816305 -0.032834772 -0.0015256477 -0.020181473
000360 58 e7 c8 bb 7c 4a 2c 3b 7e 2b e6 bc 94 17 0d bc
       -0.006131094 0.0026289513 -0.02809691 -0.0086115785
000370 44 a4 d3 bc ad 45 c8 3c f9 35 26 bd 7d c8 8d 3b
       -0.025835164 0.024447287 -0.040578816 0.0043268786
000380 b4 91 d3 bb a8 c4 0f 3d 45 19 63 3d 77 9f 08 3d
       -0.006456578 0.035099655 0.05544402 0.033355203
000390 98 52 0d 3d 41 2e 2b 3d 2b 7a ab bc fc 40 b1 bc
       0.034502596 0.041792158 -0.020932278 -0.021637432
0003a0 f4 70 f5 bc c2 f9 3d b8 a5 95 20 3d eb c4 ad 3a
       -0.029961087 -4.5293717e-05 0.039205212 0.0013257539
0003b0 bd 88 01 3c bd 6d e3 bc 37 94 d6 3c af 81 1d 3c
       0.007906136 -0.027762288 0.026193721 0.0096134385
0003c0 01 78 aa bc 51 31 02 bc cd ac 40 bd 73 95 cc 3c
       -0.020809175 -0.007946328 -0.047039796 0.024973607
0003d0 a4 26 88 bc a2 cd 59 3d 5e 92 19 3d 00 33 0b 3c
       -0.016619988 0.053174622 0.037493102 0.008496046
0003e0 36 78 b9 3c d4 c3 a8 3c dd 1a e2 3c b9 39 0d bd
       0.022640329 0.02060119 0.0276007 -0.034478877
0003f0 46 aa de 3c 7c 65 90 bc 4b b1 62 3c 85 b3 36 bc
       0.027180802 -0.017626517 0.013836215 -0.011151199

layer2.0.bias f4 [64]
000000 bc 9b 27 bd 06 3b fb 3b e0 c0 77 3b 43 a5 40 bc
       -0.040920004 0.0076669483 0.0037804171 -0.011758151
000010 8e a3 11 bd 75 5d f0 3b 93 f3 fc 3c f4 90 28 bd
       -0.03555637 0.0073353597 0.030877864 -0.041153863
000020 09 2a ed 3c e2 13 15 3c 52 2c 91 bc 37 32 e6 bb
       0.028950708 0.009098979 -0.017721329 -0.007025029
000030 1a 93 08 bd d3 a2 c4 3c 54 4d a8 bc cb 59 d1 ba
       -0.033343412 0.024003422 -0.020544685 -0.0015972195
000040 05 9e 18 bb 05 1d b2 3c ee 6f e2 3a bf 3c 16 bd
       -0.0023287546 0.021742353 0.0017275789 -0.036679026
000050 7c 4b 09 bd bc da c8 bb 2d d6 c1 3c b3 8d 04 bd
       -0.033519253 -0.006129591 0.023661697 -0.032361697
000060 f6 58 28 3d dc 1b 0d bd 42 99 ea 3b 3e 95 8d 3c
       0.041100465 -0.034450397 0.007159383 0.017283078
000070 69 ba 85 3c 43 b8 a9 3c fd 13 21 bc fb de 97 3b
       0.016324239 0.020717746 -0.009831426 0.0046347356
000080 44 11 29 bc bb 05 e4 3b 5d 1d 0e bd 03 c7 ea 3c
       -0.010319058 0.006958691 -0.03469597 0.02865935
000090 33 48 92 3c 7f 6a e9 bb 14 21 67 bc 75 ce cf 3b
       0.017856693 -0.007123291 -0.0141070075 0.0063417503
0000a0 fe 62 e4 3c 49 a0 00 3d ce 0e 4c bc 04 16 7a bc
       0.027879234 0.03140286 -0.012454702 -0.015264038
0000b0 fb 45 cf 3c 39 ad 62 3c 0f 9f 25 bd 04 c7 0f 3b
       0.025301924 0.013835245 -0.040434893 0.002193869
0000c0 5e 14 d5 3b 57 cc 24 3d ce 47 0f 3b c5 07 2a 3d
       0.006502672 0.040233936 0.0021862867 0.041511316
0000d0 35 69 a2 bc c2 9c 69 3b 60 b6 07 bc 33 d8 46 3c
       -0.019825557 0.0035646413 -0.008283228 0.012136507
0000e0 9c cd f1 3c 4d 3e 61 3b bf dc ae bc e3 31 8a bc
       0.029516988 0.003436941 -0.021345494 -0.016869491
0000f0 b0 3b 1c 3d d2 34 88 bc fc 8c ff bb d7 0b 03 3d
       0.03814286 -0.01662675 -0.007798789 0.031993713

layer2.1.weight f4 [64]
000000 46 b6 80 3f 8e 79 82 3f 90 b8 77 3f 18 e1 7d 3f
       1.0055625 1.0193346 0.96765995 0.9917159
000010 04 ce 75 3f 82 2c 83 3f 5c 10 80 3f 5f dd 7b 3f
       0.9601748 1.0247958 1.0004992 0.9838466
000020 09 57 80 3f 29 bc 78 3f 88 4f 7e 3f e5 6e 82 3f
       1.0026561 0.9716211 0.99340105 1.0190092
000030 44 2f 78 3f 3c 54 7b 3f 61 02 80 3f ab 1d 7e 3f
       0.9694712 0.98175406 1.0000726 0.9926402
000040 1f 57 7c 3f 8b ba 83 3f cb 6a 7d 3f b4 7b 7c 3f
       0.98570436 1.0291303 0.9899108 0.98626256
000050 3b dd 82 3f dd 3e 7f 3f 8d c2 7f 3f b1 30 7d 3f
       1.0223764 0.99705297 0.99906236 0.9890242
000060 f2 66 81 3f 23 25 80 3f 2b 7e 81 3f b5 59 80 3f
       1.0109541 1.0011333 1.0116628 1.0027376
000070 9e 7f 7e 3f 55 d6 7a 3f 73 26 7f 3f cb b6 80 3f
       0.9941348 0.97983295 0.99668044 1.0055784
000080 ed be 7c 3f a3 c9 7f 3f 00 6c 7e 3f a7 d9 78 3f
       0.9872883 0.9991705 0.99383545 0.9720711
000090 9d de 79 3f fc a3 7b 3f 44 62 7e 3f 2e c2 7d 3f
       0.97605306 0.98297095 0.9936869 0.9912442
0000a0 98 bf 7a 3f d9 ba 84 3f 9f 87 7b 3f 20 de 7a 3f
       0.979486 1.0369521 0.98253816 0.97995186
0000b0 af 12 80 3f fb 99 7f 3f 08 6e 80 3f 81 2d 80 3f
       1.0005702 0.9984433 1.0033579 1.0013887
0000c0 6a a2 82 3f e0 89 83 3f 13 55 84 3f 7b 46 7b 3f
       1.0205815 1.0276451 1.0338463 0.9815442
0000d0 4b f5 7c 3f bd 3a 7a 3f 0a 7b 80 3f 85 17 7d 3f
       0.9881179 0.9774588 1.0037549 0.9886401
0000e0 fe 0f 86 3f 17 77 7b 3f 9f 7a 80 3f c8 94 7a 3f
       1.047363 0.9822859 1.0037421 0.9788327
0000f0 00 57 7f 3f 65 92 7c 3f 98 81 80 3f f0 1f 7e 3f
       0.99742126 0.9866088 1.0039549 0.9926748

layer2.1.bias f4 [64]
000000 20 be 3c bd 6b b3 cd bd 8e 96 b8 bc 17 9a 00 bd
       -0.046079755 -0.10043987 -0.022532728 -0.03139695
000010 76 18 2c bd 2b 6d a0 bd 1c 8a dd 3c 2e 72 06 bd
       -0.042015515 -0.07833322 0.027043395 -0.032823734
000020 2c 0b 18 bd d3 ff 86 3d 09 65 1c bd e2 c6 86 bd
       -0.03712003 0.06591763 -0.038182292 -0.06580903
000030 a0 91 66 bd f3 5e 81 bc 3e fd f4 bc 14 17 91 bd
       -0.056291223 -0.015792346 -0.029905912 -0.0708448
000040 ef e2 a5 bd 7f 25 20 bd d9 cc 1e bc cd 85 26 bd
       -0.08099925 -0.03909826 -0.009692394 -0.040654946
000050 6e b9 96 bd 2d 14 0e bd ff 2a 80 bc 66 5b a5 bd
       -0.07359587 -0.03468721 -0.015645502 -0.080740735
000060 5f 2e 0b bd 2f cf 22 bd 48 51 1f bc 25 5e ed bc
       -0.03397977 -0.039748367 -0.009723969 -0.028975556
000070 8e 3d c1 bc a7 51 2e bd 62 b3 d1 ba 12 f9 a8 bd
       -0.023588922 -0.04255834 -0.0015998895 -0.082506314
000080 89 11 93 bc bf cd c2 bc 89 c7 9c bd 88 b5 53 bd
       -0.017952697 -0.023779748 -0.07655246 -0.051686794
000090 6b 72 fc bc e2 74 91 bd bc 2a 1d bd 15 af 9a bc
       -0.030816277 -0.07102372 -0.038370833 -0.018882314
0000a0 1c 12 cc bc f3 64 cc bc 45 be d9 bd 51 74 0a bd
       -0.024910979 -0.02495048 -0.10631994 -0.033802334
0000b0 79 b4 43 bd 51 12 d1 bc cc 36 0a bb f2 f6 38 bd
       -0.047779534 -0.02552143 -0.002108979 -0.04515738
0000c0 c1 83 4c bd c7 9e ce bc ff 43 82 bd 2d 6e d4 bc
       -0.049930338 -0.025222195 -0.063606255 -0.025931442
0000d0 bd 30 77 bd 67 83 28 bd 1e 88 1a bc ec b4 c5 bc
       -0.060349215 -0.04114094 -0.009431867 -0.024134122
0000e0 94 b9 7a bd 42 4b 84 bd 95 84 4b bd d4 ad 25 bd
       -0.061212137 -0.06459667 -0.049686987 -0.04044898
0000f0 53 d7 31 bd e4 3f a9 3c cf 55 aa bd 1b 50 11 bd
       -0.04341824 0.020660348 -0.08317148 -0.035476785

layer2.1.running_mean f4 [64]
000000 32 b5 6a bf 90 5d f2 be 2b e2 3b 3e 3a 1a 03 bf
       -0.9168273 -0.47337008 0.18347995 -0.51211894
000010 df 4e b2 bf f2 56 a9 3b f5 1c 84 bb c6 2c fb be
       -1.393032 0.0051678354 -0.0040317723 -0.49057597
000020 e9 db 80 bf 07 7a f5 be 42 fe 55 bf 4e 70 8f bc
       -1.0067111 -0.47944662 -0.8359109 -0.017509606
000030 2a 1d 32 bf 2b 1c 71 bf d9 f2 35 bf b1 fa a4 bf
       -0.6957575 -0.94183606 -0.7107368 -1.2889005
000040 c5 45 62 bd 17 00 5b bf a0 c1 68 be 82 79 cd bf
       -0.05524232 -0.8554701 -0.22730112 -1.6052706
000050 77 f5 85 bf dc 34 5f be 26 00 64 bd 14 b7 cf bd
       -1.0465535 -0.21797508 -0.055664204 -0.10142341
000060 70 fa 04 bf 89 35 8d bf a1 c2 6b bf 52 be 3c bf
       -0.5194464 -1.1031963 -0.92093855 -0.73727906
000070 b0 3a 33 bf cf bf 2a bf e1 ea a5 3b fd 03 a8 3e
       -0.70011425 -0.66698927 0.0050634 0.32815543
000080 62 20 bc bf 71 75 d8 be e2 91 28 3f 29 29 46 bf
       -1.4697382 -0.422771 0.658476 -0.77406555
000090 64 b7 6d be e3 aa 9a bf 84 e4 a1 bf 50 b0 b3 bf
       -0.23214489 -1.20834 -1.2647862 -1.4038181
0000a0 cd 4f fe 3e ac 1a 0e 3e ce 0d 97 3e ad a5 74 bf
       0.49670258 0.13877362 0.2950272 -0.955653
0000b0 18 24 43 bf fc 1a 01 bf 43 29 63 bf ef d6 be be
       -0.7622695 -0.504318 -0.88734835 -0.37273356
0000c0 d3 c6 e3 3e 44 df 19 bf f7 83 8f 3e 87 1c 86 bf
       0.44487628 -0.601063 0.2803037 -1.0477456
0000d0 e0 83 3b bf dc a8 9f bf a0 39 ce be 4c c0 82 be
       -0.732481 -1.2473407 -0.4027834 -0.25537336
0000e0 61 53 68 be 5a a1 a0 bf 96 59 35 be e6 00 9e bf
       -0.22688057 -1.254924 -0.17709956 -1.2344024
0000f0 d8 59 88 bf 86 53 e8 be 3f 43 3a bd 9d 66 a7 be
       -1.0652418 -0.45376223 -0.045474287 -0.32695475

layer2.1.running_var f4 [64]
000000 91 68 ab 3e ce 7e 8e 3e c8 75 86 3f e2 5b 22 3f
       0.33478215 0.2783112 1.0504694 0.6342145
000010 f7 4b 4a 3f b2 10 13 3e 1d 96 65 3f d5 9e 0a 40
       0.79022163 0.14361838 0.8968218 2.1659443
000020 1f 6b ce 3e 49 65 37 3f 9e d1 fa 3e d0 a0 29 3e
       0.40316102 0.71638924 0.4898805 0.16565251
000030 3b b6 da 3e 97 8e ca 3e 81 b7 0d 3f 8f e2 39 3f
       0.42717156 0.39561912 0.5535813 0.72611326
000040 23 ae 25 3e bd 81 bc 3e 72 b3 8d 3f 65 1d 87 3f
       0.16179709 0.36817732 1.1070387 1.0555845
000050 ab 97 85 3e 11 d7 3d 3f c1 38 c9 3e ff 48 42 3e
       0.26092276 0.7415629 0.39301112 0.18973158
000060 d8 26 97 3e e8 1f 05 3f 80 40 24 3f 47 08 a1 3e
       0.29521823 0.5200181 0.6416092 0.31451628
000070 b0 6f eb 3e 53 a1 ad 3f 5d 2a 31 3f 34 e9 96 3e
       0.45983648 1.3564857 0.69205266 0.29474795
000080 af 01 fa 3e 2f 27 f8 3e 56 ab b0 3e 08 f1 20 3f
       0.4882941 0.48467395 0.3450572 0.62867785
000090 79 6b ec 3f 92 40 09 3f 7c b4 11 3f 6d 45 3d 3f
       1.8470298 0.5361415 0.5691602 0.7393406
0000a0 13 e2 83 3f 75 67 a6 3e a9 c7 63 3e b2 c8 12 3f
       1.0303367 0.32500806 0.22244133 0.57337487
0000b0 2a 23 f3 3e 16 46 b3 3e 40 13 19 3f d1 16 8a 3e
       0.47487766 0.3501441 0.59795 0.26970533
0000c0 bb 43 cc 3e f6 1f d4 3e 9c c6 c5 3e f7 97 0e 3f
       0.39895424 0.41430634 0.3862809 0.5570063
0000d0 52 41 8d 3e c4 bc 4a 3f 98 2e b2 3f ed 4d ab 3e
       0.27588898 0.79194283 1.3920469 0.3345789
0000e0 32 e8 94 3e 4b 98 8e 3e 21 22 d6 3e e0 96 1b 3f
       0.290834 0.27850565 0.41822913 0.6077709
0000f0 0b c6 32 3f 19 46 b9 3f 1d 89 b0 3e 05 5b 7d 3f
       0.6983344 1.4474517 0.3447961 0.9896701

layer3.0.weight f4 [64, 64, 3, 3]
000000 b4 a4 83 bd aa 55 e7 3c 8b 14 73 bb 9d 14 16 3d
       -0.06427899 0.02823909 -0.0037091102 0.036640752
000010 02 6e 06 3d b1 80 f3 3c 25 ae 08 bc b4 9d a1 bc
       0.032819755 0.02972445 -0.008342301 -0.019728519
000020 6b 5f 35 bd 8b 50 db 3c a2 b8 08 3d 33 5c 3c bc
       -0.04428045 0.026771804 0.033379205 -0.011496591
000030 fa 90 3d 3c 14 98 b8 ba 1b 89 a0 3c e8 b4 c8 3c
       0.01157021 -0.0014083409 0.019596627 0.024500325
000040 dc 87 d0 38 c7 75 e0 bc de 39 6a 3c 9d 7f 99 bc
       9.943519e-05 -0.02739991 0.014296023 -0.018737609
000050 fd 23 1d 3c 72 e7 d3 bc 82 e4 e3 bc 6b a7 4d bd
       0.0095911 -0.025867198 -0.027818922 -0.05020849
000060 57 a7 1f bd e6 5e 52 3c 3c c2 cc bb ce 14 59 bd
       -0.038977947 0.012840008 -0.0062487405 -0.052998357
000070 e3 cc 44 3c 70 97 30 bc 8d 9b e7 3b 14 bd 80 bb
       0.012011739 -0.010778293 0.0070681036 -0.00392879
000080 0d 95 91 3c 8b 4d fb bc 2b f5 82 3b 9e bf 87 bc
       0.017771268 -0.030676624 0.0039965115 -0.016570862
000090 4d 22 96 3c 2f d6 53 3d 80 49 a5 3b 2c f3 d6 bc
       0.018326903 0.051717933 0.0050441623 -0.026239
0000a0 e6 44 c5 3c 60 f3 ce 3b 9d d3 60 bc dd ad 5d 3d
       0.024080705 0.0063156337 -0.013722328 0.054120887
0000b0 ad 3c 1a bc 4f 0e 52 3d 97 0e 10 3d ef 96 a9 3c
       -0.00941388 0.051283177 0.035170164 0.020701854
0000c0 20 a8 92 3c 47 a6 3a 3d 9b cb 8b bb 9e 23 ff 3c
       0.017902434 0.04556873 -0.004266215 0.031144913
0000d0 36 3b 39 bc 57 1c 80 3c c8 85 8e bc 4d 0a a7 bc
       -0.011305621 0.015638513 -0.017397776 -0.020390654
0000e0 16 08 a0 3c 06 a9 09 bd dd 88 4f bd d0 5b 3d bd
       0.019535106 -0.03360846 -0.050667632 -0.046230137
0000f0 ed e4 15 3b d4 ef de bc d3 f6 17 bd 47 b1 53 3d
       0.0022872046 -0.027213968 -0.037100624 0.051682737
000100 ad 89 22 3c 0c a3 44 bc 60 56 9b bc 4c 81 79 bc
       0.00992052 -0.012001764 -0.018962085 -0.015228581
000110 39 6a 96 bc f7 0c 08 bc 99 bb 1e bd 59 6a 4f bd
       -0.018361198 -0.008303872 -0.038753126 -0.05063853
000120 fb 88 85 3b ee 67 83 3b aa e9 a9 3c 34 da 18 3d
       0.0040751672 0.004010192 0.020741303 0.03731747
000130 c7 77 33 3b 97 92 9e bc 98 74 a5 bb 02 2c 73 3d
       0.0027384625 -0.019357009 -0.0050492994 0.05936814
000140 fb da ca 3a da 3e 00 3c df a2 cd 3c 36 6a 40 3c
       0.0015476638 0.007827485 0.025102077 0.011744073
000150 6e 46 0a bd 41 40 28 bd d6 8b e6 bc 70 65 0d 3c
       -0.033758573 -0.041076902 -0.02814285 0.008630142
000160 28 21 90 3b 90 59 0a bd 66 8d a0 3c 40 27 99 3b
       0.004398484 -0.03377682 0.019598674 0.0046738684
000170 64 31 04 3d 8a 68 71 bc 65 7b 2b 3c 26 44 40 bd
       0.032273665 -0.014734397 0.010466431 -0.04693999
000180 5a c2 c9 3c 25 b0 d7 bc 43 56 c8 bc d1 8b ad 3c
       0.024628807 -0.02632911 -0.024455195 0.021184834
000190 7d f0 2a 3d ab c4 63 3b a9 e4 62 3d f5 30 26 bd
       0.041733254 0.0034754674 0.05539385 -0.040574033
0001a0 e3 31 cc 3c 19 7e 32 3d 6e 22 2f bd fd 8d 46 bd
       0.024926132 0.043577287 -0.042757444 -0.048475254
0001b0 88 8d 8f bc 3a 8c 42 bd fc 57 07 bd 23 c7 fa 3b
       -0.017523542 -0.04749701 -0.033042893 0.0076531335
0001c0 86 1f d4 bc f9 df 20 bd d7 03 20 3c 30 c8 d0 bc
       -0.025893938 -0.039276097 0.0097665405 -0.025486082
0001d0 e6 c3 b9 bd 5f 4e 01 bd ec 93 1e bd ce 2e a3 bc
       -0.09070568 -0.03156888 -0.038715288 -0.01991978
0001e0 be aa c3 bc 46 6b 20 bc cf 73 16 3d 8a 01 46 3d
       -0.023885127 -0.009791201 0.036731537 0.04834131
0001f0 d6 fc b4 3c d9 9b c6 3b 85 c0 cf 3c 7f 70 23 bd
       0.022093218 0.006061059 0.025360355 -0.039902207
000200 8e dc 0c 3c a7 b4 7e bc d9 0d ba bc a8 7c ca 3c
       0.008597506 -0.015546001 -0.022711681 0.024717644
000210 c1 d6 2f b9 e3 85 30 bc 80 72 01 3d 05 d4 a1 bc
       -0.00016769303 -0.010774109 0.031603336 -0.01975442
000220 20 ff 62 bc 37 ef 7a ba 5b 50 21 bd 80 f7 c9 3c
       -0.013854772 -0.0009572389 -0.039383274 0.02465415
000230 66 2d c4 3c d3 43 61 3b 10 45 a1 3c eb c4 48 3c
       0.023947429 0.0034372702 0.019686252 0.01225398
000240 1a c4 30 bc e2 c8 41 3d 64 47 d0 3c 9a 26 92 3d
       -0.010788942 0.047310717 0.025424667 0.07136269
000250 3d c8 d0 bc 7c 70 9f ba 18 6f 07 bd 62 d7 00 bd
       -0.025486106 -0.001216426 -0.03306493 -0.031455405
000260 00 9a 46 bd b7 a6 ee 3c 05 3c a6 3c 5d 3f b5 3b
       -0.04848671 0.02913223 0.020292291 0.005531235
000270 49 15 11 bd 07 8f f1 3b b1 25 47 3d 75 bb 44 bd
       -0.03542069 0.0073717865 0.04861993 -0.048030335
000280 3a be 2e bc 87 4b 31 3d 2f b0 83 bb c0 d5 97 3c
       -0.010665471 0.04328492 -0.0040188055 0.018534541
000290 d5 5f ad 3c ae 89 b1 bc 49 0f 97 bc c7 f0 2f bd
       0.02116386 -0.021672096 -0.018439906 -0.042954233
0002a0 b4 35 f9 3c 81 15 96 bd 9c f5 a3 bc dd 50 2f 3c
       0.030421115 -0.0732832 -0.020014577 0.010700432
0002b0 7c 33 08 3d c1 25 eb bb 77 6e 1e bd 4e 5f 1b 3d
       0.033252224 -0.0071761315 -0.038679566 0.037932687
0002c0 41 46 8a 3c 69 82 1b bc 4e a8 a4 3c df 96 0b bd
       0.016879203 -0.009491541 0.020099785 -0.03407943
0002d0 9f a1 15 bd b4 31 39 3c 31 5f 5f bd 92 98 61 3c
       -0.036531087 0.011303354 -0.05453414 0.013769286
0002e0 ee 28 27 3c 6f 6c 92 bc e3 b4 20 3d 44 d0 4d bc
       0.0102026295 -0.01787397 0.039235007 -0.012561861
0002f0 fd 7b 93 bb 84 b9 f8 bc 8b a0 bf 3c b3 87 19 3d
       -0.0045008645 -0.030361898 0.023391983 0.03748293
000300 3d 8c 8b 3d ac 90 c8 3c b7 79 8c bc 7f 48 9e 3c
       0.06813858 0.024483047 -0.017147882 0.019321678
000310 51 85 7e bd c3 2a 6c bc 23 00 29 3c 11 5d 1f 3c
       -0.06213886 -0.014414492 0.010314974 0.009726779
000320 ca 47 37 bc 69 c7 d5 3c 60 09 da bc 9a f7 4f bc
       -0.011186549 0.026096063 -0.026615798 -0.01269331
000330 77 0d f4 bb bf 82 88 bc 3f ce e8 3b 00 5a 2a 3c
       -0.007447894 -0.016663907 0.0071046646 0.010397434
000340 d5 6a 2f 3a 13 39 96 3c fb e7 41 bc 38 9e 0c 3d
       0.00066916394 0.018337762 -0.011835094 0.034330577
000350 01 d1 b2 bc 8d 1c d1 bb d1 82 99 bc 6b b1 5f 3c
       -0.021828176 -0.0063815773 -0.018739136 0.01365314
000360 95 86 a8 bb d2 52 3c 3d 2a 05 da 3b 4d 7a c7 3c
       -0.0051429966 0.04597742 0.0066534476 0.02435031
000370 80 e0 2a bd bc 80 07 3d 21 ed 96 3c 86 a8 c0 bb
       -0.041718006 0.033081755 0.018423619 -0.0058794646
000380 36 39 ae 3c 53 0e 40 3c 0d 65 0b 39 f9 25 79 bc
       0.021267515 0.011722165 0.00013293717 -0.015206807
000390 42 30 33 bc bd 54 89 3c ec 7b 12 bd 36 a5 04 3d
       -0.0109367985 0.01676404 -0.035762712 0.03238412
0003a0 8b 09 ae 3c 85 6a d2 3b ea f0 5b 3d d6 91 0c bd
       0.021244785 0.0064213895 0.05369655 -0.034318767
0003b0 ed 24 5f 3c fa 80 c8 bc 69 0d 60 3d c9 14 8e bb
       0.013619644 -0.024475563 0.05470029 -0.004335974
0003c0 68 25 1c 3d bd a5 bb bc 07 9a 06 3d 06 38 4f bc
       0.03812161 -0.022906179 0.032861736 -0.012647634
0003d0 2e 69 02 bb a0 8e e9 bc 1e 06 44 bd a2 1a 83 3a
       -0.0019899118 -0.028510392 -0.047857396 0.0010002444
0003e0 24 b2 e6 bc ac 04 a5 3a ab 37 8d bc b5 f8 cd 3b
       -0.028161116 0.0012589893 -0.017238459 0.0062857517
0003f0 19 b7 1a bd e6 38 b9 bc fa 34 05 3d 0b 93 29 bd
       -0.03777227 -0.02261014 0.032521226 -0.041399997

layer3.0.bias f4 [64]
000000 41 35 23 bb 45 3b 89 bc a6 d6 dc bc 6e 24 fa bb
       -0.0024903568 -0.016751895 -0.026957821 -0.0076337373
000010 e4 bd eb 3c 59 b1 be 3c 82 02 c6 3c c1 f5 9b bc
       0.02877707 0.023277925 0.024171118 -0.019038083
000020 96 41 99 bc 51 92 10 bd 7b ea ee 3c 4a c1 9d bc
       -0.018708032 -0.03529579 0.029164543 -0.019257206
000030 da 17 7a 3c 20 06 2d bc 2f 7f 43 3c 25 66 26 3d
       0.015264476 -0.010560542 0.011932178 0.040624756
000040 fd 55 0e 3c cc 3c ea bc 2d ac b2 bc c3 5e 17 bd
       0.008687493 -0.028593443 -0.021810615 -0.036955606
000050 12 1e db bc f6 0e d3 3c 40 fe 18 bd 34 bc 8b 3b
       -0.026747737 0.02576397 -0.037351847 0.004264379
000060 c9 ee 02 bd 34 10 13 bd 12 21 67 3c 81 be c2 bc
       -0.031966005 -0.035904124 0.014107006 -0.02377248
000070 cf 4f 26 bd a3 48 7e 3c 5c 00 e0 3c ab bf b4 bc
       -0.040603455 0.015520248 0.027343921 -0.02206405
000080 aa 02 91 bc f2 79 77 bc 89 e1 c2 bb 38 b7 f3 ba
       -0.017701466 -0.015104758 -0.005947296 -0.0018594032
000090 83 d9 26 bd 9d 69 cc 3c 96 81 72 bc 6a 65 cd bc
       -0.04073478 0.024952704 -0.0148014035 -0.025072772
0000a0 fe 2a b6 bc e8 48 d0 bc 51 cb 72 bc de 2b a2 3b
       -0.022237297 -0.02542539 -0.014818982 0.004949077
0000b0 01 d2 55 bc a0 e6 10 3d e5 31 ef ba b2 19 1c 3d
       -0.013050557 0.03537619 -0.0018249123 0.038110442
0000c0 71 49 8b bc a2 75 fb bc 44 c1 0f bd 8c e3 cf 3c
       -0.017002793 -0.03069574 -0.03509642 0.025377057
0000d0 1e 96 3f bc 76 7f f1 bc a7 ad 95 3c e7 50 0c bc
       -0.011693506 -0.029479723 0.01827128 -0.0085642105
0000e0 08 34 7a ba e3 25 a6 3c 63 1d 33 3c ed 27 61 ba
       -0.00095444964 0.020281738 0.010932299 -0.0008589018
0000f0 83 23 90 bb 28 07 15 bd 34 14 8f bc 32 8d ee bc
       -0.0043987646 -0.036383778 -0.017465688 -0.029120062

layer3.1.weight f4 [64]
000000 cd bb 82 3f d7 cd 8e 3f c6 4f 7f 3f 8a 76 75 3f
       1.0213562 1.1156567 0.997311 0.95884
000010 52 27 7d 3f 19 f1 74 3f 25 34 81 3f 50 d9 6f 3f
       0.98888123 0.95680386 1.0094038 0.9369097
000020 17 e1 6f 3f 3a 72 75 3f bb 6f 80 3f 7f bc 86 3f
       0.93702835 0.9587742 1.0034097 1.0526274
000030 ac fc 7e 3f 53 f3 7d 3f 33 39 7c 3f be eb 88 3f
       0.99604297 0.9919941 0.9852478 1.0696943
000040 39 cf 7c 3f 17 1d 78 3f b3 83 83 3f b7 6f 78 3f
       0.98753697 0.9691939 1.0274566 0.97045463
000050 39 7d 7c 3f 1f 2c 82 3f c5 5b 76 3f 1b 5d 85 3f
       0.98628575 1.0169715 0.9623378 1.0419039
000060 7f cb 86 3f 41 52 75 3f ef db 7b 3f b1 49 78 3f
       1.0530852 0.95828635 0.9838247 0.96987444
000070 3e bb 86 3f 93 5e 79 3f 35 e8 77 3f 23 bd 81 3f
       1.0525892 0.97409934 0.96838695 1.0135845
000080 3f f1 75 3f 62 88 83 3f 2d cf 80 3f f6 c7 80 3f
       0.9607124 1.0275996 1.0063225 1.0061023
000090 f2 50 87 3f 6a 91 7e 3f 0c 2f 77 3f 2b 19 71 3f
       1.0571578 0.99440634 0.9655616 0.9417903
0000a0 d1 3b 7b 3f 16 1a 75 3f 07 ee 82 3f 2c 20 7b 3f
       0.9813815 0.9574293 1.022889 0.98095965
0000b0 7e 5b 73 3f 65 92 77 3f 85 82 84 3f 8c 53 7b 3f
       0.9506148 0.96707755 1.0352331 0.9817436
0000c0 29 a8 7c 3f 6b 68 82 3f 64 f7 76 3f f9 9e 83 3f
       0.9869409 1.0188116 0.9647124 1.028289
0000d0 8f 91 82 3f 3a 26 7c 3f b4 5b 7b 3f 5f 96 76 3f
       1.0200671 0.9849583 0.981868 0.963232
0000e0 1b 20 83 3f 43 5c 84 3f 1e 2e 83 3f c7 9e 84 3f
       1.0244173 1.0340656 1.0248449 1.0360955
0000f0 3d 82 81 3f d7 6b 83 3f 37 d2 84 3f fb 13 6f 3f
       1.011787 1.0267285 1.0376652 0.9338986

layer3.1.bias f4 [64]
000000 a4 f7 a8 bd 8f 0f 47 be ba 51 60 bd 38 10 34 bd
       -0.08250359 -0.19439529 -0.05476544 -0.04396078
000010 d9 89 0e bc b4 be 27 bd c0 2f 7d bd 3c c4 53 bd
       -0.008699858 -0.040953353 -0.061813116 -0.051700816
000020 f4 e5 23 bd 3a e7 83 bd 42 9c 97 bd 8c 5c c2 bd
       -0.040014222 -0.06440587 -0.07402851 -0.09490308
000030 2c c4 00 bd 76 6a 61 bd f3 c7 8b bd c8 d7 dd bd
       -0.031437084 -0.05503317 -0.06825247 -0.10832173
000040 f8 25 d7 bc 84 a6 c5 bc c7 f8 67 bc c3 f7 9e bd
       -0.026263222 -0.024127252 -0.014158434 -0.077621005
000050 22 ae 11 bd 60 e0 4e bd cb 4b 6c bc 6a 81 bc bd
       -0.035566457 -0.05050695 -0.014422367 -0.09204371
000060 9b 53 08 be 9e 19 bb bc 82 b5 1d bd 83 e9 e7 bc
       -0.13313143 -0.022839364 -0.038503177 -0.02830959
000070 5c 99 ca bd 55 76 79 bd c1 82 10 bd 22 7c 50 bd
       -0.09892532 -0.060903866 -0.035280947 -0.050899632
000080 6c 9f 72 bd c1 d2 37 bd fe 02 60 bd 12 b4 9e bc
       -0.059234068 -0.044878725 -0.054690354 -0.019372974
000090 4a 77 5d bd a8 e8 9e bd b5 ba 63 bc 10 5e f7 bc
       -0.05406884 -0.077592194 -0.013899495 -0.03019622
0000a0 a0 6b 8d bd 6f bc 1d bd 3e bd 37 bd b6 f9 35 bd
       -0.069052935 -0.038509782 -0.04485821 -0.044427596
0000b0 38 de db bc 93 80 21 bd ed 42 77 bd 76 50 ec bc
       -0.02683936 -0.03942926 -0.06036656 -0.02884696
0000c0 ed c5 5b bd e9 61 57 bd 88 b1 41 bd f2 87 d3 bd
       -0.053655554 -0.05258361 -0.047288448 -0.10328664
0000d0 b1 25 b1 bd ce ce a3 bd 70 c9 35 bd 41 d5 22 bd
       -0.08649767 -0.07998429 -0.04438156 -0.039754156
0000e0 bd 55 c4 bd 86 9d 02 bd aa 77 d1 bc 94 ee 98 bd
       -0.09586666 -0.031888507 -0.025569756 -0.0746738
0000f0 7b 5f 59 bd 97 56 04 be 14 b7 53 3c 50 be 6d bd
       -0.053069573 -0.12923656 0.012922067 -0.058042824

layer3.1.running_mean f4 [64]
000000 6f 34 12 bf e3 f7 4d be b4 d8 91 be 28 6d f9 bc
       -0.5711126 -0.20114093 -0.28485644 -0.030447558
000010 f2 b3 19 bf cb 44 c2 be fa 1f c3 be bf 36 35 3d
       -0.600402 -0.3794311 -0.38110334 0.044241663
000020 2b 09 8b 3d 23 e5 31 be 8d 9f b8 be fb f8 d3 bd
       0.06788858 -0.17372565 -0.36059228 -0.10350224
000030 86 5f 92 bd b0 29 bb 3e 7f 3c af 3e 87 a0 08 3f
       -0.07147126 0.36555243 0.34225842 0.53369945
000040 29 83 2e bf f1 f3 5b bf 08 63 4d bf 24 0d b2 3d
       -0.68168885 -0.859191 -0.80229235 0.086939126
000050 00 9c 44 bf 0e 26 1a bf 57 90 78 bf bf 4f 3c bf
       -0.7680054 -0.60214317 -0.97095245 -0.7355918
000060 a0 aa de be 78 4c 5c bd f1 84 97 be 59 f0 34 bf
       -0.43489552 -0.053783864 -0.29593614 -0.7067924
000070 00 94 42 bf 61 8f f4 3d da 56 0c bf d1 f6 b7 be
       -0.7600708 0.1194141 -0.54820025 -0.35930493
000080 2a df 5f be 42 6f 60 bf 83 ea d7 be 4e 98 26 bf
       -0.21862474 -0.87669766 -0.42171106 -0.6507615
000090 74 5f 4d bf ab 6f 23 bf fd ea d3 be 92 3c 5b bf
       -0.80223775 -0.63842267 -0.4139022 -0.856393
0000a0 ea 12 9e be 5a 26 d2 be 1e c5 67 bf 38 8f 00 bf
       -0.30873805 -0.41044885 -0.9053515 -0.50218534
0000b0 e3 3d 8b bc 22 4c 04 bf c1 16 7a bf b1 9a fd be
       -0.016997283 -0.5167867 -0.9769097 -0.49532083
0000c0 c9 31 e7 be 9c e6 33 bf 9d c1 2b bf ab d2 ba be
       -0.4515517 -0.70273757 -0.67092305 -0.36488852
0000d0 df 9a 09 bf 3a ed f2 be 0d 24 11 3d 52 db 58 bf
       -0.5375194 -0.47446615 0.03543477 -0.84709656
0000e0 d2 d9 a8 be eb 8c 62 bf 7a 02 83 3b 8b 58 b6 be
       -0.32978684 -0.88496274 0.003998098 -0.35614428
0000f0 bd ca 60 bf ce ab 5c bf 12 da 87 bf 99 20 f7 be
       -0.87809354 -0.86199653 -1.0613425 -0.48267058

layer3.1.running_var f4 [64]
000000 03 39 af 3e 76 bc 97 3e 8f 78 86 3e 35 a2 5b 3f
       0.34223184 0.29635972 0.26263854 0.85794383
000010 d4 fc 9b 3e c8 54 c5 3e 55 fb a3 3e b1 22 98 3e
       0.3046633 0.38541245 0.3202769 0.29713967
000020 a0 e2 57 3f 47 dd 1d 3f 9b a5 94 3e a5 3e 63 3e
       0.8433018 0.6166577 0.29032597 0.22191866
000030 e2 11 b3 3e 9c 43 92 3e d9 43 c1 3e be b2 98 3e
       0.3497458 0.28567207 0.37747076 0.2982387
000040 8b a4 c4 3e 9f d3 63 3f 1e 38 af 3e ad a8 13 3f
       0.38406786 0.88994783 0.34222502 0.57679254
000050 83 82 e0 3e 5d 8e 87 3e ff 61 31 3f 27 0f 85 3e
       0.43849573 0.26475802 0.69290155 0.25988123
000060 88 34 9f 3e 19 62 4d 3f d3 f4 1f 3f b3 be c9 3e
       0.31094766 0.8022781 0.6248295 0.39403304
000070 91 41 55 3e 15 35 12 3f b1 80 ac 3e d3 09 5b 3e
       0.20825793 0.57112247 0.33691934 0.21390466
000080 f1 a8 e5 3e c1 f9 a6 3e 99 54 9f 3e ea 3c 9b 3e
       0.44855455 0.32612422 0.3111923 0.3031991
000090 d3 ff 86 3e d7 29 8b 3e 8e 9a ef 3e 92 0d 41 3f
       0.26367053 0.2718036 0.46797603 0.7541133
0000a0 2c 43 89 3e da 1a c4 3e 36 24 94 3e 80 05 85 3e
       0.2680906 0.38301736 0.28933877 0.2598076
0000b0 7c 3b 91 3e 94 ee d7 3e 47 98 b8 3e d4 1b dc 3e
       0.28365695 0.42174208 0.36053678 0.4298998
0000c0 37 ac ae 3e ea 59 bd 3e 68 60 b6 3e b7 0e 81 3e
       0.34115764 0.3698266 0.35620427 0.2520654
0000d0 3b 35 98 3e 8b b4 92 3e e7 12 94 3e 9f 27 d7 3e
       0.29728112 0.28653368 0.2892067 0.42022416
0000e0 99 27 d7 3e cf 13 5f 3e d6 7e ab 3e 17 86 91 3e
       0.42022398 0.217849 0.33495206 0.28422615
0000f0 8a e2 93 3e 25 6a a6 3e 92 ab 93 3e 22 92 e0 3e
       0.28883773 0.32502857 0.28841835 0.4386149
