FAST 3D-CNN P-NET/model/ZGFF/ZGFF_proto_2d-5shotband40.pth (torch, 549101 bytes, 24 tensors)

layer1.0.weight f4 [64, 40, 3, 3]
0	0xbbcefba9	-0.0063166213
1	0x3d040f7f	0.03224134
2	0x3d5734ea	0.052540697
3	0xbd3f7e54	-0.046751335
4	0x3c930c8f	0.017950324
5	0x3d32c4e1	0.04364479
6	0xbc622eba	-0.013805086
7	0xbd05be5c	-0.032652244
8	0xbd2855fb	-0.041097622
9	0xbd169358	-0.03676161
10	0x3cd664c0	0.026171088
11	0x3c30a3f2	0.010781275
12	0x3ca96274	0.020676829
13	0x3c2a32fa	0.01038813
14	0x3ba6aa50	0.005086221
15	0xbd2eeb35	-0.04270478
16	0x3d3bd4c4	0.045857206
17	0xbbafcc5b	-0.0053649372
18	0xbd3160f2	-0.043305345
19	0xbd370402	-0.044681557
20	0x3d35526c	0.044268057
21	0xbd2d47df	-0.04230487
22	0xbc048854	-0.008089144
23	0x3c681f1f	0.014167576
24	0xbd3471ca	-0.04405383
25	0xba8171f6	-0.0009875882
26	0x3cba1f91	0.02272013
27	0xbd2d6194	-0.042329386
28	0x3c346256	0.011009773
29	0xbb364c34	-0.0027816417
30	0x3d3d1ebf	0.0461719
31	0x3cc30eb6	0.023810726
32	0x3cf03239	0.029320823
33	0x3cc92ff8	0.024559006
34	0x3d50c1a4	0.05096592
35	0x3996302b	0.00028646117
36	0x3c504bba	0.012713367
37	0x3ca50f54	0.02014891
38	0xbceb8a50	-0.028752476
39	0xbcb04514	-0.021517314
40	0x3d2294b4	0.039692596
41	0x3d3a56d9	0.04549298
42	0xb90d81df	-0.00013495189
43	0x3d327134	0.04356499
44	0xbd2ae1bd	-0.041719187
45	0xbcf4bab8	-0.02987419
46	0x3cd85361	0.026406946
47	0xbd8922c0	-0.06696081
48	0xbbe377a5	-0.006941753
49	0x3be2cd70	0.0069214627
50	0x3c464721	0.012101919
51	0xbc8f41d7	-0.01748745
52	0xbc540fed	-0.01294325
53	0xbb3bb0d6	-0.0028639338
54	0x3c8c9510	0.017160922
55	0xbc6885eb	-0.014192085
56	0x3cd70da8	0.026251629
57	0xbce155b1	-0.027506681
58	0xbd81dfa2	-0.06341483
59	0xbcd26627	-0.025683476
60	0x3cadbfe6	0.021209668
61	0xbb22784d	-0.0024790943
62	0xbc7520a9	-0.0149614
63	0xbc0a92cb	-0.00845785
64	0x3d326384	0.043551937
65	0xbc952894	-0.018207826
66	0x3d0c4091	0.034241263
67	0x3b6036c4	0.003421233
68	0x3c74e830	0.014947936
69	0xbc8045b4	-0.015658237
70	0x3d0d650a	0.034520186
71	0x3c13f3e1	0.009030313
72	0x3d601312	0.054705687
73	0x3d253b5e	0.04033982
74	0xbce6812b	-0.028137764
75	0x3c330851	0.010927276
76	0x3d1156bc	0.035483107
77	0xbd30b789	-0.043143783
78	0x3d2cc221	0.042177323
79	0xbd0cd40a	-0.034381904
80	0x3d5fd8c2	0.054650076
81	0x3c348b58	0.01101955
82	0xbd264c33	-0.040600013
83	0xbce3f178	-0.027825102
84	0xbd302f2f	-0.043013748
85	0x3bc29c84	0.0059390683
86	0x3d023a7c	0.031794056
87	0x3d232ee1	0.03983963
88	0x3c98e7aa	0.018665154
89	0x3c739c04	0.01486874
90	0x3c57a330	0.0131614655
91	0xbd4b291f	-0.049599763
92	0x3cc4647a	0.023973692
93	0xbb36bc1f	-0.0027883125
94	0xbccec193	-0.025238788
95	0x3c28ed63	0.010310504
96	0xbd30eba1	-0.043193463
97	0x3bb7df49	0.0056113345
98	0x3c25b593	0.010114091
99	0x3b536919	0.0032258688
100	0xbd1a399e	-0.037652604
101	0xbd0d683c	-0.034523234
102	0xbc79b321	-0.015240462
103	0xbd79128c	-0.060808703
104	0xbc3ea4f2	-0.011636006
105	0x3b9f33df	0.0048584784
106	0xbd256937	-0.040383544
107	0xbd9a174c	-0.07523975
108	0x3cdbaaf3	0.026814913
109	0x3cdca4a6	0.02693398
110	0x3d496a16	0.049173437
111	0xbd13dc4d	-0.036098767
112	0x3d5ba902	0.053627975
113	0x3c1faf62	0.009746404
114	0x3c42e50d	0.01189543
115	0x3d36ce74	0.044630483
116	0x3d58b8c9	0.0529106
117	0xbd4aadfa	-0.049482323
118	0xbc596fd6	-0.013271293
119	0xbd103fd5	-0.035217125
120	0xbc2b42e8	-0.010452963
121	0xbc215136	-0.009846022
122	0xbd4543a2	-0.048160203
123	0xbd2b9a26	-0.041895054
124	0xbc245f36	-0.010032466
125	0xbc40909f	-0.01175323
126	0x3bbb3054	0.0057125483
127	0xbd6e887a	-0.058235623
128	0x3ca399fc	0.019970886
129	0x3d13c013	0.036071848
130	0xbd697edd	-0.057005752
131	0xbcf54f77	-0.029945118
132	0xba277768	-0.00063883374
133	0xb9acb0f4	-0.00032938237
134	0xbd3f7f7a	-0.04675243
135	0xbac3dda1	-0.001494337
136	0xbd4e33fc	-0.050342545
137	0x3cf1a798	0.02949886
138	0x3be2ddf1	0.00692343
139	0x3d145510	0.036213934
140	0x3cc16804	0.023609169
141	0x3cd77181	0.02629924
142	0xbd72f341	-0.059314016
143	0x3c96a15f	0.018387495
144	0xbcbf4ecf	-0.023353009
145	0x3cf0234b	0.029313704
146	0xbc549898	-0.012975834
147	0xbc099438	-0.0083971545
148	0x3d285e69	0.04110566
149	0x3cc3e1b2	0.02391133
150	0x3ca2a29e	0.019852933
151	0xbd044464	-0.032291785
152	0x3ac1ee1e	0.0014795696
153	0x3ce6ab80	0.02815795
154	0x3d511897	0.05104884
155	0x3d1457d6	0.03621658
156	0x3d5c8b8c	0.05384402
157	0x3bfca227	0.0077097598
158	0x3ccaf7e3	0.024776405
159	0x3bd32bbe	0.0064444235
160	0xbce0be5b	-0.027434519
161	0x3d240c4e	0.040050797
162	0xbb865b6c	-0.004100254
163	0xbbf52865	-0.007481622
164	0xbd4c69ad	-0.049905468
165	0xbcde3d49	-0.027128832
166	0xbcb82af6	-0.022481423
167	0xbba148fc	-0.0049220305
168	0xbc1d2849	-0.009592124
169	0xbd78117f	-0.06056356
170	0x3c0e33f4	0.008679379
171	0x3b88d993	0.0041763275
172	0x3b981100	0.0046406984
173	0xbd2311ff	-0.039812084
174	0x3c03a04a	0.008033821
175	0x3cd14a4b	0.025548121
176	0xbc0f6ada	-0.008753503
177	0xbcfd8604	-0.030947693
178	0xbd89ea98	-0.06734198
179	0xbd555ba0	-0.052089334
180	0x3d24b9f7	0.040216412
181	0xbc91a29b	-0.017777732
182	0x3ba55068	0.0050449856
183	0x3cd3ead6	0.025868814
184	0xbd47cf0c	-0.04878144
185	0x3cd63e15	0.02615265
186	0x3d1a20c1	0.037628893
187	0xbc12a46c	-0.008950334
188	0x3c9bccfd	0.019018644
189	0x3c9b506a	0.018959243
190	0x3cccdd09	0.025007742
191	0x3cfb2ed3	0.030661976
192	0xbc69c0d9	-0.01426717
193	0x3d01149a	0.031513788
194	0x3d2f2aa7	0.042765286
195	0x3cc62e47	0.024191989
196	0x3ab8c16b	0.0014095729
197	0xbba9f10d	-0.005186206
198	0xbd3173e1	-0.0433234
199	0xbd944495	-0.072396435
200	0x3c446fbe	0.011989532
201	0xbb25944a	-0.002526539
202	0xbd07dcd4	-0.033169582
203	0x3c556e2e	0.013026757
204	0xbd9a5e1d	-0.07537482
205	0xbdb01b6a	-0.08598979
206	0x3ca0584c	0.019573353
207	0x3cdb5dcc	0.026778124
208	0x3d1638e6	0.036675356
209	0x3ce380df	0.027771411
210	0x3d157ace	0.03649407
211	0xbcce6ac1	-0.025197389
212	0x3c1300f5	0.008972396
213	0x3d3f0467	0.046635058
214	0xbca6a933	-0.020344352
215	0xbd34b040	-0.044113398
216	0xbd11309b	-0.035446744
217	0xbd7b442c	-0.06134431
218	0xbbc485d6	-0.0059974
219	0x3be51cb6	0.006991948
220	0xbb21e3ad	-0.0024702356
221	0xbc8dc6fa	-0.017306793
222	0x3968a504	0.00022186717
223	0xbd4f1a6f	-0.05056232
224	0xbc171eb6	-0.009223631
225	0x3ce98ae5	0.028508613
226	0x3c0e482c	0.008684199
227	0x3ca5d7d0	0.020244509
228	0xbbaed4c8	-0.005335424
229	0xbd22d040	-0.039749384
230	0xbd3ad391	-0.04561192
231	0x3c8aa630	0.016924948
232	0x3c99e6a3	0.018786734
233	0xbd4b27f5	-0.049598653
234	0x3c4e3fa1	0.0125884125
235	0xbc7bdf3a	-0.015373046
236	0xbcc97836	-0.024593454
237	0xbd16e88a	-0.03684286
238	0x3c1df5e8	0.009641148
239	0xbd26dff8	-0.040740937
240	0x3a2e05bf	0.00066384295
241	0x3d115851	0.035484616
242	0x3c97334c	0.018457077
243	0x3cacacff	0.021078585
244	0xbd2fd2ac	-0.04292552
245	0xbbf491c6	-0.0074636666
246	0xbd1e5fff	-0.038665768
247	0x3c89a962	0.0168044
248	0xbd190c3e	-0.03736519
249	0xbbd6d7e7	-0.0065564993
250	0x3ccc4a5e	0.024937805
251	0x3bce81a0	0.0063020736
252	0x3ce762b3	0.028245306
253	0x3ccb8303	0.024842745
254	0xbbd90afc	-0.006623624
255	0xbd1148be	-0.035469763

layer1.0.bias f4 [64]
0	0x3f39d3b7	0.72588676
1	0x3f4a7b0f	0.7909402
2	0x3f3dbd8b	0.74117345
3	0x3f48959e	0.783533
4	0x3f37de54	0.7182362
5	0x3f2823ad	0.65679437
6	0x3f3f5e63	0.747534
7	0x3f546fd8	0.8298316
8	0x3f508d6d	0.814658
9	0x3f2f8d1b	0.68574685
10	0x3f4f5f70	0.81005
11	0x3f3e1557	0.7425131
12	0x3f3caff5	0.7370599
13	0x3f42e3ca	0.7612883
14	0x3f3f0cb7	0.74628776
15	0x3f391f9d	0.72313863
16	0x3f4801ff	0.78128046
17	0x3f3e23e5	0.7427352
18	0x3f2b8640	0.67001724
19	0x3f4fa0b5	0.81104594
20	0x3f1e00b8	0.61719847
21	0x3f3f2c92	0.74677384
22	0x3f066acb	0.52506703
23	0x3f367662	0.7127439
24	0x3f40c97a	0.7530743
25	0x3f12449e	0.5713595
26	0x3f16cd1a	0.5890671
27	0x3f4f66ad	0.81016046
28	0x3f3ba9b2	0.7330581
29	0x3f344127	0.70411915
30	0x3f4f994d	0.81093293
31	0x3f4db2da	0.8035103
32	0x3f0c6954	0.5484822
33	0x3f17d991	0.59316355
34	0x3f1726de	0.5904368
35	0x3f05386e	0.5203923
36	0x3f3cc254	0.7373402
37	0x3f34398e	0.7040032
38	0x3f447d49	0.7675367
39	0x3f23db71	0.64006716
40	0x3f4c20b2	0.7973739
41	0x3f44f7a9	0.769404
42	0x3f463730	0.7742796
43	0x3f469ce7	0.77583164
44	0x3f13a554	0.57674146
45	0x3f52287a	0.8209301
46	0x3f3dc931	0.7413512
47	0x3f43b2d7	0.7644476
48	0x3f23761a	0.63852084
49	0x3f41ff77	0.75780433
50	0x3f592db0	0.8483534
51	0x3f3e0016	0.7421888
52	0x3f4c352f	0.7976865
53	0x3f31d3d0	0.69463825
54	0x3f2d12b7	0.6760668
55	0x3f4e1b7f	0.80510706
56	0x3ef340ca	0.47510368
57	0x3f3f0224	0.7461264
58	0x3f54c726	0.83116376
59	0x3f4f9c35	0.8109773
60	0x3f4a5b7d	0.7904585
61	0x3f3ecd35	0.7453187
62	0x3f52dd1a	0.82368624
63	0x3f14e7ab	0.58166

layer1.1.weight f4 [64]
0	0x3f8480cb	1.0351804
1	0x3f82626d	1.0186287
2	0x3f7ffc29	0.9999414
3	0x3f810948	1.0080957
4	0x3f7afd26	0.98042524
5	0x3f74a49c	0.95563674
6	0x3f7e987f	0.9945144
7	0x3f789d3e	0.9711493
8	0x3f832253	1.024485
9	0x3f7b466a	0.9815432
10	0x3f78710f	0.97047514
11	0x3f854cd8	1.0414076
12	0x3f7f97ef	0.9984121
13	0x3f8028cc	1.001245
14	0x3f8282f8	1.0196218
15	0x3f794ba7	0.9738106
16	0x3f796d31	0.9743224
17	0x3f786864	0.9703429
18	0x3f7784d9	0.96687084
19	0x3f81c76b	1.0138983
20	0x3f73453e	0.9502753
21	0x3f8107ca	1.0080502
22	0x3f824d9f	1.0179938
23	0x3f8008d5	1.0002695
24	0x3f84263e	1.032417
25	0x3f808dbf	1.0043257
26	0x3f83872f	1.027563
27	0x3f824891	1.0178396
28	0x3f7f74f3	0.99787825
29	0x3f7980ea	0.9746233
30	0x3f7aac27	0.97918934
31	0x3f7c34b3	0.9851791
32	0x3f7b519f	0.9817142
33	0x3f824883	1.0178379
34	0x3f80da6c	1.0066657
35	0x3f81b299	1.0132629
36	0x3f7e5959	0.99355084
37	0x3f815a97	1.0105771
38	0x3f7d6ff8	0.98998976
39	0x3f7cd558	0.98763037
40	0x3f7f107e	0.9963454
41	0x3f7c184a	0.9847456
42	0x3f822c30	1.0169735
43	0x3f7d14e2	0.9885999
44	0x3f81f27d	1.0152127
45	0x3f81a29c	1.012775
46	0x3f82bc8b	1.0213789
47	0x3f8005c3	1.0001758
48	0x3f7c4c3b	0.9855382
49	0x3f7f137b	0.996391
50	0x3f7afbc6	0.98040426
51	0x3f7c229d	0.98490316
52	0x3f76ae40	0.96359634
53	0x3f773658	0.96567297
54	0x3f812688	1.0089884
55	0x3f7a9b12	0.9789287
56	0x3f811f28	1.0087633
57	0x3f8083dc	1.004024
58	0x3f7d8e70	0.9904547
59	0x3f8236f8	1.0173025
60	0x3f7efd19	0.99604946
61	0x3f853360	1.0406303
62	0x3f7c13c8	0.98467684
63	0x3f83e766	1.0304992

layer1.1.bias f4 [64]
0	0xbc0ad667	-0.008473969
1	0xbd6beeb5	-0.057600696
2	0xbbb41642	-0.0054958174
3	0xbd6d24d5	-0.057896454
4	0xbcc5e2cc	-0.024155997
5	0x3c18bab0	0.0093218535
6	0xbc6498b1	-0.01395242
7	0xbc627452	-0.013821678
8	0xbcd8529d	-0.02640658
9	0x3cce7e50	0.025206715
10	0xbb2bf27b	-0.002623706
11	0xbd5335ff	-0.051565167
12	0xbd2fd6bd	-0.0429294
13	0xbcbf2c41	-0.023336532
14	0xbd222b21	-0.039591912
15	0xbd4c86eb	-0.049933355
16	0x3c8c9f45	0.01716579
17	0x3b87a7c1	0.004139871
18	0xbb157f40	-0.0022811443
19	0xbcd1ef08	-0.025626674
20	0xbbefff88	-0.007324163
21	0xbd8135f0	-0.06309116
22	0xbd63a7a0	-0.05557978
23	0xbd5eb288	-0.05436948
24	0xbcc0a06c	-0.023513995
25	0xbdd3ba0d	-0.10338221
26	0xbd814d7c	-0.06313607
27	0xbba83b0b	-0.0051339916
28	0xbd142251	-0.03616554
29	0x3bbb8330	0.005722426
30	0xbc257458	-0.010098539
31	0xbd08afcd	-0.03337078
32	0x3d0d4e7b	0.034498673
33	0xbd8417c3	-0.06449845
34	0xbcff6a4d	-0.031178618
35	0xbd58256f	-0.052770074
36	0xbd5cbcda	-0.05389104
37	0xbd2d5150	-0.042313874
38	0xbce7e317	-0.028306527
39	0xbd299b4e	-0.041407876
40	0xbb3c3dbf	-0.0028723327
41	0x3c261743	0.010137382
42	0xbd4c3618	-0.049856275
43	0xbc2761a2	-0.010216149
44	0xbd2e449c	-0.0425459
45	0x3c50d6af	0.012746497
46	0xbd2fd4e6	-0.042927645
47	0x3b54f09d	0.003249205
48	0xbcb4f5a9	-0.022089796
49	0xbd1ce899	-0.03830776
50	0xbcb13efe	-0.021636482
51	0x3c2ef14c	0.010677647
52	0xbbcd7ad3	-0.0062707453
53	0x3c5b009c	0.0133668445
54	0xbcfcdd97	-0.030867381
55	0xbbbef60b	-0.0058276705
56	0xbd5cfbd1	-0.05395109
57	0xbba7a847	-0.005116496
58	0xbc3e9248	-0.011631556
59	0xbcb490aa	-0.022041637
60	0xbd466c4f	-0.048443135
61	0xbd4463b0	-0.047946632
62	0xbca6dd7b	-0.020369282
63	0xbd90a032	-0.07061805

layer1.1.running_mean f4 [64]
0	0x3f2cbf49	0.6747938
1	0x3f1f41f9	0.6221004
2	0x3f2871a9	0.6579843
3	0x3f1b2d6d	0.6061619
4	0x3f1d25d2	0.61385834
5	0x3f8222f0	1.0166912
6	0x3f51e362	0.81987584
7	0x3f2dd05d	0.6789606
8	0x3f3f8484	0.7481158
9	0x3f63a577	0.88924354
10	0x3f692cc6	0.91083944
11	0x3f1d3a3c	0.61416984
12	0x3f3fd887	0.7493977
13	0x3f1aa40e	0.6040658
14	0x3f1f9842	0.623417
15	0x3f1c849b	0.6113984
16	0x3f5bfcd9	0.8593269
17	0x3f4f1113	0.8088543
18	0x3f48b9a1	0.7840825
19	0x3f4f7d35	0.81050426
20	0x3f3ae4fd	0.7300566
21	0x3f032b68	0.5123811
22	0xbea5e970	-0.3240466
23	0x3f1670c0	0.5876579
24	0x3f2e68c7	0.6812863
25	0xbc82dcbe	-0.015974399
26	0x3d9d0c56	0.076683685
27	0x3f43d5e6	0.7649826
28	0x3ef486d4	0.47759116
29	0x3f601bcd	0.8754242
30	0x3f6ca90c	0.92445445
31	0x3f5a8196	0.8535398
32	0x3fc27e4c	1.5194793
33	0xbc9adf74	-0.018905379
34	0x3e906eaa	0.2820943
35	0x3cb7e149	0.022446292
36	0x3f4628ad	0.77405816
37	0x3f2f5471	0.6848822
38	0x3f23611a	0.6382004
39	0xbcd9344b	-0.026514193
40	0x3f2a41e6	0.66506803
41	0x3f4ed879	0.8079906
42	0x3f3aed96	0.7301878
43	0x3f2f261b	0.6841752
44	0xbdf52b7b	-0.11971184
45	0x3f452ef1	0.7702475
46	0x3f45bd56	0.7724203
47	0x3f1a6d60	0.60323143
48	0x3f74f225	0.95681983
49	0x3f0f5680	0.55991364
50	0x3f47244b	0.77789754
51	0x3f2eaab3	0.68229216
52	0x3f742d28	0.953814
53	0x3f509643	0.8147928
54	0x3f021ebc	0.50828147
55	0x3f877595	1.0582758
56	0xbe3ccde9	-0.18437923
57	0x3f227549	0.6346021
58	0x3f276f74	0.6540444
59	0x3f20bfb4	0.62792516
60	0x3f7a6fb6	0.9782671
61	0x3f03c8c9	0.5147825
62	0x3f638f87	0.8889088
63	0xbdb35990	-0.08757317

layer1.1.running_var f4 [64]
0	0x3ea969e7	0.3308861
1	0x3f39dd6f	0.72603506
2	0x3ebce4b2	0.3689323
3	0x3f7abd92	0.9794551
4	0x3eeefaab	0.4667562
5	0x40cfe93e	6.497222
6	0x3ef69694	0.48161757
7	0x3eb160c7	0.34644148
8	0x3e7487e9	0.2387997
9	0x3f93e962	1.1555598
10	0x3ee7538d	0.45180932
11	0x3eddcb87	0.43319342
12	0x3edecb50	0.4351449
13	0x3f9ea4c9	1.2394038
14	0x3efb554a	0.49088508
15	0x3f319b3e	0.69377506
16	0x3f12b14b	0.5730178
17	0x3fdd8427	1.7305955
18	0x3ff4c31a	1.912204
19	0x3e581fdb	0.21105902
20	0x3fc67d47	1.5506982
21	0x3fb128f6	1.3840625
22	0x418b6c07	17.427748
23	0x3fb9f065	1.4526488
24	0x3e410f47	0.18853484
25	0x412396e7	10.224341
26	0x40bdcf7b	5.931577
27	0x3e87b32d	0.26503888
28	0x3fed69b8	1.8547888
29	0x400cbfb7	2.1992013
30	0x3f19d487	0.60089916
31	0x3f42c55f	0.76082414
32	0x41629463	14.161227
33	0x411cbd79	9.796258
34	0x40d9e09d	6.8086686
35	0x410a07e5	8.626927
36	0x402b38bc	2.6753378
37	0x3f35fec3	0.7109186
38	0x3fa1fd67	1.2655457
39	0x40a4bf48	5.14835
40	0x3f51a723	0.81895655
41	0x3f596dbc	0.84933066
42	0x3f9a3ce6	1.2049835
43	0x3f0e309d	0.5554293
44	0x411aa93a	9.666315
45	0x3eec0fbd	0.46105757
46	0x3f17e7c6	0.59338033
47	0x3f070774	0.5274575
48	0x40a0f5ea	5.030019
49	0x3f13d022	0.5773946
50	0x3ebb6290	0.36598635
51	0x3ea84860	0.32867718
52	0x3f75f4f8	0.9607692
53	0x3f41ca9f	0.756998
54	0x3f4f0c12	0.8087779
55	0x3f8f311a	1.118686
56	0x411cbf10	9.796646
57	0x3ec779fa	0.38960248
58	0x3f14122b	0.5784022
59	0x3f82a219	1.0205718
60	0x3fd2b3db	1.6461138
61	0x3fd74e1c	1.6820712
62	0x3e87d5a0	0.2653017
63	0x413657d3	11.396441

layer2.0.weight f4 [64, 64, 3, 3]
0	0x3d00d488	0.031452686
1	0x3cc9c8c5	0.024631867
2	0x3cb787bd	0.022403592
3	0xbb8a5165	-0.0042211288
4	0xbc90b459	-0.017664121
5	0x3d2b20ef	0.041779455
6	0x3c923155	0.017845789
7	0xbcbf292a	-0.023335058
8	0xbd224acd	-0.039622117
9	0xbd281949	-0.04103974
10	0xbd13580a	-0.035972632
11	0xbc8d1021	-0.017219605
12	0x3cdcb2e8	0.026940778
13	0x3a93844e	0.001125464
14	0xbc2c9c64	-0.010535333
15	0xbd68171e	-0.05666267
16	0xbcb660a4	-0.022262879
17	0xbc290783	-0.010316732
18	0xbcb1986c	-0.021679126
19	0xbd1c16d6	-0.038107716
20	0x3d517853	0.05114014
21	0x3cac3768	0.021022514
22	0x3c80ce94	0.015723504
23	0x3a2f3bf4	0.0006684654
24	0x3b86e214	0.004116306
25	0xbc7cf5fc	-0.015439507
26	0x3cc0e27c	0.023545496
27	0xbd4acb06	-0.049510024
28	0x3c367271	0.011135683
29	0xbd36ca51	-0.044626538
30	0x3c9a492f	0.018833725
31	0x3bca628c	0.0061762985
32	0x3cc4abb5	0.024007658
33	0xbcaf6f27	-0.021415306
34	0xbbeae26a	-0.007168104
35	0xbc78b7d3	-0.015180546
36	0x3cd372f7	0.025811655
37	0xbccaf0e1	-0.024773063
38	0xbd2f12d7	-0.042742576
39	0xbc25bd22	-0.010115894
40	0x3acb728c	0.0015521809
41	0x3c937131	0.01799831
42	0x3cfadc29	0.030622559
43	0xbc9dc3a3	-0.019258326
44	0xbc172e93	-0.009227413
45	0xbce45346	-0.02787174
46	0x3d209082	0.039200313
47	0x3d2906ca	0.04126624
48	0x3d29c01e	0.041442983
49	0x3d080db7	0.033216204
50	0x3b814615	0.003945122
51	0xbbfc7191	-0.007703968
52	0x3c8f2128	0.017471865
53	0x3c24ac9b	0.010050918
54	0xbd473181	-0.048631195
55	0xbcc3d236	-0.023903947
56	0xbc207923	-0.009794506
57	0xbd646a7b	-0.05576561
58	0xbd2711bf	-0.04078841
59	0xbd443b3e	-0.04790806
60	0xbd49d9bf	-0.049279924
61	0x3c382c3c	0.011241015
62	0xbca7d1fe	-0.020485874
63	0xbc51af9b	-0.012798215
64	0x3c8e0f9a	0.017341424
65	0xbc510a2d	-0.012758774
66	0xbc1053dc	-0.008809056
67	0x3bcd9a1d	0.0062744753
68	0x3d45e5f8	0.04831502
69	0x3d38650d	0.045018245
70	0x3b967095	0.0045910575
71	0x3a756e04	0.0009362402
72	0x3b96ead6	0.0046056313
73	0x3cc5fb70	0.024167746
74	0x3d696bf2	0.05698771
75	0xbccf153c	-0.02527868
76	0xbd0f9801	-0.03505707
77	0xbcfeac14	-0.031087913
78	0x39cb56a2	0.00038783724
79	0xbd4cb3e8	-0.04997626
80	0xbb5161cb	-0.0031949158
81	0x3cb40746	0.021976124
82	0x3ca24f89	0.019813316
83	0x3c455ea3	0.012046489
84	0x3ca441ec	0.020050965
85	0xbcf4b676	-0.02987216
86	0xbbb4f079	-0.0055218306
87	0x3ca506e1	0.020144882
88	0x3b3e0826	0.0028996556
89	0x3ce13d80	0.027495146
90	0x3d03c65d	0.032171596
91	0x3d04b611	0.032400195
92	0xbb2c53be	-0.0026295031
93	0x3d1c32d7	0.038134422
94	0x3b44dad3	0.0030037656
95	0x3d2a3664	0.041555777
96	0x3c1c5419	0.009541535
97	0x3d0c5fcd	0.03427105
98	0x3be9cd3c	0.0071350615
99	0xbd494825	-0.049141068
100	0xbb53193b	-0.0032211083
101	0xbc87378c	-0.016505979
102	0xbd18406b	-0.03717081
103	0x3cea15f4	0.028574921
104	0x3c4ec906	0.01262117
105	0x3d31d6d8	0.04341778
106	0x3bf43e82	0.0074537406
107	0xbc9f7c69	-0.019468503
108	0xbcf94a74	-0.03043101
109	0x3cdaa5e9	0.02669044
110	0xbccdd9a1	-0.025128188
111	0x3d0297c8	0.03188303
112	0xbb71087f	-0.0036778746
113	0x3c93a178	0.01802133
114	0x3d2e0871	0.04248852
115	0x3d25dd71	0.040494386
116	0x3cde7af5	0.02715824
117	0xbd0a44d8	-0.03375706
118	0x3d0401a1	0.032228116
119	0x3d1882dc	0.037234172
120	0xbd058381	-0.032596115
121	0x3b23c283	0.0024987764
122	0x3d3670bf	0.044541117
123	0xbd182b3d	-0.03715061
124	0xbd30497f	-0.04303884
125	0x3c0535ef	0.008130535
126	0x3be2c6b8	0.006920662
127	0xbc70e16f	-0.014702185
128	0x3b2230e1	0.0024748372
129	0xbd1e2f91	-0.03861958
130	0xbd2998fc	-0.041405663
131	0x3c458171	0.012054787
132	0xbcb93a46	-0.022610795
133	0xbd5e511a	-0.054276563
134	0xbaafd61f	-0.0013415253
135	0x3bd4180e	0.006472594
136	0xbb9f79e2	-0.0048668245
137	0x3be81cee	0.007083527
138	0xbd115c21	-0.03548825
139	0xbc696ad7	-0.014246664
140	0x3c6f7c1b	0.014616991
141	0xbd3c447f	-0.04596376
142	0xbd0d71c8	-0.03453234
143	0xbd66f99a	-0.056390382
144	0x3cb9436c	0.022615157
145	0xbb385c10	-0.0028131045
146	0x3d1df149	0.038560186
147	0xbd3ea0cb	-0.046540063
148	0x3ceb0aaa	0.028691608
149	0xbc99aa31	-0.018757911
150	0xbbd89115	-0.006609092
151	0xbd49041c	-0.049076185
152	0xbd1500ac	-0.036377594
153	0xbc074e38	-0.008258395
154	0xbd1aa778	-0.037757367
155	0x3b861764	0.004092144
156	0x3cc7f8a3	0.024410551
157	0xba90843b	-0.0011025736
158	0xbba7d2a4	-0.005121546
159	0xbc0db308	-0.008648641
160	0x3c8b40b2	0.016998623
161	0x3c21809d	0.009857324
162	0x3c1fc578	0.00975167
163	0x3ce96bb9	0.028493749
164	0xb9549b8f	-0.00020275846
165	0xbcd08882	-0.025455717
166	0x3c92200a	0.017837543
167	0x3c446e20	0.0119891465
168	0xbca4860b	-0.020083448
169	0x3cf5202d	0.02992257
170	0x3cdba973	0.026814198
171	0x3d022298	0.031771272
172	0x3c835c43	0.016035205
173	0xbd00fe3e	-0.031492464
174	0xbc133fb2	-0.008987354
175	0x3c0323af	0.008004113
176	0x3c97ad1e	0.018515166
177	0xbc915656	-0.017741363
178	0xbb6f9689	-0.0036558232
179	0x3cdc6294	0.026902474
180	0x3c2018c7	0.009771532
181	0xbc3ff3b9	-0.011715823
182	0x3d53f788	0.051749736
183	0x3b3d8a36	0.0028921491
184	0x3b201280	0.002442509
185	0x3b68791b	0.0035472575
186	0xbc933d4a	-0.01797356
187	0xbcd7fe30	-0.026366323
188	0xbcf023e1	-0.029313983
189	0x3c823309	0.015893476
190	0xbd0fdb06	-0.035120986
191	0xbca30c84	-0.019903429
192	0xbc7ec76e	-0.015550477
193	0xbbb588ca	-0.005539988
194	0xbd2ee5be	-0.042699568
195	0xbba81e1a	-0.0051305415
196	0xbd2aefeb	-0.04173271
197	0x3c537939	0.01290732
198	0xbd668018	-0.056274503
199	0xbd29ac84	-0.04142429
200	0xbd224fd2	-0.039626904
201	0xbc671a27	-0.014105356
202	0xbb020bf6	-0.0019843555
203	0xbcd19d1f	-0.025587616
204	0xbc485d76	-0.012229314
205	0xbcc45e92	-0.023970876
206	0xbbca57d2	-0.00617502
207	0x3c710210	0.014709964
208	0xbd217342	-0.03941656
209	0x3ce66c51	0.028127821
210	0x3c0e72a9	0.008694329
211	0x3cd20f32	0.025642011
212	0x3cce2a23	0.025166577
213	0xbc437f92	-0.011932271
214	0x3c022bd9	0.007945024
215	0x3d0f4580	0.03497839
216	0xbc03c7ed	-0.0080432715
217	0x3c724c3d	0.014788684
218	0xbd09e558	-0.033665985
219	0x3d453f4c	0.048156068
220	0x3d1d7868	0.038444906
221	0x3c6d8597	0.014497182
222	0xbc92974d	-0.017894411
223	0x3d441fac	0.047881767
224	0x3d118fcf	0.035537537
225	0x3cab9eee	0.020949807
226	0x3a40abe3	0.0007349832
227	0xbd20a60a	-0.039220847
228	0xbd0e5ae3	-0.034754645
229	0xbcf8ec3d	-0.030386085
230	0x3d21a349	0.03946236
231	0x3cbca81b	0.023029378
232	0xbd056b83	-0.032573234
233	0xbbd808ce	-0.0065928465
234	0x3c97f24f	0.018548159
235	0x3c92744e	0.017877724
236	0x3ba0c153	0.0049058585
237	0x3c8369f6	0.016041737
238	0xbb6a6bcd	-0.003576982
239	0xbd960a24	-0.07326153
240	0x3b729bc2	0.0037019108
241	0xbc7aafc9	-0.0153006995
242	0xbd2174fe	-0.039418213
243	0x3cc9574a	0.024577755
244	0x3ba87db3	0.0051419376
245	0x3c3d6718	0.011560224
246	0x3d0b4af8	0.034007043
247	0x3cc5cdce	0.024145987
248	0x3c9c959a	0.019114304
249	0x3d53cf4f	0.051711377
250	0x3d390b47	0.04517677
251	0xbc1f960b	-0.009740363
252	0x3cb55464	0.022134967
253	0xbd0f1e70	-0.034941137
254	0xbd2e5084	-0.042557254
255	0xbcd4644e	-0.025926735

layer2.0.bias f4 [64]
0	0xbc17a844	-0.009256426
1	0x3b45e47f	0.0030196009
2	0x3d0bc8cf	0.034127053
3	0x3c1afed9	0.0094601745
4	0x3d2a7c1a	0.04162226
5	0xbd17c2a2	-0.03705085
6	0xba6fda0a	-0.0009149617
7	0x3b539010	0.0032281913
8	0x3c9878bb	0.018612256
9	0x3cf20aeb	0.029546222
10	0xbc43af0f	-0.011943593
11	0xbc257d25	-0.010100638
12	0xb944bc4a	-0.0001876216
13	0x3cf1dfaf	0.029525606
14	0x3cec8a5b	0.028874567
15	0x3bc4f732	0.0060109133
16	0x3c96af02	0.018393997
17	0xbc45af01	-0.01206565
18	0xbcd07710	-0.025447398
19	0x3cb7eaac	0.022450767
20	0xbc6707ce	-0.014100982
21	0x3cbc4232	0.022980783
22	0xbb46cb22	-0.003033348
23	0xbae42437	-0.0017405812
24	0x3d171e1c	0.03689395
25	0xbbda6fb5	-0.0066661485
26	0xbd020e19	-0.031751726
27	0xbb0b5294	-0.0021258937
28	0xbafee2d8	-0.0019446267
29	0xbce9d02b	-0.028541645
30	0xbcf4a08e	-0.029861715
31	0x3c80e376	0.015733462
32	0xb989dc12	-0.0002629464
33	0xbc6cc3bd	-0.0144509645
34	0x3c720878	0.014772527
35	0x3b84f0b1	0.004057013
36	0x3cb21efa	0.021743286
37	0xbcda58b6	-0.026653629
38	0xbd20071e	-0.039069287
39	0xbd05c93d	-0.03266262
40	0x3cbdf5a8	0.023188427
41	0xbc1c0d71	-0.009524689
42	0x3d16a4eb	0.03677837
43	0xbc0c90d3	-0.008579451
44	0xbca0bce6	-0.019621324
45	0xb9114747	-0.0001385483
46	0x3d1f1741	0.038840536
47	0x3cc8f4c1	0.02453077
48	0x3d052cfb	0.0325136
49	0xbc785195	-0.015156169
50	0xbc76d684	-0.015065793
51	0xbd1c345e	-0.03813588
52	0x3c56ebbd	0.013117728
53	0xbd30e36b	-0.043185633
54	0xbd18226b	-0.0371422
55	0xbc3703a1	-0.011170299
56	0x3d185d89	0.037198577
57	0x3c541195	0.012943645
58	0x3c72e612	0.014825361
59	0x3afd26dd	0.001931395
60	0xbc33d819	-0.010976815
61	0xbd03473c	-0.032050356
62	0x3cc29e75	0.023757199
63	0x3d0ace72	0.033888288

layer2.1.weight f4 [64]
0	0x3f7df768	0.99205637
1	0x3f7ea4b8	0.9947009
2	0x3f803b62	1.0018122
3	0x3f809928	1.004674
4	0x3f82c07d	1.0214993
5	0x3f7c1b96	0.9847959
6	0x3f7e825f	0.9941768
7	0x3f8067ca	1.0031674
8	0x3f7add90	0.9799433
9	0x3f806f23	1.0033916
10	0x3f80239c	1.0010867
11	0x3f8507aa	1.0392964
12	0x3f7d6f7f	0.98998255
13	0x3f80cc69	1.0062381
14	0x3f7ff7e1	0.9998761
15	0x3f7d05d1	0.98837
16	0x3f7e3006	0.9929203
17	0x3f7b0738	0.9805789
18	0x3f8007c8	1.0002375
19	0x3f79638e	0.97417533
20	0x3f7f0e65	0.9963134
21	0x3f805221	1.0025064
22	0x3f7fd5de	0.9993571
23	0x3f810eda	1.0082657
24	0x3f7c5682	0.985695
25	0x3f7c01aa	0.9844004
26	0x3f7d455e	0.9893397
27	0x3f7e4714	0.99327207
28	0x3f7bcc5c	0.983587
29	0x3f7f8d71	0.998252
30	0x3f7b7817	0.9823012
31	0x3f857837	1.0427312
32	0x3f818b53	1.0120643
33	0x3f813571	1.0094434
34	0x3f7f1e39	0.9965549
35	0x3f803df7	1.001891
36	0x3f847b85	1.0350195
37	0x3f82b11f	1.0210303
38	0x3f81d67a	1.0143578
39	0x3f7ec353	0.9951679
40	0x3f800f0e	1.0004594
41	0x3f81af7c	1.0131679
42	0x3f81985f	1.0124625
43	0x3f7c61f3	0.9858696
44	0x3f7b2563	0.9810392
45	0x3f80fa4d	1.0076386
46	0x3f81d0bf	1.0141829
47	0x3f7e42dd	0.99320775
48	0x3f8337be	1.0251386
49	0x3f7c3b49	0.9852796
50	0x3f7f98d0	0.9984255
51	0x3f808f2d	1.0043694
52	0x3f7f46e3	0.9971754
53	0x3f7f1611	0.99643046
54	0x3f779fdd	0.96728307
55	0x3f7cee19	0.9880081
56	0x3f7b88cd	0.98255616
57	0x3f808ac5	1.0042349
58	0x3f7f8eba	0.9982716
59	0x3f81474f	1.0099887
60	0x3f7e314d	0.9929398
61	0x3f82dc6f	1.0223521
62	0x3f7dbcb3	0.9911606
63	0x3f829e58	1.0204573

layer2.1.bias f4 [64]
0	0xbd169b4c	-0.036769196
1	0xbd3e98ae	-0.046532325
2	0x3bf78ac0	0.007554382
3	0xbc7a1d8c	-0.015265834
4	0xbdb84b89	-0.08998782
5	0xbce1c8c2	-0.02756155
6	0xbc50a02b	-0.0127334995
7	0xbda7529e	-0.08170055
8	0x3c195d66	0.009360647
9	0x3c2b097f	0.010439276
10	0xbd3dcfd3	-0.046340775
11	0xbd231a10	-0.039819777
12	0xbb99fe2a	-0.004699488
13	0xbd701f5a	-0.05862365
14	0xbcc5baa8	-0.024136856
15	0xbd108447	-0.0352824
16	0x3b889e44	0.0041692574
17	0xbd1b28aa	-0.037880577
18	0x3c8600cb	0.0163578
19	0xbd819361	-0.063269384
20	0x3c9a3b0d	0.018826986
21	0xbd30444d	-0.043033887
22	0xbbce976b	-0.0063046715
23	0xbacb2d6d	-0.0015501209
24	0xbcf8fe57	-0.030394716
25	0xbd07d0f2	-0.03315825
26	0xbc29193b	-0.010320957
27	0xbd1a13ea	-0.037616648
28	0xbc8f3544	-0.017481454
29	0xbbb6ac36	-0.0055747284
30	0xbd661aac	-0.05617778
31	0xbd9c6248	-0.07635933
32	0xbd223de3	-0.0396098
33	0xbc855e68	-0.016280368
34	0xbce7fe7e	-0.028319594
35	0x3cced4a5	0.025247881
36	0xbcb949b8	-0.02261816
37	0xbced6fd4	-0.028983988
38	0x3b3c90e9	0.0028772897
39	0xbccbf03a	-0.024894822
40	0xbcc25abd	-0.023724908
41	0xbd0ae9b7	-0.033914294
42	0xbcdd8722	-0.027041975
43	0xbd0523a9	-0.03250471
44	0xbd41ada4	-0.047284737
45	0xbcfb43e5	-0.030672023
46	0xbcd23005	-0.025657663
47	0xbd4f314e	-0.05058413
48	0xbd4f8572	-0.050664373
49	0xbd128d37	-0.035779204
50	0xbc6f9a80	-0.014624238
51	0xbcc02cc2	-0.023458842
52	0xbcead7cb	-0.028667351
53	0xbd8cf853	-0.068833016
54	0xbbfa48a8	-0.007638056
55	0x3b22e1ce	0.0024853828
56	0xbd3d0644	-0.046148553
57	0xbd82bd9d	-0.06383822
58	0xbd3dc177	-0.04632708
59	0x3b2369ac	0.0024934812
60	0xbc074c5f	-0.008257954
61	0xbb1540db	-0.0022774253
62	0xbca6b80a	-0.020351429
63	0x3ca54b8a	0.020177621

layer2.1.running_mean f4 [64]
0	0xbf4d7545	-0.80257064
1	0xbf97fab2	-1.1873381
2	0xbf032c81	-0.5123978
3	0xbf0c8984	-0.5489733
4	0xbee4a952	-0.4466043
5	0xbf8875eb	-1.0660986
6	0xbf38621d	-0.7202471
7	0x3ef2e290	0.47438478
8	0xbf041f36	-0.51610124
9	0xbf0a745b	-0.54083794
10	0xbf2db9f4	-0.67861867
11	0xbf365266	-0.7121948
12	0x3d6c33f2	0.057666726
13	0xbe7a8b03	-0.24467091
14	0xbf709b0f	-0.939866
15	0x3eacc863	0.33746633
16	0xbe9d7967	-0.30756685
17	0xbfa3f5e2	-1.2809412
18	0xbf74e16a	-0.95656455
19	0xbeaa7e52	-0.332995
20	0xbe69d014	-0.22833282
21	0xbf0760f9	-0.52882344
22	0xbf237eb8	-0.6386523
23	0xbf6cf1ae	-0.92556274
24	0x3f51905e	0.8186091
25	0xbfa242cf	-1.2676638
26	0xbe75757f	-0.23970602
27	0x3f26d5b6	0.65169847
28	0xbed8abe3	-0.4231864
29	0xbeb87d75	-0.36033216
30	0xbf20852c	-0.62703204
31	0x3dfaeff5	0.122527994
32	0xbf880041	-1.0625077
33	0xbf964f16	-1.1742885
34	0xbf65ff27	-0.89842457
35	0xbf061dfc	-0.523895
36	0xbf3aa4b0	-0.72907543
37	0x3cac8cf5	0.021063307
38	0xbf620759	-0.8829246
39	0xbdd5b2b0	-0.104344726
40	0xbdd74d1a	-0.10512753
41	0x3e2ac736	0.16677555
42	0xbf7dacc6	-0.99091756
43	0xbe0c0281	-0.1367283
44	0xbf31a74b	-0.69395894
45	0x3e818232	0.25294644
46	0xbfa538c0	-1.2907944
47	0xbb6d5604	-0.00362146
48	0x3ea23734	0.31682742
49	0x3dcd2c6c	0.100182384
50	0xbf06333f	-0.52421945
51	0xbed666fb	-0.41875443
52	0xbf327b7c	-0.6971967
53	0xbf0c9ae2	-0.5492383
54	0x3d1e3828	0.038627774
55	0x3e15a55c	0.14613861
56	0xbf2d3a78	-0.6766734
57	0xbe064ed1	-0.13116004
58	0xbf5840a9	-0.84473664
59	0xbf9f9979	-1.2468711
60	0xbe8684d9	-0.2627323
61	0xbfd46864	-1.6594357
62	0xbf1ba69b	-0.60801095
63	0xbe7363c7	-0.23768531

layer2.1.running_var f4 [64]
0	0x3f2732d0	0.6531191
1	0x3ee279de	0.44233602
2	0x3eb03804	0.34417737
3	0x3ef51f7b	0.4787558
4	0x3e3a5e2b	0.18199985
5	0x3f31e8c7	0.69495815
6	0x3f44bc90	0.76850224
7	0x3e4fd1c7	0.20294867
8	0x3e8f3f63	0.27978048
9	0x3e80a1e3	0.2512351
10	0x3f17aea5	0.5925086
11	0x3e8d3860	0.27582073
12	0x3f7e69ca	0.9938017
13	0x3e67453e	0.22585008
14	0x3f35bb26	0.7098869
15	0x3ee6f167	0.4510605
16	0x3f33913d	0.7014349
17	0x3f181720	0.59410286
18	0x3ed31e57	0.41234085
19	0x3e744b5d	0.23856874
20	0x3f94261a	1.1574128
21	0x3e7ce834	0.24697953
22	0x3efb2887	0.49054357
23	0x3ef47717	0.47747108
24	0x3f122b5e	0.57097423
25	0x3f5cb826	0.8621849
26	0x3f0c754e	0.5486649
27	0x3f079158	0.5295615
28	0x3f50012c	0.8125179
29	0x3f923dba	1.1425087
30	0x3e996b0d	0.29964486
31	0x3e14f240	0.14545536
32	0x3ee05f4c	0.43822706
33	0x3ee1ea3b	0.44124016
34	0x3ea94ad0	0.3306489
35	0x3f922226	1.1416671
36	0x3e9e17f1	0.3087764
37	0x3ee0098c	0.43757284
38	0x3f78a573	0.97127455
39	0x3f091fd9	0.5356422
40	0x3ebbcb2d	0.36678448
41	0x3ead846c	0.33890092
42	0x3eef612c	0.46753824
43	0x3f167335	0.5876954
44	0x3edea83e	0.43487734
45	0x3e492909	0.1964456
46	0x3ecfae94	0.4056288
47	0x3e785cb0	0.24254107
48	0x3e6f4b0b	0.2336847
49	0x3e7659d5	0.24057706
50	0x3f1259eb	0.57168454
51	0x3ed2fbee	0.41207832
52	0x3e821b48	0.2541144
53	0x3e92a35b	0.28640255
54	0x3ec92157	0.3928325
55	0x3eb4cc1c	0.35311973
56	0x3f93c464	1.1544309
57	0x3e8d4c66	0.2759735
58	0x3e808d0e	0.25107616
59	0x3efe95f8	0.49723792
60	0x3eb1afe1	0.34704497
61	0x3f2041bb	0.62600297
62	0x3eb78e68	0.35850835
63	0x3e9ee301	0.31032565

layer3.0.weight f4 [64, 64, 3, 3]
0	0xbd1af6f7	-0.03783318
1	0x3cfece83	0.031104332
2	0xbce59b81	-0.028028252
3	0x3c6ca1c2	0.014442863
4	0x3cca2c7d	0.024679417
5	0x3ca13ac3	0.01968134
6	0xbd0e5c04	-0.03475572
7	0xbbcf4e39	-0.0063264635
8	0x3c2625a4	0.01014081
9	0x3b9ac36b	0.0047230027
10	0xbc630457	-0.013856015
11	0x3cd1889f	0.025577841
12	0xbc929225	-0.017891953
13	0xbd4b34c4	-0.049610868
14	0x3bbd69ad	0.00578042
15	0x3cc27ef6	0.02374218
16	0xbcddff11	-0.027099164
17	0x3cf730cc	0.030174635
18	0x3d45cf04	0.04829313
19	0xbc72c96b	-0.01481853
20	0xbd12b53e	-0.035817377
21	0x3d529dee	0.051420145
22	0xbd12c91a	-0.035836317
23	0x3c92142a	0.01783188
24	0x3d233cc7	0.039852884
25	0xbc5a97db	-0.013341869
26	0xbc23773f	-0.009977161
27	0xbc914f61	-0.017738046
28	0x3c5d7330	0.013516232
29	0x3d154318	0.03644094
30	0x3b906642	0.0044067213
31	0x3babf1b3	0.0052473187
32	0xbce9f836	-0.028560739
33	0x3c374296	0.011185309
34	0xbd2d9c83	-0.04238559
35	0xbd47e086	-0.048798107
36	0x3c297e45	0.010345046
37	0x3d05b123	0.032639634
38	0x3d78df24	0.06075968
39	0x3d48ec3c	0.049053416
40	0x3d0063a4	0.031345025
41	0x3d1b3cc3	0.037899744
42	0x3ce60c82	0.028082136
43	0x3d6ed337	0.0583069
44	0x3b8cc52d	0.004295966
45	0x3ce169ff	0.027516363
46	0x3babb1dc	0.0052397083
47	0xbce1f7b3	-0.027583933
48	0x3cbe0fa0	0.02320081
49	0x3d2e1d6b	0.042508524
50	0xbb9d6772	-0.0048035914
51	0x3cac52ed	0.021035636
52	0xbc55207f	-0.013008236
53	0x3cb24b5b	0.021764448
54	0xbc27d92b	-0.010244648
55	0x3b5a553f	0.003331497
56	0xbcb49731	-0.02204475
57	0xbc1909a3	-0.0093406765
58	0x3d4c0692	0.049810953
59	0xbccfeea6	-0.025382351
60	0x3c68de24	0.014213119
61	0xbb5b2cd3	-0.0033443465
62	0x3cc1ccb1	0.023657175
63	0x3c941a7a	0.018079031
64	0x3d22a020	0.03970349
65	0xbaefbec0	-0.0018291101
66	0x3c1ce154	0.009575207
67	0xbc913cea	-0.017729241
68	0xbca5c6d4	-0.02023641
69	0xbc00eef8	-0.007869475
70	0x3cada64f	0.021197466
71	0xbbd10cb8	-0.00637969
72	0x3cad4a42	0.021153573
73	0xbc67af1b	-0.0141408695
74	0x3cdfbab7	0.027310712
75	0x3b805ba8	0.0039171763
76	0x3cf16e5e	0.029471572
77	0xbc2707df	-0.010194748
78	0x3cc75790	0.024333745
79	0xbc991fb7	-0.01869188
80	0xbb2e5ffc	-0.0026607504
81	0x3d1da8e6	0.038491152
82	0xbc100b0f	-0.008791699
83	0xbc4634dd	-0.0120975645
84	0x3d4294cf	0.047505196
85	0xbb8a3cbb	-0.0042186654
86	0xbd38dcb8	-0.04513237
87	0xbc9a022d	-0.018799866
88	0xbcfb03af	-0.030641405
89	0xbd283f49	-0.04107598
90	0xbd11dd0a	-0.03561119
91	0xbd0f3d7f	-0.034970757
92	0xbc59c635	-0.013291885
93	0xbd1cb888	-0.03826192
94	0x3cdffd76	0.02734254
95	0x3b6a493c	0.0035749217
96	0x3d0ad91a	0.03389845
97	0xbd226caa	-0.03965441
98	0xbcf765e0	-0.030199945
99	0x3b767da9	0.003761152
100	0xbcf54f08	-0.029944912
101	0x3cff7a0f	0.031186132
102	0xbc9e9fdf	-0.019363342
103	0xbd0941d0	-0.03351003
104	0xbd3b0be0	-0.04566562
105	0xbca4e5bb	-0.020129075
106	0xbd4a036d	-0.049319673
107	0xbd13a9e2	-0.036050685
108	0xbd4c5f98	-0.049895853
109	0xbc44b898	-0.012006901
110	0xbc87d4dd	-0.016580993
111	0xbd6251c5	-0.055253763
112	0x3a035954	0.00050105643
113	0x3b1b4a14	0.0023695277
114	0xbd5c8e3d	-0.053846586
115	0xbc797a2d	-0.015226883
116	0xbd2970f4	-0.041367486
117	0xbd5e5139	-0.05427668
118	0xbd0de17c	-0.034638867
119	0x3c2a5418	0.010396026
120	0xbd0edb38	-0.034877032
121	0xbcf28d20	-0.02960831
122	0xbc855cfa	-0.016279686
123	0xbd4ff6cd	-0.050772477
124	0xbd09f079	-0.0336766
125	0xbd43d59c	-0.047811136
126	0x3cdb66eb	0.026782474
127	0xbcf8fd45	-0.030394206
128	0xbcf6549c	-0.030069642
129	0x3d2f40e9	0.042786513
130	0x3c0a1331	0.008427427
131	0xbce6edfe	-0.028189655
132	0xbbdd01ac	-0.006744584
133	0x3d6b75c4	0.057485357
134	0x3cb3e3db	0.021959236
135	0xba9c0239	-0.0011902518
136	0x3b767203	0.0037604577
137	0xbba755b0	-0.0051066503
138	0x3cdc81c4	0.026917346
139	0xbd5e7bd0	-0.054317296
140	0xbd6922a5	-0.056917805
141	0x3c90a6a2	0.017657582
142	0x3af3b7e1	0.0018594229
143	0xbce64d55	-0.028113047
144	0x3ca71d71	0.020399781
145	0x3d0788ca	0.033089437
146	0xbcfd3386	-0.030908357
147	0x3c351096	0.011051318
148	0xbcb66143	-0.022263175
149	0x3d2f9869	0.04286996
150	0x3cb5201d	0.02211004
151	0xbd03b4c3	-0.03215481
152	0xbb36fe86	-0.0027922704
153	0xbc9bc9ea	-0.019017179
154	0xbd01b301	-0.031664852
155	0x3c00dd98	0.007865332
156	0x3bdcd08d	0.0067387284
157	0x3d15c3e2	0.03656376
158	0xbccf4250	-0.025300175
159	0xbb9d440a	-0.0047993707
160	0xbce602af	-0.028077452
161	0x3a0b9bcc	0.0005325645
162	0xbd0e4c02	-0.034740455
163	0x3d175c05	0.03695299
164	0xbcd1a23a	-0.025590051
165	0x3d30d01f	0.04316723
166	0x3d1dc4a0	0.038517594
167	0xbd5039fb	-0.050836544
168	0x3cd5d0b8	0.026100501
169	0x3c9593e9	0.018259006
170	0xbca70392	-0.020387445
171	0xbcbe67f6	-0.023242932
172	0xbc0574b1	-0.008145497
173	0xbc56ca50	-0.0131097585
174	0x3c7748a6	0.015093004
175	0xb88c2a35	-6.683582e-05
176	0x3cd3b807	0.025844587
177	0x3d3261a7	0.04355016
178	0x3d582d6d	0.052777696
179	0xbcd05bec	-0.025434457
180	0x3d04a63c	0.032385096
181	0xbc4ef401	-0.012631417
182	0x3c7dd192	0.01549186
183	0x3d083e8c	0.033262774
184	0xbd01af71	-0.031661455
185	0x3d1a0b42	0.037608393
186	0xbc75c3da	-0.015000308
187	0xbd098668	-0.033575445
188	0x3d2d9281	0.042376045
189	0x3c138643	0.009004178
190	0x3b8363bb	0.0040096915
191	0x3c6221ae	0.013801975
192	0x3d461f0d	0.048369456
193	0x3bf6b1c4	0.0075285155
194	0xbb18143d	-0.0023205422
195	0xbd02a30e	-0.031893782
196	0x3c63dcaf	0.013907596
197	0xbd1dc45b	-0.038517337
198	0x3d075918	0.03304395
199	0xbb8076f3	-0.00392043
200	0x3cbf055f	0.02331799
201	0x3ca74d42	0.020422582
202	0x3c8a301a	0.01686864
203	0x3cd35043	0.025795108
204	0xbca34918	-0.019932315
205	0xb98958aa	-0.00026196736
206	0xbd3d596e	-0.046227865
207	0x3c843966	0.016140651
208	0xbce4548d	-0.027872348
209	0xbced3691	-0.028956683
210	0x3c41e043	0.011833253
211	0xbd4a5174	-0.049394086
212	0x3c16c5dd	0.009202448
213	0xbc2a4460	-0.010392278
214	0xbc421128	-0.011844911
215	0x3bb2d76c	0.005457809
216	0x3c404f57	0.011737666
217	0x3c173a62	0.009230228
218	0x3cb244a4	0.021761246
219	0xba825372	-0.0009943082
220	0xbbf29d6d	-0.0074040205
221	0x3ced519d	0.02896958
222	0xbc6ff189	-0.014644989
223	0xbcd3b25f	-0.02584189
224	0xbd36731f	-0.04454338
225	0xbb9e3167	-0.0048276666
226	0xbb2182a6	-0.0024644523
227	0xbd1a4d95	-0.037671644
228	0xbcc9f7ef	-0.024654357
229	0xbbe07e3d	-0.0068509863
230	0xb9e236d7	-0.00043146938
231	0xba99526b	-0.0011697536
232	0x3c73527b	0.014851208
233	0xbcfcf175	-0.030876854
234	0x3c7641b6	0.015030315
235	0x3cc7c16c	0.024384223
236	0xbd14dc27	-0.036342766
237	0x3cb6e456	0.022325676
238	0xbd171dfe	-0.036893837
239	0xbbcbdde4	-0.00622152
240	0xbcfb57bf	-0.030681489
241	0x3c0daa8c	0.008646619
242	0xbcef16d1	-0.029185684
243	0xbca197a6	-0.019725632
244	0x3cfd9713	0.030955827
245	0xbcd28efe	-0.02570295
246	0xbcf444c5	-0.029817948
247	0xbc320fb0	-0.010867998
248	0x3ce5a034	0.028030492
249	0xb9eec920	-0.00045544747
250	0x3c2c88ac	0.010530632
251	0x3cfcda66	0.03086586
252	0x3c743800	0.01490593
253	0xbd4f2fe6	-0.05058279
254	0xbcd66fd9	-0.02617638
255	0xbc256d42	-0.01009685

layer3.0.bias f4 [64]
0	0x3d1fd488	0.039021045
1	0x3c7c0974	0.015383113
2	0xbc49e5a1	-0.012322814
3	0xbc2c0c86	-0.010501033
4	0xbd0c385c	-0.034233436
5	0xbd139fcf	-0.036041077
6	0xbcdc48aa	-0.026890118
7	0x3b0e6da1	0.0021732824
8	0x3c50afee	0.012737257
9	0xbca45ea6	-0.020064663
10	0x3adf073f	0.0017015709
11	0xbc309832	-0.010778474
12	0xbcda12f2	-0.026620362
13	0x3d13803e	0.036010973
14	0x3c289f71	0.01029192
15	0x3d0e69ea	0.034768976
16	0x3c2251b2	0.009907173
17	0xbc0ad4da	-0.008473599
18	0xbc66fba4	-0.014098082
19	0xbcf7f4ec	-0.030268155
20	0x3c9f917a	0.019478548
21	0x3d28c8bd	0.041207064
22	0xbcff50b6	-0.031166416
23	0xbc85bce3	-0.01632542
24	0x3cd44b17	0.025914712
25	0x3d22ca40	0.039743662
26	0x3ab43702	0.0013749304
27	0xb98bc006	-0.00026655215
28	0xbcaa92ae	-0.020821895
29	0xbd108ebd	-0.035292376
30	0x3a6ed54f	0.0009110765
31	0xbca41467	-0.02002926
32	0x3c1b6958	0.009485565
33	0x3c6bbcab	0.014388244
34	0xbbd2b622	-0.0064304033
35	0x3c3ef804	0.011655811
36	0xbd28c195	-0.04120024
37	0xbb415661	-0.0029500949
38	0x3c38ae59	0.0112720365
39	0x3cb60049	0.022216933
40	0x3d0eff42	0.0349114
41	0x3bec11b1	0.0072042574
42	0x3c868e65	0.01642532
43	0xbcbf404a	-0.023346085
44	0x3d1e8d04	0.0387087
45	0x3ce24065	0.027618596
46	0x3d00ea58	0.031473488
47	0xbd07839c	-0.033084497
48	0xbb5ca524	-0.0033667767
49	0x3ccdfa64	0.02514381
50	0xbb71e089	-0.0036907515
51	0x3d23350e	0.03984552
52	0xbca2f805	-0.019893656
53	0x3c4ed97e	0.012625096
54	0x3d20e5ac	0.039281532
55	0x3bb12fd1	0.0054073115
56	0x3c758e97	0.014987609
57	0xbd12c9b5	-0.035836894
58	0x3b2943d1	0.0025827775
59	0x3d19e543	0.037572157
60	0x3c8e5716	0.01737551
61	0x3d0bec9b	0.03416119
62	0x3cc12d9f	0.023581324
63	0xbc6bedb3	-0.014399934

layer3.1.weight f4 [64]
0	0x3f789b94	0.97112393
1	0x3f853a6b	1.0408453
2	0x3f7ea62f	0.99472326
3	0x3f7ecb86	0.995293
4	0x3f81fbce	1.015497
5	0x3f8298de	1.0202901
6	0x3f78019a	0.96877444
7	0x3f81c01c	1.0136752
8	0x3f84e40d	1.0382096
9	0x3f78084c	0.9688766
10	0x3f7b15f4	0.9808037
11	0x3f7bcae4	0.9835646
12	0x3f7ed7d8	0.995481
13	0x3f7b6c1d	0.9821184
14	0x3f7c569d	0.9856966
15	0x3f7dc79c	0.99132705
16	0x3f82f4a6	1.0230911
17	0x3f753b98	0.9579406
18	0x3f869456	1.0514019
19	0x3f83ed44	1.0306783
20	0x3f7dc384	0.9912646
21	0x3f80753e	1.003578
22	0x3f737df6	0.95114076
23	0x3f75bdcb	0.95992726
24	0x3f75627a	0.9585339
25	0x3f79202b	0.9731471
26	0x3f80ecdc	1.0072284
27	0x3f829b80	1.0203705
28	0x3f8181f9	1.011779
29	0x3f84a36a	1.036237
30	0x3f79eed9	0.9763008
31	0x3f801df7	1.0009145
32	0x3f7c1d41	0.9848214
33	0x3f806c6e	1.003309
34	0x3f7f2c0c	0.99676585
35	0x3f759528	0.9593072
36	0x3f848359	1.0352584
37	0x3f82ef30	1.0229244
38	0x3f7eba08	0.9950261
39	0x3f7df7e9	0.99206406
40	0x3f7cbf6c	0.98729587
41	0x3f801377	1.000594
42	0x3f740e6e	0.9533452
43	0x3f7c49d3	0.98550147
44	0x3f8041e8	1.0020113
45	0x3f809d9d	1.00481
46	0x3f834660	1.0255852
47	0x3f76f49c	0.96466994
48	0x3f72298a	0.94594634
49	0x3f7715b7	0.9651751
50	0x3f820dc7	1.0160455
51	0x3f802e45	1.001412
52	0x3f82e31f	1.0225562
53	0x3f7c1fd7	0.98486084
54	0x3f795451	0.9739428
55	0x3f82e318	1.0225554
56	0x3f80ecfa	1.007232
57	0x3f881951	1.0632726
58	0x3f7940cf	0.97364515
59	0x3f811d89	1.0087138
60	0x3f80154b	1.0006498
61	0x3f831328	1.0240221
62	0x3f7d7c7a	0.9901806
63	0x3f82412c	1.0176139

layer3.1.bias f4 [64]
0	0xbd0f1e61	-0.03494108
1	0xbd96a28b	-0.07355221
2	0xbc1c1d42	-0.00952846
3	0xbcef6fb7	-0.029228074
4	0xbd9cc3fb	-0.07654568
5	0xbd2fdd0f	-0.042935427
6	0xbc177b0f	-0.009245648
7	0xbd04a742	-0.032386072
8	0xbd4cbcba	-0.04998467
9	0xbc0fd0b5	-0.008777787
10	0xbd445eb1	-0.047941867
11	0xbd374e7a	-0.044752575
12	0xbd57fdb9	-0.052732203
13	0x3c6bf702	0.014402153
14	0x3abfe099	0.0014639079
15	0xbc5cc724	-0.013475213
16	0xbd8f1198	-0.069857776
17	0xbd88be34	-0.06676903
18	0xbdb29af2	-0.0872096
19	0xbd77b652	-0.06047661
20	0xbd34e5d7	-0.044164505
21	0xbd189959	-0.03725562
22	0xbcc64f4d	-0.024207735
23	0xbcc4a38f	-0.024003772
24	0xbc4142b3	-0.0117956875
25	0xbd6e21a5	-0.058137555
26	0xbd1c3a1e	-0.038141362
27	0xbda06873	-0.07832422
28	0xbda1c7e0	-0.07899451
29	0xbd476931	-0.048684303
30	0xbd269773	-0.040671777
31	0xbd593797	-0.05303153
32	0xbcfb8d7a	-0.03070711
33	0xbdb16254	-0.08661333
34	0xbd1816f2	-0.037131257
35	0xbcdcd614	-0.02695755
36	0xbd943a74	-0.072377115
37	0xbd8afa5a	-0.06786032
38	0xbd7a411b	-0.061097246
39	0xbc9ef3a1	-0.01940328
40	0xbd2aff44	-0.041747347
41	0xbc39ef06	-0.011348492
42	0xbc7537fa	-0.014966959
43	0xbd4d59df	-0.050134536
44	0xbc09b321	-0.008404524
45	0xbd372ba2	-0.044719346
46	0xbdb316d2	-0.08744587
47	0xbc0f20b8	-0.008735828
48	0xbc877260	-0.01653403
49	0xbd7fbf82	-0.062438495
50	0xbcdc4e93	-0.026892936
51	0xbd3805ff	-0.044927593
52	0xbd4f0fb3	-0.05055208
53	0xbccb8ad6	-0.024846476
54	0xbd0c0a37	-0.03418943
55	0xbd75191e	-0.059838407
56	0xbd8db08a	-0.06918438
57	0xbd8df11d	-0.06930754
58	0xbcbead8e	-0.023276117
59	0xbd3bbe55	-0.04583581
60	0xbc6bc9c0	-0.014391363
61	0xbd080ee5	-0.03321733
62	0xbb94946a	-0.004534294
63	0xbcd1997e	-0.025585886

layer3.1.running_mean f4 [64]
0	0xbed19435	-0.40933385
1	0xbf4069cb	-0.7516143
2	0xbf3fb9a4	-0.7489264
3	0xbf00c5a1	-0.5030156
4	0xbedfb8d3	-0.43695697
5	0xbf76c39f	-0.96392244
6	0xbf1551a5	-0.58327705
7	0xbee85c81	-0.45383075
8	0xbf402178	-0.7505107
9	0xbf2dec0a	-0.6793829
10	0xbf2e07b5	-0.6798051
11	0xbf56582a	-0.8372828
12	0xbef747b7	-0.48296902
13	0xbed116de	-0.4083776
14	0xbf3718ad	-0.7152203
15	0xbf53f7cb	-0.8279998
16	0xbf361cea	-0.7113787
17	0xbf217343	-0.630665
18	0xbf69f13a	-0.9138371
19	0xbf1d636c	-0.6147983
20	0xbf829ba9	-1.0203754
21	0xbebcec9c	-0.3689927
22	0xbf45e3b4	-0.7730057
23	0xbee49699	-0.44646147
24	0xbe50a3f1	-0.20375039
25	0xbee06663	-0.43828115
26	0xbf522cbb	-0.82099503
27	0xbef6e2df	-0.48219964
28	0xbf1cc6cf	-0.6124086
29	0xbe9502c9	-0.29103687
30	0xbee57954	-0.4481913
31	0xbf2fba15	-0.68643314
32	0xbf4f6a86	-0.81021917
33	0x3dacf1f2	0.08444585
34	0xbf3ebe46	-0.74509084
35	0xbf680806	-0.9063724
36	0xbf348f95	-0.7053159
37	0xbf88e55c	-1.0694995
38	0xbf36698f	-0.7125482
39	0xbf0b475b	-0.54405755
40	0xbe3a244e	-0.18177912
41	0xbf1d4c9d	-0.6144503
42	0xbf4a8377	-0.7910685
43	0xbf125d65	-0.5717376
44	0xbf0c891e	-0.54896724
45	0xbea36b84	-0.31917965
46	0xbf45b8bf	-0.77235025
47	0xbec14b99	-0.3775299
48	0xbef26d2c	-0.47348917
49	0xbf0ea874	-0.5572579
50	0xbf2f83cd	-0.6856049
51	0xbf2e5f94	-0.6811459
52	0xbf3c43cd	-0.73540956
53	0xbf596d4e	-0.8493241
54	0xbf35983d	-0.7093542
55	0xbe8dfce3	-0.27732
56	0xbf288385	-0.6582568
57	0xbf3cf9ad	-0.73818475
58	0xbf7b665a	-0.9820305
59	0xbf1c4470	-0.6104193
60	0xbf2863fa	-0.6577755
61	0xbf8029f6	-1.0012805
62	0xbf14ff6f	-0.5820226
63	0xbf767952	-0.9627887

layer3.1.running_var f4 [64]
0	0x3edf15fa	0.43571454
1	0x3e54b3a7	0.20771657
2	0x3e8135e9	0.25236443
3	0x3ea507fd	0.32232657
4	0x3e641d30	0.22276759
5	0x3e8aac2b	0.2708448
6	0x3f0618a5	0.52381355
7	0x3e778cd7	0.2417482
8	0x3eb895d5	0.36051813
9	0x3ef617e0	0.4806509
10	0x3e44d870	0.1922319
11	0x3eaa0e27	0.33213922
12	0x3e7a60eb	0.24451034
13	0x3ea69870	0.32538176
14	0x3ea6caad	0.32576504
15	0x3e96ba04	0.29438794
16	0x3e7afac0	0.24509716
17	0x3ebfa86b	0.3743318
18	0x3e852c04	0.26010144
19	0x3e53c828	0.20681822
20	0x3e7974eb	0.24361007
21	0x3e98748d	0.2977642
22	0x3ee64b90	0.44979525
23	0x3e5e8231	0.21729352
24	0x3e8e12fe	0.27748865
25	0x3ecb2164	0.39673913
26	0x3e704543	0.23463921
27	0x3e5ef8d5	0.2177461
28	0x3e731c7a	0.23741332
29	0x3e4a16a7	0.19735204
30	0x3f0970d0	0.53687763
31	0x3e6a6ef9	0.22893895
32	0x3eb8920f	0.36048934
33	0x3e809c55	0.25119272
34	0x3e7bbd2e	0.24583885
35	0x3ec3af8b	0.38219866
36	0x3e548441	0.20753576
37	0x3e701133	0.23444061
38	0x3e44967e	0.19198033
39	0x3e8c0d70	0.27354002
40	0x3e661229	0.22467865
41	0x3e93f4ab	0.28897604
42	0x3f3c6c93	0.7360317
43	0x3ea8c9df	0.32966515
44	0x3eebf2ad	0.46083584
45	0x3e8a6093	0.27026805
46	0x3e5a508d	0.2131979
47	0x3ebca1a6	0.36842078
48	0x3ec378df	0.38178155
49	0x3f0e5cec	0.5561054
50	0x3e9e19e6	0.30879134
51	0x3e61f938	0.22067726
52	0x3e99ac65	0.3001434
53	0x3e80c1a4	0.25147736
54	0x3e889478	0.26675773
55	0x3e604185	0.21899994
56	0x3e71078d	0.23538037
57	0x3e5a7409	0.21333326
58	0x3eb4e02b	0.35327277
59	0x3ea0d932	0.31415707
60	0x3eac8432	0.33694607
61	0x3e853fa6	0.26025122
62	0x3f0f525c	0.55985045
63	0x3e5099ad	0.20371123
