FAST 3D-CNN P-NET/model/ZGFF/ZGFF_proto_2d-5shot2.pth (torch, 491287 bytes, 24 tensors)

layer1.0.weight f4 [64, 15, 3, 3]
00000000: 213b 71bc af9e 153d 753a 083d 2f90 91bd
00000010: d408 3f3d eb38 913d 8578 b3bc fdc9 c9bd
00000020: 6ac5 c6bd 4e4f 59bd 47fd 07bc 3794 e9bb
00000030: ed9b c63c 793d f93c 95d5 0bbd 2e46 54bd
00000040: 8d6f 9d3d 0f86 1b3c 5515 97bd 3fc3 48bd
00000050: 35a1 883d d927 74bd 5560 993a cd86 633d
00000060: eca4 26bd 14be 093d 778e 903d f0a7 87bd
00000070: 6512 803c b108 d0bc fe92 853d 02ca da3c
00000080: d4b1 4a3d c7e2 5e3d 2982 9b3d b7d7 ffbc
00000090: 010f 873b 58a0 653c 88ce 9cbd dc74 3fbd
000000a0: 11f0 073d 8bf9 6a3d c864 11bc d393 2b3d
000000b0: 8413 88bd 18d3 33bd a471 643d eb12 afbd
000000c0: 1788 363c 585f e03c 7ec5 8d3d 1fe2 5b3c
000000d0: 04ea f93c fa3b 933d 36a6 923d d172 e23c
000000e0: 90be a03d a6ed ba3b b6c4 9abd 735f a6bc
000000f0: 8d7d d93d d63d f63c c63e 98bc 3d5e 2bbd
00000100: 7efb 0e3d 72be 46bd d7d2 e73c 1a4b 13bd
00000110: 21c5 30ba af06 21bd 5bc6 723d 5a2e 3a3c
00000120: 6e4d 993d 3893 623d dd88 67bd 2dfb 163c
00000130: a478 253d ffaf abbd 6a0b 833d 1b36 b6bd
00000140: d302 6e3d 7715 fe3c ab96 86bd a43d 5bbd
00000150: b901 85bd fef4 6c3c 0fff 863d 9658 bb3d
00000160: 1cbb 8a3d ab28 863d b19a d03c 5dbb 58bd
00000170: 712e 663c c5e4 303c df2d 1fbd 9cec a53c
00000180: 12c6 7bbc 68f0 233d 2b88 913d d2b5 f7bb
00000190: 77a2 65bd 111a 8bbd bab2 36bd 68db c5bd
000001a0: ea27 c23a e542 e1bb ceb3 373b eb66 dcbd
000001b0: cacb 193d 4fb6 8b3d 34fb c13d 73f3 24bd
000001c0: e77e 983d ab76 b53c 985f c53c fa9b a33d
000001d0: 3584 803d 494a 89bd 5e15 62bc d1d1 76bd
000001e0: 26a1 47bc dda8 77bc 7f86 a2bd fcd1 72bd
000001f0: 7595 b8bc 031c f0bc c3c2 e93b da60 a9bd
00000200: efb3 183d 20bb 703d 7e87 cbbd 3eca fbbc
00000210: 7410 da3c f1e1 0c3d d6fd e8bc 261a 2cbc
00000220: 5764 4bbd 47e6 4d3c ab61 d4bd 67fd 243d
00000230: 7bcc 94bc 91fd 973d 3806 85bd de68 12bc
00000240: 3eeb 9ebd c122 1f3d c197 86bd 10db d0bd
00000250: 8184 843c 11d9 cd3b f9f6 3f3c b9db 63bd
00000260: 7834 60bd f107 6d3c df86 ce3c 131e e33b
00000270: 9755 613d 2510 fcbc 558a 153d d8e1 803c
00000280: 2c86 2abd d5ad 533d 3fbc 7dbc 481c 753c
00000290: b54d a9bd b791 50bd ffc4 c33b 1909 3c3d
000002a0: 3dcd 7c3d 2595 53bd 5944 4d3d a50e 7bbb
000002b0: 8ab3 d13b 5607 96bd 6b90 ce3c 5dc0 7c3d
000002c0: 12aa 263d 87c5 ccbc ad41 afbd 0d29 51bd
000002d0: e24c c43d 9448 92bc 3225 f53a edf5 7b3d
000002e0: 62ca 7abd f7c1 903d 5c88 9a3d ea5d 4e3b
000002f0: ca5d 153d 8169 bbbc 1bfd 343d 6e08 9c3c
00000300: 0da2 cfbd 27a0 013a d5b7 763d 3536 b7bb
00000310: ae28 18bd fecd 97bc e7e8 88bd 07ee b7bd
00000320: b180 f03c b398 853b 598c 28bd e1bc 553d
00000330: 4f81 d7bd d9c2 bfbd b755 2f3d 3efb ba3c
00000340: c09a f53c 2b3a 923c 064f 593d c47f 4cbd
00000350: 174c 6b3d bac7 db3d 00d7 91bb f2aa 9fbc
00000360: 489b 48bd cdce 71bd 3dd4 923a 73e2 183d
00000370: 5856 8f3c baa5 1f3d b257 29bc 0f91 12bd
00000380: cd83 d5bb 7a5b 333d 0a78 353c b32a 173d
00000390: 3482 02bd 3a4a 87bd ad96 43bd 74a1 9d3d
000003a0: c4d3 8e3d 70bc 26bd 79b1 c3bb cd51 89ba
000003b0: b2dc 33bd 41de 2bbd 177a d33c ada8 b3bd
000003c0: d840 0c3d 1ac8 8d3d 61b8 453d 54c0 603d
000003d0: 0082 87bd 3dd8 04bc e1fe 7bbd 8f8c 1d3d
000003e0: 5e4f 64bd 6623 05bc bb24 e23c a0df 20bc
000003f0: c456 cc3b 141c aabc e40a 73bd fce2 c9bd
-0.01472357 0.036528286 0.033258874 -0.07107579 0.04663928 0.07090934 -0.021908054 -0.09852979
-0.097056225 -0.053054146 -0.008300132 -0.0071282643 0.024244273 0.03042482 -0.034139235 -0.05182474
0.07687292 0.009492411 -0.07377116 -0.049014326 0.06671373 -0.059608314 0.0011701683 0.055548478
-0.040684626 0.03362854 0.07058423 -0.066238284 0.015633771 -0.02539477 0.06522177 0.026707653
0.049485996 0.05441549 0.075931855 -0.03123079 0.0041216617 0.01401528 -0.0765658 -0.046742305
0.03318793 0.05736689 -0.008874126 0.041889023 -0.06644347 -0.043902487 0.05577244 -0.0854853
0.011140845 0.027389213 0.06922434 0.013420611 0.030507095 0.07189174 0.071606085 0.02764264
0.07848847 0.0057045994 -0.07557051 -0.020309186 0.1061965 0.030058783 -0.01858462 -0.04183792
0.03490781 -0.048521467 0.028298778 -0.035960294 -0.00067432417 -0.039313015 0.059271198 0.01136359
0.07485472 0.05531618 -0.056527007 0.009215158 0.040398255 -0.08383178 0.063986614 -0.088970385
0.058108162 0.031016095 -0.065717064 -0.053525582 -0.06494469 0.014462708 0.06591617 0.09147756
0.067739695 0.065507255 0.025464388 -0.05291306 0.014049158 0.01079673 -0.038862105 0.020254426
-0.015367048 0.04002419 0.0710605 -0.0075595165 -0.05606314 -0.06792081 -0.04460404 -0.09660989
0.0014812921 -0.0068744295 0.0028030756 -0.107618175 0.037547864 0.06821882 0.09471741 -0.040271234
0.0744608 0.022151312 0.024093434 0.079887345 0.062752165 -0.06703622 -0.01379904 -0.06025869
-0.012184417 -0.015115944 -0.07935809 -0.059282288 -0.022532204 -0.029310232 0.007133813 -0.08270426
0.037280973 0.058772206 -0.099379525 -0.030736085 0.026619174 0.034395162 -0.02844135 -0.010504281
-0.04965624 0.012567109 -0.10370191 0.040280726 -0.01816391 0.07421411 -0.06495327 -0.008936135
-0.07759713 0.038851503 -0.065719135 -0.10198033 0.016176464 0.00628198 0.011716598 -0.055629466
-0.054737538 0.014467225 0.025210796 0.0069310754 0.055013265 -0.030769417 0.036508877 0.01573269
-0.041631863 0.05167945 -0.015486776 0.014960356 -0.082667746 -0.050920215 0.0059744115 0.045907114
0.061719168 -0.051655907 0.05011401 -0.003830829 0.0063995766 -0.07325618 0.025215348 0.06170689
0.040689535 -0.024996532 -0.085574485 -0.05106454 0.09584977 -0.017856874 0.0018703102 0.06151383
-0.061228164 0.07068246 0.0754554 0.0031489083 0.036466397 -0.022877457 0.044186693 0.019046988
-0.101383306 0.0004944824 0.06023391 -0.005591179 -0.03714817 -0.018530842 -0.066850476 -0.08980947
0.02935824 0.004077041 -0.04114947 0.052182082 -0.105227105 -0.09363336 0.042806353 0.02282488
0.029981017 0.017850002 0.05305388 -0.049926534 0.05744561 0.10731454 -0.004450679 -0.019490693
-0.048976213 -0.05903511 0.0011202168 0.037325334 0.017497227 0.03897641 -0.01033585 -0.03578287
-0.006515956 0.04378841 0.011075983 0.036905956 -0.031862453 -0.066059545 -0.047751117 0.0769681
0.06973985 -0.04070705 -0.005972084 -0.0010476649 -0.043911643 -0.041960005 0.025815053 -0.08772407
0.034241527 0.06922932 0.04827154 0.05487092 -0.066165924 -0.008108196 -0.06152237 0.038464125
-0.055739753 -0.008126115 0.027605405 -0.009818941 0.006235929 -0.020765342 -0.059336558 -0.09857747

layer1.0.bias f4 [64]
00000000: 633f 403f ca4c 3d3f c503 5b3f 0f3c 153f
00000010: 7d15 613f bfe2 693f 3350 563f 0267 543f
00000020: dbfa 6b3f e1dd 563f 38e3 3e3f d1b8 6e3f
00000030: 51fb 3e3f a84d 503f 4440 653f 1686 5e3f
00000040: 9e9e 423f d215 4d3f d05f 4d3f f167 5e3f
00000050: 909b 603f 553a 623f 49a2 363f 2403 593f
00000060: 30a6 4d3f 99e8 4a3f 877a 583f 3be6 5a3f
00000070: 1bd4 513f ebee 493f 1dac 563f 5cb4 583f
00000080: 2c87 4b3f 064f 3b3f 063c 4b3f e967 4d3f
00000090: 55ff 603f 26fe 463f 1d60 643f 9a2a 113f
000000a0: 5c6c 573f 44a4 4c3f 02b3 2e3f fe44 6e3f
000000b0: f005 363f a95a 443f 9109 333f 1f4c 6c3f
000000c0: 3240 453f d255 5e3f 78de 4a3f f412 443f
000000d0: 1383 6a3f 1eb2 4f3f c885 183f f0f5 4d3f
000000e0: b393 343f 25ad 4f3f c483 513f 2976 333f
000000f0: 3083 5d3f f5fd 413f e351 253f 5d8b 483f
0.7509672 0.73945296 0.85552627 0.5829477 0.87923414 0.9136161 0.83716124 0.8296968
0.9217965 0.8393231 0.7456546 0.9325076 0.7460223 0.81368494 0.89551187 0.8692335
0.7602328 0.8011142 0.80224323 0.8687735 0.8773737 0.8837026 0.7134138 0.8477042
0.80331707 0.79261166 0.8456196 0.85507554 0.8196427 0.78880185 0.83856374 0.84650207
0.7950313 0.73167455 0.79388463 0.8023668 0.87889606 0.7773155 0.8920916 0.5670563
0.8414972 0.7993815 0.68241894 0.93074024 0.7110281 0.76700836 0.6993647 0.9230365
0.7705108 0.868497 0.7924571 0.7659142 0.91606253 0.8113116 0.59579134 0.80453396
0.7053787 0.8112357 0.81841683 0.70102173 0.865283 0.7577813 0.64578074 0.7833765

layer1.1.weight f4 [64]
00000000: 6372 7f3f 5348 7f3f 3131 813f 9dd7 7b3f
00000010: 0663 813f 6de5 7e3f b07a 7f3f 20fc 823f
00000020: ccda 783f 0ca9 7c3f 924d 793f 1f0d 833f
00000030: 31eb 783f f871 813f 6b29 803f 0fdd 7c3f
00000040: 531d 803f 99f0 7b3f 977e 793f 87d4 7b3f
00000050: 2e6b 813f 6ed4 823f 9553 813f 2b4a 783f
00000060: 8f6a 793f 8fba 833f 2b69 833f 5a01 823f
00000070: 9859 7e3f 69de 843f 2adc 813f e484 833f
00000080: d3f0 803f 1471 803f a6c9 783f 95d6 813f
00000090: 4dcc 783f edf1 7d3f 7ca6 7c3f 942c 833f
000000a0: c805 7f3f dc6d 833f 5669 813f 9bf1 7c3f
000000b0: dd6b 813f 454a 7e3f 5a2e 7c3f e257 7b3f
000000c0: 8bc4 773f 4b25 813f 6515 813f 53b8 7f3f
000000d0: 35a0 7b3f a3c0 7f3f e802 7f3f f531 823f
000000e0: 3e0d 853f 5055 813f d6db 7e3f 09ff 7c3f
000000f0: dfe5 753f 899f 7d3f f4ab 7f3f 3f44 773f
0.99783915 0.99719733 1.0093137 0.98375875 1.0108345 0.99568826 0.9979658 1.0233192
0.9720886 0.98695445 0.9738399 1.0238379 0.97233874 1.0112906 1.001264 0.9877481
1.0008949 0.98414 0.97458786 0.98371166 1.0110834 1.0221078 1.0103632 0.9698817
0.9742822 1.0291308 1.026647 1.0156662 0.9935546 1.0380374 1.0145314 1.027493
1.0073494 1.0034509 0.9718269 1.014361 0.9718674 0.99197274 0.98691535 1.0247979
0.99618196 1.0267901 1.0110271 0.9880616 1.0111042 0.99332076 0.98508227 0.98180974
0.96784276 1.0089506 1.0084654 0.9989063 0.9829133 0.99903315 0.9961381 1.0171496
1.0394666 1.010416 0.99554193 0.9882665 0.9605388 0.99071556 0.99871755 0.9658851

layer1.1.bias f4 [64]
00000000: f30c 123c 8dde 4dbd bcf1 36bd 3f67 87bd
00000010: a01c 353a bedc 073d 02e1 89bd e9e4 84bd
00000020: 7698 25bc 418a b4bc c07f 09bc bd97 7abd
00000030: 7a6e 9dbd 61a9 153d 46c7 46bc eb12 b63c
00000040: 33aa 8e3b 3596 b7bc ebca 68bb 2549 80bd
00000050: 02c2 5dbc 10a9 dcbc 3507 b8bd c32d 02bd
00000060: f5f2 2ebc fec4 a6bd acac 92bd 5314 d9bc
00000070: 73aa 1dbd a112 49bd a21a 41bd d052 58bd
00000080: 66a0 7aba 2e8a 093b 6726 87bc 746e cd3a
00000090: 3962 85bd 9123 cabc d845 65bb 1465 9bbd
000000a0: a3cf 68bd a78c a9bd 4c4e 9abc f226 bcbc
000000b0: d682 8cbd ab85 e2bc 6b36 edbb eab3 74bd
000000c0: 4e71 c5bc 5cab 96bd d9d4 aebd 3bee 27bd
000000d0: 0130 d43b 6ee1 a6bc d5e7 be3b 1838 6cbd
000000e0: 2887 8dbd 00d2 6bbd a619 adbc f7a2 79bd
000000f0: 8256 c53c 82ad 78bd 74b1 89bd a2c3 923a
0.00891422 -0.05026107 -0.04466413 -0.066114895 0.00069088675 0.0331695 -0.0673237 -0.06488974
-0.01010715 -0.02203858 -0.008392274 -0.061179865 -0.07687087 0.036538485 -0.012132471 0.022225818
0.0043537854 -0.022410491 -0.003552134 -0.06263951 -0.013535025 -0.026936084 -0.0898575 -0.031781923
-0.010678043 -0.08143042 -0.07161841 -0.02649895 -0.03849263 -0.04909003 -0.04714454 -0.05281335
-0.00095606444 0.0020986903 -0.016497804 0.0015673176 -0.06512875 -0.024675163 -0.0034984257 -0.075876385
-0.056838643 -0.082787804 -0.018836163 -0.02296779 -0.068608925 -0.027651628 -0.007239153 -0.059741892
-0.02410188 -0.07356903 -0.08536691 -0.04099868 0.006475449 -0.020371165 0.0058259764 -0.057670683
-0.06910545 -0.05757332 -0.021130394 -0.06094643 0.024089102 -0.060712345 -0.067232996 0.0011197219

layer1.1.running_mean f4 [64]
00000000: 65b8 753f 149b 173f 0829 763f 85dc a53e
00000010: 9ef6 523f 7cae 693f e237 463f ecc4 1d3f
00000020: 4ca0 723f 1d4f 3f3f fa25 793f a685 653f
00000030: 512f 4a3f 38fa 433f 7be7 803f d3c4 6c3f
00000040: 4a7a 383f 042c 3a3f e111 3d3f 4808 3e3f
00000050: ad5b 753f 1770 573f 83e6 9b3e 7050 293f
00000060: ab0e 813f 787b 353f f274 463f e14b 7c3f
00000070: 06e8 5a3f c4a7 003f 5272 303f 1858 2a3f
00000080: bf24 433f ebc5 553f dd2d 613f 9543 3e3f
00000090: 8517 4a3f 7b5e 483f a519 6d3f f72c 1dbe
000000a0: 9db8 5d3f 3ed9 1c3f c46b cc3e ab05 623f
000000b0: 158e ca3e 7097 5b3f 945d 6a3f d232 5d3f
000000c0: aff3 873f d463 4a3f f6e5 243f 21b2 353f
000000d0: 51b4 773f 1468 443f c1a0 6a3f 5326 263f
000000e0: 7aa4 0c3f e10d 473f ecad 4d3f 83cd 003f
000000f0: 1716 6d3f c1d8 343f ff4c 473e 657d 623f
0.9598449 0.59221005 0.9615636 0.32394806 0.8240756 0.9128187 0.7742902 0.61628604
0.94775844 0.7473009 0.9732357 0.89657056 0.7897845 0.7655368 1.0070642 0.9248783
0.720616 0.7272341 0.73855406 0.74231386 0.9584301 0.8415541 0.30449304 0.6613836
1.0082601 0.70891523 0.77522194 0.9855328 0.8551029 0.5025599 0.6892444 0.6654067
0.76227945 0.83505124 0.87960607 0.7432187 0.7894214 0.78269166 0.92617255 -0.15349184
0.8660982 0.61268985 0.3992597 0.882899 0.39561525 0.8577795 0.9154904 0.8640567
1.0621241 0.79058576 0.6441339 0.7097493 0.96759516 0.7672131 0.9165154 0.6490223
0.5493847 0.7775555 0.8034351 0.50313586 0.9261183 0.7064324 0.19462965 0.88472587

layer1.1.running_var f4 [64]
00000000: efc7 9c3f 2368 963f e6df 233f 59c3 4e40
00000010: 9bf0 743e 25f6 c03d ccf0 673f 99d5 a53f
00000020: 5a90 0f3e e426 ae3e fa73 813f cd8e b53d
00000030: 90cc 343f 5d3f 1e3e 1797 6a3e ac5c fb3d
00000040: 2a06 8f3e 442b 583e 5dc4 753e 6791 ba3e
00000050: 895c 633e 577e 1c3e 35b4 6640 f285 313f
00000060: e491 f83e 2624 3b3e 3ec0 de3e fa46 ad3e
00000070: 4f72 b73e 9f23 cf3f 08fb 2b3f 4e98 933f
00000080: 163c 863e 8471 9c3e 0db0 1c3f 5e81 8b3e
00000090: 351b 853e 3a56 e83e 838c 5d3e bd17 3b41
000000a0: 1943 263f ea46 453f 5894 a840 97ba 953e
000000b0: 0683 3c40 1037 173f 1c61 903f 6d24 7e3e
000000c0: 3088 c43f cd89 5b3e ef99 ce3e e563 873e
000000d0: f087 293e 7a20 453e 6e79 7940 ddfc 183f
000000e0: 733d 743f 8ab1 3b3e e93b 213e 6cd4 833f
000000f0: a9fc 103e 7d43 603f 5027 6a40 4a09 af3f
1.2248515 1.175053 0.64013517 3.230673 0.23919909 0.09421948 0.906018 1.295581
0.1401991 0.34014046 1.0113518 0.08865128 0.7062464 0.15453859 0.22909199 0.12273535
0.2793439 0.21110255 0.24000688 0.36439058 0.22203268 0.1528257 3.604749 0.6934501
0.48548806 0.18275508 0.43506044 0.33843213 0.35829398 1.6182746 0.6717992 1.1530855
0.26217717 0.30555356 0.6120613 0.27247137 0.2599732 0.45378286 0.21635632 11.6932955
0.6494613 0.7706133 5.2681084 0.2924392 2.945497 0.59068394 1.1279635 0.24818583
1.5354061 0.21439286 0.40351817 0.264434 0.16555762 0.1925067 3.8980365 0.5976084
0.95406264 0.18329445 0.1574551 1.0299201 0.14158882 0.8760298 3.6586494 1.367471

layer2.0.weight f4 [64, 64, 3, 3]
00000000: 80e6 f13c 5218 9abc a4ca dbbc c557 533c
00000010: 3053 163a b7bc a0bc c592 573d 5742 b63b
00000020: 5bd3 0cbd 6335 86bc fca1 7e3b c9a0 2ebc
00000030: 5906 1a3c 0e2c 86bc 21dc 883c 6284 64bc
00000040: bc2f e0bc ef20 66bd 6276 84bc bbb9 53bd
00000050: 5838 b33a cfa1 cfbc f336 11bc 9882 b4bc
00000060: 587d b63b 27d1 8d3b 00dd 303b 8388 f63c
00000070: 0722 bb3b 0813 babc a35c 47bd 1c3d 3bbd
00000080: 29dd 2ebd ef94 4bbb 84d3 853b 94dd 893a
00000090: 93db 453d 9718 93bc eda9 f03c f551 fc3c
000000a0: 25ff e93b e58e dfbb 8e8f c1bc dfac e0bc
000000b0: 496c f2bc 8e2e 853c e44f c93b 063d 38bc
000000c0: 6639 2dbd 6752 1d3c 6fab 2c3c 020f 1b3d
000000d0: eb2d 95bc 6c5b 2d3d 3050 963c 50fa 4bbd
000000e0: 35bd 21bd 1d02 a13c efc9 a1ba 885e 823c
000000f0: 223e e93c 0ca9 ba3b 5a2c b83c bbdb b0bc
00000100: 7500 96bc 7810 993c 18af 2bbc 6387 523c
00000110: c4be b438 1531 e83c b433 1dbc 825b fc3c
00000120: 87eb 52bb 9e54 943c 5901 a03c d316 92ba
00000130: 3826 f8bb 93c0 c0bc 2f0b 853d fe9e 41bd
00000140: bb3a f43c 6ab4 3ebd 1d06 e9bc 6bd7 ffbc
00000150: a30c 4e3b abf4 1bbc 43c5 693b 3339 ebbc
00000160: 4daa 39bc 70eb 853b 683f 86bb 0a74 f5bc
00000170: fec2 fd3c d5d7 f13c 5aac 24bd 6b81 04bd
00000180: 63f2 ae3b 79c3 07b9 4591 bbbc cfaf 323c
00000190: 8602 51bd f022 b23b 0443 a93a a7ef 4ebd
000001a0: 08a2 3f3c ea29 2abd 8b48 92bd b446 9dbd
000001b0: c90a 00bb 754e 23bd c59e 60bc 98e3 f13c
000001c0: 2315 0d3b 086e d6bc 4281 0a3d 0d78 e6bc
000001d0: 8e31 02bd 09c2 52bc 1cd7 363d 39c8 cbbb
000001e0: e5aa 483c 6eeb 163d a708 493c 1f6d 513d
000001f0: 336a 253d 9861 dfbc b397 49bd 9f50 a4bb
00000200: 97b5 b63b 985a 15bc d455 b4bb 9530 94bb
00000210: d7cf 58bc 6e62 8ebc 87b4 25bc ea88 013c
00000220: a118 263c 46f8 cf3c 86b9 3c3d 38de ee3c
00000230: 5c3f e3bc 4f8c 7b3c 7096 0d3d 80e2 e9bc
00000240: 4686 e83c d039 3cba 298e 893b 8174 fc3c
00000250: 3637 cfbc d125 c43b b0af b93a 1651 3c3c
00000260: b4a0 033d 0c3f c53c e5b0 5ebc 7f71 f03c
00000270: f0d5 3b3d 18fd d5bb 148b e53c 3bdc 98bc
00000280: 4928 c73a f70f 9ebc b90b 89bb b1cb 173d
00000290: ff80 fcbc ae15 e83c 7dc9 9ebc 5f83 043d
000002a0: a7bb 203c 5598 b5bc b9a0 893c 7e53 c4bc
000002b0: e9d5 52bc 4697 d43c 0744 a9bc e358 c2bb
000002c0: 206d 92bb ce5c a9bc 8f2e f5bc 8612 19bd
000002d0: 1590 c33c 3bbb 75bd 0dba 283c 35e3 9ebb
000002e0: 4af4 1ebd 59a0 8ebb 5ae3 7e3d d917 ea3c
000002f0: 54de 583c 3a63 503c e593 4ebc 2179 1e3d
00000300: d0c9 003d 454a 3fbc f3c4 a0bb d912 d03c
00000310: 7f15 0fbd a3c3 2fbd 6260 babc 2681 973c
00000320: ed0c 153c 740b 90bd f907 89bc 77f7 8bbd
00000330: 800e edbb ff48 0bbc c68e 043d d6ec 003d
00000340: e1b0 dbbb 31ca 7f3a 29b0 2c3c 0f96 153c
00000350: 6475 b2bc e1e2 b43c c4a8 1cbc ba9b 3cbd
00000360: a527 f43c e4cf 06bd b333 7dbb 0749 5c3d
00000370: ebd7 873b 7312 86bc 2803 06bc fa4b 99bc
00000380: 4bef 49bd bdfa 523d bdec 21bc f743 73bc
00000390: 5ad9 c3bc a972 e23c 1b6b 283d ae15 053d
000003a0: deb9 a4b9 c8aa 953b fa6d f33c c3a1 863b
000003b0: 985d 243d 5ed2 c5bc 30ab 243c 7ce0 273c
000003c0: b220 a03b 612c e13c 57bf 0b3d add1 1f3c
000003d0: ef50 5abc 7789 29bd d331 763b f192 06bc
000003e0: 7662 f93a 02d3 e93c 2040 59bd f4f5 62bd
000003f0: 6824 a9bc 2e2a 03bd 9e36 95bb 8ec8 593c
0.029528856 -0.018810425 -0.026830025 0.012899344 0.0005734442 -0.019621236 0.052630205 0.0055621075
-0.03438125 -0.016382879 0.0038853874 -0.010658451 0.009400927 -0.016378429 0.016706528 -0.013947578
-0.027366512 -0.05618375 -0.01616973 -0.0516908 0.0013673408 -0.025345711 -0.008863199 -0.022034928
0.0055691414 0.0043279114 0.0026987195 0.03009439 0.0057108435 -0.022714153 -0.04867233 -0.045712575
-0.042691384 -0.0031064113 0.0040840525 0.0010518306 0.048305105 -0.017956061 0.029377902 0.030800799
0.0071410113 -0.0068224543 -0.023628023 -0.027426181 -0.02959265 0.01625755 0.006143557 -0.011245018
-0.042291068 0.009602166 0.01053892 0.03785611 -0.018210372 0.042323515 0.018348783 -0.049799263
-0.039487083 0.019654328 -0.0012343506 0.015914217 0.02847201 0.0056964215 0.022482086 -0.02158915
-0.018310765 0.01868461 -0.010478757 0.0128496615 8.618602e-05 0.028343717 -0.0095948465 0.030805353
-0.0032183842 0.018106755 0.019531893 -0.0011145718 -0.0075729154 -0.023529327 0.06496274 -0.047270767
0.029813161 -0.046558775 -0.028445298 -0.031230649 0.0031440638 -0.009518783 0.0035670556 -0.028713798
-0.011332107 0.004086904 -0.004096914 -0.029962558 0.030976769 0.029521862 -0.04020343 -0.032349985
0.0053389533 -0.00012947423 -0.022896418 0.010906174 -0.051027797 0.005436294 0.0012913649 -0.05052152
0.011696346 -0.04154388 -0.07142743 -0.07679501 -0.0019537678 -0.039869744 -0.013709729 0.02952747
0.002152749 -0.026175514 0.033814676 -0.028133417 -0.03178554 -0.012863644 0.044638738 -0.0062189368
0.012247776 0.036845617 0.012270129 0.051129457 0.040384483 -0.027268216 -0.049216937 -0.0050144936
0.0055758464 -0.0091158375 -0.0055033956 -0.004522393 -0.013233147 -0.01738092 -0.010113842 0.007906178
0.010137708 0.02538694 0.046075366 0.029158697 -0.027740173 0.015353276 0.034567297 -0.028550386
0.028384339 -0.00071802456 0.004197855 0.030817272 -0.025294881 0.0059859534 0.0014166739 0.011493942
0.03213568 0.024077915 -0.01359198 0.029350994 0.045858324 -0.0065304153 0.02802042 -0.018659702
0.0015194501 -0.019294722 -0.0041823057 0.03705949 -0.030823229 0.02833065 -0.019383186 0.032351848
0.009810365 -0.022167364 0.016800271 -0.023965593 -0.012868383 0.025951039 -0.02066232 -0.0059310063
-0.004468575 -0.020674136 -0.029929427 -0.03737118 0.023872415 -0.05999301 0.010298264 -0.0048488625
-0.03880719 -0.004352611 0.062228538 0.028575825 0.013236601 0.01271897 -0.012608503 0.038689736
0.031442463 -0.011675422 -0.0049062907 0.025399612 -0.03493261 -0.042911183 -0.022751037 0.0184942
0.00909732 -0.070334345 -0.016727434 -0.068343095 -0.0072343946 -0.00850129 0.03236272 0.031475864
-0.006704435 0.0009757607 0.010540047 0.009130015 -0.021784492 0.02208084 -0.009561721 -0.04604695
0.02980406 -0.032913104 -0.0038635551 0.05378058 0.0041456125 -0.01636622 -0.008179463 -0.018712986
-0.049300473 0.051508654 -0.009883103 -0.014847747 -0.023907352 0.027642565 0.04111777 0.03249138
-0.00031419 0.004567478 0.029715527 0.004108639 0.04012832 -0.024148162 0.01005058 0.010246392
0.00488671 0.027486982 0.034118023 0.00975458 -0.01332496 -0.041390862 0.0037566319 -0.0082137445
0.0019026536 0.028543 -0.05303967 -0.05541034 -0.020647243 -0.032022648 -0.00455363 0.013292445

layer2.0.bias f4 [64]
00000000: 954c 47bc f9e2 f0bc 7499 073b 09d6 8fbc
00000010: bbc7 6b3c bd24 953c f4dd b93b e75e 403b
00000020: 56a4 9a3b 39e7 c23c 0736 8bbc 5ffe d43c
00000030: 8a5b ddbc 0129 a4bc cdd9 963c 0695 84bc
00000040: 5811 033d de6c 0e3d 5e3a a53c 858a fcbc
00000050: 4229 fbbc 5993 f03c 5a52 d0bc 3e2e 9bbc
00000060: a89a 12bd e0f3 c13c 7029 1bbd c327 9f3c
00000070: aa29 bf3c 8c14 85bc 98b5 823c b41e ab3b
00000080: 9c85 02bd cd99 1d3d d798 313c 8941 09bd
00000090: 5b20 1dba bafc 1d3d c164 4bbc 24c6 23bb
000000a0: 6bfb 0bbd be75 a53b 5cc3 ffbb 4f25 80bc
000000b0: e957 133d e8e4 9bbc 7da0 15bd 92d3 ddbc
000000c0: 39f4 36bc b221 283d 1803 0dbd 5085 ce3c
000000d0: 0e4a 003d b0da e4bc 1462 94bc 5159 11bd
000000e0: 8d96 36ba cf9e 753c 27ce 2abd 7214 423b
000000f0: b290 1cbd 8d66 8cbc 23c2 813c 66b0 123d
-0.012164255 -0.029405104 0.002069083 -0.017558115 0.014390881 0.018205995 0.005672211 0.0029353441
0.0047192974 0.023791896 -0.016993536 0.0260002 -0.027021188 -0.020039083 0.018414402 -0.016184341
0.031998962 0.034771793 0.020169433 -0.03082777 -0.030659322 0.029367136 -0.025429893 -0.018942948
-0.035792023 0.023675859 -0.037881315 0.01942814 0.023335297 -0.01624515 0.015955731 0.005222166
-0.0318657 0.038476754 0.0108396625 -0.033509765 -0.0005993896 0.038571097 -0.012414158 -0.0024989927
-0.034175318 0.0050494364 -0.007805271 -0.01564279 0.03597251 -0.01903005 -0.036530007 -0.027078424
-0.011166626 0.04104776 -0.03442678 0.025210053 0.031320624 -0.02793631 -0.018113174 -0.03548557
-0.0006965183 0.014991476 -0.04170051 0.0029614237 -0.03822393 -0.017138744 0.015839642 0.035812758

layer2.1.weight f4 [64]
00000000: 36ed 7c3f 4185 7d3f 9841 7f3f 23ff 763f
00000010: bcf3 7c3f b5c9 7d3f 0513 803f 8492 7d3f
00000020: 414b 823f 538b 7c3f 4a1f 813f 7a24 753f
00000030: 4eb1 7c3f 641f 803f c8da 823f 78ea 7d3f
00000040: 730f 7d3f a8a9 793f c237 7f3f 22b5 7e3f
00000050: f10f 813f 165c 823f 7d29 7f3f 011b 803f
00000060: dc18 7f3f 2621 7c3f a083 843f e174 7c3f
00000070: 0a92 7e3f bd53 803f 14c9 873f ee75 803f
00000080: 8dc9 7d3f 9da0 7b3f cf53 7e3f 6e67 793f
00000090: 04c9 803f 3659 7d3f eed8 803f 7030 823f
000000a0: 82b5 7f3f 22d3 833f 0414 813f 0773 813f
000000b0: 8038 813f f0a5 7b3f fe52 813f ce1e 7d3f
000000c0: 70b8 833f 0c92 7e3f 1106 7a3f 3ac3 803f
000000d0: 863d 7f3f 6fdf 773f 90e3 793f 53d4 7f3f
000000e0: 87e9 7d3f 58b8 7c3f dccb 7e3f 0d4d 803f
000000f0: d14d 773f e7d2 803f 8965 7d3f 2b1c 813f
0.98799455 0.99031454 0.99709463 0.9648306 0.9880941 0.99135906 1.0005804 0.9905169
1.0179216 0.9865009 1.0087674 0.95758784 0.98708045 1.000958 1.0223017 0.99185896
0.988517 0.975245 0.99694455 0.99495137 1.008299 1.0184352 0.9967268 1.0008241
0.9964731 0.9848808 1.0352669 0.98615843 0.9944159 1.0025555 1.0608239 1.0035989
0.9913567 0.9829195 0.9934663 0.97423446 1.0061345 0.9896425 1.0066202 1.0171032
0.99886334 1.0298808 1.0084233 1.0113229 1.0095367 0.98300076 1.0103452 0.9887513
1.0290661 0.994416 0.97665507 1.0059578 0.9970325 0.9682531 0.9761286 0.99933356
0.9918446 0.98718786 0.99529815 1.0023514 0.96603113 1.0064362 0.98983055 1.0086721

layer2.1.bias f4 [64]
00000000: b89b 35bc 26d7 74bd 1196 46bd a2e2 7abd
00000010: 7ab6 fcbc 3c5b 42bc f52f b13b 8d72 46bd
00000020: ffcb 42bd 9cf6 68bd 6aaa ca3c e10e 76bc
00000030: f2e0 02bd 2c29 75bc cc12 29bd b367 aabc
00000040: 4237 d3bb f288 2fbd ecf0 07bd 28e7 cebc
00000050: ff54 c3bc 23a6 d6bc 1757 03bd c041 1abd
00000060: 7871 c0bc 86ce 6e3b 9a1e fcbd 5962 35bc
00000070: e06e 8fbc 0e88 90bc 3552 9ebd cebd c6bc
00000080: 3111 18bc 3771 0dbd ff00 afbb f0ef eeb9
00000090: 4b81 1abd 4896 8a3a da65 6dbc 2fe5 07bd
000000a0: bbfd fcbb f2d5 cfbd 2650 13bc 77f9 68bd
000000b0: f924 14bd b27c 04bd 0728 b4bb 2dc3 a3bc
000000c0: bc3a 7abc f02b ee3b 0a35 9cbc 3736 c5bc
000000d0: 7a6e a0bd 70f1 39bd 3d14 dfbc c000 41bc
000000e0: 489a ecbc bf9a 1cbd 6a03 01bc b86e 9bbc
000000f0: 5a31 86bd 9141 04bc 5458 2bbc 7a80 6ebd
-0.0110844895 -0.059775494 -0.04848296 -0.06125129 -0.03084873 -0.011862572 0.0054073283 -0.048449088
-0.047557827 -0.05687581 0.024739463 -0.015018196 -0.031952806 -0.014963429 -0.04127769 -0.0208014
-0.006445796 -0.04285521 -0.033188745 -0.025256708 -0.02384424 -0.026202267 -0.032065477 -0.03766036
-0.023491606 0.0036439016 -0.12310524 -0.011070811 -0.017508924 -0.017643 -0.077305235 -0.024260428
-0.0092814425 -0.0345318 -0.005340695 -0.00045573665 -0.03772096 0.0010573352 -0.014489615 -0.03317755
-0.0077206767 -0.10148229 -0.008991277 -0.056878533 -0.036168072 -0.03234548 -0.0054979357 -0.019990528
-0.015272792 0.0072684214 -0.01906826 -0.024073703 -0.07833572 -0.04539627 -0.02723133 -0.011779964
-0.02888216 -0.038233515 -0.007874349 -0.018973693 -0.06552382 -0.008072273 -0.010458071 -0.058227994

layer2.1.running_mean f4 [64]
00000000: 98f5 acbe 8b3e 76bd cf7f 4abf bdb2 f8be
00000010: 77a8 c13c 473e 083e 72b0 83be 7e08 12bf
00000020: 4166 1b3f 2a56 90bf 4ff5 d0be 5add 963e
00000030: eb16 aabf ad04 94bf b907 83bf 31a7 69bf
00000040: 105e 18bf 02e4 253f 5389 2bbf 8bdc 33bf
00000050: 456f bdbf d020 75bf 5f1b 91bf d722 463e
00000060: 1a2d 3bbf 5dbf d83d 3aa4 0f3f 9b52 77bf
00000070: b036 86bf 7fce 183f e0dd 03be dab5 66bf
00000080: 4c9f 7fbf 3811 38bf a2eb 92bf a82f fbbe
00000090: db8f a1be 5ad9 393f ae56 45bf d52d 30bf
000000a0: c714 57bf 0dc5 993e d990 a4bf 5256 3dbf
000000b0: 0678 85bf d6e5 e9be 80f0 41bf fc8f 66be
000000c0: 1c1e c9bf 54f8 7d3d 3565 8bbf eba9 ddbf
000000d0: 538a 92be 7429 e5be 2216 fcbe 13ec 16bf
000000e0: 9570 1ebf 3745 8ebf 5604 97be 37cd 1ebf
000000f0: 6159 c8be 0869 62be b3eb 66bf 1bee e6be
-0.33781123 -0.06011824 -0.7910127 -0.48573866 0.0236399 0.13305007 -0.25720555 -0.5704421
0.607029 -1.1276295 -0.40812156 0.29465753 -1.3288244 -1.1563927 -1.0236732 -0.9127074
-0.5951853 0.6480104 -0.67006415 -0.70258397 -1.4799582 -0.9575319 -1.1336478 0.19349228
-0.73115695 0.10583375 0.56109965 -0.9661042 -1.0485439 0.5969009 -0.12877607 -0.90121233
-0.9985244 -0.71901274 -1.147816 -0.49059796 -0.31555066 0.7259728 -0.7708539 -0.68819934
-0.8401608 0.3003315 -1.2856704 -0.7395984 -1.0427253 -0.45683163 -0.757576 -0.22515863
-1.5712314 0.062004402 -1.0890261 -1.731748 -0.28621158 -0.4475819 -0.49235636 -0.5895397
-0.61890537 -1.1114873 -0.29495496 -0.62031883 -0.3913069 -0.22110379 -0.902034 -0.45103535

layer2.1.running_var f4 [64]
00000000: c642 ee3e 4f11 c23e 6111 a33e 9d6a 2d3f
00000010: de53 cb3e 8b0c 533f 4561 243f a936 9a3e
00000020: f02a 133f fb1e fd3e 8310 e33e 989c 9e3f
00000030: f59f 033f 4063 053f db90 163f f099 3c3f
00000040: c309 cd3e 8c70 803f 1787 8e3e 6b21 ee3e
00000050: 3a85 193f 45a6 023f 83af ef3e 6178 843e
00000060: 0118 cb3e 9da6 313f e34d f73d 0aa4 153f
00000070: 3e73 913e 2c73 1b3f 8f77 8a3e 507e c73e
00000080: 5008 d73e 3523 ca3e 5b1e be3e fd4d dd3e
00000090: ffc8 783e 9d40 7e3f 4a12 173f 0a4a c73e
000000a0: e4ef 073f 2815 a73e 4cce db3e 3e32 3c3e
000000b0: 99b9 1e3f 5d80 c03e d79e f03e 6950 9f3e
000000c0: 0dfe ce3e 0ca9 673f 292e 863f 4c78 1e3f
000000d0: f9fe 9b3e 1973 dd3e 1404 e53e 677c 253f
000000e0: d5c0 013f f003 e23e 397c 563f 5c8f d73e
000000f0: 07f9 e63e 30f8 8f3e 481b fa3e a3ee 9d3e
0.4653532 0.3790383 0.31849197 0.67740804 0.39712423 0.82441014 0.6421092 0.30119827
0.5748739 0.494377 0.44348535 1.2391539 0.5141595 0.5210457 0.5881478 0.7367239
0.4004651 1.0034347 0.2783744 0.4650987 0.5996891 0.5103496 0.46813592 0.25873092
0.3966675 0.69394857 0.120754026 0.5845343 0.28408235 0.60722613 0.2704434 0.38963556
0.4199853 0.39479986 0.37132534 0.43223563 0.24295424 0.9931734 0.5901228 0.38923675
0.5310042 0.32633328 0.4293083 0.18378541 0.6200195 0.37597933 0.46996185 0.31116036
0.404282 0.9049232 1.0482837 0.6190231 0.30467966 0.43251875 0.44729674 0.6464295
0.50684863 0.4414363 0.837833 0.42101562 0.45111868 0.2811904 0.4884894 0.30846128

layer3.0.weight f4 [64, 64, 3, 3]
00000000: 0fb6 543c 7fc7 903d 3f7b 043b 2c39 703c
00000010: 122f 70bb e130 7abc eddc 0cbd af69 00bc
00000020: 0f98 1fbc 476f f93b 4fd1 143d a17b 8a3c
00000030: cd6a 833c 8489 fe39 45cc 0bbd 7d13 debc
00000040: 5e23 923a 587a a3bb d102 8cbc f6f3 d43c
00000050: 4fdd 98bc c020 ce3a aabe 8bbc b7b5 da3c
00000060: 1549 f33b 8346 a9bc 4f5e 263c 6c70 ff3c
00000070: 87eb d1bb d4da 98bc f266 32bd 4c11 493c
00000080: 3384 2f3d d21d e63b 15dd 05bd 1637 08bc
00000090: 02ae f23c 7d27 263b 0462 8a3b 38d0 883c
000000a0: 3a2d a3bc a71c 55bb 9e5b 6d3b e415 f5bc
000000b0: e9a1 973b b8f6 783c 1e76 2f3c b704 adbc
000000c0: 52e7 2abd 14b0 26bc b89e 663c 9f96 a43c
000000d0: 550a 2bbc a5fe fd3c cc9b dfbc 264c 2a3c
000000e0: 0bdb bcbc bd63 0a3d 1fe9 04bd 7bb4 21bd
000000f0: 8983 c3bc ece8 fc3c daf3 2dbd 9177 1abc
00000100: 16c6 6a3d 84b1 953c 420c d8bb 0008 b5bc
00000110: aa4d dabc cdad 173c 51e0 4c3c 3cb3 0bbd
00000120: 88c6 0bbd 93de 0f3b f90f 653c 1f05 b1bb
00000130: e883 353c 4df1 f3bc 25f3 65bd 2e6b 84bc
00000140: 98b2 05bd 7ccb 803c b058 a8bc 9f1e b9bb
00000150: 6cbf d2bc 7b59 7fbd d8a1 e93c 9319 a83b
00000160: 1cb4 91bd dd6b 8b3c 837b 7a3c 56c7 15bd
00000170: 8a3c aa3a 5715 333d 59f8 d7bc 054b 1f3c
00000180: 39c6 d13c c0c1 273c c6af 7cbb 2485 83bc
00000190: e27e 9b3b 00fb 3d3a bfae 76bd 9c66 223c
000001a0: 7949 4fbb 39d5 9bbc 9e2e 63bd 881f a8bc
000001b0: b368 893c f851 863b 74c5 17bd 55f5 1b3d
000001c0: d511 003d 6c26 323d 8407 fa3c c490 9bbc
000001d0: 8817 7abb e7dd 91bc cb49 0b3d df4e d4bc
000001e0: 75c2 dbbc 70d1 5ebc b2ee c23c 9c10 b4bc
000001f0: bbf7 463c c949 2dbd 51d4 b43c b8f8 60bd
00000200: 5272 dcba 7e0d ca3c b89c efbc c75e 26bd
00000210: cbf7 9dbc 802d 59bd 9981 933c 4ee9 87bc
00000220: e421 82bc ac33 1ebd 0c15 4f3c 5363 40bc
00000230: 9d0a 7abb 3d03 363d b053 a6bc 946e 1bbd
00000240: 95ea 95bb 32b8 233c 3a16 f3bb e302 7bbb
00000250: acc2 5cba 1ac3 a4ba a882 0cbd 0087 1f3c
00000260: e7da b33b a0a8 2ebd a647 04bd 0a36 a6bb
00000270: e5d5 d7ba 3189 6b3c 1373 d2bc 64cd a03c
00000280: 3a85 193c 6d0f 03bc 15e3 05bc d158 9cbc
00000290: ccfe 063d acdb 11bd 0ea3 083b 13d9 91bc
000002a0: 65e4 863c 9c97 bb3c ec22 20bd 87b2 5abd
000002b0: 6f9c 8a3c 10b8 2f3a 3a40 2c3c 5925 2b3c
000002c0: d191 0cbd 029c 8a3c 5d87 89bc 7725 8f3c
000002d0: 451f cabc a694 173d 8de1 613c 0223 a7bc
000002e0: 48fc 203d 8b07 84bd c205 8e3b b153 003c
000002f0: 66d1 30bd 6658 883b 200f fbbc 6428 733c
00000300: 5c80 efbc 6e8b 8dbc 7b90 17bd d544 77bc
00000310: bca7 06bc 8e03 23bd 6437 20bd 4cb0 cabb
00000320: 836e 01bd b22f 173d bf55 efbb fdb6 293c
00000330: 8da8 0dbc c0eb 813b bd13 7d3c a6b3 023c
00000340: 2339 23bb 0765 eebc 300e e7bc d450 89bc
00000350: 69cc cebc 62fc 8fbc cf7c 1bbd 1f07 c5bc
00000360: 9073 aebc 6c04 e43c 5c88 02bd 41d6 1ebd
00000370: 2bcb a4bb f34e 043d 4bbb fc3b caec 82bc
00000380: 1a56 bb3a e2b3 35bd fe3a 753c 7ab5 bebc
00000390: e368 f73b c396 633c f11c d43c 7f02 ccbc
000003a0: f801 083c 5df7 83bd 7480 cfbc b325 08bd
000003b0: d256 3ebd ecfe 9cbc cc51 33bc ccb5 56bd
000003c0: ac0c 70bd 44ae 76bc 37c1 a6bc 7a09 49bc
000003d0: c75b f63c 0364 caba 816c fe3b e043 36bc
000003e0: 8718 fbbc 6a7a 05bd 262a 123d ec7b b5bc
000003f0: 651b 47bd 08a2 11bd 8bc4 46bd c7df 32bd
0.012982859 0.07069301 0.0020215062 0.014662068 -0.003664915 -0.015270443 -0.03439038 -0.007837697
-0.009740843 0.0076121422 0.036332425 0.016904654 0.016042138 0.00048549112 -0.034130353 -0.027108902
0.0011149456 -0.0049889497 -0.017091187 0.025995236 -0.018660216 0.0015726313 -0.01705869 0.026697977
0.0074244835 -0.020663505 0.010154321 0.031181537 -0.006406251 -0.018659033 -0.043555208 0.01227219
0.042850684 0.007022598 -0.032681543 -0.008313915 0.029623989 0.0025353127 0.00422311 0.016700849
-0.019919027 -0.0032518299 0.0036217938 -0.029917665 0.0046274555 0.015195541 0.010709314 -0.021120412
-0.04172451 -0.010173816 0.014075927 0.020091353 -0.010439475 0.031005213 -0.02729597 0.010394132
-0.023053667 0.033786524 -0.032448884 -0.03947876 -0.023866432 0.030872785 -0.042468883 -0.009427921
0.057317816 0.018273123 -0.006593258 -0.022098541 -0.026648361 0.009257746 0.012504653 -0.034106478
-0.03412488 0.0021952733 0.013980859 -0.005402222 0.011078812 -0.029778147 -0.056140084 -0.016164389
-0.032641023 0.015722029 -0.020550102 -0.0056494023 -0.025726043 -0.062341195 0.028519556 0.005130002
-0.07114431 0.017019207 0.015288237 -0.036567055 0.0012988013 0.043721523 -0.026363539 0.009722476
0.025607215 0.010239065 -0.0038556918 -0.016054697 0.00474535 0.000724718 -0.060225245 0.009912159
-0.0031629486 -0.01902257 -0.05546438 -0.020522848 0.016773557 0.004099127 -0.03705354 0.038075764
0.031267006 0.043493673 0.030521162 -0.018989928 -0.0038160998 -0.017806007 0.03400592 -0.025916515
-0.026826123 -0.0135997385 0.02379546 -0.021980576 0.0121440245 -0.042306695 0.022073897 -0.054924697
-0.0016818738 0.024664637 -0.029249534 -0.04061773 -0.019283196 -0.053021908 0.018006133 -0.01659074
-0.015885301 -0.038623497 0.012639295 -0.011742431 -0.0038153299 0.044436682 -0.020303577 -0.037947252
-0.0045750835 0.009992646 -0.007418421 -0.0038301281 -0.00084213424 -0.0012570352 -0.03430429 0.009736776
0.0054887417 -0.042641282 -0.03229489 -0.00507236 -0.0016466944 0.014375971 -0.025689637 0.019629188
0.009370143 -0.007999283 -0.008171816 -0.01908532 0.032957837 -0.035609886 0.0020849141 -0.017803704
0.016466329 0.022899441 -0.039095804 -0.053392913 0.016920296 0.00067031477 0.01051336 0.010445916
-0.03431875 0.016920093 -0.016788179 0.01747392 -0.024673114 0.037006997 0.013786686 -0.020402435
0.039303094 -0.06446751 0.0043341825 0.007832454 -0.043168448 0.0041609285 -0.03064686 0.014841173
-0.029236011 -0.0172784 -0.03700302 -0.015092094 -0.008218702 -0.039798312 -0.039115325 -0.006185567
-0.031599533 0.03691072 -0.007303923 0.010358569 -0.008646143 0.003964871 0.0154466005 0.007977402
-0.0024905882 -0.029100908 -0.028205007 -0.016762175 -0.025243955 -0.0175764 -0.037960824 -0.024051247
-0.021295339 0.02783414 -0.031868324 -0.038778547 -0.0050291023 0.032301854 0.0077127567 -0.01598205
0.0014292628 -0.044361003 0.014967678 -0.023279894 0.0075503453 0.013890925 0.025892707 -0.024903534
0.008301251 -0.06443665 -0.025329806 -0.033239078 -0.046469517 -0.019164525 -0.010944795 -0.05241947
-0.058605835 -0.015056197 -0.020355804 -0.012270326 0.03007306 -0.0015441183 0.0077643995 -0.011124581
-0.030651344 -0.032587446 0.035684727 -0.022153817 -0.04861011 -0.035554916 -0.04852728 -0.043670442

layer3.0.bias f4 [64]
00000000: 9e56 4e3b 668e d43c 4e84 963c 4fb1 f9bc
00000010: 6956 0f3c 4f56 67bc 6960 9cbc d282 173a
00000020: 6455 a23c 691c dc3c 3e9d 0dbc 80c3 5dbb
00000030: 58e7 f9bc 886c d7bc cd51 183d 115f 09bd
00000040: 13b1 ad3a f2b6 50bc 487e 4a3b af6a 59bc
00000050: 47fd 7bbc 9b2b 85ba 12ed 8eb9 d44e 2e3c
00000060: cec2 e13c 4d86 f6bb e819 ab3c 52d3 29bd
00000070: 17d2 273d a6a8 3c3c 9208 aa3c 92f3 d3bb
00000080: ba9d 083d 1ede ec3b 3fd2 abbc 5dd9 8fbc
00000090: 6fd1 783c 8e1b 22bb abd8 a1bc 1d18 a63c
000000a0: c543 163d 9084 b23b ff12 b6bc 7a26 023c
000000b0: bdf1 183b 69e9 383c a44b ddbc c098 96bc
000000c0: 68c5 abbc f5db 1b3c d622 303c d23d 45bc
000000d0: fce7 f13c 46f1 b9bc bd5e 02bb 68a1 663c
000000e0: 0fb3 1e3c 1349 42bc e414 c8bb bf3b 04bd
000000f0: 6a44 87b9 dc8c bebc 0c4c b3bc c48c eabc
0.0031484733 0.025946807 0.018373635 -0.030480055 0.008748629 -0.014119699 -0.01908894 0.00057796866
0.019816108 0.026869016 -0.0086434465 -0.003383845 -0.030505821 -0.026296869 0.037187386 -0.033537928
0.0013251625 -0.01273893 0.0030898023 -0.013270064 -0.01538021 -0.001016009 -0.00027260982 0.010638911
0.02755871 -0.007523334 0.020886377 -0.041461296 0.04097184 0.011514818 0.02075604 -0.006468245
0.033353545 0.007228627 -0.020974277 -0.017559702 0.015186652 -0.0024735662 -0.019756636 0.02027517
0.036685724 0.0054479316 -0.022225855 0.007943744 0.0023337447 0.011286118 -0.027013607 -0.018383384
-0.020968154 0.009512891 0.010750493 -0.012038665 0.029529564 -0.022698056 -0.0019892894 0.014076568
0.009686246 -0.011858243 -0.006106006 -0.03228354 -0.0002580018 -0.023260526 -0.021886848 -0.028631575

layer3.1.weight f4 [64]
00000000: 0286 7c3f e403 803f 7cd0 8a3f 9a2d 783f
00000010: 1877 7d3f 83ca 823f af29 843f 4e7c 753f
00000020: 53a9 6c3f 8c6b 713f b024 6f3f cf51 723f
00000030: 6ff2 803f 6648 7d3f d21f 853f 2964 813f
00000040: 31dc 7d3f fd13 7a3f f57f 793f 0113 823f
00000050: 134e 843f 9190 843f 8f3e 733f 4491 7e3f
00000060: 6e3c 783f aedd 773f e4bd 833f 457c 793f
00000070: f7e5 7b3f de27 7d3f fd20 813f 5c97 7d3f
00000080: 92a5 813f 61b6 7f3f 61d5 843f 5571 7b3f
00000090: 3ad3 8a3f f608 733f 0df7 783f 1516 753f
000000a0: f63a 6e3f 6523 833f 666e 7d3f 3f45 7f3f
000000b0: a628 873f 5c45 803f 08d9 7d3f 3a97 793f
000000c0: c253 803f be97 753f 8da1 7d3f 5994 883f
000000d0: d61a 7f3f 59a8 813f cc4c 723f 5f0a 773f
000000e0: 9c65 7f3f 04cc 7e3f a959 7b3f 2aea 7d3f
000000f0: 6920 773f 4d31 713f a1b8 7d3f 5735 7c3f
0.9864198 1.0001187 1.0844874 0.9694458 0.9900985 1.0218052 1.0325221 0.958928
0.9244587 0.9430473 0.93415356 0.9465608 1.0073985 0.98938596 1.0400336 1.0108691
0.9916411 0.9768675 0.9746087 1.016205 1.0336326 1.0356618 0.9501733 0.9944041
0.9696721 0.9682263 1.0292325 0.97455245 0.98397774 0.9888896 1.0088192 0.9905908
1.0128653 0.99887663 1.0377618 0.98219806 1.0845711 0.9493555 0.9725197 0.9573682
0.9305872 1.0245177 0.9899658 0.99715036 1.055928 1.0021167 0.9915929 0.9749638
1.0025561 0.95934665 0.9907463 1.0670272 0.99650323 1.0129501 0.9464843 0.965002
0.9976442 0.99530053 0.98183686 0.9918543 0.9653383 0.9421585 0.99109846 0.9851889

layer3.1.bias f4 [64]
00000000: 8ff3 2cbd f787 60bd 08aa dcbd edcf 01bd
00000010: 8d69 04bd ee3b 7dbd 5122 0dbd 9355 6fbd
00000020: 8e92 9ebd 2b12 fbbc 100a ecbb 6eef b7bc
00000030: ff15 08bd 600e 62bd 6513 52bd 6bef 2abd
00000040: c822 42bd 082c 63bd 4f31 e8bc e57d a8bb
00000050: 0623 95bd 77bb 84bc fb7c 41bd 347c 46bd
00000060: 67b5 5dbd d936 18bd 4f16 80bd 04a5 b7bc
00000070: ece5 1abd fab5 60bd d98d 0abd 6a7a 80bd
00000080: 7073 64bd 5947 66bc b2ac b6bc 2468 57bd
00000090: cabc 24be 9486 44bd 815e 05bd c621 29bd
000000a0: a9e9 2ebd 0d85 adbd 06c3 b7bd ebc5 01bc
000000b0: bc8b c9bd eeb0 3bbd 5bb0 5ebd 9b73 dfbc
000000c0: a873 09bd eb9a 7cbb 982c 0ebd dc25 ccbd
000000d0: 2f29 ebbc cb9f 53bd 69bd e8ba 75e8 fbbc
000000e0: 2b91 d7bb 9150 59bd 992e 96bc 5af2 f3bc
000000f0: a12c 85bd 0d00 aebc a69e 8abd 9620 0dbd
-0.042224463 -0.054817166 -0.107746184 -0.031692434 -0.032327224 -0.06182473 -0.034456555 -0.05843122
-0.07742797 -0.030648312 -0.007203348 -0.022453036 -0.033224102 -0.05518949 -0.051288027 -0.041732233
-0.04739645 -0.055461913 -0.028343825 -0.005141961 -0.07282071 -0.016202671 -0.04723833 -0.048458293
-0.054128077 -0.03716168 -0.06254255 -0.022417553 -0.037816927 -0.054861046 -0.033826683 -0.06273349
-0.055774152 -0.014055097 -0.022299144 -0.05258955 -0.16087642 -0.047979906 -0.03256083 -0.041291974
-0.042703304 -0.08472643 -0.08972745 -0.0079207225 -0.09841105 -0.04582303 -0.054367404 -0.027276805
-0.033557564 -0.0038544487 -0.034710497 -0.099681586 -0.028706161 -0.051666062 -0.0017756644 -0.030750493
-0.0065785847 -0.05305535 -0.018332766 -0.029778648 -0.06502653 -0.021240259 -0.06768541 -0.034454904

layer3.1.running_mean f4 [64]
00000000: 88ad 62bf 67a7 38bf 84c8 bcbe c8dd a4be
00000010: f455 4bbf e140 bcbd f184 3cbf ec8e 6abf
00000020: 2936 1ebd ccc0 efbe da9b e0bd 18a0 5ebe
00000030: 6c21 58bf ea3b 11bf 43b8 5bbf f85d 5abf
00000040: 4a58 36bf 5b91 77bf 5187 0ebf ff13 18bf
00000050: 4401 75bf 22b4 3fbf 2b3e f3be b3dc dbbe
00000060: f516 bcbd 0907 35bf a9ba 19bf 1005 49bf
00000070: a097 34bf 749b 04bf 2e1a 31bf d87a 87be
00000080: 0367 b5be ad39 10bf 9f89 7fbf 0716 6ebf
00000090: e67a f9be a31c 11bf 3582 8cbe 8129 1abe
000000a0: 7010 acbe 0e3b 7bbf 0996 a3be e204 46bf
000000b0: 5fe3 f9be de08 3bbf 85f4 34bf b5b4 bcbe
000000c0: e6d3 64bf bd4e 21bf 92eb 43bf 241c 07bf
000000d0: e59e 37bf c532 39bf d096 95be e857 2ebf
000000e0: 9434 7ebf cdab 88bf ccb1 13bf 51e2 66bf
000000f0: c893 3dbf c30f afbd 7463 08bf 783a 0cbf
-0.8854604 -0.72130436 -0.3687173 -0.32200456 -0.7942803 -0.09192062 -0.7364035 -0.9162433
-0.03862587 -0.4682678 -0.10967226 -0.21740758 -0.84426 -0.56732047 -0.85828036 -0.85299635
-0.7122847 -0.9670617 -0.55675226 -0.5940551 -0.95705056 -0.74884236 -0.47508368 -0.42941818
-0.09184066 -0.7071386 -0.60050446 -0.7852335 -0.7054386 -0.517997 -0.6918057 -0.2646091
-0.35430154 -0.56338006 -0.9981937 -0.9300236 -0.48726577 -0.5668432 -0.2744309 -0.15054895
-0.3360629 -0.98136985 -0.31950405 -0.773512 -0.48806283 -0.73060405 -0.7068561 -0.3685662
-0.8938583 -0.6301077 -0.76531327 -0.52777314 -0.7172683 -0.72343093 -0.29216623 -0.68102884
-0.9929898 -1.067743 -0.5769317 -0.9018908 -0.7405362 -0.08547928 -0.53276753 -0.54776716

layer3.1.running_var f4 [64]
00000000: e403 993e 47dc 993e 9dd4 373e e685 a83e
00000010: 5c2a c43e eacd 8f3e 4d4d 773e a08f f63e
00000020: b678 1f3f 36a1 ea3e b74c 1d3f ae41 d93e
00000030: f0f0 9e3e 117d 953e 6d89 9a3e 9029 e83e
00000040: f225 6d3e 4eb4 cb3e 20b8 9d3e f560 283e
00000050: 5507 a63e d259 8c3e 1423 cf3e 8703 a63e
00000060: 644d 003f 47ef b83e 7bf1 863e 3873 a73e
00000070: ca79 f53e 88fe 733e 98a1 873e 32f8 963e
00000080: 355a 453e 223e c53e a38a 513e 99b0 c43e
00000090: e0f4 653e 936b 253f d85a a83e f4b3 ed3e
000000a0: d98b d33e 12c8 933e b26f b83e ab57 f13e
000000b0: 84f5 5c3e d1e6 a33e aa09 9e3e f1aa f33e
000000c0: 9170 a83e 75e8 0e3f eef9 033f b1e7 613e
000000d0: b29e af3e 55a9 993e 1e97 df3e f1ed 073f
000000e0: 4844 0c3f bbab cf3e 1d58 a73e 7476 b23e
000000f0: 8cf5 f83e fe98 d53e b13d 4b3e 7e88 c23e
0.2988578 0.3005087 0.179522 0.32914656 0.38313568 0.28086787 0.24150582 0.48156452
0.62293565 0.4582612 0.6144518 0.42432922 0.31043196 0.2919698 0.30182973 0.4534421
0.23159006 0.39786 0.3080454 0.16443236 0.3242747 0.27412277 0.4045645 0.32424566
0.5011809 0.36120054 0.2635611 0.32705092 0.4794448 0.23827565 0.26490474 0.29486233
0.19272693 0.38523966 0.20463042 0.38415983 0.22456694 0.6461727 0.32881808 0.46426356
0.41317633 0.2886358 0.36022717 0.47137198 0.21578032 0.32012036 0.30866748 0.47591355
0.3289838 0.5582345 0.5155324 0.2206104 0.34300762 0.30012003 0.4366998 0.53097445
0.5479169 0.40560707 0.32684413 0.34855998 0.48624837 0.41718286 0.19847752 0.3799476

layer4.0.weight f4 [64, 64, 3, 3]
00000000: 18e2 2cbc 3981 27bd b96d 9a3c 1a79 62bd
00000010: 1178 e9bc a1c8 c43c a5b2 5c3d fd38 053d
00000020: f829 50bc 8b6b c4ba 0b6f 26bc 8612 31bc
00000030: 5e12 a23c 658c 983a c3fc a7bc 8aa9 bebc
00000040: 12a1 86bc 30fe 4e3c 842d 5cbd 8031 5fbd
00000050: 3145 a33c cee0 79bd 9fd5 48bd d989 fc3c
00000060: 646f 163d 8211 4a3c 9c00 1cbc 7f74 493d
00000070: 4f9b e0bc 88ba dd39 033b edbc f872 0f3c
00000080: 1c8b 37bc 97d8 a63c ab8a 51bb 788c 8fbc
00000090: 32ab 9cbc 7162 73bc 9010 7b3c 53ab 913b
000000a0: 44e0 d6bc ca10 1d3c 5cd1 f8bb 874d db3c
000000b0: 1c52 933c c934 623c 25d6 95bc 4fbf 91bb
000000c0: ee9a 1c3d a494 29bb a9b8 35bb 8b0e fbbc
000000d0: 187d 61bc 471b 183c 5a67 1c3c f889 5c3c
000000e0: 3c41 dd3b cfdd babc d8e8 d73c 2da6 cfbb
000000f0: 02f7 eb3b d8a6 95bc 67fa 953c 988b 18bc
00000100: 39d1 f1bc 0ff6 0c3c 3de4 53bc 78e6 eebb
00000110: 5ccf 4eba 6b66 b1bb ed90 0b3d b4b5 3cbb
00000120: dd5b e6b9 670e 023d 96a1 56bc f49a 403c
00000130: e09d 04bc 43a8 b7bc 0924 05bd 35df c33c
00000140: e0e6 bbbc f002 63bc a6f7 18bd 8432 293c
00000150: d1f3 1a3d 219f b8bc 69e8 093d 2080 033a
00000160: 802a 31bc ba50 0f3b 62e4 2fbc 688a ac3a
00000170: 6774 7e3c 052e 873b 0a2b 723c 0e94 c7bc
00000180: abd7 91ba 548f babb 05ef 243b 04f8 f6bc
00000190: 7921 153d 8b8c 0f3c 3522 343d d9bd 83bc
000001a0: 7864 88bb b002 1dbc 2b1d 8d3c 0fdc 9cbc
000001b0: 6a4d a13c b248 86bc 1f41 b5bc d16d 483d
000001c0: 7e57 0cbd 4736 fb3a 2244 c537 781e 343c
000001d0: babe 04bc 7fe5 37bd 7e00 d8bc bf3f 4ebc
000001e0: e3c4 8fbc 774e b0b9 28de b13c 7196 ba3c
000001f0: 2f86 6fbc c7ef ac3b cf29 6d3b 6fc8 433d
00000200: ab12 4abc 6c52 583b 6b3f 123d c150 e03b
00000210: cfa0 86bc 162b adbb 33cd cdbb 8c39 bd3c
00000220: 4e2e 813d 0232 7abb 1b5b a6bc ac55 5b3c
00000230: bd1f 813b 0e78 943b b3ac 0b3c 0258 13bc
00000240: 2870 53bd 5ba4 08bc 3ef9 abbc 438e cd3c
00000250: 5abc 2cbc c153 833c 3ea0 3fbc b566 4b3c
00000260: e922 a33c af30 4f3c 1a77 4ebd b9cd 933c
00000270: 5e85 e6bc b218 e6bc b1ce 183c da7e c23c
00000280: 4f84 ba3a 0fb9 b4bc 3ee1 b4bc edcb f6bb
00000290: e9a2 723a 79ca 10bd b274 78bd af6b 013d
000002a0: ea21 0b3d 9fe7 d43c 340a c63b 7577 ee3c
000002b0: 445d b63c e142 a8bc 5eee 393d 4844 393d
000002c0: e220 1bbd a6f9 adbb 78e8 b0bc 5d32 b73c
000002d0: 4da7 b83c 9c60 093c b7f1 863c a62d f23c
000002e0: 1889 793a 0e22 d1bb 0e12 e3bb 68e9 b7bb
000002f0: a90d 943c 46a0 cc3c 3ec4 8f3c db92 0fbd
00000300: d3b5 5b3d 2ea1 a83c 7cb4 fabc 20e7 23bd
00000310: 2dc0 24bc d9fe a43c 0fc3 56bc c3a8 00bb
00000320: ed70 8ebc 50ae 61bc 5f95 873c cc5b fb3b
00000330: 81d2 dcbc b56d cbbc 5024 b43c 7b0c 083d
00000340: e751 283c c2c8 9fba 4f62 64bc 2482 32bb
00000350: 9e40 e1bc 8840 bb3c 0efd a5bc 6397 b5bb
00000360: b0ce aebc 49a7 9bbc 31d8 bdbc 19b5 10bd
00000370: 5e7f 3c3c f228 f93c 0f0c 183d 207d 093d
00000380: cbb7 2fbc 8eb1 94bc 03dd 333c e08a 09bd
00000390: dbb3 2a3d 841c 08bc ee6f 043c 75d1 14bd
000003a0: f155 8e3b 605a 8bbc 9334 423d ea03 b7bc
000003b0: 52c5 8ebc 34e2 633d c16e 3b3d db5a 13bd
000003c0: 4eaf c1bc 2093 233b e624 d7bb 47b4 023d
000003d0: 9b4b 6e3d b64c b03b 6caa a13c 28bd 043d
000003e0: 033d 9cbb 6245 263c 68ef 99bc 4a56 083c
000003f0: fe72 5d3d 4661 0c3d 57b5 973c 4b78 c3bc
-0.010551952 -0.04089472 0.018851148 -0.055291273 -0.028499635 0.024021449 0.053881306 0.03252505
-0.012705319 -0.0014985664 -0.010158311 -0.010807639 0.019784149 0.001163852 -0.020506268 -0.023274202
-0.016434226 0.012633845 -0.053754345 -0.054490566 0.019930454 -0.061005406 -0.04903185 0.03082745
0.036727324 0.012333276 -0.00952163 0.049183365 -0.027417807 0.0004229138 -0.028958803 0.008755438
-0.0112026 0.02036695 -0.0031973522 -0.017523035 -0.019124601 -0.014855013 0.015323773 0.0044454723
-0.026229985 0.009586522 -0.007593317 0.026770366 0.017983489 0.01380653 -0.018290589 -0.0044478546
0.03823369 -0.002587595 -0.0027728474 -0.030646583 -0.013762735 0.009283847 0.009546125 0.013460629
0.0067521613 -0.022810845 0.026356146 -0.0063369484 0.0072010765 -0.018268034 0.018307878 -0.0093106255
-0.02951871 0.008603587 -0.012932834 -0.0072906576 -0.00078891753 -0.0054138205 0.03407376 -0.0028794827
-0.00043937462 0.031752016 -0.0131000485 0.011755694 -0.008094281 -0.0224191 -0.03250507 0.023910144
-0.022937238 -0.013855681 -0.03734555 0.010326985 0.037830178 -0.022536816 0.03366891 0.00050163455
-0.010813355 0.0021868185 -0.010735603 0.0013163807 0.015530682 0.004125359 0.014780769 -0.02436259
-0.0011126896 -0.0056933556 0.002516688 -0.03014756 0.036408875 0.008761535 0.043977935 -0.016081737
-0.0041623674 -0.00958316 0.017225822 -0.0191479 0.019690234 -0.016392086 -0.022125779 0.048932854
-0.034263127 0.0019165956 2.3515957e-05 0.010993592 -0.008102113 -0.0448966 -0.026367422 -0.01258844
-0.017549938 -0.00033627797 0.021712378 0.022776814 -0.014619394 0.005277607 0.003618825 0.04779857
-0.012333552 0.0033008112 0.03570501 0.006845564 -0.016434101 -0.0052846773 -0.006280565 0.02309873
0.0630766 -0.003817678 -0.020307114 0.013387125 0.003940551 0.004530913 0.008525061 -0.008993151
-0.051620632 -0.008339967 -0.020992871 0.02509225 -0.010542953 0.016031148 -0.01169592 0.012414624
0.019914107 0.012645884 -0.050406553 0.018042432 -0.028139766 -0.028087948 0.009326623 0.023742128
0.0014230105 -0.022060899 -0.02208006 -0.007531634 0.0009255843 -0.035349343 -0.060658164 0.031596836
0.03396789 0.025989352 0.006043697 0.029109696 0.02226127 -0.020539703 0.04539334 0.045231134
-0.037873156 -0.0053093014 -0.021595225 0.022362882 0.022540713 0.00838485 0.01647268 0.029562782
0.0009519025 -0.0063822335 -0.0069296425 -0.005612541 0.01807292 0.024978768 0.01754963 -0.03505216
0.053640198 0.020584669 -0.03060364 -0.04001534 -0.010055584 0.020141052 -0.013108029 -0.001963184
-0.017387832 -0.0137744695 0.016550718 0.007670855 -0.026955845 -0.024832586 0.021989971 0.033215027
0.010273433 -0.0012190568 -0.013939454 -0.0027238214 -0.027496632 0.02285792 -0.020262267 -0.0055417283
-0.02133879 -0.019000666 -0.023174377 -0.03532896 0.011504976 0.030415032 0.037120875 0.033566594
-0.010724972 -0.01815107 0.010977986 -0.033579707 0.04167543 -0.00830758 0.008083327 -0.036332566
0.004343741 -0.017010868 0.04741342 -0.022340734 -0.017428074 0.055635646 0.04575992 -0.03597532
-0.023643162 0.002495952 -0.006565678 0.031910207 0.05817757 0.0053802384 0.019734584 0.032406956
-0.0047680154 0.010148378 -0.018790916 0.008321354 0.054064743 0.034272455 0.018519087 -0.023861071

layer4.0.bias f4 [64]
00000000: 8c56 f5bc 2cbd f33c 1337 2cbd fa20 fdbc
00000010: 83b6 983c 0544 063d 20d5 e83c 7d7a f53b
00000020: 3892 e03c 1c8f d7bc 4caa b4bc 54e3 cdbc
00000030: 142b e73c 0638 48bd 4485 893b 8df8 bebc
00000040: 0ee6 78bd 2fe5 ff3b 09c6 1d3d 910b e3bb
00000050: 0bbb dd3c c3e1 dbbc 3bbe c23c 1322 69bd
00000060: ecd9 c13c 3cd3 4e3d 31f4 1d3d ecb2 ebbc
00000070: d20c 0ebd 3c9b cf3c b430 883c 358e 6a3c
00000080: 10cf df3c 4816 b23b 38db 933c 3500 cabc
00000090: 7013 443d 5eeb 263d c26b 40bc de47 813c
000000a0: ca15 863c 341d 1a3b 6e79 b9bc 5536 4b3d
000000b0: 3bf6 443d 5f4e d3bc 6bd1 14bd 1aef 39bd
000000c0: 89b2 703c 247e f93c 705e a0bc 198c 85bc
000000d0: 1952 353d ee12 ecbc f023 1cbe abaa 32bd
000000e0: 68f7 80bc 568b be3c 1de5 b53b 1b3e e6bc
000000f0: dd95 c63c f874 0f3d 7bb7 313c c50d 06bd
-0.029948495 0.02975329 -0.04204471 -0.030899514 0.018641716 0.032779712 0.028421938 0.0074914084
0.027413473 -0.026313357 -0.02205386 -0.025132813 0.028218783 -0.048881553 0.0041967947 -0.023311878
-0.060766272 0.0078093032 0.03851894 -0.006928869 0.027066728 -0.02684105 0.02377235 -0.05691726
0.023663484 0.050494418 0.038562957 -0.02877184 -0.034680195 0.025342576 0.016624786 0.014316131
0.027320415 0.005434785 0.018048868 -0.024658302 0.0478701 0.040751807 -0.011744441 0.01578134
0.016367812 0.0023515942 -0.02264091 0.049612362 0.048086386 -0.025794206 -0.03633253 -0.04539404
0.014691004 0.030455656 -0.019576281 -0.016302155 0.044267748 -0.02881762 -0.15248084 -0.043619793
-0.015742972 0.0232598 0.005550994 -0.028105786 0.024241382 0.03502366 0.010846968 -0.032727975
