FAST 3D-CNN P-NET/model/ZGFF/ZGFF_proto_3d-5shotband55-1.pth (torch, 873334 bytes, 22 tensors)

layer1.0.weight f4 [16, 1, 7, 3, 3]
000000 5a 33 c3 bb bf c4 a3 3d 4e 7e e4 3d 09 f4 ca bd
       -0.0059570493 0.07996511 0.11156903 -0.09909827
000010 60 d2 82 3d 76 5b e1 3d e3 63 1a bd a0 ad df bd
       0.06387782 0.11003773 -0.037692916 -0.10921788
000020 dd ae 11 be 72 e4 b3 bd e6 0b 6d 3c 1d 39 00 3c
       -0.14226861 -0.08783807 0.014468169 0.007826117
000030 7b 87 73 3d 1f 77 65 3d ee f6 ea bc 80 9d 92 bd
       0.059455376 0.056021806 -0.028682198 -0.07158947
000040 09 59 c9 3d 69 62 01 3d f1 ba e0 bd e7 04 ac bd
       0.09831435 0.031587992 -0.10973156 -0.083993725
000050 a5 88 b9 3d 41 f7 c2 bd 2c 98 29 bc 1b bd d7 3d
       0.09059266 -0.09519816 -0.010351222 0.10534116
000060 41 8d 9f bd 7c 09 5d 3d 8e 37 f3 3d a8 23 dc bd
       -0.07790614 0.053964123 0.118758306 -0.107489884
000070 a2 93 c4 3b 2f 9e 6d bc 52 14 af 3d d1 71 7b 3d
       0.0059990445 -0.014503046 0.08548798 0.06138784
000080 d1 b6 9e 3d b2 86 92 3d e3 24 ba 3d 33 c3 48 bd
       0.07749713 0.07154597 0.09089067 -0.04901428
000090 c8 4c 89 bb 90 ad 2c bb 59 99 f0 bd 7b be c4 bd
       -0.0041900612 -0.0026348568 -0.11747999 -0.09606644
0000a0 04 99 90 3d 8a 69 9a 3d 46 8f 8e bc 7d 48 98 3d
       0.070604354 0.07539661 -0.017402302 0.07435701
0000b0 bb 8d ef bd 17 ba 9e bd 53 f1 b6 3d 13 8a f9 bd
       -0.11696955 -0.077503376 0.08932748 -0.12184539
0000c0 8a dd 75 bc b3 01 4b 3d dc 96 9d 3d 51 2e 7d 3c
       -0.015006432 0.049562167 0.0769479 0.015452937
0000d0 41 3f 1d 3b c6 07 99 3d 5f 6b 7f 3d f1 a5 79 3c
       0.0023994 0.07472186 0.062358256 0.015237317
0000e0 8f 7a ab 3d 2b c7 90 bc 8b a2 e9 bd 2b 99 c8 bc
       0.083729856 -0.017673096 -0.11407956 -0.024487099
0000f0 bc a0 00 3e 85 fb 08 bc 26 04 32 bd 99 ab 93 bd
       0.12561315 -0.008360748 -0.043460988 -0.07210464
000100 39 cb 34 3d 06 29 37 bd 6b 84 04 3d a3 af 14 bd
       0.04413912 -0.044716857 0.032352846 -0.036300313
000110 2b 0f 20 39 c3 1b 93 bd 5c e7 9c 3d 8f c8 c3 3b
       0.0001526444 -0.071830295 0.07661316 0.005974836
000120 ce 00 cf 3d ea 2a 8e 3d 54 55 b9 bd 40 1d 51 3b
       0.10107575 0.06941779 -0.09049478 0.0031908303
000130 87 15 85 3d b5 f1 eb bd 30 b7 94 3d 15 2b d3 bd
       0.06498247 -0.11520711 0.07261503 -0.103109516
000140 32 da b7 3d eb e7 8e 3a 2e 11 a8 bd 2f 47 a0 bd
       0.08977164 0.0010902857 -0.08206402 -0.07826077
000150 2d 3b ca bd 86 84 c7 3c 41 94 a6 3d cd ca c3 3d
       -0.09874568 0.024355184 0.08133746 0.095601656
000160 08 e5 99 3d 71 6a cc 3d fe e0 bc 3c 00 89 33 bd
       0.07514387 0.099812396 0.023056503 -0.043831825
000170 49 a5 63 3d a3 82 f9 3b e9 91 27 bd 56 7f 5b 3c
       0.05557755 0.00761445 -0.040910635 0.0133970585
000180 2d 53 23 bd db 9c 83 3d 49 cf a6 3d 51 ad 38 bc
       -0.039874244 0.06426402 0.08145005 -0.011271791
000190 90 c7 b7 bd ee a2 61 bd 7a e6 e2 bc 73 95 17 be
       -0.089736104 -0.055087022 -0.02769779 -0.14803104
0001a0 a7 66 74 bc 92 9d d2 3c 34 a5 ae bd 32 f5 21 be
       -0.014917052 0.025709901 -0.08527604 -0.15816191
0001b0 42 6e 62 3d f4 15 ee 3d eb 45 a1 3d fc ff 8d bd
       0.05528093 0.11625281 0.07874664 -0.06933591
0001c0 5f bc 04 3e 72 0d 4f 3d 08 95 aa 3a 47 49 02 3e
       0.12962483 0.05054993 0.0013014385 0.12723266
0001d0 9e 2a e8 3d 7f 26 bc bd 20 68 d2 bc fb 3b c6 bd
       0.113362536 -0.0918703 -0.025684416 -0.09679409
0001e0 48 64 b5 bc b8 66 89 3a 9c 48 ef bd 32 ba c8 bd
       -0.022142544 0.0010482883 -0.11683771 -0.09801139
0001f0 96 da 17 bd 7c aa 4f bd 9b 52 22 3d 74 62 c4 bd
       -0.037073694 -0.050699696 0.03962956 -0.09589091
000200 38 73 94 3d 91 32 93 3d 18 b9 f5 bd 95 e2 63 bc
       0.07248539 0.07187379 -0.119981945 -0.013909002
000210 d4 d7 ca 3c be 56 6b 3d 6f 46 af bc e8 2e f7 bb
       0.024761118 0.05745577 -0.02139589 -0.0075434335
000220 5c d7 85 bd bb 60 74 3d 17 fe c9 bd ea bb cb 3d
       -0.06535217 0.059662562 -0.09862917 0.09947951
000230 7a 23 56 3d 61 03 b7 3d 08 ff 97 bd fb 80 26 bd
       0.052279927 0.08936191 -0.0742169 -0.04065035
000240 a1 3e 12 be de a6 41 3d 14 c9 fe bd b7 e3 16 be
       -0.14281704 0.047278278 -0.12440696 -0.14735304
000250 ba 26 e5 bb 09 8f 60 3c 08 fb 52 3b 09 06 a3 bd
       -0.006993142 0.013705977 0.0032193083 -0.079601355
000260 3e 7d a0 bd f6 70 84 3d f7 53 ec 3d 3f 8f 89 3d
       -0.07836388 0.06466858 0.115394525 0.06716775
000270 56 97 fe 3d 95 b3 81 3c 5d 59 5a 3d 64 c7 a9 3c
       0.12431209 0.015832702 0.05330788 0.02072496
000280 02 98 85 bd 59 09 93 3d d3 a3 3d bc c7 eb 8b 3d
       -0.06523134 0.07179517 -0.011574703 0.0683208
000290 fc 5f ad bd aa a8 12 bd b2 a1 4d 3c 01 9b 82 3d
       -0.08465573 -0.03580538 0.012550758 0.06377221
0002a0 f5 d2 f2 3c 77 dd fc bd 95 b8 5a 3d 15 34 aa 3c
       0.029641608 -0.123469286 0.053398687 0.020776788
0002b0 93 17 49 3d e0 36 e6 bd d0 2a b3 3c 50 53 df 3d
       0.049094748 -0.11240935 0.021871 0.109045625
0002c0 52 12 15 3d ba 54 f8 bc 97 89 20 be e1 96 a0 bd
       0.036394425 -0.030313838 -0.15677486 -0.07841278
0002d0 52 68 b1 3d 93 7b 07 bd 9f b3 08 bc 05 4a 61 3d
       0.08662476 -0.033076834 -0.008343606 0.05500223
0002e0 48 2f d8 bd f8 10 9a 3d f8 fd b7 3d b7 c8 9d bc
       -0.10555893 0.07522768 0.089839876 -0.019260747
0002f0 55 a4 c0 3c 75 29 b9 bc 16 1a 98 3d af 3c 19 3d
       0.02351586 -0.022602776 0.074268505 0.037411388
000300 75 e8 05 be 93 5d 0c 3c af f7 9e 3d fe 14 a0 ba
       -0.13076957 0.008567232 0.07762086 -0.0012213287
000310 e0 61 78 bd 49 82 cd bb a0 7f b9 bd 1c 9e 12 be
       -0.060640216 -0.0062716347 -0.09057546 -0.14318126
000320 c5 77 77 3d f3 a8 b0 3c 1b 30 fc bc a8 78 a0 3d
       0.060416956 0.021564936 -0.030784657 0.07835513
000330 b3 f7 f1 bd 8a 44 10 be 92 5c 6e 3d ef 49 9c 3d
       -0.11814823 -0.14088646 0.05819375 0.07631289
000340 2f 02 b7 3d 85 d2 8d 3d 37 b6 e8 3d 78 70 21 bd
       0.08935963 0.06924919 0.1136288 -0.0394139
000350 7c f1 96 3d b9 30 e5 3d 6d 91 45 bb ad 4f dd bc
       0.07370278 0.11190934 -0.0030146495 -0.027015531
000360 05 b4 bc bd 2a c1 cb bd ac 82 11 3c 6b 41 42 3d
       -0.092140235 -0.099489525 0.008881252 0.04742567
000370 70 64 de 3c c6 49 13 3d b5 12 10 bc 8b f2 8c bd
       0.027147502 0.035959028 -0.008793523 -0.06882199
000380 b2 c7 0b bd 72 39 aa 3d 11 25 87 3d 6e cd a0 3d
       -0.03412599 0.08311738 0.06598867 0.078516826
000390 56 6e 16 3d 15 56 6b bd f7 6a 91 bd 65 54 a1 3d
       0.03672632 -0.05745514 -0.0710048 0.07877425
0003a0 95 c7 bd 3d 25 03 b6 bd d6 85 24 3d 82 f4 8d 3b
       0.09266583 -0.088873185 0.0401667 0.004332126
0003b0 ee 5a f8 bd e4 d9 ab bd 42 c0 66 3d 00 f7 9a bd
       -0.121267185 -0.08391169 0.056335695 -0.07566643
0003c0 e5 ea 89 3d 4c ef cb 3d 0b c1 9f 3d 0f df 3f 3d
       0.06734256 0.09957752 0.07800492 0.046843585
0003d0 50 a5 e7 bd a3 5f f9 bc 9a 76 d0 bd 30 01 35 3d
       -0.11310828 -0.030441111 -0.101788715 0.044190586
0003e0 81 fe be bd 6a 2a 9e bc 58 8c e2 3c a8 f9 0d bd
       -0.093258865 -0.019307334 0.027654812 -0.03466192
0003f0 e6 93 19 3d 87 43 90 3c b0 42 22 bd d4 15 f5 bd
       0.037494563 0.017610325 -0.03961438 -0.11967054

layer1.0.bias f4 [16]
000000 71 fd c2 3d d9 59 15 be 2f c1 ec bd 94 b8 9d bd
       0.09520996 -0.14585055 -0.11560284 -0.07701221
000010 e9 33 d4 3d d5 e6 c0 bd 13 a5 a4 bb e9 f0 07 3e
       0.103614636 -0.09419028 -0.005024561 0.13275494
000020 ef 81 2e 3d 49 c1 2d be 3f 46 91 3d 38 95 95 bd
       0.042604383 -0.16968264 0.070934765 -0.07303852
000030 96 06 8c bd aa b4 39 3d f6 12 8c bd 9f c6 01 be
       -0.06837194 0.04533831 -0.06839554 -0.12673424

layer1.2.weight f4 [16]
000000 f2 e1 78 3f d5 48 84 3f 20 00 82 3f 73 ce 7a 3f
       0.97219765 1.0334727 1.0156288 0.97971267
000010 0b 2a 7a 3f ad a0 7e 3f db e5 84 3f ce dc 7a 3f
       0.977204 0.9946392 1.0382646 0.9799317
000020 65 b7 77 3f e9 25 82 3f 1f 9a 78 3f ab 51 7f 3f
       0.9676421 1.0167819 0.9711017 0.9973399
000030 95 c1 77 3f 47 a3 7d 3f 85 4a 83 3f e1 ba 81 3f
       0.9677976 0.99077266 1.0257117 1.0135156

layer1.2.bias f4 [16]
000000 31 98 4a bc 41 06 03 bd 14 2b a4 bc 33 46 06 bd
       -0.012365387 -0.031988386 -0.020040073 -0.03278179
000010 98 ed 86 3b c9 41 36 bd af 5c 9f bd 7c 5f 0e 3c
       0.004117679 -0.04449633 -0.0778135 0.008689757
000020 69 6f 2f ba 7d 00 7e bd d3 ae 92 bd f1 f3 96 bc
       -0.00066923216 -0.062012184 -0.07162251 -0.018426867
000030 ec 9f 92 bc f2 65 f6 bc 03 d2 69 bd 10 fb 0b bd
       -0.017898522 -0.030077908 -0.05708505 -0.03417498

layer1.2.running_mean f4 [16]
000000 dc 79 88 3e ec bd fa 3d 41 a0 e6 3d 3a e7 f3 3d
       0.2665547 0.12243256 0.11261035 0.11909337
000010 af 82 fa 3e 35 f7 41 3e 60 d2 48 3e ba c4 a8 3e
       0.4892783 0.18941958 0.19611502 0.3296259
000020 95 f7 85 3e b3 ec 05 3e 63 3b 62 3e fe 36 72 3e
       0.26165453 0.13078575 0.22092967 0.2365379
000030 dd 9f 7d 3e e7 78 43 3e fc 0c 3a 3e c3 9b da 3d
       0.24768014 0.1908909 0.18169016 0.106742404

layer1.2.running_var f4 [16]
000000 85 1e 4e 3e 9c bd c4 3d 10 b6 ba 3d 5e 49 b0 3d
       0.2012883 0.096064776 0.09116757 0.08607744
000010 65 e4 83 3f e4 de 6b 3e e1 bc 0f 3e 0b 3a ac 3e
       1.0304075 0.23034245 0.14036895 0.33638033
000020 30 24 85 3e 84 81 ea 3d f0 22 e2 3d d5 e5 a6 3e
       0.2600417 0.114504844 0.1104182 0.32597223
000030 b8 e7 d4 3e 8d 60 ea 3d 3d 9c 16 3e 0b 34 81 3d
       0.41583037 0.11444197 0.14708038 0.063087545

layer2.0.weight f4 [32, 16, 7, 3, 3]
000000 b4 20 66 bc c6 1b b6 3c 5a 00 bd 3b b3 54 8c bb
       -0.014045883 0.02223004 0.005767864 -0.004282558
000010 4a 97 ad bc 1e eb 40 bd 05 fe 6f bc 9b 3d 81 3c
       -0.021190304 -0.047099225 -0.014647965 0.015776446
000020 a3 8b d7 3a 71 ef fd 3c 32 48 db 3c 93 5d 29 3d
       0.0016444813 0.030997964 0.026767824 0.041349005
000030 e4 82 68 3a bd 5a 2e 3c 34 e1 28 3d 7a f4 68 bc
       0.0008869602 0.010641751 0.041230395 -0.014218444
000040 22 b9 40 bd 89 32 b8 3b 90 99 b2 bc 84 3f e8 3c
       -0.047051556 0.0056212586 -0.02180174 0.0283506
000050 55 5c 4e b9 c3 2d 19 bc 7d a2 d9 bc 9d 3b 07 3c
       -0.00019680087 -0.009349289 -0.026566738 0.008253959
000060 8c 19 c4 3c 42 eb 0f bd 80 2a a8 3c e6 f2 45 3c
       0.023937963 -0.03513647 0.020528078 0.012081837
000070 a3 c3 0d 3d b7 b6 12 bc e1 ab 33 3c 26 64 15 bd
       0.0346104 -0.008954695 0.010966272 -0.036472462
000080 66 bf bb bc be 3a a9 bc e7 5e 4c 3c 16 53 16 bd
       -0.022918414 -0.020657893 0.012473798 -0.03670033
000090 96 26 89 bc 4c fd 88 bb 50 cf a7 bc 21 49 38 3c
       -0.016742032 -0.004180586 -0.020484596 0.011247904
0000a0 a0 06 7b bc dd 48 73 bb 28 a1 34 3b 91 ce 0f bc
       -0.015321404 -0.0037122287 0.0027561877 -0.008777277
0000b0 94 13 d3 bc b3 5f 9f bb 8a e7 d9 bb de 14 87 bc
       -0.025766172 -0.004863703 -0.006649916 -0.016489442
0000c0 96 bf 8f 3c 5e d8 7b ba 4d d7 c8 bc 57 a9 59 3c
       0.01754741 -0.00096071314 -0.024516726 0.013285003
0000d0 e1 4a d9 3a 22 bd 01 bd 93 7c 83 3c cb 12 9d bc
       0.0016578102 -0.03167451 0.016050613 -0.019174
0000e0 0d a0 b2 3b fe d2 eb b9 d6 b6 b3 bb 95 9e 31 bc
       0.0054512084 -0.00044979894 -0.005484442 -0.010841032
0000f0 68 bd 26 bc 76 c6 5e bd 8b ed a4 3b 5c 7d be bc
       -0.010176994 -0.054388486 0.0050332 -0.023253135
000100 c1 a6 2e bc 00 e0 5f bc 85 0c d7 3c ce d6 d5 bb
       -0.010659874 -0.013664246 0.026251087 -0.006525851
000110 d1 47 d1 bc 25 3d 95 3c e3 0e 9c 3b 8a 8a 86 3c
       -0.02554694 0.018217633 0.004762517 0.016423482
000120 db bc cd b7 29 f4 db bc 0d fc 21 3d 25 6b 05 bd
       -2.4525847e-05 -0.026849823 0.039547015 -0.032572884
000130 a8 48 07 bc 54 48 f8 bc 33 2d 3a 3c bd 03 95 3b
       -0.008257069 -0.030307926 0.011363315 0.004547565
000140 b2 a6 11 bd 27 50 78 3c 2a 43 dd bc 6c 25 bf 3c
       -0.035559364 0.015155829 -0.027009565 0.023333274
000150 08 6d 46 3b 1c 0f a8 3b 63 cb fb ba 4b d0 04 bb
       0.003027739 0.0051287543 -0.0019210394 -0.0020265754
000160 6a e6 1b 3d 4b 22 fd 3b ef 57 8c 3c 5c 57 9d 3c
       0.038061537 0.0077250353 0.017131774 0.019206695
000170 3e 83 f1 3b 78 d9 5d bc 27 a4 a4 3b 6a 1b 5b 3c
       0.0073703816 -0.013540618 0.0050244513 0.013373235
000180 cc c9 1e bd 93 44 42 bd d6 f0 0d 3c 78 77 c5 3c
       -0.038766667 -0.04742868 0.008663377 0.024104819
000190 84 bd 83 bc 40 ca db bb 9d 7e 22 bd 09 25 0f b9
       -0.016081579 -0.0067074597 -0.03967153 -0.0001365134
0001a0 32 45 e2 3c cb 50 8d bc 87 25 07 bd bb b6 01 bd
       0.027620886 -0.01725044 -0.032994773 -0.031668406
0001b0 65 56 0e 3c 95 e4 23 bc de 5b ca bc 62 d9 d6 bc
       0.00868759 -0.010003229 -0.024702009 -0.026226703
0001c0 ff 99 85 bc f1 3d 14 3d 2f 13 93 bd 98 94 b0 bc
       -0.016308783 0.036191884 -0.07181393 -0.02155523
0001d0 34 30 e7 bb 9a 34 52 3d 82 f8 02 bd f1 c3 dc 3c
       -0.007055307 0.051319696 -0.031975277 0.0269489
0001e0 53 9c 54 bc d6 5d d5 3c e5 41 8c 3c b0 78 e4 3b
       -0.012976724 0.026045721 0.017121265 0.006972395
0001f0 42 f2 73 bc ad 7e 04 bc d7 c3 7d 3c c5 a0 e6 bc
       -0.014889302 -0.0080868425 0.015488586 -0.028152833
000200 89 96 a3 3c 53 25 c2 3b 42 88 a2 3c ba 12 b7 3c
       0.019969242 0.0059248595 0.019840363 0.022347797
000210 fc 8b 57 3c 59 0a a2 3c da c9 19 bc 5a d1 c3 3b
       0.0131559335 0.019780325 -0.009386504 0.0059758844
000220 f7 5e 69 bc 73 62 c3 3c 1a af 6b 3c 6d ab 50 3d
       -0.014243833 0.023850655 0.014385009 0.050944734
000230 98 55 d9 3c ad 46 70 bc 8f 26 50 3c 4b dc c8 3a
       0.026530072 -0.014665288 0.012704506 0.0015324441
000240 08 7a 41 3d 9c ae 9d 3c e0 96 12 bc bd c5 1b 3d
       0.04723552 0.0192483 -0.008947104 0.038030375
000250 2d 54 21 3c 5a 4f b9 bb c0 2c b5 3c 86 be 67 3c
       0.009846729 -0.0056552114 0.022116065 0.014144545
000260 5c 8c 23 bd a1 f4 ab 3b 5a 4e e2 3b a4 f2 a5 ba
       -0.03992878 0.005247668 0.006906313 -0.0012660814
000270 1e 29 07 bd 2e 76 ed 3c 12 a9 0d bd dd 20 01 bd
       -0.032998197 0.028987017 -0.034585066 -0.03152548
000280 1e 1b 0b bc 34 3e 0f 3c db 82 35 3c 24 00 62 3c
       -0.008490352 0.008742858 0.011078562 0.013793979
000290 16 cc 21 3c 8b 78 23 3b 26 c9 33 3b 75 fc bd 3c
       0.009875318 0.0024943675 0.0027433126 0.02319167
0002a0 66 1f 0d bd 5c ce c9 bc 79 0e 85 3b 87 f8 c9 3c
       -0.034453772 -0.024634533 0.004060563 0.02465464
0002b0 be 7e 2e bc b3 56 05 bb 9f a0 d0 bb c4 aa 0f bd
       -0.010650335 -0.0020345866 -0.006366804 -0.035074964
0002c0 2f 17 78 bc 3d 78 1e bd 21 32 c7 bc 67 c2 2b bd
       -0.015142246 -0.038688887 -0.024315896 -0.041933443
0002d0 a3 66 ba 3b 21 32 34 3b 92 fe fe bc e4 89 e5 3b
       0.005688505 0.00274957 -0.031127248 0.0070049632
0002e0 ae 0b b8 bb 25 fb 9b 3c fe 54 34 bc f5 36 fb ba
       -0.0056166267 0.019040653 -0.011006592 -0.0019166159
0002f0 cb 31 98 bc 12 fa bc 3c 7d f1 b1 bb a3 83 c6 bc
       -0.01857843 0.023068462 -0.005430399 -0.024232691
000300 08 f0 8a bb 56 a3 a9 bc 60 b8 a2 bc 04 0a e4 3c
       -0.0042400397 -0.020707767 -0.019863307 0.027836807
000310 a4 d2 2f 3d ce 99 0b bd 1b 60 e2 bc 5d 1a ba bb
       0.042925492 -0.034082226 -0.027633717 -0.0056794123
000320 81 3d 26 3a 41 cf b7 3c 62 6c 13 3d 45 64 1e bb
       0.0006341562 0.022437694 0.035992034 -0.0024168652
000330 47 ca 2d 3b 99 ce 02 3d 85 74 4e 3b 53 38 47 bc
       0.0026518272 0.031935308 0.0031502557 -0.012159425
000340 8c b9 a5 bb ab cc 71 bc 7f cd 14 bc 3b f4 ed bb
       -0.0050575193 -0.014758269 -0.009082197 -0.0072617806
000350 34 11 fe 3c 08 05 20 bc f4 a1 e6 bc 6e d5 77 3c
       0.031014062 -0.009766825 -0.028153397 0.015126569
000360 96 77 e9 bc bc 6d f1 bc 55 44 a3 3b 39 48 f4 3a
       -0.028499406 -0.02947127 0.004982511 0.0018637247
000370 45 46 04 bc fb bb 1b 3d 8b d6 cd bb e0 95 e7 3a
       -0.008073394 0.03802107 -0.006281679 0.0017668568
000380 db 19 8d bc f5 2a a5 bc 20 34 a1 3c 64 a9 6d bc
       -0.017224243 -0.020162085 0.019678175 -0.014505718
000390 0f f4 cd bb 2c cb 35 3d e4 b2 a0 3b 53 00 e0 3c
       -0.0062851976 0.044383213 0.004904138 0.027343905
0003a0 4b 95 64 bc ab 71 45 bd 59 52 99 bb 39 a1 89 3c
       -0.01395161 -0.048204105 -0.004679006 0.01680051
0003b0 ee 98 ea 3c 76 c0 9b 3c a9 09 35 3d bf 49 c6 3c
       0.028637376 0.019012671 0.044198666 0.024205087
0003c0 46 8b 54 bb 82 93 fa 3b f3 2c ee bc 1f cf 61 3d
       -0.0032431646 0.007646979 -0.029074168 0.055129167
0003d0 95 f5 0f bd a3 aa cf bc dd 00 98 3b ef f4 97 3c
       -0.035146315 -0.02534992 0.004638775 0.01854941
0003e0 51 f6 cd ba a2 14 fe bb 8f 17 a5 bb 11 92 89 bc
       -0.0015713667 -0.0077539245 -0.005038209 -0.016793283
0003f0 24 6d be bc c6 b0 f0 3b 20 53 15 3d da 90 14 bd
       -0.023245402 0.007345292 0.036456227 -0.036270954

layer2.0.bias f4 [32]
000000 5f 60 8b bb 40 9e f1 bb 4e 47 19 bd bc be ed bc
       -0.0042534317 -0.007373601 -0.037421517 -0.029021613
000010 8e 28 45 bc a1 bf 7b bc ae 68 1e 3d 77 f9 f2 3c
       -0.012033595 -0.015365512 0.03867405 0.02965997
000020 f1 c9 4e bd b1 61 bc bc 16 9f b3 3c 72 9c 0c 3d
       -0.050485555 -0.022995802 0.021926444 0.034328885
000030 51 a9 69 bb a6 2e 8b bc e1 a5 08 3d 2e 86 6b 3d
       -0.00356539 -0.016990017 0.03336132 0.05750101
000040 4e 68 12 bc 58 51 15 3d 08 5d 4a bb b3 c6 ef 3c
       -0.008936001 0.03645453 -0.0030878205 0.029269552
000050 40 3a bc bb 9f d1 4d 3b 94 42 f4 3c f9 9a b2 bb
       -0.0057442486 0.0031405461 0.029816903 -0.005450603
000060 b4 da e6 bb 30 d0 a4 3c 9a 12 58 3b da 81 d9 3c
       -0.0070451144 0.020118803 0.0032970072 0.026551176
000070 e9 7c 0c 3d 42 8e bf 3a 34 e3 ac bc 54 7d da bc
       0.03429881 0.001461454 -0.021104433 -0.02667109

layer2.2.weight f4 [32]
000000 2e c2 7e 3f 66 a6 82 3f 97 8f 7a 3f 85 a2 80 3f
       0.99515045 1.0207031 0.9787535 1.0049597
000010 7c 46 78 3f 3d fc 7d 3f 82 e8 7e 3f c2 7b 7d 3f
       0.9698255 0.9921301 0.9957353 0.99016964
000020 13 2c 83 3f 2e 5a 7b 3f 46 01 7c 3f 43 10 7c 3f
       1.0247825 0.9818448 0.98439443 0.98462313
000030 01 39 80 3f 26 06 80 3f d7 23 7b 3f e8 4a 7d 3f
       1.0017396 1.0001876 0.9810156 0.9894242
000040 ca b7 7e 3f 1c e6 7a 3f b0 5f 80 3f 0e 6e 81 3f
       0.9949919 0.9800737 1.0029202 1.0111711
000050 f8 c7 82 3f 12 6d 75 3f 0b 02 81 3f 2e fc 84 3f
       1.0217276 0.95869553 1.0078748 1.0389459
000060 a3 24 7c 3f 8f 70 7c 3f e2 fe 7a 3f c1 7a 82 3f
       0.98493403 0.9860925 0.9804517 1.0193712
000070 38 2e 81 3f 8d 3c 7d 3f bd 3f 81 3f ae a3 81 3f
       1.009223 0.9892052 1.0097576 1.0128076

layer2.2.bias f4 [32]
000000 f9 ed 08 bd 1e ff 4b ba 4e d7 14 bd 01 c7 24 bc
       -0.033430073 -0.0007781851 -0.036338143 -0.010057212
000010 04 20 b1 bc 8e 3b 07 bd 07 6d 31 bc 30 bf 20 3c
       -0.021621712 -0.03301578 -0.010829217 0.009811208
000020 a6 7a ed bc b7 d0 86 bc ec f3 b0 bc 8f c6 89 bc
       -0.028989147 -0.016456945 -0.021600686 -0.016818313
000030 39 db 21 bd fe ed ad 3b ad d3 6b 3b 79 bb b7 bc
       -0.039515708 0.005307912 0.0035984323 -0.022428261
000040 66 9b af bc cf e6 a6 3b 1d 03 8f 3c ab 0b 76 bc
       -0.021436404 0.0050934325 0.01745754 -0.01501743
000050 88 7e 1b bd db 97 f6 bb b3 ba 9b 3b 44 23 a2 bc
       -0.037962466 -0.007525427 0.004752481 -0.019792207
000060 ab 12 b6 bc 98 30 6b bc c2 b2 01 3c 6b f7 93 3c
       -0.022225698 -0.014354847 0.007916154 0.018062314
000070 5d 63 44 3c 13 fa 16 3b 88 85 6e bc 1b f7 43 bd
       0.011986581 0.002303724 -0.0145582035 -0.04784308

layer2.2.running_mean f4 [32]
000000 04 5c 7c 3e 43 7e 11 3d 48 32 4e 3d 77 6b 13 3e
       0.24644476 0.035520803 0.05034092 0.14396463
000010 c6 f4 07 40 0d e4 2d 3e 9d 2b 70 3e ce e3 51 3e
       2.1243148 0.16981526 0.23454137 0.20497057
000020 3c c1 53 3d f5 8c 5a 3e f7 5d d2 3f 92 f7 18 3f
       0.051697955 0.21342833 1.6434926 0.5975276
000030 1e 71 6f 3d 66 1b 6d 3d a3 39 ce 3e 35 ee 03 3e
       0.058457486 0.057887457 0.40278348 0.12883838
000040 06 1c 29 40 b4 98 9d 3f 8a 34 39 3e 66 f1 87 3d
       2.6423354 1.2312226 0.18086448 0.0663784
000050 5d b9 06 3d ed 55 ee 3f ec 14 08 3e e1 e1 a9 3d
       0.03289162 1.8619972 0.13289231 0.08295036
000060 ce c6 e2 3e 26 3a 8f 3d 97 9c 90 3e 08 bc 82 3d
       0.442923 0.06993513 0.2824447 0.0638352
000070 d7 56 09 3e e7 1e 35 3e 0d 4d 81 3d 5e e4 88 3d
       0.13412033 0.1768757 0.063135244 0.066841826

layer2.2.running_var f4 [32]
000000 ff a7 bd 3e 95 88 b0 3c 82 0d 0e 3d f3 ce 4d 3e
       0.37042233 0.021549502 0.03468085 0.20098476
000010 4c 43 ce 40 6c 37 0b 3e 1e af bf 3e 26 04 99 3e
       6.445715 0.1359536 0.3743829 0.29885978
000020 7e a2 02 3d 64 cc 3e 3e 08 6b 7c 40 5a 70 c5 3f
       0.031893246 0.18632656 3.9440327 1.5424912
000030 ce 7f 96 3d c9 3c 74 3d fe d0 78 3f 3b 37 b7 3d
       0.073485956 0.05962828 0.97193897 0.08946081
000040 f3 eb a6 40 80 5f 12 40 10 ed 82 3e df 55 74 3d
       5.2163024 2.2870789 0.2557149 0.059652206
000050 8f 8d a0 3c 25 09 42 40 78 90 f6 3d bc 29 7e 3d
       0.01959875 3.0318081 0.12039274 0.06205152
000060 ab 3f 16 3f 9b 14 a1 3d f0 f9 13 3f 8f 4a 2e 3d
       0.586909 0.07865258 0.5780325 0.042551573
000070 48 c6 48 3e f3 75 0a 3e 96 57 87 3d 23 25 7b 3d
       0.19606888 0.13521557 0.066085026 0.061314713

layer3.0.weight f4 [64, 32, 7, 3, 3]
000000 13 04 bb bb b9 37 9e bb 60 8d 4e 3c de d9 2b 3c
       -0.005707273 -0.00482842 0.012606949 0.010488955
000010 4e 37 9d 3c b8 71 4c bb ad 8a a8 bc b3 d0 46 3c
       0.01919141 -0.0031195711 -0.020573938 0.012134719
000020 fb 80 2f bc 70 a0 87 bc 4b 9e b4 bc 25 ba 5f bc
       -0.010711904 -0.016555995 -0.022048136 -0.01365522
000030 65 89 90 3c 10 06 29 bc 2e f7 ca 3c c7 eb 1a bc
       0.01764364 -0.010316387 0.024776068 -0.009455628
000040 ee 80 c5 3c a7 4e 45 bc b0 80 8b bc a0 1f 6b 3c
       0.02410933 -0.012042678 -0.017029136 0.014350802
000050 53 5a f1 bc 55 8b a8 bc 70 65 e7 3b ca a8 d5 bb
       -0.029462015 -0.020574251 0.007061653 -0.0065203654
000060 50 aa 7c ba 73 42 13 3b c3 2f 56 3c de 76 50 bc
       -0.00096384156 0.0022470027 0.013072911 -0.012723653
000070 50 ac c2 3b 1e ee 1c 3c ee 94 82 bc 70 ae a1 bc
       0.0059409514 0.009578256 -0.015940156 -0.019736499
000080 36 3e 98 bc 58 48 16 bd 75 c1 21 3c 3c f6 c9 bb
       -0.018584352 -0.036690086 0.009872784 -0.0061633866
000090 a2 29 4f 3b 99 df 58 bb 46 a0 74 bc f1 3a d3 bc
       0.0031610508 -0.003309226 -0.01493079 -0.025784941
0000a0 ce 20 b5 3c c8 98 ee bc 74 64 f7 bc 0f e7 42 3c
       0.022110369 -0.029125586 -0.030199267 0.011895909
0000b0 c8 2d c5 bc 01 71 09 bc 2f 2b d7 bc 23 41 01 3c
       -0.024069682 -0.008388759 -0.026265709 0.007889065
0000c0 d7 2f 08 3c 3c 55 c3 bc ae da d7 bc 2d b9 38 3c
       0.008312187 -0.023844354 -0.026349392 0.011274618
0000d0 bf 60 d6 3b 5c 31 ac ba 5f 23 0b bc ef a7 b5 3b
       0.0065422948 -0.0013137269 -0.00849232 0.005543701
0000e0 9f 98 43 3c 8e e1 a2 b9 93 53 3e 3c 4c ee 45 bc
       0.011938243 -0.000310671 0.011616605 -0.01208074
0000f0 4d 30 38 bc da 13 0f 3d b2 10 70 bc 6c c0 fd bb
       -0.011241985 0.03493104 -0.014652418 -0.0077438857
000100 aa 75 1a 3c 32 56 d1 bc 51 a0 13 3c 1a 37 f8 3c
       0.009427467 -0.025553796 0.00901039 0.030299712
000110 9a f1 0a 3b e3 9b 0b bc 3b d9 7a bb 7e 52 35 bc
       0.0021201135 -0.008521053 -0.0038276452 -0.011067031
000120 7f 2b 8a 3c 49 fe 81 3c 1c 84 f0 3b 7d 33 90 bc
       0.016866444 0.015868323 0.0073399674 -0.017602677
000130 4e ff 66 bc 50 ad 91 bc 67 b1 33 bc 02 c0 5b 3c
       -0.014098955 -0.017782837 -0.010967589 0.013412477
000140 2a 85 03 bd 60 c7 28 bc f4 d2 83 bb 5f ee 02 3c
       -0.032109417 -0.010301441 -0.0040229503 0.007991402
000150 1d 8b 5b bc 31 c4 d7 ba a8 31 b6 bc 9a 28 76 39
       -0.013399866 -0.0016461668 -0.022240475 0.00023475513
000160 52 d3 83 3c f9 be 46 bc c1 9e 42 3c dd 1b d8 bb
       0.016091976 -0.012130492 0.01187867 -0.0065951184
000170 44 21 11 bc 86 de b7 bc fa 2e 09 3c 05 24 69 3c
       -0.008858029 -0.022444975 0.0083730165 0.014229779
000180 58 ee a2 bc 97 5a 85 39 dc 11 72 bc ca fa 68 3c
       -0.019889042 0.00025435232 -0.014774766 0.014219949
000190 9a ae d0 bc d2 ca 03 3b a2 00 86 bb 08 3a d3 bc
       -0.025473882 0.0020109904 -0.004089431 -0.025784507
0001a0 98 da ca bc 1a d6 3c bd b2 2b 0f 3c 64 70 af 3b
       -0.024762437 -0.04610262 0.008738445 0.005353974
0001b0 6b c8 a4 bc ee 19 5e 3b 8a 8c b0 3b 5b 47 16 3c
       -0.020115098 0.0033889967 0.0053878473 0.009172286
0001c0 b1 7c 03 bc 3f 67 a5 3c a0 c2 f9 bc f8 d0 2e 3c
       -0.008025334 0.020190833 -0.030488312 0.010669939
0001d0 33 cb 39 3d 26 c4 a6 3c b8 90 8d bc 77 7b ef 3b
       0.0453598 0.020357203 -0.017280921 0.0073084193
0001e0 65 b5 98 bc 20 9f c6 bc 51 35 a5 bc 9e a0 4f bb
       -0.018641183 -0.024245799 -0.020167025 -0.0031681429
0001f0 a5 10 11 bd 1e 2e 01 bc 67 76 06 bc 18 8a 00 3c
       -0.035416264 -0.00788453 -0.00820694 0.007845424
000200 72 f1 a5 bc 6b e6 d5 bb 36 5f 84 bc f6 6e c8 3c
       -0.020256732 -0.006527712 -0.016158681 0.024466973
000210 05 24 ca bc 36 e2 6a bc 45 7a cc bb bb b5 33 bc
       -0.024675379 -0.014336159 -0.0062401616 -0.010968621
000220 c1 17 db 3c 4b 41 96 3b f7 54 d9 bb a0 23 bd bc
       0.026744725 0.0045854202 -0.006632443 -0.023088276
000230 61 6d d7 bb 55 76 e5 bc 2c 9f b0 bc df 5b 86 3c
       -0.0065743183 -0.028010527 -0.021560274 0.01640123
000240 26 5d 90 3b 10 73 a8 bc 49 a3 bc bc 04 38 83 3b
       0.0044056354 -0.020562679 -0.02302708 0.0040044803
000250 2d 11 91 3c 41 84 bf 3c 4f f1 a4 3a 8d 27 89 3b
       0.017708385 0.023378493 0.0012584123 0.004185623
000260 6b bd 17 3d 50 c6 8a bc 6d f6 c1 3b 5c 52 8a 3b
       0.037045877 -0.016940266 0.005919269 0.004221244
000270 f1 88 a3 3a 94 4b af b9 14 fd e4 bb 48 0c 39 3c
       0.0012476725 -0.0003343491 -0.006988177 0.011294432
000280 17 a8 d4 3c 36 6e 26 3c 6b 57 8f bc a3 4c 5e bb
       0.025959058 0.010158112 -0.017497739 -0.003392019
000290 10 d2 2e bc 11 c6 6b bc 45 66 a9 bc c3 03 38 3c
       -0.0106702 -0.014390484 -0.020678649 0.011231366
0002a0 d9 93 90 bc a8 6e e3 bb 98 50 0e 3d 88 2b 01 bb
       -0.017648624 -0.0069406815 0.03474483 -0.0019709785
0002b0 4d 34 8a 3c b7 1b 47 bc a1 94 3b bb 31 74 9e bb
       0.016870642 -0.012152604 -0.0028622525 -0.0048356284
0002c0 1a 6a 89 3c 58 4a a7 bc 3b 02 83 3b 7b 13 8a 3c
       0.016774226 -0.020421192 0.0039980686 0.016854992
0002d0 3b 7a b4 3c 3b e3 75 bc 53 4c 94 bc 84 d1 61 bc
       0.02203094 -0.015007789 -0.0181028 -0.013782863
0002e0 9e 80 1f 3b 14 df 79 3c 45 1f 80 bc 16 34 18 3c
       0.0024338136 0.01525094 -0.01563991 0.009289762
0002f0 05 a4 38 3c db 34 7f bc 82 eb eb bc 96 29 56 bc
       0.011269574 -0.015576567 -0.028798822 -0.013071438
000300 95 9f b1 bc da 70 25 bc e8 80 15 3c 8c f4 05 3d
       -0.02168254 -0.010097707 0.009124972 0.03270392
000310 04 7c 23 bc e1 c7 52 3b 8c 75 b0 3b 63 d4 04 3a
       -0.009978298 0.0032162594 0.0053851064 0.00050670485
000320 eb b4 bb bc a8 51 76 3c 9f f7 cc 37 79 f5 b9 3c
       -0.022913417 0.015034117 2.4434003e-05 0.022700058
000330 65 fe c3 ba 24 73 c7 3b a9 9c 2a bc ee 8b e8 b9
       -0.0014953135 0.006086724 -0.010413327 -0.00044354744
000340 df 25 32 bc 47 04 03 bd 61 cc 89 3c 30 32 a2 bc
       -0.010873287 -0.0319865 0.016821088 -0.019799322
000350 ca b2 2d bc 3a 18 b3 bb 01 9b 79 3c 74 ff 4e 3b
       -0.010601709 -0.0054655345 0.01523471 0.0031585367
000360 f9 ea ca 3a 05 94 fe 3b 64 03 98 3b 10 a3 ab 3b
       0.0015481404 0.00776911 0.004639076 0.0052379444
000370 a7 df b7 3c f2 cc 93 bb 62 50 3e 3c 02 43 b6 3c
       0.022445513 -0.0045105154 0.011615844 0.022248749
000380 f3 d4 90 3b 44 b4 89 3c 32 d2 51 3c a0 c3 e9 bc
       0.004419917 0.01680959 0.012806462 -0.028535664
000390 2f ad 7c 3a 49 12 58 3c ce 6c a6 bb c1 a9 2f 3c
       0.00096388435 0.013187953 -0.0050788885 0.010721625
0003a0 b8 43 7a bc 08 9c da 3a 80 66 4a 3a 75 66 80 3b
       -0.0152749345 0.0016678581 0.0007720962 0.003918464
0003b0 43 da af bc e2 04 9c 3c 34 2f ac 39 e6 52 03 bd
       -0.02146638 0.019045297 0.00032841566 -0.03206148
0003c0 b0 66 92 3b eb 99 d1 bc 09 0f 4e bd 9d 1e 3d 3b
       0.0044678077 -0.02558609 -0.050307307 0.0028857358
0003d0 9e 5a a0 bc fe ea fe bc 8e bf 96 3c 37 2b c3 bc
       -0.01957446 -0.031117912 0.018401887 -0.023824317
0003e0 f0 1e ca bc 13 cc 4a bc e8 e6 7c bb 8a b7 e4 bc
       -0.024672955 -0.012377757 -0.003858978 -0.02791955
0003f0 d0 18 94 bb 3d 3f b8 3b 89 9b 44 bc 06 c3 39 bc
       -0.0045195594 0.005622773 -0.011999973 -0.011338001

layer3.0.bias f4 [64]
000000 76 47 e8 bb 73 5d 0d bc 20 99 97 bc 8b 90 38 bc
       -0.007088597 -0.008628237 -0.018505633 -0.0112649305
000010 4b 8d 2e 3c 77 a9 e2 ba 00 c3 00 3b 02 2e 20 bc
       0.010653804 -0.0017292936 0.001964748 -0.009776594
000020 c6 26 3b 3b b4 7f 00 3b eb 89 d0 bc 5d 14 8b 3c
       0.0028557046 0.0019607367 -0.02545639 0.016977483
000030 76 97 11 bc 1c 87 86 3c 68 99 00 bd a1 be a0 bc
       -0.008886209 0.016421847 -0.0313963 -0.019622149
000040 6f c9 2f bd d5 27 4a bc 34 54 0a bd 9e b9 e2 bb
       -0.04291671 -0.012338598 -0.03377171 -0.0069191
000050 74 e6 01 bd 38 05 ed bc ce d2 60 3c f5 f8 86 3c
       -0.031713918 -0.028933153 0.013722135 0.016476134
000060 89 23 7e 3b 9d e3 9d 3c 5e d7 89 bc 21 ff ff bb
       0.0038778505 0.019273574 -0.016826328 -0.007812396
000070 08 ea b2 3b 95 08 a9 bc 2b 4f a5 bb 38 fc f8 bc
       0.0054600276 -0.020633975 -0.005044838 -0.030393705
000080 3a c0 f1 bc 84 c3 18 bc 02 c6 2d 3c 3a 33 a2 3c
       -0.029510606 -0.009323958 0.010606291 0.019799817
000090 c9 d7 c2 bb 96 e0 8f 3c 89 80 e0 bc 4a 9a 8e 3c
       -0.0059461338 0.017563146 -0.02740504 0.017407555
0000a0 42 f5 36 bd 6c a4 59 3c 28 f0 cc bb 31 e8 b1 bb
       -0.04466749 0.01328383 -0.006254215 -0.0054292907
0000b0 ca 9b c1 bc 77 ec 60 3c 95 ad 2f bd 15 ba 10 3c
       -0.023633856 0.013728253 -0.04289015 0.008833428
0000c0 3f 4f 33 bc 3d 5a cf 3b c3 95 bb 3b ad f5 ad 3c
       -0.010944187 0.006327896 0.00572464 0.021235311
0000d0 88 98 6f bc b0 89 fd bc fb 8a cb bc 51 82 14 bd
       -0.014623769 -0.030949444 -0.024846544 -0.036257092
0000e0 dc f4 08 bd 75 db 87 bc e8 1e 33 bc 5c 2b 9e 3c
       -0.03343664 -0.016584137 -0.010932662 0.019307785
0000f0 6e e8 c0 bc ff 56 68 bc 56 22 e0 ba 62 62 ab bc
       -0.023548331 -0.014180898 -0.0017100077 -0.020920936

layer3.2.weight f4 [64]
000000 d4 f1 91 3f b3 32 8a 3f 9b 05 87 3f a0 f8 87 3f
       1.1401925 1.0796722 1.0548586 1.0622749
000010 13 43 89 3f 1a 03 92 3f 95 87 96 3f a9 0e 96 3f
       1.0723594 1.1407197 1.1760126 1.1723224
000020 15 f0 93 3f fa c9 82 3f 69 68 88 3f 6e 8a 85 3f
       1.1557642 1.0217888 1.0656863 1.043287
000030 a8 bc 9c 3f 1c 5b 91 3f 1f 30 87 3f 09 70 88 3f
       1.2245073 1.1355929 1.056156 1.065919
000040 37 c2 89 3f b0 34 90 3f 3f 98 96 3f 07 3e 91 3f
       1.0762395 1.1266079 1.1765212 1.1347054
000050 9d 1c 87 3f 29 df 85 3f 0f 60 90 3f f8 e2 8c 3f
       1.0555607 1.0458728 1.1279315 1.1006765
000060 2b 2a 83 3f e1 96 8b 3f 84 b2 8c 3f bd 49 81 3f
       1.0247244 1.090542 1.0991979 1.0100628
000070 b9 97 8c 3f 44 46 8b 3f 78 c4 89 3f d8 19 8e 3f
       1.0983802 1.0880818 1.0763083 1.1101637
000080 32 ce 8a 3f 8b 45 91 3f 8e fa 85 3f 55 59 8a 3f
       1.0844176 1.1349348 1.0467088 1.0808512
000090 82 d3 88 3f 2c 2d 8c 3f 20 d5 8d 3f 2d 0b 8b 3f
       1.0689547 1.0951285 1.1080666 1.0862786
0000a0 b1 7e 8b 3f a7 6f 94 3f d3 fc 87 3f f7 90 98 3f
       1.0898038 1.1596574 1.0624031 1.191924
0000b0 19 26 8c 3f 66 98 8e 3f b1 30 91 3f 9a 91 92 3f
       1.0949126 1.1140258 1.1342984 1.1450684
0000c0 18 94 98 3f 8b 30 85 3f 30 6f 83 3f a8 17 86 3f
       1.1920195 1.0405439 1.0268307 1.0475969
0000d0 a5 fe 8c 3f dd 1b 90 3f 8c 04 92 3f c1 8f 8e 3f
       1.1015211 1.1258503 1.1407638 1.113762
0000e0 fb e2 80 3f 16 60 80 3f a7 d8 94 3f 27 16 85 3f
       1.0069269 1.0029323 1.1628617 1.0397385
0000f0 8a 7c 92 3f 78 9c 8a 3f 8c 6e 8a 3f 3c 08 8c 3f
       1.1444256 1.0829 1.0814986 1.0940013

layer3.2.bias f4 [64]
000000 82 55 a6 38 8c 43 39 ba a4 0f 8d ba c7 64 d2 b9
       7.931424e-05 -0.0007067255 -0.0010762108 -0.00040129406
000010 8e 00 6b b9 fa 02 9c 37 2b ab 23 b9 ef 70 8b ba
       -0.00022411553 1.8598035e-05 -0.00015608656 -0.0010638515
000020 83 df e5 b8 8a b8 9f b9 85 bf bc b9 5e 88 2a b9
       -0.00010961203 -0.00030464336 -0.00036000847 -0.00016263264
000030 f3 5b 80 b8 72 43 31 b9 65 f6 af b9 be f8 64 ba
       -6.1206425e-05 -0.00016905161 -0.0003356218 -0.0008734575
000040 cd a9 0d ba 3d 74 2f ba b7 63 04 ba 8e 19 e7 38
       -0.00054040254 -0.0006693041 -0.0005050259 0.00011019698
000050 37 1a 82 ba 23 3a d9 b9 a8 89 37 37 49 86 a5 b8
       -0.0009926026 -0.0004143278 1.0939701e-05 -7.892826e-05
000060 85 84 b4 b9 cd ba 62 b9 e9 c9 06 ba a2 4e 37 b9
       -0.0003443101 -0.00021622628 -0.00051417813 -0.00017481533
000070 41 47 4a ba 14 ee 4d ba 81 80 4b ba 88 1f f0 b8
       -0.0007716306 -0.0007855606 -0.0007762984 -0.00011449965
000080 b5 f3 7f ba ac 5f 2c b9 54 80 21 ba 68 3a 1f 39
       -0.0009763793 -0.00016438839 -0.0006160785 0.0001518518
000090 5f b2 83 ba bf 9f 86 b8 a1 4a a3 b8 2e 66 7f b9
       -0.0010047666 -6.419373e-05 -7.7863464e-05 -0.0002435676
0000a0 fc 11 c1 ba ba f6 09 ba 43 ee e2 b9 31 b9 0e b7
       -0.0014730091 -0.00052629004 -0.00043283598 -8.506978e-06
0000b0 61 de 35 ba 0d 02 15 ba 32 7d 8d ba af 45 79 38
       -0.0006937739 -0.00056842045 -0.0010794757 5.9431124e-05
0000c0 83 f3 6c b9 d4 bf e5 b9 76 f4 41 39 9c ed 8e ba
       -0.00022597429 -0.00043821207 0.00018496983 -0.0010904553
0000d0 28 c2 4e ba b4 4e 57 ba 13 c0 fe 38 36 18 03 ba
       -0.0007887208 -0.0008213327 0.000121474404 -0.0005000861
0000e0 66 17 55 38 63 c3 ab b9 45 b4 be b9 a1 4f 45 b9
       5.080495e-05 -0.00032761236 -0.00036373935 -0.00018817048
0000f0 d5 e7 f9 b9 12 52 b1 b9 3e fd 7d ba 99 78 15 39
       -0.0004766571 -0.00033821218 -0.000968892 0.00014254673

layer3.2.running_mean f4 [64]
000000 5d 9f 2b 3c 8d 3f 96 3c 1d b3 00 3d 69 6b 50 3d
       0.010475007 0.01834085 0.031420816 0.050883684
000010 e1 0d 45 3c 6e e1 81 3c 69 8f 21 3c 47 ea 0f 3c
       0.012027235 0.015854564 0.009860852 0.008783883
000020 6c 7a 09 3d 96 d3 34 3e 63 ad b9 3e ec b1 ba 3d
       0.033564016 0.17658839 0.36265096 0.09115967
000030 c8 2c 07 3c c0 62 66 3d bc 68 3b 3d c4 c7 23 3d
       0.008250423 0.05624652 0.04575418 0.039985433
000040 04 00 00 00 c0 51 32 3d 1f 86 79 3c c4 68 7e 3c
       6e-45 0.043534994 0.015229731 0.015527908
000050 60 1d 54 3d d6 4b 7d 3d 51 88 1c 3c cd 98 9f 3c
       0.051785827 0.0618399 0.009553985 0.01948204
000060 fb d7 e6 3c fb eb 52 3c 41 74 58 3d 04 00 00 00
       0.02817916 0.012873645 0.052845243 6e-45
000070 25 12 76 3c 5d 4b fe 3c 6d 72 01 3d 04 00 00 00
       0.015018974 0.031041795 0.031603266 6e-45
000080 5c d3 b2 3c 38 eb 83 3c a6 49 23 3c cc 38 40 3c
       0.0218293 0.016103372 0.00996629 0.011732291
000090 fb ad ec 3c 43 66 17 3d 5e a6 71 3d 82 57 ab 3d
       0.028891554 0.03696276 0.05899655 0.083663
0000a0 4e f0 7e 3c b5 d3 24 3d 44 9a 74 3d fe 3d 95 3c
       0.015560223 0.040240962 0.05971743 0.018218037
0000b0 de 9d ac 3c 11 eb 34 3d 71 3a 6c 3c 7d 07 7e 3c
       0.02107137 0.04416949 0.01441823 0.015504715
0000c0 48 99 2b 3c b0 2f 9f 3d e8 3b 37 3c a8 97 0c 3d
       0.010473557 0.077727675 0.011183716 0.03432432
0000d0 97 14 3d 3d 03 cf a5 3c ac a5 59 3c 3f 0f 08 3d
       0.046162214 0.020240312 0.013284128 0.033217665
0000e0 04 00 00 00 3c 20 a6 3e b7 07 4a 3c c6 ce 29 3e
       6e-45 0.32446468 0.012330941 0.16582784
0000f0 04 00 00 00 9b 65 ce 3c c0 64 55 3c 68 d3 36 3d
       6e-45 0.025194934 0.013024509 0.044635206

layer3.2.running_var f4 [64]
000000 0f 72 7a 3c b7 f7 e8 3c 4a 8e 57 3d af 23 ae 3d
       0.015285983 0.028438432 0.05262593 0.085029
000010 bb 9d a8 3c c6 07 11 3d 57 86 64 3c d7 1d 42 3c
       0.020583024 0.035407804 0.013948045 0.011847935
000020 8e 31 b5 3d f8 f9 b6 3e 9f 46 79 3f 1d 8c 08 3f
       0.088473424 0.35737586 0.97373384 0.53338796
000030 cf 90 24 3c c1 72 d7 3e 35 8a b5 3d ec 63 b1 3d
       0.010044291 0.42079738 0.088642515 0.08661637
000040 04 00 00 00 47 2d 0b 3e 86 8c 0e 3d 84 87 ac 3c
       6e-45 0.1359149 0.034801982 0.021060713
000050 b9 53 80 3e 57 3a fb 3d 6e ff 5c 3c 40 de 3b 3d
       0.25063875 0.12266987 0.013488634 0.04586625
000060 fb be 13 3d 4a 3d c9 3c bd 95 e3 3d 04 00 00 00
       0.036070805 0.024565358 0.11112545 6e-45
000070 8a c1 e2 3c 3f 12 7e 3d 3a ec 40 3d 04 00 00 00
       0.027680177 0.06202912 0.047100283 6e-45
000080 6f 32 8a 3d 31 cb 0b 3d 93 21 54 3c 85 7a a4 3c
       0.06747901 0.034129325 0.012947458 0.020077953
000090 05 65 2b 3d af 42 af 3d c1 d4 e1 3d 78 60 86 3e
       0.041844387 0.08557641 0.11026908 0.26245475
0000a0 d5 03 00 3d be ce d1 3d 98 68 53 3e 2e 58 44 3d
       0.031253655 0.10244511 0.20645368 0.047935657
0000b0 f0 78 d7 3c 23 32 aa 3d d6 0a f9 3c ba 41 03 3d
       0.026302785 0.08310344 0.030400675 0.032045104
0000c0 d0 82 93 3c 63 3e 13 3e cc 48 18 3c 06 61 ba 3d
       0.018006712 0.14379267 0.0092947 0.09100537
0000d0 a4 90 e9 3d 45 a3 6b 3d 18 61 cf 3c c4 83 89 3d
       0.11404541 0.057528753 0.025314853 0.067145854
0000e0 04 00 00 00 b6 45 8e 3f 54 7c bf 3c 55 5b 81 3e
       6e-45 1.1115024 0.023374714 0.25264993
0000f0 04 00 00 00 37 c7 34 3d 95 55 b3 3c 6e 9c f2 3d
       6e-45 0.0441353 0.021891395 0.11846243

fc1.0.weight f4 [32, 1600]
000000 ea f5 43 3c 1f af bb 3c 8a a0 60 bc d0 c2 9b bc
       0.011960486 0.022910653 -0.0137101505 -0.019013792
000010 00 29 e2 ba ee 24 2e 3c a2 84 6f 3c 78 8e 9c bc
       -0.0017254651 0.010628922 0.0146190245 -0.019110903
000020 a3 cd a6 bc d5 53 b0 3c 9d 7d cc bc 04 22 f2 3b
       -0.020361727 0.02152435 -0.02496224 0.007389309
000030 80 63 e3 3a e1 91 90 3c 62 52 86 bc 00 cc fd 3a
       0.0017348379 0.017647685 -0.016396705 0.0019363165
000040 1e 53 51 3c 66 86 a3 bc e0 42 84 3a 8b 1a a6 3c
       0.012776164 -0.019961547 0.0010090731 0.020276329
000050 73 5d 77 bc 35 a6 9c 3c 50 30 2d 3b 70 db 4f bc
       -0.015097964 0.019122222 0.0026426502 -0.012686595
000060 01 c3 b7 3c 46 61 09 3c d6 05 07 3c e4 dc fb 3b
       0.022431852 0.008385008 0.0082411375 0.0076862443
000070 99 57 ab 3c bb 2b ba bc c0 a9 82 bc 40 76 c5 bb
       0.020915793 -0.02272593 -0.015950084 -0.0060260594
000080 e0 99 e9 bb 33 67 51 bc 40 46 9e bb 13 9e 8e 3c
       -0.007128939 -0.012780952 -0.004830152 0.01740936
000090 1a 40 66 3c cc 36 bc 3b 2b 8b 96 3c b0 de cc ba
       0.014053369 0.005743837 0.018376907 -0.0015630331
0000a0 fb d3 94 bc 9d 72 49 bc 22 2e 30 3c 0b 4b b0 bc
       -0.018167486 -0.012295392 0.010753186 -0.021520158
0000b0 63 60 9a bc 4c a4 86 3b 54 7e a2 bb 9d 60 8f 3c
       -0.018844789 0.004108941 -0.004958907 0.017502123
0000c0 60 db 7d 3a d3 f5 1b bc 82 09 a9 bc 50 43 0a bb
       0.00096838735 -0.009519058 -0.020634416 -0.002109725
0000d0 e1 03 a3 3c a6 c9 00 bc 58 fb a7 bc 1e c2 93 bc
       0.01989931 -0.007860577 -0.020505592 -0.018036898
0000e0 22 7d 75 3c 55 f2 85 bc d8 29 1e 3b ea f1 42 3c
       0.014983447 -0.016350904 0.0024133828 0.011898497
0000f0 bd 1c 44 bc 52 09 64 3c 00 fa d8 39 02 50 c6 bc
       -0.011969742 0.013918238 0.00041384995 -0.024208073
000100 91 86 ba 3c b4 12 9f 3b b0 f6 dd ba a8 e5 be bc
       0.022769244 0.0048545245 -0.001693448 -0.023302868
000110 63 f6 19 bc fa e5 21 bc 6d c9 c8 3c 97 95 bb bc
       -0.009397122 -0.009881491 0.02451011 -0.022898478
000120 10 a6 1e 3b 4c 9b 83 bb ec 0a e9 bb d8 e3 26 bb
       0.0024207868 -0.0040163156 -0.0071118977 -0.0025465395
000130 5d b5 99 bc 86 ff 0c 3c b5 fe 84 bc 3e de 15 3c
       -0.018763239 0.008605843 -0.016234735 0.009147225
000140 be 1b a5 bc 80 9f 97 bb a2 c9 74 3c 59 7a 9c 3c
       -0.02015483 -0.004627168 0.014940651 0.019101309
000150 92 09 b7 bc 50 11 f3 3a ee e4 48 3c 10 72 13 bb
       -0.02234343 0.0018544588 0.012261612 -0.0022498406
000160 ed 24 91 3c 2a d8 7c bc 06 54 10 3c b7 e2 34 bc
       0.017717803 -0.015432397 0.008809095 -0.011040381
000170 52 82 10 3c 82 03 6f 3c 55 ef b0 bc 98 b0 93 3b
       0.008820133 0.014588239 -0.021598497 0.0045071356
000180 60 c8 3a ba b5 0d 89 3c cc d4 f2 bb b4 d2 cb bb
       -0.0007125195 0.016730169 -0.0074106213 -0.006220186
000190 ae 2e 18 3c 4d bf 54 bc 7e b7 88 bc b5 7e be 3c
       0.009288473 -0.012985063 -0.016689058 0.023253778
0001a0 d4 26 cb 3b 50 b3 96 bc f4 22 f1 bb ea 7b ca bc
       0.006199697 -0.01839605 -0.007358903 -0.02471729
0001b0 ac 69 99 bb f0 a5 23 bb 81 2e 9b 3c 8e b6 9b bc
       -0.0046817865 -0.0024970733 0.018943073 -0.019007947
0001c0 50 c9 70 3b c6 33 2c 3c 24 f0 8b bc f6 c0 6f 3c
       0.0036741085 0.010510391 -0.017082281 0.014633408
0001d0 40 1d 81 b9 e2 44 31 3c f5 83 c7 3c 43 96 ba 3c
       -0.0002462659 0.010819646 0.024354914 0.022776728
0001e0 9b d5 c0 3c 33 dc ac bc 80 56 89 bc 80 e8 49 bb
       0.023539355 -0.021101093 -0.01676488 -0.0030808747
0001f0 ad 76 47 bc 20 19 98 3a c9 e3 8b 3c 0f 43 b9 3c
       -0.012174291 0.0011604168 0.01707639 0.022614984
000200 07 d9 3e bc 51 9b 8f 3c 39 8e ad 3c 2a 71 6b 3c
       -0.011648423 0.017530115 0.021185981 0.014370242
000210 13 4d b7 3c 08 28 cb bb d0 ee 7a bc ad 73 a6 3c
       0.022375619 -0.0061998405 -0.015315726 0.02031883
000220 8f 67 c7 bc 54 ef da 3b 87 7a be bc 83 bb 69 bc
       -0.024341373 0.006681362 -0.023251785 -0.014265898
000230 5b da b6 3c 8c 05 cd bb bf 00 89 3c bb 7e c0 3c
       0.022320917 -0.0062567648 0.016723989 0.02349793
000240 92 f8 71 3c ae b9 9a bc 54 52 b8 3b b4 d0 97 3b
       0.014768736 -0.018887367 0.0056250487 0.0046330336
000250 5d de 72 bc d9 6e c1 3c b1 55 ab 3c 18 8e 3b 3b
       -0.014823523 0.023612427 0.020914884 0.002861863
000260 1e 40 36 3c 4a 5b 0f 3c e2 f7 10 3c 94 3e 86 bc
       0.011123685 0.008749792 0.008848162 -0.016387261
000270 bc 3c e3 3b 94 eb 06 bc 57 a9 b5 3c 25 9a ab 3c
       0.0069347303 -0.008234877 0.022175474 0.020947525
000280 8c 24 16 bc 12 4f 4e 3c 13 d1 1c bc f7 65 cc 3c
       -0.009163987 0.012592094 -0.009571332 0.024950964
000290 c8 f0 b7 3b 6a 7e 80 bc 05 0a b5 bc c3 04 9d 3c
       0.00561342 -0.015685279 -0.022099504 0.01916731
0002a0 ad ba 7a bc e0 8a d7 ba 70 78 1c bc b0 4a 8b 3a
       -0.015303296 -0.0016444586 -0.009550199 0.0010627117
0002b0 cf a5 9f 3c 51 64 a0 3c 0a 65 37 3c 8e 5d 7d 3c
       0.019488243 0.019579085 0.011193523 0.0154642
0002c0 74 b2 b4 3b da 75 2b 3c e0 c1 8f bc 00 c0 2d 39
       0.0055144373 0.01046511 -0.017548501 0.00016570091
0002d0 00 f9 b8 3b c0 b2 58 bc 94 81 ec 3b e5 c8 cb 3c
       0.0056449175 -0.013226211 0.0072175954 0.024876067
0002e0 92 df 75 3c 40 a4 39 bc 85 95 8a bc 20 87 9a 3b
       0.015006917 -0.011330664 -0.016917 0.004715815
0002f0 50 47 55 bc 9f bf c3 3c 45 67 84 3c 34 80 d4 bb
       -0.0130174905 0.023895083 0.016162524 -0.0064850096
000300 c7 47 5f bc 86 a7 09 3c ae ad 93 bc a0 d9 51 ba
       -0.013627953 0.008401757 -0.018027153 -0.0008005146
000310 af 78 86 3c e2 da ca bc e1 10 af 3c 94 f9 a1 3b
       0.016414968 -0.024762575 0.021370353 0.004943082
000320 6c 73 fe 3b 9f 5c c0 bc 71 80 8c 3c 42 53 9d bc
       0.007765224 -0.023481665 0.01715109 -0.01920474
000330 15 e8 8e bc 00 f8 cb 39 14 3d c3 bb 6e 00 8f bc
       -0.01744465 0.00038903952 -0.005958209 -0.01745626
000340 02 61 90 bc 30 5b 4f 3b cd 61 af 3c 0f 04 bf bc
       -0.017624382 0.0031640045 0.02140894 -0.023317365
000350 38 0f 95 bb 4d 62 8f bc 3e 7b 4e 3c e3 cb 7b bc
       -0.0045489334 -0.017502928 0.012602625 -0.015368435
000360 c0 eb 96 bb 08 07 e4 bb 50 53 61 3b 4a bf b5 bc
       -0.0046057403 -0.006958846 0.0034381934 -0.02218594
000370 ec 20 af bb a8 34 5c 3b 67 3c 35 bc 27 bd 8e 3c
       -0.0053445008 0.0033600722 -0.011061764 0.01742418
000380 4a d2 6d bc 6c 3a c7 bb 92 e5 60 3c 05 db 99 3c
       -0.014515469 -0.0060799625 0.013726609 0.018781194
000390 fe 85 75 3c 10 3d 37 3b 4e b3 9d bc e0 5d 4a bc
       0.0149855595 0.002795998 -0.019250538 -0.012351483
0003a0 27 b9 99 3c e0 13 ca 3b 32 cf 5f 3c 68 62 50 bb
       0.018765045 0.00616692 0.013660239 -0.0031796936
0003b0 e5 59 c1 bc 99 80 99 3c cc 26 b5 3b 3a 08 28 bc
       -0.023602435 0.018738078 0.0055283066 -0.010255868
0003c0 c3 65 bb bc 32 6c 6d 3c 11 36 86 3c 64 41 f2 3b
       -0.022875672 0.014491128 0.016383203 0.007393049
0003d0 91 26 b5 3c ea d4 2d bc e8 51 33 bb 95 c8 9e 3c
       0.022113116 -0.010609845 -0.0027362052 0.019382754
0003e0 d2 50 21 3c 9b 01 a9 bc 27 80 be 3c 90 bd 02 bc
       0.009845929 -0.020630648 0.023254467 -0.007979766
0003f0 ba 5d 06 bc fc 64 dc 3b f3 cc 3b bc a0 28 21 ba
       -0.008201057 0.0067259055 -0.011462438 -0.0006147716

fc1.0.bias f4 [32]
000000 39 5c b3 3c 00 45 1b ba 20 fa 06 bc 36 60 8c bc
       0.021894561 -0.00059230626 -0.008238345 -0.01713572
000010 28 e9 f4 bb ec a5 e0 bb d2 22 8a bc 68 df d6 bb
       -0.0074740835 -0.006855717 -0.016862307 -0.006557394
000020 b4 8c a6 bb 08 3e 8f 3b 98 ed 92 3b 55 a2 8f bc
       -0.005082691 0.0043714084 0.00448389 -0.01753346
000030 4d 6b 2b bc cd 97 1f bc c0 30 ae bb 80 38 c6 bc
       -0.010462594 -0.009740782 -0.00531587 -0.024196863
000040 e3 c1 39 bc 30 5a 07 bb 10 c9 44 bb 15 11 a0 3c
       -0.01133773 -0.0020653121 -0.003002707 0.019539395
000050 88 a3 b3 bc e2 73 74 3c 05 eb af bc 88 71 89 bb
       -0.021928564 0.014920207 -0.02147437 -0.004194442
000060 80 43 ff bb d6 76 a6 bc de 6f 77 3c 3a 1b 23 3c
       -0.007790029 -0.020320337 0.015102355 0.009955222
000070 ad dc 35 bc 6a 66 16 bc 92 b1 38 3c b0 2a 67 bb
       -0.0110999765 -0.009179691 0.011272805 -0.0035273246
