FAST 3D-CNN P-NET/model/ZGFF/ZGFF_proto_2d-5shotband5.pth (torch, 468431 bytes, 24 tensors)

layer1.0.weight f4 [64, 5, 3, 3]
-0.005010476 0.091322154 0.115088366 -0.12313766 0.061042722 0.13579701 -0.046490945 -0.10978979
-0.15304403 -0.05963156 0.0021569245 0.024709517 0.0240542 0.031938028 -0.0048669744 -0.028069632
0.0832831 0.0010716035 -0.14475244 -0.115471326 0.15196645 -0.11300534 0.0053160647 0.13969865
-0.09141235 0.066133104 0.16981058 -0.117807984 0.01277138 -0.002421622 0.11260363 0.07581571
0.110017665 0.086160354 0.1369369 -0.028273476 -0.017387545 -0.015156015 -0.13053286 -0.11234128
0.05899033 0.09219226 -0.048384223 0.06239828 -0.12461778 -0.090367794 0.098782085 -0.14958434
-0.0033694154 0.043139152 0.087071575 -0.007421154 0.03003195 0.07788883 0.0612173 -0.0046614227
0.1360809 -0.06397339 -0.124467276 -0.056866698 0.120867684 0.01827583 -0.058533046 -0.08494619
0.078725286 -0.070112325 0.038792446 -0.022386856 0.008710672 -0.090218775 0.112025164 -0.010000101
0.12255504 0.11124494 -0.076142736 -0.009345797 0.08333235 -0.14721152 0.1264643 -0.12402684
0.11436744 0.018620301 -0.12421063 -0.076615654 -0.15032981 0.010377752 0.09207097 0.1377808
0.107563816 0.09139119 0.07435447 -0.06981403 0.06393421 0.046113566 -0.03819254 0.04383845
-0.012210538 0.080474526 0.13322702 -0.007446829 -0.041566614 -0.026324948 -0.0023425268 -0.08779219
0.00015125105 -0.009472209 -0.026531102 -0.06006348 0.087361366 0.17314012 0.17661133 -0.057642475
0.15214115 0.08327316 0.015745487 0.10750436 0.14555377 -0.0914692 -0.026850663 -0.07430435
0.006937853 -0.0013841016 -0.118026935 -0.08000963 -0.034951463 -0.058242243 0.026006605 -0.1466208
0.05475728 0.112999484 -0.16764191 -0.059732962 0.0131427245 0.0054637594 -0.08902793 -0.0016371725
-0.08123607 0.08220552 -0.11903029 0.117507674 0.050479036 0.11572599 -0.103660025 -0.043574583
-0.09687323 0.044074737 -0.09248735 -0.11640626 0.02170828 0.031316124 0.05728161 -0.06978296
-0.05823179 0.037417766 0.1611797 0.080892846 0.16508251 0.01065625 0.047322642 0.02080517
-0.13921031 0.02736202 0.023579914 0.09325647 -0.09005267 -0.033443987 0.023032397 0.08566473
0.07495413 -0.11830446 0.044790946 0.040027305 0.0797735 -0.09553912 0.052137822 0.13499743
0.057855263 -0.028611692 -0.14370118 -0.08844047 0.12770002 -0.048645888 -0.00531432 0.10373286
-0.13292731 0.08622202 0.12080093 -0.025758479 0.012769155 -0.036646876 0.09116988 0.0030111112
-0.08390767 -0.015333588 0.113784775 0.0033183831 -0.072996445 0.023980172 -0.074845806 -0.118040614
0.10547807 0.02980768 -0.024290608 0.14351398 -0.13419335 -0.17024195 0.11936294 0.07129972
0.08820137 0.051382337 0.10433553 -0.07535311 0.055350434 0.14336473 -0.018113552 -0.08445222
-0.1081642 -0.14795081 -0.05449303 0.042773463 -0.0063220887 -0.0071004196 -0.034026813 -0.08728118
-0.07518115 0.12475904 0.07335929 0.10192684 0.00057127705 -0.08217589 -0.096177064 0.09356122
0.10384524 -0.10113182 0.010072896 -0.011906658 -0.098464586 -0.12474876 0.057364102 -0.07743121
0.07192651 0.12234542 0.135456 0.08122 -0.14747663 -0.011430561 -0.11553785 0.053450923
-0.08074231 0.012421476 0.059694495 0.019353645 0.06277481 0.02114292 -0.04580211 -0.13975243
00000000: eb2e a4bb 1c07 bb3d 73b3 eb3d 992f fcbd
00000010: ef07 7a3d 5f0e 0b3e 4a6d 3ebd 78d9 e0bd
00000020: 93b7 1cbe 3940 74bd 305b 0d3b 9d6b ca3c
00000030: 500d c53c 73d1 023d 247b 9fbb 49f2 e5bc
00000040: 5490 aa3d 0c75 8c3a fc39 14be 3b7c ecbd
00000050: 189d 1b3e 586f e7bd 6232 ae3b 2a0d 0f3e
00000060: 6636 bbbd cb70 873d d3e2 2d3e 5045 f1bd
00000070: 0d3f 513c 13b4 1ebb bb9c e63d 4445 9b3d
00000080: f150 e13d d774 b03d 3039 0c3e c79d e7bc
00000090: 5370 8ebc ef50 78bc 68aa 05be 2f13 e6bd
000000a0: d89f 713d 4ccf bc3d 892e 46bd 5795 7f3d
000000b0: 9b37 ffbd c012 b9bd 434e ca3d a32c 19be
000000c0: 69d1 5cbb aeb2 303d 9552 b23d 272d f3bb
000000d0: 9005 f63c 2e84 9f3d febe 7a3d d9be 98bb
000000e0: cb58 0b3e 7b04 83bd b3e8 febd 0eed 68bd
000000f0: 7a89 f73d 32b7 953c 59c0 6fbd 45f8 adbd
00000100: b93a a13d 0d97 8fbd d4e4 1e3d a464 b7bc
00000110: 35b7 0e3c 9fc4 b8bd 736d e53d 77d7 23bc
00000120: 23fe fa3d 63d4 e33d b9f0 9bbd 1d1f 19bc
00000130: 27aa aa3d 9ebe 16be dc7f 013e c901 febd
00000140: 7a39 ea3d 9a89 983c 2562 febd abe8 9cbd
00000150: 0ff0 19be 7207 2a3c b48f bc3d 6916 0d3e
00000160: 6b4a dc3d 4e2b bb3d 2847 983d a8fa 8ebd
00000170: f0ef 823d 94e1 3c3d c86f 1cbd f28f 333d
00000180: b50e 48bc d4cf a43d aa6c 083e 8804 f4bb
00000190: c141 2abd 6ba7 d7bc 1485 19bb 64cc b3bd
000001a0: 2599 1e39 5331 1bbc c157 d9bc 2005 76bd
000001b0: 84ea b23d a54b 313e 9ad9 343e 841a 6cbd
000001c0: e4ca 1b3e 1e8b aa3d aefc 803c 3f2b dc3d
000001d0: 0c0c 153e 3454 bbbd ecf5 dbbc e12c 98bd
000001e0: ee56 e33b be6a b5ba 1bb8 f1bd 17dc a3bd
000001f0: 4429 0fbd 6b8f 6ebd ce0b d53c c323 16be
00000200: 2b49 603d 466c e73d 52aa 2bbe 8daa 74bd
00000210: 9554 573c 5609 b33b 4654 b6bd 6596 d6ba
00000220: 195f a6bd 5e5b a83d 27c6 f3bd dda7 f03d
00000230: 1bc3 4e3d bf01 ed3d b54b d4bd 437b 32bd
00000240: 7965 c6bd b687 343d 026a bdbd 6866 eebd
00000250: 90d5 b13c 5645 003d 1fa0 6a3d 5eea 8ebd
00000260: 7584 6ebd 5f43 193d 4b0c 253e 26ab a53d
00000270: 640b 293e 8d97 2e3c 63d5 413d 9b6f aa3c
00000280: 268d 0ebe 5126 e03c aa2a c13c 40fd be3d
00000290: 896d b8bd 90fc 08bd 70ae bc3c fd70 af3d
000002a0: 8d81 993d 9c49 f2bd b676 373d acf3 233d
000002b0: 4a60 a33d 04aa c3bd 788e 553d c43c 0a3e
000002c0: a4f9 6c3d 1163 eabc 6726 13be 4720 b5bd
000002d0: cbc3 023e e940 47bd bf23 aebb e571 d43d
000002e0: 191e 08be 2c95 b03d 7a66 f73d 7203 d3bc
000002f0: b835 513c 091b 16bd 46b7 ba3d 1056 453b
00000300: c9d7 abbd bb39 7bbc fe07 e93d 3b79 593b
00000310: 297f 95bd 1172 c43c c248 99bd 47bf f1bd
00000320: e304 d83d 3c2f f43c 19fd c6bc 54f5 123e
00000330: fb69 09be e853 2ebe 8f74 f43d 9605 923d
00000340: eba2 b43d 4976 523d dead d53d bb52 9abd
00000350: 23b7 623d 34ce 123e df62 94bc 49f5 acbd
00000360: 3185 ddbd 6b80 17be 1534 5fbd 3a33 2f3d
00000370: 8629 cfbb a3aa e8bb b35f 0bbd 7ac0 b2bd
00000380: 93f8 99bd ab81 ff3d 653d 963d 05bf d03d
00000390: c1c1 153a d54b a8bd 7bf8 c4bd 069d bf3d
000003a0: d0ac d43d 331e cfbd ca08 253c 2514 43bc
000003b0: cda7 c9bd 477c ffbd 9ff6 6a3d 4194 9ebd
000003c0: 354e 933d 3c90 fa3d fab4 0a3e ac56 a63d
000003d0: 1d04 17be 3f47 3bbc 1c9f ecbd 5bef 5a3d
000003e0: 395c a5bd 7283 4b3c 3782 743d 898b 9e3c
000003f0: 1490 803d eb33 ad3c fe9a 3bbd 431b 0fbe

layer1.0.bias f4 [64]
0.6073063 0.6776429 0.6242131 0.6628824 0.7333947 0.73227954 0.6172603 0.81916416
0.6943159 0.5689561 0.5489968 0.7911986 0.6983238 0.7009519 0.4137039 0.62063086
0.67061704 0.7141823 0.5287951 0.67981404 0.7230866 0.6191986 0.4770294 0.84286267
0.68266034 0.71735543 0.8279639 0.6011715 0.65328425 0.6338024 0.5831554 0.5803822
0.506099 0.5451966 0.8133692 0.54049736 0.58279824 0.514438 0.70089537 0.67142284
0.6317073 0.6681105 0.5552227 0.5993337 0.6164923 0.7287063 0.62220466 0.74618196
0.5934133 0.7127424 0.57426345 0.49213403 0.82588387 0.81987756 0.6963577 0.7850831
0.705928 0.78558785 0.84242904 0.44402075 0.8632561 0.66018075 0.6351691 0.53142434
00000000: 6d78 1b3f 017a 2d3f 6ecc 1f3f a9b2 293f
00000010: c1bf 3b3f ac76 3b3f c504 1e3f beb4 513f
00000020: b0be 313f 1ba7 113f 0e8b 0c3f fe8b 4a3f
00000030: 59c5 323f 9571 333f ffd0 d33e aae1 1e3f
00000040: 8fad 2b3f a7d4 363f 1e5f 073f 4b08 2e3f
00000050: 341c 393f cd83 1e3f 333d f43e d9c5 573f
00000060: d4c2 2e3f 9ba4 373f 71f5 533f 60e6 193f
00000070: a33d 273f e040 223f ac49 153f ee93 143f
00000080: b48f 013f 0192 0b3f f738 503f 095e 0a3f
00000090: 4432 153f 35b2 033f e16d 333f 5ee2 2b3f
000000a0: 92b7 213f 4a09 2b3f 1323 0e3f ef6d 193f
000000b0: 70d2 1d3f 7f8c 3a3f ce48 1f3f c805 3f3f
000000c0: efe9 173f 4976 363f ee02 133f fef8 fb3e
000000d0: 206d 533f 7fe3 513f 8044 323f 35fb 483f
000000e0: b3b7 343f 491c 493f 6ea9 573f b056 e33e
000000f0: 5afe 5c3f 9b01 293f 719a 223f 6d0b 083f

layer1.1.weight f4 [64]
1.0011868 0.9786599 1.0172179 1.0082175 0.99552256 0.9569563 0.99432236 1.0114774
0.98250103 0.9866254 0.9800978 0.9927702 0.96019256 0.98065805 1.0415154 0.973309
0.9804958 1.0104202 0.99292636 1.0278133 1.0181425 0.9671199 1.0064651 0.98379534
1.0182798 0.99650836 0.98207 1.0194664 1.0045841 0.98362106 1.0018127 0.9702778
0.9670075 1.009436 0.9921427 1.0046262 0.98654824 1.0061656 1.0068899 0.98479867
1.0043669 1.0144109 0.9783078 0.9864017 0.99814725 0.9950939 1.0062666 0.9909742
1.0213844 0.9917236 0.992177 1.0015231 1.0144699 0.99058014 1.0062895 1.0095562
1.0194792 1.0385863 1.0233303 0.99868023 0.9912067 0.9992299 0.98293513 0.99919873
00000000: e426 803f 7589 7a3f 3234 823f 450d 813f
00000010: 91da 7e3f 17fb 743f e98b 7e3f 1778 813f
00000020: 3085 7b3f 7b93 7c3f b0e7 7a3f 3026 7e3f
00000030: 2ecf 753f 680c 7b3f 6050 853f c72a 793f
00000040: c601 7b3f 7355 813f 6c30 7e3f 638f 833f
00000050: 7e52 823f 2b95 773f d9d3 803f 03da 7b3f
00000060: fe56 823f 2c1b 7f3f f168 7b3f e07d 823f
00000070: 3696 803f 97ce 7b3f 663b 803f 2064 783f
00000080: ce8d 773f 3335 813f 10fd 7d3f 9797 803f
00000090: 6d8e 7c3f 09ca 803f c5e1 803f c41b 7c3f
000000a0: 188f 803f 37d8 813f 6172 7a3f d284 7c3f
000000b0: 9486 7f3f 79be 7e3f 58cd 803f 7cb0 7d3f
000000c0: b9bc 823f 99e1 7d3f 50ff 7d3f e931 803f
000000d0: 26da 813f a996 7d3f 18ce 803f 2339 813f
000000e0: 4b7e 823f 65f0 843f 7dfc 823f 82a9 7f3f
000000f0: b9bf 7d3f 88cd 7f3f a3a1 7b3f 7dcb 7f3f

layer1.1.bias f4 [64]
-0.04781834 -0.0038449252 -0.049333468 -0.00060618605 -0.053092618 0.012992651 -0.016773336 -0.010152582
-0.007927586 -0.015960924 -0.07559332 -0.005052414 -0.00986769 -0.024665028 -0.103195086 0.025666075
-0.07206281 -0.027136939 -0.030768739 -0.06285556 -0.011313944 -0.005676813 -0.061261695 -0.034618687
-0.09225448 0.0120523125 -0.018502599 -0.099840984 -0.043736897 -0.0007170634 -0.03670808 0.006151061
0.0025368354 -0.054456234 -0.059519418 -0.022894043 -0.018634439 -0.026119895 -0.027901113 -0.0064970963
-0.04184467 -0.0009823245 -0.037516177 0.003522963 -0.052979823 -0.034109697 -0.106855236 -0.07499746
-0.0940046 -0.031642333 -0.017078461 -0.08958561 -0.039015487 -0.02846418 -0.071855634 0.028248005
-0.065345794 -0.08411713 -0.07811539 -0.06547259 -0.07729017 0.015955394 0.03744273 -0.060606785
00000000: 2add 43bd 24fb 7bbb e411 4abd 75e8 1eba
00000010: a577 59bd 21df 543c 3c68 89bc 0457 26bc
00000020: b5e2 01bc 7cc0 82bc acd0 9abd b88e a5bb
00000030: 17ac 21bc 500e cabc f257 d3bd a941 d23c
00000040: ab95 93bd 494e debc b90e fcbc 6aba 80bd
00000050: 1f5e 39bc 8f04 babb 8bed 7abd 53cc 0dbd
00000060: ebef bcbd 1077 453c c392 97bc 6e79 ccbd
00000070: 7625 33bd 4ff9 3bba 365b 16bd d78e c93b
00000080: 0941 263b 800d 5fbd a2ca 73bd 4a8c bbbc
00000090: 40a7 98bc 64f9 d5bc e090 e4bc 98e5 d4bb
000000a0: 5165 2bbd 57c1 80ba 90aa 19bd 83e1 663b
000000b0: 5f01 59bd 9cb6 0bbd ebd6 dabd 4598 99bd
000000c0: 7c85 c0bd 649b 01bd 21e8 8bbc a978 b7bd
000000d0: b4ce 1fbd b62d e9bc 0c29 93bd 5c68 e73c
000000e0: 04d4 85bd 9a45 acbd f6fa 9fbd 7e16 86bd
000000f0: 4f4a 9ebd e3b4 823c 8c5d 193d d23e 78bd

layer1.1.running_mean f4 [64]
0.6686177 0.7902102 0.62423545 0.75432044 0.71121854 0.79415745 0.81271696 0.78011733
0.71582055 0.61553806 0.56845886 0.85469145 0.88396245 0.67336863 -0.1217651 0.85670143
0.71699804 0.70889056 0.7269758 0.5857832 0.6857003 0.5922947 0.28945154 0.79387826
0.610393 0.7406038 0.83347386 0.11906666 0.41807023 0.5167352 0.4106368 0.91661406
0.67975855 0.4969423 0.62041736 0.51318914 0.6198569 0.4654214 0.7004923 0.6058774
0.62359476 0.7394742 0.70293266 0.5966218 0.592078 0.73795384 0.1514969 0.7761091
0.16904022 0.8000542 0.6052751 0.061462674 0.8484241 0.78887814 0.6553773 0.75896066
0.6127971 0.5263709 0.6752401 0.34272212 0.79811746 0.7369375 0.86198735 0.5277897
00000000: 882a 2b3f 374b 4a3f e5cd 1f3f 251b 413f
00000010: 6b12 363f e74d 4b3f 380e 503f c5b5 473f
00000020: 0440 373f e793 1d3f 8586 113f 0fcd 5a3f
00000030: 5d4b 623f e361 2c3f fb5f f9bd c950 5b3f
00000040: 2f8d 373f da79 353f 161b 3a3f e3f5 153f
00000050: 0e8a 2f3f a0a0 173f fe32 943e 9b3b 4b3f
00000060: b742 1c3f 3698 3d3f 8b5e 553f 39d9 f33d
00000070: 4d0d d63e c248 043f fd3e d23e 38a7 6a3f
00000080: a804 2e3f 396f fe3e acd3 1e3f 5d60 033f
00000090: f1ae 1e3f b74b ee3e 7753 333f c81a 1b3f
000000a0: e8a3 1f3f 2e4e 3d3f 65f3 333f 35bc 183f
000000b0: 6c92 173f 8bea 3c3f 0122 1b3e 16af 463f
000000c0: e118 2d3e 5ad0 4c3f 4ff3 1a3f 49c0 7b3d
000000d0: 5232 593f ebf3 493f cfc6 273f 3f4b 423f
000000e0: 45e0 1c3f 3ec0 063f 89dc 2c3f 4679 af3e
000000f0: 6d51 4c3f f0a7 3c3f 34ab 5c3f 3a1d 073f

layer1.1.running_var f4 [64]
0.27701157 0.44581795 0.64679897 0.2091511 0.20326854 0.2676601 0.6360161 0.099017866
0.16748984 0.47291812 0.44468454 0.13367896 0.69252014 0.36917773 7.2861476 1.9678546
0.20937242 0.074840024 0.72309 0.26285505 0.21233442 0.19177201 1.3950024 0.12605028
0.21202818 0.13509932 0.19078404 5.5670543 0.9487134 0.2435678 0.56798446 2.0481968
1.5928031 0.1883915 0.50989807 0.16369782 0.09887184 0.46709555 0.051038794 0.2399982
0.16100088 0.15679896 0.3218747 0.076050244 0.22390205 0.3024296 4.837872 0.6290502
4.13635 0.32826307 0.123336315 3.5906224 0.089909524 0.13378023 0.39087668 0.05425089
0.42158067 1.382838 0.72201353 0.7553447 0.17457788 0.29993874 1.3570005 0.48514074
00000000: 76d4 8d3e 4042 e43e 9e94 253f b52b 563e
00000010: a125 503e bf0a 893e f3d1 223f e1c9 ca3d
00000020: 7582 2b3e 5322 f23e b1ad e33e 23e3 083e
00000030: 0049 313f dd04 bd3e 1f28 e940 a9e2 fb3f
00000040: b965 563e ba45 993d 6d1c 393f f094 863e
00000050: 326e 593e e25f 443e 708f b23f 5313 013e
00000060: ea1d 593e 7a57 0a3e e45c 433e 4f25 b240
00000070: e2de 723f d669 793e 6e67 113f a815 0340
00000080: f9e0 cb3f b4e9 403e ae88 023f 67a0 273e
00000090: 527d ca3d 2627 ef3e 0e0e 513d 17c2 753e
000000a0: 6add 243e e88f 203e c3cc a43e 3bc0 9b3d
000000b0: 9446 653e 0dd8 9a3e d9cf 9a40 6f09 213f
000000c0: fb5c 8440 1912 a83e c097 fc3d c2cc 6540
000000d0: 7c22 b83d affd 083e fd20 c83e 2e36 5e3d
000000e0: 6cd9 d73e d600 b13f e1d5 383f 455e 413f
000000f0: 8bc4 323e 9291 993e 31b2 ad3f 5e64 f83e

layer2.0.weight f4 [64, 64, 3, 3]
-0.022219531 0.018425314 0.008861198 0.00213206 -0.009471641 0.04479947 -0.024281753 -0.025424244
-0.0070680846 -0.0142277535 0.019580027 0.029767815 -0.050048675 0.01189826 0.0015494368 -0.026008096
-0.04683498 -0.0020823935 0.024252448 -0.00010106433 0.01812157 0.015535249 0.017235445 -0.0113128545
-0.02018301 -0.01661684 -0.04285811 -0.046042778 0.036214933 0.041487623 0.024098266 -0.04293723
0.003312756 0.0073586293 0.0060954215 -0.015763566 -0.010702955 -0.0007047815 -0.010675784 0.022440363
-0.00018738722 0.032979395 0.008067312 -0.058201954 0.0097201625 -0.001426578 -0.03432053 -0.024501443
0.0059779244 -0.010202235 -0.024356034 0.005402526 -0.0059328745 -0.0087175565 -0.046112776 0.019791132
-0.028978672 -0.008600128 -0.02248803 0.001350663 0.004505646 -0.030384354 -0.033757005 -0.010194021
0.01642061 -0.012577613 0.013630909 0.04011793 -0.013004839 -0.03165243 -0.02828522 0.05087937
-0.02928124 -0.040859148 -0.016140312 -0.032236673 -9.004671e-06 -0.06263961 -0.04222757 0.019253828
-0.032835744 -0.017448789 -0.0009677879 0.0033127028 -0.02405814 -0.04019428 -0.029735202 -0.008585675
0.023276398 -0.042960554 -0.028380793 -0.03521747 0.04721398 0.00740406 0.024050951 0.037056867
0.011136668 -0.018979695 -0.040019434 -0.023590112 0.007510629 0.01798838 0.028049415 -0.012576739
0.019236688 0.017758569 0.035187386 -0.03403064 0.018061811 0.021452226 -0.028703919 0.004911293
0.023947839 0.028870046 0.030381996 -0.009146598 0.03657228 -0.035640527 0.03147222 0.009381836
-0.037988033 -0.0072187986 0.039777428 0.03303338 -0.025885126 0.026966132 -0.03053345 0.029760994
-0.034799695 -0.006835464 0.008514769 0.0027007784 -0.027537996 0.016239788 0.012862047 0.035996832
0.012198584 -0.0010728225 -0.02974881 0.00078544137 -0.031960238 0.03423312 -0.03516926 -0.0020586078
-0.0559798 -0.02447764 -0.023593573 0.014509887 0.00075485127 0.017631559 -0.03766286 0.0077990396
-0.001023619 0.012381619 0.009664634 0.01759188 -0.049195237 0.053696994 -0.05730036 -0.03024751
0.008652593 -0.033486284 0.022746472 -0.040290426 0.011460854 -0.040345307 -0.012494631 0.037902713
0.006470517 -0.0363387 0.011702299 0.00923969 -0.018984115 0.007868078 0.01567854 -0.021713136
0.023779504 0.0075092516 0.04728267 -0.002088043 -0.044180598 -0.032079022 -0.045406938 -0.050975945
-0.020215303 -0.024558619 -0.039323486 -0.010008942 -0.03631749 0.0046361154 -0.030004073 0.019066565
-0.01007241 0.02099748 -0.03225469 0.013255974 -0.0024794585 0.015484498 -0.04713898 0.00040782677
-0.0044187843 0.008378195 -0.02805769 0.019517973 0.042128064 -0.012713991 -0.012509886 0.01962224
0.0478707 -0.043076664 -0.02745322 0.009909998 -0.024768718 0.03347041 0.02192925 -0.017617987
-0.013553847 -0.04499264 -0.035061084 -0.022879358 0.01911788 0.0016043313 -0.0045885025 0.013981403
0.03760401 0.02849632 0.0030602752 -0.018199237 0.013114212 -0.017980354 -0.025662357 -0.023192478
-0.019515315 -0.035564933 0.018725883 -0.022444036 -0.021933008 -0.01916617 -0.02190883 0.014912961
-0.003553287 -0.04154735 -0.04976708 -0.017828913 0.0105373375 -0.010839817 -0.00065144344 -0.03651492
-0.030914145 0.017314661 -0.0099037485 -0.0076163756 -0.050908983 0.03866438 -0.011029551 -0.019997148
00000000: bc05 b6bc aff0 963c 8f2e 113c 08ba 0b3b
00000010: f12e 1bbc a67f 373d 87ea c6bc 8146 d0bc
00000020: 649b e7bb 861b 69bc 4b66 a03c a2db f33c
00000030: d7ff 4cbd ebf0 423c 7916 cb3a ee0e d5bc
00000040: 09d6 3fbd c478 08bb 12ad c63c 80f2 d3b8
00000050: b073 943c 8f87 7e3c 5931 8d3c 8d59 39bc
00000060: d756 a5bc 0a20 88bc fc8b 2fbd 5a97 3cbd
00000070: 1c56 143d edee 293d ba69 c53c f3de 2fbd
00000080: d31a 593b a820 f13b 1abc c73b 9822 81bc
00000090: 725b 2fbc 16c1 38ba 7ce9 2ebc dad4 b73c
000000a0: 607d 44b9 6715 073d c22c 043c 2c65 6ebd
000000b0: 5141 1f3c 04fc baba af93 0cbd 40b7 c8bc
000000c0: 77e2 c33b 4627 27bc 4e86 c7bc ac07 b13b
000000d0: 8f68 c2bb 15d4 0ebc c0e0 3cbd 0321 a23c
000000e0: ae64 edbc 8de7 0cbc d138 b8bc bb08 b13a
000000f0: 19a4 933b 9ce8 f8bc c944 0abd d304 27bc
00000100: 8484 863c 5512 4ebc 2d54 5f3c b352 243d
00000110: 4012 55bc faa5 01bd 68b6 e7bc e366 503d
00000120: 36df efbc ec5b 27bd b038 84bc 9a0a 04bd
00000130: c412 17b7 3249 80bd d1f6 2cbd 34ba 9d3c
00000140: c67e 06bd c3f0 8ebc 26b3 7dba ee19 593b
00000150: 9415 c5bc c2a2 24bd 3d97 f3bc eeaa 0cbc
00000160: 25ae be3c 68f7 2fbd d67e e8bc 3240 10bd
00000170: 7263 413d c29d f23b 8006 c53c f1c8 173d
00000180: 9276 363c 4e7b 9bbc 6beb 23bd 0d40 c1bc
00000190: b91b f63b 5e5c 933c e3c7 e53c ab0e 4ebc
000001a0: 4296 9d3c 6b7a 913c a620 103d b663 0bbd
000001b0: 5df6 933c 94bc af3c 7b24 ebbc e9ee a03b
000001c0: 422e c43c e080 ec3c aae3 f83c 9ddb 15bc
000001d0: d1cc 153d cdfb 11bd 04e9 003d 46b6 193c
000001e0: 5799 1bbd ac8b ecbb a8ed 223d 024e 073d
000001f0: 0b0d d4bc 14e8 dc3c 4921 fabc 54cd f33c
00000200: 208a 0ebd 07fc dfbb 8881 0b3c 8bff 303b
00000210: 5d97 e1bc 4e09 853c 56bb 523c 6a71 133d
00000220: 92dc 473c f39d 8cba c7b3 f3bc 14e6 4d3a
00000230: bde8 02bd 0738 0c3d a40d 10bd b5e9 06bb
00000240: 134b 65bd 5585 c8bc 4f47 c1bc e1ba 6d3c
00000250: 36e1 453a 0f70 903c 5f44 1abd 168f ff3b
00000260: f42a 86ba 46dc 4a3c 6a58 1e3c d91c 903c
00000270: f280 49bd 61f1 5b3d c8b3 6abd a0c9 f7bc
00000280: 9bc3 0d3c ea28 09bd cf56 ba3c 9307 25bd
00000290: 4ec6 3b3c 1f41 25bd 48b6 4cbc e03f 1b3d
000002a0: a106 d43b e4d7 14bd 00bb 3f3c 1262 173c
000002b0: 9384 9bbc 1ce9 003c 4870 803c bfdf b1bc
000002c0: 3ccd c23c 2b10 f63b 79ab 413d 8cd7 08bb
000002d0: b7f6 34bd 4b65 03bd a0fc 39bd 27cc 50bd
000002e0: 909a a5bc 282f c9bc aa11 21bd 8cfc 23bc
000002f0: a6c1 14bd 8eea 973b 1acb f5bc 7c31 9c3c
00000300: c006 25bc e802 ac3c 7e1d 04bd 962f 593c
00000310: 697e 22bb b1b2 7d3c ce14 41bd 95d1 d539
00000320: 73cb 90bb b244 093c 3ed9 e5bc 28e4 9f3c
00000330: 7a8e 2c3d 584e 50bc 44f6 4cbc d2be a03c
00000340: 1114 443d 2871 30bd 93e5 e0bc 8b5d 223c
00000350: c4e7 cabc 4518 093d f8a4 b33c 9953 90bc
00000360: f410 5ebc 344a 38bd 369c 0fbd 7e6d bbbc
00000370: 1a9d 9c3c 6d48 d23a 265b 96bb 4112 653c
00000380: aa06 1a3d 1d71 e93c e68e 483b 9116 95bc
00000390: fedc 563c 894b 93bc dd39 d2bc 27fe bdbc
000003a0: 95de 9fbc 89ac 11bd 0667 993c 8edc b7bc
000003b0: daac b3bc 5f02 9dbc 267a b3bc 7e55 743c
000003c0: 43de 68bb 8e2d 2abd 91d8 4bbd f10d 92bc
000003d0: cca4 2c3c 7d99 31bc a1c5 2aba ab90 15bd
000003e0: a93f fdbc 7ad7 8d3c 5543 22bc ca92 f9bb
000003f0: f085 50bd 8a5e 1e3d 4ab5 34bc 0fd1 a3bc

layer2.0.bias f4 [64]
-0.008953752 -0.033961788 -0.007999622 0.009383216 0.037732698 0.017530916 0.034738414 -0.0028920667
0.030711038 0.027216008 -0.029882789 -0.032364458 -0.027971294 -0.03259363 -0.026111115 -0.005417265
-0.025451323 0.0390566 0.024221018 0.019139944 0.0060861865 -0.0026028727 -0.020270726 0.03113031
0.042619657 -0.030384796 0.0035939568 0.03812613 0.034381583 0.007509642 0.0029791682 -0.037745774
-0.0047153267 0.020311696 -0.008462204 0.027879855 -0.0035069634 0.032128375 0.04031074 -0.0006848029
-0.015169403 -0.0030110893 -0.015762795 0.023166189 -0.0011180547 0.0062403325 0.026166203 0.026037455
0.020161899 -0.03448499 0.03037326 0.0386606 0.04025622 -0.021901704 -0.02275837 -0.038534448
0.012196193 0.009058124 0.019945847 -0.039063513 -0.02200784 0.013666586 -0.034454282 -0.029155176
00000000: c2b2 12bc 841b 0bbd d910 03bc 0fbc 193c
00000010: 9a8d 1a3d ff9c 8f3c de49 0e3d d488 3dbb
00000020: b795 fb3c 1bf4 de3c c0cc f4bc 9890 04bd
00000030: 0e24 e5bc e680 05bd fae6 d5bc 5083 b1bb
00000040: 4b7f d0bc d0f9 1f3d 286b c63c 5fcb 9c3c
00000050: a26e c73b f594 2abb cb0e a6bc fe04 ff3c
00000060: f391 2e3d 89e9 f8bc 9788 6b3b 252a 1c3d
00000070: b4d3 0c3d 7113 f63b 263e 433b 509b 1abd
00000080: 0783 9abb b764 a63c 0ea5 0abc 4b64 e43c
00000090: 15d5 65bb 0b99 033d e01c 253d 5884 33ba
000000a0: 1689 78bc b255 45bb fa20 81bc 05c7 bd3c
000000b0: b18b 92ba b47b cc3b 815a d63c 804c d53c
000000c0: 912a a53c 2240 0dbd 58d1 f83c 945a 1e3d
000000d0: b5e3 243d 346b b3bc c36f babc 4cd6 1dbd
000000e0: 8bd2 473c 8768 143c 7965 a33c 1001 20bd
000000f0: c949 b4bc d1e9 5f3c ef1f 0dbd d6d6 eebc

layer2.1.weight f4 [64]
0.9961894 0.98461866 0.99669105 1.0085654 0.98850954 1.004763 0.9868654 0.98406893
0.9785263 0.9605974 0.99056816 1.0182521 0.98758817 1.0020876 1.0069114 0.9892494
0.99562633 0.98515147 1.004717 0.99226797 1.019408 1.0010403 1.0048066 0.9952855
1.0000526 0.9949568 0.9999038 0.9990046 1.009834 1.0138235 1.0007755 1.0138912
0.99153537 0.98952353 1.0068727 1.0149837 1.0083991 1.005236 0.9873861 0.9780439
0.98777264 1.0105461 0.99608004 0.99488944 0.98637575 0.9915928 1.0002382 1.022066
1.01128 1.0053759 0.9861509 1.0009056 1.0063363 0.99525726 1.0195799 0.99067384
1.0158393 0.99725187 1.0152179 0.9952024 0.9891072 1.0036448 0.9955576 1.0036669
00000000: 4506 7f3f f80f 7c3f 2527 7f3f ac18 813f
00000010: f60e 7d3f 139c 803f 36a3 7c3f f1eb 7b3f
00000020: b380 7a3f b6e9 753f e095 7d3f 1656 823f
00000030: 94d2 7c3f 6844 803f 79e2 803f 733f 7d3f
00000040: 5ee1 7e3f e332 7c3f 919a 803f 4605 7e3f
00000050: f67b 823f 1722 803f 819d 803f 08cb 7e3f
00000060: b901 803f 7db5 7e3f b2f9 7f3f c4be 7f3f
00000070: 3e42 813f f8c4 813f 6919 803f 30c7 813f
00000080: 43d5 7d3f 6a51 7d3f 34e1 803f fcea 813f
00000090: 3913 813f 93ab 803f 56c5 7c3f 1661 7a3f
000000a0: abde 7c3f 9359 813f 1aff 7e3f 13b1 7e3f
000000b0: 1f83 7c3f 07d9 7d3f ce07 803f 0fd3 823f
000000c0: 9f71 813f 28b0 803f 6374 7c3f ad1d 803f
000000d0: a1cf 803f 2ec9 7e3f 9881 823f cd9c 7d3f
000000e0: 0607 823f e64b 7f3f a9f2 813f 96c5 7e3f
000000f0: 2136 7d3f 6f77 803f dddc 7e3f 2878 803f

layer2.1.bias f4 [64]
-0.021400834 -0.0392367 0.0048776083 -0.0027429909 -0.026924027 -0.014224004 -0.039419692 -0.01635993
-0.03876522 -0.012850445 -0.008375519 -0.02828107 -0.0038653133 -0.04070713 0.026467362 -0.030415172
-0.045935523 -0.008406545 -0.064629205 -0.018658688 -0.08226642 0.0014920663 -0.06808073 -0.015128964
-0.055783205 -0.02954024 0.024771664 -0.019418463 -0.032589056 -0.0050754454 -0.013858113 0.00077765126
-0.010584826 -0.03422926 0.0011620998 -0.016028915 0.009818364 -0.027453564 -0.006442569 -0.009456007
-0.06599175 -0.036895636 0.008894698 -0.009523914 0.006223933 -0.024139235 0.005542399 -0.09593204
-0.07024973 -0.021331733 -0.04832753 0.015585836 -0.012799929 -0.034743182 -0.013492228 -0.01853588
-0.03227266 -0.034348592 -0.014816984 -0.04155223 -0.05131605 -0.028512523 0.00048569802 -0.025350094
00000000: cd50 afbc a9b6 20bd 58d4 9f3b c0c3 33bb
00000010: c78f dcbc cc0b 69bc 8b76 21bd 4305 86bc
00000020: 48c8 1ebd ac8a 52bc 7939 09bc b4ad e7bc
00000030: 3251 7dbb 85bc 26bd 15d2 d83c 3d29 f9bc
00000040: e326 3cbd 9bbb 09bc 515c 84bd 1bda 98bc
00000050: 4c7b a8bd 7091 c33a e96d 8bbd 79df 77bc
00000060: ee7c 64bd 60fe f1bc f2ed ca3c 7813 9fbc
00000070: 1a7c 05bd ec4f a6bb 240d 63bc 4bdb 4b3a
00000080: fa6b 2dbc fb33 0cbd 9951 983a 124f 83bc
00000090: 34dd 203c 4ce6 e0bc 301c d3bb 5eed 1abc
000000a0: af26 87bd e11f 17bd 11bb 113c 310a 1cbc
000000b0: 22f2 cb3b a5bf c5bc 039d b53b 0478 c4bd
000000c0: 17df 8fbd e3bf aebc 17f3 45bd bc5b 7f3c
000000d0: cbb6 51bc de4e 0ebd 820e 5dbc 8fd8 97bc
000000e0: 5630 04bd 1cb1 0cbd efc2 72bc ac32 2abd
000000f0: c730 52bd 1893 e9bc 49a5 fe39 00ab cfbc

layer2.1.running_mean f4 [64]
-1.0103514 -0.90439415 -0.91445 -0.8402741 -0.04880582 -0.7763124 -0.17647025 -0.4224162
0.4753372 0.17191015 -0.30410603 -0.25443724 -1.2546763 -0.59152645 -0.8138809 -0.4301804
-0.030165436 -0.21709475 -0.51473564 -0.66145885 0.4863079 0.34803477 0.7242117 -0.71103466
-0.39284024 -0.8691565 -0.93670046 0.6313844 -0.9416177 -0.35808352 -1.0088787 -0.7408214
-0.3333678 -0.6438227 -0.9086949 0.1847936 -0.16465718 -0.75010985 -0.74789804 -0.5870689
-0.015533468 -0.81050074 -0.7192148 -0.041259892 -0.49268824 1.6917925 -0.4372635 0.5027548
-0.046020966 -0.58522785 -0.4538096 -0.5655903 0.0976609 0.78110576 -1.0049142 -0.31317815
-0.30812123 -0.73512805 -0.69381064 -0.21171422 -0.016701097 -0.39447087 -0.22831647 -1.0349723
00000000: 3253 81bf 6086 67bf 6519 6abf 341c 57bf
00000010: 9de8 47bd 69bc 46bf 9eb4 34be f046 d8be
00000020: 665f f33e 3709 303e c9b3 9bbe 9945 82be
00000030: 3c99 a0bf 476e 17bf 805a 50bf 9b40 dcbe
00000040: 811d f7bc 164e 5ebe b7c5 03bf 5e55 29bf
00000050: 59fd f83e 9d31 b23e f065 393f 5e06 36bf
00000060: 5b22 c9be 0a81 5ebf 9acb 6fbf 68a2 213f
00000070: dc0d 71bf b956 b7be f022 81bf 79a6 3dbf
00000080: 2faf aabe 91d1 24bf 3ba0 68bf 893a 3d3e
00000090: e49b 28be 3307 40bf 3f76 3fbf 264a 16bf
000000a0: 1680 7ebc fa7c 4fbf 761e 38bf 2200 29bd
000000b0: a241 fcbe a88c d83f 00e1 dfbe 8ab4 003f
000000c0: 7b80 3cbd 7ed1 15bf bb59 e8be 87ca 10bf
000000d0: 7002 c83d 8cf6 473f 07a1 80bf e358 a0be
000000e0: 11c2 9dbe 5a31 3cbf 939d 31bf 9dcb 58be
000000f0: bdd0 88bc 16f8 c9be cbcb 69be f979 84bf

layer2.1.running_var f4 [64]
0.8454396 0.23084363 0.32687956 0.65203136 0.42257154 0.51566225 0.20535491 0.37709773
0.24881923 0.65250915 0.9384409 0.23623967 0.57967466 0.32657894 0.39438877 0.2266561
0.37926066 0.35818687 0.17727457 0.7763016 0.20136677 0.8942446 0.21739085 0.26975113
0.3455528 0.8388545 0.51123244 0.29756862 0.48523703 0.6024622 0.5150252 1.2190433
0.37614596 0.3826017 0.40175405 0.21983033 0.28466082 0.24442682 0.43860796 0.45776564
0.27342942 0.17247218 0.17971145 0.20340598 0.43056145 0.78625923 0.28845927 0.14722304
0.20414099 0.25059497 0.30052906 0.62529254 0.28158453 0.34484226 0.44440967 0.33713898
0.22393976 0.2977713 0.1935575 0.27962717 0.36503294 0.38829213 0.36729926 0.31152573
00000000: bb6e 583f 4662 6c3e c25c a73e 87eb 263f
00000010: 4c5b d83e 7102 043f 8f48 523e f412 c13e
00000020: 78ca 7e3e d70a 273f aa3d 703f d0e8 713e
00000030: 8f65 143f 5b35 a73e 53ed c93e 8918 683e
00000040: 742e c23e 4564 b73e 7787 353e b4bb 463f
00000050: 1733 4e3e 37ed 643f b59b 5e3e d21c 8a3e
00000060: 4cec b03e 2bbf 563f 21e0 023f ea5a 983e
00000070: fd70 f83e f63a 1a3f b1d8 033f 9c09 9c3f
00000080: 3496 c03e 5fe4 c33e b5b2 cd3e 341b 613e
00000090: 10bf 913e 064b 7a3e 3991 e03e 4260 ea3e
000000a0: f1fe 8b3e 8c9c 303e 4706 383e a849 503e
000000b0: 8d72 dc3e 4948 493f efb0 933e a3c1 163e
000000c0: 560a 513e fc4d 803e f2de 993e 2c13 203f
000000d0: d92b 903e 2a8f b03e aa89 e33e 7b9d ac3e
000000e0: 7750 653e 7b75 983e f033 463e 4b2b 8f3e
000000f0: 99e5 ba3e 3ace c63e a60e bc3e 4d80 9f3e

layer3.0.weight f4 [64, 64, 3, 3]
-0.009261996 -0.062891416 -0.01543017 -0.046478197 -0.041911293 -0.007924549 -0.040553976 -0.008585371
0.018453531 0.004093735 -0.022134155 -0.003949192 0.010041385 -0.05176913 -0.040981814 0.00080327934
-0.07175015 -0.055806004 -0.018538335 0.031215485 -0.001167296 0.034568477 0.035534278 0.00012173259
0.05528679 0.03761309 0.0072086183 -0.038604073 -0.003801927 -0.032478686 -0.04276947 0.023179067
0.012367727 0.010116765 -0.01486348 -0.045676656 0.034238175 0.021393899 -0.031968307 -0.043617915
0.011692912 -0.033510473 0.0069746333 -0.0007032538 -0.009942116 0.009709165 -0.0045015225 -0.012849849
-0.004642254 -0.004997883 -0.02912432 0.05908711 0.002179267 0.04464616 -4.5074285e-05 -0.052278478
0.004602069 -1.6761245e-05 -0.02087563 0.013428179 0.02473671 0.033025086 -0.020146398 -0.0033150953
-0.0043325596 -0.020707376 0.007683208 -0.010111691 -0.020952499 -0.012483861 -0.035373434 -0.03346187
-0.029008685 0.0072540785 0.023082176 0.026775984 -0.007017351 0.012878569 0.029701274 -0.003780455
-0.006231833 0.022557307 -0.012113891 -0.0140253855 -0.01913374 -0.004584824 -0.007436732 -0.05009668
-0.0005310815 -0.05634927 0.062123835 0.016566724 -0.013933173 0.046647564 0.035317007 -0.010067017
0.026086764 -0.009808913 -0.024469094 0.04708388 0.034813292 0.020235758 0.012949063 0.01116904
0.019212505 0.011878882 0.014873546 0.02381928 0.028706105 0.03283172 0.05360611 0.05030318
0.01772557 0.053126127 0.005850067 0.04412997 -0.0024868224 0.02395171 -0.007938144 0.020297363
0.018741133 -0.008039623 -0.0020152146 0.006858939 0.03844159 -0.007534968 0.039828017 -0.024408784
0.009256134 0.010050497 -0.04020752 0.01110183 0.037062053 0.019587703 -0.017492834 0.0041755657
-0.019491302 0.0065727024 0.00346316 -0.047061432 -0.025032705 -0.029598251 0.008211066 0.008970084
-0.0054790326 -0.033616554 -0.022499468 0.0062336293 -0.025016546 0.011221309 -0.024669392 -0.011965914
-0.045791406 -0.014231551 -0.07348455 -0.03620537 0.017876172 0.011010815 -0.021204177 -0.08996557
-0.021017961 -0.029880224 -0.01032198 0.023177274 -0.06353208 -0.021247381 0.0024581642 -0.04034012
-0.040269863 -0.012657907 -0.017753402 -0.0050703473 -0.027007913 -0.0030740618 -0.0052316487 0.027232843
0.010010811 -0.00839941 -0.05309177 0.012298813 0.025360676 -0.022829004 0.0025391504 -0.013570824
-0.025593258 -0.0075459755 0.014067373 -0.015693372 -0.07185462 -0.017296808 -0.015937714 -0.007176589
-0.028988509 -0.006613548 0.007039267 8.545387e-06 0.0019359866 0.024924193 -0.0038857097 -0.011914152
-0.039021686 0.011582971 0.016237533 0.0187605 -0.014036196 -0.018228477 0.0077432725 -0.015504686
-0.024903324 -0.020147786 -0.03194984 0.020750262 0.032396715 -0.0140026 -0.01120146 -0.023494298
-0.015699327 -0.019368717 0.001319426 -0.034537446 0.010364639 -0.036825508 0.031051379 0.00016412741
-0.06146685 -0.010209317 0.057872634 0.057804428 0.047204684 0.04998386 0.044539597 0.044955697
0.031249488 0.046318993 0.020667098 -0.004134852 0.013669519 0.017291527 0.0072207325 0.025384322
-0.005992542 0.008108294 0.04940546 -0.056942504 -0.0702518 -0.045232695 -0.05166438 -0.006695345
-0.03273169 0.0024184762 -0.029315364 -0.08076817 0.052403547 0.05735199 0.021186838 -0.0015803969
00000000: a0bf 17bc 37cd 80bd d3ce 7cbc ec5f 3ebd
00000010: 2dab 2bbd f8d5 01bc ed1b 26bd a8a9 0cbc
00000020: dc2b 973c bd24 863b b052 b5bc 3968 81bb
00000030: 9f84 243c de0b 54bd 8cdc 27bd 2a93 523a
00000040: bef1 92bd d694 64bd b5dd 97bc 9eb7 ff3c
00000050: f4ff 98ba ad97 0d3d 648c 113d b04a ff38
00000060: 6774 623d 2f10 1a3d 4636 ec3b 4e1f 1ebd
00000070: c029 79bb 5f08 05bd 0a2f 2fbd 07e2 bd3c
00000080: 02a2 4a3c cac0 253c f485 73bc 7217 3bbd
00000090: 543d 0c3d 4242 af3c 33f1 02bd b3a8 32bd
000000a0: a193 3f3c 4742 09bd 778b e43b 905a 38ba
000000b0: 42e4 22bc 3113 1f3c 8281 93bb 2c88 52bc
000000c0: 0d1e 98bb 48c5 a3bb 2096 eebc 5305 723d
000000d0: 08d2 0e3b e4de 363d 250e 3db8 f521 56bd
000000e0: f4cc 963b 809a 8cb7 5f03 abbc dd01 5c3c
000000f0: a4a4 ca3c 5045 073d 0f0a a5bc 1242 59bb
00000100: 25f8 8dbb 84a2 a9bc 6cc3 fb3b 82ab 25bc
00000110: 93a4 abbc 1c89 4cbc bce3 10bd 500f 09bd
00000120: 9fa3 edbc 9fb3 ed3b d516 bd3c 4f59 db3c
00000130: cff1 e5bb a200 533c 1650 f33c 83c1 77bb
00000140: 6734 ccbb 1aca b83c 5779 46bc bbca 65bc
00000150: 5cbe 9cbc 4b3c 96bb d4af f3bb 2d32 4dbd
00000160: 4738 0bba 7ece 66bd 9075 7e3d f0b6 873c
00000170: f747 64bc 8411 3f3d 91a8 103d 21f0 24bc
00000180: e9b3 d53c 90b5 20bc 6973 c8bc 07db 403d
00000190: 6298 0e3d 76c5 a53c 4f28 543c 59fe 363c
000001a0: 8b63 9d3c a49f 423c 2cb0 733c a720 c33c
000001b0: 1129 eb3c 8e7a 063d 1592 5b3d b50a 4e3d
000001c0: 3735 913c c89a 593d ebb1 bf3b a1c1 343d
000001d0: f5f9 22bb 6036 c43c fd0e 02bc a846 a63c
000001e0: 0187 993c 9fb8 03bc b111 04bb f3c0 e03b
000001f0: ee74 1d3d e5e7 f6bb b422 233d eef4 c7bc
00000200: 0aa7 173c d7aa 243c a4b0 24bd 73e4 353c
00000210: 61ce 173d 6476 a03c 224d 8fbc 2fd3 883b
00000220: 39ac 9fbc d35f d73b 2ff6 623b 7dc3 40bd
00000230: 6311 cdbc 0878 f2bc b587 063c 42f7 123c
00000240: 7589 b3bb 83b1 09bd ce50 b8bc 7943 cc3b
00000250: 80ef ccbc 95d9 373c 7717 cabc ae0c 44bc
00000260: c58f 3bbd 742b 69bc 117f 96bd 154c 14bd
00000270: 0d71 923c b566 343c 62b4 adbc de3f b8bd
00000280: dc2d acbc 5fc7 f4bc 861d 29bc 44de bd3c
00000290: 1b1d 82bd fd0e aebc 2719 213b af3b 25bd
000002a0: 03f2 24bd 1c63 4fbc 956f 91bc 2825 a6bb
000002b0: b33f ddbc 3376 49bb 406e abbb 6917 df3c
000002c0: 6204 243c ae9d 09bc c176 59bd f680 493c
000002d0: 31c1 cf3c e403 bbbc e067 263b 2958 5ebc
000002e0: f4a8 d1bc 3b44 f7bb d77a 663c 638f 80bc
000002f0: 8428 93bd 09b2 8dbc cf8f 82bc 9829 ebbb
00000300: 4f79 edbc 76b6 d8bb a7a9 e63b 285e 0f37
00000310: eec0 fd3a d22d cc3c 64a7 7ebb 9333 43bc
00000320: 34d5 1fbd 80c6 3d3c 9304 853c 9faf 993c
00000330: 13f8 65bc e353 95bc 47bb fd3b 5e07 7ebc
00000340: 0e02 ccbc f80c a5bc d6dd 02bd 74fc a93c
00000350: 6bb2 043d 296b 65bc 5486 37bc 1d77 c0bc
00000360: e09b 80bc 25ab 9ebc 97f0 ac3a 2377 0dbd
00000370: 72d0 293c 58d6 16bd 765f fe3c 9e19 2c39
00000380: aac4 7bbd fb44 27bc db0b 6d3d 56c4 6c3d
00000390: b359 413d e0bb 4c3d 276f 363d 7723 383d
000003a0: edfe ff3c fcb8 3d3d 0c4e a93c a77d 87bb
000003b0: 1ef6 5f3c f6a6 8d3c e59b ec3b c8f2 cf3c
000003c0: 165d c4bb a6d8 043c 615d 4a3d 8b3c 69bd
000003d0: 2de0 8fbd eb45 39bd 079e 53bd a064 dbbb
000003e0: aa11 06bd 4c7f 1e3b c626 f0bc c869 a5bd
000003f0: 1aa5 563d ece9 6a3d 0590 ad3c 5225 cfba

layer3.0.bias f4 [64]
-0.01888879 -0.023220906 0.0056722327 0.017958533 0.013607606 -0.008599412 0.0060908454 0.019208165
-0.031190516 -0.039693724 -0.035798926 0.03321873 0.012300216 0.02071324 -0.030259669 -0.020888994
-0.0016657327 -0.016833836 -0.007327635 0.006626703 0.007626245 -0.0066238116 -0.012172988 -0.019225301
0.033338152 -0.026582533 -0.0321858 -0.029602613 0.017891293 -0.01174502 -0.008262577 0.021064615
0.03793341 -0.0034973132 -0.03263962 0.0051215244 -0.034693334 -0.041403376 0.015954452 -0.0016300885
-0.03812005 0.020488376 0.0056297225 0.01862445 0.021361243 0.010819894 0.016200222 0.027780639
0.038573112 -0.04121992 -0.025359314 0.018354775 0.02966548 0.03113276 -0.039429802 -0.016744237
0.009673138 0.015290936 -0.011972378 -0.007573049 0.03734555 -0.02515718 -0.042475034 0.032154005
00000000: aabc 9abc c539 bebc 23de b93b c61d 933c
00000010: 70f2 5e3c 8ce4 0cbc b795 c73b 715a 9d3c
00000020: 4183 ffbc e395 22bd e5a1 12bd 5d10 083d
00000030: d886 493c d0ae a93c 20e3 f7bc 651f abbc
00000040: b754 daba 1de7 89bc a81c f0bb d024 d93b
00000050: 94e5 f93b 8f0c d9bb 3671 47bc 617e 9dbc
00000060: 968d 083d 9dc3 d9bc 42d5 03bd 2e81 f2bc
00000070: c390 923c 2f6e 40bc c25f 07bc b38f ac3c
00000080: 1060 1b3d 2e33 65bb 1fb1 05bd 76d2 a73b
00000090: 991a 0ebd 9696 29bd e9b2 823c b2a8 d5ba
000000a0: c523 1cbd 3dd7 a73c 8979 b83b 4d92 983c
000000b0: c6fd ae3c ed45 313c 54b6 843c 3994 e33c
000000c0: d7fe 1d3d 38d6 28bd 56be cfbc c15c 963c
000000d0: 0505 f33c 210a ff3c 2581 21bd 362b 89bc
000000e0: 157c 1e3c d686 7a3c cb27 44bc 5727 f8bb
000000f0: a6f7 183d 6e16 cebc 4dfa 2dbd ebb3 033d

layer3.1.weight f4 [64]
1.0115209 0.9496247 1.0230198 0.96174055 0.97813404 1.0235581 1.007216 0.97207624
0.9978357 0.9813175 0.98341423 0.9944807 1.0156614 0.9921102 1.0271324 0.9796948
1.0761719 1.003646 1.03751 0.94130623 0.96635306 1.0354825 0.99095213 0.9681096
0.9581156 0.970044 0.9593907 1.0747675 0.97258687 1.0334651 1.0383414 0.9761773
1.0255078 1.0462404 0.9432729 0.9817173 0.96076614 0.99045205 0.9770903 0.98205084
0.9492366 1.0365244 0.9828974 1.036122 0.9787522 1.0027 0.9633993 0.9268663
0.99612623 1.0207888 0.95879424 1.0017194 0.9537376 1.0071232 1.0350038 0.96886957
0.9432671 0.9259621 0.9666688 1.0148064 1.0795889 0.9582596 0.99070174 0.9412181
00000000: 8479 813f 9b1a 733f 50f2 823f a134 763f
00000010: fe66 7a3f f403 833f 74ec 803f fdd9 783f
00000020: 2972 7f3f a037 7b3f 09c1 7b3f 4a96 7e3f
00000030: 3101 823f effa 7d3f 1379 833f 47cd 7a3f
00000040: 00c0 893f 7977 803f 21cd 843f 72f9 703f
00000050: ea62 773f b18a 843f 0aaf 7d3f 08d6 773f
00000060: 1047 753f ce54 783f a19a 753f fb91 893f
00000070: 74fb 783f 9648 843f 5fe8 843f c1e6 793f
00000080: d743 833f 35eb 853f 557a 713f d351 7b3f
00000090: c5f4 753f 448e 7d3f 9722 7a3f af67 7b3f
000000a0: 2b01 733f d5ac 843f 2a9f 7b3f a59f 843f
000000b0: 818f 7a3f 7958 803f 56a1 763f 1c47 6d3f
000000c0: 2102 7f3f 35a9 823f 8a73 753f 5738 803f
000000d0: 2628 743f 6ae9 803f 017b 843f d607 783f
000000e0: f479 713f da0b 6d3f 9b77 773f 2de5 813f
000000f0: f82f 8a3f 8050 753f a19e 7d3f abf3 703f

layer3.1.bias f4 [64]
-0.034516413 -0.039851163 -0.11220852 -0.04815276 -0.025715433 -0.043545846 -0.056204364 -0.05932823
-0.06184178 -0.07397048 -0.03691753 -0.043953177 -0.04622949 -0.028267909 -0.088996746 -0.030833557
-0.10232983 -0.07363381 -0.10913355 -0.045126155 -0.05782998 -0.07475653 -0.048324585 -0.030994048
-0.059521515 -0.052676097 -0.038989443 -0.105085716 -0.035546906 -0.10870669 -0.051012635 -0.0670699
-0.050663903 -0.08668552 -0.01210353 -0.059847854 -0.036772385 -0.04947188 -0.038282316 -0.070793554
-0.040598553 -0.09537857 -0.037656214 -0.052738946 -0.03727362 -0.059341893 -0.036901075 -0.03250583
-0.048519213 -0.06312414 -0.0513662 -0.10815925 -0.05106414 -0.06554907 -0.13813162 -0.08530093
0.0064184642 -0.059935756 -0.03513896 -0.055082463 -0.14875558 -0.049719166 -0.04369014 -0.029240418
00000000: 1561 0dbd f93a 23bd 95cd e5bd d43b 45bd
00000010: 2ca9 d2bc 215d 32bd 8c36 66bd 2802 73bd
00000020: ce4d 7dbd d67d 97bd d636 17bd 3f08 34bd
00000030: 225b 3dbd 1a92 e7bc ed43 b6bd a896 fcbc
00000040: 4d92 d1bd 53cd 96bd 6981 dfbd 34d6 38bd
00000050: 21df 6cbd f419 99bd 00f0 45bd 3be7 fdbc
00000060: d5cc 73bd e4c2 57bd 65b3 1fbd 2e37 d7bd
00000070: a299 11bd 9da1 debd a0f2 50bd f25b 89bd
00000080: f484 4fbd 2e88 b1bd e24d 46bc 0623 75bd
00000090: a49e 16bd 07a3 4abd ebcd 1cbd 36fc 90bd
000000a0: ab4a 26bd d755 c3bd 673d 1abd cb04 58bd
000000b0: 39ac 18bd 7c10 73bd 9525 17bd d524 05bd
000000c0: 15bc 46bd 3b47 81bd 5d65 52bd 9982 ddbd
000000d0: a228 51bd 973e 86bd 6072 0dbe 41b2 aebd
000000e0: fb51 d23b 327f 75bd dfed 0fbd 269e 61bd
000000f0: 6253 18be 53a6 4bbd 6ff4 32bd 9a89 efbc

layer3.1.running_mean f4 [64]
-0.5008551 -0.9258353 -0.3098864 -0.5738871 -0.8317646 -0.83246 -0.7071333 -0.6653125
-0.628462 -0.3241965 -0.57462543 -0.51917136 -1.0939302 -1.0941392 -0.72409415 -0.68039244
-1.0395699 -0.20731072 -0.3979614 -0.62600785 -0.84016114 -0.6834458 -0.52308327 -0.66936237
-0.7110942 -0.6382867 -0.79018974 -0.9731118 -0.5819327 -0.40612376 -0.55858153 -0.46361068
-0.96412796 -0.88840675 -0.7063289 -0.46103206 -0.52873933 -0.8646517 -0.38353807 -0.6845163
-0.76230067 -0.52328175 -1.1426736 -0.5066122 -0.8204429 -0.5391669 -1.0021476 -0.48142016
-0.2596758 -0.9095102 -0.8209735 -0.46198657 -0.494883 -0.85328966 -0.46862385 -0.7466661
-0.603554 -0.35091612 -0.419363 -0.46458888 -0.31581917 -0.9926455 -0.91706586 -0.64443225
00000000: 0a38 00bf 8b03 6dbf 6ea9 9ebe 44ea 12bf
00000010: 86ee 54bf 191c 55bf b006 35bf ec51 2abf
00000020: e3e2 20bf 15fd a5be a71a 13bf 6ae8 04bf
00000030: e805 8cbf c10c 8cbf 3c5e 39bf 332e 2ebf
00000040: a010 85bf 4349 54be 99c1 cbbe 0d42 20bf
00000050: cd14 57bf 4ef6 2ebf c9e8 05bf 555b 2bbf
00000060: 450a 36bf c266 23bf e049 4abf db1d 79bf
00000070: 8bf9 14bf 74ef cfbe 33ff 0ebf 615e edbe
00000080: 17d1 76bf a06e 63bf f9d1 34bf 650c ecbe
00000090: 765b 07bf d059 5dbf 1a5f c4be 763c 2fbf
000000a0: 2326 43bf cbf5 05bf 2143 92bf 56b1 01bf
000000b0: 8c08 52bf d806 0abf 5f46 80bf b47c f6be
000000c0: 3af4 84be a9d5 68bf 522b 52bf 8189 ecbe
000000d0: 4e61 fdbe 3171 5abf 77ef efbe 8225 3fbf
000000e0: 8482 1abf 47ab b3be bfb6 d6be 98de edbe
000000f0: 0db3 a1be 041e 7ebf d4c4 6abf 83f9 24bf

layer3.1.running_var f4 [64]
0.27890956 0.7221567 0.22303967 0.7531614 0.32128143 0.2626234 0.2557344 0.32649156
0.27566302 0.24672596 0.2000982 0.3346421 0.29733595 0.2772801 0.22546038 0.41370136
0.22872317 0.22462395 0.286985 0.72227645 0.4636757 0.19614433 0.24641258 0.20762941
0.52238107 0.2739405 0.34682932 0.23412137 0.31159496 0.240853 0.19264261 0.222809
0.2510634 0.22003008 0.3369383 0.31969076 0.2941394 0.34463096 0.38794276 0.23898719
0.9666521 0.26074484 0.6219912 0.20338859 0.42159638 0.24769717 0.5288354 0.39255294
0.19804195 0.19813092 0.39080906 0.23608473 0.26683363 0.2878117 0.24122962 0.28016576
0.33452386 0.37554023 0.3815327 0.22193357 0.21751906 0.36708626 0.25497144 0.3786716
00000000: 3ccd 8e3e 43df 383f 8364 643e 2fcf 403f
00000010: 007f a43e 9376 863e 9fef 823e e729 a73e
00000020: b423 8d3e bba5 7c3e 8be6 4c3e 3656 ab3e
00000030: 6b3c 983e a8f7 8d3e 16df 663e aad0 d33e
00000040: 6836 6a3e d203 663e b3ef 923e 1ce7 383f
00000050: e766 ed3e 0fda 483e 9453 7c3e ce9c 543e
00000060: c4ba 053f ee41 8c3e 9d93 b13e 83bd 6f3e
00000070: 6089 9f3e 2ba2 763e 1b44 453e 0b28 643e
00000080: 628b 803e 914f 613e 2d83 ac3e 82ae a33e
00000090: 7099 963e 7873 b03e 6fa0 c63e 0fb9 743e
000000a0: 8376 773f 5980 853e d13a 1f3f 1945 503e
000000b0: 7bdb d73e 54a4 7d3e c261 073f b3fc c83e
000000c0: 82cb 4a3e d5e2 4a3e 2018 c83e 32c0 713e
000000d0: 6b9e 883e 0e5c 933e e604 773e e371 8f3e
000000e0: b646 ab3e cf46 c03e 4158 c33e 8e42 633e
000000f0: 51bd 5e3e bbf2 bb3e 9e8b 823e 3ee1 c13e

layer4.0.weight f4 [64, 64, 3, 3]
-0.033997715 0.01217047 -0.015018207 -0.060212445 -0.023330418 -0.00080472825 0.015088483 0.022762692
-0.010051646 -0.009320757 -0.0017357655 0.00854898 -0.04313211 0.01703871 0.004198985 -0.0038259188
0.012908556 0.024511933 0.0018114146 0.020301364 0.011567301 -0.0140722655 0.012211273 -0.010145442
0.0011111919 0.015870204 0.0058640596 0.01014884 -0.006659124 0.00534967 0.03326529 0.035049595
0.009959795 0.010435673 -0.01467125 -0.013104521 -0.017133707 0.02669778 0.0060082534 0.009117762
0.02759348 0.0017069086 -0.0028921294 -0.023053471 -0.0051030223 0.06260837 0.03074644 -0.04027337
0.023497207 0.046935033 -0.014770716 0.0032951492 -0.010592396 0.009146055 0.003573909 0.07806589
-0.03955093 -0.052015334 0.037549112 -0.00044630337 0.00517422 0.00063550303 0.007425685 0.02969791
0.001286559 0.024213353 0.05381544 -0.0045563136 0.0043474794 -0.041340295 -0.0064839837 0.010341256
-0.01276259 -0.038330518 0.014004472 -0.024779724 -0.022870151 0.018967042 0.0066966396 -0.011050692
0.0017595079 -0.015878491 -0.042869672 0.007479447 -0.048783697 -0.017074417 -0.0021805046 0.013984079
-0.011832621 -0.0025110529 -0.033318836 -0.01212001 0.019642357 0.027563393 0.0054661394 0.012449893
-0.03424995 0.008869119 -0.012737677 0.064976215 0.0019674643 0.02215025 0.062013812 0.06621946
-0.010989401 -0.0015644482 -0.013134432 7.542681e-05 -0.06747481 -0.06374107 -0.03124362 -0.022572203
-0.011318952 0.00498505 0.005928914 0.020261643 0.0015286723 0.011264554 0.060314905 0.006047433
0.015181491 0.03009316 -0.009192546 -0.0021951245 -0.006307748 -0.0019477566 -0.031322084 -0.050475568
0.027388593 -0.031871133 -0.0016434621 0.011466705 0.012813693 0.0029702669 -0.004746914 0.04879592
0.001669442 0.0071904557 -0.03495889 -0.006491335 -0.0006667837 0.0024571873 -0.00425934 0.025683934
0.022865681 -0.017635731 -0.0070426585 0.0059991716 -0.008365169 0.015089994 -0.006914057 0.005951324
-0.013651735 0.024960455 0.008091542 0.006239239 -0.0022056657 0.008098941 -0.0105657345 -0.0059804795
-0.0050706905 0.015717141 0.06819189 0.048508387 -0.027651941 0.007098877 0.041613303 -0.01585615
0.0013884577 -0.0049071596 0.00819331 -0.013516217 0.0203043 0.004586293 0.0206311 0.019520354
-0.0049149976 0.016763045 0.016769504 -0.005343328 -0.00857151 0.0038580773 0.0041162884 -0.00050473475
-0.0152231585 -0.010225293 0.0045902766 0.0016452904 -0.0073436103 0.060195144 -0.013742633 0.0047302404
-9.1234826e-05 -0.001297459 -0.004166224 0.009054331 0.0094583025 0.0018858446 -0.04649242 -0.03333125
0.008111045 -0.040263534 -0.04305867 0.008770802 0.009899583 -0.019505395 -0.0009798193 -0.040845096
-0.0074400916 0.006279066 -0.04504911 -0.011679865 0.00086345023 0.022157714 -0.0017599954 -0.017653998
0.014671739 0.0058261375 0.0013212184 0.00127936 0.00064357964 -0.018661078 -0.0066371127 -0.011085478
0.014178287 0.04175326 -0.04447567 0.018128313 -0.040607672 -0.027940141 -0.0043637888 0.0014369123
-0.015970426 0.00710361 -0.035883546 -0.025661845 0.014852169 -0.066023186 -0.060245547 0.008109754
0.0021932644 0.012350987 -0.0142157925 -0.0051799663 0.025437286 -0.009662866 0.021691376 0.0039248387
-0.0021641203 -0.011767037 -0.0077662226 0.0077888053 -0.03682255 -0.030191965 0.022484176 0.0051544104
00000000: 3041 0bbd a766 473c ed0e 76bc 53a1 76bd
00000010: 6f1f bfbc 66f4 52ba af35 773c d378 ba3c
00000020: a9af 24bc 17b6 18bc a082 e3ba 0511 0c3c
00000030: 4cab 30bd c494 8b3c a497 893b 44bc 7abb
00000040: 687e 533c 40cd c83c fd6c ed3a 0c4f a63c
00000050: c784 3d3c 5c8f 66bc cb11 483c 1139 26bc
00000060: 6aa5 913a 3b02 823c 4c27 c03b 5247 263c
00000070: c834 dabb 494c af3b 2f41 083d 2a90 0f3d
00000080: 682e 233c 63fa 2a3c af5f 70bc 58b4 56bc
00000090: fd5b 8cbc 4db5 da3c e2e0 c43b aa62 153c
000000a0: b90b e23c 59ba df3a e189 3dbb a2da bcbc
000000b0: 4137 a7bb d138 803d f5df fb3c b0f5 24bd
000000c0: 377d c03c f33e 403d e000 72bc 6ef3 573b
000000d0: bb8b 2dbc 56d9 153c 3e38 6a3b 02e1 9f3d
000000e0: 2800 22bd 080e 55bd 19cd 193d d3fd e9b9
000000f0: 818c a93b e397 263a 2953 f33b 0849 f33c
00000100: c2a1 a83a 155b c63c 946d 5c3d 214d 95bb
00000110: 4d75 8e3b 7154 29bd 9977 d4bb 5f6e 293c
00000120: 2f1a 51bc 7600 1dbd 0373 653c d9fe cabc
00000130: 2f5a bbbc c560 9b3c 7c6f db3b f60d 35bc
00000140: 4a9f e63a 9c13 82bc 1c98 2fbd 2616 f53b
00000150: 6ad1 47bd a6df 8bbc cce6 0ebb 7a1d 653c
00000160: 9cdd 41bc 7a90 24bb 5579 08bd 0293 46bc
00000170: 02e9 a03c a0cc e13c 4d1d b33b a3fa 4b3c
00000180: ad49 0cbd c84f 113c b1b1 50bc 4012 853d
00000190: 93f0 003b 7174 b53c 3202 7e3d 119e 873d
000001a0: e30c 34bc 2c0e cdba cd31 57bc 762e 9e38
000001b0: 3c30 8abd ae8a 82bd 9ff2 ffbc 57e9 b8bc
000001c0: 2073 39bc a159 a33b 5647 c23b bffb a53c
000001d0: bb5d c83a f78e 383c c30c 773d 8b29 c63b
000001e0: cabb 783c ee85 f63c 559c 16bc 14dc 0fbb
000001f0: 3ab1 cebb de4b ffba 964b 00bd 78bf 4ebd
00000200: 0b5e e03c 4e8b 02bd 7069 d7ba d9de 3b3c
00000210: 86f0 513c cfa8 423b 008c 9bbb 3bde 473d
00000220: 2ed1 da3a ea9d eb3b 0e31 0fbd 44b5 d4bb
00000230: 19cb 2eba c308 213b ef91 8bbb 1d67 d23c
00000240: cf50 bb3c cf78 90bc 1ac6 e6bb b394 c43b
00000250: 100e 09bc 063c 773c 508f e2bb 5303 c33b
00000260: 87ab 5fbc de79 cc3c 6392 043c 8872 cc3b
00000270: ee8c 10bb 6cb1 043c e71b 2dbc e6f7 c3bb
00000280: 0928 a6bb 3cc1 803c 31a8 8b3d bbb0 463d
00000290: 5386 e2bc b29d e83b b672 2a3d c2e4 81bc
000002a0: e9fc b53a 3dcc a0bb 3c3d 063c 1f73 5dbc
000002b0: 3455 a63c 9d48 963b 8d02 a93c 26e9 9f3c
000002c0: fd0d a1bb a752 893c 3360 893c 1617 afbb
000002d0: 856f 0cbc ccd7 7c3b eee1 863b 2d50 04ba
000002e0: 8e6a 79bc fd87 27bc 086a 963b c9a6 d73a
000002f0: aba2 f0bb 2f8f 763d c828 61bc 2200 9b3b
00000300: 5355 bfb8 800f aaba d284 88bb 9e58 143c
00000310: fff6 1a3c 722e f73a d66e 3ebd 5986 08bd
00000320: 30e4 043c 60eb 24bd 4a5e 30bd 69b3 0f3c
00000330: dc31 223c c7c9 9fbc 486d 80ba 304d 27bd
00000340: 03cc f3bb a0c0 cd3b 6a85 38bd e85c 3fbc
00000350: 2a59 623a 1884 b53c a5af e6ba 1e9f 90bc
00000360: bc61 703c 2fe9 be3b bc2c ad3a 33b0 a73a
00000370: e6b5 283a 1edf 98bc 237c d9bb dd9f 35bc
00000380: 0c4c 683c 7705 2b3d 1f2c 36bd d481 943c
00000390: 3b54 26bd b9e2 e4bc 1dfe 8ebb c756 bc3a
000003a0: 69d4 82bc 66c5 e83b a0fa 12bd ca38 d2bc
000003b0: 8356 733c 2a37 87bd 09c4 76bd c6de 043c
000003c0: dfbc 0f3b cb5b 4a3c 5be9 68bc b5bc a9bb
000003d0: db61 d03c ff50 1ebc 1db2 b13c ef9b 803b
000003e0: ead3 0dbb 88ca 40bc cc7b febb 3c39 ff3b
000003f0: 3ed3 16bd 2455 f7bc bc30 b83c 54e6 a83b

layer4.0.bias f4 [64]
0.021519925 0.008105173 -0.011948145 0.0502725 -0.018711727 -0.059473503 0.009923467 -0.01917336
0.03976078 0.014916996 -0.020944288 -0.009458548 -0.037376188 -0.05619825 0.009593284 -0.034955036
0.016610824 -0.015195275 -0.036624845 -0.038626224 0.04472964 0.04496263 -0.03800678 -0.052633684
-0.044132955 0.06435006 0.0067471317 -0.0055420483 0.024424963 -0.017591896 -0.015781552 0.019192392
-0.03889329 0.010860864 -0.010704442 -0.012696474 0.0043594455 -0.03314698 -0.014049479 -0.039059572
0.07975946 0.01784088 0.026733212 -0.039488666 -0.01407389 0.046173256 -0.023832394 0.030892251
0.018258963 -0.044885527 -0.00033577756 0.00033122406 -0.022007722 0.011797213 -0.0013593595 -0.025093658
-0.023326103 -0.03588595 -0.019800771 -0.020170921 0.032710668 0.04522936 -0.019459795 0.002124576
00000000: 8e4a b03c 8fcb 043c 27c2 43bc 89ea 4d3d
00000010: 5649 99bc 7d9a 73bd 0a96 223c 7311 9dbc
00000020: 33dc 223d 6a66 743c 5b93 abbc 07f8 1abc
00000030: c617 19bd 2330 66bd 262d 1d3c 032d 0fbd
00000040: 6c13 883c 9af5 78bc ef03 16bd 8836 1ebd
00000050: 6d36 373d bc2a 383d ffac 1bbd 6b96 57bd
00000060: c2c4 34bd f7c9 833d 0b17 dd3b 129a b5bb
00000070: dc16 c83c e11c 90bc 5048 81bc 5d39 9d3c
00000080: 924e 1fbd c4f1 313c af61 2fbc df04 50bc
00000090: aed9 8e3b 21c5 07bd c92f 66bc eefc 1fbd
000000a0: ee58 a33d 0a27 923c 9cff da3c debe 21bd
000000b0: 2c96 66bc 2b20 3d3d 273c c3bc bf11 fd3c
000000c0: d293 953c e3d9 37bd 4d0b b0b9 24a8 ad39
000000d0: 8a49 b4bc 1949 413c 892c b2ba 3791 cdbc
000000e0: 6216 bfbc 25fd 12bd 3a35 a2bc 7d3d a5bc
000000f0: 9ffb 053d 6c42 393d 266a 9fbc 783c 0b3b
