FAST 3D-CNN P-NET/model/ZGFF/ZGFF_proto_2d-5shotband65.pth (torch, 606701 bytes, 24 tensors)

layer1.0.weight f4 [64, 65, 3, 3]
000000 d1 a5 07 bc 11 cb 6a 3c 18 d4 ac 3c 2a 78 26 bd
       -0.00827928 0.014330641 0.021097228 -0.04064194
000010 b6 a2 b4 3c 73 98 c8 3c 99 ae 8f bc 3b 88 80 bd
       0.022050243 0.024486756 -0.01753931 -0.06275984
000020 cd 0c 19 bd d8 38 08 bd 0b 10 46 bb 96 a5 01 3c
       -0.037365723 -0.033257335 -0.0030221965 0.007913014
000030 b6 1b 1d 3c 3b ff 8d 3c aa 1b b8 3a 51 7c a7 bc
       0.009589126 0.017333617 0.001404633 -0.02044502
000040 b8 c8 13 3d 8f b2 b1 3c b8 c2 f1 bc dc 33 c9 bc
       0.036080092 0.021691589 -0.029511794 -0.024560861
000050 e7 0d 34 3d 36 36 e5 bc 3d d0 e8 3b 85 fd 61 3d
       0.04395857 -0.027979951 0.007104902 0.055173416
000060 25 cd cb bc a6 1c d2 3b 63 e0 39 3d ef 7a 27 bd
       -0.024878094 0.0064121066 0.045380007 -0.040888723
000070 b2 7b 3e bb 0e be 86 3b 69 e9 d6 3c ff 94 c1 3c
       -0.0029065427 0.0041120118 0.026234346 0.023630617
000080 4c ff 42 3d f9 32 88 3c 89 37 d3 3c 05 75 a4 bb
       0.04760675 0.016625868 0.025783317 -0.0050188326
000090 20 fc 12 3b 5a 9e 13 3b 30 56 02 bd 86 bc 0c bd
       0.002242811 0.0022524805 -0.031820476 -0.034359477
0000a0 74 e8 7d 3c f0 7e bb 3c dc 02 7b bc fe 35 7b 3c
       0.015497316 0.022887677 -0.015320506 0.015332697
0000b0 68 cf 03 bd 8b a8 19 bd b4 cb ab 3b 9e f9 e4 bb
       -0.03218022 -0.03751425 0.005242789 -0.0069877645
0000c0 9a ed e3 3b 2d 0d 57 3c 81 87 23 3d e7 52 0f bc
       0.0069558145 0.0131257 0.03992415 -0.008747793
0000d0 9f bb 45 3a 68 0a f1 3c fc e1 95 3c a3 eb 94 3b
       0.00075429113 0.029423907 0.018296234 0.0045446916
0000e0 5b 8f 1f 3d 91 c3 d7 bb c3 bb e4 bc fa e3 05 3c
       0.038955074 -0.0065845926 -0.027921563 0.00817203
0000f0 82 66 2d 3d ee 76 fe 3b c2 e0 49 3c 0c 0e 43 bc
       0.042334087 0.0077656424 0.012321653 -0.0119052045
000100 b3 60 f4 3c 31 b1 fd bb 75 1a 4e 3c f2 fa 4c bc
       0.029831266 -0.00774207 0.01257955 -0.012511002
000110 29 d2 00 3b 44 03 df bc 68 f9 cc 3c 34 a2 13 3c
       0.0019656515 -0.027223237 0.02502127 0.00901084
000120 79 89 23 3d 0e d8 b2 3c 6b a5 8a bc 6e 7b 19 bc
       0.039926026 0.021831539 -0.01692458 -0.009367807
000130 63 2e 81 3c 4e 4d 0c bd b4 2e b1 3c ea e5 1e bd
       0.01576919 -0.03425341 0.021628715 -0.038793482
000140 af 55 05 3d 8d 93 69 3b 9e b9 0f bd 72 8d 6f bc
       0.032552417 0.0035640926 -0.035089128 -0.0146211255
000150 88 1c 78 bd 0c 76 24 bb 8b 87 2e 3d 60 42 0d 3d
       -0.060574085 -0.0025094775 0.042609733 0.03448713
000160 7f c5 01 3d 82 af 52 3d a5 dd bd 3b 02 e1 32 bd
       0.031682488 0.05143691 0.0057942444 -0.043671615
000170 52 ee b5 3b 0f 24 ae 3b ce 5d 07 bd 7b 24 fa ba
       0.0055520916 0.005314357 -0.033048443 -0.0019084358
000180 10 a8 ab bc 26 53 5d 3b 4b 7c fd 3c 03 cb 6c bb
       -0.020954162 0.0033771484 0.030943057 -0.0036131747
000190 fa f9 e3 bc 36 f9 bb bc 52 93 82 3b 8c f0 4d bd
       -0.027829159 -0.022945981 0.003984847 -0.05027823
0001a0 59 25 0f 3d 33 ca 94 3c 8e e0 fb bc d3 79 cf bc
       0.034947727 0.018162822 -0.030746724 -0.025326645
0001b0 58 ca e5 bb 10 21 a0 3c 8c 0d 19 3d 11 94 13 bd
       -0.0070126466 0.019547015 0.037366435 -0.03602988
0001c0 17 e4 0a 3d e0 58 d4 3c eb e0 df bb fd fe 80 3c
       0.03390893 0.025921285 -0.0068322322 0.015746588
0001d0 44 a0 07 3d a0 b3 f2 bc 9a b5 56 bc a1 96 c4 bb
       0.033111826 -0.029626667 -0.013104821 -0.0059994017
0001e0 01 e1 b4 3b 1d 1f 08 3c b7 0d 10 bc 1a 1c ad bc
       0.0055199866 0.008308199 -0.008792332 -0.021131564
0001f0 3f 74 e4 bb ad 26 5d 3a d4 b0 ac 3c fb ec c4 bc
       -0.0069718654 0.0008436244 0.021080412 -0.024038782
000200 f6 92 3a 3d a5 11 f2 3c 1a 02 0f bd 54 4d 2f 3b
       0.04555031 0.02954943 -0.034914114 0.0026748972
000210 f0 7a 64 3c 5a 26 b3 3c e5 b8 01 3c a5 f3 c2 bb
       0.013945326 0.021868873 0.007917617 -0.005949455
000220 dc 90 c7 bc 56 ef 14 3d 2d 0b 02 bd 2e 95 36 3d
       -0.024361067 0.03636106 -0.03174894 0.044575863
000230 75 09 0c 3d cd 41 21 3d 64 13 bf bc dd dc ca 3b
       0.034188706 0.039369393 -0.023324676 0.0061908797
000240 b7 ee 36 bd b6 4b 2c bc f5 86 14 bd df 56 6f bd
       -0.04466125 -0.010516098 -0.036261518 -0.058432456
000250 5a b7 5c 3b 63 15 f0 39 58 02 8c 3c 6e b2 66 bd
       0.0033678622 0.00045792302 0.017090961 -0.056322508
000260 0c 10 1d bd 49 a4 04 3d aa 8b 57 3d 1b 9d 41 3d
       -0.03834538 0.032383237 0.05262343 0.047268968
000270 f0 d5 20 3d 0a 84 5b 3b 38 76 03 3d 2e cc 20 3c
       0.039266527 0.003349545 0.032095164 0.009814305
000280 e5 38 6d bc 27 72 25 3d 9e da fc 3b 6c f3 c6 3c
       -0.014478897 0.040392067 0.007716491 0.024285994
000290 22 63 6b bc 59 f1 ea ba 98 9b 02 3b 03 ce c4 3c
       -0.014366897 -0.001792471 0.0019929167 0.024024015
0002a0 d3 f3 88 3c 81 ad 03 bd ad 6c 83 3c 75 d4 d4 3b
       0.016717827 -0.032147888 0.016043032 0.0064950534
0002b0 eb eb 72 3c c5 e5 e6 bc 20 b4 27 3c 05 46 18 3d
       0.014826755 -0.028185735 0.010235816 0.03717615
0002c0 33 35 91 3c 4d 47 bf bc 8c 38 01 bd 6c 3f 2a bd
       0.017725563 -0.023349429 -0.031548068 -0.04156439
0002d0 16 3d c7 3c 20 d6 c8 bc 8e 49 8a 3b 66 6f d7 3b
       0.02432112 -0.024516165 0.004220194 0.006574559
0002e0 18 b4 18 bd a7 f5 53 3d 0a d5 d3 3c 1e ce c9 bc
       -0.037281126 0.051747944 0.02585842 -0.024634417
0002f0 5d 4e 13 3c a1 f5 0c bc 1e e2 d7 3c 5c 8d 6a 3c
       0.008990851 -0.008603484 0.026352938 0.014315929
000300 32 b2 56 bd 91 05 5e 3c 34 f6 79 3c bf 98 75 bb
       -0.052416034 0.013551132 0.015256453 -0.0037475077
000310 78 31 0a 3a 9c 59 e9 3b 58 40 04 bd c9 a2 41 bd
       0.00052716536 0.007121278 -0.032287925 -0.047274385
000320 d0 c7 13 3d 70 dc fe 3b 08 17 14 bc 2b 5c 4c 3d
       0.036079228 0.007777743 -0.009038694 0.049892586
000330 0c a0 44 bd 24 10 40 bd cf 8c 19 3d b8 0c a5 3c
       -0.048004195 -0.046890393 0.0374878 0.020147666
000340 b5 7f b7 3c 2d 02 0f 3d e7 3e 1b 3d c8 8f ec bb
       0.022399763 0.034914184 0.037901785 -0.0072192885
000350 03 89 4e 3d c8 d1 36 3d 3c 2c 3b bb 44 22 0b bc
       0.050423633 0.044633657 -0.0028560301 -0.008492056
000360 29 55 d6 bc f0 13 20 bd 6e 14 12 3c c3 8c 93 3b
       -0.026163654 -0.039081514 0.008916004 0.004502864
000370 9c 39 bd bb 80 4b c3 3b 3a db c4 bc 8f 5a c1 bc
       -0.00577469 0.005959928 -0.024030317 -0.023602752
000380 65 3b da bb 2d eb a8 3c 21 f6 ec bb d4 cc 8c 3c
       -0.0066599124 0.020619953 -0.0072314893 0.017187513
000390 9b 35 09 3b 5f c0 00 bd be eb 19 bd 02 a0 d1 3c
       0.0020936492 -0.03143346 -0.037578337 0.025588993
0003a0 1c 20 84 3c be 0b f8 bc 2e 67 a8 3b 00 c5 07 bc
       0.016128592 -0.030279037 0.005139253 -0.008286715
0003b0 7d 97 a7 bc c7 a2 aa bc 8a 37 03 3c d8 57 c3 bc
       -0.020457977 -0.020829571 0.008008847 -0.023845598
0003c0 2e 96 69 3c ee 00 c2 3c 79 d5 e7 3c 23 a5 55 3c
       0.014256997 0.023682084 0.028300034 0.01303986
0003d0 6a 4d 1c bd 42 d2 44 3b c3 ac 07 bd 1b 81 74 3c
       -0.038159765 0.003003255 -0.033123743 0.014923359
0003e0 1c e6 85 bc bc 87 a5 3b 1c 12 96 3c 0b 19 39 3c
       -0.016345076 0.005051581 0.018319182 0.011297475
0003f0 ee d1 82 3c 73 4b d2 bc 18 fb 5b bc df d9 d5 bc
       0.015969243 -0.025670743 -0.013426565 -0.026104866

layer1.0.bias f4 [64]
000000 48 c9 16 3f 1b 3f 2d 3f 0b 24 2b 3f 2a 64 2e 3f
       0.5890088 0.67674416 0.6685187 0.6812159
000010 2e 53 3b 3f f9 a6 15 3f 58 e3 24 3f 1f 8d 25 3f
       0.731738 0.58457905 0.644094 0.6466846
000020 b6 5b 2b 3f aa a1 30 3f e6 86 32 3f c0 fe 0c 3f
       0.66936815 0.6899668 0.6973709 0.5507622
000030 b6 95 3b 3f 07 c5 1e 3f b4 ed 17 3f 9b 24 3e 3f
       0.73275316 0.6201939 0.5934708 0.74274606
000040 70 ee 25 3f e3 68 28 3f 4e 68 23 3f 1a 43 42 3f
       0.6481695 0.65785044 0.6383103 0.7588364
000050 3b f7 43 3f a4 8e 41 3f c1 59 25 3f 90 f7 1f 3f
       0.7654912 0.7560828 0.6459008 0.62487125
000060 41 60 39 3f 4b fd 49 3f 43 ed 21 3f 6c d5 3b 3f
       0.72412497 0.7890212 0.6325266 0.7337253
000070 9f a3 51 3f b9 b8 2b 3f e2 22 1d 3f 20 87 0d 3f
       0.8189029 0.6707874 0.6138135 0.5528431
000080 ef a5 00 3f c7 b6 22 3f 4a a8 3e 3f 81 8f 44 3f
       0.50253195 0.63560146 0.7447554 0.7678147
000090 d1 f7 3c 3f 8c 19 3c 3f 12 54 44 3f de 7c 09 3f
       0.7381564 0.7347648 0.7669078 0.5370616
0000a0 57 62 33 3f 7e 6d 2b 3f f3 5e 40 3f 21 fe f7 3e
       0.7007193 0.66963947 0.7514488 0.48436072
0000b0 89 bc 31 3f 14 28 41 3f 7d 11 43 3f 82 b5 30 3f
       0.69428307 0.7545178 0.7619856 0.6902696
0000c0 a7 12 23 3f b4 4e 25 3f e6 57 35 3f 77 80 27 3f
       0.63700336 0.64573216 0.7083725 0.65430397
0000d0 da 86 45 3f b8 f2 14 3f 52 7e 2b 3f 2e ef 3f 3f
       0.7715889 0.5818286 0.66989625 0.74974334
0000e0 79 b1 41 3f 3f 57 f7 3e 50 dd 2f 3f 9a 3c 36 3f
       0.75661427 0.4830875 0.6869707 0.7118622
0000f0 34 cd 46 3f ac 02 27 3f b9 b6 1d 3f d3 df 20 3f
       0.77656865 0.6523845 0.6160694 0.6284153

layer1.1.weight f4 [64]
000000 30 e0 79 3f e0 eb 79 3f 68 06 80 3f b1 30 77 3f
       0.9760771 0.9762554 1.0001955 0.9655867
000010 97 ec 7e 3f 2a 7b 85 3f 54 70 7c 3f 01 ab 80 3f
       0.9957976 1.0428212 0.986089 1.0052186
000020 4f 33 80 3f 8d fd 80 3f dd 49 81 3f ed b9 80 3f
       1.0015658 1.0077378 1.0100666 1.005674
000030 24 ed 7d 3f d4 03 7d 3f 36 33 79 3f 50 20 81 3f
       0.9918997 0.98833966 0.97343767 1.0087986
000040 06 a5 80 3f 20 26 81 3f fd ca 7d 3f 73 2f 81 3f
       1.0050361 1.008976 0.9913786 1.0092605
000050 cd 69 81 3f e5 10 7e 3f f0 67 82 3f ca a1 80 3f
       1.0110413 0.9924453 1.0187969 1.0049374
000060 22 89 81 3f 5a d7 7f 3f 30 28 70 3f d5 10 85 3f
       1.0119975 0.99937975 0.9381132 1.0395762
000070 e5 bc 7c 3f e5 08 80 3f 80 74 7d 3f dd d9 78 3f
       0.9872573 1.0002714 0.9900589 0.97207433
000080 77 94 80 3f 85 aa 7f 3f cc fe 7c 3f 1e 83 80 3f
       1.0045308 0.9986957 0.9882629 1.0040014
000090 4f 05 7d 3f bd 02 81 3f 70 c0 80 3f 23 f3 7c 3f
       0.98836225 1.0078961 1.0058727 0.988085
0000a0 54 b1 83 3f 4c e2 81 3f 9c 31 79 3f 37 12 7f 3f
       1.0288491 1.0147185 0.9734132 0.9963717
0000b0 df c6 7e 3f dc ed 83 3f a6 42 82 3f 0b 2a 77 3f
       0.99522203 1.0306964 1.017659 0.9654853
0000c0 bf 25 78 3f 4c 21 73 3f 1c 0b 82 3f 59 5b 78 3f
       0.96932596 0.9497268 1.015964 0.97014385
0000d0 b5 33 82 3f 38 a1 7f 3f 10 5e 81 3f 35 91 83 3f
       1.017203 0.99855375 1.0106831 1.0278689
0000e0 28 1d 80 3f 62 58 7c 3f 94 19 86 3f 51 d6 82 3f
       1.0008898 0.9857236 1.0476556 1.0221654
0000f0 c3 66 7f 3f 00 25 7b 3f 41 2c 80 3f 8f 6c 73 3f
       0.99766177 0.9810333 1.0013505 0.9508752

layer1.1.bias f4 [64]
000000 f6 6a 0b bc e6 71 93 bc 53 bf 51 bd 35 18 0e bd
       -0.008509388 -0.017998647 -0.05120785 -0.034691054
000010 a6 c7 4c bc 53 db 5b bd ef 5d ad ba 6c a1 35 bd
       -0.012498772 -0.05367596 -0.0013226847 -0.044343397
000020 42 a5 61 bd d0 11 1a bd 99 c1 35 bd 43 c3 4e bd
       -0.055089243 -0.037614644 -0.044374082 -0.050479185
000030 98 6e 4a bc 42 41 85 bd 60 21 08 bd fa 3b b3 bb
       -0.012355469 -0.065065876 -0.033234954 -0.0054697962
000040 2b a6 25 bd f0 96 4c bd 37 94 7a 3c 5b 3b 1e 3b
       -0.040441673 -0.049948633 0.015294126 0.0024144265
000050 61 c8 24 bd 58 cf 4e bd 06 9b 0e bd 64 52 77 bd
       -0.04023016 -0.050490707 -0.03481581 -0.06038131
000060 b0 a2 eb bc cd ec f7 bb 2b 59 bc bc 9d 32 3a bd
       -0.028764099 -0.0075660706 -0.022991737 -0.045458425
000070 86 d7 89 bd e7 38 5d bd c6 bd 5f bc 15 d3 a2 bc
       -0.06730561 -0.054009344 -0.013656085 -0.019876042
000080 40 08 34 bd 6c 0c 92 bd d9 08 1b bd dd 09 2a bd
       -0.04395318 -0.071312755 -0.037850235 -0.041513313
000090 82 9a 5f 3c 4e 7e 34 bd 14 4a 5b bc 8c 8a 96 bd
       0.013647677 -0.044065766 -0.013384361 -0.073506445
0000a0 d7 eb b5 bc 2e 17 48 bd 0f b8 94 bc 89 77 61 bd
       -0.022207184 -0.04885023 -0.018154172 -0.05504564
0000b0 02 71 70 bc 38 a2 29 bd 02 d6 60 bd 78 10 3c bb
       -0.014675381 -0.04141447 -0.054891594 -0.002869634
0000c0 89 5a 96 3b 4a e5 66 bb 5a 3b a9 bd 6c 1a a0 bb
       0.0045884294 -0.0035231882 -0.082632735 -0.0048859622
0000d0 9a 2f d9 bc d4 2e 94 bd c8 aa 1a bd ac 7c 40 bd
       -0.026511956 -0.07235494 -0.037760526 -0.046993896
0000e0 39 82 75 bd 35 04 8e bd 28 e2 69 bd 69 af 17 bd
       -0.059938643 -0.06934396 -0.057100445 -0.03703252
0000f0 f9 52 2d bd 3d e2 7c bd 6c 07 fb bc f5 62 e3 3a
       -0.042315457 -0.061739195 -0.030643187 0.0017348217

layer1.1.running_mean f4 [64]
000000 f6 6f 89 3f 94 c3 73 3f 61 35 0e 3e 1e 4a 40 3f
       1.0737293 0.95220304 0.1388755 0.75113094
000010 7d 2d 3c 3f 26 0d 73 bd 69 8f 29 3f 67 4a ab 3e
       0.7350691 -0.05933871 0.6623445 0.33455202
000020 5b 5f d2 3e 12 2c 16 3f 49 d0 23 3f 14 1a da 3b
       0.41088375 0.58660996 0.6398969 0.006655941
000030 d1 d3 5f 3f de ae 3b 3e ba cc b6 3d 2e e0 28 3f
       0.8743258 0.18328425 0.08925767 0.6596707
000040 3c 83 bf 3e 00 f8 b5 3e 9b 30 5c 3f 39 c6 5c 3f
       0.3740481 0.3554077 0.86011666 0.86239964
000050 0f a9 22 3f 95 85 2c 3f f1 d1 f0 3e 05 3e e7 3d
       0.6353921 0.6739133 0.47035173 0.11291126
000060 65 3c 50 3f 97 0c 33 3f c9 77 2c 3c 90 c3 11 3f
       0.81342155 0.69941086 0.010526606 0.5693903
000070 e6 f3 28 3f 06 90 fe 3e f0 0b 8c 3f 01 80 01 3f
       0.6599716 0.49719256 1.0941143 0.50585943
000080 9a 1f 84 be c2 2d 03 3e d0 ed 54 3f 83 38 2a 3f
       -0.2580536 0.12810424 0.83175373 0.6649248
000090 b0 a3 59 3f 49 e6 29 3f e4 95 39 3f 41 4b 4e be
       0.8501539 0.6636701 0.7249434 -0.20145895
0000a0 ba 85 f7 3e 8f 04 2c 3f ee dd 04 3f 81 81 0e be
       0.48344213 0.67194456 0.5190114 -0.1391659
0000b0 a7 15 d1 3e 6c 14 0a 3f 2f 03 0b 3f f7 bf 4f 3f
       0.40836832 0.5393741 0.5430173 0.8115229
0000c0 43 a8 4c 3f 62 62 6c 3f 72 aa f7 3e 9d a6 78 3f
       0.79944247 0.9233762 0.48372227 0.9712923
0000d0 41 3e 39 3f fa 13 cd bd 21 4d f0 3e 65 65 1a 3f
       0.72360617 -0.10013576 0.46933845 0.60310966
0000e0 2c 9f 1c 3f 9e 79 9d be 00 6c cd 3e 4d d6 21 3f
       0.61180377 -0.3075685 0.4012146 0.6321762
0000f0 9d 46 20 3f 19 ca c4 3e ea cf d9 bd 78 15 4e 3f
       0.6260775 0.38435438 -0.106353596 0.8050151

layer1.1.running_var f4 [64]
000000 ad 45 7e 40 fc b1 c6 3f d2 13 91 40 34 12 24 40
       3.9730027 1.5523067 4.5336695 2.563611
000010 0e c4 1d 3f 37 85 20 41 80 26 7c 40 3e e3 30 40
       0.6162728 10.032523 3.9398499 2.7638698
000020 31 63 27 40 9e 4d 9c 3f f4 cf 8a 3f ce ab 83 41
       2.6154292 1.2211187 1.0844712 16.458889
000030 60 04 37 3f 81 04 80 40 cd 56 a6 40 4a b0 db 3e
       0.7149105 4.00055 5.198096 0.42907935
000040 69 c8 57 40 b8 b0 ed 3f 79 06 03 40 3d 0c 4f 3f
       3.371607 1.8569555 2.04727 0.8087805
000050 3c 2b 71 3f 8d 2c 50 3f ca 13 e4 3f a4 a0 c3 40
       0.94206595 0.8131798 1.7818539 6.1133595
000060 75 a8 ff 3f 01 96 ca 3e dc b8 e9 40 6f 86 41 3f
       1.9973284 0.3956757 7.303816 0.75595754
000070 7d f4 18 3f 8b 47 0d 40 45 89 40 40 e6 fc 50 40
       0.5974806 2.2074916 3.0083783 3.2654357
000080 43 06 80 41 26 ae b3 40 f0 34 aa 3f e2 73 22 3f
       16.003057 5.6150084 1.3297405 0.63458073
000090 5a 71 62 3f c3 82 54 3f 41 61 91 3e c3 28 4b 41
       0.8845421 0.83012027 0.2839451 12.697452
0000a0 4c ea c6 3f f9 16 f6 3f a2 ec 92 3f a3 1f 38 41
       1.5540252 1.9225761 1.1478465 11.507724
0000b0 bf 7e 08 40 1b 88 bf 3f 49 30 b8 3f 0a fc f5 3f
       2.132736 1.4963411 1.4389735 1.9217541
0000c0 83 c3 44 40 5b 4a 2d 40 cc ca f5 3f 27 47 16 40
       3.074433 2.7076633 1.9202514 2.3480928
0000d0 95 c3 cb 3e ff 23 3c 41 ec 76 c9 3f 66 d8 37 3f
       0.39797655 11.758788 1.5739417 0.7181457
0000e0 70 0a 90 3f 7f f4 6c 41 07 bb 5e 40 39 c9 0e 3f
       1.1253185 14.809691 3.4801652 0.5577579
0000f0 07 ee 56 3f f6 a8 9f 3f 47 77 ad 40 51 37 a1 40
       0.8395695 1.2473438 5.42081 5.0380025

layer2.0.weight f4 [64, 64, 3, 3]
000000 db 07 6a 3c 2e 59 a5 3c ab 49 54 bd c1 6e 9b 3b
       0.014284099 0.020184126 -0.051828068 0.0047434275
000010 b6 5b 0a 3c 6b 87 ed bc fc eb 94 bc 2a 49 6d bd
       0.008444717 -0.028995236 -0.018178932 -0.057931103
000020 71 03 dc bb 7b 5b 05 3b 56 08 c6 bc 68 c9 70 bc
       -0.0067142774 0.0020348716 -0.024173897 -0.0146964565
000030 59 67 09 bd 83 20 04 bd ad 6c 8d bb b5 6c fa bc
       -0.033545826 -0.032257568 -0.0043159337 -0.030569414
000040 96 cd 48 bc 54 41 e5 bc a9 15 58 3c 5b f0 9a 3c
       -0.012256047 -0.027985252 0.013188758 0.018913439
000050 38 15 8d bc 74 fd 8f 3c a1 0a f6 bc 4c 34 b6 3c
       -0.017222032 0.01757691 -0.030034365 0.022241734
000060 f0 1b e2 bb ed 1d 39 bb 89 3c 81 3c fc f6 0f bd
       -0.006900303 -0.0028246597 0.015775936 -0.035147652
000070 75 ee 44 bd 4d 3c 41 bd 9f 7b 88 3c c0 5e 99 3c
       -0.048078973 -0.047176648 0.01666051 0.018721938
000080 ee dd 0a bd 8a 99 3c bd 82 f3 c6 bc 6a 15 ae 3c
       -0.033903055 -0.046044864 -0.024286035 0.021250445
000090 f8 16 30 3d 25 55 be 3c 94 03 17 bc 58 68 2b 3c
       0.042990655 0.02323396 -0.009217162 0.010461889
0000a0 f6 f3 92 3c a1 8c c1 ba 86 b8 d0 3b bb 00 0d bd
       0.017938595 -0.0014766642 0.006369653 -0.034424525
0000b0 69 56 dd ba 34 2b 11 3d 31 ce d9 bc a4 e2 0a 3c
       -0.0016886714 0.035441592 -0.026587578 0.008476887
0000c0 a6 73 0d 3b 11 5f a3 3c 06 26 f2 3c 6e 5e 05 3c
       0.0021583824 0.019942792 0.029559147 0.00814019
0000d0 64 12 14 bd 74 33 c4 3b 3c 0c 37 bc fe e5 eb 3c
       -0.03615035 0.005987579 -0.0111723505 0.028796192
0000e0 b2 bc 35 3c 17 a0 7a 3c 79 39 19 bd d2 85 4c bc
       0.011092352 0.015296957 -0.037408326 -0.012483077
0000f0 64 1f fb bc fa d2 08 3d 7f 41 02 3d 96 74 de bc
       -0.030654617 0.033404328 0.031800743 -0.027155202
000100 64 a2 73 bc a4 8a 1b bd d9 9d 12 bd 3d 8d 5b bd
       -0.01487026 -0.037974015 -0.035795067 -0.053601492
000110 da 95 0c 3c e0 59 56 bd fa 0d bd bc c2 14 13 bd
       0.008580649 -0.052331805 -0.023077954 -0.035908468
000120 b7 da de 3c 64 c1 11 3c b9 66 9a bb 2a e8 4b bd
       0.0272039 0.008896206 -0.0047119525 -0.049781956
000130 58 55 25 bd 16 c8 02 bd 20 ac 17 3b 34 cd 36 bd
       -0.040364593 -0.031929098 0.0023143366 -0.04462929
000140 ea 43 08 3c 66 98 12 3c e1 14 9a bc b7 af f4 3b
       0.008316973 0.008947467 -0.018808784 0.007467236
000150 bf 4b f7 3c cb 3b ae b9 a4 84 34 bc d2 78 42 3c
       0.030187486 -0.00033232415 -0.011017952 0.011869626
000160 13 75 98 bc 77 11 54 3b e2 2b 4f bb 32 89 37 bd
       -0.018610513 0.0032359043 -0.003161185 -0.044808574
000170 ea bc 85 3c 0e ea 53 bb 67 d9 20 bb aa 23 83 bd
       0.016325433 -0.0032335552 -0.0024543644 -0.06403287
000180 6d 71 6a 3b 7a a7 49 3c 06 df a9 3c eb e7 f3 bc
       0.0035773173 0.012307996 0.020736229 -0.029773673
000190 74 5b 01 3c 01 08 a4 bc 6f 98 38 bd cf 92 d2 ba
       0.007895339 -0.020023348 -0.045067247 -0.0016065481
0001a0 34 d8 4b bc 56 9c c6 3c bd 86 51 bd 8e 52 7c 3c
       -0.012441684 0.024244469 -0.051153887 0.015400542
0001b0 0c c6 93 bc 7f c2 06 bd d8 f2 b8 bc c8 69 3f 3c
       -0.018038772 -0.03290033 -0.022576734 0.011682935
0001c0 76 5d d0 3a c3 36 46 bd 7c e7 e7 bc 85 55 ac 3c
       0.0015896994 -0.04839207 -0.028308623 0.021036873
0001d0 0c 1a c7 bc 34 ba 0d bd 8d f6 63 ba 29 3e 5d bc
       -0.024304412 -0.034601405 -0.0008696102 -0.01350359
0001e0 26 9b 84 3c 8e 13 78 bc 1b 6c d4 3c b7 07 7a bc
       0.016187262 -0.015141381 0.025930455 -0.015260628
0001f0 22 4a b4 bc ec 58 e1 3c ba c1 4c bb 25 93 b0 bc
       -0.022008006 0.027508222 -0.00312434 -0.021554539
000200 c4 58 42 3d 15 4c 13 3d d9 84 c6 3c 88 e5 dc 3c
       0.047447935 0.03596123 0.024233269 0.026964918
000210 7b de 1c 3d a3 24 09 3c 18 1b 10 bd d6 14 72 bc
       0.03829811 0.008370551 -0.03518209 -0.0147754755
000220 de 7e c5 bc 85 51 a3 3a 5f 62 e8 3b f9 a0 0e bd
       -0.024108347 0.0012460208 0.007091805 -0.034821484
000230 1f fd f9 bc 0b 1e b3 bc ad 58 a8 3c fc c2 05 bd
       -0.030516205 -0.021864912 0.020550096 -0.032656655
000240 15 3d e1 bb 0a 08 fb 3c e6 41 5c 3c c7 96 77 3b
       -0.0068737366 0.030643482 0.013443446 0.003777908
000250 05 d2 d1 3b 3e 23 4a bd 94 96 0d 3c 71 60 f1 bc
       0.00640321 -0.049350016 0.008641858 -0.029464932
000260 27 6d 6d bd 0e 2b c8 3c 78 be e5 3c 25 a0 f6 bc
       -0.057965424 0.024434593 0.028044924 -0.03010566
000270 68 18 2c bc 34 42 e8 bb 69 dc 3d 3d ea b5 32 3d
       -0.010503866 -0.00708797 0.046352778 0.043630518
000280 d2 d6 69 3c 56 80 dd 3c 91 b1 bd bc d6 35 0b bd
       0.014272409 0.027038734 -0.02315596 -0.03398689
000290 ef c1 6d bd 0d f3 12 bd ce 36 3e bd a7 a7 10 bd
       -0.058046278 -0.035876323 -0.046438985 -0.035316136
0002a0 a3 75 9e 3c 4d 84 4d bd 34 12 17 bd 8f cb 5e 3d
       0.019343203 -0.050175 -0.036882594 0.054393347
0002b0 fc e4 06 3c ec 4b ce 3c 71 11 9c bb df 86 37 bd
       0.008233305 0.025182687 -0.0047628214 -0.044806357
0002c0 4b b5 a5 bc fa 7b fa 3b 10 67 38 bc 0b 7f 2e bb
       -0.020228049 0.0076441737 -0.011255041 -0.0026626016
0002d0 c2 24 72 bc 2d c1 2f 3d ae 53 0b 3d e6 3b c2 3c
       -0.014779272 0.042908836 0.03401535 0.023710202
0002e0 2b 3c 4a 3d b2 be d6 bb 20 69 45 3d ee 75 ba 3c
       0.049373787 -0.0065534944 0.04819596 0.022761311
0002f0 68 a6 66 3d aa 22 3b bd fb 65 a3 bc 1c e5 68 bc
       0.05631104 -0.045687355 -0.019946089 -0.01421478
000300 7e f6 82 bb fb bc 81 bc df c3 cf bb fc 2c 7e bb
       -0.0039966693 -0.015837183 -0.0063404883 -0.0038784137
000310 59 f6 01 3a 5b 84 ea 3c cc d4 3a bd 10 82 96 bb
       0.0004957668 0.028627565 -0.045613095 -0.0045931414
000320 4c ab c0 3c 4c 12 61 3c 40 e4 8d 3c 1a 73 2b 3c
       0.02351918 0.0137372725 0.017320752 0.010464454
000330 f3 aa da 3c 8a 36 c9 3c d2 f7 e5 3c c7 eb 84 3c
       0.026692843 0.024562139 0.028072271 0.016225709
000340 be 32 b9 3c 53 ca 84 3c 07 78 d6 ba 62 f9 9c bc
       0.022607204 0.016209757 -0.0016362675 -0.019161884
000350 a8 d9 0d 3d f1 57 cf bb d3 e7 a6 bc 6d 55 c9 3c
       0.0346314 -0.006327622 -0.020374214 0.024576867
000360 eb 31 90 3c b0 fe d5 3c 5d 4d 0d bb 97 fe 34 3d
       0.017601928 0.026122421 -0.0021561005 0.04418811
000370 3a 9c fe 3c fe c1 0a 3d dd 48 25 bc 44 8e 9f bc
       0.031080354 0.03387641 -0.010088173 -0.019477017
000380 b6 c3 c7 3c d4 49 8a 3c 4b 1d 17 3c 2a 99 0f bc
       0.024385314 0.016880907 0.009223293 -0.0087645445
000390 31 3d 40 bd 64 76 1c 3d 53 b5 3f bd 35 92 1f bd
       -0.046933357 0.038198844 -0.046803784 -0.038957793
0003a0 0f 68 94 bc f7 38 6a bb aa 4e 94 3b da 28 a9 3b
       -0.018116025 -0.003573952 0.004525979 0.0051623406
0003b0 2a dd 0c bc 90 b2 d8 3b aa 4d d4 3c cc 3d 97 3c
       -0.0085976515 0.006613083 0.02591594 0.018462084
0003c0 7b 7b 64 3c 23 4d b0 bc 31 2a 16 bb 71 3a 24 3c
       0.013945456 -0.021521157 -0.0022913332 0.010023699
0003d0 3e 11 91 3c 68 59 fc 3c 6e 7f 14 3d 34 4b 03 3d
       0.017708417 0.030804351 0.03625434 0.03205414
0003e0 b2 d8 2b bd fd 62 f5 3c c8 87 86 3c 14 06 02 bd
       -0.041954704 0.029954428 0.016422167 -0.031744078
0003f0 6b dc c1 bc 5a 49 81 bc 01 ab a8 3c 6b ae a2 3c
       -0.023664674 -0.015782047 0.020589354 0.01985856

layer2.0.bias f4 [64]
000000 3c a8 c5 bb 9e c7 db 3c 60 75 2a bc 7e 0f f7 3c
       -0.006032018 0.026828583 -0.010403961 0.030158754
000010 29 e3 6b bc c2 5b 93 3c 34 2d cf 3c 54 cd 63 3c
       -0.014397421 0.01798809 0.02529011 0.0139039345
000020 8b 58 ce 3c 41 2c 03 3b 2b 28 d6 bc c3 16 de bb
       0.025188705 0.002001539 -0.0261422 -0.0067776158
000030 d1 b3 85 bc 7d 42 97 bc f6 a3 8f 3c 5e 6b 91 3c
       -0.016321095 -0.018464321 0.017534237 0.017751392
000040 b0 60 a1 bc 70 29 ca 3c a8 fa b3 3b c7 21 dc 3c
       -0.019699425 0.024677962 0.005492527 0.026871575
000050 a6 83 20 bd 4d da 18 3d f1 17 09 bd 83 2b a4 bc
       -0.03918805 0.037317563 -0.033470098 -0.02004028
000060 18 94 0b 3d 61 a1 fa bb e0 31 15 bd f9 ce 0e ba
       0.03407678 -0.0076486324 -0.036424518 -0.00054477114
000070 0c 04 32 3c 28 5e c6 3c 20 ce de bc b2 b6 53 3b
       0.010865223 0.02421482 -0.027197897 0.003230494
000080 26 73 a3 3c b3 b1 5c bc ea 9b 1c bd 2f aa f9 3b
       0.019952368 -0.013470101 -0.03823463 0.0076191644
000090 ca 17 20 bd aa 66 72 3c c5 14 47 3a cf 2e fa bc
       -0.039085187 0.014794985 0.00075943425 -0.030539898
0000a0 2f 7c ce bc 8f 10 76 3c 8a 6e fa bc 67 da 06 bd
       -0.0252057 0.015018596 -0.030570287 -0.03292313
0000b0 95 75 c2 3b be 6b e3 3b 94 4b 97 3b 71 8e 48 3c
       0.005934427 0.006940334 0.004617164 0.012240992
0000c0 f1 3b 2e 3c 44 01 6d 3c ea ec d8 3b f3 a5 08 bd
       0.010634408 0.014465634 0.006620039 -0.033361387
0000d0 00 44 e6 3c e1 15 26 ba df f1 25 3c c2 a4 fe 3b
       0.028108597 -0.00063356577 0.010128467 0.0077711055
0000e0 84 aa 07 bd 66 20 0c 3d 81 6f 20 3d ef 38 0b 3d
       -0.0331216 0.034210585 0.03916884 0.033989843
0000f0 e2 83 50 bc 5b e9 d1 bc a1 7d 96 bc 31 7c c7 3c
       -0.012726756 -0.025623968 -0.018370451 0.024351211

layer2.1.weight f4 [64]
000000 90 a0 7f 3f f3 4e 80 3f ab 74 7f 3f 11 d9 7f 3f
       0.99854374 1.0024093 0.99787396 0.9994059
000010 19 d5 81 3f 48 23 7f 3f 99 76 7d 3f 63 6e 86 3f
       1.0143157 0.9966321 0.9900909 1.0502437
000020 de 58 7f 3f 95 97 7f 3f fe b1 81 3f bd 33 77 3f
       0.99744976 0.9984067 1.0132444 0.9656332
000030 90 4a 7b 3f b7 34 80 3f a6 fb 7d 3f c9 d4 7e 3f
       0.9816065 1.0016087 0.9921211 0.99543434
000040 25 8f 81 3f e7 61 84 3f 91 16 81 3f 1c 12 83 3f
       1.0121809 1.0342377 1.0085012 1.0239902
000050 97 9e 80 3f bd b7 82 3f c2 15 7e 3f 61 12 78 3f
       1.0048398 1.0212322 0.9925195 0.96903044
000060 51 93 7b 3f 62 e0 7c 3f ab 23 7a 3f 16 a3 80 3f
       0.9827166 0.9877988 0.97710675 1.004977
000070 b8 07 80 3f 87 18 7d 3f 26 99 78 3f 3d f0 85 3f
       1.0002356 0.9886555 0.97108686 1.046394
000080 04 00 7c 3f e2 3b 81 3f 9b ca 7c 3f 9d 22 7f 3f
       0.98437524 1.00964 0.9874665 0.9966219
000090 79 af 7e 3f ac 7e 7d 3f 94 e6 7c 3f 62 e8 7e 3f
       0.994865 0.9902141 0.98789334 0.9957334
0000a0 d1 4b 80 3f c9 30 80 3f 1d 2c 81 3f e1 11 82 3f
       1.0023137 1.0014888 1.0091587 1.0161706
0000b0 67 f7 7b 3f 59 70 7c 3f 1d 0c 83 3f eb 4c 83 3f
       0.9842438 0.9860893 1.0238072 1.0257849
0000c0 3d 14 7d 3f d4 cf 81 3f c1 e0 83 3f aa 49 80 3f
       0.98859006 1.0141549 1.0302964 1.002248
0000d0 15 ec 7f 3f 9c 4a 7c 3f a9 25 7d 3f 80 f3 80 3f
       0.9996961 0.98551345 0.9888559 1.007431
0000e0 1c f0 79 3f f2 d1 79 3f 32 75 80 3f a0 5d 7b 3f
       0.97632 0.97585976 1.0035765 0.98189735
0000f0 17 ca 82 3f f0 e3 80 3f f6 99 7f 3f 20 df 6f 3f
       1.0217923 1.0069561 0.998443 0.93699837

layer2.1.bias f4 [64]
000000 7f 79 68 3c bb 85 28 bd 1e 8a 32 bc 33 d4 52 bd
       0.014189123 -0.04114316 -0.0108971875 -0.0514719
000010 ce bb 95 bd 97 7e 8a bc fe 93 03 bd 68 b3 38 bc
       -0.073112115 -0.016906066 -0.03212356 -0.0112732425
000020 56 d0 d7 bc 27 13 b1 bc b7 3d 80 bc a4 bd 2f bd
       -0.02634446 -0.021615578 -0.015654428 -0.042905465
000030 1c 68 6c bd 5e 99 82 bd 1a 64 ec bc c8 c4 8e bb
       -0.057716474 -0.06376909 -0.028856326 -0.0043569542
000040 90 a3 e5 bc 90 5f 9f bd 68 12 94 bb af 26 13 bc
       -0.028032094 -0.07781899 -0.0045187958 -0.008981391
000050 3c 9b 1b bc f4 e6 fd bb 8e 7c a5 bc 70 a2 64 bd
       -0.00949746 -0.007748479 -0.020200994 -0.055818975
000060 b8 89 ec bc 0d e7 cc bc cf bd 88 bc 6e a2 f0 bc
       -0.028874263 -0.025012517 -0.01669207 -0.029374328
000070 d9 95 60 bd 9d 36 ad bd 6c e6 2e bc f5 44 68 bd
       -0.054830406 -0.08457682 -0.010675054 -0.056706388
000080 9c 9f ad bc 38 89 5e ba fc 53 c1 bc 89 ae 5b bd
       -0.021194272 -0.0008489075 -0.023599617 -0.053633247
000090 fc 24 2f bc ea fc 12 bd 8d 30 72 bd f2 ea b1 bd
       -0.01068997 -0.03588573 -0.059128333 -0.086873904
0000a0 6b a4 2c bc e5 63 37 3b 39 62 b7 bd 2f 52 19 bd
       -0.010537247 0.0027983126 -0.08954281 -0.037431892
0000b0 19 df f1 bc bd 7a 7c bd eb c8 08 bd 3f bd af bc
       -0.029525327 -0.06164049 -0.033394735 -0.021452544
0000c0 3e f4 0d bd 82 e9 43 bc 04 e8 82 bc a7 dc 97 bc
       -0.034656756 -0.011957528 -0.015979774 -0.018537832
0000d0 d8 66 d3 38 c7 4c 27 bd ae 43 26 bd 64 79 cf bc
       0.0001008042 -0.040844705 -0.040591888 -0.025326438
0000e0 6b 43 53 3c 2a 51 e0 3c 78 9c 08 bd 4b fa ca bb
       0.012894492 0.027382452 -0.033352345 -0.006194388
0000f0 2e 23 6d bd b8 13 c5 bc 9b 12 5b bd 22 3c 58 bd
       -0.057894878 -0.024057254 -0.05348454 -0.052791722

layer2.1.running_mean f4 [64]
000000 b3 a5 49 bf 53 a4 82 bf fe cb f8 be 4d 52 2e 3e
       -0.7876846 -1.0206398 -0.48593134 0.17023583
000010 49 7c 6b 3e e1 83 13 bf 9d e7 54 bf 2a 07 f5 be
       0.2299663 -0.57623106 -0.83165914 -0.47857028
000020 82 f1 58 3d 08 2d 1d bf 9d b6 45 bf 75 34 c3 3e
       0.052964695 -0.6139684 -0.7723177 0.3812596
000030 e3 f9 54 bf 80 7b 26 3e c1 9d 29 be de 9a 4f bf
       -0.83193797 0.16258049 -0.16564085 -0.81095684
000040 fc bb 8b bf 49 7f b5 be a9 6c 77 bf a6 b1 0d bf
       -1.0916743 -0.35448673 -0.9665018 -0.55349195
000050 e2 08 7a bf 60 94 e8 be 1e a8 04 3f c8 54 27 3f
       -0.97669804 -0.454257 0.51819026 0.6536374
000060 56 79 a4 be e5 60 09 bf 0d f4 dc be c5 fb aa be
       -0.32123822 -0.53663474 -0.43154946 -0.3339521
000070 e6 66 2f bf 70 84 53 3f 40 2f b9 bc 00 15 2c bf
       -0.68516386 0.8262396 -0.022605538 -0.67219543
000080 15 5b 4e bf dc 0b 6a bf 5d 6b 1f bf 5e 77 36 bf
       -0.8060773 -0.91424346 -0.622732 -0.7127589
000090 fe 42 80 be e7 60 20 bf 61 9a 9f 3e 9e 06 e8 be
       -0.2505111 -0.6264786 0.3117247 -0.4531755
0000a0 7d 5d 8f bf bd 16 8a be 2f c2 51 3e 7b 89 66 bf
       -1.1200405 -0.26970473 0.20484231 -0.9005353
0000b0 60 77 67 3f 19 a6 bf 3e 02 1a 43 bf 13 3b 74 bf
       0.90416527 0.3743141 -0.7621156 -0.9540264
0000c0 f5 b4 c2 be 3b 7c 48 bf c5 e4 59 bf 44 9b 51 bf
       -0.38028684 -0.7831456 -0.851147 -0.8187754
0000d0 62 37 7c bf 3d da 53 bf 11 e7 73 bf 9f ea ac bf
       -0.9852201 -0.8275488 -0.95274454 -1.3509101
0000e0 fc 05 be 3e cf 78 aa be 6d 1d af bf 17 16 99 3e
       0.3711394 -0.33295295 -1.3680855 0.29899666
0000f0 81 53 1e be 5b 3c 53 3b a3 f4 ed be 9e 7e b4 3e
       -0.15461542 0.003223202 -0.46475706 0.3525285

layer2.1.running_var f4 [64]
000000 88 da 8f 3f 2f a8 cf 3e bf fb fc 3e 3e 97 9b 3e
       1.1238565 0.40558 0.49410817 0.30388826
000010 b9 2d 5e 3e 7d 58 da 3e 0f 1b 25 3f 13 49 c4 3e
       0.2169713 0.42645636 0.64494413 0.38337
000020 3a 63 81 3e b7 f6 13 3f 36 44 6e 3e 59 20 25 3f
       0.25271016 0.5779833 0.23268208 0.64502484
000030 e5 f1 b6 3e 85 9e 28 3e 79 2c ad 3e ed e4 00 3f
       0.35731426 0.1646672 0.33822992 0.50349313
000040 5d cc b4 3e 8c 1e 67 3e cd 42 02 3f 9f a0 e2 3e
       0.35312167 0.22570246 0.5088318 0.4426317
000050 c3 16 05 3f 15 7a f0 3e c7 54 b5 3f 04 d1 94 3f
       0.51987857 0.4696814 1.4166497 1.1626287
000060 75 5f 18 3f c3 04 d4 3e e8 e6 11 3f 52 21 8b 3e
       0.59520656 0.41409883 0.5699296 0.2717386
000070 45 be 8a 3e 66 83 c3 3e 78 aa 3a 3f c0 b9 98 3e
       0.2709829 0.38186187 0.72916365 0.29829216
000080 8b 3f 26 3f b4 0e 1a 3f ba 16 76 3f 82 b6 c2 3e
       0.6494071 0.60178685 0.9612843 0.38029867
000090 d1 33 b6 3e 65 24 15 3f 46 5d ec 3e ab 5c 9b 3e
       0.35586408 0.5825866 0.46164912 0.30344138
0000a0 b6 ef 93 3e c3 4c b0 3f 91 17 8f 3e 86 d0 17 3f
       0.28893822 1.3773426 0.27947667 0.59302557
0000b0 42 0b 78 3f 8b 8c 65 3e 8d 39 a3 3e 4d 43 ea 3e
       0.9689218 0.22416894 0.31879845 0.4575447
0000c0 c2 68 de 3e 5f 87 fd 3e 1c 7d fc 3e 23 10 eb 3e
       0.434393 0.49517342 0.493142 0.4591075
0000d0 8e 45 23 3f 02 43 d0 3e 31 bd 01 3f 89 58 c8 3e
       0.6377801 0.40676123 0.5067931 0.39130047
0000e0 4f 96 cd 3e 4c 62 a1 3f 06 0d 47 3f 04 48 7f 3f
       0.4015374 1.2608123 0.7775425 0.9971926
0000f0 71 cf 74 3e 90 f4 af 3e 3a 2c ed 3e dd 59 a5 3e
       0.23907258 0.34366274 0.46322805 0.32295123

layer3.0.weight f4 [64, 64, 3, 3]
000000 ee d9 a8 bb 4a 91 73 3b 4d a8 8e bd ea 2c e1 3b
       -0.0051529324 0.0037165456 -0.069656946 0.0068718093
000010 89 1a 18 bd 6a 31 19 3c 44 e2 00 3c 75 13 34 bd
       -0.03713468 0.00935016 0.007866446 -0.04396387
000020 52 50 17 bd 99 f2 23 bd 07 9b 6e bc 66 ff d4 bc
       -0.036941834 -0.04002628 -0.014563329 -0.02600069
000030 2b 97 4e bd 18 4e f0 bc 99 29 2c bd 3d 05 59 bd
       -0.050437134 -0.029334113 -0.042031858 -0.05298351
000040 22 f8 b6 bc 46 b4 c6 bc ee 3b 4f bd 65 a8 1d bd
       -0.022335116 -0.024255883 -0.050594263 -0.03849067
000050 11 96 93 bc e8 68 0a bd 06 55 ed bb 19 f5 89 bd
       -0.018015893 -0.033791453 -0.0072428016 -0.06736202
000060 8b 4b 02 bd 49 a3 74 bd 21 dc d8 bb 87 69 d4 bc
       -0.031810325 -0.059726033 -0.0066180383 -0.025929226
000070 c9 88 f2 3b eb 24 81 3b 51 a8 57 3b 72 80 a1 bc
       0.00740156 0.0039411685 0.003290672 -0.019714568
000080 f7 41 82 bc 39 d5 06 bd 8b 9b 9b bc 27 28 bb bc
       -0.015900595 -0.03291819 -0.018995067 -0.022846295
000090 39 71 1f 3d bb d0 7f 3c 91 bc 08 3c c4 21 fd 3c
       0.038926337 0.01561373 0.008345739 0.03089989
0000a0 27 2b 88 bc 2d 30 14 bb 63 11 84 bc 6e 22 a2 3c
       -0.01662214 -0.0022611723 -0.016121572 0.019791808
0000b0 d5 44 6c 3c f0 52 a7 bc f9 65 ea bc 82 03 be 3c
       0.014420708 -0.02042529 -0.028613077 0.023195032
0000c0 fc 6b da bb 22 ed 79 bc 67 2c 63 bc 61 15 bd 36
       -0.006665705 -0.015254291 -0.013865567 5.6351278e-06
0000d0 5a 7f 40 3c 7f 33 f0 bc f0 7a 09 3b 32 e7 a7 bb
       0.011749113 -0.02932143 0.0020977817 -0.005123996
0000e0 89 9d ef 3c ee 25 00 3b 8e b2 8b 3d 8e 24 e0 3c
       0.029249923 0.0019553858 0.06821166 0.02736118
0000f0 b5 b3 32 3a 0c c1 9e bc ce 8c 2f 3b a2 bf 8b 3c
       0.00068169396 -0.019379161 0.0026786807 0.017059151
000100 78 7b 04 3d 0f 47 e2 bc 17 23 95 bc 6e 5e f7 bc
       0.03234431 -0.027621774 -0.018205209 -0.030196395
000110 65 7b 01 bd ab 26 ec 3b 12 2b fe bc de c6 f1 bc
       -0.03161182 0.007206758 -0.031026397 -0.029513773
000120 3c 4e 97 bc 8e a1 4b bc 7f b1 ed bc bb 05 ba bb
       -0.018469922 -0.012428654 -0.0290153 -0.0056769527
000130 f2 51 86 bc d3 45 1a 3d d7 30 d8 3c b4 31 01 3d
       -0.016396496 0.037664246 0.026390476 0.03154154
000140 21 e8 09 3c 31 2d 26 3d d4 c8 3b 3c c5 a1 81 bb
       0.00841716 0.04057044 0.011461455 -0.003956052
000150 a7 24 4a 3d 7e 2b 74 3d 68 ad d0 bc e0 64 79 3b
       0.04935136 0.05961179 -0.025473312 0.003805451
000160 99 38 d4 bc c3 a9 3a bc ac 3b d1 3a 5b 96 1b 3d
       -0.025905894 -0.011393013 0.0015963218 0.037985187
000170 8c 9d 15 bc 88 33 dd b8 f4 c8 d0 3c d6 06 96 3c
       -0.0091318 -0.000105477 0.025486447 0.018313807
000180 bd 8c 28 bd db dc 70 bd 19 b3 11 bd 8e c5 a9 3a
       -0.041149843 -0.058804374 -0.03557119 0.0012952553
000190 df 61 80 bc 5e ec 9e bc 63 45 d0 bb ca 4b a7 3b
       -0.015671669 -0.019399818 -0.006355928 0.0051054703
0001a0 da 58 fa 3c 39 6e 06 3d 1a de 7e bb a9 51 90 3b
       0.030559946 0.03281996 -0.0038889707 0.004404266
0001b0 46 b5 c9 bc fe e3 cb bb ee 57 84 bc 72 75 d8 bb
       -0.02462257 -0.006222247 -0.01615521 -0.0066057974
0001c0 a8 24 c9 bc f3 f8 6b 3c 69 90 4c bc 13 a3 56 bc
       -0.024553612 0.014402616 -0.012485602 -0.013100403
0001d0 42 db 0e bd 80 27 03 bd 71 55 cc 39 d5 b9 26 bc
       -0.03487707 -0.032020092 0.0003897357 -0.010176142
0001e0 5d 03 8a bc d9 68 c1 3b 83 02 a1 bc 75 f2 1c bd
       -0.016847307 0.0059023914 -0.019654518 -0.038317163
0001f0 e8 4d e9 3b 7d 2f a0 bc bc f5 58 3b d7 d6 7d bc
       0.007119883 -0.019553894 0.0033105453 -0.015493116
000200 33 b9 f7 bc 67 bd 0f 3b 90 1b c0 ba 86 3b dd bc
       -0.030239677 0.002193296 -0.0014656652 -0.027005922
000210 b3 51 67 bc de 46 07 3d 86 e5 b7 bc cc 13 36 bc
       -0.0141186 0.03302657 -0.022448312 -0.011113118
000220 5a 37 d3 bc 9b f8 80 bc ae 98 53 bc 65 35 1f ba
       -0.02578323 -0.015743544 -0.01291482 -0.0006073325
000230 76 99 91 bc c1 21 4c bb f5 27 cc bc 45 0d 6c bc
       -0.017773371 -0.0031148049 -0.024921397 -0.014407461
000240 32 4b 8f 3b e7 62 4b 3d 13 7b 32 3d b0 87 c4 3c
       0.0043729777 0.049654868 0.043574404 0.023990482
000250 81 68 88 3c d4 26 c2 3c 84 3d 6a 3d 91 61 9d 3d
       0.016651394 0.023700155 0.057187572 0.07684625
000260 04 2c 39 bc 61 da 2d bd 4e 10 b3 bc a0 12 c6 bc
       -0.011301998 -0.04244459 -0.02185836 -0.024178803
000270 4d 86 bb bc 6e ab bc 3c 62 c6 5e bc 49 5e 06 bd
       -0.022891188 0.023030963 -0.013597103 -0.03280476
000280 c3 7a 76 3c 22 b1 21 bc 2e 9b 76 bb bd b9 f8 3c
       0.015043917 -0.009868892 -0.0037629115 0.030362004
000290 dd 13 f0 3c 49 b6 aa bc 40 d9 ee bc fd f1 e3 3c
       0.029306347 -0.020838873 -0.029156327 0.02782535
0002a0 08 36 08 bd ec eb 10 bd 31 a0 27 bc d8 0b 5a 3d
       -0.033254653 -0.035381243 -0.010231064 0.05323395
0002b0 94 00 d7 3c ff be 4e bc 2e 14 88 3c 71 bf 4e 3d
       0.026245393 -0.012618779 0.016611185 0.05047554
0002c0 2b 41 d1 3c 0c f4 86 3c df e9 86 3c e7 56 b2 3c
       0.02554377 0.016473792 0.01646894 0.021769954
0002d0 dd 03 fd 3a ea 7e 1b bd 2d b6 25 bd bd 0d 2d bc
       0.001930352 -0.03796283 -0.04045694 -0.0105623575
0002e0 74 d1 05 bd 46 51 f8 bc 4b e8 4b bc 21 06 17 bb
       -0.032670453 -0.030312192 -0.01244552 -0.0023044425
0002f0 2e c0 0c bd 5e a1 ee 3c 19 23 24 3c ae e7 61 bc
       -0.034362964 0.02912968 0.010018134 -0.013788147
000300 df 27 21 bd c6 00 4c bc ed bb 06 bd 32 ce 1d bd
       -0.039344665 -0.012451356 -0.032894064 -0.03852672
000310 ce ff 5c bd 6c 7e 1f bc 79 5b 3a bd e9 30 7d 3c
       -0.05395489 -0.009734731 -0.04549739 0.015453556
000320 cd df 13 bd 6d 3a a2 3b c2 35 5c bb e4 61 60 bc
       -0.036102105 0.0049508126 -0.0033601378 -0.013695214
000330 32 09 c4 3a 67 3a bf bb 48 fa d9 39 fa 60 29 3b
       0.0014956354 -0.0058358195 0.0004157594 0.0025845156
000340 c6 83 0b bd 3c fb 13 3b 33 0d 9b bc 9f e6 87 3c
       -0.034061216 0.0022580167 -0.018927192 0.01658946
000350 69 76 24 bd 4f e9 87 bb 13 57 af bc 9a 03 bf 3c
       -0.040151987 -0.0041476856 -0.021403825 0.023317147
000360 97 4e 2b bc 44 df 86 bc cf ff 49 bc 54 94 cf 3b
       -0.010455749 -0.016463883 -0.012329056 0.0063348208
000370 c1 db a7 bc f8 6b 23 bd a1 9f bf bc f3 55 1f bd
       -0.020490529 -0.03989789 -0.023391547 -0.038900327
000380 59 14 30 bc ec 53 52 3b 51 ad 45 3d 44 3f 3d bc
       -0.010747039 0.0032093478 0.04826099 -0.011550728
000390 9d a6 77 3d 8e 02 90 bb dc 08 b5 bc 17 f1 96 bc
       0.06046163 -0.004394836 -0.022098951 -0.018425507
0003a0 fa 7d 3c 3c b4 e2 35 bc 53 4f 5d bc 97 30 ae bb
       0.0115046445 -0.0111014135 -0.013507682 -0.005315851
0003b0 89 bf e1 3b 31 df ec 3a 93 0c cc 3c d4 27 e9 3c
       0.006889288 0.0018071887 0.02490834 0.028461374
0003c0 c6 9e 39 bd a1 d1 f7 38 76 0e d8 bc d4 ff 56 bd
       -0.045317434 0.00011816924 -0.026374083 -0.05249007
0003d0 94 3c c3 bc c1 7e 2f bd 55 fb c9 bc 37 48 31 bb
       -0.023832597 -0.04284549 -0.024655977 -0.00270511
0003e0 c2 8e 06 3c 89 59 41 bd 82 02 91 bc c5 33 27 bd
       0.008212747 -0.047204528 -0.017701391 -0.040820856
0003f0 d1 b9 20 bd 72 b5 eb bc 8b 3b 32 bd 96 2d b4 3c
       -0.03923971 -0.028773043 -0.043513816 0.021994393

layer3.0.bias f4 [64]
000000 b5 65 04 3d 45 e9 a8 bc 13 69 08 3d 57 40 0a bc
       0.032323558 -0.020619044 0.03330333 -0.008438191
000010 7a f7 21 3d 31 b9 42 bb 30 0a e6 3a db 24 fa bb
       0.039542653 -0.0029712433 0.0017550644 -0.007633788
000020 68 c0 1e ba 1b 47 05 bd dc 9d f8 3c 39 4e 19 3d
       -0.00060558924 -0.032538515 0.03034871 0.037428115
000030 d1 8b c1 bc 20 1e 02 3d 77 ac 1a 3d ee 29 82 3b
       -0.02362624 0.03176701 0.03776213 0.0039722836
000040 8d 10 0d 3d e7 a9 26 bd 9f 46 e3 3b be 80 8e bc
       0.034439612 -0.040689375 0.006935909 -0.017395373
000050 93 53 aa bc cb 92 20 bd 40 fa a2 bc 17 50 23 3d
       -0.020791804 -0.039202493 -0.01989472 0.0398713
000060 31 b8 7e 3b 58 e1 25 3d 20 63 7d 3c aa 6f 18 bd
       0.003886711 0.040498108 0.015465528 -0.037215866
000070 63 2a 6e 3c e4 dc 12 bd 5f 50 9c bc 7c 67 4d 3b
       0.014536473 -0.03585519 -0.019081293 0.00313422
000080 d2 c6 21 3c 0d 2f 6d 3c 35 8a 4e 3b 6b fa b0 bc
       0.009874063 0.01447655 0.0031515483 -0.021603784
000090 c1 2d 2f bb bb be ba bc 85 19 e4 bb f3 4e 20 3d
       -0.0026730152 -0.022796025 -0.00696105 0.03913779
0000a0 93 87 4b 3b cf 87 8b bc c1 53 e9 bc 27 f1 ab bc
       0.003105615 -0.017032532 -0.02848232 -0.020989014
0000b0 21 9d 2b bd d1 4a 19 3d a7 dc 4a bc 8e 2e ae 3a
       -0.041897897 0.037424866 -0.012381709 0.0013289021
0000c0 00 cf 31 bc 11 39 fd 3c 87 32 d6 3c c0 ea f0 3c
       -0.010852575 0.030911 0.02614714 0.029408813
0000d0 59 f2 23 bd 76 06 8c bc ff d9 13 bc 15 ec 6a bc
       -0.040026043 -0.017092925 -0.009024142 -0.014338513
0000e0 8d d8 0e 3c ad 46 b6 3c 99 3a ec 3c 7f 3d 25 3d
       0.008718622 0.022250498 0.028836535 0.04034185
0000f0 ff ef a9 bc d1 2a 01 bd 8e 75 c9 39 d0 12 11 3c
       -0.020744322 -0.031534974 0.00038425293 0.008854583

layer3.1.weight f4 [64]
000000 87 57 91 3f 0a 6d 78 3f 17 2c 82 3f ca 28 74 3f
       1.1354836 0.9704138 1.0169705 0.9537474
000010 59 63 7b 3f 51 f9 7b 3f d1 c2 83 3f b9 9d 7d 3f
       0.9819847 0.984273 1.0293828 0.9906879
000020 7c 7c 81 3f ba cc 72 3f ae 65 7f 3f 29 1c 76 3f
       1.0116115 0.9484364 0.99764526 0.9613672
000030 60 71 74 3f f3 8b 7d 3f 1f 73 83 3f 96 17 73 3f
       0.95485497 0.9904167 1.0269507 0.94957864
000040 30 24 7a 3f 48 da 7b 3f 1a 8c 76 3f d3 66 75 3f
       0.9771147 0.98379946 0.9630753 0.9586002
000050 0b a7 74 3f aa 78 72 3f 2c 1e 6d 3f 84 37 81 3f
       0.9556739 0.9471537 0.92624164 1.0095067
000060 1b 3b 81 3f f5 4e 7d 3f 13 57 7f 3f fb 2d 80 3f
       1.0096163 0.98948604 0.9974224 1.0014032
000070 8c 04 71 3f c8 26 7d 3f c3 4a 7f 3f 8c 00 76 3f
       0.94147563 0.988873 0.9972345 0.96094584
000080 49 26 7f 3f b5 ee 76 3f 5c c4 7e 3f a5 65 82 3f
       0.99667794 0.9645799 0.9951837 1.018727
000090 8e 16 7b 3f aa 12 7a 3f 23 8c 74 3f 13 c3 7a 3f
       0.9808129 0.9768473 0.9552633 0.9795391
0000a0 54 d5 76 3f e7 cf 74 3f e7 4e 75 3f e1 5f 82 3f
       0.9641926 0.95629734 0.9582352 1.018551
0000b0 d6 9f 81 3f 65 e0 86 3f 1e cc 82 3f be 98 8f 3f
       1.0126903 1.053723 1.0218542 1.1218488
0000c0 04 46 75 3f 07 c6 8b 3f 29 72 78 3f 54 18 77 3f
       0.9580996 1.0919808 0.97049195 0.96521497
0000d0 ae 20 7e 3f 9d 5d 77 3f d0 0d 83 3f d3 57 77 3f
       0.99268615 0.9662722 1.023859 0.96618384
0000e0 09 e7 74 3f 7d 9d 7a 3f d4 47 77 3f e5 e5 84 3f
       0.9566503 0.9789656 0.96593976 1.0382658
0000f0 ee 7c 77 3f 29 79 77 3f c0 5c 8a 3f 94 81 71 3f
       0.96675 0.9666925 1.0809555 0.94338346

layer3.1.bias f4 [64]
000000 9a 5f 3a be 02 ed 57 bc d8 63 9c bd 4b fd 7b bd
       -0.18200532 -0.013179066 -0.07636231 -0.061520856
000010 5b 74 27 bd 1d a8 92 bd 99 42 bb bd c2 4b 70 bd
       -0.04088245 -0.07160971 -0.09143562 -0.058666
000020 43 50 af bd cc 62 82 bd e0 2c d4 bd a6 e2 ab bc
       -0.085602306 -0.063665 -0.10360122 -0.020982098
000030 e3 bd c7 bc 32 8e 8a bd de 24 72 bd 2d ef df bc
       -0.024382537 -0.06765403 -0.05911719 -0.027335728
000040 f7 25 01 bd c3 50 16 bd e6 51 d2 bc 80 76 58 bd
       -0.031530347 -0.036698114 -0.025673818 -0.052847385
000050 17 ec 9d bc f8 af 85 bc 21 e6 a7 bd ad 43 e6 bd
       -0.019277615 -0.01631926 -0.081981905 -0.11243377
000060 df 75 a6 bd 95 74 3d bd 75 e1 a8 bd 3f d0 0a 3c
       -0.08127951 -0.04625376 -0.082461275 0.008472501
000070 66 15 f6 bc d0 74 9d bd 1c 88 8a bd 79 de 35 bd
       -0.0300395 -0.07688296 -0.06764242 -0.04440162
000080 42 56 7a bd 43 ae 9f bd 04 ac 5b bd 07 20 5f bd
       -0.061117418 -0.0779691 -0.053630844 -0.054473903
000090 aa 3e ac bc 6b 1f 4e bd a7 86 19 bd 09 04 bd bd
       -0.021025974 -0.05032293 -0.03748193 -0.09229285
0000a0 2e a6 02 bd ff 25 93 bd db 08 7b bd a3 df 97 bd
       -0.031896763 -0.071849816 -0.061287742 -0.07415702
0000b0 03 6d 8d bd 9d 07 95 bd dc a7 58 bd 3f 44 b7 bd
       -0.06905558 -0.07276843 -0.05289446 -0.08948564
0000c0 1a 90 ab ba 6d 61 10 be 51 5e 78 bd 5b 3c 64 bd
       -0.001308921 -0.14099665 -0.060636822 -0.055721622
0000d0 b6 2c a1 bd f8 22 b0 bd a1 8f 04 bd f5 30 2b bd
       -0.07869856 -0.0860042 -0.032363538 -0.041794736
0000e0 66 27 1a 39 cf 18 20 bd 80 b5 80 bd 45 b2 bc bd
       0.00014701262 -0.03908616 -0.062846184 -0.0921369
0000f0 9d f4 e4 bc 8a cf 51 bd 2f 10 3e be 07 76 2e bd
       -0.027948672 -0.051223315 -0.18560861 -0.04259303

layer3.1.running_mean f4 [64]
000000 bb fa ed bd 1b b1 65 bf 87 7c 1f bf 38 46 3a be
       -0.11620089 -0.89723366 -0.6229939 -0.18190849
000010 80 26 3c bf 45 15 0a bf c6 ab 01 bf b3 b8 10 be
       -0.73496246 -0.53938705 -0.5065273 -0.14132957
000020 d5 40 2b bf 36 46 c1 be d7 d0 11 3f 7a 86 89 bf
       -0.668958 -0.3774888 0.5695929 -1.0744164
000030 85 40 62 bf 68 83 68 bf 34 f2 10 bf fb 27 51 bf
       -0.883797 -0.9082551 -0.5661957 -0.8170163
000040 66 bf 2e bf de 68 b0 be 5e 43 ac bf c2 c5 24 be
       -0.682608 -0.34455007 -1.3458059 -0.16091064
000050 d1 b2 05 bf d5 0e 4d bf d3 a4 36 3e ca b1 af 3e
       -0.5222598 -0.80100757 0.17836313 0.3431533
000060 d7 48 1f bf ed f5 41 bf 1b 66 dd be cb 0d 4f bf
       -0.6222052 -0.7576588 -0.43241963 -0.8088042
000070 03 7d 06 bf c0 b1 08 bf 25 0d 20 bf 15 75 e8 bd
       -0.525345 -0.53396225 -0.62520057 -0.113504566
000080 dd 5e 93 bf 40 80 ff b9 76 34 07 bf 54 d6 e2 3d
       -1.1513325 -0.00048732944 -0.52814424 0.11076036
000090 df 4c 62 bf 49 90 88 be b1 17 15 bf 07 5c 0b 3f
       -0.88398546 -0.2667258 -0.58239275 0.544373
0000a0 5c 4a 00 bf 00 91 48 bf 87 d2 d8 be f0 d1 c2 be
       -0.50113463 -0.7834625 -0.4234812 -0.38050795
0000b0 ec 76 53 bf e2 74 94 bf 3d 42 7c bf 04 9d ea be
       -0.82603335 -1.159817 -0.9853857 -0.45822918
0000c0 2d ad ed be 9d 28 52 bf 10 65 79 3d 3d a6 37 bf
       -0.46421185 -0.8209322 0.060887396 -0.71738034
0000d0 34 51 ad bf db d8 2c bf 87 30 f5 be 5e ed 32 bf
       -1.3540406 -0.67518395 -0.47888586 -0.69893444
0000e0 e5 33 92 bf b0 05 53 bf d5 b5 f2 be 2e 33 e5 be
       -1.1422087 -0.82430553 -0.47404352 -0.4476561
0000f0 d9 0c 5e bf 95 9d 97 bf 4e 2a 81 3f eb 7d 44 bf
       -0.86738354 -1.1844965 1.0091035 -0.76754636

layer3.1.running_var f4 [64]
000000 85 b5 40 3e 0b d5 05 3f 9f c9 9a 3e 74 18 02 3f
       0.18819244 0.522782 0.3023195 0.5081856
000010 a9 81 b3 3e 78 55 05 3f fd f9 6b 3e cd 79 c7 3e
       0.3505986 0.5208354 0.23044582 0.38960114
000020 10 f1 4d 3e 2b 2c a3 3f 03 74 a4 3e ae 17 d9 3e
       0.2011149 1.2747854 0.3211976 0.4240088
000030 86 f9 65 3f 6b 0d b2 3e d3 5d 81 3e c4 0f 36 3f
       0.8983387 0.34775862 0.25266895 0.71117806
000040 d1 33 14 3f a3 ad 35 3f 46 9b 43 3f 44 1f 4c 3f
       0.57891566 0.70968074 0.76408803 0.7973521
000050 2c f8 1d 3f c8 46 0f 3f 52 28 01 3f 35 f7 9b 3e
       0.61706805 0.5596738 0.5045215 0.30462041
000060 36 8b 5a 3e a6 02 d2 3e 95 8f 61 3e 39 dd b7 3e
       0.21342167 0.41017646 0.22027428 0.35910967
000070 b3 3f b9 3e 9e 99 06 3f 31 4f 94 3e 63 13 f4 3e
       0.3618141 0.5257815 0.28966668 0.4767104
000080 19 36 cb 3e 78 3b e4 3e 57 ee b0 3e 46 84 8b 3e
       0.3968971 0.4457662 0.3455684 0.27249354
000090 17 bd 80 3f c6 81 2c 3f 44 98 71 3f ae 6d 86 3e
       1.0057706 0.6738552 0.94372964 0.26255554
0000a0 7e 39 2f 3f 7c ef bd 3e 87 e4 16 3f cc d7 92 3e
       0.684471 0.37096775 0.58942455 0.28680265
0000b0 89 83 c7 3e 38 11 97 3e a6 5d d2 3e 03 50 66 3e
       0.3896754 0.29505324 0.41087073 0.2249146
0000c0 29 30 ad 3e 64 43 b6 3e 96 f5 a7 3e e9 dc cb 3e
       0.33825806 0.3559829 0.32804555 0.3981698
0000d0 a4 1d bc 3e 02 ed ee 3e 9b 2d 95 3e 32 b8 86 3e
       0.36741364 0.46665198 0.29136357 0.26312405
0000e0 73 3a 31 3f d4 22 b3 3e be 4e b9 3e b3 67 88 3e
       0.6922981 0.3498751 0.36192888 0.26641616
0000f0 1e 51 05 3f e6 39 ef 3e 88 51 be 3e 12 94 d9 3e
       0.520769 0.4672386 0.37171578 0.4249578
