FAST 3D-CNN P-NET/model/ZGFF/ZGFF_proto_2d-5shotband60.pth (torch, 595181 bytes, 24 tensors)

layer1.0.weight f4 [64, 60, 3, 3]
0.0101018185 0.026389366 0.057793293 -0.026805133 0.02355031 0.028107153 0.00386859 -0.026951145
-0.037941467 -0.021179847 0.005747658 0.008419382 0.018247517 0.024643693 -0.0035682162 -0.022950886
0.038807895 0.008563955 -0.03292039 -0.0056057717 0.06591705 -0.01830343 0.017317079 0.05473103
-0.012512915 0.031106217 0.05897752 -0.03682489 -0.023745392 -0.017467307 0.025509289 0.0030859534
0.026297329 0.03758022 0.04521605 -0.029321723 0.015962364 -0.010646684 -0.037804984 -0.019608853
0.030235056 0.021906821 0.030831102 0.04453903 -0.055992726 -0.03129122 0.027684022 -0.044385612
-0.0024865759 0.013555454 0.025312975 -0.013017883 0.0032590474 0.029939124 0.026073506 0.0009817154
0.023247229 -0.012475051 -0.047216054 -0.009677668 0.0336313 -0.002133379 -0.008287481 0.017940637
0.02919047 0.03276604 0.053912003 -0.0019332366 -0.009484219 0.004302878 0.07618619 -0.0021113784
0.029696485 0.016358875 -0.04370045 -0.013207823 0.0023273043 -0.054113083 0.015695952 -0.06027573
0.015555906 0.0045011286 -0.032744963 -0.035781737 -0.03018331 -0.0060541863 0.023021275 0.01759981
0.021265605 0.037507404 -0.009260753 -0.0327462 0.01287433 -0.010766873 -0.02453105 0.0032483805
-0.018440157 0.011420442 0.03257715 -0.020666422 -0.04372599 -0.01623802 -0.021404661 -0.04883173
0.005810075 0.009422274 -0.037388373 -0.03234018 -0.006065947 0.023942828 0.0422483 -0.028061237
0.03253905 0.002876262 -0.003600829 0.024349812 0.030445216 -0.032118525 -0.012109571 -0.028053671
-0.0064019095 -0.004892214 -0.03511275 -0.03075404 -0.01225403 -0.011542359 -0.0016756696 -0.04656838
0.010158091 0.017086323 -0.055537824 -0.023402661 -0.005768984 -0.005622603 -0.025534954 0.006515406
-0.020433594 0.031263754 -0.030832715 0.033526126 0.010470582 0.03745367 -0.0415357 -0.01165421
-0.034556147 0.020033196 -0.029271651 -0.03773653 0.0060587833 0.010181117 0.008901548 -0.021745455
-0.022829928 0.034107346 0.032509916 0.024035027 0.045288462 0.0098503325 0.0052792 -0.0027379198
0.01121486 0.017447336 0.007579983 0.021628909 -0.021998249 -0.0109707145 0.0110995155 0.0314574
0.020304265 -0.03423298 0.018155608 0.020087948 0.025453359 -0.021380411 0.019325793 0.04317675
0.019085165 -0.015220035 -0.04423736 -0.023724033 0.024248779 -0.005462548 0.010306501 0.03008309
-0.031173548 0.02429777 0.03875102 -0.0069753095 0.006708864 0.0019745736 0.04896814 0.0069818497
0.008968742 0.010516788 0.049388647 -0.020050112 -0.009660094 -0.009530756 -0.006591372 -0.008093715
0.05710056 0.027410017 0.006162964 0.05505597 -0.015471777 -0.02934295 0.062862456 0.02994614
0.037015084 0.02829949 0.03446721 -0.013118928 0.0311454 0.047215085 -0.0022350235 -0.0031108984
-0.038163014 -0.04531231 -0.017986035 -0.0009538958 -0.012450832 -0.0034111799 -0.025038756 -0.04376073
-0.025107544 0.022075348 0.00986763 0.019856898 -0.008652829 -0.034155637 -0.034555256 0.01092688
0.018875187 -0.04091702 -0.013676131 -0.018063907 -0.041867252 -0.04048079 0.003971713 -0.043840628
0.028055133 0.014678445 0.016384909 0.01354537 -0.040111218 -0.00063534005 -0.028037798 0.009848188
-0.040720392 -0.0024960786 0.017755501 -0.00372625 0.0012528917 0.021685593 -0.04407694 0.0050168526
00000000: 1982 253c 832e d83c a9b8 6c3d 7096 dbbc
00000010: 94ec c03c f940 e63c 2c88 7d3b a6c8 dcbc
00000020: 8368 1bbd 5c81 adbc da56 bc3b 73f1 093c
00000030: d17b 953c 92e1 c93c bcd8 69bb 7f03 bcbc
00000040: 07f5 1e3d d54f 0c3c 88d7 06bd 9fb0 b7bb
00000050: 85ff 863d 13f1 95bc 8cdc 8d3c a52d 603d
00000060: f802 4dbc 77d2 fe3c 6992 713d b2d5 16bd
00000070: b285 c2bc 9917 8fbc dbf8 d03c b53d 4a3b
00000080: 7f6d d73c b7ed 193d 7734 393d 1c34 f0bc
00000090: 81c3 823c 6e6f 2ebc 66d9 1abd bfa2 a0bc
000000a0: 82af f73c ef75 b33c 8291 fc3c 8f6e 363d
000000b0: a158 65bd 392b 00bd 9ac9 e23c b0cd 35bd
000000c0: d2f5 22bb b217 5e3c 285d cf3c f548 55bc
000000d0: be95 553b e542 f53c 1b98 d53c e7ac 803a
000000e0: f970 be3c 2864 4cbc 9f65 41bd 158f 1ebc
000000f0: f9c0 093d 29d0 0bbb 37c8 07bc 3ef8 923c
00000100: da20 ef3c af35 063d d5d2 5c3d a864 fdba
00000110: b363 1bbc 28ff 8c3b 8107 9c3d 0d5f 0abb
00000120: 0b46 f33c 0c03 863c 3eff 32bd a065 58bc
00000130: b085 183b aea5 5dbd cc94 803c afe3 76bd
00000140: 33de 7e3c 347e 933b 951f 06bd df8f 12bd
00000150: fd42 f7bc 3262 c6bb 1d97 bc3c 7a2d 903c
00000160: 3535 ae3c 5da1 193d 6aba 17bc e120 06bd
00000170: dbee 523c 8a67 30bc 57f5 c8bc c8e2 543b
00000180: d00f 97bc ce1c 3b3c 9e6f 053d a14c a9bc
00000190: 061a 33bd 9905 85bc d458 afbc c803 48bd
000001a0: 7162 be3b e25f 1a3c 8d24 19bd 2377 04bd
000001b0: dac4 c6bb c023 c43c 8e0c 2d3d aee0 e5bc
000001c0: ab47 053d ab7f 3c3b e3fb 6bbb 4279 c73c
000001d0: 3f68 f93c b78e 03bd 3967 46bc d0d0 e5bc
000001e0: 1cc7 d1bb de4e a0bb 63d2 0fbd e6ef fbbc
000001f0: 21c5 48bc 2a1c 3dbc 24a2 dbba 7cbe 3ebd
00000200: 1f6e 263c 9ef8 8b3c a17b 63bd f0b6 bfbc
00000210: bf09 bdbb d03d b8bb ae2e d1bc 307f d53b
00000220: 5a64 a7bc 6c0e 003d e494 fcbc b152 093d
00000230: ce8c 2b3c 0569 193d 5721 2abd 4df1 3ebc
00000240: bf8a 0dbd a81c a43c 1acb efbc 9f91 1abd
00000250: c288 c63b b3ce 263c ccd7 113c 8623 b2bc
00000260: d405 bbbc 25b4 0b3d 1e29 053d 1be5 c43c
00000270: 6580 393d 4a63 213c 24fd ac3b ac6e 33bb
00000280: 88be 373c b7ed 8e3c 8261 f83b 1c2f b13c
00000290: ac35 b4bc 83be 33bc beda 353c 7ad9 003d
000002a0: 2155 a63c e237 0cbd 12bb 943c 7b8f a43c
000002b0: 9083 d03c f925 afbc 2051 9e3c 1bda 303d
000002c0: 7e58 9c3c 745d 79bc 3c32 35bd e758 c2bc
000002d0: 60a5 c63c 2dff b2bb 99dc 283c d070 f63c
000002e0: ab5f ffbc 1e0c c73c 64b9 1e3d 2391 e4bb
000002f0: 08d6 db3b d967 013b d192 483d 00c8 e43b
00000300: a1f1 123c 9b4e 2c3c c04b 4a3d 2240 a4bc
00000310: 5f45 1ebc e326 1cbc 70fc d7bb 809b 04bc
00000320: 47e2 693d f98a e03c b0f2 c93b 5e82 613d
00000330: 567d 7dbc a060 f0bc 08be 803d 9b51 f53c
00000340: 219d 173d 55d4 e73c 7d2d 0d3d c6f0 56bc
00000350: a324 ff3c 9b64 413d 7979 12bb 37e0 4bbb
00000360: d250 1cbd 6799 39bd 7357 93bc dd0e 7aba
00000370: 93fe 4bbc 1a8e 5fbb 141e cdbc 743e 33bd
00000380: 56ae cdbc 5cd7 b43c d7ab 213c efaa a23c
00000390: 98c4 0dbc c8e6 0bbd d089 0dbd a806 333c
000003a0: 23a0 9a3c 9b98 27bd da11 60bc c2fa 93bc
000003b0: ff7c 2bbd 2fcf 25bd 2525 823b 3b92 33bd
000003c0: e1d3 e53c dc7d 703c a539 863c 66ed 5d3c
000003d0: a94b 24bd f38c 26ba 86af e5bc 4b5a 213c
000003e0: 6dca 26bd 4095 23bb fc73 913c 1a34 74bb
000003f0: 1238 a43a fca5 b13c 058a 34bd 6964 a43b

layer1.0.bias f4 [64]
0.8036094 0.82776576 0.8621971 0.6106993 0.58505964 0.63067263 0.52997214 0.85114634
0.6583709 0.7850698 0.76348746 0.7820502 0.72633386 0.79980135 0.5695996 0.68065923
0.83096623 0.66568613 0.8462299 0.7886006 0.6264202 0.80763197 0.60044575 0.6757569
0.83843875 0.75737363 0.7941031 0.7564341 0.8071596 0.68989754 0.6440446 0.8497412
0.7703713 0.65638894 0.76769644 0.73632526 0.6651089 0.573367 0.73264444 0.66940475
0.8105809 0.8182176 0.86520576 0.77914643 0.7841888 0.7310155 0.79932535 0.74952596
0.7178806 0.75910294 0.75835115 0.73332995 0.69851726 0.74517745 0.7397475 0.8358769
0.7715915 0.87698466 0.7820235 0.7419889 0.72026896 0.7202556 0.77635306 0.69623566
00000000: 58b9 4d3f 75e8 533f f3b8 5c3f ca56 1c3f
00000010: 78c6 153f c373 213f 41ac 073f bae4 593f
00000020: ff8a 283f 56fa 483f ea73 433f 7134 483f
00000030: 04f1 393f c8bf 4c3f 48d1 113f af3f 2e3f
00000040: 34ba 543f 686a 2a3f 86a2 583f bbe1 493f
00000050: 135d 203f f8c0 4e3f d0b6 193f 67fe 2c3f
00000060: eca3 563f 3de3 413f 574a 4b3f aaa5 413f
00000070: 03a2 4e3f 209d 303f 1be0 243f a488 593f
00000080: 0e37 453f 1b09 283f c187 443f d07f 3c3f
00000090: 9444 2a3f 2ec8 123f 968e 3b3f 1c5e 2b3f
000000a0: 3b82 4f3f b576 513f 207e 5d3f 2476 473f
000000b0: 99c0 483f d523 3b3f 96a0 4c3f efe0 3f3f
000000c0: 06c7 373f 9254 423f 4d23 423f 83bb 3b3f
000000d0: 07d2 323f f3c3 3e3f 1860 3d3f 07fc 553f
000000e0: 0587 453f 1182 603f b132 483f fcf2 3d3f
000000f0: 8c63 383f ac62 383f 13bf 463f 803c 323f

layer1.1.weight f4 [64]
0.98883367 0.9800345 1.006627 0.96142995 1.012502 1.0155113 0.9781925 1.0285827
0.987063 0.9949377 0.977081 1.0014596 1.0037189 1.0060247 1.01023 0.96305764
1.0186554 1.0176005 1.0371629 1.0117544 1.0140916 0.974576 0.9888781 0.97265714
1.0253397 1.0071572 0.9875697 0.9983173 1.0174991 0.98766714 1.0301434 1.0020698
1.0132676 1.012241 0.9918981 1.0159433 0.98448694 0.97082216 1.0225401 0.9918795
0.98442596 1.0257851 1.0232515 0.99902934 1.0114397 0.96677303 0.99780357 0.97313637
1.0200926 0.9955428 0.9925562 0.979237 1.0098705 0.97588116 0.9680667 1.0107012
1.0007217 0.9771931 0.9853849 0.97176266 0.9699747 0.96216375 0.9661704 0.9696821
00000000: 3424 7d3f 8ae3 7a3f 27d9 803f 4620 763f
00000010: aa99 813f 46fc 813f d36a 7a3f 99a8 833f
00000020: 29b0 7c3f 3db4 7e3f fb21 7a3f d42f 803f
00000030: dc79 803f 6bc5 803f 374f 813f f28a 763f
00000040: 4d63 823f bc40 823f c1c1 843f 2b81 813f
00000050: c1cd 813f d07d 793f 1d27 7d3f 0f00 793f
00000060: 553e 833f 87ea 803f 5ed1 7c3f b991 7f3f
00000070: 693d 823f c1d7 7c3f bddb 833f d343 803f
00000080: c1b2 813f 1d91 813f 09ed 7d3f 6e0a 823f
00000090: 5607 7c3f cd87 783f 98e2 823f d1eb 7d3f
000000a0: 5703 7c3f ed4c 833f e8f9 823f 63c0 7f3f
000000b0: db76 813f 707e 773f 0e70 7f3f 771f 793f
000000c0: 6592 823f e5db 7e3f 2a18 7e3f 47af 7a3f
000000d0: 7043 813f 59d3 793f 38d3 773f a85e 813f
000000e0: a617 803f 5429 7a3f 2f42 7c3f 70c5 783f
000000f0: 4350 783f 5d50 763f f156 773f 163d 783f

layer1.1.bias f4 [64]
-0.019538106 0.005360486 -0.0072875447 -0.00019838425 -0.058420133 -0.04952414 -0.0042160526 -0.009502575
-0.0054686414 -0.014790025 -0.03700984 -0.039318062 0.010907746 -0.04605994 -0.042077906 -0.005504397
0.019990228 -0.04125693 0.007522861 0.0011482601 -0.056829818 -0.020423122 -0.07434295 0.0036370615
-0.047050416 -0.02214197 -0.049497623 -0.037525542 0.028735436 0.001455205 -0.040178057 0.019937571
-0.036441613 -0.029421777 -0.0024396682 -0.049459014 0.02758165 0.0052406094 -0.03260725 -0.07060451
-0.028637264 -0.020527236 -0.019232577 -0.049970012 -0.014506153 0.010405919 -0.033624005 0.024669364
-0.052078806 -0.03197163 -0.0025522271 0.00071377365 -0.05021137 -0.003046321 -0.009469198 -0.04847498
-0.03454361 -0.030190006 -0.027720734 -0.011769437 -0.009089568 0.0053765043 0.01812977 -0.032810338
00000000: 610e a0bc 04a7 af3b 5bcc eebb 5e05 50b9
00000010: f349 6fbd d3d9 4abd d026 8abb b0b0 1bbc
00000020: 4a32 b3bb dc51 72bc a197 17bd fa0b 21bd
00000030: 67b6 323c 59a9 3cbd e259 2cbd 3b5e b4bb
00000040: 8cc2 a33c 07fd 28bd 5582 f63b 3781 963a
00000050: 62c6 68bd 644e a7bc 1e41 98bd c45b 6e3b
00000060: f0b7 40bd 1463 b5bc 05be 4abd 62b4 19bd
00000070: 9466 eb3c 94bc be3a bf91 24bd 1e54 a33c
00000080: cd43 15bd f005 f1bc d7e2 1fbb 8995 4abd
00000090: eaf2 e13c 6bb9 ab3b 2e8f 05bd 1999 90bd
000000a0: b298 eabc bc28 a8bc a38d 9dbc 5bad 4cbd
000000b0: 37ab 6dbc 967d 2a3c 53b9 09bd 6817 ca3c
000000c0: 9650 55bd aff4 02bd 4443 27bb 8a1c 3b3a
000000d0: 70aa 4dbd c9a4 47bb b224 1bbc b38d 46bd
000000e0: 9a7d 0dbd 0851 f7bc 9816 e3bc 99d4 40bc
000000f0: 69ec 14bc 632d b03b e284 943c 2264 06bd

layer1.1.running_mean f4 [64]
0.8776127 0.9193272 0.74488544 1.386975 0.11989776 0.19027857 1.3563632 0.77896166
0.7128096 0.71234006 0.5246877 0.99325716 0.88868904 0.83989966 -0.11523809 0.90091544
0.75073004 0.29898208 0.7524375 0.65457445 0.15965645 0.9100078 0.060195506 0.94533926
0.82550925 0.58463097 0.7324485 0.5702008 0.7836581 0.76069504 0.19816622 0.8706208
0.6765373 0.29460996 0.35544088 0.434102 1.0030982 1.1989305 0.47820848 0.0692296
0.77552056 0.7510026 0.7801461 0.97583634 0.608263 0.81166464 0.7434029 0.8383874
0.46641544 0.508879 0.8884366 0.88406754 0.3307892 0.92409194 1.0231556 0.9113326
0.83412886 0.8096467 0.6086866 0.8325459 0.6506224 0.8632536 0.9459437 0.4235048
00000000: 3aab 603f 0759 6b3f d0b0 3e3f 6688 b13f
00000010: f58c f53d 63d8 423e 4f9d ad3f 086a 473f
00000020: b17a 363f eb5b 363f ef51 063f 1a46 7e3f
00000030: 2081 633f aa03 573f f301 ecbd 65a2 663f
00000040: d82f 403f 2e14 993e be9f 403f 3192 273f
00000050: fb7c 233e 45f6 683f 908f 763d c101 723f
00000060: 9354 533f 60aa 153f bf81 3b3f aef8 113f
00000070: d19d 483f e9bc 423f 16ec 4a3e 01e1 5e3f
00000080: 8c31 2d3f 1ed7 963e 59fc b53e 9e42 de3e
00000090: 8665 803f 8e76 993f bed7 f43e 40c8 8d3d
000000a0: 8488 463f b541 403f a8b7 473f 69d0 793f
000000b0: 20b7 1b3f 41c9 4f3f a74f 3e3f 8fa0 563f
000000c0: 01ce ee3e e545 023f 9570 633f 4052 623f
000000d0: 345d a93e 4a91 6c3f c3f6 823f 184d 693f
000000e0: 7889 553f 0245 4f3f e3d2 1b3f ba21 553f
000000f0: 318f 263f 30fe 5c3f 5e29 723f 9fd5 d83e

layer1.1.running_var f4 [64]
0.4520364 1.2675442 0.89878124 9.076648 7.655141 7.266044 19.999794 0.38064343
2.2081153 0.43928257 1.3714473 1.7606559 1.1665385 0.59903 10.808044 2.9819868
0.43948296 3.664721 0.31482852 0.44367412 5.509529 1.3743547 4.9411206 2.1018603
1.3827593 1.0510106 0.2764346 1.9361106 0.27140313 2.820461 5.982184 0.20398787
0.8113613 3.115787 1.9689833 2.5245082 2.6865602 7.8390865 2.178836 5.631561
0.4200992 0.64247 0.46375233 2.1060498 0.77060276 1.3111385 0.38458174 0.78518486
1.5000235 1.2504276 1.5002832 1.0739734 2.6120281 1.4256071 2.592053 0.8915103
0.7678397 0.55117375 0.84961027 3.0812733 0.83481556 2.7642012 1.2832537 2.3473172
00000000: 5171 e73e e33e a23f 8716 663f f339 1141
00000010: eaf6 f440 6f83 e840 94ff 9f41 b2e3 c23e
00000020: c351 0d40 a5e9 e03e 968b af3f 2c5d e13f
00000030: 2251 953f 085a 193f c0ed 2c41 dfd8 3e40
00000040: e903 e13e ca8a 6a40 3431 a13e 4129 e33e
00000050: 104e b040 dbea af3f a91d 9e40 e184 0640
00000060: 42fe b03f 8487 863f d688 8d3e 79d2 f73f
00000070: 5af5 8a3e 6f82 3440 0d6e bf40 32e2 503e
00000080: 60b5 4f3f 0e69 4740 a507 fc3f 8b91 2140
00000090: 9af0 2b40 ccd9 fa40 0d72 0b40 bf35 b440
000000a0: 3e17 d73e ea78 243f f270 ed3e 85c9 0640
000000b0: 3946 453f 63d3 a73f e6e7 c43e e001 493f
000000c0: c500 c03f 030e a03f 4809 c03f f677 893f
000000d0: 782b 2740 4b7a b63f 32e4 2540 053a 643f
000000e0: 2591 443f b919 0d3f 0f80 593f 9533 4540
000000f0: 79b6 553f ace8 3040 a841 a43f 723a 1640

layer2.0.weight f4 [64, 64, 3, 3]
-0.023702316 -0.034995243 0.009618131 -0.01913618 -0.0242275 -0.04997548 0.024302987 0.010855476
-0.051034737 0.017236255 -0.017446782 -0.0012367071 -0.04766547 -0.0045891693 0.0012528118 -0.04602692
0.017310893 0.0032682593 0.0040861424 0.0005954425 0.011087688 -0.020945573 -0.01967673 0.05603163
-0.028215222 -0.0022131067 -0.008769049 -0.035988256 -0.035828847 -0.027213916 0.0015591426 -0.02075871
0.02363351 0.017891549 0.031319767 0.022086479 -0.0026019786 -0.03666802 -0.038692694 -0.011873671
0.003299035 -0.024071643 -0.04651596 -0.02901319 -0.02807393 0.028061133 0.022464853 -0.024178034
-0.03717995 -0.024055175 -0.005537365 -0.026012737 -0.022903454 -0.040878862 0.019345956 0.025306141
0.027546354 -0.032975197 -0.0069128633 0.0047273887 -0.02465551 -0.0396361 -0.044601645 0.0388969
0.021927774 -0.015412235 0.04411452 0.007818815 -0.013276827 0.038518168 0.003531381 -0.024951434
-0.038039893 0.031487577 -0.037272606 0.014915638 0.009385548 -0.03634673 -0.016699348 -0.012389227
-0.02349515 0.014275168 -0.020818207 0.008729495 0.028272076 0.013057449 0.0052061137 0.02928447
-0.029780993 0.009629707 -0.035666216 -0.026600474 -0.0069542443 -0.046734914 0.014653188 -0.029949816
-0.033801265 0.00581822 0.0058319895 -0.008966921 -0.021980789 -0.034286052 -0.03100612 -0.047588035
-0.031172542 -0.036552466 -0.019598037 0.009227262 0.013898454 0.036992606 -0.011712603 -0.013153026
-0.023703607 0.01002879 0.02901676 -0.024219746 0.029640954 0.014914692 -0.056070678 -0.010508864
-0.005868804 -0.04509786 -0.05831463 -0.037934475 -0.002335894 -0.05153817 0.04917531 -0.027802182
-0.017372873 -0.02221229 -0.038364474 -0.0169287 -0.025214601 -0.0146618495 0.0088239275 -0.014147839
0.024498103 -0.030286245 -0.02563827 0.038466558 -0.002146092 0.022980401 0.036269713 -0.020762635
0.04207552 0.017719015 0.034931704 0.0153689515 -0.0033500881 0.028138384 -0.04020726 0.025571385
-0.020017982 -0.036382448 0.034435328 -0.014927585 0.004335274 0.0012735887 -0.011197081 -0.006372616
0.0075981673 -0.05124443 0.009546753 -0.01397079 -0.037951354 0.04173845 0.009460914 -0.031037727
-0.00096260617 0.0029915485 -0.0135739995 0.01976798 -0.01974295 0.041726246 0.033212963 -0.013817447
0.03513618 -0.007484049 -0.041209247 -0.008467322 -0.029582331 0.00916407 0.052238755 -0.04784652
0.023274353 0.04373314 0.01811199 0.03254038 -0.022163182 -0.004436452 -0.03307432 -0.035166208
-0.041261684 -0.01721176 0.014135306 0.013324783 -0.026031222 -0.022660106 0.003899389 0.0074542915
0.0015997441 0.02353273 -0.028767433 -0.010397549 0.030573534 0.020789431 0.047002427 0.00797259
0.0241608 -0.052545875 0.023564553 -0.0009172497 -0.0118383905 -0.030153723 -0.026877256 0.023676129
-0.04027262 -0.044074647 0.0071706246 0.017971264 -0.012520387 -0.03513754 -0.0025928852 -0.0103078615
-0.031874917 -0.022275269 0.022424432 0.016707418 0.022784928 0.021192553 -0.033461157 -0.034406908
-0.0318086 -0.033871632 0.03219395 -0.016380932 -0.0032422484 0.03675179 -0.021154493 0.024769062
0.05358562 0.051052485 0.040234584 0.02390826 -0.012222954 -0.008655715 -0.025955727 0.025069604
-0.042646427 0.001686499 0.041212182 -0.044330455 0.023389058 0.019432161 -0.0065663625 -0.036116198
00000000: 5c2b c2bc 2c57 0fbd 5e95 1d3c 7ac3 9cbc
00000010: c078 c6bc 17b3 4cbd 0f17 c73c 2bdb 313c
00000020: cd09 51bd 0c33 8d3c 8eec 8ebc 0119 a2ba
00000030: de3c 43bd be60 96bb 6335 a43a b986 3cbd
00000040: 93cf 8d3c 4b30 563b 0ce5 853b 7817 1c3a
00000050: 22a9 353c 0d96 abbc 1831 a1bc 6c81 653d
00000060: 9c23 e7bc c509 11bb 0fac 0fbc 6c68 13bd
00000070: 45c1 12bd b8ef debc 255c cc3a 2c0e aabc
00000080: 109b c13c 4c91 923c 2849 003d b4ee b43c
00000090: f585 2abb 3531 16bd 3b7c 1ebd c989 42bc
000000a0: 9f34 583b e531 c5bc 8587 3ebd 12ad edbc
000000b0: 4cfb e5bc 76e0 e53c 3608 b83c 0311 c6bc
000000c0: 014a 18bd 5c0f c5bc c972 b5bb aa18 d5bc
000000d0: 06a0 bbbc 9870 27bd 697b 9e3c d34e cf3c
000000e0: e4a8 e13c 0011 07bd 4d85 e2bb 36e8 9a3b
000000f0: 5afa c9bc 7759 22bd 37b0 36bd 5b52 1f3d
00000100: e0a1 b33c 9983 7cbc 6db1 343d 7d1a 003c
00000110: 0c87 59bc 3ac5 1d3d be6e 673b f366 ccbc
00000120: b8cf 1bbd 1ef9 003d 29ab 18bd b860 743c
00000130: d7c5 193c 4fe0 14bd 12cd 88bc 2ffc 4abc
00000140: e778 c0bc 65e2 693c f28a aabc 2806 0f3c
00000150: d79a e73c e9ee 553c 0c98 aa3b fce5 ef3c
00000160: 45f7 f3bc ebc5 1d3c bd16 12bd 3de9 d9bc
00000170: 6ee0 e3bb 1c6d 3fbd ed13 703c 5159 f5bc
00000180: 3273 0abd c4a6 be3b 461a bf3b fee9 12bc
00000190: 0e11 b4bc 886f 0cbd 8c00 febc aceb 42bd
000001a0: 8f5d ffbc 0ab8 15bd 108c a0bc f12d 173c
000001b0: 57b6 633c 8f85 173d 38e6 3fbc ca7f 57bc
000001c0: 112e c2bc cb4f 243c 8eb4 ed3c 7d68 c6bc
000001d0: 96d1 f23c c15c 743c 5eaa 65bd 5f2d 2cbc
000001e0: 194f c0bb 89b8 38bd 52db 6ebd 2e61 1bbd
000001f0: cc15 19bb b019 53bd 0d6c 493d 67c1 e3bc
00000200: 8e51 8ebc 8cf6 b5bc 1124 1dbd 0fae 8abc
00000210: da8e cebc 4138 70bc 3c92 103c 56cc 67bc
00000220: 3fb0 c83c dc1a f8bc 5907 d2bc 1c8f 1d3d
00000230: 73a5 0cbb 6541 bc3c 8d8f 143d 6716 aabc
00000240: 6157 2c3d 7827 913c 8c14 0f3d 0ece 7b3c
00000250: 278d 5bbb 7882 e63c 5eb0 24bd 157b d13c
00000260: c0fc a3bc c305 15bd 0f0c 0d3d d492 74bc
00000270: ea0e 8e3b 8cee a63a f673 37bc 61d1 d0bb
00000280: 0cfa f83b aee5 51bd fc69 1c3c bee5 64bc
00000290: e172 1bbd f0f5 2a3d f301 1b3c d542 febc
000002a0: 6857 7cba db0d 443b 7b65 5ebc 75f0 a13c
000002b0: f8bb a1bc 24e9 2a3d 510a 083d 9362 62bc
000002c0: f5ea 0f3d c13c f5bb 07cb 28bd 86ba 0abc
000002d0: a556 f2bc e524 163c 4ef8 553d b6fa 43bd
000002e0: dba9 be3c 8521 333d 995f 943c 1049 053d
000002f0: 908f b5bc a85f 91bb f078 07bd 710a 10bd
00000300: 0302 29bd adff 8cbc c597 673c 3150 5a3c
00000310: 6e3f d5bc b0a1 b9bc e48c 7f3b 2143 f43b
00000320: 81ae d13a b6c7 c03c aea9 ebbc 7b5a 2abc
00000330: 5975 fa3c 994e aa3c 9e85 403d 779f 023c
00000340: dfec c53c 583a 57bd 730a c13c 9673 70ba
00000350: cff5 41bc f104 f7bc b12d dcbc 71f4 c13c
00000360: e7f4 24bd 9e87 34bd 8ff7 ea3b 7938 933c
00000370: 4f22 4dbc 62ec 0fbd 65ed 29bb 4ee2 28bc
00000380: 468f 02bd a07a b6bc 71b3 b73c ffdd 883c
00000390: 75a7 ba3c 019c ad3c 910e 09bd 42ee 0cbd
000003a0: bc49 02bd fbbc 0abd cedd 033d 4e31 86bc
000003b0: e77b 54bb 0c89 163d 304c adbc 7de8 ca3c
000003c0: 987c 5b3d 691c 513d 05cd 243d 41db c33c
000003d0: c942 48bc b3d0 0dbc 1ba1 d4bc c55e cd3c
000003e0: 05ae 2ebd 840d dd3a 1bce 283d da93 35bd
000003f0: 699a bf3c 3230 9f3c a42a d7bb 94ee 13bd

layer2.0.bias f4 [64]
0.03196558 0.031665564 -0.00682822 0.032149334 0.03066332 0.00039537586 -0.009923402 0.024072478
-0.014988277 0.006260836 0.0051608933 -0.02322101 -0.018786099 0.020381233 -0.017355273 0.0016334496
-0.014902731 -0.0076383036 -0.008325541 0.041526895 -0.0081671495 0.010665419 0.008480016 -0.010794041
-0.003916011 0.0375588 0.0076610185 0.03589431 0.028347831 0.030955609 -0.014421143 -0.017266985
0.032323964 0.010748109 0.026994413 -0.004923934 -0.008774332 0.030941686 -0.0019919733 0.018682055
0.018957261 0.0020486966 -3.6509762e-05 -0.02685438 -0.0154603785 -0.02972985 -0.015167656 0.004873774
0.025342006 -0.038118653 -0.014140256 0.03299634 -0.031436384 0.02027754 -0.032438006 0.00030648676
-0.0060228603 -0.034288395 0.0046625184 0.0011857128 0.033033386 -0.0058474545 0.013468841 -0.02415852
00000000: 57ee 023d c0b3 013d 43bf dfbb 05af 033d
00000010: a531 fb3c 734a cf39 c495 22bc a533 c53c
00000020: 6491 75bc b327 cd3b b61c a93b fd39 bebc
00000030: 4ee5 99bc 8bf6 a63c a52c 8ebc 7919 d63a
00000040: 962a 74bc bc4a fabb da67 08bc 1b18 2a3d
00000050: 82cf 05bc 02be 2e3c c4ef 0a3c 7dd9 30bc
00000060: e251 80bb 42d7 193d 4809 fb3b e905 133d
00000070: b639 e83c 9e96 fd3c a846 6cbc 7e73 8dbc
00000080: 2266 043d d618 303c 6323 dd3c f458 a1bb
00000090: 37c2 0fbc 6b79 fd3c c48b 02bb 1c0b 993c
000000a0: 424c 9b3c 6d43 063b 0f22 19b8 b7fd dbbc
000000b0: 874d 7dbc 048c f3bc c381 78bc 2eb4 9f3b
000000c0: 0a9a cf3c 4e22 1cbd 88ac 67bc 2c27 073d
000000d0: 70c3 00bd 151d a63c b7dd 04bd f5af a039
000000e0: 6a5b c5bb fd71 0cbd 0ac8 983b eb69 9b3a
000000f0: 044e 073d 019c bfbb 6aac 5c3c 17e8 c5bc

layer2.1.weight f4 [64]
0.98933643 1.0003154 0.98310584 1.0195353 1.0135533 0.9950253 0.99961203 0.9804756
1.0033106 0.98350614 0.9869596 0.99262804 1.0044159 1.0224048 0.99323547 1.006946
0.9865417 1.0149547 0.99600226 1.0373544 0.99221164 1.0221658 1.0185045 0.9738601
0.9818718 1.0020105 1.011014 0.9954609 0.9769855 0.9938116 1.0025254 0.987035
1.0189949 0.99609065 1.0078123 0.9730593 1.0185658 0.9998215 0.98457706 1.0072111
1.0115224 1.0019685 0.9937728 0.9806474 0.9877418 1.0052009 1.0023652 1.0294142
0.99900234 0.9959408 1.0183891 0.98747134 0.99646354 0.98910046 0.9941935 0.99476045
1.0058469 0.9798944 0.99123 0.9845537 0.98221964 0.9851427 0.98214096 0.9863873
00000000: 2745 7d3f 560a 803f d3ac 7b3f 2280 823f
00000010: 1dbc 813f fab9 7e3f 93e6 7f3f 7300 7b3f
00000020: 7b6c 803f 0fc7 7b3f 62a9 7c3f df1c 7e3f
00000030: b390 803f 29de 823f ae44 7e3f 9be3 803f
00000040: ff8d 7c3f 09ea 813f 01fa 7e3f 07c8 843f
00000050: 9501 7e3f 54d6 823f 5b5e 823f e54e 793f
00000060: f35b 7b3f e141 803f e868 813f 87d6 7e3f
00000070: b91b 7a3f 706a 7e3f c152 803f 53ae 7c3f
00000080: 6d6e 823f ccff 7e3f feff 803f 6a1a 793f
00000090: 5d60 823f 4df4 7f3f 3e0d 7c3f 4bec 803f
000000a0: 9179 813f 8140 803f e567 7e3f b50b 7b3f
000000b0: a6dc 7c3f 6caa 803f 814d 803f d8c3 833f
000000c0: 9ebe 7f3f faf5 7e3f 935a 823f ecca 7c3f
000000d0: 3c18 7f3f b035 7d3f 7783 7e3f 9fa8 7e3f
000000e0: 97bf 803f 5cda 7a3f 40c1 7d3f b60b 7c3f
000000f0: bf72 7b3f 5032 7c3f 976d 7b3f e183 7c3f

layer2.1.bias f4 [64]
-0.024475155 -0.011569138 -0.07394612 -0.0251847 -0.0103823645 -0.021270925 -0.003295098 -0.016454294
-0.05982388 -0.024606625 -0.0771994 -0.02202066 -0.012248153 -0.0045952094 -0.017540038 -0.0009573954
-0.026905054 0.031774674 -0.04116325 -0.07259236 -0.036263403 -0.026825048 -0.024895612 -0.031180844
-0.014919409 -0.023308866 -0.0216746 -0.013786853 -0.0008587241 -0.038954142 -0.0015633944 -0.024965327
-0.0073644063 -0.011145713 -0.014305984 0.0062944368 -0.017448602 -0.013215863 -0.012523802 -0.016692707
-0.08737293 -0.06645357 -0.014350878 0.019909652 -0.023073144 -0.0051846607 -0.041386 -0.08220274
-0.047725506 -0.034821946 -0.04594522 -0.008565498 -0.025562616 -0.024554018 -0.016084861 -0.06350336
-0.01174767 0.018217329 -0.02159908 -0.019692013 -0.023057546 0.0076953233 0.013929362 -0.014409757
00000000: 1f80 c8bc 7b8c 3dbc 1071 97bd 2550 cebc
00000010: cb1a 2abc 5d40 aebc 92f2 57bb 28cb 86bc
00000020: e309 75bd d593 c9bc b81a 9ebd ac64 b4bc
00000030: 7aac 48bc 6993 96bb 20b0 8fbc b8f9 7aba
00000040: fd67 dcbc 2926 023d cc9a 28bd 4eab 94bd
00000050: ef88 14bd 34c0 dbbc e2f1 cbbc f86e ffbc
00000060: 8970 74bc 3cf2 bebc ee8e b1bc 41e2 61bc
00000070: 001c 61ba 618e 1fbd d0ea ccba 1684 ccbc
00000080: 1e51 f1bb 829c 36bc a563 6abc 9041 ce3b
00000090: 5ff0 8ebc 5987 58bc a230 4dbc 25bf 88bc
000000a0: 94f0 b2bd cf18 88bd f21f 6bbc 9119 a33c
000000b0: e403 bdbc 16e4 a9bb 5e84 29bd e959 a8bd
000000c0: d27b 43bd 75a1 0ebd 0e31 3cbd 4d56 0cbc
000000d0: b168 d1bc 8225 c9bc 66c4 83bc 0d0e 82bd
000000e0: 4d79 40bc 823c 953c 8ef0 b0bc 2551 a1bc
000000f0: 2ee3 bcbc 0d29 fc3b fb37 643c e716 6cbc

layer2.1.running_mean f4 [64]
-0.6633445 -1.0095673 -0.1303659 -0.16544794 -0.86147594 -0.4069875 -0.6305093 -0.46431223
-0.35137925 -0.98373574 0.20187819 -0.8976083 -0.88510776 -0.033669725 -0.5911764 -1.0842353
-0.32894897 -0.2614309 -0.7229292 -0.585305 -0.39916918 -0.7891951 -0.72013086 -0.040223192
-0.37304178 -0.8126354 -0.6151416 -0.9922283 -0.49226528 -0.72628874 -0.9055435 -0.60647637
-0.19523904 -0.3175731 -0.82310367 0.5029133 -1.0616224 -0.54802895 -0.7151716 -0.47406626
0.28273278 -0.840173 -1.4026185 0.5442998 -1.1112748 -1.1919061 -0.45688286 0.45532718
-1.0463712 -0.84700423 -0.603072 -0.88482904 -1.8286762 -0.07549469 -1.1479673 -0.39794496
0.30473462 -0.5364042 -0.06078001 -0.58030605 -0.90602285 -0.21320337 0.040694293 -0.6628411
00000000: f2d0 29bf 8039 81bf a37e 05be 2f6b 29be
00000010: b089 5cbf aa60 d0be 0f69 21bf 55ba edbe
00000020: fbe7 b3be 1bd6 7bbf 28b9 4e3e a8c9 65bf
00000030: 6c96 62bf 44e9 09bd 5657 17bf 39c8 8abf
00000040: 006c a8be 45da 85be e311 39bf 8cd6 15bf
00000050: e75f ccbe b108 4abf 7f5a 38bf 13c1 24bd
00000060: 55ff bebe e008 50bf eb79 1dbf ad02 7ebf
00000070: 320a fcbe 0fee 39bf b3d1 67bf 0942 1bbf
00000080: beec 47be f198 a2be ecb6 52bf edbe 003f
00000090: 3ee3 87bf a04b 0cbf 7c15 37bf d0b8 f2be
000000a0: 5ac2 903e 9415 57bf 0189 b3bf 3b57 0b3f
000000b0: 413e 8ebf 6190 98bf 8dec e9be a520 e93e
000000c0: 7eef 85bf 45d5 58bf ed62 1abf 2884 62bf
000000d0: 1012 eabf f69c 9abd 98f0 92bf 71bf cbbe
000000e0: 2d06 9c3e c951 09bf 76f4 78bd f08e 14bf
000000f0: 1df1 67bf fc51 5abe 0faf 263d f4af 29bf

layer2.1.running_var f4 [64]
0.40558574 0.47086728 0.39795473 0.3896338 0.4930833 0.8763964 0.4261937 1.1251724
0.5056648 1.2765611 0.5395812 1.3651744 0.43763992 0.23597261 0.21184555 0.3979448
0.46857485 0.50398576 0.23605432 0.19938007 0.37287658 0.3994685 0.42001045 0.6261386
0.27423584 0.3413192 0.45200288 1.2967858 0.39096504 0.71653694 0.5171762 0.4778144
0.40577212 1.4963806 0.38679874 1.2757375 0.42823824 0.561194 0.5927248 0.49322236
0.17405789 0.431988 0.37793875 0.882684 0.7598814 1.2683458 0.3942169 0.17235658
0.38526604 0.58706874 0.18986318 0.3722862 0.54951125 0.46986848 0.4139259 0.4972489
1.300292 1.0914383 1.1023934 0.48954257 0.40805206 0.8517308 0.6811617 0.59932524
00000000: efa8 cf3e 8415 f13e b9c0 cb3e 157e c73e
00000010: 6a75 fc3e 845b 603f 1036 da3e a605 903f
00000020: 4073 013f 5b66 a33f fe21 0a3f 09be ae3f
00000030: 5712 e03e cea2 713e 0aee 583e 6cbf cb3e
00000040: 0be9 ef3e 3605 013f 39b8 713e 4a2a 4c3e
00000050: aee9 be3e 2387 cc3e 9c0b d73e 9f4a 203f
00000060: a468 8c3e 64c1 ae3e ec6c e73e 14fd a53f
00000070: 922c c83e f76e 373f a965 043f 17a4 f43e
00000080: 5dc1 cf3e 6689 bf3f 7c0a c63e 5e4b a33f
00000090: 0b42 db3e 69aa 0f3f d0bc 173f a487 fc3e
000000a0: 3b3c 323e 882d dd3e 3081 c13e 94f7 613f
000000b0: 9687 423f 2859 a23f ccd6 c93e 3e7e 303e
000000c0: 9741 c53e 234a 163f 7e6b 423e 4c9c be3e
000000d0: c5ac 0c3f 9a92 f03e 18ee d33e 6897 fe3e
000000e0: f86f a63f 40b4 8b3f 3a1b 8d3f 53a5 fa3e
000000f0: 33ec d03e 080b 5a3f 9d60 2e3f 616d 193f

layer3.0.weight f4 [64, 64, 3, 3]
0.036699623 0.0047825775 -0.012758266 -0.021267718 0.019374968 -0.017906453 0.00083825376 -0.01627283
0.00014993234 -0.006409884 0.0013531251 -0.016984655 -0.002975307 0.0031357312 -0.051545057 0.029925559
0.020975487 -0.025779732 0.007900848 0.0077187335 -0.005857305 -0.017032178 0.010699489 0.00036487324
0.04045398 -0.046884224 -0.04326095 0.029051842 -0.02376392 -0.0053610126 0.013676444 0.013821693
-0.029641913 0.0050190035 0.021244103 -0.020921865 -0.034375522 -0.016106911 -0.0477217 -0.031322252
-0.04213602 -0.004488164 -0.013530676 -0.027181406 -0.030573457 -0.02430637 -0.03730285 0.031649627
0.020469632 0.030768385 0.02238546 0.027965045 -0.019457886 0.0075997827 0.04525026 0.0038429475
0.021620225 0.034716878 0.0135417655 0.010917781 0.010606406 0.017660217 0.05164724 -0.031472404
-0.022302607 -0.0002481775 0.013922196 -0.026047349 -0.056932036 0.031951312 0.0107773375 -0.007873516
0.01620723 -0.02244295 0.01762594 0.010638697 -0.017482975 -0.0076713404 -0.036187325 0.0041599367
-0.010684046 0.025622323 0.035695408 -0.058920883 0.03267925 0.017366422 -0.01621295 -0.02351158
0.023264848 -0.0077043283 -0.023353769 -0.02243099 -0.022718731 -0.013412831 -0.021258192 -0.00061860157
0.0049248883 -0.03131854 -0.034007467 -0.007935122 -0.0014544444 0.04310149 0.029347442 0.045526147
-0.002935776 0.03663823 -0.028973602 0.00033614298 0.019556966 -0.045844063 -0.005786291 0.019464979
-0.013714892 -0.04103252 -0.009557543 0.003127944 -0.01399863 -0.008852197 0.02830493 0.01908952
0.011956482 0.028552176 0.041880857 0.040960588 -0.0043436103 0.064568505 0.0022613136 0.0066255974
-0.0065270816 0.020936085 0.0037835627 -0.0069087027 -0.043585155 0.009196977 0.020825563 -0.035028722
-0.01654116 0.022523012 0.010507272 -0.011923461 0.006965077 0.0117957685 -0.028789155 0.010393189
-0.021850122 0.017028201 -0.024998806 0.010629755 0.02939185 -0.011538749 -0.033781588 -0.0029515584
-0.021485018 0.016792012 -0.020535856 0.021345563 -0.006734301 -0.011287615 -0.017047029 -0.0052690404
-0.040401813 -0.019063575 0.012929852 0.02928404 0.040875852 0.02880362 0.0048066773 0.018370865
0.025386533 -0.0034831068 0.041471016 0.036683235 -0.021139417 0.03669054 0.0040630805 0.0013722393
0.044759687 0.02384382 0.03707014 0.06313561 -0.018572476 0.01653709 -0.04558191 -0.011813713
0.0026267334 -0.059962742 -0.04753454 -0.03482582 -0.046957586 0.048507407 -0.028771918 -0.0058751204
-0.004101125 0.007105309 -0.03188953 0.05425363 0.036475606 -0.024059856 0.046265222 0.018867036
0.04774816 0.033643752 0.021823807 -0.017117728 0.0120920185 0.03427863 0.033869535 0.013543858
0.01449997 -0.030611537 -0.011056577 -0.01688176 0.015001642 -0.023331255 -0.021636555 -0.020911107
0.02448898 -0.025003863 0.022889134 -0.03691519 0.009177407 -0.024242122 -0.011622414 0.0030203455
-0.03725439 0.012612408 -4.8129423e-05 -0.030896919 0.012694997 -0.03730963 -0.019026268 -0.015084958
0.006460241 -0.010588162 0.0047704554 0.01621029 0.009474466 -0.041703463 0.01724126 -0.013051249
-0.0022982776 0.024296686 -0.043078408 -0.009353668 0.04100096 0.024795607 -0.015895579 0.054807328
0.032502957 -0.055801187 0.008064882 -0.024735795 0.012374807 0.004735581 -0.0013126882 0.0034291663
00000000: 5852 163d 2bb7 9c3b 0c08 51bc a339 aebc
00000010: 41b8 9e3c 8eb0 92bc 42be 5b3a 994e 85bc
00000020: 2837 1d39 010a d2bb 585b b13a 6723 8bbc
00000030: 5efd 42bb d780 4d3b e920 53bd 7226 f53c
00000040: c9d4 ab3c 0430 d3bc 8f72 013c 6eed fc3b
00000050: a3ee bfbb 1187 8bbc e94c 2f3c 754c bf39
00000060: 13b3 253d ac09 40bd 6532 31bd 21fe ed3c
00000070: 8dac c2bc 6fab afbb 2a13 603c 6274 623c
00000080: 99d3 f2bc 7476 a43b 1d08 ae3c 5564 abbc
00000090: 59cd 0cbd a4f2 83bc d477 43bd c34b 00bd
000000a0: d296 2cbd 7311 93bb c5af 5dbc 8aab debc
000000b0: 3075 fabc 271e c7bc e0ca 18bd 0aa3 013d
000000c0: eeaf a73c fb0d fc3c b661 b73c f316 e53c
000000d0: 2566 9fbc 9907 f93b 5658 393d f6d9 7b3b
000000e0: e61c b13c 4933 0e3d 48de 5d3c 7ee0 323c
000000f0: 7ec6 2d3c 29ac 903c 0e8c 533d 35e9 00bd
00000100: f5b3 b6bc d21d 82b9 ec19 643c 4061 d5bc
00000110: 9131 69bd 61df 023d 6e93 303c ebff 00bc
00000120: 06c5 843c 47da b7bc 4664 903c ee4d 2e3c
00000130: 7538 8fbc de5f fbbb 2939 14bd 1450 883b
00000140: 230c 2fbc e8e5 d13c 5935 123d 0657 71bd
00000150: adda 053d 0744 8e3c 05d1 84bc 5b9b c0bc
00000160: ec95 be3c 9774 fcbb 6750 bfbc 32c1 b7bc
00000170: a21c babc 7ec1 5bbc a925 aebc a629 22ba
00000180: f560 a13b df47 00bd 6a4b 0bbd 5002 02bc
00000190: 0ea3 beba 308b 303d 0c6a f03c a079 3a3d
000001a0: 2666 40bb f811 163d 0c5a edbc 593c b039
000001b0: ee35 a03c fcc6 3bbd ed9a bdbb 0575 9f3c
000001c0: 6db4 60bc b711 28bd 3e97 1cbc 31fe 4c3b
000001d0: 835a 65bc ce08 11bc bedf e73c a061 9c3c
000001e0: 1fe5 433c 41e6 e93c 438b 2b3d 4ac6 273d
000001f0: d854 8ebb 7e3c 843d 8c32 143b 8a1b d93b
00000200: 21e1 d5bb 2782 ab3c a6f5 773b 6662 e2bb
00000210: 5986 32bd ebae 163c 5f9a aa3c 477a 0fbd
00000220: 5481 87bc 2e82 b83c b126 2c3c 9f5a 43bc
00000230: 4d3b e43b 0a43 413c 3cd7 ebbc 3248 2a3c
00000240: 07ff b2bc ba7e 8b3c 4cca ccbc 6d28 2e3c
00000250: 2dc7 f03c 050d 3dbc 905e 0abd ef6e 41bb
00000260: 5901 b0bc 678f 893c d03a a8bc e4dc ae3c
00000270: 69ab dcbb b0ef 38bc 36a6 8bbc eaa7 acbb
00000280: 5f7c 25bd 372b 9cbc bbd7 533c 15e5 ef3c
00000290: 706d 273d 92f5 eb3c 5581 9d3b 7f7e 963c
000002a0: 6bf7 cf3c d644 64bb 83dd 293d 2941 163d
000002b0: 922c adbc d248 163d 9723 853b b6dc b33a
000002c0: ef55 373d 1d54 c33c dcd6 173d 3e4d 813d
000002d0: 4e25 98bc cb78 873c 19b4 3abd 4e8e 41bc
000002e0: 4625 2c3b 7e9b 75bd 94b3 42bd 85a5 0ebd
000002f0: 9956 40bd b4af 463d 16b3 ebbc 1584 c0bb
00000300: bb62 86bb a7d3 e83b 999e 02bd 0e39 5e3d
00000310: 7267 153d 2d19 c5bc 9a80 3d3d 0b8f 9a3c
00000320: 9393 433d 08ce 093d d7c7 b23c 7a3a 8cbc
00000330: 9a1d 463c c067 0c3d c8ba 0a3d 0fe7 5d3c
00000340: 4891 6d3c 0cc5 fabc a526 35bc 9e4b 8abc
00000350: 72c9 753c 3021 bfbc 253f b1bc c54d abbc
00000360: 1d9d c83c e7d4 ccbc fe81 bb3c 6234 17bd
00000370: d65c 163c 6a97 c6bc f06b 3ebc fdf0 453b
00000380: 0f98 18bd 46a4 4e3c 93de 49b8 891b fdbc
00000390: adfe 4f3c fcd1 18bd fadc 9bbc e626 77bc
000003a0: 6eb0 d33b f879 2dbc 7b51 9c3b 71cb 843c
000003b0: ca3a 1b3c 40d1 2abd 8b3d 8d3c e8d4 55bc
000003c0: b39e 16bb d809 c73c fc72 30bd 2140 19bc
000003d0: 9ff0 273d 2820 cb3c 7237 82bc a67d 603d
000003e0: d221 053d c98f 64bd 9122 043c b9a2 cabc
000003f0: b4bf 4a3c ef2c 9b3b 820e acba ddbb 603b

layer3.0.bias f4 [64]
0.018754153 0.014284331 -0.0010356985 -0.015687691 -0.0037148395 0.024446337 0.0049317847 -0.03152537
0.013435443 -0.03257375 0.0240124 0.022303047 0.031907536 0.027679222 -0.034308635 0.02064812
-0.022511357 -0.010824867 0.018855194 -0.018632084 -0.026253497 0.0010717977 -0.013502777 0.0040126657
-0.022145864 0.027259411 0.018283201 0.037201308 0.033023577 -0.007027147 0.023505513 0.02458824
-0.018572556 0.039650094 0.017653776 -7.386864e-05 -0.025628429 0.032021146 -0.02505476 0.0028046549
0.04251693 -0.042637136 0.0037541948 0.031278357 0.019497162 -0.008306747 0.02719777 -0.032965604
-0.028374465 0.0010876381 0.019209722 0.01595492 0.011570527 -0.009989049 -0.03943463 -0.018287454
0.027143754 0.01620701 0.018900534 -0.014287712 -0.034052614 0.02514177 -0.012867649 -0.032102417
00000000: 4fa2 993c d408 6a3c 46c0 87ba 7983 80bc
00000010: aa74 73bb af43 c83c cf9a a13b bf20 01bd
00000020: 5520 5c3c 0d6c 05bd a7b5 c43c e1b4 b63c
00000030: 7ab1 023d 89bf e23c 3687 0cbd 3f26 a93c
00000040: bd69 b8bc c85a 31bc 3576 9a3c 50a2 98bc
00000050: 9311 d7bc 907b 8c3a c03a 5dbc ae7c 833b
00000060: 3e6b b5bc 214f df3c a7c6 953c 6660 183d
00000070: bb43 073d fb43 e6bb a28e c03c 476d c93c
00000080: 7925 98bc 2368 223d a79e 903c ede9 9ab8
00000090: b6f2 d1bc 9b28 033d a43f cdbc 4dce 373b
000000a0: 3b26 2e3d 47a4 2ebd f008 763b bc1d 003d
000000b0: 83b8 9f3c 0619 08bc dccd de3c f106 07bd
000000c0: 9171 e8bc 148f 8e3a b55d 9d3c e4b3 823c
000000d0: 4f92 3d3c 1ca9 23bc 3586 21bd 92cf 95bc
000000e0: 945c de3c 90c4 843c 4bd5 9a3c 0217 6abc
000000f0: c17a 0bbd 1df6 cd3c d5d2 52bc d37d 03bd

layer3.1.weight f4 [64]
1.0080949 0.9726478 0.996731 0.96432585 1.0019823 1.0105534 1.0035459 0.9981219
1.019338 0.95378196 0.99406165 1.0127109 1.0046153 0.9470277 1.0409445 0.9527425
1.017576 0.9976118 1.0301567 0.97910297 0.9883838 1.0250252 1.009464 1.012749
0.9540743 1.018064 0.96001935 0.95322955 0.95833075 0.94828206 1.033304 0.96203214
0.9880308 1.0396193 1.0037379 1.0266364 0.97947454 0.9825158 0.98004436 0.9630589
1.0521754 0.9641778 1.0383949 0.982921 0.99875206 1.0063784 0.9732844 0.9534495
1.000338 0.983385 0.99730086 1.0176771 1.0261428 1.0130935 1.0068929 0.9660017
1.0432711 1.0288453 0.9913293 1.0316418 1.0403621 1.0041475 0.96699226 0.9823668
00000000: 4109 813f 72ff 783f c329 7f3f 0fde 763f
00000010: f540 803f d059 813f 3174 803f eb84 7f3f
00000020: ab79 823f 0e2b 743f d37a 7e3f 83a0 813f
00000030: 3c97 803f 6870 723f ab3d 853f efe6 733f
00000040: ee3f 823f 7d63 7f3f 2ddc 833f 7ea6 7a3f
00000050: b906 7d3f 0734 833f 1e36 813f c2a1 813f
00000060: 373e 743f ec4f 823f d4c3 753f da06 743f
00000070: 2a55 753f 9dc2 723f 4e43 843f bd47 763f
00000080: 96ef 7c3f 3f12 853f 7c7a 803f d268 833f
00000090: d8be 7a3f 2886 7b3f 30e4 7a3f 078b 763f
000000a0: afad 863f 5bd4 763f 20ea 843f b6a0 7b3f
000000b0: 37ae 7f3f 02d1 803f 2b29 793f 4415 743f
000000c0: 130b 803f 1fbf 7b3f 1c4f 7f3f 3e43 823f
000000d0: a658 833f 0cad 813f dee1 803f e34b 773f
000000e0: e889 853f 34b1 833f c2c7 7d3f d70c 843f
000000f0: 962a 853f e887 803f ce8c 773f 647c 7b3f

layer3.1.bias f4 [64]
-0.05488928 -0.02268492 -0.05070849 -0.0069244346 -0.06452069 -0.046169214 -0.033940703 -0.060521055
-0.07448614 -0.030269207 -0.060652968 -0.037102923 -0.060547218 -0.04858657 -0.04592572 -0.03563347
-0.08708703 -0.053104844 -0.051141057 -0.06035148 -0.07853502 -0.12235552 -0.066164054 -0.077048406
-0.014968182 -0.035932746 0.00047172976 -0.040373396 -0.054813515 -0.057438426 -0.055795994 -0.026731621
-0.013584813 -0.047665965 -0.013610573 -0.091424964 -0.06762064 -0.041460313 -0.049305648 -0.059400897
-0.11581086 -0.0579172 -0.077614374 -0.03701044 -0.057709474 -0.063354015 -0.044093844 -0.008248997
-0.058052167 -0.02062263 -0.0386549 -0.03964658 -0.067382984 -0.043253385 -0.08731122 -0.039162472
-0.10242354 -0.05120972 -0.037131023 -0.12006118 -0.048830952 -0.042578585 -0.024920482 -0.052387018
00000000: 95d3 60bd bad5 b9bc b5b3 4fbd 5ee6 e2bb
00000010: 6c23 84bd ee1b 3dbd 6805 0bbd ede4 77bd
00000020: 308c 98bd 21f7 f7bc 3f6f 78bd 3cf9 17bd
00000030: 5c00 78bd b602 47bd 9c1c 3cbd 67f4 11bd
00000040: af5a b2bd 7784 59bd 4979 51bd 1d33 77bd
00000050: f8d6 a0bd 8895 fabd 0581 87bd 8ecb 9dbd
00000060: 1b3d 75bc 372e 13bd 7f52 f739 935e 25bd
00000070: 2384 60bd 8e44 6bbd 578a 64bd 46fc dabc
00000080: d692 5ebc 633d 43bd e1fe 5ebc 033d bbbd
00000090: b17c 8abd 4ad2 29bd b8f4 49bd 5b4e 73bd
000000a0: 3f2e edbd 963a 6dbd 49f4 9ebd 4298 17bd
000000b0: c560 6cbd c0bf 81bd bf9b 34bd cd26 07bc
000000c0: 1cc8 6dbd caf0 a8bc 9a54 1ebd 7464 22bd
000000d0: 1700 8abd 762a 31bd 3ad0 b2bd d468 20bd
000000e0: 6fc3 d1bd 49c1 51bd b316 18bd a3e2 f5bd
000000f0: f702 48bd e266 2ebd 0a26 ccbc c593 56bd

layer3.1.running_mean f4 [64]
-0.6643183 -0.47366312 -0.80077773 -0.1351661 -0.59573656 -0.46484718 -0.3840059 -0.32302326
-0.35333443 -0.565059 -0.7410403 -0.6955264 -0.11179042 -0.46055532 -0.5073267 -0.30645272
0.42850807 -0.41013902 -0.6200521 -0.17855805 -0.45758113 0.51760453 -0.52024186 -0.2513146
-0.2514475 -0.86656296 -0.68718946 -0.3953931 -0.80107456 -0.7705884 -0.4981747 -0.028164623
-0.77709967 -0.5190589 -0.21146913 -0.7970766 0.5010194 -0.43737313 -0.008193796 -0.48585203
0.34697604 -0.50181675 -0.5272781 -0.24377446 -0.53982806 -0.8178277 -0.40155235 -0.7701756
-0.32538807 -0.36651322 -0.5694567 -0.9073739 -0.79903287 -0.66432166 -0.45578057 -0.6447608
-0.083226115 -0.21620497 -0.326123 0.34656528 -0.62632257 -0.58049345 -0.6672387 -0.43186697
00000000: c410 2abf f983 f2be c5ff 4cbf fb68 0abe
00000010: 3182 18bf 7300 eebe 6c9c c4be 4e63 a5be
00000020: 40e8 b4be b5a7 10bf d1b4 3dbf 050e 32bf
00000030: 60f2 e4bd e8cd ebbe 2ae0 01bf 5fe7 9cbe
00000040: 6965 db3e befd d1be bcbb 1ebf ecd7 36be
00000050: 1348 eabe bb81 043f 922e 05bf 4fac 80be
00000060: babd 80be 12d7 5dbf a6eb 2fbf f770 cabe
00000070: 3913 4dbf 4845 45bf c110 ffbe 7fb9 e6bc
00000080: 01f0 46bf 0be1 04bf 5d8b 58be 360d 4cbf
00000090: cf42 003f 5fef dfbe 453f 06bc 99c1 f8be
000000a0: d8a6 b13e 1077 00bf b3fb 06bf 03a0 79be
000000b0: 2c32 0abf 285d 51bf 4598 cdbe 3a2a 45bf
000000c0: 4499 a6be 9fa7 bbbe eac7 11bf a849 68bf
000000d0: 6b8d 4cbf fc10 2abf 125c e9be 0b0f 25bf
000000e0: 7472 aabd d664 5dbe 98f9 a6be 0171 b13e
000000f0: ad56 20bf 389b 14bf 28d0 2abf ab1d ddbe

layer3.1.running_var f4 [64]
0.2627781 0.45243442 0.35478356 0.4091138 0.36504492 0.2134282 0.2564861 0.21713914
0.24933547 0.57725847 0.47824514 0.24323349 0.28895646 0.92124414 0.2672762 0.95972866
0.23490605 0.24898987 0.34562966 0.28367144 0.28339615 0.19402191 0.21253146 0.38202924
0.5151178 0.29040852 0.48199978 0.46634918 0.48876438 0.7100205 0.23376599 0.38282594
0.64851624 0.22289853 0.35808226 0.3243072 0.31161335 0.8005311 0.2952168 0.24730462
0.2721299 0.38962555 0.23013869 0.41867837 0.23242515 0.37703976 0.42546958 0.4794574
0.49406916 0.48455545 0.12736195 0.27444577 0.26994148 0.28987908 0.32301003 0.62105864
0.21512584 0.26416454 0.3101467 0.186192 0.15685247 0.27755466 0.6953795 0.48580343
00000000: da8a 863e 7ca5 e73e 31a6 b53e 5d77 d13e
00000010: 2be7 ba3e ec8c 5a3e 2552 833e b959 5e3e
00000020: cc51 7f3e 36c7 133f 8cdc f43e 3312 793e
00000030: 1af2 933e a8d6 6b3f 6dd8 883e c7b0 753f
00000040: 368b 703e 33f7 7e3e 5ff6 b03e 623d 913e
00000050: 4d19 913e aead 463e d9a1 593e 5699 c33e
00000060: c3de 033f 6db0 943e adc8 f63e 52c5 ee3e
00000070: 533f fa3e e7c3 353f 5a60 6f3e c301 c43e
00000080: 2905 263f 833f 643e 8f56 b73e 980b a63e
00000090: c98b 9f3e 9bef 4c3f a826 973e 6c3d 7d3e
000000a0: 9c54 8b3e 007d c73e 7aa9 6b3e 035d d63e
000000b0: dc00 6e3e 5b0b c13e 26d7 d93e 717b f53e
000000c0: a2f6 fc3e a717 f83e 2c6b 023e 2884 8c3e
000000d0: c535 8a3e 086b 943e 9261 a53e b3fd 1e3f
000000e0: f349 5c3e 9340 873e 8ccb 9e3e 1ea9 3e3e
000000f0: ef9d 203e a51b 8e3e 6404 323f 3abb f83e

layer4.0.weight f4 [64, 64, 3, 3]
-0.019397827 0.026187766 -0.023015892 -0.00869417 -0.017061738 0.028054941 0.004393605 0.018872097
-0.0022885075 -0.01867867 0.000962206 -0.015947664 0.022746213 -0.0032664044 0.021042557 -0.010772757
0.01775097 0.040339652 -0.008179033 0.024642847 -0.015645616 -0.003740517 -0.016496595 0.031429417
0.0056281528 -0.017977873 0.02396976 0.01086655 0.0053878874 -0.005134903 -0.014490704 0.0143534625
-0.016339092 -0.003125692 -0.003050462 -0.01501255 -0.02058747 -0.010945136 0.0040531713 0.006599461
0.024787985 0.048788525 0.0071298564 0.016938569 0.018661272 -0.005220727 -0.015735792 0.005641052
0.0021081641 0.022979623 0.027045166 -0.021379694 0.062327117 0.07978601 0.02597928 0.008790692
-0.0068651927 0.005208627 0.0076883608 0.037767828 0.012403173 -0.010909753 0.11714648 -0.014132572
0.009955735 -0.016984053 0.013157229 0.0014149104 0.011925023 0.006660621 0.014487852 0.039297555
-0.029237673 0.008551815 0.026468905 0.021718217 -0.0041447845 -0.023635963 0.011838596 0.005886191
-0.06866912 -0.010321847 -0.016783476 -0.021745628 0.027844954 -0.016238347 0.047133822 0.027695315
-0.040642895 0.019864418 0.0037370897 0.0114828795 0.018493783 0.014943808 -0.0073026256 -0.0023541532
0.015635693 0.0024511586 -0.02761942 -0.00288718 -0.009715834 0.010663504 -0.007819015 0.02479642
-0.008162604 0.016452024 -0.0566843 0.014524498 -0.017488662 0.007830647 -0.019574245 0.023836631
-0.042828612 -0.0415626 -0.03508706 0.044514675 0.01528462 0.0039654444 -0.010763821 0.00896322
-0.036246184 -0.023486856 0.04181126 0.00029502143 0.007645109 -0.007943864 0.015113412 0.023282083
-0.017030995 -0.011637885 -0.006662589 0.014474896 0.005027149 -0.009506062 0.0067868363 0.033157643
0.0018952645 2.0129359e-05 -0.0365838 0.010101497 -0.0046891603 -0.046571977 0.012811835 0.04299352
-0.02354222 -0.018314162 0.055655513 0.02449294 0.036031667 -0.036359116 0.0051190397 -0.026098875
-0.03739456 0.015628194 0.0034523401 -0.0040568113 -0.0154180955 -0.033362016 -0.014016093 -0.02015047
0.031179799 0.04653512 0.012064336 0.014673837 0.023929756 0.033928666 -0.03042452 -0.023841428
0.04340913 -0.054870676 -0.08251253 -0.005999089 -0.0059237056 0.00048252576 -0.018830378 -0.004964366
0.010924784 -0.03458561 0.06997166 0.019852428 0.018334191 -0.0006940704 -7.061921e-05 -0.011108902
-0.0022225825 0.010064239 0.030828416 0.021113878 0.035941094 -0.035850864 0.0038430877 0.035891794
-0.0062767114 -0.0212562 -0.035704654 0.05004651 -0.04465459 -0.03824763 0.01192769 -0.019059017
0.03458643 0.003543345 0.007925465 -0.023656923 0.020147035 0.016099317 -0.040769354 -0.017678829
-0.0029607073 0.0048085004 0.026500804 -0.020726442 -0.030250907 0.025382696 0.021392906 -0.0012106203
0.021187428 -0.015337407 -0.028553372 0.013972633 -0.006623437 0.043500055 -0.03175165 0.020629229
-0.01302304 -0.0064837593 -0.014018432 -0.0143761095 -0.014137913 -0.0040612393 -0.011408648 0.0016686417
0.004473349 0.0071500326 0.020341676 -0.00783686 0.00622395 0.013361496 0.02775539 0.019179469
0.01879625 -0.05126681 -0.011691064 -0.0123976795 0.009433439 0.007551649 -0.0038597954 -0.00066703546
-0.019527137 -0.008450737 0.020146908 -0.05323965 0.024500975 0.015903695 -0.0124190645 -0.016031668
00000000: 31e8 9ebc ba87 d63c d38b bcbc fe71 0ebc
00000010: 0fc5 8bbc 7ad3 e53c 3bf8 8f3b a899 9a3c
00000020: c9fa 15bb 0304 99bc 8d3c 7c3a ada4 82bc
00000030: 4456 ba3c 2c11 56bb 7161 ac3c 3880 30bc
00000040: 7b6a 913c 313b 253d 5a01 06bc ccdf c93c
00000050: 3c2b 80bc 7623 75bb de23 87bc 22bc 003d
00000060: 5e6c b83b 5546 93bc 3b5c c43c 9d09 323c
00000070: e08c b03b b042 a8bb 6b6a 6dbc c92a 6b3c
00000080: 8fd9 85bc 69d8 4cbb 43ea 47bb 33f7 75bc
00000090: 0ea7 a8bc 3a53 33bc 77d0 843b 4b40 d83b
000000a0: 2c10 cb3c 7ad6 473d 92a1 e93b c1c2 8a3c
000000b0: 86df 983c a212 abbb 59e8 80bc 93d8 b83b
000000c0: 2029 0a3b c33f bc3c d38d dd3c 7824 afbc
000000d0: b84a 7f3d d966 a33d 80d2 d43c d606 103c
000000e0: 69f5 e0bb 21ad aa3b a5ee fb3b 70b2 1a3d
000000f0: ae36 4b3c d2be 32bc 7eea ef3d 4e8c 67bc
00000100: 611d 233c 2422 8bbc 6b91 573c 8474 b93a
00000110: 2c61 433c 5741 da3b 755e 6d3c 79f6 203d
00000120: d883 efbc e91c 0c3c 51d5 d83c 67ea b13c
00000130: f9d0 87bb 35a0 c1bc acf6 413c f3e0 c03b
00000140: 65a2 8cbd f71c 29bc 807d 89bc e323 b2bc
00000150: 1a1b e43c 4806 85bc 650f 413d 49e1 e23c
00000160: 2a79 26bd b4ba a23c f6e9 743b b022 3c3c
00000170: 4680 973c e0d6 743c dd4a efbb 2348 1abb
00000180: 6d16 803c 9ea3 203b 1f42 e2bc d836 3dbb
00000190: 292f 1fbc fab5 2e3c 531b 00bc dd21 cb3c
000001a0: 71bc 05bc 65c6 863c cc2d 68bd 29f8 6d3c
000001b0: 6244 8fbc 1d4c 003c 2b5a a0bc 0a45 c33c
000001c0: 0e6d 2fbd 8b3d 2abd 73b7 0fbd 0555 363d
000001d0: 586c 7a3c 8ff0 813b bd5a 30bc 78da 123c
000001e0: e176 14bd 8267 c0bc 4942 2b3d 1bad 9a39
000001f0: d383 fa3b fb26 02bc 3f9e 773c 11ba be3c
00000200: 9684 8bbc d4ac 3ebc d951 dabb 1d28 6d3c
00000210: c8ba a43b 50bf 1bbc 1c64 de3b 4fd0 073d
00000220: 866a f83a 78db a837 e5d8 15bd c080 253c
00000230: 87a7 99bb 42c2 3ebd bbe8 513c f919 303d
00000240: 9ddb c0bc 9507 96bc 09f7 633d 6ba5 c83c
00000250: f195 133d 4ced 14bd 9ebd a73b 4fcd d5bc
00000260: 0a2b 19bd b306 803c a840 623b 00ef 84bb
00000270: 2e9c 7cbc 9ca6 08bd c1a3 65bc 9912 a5bc
00000280: c76c ff3c 9c9b 3e3d 7ea9 453c 896a 703c
00000290: 5608 c43c c9f8 0a3d d83c f9bc 194f c3bc
000002a0: c6cd 313d 13c0 60bd 54fc a8bd 0294 c4bb
000002b0: a51b c2bb 83fb fc39 2a42 9abc 1fac a2bb
000002c0: ddfd 323c a4a9 0dbd 4d4d 8f3d 8fa1 a23c
000002d0: 9631 963c 47f2 35ba 6619 94b8 1d02 36bc
000002e0: bfa8 11bb 7ae4 243c e08b fc3c 03f7 ac3c
000002f0: f836 133d 5bd8 12bd 50dc 7b3b 4603 133d
00000300: dfac cdbb 7b21 aebc 0b3f 12bd 92fd 4c3d
00000310: bbe7 36bd 8ca9 1cbd 5c6c 433c a821 9cbc
00000320: 80aa 0d3d 7737 683b cfd9 013c 2acc c1bc
00000330: 650b a53c b7e2 833c c4fd 26bd 31d3 90bc
00000340: 6d08 42bb a090 9d3b 3718 d93c 80ca a9bc
00000350: c0d0 f7bc 5fef cf3c 2d40 af3c adad 9eba
00000360: 4291 ad3c bf49 7bbc c3e8 e9bc 78ed 643c
00000370: 6b09 d9bb 1d2d 323d 050e 02bd a1fe a83c
00000380: 975e 55bc b775 d4bb 91ad 65bc c689 6bbc
00000390: b4a2 67bc 2514 85bb 57eb 3abc 53b6 da3a
000003a0: 2c95 923b d24a ea3b 96a3 a63c 2c66 00bc
000003b0: 47f2 cb3b 2dea 5a3c 465f e33c 431e 9d3c
000003c0: 98fa 993c 26fd 51bd e08b 3fbc a31f 4bbc
000003d0: b68e 1a3c d373 f73b 9ff4 7cbb fedb 2eba
000003e0: 60f7 9fbc f674 0abc 210b a53c d211 5abd
000003f0: 45b6 c83c 7748 823c 5579 4bbc d854 83bc

layer4.0.bias f4 [64]
0.05548984 -0.019866176 -0.008891174 0.013704971 -0.046217848 0.045076504 0.06601896 -0.03669935
0.03231006 0.031521287 -0.058042947 -0.0275426 -0.025063917 -0.0033085567 0.027840715 -0.018961724
0.0030807038 0.01991341 0.0033669246 -0.016626835 -0.020804174 -0.0073928707 1.3285128e-06 0.042264327
-0.011498261 0.020030005 -0.03872078 0.023058575 -0.064250186 0.0012276698 0.0055862437 0.037674747
0.020609846 0.05621149 -0.021089064 -0.028477872 0.044976503 -0.023643952 0.044104807 -0.006909448
0.03085782 0.03211557 0.05416478 -0.03400183 0.015330453 -0.019536229 0.024484187 -0.052203067
-0.012680389 -0.05066685 0.03248384 0.04354467 -0.046504248 0.02767983 -0.031361196 0.03247305
0.038041376 -0.04476383 -0.0030580715 -0.047191385 0.02479118 -0.015036722 -0.032047708 -0.013963464
00000000: 5149 633d 64be a2bc 49ac 11bc d18a 603c
00000010: ed4e 3dbd 24a2 383d f334 873d 0f52 16bd
00000020: 8e57 043d 771c 013d 71be 6dbd 05a1 e1bc
00000030: d852 cdbc 5fd4 58bb 3612 e43c 9e55 9bbc
00000040: a2e5 493b 7321 a33c 9fa7 5c3b 0035 88bc
00000050: 846d aabc e53f f2bb 5a4f b235 5c1d 2d3d
00000060: 3463 3cbc f715 a43c ae99 1ebd 56e5 bc3c
00000070: 9a95 83bd c3e9 a03a cf0c b73b d650 1a3d
00000080: fbd5 a83c 053e 663d f9c2 acbc 6d4a e9bc
00000090: 4839 383d f6b0 c1bc 3ea7 343d a768 e2bb
000000a0: 8ac9 fc3c 9e8b 033d e3db 5d3d 8145 0bbd
000000b0: 952c 7b3c 710a a0bc 1093 c83c e2d2 55bd
000000c0: 68c1 4fbc 0b88 4fbd c60d 053d e55b 323d
000000d0: 3d7b 3ebd d0c0 e23c 9974 00bd 7602 053d
000000e0: 46d1 1b3d 475a 37bd ed69 48bb c14b 41bd
000000f0: df16 cb3c 955c 76bc 7544 03bd 03c7 64bc
