FAST 3D-CNN P-NET/model/ZGFF/ZGFF_proto_2d-5shotband50.pth (torch, 572141 bytes, 24 tensors)

layer1.0.weight f4 [64, 50, 3, 3]
000000 f0 7b 1c bb 71 86 14 3d f2 52 20 3d b8 53 f4 bc
       -0.0023877583 0.036261026 0.039141603 -0.029825076
000010 e9 5b f5 3c 7d fc 52 3d 33 13 64 bc a1 81 cc bc
       0.029951053 0.051510323 -0.013920593 -0.024964156
000020 76 f0 27 bd a1 e8 23 bc 6e 91 64 3d d1 52 23 bb
       -0.041000806 -0.0100041935 0.055802755 -0.0024921189
000030 bf bb a9 3c 38 52 c2 3b b5 c6 94 bc 3b 89 c4 bc
       0.020719407 0.0059302114 -0.018161157 -0.023991218
000040 55 a7 84 3c d6 91 34 3c 38 62 18 bd 92 e7 ad bc
       0.016193071 0.011021098 -0.037203044 -0.021228585
000050 c9 96 63 3d 51 6b d2 bc 01 88 c8 3c 72 fc 74 3d
       0.05556372 -0.025685938 0.024478914 0.059811063
000060 c3 d0 14 bd 7d 4a f9 3c 40 43 6a 3d ff c1 05 bd
       -0.036331903 0.030431027 0.05719304 -0.032655712
000070 a0 80 d4 3b 41 df 63 bb 22 45 1d 3d 18 32 fb 3c
       0.00648506 -0.003477052 0.03839601 0.030663535
000080 a8 79 1d 3d d0 bf c5 3c 95 02 39 3d 70 ce 25 bc
       0.0384461 0.024139315 0.045168478 -0.010120019
000090 63 9b fe bb 78 99 d8 3b 65 2e 02 bd 28 27 d1 bc
       -0.0077699884 0.006610092 -0.031782527 -0.025531366
0000a0 f7 5f d3 3c 66 95 27 3d f2 a6 9f bc 15 31 ec 3c
       0.025802596 0.04091396 -0.019488785 0.028831998
0000b0 66 b3 a7 bc a2 56 eb bc 11 4e f6 3c 54 2c 0b bd
       -0.020471286 -0.028727833 0.030066522 -0.03397782
0000c0 fa 84 a1 bb fb 4d 1f 3d dc 58 fc 3c 65 82 51 bc
       -0.004929182 0.038892727 0.03080409 -0.012787436
0000d0 82 7b 6a 3c 3a 4b 2f 3d c1 d1 94 3c 5b 5f 75 3c
       0.014311673 0.04279635 0.018166425 0.014976348
0000e0 86 cc 02 3d 7f 99 18 bd 3b 84 34 bd 82 67 33 bc
       0.03193333 -0.03725576 -0.044071417 -0.010949971
0000f0 fc 97 7b 3d 1e 32 16 3c c3 f1 65 bc 5d 17 7a bc
       0.06142424 0.009167222 -0.014034691 -0.015264359
000100 4c a3 fc 3c 0f ae a3 bc ee 49 d2 3c b6 c6 d1 3c
       0.030839585 -0.019980459 0.025670018 0.025607448
000110 f1 17 49 3d fe b7 0e bd 89 57 3f 3d 0c 22 9a 3c
       0.049095098 -0.034843437 0.04671434 0.018815063
000120 d6 42 a2 3b 08 9c 1b 3c 04 fe 49 bc 2e cf 06 3d
       0.004951815 0.00949765 -0.012328628 0.032912426
000130 32 3d 04 3d 89 f9 c5 3b ed b4 9a 3c ad 3d a0 bc
       0.032284923 0.00604171 0.0188851 -0.01956066
000140 c5 7e 59 3c f8 c4 00 3d fd 60 90 bd d0 01 51 bd
       0.013274853 0.031437844 -0.07049749 -0.05102712
000150 65 4f 19 bd 9f b0 3f 3b 11 c0 36 3d 42 3c 33 3d
       -0.037429232 0.0029249561 0.044616763 0.04375864
000160 11 40 df 3c 05 3a 66 3d 4f 76 00 3d b1 a4 5b bd
       0.027252229 0.056207675 0.031362828 -0.05362386
000170 30 94 bc bc f6 ef 00 3c d4 1b b8 bc dd bd 97 3c
       -0.02301988 0.007869711 -0.022474207 0.018523151
000180 0e 51 93 bc a5 eb 39 3d d9 1e 2a 3d 42 55 09 3c
       -0.017982986 0.045390744 0.041533325 0.008382143
000190 95 03 01 bc b2 e2 52 3b 32 02 c4 bc 17 27 25 bd
       -0.007874389 0.0032178578 -0.023926828 -0.040320482
0001a0 e9 46 a4 3c 7e 00 14 3d 77 83 dc bc 0f 04 0f bd
       0.020053344 0.036133282 -0.026918156 -0.03491598
0001b0 02 94 13 3c de 6d e3 3c d6 e1 09 3d 5f 4b c3 bc
       0.009007456 0.02776235 0.03366264 -0.02383965
0001c0 c6 43 67 3d 31 ff 94 3b 9b b2 30 bc 70 e6 f9 3c
       0.05646112 0.0045470227 -0.01078477 0.030505389
0001d0 39 80 23 3d c6 6c 4c bd e0 6a 77 bc 70 a3 d9 bc
       0.039917205 -0.049908422 -0.015101165 -0.02656719
0001e0 85 e6 41 bc 1a 07 1b 3c c5 b4 06 bd f2 1f 3d bd
       -0.011834745 0.009462142 -0.03288724 -0.046173044
0001f0 68 95 85 bc fe 39 6e bc 43 36 21 3c a4 65 2d bd
       -0.016306594 -0.014540194 0.009839597 -0.04233326
000200 a9 81 03 3d 29 4b 17 3d 6d e9 09 bd 81 78 5d bb
       0.032106075 0.036936913 -0.033669878 -0.003379375
000210 05 f1 af bb 27 0b 55 3c 94 2e 08 bc 54 7f 08 3c
       -0.005369308 0.013003147 -0.008311886 0.008331139
000220 9f 74 aa bc fd c3 f5 3c 98 0e ee bc 36 94 93 3d
       -0.020807562 0.030000681 -0.029059693 0.07206003
000230 aa f7 51 3d 66 40 ef 3c 91 98 9b bc de a9 02 bc
       0.05126158 0.029205512 -0.018993648 -0.00797507
000240 cd 81 32 bd e3 d9 15 3d b5 35 01 bd fc fb 10 bd
       -0.04358082 0.036584746 -0.03154536 -0.03539656
000250 e5 e3 a8 3c ff b4 74 bb ec be 38 bb 41 15 d1 bc
       0.020616481 -0.0037339327 -0.002818997 -0.02552283
000260 d7 92 8b bc 96 f8 49 3d fd ab 77 3d b8 84 28 3d
       -0.017037792 0.049309336 0.060466755 0.041142195
000270 2d d3 d1 3c 2d 1b d0 3b db 28 66 bc bf 36 0f ba
       0.025613392 0.006350896 -0.014047827 -0.0005463175
000280 59 c3 1f bd 8f 71 da 3b 5f 02 9a 3a f5 ad e7 3c
       -0.039004657 0.0066663693 0.0011749974 0.028281191
000290 7c f8 bb bc 31 34 30 bc 51 b9 11 bc a9 da 05 3d
       -0.022945635 -0.010754631 -0.0088942805 0.032679234
0002a0 ee e8 55 3c 5a 1d 34 bd cf 47 1c 3d 54 83 35 bb
       0.013056023 -0.043973304 0.03815442 -0.0027696686
0002b0 c4 83 25 3c 97 0b 2c bd f7 41 77 3b 78 06 69 3d
       0.010102216 -0.04200324 0.0037728527 0.056890935
0002c0 2b e5 ec 3c b1 0e a3 bc 37 62 70 bd 80 cb dc bc
       0.02891787 -0.019904466 -0.058687415 -0.026952505
0002d0 96 7d 1e 3d bc d1 9d bc 99 55 a4 bb 1d ab 22 3d
       0.038693987 -0.019265048 -0.005015087 0.039713968
0002e0 19 8c b0 bc e8 d1 12 3d ba 90 7d 3c 88 3b a2 bc
       -0.021551179 0.035844713 0.0154764 -0.019803777
0002f0 1d 80 26 bc cf fa 5a bc 9c 4a fd 3c 52 26 83 3c
       -0.0101623805 -0.0133654615 0.030919366 0.016009483
000300 30 bd 52 bd 41 9a b0 3c 5b b1 25 3d 27 07 9b bc
       -0.051449955 0.021557929 0.040452342 -0.018924309
000310 fd 89 fe bc f8 80 2a 3a 08 b6 01 bd a6 95 23 bd
       -0.031071657 0.0006504203 -0.03166774 -0.039937638
000320 bc dd 1a 3d 4e 54 96 3c ca 58 28 bc 4f 33 34 3d
       0.03780912 0.018350746 -0.010275075 0.043994244
000330 ef 5a 55 bd 59 d8 26 bd 28 2f 4e 3d a1 1b 6f 3c
       -0.052088674 -0.04073367 0.05033794 0.01459399
000340 8a 45 26 3d 50 04 93 3c 53 30 cc 3d b5 51 48 bc
       0.04059366 0.017946392 0.099701546 -0.012226512
000350 1a e8 c0 3c 70 ad 51 3d 2c 60 83 3c 41 06 1a bd
       0.023548175 0.051190794 0.01603707 -0.03760362
000360 b5 e2 13 bd a1 47 f6 bc e7 d5 9b bc 75 ad d2 3c
       -0.036104877 -0.030063452 -0.019022895 0.025717476
000370 1c 11 bf 3b 5e 2d 1b 3d d7 cc e8 bb 8f bd a3 3b
       0.005830897 0.037885062 -0.007104497 0.0049969624
000380 bf f6 a3 3c 2f 0e 29 3d c9 ac cb 3c 33 6c 04 3d
       0.020015119 0.041273292 0.024862664 0.03232975
000390 58 a7 83 3b 49 65 8c bc 65 8d d6 bc ac a4 05 3d
       0.0040177517 -0.01713814 -0.026190469 0.032627746
0003a0 81 bd 09 3d 72 dd e1 bc 90 3e 19 3c cd 89 3a 3c
       0.03362799 -0.027571414 0.009353295 0.011385393
0003b0 38 7e eb bd d4 b4 aa bc 76 b0 29 3c 28 79 de bd
       -0.11498684 -0.020838179 0.010357013 -0.108629525
0003c0 9f 57 6d 3c 9d cb 63 3c 30 e1 2d 3d a1 e9 ae 3c
       0.0144862225 0.013903526 0.042451084 0.021351637
0003d0 e2 d1 1d bd 01 6b bd bb bb dd 34 bd 1d fe d9 3c
       -0.038530238 -0.005780578 -0.04415677 0.026610428
0003e0 41 cc 0c bd f6 35 93 3b b5 ab bf 3b c8 b8 95 bb
       -0.03437448 0.0044925166 0.0058493265 -0.004569147
0003f0 94 c8 00 3b b0 03 64 3b d8 14 90 bc 46 f9 2e bd
       0.0019650804 0.0034792237 -0.017588064 -0.042718194

layer1.0.bias f4 [64]
000000 00 5b 2f 3f 51 59 1c 3f 54 e4 10 3f 94 1f 19 3f
       0.6849823 0.61073786 0.565984 0.5981381
000010 57 f1 41 3f e9 dd 27 3f a2 1c 33 3f 4a 17 30 3f
       0.7575888 0.65572983 0.69965565 0.68785536
000020 cd d9 36 3f 3c 9b 41 3f ac ff 35 3f fa 18 38 3f
       0.7142609 0.75627494 0.7109325 0.7191311
000030 9b 24 3b 3f 99 df 3e 3f 80 72 43 3f 6f 22 3a 3f
       0.7310273 0.7455993 0.7634659 0.7270879
000040 f9 6a 32 3f 8a 93 2d 3f e0 0c 33 3f d1 59 32 3f
       0.6969448 0.6780325 0.6994152 0.696683
000050 39 9c ee 3e d9 d4 1b 3f 39 f9 1d 3f 9a 3a 33 3f
       0.46603563 0.60871655 0.6170841 0.70011294
000060 fd 0a 0e 3f 49 ec 3a 3f 35 68 38 3f 9d 26 4d 3f
       0.55485517 0.7301679 0.7203401 0.80137044
000070 20 ce 18 3f 98 ba 3a 3f 52 e5 34 3f 33 03 24 3f
       0.5968952 0.7294097 0.70662415 0.6406738
000080 4b a8 12 3f 6a 49 34 3f d0 71 25 3f 91 ca 1d 3f
       0.57288045 0.7042452 0.6462679 0.61637217
000090 d0 26 34 3f c1 f8 38 3f a9 a2 45 3f 54 49 37 3f
       0.70371723 0.7225457 0.77201325 0.71596265
0000a0 2a c8 3a 3f d0 b0 3f 3f 65 4c 36 3f ce f4 33 3f
       0.72961676 0.7487917 0.7121032 0.7029542
0000b0 1b 16 35 3f bf 4d 47 3f 88 91 30 3f 7d 5a 3e 3f
       0.70736855 0.77853006 0.68972063 0.74356824
0000c0 53 ca 2a 3f 59 81 2a 3f 3c b6 27 3f 2c 5e 1f 3f
       0.6671497 0.6660362 0.6551244 0.6225307
0000d0 9b 95 0e 3f 63 08 01 3f 6a 2d 3e 3f ea 78 f9 3e
       0.5569703 0.5040342 0.74288046 0.48725063
0000e0 3e d1 01 3f 91 81 28 3f 78 5d 25 3f d2 37 3d 3f
       0.50709903 0.658227 0.64595747 0.739133
0000f0 71 af 27 3f a4 ca 29 3f a7 37 38 3f 0a 9c 12 3f
       0.6550208 0.6632483 0.7195992 0.57269347

layer1.1.weight f4 [64]
000000 2e 8d 7d 3f 4f f2 76 3f f3 bb 79 3f 99 f7 80 3f
       0.9904355 0.96463484 0.9755241 1.0075561
000010 10 4d 7c 3f 75 37 81 3f cf 94 7e 3f fb 11 81 3f
       0.9855509 1.0095049 0.99445814 1.0083612
000020 a2 7a 7c 3f 5a 3a 80 3f b7 d3 83 3f e6 59 84 3f
       0.9862462 1.0017807 1.0298985 1.0339935
000030 c3 bb 7c 3f be 79 80 3f 67 ef 7c 3f e6 d3 7a 3f
       0.98724 1.0037153 0.988028 0.9797958
000040 0e 71 81 3f b3 5a 7d 3f b2 69 7e 3f 38 42 7d 3f
       1.0112627 0.9896652 0.9938003 0.98929167
000050 f7 5a 80 3f 19 35 80 3f 6f 9c 82 3f 09 07 79 3f
       1.002776 1.0016204 1.020399 0.9727636
000060 e1 a6 82 3f b4 1d 81 3f f4 5e 80 3f 9f 7f 81 3f
       1.0207177 1.008719 1.0028977 1.0117072
000070 36 9f 7b 3f bf ae 7b 3f 20 34 7c 3f 4d d5 81 3f
       0.9828981 0.98313516 0.98517036 1.0143219
000080 5c ee 7b 3f d1 8b 82 3f 4e 65 76 3f eb e1 80 3f
       0.9841058 1.0198919 0.9624833 1.0068945
000090 96 e0 81 3f 43 3e 81 3f 0b ee 80 3f 3a 4f 7e 3f
       1.0146663 1.0097126 1.0072645 0.9933964
0000a0 ec 2c 81 3f ee 8c 7e 3f e2 91 7e 3f 70 b3 79 3f
       1.0091834 0.9943379 0.9944135 0.97539425
0000b0 2d bb 7a 3f 96 6c 7c 3f 05 6a 80 3f 76 1e 83 3f
       0.9794186 0.9860319 1.0032355 1.0243671
0000c0 ef 7a 76 3f bb b6 7a 3f 31 f6 82 3f 15 1b 7e 3f
       0.9628133 0.97935075 1.0231382 0.99260074
0000d0 50 41 7e 3f 85 34 83 3f 60 91 80 3f 27 6e 78 3f
       0.9931841 1.0250403 1.0044365 0.9704308
0000e0 03 6a 7a 3f bd e5 82 3f 74 84 76 3f a2 c0 82 3f
       0.9781801 1.022636 0.9629586 1.0215037
0000f0 90 18 82 3f a6 3a 81 3f 11 f2 7b 3f 6d 60 79 3f
       1.0163746 1.0096023 0.9841624 0.9741276

layer1.1.bias f4 [64]
000000 45 4d 36 bc 34 91 55 3b b2 37 35 bd 89 02 76 bd
       -0.011126821 0.0032587769 -0.04424257 -0.06006101
000010 1a 13 de bc 78 25 4f bd 98 26 fb bc 30 bd ce 3c
       -0.027108718 -0.050572842 -0.030658051 0.025236696
000020 86 cc 7e bc 33 37 13 bd ab ee bb bd cf a4 06 bd
       -0.015551692 -0.035941314 -0.09176382 -0.032872017
000030 23 8e 35 3c 75 e3 a8 b8 aa 27 fe bc d7 c5 c7 3c
       0.011081251 -8.0532314e-05 -0.031024773 0.02438633
000040 22 39 4a bd 2b 34 d5 bc 75 9f 2b bc 1b 66 8c bc
       -0.049370892 -0.026025852 -0.010475029 -0.017138531
000050 7a 3e 50 bd b6 23 65 bd de 51 5c bd b7 34 8a 3c
       -0.050840832 -0.05594226 -0.053789012 0.01687084
000060 2e 6a 65 bd 67 6e 35 bd ec 18 04 bc c4 69 3c 3c
       -0.056009464 -0.04429474 -0.008062582 0.011499826
000070 54 cd 37 3c 36 5e 30 3d 45 9a bc bc 16 8b 4c bd
       0.011218388 0.043058597 -0.02302278 -0.04993733
000080 5f 32 81 bd fa 65 4c bd fe aa e9 3b f8 8e 43 bd
       -0.06308436 -0.04990194 0.0071309796 -0.047743767
000090 30 ee 4f bd 77 7b db bc 6a 2d 79 bd e3 63 e4 bc
       -0.050764263 -0.026792271 -0.060834326 -0.027879661
0000a0 0f 24 c2 bc 09 46 39 bc ba 92 dd bb 3c b7 86 bd
       -0.023698835 -0.011308202 -0.006761876 -0.06577918
0000b0 84 21 10 3c 22 10 63 bd 0a 3e 22 bd 2c 15 03 bd
       0.008797053 -0.055435307 -0.039609946 -0.032002613
0000c0 56 d3 b8 bc 29 6e a0 bb c9 96 67 bd d4 f2 8d bb
       -0.02256171 -0.0048959446 -0.056540284 -0.004331926
0000d0 a3 4f 68 bd 30 85 30 bd 72 f1 f9 bc 09 1d 13 bd
       -0.056716572 -0.043095767 -0.030510638 -0.035916362
0000e0 67 91 53 3c 1a 27 54 bd 88 45 4d bc 28 24 a1 bc
       0.012913085 -0.051795103 -0.012528785 -0.019670561
0000f0 f5 27 08 bd c8 7c 59 bd 59 c3 4b bc 6f 47 49 bc
       -0.03324123 -0.053097516 -0.012436711 -0.0122850975

layer1.1.running_mean f4 [64]
000000 45 14 6a 3f de 8a 81 3f 3f 1e 71 3c d2 48 13 3e
       0.9143718 1.0120504 0.014716684 0.14383247
000010 3a a8 31 3f 7d bb 47 3f 54 19 5b 3f f4 02 3f 3f
       0.6939732 0.7802046 0.8558552 0.7461388
000020 9e 50 0a 3f d5 68 f5 3e ab 66 33 3f 1d dd 14 3f
       0.5402926 0.47931543 0.70078534 0.5814989
000030 67 64 54 3f f9 67 31 3f 29 f3 46 3f 8f 5c 54 3f
       0.829657 0.69299275 0.7771478 0.82953733
000040 8d 6e 04 3f 0d bb f4 3e be b6 4c 3f 99 1b 51 3f
       0.5173119 0.47798958 0.7996634 0.81682736
000050 b4 24 8e be 50 b5 52 3f 2d af db 3e aa 5f 48 3f
       -0.27762377 0.8230791 0.42907086 0.7827097
000060 96 63 d3 bd 8e 97 31 3f a0 59 26 3f c6 03 54 3f
       -0.10321729 0.6937188 0.64980507 0.8281826
000070 b3 b6 88 3f d7 5c 51 3f 7c d6 45 3f 64 2e 99 3e
       1.0680755 0.8178229 0.772804 0.29918206
000080 7f 59 83 3e e1 09 e2 3e eb b9 51 3f 29 c2 f0 3d
       0.25654218 0.44148162 0.81924313 0.11755783
000090 2b 1f 1a 3f ea fd 18 3f e4 90 0b 3f 03 e0 3f 3f
       0.6020381 0.5976244 0.5451796 0.7495119
0000a0 00 83 30 3f ce e2 31 3f 9d 76 3e 3f 73 50 1a 3f
       0.6894989 0.694867 0.7439974 0.60279006
0000b0 e1 cd 85 3f 39 03 37 3f 97 ce 9d 3e 6a d7 2d 3f
       1.0453454 0.7148929 0.30821678 0.6790682
0000c0 09 8d 63 3f 06 fd 3b 3f 61 34 c7 3e 58 54 8b 3f
       0.8888708 0.7343296 0.3890715 1.0885115
0000d0 d8 80 a6 3d d8 bb cf bd 9d 3e 46 3f b1 b7 89 3f
       0.08130044 -0.1014325 0.7743929 1.0759183
0000e0 8f 49 93 3f 78 57 96 3e 1a 09 3f 3f ea 2c 2a 3f
       1.1506823 0.29363608 0.7462326 0.66474783
0000f0 8f 2d fb 3e ed 9c 26 3f 70 53 40 3f 35 59 6d 3f
       0.49058196 0.650832 0.75127316 0.92714244

layer1.1.running_var f4 [64]
000000 3e 68 8f 3f 83 f9 e0 40 be 5b ce 40 dd 8f 9e 40
       1.1203687 7.030458 6.448699 4.9550614
000010 b2 de 90 3e 9f dc a7 3f 6b 5f 86 3f 78 7c 0c 3f
       0.28294903 1.3114203 1.0497869 0.54877424
000020 e5 fe 4d 3f 3a 7e 8f 3f 1e d7 91 3f 94 35 71 3f
       0.80467063 1.1210396 1.1393774 0.9422238
000030 15 cd 1b 3f 37 1a 12 3f 6b c7 c3 3e 5e c6 09 3f
       0.60859805 0.5707125 0.3823808 0.5381831
000040 df a0 3b 40 97 40 7a 3f 09 bd 31 3f 90 79 2a 3f
       2.9316938 0.97754806 0.6942907 0.6659174
000050 95 92 5c 41 50 d6 1d 40 6e 77 1d 40 88 c7 10 3f
       13.785787 2.4662056 2.4604144 0.5655446
000060 8d 7b 17 41 67 ef 4a 3f 7e da 83 3e db e4 96 3e
       9.467664 0.7927155 0.25752634 0.29471478
000070 4f ed 23 40 7e ef de 3e 81 f3 d8 3f fd 58 34 40
       2.5613592 0.43542093 1.6949311 2.8179314
000080 87 df 3c 40 d4 f9 14 40 05 97 87 3f cb 29 67 40
       2.951143 2.3277483 1.0592963 3.6119258
000090 90 b6 f7 3f 2e 24 16 3f 60 28 3f 3f ec 1d c9 3f
       1.9352589 0.58648956 0.7467098 1.5712256
0000a0 58 81 9a 3e b8 8a ee 3e 65 6f 4d 3f 48 3e 1a 3f
       0.30176806 0.4659021 0.802481 0.60251284
0000b0 e1 56 cd 3f 88 ae f2 3e 8a 40 4b 40 e2 90 c7 3e
       1.6042138 0.47398782 3.1758142 0.38977724
0000c0 8f 1a 81 3f 31 b8 97 3f b0 3d b5 3f 1e 89 8a 40
       1.008623 1.1853086 1.415945 4.329238
0000d0 e5 9b 8e 40 3e 12 05 41 9c 52 ef 3e d3 97 36 41
       4.45653 8.316954 0.46742713 11.412066
0000e0 10 de e7 40 e3 6a 9b 40 aa a7 25 40 38 b9 b4 3e
       7.2458572 4.8567977 2.5883584 0.3529756
0000f0 54 79 36 3f 38 ea 0e 3f 18 be 84 3f 7c 7c 75 40
       0.7127888 0.5582614 1.0370512 3.835723

layer2.0.weight f4 [64, 64, 3, 3]
000000 ff 44 2d 3d 49 b3 51 bc e7 46 e5 3b a9 14 b3 3c
       0.042302128 -0.012799093 0.0069969776 0.021860437
000010 ac 89 bc bb 18 00 67 3d 41 2e 92 3c 4b 05 52 3d
       -0.0057537165 0.056396574 0.017844321 0.05127458
000020 3d 6b 1d 3d 04 a5 e5 3b 89 48 17 3d c6 a0 c2 bc
       0.03843235 0.007008197 0.03693441 -0.023758303
000030 b8 3a ae 3a b3 3a c1 bc d7 0d 2b bc 4a 71 a9 3c
       0.0013292646 -0.02358756 -0.010440311 0.020683903
000040 ba ed 01 bd 7f 1d 96 3b b7 10 0e 3c d0 6a c1 bc
       -0.031720854 0.004581153 0.008670977 -0.023610502
000050 55 f8 a9 3c 3e 91 01 3c a1 56 0e bc 3f 45 b1 bc
       0.020748297 0.007908164 -0.008687646 -0.021639464
000060 99 11 68 b9 ab fc 31 3c bf 9e f3 bb 03 c9 a2 ba
       -0.000221318 0.010863463 -0.0074346955 -0.0012419525
000070 54 d4 88 3c 0f 7a ca 3c 75 46 51 bd db 76 9c 3c
       0.016702808 0.024716405 -0.051092584 0.019099643
000080 93 1d b1 3c d0 94 e3 bc 31 69 ff bc be dc 40 3d
       0.021620547 -0.02778092 -0.031178089 0.047085516
000090 ce 2a d5 3c d9 69 67 3c 84 31 89 bc d2 81 1b 3b
       0.026021387 0.014124357 -0.016747244 0.0023728502
0000a0 be 96 10 3d 60 88 1e 3c 43 d1 92 bc 50 b9 3e bd
       0.03530001 0.009676069 -0.01792205 -0.046563447
0000b0 95 f7 e3 3b 6c f4 a9 3c be da b6 bc 3c 29 ff 3c
       0.0069570043 0.020746432 -0.022321101 0.031147592
0000c0 5d 8f 1a bb 79 ec 14 bd 0f 36 ca 3c 9d 5a 0e 3d
       -0.0023583986 -0.03635833 0.02468398 0.034754384
0000d0 34 50 a9 bc dd 87 e5 bb 20 ee c4 bc 1a d7 69 3b
       -0.020668127 -0.0070047216 -0.024039328 0.003568119
0000e0 87 bf 9f 3c 57 b1 29 bc dc bb 55 bb bb ad 05 3c
       0.019500507 -0.0103572225 -0.0032613194 0.008159096
0000f0 a2 65 0d bb 36 a6 ba bc 14 f7 b7 bc 2f 84 4c 3c
       -0.002157547 -0.022784334 -0.022456683 0.012482687
000100 6b 10 7e bd 4d 92 09 bd 40 a9 23 bd ce 05 de bc
       -0.062027376 -0.03358679 -0.03995633 -0.027102377
000110 5f bb ca 3c 7f e5 33 bc d3 cd f9 3c 54 fe 94 3c
       0.024747549 -0.010980009 0.030493652 0.01818768
000120 64 5e ce b9 e4 2b 32 bd ed f2 31 bd 56 e6 18 bc
       -0.00039361708 -0.04349889 -0.043444563 -0.00933226
000130 5d 64 90 bd 4e bb 77 bd 92 e4 2f bc 7b 22 f6 bc
       -0.07050393 -0.060481362 -0.010735648 -0.030045738
000140 6a 9a 54 bd 87 dc 16 3c 1a 6d 55 bc 46 5a da 3b
       -0.051905073 0.009207851 -0.0130265 0.0066635935
000150 b0 fb 60 bd db d0 34 bd 60 49 2c bd 21 28 c9 bc
       -0.054927528 -0.044144493 -0.042062163 -0.024555268
000160 d2 a6 8b bd 26 9a 1a bb 27 d2 7f 3d 25 3b 8a 3c
       -0.06818928 -0.0023590415 0.062456276 0.016873905
000170 10 f3 71 3c d4 f3 86 bc 8f 3a 1d 3c 86 04 75 3d
       0.014767423 -0.016473688 0.009596481 0.059818767
000180 43 a3 c0 bc 76 97 c7 3c e9 29 71 bc 5a db a1 bb
       -0.02351535 0.024364214 -0.014719465 -0.004939479
000190 fe f8 42 3d bf 87 80 3d 9e b3 c7 3c c6 2e a4 3c
       0.04760074 0.062758915 0.02437764 0.020041835
0001a0 16 f8 33 bc 51 52 8e 3d 42 9f fe 3b b9 f8 00 3d
       -0.010984441 0.06949294 0.00777045 0.0314872
0001b0 e9 a2 b6 3c 91 ce 7f 3d 68 f7 13 bd f1 6a 67 3d
       0.022294478 0.062452856 -0.036124617 0.05649847
0001c0 ed 76 33 3c b0 5b 98 bc 3a 50 a2 bc 55 fd e8 bc
       0.010953647 -0.018598408 -0.019813646 -0.02844111
0001d0 d9 b7 f8 3b 1b 42 40 bc 87 23 37 bb d4 23 00 3d
       0.0075902757 -0.011734511 -0.002794476 0.03128417
0001e0 31 6b 10 bd b2 06 fe 3b 48 11 89 bc 3d 07 0f 3d
       -0.035258476 0.007752263 -0.016731873 0.034919012
0001f0 c6 5d 09 ba 0e 89 9f 3a 0e 30 14 bb ad 76 a4 bb
       -0.00052401086 0.0012171583 -0.002261165 -0.00501903
000200 cd 9a c0 3a 41 04 6d bc 28 13 1e bd 57 f4 59 bd
       0.0014694572 -0.014466346 -0.038592488 -0.053211536
000210 2d 4c a4 3c ee e2 dc 3b 84 03 04 3d 94 20 0a bd
       0.020055855 0.0067409193 0.032229915 -0.033722475
000220 c4 1f 32 bd bc 97 1b bd 30 5e b7 3b 98 6a 27 3d
       -0.043487325 -0.037986502 0.005595945 0.04087314
000230 d6 68 18 3c 53 95 ae bc f0 85 bf 3c ef c0 e7 bc
       0.009302339 -0.021311438 0.023379296 -0.02829024
000240 8a 4c 75 3c f5 74 f5 bc 50 6b 3f bc 62 be 4a bc
       0.014971862 -0.029962996 -0.0116833 -0.012374492
000250 8f d8 f7 3c 66 8c a0 3c 3b 84 78 bc fa e0 1e bd
       0.03025463 0.019598197 -0.015168245 -0.038788773
000260 89 cc d9 3a bf 89 84 3c 02 ec bc 3c b6 76 88 3d
       0.0016616742 0.016178964 0.023061756 0.06663267
000270 6b a8 9b bc 16 5b 24 bc 6c c9 1c 3d f7 77 44 3c
       -0.019001206 -0.010031482 0.03827803 0.0119914925
000280 24 82 a3 3c e6 ad 42 bb 7e b8 0e 3d 02 6e ac ba
       0.019959517 -0.0029705702 0.034843914 -0.0013155343
000290 59 03 b4 3b 72 57 4b bc fd 56 f5 bc de 26 97 3c
       0.005493563 -0.012410985 -0.029948706 0.01845115
0002a0 84 32 a8 3b 3f 14 00 3d 26 b8 8a 3b 33 ff 5e bd
       0.005132975 0.03126931 0.004233378 -0.054442596
0002b0 ce 52 c6 bc 63 16 11 3b 8e d2 19 3c 35 10 07 bc
       -0.024209406 0.0022138588 0.009388579 -0.00824361
0002c0 29 d3 fb 3c d4 c7 97 3b 33 69 93 3c 13 1e 15 bd
       0.030740337 0.0046319757 0.017994499 -0.036405634
0002d0 80 f0 04 3d c4 4a ec bc 6d 6f d3 bc 36 29 32 3d
       0.03245592 -0.028844245 -0.025809968 0.043496333
0002e0 31 02 8e 3c e7 6f 84 3b aa 3f 00 3d 6d b8 27 bb
       0.01733503 0.00404166 0.031310715 -0.0025592104
0002f0 ce 0a e8 3c 29 a0 83 35 3c 72 0a 3d ae f7 a5 bc
       0.028325465 9.806873e-07 0.03380035 -0.020259704
000300 6f 1e 9e bb a9 35 b2 3c 1f 1e 2b bd fb 3a 0c 3c
       -0.0048254053 0.021754103 -0.041776773 0.008558984
000310 05 60 eb 3c 72 a1 ad 3a 8d a1 c9 bc a9 fd e8 bc
       0.02873231 0.0013246967 -0.024613166 -0.028441267
000320 31 b6 9c bc 06 9f 99 bc fc 85 09 bb 0f e8 7f bd
       -0.019129844 -0.018752586 -0.0020984402 -0.062477168
000330 35 59 d4 bb 79 79 ea bc 8b bc cf bb 1b 62 24 3b
       -0.006480361 -0.028622376 -0.0063396147 0.002508289
000340 4a 7c 48 bd 86 30 af bc bf 4e 54 bd 77 1a e6 bc
       -0.048946656 -0.021385442 -0.05183291 -0.028088791
000350 16 8f 42 bd 20 77 ff bc 39 5d b9 3c 86 bb 19 bb
       -0.04749974 -0.031184733 0.02262746 -0.002345772
000360 57 77 38 3c 6e 7c 4d bd 67 ba 8d bc 7d 46 31 bd
       0.011258922 -0.050167494 -0.017300798 -0.043280113
000370 dc e4 1d 3c a2 0d 7b bc b8 94 d5 bc 2b 0e a5 ba
       0.009637084 -0.015323075 -0.026071891 -0.0012592723
000380 73 78 79 3a a1 24 8f bc d3 f6 78 39 7d 93 3c bb
       0.00095165445 -0.01747352 0.00023743072 -0.0028774433
000390 ba 17 e1 3c 62 a8 63 3b a0 f1 4a 3d 16 24 f5 bb
       0.027477134 0.0034737815 0.049546838 -0.0074811084
0003a0 59 57 aa 3c f6 97 3f 3c ff 67 c6 3c 6c b7 04 bd
       0.020793604 0.011693945 0.024219511 -0.032401487
0003b0 69 4f 62 bd 07 c2 a4 bc 8c 33 d3 ba 2d 17 00 bd
       -0.055251513 -0.02011205 -0.0016113385 -0.031272102
0003c0 ad 0d fc bb 72 78 06 3c 7d 8f df 3c 5f 39 43 3d
       -0.00769206 0.008207427 0.0272901 0.047662135
0003d0 16 d5 4b 3d 6c 51 6e 3d 3c a2 70 3c f6 24 a8 bc
       0.04976376 0.05818312 0.014687117 -0.020525437
0003e0 2f 5c 3f bc f1 1e 3d 3d b8 28 92 3c d6 77 1d 3d
       -0.011679693 0.046172086 0.017841682 0.038444363
0003f0 39 8b 4a 3c 8e f4 1a bd 7e 6f 1a bd 78 19 58 bd
       0.012362295 -0.03783088 -0.037703983 -0.052758664

layer2.0.bias f4 [64]
000000 32 b4 3f 3c 64 29 23 bd 0a 39 1a 3d 96 f9 82 bc
       0.011700677 -0.039834395 0.037652053 -0.015988152
000010 27 69 27 bd 99 1e 23 3d 5c 2c a8 3a 83 95 02 bd
       -0.040871765 0.039824102 0.0012830603 -0.031880867
000020 54 92 1d 3d ff 12 33 3c 6d 46 cf bc 30 d8 40 bb
       0.038469627 0.010929822 -0.025302136 -0.0029425733
000030 96 d0 1f 3d 1a 0d 7f bc 63 08 1b 3d 7d 73 1c 3b
       0.039017282 -0.0155670885 0.037849795 0.0023872547
000040 53 5e 88 bc 7b ea 0c bc 82 83 1a bd 67 96 94 3c
       -0.01664654 -0.008600826 -0.037723072 0.018138124
000050 fe 5b 76 bc 1c 8f 20 bd 8e 80 42 3c b9 82 2d 3c
       -0.015036581 -0.03919898 0.01187147 0.010590249
000060 0a c7 e2 bb d1 2f e7 bc a9 eb 9d 3c 82 6c 1a bb
       -0.0069207 -0.028221043 0.01927741 -0.002356321
000070 0b 1f 90 3c b5 c2 1e bd 51 da c1 3c a5 66 b3 3a
       0.017592927 -0.038759906 0.023663672 0.0013687207
000080 2c 35 0a 3d 15 f4 12 bd e4 8b 27 3d 59 81 61 bc
       0.033742115 -0.035877306 0.040904894 -0.013763749
000090 ba aa 08 3d 9d 35 72 3c 91 8b 17 3c 84 6b c2 bc
       0.033365943 0.01478329 0.009249584 -0.023732908
0000a0 b2 a4 ea 3c fd 7f fd 3c d0 6a 17 3d 52 7f 04 bd
       0.028642986 0.030944819 0.0369671 -0.032347985
0000b0 c5 ca 9f 3b 83 19 cd bc c4 b4 d7 bb 6c ea 8d bc
       0.004876467 -0.025036579 -0.0065828282 -0.017323695
0000c0 de 73 8f 3c 5a 39 ad 3b 4c 4a 07 bd b6 d4 a7 bc
       0.017511304 0.005286378 -0.03302984 -0.02048717
0000d0 6f a1 35 ba 98 68 c1 bc ba 9b 20 3d 98 78 a7 bc
       -0.00069286575 -0.023609444 0.039211012 -0.020443246
0000e0 24 b6 94 3c 1f 8c c9 bc 82 c5 cd bc ee 55 2a 3c
       0.018153258 -0.024602948 -0.025118593 0.010396464
0000f0 f4 c9 c0 bb 53 43 bc 3a 44 e0 35 bb af 94 a4 bb
       -0.0058834497 0.0014363326 -0.002775208 -0.0050226073

layer2.1.weight f4 [64]
000000 21 99 7f 3f 8f b1 80 3f b8 cd 80 3f 2e 63 7d 3f
       0.9984303 1.0054187 1.006278 0.9897946
000010 9f 58 80 3f eb 26 7d 3f a7 96 7b 3f 95 05 7e 3f
       1.0027045 0.9888751 0.9827675 0.9922727
000020 40 6e 7c 3f bd 54 82 3f cc b4 78 3f 8d b7 82 3f
       0.9860573 1.018211 0.97150874 1.0212265
000030 b7 2f 7f 3f 9d 85 82 3f ae 1d 7f 3f 7f 3e 80 3f
       0.9968218 1.0197026 0.9965466 1.0019072
000040 a3 05 7d 3f 5f 12 7d 3f 0d fc 81 3f 93 b1 7d 3f
       0.98836726 0.9885616 1.0155045 0.9909908
000050 47 4e 81 3f 62 39 80 3f b7 55 78 3f 24 a4 7d 3f
       1.0102013 1.0017512 0.9700579 0.99078584
000060 2b 03 80 3f fc 44 82 3f 72 9d 7d 3f 2e 63 83 3f
       1.0000967 1.0177302 0.9906837 1.0264642
000070 da 01 7f 3f 5d 5c 7f 3f cb 14 7c 3f 8e 83 80 3f
       0.996122 0.9975031 0.9846923 1.0040147
000080 12 6d 81 3f 84 92 7b 3f f1 0d 80 3f f9 78 83 3f
       1.0111411 0.9827044 1.0004255 1.0271293
000090 7f f2 80 3f 1f 7b 83 3f 1e 4e 7b 3f 6a d7 7a 3f
       1.0074004 1.0271949 0.9816607 0.97984946
0000a0 ef 54 7d 3f 4c 4c 82 3f 31 73 80 3f 60 6d 7b 3f
       0.98957723 1.0179534 1.0035154 0.9821377
0000b0 ed c2 7f 3f f4 39 7c 3f b7 a2 82 3f 04 5c 78 3f
       0.9990681 0.9852593 1.0205907 0.97015405
0000c0 40 63 7b 3f d5 4b 82 3f 22 ea 7c 3f 6b 55 77 3f
       0.9819832 1.0179392 0.9879476 0.9661471
0000d0 67 63 7f 3f df 1a 7f 3f 0c d1 7c 3f 32 bd 7a 3f
       0.9976105 0.9965038 0.9875648 0.9794494
0000e0 42 b0 7f 3f 8a 21 7e 3f e1 1a 7f 3f 60 0e 79 3f
       0.99878323 0.99269927 0.9965039 0.9728756
0000f0 60 49 7f 3f ed d3 85 3f cb 61 80 3f 58 1b 83 3f
       0.99721336 1.04553 1.0029844 1.024272

layer2.1.bias f4 [64]
000000 52 13 59 3c d6 8e e6 bc 5f 3a 18 bd 1d 4c d7 bc
       0.013249235 -0.028144281 -0.037165042 -0.02628141
000010 1d f0 7c 3b d4 d7 da bb 6d 7b 2b ba 7d 67 85 bd
       0.0038595267 -0.0066785607 -0.0006541524 -0.065138794
000020 48 fc fb bc 6b 16 2a bd 18 f8 9b 3a fc 2e 2c bc
       -0.030759946 -0.041525286 0.0011899499 -0.010509249
000030 b5 51 34 bc bf 3b bb bb a9 19 30 bd bf 35 15 3b
       -0.011005809 -0.0057139094 -0.04299322 0.002276763
000040 01 54 81 bd 9d a5 9c bc ca f4 39 bd bc c8 12 bd
       -0.063148506 -0.01912194 -0.045399465 -0.035835966
000050 c3 bb 5e bc 85 a4 62 bb 91 1d 86 bd f7 11 1b bd
       -0.013594571 -0.0034582925 -0.06548608 -0.03785893
000060 42 22 ab bc ff d7 8e 3b 48 48 e2 bc e8 b6 ac bd
       -0.020890359 0.004359245 -0.027622357 -0.08433324
000070 5c 0f c2 bc 8f 81 1b bd 5c a6 c5 bb d5 70 e6 bb
       -0.023688965 -0.037965354 -0.0060317945 -0.0070324936
000080 ac 2c ac bc 72 ce 70 bd 8a e9 20 bd 96 53 a9 bc
       -0.021017395 -0.05879063 -0.03928522 -0.02066974
000090 ba 2b 54 bd 77 7d 3c bd f9 20 50 bc dc 3c bf bc
       -0.051799513 -0.04601809 -0.012703174 -0.02334445
0000a0 7a bb 3b bd e9 ac 8a 3b 38 c0 ae bc b9 f5 b0 bd
       -0.04583309 0.0042320383 -0.021331891 -0.08640618
0000b0 14 ee de bc 80 6a 54 bd d7 ab 66 bd 35 a7 b1 bc
       -0.027213134 -0.05185938 -0.056316223 -0.021686176
0000c0 b1 24 c3 bc c1 3d 99 bd a4 7d 6b bd e8 d8 ad bc
       -0.023821207 -0.07482482 -0.057492867 -0.021221593
0000d0 1f e9 ac bc 3a d0 aa 3b 5b 8b c7 ba ab 4e 13 bd
       -0.021107255 0.005212811 -0.0015224026 -0.035963695
0000e0 99 ba 2b bd fb cd b5 bd 69 07 d0 bc 2c 11 49 bc
       -0.041926 -0.08877178 -0.025394158 -0.0122721605
0000f0 78 f1 56 bd 6c b8 4c bd a1 3e 2c bc c6 25 c8 bc
       -0.052476376 -0.049980566 -0.010512979 -0.024432074

layer2.1.running_mean f4 [64]
000000 35 69 31 be 3b 63 82 bf b0 03 c8 be 49 7b 91 bf
       -0.1732529 -1.0186533 -0.39065313 -1.1365749
000010 e6 d8 01 bf ba 4e cd be 1c 74 91 be df d3 48 3f
       -0.50721586 -0.40099126 -0.28408897 0.7844829
000020 f0 dd 3f bf a3 0c 69 bf fc aa ae bf 7f ec 8d be
       -0.74948025 -0.9103491 -1.364593 -0.27719495
000030 d9 66 15 bf e9 e3 9d bf a7 60 44 be 64 d7 33 bf
       -0.5836006 -1.2335178 -0.19177495 -0.70250535
000040 db 9c 2e bf c7 50 9d be c4 31 47 bf 40 59 88 bf
       -0.6820809 -0.3072569 -0.7781031 -1.0652237
000050 5f 75 08 be 96 05 2e bf f2 d9 34 bf 32 48 83 bf
       -0.13326024 -0.67977273 -0.7064506 -1.0256407
000060 e9 29 94 bf 6b a5 2d bf 8f 1a 55 bf 35 45 d2 be
       -1.157529 -0.6783053 -0.8324365 -0.41068426
000070 39 42 62 3e b2 e1 66 bf 03 d8 40 bf e3 80 4e bf
       0.22095574 -0.90188134 -0.7532961 -0.80665416
000080 8d 63 22 bf 0e f8 ae be f2 8d cd 3e 77 2e a3 be
       -0.6343315 -0.34173626 0.40147358 -0.31871387
000090 dd e8 f4 3c 4f e7 0a bf 4d c2 30 bf 4b 4d 81 bf
       0.029896194 -0.542592 -0.6904648 -1.0101713
0000a0 fb 8c c1 be 60 d8 29 bf 17 de 35 bf 20 66 60 bd
       -0.37802872 -0.6634579 -0.7104201 -0.054784894
0000b0 03 be eb be b0 47 3e 3f 20 5f 76 bf fc 14 51 bf
       -0.46043405 0.74328136 -0.962389 -0.81672645
0000c0 07 a2 7c bf 75 97 51 3f 9f 78 21 be de 09 14 3e
       -0.98684734 0.8187173 -0.1576867 0.14456889
0000d0 2a a6 13 bf ca af 20 3e 49 75 00 bf 07 43 b2 bf
       -0.5767542 0.15692058 -0.5017896 -1.3926705
0000e0 58 2a a3 bf 08 22 fa bd 2f ed 6c bf ea 84 61 bf
       -1.2747297 -0.12213522 -0.92549413 -0.88093436
0000f0 08 24 57 3c c8 de da bc 5e 9f 74 bf 84 09 73 bf
       0.013131149 -0.026717559 -0.95555675 -0.94936395

layer2.1.running_var f4 [64]
000000 4e 18 a5 3f d9 5a 0c 3f 94 48 25 3f 6a 20 33 3f
       1.2898042 0.5482612 0.6456387 0.69971335
000010 8b a0 aa 3f 61 52 06 40 58 4a 0c 3f dd a9 ab 3e
       1.3330244 2.098778 0.5480094 0.33528033
000020 78 8a be 3e 04 48 9f 3e a2 2f 5e 3f 45 18 ce 3e
       0.37215018 0.3110963 0.8679143 0.4025289
000030 d9 13 d0 3e 21 34 17 3f 2f 01 8e 3e a4 ae 0a 3f
       0.40640143 0.5906392 0.27735278 0.5417273
000040 0c a7 ab 3e 2b dc f0 3e be b4 a3 3e 52 32 c7 3e
       0.33525884 0.47042975 0.31973833 0.3890558
000050 2d 95 eb 3e 72 7b c5 3e f2 7b 0d 3f 3a 3c 04 3f
       0.4601225 0.38570744 0.5526725 0.516544
000060 cb 09 ea 3e a6 74 aa 3e ba a2 cf 3e df c0 24 3e
       0.45710596 0.3329212 0.40553838 0.160892
000070 69 09 b7 3e 93 59 1e 3f 0c 46 37 3f ff f3 f4 3e
       0.35749367 0.6185543 0.7159126 0.47842404
000080 1b 5b ec 3e dc 64 f3 3e f1 c8 ed 3e 7d 16 82 3e
       0.46163258 0.47537887 0.4644237 0.25407782
000090 47 5a 55 3e 2e 09 87 3e c8 85 dc 3e 4d 61 b5 3f
       0.2083522 0.2637419 0.43070817 1.4170319
0000a0 4f fd cf 3e d9 f6 0f 3f ff e7 c7 3e 87 7a d0 3e
       0.40622947 0.56236035 0.39044186 0.4071848
0000b0 38 10 c1 3e 4f 63 33 3f f6 a3 a5 3e c5 c6 7a 3f
       0.37707686 0.7007341 0.32351655 0.9795955
0000c0 2f 61 26 3f 52 65 88 3e ce ea 4d 3e fc 22 f5 3e
       0.6499204 0.266398 0.20109102 0.47878253
0000d0 f6 79 51 3e 0b c8 5f 3f 29 df 76 3f 14 86 26 3f
       0.2045668 0.87414616 0.96434265 0.65048337
0000e0 e8 31 23 3f 2b 30 26 3e d0 35 c9 3e 73 7a 17 3f
       0.63748026 0.16229312 0.39298868 0.5917122
0000f0 4c 88 c8 3e d5 39 65 3e 8d e9 5f 3f 8d 46 02 3f
       0.39166486 0.22385342 0.87465745 0.508889

layer3.0.weight f4 [64, 64, 3, 3]
000000 7a 08 06 bc cd 95 b1 3c cc d1 ca 3c 48 41 fe 3c
       -0.008180732 0.021677876 0.024758242 0.031036988
000010 d9 1d 6b 3c a6 5a b4 3c 1b f9 36 3c 1b f5 28 3d
       0.014350378 0.02201588 0.01116779 0.041249376
000020 a3 89 aa 3c ca 28 a5 3b ef b7 07 bd c5 7a 12 3d
       0.020817583 0.005040263 -0.033134397 0.035761613
000030 6d 93 95 bc a5 7b fb 3c 17 46 93 bc 80 e4 db ba
       -0.018258775 0.030698607 -0.017977757 -0.0016776472
000040 af 5c 5a 3d 3c ee ea 3b 5a eb a5 3c 65 60 23 3d
       0.053311046 0.007169513 0.020253826 0.03988685
000050 93 b5 bf bb 69 3b 10 ba 6a e6 50 3d 7b 34 88 bc
       -0.0058505028 -0.0005502017 0.05100099 -0.016626587
000060 4a d1 dc 3b 94 51 86 bb 20 b3 60 3d 85 ff 2e bc
       0.0067388164 -0.0040990803 0.054858327 -0.010681038
000070 d1 47 26 bc f5 86 89 bc c7 6e e9 3c ea 04 bd 3b
       -0.010148958 -0.016787985 0.028495206 0.005768408
000080 64 4b 24 bd 23 d3 cd bc e9 59 b9 3a 8c 10 8c 3c
       -0.04011096 -0.025125092 0.0014141175 0.017097734
000090 93 70 03 3c f5 90 1a bd ab 95 eb bb 34 36 9e bc
       0.008022445 -0.037735898 -0.0071894727 -0.019312955
0000a0 06 78 af 3c 09 33 85 3c dd c0 da bc fc 8a 4b bc
       0.021419536 0.016259687 -0.026703293 -0.012423273
0000b0 24 55 7b bc 80 2d ce bc 6e 27 41 3d 40 3f 88 bc
       -0.015340123 -0.02516818 0.047156744 -0.016631722
0000c0 35 0d 23 bc cf 7d 88 bc 56 1f 8c 3c 62 d5 87 bc
       -0.009951879 -0.016661553 0.017104786 -0.016581241
0000d0 5d 69 49 bd 1b 1c 7d bc f9 12 7d 3c 9c 7c 0c 3d
       -0.049172748 -0.015448595 0.015446418 0.034298524
0000e0 e3 3d 21 bd 52 49 67 bc 3f 64 c5 b9 b9 b3 b5 3c
       -0.03936566 -0.014116602 -0.00037649457 0.022180425
0000f0 b8 fd 7b bd 1d 95 ad 3c 63 ec ea bc b1 b4 1a 3d
       -0.061521262 0.021189267 -0.028677171 0.037769977
000100 22 56 a6 bc 0d 42 ab bc 5a 95 ee 3c 8b f1 34 bd
       -0.020304743 -0.020905519 0.02912395 -0.044175666
000110 62 6c 3f 3b f4 5f a3 bc f2 88 8f bd c2 5f 28 3d
       0.0029208888 -0.019943215 -0.07008542 0.041106947
000120 86 f4 bb 3c 5a 84 99 3c e7 05 f7 bc d7 d1 b8 3b
       0.022943746 0.018739868 -0.030154182 0.0056402492
000130 4c c8 c5 3a 43 bf cb 3c d1 22 d0 bc 84 c8 59 bc
       0.00150896 0.024871474 -0.025407227 -0.013292436
000140 51 22 9a 3c 4d 92 6c 3c 08 c9 f7 3c a6 96 3b bc
       0.018815191 0.014439178 0.030247226 -0.011449492
000150 3f ea a3 3c d7 7c 49 bd 02 1d 36 bd 8c 25 f4 bc
       0.020009158 -0.049191322 -0.044461258 -0.02980306
000160 4a f1 aa 3c ed fc ae 3c 71 53 16 3c 35 65 81 3b
       0.020867009 0.021360839 0.009175167 0.0039488324
000170 3a 09 0c bd 72 7f ae 3c e7 5a a2 3c 69 2d 12 3d
       -0.034188487 0.021301005 0.019818736 0.035687838
000180 f3 d0 bb 3c 67 ab ec bc 93 73 37 bd ff 96 21 3c
       0.022926783 -0.028890325 -0.044787955 0.00986266
000190 c0 13 ee 3b 14 3f b9 bb 30 ad 07 bd 28 9a 6b bb
       0.007265538 -0.0056532715 -0.03312415 -0.0035950039
0001a0 6f 28 60 3c aa a5 1f bd 57 b1 92 bc 9f 1d a6 bc
       0.013681515 -0.03897635 -0.017906828 -0.020277796
0001b0 4e b6 21 bc 9b a6 07 bd 79 ed 60 bd b3 38 29 bd
       -0.009870125 -0.03311787 -0.05491397 -0.04131384
0001c0 e1 49 24 bb 4a bf e7 bc d5 6d 4a 3d 5b cf 1b bd
       -0.002506845 -0.028289456 0.04942115 -0.038039546
0001d0 10 3a 3d ba ff bb 5f ba a2 c0 ea bc eb 3e aa bc
       -0.000721843 -0.00085347885 -0.028656308 -0.020781955
0001e0 1b ef e2 bc 87 c2 09 3c 3d 38 ca 3c 27 95 86 bd
       -0.027701905 0.008408195 0.02468502 -0.06571417
0001f0 2c 4d 41 bd 03 2a e2 3a 9c 0c 07 3d 14 0b 14 3d
       -0.047192737 0.0017254952 0.03297101 0.036143377
000200 5d c7 e1 3b e4 3c 2c 3b 71 76 fc bc 21 1f e0 bc
       0.006890221 0.002628141 -0.030818196 -0.027358593
000210 6a 23 27 3d 86 56 47 3c a1 4d 0d 3d 68 02 6e 3d
       0.040805258 0.012166625 0.03449786 0.058107764
000220 ef 07 09 3d 38 01 86 3b 6d fa aa bc ae dd 83 bc
       0.03345483 0.0040895008 -0.020871365 -0.016096916
000230 a3 cf 2a 3d 95 7e a2 3c b1 28 e8 3c 06 94 3d bc
       0.041701924 0.01983575 0.028339716 -0.011570936
000240 0b be 36 3d dd 95 82 ba 57 ae 49 3d ba 74 1a bc
       0.044614833 -0.0009962876 0.04923853 -0.009427244
000250 b6 11 ef bc a3 df 85 bc b8 45 b5 3b 5c f0 bc 3c
       -0.02918325 -0.01634199 0.0055319928 0.023063831
000260 5f 2b a4 3c 70 e1 b1 bc e4 2e cf bc b5 9e ba bc
       0.020040212 -0.021713942 -0.025290914 -0.022780756
000270 1f b1 97 bc 30 10 2d bd 91 c3 a8 bb 80 24 20 3d
       -0.018517075 -0.042251766 -0.0051502665 0.03909731
000280 8f c1 d0 bb 57 72 68 3c fb 83 94 bc b6 1b 87 3d
       -0.00637073 0.014187417 -0.01812934 0.06597082
000290 bd 0b 68 3c 4d 14 2d bc 20 bd 75 bc 5d ca 83 3d
       0.014162955 -0.010563922 -0.014998704 0.06435082
0002a0 66 3f 3a 3d 13 e9 96 3c 38 04 23 ba ce e2 a4 bb
       0.045470618 0.018421685 -0.0006218585 -0.00503192
0002b0 88 04 38 bb d4 f1 8d 3c ae 13 f4 bb 27 99 40 3d
       -0.0028078873 0.017327227 -0.007448635 0.047021057
0002c0 2a 50 e5 bc 79 05 47 3c 87 2d 59 3d d1 1f 73 3d
       -0.027992327 0.012147301 0.053021934 0.059356514
0002d0 8f bb a7 3b 2e a8 50 3c 58 ee c8 bc 68 8b 3d bd
       0.0051187943 0.01273541 -0.024527714 -0.046275526
0002e0 26 01 cb bc b6 fc dd bc b4 53 aa ba f8 a0 20 bd
       -0.024780821 -0.027098041 -0.0012994916 -0.03921601
0002f0 91 83 6f bd d9 7a af bc 99 e2 eb 3c 42 c7 c1 3c
       -0.05847508 -0.021420883 0.028794574 0.023654584
000300 f0 a6 1c 3d 23 4a 3d 3d 68 1a 79 3c 69 6c 37 3d
       0.03824514 0.04621328 0.01520405 0.044781122
000310 cc 53 20 bd d5 e5 78 bd 39 2b 51 bd 37 a5 4e 3c
       -0.039142415 -0.06076606 -0.05106661 0.0126126325
000320 e8 37 b7 3b bc b2 2a bd bc b2 86 bd a9 a4 ef bc
       0.0055913813 -0.04167436 -0.065770596 -0.02925332
000330 f9 1d 80 bb b8 ca ae 3c c3 b7 81 3d 2b e9 a0 bc
       -0.003909823 0.021336898 0.06333878 -0.019642433
000340 35 9e ad 3c 3a da 25 bc e4 b4 21 bc cc 86 c5 bc
       0.021193603 -0.01012283 -0.009869788 -0.024112128
000350 e5 a8 25 bc cb 05 f0 3c cd 77 a3 bc 50 2b 03 bc
       -0.010111068 0.029299637 -0.019954586 -0.008005932
000360 3c 43 96 3c ab 2e 1c 3d c1 5e 4b bc 9e bf a0 3c
       0.018342607 0.038130444 -0.012412728 0.01962262
000370 cf e4 88 3c 62 ab 26 bd c1 3a 5e 3b 8c 9a f0 bc
       0.016710667 -0.040690787 0.0033909532 -0.029370569
000380 af 96 3b 3a f9 0c 31 37 84 6a 10 3b 44 dc 14 bc
       0.00071559375 1.0553043e-05 0.0022036145 -0.009085719
000390 17 f0 80 3c 85 f9 fb 3c 21 32 7c 3d a6 c7 ee 3c
       0.015739484 0.030758629 0.061571244 0.029147934
0003a0 23 9c f1 3c 55 10 0a bd 32 56 c0 bc 85 1e 2f bb
       0.029493397 -0.03370698 -0.023478601 -0.0026721072
0003b0 1e fa 35 ba 4c 02 a4 bb 7c 73 ad 3c 89 31 a4 3c
       -0.00069418724 -0.0050051566 0.021173231 0.020043151
0003c0 9d 58 32 bd 10 3e 10 bd 2a 66 0b bd 14 42 eb bc
       -0.04354154 -0.035215437 -0.034032978 -0.028718032
0003d0 3c eb 9b bc 5a ee 89 bc 13 1e bd bc 6a b5 85 bc
       -0.019033067 -0.016837288 -0.02308563 -0.016321857
0003e0 ba 22 93 bc 5f d0 e0 3b 64 92 38 bd 17 47 ef bc
       -0.017960895 0.0068607773 -0.045061484 -0.029208703
0003f0 b7 66 65 3d cd 4c 30 3b d9 66 25 3d 41 91 1b bc
       0.05600616 0.0026901246 0.040381286 -0.00949508

layer3.0.bias f4 [64]
000000 85 e6 15 3b 5d 29 22 3d b5 e0 10 3a 15 b7 e1 3c
       0.0022872996 0.03959023 0.0005526648 0.02755312
000010 23 7f 74 3b e9 bd 29 3c e0 43 06 bd a2 67 b6 3b
       0.0037307225 0.0103602195 -0.032779574 0.005566553
000020 b6 c4 23 3c e7 71 81 bc b5 89 31 3c 92 33 13 3d
       0.00999563 -0.015801383 0.010836055 0.035937853
000030 54 23 01 bd 35 cb fc bc 5b aa a2 bb 4c ed a6 3c
       -0.031527832 -0.030858615 -0.0049641556 0.020376824
000040 7e 59 83 3c ac c1 9b bc 58 c4 fa 3c 3d 9a f0 3b
       0.016033884 -0.019013248 0.030611202 0.0073426054
000050 94 ce d1 3c 1b c2 e5 bc ce 8d 00 bd f0 c8 50 bb
       0.0256112 -0.028046658 -0.031385235 -0.003185805
000060 b6 04 1d bd 0a eb 98 3c 94 82 01 3c 64 90 1e bd
       -0.03833457 0.018666763 0.007904667 -0.03871192
000070 c1 6e a3 3c b0 d6 1c bd f7 58 2a bc 81 fe 6c 3c
       0.019950273 -0.03829068 -0.010397187 0.014464975
000080 7e 2c 85 bc e2 5a b2 bc fa 93 fe 3c 68 44 0a bd
       -0.016256567 -0.021771852 0.03107642 -0.033756644
000090 18 fc 64 3c b1 fe e5 bc 76 17 08 bd 2c 4d b1 bc
       0.013976119 -0.028075548 -0.0332255 -0.021643244
0000a0 cf a2 22 bd 36 af 84 bc 7d 53 21 bd d2 82 a3 3a
       -0.039706048 -0.016196828 -0.03938626 0.00124749
0000b0 20 28 07 bd 10 b3 1b 3d 06 25 18 3c 6d 68 14 bd
       -0.03299725 0.038012564 0.009286171 -0.0362324
0000c0 8a 77 f6 bc d7 be 2d bc 89 12 bb 3b df a6 a8 bc
       -0.030086298 -0.010604582 0.0057089967 -0.020587383
0000d0 59 e4 21 3d 5a bb 5f bc fa 90 27 3d fa bb 52 3c
       0.03952441 -0.013655508 0.040909745 0.0128622
0000e0 41 59 42 3c 92 45 3a 3c d0 cb d7 3c 0c 40 4a 3c
       0.0118621 0.011369126 0.026342303 0.0123443715
0000f0 eb 40 b4 bc 11 80 a1 bc ed ff 4e 3c f3 a1 38 3c
       -0.022003612 -0.019714387 0.01263426 0.01126908

layer3.1.weight f4 [64]
000000 2a c6 75 3f 14 1c 86 3f ca b8 7e 3f 9b da 6e 3f
       0.960055 1.0477319 0.99500716 0.93302315
000010 6f 29 7c 3f 5f 06 84 3f de 4e 81 3f e1 70 76 3f
       0.9850072 1.0314444 1.0102193 0.9626599
000020 66 61 75 3f e8 70 82 3f a2 62 84 3f 2d 1e 7e 3f
       0.95851743 1.0190706 1.03426 0.99264795
000030 1d c4 7a 3f b4 bd 81 3f 64 95 7b 3f 2d 2a 85 3f
       0.97955495 1.0136018 0.98274827 1.0403496
000040 9b e6 87 3f 29 b9 7b 3f a8 c7 80 3f c9 11 84 3f
       1.061725 0.98329407 1.006093 1.0317928
000050 78 26 7d 3f eb 11 7e 3f c4 84 77 3f 51 3a 7c 3f
       0.98886824 0.9924609 0.9668696 0.98526484
000060 c8 56 82 3f 07 6e 80 3f 73 5d 6f 3f 6f 91 82 3f
       1.0182734 1.0033578 0.9350197 1.0200633
000070 9c b1 7d 3f 5f a4 7a 3f 09 f0 70 3f 54 8b 83 3f
       0.99099135 0.9790706 0.94116265 1.0276895
000080 75 bc 83 3f 56 e3 83 3f f8 b1 83 3f b0 09 78 3f
       1.0291888 1.0303752 1.0288687 0.9688978
000090 de 93 80 3f bd 24 82 3f 80 3e 71 3f 61 8e 7b 3f
       1.0045125 1.0167462 0.9423599 0.9826413
0000a0 d3 ce 70 3f 92 10 79 3f b0 26 8a 3f e7 cb 76 3f
       0.9406559 0.9729091 1.0793056 0.9640488
0000b0 41 02 83 3f d1 af 75 3f 98 85 7d 3f bc 33 73 3f
       1.0235063 0.959714 0.9903197 0.95000815
0000c0 7c 2e 86 3f e2 98 77 3f 65 3e 77 3f 2d d4 84 3f
       1.0482936 0.96717656 0.9657958 1.0377251
0000d0 4c f9 7b 3f 20 8b 7f 3f 8b 07 72 3f 13 49 80 3f
       0.9842727 0.9982166 0.9454276 1.00223
0000e0 fb ca 73 3f c2 17 7b 3f 59 d2 7e 3f 10 b9 80 3f
       0.952316 0.98083127 0.99539715 1.0056477
0000f0 48 34 75 3f 56 4c 86 3f cb 2d 88 3f 38 21 7e 3f
       0.957829 1.0492046 1.0638975 0.9926944

layer3.1.bias f4 [64]
000000 f9 74 89 bd 48 28 ac bd 11 3a ad bc ae c2 82 bc
       -0.06711764 -0.084061205 -0.021145852 -0.015961971
000010 d1 c0 97 bc fd 31 81 bd 32 9b 9b bd 09 76 01 bd
       -0.01852456 -0.06308363 -0.075979605 -0.031606708
000020 04 1a 49 bd e1 16 86 bd 32 37 ce bc e4 81 4f bd
       -0.049097076 -0.065473326 -0.025172804 -0.050660983
000030 d5 a3 0a bd 1f 2e b2 bd 07 c0 39 bd 11 83 80 bc
       -0.03384765 -0.08700203 -0.045349147 -0.015687497
000040 91 b6 b8 bd 81 f4 36 bd 3f 6b cd bd 90 00 b5 bd
       -0.09019197 -0.04466677 -0.10030221 -0.08837998
000050 6e 35 9d bd 44 1a d5 bc 4d 08 f4 bc bf 4a 8f bd
       -0.076762065 -0.026013501 -0.029789114 -0.069966786
000060 65 40 84 bd 4a 84 02 bd 30 1c 7b bc 71 02 d2 bd
       -0.06457595 -0.031864442 -0.015326545 -0.10254372
000070 97 90 39 bc 2a 1f 7e bd f4 74 8b bd 5b 4c 30 bd
       -0.011325977 -0.06204144 -0.068094164 -0.04304157
000080 e2 e2 9e bd a2 a1 af bd f9 1e d3 bd 64 88 6a bc
       -0.07758118 -0.08575751 -0.10308642 -0.014314745
000090 af f6 9b bd 2a 60 c5 bd 74 ae 25 bd bf ce cc bc
       -0.076154105 -0.096374825 -0.040449575 -0.025000928
0000a0 f5 74 64 bd eb 56 35 bd 84 77 94 bd 69 73 85 bc
       -0.0557756 -0.044272345 -0.07249358 -0.016290383
0000b0 1e c9 24 bd 76 5a 10 bd a7 12 b1 bd 6c d8 98 ba
       -0.040230863 -0.03524252 -0.08646136 -0.0011661178
0000c0 0e 54 d2 bd 4f 9c a6 bd 37 dc b5 bc 5f fa b7 bd
       -0.102699384 -0.08135282 -0.022199733 -0.08983301
0000d0 a2 44 3c bd 69 1e 5e bd 5a 49 22 bd 0c 7d 5f bd
       -0.04596389 -0.05422822 -0.039620735 -0.054562613
0000e0 e0 b6 10 bc 75 29 7b bd 87 fa e7 bc 4c d6 55 bd
       -0.008832663 -0.061318833 -0.028317703 -0.052206323
0000f0 ca 32 8a bc 1a ca 92 bd 35 bf ed bd fa 4c ae bc
       -0.016869921 -0.07167454 -0.116087355 -0.02127694

layer3.1.running_mean f4 [64]
000000 83 d1 61 be f4 76 e9 be 56 08 cc bd e1 e5 7d bd
       -0.22052579 -0.45598567 -0.099625275 -0.061986808
000010 ad 7b a7 be 28 28 12 bf 30 80 53 bf 41 37 d3 be
       -0.32711545 -0.57092524 -0.82617474 -0.41253093
000020 b3 75 92 3d 88 6e 36 bf 76 32 a4 be ae 21 3e bf
       0.071513556 -0.7126241 -0.3206975 -0.7427014
000030 5f 2c 07 bf 1b 92 91 be c3 a2 1e be d3 9c 61 bf
       -0.5280208 -0.28431782 -0.15491776 -0.8812992
000040 ee 43 b5 be 1c e5 12 bf 43 10 83 be b5 03 9d be
       -0.3540339 -0.57380843 -0.25598344 -0.3066689
000050 22 25 09 3f c8 90 7c be 84 84 8d 3e ad 19 41 bf
       0.53572285 -0.24664605 0.27640164 -0.75429803
000060 37 f3 69 bf 37 74 20 bf d9 fa 8a be 61 68 05 bf
       -0.9138674 -0.6267733 -0.27144507 -0.52112395
000070 0f bb 41 bf d0 00 80 be 45 d4 00 bf 11 08 b7 be
       -0.75676054 -0.2500062 -0.503239 -0.35748342
000080 c5 f3 fb be 9a 8a 70 3e 42 87 80 3f 7a 1a 2f bf
       -0.4920942 0.23490372 1.0041277 -0.68399775
000090 07 6d 24 be d9 8d 15 bd ca 7f 53 bf ab cc 2d bf
       -0.16057216 -0.03651223 -0.82616866 -0.67890424
0000a0 dc 16 d4 3d 3d 6c 32 be 85 07 89 bf d3 93 03 bf
       0.103559226 -0.17424102 -1.070542 -0.51397437
0000b0 08 3a 2b bf 1b e1 77 be ee 2f 86 3e 94 17 7c bf
       -0.66885424 -0.24206965 0.26208442 -0.9847348
0000c0 81 60 1c bf 31 1b c0 bd df 07 43 bf 0f d3 f0 be
       -0.61084753 -0.09380186 -0.76183885 -0.47036025
0000d0 b3 49 71 bf 4f 81 0a bf ca 5d 0e bf 10 17 31 be
       -0.9425308 -0.5410356 -0.5561186 -0.17293954
0000e0 bf f7 1e bf 46 c3 96 be 82 b8 08 bf 86 dd 2e bf
       -0.6209678 -0.29445857 -0.53406537 -0.6830677
0000f0 a9 c5 ba 3c d0 dc e4 be 2f c7 85 bf 5f c1 f5 be
       0.02279933 -0.44699717 -1.0451411 -0.47999093

layer3.1.running_var f4 [64]
000000 c0 c0 93 3e d7 79 72 3e d8 5a cc 3e d0 ba e1 3e
       0.28857994 0.2367929 0.39913058 0.4408784
000010 17 52 6f 3e 87 49 82 3e be 80 87 3e b8 6f ca 3e
       0.23371159 0.25446722 0.2646541 0.3953836
000020 79 cd ce 3e 4b d7 a1 3e 2e b5 88 3e b3 2e ab 3e
       0.40391138 0.31609568 0.2670073 0.33434066
000030 8d ac ed 3e 2e f9 aa 3e 8b b2 fc 3e 8f 8c 89 3e
       0.46420708 0.33393234 0.49354967 0.2686505
000040 2f 75 a6 3e a9 51 8e 3e fc 5d 8a 3e c0 a2 b5 3e
       0.3251128 0.27796677 0.2702483 0.3547573
000050 f2 02 e5 3e 70 b4 e5 3e 1e 30 17 3f 2e 23 af 3e
       0.4472881 0.44864225 0.59057796 0.34206527
000060 b9 0d c1 3e bc 16 a4 3e 14 1b 2f 3f 9d ea 99 3e
       0.37705782 0.32048595 0.6840069 0.30061808
000070 56 d2 fa 3e 01 5b a6 3e f1 3f 0c 3f 4a f2 40 3e
       0.489886 0.32491305 0.54785067 0.18842426
000080 3c 52 b4 3e 09 57 9c 3e a2 61 b7 3e 4e f6 ad 3e
       0.3521899 0.30535153 0.35816675 0.33976978
000090 e6 0f 82 3e 6e bc ab 3e f4 0b da 3e 8d 09 c5 3e
       0.25402755 0.33542198 0.42587245 0.3848385
0000a0 14 e3 c2 3e aa 6a f7 3e fb 11 83 3e 92 28 d9 3e
       0.38063872 0.48323566 0.25599656 0.42413765
0000b0 48 49 a4 3e 6f 8a a9 3e 6f 21 ba 3e 51 53 a1 3e
       0.3208716 0.3311343 0.36353633 0.31508878
0000c0 d4 4d 35 3e 72 fa 08 3f 0f 80 f1 3e 6a 1b 75 3e
       0.1770547 0.5350715 0.47168013 0.23936239
0000d0 31 90 e8 3e 16 10 b0 3e 67 6c 0a 3f ea 62 ad 3e
       0.4542251 0.34387273 0.5407166 0.33864528
0000e0 00 f2 5f 3f 60 57 ab 3e 97 f5 87 3e 48 b3 7e 3e
       0.8747864 0.334651 0.26554558 0.24873078
0000f0 58 7a 12 3f 1b 82 7b 3e c5 ca a8 3e 89 c8 ba 3e
       0.5721793 0.2456135 0.329672 0.3648112
