FAST 3D-CNN P-NET/model/ZGFF/ZGFF_proto_3d-5shotband55-3laye.pth (torch, 873314 bytes, 22 tensors)

layer1.0.weight f4 [16, 1, 7, 3, 3]
00000000: 6782 a7bc ffd2 cc3d 4a44 e93d 2d15 b0bd
00000010: b899 e73c 4ff8 003e 72db 69bd 11bd 0ebe
00000020: 2568 20be 80fd c6bd 783a f7bb 19e5 bcbb
00000030: ae40 013d 3f51 023d addd d1bc 8271 b2bd
00000040: 662a 403d 420a f93b aad6 d8bd db39 98bd
00000050: 66e6 c83d b05e b4bd 5cbc 20bc e39c a93d
00000060: 571f e9bd 231e c43c 418d 1e3e 35a7 7bbd
00000070: b034 c53b 2079 adbc ea55 cf3d dfa2 72bb
00000080: cba3 6e3d 444a f63d 3b74 e63d 89f3 9fbc
00000090: 6f19 47bd f11d 29bb 705b f6bd 29c9 98bd
000000a0: c40d 9b3d b77d 033d fda7 65bd 6891 3e3d
000000b0: ff34 08be 41a1 6bbd 5636 a23d 3af3 dfbd
000000c0: 6a0d 773c 535c c93b 6213 973d d6ca 613c
000000d0: 1093 4f3b 92c3 cd3d cb55 893d 54b3 213c
000000e0: 22dc b33d 87c4 59bd 4f8d 19be 9971 82bc
000000f0: 1cba 003e b3f5 a23c 54fc 66bb 3d1c 8abd
00000100: 4b1f 663d 0c2f c5bd 4fd3 2d3d 3790 bdbb
00000110: 5b69 d03b b767 a8bd 6c1b 933d 53a2 a43c
00000120: 4b7a e33d 4717 9d3d 4674 39bd 161d df3a
00000130: 669d 9c3d 313d bdbd 82e0 823d 22a6 a6bd
00000140: 461e 983d 9eb8 bc3b 75c7 cabd 3d43 70bd
00000150: 2a0e ecbd 5739 a43b b468 a73d 4309 8a3d
00000160: 0007 8a3d 76ae d93d 0f72 f3bc b45a 1bbd
00000170: 9fb5 a13d d4dc 84bc 30af d739 f829 503d
00000180: e43f 87bc 134b a73d 51f8 d03d 2be7 e438
00000190: 22b8 96bd 6845 7abd 7cfc c3bb 5119 00be
000001a0: 8df0 09bc bd37 753c 665b c6bd 1803 21be
000001b0: 1113 0d3d 2538 a43d b120 dc3d ea8c 8dbd
000001c0: 06d2 b93d 2d67 0b3d fbf2 c33b af27 be3d
000001d0: d78c c23d 6e14 12be 598b c8bd de1f 8cbd
000001e0: af5e c9bc 232e 86bc e70f c1bd bf8d c8bd
000001f0: 73d5 76bd 52d8 03be d7e4 e6bb e690 fdbd
00000200: a580 2a3d 0e0d 6b3d b8c3 19be a25e 1dbd
00000210: 37f9 05bd 7baa c13c f6f8 2cbd bcfa 3abd
00000220: ab67 82bd f26e 3f3d 039e 99bd b8c2 a83d
00000230: 7e78 023d 243f 9a3d 7dbb 9dbd 55e7 d1bc
00000240: 8ae4 3bbe 1981 6a3c e315 13be 3b9b 1abe
00000250: b833 fe3c 1170 1a3d 5e2b 5d3d 403a 43bd
00000260: 2a05 95bd 3149 013e 7f63 f33d 9cce f93d
00000270: acdb 063e c168 0bbc 2320 883d fa6f 713d
00000280: b8af 56bd da09 d63d 4400 9cbc 59d7 b23c
00000290: c6f5 9bbd de97 6dbd 20cd 0ebc d056 313d
000002a0: 859b f73c 02c5 f2bd a89d e03a 0022 2fba
000002b0: 2043 ca3c f582 d5bd 17d6 9c3c b7a8 c23d
000002c0: 130e 263d 11d8 90bc 62d9 01be 17f6 8bbd
000002d0: a765 b53d 6d55 1dbd 93bd 833c 3bd4 9b3d
000002e0: 0c54 e7bd 5aaf 9c3d c238 8f3d 4366 47bd
000002f0: 9afa 0f3d 252e c33c 7562 c53d 8beb 0d3d
00000300: 3399 b2bd 4fcb ec3c 2819 c83d a23c cdbb
00000310: a3fc 8cbd b2b5 4cbd 9616 5dbd 9724 dabd
00000320: ec2d 913d 4ae5 5b3d 3b43 46bd fd57 bb3d
00000330: 50b0 01be 13d2 f3bd 5629 823d e5d6 753d
00000340: 6141 8c3d fcbe c83d 191c 8c3d c00a d3bd
00000350: 5dfe 953d 6c53 ca3d 5f8f 00bd 2877 9dbd
00000360: eef6 70bd 4b56 bfbd fce0 aebc 53be 4a3d
00000370: b452 ec3c 5877 5e3b 14ee 2ebd 0e64 27bd
00000380: a90e 9cbd c26e c43d 179e 283d 82de dc3d
00000390: 3e20 4bbc ca12 84bd 1e7c a2bd eabe a73d
000003a0: 5f54 873d e86b 88bd 3d39 d63c ae7f 86bc
000003b0: 0005 99bd dabf a9bd 594d 213d 3647 adbd
000003c0: 4552 ad3d 4c12 fc3d 911d a53d 541b 073d
000003d0: 5400 20be 9d3e d9bc 6c95 dbbd 5a1e a03d
000003e0: a1b8 c1bd 6158 2a3d e0cc 9d3d c7f4 463c
000003f0: 7550 633a ef21 a1bb b757 86bb 04a8 15be
-0.020447923 0.10001182 0.11389978 -0.08597789 0.028271541 0.12594722 -0.057094045 -0.1393931
-0.15664728 -0.0971632 -0.007544812 -0.0057646153 0.031555824 0.031815764 -0.025618399 -0.08713056
0.046915434 0.0076001 -0.10587819 -0.0743291 0.0980957 -0.08807123 -0.009810533 0.08281877
-0.11382931 0.023940152 0.15483572 -0.061438758 0.0060182437 -0.021175921 0.10123809 -0.0037023348
0.058261674 0.12025884 0.11252638 -0.019525306 -0.04860824 -0.00258052 -0.12029159 -0.07460243
0.07570985 0.032102313 -0.05606841 0.04652539 -0.13301466 -0.05752683 0.0792052 -0.10935064
0.015078882 0.006145039 0.07376744 0.01378127 0.003167335 0.10047068 0.06705817 0.009869415
0.087822214 -0.05316594 -0.14995311 -0.015923308 0.12570995 0.01989255 -0.0035245614 -0.06743667
0.056182187 -0.09628114 0.042437848 -0.005785014 0.0063602156 -0.08222907 0.07182965 0.020096933
0.1110731 0.076704554 -0.045276903 0.0017022218 0.07647209 -0.09240187 0.06390478 -0.08137156
0.07427649 0.005759313 -0.09901325 -0.058657873 -0.11526139 0.0050117183 0.081742674 0.06740048
0.067396164 0.10628979 -0.029717473 -0.037928298 0.078959696 -0.01621858 0.0004113852 0.050821275
-0.016509958 0.08168616 0.102036126 0.000109149456 -0.07359339 -0.061101347 -0.005981026 -0.12509657
-0.008419168 0.014966902 -0.096854016 -0.15723836 0.03444201 0.08018521 0.10748423 -0.06911643
0.09073262 0.034033943 0.0059798933 0.09284913 0.09499519 -0.14265606 -0.097922035 -0.06842016
-0.024581281 -0.016379422 -0.09426861 -0.09792661 -0.060262155 -0.12875488 -0.007046323 -0.12381153
0.04162659 0.057385497 -0.15016067 -0.038420327 -0.032708373 0.023640862 -0.042229615 -0.045649275
-0.06367429 0.046736665 -0.075008415 0.08240265 0.03185319 0.07531574 -0.07701776 -0.025623003
-0.183489 0.014313006 -0.14363818 -0.15098278 0.03103052 0.03770453 0.053996436 -0.047662973
-0.072763756 0.12625577 0.11884212 0.12197611 0.13169736 -0.008508862 0.066467546 0.05894468
-0.052413672 0.10451098 -0.019043095 0.021831201 -0.07615237 -0.05800616 -0.008715898 0.04329568
0.030225525 -0.118539825 0.0017136829 -0.00066807866 0.02469021 -0.10425369 0.019145055 0.09504836
0.040540766 -0.017681153 -0.12680581 -0.06834047 0.08857279 -0.038411546 0.016081607 0.07608839
-0.112953275 0.07650633 0.069932476 -0.04868151 0.0351511 0.023825714 0.0963792 0.03464846
-0.08720627 0.028905539 0.09770423 -0.0062633315 -0.06884124 -0.049977966 -0.053976618 -0.1065151
0.07088837 0.053685464 -0.04840396 0.09147642 -0.12664914 -0.11905303 0.063555405 0.060019393
0.068484075 0.098020524 0.06841297 -0.10304785 0.073239066 0.09879193 -0.03138673 -0.07688743
-0.05882924 -0.09342631 -0.021347515 0.049497914 0.02884803 0.0033945646 -0.042707518 -0.040866904
-0.07619984 0.09591438 0.04116639 0.107846275 -0.012397824 -0.06448896 -0.0793383 0.08190711
0.066078894 -0.066612065 0.02615034 -0.016418304 -0.07471657 -0.08288546 0.039380405 -0.08460848
0.08462957 0.12308177 0.0806228 0.032985047 -0.15625125 -0.026519114 -0.10721859 0.07818289
-0.09459043 0.04158819 0.077050924 0.01214332 0.0008671352 -0.0049173753 -0.004099812 -0.14614874

layer1.0.bias f4 [16]
00000000: abab 7f3d cbee 59be 4e0e dcbd ecd9 c5bd
00000010: 5c5c cd3d d926 0e39 058a b13c 69bc 2a3e
00000020: 2c22 efbc 4d67 66bd 492f e73b 7465 f7bd
00000030: b015 c8bd 8194 e23d d749 5fbd 1cd6 bfbd
0.062419575 -0.21282499 -0.10744916 -0.09660706 0.10027382 0.00013556647 0.021672258 0.16673435
-0.0291911 -0.05625086 0.0070551974 -0.120798975 -0.097697616 0.11063481 -0.05451378 -0.0936701

layer1.2.weight f4 [16]
00000000: 4acc 6e3f dc78 733f 3df1 7b3f d630 7c3f
00000010: 0832 783f e391 7e3f 66d1 753f db9a 773f
00000020: 65f1 7b3f 17a6 7f3f 23fe 723f f226 7c3f
00000030: cab4 813f 7a97 7f3f 9a99 823f 731c 803f
0.9328047 0.9510629 0.98414975 0.9851202 0.9695134 0.99441355 0.9602264 0.96720666
0.98415214 0.9986281 0.9491903 0.98496926 1.0133297 0.9984051 1.0203125 1.0008682

layer1.2.bias f4 [16]
00000000: 9347 ea3d 4ee0 cb3c bde5 603e ccf9 323e
00000010: 3def 703e 3636 1e3e a1aa e03d 5ba6 9d3d
00000020: 9ac5 4f3e 6295 a23d c203 703d 1c0f d53d
00000030: 1e50 0e3e fc17 3b3e a775 f4bc 1bb9 293e
0.11439433 0.02488723 0.21962638 0.17478102 0.23528762 0.15450367 0.10970045 0.076977454
0.20290223 0.07938649 0.058597334 0.104032725 0.1389775 0.18270868 -0.029841257 0.16574518

layer1.2.running_mean f4 [16]
00000000: 3d73 4b3e 370e d93d 8396 163e d357 cd3d
00000010: 8dc4 dd3e 00bf 823e 02a6 7f3e aa72 933e
00000020: 8647 413e 9698 6a3e 14f4 963e 4069 e63d
00000030: 4b3b 453e ab67 5e3e 5b16 783e 218f 0c3e
0.19868179 0.105984144 0.14705853 0.10026517 0.4331402 0.25536346 0.2496567 0.2879842
0.1887494 0.2290977 0.29483092 0.112505436 0.192609 0.21719234 0.24227278 0.13726474

layer1.2.running_var f4 [16]
00000000: 8787 c23d 01a5 753d bd87 db3d f848 873d
00000010: e08e 543f e956 863e 4c6d 183e c063 3c3e
00000020: 01e1 343e b96f 253e dbc3 573e 7d39 9d3d
00000030: d03f 4a3e aa70 f53d 4a7b 823e b35f cd3d
0.09498506 0.059971813 0.107192494 0.066057146 0.8303051 0.26238182 0.14885443 0.18397427
0.17663957 0.161559 0.21070807 0.07676981 0.19750905 0.119843796 0.25484687 0.10028019

layer2.0.weight f4 [32, 16, 7, 3, 3]
00000000: 39d8 c2bc a682 9cbc 96ff e8bc 1a30 50bc
00000010: fdd9 d4bc 3e0a 60bd 7019 41bc 831a 82bc
00000020: f65f a5bc 4bc6 173d 36da 483d 8e04 143d
00000030: ad2a 94ba e1a3 7e3d 37a3 9b3b 3b7c 803c
00000040: 9d95 8cbc 547d e1bc c1ff 26bc d293 bc3c
00000050: 7140 7d3c 73f8 02bc 02ea e0bc 4aa5 543c
00000060: 26e5 973b 9d66 9f3a 4c5b d63c 4879 cf3c
00000070: 8006 eb3c dba1 803b 8f66 513d fd40 8a3c
00000080: 711e 2f3d 13a6 383d c810 823d 36f8 fb3c
00000090: abdc dd3b 36cc 953b fb13 b5bc 7231 573c
000000a0: 4f3f 3cbb f871 a3bc da5d 0cbc 7140 57bc
000000b0: 24c0 3cbd f845 03bd 78c1 83bc 5bbc cdbc
000000c0: ce92 92bc 5b75 bb3a 80bd d0bb 5eba cfbb
000000d0: d571 d13c 9ed3 d4bc fd44 923c c4cd 3c3c
000000e0: 1b92 f93c 72c7 b9bc a1b4 e03c fa2d 003b
000000f0: 7a88 0dbb 4729 96bc 675f ed3c 1b51 2d3c
00000100: 8db7 d13c 95d6 763c cf1d fc3c 9d9a 3a3c
00000110: d3ef 9639 eff0 8c3c c26d 8bbc 81da 01bb
00000120: 8e5b 16bc 3297 f33b c342 453d 7206 b7bc
00000130: 35c4 1ebc a436 32bc 9477 8e3b 4eb0 ddbc
00000140: 458d 24bd c784 333d a0e4 d93a 21ae 343d
00000150: c527 8f3c 5028 8b3c 3e2f c63c 4db0 d83b
00000160: 223b 173d 1bf0 813c 7b67 493c 4361 303c
00000170: cda7 a5ba ed7c 423c 0e00 c8bb 2aaf 96bc
00000180: 8acd 863b 08d7 57bc 2207 1b3c 4164 02bc
00000190: 1525 53bc d664 a9bb 103c 09bc d644 a93c
000001a0: 7681 2c3c dc48 ddbb f3fa 093c 624f 07bd
000001b0: 99b3 723c 7444 d4bb 80a8 9fbb bd58 173c
000001c0: f19d 81b9 ac8b 1e3c dfae 82bc b9ae d13b
000001d0: 7f09 3fbd 5f84 cdbb b701 e0bc 83ed c43c
000001e0: b7ba f3bc 6663 1a3c d6e5 1d3c 2a3e d4bc
000001f0: efbb c7bc 9db3 82bc 1eb1 9cbc 2a6d 7cbc
00000200: 1582 b3ba 6663 58ba 80be 923c fca2 983c
00000210: a508 a5bc 1ebf a0bc 0d2b c6bb b748 c6ba
00000220: aa9e bfb9 6b89 9bbb 7a1d 493c 3623 5a3c
00000230: 93a0 053c dfed 2bbb fae0 d0bb 681b c9bb
00000240: 8f46 983a e9e5 883c d3b3 64bb 13a7 25bc
00000250: 593e 04bc 141b 9ebb 4bcb febc 81cf 17bd
00000260: 56ca d3bc 2187 023d a740 073c be9d d83c
00000270: b712 84bb dee0 5bba a76f 60bc 1057 3fbd
00000280: 2f02 27bd bed8 ba39 f367 ebbc 3654 2fbb
00000290: 68e4 a23c 038d bc3c 7572 e0ba af77 df3c
000002a0: bc71 87bb f9d0 7abc b683 653c 3bfd f1bc
000002b0: 57b6 82bd e2e6 40bc 5459 f8bc 0a7a 40bd
000002c0: 8f44 25bd 45ea 1bbd a71e bebc db29 1abc
000002d0: e347 c7bb a492 ac3c a670 dab9 f5e7 493d
000002e0: 1e0e bf3c a710 3d3d b52a f73c 04f9 943c
000002f0: 318a bcbb cd1f 943c 784b 8ebc af61 01bd
00000300: 9815 ff3b 419f 0bbd 3712 d83b 1794 d8bb
00000310: 7ce1 8eba a326 8dbb d4af babc ef46 3abd
00000320: 357b 35bc fba5 523c 97f0 863c a398 d9bc
00000330: cd18 f7bb a0ef 043b 5abf e4bc c836 3abd
00000340: 86aa eabc 8e38 2cbd 3890 d6bc 3f74 31bd
00000350: 41c4 a7bc d353 8abd 0179 7fbd c261 1dbc
00000360: 1e61 4fbc 1ecb 2dbd ed6b 08bd 03fd b5bc
00000370: b6cc 31bd 6f1d d0bc ed56 92bc d2fc 39bd
00000380: 08d3 2abd f74d b0bd d133 a5bd 2c92 a7bd
00000390: 7dae 89bd 80d1 88bc 4dcb b2bb 03de 95bd
000003a0: c8b2 a9bd b973 6bbd 0afa b13c e478 a73c
000003b0: a930 953c 54ee b73b 5c0b d03c 740d ad3c
000003c0: 508c 33bd 0976 0ebc 89e9 94bd 8b3f 87bc
000003d0: 8eba 88bd f809 54bb 49c9 113c d0e3 ae3c
000003e0: 4458 f2bc f015 65bc 459b 763a 88c3 3dbd
000003f0: 6eb3 a4bd e3c9 36bd 654a 9b3a 062a b3bd
-0.023784744 -0.019105267 -0.028442185 -0.012706781 -0.025982851 -0.054697268 -0.01178585 -0.015881782
-0.02018736 0.03705434 0.049036227 0.036137156 -0.0011304222 0.062168006 0.0047496813 0.015684238
-0.017161185 -0.027525581 -0.010192812 0.023019705 0.015457259 -0.007993805 -0.027455334 0.012978861
0.004635471 0.0012161318 0.02616658 0.025326386 0.028689623 0.0039255447 0.051123198 0.016876692
0.04275364 0.045080256 0.06350857 0.030758005 0.0067706904 0.004571463 -0.022104254 0.013134347
-0.0028724258 -0.019951805 -0.008567298 -0.013137923 -0.046081677 -0.03204915 -0.016083464 -0.025114229
-0.017892268 0.0014301942 -0.0063702464 -0.0063393554 0.025566975 -0.025979813 0.017855162 0.011523668
0.030465176 -0.02267811 0.02742988 0.0019558654 -0.002159624 -0.01833023 0.028976155 0.010578419
0.02560022 0.015065809 0.030775933 0.011389402 0.00028788912 0.01720473 -0.01702011 -0.0019814076
-0.009177102 0.0074337954 0.048159372 -0.02234194 -0.009690334 -0.010877285 0.004347751 -0.027061608
-0.040173788 0.0438278 0.0016623922 0.044111375 0.017475018 0.016986996 0.024192449 0.0066128136
0.036921628 0.015861562 0.012292738 0.0107653765 -0.001263851 0.011870605 -0.006103522 -0.018394072
0.0041138576 -0.013173826 0.00946215 -0.007958473 -0.012887259 -0.0051694913 -0.008376136 0.020662706
0.010528913 -0.0067530703 0.008421647 -0.03303469 0.014813327 -0.006477887 -0.0048723817 0.009237465
-0.00024722473 0.009676855 -0.015952526 0.0063990024 -0.046639916 -0.0062718834 -0.027344568 0.024039036
-0.029752119 0.0094231125 0.009637317 -0.025908548 -0.024381606 -0.015954787 -0.019127425 -0.015406886
-0.0013695384 -0.00082545576 0.017913103 0.018632405 -0.020145724 -0.019622382 -0.0060476125 -0.0015127872
-0.00036548573 -0.004746606 0.012275094 0.013314059 0.00815596 -0.0026234312 -0.0063744755 -0.0061373003
0.0011617708 0.016711192 -0.0034897223 -0.010110634 -0.008071505 -0.0048250053 -0.031102797 -0.037063126
-0.025853317 0.03186715 0.00825516 0.026442405 -0.0040305513 -0.0008387695 -0.013698495 -0.04671389
-0.040773567 0.0003563817 -0.02873609 -0.0026753074 0.019884303 0.023016458 -0.0017123955 0.02727875
-0.0041334312 -0.015308612 0.014008453 -0.029539695 -0.06382435 -0.011773797 -0.030316032 -0.046991386
-0.040348586 -0.038065214 -0.023207976 -0.009409393 -0.0060815676 0.021066017 -0.0004166413 0.049293477
0.023322161 0.04615846 0.030171731 0.018185146 -0.0057537784 0.01808157 -0.01736997 -0.0315873
0.0077845566 -0.034087423 0.0065939683 -0.0066094506 -0.001090094 -0.0043075844 -0.02278892 -0.045477804
-0.011076738 0.012856956 0.016472144 -0.02656204 -0.0075407983 0.002028443 -0.027923275 -0.0454624
-0.028645765 -0.042046122 -0.026191816 -0.04332375 -0.020479323 -0.067542695 -0.062371258 -0.009605827
-0.012657432 -0.042430036 -0.03330605 -0.022215372 -0.04340812 -0.02540466 -0.017863715 -0.045407124
-0.04170516 -0.086086206 -0.08066524 -0.08182177 -0.06722734 -0.01670146 -0.0054563642 -0.07317736
-0.08286053 -0.05748341 0.021725673 0.020443387 0.01821168 0.0056131277 0.025396042 0.021124579
-0.043834984 -0.008695134 -0.07271106 -0.016509792 -0.066762075 -0.0032354575 0.008898088 0.021348864
-0.029583104 -0.013982281 0.0009407292 -0.04632905 -0.08042036 -0.044626128 0.0011847733 -0.0874825

layer2.0.bias f4 [32]
00000000: 0a59 1d3b 3bc2 1ebe e74c cdbd b8cd c3bd
00000010: 97a7 24bc b024 e3bd 40ca c4bc 7e1a 8abd
00000020: b3df febd 6200 1bbe e3ef 94bd b727 acbd
00000030: e61b c8bd 4236 0dbe e515 2abd ae10 8cbc
00000040: 6d80 26bd 133b 9ebd e0f1 dbbd 27c9 543d
00000050: 71e4 c7bd 07a9 24bd a4ca 95bd 1d03 2cbd
00000060: 0d19 9bbd e496 8c3c 281b e6bc 03e9 0abe
00000070: d61c 3fbd e6b1 cebd 08b1 c8bd 92ca 43be
0.002400937 -0.1550378 -0.100244336 -0.09560722 -0.010049722 -0.11090982 -0.024022222 -0.06743334
-0.12445011 -0.15136865 -0.07272317 -0.084060125 -0.09770946 -0.13790229 -0.041524787 -0.017097797
-0.04064982 -0.07726111 -0.10739493 0.051949646 -0.097603686 -0.04020026 -0.07314041 -0.041995157
-0.075731374 0.017161794 -0.028089121 -0.1356545 -0.04665836 -0.10092525 -0.09799391 -0.19120243

layer2.2.weight f4 [32]
00000000: 5e57 7d3f 756a 803f 7646 783f 5bc0 803f
00000010: fa57 793f 1578 7f3f c005 7e3f d4dd 7b3f
00000020: 9580 723f 9eba 7f3f 100c 7d3f 9032 823f
00000030: 810d 783f bd03 863f 691d 7c3f 66c1 813f
00000040: f341 793f 364b 7b3f 7b60 733f f205 803f
00000050: 45fe 833f 8e5d 793f 435e 7a3f 21ae 7c3f
00000060: 18cc 833f 9c73 793f cda9 7e3f 5286 813f
00000070: 211b 853f 7a94 803f 0ac1 7d3f 2ae5 7f3f
0.98961437 1.0032488 0.96982515 1.0058702 0.97399867 0.99792606 0.99227524 0.9838536
0.9472745 0.9989413 0.9884653 1.017168 0.96895605 1.0469891 0.98482376 1.0137146
0.97366256 0.9816164 0.9506909 1.0001814 1.0311972 0.9740838 0.9780008 0.987032
1.029666 0.9744203 0.99477845 1.0119116 1.0398904 1.0045311 0.9912268 0.9995905

layer2.2.bias f4 [32]
00000000: 3dbf bb3c 128a ee3d df5e 583e 6f8a b13d
00000010: a836 7b3d 91dc 593c f93e 293e c4db 5f3e
00000020: 1292 203e 3d7a 283e bc96 89bc 83eb 003e
00000030: 2538 163e 640b 243e 2d29 643d 6fee e0bd
00000040: 6217 433e 681c 1d3e b1c0 a03d 9005 823d
00000050: 8158 d2bd 36fc 6abc 228f 0f3e dc99 0e3e
00000060: c3f0 0c3e 26b7 fbbc 7650 4d3e 51c8 223e
00000070: 2e79 f03a 192b b13d bfac f03d f293 cb3d
0.022918338 0.116474286 0.2112994 0.08668982 0.06133142 0.013297216 0.16527928 0.21861178
0.15680721 0.1645288 -0.016795509 0.1258984 0.14669855 0.1601997 0.05570333 -0.109829776
0.19051889 0.15342867 0.07849253 0.06348717 -0.10270787 -0.014342358 0.14019445 0.1392588
0.13763718 -0.03072698 0.20050225 0.15896727 0.0018346661 0.08650798 0.11751699 0.09940328

layer2.2.running_mean f4 [32]
00000000: d49e a93e 9293 e63d e38b 363e 263d 963e
00000010: 17f3 233e d7d9 293e 222c d53d 4fe8 9c3e
00000020: dfe8 3d3e 0eaa 143e 63b3 703e 56aa d93d
00000030: 92e7 6e3e 1ae2 ba3d caef 3f3e 5dae 793e
00000040: 7428 a83e 16af 863e 2c05 dc3d 4082 ab3e
00000050: a9ed a03e 1198 263e c22a e43d c5ab 2c3e
00000060: bd32 463e 358c 9d3e 544d 9a3e 05b7 fe3d
00000070: 1705 243e d59e 453e c143 f03d 5cc8 213e
0.3312899 0.112586156 0.178268 0.29343528 0.160107 0.16587006 0.10408808 0.30645987
0.18545865 0.14517996 0.2350593 0.10628192 0.23330525 0.09125157 0.18743816 0.2438292
0.32843363 0.26305455 0.10743174 0.3349781 0.3143132 0.16268946 0.11140968 0.168624
0.19355293 0.30771032 0.30137122 0.12437252 0.16017567 0.19298871 0.11731673 0.15799087

layer2.2.running_var f4 [32]
00000000: 8d6b d23e 4666 983d cdae 573e cad6 7a3e
00000010: 3e07 f53d 4d22 e73d 79d6 bd3d 76fc c53e
00000020: d44d 0d3e 2de6 173e 0394 d73e a636 913d
00000030: 79c4 693e badb 873d 6d07 303e 719f 483e
00000040: f408 d83e 5677 493e 6b64 b43d 7458 7a3e
00000050: 8316 bc3e 4a3f d03d a152 de3d d128 bc3d
00000060: 5561 243e f843 823e 2510 b23e 44b8 8f3d
00000070: 31b5 ed3d d68d 0d3e 7f40 ac3d d054 b93d
0.4109768 0.07441382 0.21062775 0.24495998 0.11964272 0.11285839 0.09269423 0.38669175
0.1379922 0.14833899 0.4210511 0.070905015 0.22828855 0.066337064 0.17190333 0.19592072
0.4219433 0.1967443 0.08808216 0.24447805 0.36735925 0.101683214 0.10855604 0.091874726
0.16052754 0.2544248 0.34777942 0.07017568 0.11606825 0.13823637 0.08410739 0.0904938

layer3.0.weight f4 [64, 32, 7, 3, 3]
00000000: 9ec2 c9bc 94f1 cabc 9b56 3ebc 834d 17bb
00000010: d17d 4abb bab1 d8bc bd20 9dbc e960 93bb
00000020: ec89 0abd 623d c2bb f6a1 28bc 2084 f5bb
00000030: 373e a63c 8609 13bc 9f6c 893c cc9f 233c
00000040: fb53 693c 85b5 12bc cbe3 82bc 2cad 8c3c
00000050: fc44 cdbc 2eb8 18bb c32d d13c fa3b a8bb
00000060: f90d d63c 377c d03b 5d22 d1ba e69d 723b
00000070: 8eb1 b63c b62c 2e3c 5550 893a 3cd2 cf3b
00000080: e54a b5bb 07f6 6bbc c78d 453c d624 95ba
00000090: e75d 7f3c 69f4 503c 0368 5fbc 3339 5dbb
000000a0: c9c2 1c3d e12d e7bb 867a bbbb 7005 243c
000000b0: 1a92 58bc d446 f5bc be43 04bd 7ae3 4dbc
000000c0: 8359 0cbc f0e2 0bbd 5bc1 09bd b006 94bb
000000d0: 9c61 a9bc 5032 98bc 8635 0cbc ffea d2ba
000000e0: 4af5 67bc 0e08 393c e875 7dbb c779 b6bc
000000f0: 1196 443b ebec 433c d43a 87bc a6f8 003c
00000100: 4177 c739 0c37 fdbc cf2a 8c3b 4dda 8dba
00000110: 5ebd 27bc 553a 803c 31db 393b 46f5 7dbc
00000120: 1e12 d63b d46c 24bc 30d7 f2bb cd62 a3bb
00000130: 28f7 a2bb 01ad 29bc bd1f aa3c c6e5 343c
00000140: ec97 583c 5880 67bc aa29 45bc e1ed 30bb
00000150: 3208 dabc 94d2 d6bc ff0c 1bbd 9cc0 22bd
00000160: 7451 07bd 70ac 46bd bb15 813c b405 b6bb
00000170: cd25 a73b 853a 5abb 14bc 27bb 89df bc3a
00000180: 7a43 ab3c 5a0c a93b 63b6 513c f02f 0fbc
00000190: 15a8 89bc c121 aa3a fceb 99bc 3f0f 75bc
000001a0: 4815 95bb 3aa4 a5ba db21 0cbc f93b 3b3a
000001b0: 7433 863b 9a5c 5e3c 3c42 b83b 3703 0e3b
000001c0: 8dc4 20bc 4a73 79bb 16ad 2a3b a888 2cbc
000001d0: ea0c 27bc c980 b5bb d6e9 9eba 3b3b d33b
000001e0: 607e aebc 6b41 54bc 4dee dcbb 7694 543c
000001f0: 9843 ee3a a001 fd3b 950d b3bc 0b01 b03b
00000200: 8d36 90b9 979a 703a 606f acb8 0736 1a3d
00000210: 1999 5d3b 873f ca3c e5cf 233d 73c5 85bc
00000220: ee2d 8c3b f8ba 82bc aae0 ea3b 0740 cb3b
00000230: 682f 8ebc 7cac 813c bc91 ab3c 7c15 153b
00000240: 7167 95bb 4f98 85ba f8e7 87bc a467 813a
00000250: 9501 3ebb 6320 9cbc 5930 7cbc d3b7 b7bc
00000260: 6ec4 84bc 0f2c 47bc 88c3 6cbb 2628 a0bc
00000270: f669 4d3c 77fe 213c e661 cdbc d802 ae3c
00000280: ee40 783c 8e34 9dbc fc29 a1bc 7e35 3bbb
00000290: 10a1 a8bc ffa8 9ebb 13b7 b7bc d64d 0fbd
000002a0: 3edb 9dba 5d24 cc3b e369 dbb9 537b 86bc
000002b0: b345 a8bc 1e2b 2ebd 3c40 dfbb e9aa 32bc
000002c0: d822 00bd df61 04bc 1d37 afbc 1850 aabc
000002d0: 6672 283c 9b40 82bc 44af 9e3c 1b17 a5bc
000002e0: 8ce7 f93a e890 bb3c c57b cdbc ef42 563c
000002f0: 7eb9 dc3c 788c f0bc 3f6d a2bc 2952 babc
00000300: dfb2 1abd 217b 6bbc dd28 a5bb 8a3f b9bc
00000310: 0ac4 98bb d850 20bb e31d f53a b0bd 56b8
00000320: a701 45bb 43e4 44bc 5e69 dabc c8c9 f8bb
00000330: 4688 89bc eb5e c7bc 3e66 383c c936 02bc
00000340: b43a 5dbb 5144 9bbb 00f8 9b3b b7fe 5e3b
00000350: 8acb 213b 697b bcbb d4b9 aa3c dc38 b43c
00000360: 898b 293c faab eabb 5bff d7bb df00 1cbc
00000370: 54d4 c0bc b001 dbbc e47f b3bc e500 f4bc
00000380: 559a 8abc 46f7 b13c 9223 b73b 3950 2fbd
00000390: b4f1 643c 3822 d33c 7480 cabc 4d06 c33c
000003a0: 2cf0 b2ba e76e c2bc 5efd f83c 846d 593c
000003b0: c8d8 f2bc a35d 183c ca18 46bc fe40 4abd
000003c0: 0adc c03b 085c ceba 0137 f0bc a5dd bb3c
000003d0: abe0 c33c f67c edba 8c3f fc3c c6cf af3c
000003e0: 502a 303b c655 843b 43d4 323c fabd 8bbb
000003f0: b788 56bb 69cd 183c 2699 013c 5a5e 853b
-0.024628934 -0.024773397 -0.011617328 -0.0023086972 -0.0030897746 -0.026451934 -0.01918065 -0.0044976366
-0.03382294 -0.0059277276 -0.010292521 -0.007492557 0.020293338 -0.0089744385 0.016775427 0.009986829
0.014241214 -0.00895441 -0.01597776 0.017172419 -0.025057308 -0.002330314 0.025534516 -0.005134103
0.02612971 0.006362464 -0.0015955676 0.0037020384 0.022301462 0.010630777 0.0010476211 0.0063422006
-0.0055326098 -0.014401919 0.012057728 -0.0011378776 0.015586353 0.012753584 -0.013635638 -0.0033756017
0.0382717 -0.0070550297 -0.005721393 0.010011062 -0.013218427 -0.029941 -0.032291166 -0.012566442
-0.008566263 -0.03415197 -0.033631664 -0.004517399 -0.020676427 -0.018578678 -0.008557683 -0.0016091763
-0.014157603 0.011293424 -0.0038675014 -0.022274865 0.0029996673 0.011958341 -0.016507544 0.007871782
0.0003804509 -0.030910037 0.004277564 -0.0010822505 -0.01023802 0.015652815 0.0028359408 -0.015500372
0.0065329215 -0.010035712 -0.0074109063 -0.004986143 -0.004973311 -0.010356189 0.020767087 0.01104111
0.013219815 -0.014129721 -0.012033859 -0.0026997256 -0.026615236 -0.026223458 -0.03785419 -0.039734468
-0.033036664 -0.048504293 0.015757432 -0.005554879 0.0051009418 -0.003329904 -0.002559428 0.001440988
0.020906199 0.005158943 0.012799832 -0.008739457 -0.01680378 0.001298003 -0.018789284 -0.014957248
-0.004549656 -0.0012637444 -0.008552994 0.00071424205 0.004095489 0.013571883 0.00562313 0.0021669397
-0.009812486 -0.0038063102 0.0026043109 -0.010530628 -0.01019595 -0.005539034 -0.0012124132 0.00644627
-0.021300495 -0.01295505 -0.006742275 0.012974849 0.0018178103 0.007721141 -0.021857062 0.005371218
-0.00027506464 0.0009178309 -8.222344e-05 0.03764918 0.0033813177 0.024688495 0.039993186 -0.016329503
0.004277936 -0.015958294 0.0071678953 0.006202701 -0.01735659 0.015829317 0.020943515 0.0022748401
-0.0045594503 -0.0010192486 -0.016590104 0.0009872806 -0.0028992642 -0.019058412 -0.015392386 -0.022426521
-0.016206946 -0.0121565005 -0.0036127288 -0.019550394 0.01253747 0.009887329 -0.025071096 0.02124159
0.015152199 -0.0191901 -0.01967334 -0.002856582 -0.020584613 -0.0048419232 -0.022426164 -0.03498634
-0.0012043489 0.006229921 -0.00041849827 -0.016416227 -0.020541048 -0.04252159 -0.0068130773 -0.010905006
-0.03128323 -0.008079975 -0.021388585 -0.020790145 0.010281181 -0.015899947 0.019370683 -0.02015262
0.0019066199 0.022896245 -0.025083432 0.013077482 0.026943918 -0.029363856 -0.019827483 -0.022744255
-0.03776824 -0.014372618 -0.0050402717 -0.022613306 -0.0046620416 -0.002446225 0.0018700924 -5.1198236e-05
-0.00300608 -0.012017312 -0.026661571 -0.0075924136 -0.016788613 -0.024337253 0.011254845 -0.007947632
-0.0033756914 -0.0047383686 0.0047597885 0.0034026334 0.002468797 -0.0057520163 0.020840563 0.021999769
0.010348209 -0.0071616145 -0.00659172 -0.009521692 -0.023538746 -0.026734203 -0.021911569 -0.029785583
-0.016919294 0.021724354 0.005588957 -0.042801116 0.013973642 0.025773153 -0.024719454 0.023806715
-0.0013651899 -0.023734523 0.030394252 0.0132707395 -0.029644385 0.0092996685 -0.012090871 -0.049378388
0.0058856057 -0.001574398 -0.029323103 0.022932837 0.023910841 -0.0018118906 0.03079202 0.021461379
0.002688069 0.0040385453 0.010914865 -0.0042645903 -0.0032735297 0.009326317 0.007910049 0.0040700855

layer3.0.bias f4 [64]
00000000: e7d8 7dbd ffbc cdbb 44a0 bebc e107 3dbc
00000010: 694c 78bd 85ae 8abd 7dcf 04bd 24fa adbd
00000020: 070a 46bd 6c3e 32bd b15d b5bc 6b00 08bc
00000030: 08da a2bd 98bb 7dbd 4a82 a6bd 9f0f 2abd
00000040: dcc2 a2bd f21f 8ebd 77dc 1abd ffb3 eebc
00000050: 76f7 40bd 7c03 16bd 21bf 113a bafb 5fbd
00000060: 331a 44bd e0fc cbbc 4caf 37bd 82b0 d43c
00000070: d907 27bc 55e5 9dbd 1559 4bbd e896 cbbd
00000080: d0c8 93bd bbf4 88bd 0040 50bd ae67 273c
00000090: 5126 75bd 4f7c 37bd 5741 d7bd 4ddd 47bd
000000a0: 3067 dcbd c479 3bbd d3bd 65bd 15b8 acbd
000000b0: c818 b4bd c698 95bd 450c 9cbd 98cd 883d
000000c0: 23d4 9cbd fa25 acbd 6be2 c8bd c54b 1cbd
000000d0: 4566 e6bd 89ff b9bc 10b5 6cbd 4580 79bd
000000e0: 816d bdbd 5038 8ebd 2c07 cabd fee0 9abd
000000f0: 2d1d a0bd 71e2 85bd 709f 17bd 9fe1 0ebd
-0.061974432 -0.0062786336 -0.02326978 -0.011537523 -0.060619745 -0.06771568 -0.03242444 -0.08494976
-0.048349407 -0.04351656 -0.022139402 -0.008300881 -0.079517424 -0.06194648 -0.081303194 -0.041518804
-0.07947323 -0.06939687 -0.037807908 -0.029138563 -0.047110997 -0.036624417 0.00055597915 -0.054683425
-0.047876548 -0.024900854 -0.04484491 0.025963072 -0.010194742 -0.07709757 -0.049645502 -0.099408925
-0.07216036 -0.06687304 -0.050842285 0.01021759 -0.059850994 -0.044796284 -0.105105095 -0.048795033
-0.10761869 -0.04577042 -0.056089234 -0.08433548 -0.08793789 -0.0730453 -0.07619528 0.06679839
-0.07657649 -0.08405681 -0.09808811 -0.038158197 -0.11249975 -0.022704856 -0.057789862 -0.060913343
-0.09249402 -0.069443345 -0.09864649 -0.07562445 -0.07818065 -0.06537331 -0.037017286 -0.034883138

layer3.2.weight f4 [64]
00000000: 9cbe f33f 4448 f53f ec43 f63f 9009 f73f
00000010: 5822 f63f 71f9 f23f afea f33f 71c4 f73f
00000020: 5e9d f13f 2543 f53f ca37 f83f 57a3 f33f
00000030: 9af7 f23f 7e09 f43f 2051 f53f 0da4 f13f
00000040: fab9 f43f 22ee f33f 8efe f13f 16eb f33f
00000050: 017b f53f 8bbc f33f 7c7e f33f 8c93 f33f
00000060: a9ba f43f 2df9 f33f c3c4 f93f 1ca3 f63f
00000070: 0c5f f53f cc47 f43f 5926 f23f a894 f43f
00000080: 765d f63f ec1d f83f 53a3 f33f 5d31 f33f
00000090: d2cd f73f 4d1c f53f 19af f43f 42d3 f43f
000000a0: 61b0 f33f cb11 f33f f757 f83f 9bc3 f63f
000000b0: 250e f33f b35e f53f 27dd f63f a72b f03f
000000c0: 4924 f43f bad1 f33f fd9e f43f 54c9 f93f
000000d0: 598e f53f af6e f53f c0c7 f53f 2944 f93f
000000e0: ee4e f53f b6fd f63f 160e f43f 2091 f33f
000000f0: d2e0 f03f 6391 f53f 93b9 f43f df63 f53f
1.9042544 1.9162679 1.9239478 1.9299793 1.9229231 1.8982373 1.9055995 1.9356824
1.887615 1.9161116 1.9392025 1.9034222 1.8981812 1.9065397 1.9165382 1.8878189
1.9119256 1.9057047 1.8905809 1.9056118 1.9178163 1.9041914 1.9022975 1.9029403
1.9119464 1.9060417 1.9513172 1.9268527 1.9169631 1.9084411 1.8917953 1.9107866
1.9247272 1.9384131 1.9034218 1.899944 1.9359686 1.9149262 1.9115936 1.9126971
1.9038202 1.8989805 1.9401845 1.9278444 1.8988692 1.9169525 1.928624 1.8763322
1.9073573 1.9048378 1.9111019 1.9514565 1.9184066 1.9174403 1.9201584 1.9473926
1.9164712 1.9296176 1.9066799 1.9028664 1.881861 1.9184994 1.9119133 1.9171103

layer3.2.bias f4 [64]
00000000: 5139 1aba 65fc 71b9 d853 27b9 5a66 b839
00000010: 545d 32b9 2201 24ba 8106 f8b9 437e 403a
00000020: 0f09 5aba a273 51b8 a0cb fa39 bc03 9738
00000030: df5a 8d39 a23e 2cba 8ad1 89ba 3f4f 52ba
00000040: 8063 f2b9 5b11 d5b9 e731 fc38 990d b2b9
00000050: 98c8 5b3a eeca 6339 3f22 f2b9 66db 40ba
00000060: 1f24 1bba 3026 87ba f7c4 0b3a 3f97 1eb8
00000070: 3f42 89b8 17f5 a639 23a9 22ba db74 83ba
00000080: 5f8c f6b8 69b6 9fb8 f16d 47b9 4adb deb9
00000090: d7f2 b539 ae13 a4b9 f0fd 4bba befa 95b7
000000a0: 33c7 7739 a375 4fba 8f48 b939 3763 133a
000000b0: 11de cbb9 36c8 d238 5ade bf39 c689 2b39
000000c0: 8b0f 7339 fb56 3fb9 8549 31ba bacc 99b9
000000d0: 4a4c 5dba a5ab 9cb8 75a2 dd39 07bb e1b9
000000e0: 6340 56ba 3384 13ba b643 dab9 5bbd 95b9
000000f0: 893d 663a 6704 2cba 50c5 d139 dd60 50ba
-0.00058831746 -0.00023077575 -0.00015957595 0.00035171473 -0.0001701017 -0.00062562723 -0.00047307092 0.0007343033
-0.000831739 -4.9937174e-05 0.00047835428 7.200937e-05 0.0002696132 -0.00065706123 -0.0010514718 -0.0008022673
-0.0004623197 -0.00040639457 0.000120255914 -0.00033960937 0.0008384078 0.00021724004 -0.00046183352 -0.00073569117
-0.0005918163 -0.0010311063 0.0005331779 -3.7810994e-05 -6.5450084e-05 0.00031844593 -0.0006205013 -0.0010029332
-0.0001175634 -7.615687e-05 -0.00019019075 -0.00042506523 0.0003470394 -0.0003129518 -0.0007781675 -1.7878945e-05
0.00023629963 -0.00079139526 0.0003534001 0.0005622389 -0.0003888463 0.000100508725 0.00036596024 0.00016359155
0.00023180076 -0.00018247582 -0.00067629694 -0.00029334967 -0.0008441849 -7.470631e-05 0.00042273445 -0.0004305469
-0.00081730465 -0.0005627304 -0.0004163065 -0.00028560575 0.0008782973 -0.00065619353 0.00040010596 -0.0007949004

layer3.2.running_mean f4 [64]
00000000: 0bd2 593e f6fa 2a3e 1c9c bc3d 2e8f 433e
00000010: f42f 503d 6d21 623e 2155 ca3e 1f74 093e
00000020: 6585 8a3e b189 043e f5fd 0b3e d052 f63d
00000030: 6c68 1a3e 86f5 8e3e 8c7c 393e 6153 3e3e
00000040: e332 523d 3326 1f3e fa9d 023e 0fcd be3e
00000050: 1734 363e ae86 fa3d fd67 683e 7875 5a3e
00000060: 216c 043e d061 b93e dad8 103e 8e5c 4b3e
00000070: 4fa4 503e 9cdc eb3d d5d7 3b3e f345 3c3e
00000080: 3d43 593d 21f0 6a3d 696f 1e3e e835 123e
00000090: 2683 643d 09e0 c93d 031e 3b3e 09aa 073e
000000a0: e87d db3d 52b0 1c3e f567 603d 3971 063e
000000b0: 04fe 1a3e 8aec d53d 59b3 063e d7af 8e3e
000000c0: 3895 053e 90c0 033e 39ab 233e 5283 0b3e
000000d0: 4c6b 303e d9bd 003e 0a9e 343e f435 a33d
000000e0: 57a9 473e dd1c af3d 3567 1d3e 2836 223e
000000f0: a9a4 f83d e3c0 4b3d 4921 093e cc11 8c3d
0.21271531 0.16697297 0.09209463 0.19097587 0.05082698 0.22083063 0.39518073 0.13423203
0.27054897 0.1294315 0.13671096 0.12027514 0.15078896 0.27921695 0.18113917 0.18586494
0.05131806 0.15541916 0.12755576 0.37265822 0.17793308 0.12232719 0.22695918 0.21333873
0.12931873 0.36207438 0.14145222 0.19859526 0.20375179 0.11516687 0.18344052 0.18386059
0.05304264 0.05735791 0.15472187 0.14278376 0.055789135 0.098571844 0.18273167 0.13248457
0.10717374 0.15301636 0.05478664 0.13129129 0.15135962 0.10445507 0.13154353 0.2786853
0.13045204 0.12866426 0.15983285 0.13624313 0.1722843 0.12572421 0.17638412 0.07969275
0.19498192 0.08550427 0.15371402 0.15840971 0.121407814 0.049744498 0.13391604 0.06839332

layer3.2.running_var f4 [64]
00000000: 8ded fa3e 2a96 983e 2f75 133e d93b 8e3e
00000010: b413 5f3d aa9d 063f 30ac aa3f 68de 453e
00000020: 580e 1d3f 8f18 3a3e f7bf 463e b8a0 1d3e
00000030: 993a 843e c0ff 5a3f 2834 b83e 9db0 be3e
00000040: f977 5d3d f1c5 863e 7cd7 2e3e 14b6 963f
00000050: 3ca0 823e e92b 243e b0c2 dd3e 3544 fc3e
00000060: f710 3a3e 3ea2 8e3f e058 5b3e 71a3 953e
00000070: fce5 933e ca43 2c3e 9193 ba3e 8c99 bd3e
00000080: b84c 6d3d c2bc 993d 69a0 853e 7d97 5d3e
00000090: a794 923d 6178 f93d 5a6b bb3e 05db 613e
000000a0: a05d 153e eb9b 823e 8e94 8d3d bf29 3d3e
000000b0: fecb 7f3e 7980 0a3e 7fe1 3d3e 6f3a cb3e
000000c0: 2ce1 3c3e 80c6 373e e5ba 8e3e 6090 4b3e
000000d0: e582 a63e 21e5 2d3e dc53 7b3e c99e ac3d
000000e0: 659a d53e 97d0 a93d b7d5 833e 2ef0 8b3e
000000f0: 3b9a 233e a2e3 553d feb5 3f3e 353b 673d
0.49009362 0.29802066 0.1440017 0.27780035 0.05446215 0.52584326 1.3333797 0.19323123
0.6135001 0.18173431 0.19409166 0.1539334 0.25825956 0.85546494 0.35977292 0.3724412
0.054069493 0.26322892 0.17074388 1.1774316 0.25512874 0.16032375 0.43312597 0.49270788
0.18170534 1.1143262 0.21420622 0.29226258 0.28886402 0.16822734 0.3644071 0.3703121
0.057934493 0.07506706 0.26098946 0.2163982 0.071572594 0.121811636 0.3660534 0.22056206
0.14586496 0.2550958 0.069131 0.18472956 0.2498016 0.13525571 0.18543051 0.3969302
0.18445271 0.17946815 0.27876964 0.19879293 0.3252174 0.16981937 0.24543709 0.08428723
0.41719356 0.082917385 0.2574899 0.2733168 0.15976803 0.05221904 0.18721768 0.05645295

fc1.0.weight f4 [32, 1600]
00000000: eaf5 433c 1faf bb3c 8aa0 60bc d0c2 9bbc
00000010: 0029 e2ba ee24 2e3c a284 6f3c 788e 9cbc
00000020: a3cd a6bc d553 b03c 9d7d ccbc 0422 f23b
00000030: 8063 e33a e191 903c 6252 86bc 00cc fd3a
00000040: 1e53 513c 6686 a3bc e042 843a 8b1a a63c
00000050: 735d 77bc 35a6 9c3c 5030 2d3b 70db 4fbc
00000060: 01c3 b73c 4661 093c d605 073c e4dc fb3b
00000070: 9957 ab3c bb2b babc c0a9 82bc 4076 c5bb
00000080: e099 e9bb 3367 51bc 4046 9ebb 139e 8e3c
00000090: 1a40 663c cc36 bc3b 2b8b 963c b0de ccba
000000a0: fbd3 94bc 9d72 49bc 222e 303c 0b4b b0bc
000000b0: 6360 9abc 4ca4 863b 547e a2bb 9d60 8f3c
000000c0: 60db 7d3a d3f5 1bbc 8209 a9bc 5043 0abb
000000d0: e103 a33c a6c9 00bc 58fb a7bc 1ec2 93bc
000000e0: 227d 753c 55f2 85bc d829 1e3b eaf1 423c
000000f0: bd1c 44bc 5209 643c 00fa d839 0250 c6bc
00000100: 9186 ba3c b412 9f3b b0f6 ddba a8e5 bebc
00000110: 63f6 19bc fae5 21bc 6dc9 c83c 9795 bbbc
00000120: 10a6 1e3b 4c9b 83bb ec0a e9bb d8e3 26bb
00000130: 5db5 99bc 86ff 0c3c b5fe 84bc 3ede 153c
00000140: be1b a5bc 809f 97bb a2c9 743c 597a 9c3c
00000150: 9209 b7bc 5011 f33a eee4 483c 1072 13bb
00000160: ed24 913c 2ad8 7cbc 0654 103c b7e2 34bc
00000170: 5282 103c 8203 6f3c 55ef b0bc 98b0 933b
00000180: 60c8 3aba b50d 893c ccd4 f2bb b4d2 cbbb
00000190: ae2e 183c 4dbf 54bc 7eb7 88bc b57e be3c
000001a0: d426 cb3b 50b3 96bc f422 f1bb ea7b cabc
000001b0: ac69 99bb f0a5 23bb 812e 9b3c 8eb6 9bbc
000001c0: 50c9 703b c633 2c3c 24f0 8bbc f6c0 6f3c
000001d0: 401d 81b9 e244 313c f583 c73c 4396 ba3c
000001e0: 9bd5 c03c 33dc acbc 8056 89bc 80e8 49bb
000001f0: ad76 47bc 2019 983a c9e3 8b3c 0f43 b93c
00000200: 07d9 3ebc 519b 8f3c 398e ad3c 2a71 6b3c
00000210: 134d b73c 0828 cbbb d0ee 7abc ad73 a63c
00000220: 8f67 c7bc 54ef da3b 877a bebc 83bb 69bc
00000230: 5bda b63c 8c05 cdbb bf00 893c bb7e c03c
00000240: 92f8 713c aeb9 9abc 5452 b83b b4d0 973b
00000250: 5dde 72bc d96e c13c b155 ab3c 188e 3b3b
00000260: 1e40 363c 4a5b 0f3c e2f7 103c 943e 86bc
00000270: bc3c e33b 94eb 06bc 57a9 b53c 259a ab3c
00000280: 8c24 16bc 124f 4e3c 13d1 1cbc f765 cc3c
00000290: c8f0 b73b 6a7e 80bc 050a b5bc c304 9d3c
000002a0: adba 7abc e08a d7ba 7078 1cbc b04a 8b3a
000002b0: cfa5 9f3c 5164 a03c 0a65 373c 8e5d 7d3c
000002c0: 74b2 b43b da75 2b3c e0c1 8fbc 00c0 2d39
000002d0: 00f9 b83b c0b2 58bc 9481 ec3b e5c8 cb3c
000002e0: 92df 753c 40a4 39bc 8595 8abc 2087 9a3b
000002f0: 5047 55bc 9fbf c33c 4567 843c 3480 d4bb
00000300: c747 5fbc 86a7 093c aead 93bc a0d9 51ba
00000310: af78 863c e2da cabc e110 af3c 94f9 a13b
00000320: 6c73 fe3b 9f5c c0bc 7180 8c3c 4253 9dbc
00000330: 15e8 8ebc 00f8 cb39 143d c3bb 6e00 8fbc
00000340: 0261 90bc 305b 4f3b cd61 af3c 0f04 bfbc
00000350: 380f 95bb 4d62 8fbc 3e7b 4e3c e3cb 7bbc
00000360: c0eb 96bb 0807 e4bb 5053 613b 4abf b5bc
00000370: ec20 afbb a834 5c3b 673c 35bc 27bd 8e3c
00000380: 4ad2 6dbc 6c3a c7bb 92e5 603c 05db 993c
00000390: fe85 753c 103d 373b 4eb3 9dbc e05d 4abc
000003a0: 27b9 993c e013 ca3b 32cf 5f3c 6862 50bb
000003b0: e559 c1bc 9980 993c cc26 b53b 3a08 28bc
000003c0: c365 bbbc 326c 6d3c 1136 863c 6441 f23b
000003d0: 9126 b53c ead4 2dbc e851 33bb 95c8 9e3c
000003e0: d250 213c 9b01 a9bc 2780 be3c 90bd 02bc
000003f0: ba5d 06bc fc64 dc3b f3cc 3bbc a028 21ba
0.011960486 0.022910653 -0.0137101505 -0.019013792 -0.0017254651 0.010628922 0.0146190245 -0.019110903
-0.020361727 0.02152435 -0.02496224 0.007389309 0.0017348379 0.017647685 -0.016396705 0.0019363165
0.012776164 -0.019961547 0.0010090731 0.020276329 -0.015097964 0.019122222 0.0026426502 -0.012686595
0.022431852 0.008385008 0.0082411375 0.0076862443 0.020915793 -0.02272593 -0.015950084 -0.0060260594
-0.007128939 -0.012780952 -0.004830152 0.01740936 0.014053369 0.005743837 0.018376907 -0.0015630331
-0.018167486 -0.012295392 0.010753186 -0.021520158 -0.018844789 0.004108941 -0.004958907 0.017502123
0.00096838735 -0.009519058 -0.020634416 -0.002109725 0.01989931 -0.007860577 -0.020505592 -0.018036898
0.014983447 -0.016350904 0.0024133828 0.011898497 -0.011969742 0.013918238 0.00041384995 -0.024208073
0.022769244 0.0048545245 -0.001693448 -0.023302868 -0.009397122 -0.009881491 0.02451011 -0.022898478
0.0024207868 -0.0040163156 -0.0071118977 -0.0025465395 -0.018763239 0.008605843 -0.016234735 0.009147225
-0.02015483 -0.004627168 0.014940651 0.019101309 -0.02234343 0.0018544588 0.012261612 -0.0022498406
0.017717803 -0.015432397 0.008809095 -0.011040381 0.008820133 0.014588239 -0.021598497 0.0045071356
-0.0007125195 0.016730169 -0.0074106213 -0.006220186 0.009288473 -0.012985063 -0.016689058 0.023253778
0.006199697 -0.01839605 -0.007358903 -0.02471729 -0.0046817865 -0.0024970733 0.018943073 -0.019007947
0.0036741085 0.010510391 -0.017082281 0.014633408 -0.0002462659 0.010819646 0.024354914 0.022776728
0.023539355 -0.021101093 -0.01676488 -0.0030808747 -0.012174291 0.0011604168 0.01707639 0.022614984
-0.011648423 0.017530115 0.021185981 0.014370242 0.022375619 -0.0061998405 -0.015315726 0.02031883
-0.024341373 0.006681362 -0.023251785 -0.014265898 0.022320917 -0.0062567648 0.016723989 0.02349793
0.014768736 -0.018887367 0.0056250487 0.0046330336 -0.014823523 0.023612427 0.020914884 0.002861863
0.011123685 0.008749792 0.008848162 -0.016387261 0.0069347303 -0.008234877 0.022175474 0.020947525
-0.009163987 0.012592094 -0.009571332 0.024950964 0.00561342 -0.015685279 -0.022099504 0.01916731
-0.015303296 -0.0016444586 -0.009550199 0.0010627117 0.019488243 0.019579085 0.011193523 0.0154642
0.0055144373 0.01046511 -0.017548501 0.00016570091 0.0056449175 -0.013226211 0.0072175954 0.024876067
0.015006917 -0.011330664 -0.016917 0.004715815 -0.0130174905 0.023895083 0.016162524 -0.0064850096
-0.013627953 0.008401757 -0.018027153 -0.0008005146 0.016414968 -0.024762575 0.021370353 0.004943082
0.007765224 -0.023481665 0.01715109 -0.01920474 -0.01744465 0.00038903952 -0.005958209 -0.01745626
-0.017624382 0.0031640045 0.02140894 -0.023317365 -0.0045489334 -0.017502928 0.012602625 -0.015368435
-0.0046057403 -0.006958846 0.0034381934 -0.02218594 -0.0053445008 0.0033600722 -0.011061764 0.01742418
-0.014515469 -0.0060799625 0.013726609 0.018781194 0.0149855595 0.002795998 -0.019250538 -0.012351483
0.018765045 0.00616692 0.013660239 -0.0031796936 -0.023602435 0.018738078 0.0055283066 -0.010255868
-0.022875672 0.014491128 0.016383203 0.007393049 0.022113116 -0.010609845 -0.0027362052 0.019382754
0.009845929 -0.020630648 0.023254467 -0.007979766 -0.008201057 0.0067259055 -0.011462438 -0.0006147716

fc1.0.bias f4 [32]
00000000: 395c b33c 0045 1bba 20fa 06bc 3660 8cbc
00000010: 28e9 f4bb eca5 e0bb d222 8abc 68df d6bb
00000020: b48c a6bb 083e 8f3b 98ed 923b 55a2 8fbc
00000030: 4d6b 2bbc cd97 1fbc c030 aebb 8038 c6bc
00000040: e3c1 39bc 305a 07bb 10c9 44bb 1511 a03c
00000050: 88a3 b3bc e273 743c 05eb afbc 8871 89bb
00000060: 8043 ffbb d676 a6bc de6f 773c 3a1b 233c
00000070: addc 35bc 6a66 16bc 92b1 383c b02a 67bb
0.021894561 -0.00059230626 -0.008238345 -0.01713572 -0.0074740835 -0.006855717 -0.016862307 -0.006557394
-0.005082691 0.0043714084 0.00448389 -0.01753346 -0.010462594 -0.009740782 -0.00531587 -0.024196863
-0.01133773 -0.0020653121 -0.003002707 0.019539395 -0.021928564 0.014920207 -0.02147437 -0.004194442
-0.007790029 -0.020320337 0.015102355 0.009955222 -0.0110999765 -0.009179691 0.011272805 -0.0035273246

fc2.0.weight f4 [64, 32]
00000000: a45a cabd c9b8 8dbd e095 6a3c c0f4 1cbc
00000010: 4a76 b13d 553f 213e 2c1e a2bd aa69 d3bd
00000020: 1c48 2c3d 1e76 ea3d 60b2 e83b 7685 c9bd
00000030: 5361 c0bd 7aa2 f43d 7d34 233e 0120 173e
00000040: db0a 013e a1f3 113e a69a e5bd 8292 1cbe
00000050: b1ad 0e3e ec7b 14be 0079 32ba 2c9d 583d
00000060: e294 31be 78e9 8e3d 8048 ec3a 3e37 ce3d
00000070: 8a30 cc3d 00da 21ba c725 303e f1df 163e
00000080: 3473 2e3d e003 d93c c983 d7bd 88e7 463d
00000090: ae99 ca3d 8937 193e 32b1 ff3d 248e 13be
000000a0: 097e 093e 33b7 05be fcf3 433d e837 d23c
000000b0: f813 a2bc be25 f53d 711c 99bd 5fe9 2bbe
000000c0: d897 85bc 2d46 303e c2d0 893d fcab 423d
000000d0: 6737 233e d4a5 53bd 9fc6 083e 32b5 adbd
000000e0: f3e8 013e 2c1a 893d 3386 1c3e 70ce 003c
000000f0: 6bc9 bfbd 3c67 26be a050 4f3d 20a8 e9bb
00000100: 548b 66bd 981a 4f3d e080 053d ab81 ebbd
00000110: 19a1 cabd 5c43 273d 12f9 79bd a8bf 983c
00000120: 3f1b 083e 8c6f 11be 7cd9 46bd a047 00bd
00000130: 96b0 b83d bc8f 2fbe 2f54 2c3e 68e0 653d
00000140: dd90 073e 6093 b7bb 0021 9d3b 8eeb 833d
00000150: 0eac ef3d f45d 24bd 191d 9abd a321 aebd
00000160: fb12 343e bff3 0f3e f023 a0bc fafe d63d
00000170: aae0 f73d 788a bebc c620 c83d 26f2 01be
00000180: d55f 313e 48a7 8cbd 0599 33be 06a0 cc3d
00000190: bcf2 743d cf34 173e b0c8 223c 3c3a 1abe
000001a0: a04c 79bd 98a8 ff3c 0a55 973d 16ce afbd
000001b0: c08b fabc 0e07 d63d b85c 21be 19f2 2bbe
000001c0: 73a0 1f3e be38 12be 699d 003e 1ef5 bb3d
000001d0: da72 82bd 5699 883d b6e7 fabd 88da 6dbd
000001e0: d4e0 29bd 5852 ad3c 001d eabc 2cd8 323d
000001f0: 008d 3b3c 2227 f4bd b3e7 11be 18d9 9cbc
00000200: de2a b23d 8aa7 993d f84f cabd d0f8 843d
00000210: 1217 57bd 4cd8 29bd 2405 643d 8b50 26be
00000220: daef fe3d d036 15bd eec0 e3bd b75b 2e3e
00000230: 863c e03d c308 183e 1a22 00be 676d cabd
00000240: c6ec 33be 617a dcbd 39fd 343e 97b9 0e3e
00000250: 5a4a a53d 1ce5 14be a8c1 ea3c fc52 9cbd
00000260: 472e 303e 3045 9fbc 1aae c2bd 9cd3 8f3d
00000270: 1a5f c23d 031c 323e 18d8 c4bc 833a 263e
00000280: 1b9b cfbd 6a0d b43d 9266 ac3d 20df 753d
00000290: b358 133e d2a8 dc3d 30ae 68bd 1142 0c3e
000002a0: 4f1b a5bd 6d36 203e c853 bdbc b837 873c
000002b0: 6232 a23d 42c8 0cbe b942 1b3e 9674 f73d
000002c0: ce5f 8c3d 2a7e bb3d 0dd3 f6bd 2041 7f3c
000002d0: 48b5 98bc 4ed6 fe3d 9510 dfbd b9f0 143e
000002e0: 4b34 b9bd 0211 bc3d 488d b83c 1c48 2bbd
000002f0: 1901 c1bd 6e8a c83d dcfb 28bd 9852 c83c
00000300: 5063 8a3d a70c 293e 1708 183e 2968 1ebe
00000310: 0e48 a33d 577a ccbd 18d5 23be 2432 273d
00000320: 07a4 bdbd 9f21 2a3e 5663 ccbd d507 2a3e
00000330: d0f1 16bc 9a69 79bd d4f7 2abe a0e0 343d
00000340: 2e54 76bd a93a 2c3e b4a0 18be 1e8b 813d
00000350: 2859 c13c 80c9 6f3c 1146 133e dc00 1d3d
00000360: 2c13 53bd 76ca 973d 659d 83bd 018e 183e
00000370: 042c 293d 78f0 6a3d a532 323e 9d7a e2bd
00000380: 3ed4 ff3d c0d6 17bc 7a9d 9e3d 263e 973d
00000390: aa7d 2abe 3919 1c3e 9689 c93d da2d c33d
000003a0: 21a0 0d3e e67c 21be dc0b 613d 3b58 003e
000003b0: 206c 4d3c 2fc6 9dbd 42be c63d 127d d83d
000003c0: 2559 2a3e 6951 22be d6b3 853d 2b61 19be
000003d0: 00c0 0738 b11c a0bd 5c33 e2bd f9fc 12be
000003e0: 406f 3d3b b545 193e 13ac 0b3e 909b 123d
000003f0: f665 b73d e664 dd3d 640b 05bd f5b3 2a3e
-0.098805696 -0.069200106 0.01431796 -0.009579837 0.0866514 0.15746816 -0.07915911 -0.10322888
0.042060956 0.1144831 0.007101342 -0.09839909 -0.09393563 0.119450524 0.15937991 0.14758302
0.12601797 0.14253093 -0.112111375 -0.15290263 0.13933446 -0.14500397 -0.00068081915 0.052884266
-0.1734195 0.069781244 0.0018026978 0.1006913 0.099701956 -0.0006174147 0.17201911 0.14733864
0.042590335 0.026491106 -0.10523183 0.04856065 0.09892593 0.14962591 0.12484969 -0.14409691
0.13426985 -0.13058166 0.047840104 0.025661424 -0.019784912 0.119700894 -0.07476128 -0.16788243
-0.016307756 0.1721427 0.067292705 0.0475273 0.15939103 -0.051671818 0.13357018 -0.08481826
0.1268652 0.06694445 0.15285568 0.007861719 -0.09364589 -0.16250318 0.050614 -0.0071306378
-0.056285217 0.05056247 0.032593608 -0.114993416 -0.09894008 0.040835723 -0.061028548 0.018646076
0.13291644 -0.14202708 -0.048547253 -0.031318307 0.09018056 -0.17144674 0.16828988 0.056122214
0.13238855 -0.0056022853 0.0047951937 0.06441413 0.11702739 -0.040128663 -0.07525081 -0.085025094
0.17585365 0.14057826 -0.019548386 0.10497852 0.12103398 -0.023259386 0.09771876 -0.12690029
0.17321713 -0.06867844 -0.17538841 0.099914595 0.059801802 0.14766239 0.009935543 -0.15061277
-0.06086409 0.031208321 0.07389267 -0.0858423 -0.030584216 0.10450564 -0.15758026 -0.16791572
0.1558855 -0.14279458 0.12560047 0.09177612 -0.063695624 0.066698715 -0.122512266 -0.058069736
-0.04147418 0.021157429 -0.028578281 0.04366319 0.011447191 -0.119215265 -0.14248542 -0.019146487
0.086995825 0.07502659 -0.09878534 0.0649277 -0.052512236 -0.041466042 0.055668965 -0.16241662
0.12448092 -0.036429226 -0.11120783 0.17027174 0.10949044 0.14847092 -0.12513009 -0.09884148
-0.1757079 -0.107655294 0.17674722 0.13937984 0.08070822 -0.14540523 0.028656796 -0.076330155
0.17205153 -0.01944217 -0.095058635 0.07022783 0.094907954 0.17393498 -0.024028823 0.16233258
-0.10137006 0.08791621 0.08418001 0.06002724 0.14389305 0.107743874 -0.056806743 0.13697077
-0.08061849 0.15645762 -0.02311124 0.016506061 0.07919766 -0.13748267 0.15162171 0.12082784
0.06854211 0.09154923 -0.120519735 0.015579492 -0.01864113 0.12443219 -0.10891835 0.14544953
-0.09043177 0.091829315 0.022528306 -0.041816816 -0.094240375 0.09792028 -0.041255817 0.024453446
0.067572236 0.16508733 0.14846836 -0.15469421 0.07972728 -0.09984272 -0.15999258 0.040819302
-0.09259801 0.16614388 -0.09979884 0.1660455 -0.009212926 -0.060891725 -0.16696101 0.04415953
-0.060138874 0.16819252 -0.14905053 0.063253626 0.023602083 0.014635444 0.14382197 0.038330898
-0.051531956 0.07411663 -0.06426505 0.1489792 0.041301742 0.057358235 0.17402132 -0.11058543
0.12491654 -0.009267509 0.0774488 0.07384901 -0.166495 0.15243997 0.098406956 0.0953023
0.13830616 -0.15770301 0.05494295 0.12533657 0.012537986 -0.07703816 0.097042575 0.1057073
0.16635568 -0.15851368 0.065284416 -0.14978473 3.2365322e-05 -0.078179725 -0.11044952 -0.14354314
0.0028905421 0.14967997 0.1363986 0.035792887 0.089549944 0.108102605 -0.032481566 0.1667021

fc2.0.bias f4 [64]
00000000: 0874 53bd 39f1 0fbe 1250 cf3d 08dc 72bd
00000010: 9ca1 0bbe 5aa4 993d dbf1 bdbd efc6 1c3e
00000020: a813 b5bc 54f2 44bd 6ad4 c83d d040 1bbd
00000030: 5ce3 d2bd 9209 17be 5aa0 b73d e022 403d
00000040: d63f 0bbe f811 b63c 20ee 6bbd 50d1 47bc
00000050: 400a 563d 699f 80bd 68fa f1bd be27 b9bd
00000060: d2a9 ca3d b2d0 e03d 7663 f73d 22aa e53d
00000070: 400a 74bd d893 473d 4033 7a3b 9e0e a43d
00000080: 80c7 21bc ee72 aebd 00cc e3ba b056 5dbc
00000090: 30f7 5a3d 03e7 073e f886 843d 7425 f2bd
000000a0: 99ab 0d3e 9825 a5bd 42c6 c83d d613 69bd
000000b0: cb4f c6bd 1f01 30be ec3e 4cbd 587b 933d
000000c0: 92aa 9fbd 6d95 a5bd 7cc7 e9bd d100 313e
000000d0: 5735 2d3e 63da 163e e9ff 103e 1d8a 16be
000000e0: c008 86bb 227e db3d b081 ff3c 5425 3fbd
000000f0: 6012 ecbc b50f adbd 30c4 27bd 1615 1cbe
-0.051624328 -0.14056863 0.10122694 -0.05929187 -0.13635868 0.07502051 -0.09274646 0.15310262
-0.0221041 -0.048082665 0.0980614 -0.037903607 -0.102972716 -0.14749745 0.089661315 0.04690826
-0.1359857 0.022225365 -0.05760014 -0.0121959 0.05225587 -0.06280405 -0.11815339 -0.09040783
0.09895672 0.109773055 0.120795175 0.11214091 -0.059580088 0.04872498 0.003817752 0.080106005
-0.009874225 -0.08518015 -0.0017379522 -0.013509437 0.053458393 0.13271718 0.06471056 -0.1182355
0.1383499 -0.08063811 0.0980344 -0.056903683 -0.09683188 -0.17187928 -0.049864694 0.0720126
-0.077962056 -0.08085141 -0.11415002 0.17285468 0.16914879 0.14731745 0.14160122 -0.14701124
-0.0040903986 0.10717417 0.03118977 -0.04666646 -0.028817356 -0.084502615 -0.040958583 -0.15242419
