FAST 3D-CNN P-NET/model/ZGFF/ZGFF_proto_2d-5shotband30.pth (torch, 526061 bytes, 24 tensors)

layer1.0.weight f4 [64, 30, 3, 3]
0	0x3c906a4a	0.017628808
1	0x3d70fe7f	0.058836456
2	0x3d8f1463	0.0698631
3	0xbd1cab8c	-0.038249537
4	0x3cd55cb5	0.026045183
5	0x3d7b2c82	0.061321743
6	0xbc051031	-0.008121536
7	0xbd13269c	-0.035925493
8	0xbd6293aa	-0.055316605
9	0xbc7451c9	-0.014912077
10	0x3bb880c9	0.0056305868
11	0xbc2aca77	-0.010424248
12	0xbbe8b778	-0.0071019493
13	0x3c9050b4	0.017616607
14	0xbc4c3e39	-0.012466007
15	0xbc95a4a9	-0.018266993
16	0x3d5e3e1c	0.05425845
17	0x3c0edfaf	0.0087203225
18	0xbd39a100	-0.045319557
19	0xbd1a0ec2	-0.03761173
20	0x3d37b159	0.044846866
21	0xbcb8f4f2	-0.022577737
22	0x3cabbea4	0.020964928
23	0x3d889e90	0.066708684
24	0xbc975eb3	-0.018477773
25	0x3d598099	0.053101156
26	0x3d93a9d7	0.07210129
27	0xbcac41a8	-0.021027401
28	0x3a15bd6b	0.00057121244
29	0xbc319b61	-0.010840268
30	0x3cf61b09	0.030042188
31	0xbbc34454	-0.005959073
32	0x3cde58d6	0.02714197
33	0x3d2c3bb3	0.04204912
34	0x3d09b365	0.03361835
35	0xbbcefda4	-0.0063168574
36	0xbb8c4eca	-0.0042818533
37	0xbc02873a	-0.007966811
38	0xbd56c042	-0.052429445
39	0xbcdef5e4	-0.02721686
40	0x3d171e8f	0.036894377
41	0x3d31e65f	0.04343259
42	0xbcc3b1fe	-0.023888584
43	0x3cf1aa78	0.029500231
44	0xbd58be7b	-0.05291603
45	0xbd1f29b9	-0.03885815
46	0x3d0e948f	0.034809645
47	0xbd7e0aa3	-0.062021863
48	0xbc82a7ba	-0.015949119
49	0xbb85c7b9	-0.0040826467
50	0x3c95fbb3	0.018308496
51	0xbcc20230	-0.023682684
52	0xbb1b9507	-0.002373995
53	0x3cd921a2	0.026505295
54	0x3d17d9ad	0.037072826
55	0x3b880f41	0.004152209
56	0x3d467288	0.04844907
57	0xbcab1c80	-0.020887613
58	0xbd970def	-0.073757045
59	0xbcb7d9f8	-0.022442803
60	0x3d2f90b7	0.04286262
61	0xbbc120cb	-0.005893802
62	0xbc5eb81a	-0.013593698
63	0xbc457c06	-0.012053495
64	0x3d2acd3b	0.04169963
65	0xbcf5feee	-0.030028787
66	0x3cf80f2d	0.030280674
67	0xbbbb1d1a	-0.0057102563
68	0x3c11aa5f	0.008890717
69	0xbc9ed72e	-0.019389715
70	0x3d47677f	0.048682686
71	0x3ce3a0bc	0.027786605
72	0x3d905e8c	0.070492834
73	0x3d557a26	0.052118443
74	0xbcb2e022	-0.02183539
75	0x3b6439ef	0.003482457
76	0x3d03cc5b	0.03217731
77	0xbd5edaaa	-0.054407753
78	0x3d320326	0.043460034
79	0xbd5396a6	-0.05165734
80	0x3d6d8a07	0.05799296
81	0x3c11b68c	0.00889362
82	0xbd25a60c	-0.040441558
83	0xbc849fdf	-0.016189514
84	0xbd0a6306	-0.033785842
85	0x3b46592d	0.0030265555
86	0x3c7165af	0.014733716
87	0x3d0fb45d	0.035084117
88	0xbb831131	-0.003999852
89	0xbc867907	-0.016415132
90	0x3ce35083	0.027748352
91	0xbd1cd362	-0.038287528
92	0x3ba0b8d9	0.004904848
93	0x3bc1921f	0.0059073116
94	0xbc0f6720	-0.008752614
95	0x3cccd96b	0.025006017
96	0x3909cfe5	0.00013142785
97	0x3d265f77	0.040618386
98	0x3d490839	0.049080107
99	0x3bfc5524	0.0077005792
100	0xbd38f304	-0.045153633
101	0xbd16b8df	-0.0367974
102	0xbcacdac6	-0.021100413
103	0xbd9d542d	-0.07682071
104	0xbb9dd9c5	-0.00481722
105	0x3b550dd1	0.0032509456
106	0xbd20784b	-0.03917722
107	0xbd8aa507	-0.06769758
108	0x3c669aec	0.014075022
109	0x3d2db992	0.0424133
110	0x3c1dc687	0.009629852
111	0xbb931d60	-0.0044895858
112	0x3d85f4fe	0.06540869
113	0x3cc39cb3	0.023878431
114	0xbc73a10d	-0.0148699405
115	0x3cb57417	0.022150083
116	0x3ce51ac7	0.02796687
117	0xbd4de229	-0.05026451
118	0xbcd9fa04	-0.026608475
119	0xbd33a74d	-0.043860722
120	0xbd0a307b	-0.03373764
121	0xbcee827f	-0.02911496
122	0xbd953dfd	-0.07287214
123	0xbd785638	-0.0606291
124	0xbcd8ec41	-0.026479842
125	0xbd180df6	-0.03712269
126	0x3bbfe6fb	0.0058563924
127	0xbd913983	-0.070910476
128	0x3bca9155	0.0061818757
129	0x3d063eab	0.03277461
130	0xbcf1af07	-0.029502405
131	0xbd01727e	-0.03160333
132	0x3c9dd83e	0.019268151
133	0x3c4c1bf4	0.012457836
134	0xbca259ed	-0.01981827
135	0xba94b687	-0.0011345901
136	0xbd3c6e5d	-0.046003688
137	0x3c86457d	0.016390556
138	0xbd6c4c5a	-0.057690002
139	0x3d5f8e0b	0.054578822
140	0x3d298ecb	0.041395944
141	0x3d22a4d3	0.03970797
142	0xbd07197f	-0.0329833
143	0xbc9b4809	-0.018955247
144	0xbd51a4f1	-0.05118269
145	0x3cc65d8b	0.024214527
146	0xbd361e9e	-0.044462793
147	0xbd83af53	-0.06429925
148	0xbbe6a108	-0.0070382394
149	0xbc1a937f	-0.00943458
150	0xbae54442	-0.0017491656
151	0xbd301823	-0.04299177
152	0xbd5550ca	-0.052079
153	0x3c2c4470	0.010514364
154	0x3d28de98	0.041227907
155	0x3c4fa916	0.012674591
156	0x3d8325d8	0.064037025
157	0x3cbf01db	0.023316314
158	0x3d0a5199	0.033769224
159	0x3beddb04	0.0072587747
160	0xbcaa97ae	-0.02082428
161	0x3c8a60fc	0.016891949
162	0x3cfbb3b3	0.030725336
163	0x3d584c0f	0.05280691
164	0xbc6fffdd	-0.014648405
165	0xbbd0dcc4	-0.0063739736
166	0x3c4c429d	0.012467054
167	0x3d44a235	0.048006255
168	0x3d3c22e7	0.045931723
169	0xbce32947	-0.027729644
170	0x3cf3825b	0.029725244
171	0x3cd31229	0.025765495
172	0x3cca3ef9	0.02468823
173	0xbd58c855	-0.052925427
174	0x3c896a2f	0.016774265
175	0x3d9056a8	0.07047778
176	0x3d0f8bd3	0.035045456
177	0x3ac500bc	0.0015030126
178	0xbd368343	-0.044558775
179	0xbd185775	-0.03719278
180	0x3d9e2771	0.077223666
181	0x3b94d48f	0.0045419405
182	0x3ce55b84	0.02799774
183	0x3d51e425	0.051242966
184	0xbd281410	-0.041034758
185	0x3d5bfc23	0.053707253
186	0x3d5c7d25	0.053830285
187	0xbb404630	-0.002933871
188	0x3c95adc0	0.018271327
189	0x3a0968dd	0.0005241761
190	0x3d31d8fc	0.043419823
191	0x3cbb09c6	0.022831809
192	0xbd828d30	-0.06374586
193	0x3b599acd	0.003320384
194	0x3d0b3a6b	0.03399126
195	0xbc48651f	-0.01223114
196	0xbcdab0de	-0.026695665
197	0xbbe4d5ef	-0.0069835107
198	0xbd135612	-0.035970755
199	0xbd631e8a	-0.055449046
200	0x3d12e8fc	0.035866722
201	0x3aa3c762	0.0012495334
202	0xbd1c1f11	-0.038115565
203	0x3d06825b	0.03283916
204	0xbd8ff139	-0.070284314
205	0xbd84f1e9	-0.06491453
206	0x3d337205	0.04380991
207	0x3d0b70cf	0.03404313
208	0x3cc84ae0	0.024449766
209	0x3c75af4d	0.014995408
210	0x3d238e65	0.03993072
211	0xbb4cda4f	-0.0031258052
212	0x3d4dd1c5	0.05024888
213	0x3d929b6c	0.071585506
214	0x3b2118b8	0.0024581384
215	0xbcde88a9	-0.027164774
216	0xbc705fd2	-0.014671283
217	0xbd61d512	-0.05513484
218	0xbbcfe160	-0.0063440055
219	0x3b1e79a8	0.00241814
220	0xbcebbbdc	-0.028776102
221	0x3aded1ff	0.001699984
222	0xbc208588	-0.009797461
223	0xbd57627b	-0.052584153
224	0xbb5a41ef	-0.003330346
225	0x3d1d9f69	0.038482103
226	0x3aced1eb	0.0015779113
227	0x3cf7558a	0.030192155
228	0x3c7eb4d2	0.015546041
229	0xbd01be7a	-0.031675793
230	0xbbca4972	-0.006173306
231	0x3cb3c2ab	0.02194341
232	0x3d532ef5	0.051558454
233	0xbd13dccd	-0.036099244
234	0x3b071bc6	0.002061592
235	0xbd2c5ae9	-0.042078886
236	0xbd14e544	-0.036351457
237	0xbcf1674a	-0.029468197
238	0xbc344609	-0.011003026
239	0xbd91eaeb	-0.07124885
240	0x3b691a3d	0.0035568618
241	0x3d1aadb2	0.037763305
242	0x3d615319	0.05501089
243	0x3cb7f730	0.022456735
244	0xbdae6f22	-0.08517291
245	0xbd4fd105	-0.050736446
246	0xbd07a49c	-0.033115968
247	0x3c408bb6	0.01175206
248	0xbd090c65	-0.033459086
249	0x3c18f373	0.009335387
250	0x3d39a0aa	0.045319237
251	0x3b999975	0.004687483
252	0x3cffbad1	0.03121701
253	0x3be2d663	0.0069225295
254	0xbcfe25c4	-0.031023867
255	0xbcf925c0	-0.030413508

layer1.0.bias f4 [64]
0	0x3f5e1e68	0.86765146
1	0x3f57f431	0.8435698
2	0x3f4a09c6	0.78921163
3	0x3f5cb0ae	0.8620709
4	0x3f6a8510	0.9160929
5	0x3f58c813	0.8468029
6	0x3f53c445	0.8272136
7	0x3f56c932	0.8390075
8	0x3f5a5813	0.8529064
9	0x3f71668b	0.94297093
10	0x3f1c69b7	0.6109881
11	0x3f2cfc4d	0.6757248
12	0x3f5c4b0d	0.8605202
13	0x3f4e36ef	0.8055257
14	0x3f438260	0.7637081
15	0x3f4f2c8a	0.80927336
16	0x3f6682d2	0.90043366
17	0x3f4b71c6	0.7947048
18	0x3f4829e6	0.7818893
19	0x3f73bfe9	0.95214707
20	0x3f70847e	0.9395217
21	0x3f6f0918	0.9337325
22	0x3f562770	0.83653927
23	0x3f342b76	0.70378816
24	0x3f4f9ca5	0.81098396
25	0x3f67c7f9	0.9053951
26	0x3f65cf59	0.8976951
27	0x3f67b28c	0.90506816
28	0x3f5c6032	0.8608428
29	0x3f70029f	0.93754
30	0x3f675a46	0.9037212
31	0x3f5cce1d	0.86252004
32	0x3f61804e	0.880864
33	0x3f69259b	0.91073006
34	0x3f5ef9a3	0.87099665
35	0x3f69e214	0.9136059
36	0x3f473f2a	0.77830756
37	0x3f2ba7b1	0.6705275
38	0x3f607558	0.8767905
39	0x3f662101	0.8989411
40	0x3f582604	0.8443301
41	0x3f66b107	0.9011387
42	0x3f5c490c	0.8604896
43	0x3f61df41	0.88231283
44	0x3f56d3e6	0.8391708
45	0x3f64f1bf	0.89431375
46	0x3f5b7de5	0.85738975
47	0x3f52faeb	0.8241412
48	0x3f68c9f1	0.9093314
49	0x3f4e7f0b	0.806626
50	0x3f4379c9	0.76357704
51	0x3f523316	0.821092
52	0x3f713096	0.9421476
53	0x3f5bed8f	0.8590936
54	0x3f57d8c6	0.84315145
55	0x3f6ebd92	0.9325801
56	0x3f43ffb3	0.7656204
57	0x3f5dc3fe	0.86627185
58	0x3f57e05d	0.84326726
59	0x3f258f53	0.6467182
60	0x3f466172	0.7749244
61	0x3f5459b9	0.82949406
62	0x3f644981	0.8917466
63	0x3f67aec3	0.9050104

layer1.1.weight f4 [64]
0	0x3f8044de	1.0021017
1	0x3f7aef74	0.98021626
2	0x3f7c61fb	0.98587006
3	0x3f7e331d	0.9929674
4	0x3f7b564a	0.9817854
5	0x3f80a8da	1.005153
6	0x3f7be1ed	0.9839161
7	0x3f830e66	1.0238769
8	0x3f7fc90a	0.99916136
9	0x3f863568	1.0485048
10	0x3f7c4c81	0.98554236
11	0x3f7c9c48	0.98675966
12	0x3f79ef51	0.9763079
13	0x3f80f020	1.007328
14	0x3f88fac1	1.0701524
15	0x3f7dc702	0.99131787
16	0x3f818c2c	1.0120902
17	0x3f7d5a62	0.9896604
18	0x3f7c6736	0.9859499
19	0x3f7de732	0.991809
20	0x3f810e31	1.0082456
21	0x3f807c66	1.0037963
22	0x3f7ded54	0.9919026
23	0x3f85cb24	1.0452619
24	0x3f7d28b3	0.9889023
25	0x3f8438b1	1.0329801
26	0x3f797ffc	0.97460914
27	0x3f795d1a	0.97407687
28	0x3f82a6b5	1.0207125
29	0x3f7d1431	0.98858935
30	0x3f80e810	1.007082
31	0x3f7772dc	0.96659636
32	0x3f7b42be	0.98148715
33	0x3f80709e	1.0034368
34	0x3f82dff3	1.0224594
35	0x3f7f7b11	0.9979716
36	0x3f7b881f	0.9825458
37	0x3f82e81e	1.0227087
38	0x3f7e3183	0.992943
39	0x3f7e1c4d	0.99261934
40	0x3f8418db	1.0320085
41	0x3f81b065	1.0131956
42	0x3f77e9c1	0.96841055
43	0x3f803a5a	1.0017807
44	0x3f81f1ed	1.0151955
45	0x3f7d1038	0.9885287
46	0x3f820e0c	1.0160537
47	0x3f7ae4b0	0.980052
48	0x3f782aa0	0.9694004
49	0x3f828cd8	1.0199232
50	0x3f80ff24	1.0077863
51	0x3f823c89	1.0174724
52	0x3f7b7b7b	0.9823529
53	0x3f7b35db	0.9812905
54	0x3f7d536b	0.9895541
55	0x3f79f42a	0.9763819
56	0x3f7f0622	0.9961873
57	0x3f7d58d3	0.9896366
58	0x3f8186cd	1.0119263
59	0x3f86c336	1.0528324
60	0x3f7dcfe0	0.9914532
61	0x3f7e0051	0.9921923
62	0x3f8117a0	1.0085335
63	0x3f80ae74	1.0053239

layer1.1.bias f4 [64]
0	0xbcc3c470	-0.02389738
1	0xbc974307	-0.018464578
2	0xbd0625fd	-0.032751072
3	0xbd486fed	-0.048934866
4	0xbd3ab3aa	-0.045581497
5	0xbc0b8c9d	-0.008517412
6	0x3c99536b	0.018716535
7	0xbce51ec9	-0.027968781
8	0x3b67691a	0.0035310448
9	0xbd1a0e7a	-0.037611462
10	0xbcda6c7a	-0.026663054
11	0xbb09d729	-0.0021032786
12	0xbbb3cb1c	-0.005486859
13	0xbbdd445e	-0.006752535
14	0xbd6f4e26	-0.058424138
15	0xbd707877	-0.058708634
16	0xbcff7345	-0.031182894
17	0xbcc0c7b4	-0.023532726
18	0xbbe7fda8	-0.0070797987
19	0xbb59f47e	-0.00332573
20	0xbc4ba403	-0.01242924
21	0xbd0f05b3	-0.034917545
22	0xbc206fe4	-0.009792302
23	0xbd29dde2	-0.04147137
24	0xbc307bb3	-0.01077168
25	0xbd0ee90d	-0.034890223
26	0x3cdeb75f	0.027187048
27	0x3ccf886b	0.025333604
28	0xbd074a45	-0.033029813
29	0x3a39434d	0.00070672185
30	0xbc3a5d32	-0.011374759
31	0x3c50d869	0.012746909
32	0xbc1519ba	-0.009100372
33	0xbd2d4879	-0.042305443
34	0xbd80f6e2	-0.06297089
35	0x3caf4d83	0.021399265
36	0x3c972813	0.018451726
37	0xbc3b0170	-0.011413917
38	0xbd56a578	-0.052403897
39	0x3b4eaf83	0.0031537719
40	0xbd7b124b	-0.061296742
41	0xbd95305f	-0.07284617
42	0xbb7abe15	-0.003826027
43	0xbd161d23	-0.03664888
44	0xbca7a787	-0.020465625
45	0xbd096c8d	-0.033550788
46	0xbcf2c431	-0.029634567
47	0xbbfc630b	-0.0077022365
48	0x3c0925cf	0.008370831
49	0x3bcb89ed	0.0062115104
50	0xbd8093ee	-0.06278215
51	0xbd812e91	-0.0630771
52	0xba23af95	-0.00062441203
53	0xbc8ed536	-0.017435651
54	0xbcc1bff1	-0.023651095
55	0x3caf1de7	0.021376563
56	0x3c369be0	0.011145562
57	0xbd147552	-0.036244698
58	0xbc298561	-0.010346741
59	0xbd81d3bb	-0.063392125
60	0xbc349a14	-0.011023063
61	0xbc462141	-0.012092889
62	0xbd6782a9	-0.05652109
63	0xbd03331a	-0.032031156

layer1.1.running_mean f4 [64]
0	0x3f638034	0.888675
1	0x3f8413f1	1.0318586
2	0x3f5ac21c	0.8545244
3	0x3f52d479	0.8235546
4	0x3f4eb125	0.8073905
5	0x3f541ec4	0.82859445
6	0x3f7e01a1	0.99221236
7	0x3f3aad1b	0.7292039
8	0x3f7371f5	0.9509576
9	0x3f5dd3bb	0.866512
10	0x3f8ebb76	1.1150959
11	0x3e3bc421	0.18336536
12	0x3f6e767a	0.9314953
13	0x3f9e54ad	1.2369591
14	0x3ecd60b3	0.40112838
15	0x3f2907fb	0.660278
16	0x3f402bd7	0.75066894
17	0x3f414007	0.7548832
18	0x3f18477c	0.59484076
19	0x3f61e506	0.8824009
20	0x3f5f04c8	0.8711667
21	0x3f476ee1	0.7790356
22	0x3f892954	1.0715737
23	0x3ec6ea24	0.3885051
24	0x3f63a8b3	0.8892929
25	0x3f43de94	0.765115
26	0x3f849b68	1.0359926
27	0x3f76a64c	0.963475
28	0x3f4179fb	0.7557675
29	0x3f8139c5	1.0095755
30	0x3f5aa0d1	0.85401636
31	0x3f676050	0.90381336
32	0x3f72d0d5	0.948499
33	0x3f755c34	0.95843816
34	0x3f544384	0.8291552
35	0x3f870507	1.0548409
36	0x3f933bb4	1.1502595
37	0x3ea1801d	0.31543055
38	0x3f421282	0.7580949
39	0x3f63f292	0.8904201
40	0x3f3cd912	0.73768723
41	0x3f3cb161	0.7370816
42	0x3f94a9e3	1.1614345
43	0x3f6a86fa	0.9161221
44	0x3f42877c	0.7598798
45	0x3f641c4a	0.89105666
46	0x3f4ed781	0.8079758
47	0x3f5d107f	0.86353296
48	0x3f774f0c	0.9660499
49	0x3f368475	0.71295863
50	0x3ec83aec	0.39107454
51	0x3f1b1d71	0.605918
52	0x3f7018a1	0.9378758
53	0x3f3b4c7a	0.7316357
54	0x3f90615d	1.1279713
55	0x3f7f087b	0.99622315
56	0x3f7bdfa0	0.983881
57	0x3f7b7082	0.9821855
58	0x3f4283d2	0.7598239
59	0xbe27550d	-0.16341038
60	0x3f5a606c	0.8530338
61	0x3f518fbf	0.81859964
62	0x3f3d14c5	0.73859817
63	0x3f6c84ea	0.9239031

layer1.1.running_var f4 [64]
0	0x3f61b906	0.8817295
1	0x3f1b0935	0.60560924
2	0x3f2d93a0	0.6780338
3	0x3f92b000	1.1459961
4	0x3ed55c63	0.41672048
5	0x3e4061c5	0.18787296
6	0x3f323102	0.6960603
7	0x3ecb458f	0.39701506
8	0x3e9df846	0.3085348
9	0x3e45e4d0	0.19325566
10	0x40eaea0e	7.341071
11	0x405a2555	3.4085286
12	0x3e43e260	0.19129324
13	0x4027a379	2.6193526
14	0x405568ce	3.3345218
15	0x3ed31f6d	0.41234913
16	0x3f442e20	0.7663288
17	0x3eb1be07	0.34715292
18	0x3f38c245	0.7217143
19	0x3e8f8012	0.28027397
20	0x3e3c1e67	0.18370973
21	0x3f033b30	0.5126219
22	0x3f8b5425	1.0885054
23	0x4041bdef	3.0272176
24	0x3f01e503	0.5074007
25	0x3f3c7b42	0.73625576
26	0x3efa918d	0.4893917
27	0x3e8af2da	0.27138406
28	0x3eaab834	0.3334366
29	0x3f374eeb	0.71604794
30	0x3e953fd3	0.29150257
31	0x3f8168d3	1.0110115
32	0x3ec282b8	0.37990355
33	0x3f09d5c0	0.5384178
34	0x3ec7c339	0.3901613
35	0x3f271696	0.6526884
36	0x4014bfc7	2.3242052
37	0x40893939	4.288235
38	0x3ea62561	0.32450393
39	0x3e58f222	0.21186116
40	0x3eafd9b0	0.3434577
41	0x3f8c6d90	1.0970936
42	0x3fbeaf8e	1.4897325
43	0x3f1b0914	0.6056073
44	0x3ed60d20	0.4180689
45	0x3eb0603f	0.3444843
46	0x3e6d86e7	0.23195992
47	0x3eb38713	0.3506399
48	0x3e939f7f	0.28832623
49	0x3ed8373d	0.42229643
50	0x3fe9d6e7	1.8268708
51	0x3f837bee	1.0272195
52	0x3eb959fc	0.36201465
53	0x3eceba7c	0.4037665
54	0x3fdf533b	1.7447275
55	0x3e6b4d27	0.2297865
56	0x3fb6c02e	1.4277399
57	0x3eedb80a	0.46429473
58	0x3ecdb50f	0.401772
59	0x416159cf	14.084426
60	0x3f0909a1	0.5353032
61	0x3f17654b	0.59138936
62	0x3f86e1f6	1.0537708
63	0x3ee8b340	0.45449257

layer2.0.weight f4 [64, 64, 3, 3]
0	0x3ca3fc92	0.020017896
1	0xbc2fa7d2	-0.010721164
2	0xbcfb88d2	-0.03070489
3	0xbc66ecff	-0.01409459
4	0xbd108212	-0.035280295
5	0xbb159cbf	-0.0022829024
6	0x3b1f9ca3	0.0024354837
7	0x3c25e72c	0.010125916
8	0xbd2b981a	-0.041893102
9	0x3cfee218	0.03111367
10	0x3ca67a4d	0.02032199
11	0x3cbf54d7	0.023355884
12	0x3b68f449	0.0035545996
13	0xbc443259	-0.011974894
14	0x3ce9c6d8	0.028537199
15	0xbc0a9b58	-0.008459888
16	0xbc444a1f	-0.0119805625
17	0x3c6fdd1b	0.014640118
18	0xbbba2c59	-0.005681556
19	0x3cc433df	0.023950515
20	0x3cec81c8	0.028870478
21	0x3c381c34	0.011237193
22	0x3c95028b	0.01818969
23	0xbd18dbd3	-0.037319016
24	0xbca0a5a9	-0.019610243
25	0xbd1ea523	-0.038731705
26	0xbd110176	-0.035401784
27	0xbcec5084	-0.028846987
28	0xbd51e647	-0.051245
29	0x3c8d55cc	0.017252825
30	0x3b82403e	0.0039749434
31	0xbcce3b00	-0.025174618
32	0x3c6e8271	0.014557467
33	0xbd680c07	-0.056652095
34	0xbc98e741	-0.018664958
35	0xbd38a0b2	-0.045075126
36	0x3ceee4c6	0.029161822
37	0xbd2fe041	-0.042938475
38	0xbcae3b24	-0.021268435
39	0xbbc66177	-0.006054099
40	0xbabf8c0e	-0.0014613883
41	0xbc9d58f5	-0.019207457
42	0xbbb834c0	-0.0056215227
43	0x3c0f5dc0	0.008750379
44	0xbc8c341c	-0.017114691
45	0xbd2d0177	-0.042237725
46	0x3c88c12d	0.016693676
47	0x3bb3519c	0.005472375
48	0xbbdd9881	-0.0067625646
49	0x3bcdb906	0.00627816
50	0xbd36bf65	-0.04461612
51	0x3b7e0616	0.0038760952
52	0x3b4adc0a	0.0030953907
53	0x3cc84635	0.02444754
54	0x3ae64afc	0.0017569955
55	0xbc930812	-0.017948184
56	0xbd3a7871	-0.045525018
57	0x3cbc65ab	0.022997698
58	0xbd3ea252	-0.04654152
59	0x3cc9280c	0.024555229
60	0x3cb95bdd	0.022626812
61	0x3c463828	0.01209835
62	0xbc1894e4	-0.009312842
63	0x3d2fc845	0.0429156
64	0x3d6d82e3	0.05798615
65	0x3d2496fb	0.04018305
66	0xbca89a02	-0.02058125
67	0xbd457d79	-0.048215363
68	0x3c32cff4	0.010913838
69	0xbd36dcc1	-0.04464412
70	0xbc403350	-0.011730984
71	0x3c8496da	0.016185213
72	0x3d29e8f0	0.041481912
73	0x3c2bbc5e	0.010481922
74	0xbca82f91	-0.020530494
75	0xbd057dfb	-0.032590847
76	0xbcd66df4	-0.026175477
77	0x3cc9dd20	0.024641573
78	0x3cef5455	0.029215017
79	0x3cfdccf5	0.03098152
80	0xbb0c5764	-0.0021414394
81	0x3d3a6e53	0.04551537
82	0x3c722cd2	0.014781194
83	0x3ca6b3e7	0.020349456
84	0x3bcae800	0.0061922073
85	0xbc23f9a5	-0.01000825
86	0x3d20790a	0.03917793
87	0xbce3fcb0	-0.027830452
88	0xbbf0a4b7	-0.0073438543
89	0x3c989379	0.018625008
90	0xbd0ce116	-0.034394346
91	0xbcd0b044	-0.025474675
92	0xbb6a07e1	-0.0035710263
93	0xbd13c580	-0.036077023
94	0xbd502030	-0.050811946
95	0x3cd6ac84	0.026205309
96	0xbd0f2d42	-0.03495527
97	0x3b95c63f	0.004570752
98	0xbd1f3ca5	-0.038876195
99	0x3b7c7aa3	0.0038525246
100	0x3c6dce21	0.014514477
101	0xbca7b5e6	-0.020472478
102	0xbd3083cf	-0.043094452
103	0x3d2ffb37	0.042964187
104	0x3d120976	0.035653554
105	0xbca8a976	-0.020588618
106	0x3b89cfef	0.004205696
107	0xbcd6f05f	-0.026237665
108	0xbc97c194	-0.018524922
109	0x3cf095b4	0.029368259
110	0xbcee349d	-0.029077822
111	0xbc223f47	-0.009902782
112	0x3d216929	0.03940693
113	0x3c83492e	0.016026106
114	0xbcb432db	-0.021996906
115	0x3c900ceb	0.017584285
116	0x3b6bd9fe	0.0035988088
117	0x3cd8b70c	0.026454471
118	0xbc94403f	-0.018097041
119	0x3d10262b	0.03519265
120	0x3d21845e	0.039432876
121	0x3c1e7161	0.009670586
122	0x3d04f55c	0.032460555
123	0x3d1c3fa3	0.038146626
124	0x3ce5087f	0.027958153
125	0x3bb5a199	0.0055429456
126	0x3d007e40	0.0313704
127	0x3b7ef1af	0.003890138
128	0x3d1a8961	0.03772867
129	0xbd155e7d	-0.036467064
130	0xbc5d9f54	-0.013526756
131	0xbc097dd4	-0.008391816
132	0x3c9a3916	0.018826049
133	0xbd013b0e	-0.03155046
134	0x3cf1484f	0.029453425
135	0x3be5d5ee	0.007014028
136	0xbc5f0d15	-0.013613959
137	0x3c68f5f2	0.014218794
138	0x3c4bb6dd	0.012433735
139	0xbcb88aa1	-0.02252704
140	0x3d2b3d65	0.041806597
141	0x3c1877d7	0.009305916
142	0xbbf1fe73	-0.007385069
143	0xbce806cd	-0.028323555
144	0x3cd77f3f	0.026305793
145	0x3d5014e0	0.050801158
146	0x3cbb5d3f	0.022871612
147	0xbd007075	-0.031357247
148	0x3c630c5d	0.013857928
149	0x3cbb65fa	0.022875775
150	0xbd097a5b	-0.033563953
151	0x3ccf6c7a	0.02532028
152	0xbc1736e8	-0.009229399
153	0xbd26332d	-0.04057615
154	0xbcde150f	-0.02710965
155	0xbcd76c13	-0.026296651
156	0xbc7c1eee	-0.015388234
157	0x3c70f92d	0.014707846
158	0x3d152b4b	0.03641824
159	0xba88f684	-0.0010449444
160	0x3cf386a9	0.029727297
161	0xbbe8d1e5	-0.0071050995
162	0x3d21931e	0.039446943
163	0x3c4d8d48	0.012545891
164	0x3d1dd18b	0.038529914
165	0x3b36ff33	0.0027923107
166	0x3cbc9e8f	0.023024825
167	0x3c676479	0.014123076
168	0xbc4007e9	-0.011720636
169	0xbc682e78	-0.014171235
170	0x3c74a938	0.014932923
171	0xbc275604	-0.010213379
172	0x3d258928	0.040414006
173	0xbc925046	-0.017860543
174	0x3cb44dbc	0.022009723
175	0x3d466fcd	0.048446465
176	0x3c1422fc	0.009041544
177	0xbce0dea3	-0.027449911
178	0xbcb78307	-0.022401346
179	0x3d7e9d50	0.062161744
180	0x3c10a3ef	0.008828147
181	0xbca0188d	-0.019542957
182	0xbd413a31	-0.047174636
183	0x3cc41bcf	0.023939041
184	0x3c774fa2	0.01509467
185	0x3d336c93	0.043804716
186	0x3b38209c	0.0028095609
187	0x3d76f677	0.06029364
188	0xbc2acd21	-0.010424883
189	0xbce25b0b	-0.027631303
190	0x3d0a2793	0.033729147
191	0xbd27d1db	-0.04097162
192	0x3d0b1fa0	0.033965707
193	0xbbf072a7	-0.0073378864
194	0x3cdf2840	0.027240872
195	0xbd252053	-0.04031403
196	0xbd7a8dcd	-0.061170388
197	0xbc94fe46	-0.018187653
198	0x3d0dca05	0.03461649
199	0x3c8c1a47	0.017102374
200	0xbc6f7133	-0.014614391
201	0x3ca84470	0.020540446
202	0xbc06a379	-0.008217686
203	0xbd2c751b	-0.042103868
204	0xbc6369f4	-0.013880242
205	0xbc878160	-0.016541183
206	0x3c1861c3	0.009300652
207	0x3cb68e4b	0.022284647
208	0x3ca15cc5	0.019697556
209	0xbc6a654b	-0.014306377
210	0xbd42b695	-0.047537405
211	0x3a526c52	0.0008027005
212	0xbca59a2b	-0.020215115
213	0xbb3d4705	-0.0028881442
214	0xbc50a4bf	-0.012734591
215	0xbd00131a	-0.031268217
216	0xbc6799d8	-0.0141358
217	0xbcce29ba	-0.025166381
218	0x3c8c38d6	0.017116945
219	0xbd0ce814	-0.034401014
220	0xbd5273b4	-0.051379874
221	0xbcacef52	-0.02111021
222	0x3c4e1468	0.012578107
223	0xb9fb249f	-0.00047901736
224	0xbc6db525	-0.01450852
225	0x3d10b6b8	0.035330504
226	0xbcc172a4	-0.023614235
227	0xbd5cb4f0	-0.053883493
228	0x3c52a129	0.012855806
229	0xba8f3be0	-0.0010927878
230	0x3cb30c8c	0.021856569
231	0xbc877a65	-0.016537854
232	0xbb3c9c44	-0.0028779665
233	0xbd90bee0	-0.070676565
234	0xbc8912d3	-0.016732609
235	0x3d02cb91	0.031932417
236	0xbcef46de	-0.029208597
237	0x3cf89429	0.030344086
238	0xbcf2de76	-0.029647093
239	0x3c27883c	0.010225352
240	0xba9a755c	-0.0011784243
241	0x3bc12f09	0.0058954996
242	0x3d271df7	0.04080006
243	0xbd0e2085	-0.03469898
244	0x3cb0770a	0.021541137
245	0xbc35dd5c	-0.0111001395
246	0xbd081c21	-0.03322995
247	0x3cef9dd4	0.029250063
248	0xbd07ebab	-0.033183735
249	0x3aecfd66	0.001808089
250	0x3d516943	0.051125776
251	0xbcce7dd0	-0.025206476
252	0x3cd8cffb	0.02646636
253	0xbd509e9e	-0.05093252
254	0xbca24eef	-0.01981303
255	0xbd5793da	-0.052631237

layer2.0.bias f4 [64]
0	0x3ccf3976	0.025295954
1	0xbac755a8	-0.0015208023
2	0x3c2ef75f	0.010679095
3	0xbd14b584	-0.03630592
4	0xbb1b19bd	-0.0023666464
5	0xbc755027	-0.014972723
6	0x3cf92631	0.030413719
7	0xbc9405bf	-0.018069146
8	0x3d1a3434	0.03764744
9	0x3b8dcdbd	0.0043275044
10	0xbcd35fce	-0.02580252
11	0xbc484dfb	-0.012225623
12	0x3c889a49	0.016675131
13	0x3c4008fc	0.011720892
14	0xbd0951db	-0.03352533
15	0xbc9dff51	-0.019286783
16	0x3d15268e	0.03641372
17	0xbcaf515d	-0.021401102
18	0xbabac966	-0.0014250695
19	0x3bd1388e	0.0063849157
20	0xbbb7df0a	-0.005611305
21	0x3bd40de1	0.006471381
22	0x3d2c14fb	0.042012196
23	0x3d20f795	0.039298613
24	0xbc67a591	-0.014138595
25	0xbb919c93	-0.004443714
26	0x3cd0792e	0.025448408
27	0xbbc248fe	-0.0059291115
28	0x3d1964cd	0.037449647
29	0xbd00cc84	-0.03144504
30	0xbcc27aee	-0.023740258
31	0xbd1559fd	-0.036462773
32	0xbcc34b9a	-0.02383976
33	0xbcf27ad1	-0.029599579
34	0x3d244b23	0.04011072
35	0x3d14cf06	0.036330245
36	0x3d12b457	0.035816517
37	0x3d1e3380	0.038623333
38	0x3b546245	0.0032407206
39	0x3cba8f02	0.02277327
40	0xbd206efa	-0.039168335
41	0x38e695c3	0.0001099515
42	0x3c29fb8d	0.010374916
43	0xbcf55970	-0.029949874
44	0xbd00f699	-0.031485174
45	0xbcd98586	-0.026552927
46	0x3d254d87	0.04035714
47	0x3caf1d09	0.02137615
48	0x3c06ade8	0.008220173
49	0x3d0e518f	0.03474575
50	0x3be3820a	0.006942992
51	0xbc893796	-0.016750138
52	0x3cbd122f	0.02307996
53	0xbc97faeb	-0.018552264
54	0x3d2ceebc	0.042219862
55	0xbce371aa	-0.02776416
56	0xbd2512b7	-0.04030105
57	0x3d0e2078	0.034698933
58	0xbc6cf9b7	-0.0144638335
59	0x3c543389	0.01295174
60	0x3c53a0d2	0.0129167605
61	0xbccf3479	-0.025293576
62	0xbd05a959	-0.032632206
63	0x3d134c72	0.035961576

layer2.1.weight f4 [64]
0	0x3f7dca15	0.9913648
1	0x3f7d940e	0.9905404
2	0x3f796788	0.974236
3	0x3f7a7678	0.9783702
4	0x3f847120	1.0347023
5	0x3f816763	1.0109676
6	0x3f82f627	1.023137
7	0x3f769d11	0.96333414
8	0x3f8142f1	1.0098554
9	0x3f7e8121	0.99415785
10	0x3f799c25	0.9750388
11	0x3f7a01e4	0.97659135
12	0x3f801865	1.0007445
13	0x3f813c95	1.0096613
14	0x3f790e93	0.97287863
15	0x3f80a8fd	1.0051571
16	0x3f80b5a3	1.0055431
17	0x3f82271f	1.0168189
18	0x3f7ef21b	0.99588174
19	0x3f7e7c4f	0.9940843
20	0x3f7acb71	0.97966677
21	0x3f82f3eb	1.0230688
22	0x3f815a0e	1.0105608
23	0x3f807231	1.0034848
24	0x3f80ceba	1.0063088
25	0x3f7c5ca1	0.9857884
26	0x3f803a41	1.0017778
27	0x3f80f441	1.007454
28	0x3f843664	1.0329099
29	0x3f839449	1.0279628
30	0x3f7b39db	0.98135155
31	0x3f827e83	1.0194858
32	0x3f7d2fc0	0.98900986
33	0x3f81c0a9	1.013692
34	0x3f81dc1e	1.01453
35	0x3f8029bb	1.0012735
36	0x3f80c0e7	1.0058869
37	0x3f7f4a98	0.99723196
38	0x3f7dfb2e	0.99211395
39	0x3f7e5707	0.99351543
40	0x3f7ef6da	0.99595416
41	0x3f78d887	0.97205395
42	0x3f838383	1.0274509
43	0x3f83e301	1.0303651
44	0x3f80aa3a	1.0051949
45	0x3f8015a1	1.0006601
46	0x3f787ff8	0.97070265
47	0x3f7dd629	0.9915491
48	0x3f819019	1.01221
49	0x3f8244f3	1.0177292
50	0x3f7f515c	0.9973352
51	0x3f7d5920	0.9896412
52	0x3f81402c	1.0097709
53	0x3f7a34c0	0.9773674
54	0x3f808966	1.0041931
55	0x3f7b7caf	0.9823713
56	0x3f7ce74f	0.9879045
57	0x3f7db0c2	0.99097836
58	0x3f7a5902	0.97792065
59	0x3f8072b1	1.0035001
60	0x3f7a6b30	0.97819805
61	0x3f81e49a	1.0147889
62	0x3f803f36	1.001929
63	0x3f81039c	1.0079226

layer2.1.bias f4 [64]
0	0x3ba5e0cb	0.005062198
1	0xbd02a822	-0.031898625
2	0xbd2d3ab8	-0.042292327
3	0xbd282516	-0.041050993
4	0xbd036388	-0.032077342
5	0x3c8cada6	0.017172646
6	0xbd1c21f5	-0.03811832
7	0xbc0ce8af	-0.008600398
8	0xbcf22e36	-0.02956305
9	0xbcda831d	-0.026673848
10	0xbd04e38b	-0.032443564
11	0x3b77cc2f	0.0037810912
12	0xbcb8479b	-0.022495082
13	0xbcc944fd	-0.024569029
14	0xbbf2e214	-0.0074122045
15	0xbcc86f2a	-0.02446707
16	0xbc5875d3	-0.013211685
17	0xbd1cef89	-0.038314376
18	0xbd3c3b84	-0.045955196
19	0xbc94148b	-0.018076202
20	0xbd00aa85	-0.03141262
21	0xbc7f9286	-0.015598899
22	0xbc45f01e	-0.012081174
23	0xbd047f54	-0.032347992
24	0xbc6b1afd	-0.014349696
25	0xbd0245d9	-0.031804893
26	0xbc045266	-0.008076286
27	0xbd5f6c06	-0.05454638
28	0xbd95f186	-0.073214576
29	0xbc668462	-0.014069648
30	0xbcef97a2	-0.029247109
31	0xbc77a53e	-0.01511508
32	0xbc16e2df	-0.009209364
33	0xbc59bdd9	-0.013289892
34	0xbd805c9d	-0.062676646
35	0xbc789d80	-0.01517427
36	0xbcc12226	-0.023575854
37	0xbcd2a3d4	-0.025712885
38	0x3c786373	0.015160429
39	0xbc64877e	-0.0139483195
40	0xbccfd97f	-0.025372265
41	0xbc3359e9	-0.010946729
42	0xbc826204	-0.015915878
43	0xbda9cb88	-0.08290774
44	0xbbdf9235	-0.006822849
45	0xbce8838d	-0.02838304
46	0xbc9772f0	-0.018487424
47	0x3b121a54	0.0022293525
48	0xbdb3cd8d	-0.0877944
49	0x3a10bd03	0.0005521329
50	0xbaea1d7e	-0.0017861573
51	0xbcd1925c	-0.025582485
52	0xbd79bfd1	-0.060973946
53	0xbc61cc54	-0.013781626
54	0xbced1138	-0.028938875
55	0xbaebcfd4	-0.0017991015
56	0xbc90ae78	-0.017661318
57	0xbccb57d9	-0.024822162
58	0xbc85e890	-0.016346246
59	0x3a2894c7	0.0006430861
60	0xbd6aa282	-0.057283886
61	0xbb1f338e	-0.0024292204
62	0x3b4a481d	0.0030865737
63	0xbd057572	-0.032582708

layer2.1.running_mean f4 [64]
0	0xbe3b379c	-0.18282932
1	0xbf13e7c1	-0.57775503
2	0xbf2deb6c	-0.6793735
3	0xbf0141b6	-0.5049089
4	0x3cd49763	0.025951093
5	0xbf2a5a97	-0.6654448
6	0xbe8645ce	-0.26225132
7	0x3e3a8abb	0.18216984
8	0xbe2b611a	-0.1673626
9	0xbe3884d7	-0.18019424
10	0xbeb236bc	-0.34807384
11	0xbea0db46	-0.31417292
12	0xbf736100	-0.95069885
13	0x3eacbf80	0.33739853
14	0x3f35a248	0.70950747
15	0xbef14b5d	-0.4712781
16	0xbf4c09bd	-0.7970236
17	0xbd7eb8b1	-0.062187854
18	0xbf0f001a	-0.5585953
19	0xbe98873e	-0.29790682
20	0xbde51705	-0.11186031
21	0xbf5f07b0	-0.87121105
22	0xbeeb1b25	-0.45919147
23	0xbf818f89	-1.0121928
24	0xbf99d2f8	-1.2017508
25	0xbf551bde	-0.83245647
26	0xbefd375d	-0.494563
27	0xbedfa80b	-0.43682894
28	0xbe58b21b	-0.21161692
29	0xbf4b86bd	-0.7950247
30	0xbeee865f	-0.46586892
31	0x3ed9037d	0.42385474
32	0xbf9bd86f	-1.2175425
33	0xbf78d2b6	-0.9719652
34	0x3f1acc0c	0.604676
35	0xbf03bf01	-0.51463324
36	0xbf1a313d	-0.6023138
37	0xbe87cf7f	-0.26525494
38	0xbf3be768	-0.7339997
39	0xbe128ce5	-0.1431156
40	0xbf3fbf47	-0.7490124
41	0xbebebb3f	-0.37252232
42	0xbf1f7a1d	-0.62295705
43	0xbe96c21d	-0.29444972
44	0xbf44f208	-0.7693181
45	0xbf1a08b6	-0.6016954
46	0xbf1cbcdd	-0.6122568
47	0xbece016a	-0.40235454
48	0x3e4c15f3	0.19930248
49	0xbea1b6d6	-0.31584805
50	0xbed9c1f6	-0.42530793
51	0xbf1253bb	-0.5715901
52	0x3e80e4ee	0.2517466
53	0x3d7670aa	0.06016604
54	0xbf1207e4	-0.5704329
55	0xbfab2b8a	-1.3372662
56	0xbedff0fb	-0.4373854
57	0xbe9b7714	-0.30364287
58	0x3f29954b	0.6624343
59	0xbf962ea2	-1.1732981
60	0xbf006fc0	-0.50170517
61	0xbd8c9af0	-0.068654895
62	0xbf93119d	-1.148975
63	0xbf5c6a8f	-0.86100096

layer2.1.running_var f4 [64]
0	0x3f0fe84c	0.5621383
1	0x3f2d42f1	0.6768027
2	0x3f171f82	0.5903245
3	0x3ee891f1	0.45423844
4	0x3e9fba75	0.31196943
5	0x3ee082e2	0.43849856
6	0x3e7ac03d	0.24487396
7	0x3f371d64	0.7152922
8	0x3ea50c15	0.3223578
9	0x3ed8dabb	0.42354378
10	0x3ef0840a	0.46975738
11	0x3f4fba30	0.81143475
12	0x3ece9149	0.4034522
13	0x3f423efe	0.7587737
14	0x3ee71f1f	0.4514093
15	0x3eb064d7	0.34451935
16	0x3ed3d620	0.41374302
17	0x3e6ac913	0.22928266
18	0x3e985e1b	0.29759297
19	0x3ee3bcf2	0.4448009
20	0x3f027dd0	0.50973225
21	0x3ecb8fa9	0.39758042
22	0x3e77d940	0.24203968
23	0x3eb64a72	0.35603672
24	0x3eda85e0	0.42680264
25	0x3edd2017	0.43188545
26	0x3f453753	0.77037543
27	0x3e8018f6	0.25019044
28	0x3e44aa59	0.19205607
29	0x3ea3eee9	0.3201821
30	0x3eb9b0ee	0.362678
31	0x3f1363fc	0.5757444
32	0x3f907f9a	1.1288941
33	0x3ed2690d	0.41095772
34	0x3e70d761	0.2351966
35	0x3e87670a	0.264458
36	0x3f38778e	0.72057426
37	0x3e5ecd8c	0.21758097
38	0x3f0f0b72	0.5587684
39	0x3f2b0422	0.6680318
40	0x3eda797f	0.4267082
41	0x3ebafe29	0.36522034
42	0x3e8dfbe8	0.27731252
43	0x3e85832d	0.26076642
44	0x3f76f898	0.96473074
45	0x3e6ac895	0.22928078
46	0x3f31314e	0.6921586
47	0x3e8fe9a8	0.28107953
48	0x3e1f81d4	0.15576869
49	0x3e3eb7d0	0.18624806
50	0x3f63c032	0.8896514
51	0x3f1991db	0.5998818
52	0x3e594e49	0.2122127
53	0x3f437bc6	0.7636074
54	0x3e8818d4	0.26581442
55	0x3f170f84	0.5900805
56	0x3f3c9991	0.73671824
57	0x3f33209a	0.6997162
58	0x3f263e5e	0.64938915
59	0x3f2a750c	0.6658485
60	0x3ef0d380	0.47036362
61	0x3e913243	0.2835866
62	0x3f2026d2	0.62559235
63	0x3ec1ceae	0.37852997

layer3.0.weight f4 [64, 64, 3, 3]
0	0x3ca13ac1	0.019681336
1	0x3d0a2224	0.033723965
2	0x3b75a331	0.0037481303
3	0xbd34d3e1	-0.044147376
4	0xbd464df8	-0.0484142
5	0xbd446007	-0.04794314
6	0xbd1399f2	-0.036035486
7	0xbd3b5625	-0.04573645
8	0xbc914fdb	-0.017738273
9	0x3cf415ae	0.029795494
10	0xbd0c8609	-0.034307513
11	0x3ce12f0c	0.027488254
12	0x3cd7a160	0.026322067
13	0x3cfe00f8	0.031006321
14	0x3c0bbcd0	0.008528903
15	0x3beecfaf	0.0072879414
16	0x3cb31968	0.0218627
17	0x3ca31f5b	0.019912412
18	0xbb824583	-0.0039755716
19	0x3c0e8aed	0.008700115
20	0x3cc8cf68	0.024512962
21	0x3d0c7168	0.03428784
22	0x3bfc1a11	0.007693537
23	0xbae92307	-0.0017786928
24	0x3c934c64	0.017980762
25	0xbd42b4d0	-0.047535717
26	0xbbaa97a2	-0.0052060643
27	0xbc767659	-0.015042865
28	0xbd2c8ea4	-0.04212822
29	0x3b48400e	0.0030555758
30	0x3c8b914a	0.017037053
31	0x3d8f18a8	0.06987125
32	0x3af97a02	0.0019033554
33	0x3c7d5aef	0.015463575
34	0x3aa3b046	0.0012488447
35	0x3c645331	0.01393585
36	0x3d388d6c	0.045056745
37	0xbce58e2d	-0.028021896
38	0xbca4eeaf	-0.020133344
39	0xbc58db29	-0.013235846
40	0xbc2f9f59	-0.010719144
41	0x3cd21e7b	0.0256493
42	0xbce2c31e	-0.02768093
43	0x3ce9730f	0.028497247
44	0x3c000460	0.007813543
45	0xbc8239f8	-0.015896782
46	0x3bd2281a	0.006413472
47	0xbd3e75b9	-0.046498988
48	0x3cb1cbac	0.021703564
49	0xbbbf6870	-0.0058413073
50	0xbce1862f	-0.027529804
51	0x3d0881b4	0.03332682
52	0x3d68bc2d	0.056820083
53	0x3d1c1205	0.038103122
54	0xbd12a6f2	-0.035803743
55	0xbced659f	-0.02897912
56	0xbc04156f	-0.008061751
57	0x3ca29dfa	0.01985072
58	0xbca6adee	-0.020346608
59	0xbcd345a5	-0.025790045
60	0x3caa323b	0.020775905
61	0xbd021e95	-0.031767447
62	0xbc2bb35d	-0.010479775
63	0xbd66808d	-0.05627494
64	0xbce65663	-0.028117364
65	0xbd972f57	-0.07382076
66	0x3ca9f6b3	0.020747518
67	0xbc343bd9	-0.011000597
68	0xbd5d37ad	-0.054008175
69	0x3d7515cd	0.059835244
70	0x3d06c987	0.032907035
71	0x3b268db1	0.0025414045
72	0x3c0ebe25	0.008712326
73	0xbcce6970	-0.02519676
74	0x3d150b3a	0.03638766
75	0xbd141df6	-0.036161385
76	0xbd59a4b8	-0.053135604
77	0xbd23334e	-0.03984385
78	0xbd0debc6	-0.03464868
79	0xbd57a5b1	-0.05264825
80	0xbd759baf	-0.059962925
81	0x3a0239b7	0.00049677066
82	0x3a326c20	0.0006806273
83	0xbd063c57	-0.03277239
84	0x3cb538f0	0.022121876
85	0xbd159c79	-0.036526177
86	0x3c140ee0	0.00903675
87	0x3d04bce8	0.032406718
88	0x3d097652	0.033560105
89	0xbd061451	-0.03273422
90	0x3d240ce7	0.040051367
91	0x3c3c15a9	0.011479774
92	0xbd0ff901	-0.035149578
93	0x3c216be0	0.00985238
94	0xb93d2398	-0.00018037704
95	0x3b961afd	0.004580854
96	0x3ce85a2b	0.028363308
97	0xbd4674b4	-0.04845114
98	0x3c2bfef2	0.010497795
99	0x3cfb130e	0.030648734
100	0xbd2a7b27	-0.041621353
101	0xbc18f2a6	-0.009335196
102	0xbd13fd11	-0.036130015
103	0x3b634bf6	0.0034682727
104	0x3ce8d8ea	0.028423745
105	0xbc62c205	-0.013840203
106	0xbca61ae0	-0.020276487
107	0x3c96f0a1	0.018425288
108	0xbc532c2d	-0.01288895
109	0x3c2c2a31	0.010508106
110	0x3bc5965b	0.0060298867
111	0xbb8c9ac3	-0.00429091
112	0xbc101d50	-0.008796051
113	0x3bb07f90	0.0053863004
114	0x3d1a9cfe	0.037747376
115	0xbcdb39d0	-0.026760966
116	0x3d149933	0.036278915
117	0x3cb61ecd	0.022231484
118	0xbd2eb36a	-0.04265157
119	0xbb93718f	-0.004499621
120	0xbc1b1d6a	-0.009467462
121	0x3bfc7c19	0.0077052233
122	0x3cd13618	0.02553849
123	0xbc7cf968	-0.015440322
124	0xbd0b441e	-0.03400051
125	0xbca5fb7a	-0.020261515
126	0x38c5b4bd	9.427357e-05
127	0xbcf07cd5	-0.0293564
128	0xbb8b3af3	-0.0042489707
129	0xbcfd9079	-0.030952679
130	0x3cdb84b2	0.026796672
131	0xbc601737	-0.01367741
132	0x3ca25b30	0.019818872
133	0x3bfce648	0.0077178814
134	0xbcd55ebf	-0.026046155
135	0x3b7777ee	0.0037760693
136	0xbc43a691	-0.011941568
137	0x3d055bdc	0.032558307
138	0xbd0b2374	-0.033969358
139	0x3d29943e	0.04140114
140	0x3c08d12b	0.008350651
141	0x3cbb373f	0.022853492
142	0x3c01d5c9	0.0079245055
143	0x3d0bca5f	0.034128543
144	0x3aeeb93d	0.0018213164
145	0x3d0c1839	0.034202788
146	0x3cd487df	0.025943695
147	0xbbd86b5d	-0.0066045956
148	0xbc7f140f	-0.015568747
149	0x3d10c113	0.03534038
150	0xbd058651	-0.032598797
151	0xbd7c2164	-0.06155528
152	0x3b20de47	0.002454655
153	0x3cd45ba0	0.025922596
154	0x3c304cac	0.0107604675
155	0x3c922ca1	0.017843546
156	0x3d084ff2	0.033279367
157	0xbb58a2ff	-0.0033056138
158	0xbcce02ea	-0.025147874
159	0x3bbf022f	0.0058291177
160	0x3ce5b9ee	0.02804276
161	0xbcc10cfc	-0.023565762
162	0xbc2e07d0	-0.01062198
163	0xbcdeff5e	-0.027221378
164	0x3b574d69	0.0032852537
165	0x3c17aec9	0.009257981
166	0xbc9a0542	-0.018801335
167	0xbcf18514	-0.029482402
168	0x3d523294	0.051317766
169	0x3cd70035	0.026245216
170	0xbc51500e	-0.012775434
171	0xbd491d6e	-0.049100332
172	0xbbcc66ae	-0.0062378263
173	0xbc44e2a9	-0.012016931
174	0xbc601078	-0.013675801
175	0xbc1911fb	-0.009342666
176	0xbd9157df	-0.07096838
177	0x3d06ad92	0.032880373
178	0xbc85bc6d	-0.0163252
179	0xbc0a457e	-0.00843942
180	0xbb2f4e7b	-0.002674966
181	0xbd422576	-0.047399007
182	0xbc862c37	-0.016378505
183	0xbc818c30	-0.015813917
184	0xbcf62ccf	-0.030050663
185	0xbce8cdcb	-0.028418442
186	0x3cb6d1c6	0.022316825
187	0x398acd6c	0.00026474462
188	0x3d1a9821	0.037742738
189	0xbc2c1104	-0.010502104
190	0x3c85bf16	0.016326468
191	0x3cd1d6d9	0.025615143
192	0x3aca8fdc	0.001545425
193	0x3d5b376a	0.053519644
194	0x3c8adbff	0.016950605
195	0x3d21fb58	0.03954634
196	0x3c7a1a80	0.015265107
197	0xbcb5d4a6	-0.022196125
198	0xbcacd3c2	-0.021097068
199	0x3bb231f2	0.005438083
200	0x3c0e4e4f	0.008685662
201	0xbd0c22da	-0.034212925
202	0xbb170b6e	-0.0023047584
203	0x3c1dd2b7	0.009632758
204	0x3bc296e6	0.0059383987
205	0xbd339668	-0.04384461
206	0xbce1904b	-0.027534625
207	0xbc2c4cb3	-0.010516333
208	0x3c42f707	0.011899716
209	0x3d0b97cc	0.03408031
210	0xbc495665	-0.0122886645
211	0x3ccb5851	0.024822386
212	0x3cbf4f34	0.023353197
213	0x3a8c5ed5	0.0010709414
214	0x3cbf88d6	0.023380678
215	0xbd2fdfb4	-0.04293795
216	0xbc2409ce	-0.010012103
217	0xbd29f6a4	-0.04149498
218	0x3c322162	0.010872217
219	0xbc55220d	-0.013008607
220	0xbd4e61cb	-0.05038623
221	0xbcdfb4c1	-0.02730787
222	0x3c46a262	0.012123676
223	0x3b4b373e	0.0031008269
224	0x3cce30a7	0.025169684
225	0xbd339d6c	-0.0438513
226	0xbace03a1	-0.0015717634
227	0xbcf7dcb7	-0.030256612
228	0xbcdd2e75	-0.026999692
229	0xbadb4aa1	-0.0016730615
230	0xbb86b9a8	-0.0041114874
231	0x3d0cfe01	0.034421925
232	0x3cb6f0dc	0.022331648
233	0xbc25b578	-0.010114066
234	0x3c92d0a0	0.017921746
235	0xbcff7477	-0.031183464
236	0x3d1a9e2a	0.037748493
237	0x3ac59b83	0.0015076253
238	0x3ca84329	0.020539837
239	0x3d28553c	0.04109691
240	0xbd3a121b	-0.045427423
241	0xbb5af941	-0.0033412727
242	0x3ce9f98d	0.028561378
243	0xbc1c330c	-0.009533655
244	0xbd18283b	-0.03714774
245	0xbcc7ea53	-0.024403727
246	0x3cc0579a	0.023479272
247	0x3d40e12d	0.047089744
248	0xbce9c46b	-0.028536042
249	0x3cffa802	0.031208042
250	0xbc1ed3d8	-0.009694062
251	0x3d0838da	0.033257343
252	0x3a235eff	0.0006232112
253	0xbd5fcb25	-0.054637093
254	0xbca17cea	-0.019712884
255	0x3c98d64e	0.018656876

layer3.0.bias f4 [64]
0	0xbbea2065	-0.007144975
1	0x3ca2b8cd	0.01986351
2	0xbc4882ed	-0.012238246
3	0x3cd40080	0.025879145
4	0x3c244a82	0.01002753
5	0xbd0f88fd	-0.03504275
6	0x3cbd91a2	0.023140732
7	0x3a6e501c	0.0009090917
8	0xbcadfccd	-0.021238709
9	0xbd1b9941	-0.03798795
10	0xbc5b6550	-0.013390854
11	0xbc8ec077	-0.017425759
12	0xbcc7d3e8	-0.024393037
13	0xbd22b4cb	-0.0397232
14	0x3c80b98e	0.01571348
15	0xbb70da4f	-0.0036751216
16	0xbc37e582	-0.0112241525
17	0x3ca6af33	0.020347213
18	0x3bb78e2f	0.0056016664
19	0xbb8ad431	-0.004236721
20	0xbb7721ff	-0.0037709472
21	0x3c9b6b4b	0.01897206
22	0xbd0ec29a	-0.034853555
23	0xbcfa6c07	-0.03056909
24	0x3cd76413	0.026292836
25	0x3d1764f9	0.03696153
26	0xbc817c3a	-0.015806306
27	0xbc1c43a3	-0.00953761
28	0x3bcd4cb7	0.0062652486
29	0x3ca0169b	0.01954203
30	0x3cbbed84	0.022940405
31	0xbbf4228a	-0.0074504064
32	0x3b82e895	0.003995011
33	0xbbe576d6	-0.0070026917
34	0xbcb90d32	-0.0225893
35	0xbcece900	-0.028919697
36	0x3bee36d9	0.007269722
37	0x3cd274e0	0.025690496
38	0xbd011c78	-0.03152129
39	0xbd184eb0	-0.037184417
40	0xbc2fadc8	-0.010722585
41	0x3d263714	0.04057987
42	0x3cc4f564	0.024042793
43	0x3c5deaa2	0.01354471
44	0xbd180588	-0.03711465
45	0x3d257885	0.04039814
46	0xbd20ab5d	-0.039225925
47	0xbb916874	-0.0044375006
48	0x3b4b2327	0.0030996294
49	0xbc973d4e	-0.01846185
50	0x3c25fbde	0.010130851
51	0xbb9e89ff	-0.0048382278
52	0x3b017610	0.0019754209
53	0x3b7fe47d	0.0039046102
54	0xbc835e10	-0.016036063
55	0xbc89e17a	-0.016831148
56	0x3a352405	0.00069099694
57	0xbc9b9ff0	-0.018997163
58	0xbc14274f	-0.009042575
59	0xbc557d75	-0.0130304
60	0x3c8a797e	0.016903635
61	0x3cdab714	0.026698627
62	0xbc41a49b	-0.01181903
63	0xbd11b944	-0.035577074

layer3.1.weight f4 [64]
0	0x3f82ad03	1.0209049
1	0x3f818f93	1.012194
2	0x3f82cdfe	1.0219114
3	0x3f886902	1.0657046
4	0x3f82378e	1.0173204
5	0x3f83bf59	1.029277
6	0x3f787375	0.97051173
7	0x3f8b6568	1.0890322
8	0x3f836084	1.0263829
9	0x3f831329	1.0240222
10	0x3f7f0483	0.9961626
11	0x3f858f23	1.0434307
12	0x3f83545e	1.0260122
13	0x3f7f4d7d	0.9972761
14	0x3f816085	1.010758
15	0x3f798e41	0.9748269
16	0x3f7981a8	0.97463465
17	0x3f774410	0.9658823
18	0x3f7cd032	0.9875518
19	0x3f825c3d	1.0184399
20	0x3f7ccc1d	0.9874895
21	0x3f78c07e	0.9716872
22	0x3f7ea6bf	0.99473184
23	0x3f7b19de	0.98086345
24	0x3f7ca4bd	0.9868887
25	0x3f7c2cf0	0.9850607
26	0x3f7ccb62	0.9874784
27	0x3f791777	0.9730143
28	0x3f76d201	0.9641419
29	0x3f882fe3	1.0639614
30	0x3f819dc7	1.0126275
31	0x3f74df1e	0.9565295
32	0x3f802589	1.0011455
33	0x3f752b2b	0.95768994
34	0x3f7b3a8e	0.9813622
35	0x3f78fe6c	0.97263217
36	0x3f80a5e4	1.0050626
37	0x3f7ad6e7	0.97984165
38	0x3f76caa8	0.9640298
39	0x3f7f0c24	0.996279
40	0x3f7f14a9	0.996409
41	0x3f7a6ed8	0.97825384
42	0x3f87632b	1.0577139
43	0x3f834b15	1.0257288
44	0x3f81977c	1.0124354
45	0x3f81b972	1.0134718
46	0x3f80fd4e	1.0077302
47	0x3f804b78	1.0023031
48	0x3f8231bb	1.0171427
49	0x3f7bcda0	0.98360634
50	0x3f7ae934	0.9801209
51	0x3f79e426	0.9761375
52	0x3f81ef86	1.0151222
53	0x3f78affd	0.97143537
54	0x3f7bcd19	0.9835983
55	0x3f8038e3	1.001736
56	0x3f7ea64c	0.994725
57	0x3f6f8b8f	0.93572325
58	0x3f82f089	1.0229656
59	0x3f75488c	0.9581382
60	0x3f71f508	0.94514513
61	0x3f7ef9ef	0.9960012
62	0x3f7ed6f8	0.99546766
63	0x3f7fbd9b	0.9989869

layer3.1.bias f4 [64]
0	0xbcdb3700	-0.026759624
1	0xbdbed707	-0.09318357
2	0xbd95c516	-0.07312982
3	0xbe1739b5	-0.14768107
4	0xbdd4194d	-0.10356388
5	0xbda70593	-0.0815536
6	0xbd814221	-0.06311441
7	0xbe029386	-0.12751588
8	0xbd637270	-0.055529058
9	0xbe17a657	-0.14809547
10	0xbd6f393a	-0.058404185
11	0xbd7f49d0	-0.062326252
12	0xbd4a4d72	-0.049390264
13	0xbd90557a	-0.07047553
14	0xbdae6b8e	-0.08516608
15	0xbd0befb8	-0.03416416
16	0xbb173d15	-0.002307718
17	0xbca465a8	-0.020068005
18	0xbd64a8f7	-0.0558252
19	0xbd865c2a	-0.06560548
20	0xbd1267ba	-0.035743453
21	0xbc9ca9f2	-0.019124005
22	0xbd36c6de	-0.04462325
23	0xbd612c44	-0.054973856
24	0xbd5a3e2c	-0.053281948
25	0xbcd290dc	-0.02570384
26	0xbcfe498b	-0.031040927
27	0xbd63666b	-0.055517595
28	0xbd7fac3f	-0.062420126
29	0xbd912337	-0.07086795
30	0xbd632033	-0.05545063
31	0xbc59ce17	-0.013293765
32	0xbd492c4d	-0.049114514
33	0xbd604548	-0.05475357
34	0xbd9359b0	-0.07194841
35	0xbd0eed60	-0.034894347
36	0x3b8430ff	0.004034161
37	0xbd73cfeb	-0.059524458
38	0xbd79e515	-0.061009485
39	0xbcffb68a	-0.031214971
40	0xbd9800e1	-0.07422043
41	0xbce70549	-0.028200762
42	0xbe18ec42	-0.14933875
43	0xbdcffb44	-0.10155347
44	0xbd38703c	-0.04502891
45	0xbca8e9ed	-0.020619357
46	0xbc7a9b17	-0.015295765
47	0xbd841407	-0.064491324
48	0xbda2b6ac	-0.07944998
49	0xbcc47a29	-0.023984032
50	0xbca593ca	-0.020212073
51	0xbd4465ba	-0.047948577
52	0xbd9ad9c7	-0.07561069
53	0xbd5d621e	-0.05404865
54	0xbc7480d6	-0.014923295
55	0xbda86172	-0.08221711
56	0xbcd1c96c	-0.02560874
57	0xbd3b65ac	-0.04575126
58	0xbd5366b5	-0.05161162
59	0xbd9006be	-0.07032536
60	0xbc062bd9	-0.008189165
61	0xbd289819	-0.041160677
62	0xbc833ca9	-0.016020136
63	0xbda877da	-0.08225985

layer3.1.running_mean f4 [64]
0	0xbf3ef3b9	-0.7459064
1	0xbbc4c5e0	-0.006005034
2	0xbf225d19	-0.63423306
3	0xbf25b429	-0.6472803
4	0xbee03cc2	-0.43796355
5	0xbf2fc2e6	-0.68656766
6	0xbf5d61b2	-0.86477196
7	0xbef3dd69	-0.4762986
8	0xbf43178f	-0.7620782
9	0x3eaade28	0.33372617
10	0xbf39149c	-0.7229707
11	0xbf5cc2ec	-0.8623493
12	0xbf0f4113	-0.5595867
13	0x3dec19da	0.11528368
14	0xbf2e3a5f	-0.6805782
15	0xbf293128	-0.6609063
16	0xbf6b77fe	-0.9197997
17	0xbec7311f	-0.38904664
18	0xbf08c1be	-0.5342063
19	0xbf765aa7	-0.96232074
20	0xbeb70e48	-0.35753083
21	0xbf1b65f0	-0.6070242
22	0xbeaeca49	-0.34138706
23	0xbec2f9d0	-0.38081217
24	0xbe792a7f	-0.24332617
25	0xbf4af99a	-0.7928711
26	0xbf38b7da	-0.72155535
27	0xbf003e42	-0.50095
28	0xbddf1bae	-0.10893951
29	0xbf70c4e9	-0.9405046
30	0xbe9a5250	-0.30140924
31	0xbee8f61b	-0.45500264
32	0xbf3507a7	-0.707148
33	0xbea668c0	-0.32501793
34	0xbe5c6b5c	-0.2152533
35	0xbf54355e	-0.8289393
36	0xbf75ec1a	-0.9606339
37	0xbed4b49d	-0.41544047
38	0xbe82edac	-0.25571954
39	0xbedd2efb	-0.43199906
40	0x3df8a4de	0.12140821
41	0xbf3cc337	-0.73735374
42	0xbeedbc55	-0.46432748
43	0xbf01f614	-0.5076611
44	0xbf49799e	-0.787012
45	0xbf332f8c	-0.69994426
46	0xbf023f52	-0.5087787
47	0xbf530407	-0.8242802
48	0xbf18adbe	-0.5964011
49	0xbf0420f4	-0.5161278
50	0xbf7cc831	-0.9874297
51	0xbf17005b	-0.5898492
52	0xbe763e2a	-0.24047151
53	0xbf1d1902	-0.61366284
54	0xbec15c79	-0.37765864
55	0x3e083d04	0.13304526
56	0xbf5e85eb	-0.8692309
57	0xbf091923	-0.5355398
58	0xbf47fb45	-0.7811778
59	0x3dba7e52	0.09106125
60	0xbf1ba44e	-0.60797584
61	0xbf5d8e82	-0.86545575
62	0xbf3e542b	-0.7434718
63	0xbf22d578	-0.6360698

layer3.1.running_var f4 [64]
0	0x3e97b023	0.2962657
1	0x3e99948c	0.29996145
2	0x3e82e15b	0.25562558
3	0x3e25c770	0.1618936
4	0x3e7f44ca	0.24928585
5	0x3e967033	0.29382476
6	0x3e520ace	0.20511934
7	0x3e182b50	0.14860272
8	0x3e53d573	0.20686893
9	0x3e30724d	0.17231102
10	0x3ea64243	0.3247243
11	0x3e82dc02	0.25558478
12	0x3e5d2b6a	0.21598592
13	0x3e4ec5d2	0.2019265
14	0x3eb18953	0.34675083
15	0x3f053094	0.5202725
16	0x3eea2b54	0.45736182
17	0x3f09fdfc	0.53903174
18	0x3ec44106	0.3833086
19	0x3e86d8bb	0.26337227
20	0x3ec5506b	0.38537917
21	0x3f24419f	0.6416263
22	0x3ebad1e8	0.3648827
23	0x3e89db21	0.26924995
24	0x3ee3ba44	0.44478047
25	0x3f09f3dd	0.5388773
26	0x3eb6cbe2	0.35702425
27	0x3ed7f4cd	0.42178956
28	0x3e824c24	0.25448716
29	0x3e6e4015	0.23266633
30	0x3e7d1fcc	0.24719161
31	0x3eb51029	0.35363892
32	0x3e963fd6	0.29345578
33	0x3f01e949	0.5074659
34	0x3efb99aa	0.49140674
35	0x3f064cb3	0.52460784
36	0x3ead8882	0.3389321
37	0x3ecf5df4	0.40501368
38	0x3ea69335	0.32534185
39	0x3e77724d	0.24164696
40	0x3e6a0778	0.22854412
41	0x3ea8fd34	0.3300568
42	0x3e434684	0.19069868
43	0x3e45a229	0.1930014
44	0x3eaf8814	0.34283507
45	0x3e937fdb	0.28808483
46	0x3ec3f236	0.3827073
47	0x3e983ba4	0.29733002
48	0x3e43e969	0.19132008
49	0x3ec2fe7f	0.3808479
50	0x3f2b8bac	0.6701
51	0x3e86209d	0.26196757
52	0x3e9c2ffe	0.30505365
53	0x3f2155df	0.63021654
54	0x3ee20d30	0.44150686
55	0x3e6bf283	0.2304173
56	0x3e7984b3	0.24367027
57	0x3eb6cda9	0.3570378
58	0x3eaeb928	0.34125638
59	0x3ea9bd6e	0.33152336
60	0x3f2c7fff	0.67382807
61	0x3ecc7d67	0.39939424
62	0x3eb9f36e	0.36318535
63	0x3e7f3370	0.24921966
