FAST 3D-CNN P-NET/model/ZGFF/ZGFF_proto_2d-5shot.pth (torch, 744697 bytes, 24 tensors)

layer1.0.weight f4 [64, 125, 3, 3]
0	0x3d02291c	0.031777486
1	0x3cc651f5	0.024209002
2	0x3d954d2f	0.07290112
3	0xbbd8f49c	-0.0066209566
4	0xb86f7e9f	-5.7099965e-05
5	0x3d7dde3a	0.06197951
6	0xbbced0fe	-0.006311535
7	0xbc616b58	-0.013758503
8	0xbce9f5d6	-0.028559607
9	0xbcbc4aa7	-0.022984816
10	0x3b03356e	0.002002086
11	0xb8cf2756	-9.877856e-05
12	0x3c03d4ee	0.008046372
13	0x3c9ae244	0.01890672
14	0xbcedb13a	-0.029015172
15	0xbcf8b7ca	-0.030361075
16	0x3ccfc70d	0.02536347
17	0x3bc51328	0.0060142465
18	0xbcc91fab	-0.024551233
19	0xbd3243b6	-0.043521605
20	0x3cdb3ab9	0.0267614
21	0xbc401370	-0.011723384
22	0xbcab3d5f	-0.020903287
23	0x3b984059	0.0046463427
24	0xbd129af9	-0.035792325
25	0x3d05f338	0.032702655
26	0x3d2fed1c	0.042950734
27	0xbbfcefee	-0.0077190315
28	0xbc666526	-0.014062202
29	0x3c1ba5ab	0.009499948
30	0x3d1adc07	0.03780749
31	0xbbf55d23	-0.0074879094
32	0x3c7e2c8e	0.015513552
33	0xbb340ff9	-0.002747534
34	0x3d17cd37	0.037060943
35	0x3c10d42b	0.008839647
36	0x3ca407e9	0.020023303
37	0xbb1e7174	-0.002417651
38	0xbc5fa9ae	-0.013651295
39	0xbbcdce5e	-0.0062807044
40	0xbbd6ae14	-0.0065515134
41	0x3d0ad40d	0.033893634
42	0xbce85039	-0.028358566
43	0x3c798da9	0.015231528
44	0xbc223745	-0.009900873
45	0xbb9fd0e3	-0.004877196
46	0x3c73e3fb	0.014885898
47	0xbc8cec33	-0.017202472
48	0x3ca4db23	0.020124024
49	0xbb55e0a7	-0.0032635124
50	0x3d5b625a	0.053560592
51	0xbcc3fd1f	-0.023924408
52	0x3b0247ce	0.0019879225
53	0x3d1889fe	0.037240975
54	0x3d18d926	0.037316464
55	0x3c26d60e	0.010182871
56	0x3ce89388	0.02839066
57	0xbc15abf0	-0.009135231
58	0xbd27fec8	-0.041014463
59	0x3c76a94f	0.015055015
60	0x3c566259	0.013084971
61	0x3b1ce917	0.0023942643
62	0x3cb75b04	0.022382267
63	0x3c76f855	0.015073855
64	0x3cacd462	0.021097366
65	0xbc13acd9	-0.009013378
66	0x3c877ae5	0.016538093
67	0x3bde2b97	0.0067800987
68	0x3cee5af8	0.029096112
69	0x3c07753a	0.008267695
70	0x3d2ddbc1	0.0424459
71	0x3cd0d131	0.025490375
72	0x3d69ae4d	0.05705099
73	0x3cfc4045	0.030792365
74	0xbbb58cc5	-0.0055404627
75	0x3c313cec	0.010817748
76	0x3d0e81e6	0.03479185
77	0xbc06ac6e	-0.008219821
78	0x3d5b4c85	0.05353977
79	0x3c18dfdb	0.009330715
80	0x3d55cd5e	0.052197807
81	0x3ca8ad65	0.020590493
82	0xbc350d65	-0.011050557
83	0xbc11dffd	-0.008903501
84	0xbc14b4f7	-0.0090763485
85	0x3cd4ae44	0.025962003
86	0x3d0d6916	0.034524046
87	0x3d300f0d	0.042983104
88	0x3d6dde3a	0.05807326
89	0x3d1f18f7	0.038842168
90	0x3ccdf275	0.025140027
91	0xbc4841f7	-0.0122227585
92	0x3c56c0e4	0.013107512
93	0x3cc3845e	0.023866829
94	0x3c57012a	0.013122836
95	0x3c95bd60	0.018278778
96	0x3c11cd2d	0.008899015
97	0x3d4a08d9	0.049324844
98	0x3d222fd0	0.03959638
99	0x3c904189	0.017609375
100	0xbc157ca7	-0.009123958
101	0xbc8b1b1a	-0.016980696
102	0x3caa4702	0.020785812
103	0xbc6af46d	-0.014340502
104	0x3c824ea2	0.015906636
105	0x3ce7b980	0.028286695
106	0x3c8d5543	0.01725257
107	0xbc070ba6	-0.008242523
108	0x3cb9f449	0.022699492
109	0x3cedecdd	0.02904361
110	0x3c97ee11	0.018546136
111	0x3aa5f329	0.0012660968
112	0x3cecafee	0.028892484
113	0x3c41b58f	0.011823072
114	0x3cd41ed0	0.025893599
115	0x3d4dd212	0.050249167
116	0x3d21fc68	0.039547354
117	0xbc017278	-0.007900827
118	0xba5a366b	-0.0008324149
119	0xbc9c25b1	-0.019060941
120	0x3c0ea945	0.008707349
121	0xbab10ee8	-0.0013508471
122	0xbc81692f	-0.015797226
123	0xbaf7065d	-0.0018846501
124	0x3c545601	0.012959958
125	0x390f7e9e	0.00013684711
126	0x3c6fe4ec	0.014641982
127	0xbc6cdb6b	-0.01445661
128	0x3c64fc66	0.013976192
129	0x3ce8f29f	0.028436003
130	0xbcc8477d	-0.02444815
131	0x3b6b9b68	0.0035950784
132	0x3c9fe12f	0.019516556
133	0x3cc9b8db	0.024624279
134	0xba54b609	-0.00081142836
135	0x3c1dda08	0.009634502
136	0xbba5d830	-0.005061172
137	0x3c5106dd	0.012757984
138	0xbcb02fea	-0.021507222
139	0x3d08ff93	0.03344686
140	0x3caa33e0	0.020776689
141	0x3d060e68	0.032728583
142	0xbb836e79	-0.004010972
143	0x3a72da52	0.00092640996
144	0xbc613670	-0.013745889
145	0x3ce327ee	0.027729
146	0xbcae9f9b	-0.02131634
147	0xbceddb67	-0.029035283
148	0x3c810f85	0.01575447
149	0x3c50ee08	0.012752064
150	0x3c7e2b7e	0.015513299
151	0x3b3436b5	0.0027498428
152	0xbbe1ab15	-0.0068868496
153	0x3cb4d974	0.022076346
154	0x3d2259c6	0.039636396
155	0x3c7a9df1	0.015296445
156	0x3cccd6b8	0.02500473
157	0x3c321648	0.01086957
158	0x3c732757	0.014840922
159	0x3c1db690	0.009626046
160	0x3aee9412	0.0018202087
161	0x3cbc5528	0.022989824
162	0x3c1ee8cf	0.009699061
163	0x3cdc80a9	0.026916819
164	0xbca7340c	-0.02041056
165	0xbc2419ee	-0.010015948
166	0x3c7e27cb	0.015512417
167	0x3c8fa3df	0.017534195
168	0x3c6db6f2	0.01450895
169	0xbb2d602d	-0.002645503
170	0x3c915c84	0.01774431
171	0x3c4f7360	0.012661785
172	0x3ca7ec26	0.020498347
173	0xbcc85b71	-0.024457665
174	0x3c3ce3b9	0.011528903
175	0x3d0af21f	0.03392231
176	0x3c055b8b	0.008139501
177	0xbbb113e3	-0.005403982
178	0xbc289ed3	-0.010291773
179	0xbc4793bf	-0.0121812215
180	0x3d060b1f	0.03272545
181	0xbb3cd0cd	-0.0028810978
182	0xbba07f65	-0.004897999
183	0x3cda1588	0.026621595
184	0xbc8673f8	-0.01641272
185	0x3c94192a	0.018078405
186	0x3cd227f9	0.025653826
187	0x3c374131	0.011184976
188	0x3c3b3810	0.011426941
189	0x3b05c3ec	0.0020410968
190	0x3ce03ac4	0.027371772
191	0x3b2b9b18	0.0026184972
192	0xbca3d1f0	-0.019997567
193	0x3c3c3081	0.011486174
194	0x3caa9457	0.020822687
195	0x395faadf	0.00021330592
196	0x3b430555	0.0029757817
197	0x3b73fde9	0.00372302
198	0xbc8beb6d	-0.017080033
199	0xbce07554	-0.027399696
200	0x3b8f7c58	0.0043788366
201	0x3c4af812	0.012388246
202	0xbba7b970	-0.0051185414
203	0x3c976370	0.018480033
204	0xbcdfbd5e	-0.027311977
205	0xbc8c0112	-0.017090354
206	0x3cc18f16	0.023627799
207	0x3c48997a	0.012243623
208	0x3ca1c3c8	0.019746676
209	0x3b1d893e	0.0024038102
210	0x3cccb0c5	0.024986634
211	0xbc16570e	-0.009176029
212	0x3c55a27c	0.013039228
213	0x3cf92852	0.030414734
214	0x3b838f35	0.0040148743
215	0xbc08bc8b	-0.008345733
216	0xbcbe9286	-0.023263227
217	0xbcc26f99	-0.023734855
218	0xbc874e8c	-0.016516946
219	0x3c4cc404	0.012497906
220	0x3be8eb0e	0.007108099
221	0x3bb3926b	0.005480101
222	0xbba9835b	-0.0051731295
223	0xbc2b260b	-0.010446082
224	0xbbcc0aea	-0.006226887
225	0x3cae937b	0.021310559
226	0x3c1b3439	0.0094729
227	0x3b12d750	0.0022406168
228	0x3a0f0dfa	0.00054571
229	0xbc71d719	-0.014760756
230	0xbca1bf97	-0.019744677
231	0x3cb0ba12	0.0215731
232	0x3cd97146	0.02654327
233	0xbc99a03b	-0.018753162
234	0x3ade33a9	0.0016952652
235	0xbbd94261	-0.0066302274
236	0xbd1eead8	-0.038798183
237	0xbcc20085	-0.023681888
238	0x3c284a1f	0.010271578
239	0xbcbb06b1	-0.02283034
240	0x3c808377	0.015687687
241	0x3cdb2c89	0.026754634
242	0x3cad5f12	0.021163497
243	0x3c3602cd	0.011109066
244	0xbce74cfc	-0.028234951
245	0xbc8e1a0c	-0.017346404
246	0xbccb594d	-0.024822855
247	0x3c2992c8	0.010349937
248	0xbceccf64	-0.028907485
249	0x3a028491	0.00049788604
250	0x3c785af0	0.0151584
251	0xbb767136	-0.00376041
252	0x3ba4effc	0.005033491
253	0xbb2b2afd	-0.0026118152
254	0xbcdf175b	-0.027232816
255	0xbd003bf2	-0.03130717

layer1.0.bias f4 [64]
0	0x3f003590	0.5008173
1	0x3f35a6a6	0.7095741
2	0x3f0c6237	0.54837364
3	0x3f0e1f09	0.55516106
4	0x3f314786	0.6924976
5	0x3f0d0b53	0.55095404
6	0x3f2155c4	0.6302149
7	0x3f1372e7	0.575972
8	0x3f2ae981	0.6676255
9	0x3f0143a6	0.5049385
10	0x3f397464	0.72443223
11	0x3f06320c	0.52420115
12	0x3f0b0196	0.54299295
13	0x3ed8c25f	0.42335793
14	0x3edd7558	0.4325359
15	0x3f0630f5	0.5241845
16	0x3f2d2b05	0.6764377
17	0x3f0621ad	0.52395135
18	0x3f18b39b	0.59649056
19	0x3ef0b278	0.4701116
20	0x3f31df4e	0.6948136
21	0x3f3c57c6	0.7357143
22	0x3f136246	0.5757183
23	0x3f150044	0.5820353
24	0x3f233b14	0.6376202
25	0x3f2065a3	0.62655085
26	0x3f1ba183	0.6079332
27	0x3f002f13	0.5007183
28	0x3f21407c	0.6298902
29	0x3f25ceaa	0.6476847
30	0x3f222136	0.63331926
31	0x3ed3360a	0.41252166
32	0x3f1a2094	0.6020596
33	0x3f284cdf	0.65742296
34	0x3f329f72	0.69774544
35	0x3f33baa4	0.70206666
36	0x3f1ac397	0.60454696
37	0x3f1e9d58	0.6195884
38	0x3f260882	0.6485673
39	0x3f1fc373	0.62407607
40	0x3f06e8ab	0.52698773
41	0x3f2669bd	0.65005094
42	0x3f06defa	0.52683985
43	0x3f3166c6	0.69297445
44	0x3f26b34f	0.65117353
45	0x3f088b07	0.5333714
46	0x3ef73191	0.48280004
47	0x3f1c6c90	0.61103153
48	0x3f038051	0.5136767
49	0x3f0e54b1	0.5559798
50	0x3f241588	0.64095354
51	0x3f2a88a6	0.6661476
52	0x3f28ac26	0.6588768
53	0x3f1e2050	0.61768055
54	0x3f136334	0.57573247
55	0x3f22c1ec	0.6357715
56	0x3eee84d0	0.46585703
57	0x3f214e76	0.63010347
58	0x3eca95fc	0.39567554
59	0x3ed2577f	0.4108238
60	0x3f209202	0.6272279
61	0x3f31d450	0.6946459
62	0x3f10175d	0.5628565
63	0x3f2730af	0.6530866

layer1.1.weight f4 [64]
0	0x3f7a7af5	0.9784387
1	0x3f83c79a	1.0295289
2	0x3f764abd	0.9620779
3	0x3f80164d	1.0006806
4	0x3f7f4a9a	0.9972321
5	0x3f81f97d	1.0154263
6	0x3f7c7f12	0.98631394
7	0x3f8355e0	1.0260582
8	0x3f810514	1.0079675
9	0x3f7b6949	0.9820753
10	0x3f833485	1.0250403
11	0x3f79ecd6	0.9762701
12	0x3f84381e	1.0329626
13	0x3f7429aa	0.95376074
14	0x3f845081	1.0337068
15	0x3f7a6456	0.9780935
16	0x3f82bc44	1.0213704
17	0x3f80fb80	1.0076752
18	0x3f7c6da8	0.9860482
19	0x3f787e7a	0.9706799
20	0x3f84da5d	1.0379139
21	0x3f83f0ac	1.0307822
22	0x3f76c3a9	0.96392304
23	0x3f7e944a	0.9944502
24	0x3f80096c	1.0002875
25	0x3f79db51	0.97600275
26	0x3f7f92e1	0.99833494
27	0x3f78dcdc	0.97212005
28	0x3f7d3844	0.9891398
29	0x3f772356	0.96538293
30	0x3f7ff4f5	0.9998315
31	0x3f820ea3	1.0160717
32	0x3f80928e	1.0044725
33	0x3f7d0140	0.9883003
34	0x3f7ee33a	0.9956547
35	0x3f7e6da6	0.9938606
36	0x3f7f8ed0	0.9982729
37	0x3f823c47	1.0174645
38	0x3f849141	1.0356828
39	0x3f811be5	1.0086638
40	0x3f821b1e	1.0164526
41	0x3f78a56e	0.97127426
42	0x3f7c48f2	0.98548806
43	0x3f807afd	1.0037533
44	0x3f82e7bb	1.0226969
45	0x3f808f19	1.004367
46	0x3f7695fe	0.9632262
47	0x3f799180	0.9748764
48	0x3f7eb425	0.9949363
49	0x3f833637	1.025092
50	0x3f80a4fd	1.005035
51	0x3f83c509	1.0294505
52	0x3f80cb4a	1.0062039
53	0x3f82639e	1.0186651
54	0x3f814d21	1.0101663
55	0x3f7ae0d6	0.9799932
56	0x3f825b1a	1.0184052
57	0x3f82c154	1.0215249
58	0x3f72c958	0.94838476
59	0x3f7943fa	0.9736935
60	0x3f72c48d	0.9483116
61	0x3f7e7ec1	0.9941216
62	0x3f7a8269	0.9785524
63	0x3f7b8f4f	0.98265547

layer1.1.bias f4 [64]
0	0xb9e4f1d5	-0.00043667728
1	0xbd0103f6	-0.031497918
2	0xbc06dda6	-0.008231556
3	0x39e4ec47	0.0004366359
4	0xbd159c08	-0.036525756
5	0xbd411f41	-0.047148947
6	0xbad5b5a4	-0.0016304743
7	0xbd44f38d	-0.04808383
8	0xbc9c8a74	-0.019108988
9	0xbd53ace0	-0.05167854
10	0xbc370453	-0.011170465
11	0x3c73e0f6	0.014885178
12	0xbd5a1cf6	-0.053250276
13	0xbcf9eedd	-0.030509407
14	0xbd7bfa97	-0.061518278
15	0xbade9e8c	-0.0016984507
16	0xbce2071c	-0.02759128
17	0xbd93ec33	-0.07222786
18	0xbd21c899	-0.039497945
19	0x3b0b47c1	0.0021252485
20	0xbda18a03	-0.07887652
21	0xbc95966f	-0.018260209
22	0xbc496419	-0.012291932
23	0xbbe9ced8	-0.0071352534
24	0xbd7e88ef	-0.06214231
25	0xbcb2e847	-0.021839274
26	0xbd58314c	-0.05278139
27	0x3b9263a4	0.0044674445
28	0xbbfa9247	-0.007646832
29	0xbcef6269	-0.02922173
30	0x3c1145ae	0.008866711
31	0xbd426380	-0.04745817
32	0xbd5e230f	-0.054232653
33	0xbd1c06e9	-0.038092528
34	0xbcb4fabf	-0.022092221
35	0x3bb7550a	0.0055948542
36	0xbcf28e63	-0.02960891
37	0xbd7816c8	-0.0605686
38	0xbd294385	-0.041324157
39	0xbd136cc0	-0.035992384
40	0xbd3dff1b	-0.046385866
41	0xbc6fe710	-0.014642492
42	0xbc812c1c	-0.015768103
43	0x3bb17784	0.0054158587
44	0xbcd213f9	-0.02564429
45	0xbd444f2b	-0.047927063
46	0xbc8eab0b	-0.017415544
47	0xbcf038d5	-0.029323975
48	0xbce35c8a	-0.027754087
49	0xbd13d229	-0.036089096
50	0xbd0725b4	-0.03299494
51	0xbd208a07	-0.039194133
52	0xbda440e6	-0.08020191
53	0xbd51bb1f	-0.051203843
54	0xbd32ba7c	-0.043634877
55	0xbc167526	-0.009183204
56	0xbd2450a6	-0.040115975
57	0xbd1f5366	-0.038897894
58	0xbceeef00	-0.029166698
59	0xbc1745a1	-0.009232909
60	0x3cea198b	0.028576633
61	0xbc3cfd4d	-0.011535001
62	0xbc3e4b99	-0.011614704
63	0xbcda5bfa	-0.026655186

layer1.1.running_mean f4 [64]
0	0x3f9f440a	1.2442639
1	0x3f24680d	0.6422127
2	0x3e41d833	0.1893013
3	0x3f06d55f	0.5266933
4	0x3f300b6d	0.68767434
5	0x3ddd6011	0.10809339
6	0x3f34588e	0.70447624
7	0x3d9331c3	0.07187226
8	0x3f593df0	0.84860134
9	0xbeac549d	-0.33658305
10	0x3f009db6	0.5024065
11	0x3f9646e5	1.1740385
12	0xbdc52f37	-0.09628146
13	0x3f52665d	0.82187444
14	0xbf75a646	-0.9595684
15	0x3fb81f79	1.4384605
16	0x3ef56288	0.47926736
17	0xbcaf03c9	-0.02136411
18	0x3e177a44	0.14792734
19	0x3f94a67f	1.161331
20	0x3eca688d	0.3953289
21	0x3f18bbfd	0.5966185
22	0x3f51049b	0.8164765
23	0x3f0484b4	0.5176499
24	0x3f692b3b	0.9108159
25	0x3edc14aa	0.42984515
26	0x3f18ef0d	0.5973976
27	0x3f866197	1.0498532
28	0x3eca9a9a	0.39571077
29	0x3f12a1e4	0.57278275
30	0x3f3c124a	0.73465407
31	0xbf5b938d	-0.8577202
32	0x3e0fd2d1	0.14045264
33	0x3f31171a	0.69175875
34	0x3f22b29c	0.63553786
35	0x3f4f2c58	0.8092704
36	0x3e16c8c4	0.14725024
37	0x3e67b1d9	0.22626437
38	0x3ecd4f4a	0.40099555
39	0x3f0cf670	0.55063534
40	0xbe6dd669	-0.23226322
41	0x3efae5b4	0.49003375
42	0x3dbcbfd7	0.09216278
43	0x3f1cb3b6	0.6121172
44	0x3efa8303	0.4892808
45	0x3ce612ec	0.028085195
46	0x3f9329c5	1.1497122
47	0x3e8cfe92	0.27537972
48	0xbeffde3c	-0.4997424
49	0x3dc43213	0.095798634
50	0x3ef660df	0.48120782
51	0x3f24590e	0.64198387
52	0x3f26a12d	0.65089685
53	0x3f4f9755	0.8109029
54	0x3e534934	0.20633394
55	0x3eff72d2	0.49892288
56	0xbea5b706	-0.32366198
57	0x3e840073	0.25781593
58	0x3f95f747	1.1716088
59	0x3fbac8aa	1.4592488
60	0x3f6cb9d1	0.92471033
61	0x3f17bbfa	0.59271204
62	0x3f60fdac	0.8788707
63	0x3f640f5e	0.8908595

layer1.1.running_var f4 [64]
0	0x414b2896	12.697409
1	0x3fa039c8	1.2517633
2	0x40c399f2	6.112542
3	0x40bdbecb	5.92954
4	0x4015b943	2.3394325
5	0x40f1c4b2	7.5552607
6	0x3ffb3e33	1.9628357
7	0x40d8ca38	6.774685
8	0x400cd8de	2.2007365
9	0x410b48a0	8.705231
10	0x3fe1bc8a	1.7635663
11	0x41041b1a	8.256617
12	0x4125307a	10.324335
13	0x419043f8	18.033188
14	0x42242504	41.036148
15	0x417656d3	15.396197
16	0x402f035f	2.7345808
17	0x40c263bf	6.074676
18	0x407b2a2f	3.9244497
19	0x4160bfe1	14.046845
20	0x40410980	3.0162048
21	0x3f80df07	1.0068063
22	0x40faba76	7.8352613
23	0x40666ab1	3.600262
24	0x40201a0d	2.50159
25	0x40656b4d	3.5846741
26	0x40e9fcf5	7.3121285
27	0x410e4d48	8.8938675
28	0x3fd6065b	1.672069
29	0x3f9119c2	1.1335986
30	0x3fc60a60	1.5471916
31	0x4234582c	45.086105
32	0x406c67d2	3.6938367
33	0x3fb97b86	1.4490821
34	0x3f0076bc	0.50181174
35	0x3f6915ca	0.9104887
36	0x406074e0	3.5071335
37	0x40947666	4.639453
38	0x4008e4e5	2.1389706
39	0x3fa01e9b	1.250934
40	0x411b065c	9.689053
41	0x405f2f9e	3.4872813
42	0x40aaa22e	5.3322973
43	0x3f11cc72	0.56952584
44	0x3f51c63d	0.8194311
45	0x411ccbbf	9.799743
46	0x4114bc66	9.295996
47	0x406959e8	3.6461124
48	0x414b11f3	12.691882
49	0x40e52572	7.160821
50	0x3fda6d2a	1.7064564
51	0x3f5adcba	0.8549305
52	0x4042deaf	3.0448415
53	0x408fcd24	4.4937916
54	0x4086ce87	4.212711
55	0x3fc5c1ca	1.5449765
56	0x4186b3f8	16.837875
57	0x4070f3ea	3.7648873
58	0x41dbf1e6	27.493114
59	0x41641514	14.255146
60	0x4062eade	3.5455852
61	0x3f812661	1.0089837
62	0x40a810a7	5.2520328
63	0x40172b95	2.362035

layer2.0.weight f4 [64, 64, 3, 3]
0	0x3ca36609	0.019946115
1	0xbb8ebd97	-0.004356097
2	0x3d029c83	0.031887542
3	0xbc482ce3	-0.012217733
4	0x3bb59f94	0.005542705
5	0xbc0c4df5	-0.008563508
6	0xbcd0e4fb	-0.025499811
7	0x3d01d6f3	0.031699132
8	0xbc8ff1f5	-0.017571429
9	0x3cbe720c	0.023247741
10	0x3d04f210	0.03245741
11	0x3d0bdd77	0.034146752
12	0x3d26ac46	0.040691637
13	0x3d1dd057	0.038528766
14	0x3bedb590	0.00725431
15	0x3d4f5df6	0.050626718
16	0x3d117ad9	0.035517547
17	0x3d222b97	0.03959235
18	0xbba992fa	-0.0051749917
19	0xbb4e586b	-0.0031485807
20	0x3ca68486	0.020326864
21	0x3c3f101d	0.011661557
22	0x3d0c8a27	0.03431144
23	0xbd0af75c	-0.033927307
24	0xbaa345cb	-0.0012456713
25	0x3c9cc265	0.019135663
26	0x3c3767c9	0.011194178
27	0x3cc594df	0.024118839
28	0x3cd84b03	0.026402956
29	0xbcd7fa43	-0.026364451
30	0xb97f81a7	-0.00024366994
31	0xbce0f049	-0.027458327
32	0xbc84363d	-0.016139144
33	0x3c26c030	0.010177657
34	0xbd33ddfd	-0.043912876
35	0xbd34f5e8	-0.044179827
36	0x3cd5bc4d	0.026090765
37	0x3adddcb0	0.0016926732
38	0x3d2e44c7	0.04254606
39	0xbb6819b5	-0.0035415713
40	0xbcd13142	-0.025536183
41	0xbc840adf	-0.016118465
42	0xbcc1827b	-0.023621788
43	0xbd6b6675	-0.057470758
44	0xbd7d1f09	-0.061797176
45	0xbbcb0b18	-0.006196391
46	0xbcb4012f	-0.02197322
47	0xb986ea25	-0.00025732923
48	0xbc3f471e	-0.0116746705
49	0x3c76a9cf	0.015055134
50	0xbb48ac97	-0.003062045
51	0x3cdbe569	0.02684279
52	0xbcbc7569	-0.023005204
53	0xbd23baea	-0.039973177
54	0xbcc79a90	-0.024365693
55	0xbc9fbc14	-0.019498862
56	0xbcd38b52	-0.025823269
57	0x3d1ae660	0.03781736
58	0x3d1c793f	0.038201567
59	0x3c0da07b	0.008644219
60	0xbca726e2	-0.020404283
61	0xbd3da65e	-0.04630124
62	0xbcb411ae	-0.021981087
63	0xbc92bd45	-0.017912516
64	0xbc74ed03	-0.014949086
65	0x39870d9c	0.00025759346
66	0x3b00e0ca	0.0019665235
67	0x3d38d409	0.045124087
68	0x3d008493	0.031376433
69	0x3ad7a86a	0.001645339
70	0x3c9de334	0.019273378
71	0x3d08653e	0.033299677
72	0xbae5dd74	-0.0017537312
73	0x3c9a3639	0.018824684
74	0x3c203078	0.009777181
75	0x3cb54e50	0.022132069
76	0x3ccbee66	0.02489395
77	0xbcb324bc	-0.021868102
78	0xbd5cb640	-0.053884745
79	0x3c953b50	0.018216759
80	0xbd1b2632	-0.037878223
81	0x3ce78a73	0.02826426
82	0x3bb35d79	0.0054737893
83	0x3ca514c5	0.020151505
84	0x3d403fc7	0.046935823
85	0xbd0424f4	-0.032261804
86	0x3b955233	0.004556918
87	0x3bc42616	0.0059859855
88	0xbbdd1643	-0.0067470386
89	0xbcaba58f	-0.020952968
90	0x3cc30da1	0.02381021
91	0x3cd57525	0.026056835
92	0x3cd5bde5	0.026091525
93	0x3cddc240	0.027070165
94	0x3b09d96e	0.002103414
95	0x3b268a9b	0.0025412205
96	0x3d20dc20	0.039272428
97	0xbd07e975	-0.033181626
98	0x3d65780d	0.056022692
99	0x3cdf6564	0.027270027
100	0x3c8f13c1	0.017465474
101	0x3ced509f	0.028969107
102	0x3cc7bf15	0.024383107
103	0xbd1a7edc	-0.03771864
104	0x3c962791	0.018329414
105	0xbb48688b	-0.003057989
106	0x3cbaba06	0.022793781
107	0xbd009851	-0.03139526
108	0xbc79adec	-0.01523922
109	0xbce65618	-0.028117225
110	0x3d26a7ea	0.04068748
111	0x3c8b5710	0.017009288
112	0xbb3e1dc0	-0.0029009432
113	0xbcd2439c	-0.025667004
114	0x3b3e965f	0.0029081327
115	0xbc318975	-0.010835995
116	0x3d0be7ea	0.034156717
117	0xbcd2ea17	-0.025746388
118	0x3cab8bd2	0.020940695
119	0x3cad2b8c	0.021138929
120	0x3d3391b1	0.043840114
121	0x3d06298d	0.03275447
122	0x3d1e9975	0.038720567
123	0x3b0f2f2e	0.002184819
124	0xbc102f7e	-0.0088003855
125	0xbc932725	-0.017963002
126	0x3c06de04	0.008231644
127	0xbcc18aeb	-0.023625812
128	0x3d267063	0.040634524
129	0xbce6ab96	-0.02815799
130	0x3d65fcaf	0.05614918
131	0xbca54cc5	-0.020178208
132	0xbd165118	-0.03669843
133	0x3d045799	0.032310102
134	0x3d6c081e	0.05762493
135	0xbbb92049	-0.0056496006
136	0xbd0b4eb3	-0.0340106
137	0x3d0783c4	0.033084646
138	0xbd36570e	-0.044516616
139	0x3d19d609	0.037557635
140	0xbd0622b5	-0.032747943
141	0xbc782cda	-0.015147412
142	0xbc8c6b2f	-0.017140953
143	0xbd202776	-0.039100133
144	0x3d14aa8d	0.036295462
145	0x3bf96206	0.0076105623
146	0x3cd8b14e	0.026451733
147	0xbbd4c156	-0.006492774
148	0x3ceb8e5b	0.028754404
149	0xbd3ee024	-0.046600476
150	0x3caa4659	0.020785498
151	0x3c03c430	0.00804238
152	0xbc45de5c	-0.01207694
153	0xbc147b57	-0.00906261
154	0x3c3d128c	0.011540066
155	0x3d33f5b1	0.04393548
156	0x3d8d678c	0.069045156
157	0x3ceca210	0.028885871
158	0x3d0518ae	0.03249424
159	0x3b8f5b82	0.0043749223
160	0x3bcbf788	0.0062245764
161	0x3c9538d9	0.018215584
162	0xbc112b9a	-0.008860493
163	0x3d5ff60b	0.054678004
164	0xbcfddc94	-0.030988969
165	0xbbb8dcb2	-0.0056415433
166	0xbb8f3672	-0.004370504
167	0x3d434517	0.04767331
168	0xbd69d278	-0.057085484
169	0xbd262593	-0.040563177
170	0x3af25726	0.0018489107
171	0xbd0b4d19	-0.034009073
172	0xbd1166a2	-0.03549827
173	0x3c02dd12	0.007987278
174	0xbc8b2fd5	-0.016990582
175	0x3ca795fe	0.020457264
176	0xbc0b62e0	-0.00850746
177	0x3cd94973	0.026524281
178	0x3d014b4d	0.031565953
179	0xbce4b319	-0.027917432
180	0xbca49218	-0.020089194
181	0xbd89e522	-0.06733157
182	0xbd76eb49	-0.06028298
183	0xbbefc0ef	-0.0073167006
184	0xbd027366	-0.031848334
185	0xbd41ee65	-0.04734649
186	0xbd058306	-0.032595657
187	0xbd9c6a70	-0.07637489
188	0xbdb3eaa0	-0.087849855
189	0x3d5c2588	0.05374673
190	0x3cbc361a	0.022975016
191	0x3cf42384	0.029802091
192	0x3d43382d	0.047660995
193	0x3d5230a0	0.051315904
194	0x3ac3d9de	0.0014942249
195	0xbb809653	-0.00392417
196	0x3d41c713	0.047308993
197	0x3d6049df	0.05475795
198	0xbc3157ab	-0.010824124
199	0xbc68912d	-0.014194769
200	0xbc6a8d93	-0.0143159805
201	0x3c27f1ba	0.010250503
202	0x3cdf6e7a	0.027274359
203	0xbcf030e5	-0.02932019
204	0xbd1147d6	-0.0354689
205	0x3ca315e7	0.019907905
206	0xbd2560c9	-0.040375505
207	0xbca63a58	-0.020291492
208	0x3c61be45	0.013778274
209	0xbd323ce9	-0.04351512
210	0x3cff4842	0.031162385
211	0x3d0c32b4	0.03422804
212	0xbd2ace12	-0.04170043
213	0xbc9c3b8b	-0.019071361
214	0x3b77a740	0.0037788898
215	0xbd35463f	-0.044256445
216	0x3cd99b4c	0.02656331
217	0xbc48e089	-0.012260565
218	0x3d2ca2c8	0.042147428
219	0xbc83bf57	-0.016082449
220	0x3c1b62b4	0.009483982
221	0x3c97b0ad	0.018516863
222	0x3b348656	0.002754589
223	0x3d2684e9	0.040654097
224	0xbc01abc5	-0.007914488
225	0x3d1c4f6f	0.03816169
226	0x3d157799	0.03649101
227	0x3cacec32	0.02110872
228	0xbd1d5f1a	-0.038420774
229	0xbc533236	-0.012890389
230	0x3ce5d3f4	0.028055169
231	0xbd5116e1	-0.05104721
232	0xbd005360	-0.031329513
233	0xbcc77617	-0.024348302
234	0x3d2aeedd	0.041731704
235	0xbb331852	-0.0027327728
236	0xbaba92f9	-0.0014234475
237	0x3d193194	0.037400797
238	0x3cf12200	0.029435158
239	0x3d0af958	0.0339292
240	0x3c8f45dd	0.017489368
241	0x3b4e9879	0.0031523986
242	0xbc2eaf6d	-0.010661942
243	0xbcaab919	-0.020840215
244	0xbd21e165	-0.039521594
245	0xbb9784a8	-0.004623968
246	0x3c6bf1ad	0.014400882
247	0xbcb441e6	-0.02200408
248	0x3d10b5c0	0.03532958
249	0x3d07f5df	0.033193465
250	0x3cb793d8	0.022409365
251	0x3998b8bf	0.00029129346
252	0xbbe738f3	-0.0070563494
253	0xbad359d3	-0.0016124792
254	0xbb8477c8	-0.0040425994
255	0x3d3b5ca4	0.045742646

layer2.0.bias f4 [64]
0	0xbc122354	-0.008919556
1	0xbafb7b01	-0.0019186438
2	0xbd27f503	-0.041005146
3	0x3d1cbc51	0.03826553
4	0x3d192e51	0.037397686
5	0x3c36f829	0.011167564
6	0x3cee3b74	0.029081084
7	0xbc8c6421	-0.017137589
8	0x3c08e6c2	0.008355798
9	0xbcce8f58	-0.025214836
10	0x3c01ca05	0.0079217
11	0x3ca79e02	0.020461086
12	0xbc4b66cf	-0.012414648
13	0x38a98803	8.083882e-05
14	0x3d1405df	0.03613841
15	0x3c0176e2	0.007901879
16	0xbba735ab	-0.0051028333
17	0x3ce21a80	0.027600527
18	0xbd16d42d	-0.03682344
19	0x3cab07da	0.020877767
20	0xbcebff7f	-0.028808353
21	0x3b3467f9	0.0027527793
22	0xbc567041	-0.013088287
23	0x3c2d58e2	0.010580273
24	0xbcbe4786	-0.023227464
25	0x3c945923	0.01810891
26	0x3ba5e889	0.0050631207
27	0xbc661dc3	-0.014045182
28	0x3c3aabda	0.011393512
29	0xbccc2c88	-0.024923578
30	0xbc833b7c	-0.016019575
31	0x3acb3ea0	0.0015506335
32	0x3b9fba54	0.004874507
33	0xbcf09479	-0.029367672
34	0x3c98633c	0.018602006
35	0x3c9f8b40	0.01947558
36	0xbcf09bce	-0.029371168
37	0x3c5727f7	0.013132087
38	0x3cfda177	0.030960781
39	0xbcc0c887	-0.023533119
40	0xbb0937e5	-0.0020937857
41	0xbcded809	-0.027202623
42	0xbc8fefad	-0.017570341
43	0xbca1f0ea	-0.019768197
44	0xbc155885	-0.009115343
45	0x3d031413	0.032001566
46	0xb954d276	-0.00020296298
47	0xbca6edec	-0.020377122
48	0xbbff12c9	-0.007784222
49	0x3c0640f2	0.008194195
50	0xbcc1188c	-0.023571275
51	0xbce2534f	-0.027627615
52	0xbb8f7fc8	-0.0043792464
53	0xbd0c919d	-0.034318555
54	0x3c141fe3	0.0090408055
55	0xbc7b2d61	-0.015330643
56	0x3c130712	0.008973854
57	0xbcd4d095	-0.025978366
58	0xbd107fff	-0.035278317
59	0xbd08076c	-0.033210203
60	0x3c924e92	0.01785973
61	0x3c29a332	0.01035385
62	0xbc86f231	-0.016472908
63	0x3c9db94e	0.0192534

layer2.1.weight f4 [64]
0	0x3f80426b	1.0020269
1	0x3f7e5f90	0.99364567
2	0x3f7ae43d	0.98004514
3	0x3f79c4fd	0.97566205
4	0x3f71dbd3	0.9447605
5	0x3f85cfff	1.04541
6	0x3f8068f3	1.0032028
7	0x3f798290	0.9746485
8	0x3f8264f0	1.0187054
9	0x3f7a973e	0.9788703
10	0x3f80b88b	1.0056318
11	0x3f7f64f2	0.99763405
12	0x3f80b468	1.0055056
13	0x3f7fcfcb	0.9992644
14	0x3f800a0f	1.000307
15	0x3f7d9b70	0.99065304
16	0x3f7eb193	0.99489707
17	0x3f81670d	1.0109574
18	0x3f7ee978	0.99574995
19	0x3f76f2cd	0.96464235
20	0x3f7a8ac7	0.9786801
21	0x3f80321f	1.0015296
22	0x3f7f08f5	0.9962304
23	0x3f7b5276	0.981727
24	0x3f815d03	1.010651
25	0x3f7d54d7	0.9895758
26	0x3f7d120d	0.9885567
27	0x3f81bfc9	1.0136653
28	0x3f82f189	1.0229961
29	0x3f83017d	1.0234829
30	0x3f7ccb94	0.98748136
31	0x3f7f017f	0.9961166
32	0x3f80f880	1.0075836
33	0x3f826906	1.0188301
34	0x3f7ad090	0.9797449
35	0x3f7f1503	0.99641436
36	0x3f7a3f94	0.9775326
37	0x3f7c7c2b	0.98626965
38	0x3f78fde6	0.9726242
39	0x3f80ba47	1.0056847
40	0x3f819dd9	1.0126296
41	0x3f7fa41b	0.9985978
42	0x3f8089c0	1.0042038
43	0x3f7d59df	0.9896526
44	0x3f7d08bf	0.9884147
45	0x3f80ba83	1.0056919
46	0x3f7f8216	0.9980787
47	0x3f808ce8	1.0043001
48	0x3f7d8882	0.9903642
49	0x3f792bd6	0.97332513
50	0x3f7f9198	0.99831533
51	0x3f811087	1.0083169
52	0x3f810579	1.0079795
53	0x3f77c37f	0.9678268
54	0x3f806aeb	1.0032629
55	0x3f7f99a5	0.9984382
56	0x3f7f8285	0.9980853
57	0x3f7fe256	0.99954736
58	0x3f7e3cd9	0.99311596
59	0x3f830e8c	1.0238814
60	0x3f7e5138	0.9934268
61	0x3f80fc1a	1.0076935
62	0x3f81257c	1.0089564
63	0x3f7a9168	0.9787812

layer2.1.bias f4 [64]
0	0xbcbc31a4	-0.02297289
1	0xbbe2b95f	-0.0069190706
2	0xbb617449	-0.0034401587
3	0xbcb2dd70	-0.021834105
4	0xbc4256dd	-0.01186153
5	0xbd4b1cb3	-0.049587917
6	0xbd61140d	-0.054950763
7	0xbc85ed39	-0.016348468
8	0xbc646742	-0.013940634
9	0xbc4e730f	-0.012600674
10	0xbd0d6e9f	-0.034529325
11	0xbd5ec91e	-0.05439102
12	0xbcf5a153	-0.029984152
13	0xbcb90ab5	-0.022588113
14	0xbd8e2a43	-0.069416545
15	0xbccf95ee	-0.025340047
16	0xbcd695ca	-0.026194472
17	0xba5c086e	-0.000839359
18	0xbc44e394	-0.0120171495
19	0xbca8e7f0	-0.020618409
20	0xbc9a9af6	-0.01887272
21	0xbd0a5b3f	-0.033778425
22	0xbc5daa78	-0.013529412
23	0xbcf837d7	-0.030300064
24	0xbcadf760	-0.021236122
25	0xbd08e5d6	-0.033422314
26	0xbc4eebc1	-0.01262945
27	0xbdb7386f	-0.08946311
28	0xbd9802d3	-0.07422414
29	0xbda5d2cf	-0.08096849
30	0x3ca3e102	0.020004753
31	0xbb97df7a	-0.004634795
32	0x3b06d48b	0.0020573463
33	0xbd9cf38c	-0.076636404
34	0xbb840239	-0.0040285853
35	0x3ce44dde	0.027869161
36	0xbd23ba0f	-0.03997236
37	0xbb93b25d	-0.0045073465
38	0xbd29328d	-0.041307975
39	0xbcb7553b	-0.022379508
40	0xbd68c6ae	-0.0568301
41	0xbc091f61	-0.008369298
42	0x3bbbbec9	0.0057295305
43	0x3bc0eb19	0.005887401
44	0xbcbfeb47	-0.023427619
45	0xbc8d0039	-0.01721202
46	0xbc5cfd10	-0.013488069
47	0xbd506610	-0.050878584
48	0xbd4aa546	-0.049474023
49	0xbc21a77e	-0.009866593
50	0xbd6a6f8f	-0.057235297
51	0xba4ef735	-0.0007895113
52	0xbc8ff884	-0.017574556
53	0xbc9d6b70	-0.01921627
54	0xbcb008ff	-0.021488665
55	0xbc73ff75	-0.014892449
56	0xbcde3466	-0.027124595
57	0xbbfe85ac	-0.0077674
58	0xbd3d89a5	-0.046273846
59	0xbc408ab7	-0.011751822
60	0xbcf39027	-0.029731823
61	0x3c17e1da	0.009270156
62	0xbcebc520	-0.02878052
63	0x3c111ecf	0.008857443

layer2.1.running_mean f4 [64]
0	0x3ed2b91b	0.4115685
1	0x3f23bf2b	0.63963574
2	0x3e07551e	0.13216063
3	0xbe35c5d6	-0.1775125
4	0xbed41321	-0.41420844
5	0xbdf27ed9	-0.118406005
6	0xbedfe9ca	-0.43733054
7	0x3f80b0a5	1.0053908
8	0xbf65e667	-0.8980469
9	0xbf77b159	-0.96754986
10	0xbf2fa4b6	-0.68610704
11	0xbf49743e	-0.78692997
12	0xbf671dff	-0.90280145
13	0xbf3f4ef2	-0.74729836
14	0xbc3ac515	-0.011399527
15	0xbf18c53f	-0.59675974
16	0x3ef4b74d	0.47796097
17	0xbf31f74b	-0.69517964
18	0xbf9b238d	-1.2120224
19	0xbe84653f	-0.25858495
20	0xbf175394	-0.59111905
21	0xbf2d54f5	-0.6770776
22	0xbf9b4df8	-1.2133169
23	0x3f54e060	0.8315487
24	0xbeebccfe	-0.46054834
25	0xbf4f250d	-0.8091591
26	0xbedb2b84	-0.42806637
27	0x3f1dc6c6	0.6163143
28	0xbdb00ae8	-0.0859583
29	0x3cc6615a	0.024216343
30	0xbefaa5b4	-0.48954546
31	0xbfa7c725	-1.3107649
32	0xbf90f017	-1.132327
33	0xbf55feb5	-0.8359178
34	0xbea95305	-0.3307115
35	0xbf01d39d	-0.5071352
36	0xbf81e40c	-1.0147719
37	0xbf90ceb2	-1.1313078
38	0xbed1763a	-0.40910512
39	0xbf9b8114	-1.2148767
40	0xbe86a500	-0.2629776
41	0xbe9f528f	-0.31117675
42	0xbf431552	-0.7620441
43	0xbef8c68a	-0.48588973
44	0xbea3f87a	-0.3202551
45	0xbf762643	-0.9615213
46	0xbd2adaa2	-0.04171241
47	0x3e1a4bdb	0.15067999
48	0x3f4e38d7	0.8055548
49	0x3eab558d	0.33463708
50	0xbec2f56c	-0.38077867
51	0xbf8c5707	-1.0964059
52	0xbf817047	-1.0112389
53	0xbc9c4554	-0.019076027
54	0xbf1a5fc5	-0.6030238
55	0xbf24cf62	-0.6437894
56	0xbfaa9f76	-1.3329914
57	0xbf8ec1da	-1.1152909
58	0xbeb9f95c	-0.3632306
59	0xbe5f486b	-0.21804969
60	0xbff2bd4a	-1.8964016
61	0xbf361a7b	-0.71134156
62	0xbe473ddf	-0.19457196
63	0xbe68dd0f	-0.22740577

layer2.1.running_var f4 [64]
0	0x3ec9041f	0.39260957
1	0x3fb92530	1.4464474
2	0x3f964be5	1.1741911
3	0x3fa5ad4c	1.2943511
4	0x3f230817	0.6368422
5	0x3e7980fb	0.24365608
6	0x3e4063bf	0.1878805
7	0x3f1f44d5	0.62214404
8	0x3ead7af8	0.3388288
9	0x3ec3516a	0.38148052
10	0x3efd7087	0.49499914
11	0x3e9c4ca6	0.30527228
12	0x3ec3e739	0.38262346
13	0x3eafa05a	0.34302026
14	0x3e324306	0.1740838
15	0x3e7c5c35	0.24644549
16	0x3f76bf3e	0.9638556
17	0x3eaa503f	0.33264348
18	0x3f04b5c9	0.5183988
19	0x3f2b1576	0.6682962
20	0x3f81dfc5	1.0146414
21	0x3efa6911	0.48908284
22	0x3f35ae7d	0.70969373
23	0x3f74e98e	0.95668876
24	0x3efbc388	0.49172616
25	0x3f036b09	0.513352
26	0x3f752354	0.9575703
27	0x3e55af20	0.20867586
28	0x3e5b386a	0.21408239
29	0x3e2beb38	0.16788948
30	0x3f5de4aa	0.8667704
31	0x3f59b575	0.85042506
32	0x3ef2d921	0.4743128
33	0x3e9a205d	0.30102816
34	0x3f097aec	0.5370319
35	0x3fafd707	1.3737496
36	0x3e9d5f03	0.3073655
37	0x3f611526	0.87922895
38	0x3f342bab	0.7037913
39	0x3eb9b808	0.36273217
40	0x3e2b36a3	0.16720061
41	0x3e958f0d	0.29210702
42	0x3f384781	0.71984106
43	0x3ef37214	0.47547972
44	0x3ec4e514	0.38456023
45	0x3ec0b278	0.3763616
46	0x3e81d275	0.25355878
47	0x3f057872	0.5213691
48	0x3ecbac5a	0.3977993
49	0x3f289283	0.6584856
50	0x3e92584a	0.28582984
51	0x3ec97c33	0.3935257
52	0x3e90f2c9	0.2831023
53	0x3ec4b526	0.38419455
54	0x3f243705	0.64146453
55	0x3ec65421	0.3873606
56	0x3f47f033	0.7810089
57	0x3ec5755a	0.38566095
58	0x3f14803e	0.5800818
59	0x3e8940ec	0.26807344
60	0x3f25140a	0.644837
61	0x3f29f815	0.6639417
62	0x3e9cabfc	0.30599964
63	0x3f723dbf	0.9462547

layer3.0.weight f4 [64, 64, 3, 3]
0	0x3d133a98	0.03594455
1	0x3c9a437a	0.018831003
2	0x3d3153b1	0.043292705
3	0xbcb1bb1d	-0.021695668
4	0x3c13b8ad	0.009016198
5	0xbca038ad	-0.019558275
6	0x3c9f59b9	0.019451963
7	0xbc155099	-0.009113454
8	0xbcc8502b	-0.02445229
9	0x3c6408e0	0.013918132
10	0x3b5eed49	0.0034015945
11	0x3c773d20	0.015090257
12	0x3c91c6ad	0.017794931
13	0x3c1159dd	0.008871523
14	0xbcaa7c59	-0.020811247
15	0x3c011103	0.007877591
16	0xbcc22f7d	-0.023704285
17	0xbcd6e469	-0.026231961
18	0xbc3e0f4e	-0.011600329
19	0x3ca203aa	0.019777138
20	0x3b59782c	0.00331832
21	0xbb33c42a	-0.0027430155
22	0xbac58848	-0.0015070522
23	0x3baad823	0.005213754
24	0x3c8438de	0.016140398
25	0xbd22009b	-0.03955136
26	0xbc6ad512	-0.0143330265
27	0x3c221d4b	0.009894679
28	0x3adc51ef	0.0016809086
29	0xbd2eb5bc	-0.042653784
30	0x3cb7284a	0.022358079
31	0xbcb6410a	-0.02224781
32	0xbc8613fd	-0.016366953
33	0xbcea18c4	-0.028576262
34	0x3be66a8b	0.007031744
35	0xb92d405d	-0.00016522543
36	0xbb0feb6d	-0.0021960393
37	0x3d07bcb5	0.03313895
38	0xbd108ad0	-0.035288632
39	0xbce66b9c	-0.028127484
40	0xbc07ae72	-0.008281337
41	0xbcd336e2	-0.025783006
42	0x3b253099	0.0025205968
43	0xbd051096	-0.03248652
44	0xbc9b0dcf	-0.018927483
45	0xbc868038	-0.016418561
46	0xbd485a02	-0.048913963
47	0xbced7fa7	-0.028991533
48	0x3d3a3f56	0.045470558
49	0x3b646418	0.00348497
50	0xbd084b6e	-0.03327506
51	0xbba71f64	-0.0051001776
52	0xbc8284ef	-0.015932528
53	0xbce42783	-0.027850872
54	0x3ce7572c	0.028239809
55	0x3cd745b2	0.02627835
56	0x3a599811	0.0008300553
57	0x3cd88c15	0.026433984
58	0xbca757ec	-0.020427667
59	0xbc737978	-0.014860503
60	0x3d199196	0.037492357
61	0x3c1d8e0d	0.009616387
62	0x3c82a1fc	0.01594638
63	0x3c9b43d7	0.018953247
64	0x3c740247	0.014893121
65	0x3c1e75d4	0.009671647
66	0x3c78bf19	0.01518228
67	0xbcc398f4	-0.023876645
68	0xbbd5b4c1	-0.0065217917
69	0xbd211e26	-0.039335392
70	0xbc30cc7b	-0.010790939
71	0xbd11f852	-0.035637207
72	0x3c9f66a3	0.01945812
73	0xbd042ec7	-0.032271173
74	0xbd0179f6	-0.03161045
75	0x3acacd6c	0.0015472597
76	0xbd904087	-0.070435576
77	0xbd3ffb07	-0.046870258
78	0x3d2f17c2	0.042747267
79	0xbc4c958f	-0.012486829
80	0x3d0579a9	0.032586727
81	0x3d267c06	0.04064562
82	0xbc9966dc	-0.018725805
83	0x3b4b5dc2	0.0031031226
84	0x3d12a67b	0.0358033
85	0xbd2e471d	-0.042548288
86	0xbb66d6f6	-0.0035223342
87	0xbccf63c3	-0.025316125
88	0xbcea4db9	-0.028601514
89	0x3d0ead86	0.034833454
90	0x3d52dcf0	0.051480234
91	0xbc6ae42a	-0.014336625
92	0xbb3cc7a6	-0.0028805523
93	0xbbfbea50	-0.0076878443
94	0x3cf7303a	0.030174363
95	0x3bc1bb92	0.0059122527
96	0xbcbd99c1	-0.023144605
97	0xbd2f3320	-0.042773366
98	0xbd0d89f4	-0.03455539
99	0xbd3e7392	-0.046496935
100	0xbd1f02e3	-0.038821112
101	0xbbf4b1da	-0.0074674906
102	0xbc68252d	-0.01416902
103	0xbd738d63	-0.05946101
104	0x3c3445af	0.011002942
105	0xbcb25d6f	-0.021773068
106	0xbd485a63	-0.048914324
107	0xbb8c0bdb	-0.004273874
108	0x3be6751a	0.0070330026
109	0xbd2a8fe3	-0.041641127
110	0xbd505ba8	-0.05086866
111	0xbd07240b	-0.032993358
112	0x3d0e3397	0.03471717
113	0x3ce916f5	0.02845333
114	0xbcf06ef4	-0.029349782
115	0x3c1def2b	0.009639542
116	0xbd2f0467	-0.042728808
117	0x3ca6608d	0.02030971
118	0x3aa8b978	0.0012872657
119	0x3c09b180	0.008404136
120	0xbd842dfc	-0.06454083
121	0xbd2f15c8	-0.04274538
122	0xbd2ee8ac	-0.042702362
123	0x3c70baea	0.014693001
124	0xbcd4bff5	-0.025970438
125	0x3d36414e	0.044495873
126	0xbc1cf22a	-0.009579221
127	0xbbebf950	-0.007201351
128	0xbda7d611	-0.08195127
129	0xbc916f39	-0.01775323
130	0xbd5f440d	-0.054508258
131	0xbdbc57e1	-0.09196449
132	0xbd1553db	-0.036456924
133	0xbcd2081a	-0.025638629
134	0xbd6947fc	-0.056953415
135	0x3be187da	0.00688265
136	0x3ce0a274	0.027421214
137	0xbd044e36	-0.03230115
138	0x3d490eae	0.049086265
139	0x3c6deae7	0.014521337
140	0xbc9ebe55	-0.019377867
141	0xbd036760	-0.032081008
142	0x3c80583c	0.015667073
143	0xbd420102	-0.047364242
144	0x3bfebde3	0.007774101
145	0x3d116838	0.03549978
146	0xbc96c607	-0.018404974
147	0x3cf9c6c5	0.030490289
148	0xbc14770c	-0.009061586
149	0xbd42e22f	-0.047578987
150	0xbc4cad7e	-0.012492536
151	0xbc9bd56d	-0.019022668
152	0xbc8f99a4	-0.017529316
153	0xbc80a65e	-0.01570433
154	0x3c4029e6	0.011728739
155	0xbc51a4b8	-0.01279562
156	0xbcbea401	-0.023271563
157	0xbd8655c4	-0.06559327
158	0xbcebfaa2	-0.028806034
159	0x39e31bb6	0.0004331746
160	0xbcc42d91	-0.023947509
161	0xbca93374	-0.020654418
162	0x3c198ddd	0.009372202
163	0x3c947217	0.018120809
164	0xbd1cd98a	-0.0382934
165	0x3b0ffff0	0.002197262
166	0xbc8db52f	-0.01729831
167	0x39069cc1	0.00012837631
168	0xbd135bac	-0.035976097
169	0x3bdf3c65	0.0068126195
170	0xbd263af6	-0.040583573
171	0x3ba7b12f	0.0051175575
172	0x3b118dcf	0.0022209769
173	0xbcb72de2	-0.022360746
174	0x3d359d89	0.04433969
175	0x3d05a1c2	0.032624967
176	0x3ca06e63	0.019583886
177	0xbc1b8382	-0.009491803
178	0xbcc20dd2	-0.02368823
179	0x3c8b458d	0.017000938
180	0x3d096273	0.033541154
181	0x3ab4c901	0.0013792814
182	0xbd0bbc26	-0.03411498
183	0x3c16b232	0.0091977585
184	0x3ce05c9c	0.02738791
185	0xbc9528e8	-0.018207982
186	0xbca8a1ef	-0.020585028
187	0xbc6757c7	-0.014120049
188	0xbc666f5d	-0.014064637
189	0xbc864d85	-0.016394386
190	0x3c01dd0e	0.007926239
191	0x3c1deaa6	0.009638464
192	0xbd08f6b0	-0.033438385
193	0x3b3236b8	0.002719326
194	0x3cc10d6e	0.023565974
195	0xbc9e79a7	-0.019345118
196	0xbd10c3b9	-0.035342906
197	0x3c34309b	0.010997917
198	0x3bac8361	0.005264685
199	0xbb9d49cc	-0.004800057
200	0x3ab6c1c7	0.0013943248
201	0xbd4b0212	-0.04956252
202	0xbcc47bb0	-0.02398476
203	0xbd54e9db	-0.051980834
204	0x3c8dd93b	0.017315498
205	0x3cae7fbd	0.021301145
206	0x3d40f41a	0.047107793
207	0xbc0c9282	-0.008579852
208	0x3b0dc393	0.0021631464
209	0x3b93c562	0.004509614
210	0x3c92b1da	0.017907072
211	0x3c50af96	0.012737175
212	0xba4ffae8	-0.0007933811
213	0xbd524e7a	-0.051344372
214	0xbcb212a5	-0.021737406
215	0x3ce3410b	0.027740976
216	0x3ba8a73e	0.00514689
217	0xbc1d0292	-0.009583132
218	0xbb9d741d	-0.0048051015
219	0xbd6c74bb	-0.05772851
220	0xbcd1742b	-0.025568089
221	0xbcef22dc	-0.029191427
222	0xbcc3323b	-0.023827663
223	0xbc731fde	-0.014839141
224	0xbd6b02a1	-0.057375554
225	0x38d2b9ef	0.00010048213
226	0xbc174323	-0.009232315
227	0xba8ffa3e	-0.0010984612
228	0xbd02047a	-0.03174255
229	0xbc88f6bf	-0.01671922
230	0x3acfc9d0	0.0015852991
231	0xbc685e84	-0.0141826905
232	0x3c4e54b3	0.012593436
233	0x3ca15ccd	0.019697571
234	0xbc6685ab	-0.014069955
235	0x3d1d289f	0.038368817
236	0xbc0266ad	-0.00795905
237	0xbbc52a16	-0.00601698
238	0x3c43e866	0.011957264
239	0xbccafccc	-0.024778746
240	0x3d0d7dab	0.034543674
241	0x3cfaa761	0.03059739
242	0x3cb249c2	0.021763686
243	0x3d418f20	0.047255635
244	0x3ca159ca	0.019696135
245	0xbc861855	-0.016369024
246	0x3c03c2cd	0.00804205
247	0x3cd03c54	0.025419392
248	0x3cab803d	0.020935172
249	0xbbad85b2	-0.0052954787
250	0xbce3088b	-0.027714035
251	0x3b947336	0.004530336
252	0xbccf138f	-0.025277881
253	0xbd52aa06	-0.05143168
254	0xbd079d44	-0.033108965
255	0xbd1c94b0	-0.038227737

layer3.0.bias f4 [64]
0	0x3c74187d	0.014898417
1	0xbc8fa812	-0.017536197
2	0xb8d510f5	-0.0001015979
3	0x3ce50f6c	0.027961455
4	0xbb87ff84	-0.004150333
5	0xbcd560d5	-0.02604715
6	0x3a431152	0.00074412406
7	0xbc348f1a	-0.011020446
8	0x3c9fbde5	0.019499728
9	0x3cc01419	0.023447083
10	0xbcbb76ea	-0.022883851
11	0x3cdec86c	0.027195178
12	0xbd04e2cc	-0.032442853
13	0xbc2bac8b	-0.010478149
14	0xbc6caa30	-0.014444873
15	0x3ceba333	0.028764343
16	0x3c542cbc	0.012950119
17	0xbcd80e39	-0.02637397
18	0x3cd90e0e	0.02649596
19	0x3c5b4758	0.013383709
20	0xbc1b3194	-0.00947227
21	0x3c6fba97	0.014631889
22	0x3cea82d0	0.02862683
23	0x3b160b4a	0.0022894912
24	0x3d16543b	0.036701422
25	0x3b3ecad8	0.0029112604
26	0xbd22f362	-0.03978289
27	0xbcb59266	-0.022164535
28	0x3c9cd6f3	0.019145465
29	0x3ac531a9	0.0015044707
30	0x3c68780b	0.014188777
31	0xbc94bf1d	-0.018157536
32	0xbcca2260	-0.024674594
33	0x3c10bd47	0.00883419
34	0xbbc4a6e6	-0.006001341
35	0xbd205ade	-0.039149158
36	0xbaa0ac41	-0.0012258367
37	0x3b31d45f	0.002713464
38	0xbc27ea9e	-0.010248808
39	0xbd135ab4	-0.035975173
40	0x3c9a6405	0.018846521
41	0xbc6600d0	-0.01403828
42	0x399969cf	0.00029261268
43	0x3d190092	0.03735406
44	0xbcc19101	-0.023628714
45	0xbc4c12b3	-0.01245563
46	0x3d00828d	0.031374503
47	0x3d30fe07	0.04321101
48	0xba859b1f	-0.0010193324
49	0xbbb8e239	-0.005642202
50	0xbc787db6	-0.015166691
51	0xbd0f5e80	-0.03500223
52	0xbc197f19	-0.009368681
53	0x3cf895f5	0.030344943
54	0x3c8a4227	0.016877247
55	0x3d22fd61	0.039792422
56	0x3cedf877	0.029049141
57	0x3d0e8810	0.034797728
58	0xbd17a2e4	-0.03702058
59	0xbc863643	-0.016383296
60	0xbcc30099	-0.023803996
61	0xbd17259a	-0.036901094
62	0xbce9301c	-0.028465323
63	0xbd292e60	-0.041303992

layer3.1.weight f4 [64]
0	0x3f80b0b1	1.0053922
1	0x3f7d3b8a	0.98918974
2	0x3f80b0ee	1.0053995
3	0x3f822085	1.0166174
4	0x3f76aebd	0.9636038
5	0x3f7c537e	0.985649
6	0x3f7e2a52	0.99283326
7	0x3f7dee6f	0.99191946
8	0x3f828367	1.0196351
9	0x3f7baa5a	0.9830681
10	0x3f7a250d	0.97712785
11	0x3f86c993	1.0530266
12	0x3f86b083	1.0522617
13	0x3f771e42	0.96530545
14	0x3f7cd533	0.98762816
15	0x3f7d966c	0.9905765
16	0x3f7c2c28	0.9850488
17	0x3f80a8eb	1.005155
18	0x3f78edb4	0.97237706
19	0x3f7660d2	0.96241486
20	0x3f764da6	0.9621223
21	0x3f7ccf8e	0.98754203
22	0x3f801dda	1.000911
23	0x3f755d65	0.95845634
24	0x3f8218c8	1.0163813
25	0x3f7d7f7d	0.99022657
26	0x3f880f6b	1.0629705
27	0x3f7c43b8	0.9854083
28	0x3f89fb3d	1.0779797
29	0x3f7cc262	0.98734105
30	0x3f751491	0.95734507
31	0x3f7d362c	0.98910785
32	0x3f773a5a	0.9657341
33	0x3f831311	1.0240194
34	0x3f771f6f	0.9653234
35	0x3f80d523	1.0065044
36	0x3f7ad7ac	0.9798534
37	0x3f74513c	0.95436454
38	0x3f876896	1.0578792
39	0x3f88c66a	1.0685551
40	0x3f84ebf1	1.0384504
41	0x3f80131e	1.0005834
42	0x3f7f7912	0.99794114
43	0x3f7618ae	0.9613141
44	0x3f6f301d	0.9343279
45	0x3f7d595e	0.9896449
46	0x3f765c91	0.96234995
47	0x3f8180d3	1.0117439
48	0x3f81d6dc	1.0143695
49	0x3f7673cc	0.9627044
50	0x3f7de7d2	0.99181855
51	0x3f7a0095	0.9765714
52	0x3f7ebeb5	0.99509746
53	0x3f770816	0.96496713
54	0x3f7435b8	0.9539447
55	0x3f7a4bf9	0.97772175
56	0x3f896f95	1.0737177
57	0x3f7d77f3	0.99011153
58	0x3f7aa98f	0.97914976
59	0x3f7a2ad6	0.9772161
60	0x3f8513b7	1.0396641
61	0x3f7b3ad3	0.98136634
62	0x3f85666a	1.0421879
63	0x3f80fb61	1.0076715

layer3.1.bias f4 [64]
0	0xbd6b654d	-0.057469655
1	0xbc991d4f	-0.018690733
2	0xbce739a7	-0.028225733
3	0xbd546c9b	-0.051861387
4	0xbcbafe9f	-0.02282649
5	0xbc9008b0	-0.017582268
6	0xbcee3027	-0.029075695
7	0xbd495c25	-0.04916014
8	0xbdb01fc1	-0.085998066
9	0xbd21f323	-0.039538514
10	0xbd18fbea	-0.03734962
11	0xbda93be1	-0.08263374
12	0xbdb69d5d	-0.089167334
13	0xbc900db5	-0.017584661
14	0xbd9757dc	-0.07389805
15	0xbd06626f	-0.032808717
16	0xbd4553e0	-0.048175693
17	0xbd430ca4	-0.047619477
18	0xbd052fe3	-0.03251637
19	0xbd2e61c5	-0.04257371
20	0xbd5aa2b8	-0.053377837
21	0xbd7c49b9	-0.061593745
22	0xbd778a57	-0.060434666
23	0xbd2e7416	-0.042591177
24	0xbd16ceb1	-0.03681821
25	0xbd51ed7d	-0.051251877
26	0xbd85678f	-0.06513893
27	0xbcac6921	-0.021046223
28	0xbdbd62e2	-0.09247376
29	0xbd3a5301	-0.045489315
30	0xbd0716b2	-0.03298063
31	0xbcaabcfb	-0.020842066
32	0xbcd750e8	-0.026283696
33	0xbd7c7e5d	-0.061643947
34	0xbd64576e	-0.055747442
35	0xbd811939	-0.06303639
36	0xbd810af8	-0.0630092
37	0xbd87b6d0	-0.066266656
38	0xbc04b237	-0.00809913
39	0xbe07ed86	-0.13274202
40	0xbd7bffdc	-0.061523303
41	0xbd95223f	-0.072819225
42	0xbd2e1062	-0.042496093
43	0xbd2a64b0	-0.04159993
44	0xbd1905c2	-0.037359007
45	0xbdb481f7	-0.08813851
46	0xbd4b814c	-0.049683854
47	0xbd654752	-0.05597622
48	0xbd4753c0	-0.048663855
49	0xbc91a98f	-0.017781047
50	0xbd346598	-0.0440422
51	0xbd6a936f	-0.05726951
52	0xbda28f6f	-0.07937514
53	0xbd830243	-0.06396916
54	0xbd8f3b44	-0.06993726
55	0xbcc9be48	-0.024626866
56	0xbdc78277	-0.09741681
57	0xbd8308b4	-0.06398144
58	0xbda58dc2	-0.08083679
59	0xbc8799cf	-0.016552834
60	0xbdc3176b	-0.09525951
61	0xbd635a5b	-0.05550609
62	0xbd93d32d	-0.07218013
63	0xbd6e3e16	-0.05816468

layer3.1.running_mean f4 [64]
0	0xbf70cd8f	-0.9406366
1	0xbf6c330d	-0.922654
2	0xbe32c7ee	-0.1745908
3	0xbed27282	-0.41102988
4	0xbf555847	-0.83337826
5	0xbf44b747	-0.7684216
6	0xbed8f9b7	-0.42378017
7	0xbf8e2363	-1.1104549
8	0xbebffd84	-0.37498105
9	0xbf4414c6	-0.765942
10	0xbf57cc8b	-0.8429648
11	0xbf274f31	-0.6535521
12	0xbf4fd3fc	-0.8118284
13	0xbf0094a1	-0.5022679
14	0xbf16188e	-0.5863122
15	0xbf581ae2	-0.8441602
16	0xbf2a2bb2	-0.66472924
17	0xbf55c77f	-0.8350753
18	0xbf56ae03	-0.8385927
19	0xbf64162f	-0.8909635
20	0xbe911e8b	-0.28343615
21	0xbf1026cd	-0.56309205
22	0xbf5ad243	-0.85477084
23	0xbf054bf9	-0.5206905
24	0xbf4c7632	-0.7986785
25	0xbef76bee	-0.4832453
26	0xbf2c6728	-0.67344904
27	0xbf4f3283	-0.8093645
28	0xbf8e1146	-1.1099021
29	0xbf498a24	-0.7872641
30	0xbf4e5a96	-0.80606973
31	0xbf8b8027	-1.0898484
32	0xbf31ec29	-0.69500977
33	0xbf20de69	-0.6283937
34	0xbd94a5bd	-0.072581746
35	0xbf20af04	-0.6276705
36	0xbf71cb55	-0.94450885
37	0xbf6661b7	-0.8999285
38	0xbf5633d0	-0.8367281
39	0xbf90dc0c	-1.1317153
40	0xbebf9dd1	-0.37425092
41	0xbef78e5a	-0.48350793
42	0xbf6bf076	-0.9216379
43	0xbf4e5c3e	-0.806095
44	0xbf8ddf48	-1.1083765
45	0xbe96dc55	-0.29464975
46	0xbf54f9a3	-0.83193415
47	0xbf3c8198	-0.73635244
48	0xbe9c72dd	-0.30556384
49	0xbf3ab285	-0.7292865
50	0xbf114375	-0.56743556
51	0xbf4a98a8	-0.79139185
52	0xbf52d483	-0.8235552
53	0xbf40f106	-0.7536777
54	0xbe0d1d34	-0.13780671
55	0xbf290273	-0.6601936
56	0x3e821702	0.2540818
57	0xbf66f33a	-0.90214884
58	0xbf629ef3	-0.8852379
59	0xbf5ce09c	-0.86280227
60	0xbeaf7d4c	-0.3427528
61	0xbf7b37cf	-0.9813203
62	0xbf0ef959	-0.55849224
63	0xbf5a2ae0	-0.8522167

layer3.1.running_var f4 [64]
0	0x3ea32956	0.31867474
1	0x3f30456e	0.6885594
2	0x3eb83bea	0.3598321
3	0x3e57a67f	0.21059607
4	0x3f3fcc5e	0.74921215
5	0x3eb2930e	0.3487782
6	0x3eb64940	0.3560276
7	0x3ecec225	0.40382496
8	0x3e4ca7d7	0.19985901
9	0x3ed93549	0.42423466
10	0x3f87249e	1.055805
11	0x3e8b8535	0.27250066
12	0x3eb38da4	0.35069
13	0x3ef7fdaa	0.48435718
14	0x3ea275f0	0.31730604
15	0x3f06b958	0.5262656
16	0x3ea13caf	0.3149161
17	0x3eaf974c	0.34295118
18	0x3f36029b	0.71097726
19	0x3ebefec2	0.3730374
20	0x3ef2cbfa	0.47421247
21	0x3f3a6993	0.72817343
22	0x3ea430f1	0.3206859
23	0x3f008cf7	0.50215095
24	0x3ea613de	0.32437032
25	0x3e83a44a	0.2571128
26	0x3e80d654	0.2516352
27	0x3ea313ba	0.31850988
28	0x3e8af178	0.2713735
29	0x3ed574f4	0.4169079
30	0x3f2fabe8	0.68621683
31	0x3f13bf71	0.5771399
32	0x3f2f34bf	0.6843986
33	0x3e709ee2	0.23498109
34	0x3e8da84b	0.2766746
35	0x3ee2ec32	0.44320828
36	0x3ea2b2a7	0.31776926
37	0x3f76db12	0.96428025
38	0x3e99b00a	0.3001712
39	0x3eaa57d0	0.3327012
40	0x3e71cdd1	0.23613669
41	0x3e8ed18d	0.2789425
42	0x3eaa104f	0.33215567
43	0x3f3497c0	0.7054405
44	0x3f2ee4e2	0.68318
45	0x3e854bdb	0.26034436
46	0x3f16fcdb	0.58979577
47	0x3e8a4653	0.27006778
48	0x3e6d6bdc	0.23185676
49	0x3f2358b0	0.638072
50	0x3ed2029c	0.41017616
51	0x3f65b297	0.8972563
52	0x3ed6fd5c	0.41990173
53	0x3ec52ae7	0.38509294
54	0x3ed34c08	0.41268945
55	0x3f105e38	0.56393766
56	0x3e32cf26	0.17461833
57	0x3ebe3add	0.37154284
58	0x3ecd8480	0.40140152
59	0x3f3b5d41	0.7318917
60	0x3e417363	0.18891673
61	0x3f043a41	0.5165139
62	0x3e9ba1c2	0.3039685
63	0x3ea2aa63	0.3177062
