FAST 3D-CNN P-NET/model/IP/IP_proto_2d-5shotband45.pth (torch, 560561 bytes, 24 tensors)

layer1.0.weight f4 [64, 45, 3, 3]
0	0xba8c55fb	-0.0010706777
1	0x3ce490ed	0.027901137
2	0x3ce0bd9a	0.02743416
3	0xbd01a1b3	-0.03164835
4	0x3cdce082	0.026962522
5	0x3d3171ff	0.043321606
6	0xbc035842	-0.008016648
7	0xbcfb11bd	-0.030648107
8	0xbd5d80ce	-0.054077916
9	0xbcef91bd	-0.029244298
10	0x3bd4fd54	0.0064999256
11	0x3c31c4e6	0.010850167
12	0x3c99353a	0.018702138
13	0x3ca65691	0.02030495
14	0xbbd74d0a	-0.006570463
15	0xbd0e1beb	-0.034694593
16	0x3d11cb4d	0.035594273
17	0x3b0619c4	0.0020462135
18	0xbd19cef5	-0.037550885
19	0xbcdb10b9	-0.026741372
20	0x3d1957d9	0.037437294
21	0xbcb99b99	-0.022657203
22	0x3c715b01	0.01473117
23	0x3d18cc52	0.03730423
24	0xbcd8f18c	-0.026482366
25	0x3cce1b68	0.025159553
26	0x3d31f83c	0.043449625
27	0xbd1a5c81	-0.037685875
28	0xbabacb26	-0.0014251217
29	0xbc208c73	-0.009799111
30	0x3d0ffe2c	0.035154507
31	0x3c9eb761	0.019374551
32	0x3caa3b62	0.020780269
33	0x3caf01c6	0.02136315
34	0x3d255094	0.04036005
35	0xbcd56a64	-0.026051708
36	0xbc3f68ca	-0.0116826985
37	0xbb851082	-0.004060806
38	0xbd503859	-0.050834987
39	0xbd0c5391	-0.034259383
40	0x3c95098f	0.018193034
41	0x3ce07cdf	0.027403293
42	0xbcacf32d	-0.021112049
43	0x3c8f2d37	0.017477615
44	0xbd545a48	-0.05184391
45	0xbca7e89c	-0.020496659
46	0x3d33e899	0.043922994
47	0xbd09f1d6	-0.0336779
48	0x3c84cbdc	0.016210489
49	0x3cee3c81	0.029081585
50	0x3d5df7e0	0.05419147
51	0xbb434a12	-0.0029798788
52	0x3c6e4f96	0.014545342
53	0x3cf3d1d3	0.029763138
54	0x3c9b436c	0.018953048
55	0xbc73a50e	-0.014870895
56	0x3cbdffa6	0.023193192
57	0xbb73a90f	-0.0037179624
58	0xbd4b5b96	-0.04964789
59	0xbc6d8df6	-0.014499178
60	0x3d1fd019	0.039016817
61	0x380ad2cb	3.309808e-05
62	0xbc96e08f	-0.018417625
63	0xbc3183e0	-0.010834664
64	0x3d382ec0	0.04496646
65	0xbcb277af	-0.021785585
66	0x3d1476df	0.036246177
67	0x3c43351f	0.0119145205
68	0x3c9ed438	0.019388303
69	0xbc83d1b5	-0.016091207
70	0x3d350679	0.044195626
71	0x3c43d184	0.011951808
72	0x3d3f026c	0.04663317
73	0x3d13b54a	0.036061563
74	0xbd03fe46	-0.032224916
75	0x3b2ea9c3	0.002665148
76	0x3cf262bf	0.029588101
77	0xbd256f6a	-0.040389456
78	0x3d05280f	0.032508906
79	0xbd3783b8	-0.04480335
80	0x3d172428	0.036899716
81	0xb93a68b0	-0.00017777341
82	0xbd18cb77	-0.037303414
83	0x3c004ef3	0.007831323
84	0xba567c07	-0.00081819337
85	0x3bd98ee4	0.0066393483
86	0x3d8cbd86	0.06872086
87	0x3d067a41	0.032831434
88	0x3c2bc260	0.010483354
89	0x3d3096ff	0.04311275
90	0x3c1423c6	0.009041732
91	0xbd121e0c	-0.035673186
92	0x3c8cbd7b	0.017180195
93	0x3b7f3c4a	0.0038945847
94	0xbc98113a	-0.018562902
95	0x3c4a25ba	0.012338096
96	0xbcbe75c9	-0.023249524
97	0x3c92ef8d	0.017936492
98	0x3d030a51	0.03199226
99	0x3c519d9d	0.012793926
100	0xbce4d8e6	-0.027935456
101	0xbc899dc5	-0.016798863
102	0x3a8ce9b4	0.0010750801
103	0xbd58713b	-0.05284236
104	0x3afc5df7	0.0019254078
105	0x3c15a902	0.009134533
106	0xbcd0178b	-0.025401851
107	0xbd5b2ffa	-0.05351255
108	0x3c726a1e	0.014795808
109	0x3c3b4729	0.01143054
110	0x3d0ae3a6	0.03390851
111	0xbc3f1ceb	-0.011664609
112	0x3d6b4c5b	0.057445865
113	0x3bdfd0c4	0.0068303067
114	0x3cce4dc0	0.025183558
115	0x3d6f87d2	0.058479138
116	0x3d3cc96f	0.04609054
117	0xbd36446f	-0.044498857
118	0xbc44c14a	-0.012008974
119	0xbcb479b1	-0.022030683
120	0xbbfeb407	-0.007772926
121	0xbc0dd38c	-0.008656394
122	0xbd041f89	-0.032256637
123	0xbccba939	-0.024860965
124	0xbb869d40	-0.004108101
125	0xbc052e90	-0.008128777
126	0x3c81d6cc	0.015849493
127	0xbd155ca7	-0.036465313
128	0x3d2ef76e	0.042716436
129	0x3d22c3c9	0.039737497
130	0xbd3e4afb	-0.046458226
131	0xbc5966cc	-0.013269138
132	0x3c24adff	0.0100512495
133	0x3c86565c	0.016398601
134	0xbce2f2f2	-0.027703736
135	0xbb485aec	-0.0030571772
136	0xbd358811	-0.044319216
137	0x3cc8d6de	0.02451652
138	0xbd3075d5	-0.043081123
139	0x3d132105	0.03592016
140	0x3c6e1cc3	0.0145332245
141	0x3cff8b71	0.03119442
142	0xbd4b38c7	-0.049614694
143	0xbd042e80	-0.03227091
144	0xbd341630	-0.043966472
145	0x3cd932fb	0.026513567
146	0xbd02f4ba	-0.03197167
147	0xbd276ccd	-0.040875245
148	0x3c31cf85	0.010852699
149	0x3c71ee3a	0.01476627
150	0x3c12b176	0.008953443
151	0xbcd30751	-0.025760325
152	0xbd13ac0a	-0.03605274
153	0x3cb366f8	0.021899685
154	0x3d0b8d6b	0.034070414
155	0x3cce7619	0.025202798
156	0x3d23ab30	0.03995818
157	0xbc83a5f2	-0.01607034
158	0xba15e9f3	-0.000571876
159	0xbb0b00e0	-0.0021210238
160	0xbd177ece	-0.036986165
161	0x3bf3a96f	0.0074359695
162	0x3c7a33d1	0.015271143
163	0x3ceca66c	0.02888795
164	0xbcb62c0f	-0.022237806
165	0xbbe51fc6	-0.006992313
166	0x3c03e751	0.008050756
167	0x3cdc88e5	0.026920745
168	0x3c93d7bd	0.018047208
169	0xbd2b2e47	-0.04179218
170	0x3bb66db8	0.0055672787
171	0x3cecc16b	0.028900823
172	0x3d22627b	0.0396447
173	0xbc83968b	-0.016062995
174	0x3c86dbf1	0.016462298
175	0x3d800538	0.062509954
176	0x3d23521e	0.039873235
177	0xbccf46e4	-0.025302358
178	0xbd37244f	-0.04471236
179	0xbd0aedf6	-0.033918343
180	0x3d1191c0	0.03553939
181	0xbbbb084c	-0.005707776
182	0x3c3a3a47	0.011366433
183	0x3c55e400	0.013054848
184	0xbc7a5e1b	-0.015281226
185	0x3d16dd62	0.03683222
186	0x3d2f1b31	0.04275054
187	0x3b347e90	0.0027541257
188	0x3d127d8b	0.03576426
189	0xbc5b45fa	-0.013383383
190	0x3cdffd7a	0.027342547
191	0x3bf7d5c7	0.007563326
192	0xbd267bdc	-0.040645465
193	0x3c038675	0.0080276625
194	0x3d144f51	0.036208455
195	0xbc0f2cbc	-0.008738693
196	0xbcc95530	-0.024576753
197	0xbc7b6869	-0.015344718
198	0xbce37abc	-0.027768485
199	0xbd5f39ef	-0.05449861
200	0x3cf4f172	0.029900286
201	0x3c793dea	0.015212515
202	0xbbea63b9	-0.007153001
203	0x3d122fef	0.035690244
204	0xbd4a603f	-0.049408194
205	0xbd2e6bd9	-0.04258332
206	0x3cdc7a49	0.026913779
207	0x3cd05c2d	0.025434578
208	0x3cf81b05	0.030286321
209	0x3c5f7a49	0.013639995
210	0x3d10652f	0.035252746
211	0xbcd2590f	-0.025677232
212	0x3cd5127d	0.026009792
213	0x3d19236a	0.03738729
214	0xbc48aeb8	-0.012248687
215	0xbcdd3ed1	-0.027007492
216	0xbcd607f1	-0.026126834
217	0xbd3416fd	-0.043967236
218	0xbbeb9dbc	-0.0071904343
219	0x3cffddf2	0.031233761
220	0x3c23ca94	0.009997029
221	0x3b344536	0.0027507073
222	0xbc7fe06f	-0.015617474
223	0xbcc7218c	-0.024307989
224	0xbc7fb7d0	-0.015607789
225	0x3d3d5147	0.04622009
226	0x3c8f4e43	0.017493373
227	0x3cc5e9e1	0.024159374
228	0x3c21e39e	0.009880928
229	0xbcc7a293	-0.024369514
230	0xbcef56aa	-0.02921613
231	0x3c4cd706	0.012502437
232	0x3c4c1e04	0.012458328
233	0xbd4692bd	-0.048479784
234	0x3c587cab	0.013213317
235	0xbc3aa229	-0.011391201
236	0xbd6bf160	-0.05760324
237	0xbd427598	-0.047475427
238	0x3ad9ed6e	0.0016626546
239	0xbd5f76b8	-0.05455658
240	0x3c3980aa	0.01132218
241	0x3d01eb90	0.03171879
242	0x3d20db5f	0.03927171
243	0x3ce0eebd	0.02745759
244	0xbd395bb7	-0.04525348
245	0xbbe80125	-0.0070802146
246	0xbcfbe27d	-0.030747646
247	0x3cbc6402	0.022996906
248	0xbd056efc	-0.032576546
249	0xbb8bc6e2	-0.004265652
250	0x3c6d4d8e	0.0144838225
251	0xbbc5a97c	-0.006032167
252	0x3bfc8be2	0.007707105
253	0xbacf88bb	-0.0015833596
254	0xbc716037	-0.014732412
255	0xbd5bab67	-0.05363026

layer1.0.bias f4 [64]
0	0xbd1e3c28	-0.03863159
1	0xbd195024	-0.037429944
2	0xbced7d37	-0.028990371
3	0xbd3b2e87	-0.04569867
4	0x3cc8fcc1	0.024534585
5	0x3cfb8c4c	0.030706547
6	0x3c7c1f7a	0.015388364
7	0x3d30468d	0.043036032
8	0x3d21fb86	0.039546512
9	0xbc2bf492	-0.010495322
10	0x3ca56dbc	0.020193927
11	0x3ca00898	0.019535348
12	0x3d10395b	0.03521095
13	0x3d08a0fb	0.033356648
14	0xbd19e654	-0.037573174
15	0x3ce3f883	0.02782846
16	0x3d0d8f62	0.03456057
17	0xbb9daff8	-0.004812237
18	0xbce0b02f	-0.02742776
19	0xbd1ed1c5	-0.03877427
20	0xbbef4c51	-0.007302799
21	0xbc2792d1	-0.010227875
22	0xbc7a6bc4	-0.015284482
23	0x3d47e09d	0.048798192
24	0xbd3d1704	-0.046164528
25	0x3d1ad93f	0.03780484
26	0xbd1ce9ef	-0.038309034
27	0xba17c0c0	-0.0005788915
28	0xbcd59e33	-0.026076412
29	0x3b2a0193	0.002594088
30	0x3ccb0a06	0.024785053
31	0x3b2d1219	0.0026408492
32	0xbc754e20	-0.01497224
33	0x3d09a422	0.033603795
34	0x3d299cb1	0.0414092
35	0x3c128f6b	0.008945326
36	0x3c63455a	0.013871515
37	0xbb1cc1c2	-0.00239192
38	0x3cbdeaaf	0.023183195
39	0x3b9815a3	0.004641251
40	0x3bf1bc73	0.007377201
41	0x3d1f033e	0.03882145
42	0xbd21a27f	-0.03946161
43	0x3b595f87	0.003316851
44	0x3a9073c9	0.0011020835
45	0x3d31e89c	0.043434724
46	0x3d0e0ba9	0.03467909
47	0x3d2ea7ca	0.042640485
48	0x3d34567e	0.044027798
49	0xbad17201	-0.001597941
50	0xbc5ca513	-0.013467091
51	0xbc9722af	-0.018449156
52	0xbcc4836c	-0.023988448
53	0xbce03a2e	-0.027371492
54	0x3d14811f	0.036255952
55	0x3c93bb55	0.018033663
56	0xbcec9948	-0.028881684
57	0x3bff7c7f	0.0077968235
58	0x3d02ed17	0.031964388
59	0xbbba9610	-0.0056941584
60	0xb879c6d4	-5.95514e-05
61	0xbcaabf0d	-0.020843053
62	0x3cae3811	0.021266969
63	0x3b98a7c1	0.0046586697

layer1.1.weight f4 [64]
0	0x3f80bfab	1.0058492
1	0x3f805bfc	1.0028071
2	0x3f81f666	1.015332
3	0x3f7f76b1	0.99790484
4	0x3f826e74	1.0189958
5	0x3f80978b	1.0046247
6	0x3f7e06b4	0.9922898
7	0x3f7f9d17	0.99849075
8	0x3f7f021a	0.9961258
9	0x3f80598c	1.0027328
10	0x3f813828	1.0095263
11	0x3f80f7a5	1.0075575
12	0x3f813cd7	1.0096692
13	0x3f80caf7	1.006194
14	0x3f809296	1.0044734
15	0x3f80de63	1.0067867
16	0x3f803049	1.0014735
17	0x3f7f786e	0.99793136
18	0x3f81409e	1.0097845
19	0x3f7e7994	0.99404263
20	0x3f7e5610	0.9935007
21	0x3f80b666	1.0055664
22	0x3f7f6eb2	0.9977828
23	0x3f7e4e75	0.99338466
24	0x3f7e51d8	0.99343634
25	0x3f7ede57	0.99558014
26	0x3f8086bd	1.0041119
27	0x3f816cee	1.0111368
28	0x3f804912	1.0022299
29	0x3f7fde71	0.99948794
30	0x3f7fad78	0.9987407
31	0x3f808bf2	1.0042708
32	0x3f80aad2	1.005213
33	0x3f7f62db	0.99760216
34	0x3f808a87	1.0042275
35	0x3f7e3121	0.99293715
36	0x3f806b9a	1.0032837
37	0x3f7f0dd2	0.99630463
38	0x3f80e9e3	1.0071377
39	0x3f7c4130	0.9853697
40	0x3f8073d9	1.0035354
41	0x3f7b7d47	0.98238033
42	0x3f82821d	1.0195957
43	0x3f80b622	1.0055583
44	0x3f7e88cf	0.99427503
45	0x3f808dbf	1.0043257
46	0x3f8004f5	1.0001513
47	0x3f8076c8	1.0036249
48	0x3f7e4501	0.9932404
49	0x3f804bf7	1.0023183
50	0x3f7dd4a4	0.9915259
51	0x3f7ccd65	0.9875091
52	0x3f7d8d79	0.99043995
53	0x3f806e32	1.0033629
54	0x3f80b6e0	1.0055809
55	0x3f81ac54	1.0130715
56	0x3f7d26b2	0.9888717
57	0x3f807a97	1.0037411
58	0x3f81e91c	1.0149264
59	0x3f7ed18a	0.9953848
60	0x3f80743b	1.0035471
61	0x3f8135a6	1.0094497
62	0x3f804045	1.0019614
63	0x3f802657	1.00117

layer1.1.bias f4 [64]
0	0xb988ea8d	-0.00026114695
1	0x3bc050de	0.005869015
2	0x3b85e440	0.0040860474
3	0x3ae45042	0.0017418938
4	0xbc2a9a7b	-0.010412808
5	0xbc512620	-0.012765437
6	0x3b98147d	0.0046411143
7	0xbb888491	-0.004166194
8	0xbbece4a9	-0.007229407
9	0xba95cebd	-0.0011429411
10	0xb79e895f	-1.8899036e-05
11	0x3c21b181	0.00986898
12	0x3bb62db0	0.0055596456
13	0xbc1a9a71	-0.009436236
14	0xbc3a99de	-0.011389224
15	0x3b8876c3	0.004164548
16	0x3acecade	0.0015777012
17	0x3a9054ba	0.0011011579
18	0x3a8990c6	0.0010495416
19	0xbcde3c2b	-0.0271283
20	0xbb992195	-0.0046731927
21	0xbc33926c	-0.010960203
22	0xbc323a56	-0.010878166
23	0xbcc1ce9b	-0.023658087
24	0xbbe5153e	-0.0069910577
25	0xbb1b83d2	-0.0023729694
26	0xbc4f2bdb	-0.012644733
27	0xbc6400e9	-0.013916233
28	0xbcab0315	-0.020875493
29	0x3c0187fb	0.007905955
30	0xbbe9a59c	-0.007130338
31	0x3b170ecf	0.0023049598
32	0x3b380549	0.0028079322
33	0xbb1802a3	-0.002319493
34	0x3bb6c785	0.005577984
35	0xbc2a2086	-0.010383731
36	0xbc856a6f	-0.016286103
37	0x3b5bbf8b	0.0033530917
38	0x3bc3253e	0.0059553673
39	0x3be914cc	0.007113075
40	0xba3713fc	-0.0006983874
41	0xbabf0a12	-0.0014575145
42	0xbbb1ce4c	-0.005426204
43	0x3943beb3	0.0001866769
44	0xbb36837a	-0.0027849362
45	0x3b21bc9a	0.0024679066
46	0xbc163a64	-0.009169195
47	0x3ab6ef5c	0.0013956833
48	0xbbdac061	-0.0066757654
49	0xba2ccbf3	-0.000659167
50	0x3b87058c	0.0041205343
51	0xbc0fb6ef	-0.008771642
52	0xbbe482f9	-0.006973621
53	0xbc2cc2a6	-0.010544455
54	0xbc50c7ca	-0.012742946
55	0xbbd4202c	-0.0064735617
56	0x3c2c5dfd	0.010520455
57	0x3bcede8b	0.0063131503
58	0xbc266339	-0.010155492
59	0xbb67c598	-0.0035365578
60	0xbc11e4a5	-0.008904611
61	0xbb9a45b5	-0.0047080168
62	0xbc0b6bd9	-0.0085096
63	0xbbb5164b	-0.005526339

layer1.1.running_mean f4 [64]
0	0x442ebe3d	698.9725
1	0x44a6214f	1329.0409
2	0xc428cfc0	-675.2461
3	0xc443376a	-780.86584
4	0x448383c3	1052.1176
5	0x437ed599	254.83437
6	0xc455ce76	-855.22595
7	0x43d95758	434.68237
8	0x451eb095	2539.0364
9	0xc2cf7451	-103.72718
10	0xc48d4537	-1130.163
11	0x44db34e9	1753.6534
12	0x4391ec62	291.84674
13	0x440a60c3	553.5119
14	0xc3d8ba9a	-433.45782
15	0xc2d7a5d3	-107.823875
16	0x44552835	852.62823
17	0x447f95f6	1022.34314
18	0x3d90363a	0.07041593
19	0xc4a853c1	-1346.6173
20	0xc1217145	-10.090154
21	0x44c18c10	1548.377
22	0x4290174c	72.0455
23	0x4203931e	32.89367
24	0x4451b2d1	838.794
25	0x44bdbade	1517.8396
26	0xc49081b6	-1156.0535
27	0xc46199f7	-902.4057
28	0x44b62125	1457.0358
29	0xc2ee522d	-119.1605
30	0x44e48a88	1828.3291
31	0x43eb6518	470.7898
32	0x44b5b231	1453.5685
33	0xc43d0182	-756.02356
34	0xc43f2d35	-764.70636
35	0xc59d9aa1	-5043.3286
36	0x443da322	758.54895
37	0xc41ac2ad	-619.0418
38	0x449838c7	1217.7743
39	0xc4a603e9	-1328.1222
40	0xc3810f7b	-258.12094
41	0xc4a509ed	-1320.3102
42	0xc3fdd7f4	-507.68713
43	0x44b574d9	1451.6515
44	0xc431877b	-710.1169
45	0x453ffbc2	3071.7349
46	0x44ccc2c8	1638.0869
47	0x435bee93	219.93193
48	0x456757cd	3701.4875
49	0x43a22994	324.32483
50	0xc4c79b7d	-1596.859
51	0xc584b201	-4246.2505
52	0xc4a0f30f	-1287.5956
53	0xc469f352	-935.8019
54	0xc4204a04	-641.1565
55	0x4281219b	64.565636
56	0xc4d91d87	-1736.9227
57	0x43a7d10d	335.6332
58	0xc38d6ec1	-282.86526
59	0x44b69daf	1460.9276
60	0x440e05be	568.0897
61	0xc4687fbc	-929.99585
62	0x4449b1f5	806.7806
63	0x448b1db2	1112.928

layer1.1.running_var f4 [64]
0	0x48a0c13a	329225.8
1	0x49513eb5	857067.3
2	0x47f0a4cb	123209.586
3	0x49737383	997176.2
4	0x488f86f1	293943.53
5	0x48d9278a	444732.3
6	0x48b2e94c	366410.38
7	0x48234be5	167215.58
8	0x4926856b	682070.7
9	0x485548de	218403.47
10	0x48d5f50f	438184.47
11	0x486bafe9	241343.64
12	0x48abdd0e	351976.44
13	0x485f22cd	228491.2
14	0x47f3e8c6	124881.55
15	0x48a1f7e9	331711.28
16	0x48c46857	402242.72
17	0x49022153	533013.2
18	0x47d9bef6	111485.92
19	0x4930b5bc	723803.75
20	0x488d417f	289291.97
21	0x48f2a8ae	496965.44
22	0x47c28f11	99614.13
23	0x489ac0cb	316934.34
24	0x49465118	812305.5
25	0x498846e9	1.1163811e+06
26	0x491e51f8	648479.5
27	0x489f7184	326540.12
28	0x48e4781c	467904.88
29	0x4915293b	610963.7
30	0x48e4de26	468721.2
31	0x483646cd	186651.2
32	0x48241c9e	168050.47
33	0x491602d0	614445.0
34	0x4801a043	132737.05
35	0x49e3a788	1.864945e+06
36	0x4862f376	232397.84
37	0x490d192d	577938.8
38	0x489999d6	314574.7
39	0x48dfe5df	458542.97
40	0x479dc6cc	80781.59
41	0x49acb8e8	1.414941e+06
42	0x47d57f18	109310.19
43	0x4878233f	254092.98
44	0x48d37730	433081.5
45	0x49ac6f62	1.4125882e+06
46	0x48a3afc5	335230.16
47	0x4805a09b	136834.42
48	0x4a1ec33f	2.6011678e+06
49	0x4845c21a	202504.4
50	0x494f03b9	847931.56
51	0x4a3b508a	3.0689625e+06
52	0x4a4be3cb	3.3405308e+06
53	0x498565de	1.0927958e+06
54	0x48415f5a	198013.4
55	0x48fba2eb	515351.34
56	0x498559c4	1.0924085e+06
57	0x487c2c34	258224.81
58	0x47b34cbd	91801.48
59	0x4860df04	230268.06
60	0x4887a6ca	277814.3
61	0x492e0e14	712929.25
62	0x48363dc7	186615.11
63	0x484b01f8	207879.88

layer2.0.weight f4 [64, 64, 3, 3]
0	0xbc61b7ec	-0.013776761
1	0xbd6f7e8b	-0.05847029
2	0x3c3d98c6	0.011572069
3	0xbd6072ef	-0.05479711
4	0xbd5afc91	-0.053463522
5	0xbd47c634	-0.048773006
6	0x3b87e9ea	0.004147758
7	0xbd2aaac3	-0.041666757
8	0xbce40c33	-0.027837848
9	0xbcb975c2	-0.02263916
10	0xbc8ecd1f	-0.017431794
11	0x3d1641b6	0.03668376
12	0xbd01817c	-0.031617627
13	0x3be2990d	0.0069152177
14	0xbcc39d64	-0.02387876
15	0xbc09d470	-0.008412465
16	0x3c7f48ba	0.015581304
17	0x3c0d157b	0.008611078
18	0x3a3891de	0.0007040779
19	0xbd30b66d	-0.043142725
20	0x3c881d9a	0.016615678
21	0xbc31cfb6	-0.010852745
22	0x3c3bb549	0.011456796
23	0xbd3850d4	-0.04499896
24	0xbd03dc2a	-0.032192387
25	0xbd0a3b3e	-0.033747904
26	0xbcb0fcd2	-0.02160493
27	0x3a085d3a	0.000520188
28	0x3d1af6fe	0.037833206
29	0x3d0a2cc0	0.033734083
30	0xbd09a822	-0.03360761
31	0x3d001002	0.031265266
32	0xbc9a6707	-0.018847955
33	0x3cdc4032	0.02688608
34	0xbbd5fa17	-0.006530057
35	0xbcda9050	-0.026680142
36	0x3bea2697	0.0071457135
37	0xbd0c2e1b	-0.034223657
38	0xbc00a682	-0.007852199
39	0x3d1776c7	0.03697851
40	0x3d0e4542	0.03473402
41	0xbb999612	-0.004687079
42	0xbb477a6d	-0.0030437962
43	0x3d35998c	0.044335887
44	0x3bd1eeaa	0.006406625
45	0xbc0e2446	-0.00867564
46	0x3b9fb2e3	0.00487362
47	0xbd072188	-0.032990962
48	0xbb801cef	-0.003909699
49	0x3c876e61	0.016532125
50	0xbd435aac	-0.047693893
51	0x3d03034e	0.031985573
52	0x3c9edf70	0.019393653
53	0xbbe00c80	-0.0068374276
54	0xbcc4fd5e	-0.024046596
55	0xbc3d5a24	-0.011557136
56	0x3d375367	0.044757273
57	0xbc02b59a	-0.0079778675
58	0xbb015d97	-0.0019739622
59	0x3d0947c1	0.033515695
60	0xbce6cdc6	-0.028174292
61	0x3ca7f644	0.02050317
62	0xbc1d5114	-0.00960185
63	0xbd30ee3e	-0.043195955
64	0x3ababb52	0.00142465
65	0xbc4286ab	-0.011872928
66	0x3cc93aac	0.02456411
67	0xbc9bc19b	-0.019013217
68	0xbc3c7ba1	-0.011504085
69	0x3d018acb	0.031626504
70	0x3d27c356	0.04095777
71	0x3cd66d5e	0.026175197
72	0x3b9d7985	0.004805746
73	0x3d2d99bd	0.042382944
74	0xbcc81ba9	-0.024427252
75	0xbd1274fc	-0.035756096
76	0xbc16f23d	-0.009213028
77	0x3bf35f4b	0.0074271313
78	0xbc7bc923	-0.015367779
79	0xbcdadc10	-0.026716262
80	0x3d11fcb7	0.0356414
81	0xbd3100f8	-0.043213814
82	0x3c9bb868	0.01900883
83	0xbd5642dd	-0.05230986
84	0x3cc8661e	0.024462756
85	0xbd348fe7	-0.04408255
86	0xbcd0eb6a	-0.02550288
87	0xbd0ef0e5	-0.034897704
88	0xbd08eb67	-0.033427622
89	0xbd13b8b6	-0.036064826
90	0xbd25ec72	-0.040508695
91	0xbd3d8219	-0.04626665
92	0x3d258aee	0.040415697
93	0x3c394652	0.01130827
94	0x3c42bb2f	0.011885448
95	0xbd262a88	-0.040567905
96	0xba8c4048	-0.001070031
97	0x3c9bdb5b	0.019025495
98	0x39758a60	0.0002341657
99	0xbd27dc9d	-0.040981878
100	0xbc1a66bf	-0.009423911
101	0xbcbbfa07	-0.02294637
102	0x3bc0e80b	0.0058870367
103	0xbaaac2cd	-0.0013028026
104	0xbd420581	-0.04736853
105	0xbc247327	-0.01003722
106	0x3c6c3993	0.014418024
107	0x3ca5266c	0.020159923
108	0xbd243bbd	-0.040096033
109	0xbd21b603	-0.03948022
110	0xbbbb0152	-0.0057069445
111	0xbd0104c6	-0.031498693
112	0x3c77ee7d	0.015132544
113	0x3cb98d0d	0.022650266
114	0x3c93cbaf	0.01804146
115	0xbd10cc63	-0.03535117
116	0x3d334957	0.043771114
117	0x3d0888af	0.033333477
118	0x3cfe14cd	0.031015778
119	0xbd08b94f	-0.03337985
120	0x3d29c52b	0.0414478
121	0xbc90309e	-0.017601307
122	0x3c281461	0.010258765
123	0xbd16cf8b	-0.036819022
124	0xbb9d399c	-0.0047981273
125	0xbd5ca209	-0.053865466
126	0xbb996ed4	-0.004682401
127	0x3d0d01d0	0.034425557
128	0xbcc1dd2a	-0.02366503
129	0x3cad9e39	0.02119361
130	0x3c079d8c	0.008277308
131	0xbcb02995	-0.021504203
132	0xbd227cf4	-0.039669946
133	0x3bc2a8d4	0.005940536
134	0xbcab5d6e	-0.020918574
135	0x3c4b98e7	0.0124265915
136	0xbd087f92	-0.033324786
137	0xbd1b36ce	-0.037894063
138	0xbd38f8b3	-0.045159053
139	0xbca583be	-0.020204421
140	0x390fe2b9	0.00013722003
141	0xbc0ddaac	-0.0086580925
142	0x3af676fa	0.0018803768
143	0x38185c36	3.6325502e-05
144	0x3c188d01	0.009310962
145	0x3c6862b8	0.014183693
146	0x3c0af5dd	0.00848147
147	0x3c10fbb7	0.008849076
148	0x3cab2282	0.020890478
149	0x3d03fab1	0.0322215
150	0xbce3c3b9	-0.027803289
151	0x3c9e3c13	0.019315755
152	0x3c99a1d5	0.018753925
153	0x3cd32639	0.025775062
154	0x3c1db631	0.009625957
155	0xbc46fc58	-0.012145124
156	0x3d05c4ce	0.03265839
157	0x3cd1b8b3	0.025600767
158	0x3d100a97	0.03516635
159	0xbc849b15	-0.01618723
160	0x3d0d52e9	0.034502897
161	0xbc23ba84	-0.009993199
162	0x3c87bac2	0.016568545
163	0xbd254a34	-0.04035397
164	0xbc8e5c04	-0.01737786
165	0xbcafbc81	-0.02145219
166	0xbccd4065	-0.02505512
167	0xbaedbbb3	-0.0018137604
168	0x3c3131f8	0.010815136
169	0xbcadcd9c	-0.021216206
170	0x3d1db10b	0.03849892
171	0xbce54bc9	-0.027990239
172	0x3d276653	0.04086907
173	0xbb35a5d5	-0.0027717252
174	0x3d104607	0.035223033
175	0x3b737377	0.003714768
176	0xbd640409	-0.05566791
177	0xbd2b7e00	-0.04186821
178	0xbd3affe6	-0.0456542
179	0xbc9e49dd	-0.01932233
180	0xbc5f2ccb	-0.013621519
181	0xbd1dba0d	-0.03850751
182	0xbd014530	-0.031560123
183	0xbcb2f7dd	-0.021846706
184	0xbba46c7a	-0.005017814
185	0xbce6a795	-0.028156081
186	0xbc35b0b8	-0.011089496
187	0xbb8ef509	-0.0043627066
188	0x3cb9fd18	0.022703692
189	0x3d123fc1	0.03570533
190	0x3cc33503	0.023828989
191	0x3cb17ca0	0.021665871
192	0xbb52fdaf	-0.0032194664
193	0x3c9355f8	0.017985329
194	0xbb2da2a9	-0.0026494658
195	0xba7d2834	-0.0009657175
196	0xbc4f9297	-0.012669227
197	0x3c2e5eed	0.010642749
198	0x3c145999	0.009054565
199	0xbc0fee7d	-0.008784887
200	0xbb9bf181	-0.004759014
201	0xbc4700a6	-0.012146151
202	0xbd091fed	-0.033477712
203	0xbcb81844	-0.022472508
204	0xbbfb6a6b	-0.007672598
205	0x3ba69027	0.0050831023
206	0x3ca636f7	0.020289881
207	0x3942ce08	0.00018578034
208	0x3c3deca1	0.011592061
209	0xbd039754	-0.03212674
210	0x3c8c960b	0.01716139
211	0x3cd3533a	0.025796521
212	0xbb2e9999	-0.0026641844
213	0x3ce135f3	0.027491545
214	0x3cda3d0a	0.026640434
215	0x3cb3b0b4	0.021934845
216	0x3c2005fe	0.009767054
217	0x3c527874	0.012846101
218	0x3ce85410	0.028360397
219	0xbd2176b4	-0.039419845
220	0xbd012719	-0.031531427
221	0xbc448863	-0.011995408
222	0xbd20e0c1	-0.039276842
223	0x3ce393f9	0.02778052
224	0x3ccf58fe	0.02531099
225	0xbd4dd09c	-0.050247774
226	0x3bde30a0	0.006780699
227	0x3d39c33f	0.045352217
228	0xbb8a6888	-0.004223887
229	0x3caaf9c5	0.020871053
230	0x3c9fb477	0.019495232
231	0xbca2608f	-0.019821433
232	0x3d01d2b0	0.031695068
233	0x3d034a12	0.03205306
234	0xbd15153b	-0.0363972
235	0xbccadccb	-0.024763485
236	0x3d1a382b	0.037651222
237	0xbb332a58	-0.0027338471
238	0xbd06f084	-0.032944217
239	0xbc514fe1	-0.012775392
240	0xbd26e7e8	-0.040748507
241	0xbc5fb630	-0.013654277
242	0xbcc3964a	-0.023875374
243	0xbd0cf0f3	-0.034409475
244	0x3d137c25	0.036007065
245	0x3c5b5e6c	0.013389211
246	0x3d059eb2	0.032622047
247	0xbc4c1acb	-0.01245756
248	0x3c26bd16	0.010176918
249	0x3bb9ffe2	0.0056762556
250	0xbc9e5633	-0.019328212
251	0x3c2703f6	0.010193815
252	0x3b354d01	0.0027664306
253	0x3ca5d402	0.020242695
254	0xbb395927	-0.0028281899
255	0xbce7da0a	-0.028302211

layer2.0.bias f4 [64]
0	0xbc7065ea	-0.014672736
1	0x3d1c6f0f	0.03819185
2	0xbd012c3f	-0.031536337
3	0xbc845d8a	-0.016157884
4	0x3d17a52c	0.037022755
5	0x3c46545a	0.012105072
6	0x3d18836f	0.03723472
7	0xbcccd986	-0.025006067
8	0xbcb36f8b	-0.021903774
9	0x3ca3c8ad	0.01999315
10	0xbcd7aecb	-0.026328465
11	0x3cb95f84	0.022628553
12	0x3a94ddc0	0.001135759
13	0x3bd25c93	0.006419727
14	0xbce9f0e6	-0.028557252
15	0x3cfe9332	0.031076048
16	0x3d17f7e3	0.037101638
17	0x3cba1af0	0.022717923
18	0xbd122237	-0.03567716
19	0x3b8b3e92	0.0042494023
20	0x3ca4732d	0.020074451
21	0x3c70c035	0.014694263
22	0x3c5d9f9c	0.013526823
23	0x3b8dc32c	0.004326245
24	0x3ce7fec4	0.028319724
25	0x3ccffff1	0.025390597
26	0xbc35aeaa	-0.011089006
27	0x3ba86caa	0.005139907
28	0x3ba90dbc	0.005159108
29	0x3c30d282	0.0107923765
30	0x3c99e625	0.0187865
31	0xbd1ffee3	-0.03906144
32	0x3d07106c	0.032974645
33	0xbc3c4584	-0.011491183
34	0x3c93ad11	0.01802686
35	0x3c80fb84	0.015744932
36	0x3c28945d	0.010289279
37	0x3c8af1cc	0.016961
38	0x3d0e57d6	0.034751736
39	0x3c77d905	0.015127425
40	0xbc90b776	-0.017665606
41	0xbb0bb4e9	-0.0021317548
42	0xbc50df58	-0.012748562
43	0xbc8e36cc	-0.017360114
44	0x3c980b5b	0.018560102
45	0x3d201a1a	0.039087392
46	0xbc253aeb	-0.010084848
47	0xba00a011	-0.0004906664
48	0x3c36df94	0.011161704
49	0x3d020e00	0.031751633
50	0xbd2c2025	-0.042022843
51	0xbba55922	-0.005046026
52	0xbcb312dd	-0.02185958
53	0x3d0ece6e	0.034864835
54	0x3a01d02e	0.00049519807
55	0x3c3f19f9	0.011663907
56	0xbb5009b7	-0.0031744072
57	0xbcef2a8f	-0.029195098
58	0x3b980c38	0.0046401285
59	0xbca354fb	-0.019937983
60	0xbd0892d0	-0.033343136
61	0x3c90c447	0.017671717
62	0xbc6ac497	-0.014329097
63	0xbbb8bfa0	-0.005638078

layer2.1.weight f4 [64]
0	0x3f7aaefb	0.9792325
1	0x3f7c41c5	0.98537856
2	0x3f809aca	1.0047238
3	0x3f7f3701	0.99693304
4	0x3f80827a	1.0039818
5	0x3f7ea825	0.9947532
6	0x3f81d1a0	1.0142097
7	0x3f7ce8d9	0.987928
8	0x3f7c907e	0.9865798
9	0x3f82619d	1.0186039
10	0x3f7d724c	0.9900253
11	0x3f7f06c6	0.9961971
12	0x3f7e16d1	0.99253565
13	0x3f7efb11	0.99601847
14	0x3f805242	1.0025103
15	0x3f7f3430	0.99689007
16	0x3f859c3c	1.0438304
17	0x3f7fc2bc	0.99906516
18	0x3f812c79	1.0091697
19	0x3f7c9348	0.98662233
20	0x3f811fa0	1.0087776
21	0x3f7a891a	0.9786545
22	0x3f7e230b	0.9927222
23	0x3f7e5cb7	0.9936022
24	0x3f807797	1.0036496
25	0x3f7f574c	0.9974258
26	0x3f811025	1.0083052
27	0x3f82e468	1.0225954
28	0x3f80eb07	1.0071725
29	0x3f7db96d	0.9911106
30	0x3f7d7a01	0.9901429
31	0x3f823749	1.0173122
32	0x3f7f0692	0.996194
33	0x3f7da973	0.99086684
34	0x3f80557a	1.0026085
35	0x3f7a2997	0.9771971
36	0x3f7e9567	0.9944672
37	0x3f80d354	1.0064492
38	0x3f7ff8eb	0.99989194
39	0x3f7bcafa	0.9835659
40	0x3f7b9006	0.9826664
41	0x3f82b9a2	1.0212901
42	0x3f810fb4	1.0082917
43	0x3f7e1849	0.99255806
44	0x3f810c8e	1.0081956
45	0x3f802ff8	1.0014639
46	0x3f80a916	1.0051601
47	0x3f80161f	1.0006751
48	0x3f7e4976	0.9933084
49	0x3f81ef2a	1.0151112
50	0x3f7dc9a4	0.99135804
51	0x3f811c4e	1.0086763
52	0x3f7e6141	0.9936715
53	0x3f7ffdd2	0.99996674
54	0x3f808e55	1.0043436
55	0x3f7e59b3	0.9935562
56	0x3f7b4655	0.98154193
57	0x3f825f5c	1.0185351
58	0x3f80a0b6	1.0049045
59	0x3f83f233	1.0308288
60	0x3f7d3927	0.9891533
61	0x3f8344be	1.0255353
62	0x3f81ff64	1.0156064
63	0x3f7d25c7	0.9888577

layer2.1.bias f4 [64]
0	0xbc88e5c1	-0.016711118
1	0xbb984615	-0.0046470263
2	0x3bc63709	0.006049041
3	0xbc5af5f1	-0.013364301
4	0xbc69bf03	-0.014266732
5	0xbcbc5b06	-0.022992622
6	0x3b671848	0.0035262275
7	0xbc5dbf97	-0.013534448
8	0xb9ea8237	-0.00044728976
9	0xbd15543c	-0.036457285
10	0xbcf43d9a	-0.02981453
11	0xbc9b1126	-0.018929075
12	0xbbf8b078	-0.007589396
13	0xbc98322e	-0.018578615
14	0xb9f07c2d	-0.00045868885
15	0xbd1d06ec	-0.03833668
16	0xbbdd86da	-0.0067604603
17	0xbbf50612	-0.0074775303
18	0xbc97b21a	-0.018517543
19	0xbc2c0f71	-0.010501728
20	0xbcbe5243	-0.023232585
21	0xbc611c7b	-0.0137397
22	0xbc188aee	-0.009310467
23	0xbc048308	-0.008087881
24	0xbcc3eb63	-0.023915952
25	0xbce55425	-0.027994225
26	0xbca94dac	-0.02066692
27	0xbc540829	-0.012941399
28	0xbc44ec9d	-0.012019304
29	0xbcacf8fd	-0.02111482
30	0x3ae9a433	0.0017825424
31	0xbbb6360b	-0.0055606416
32	0xbc9a111f	-0.018806992
33	0xbccf308d	-0.025291706
34	0xbd02cc22	-0.031932957
35	0xbc093277	-0.008373848
36	0xbcf326d1	-0.029681595
37	0xba99fd20	-0.0011748411
38	0xbc556aca	-0.013025949
39	0xbd01952c	-0.031636402
40	0xbc58f292	-0.013241427
41	0xbc5e6518	-0.013573907
42	0xbc880040	-0.016601682
43	0xbcac417f	-0.021027325
44	0x3abac959	0.001425068
45	0xbccda2b6	-0.025102
46	0xbc32099a	-0.010866547
47	0xbbf6ca44	-0.007531436
48	0xbcd2379e	-0.025661286
49	0xbc8dac52	-0.017294083
50	0x3b818762	0.0039529065
51	0xbcc9d83c	-0.024639241
52	0xbc9a1d78	-0.01881288
53	0xbc519426	-0.012791669
54	0xbc7620f6	-0.015022507
55	0xbcb32997	-0.021870418
56	0xbc64ed69	-0.013972619
57	0xbc8f1cf8	-0.017469868
58	0x3a27fe88	0.00064084725
59	0xbce052e2	-0.027383272
60	0x3bc70e1d	0.0060746805
61	0xbc2b2fac	-0.010448378
62	0xbce151db	-0.027504852
63	0xbcab898a	-0.020939607

layer2.1.running_mean f4 [64]
0	0xbf237aa5	-0.63859016
1	0xbf250967	-0.6446747
2	0xbe9b207b	-0.30298218
3	0xbecf62e7	-0.40505144
4	0xbd90377f	-0.07041835
5	0xbe33b23a	-0.17548457
6	0xbd9e452f	-0.077280395
7	0x3e8ea5ef	0.27860972
8	0xbe72df48	-0.23717988
9	0xbdfccf7c	-0.12344262
10	0xbb0b1696	-0.002122318
11	0xbe205532	-0.156575
12	0x3e45db1b	0.19321863
13	0xbecaf32f	-0.3963866
14	0xbf0b68b8	-0.54456663
15	0xbe5dfebb	-0.21679203
16	0xbe5705ae	-0.2099826
17	0xbec0ac8b	-0.3763164
18	0xbf34572b	-0.7044551
19	0x3da3e5b9	0.080028005
20	0xbeb9d75a	-0.36297113
21	0xbe8b72e4	-0.27236092
22	0xbe7c7a04	-0.2465592
23	0xbe9a617f	-0.3015251
24	0x3d4bf6c4	0.04979588
25	0xbe06d056	-0.13165411
26	0xbf0ad277	-0.54227394
27	0xbed9e399	-0.42556456
28	0xbf0401f9	-0.5156551
29	0xbeea21f2	-0.45729023
30	0xbea5c4d0	-0.3237672
31	0xbe3096b7	-0.17244993
32	0x3e636365	0.22205885
33	0x3e810b72	0.25204045
34	0xbd93054b	-0.07178744
35	0x3e001b56	0.12510428
36	0xbe978aa1	-0.29597953
37	0xbf3b302f	-0.731204
38	0xbebe6a02	-0.37190253
39	0xbea1f55a	-0.316325
40	0xbdb4c721	-0.08827043
41	0xbe24a985	-0.16080292
42	0xbe832e68	-0.25621343
43	0xbe13a280	-0.14417458
44	0xbe3d9ca3	-0.18516783
45	0xbea70650	-0.32622004
46	0xbe85c32b	-0.26125464
47	0xbe39e807	-0.18154918
48	0xbe1ba449	-0.15199389
49	0xbe586400	-0.21131897
50	0xbe03cb68	-0.12870562
51	0xbd627dba	-0.055295683
52	0xbe58c1c5	-0.21167667
53	0xbd47dc07	-0.04879382
54	0xbe320c27	-0.17387448
55	0xbe2c95c4	-0.16854006
56	0xbdf042b8	-0.117314756
57	0x3ca239b7	0.019802911
58	0xbe159cc8	-0.14610589
59	0xbdd97a6d	-0.10619054
60	0xbec910ca	-0.39270622
61	0xbeab4936	-0.33454293
62	0xbef9bba6	-0.48775977
63	0xbf0541c1	-0.5205346

layer2.1.running_var f4 [64]
0	0x3dfd691c	0.12373564
1	0x3e500065	0.2031265
2	0x3df3a569	0.11896784
3	0x3e8153af	0.25259158
4	0x3d9030f2	0.070405856
5	0x3e1c398c	0.15256327
6	0x3e30bf7c	0.17260545
7	0x3e513648	0.20430863
8	0x3e831434	0.2560135
9	0x3db827dc	0.089919776
10	0x3e0a9a01	0.1353531
11	0x3e01a4be	0.126605
12	0x3e72b43e	0.2370157
13	0x3de6b25f	0.1126449
14	0x3e06c785	0.13162048
15	0x3d94b384	0.072608024
16	0x3d5043e3	0.05084599
17	0x3dea0364	0.11426428
18	0x3dbbfe0c	0.09179315
19	0x3e325419	0.17414893
20	0x3df35c8b	0.118828855
21	0x3e5e583a	0.21713343
22	0x3e8b1e0b	0.27171358
23	0x3e36b4de	0.17842433
24	0x3db64805	0.089004554
25	0x3d4b1057	0.04957613
26	0x3ddaae64	0.106777936
27	0x3e0ee25c	0.13953537
28	0x3dd8112b	0.105501495
29	0x3e22f9dd	0.15915628
30	0x3e988c21	0.2979441
31	0x3dd706e8	0.10499364
32	0x3da05874	0.07829371
33	0x3e2196bd	0.15780158
34	0x3d9c21de	0.07623647
35	0x3e4d9323	0.2007566
36	0x3df56767	0.11982613
37	0x3e175e5f	0.14782093
38	0x3e765789	0.2405683
39	0x3dca20c9	0.098695345
40	0x3e10d25f	0.1414275
41	0x3dff2569	0.12458307
42	0x3e16545d	0.1468062
43	0x3def989e	0.11699031
44	0x3db8d5fc	0.09025189
45	0x3dd17dfe	0.10229109
46	0x3da0aa41	0.07844973
47	0x3e5d14c0	0.21589947
48	0x3e201ae3	0.15635256
49	0x3d9e1135	0.07718126
50	0x3e50d6e0	0.20394468
51	0x3dab2d5b	0.0835826
52	0x3dc4f955	0.09617869
53	0x3e369fa4	0.17834336
54	0x3e0a89d1	0.13529135
55	0x3e75b988	0.23996556
56	0x3e16fa15	0.14743836
57	0x3dbfec1b	0.093712054
58	0x3e425e54	0.18981296
59	0x3d9c0cff	0.07619666
60	0x3e27e21b	0.16394846
61	0x3da1976e	0.07890211
62	0x3d8fe83a	0.070267156
63	0x3e159c44	0.14610392

layer3.0.weight f4 [64, 64, 3, 3]
0	0xbb04b6cc	-0.0020250557
1	0x3ce860a0	0.028366387
2	0xbc856343	-0.016282683
3	0x3cddfae6	0.027097177
4	0x3c7bf4c1	0.015378178
5	0xbc9ef425	-0.019403527
6	0xbc6043f9	-0.013688081
7	0x3c2c78c4	0.01052684
8	0xbd44bc56	-0.048031174
9	0xbcee27fb	-0.029071799
10	0xbc919dd1	-0.017775448
11	0x3c8f1d0e	0.017469909
12	0xbac457a0	-0.0014979728
13	0xbca8fa0e	-0.020627048
14	0xbd3a6525	-0.045506615
15	0x3b98b337	0.004660036
16	0xbd1be5a2	-0.03806079
17	0x3be4fbd2	0.006988027
18	0x3bb06135	0.0053826817
19	0xbd1d11ee	-0.038347177
20	0x3c1f7597	0.009732625
21	0x3cdd4781	0.027011635
22	0xbc67752c	-0.014127057
23	0xbd384707	-0.044989612
24	0x3c8a0242	0.01684678
25	0x3cb8aae8	0.022542432
26	0xbc87663f	-0.016528247
27	0x3cd95973	0.02653191
28	0x3ccfd4fe	0.025370117
29	0xbd1e929d	-0.03871404
30	0x3cff921e	0.031197604
31	0x3cf170c1	0.02947271
32	0x3d03a03d	0.032135237
33	0x3d548878	0.05188796
34	0xbd3284d1	-0.043583695
35	0xbd11d7d5	-0.035606224
36	0x3d07bcd6	0.033139072
37	0x3ccaef05	0.024772177
38	0x3ca28b09	0.019841688
39	0xbcc26c53	-0.023733294
40	0xbbb94bc5	-0.0056547844
41	0xbd19d1c1	-0.037553553
42	0xbccbb25f	-0.024865327
43	0x3c0e2918	0.00867679
44	0xbca388b9	-0.019962655
45	0x3cc905bc	0.024538867
46	0x3c29bbff	0.010359763
47	0xbbb0c076	-0.005394037
48	0x3d252772	0.04032082
49	0x3b0baa0a	0.0021311068
50	0xbc923f8e	-0.01785257
51	0xbc493032	-0.012279557
52	0xbd0d9f6d	-0.03457587
53	0x3c844fba	0.016151298
54	0x3ccd3150	0.025047928
55	0x3c974bcd	0.018468762
56	0x3d30d194	0.04316862
57	0xbd184b8a	-0.037181415
58	0xbd2b3069	-0.041794214
59	0xbcebe8a9	-0.028797464
60	0xbc94a25b	-0.018143823
61	0x3d7387a1	0.059455518
62	0xbcaf597a	-0.02140497
63	0xbc376ad6	-0.011194905
64	0x3d032cdc	0.032025203
65	0xbc52a1df	-0.012855976
66	0x3c35c044	0.011093203
67	0x3cc68a7b	0.024235955
68	0xbd1f4e11	-0.03889281
69	0x3cba5e27	0.022749973
70	0xbc9dd452	-0.019266281
71	0xbc164988	-0.009172805
72	0x3cdb8329	0.02679594
73	0x3cd84d33	0.026403999
74	0xbca95a84	-0.020673044
75	0xbd0c831d	-0.034304727
76	0x3bce17d4	0.0062894616
77	0xbcc6e80e	-0.024280574
78	0xbd254d5d	-0.040356982
79	0x3c9683d9	0.018373417
80	0xbc2ec0b1	-0.010666058
81	0x3c6fae57	0.014628968
82	0xbc6b3ad3	-0.0143572865
83	0x3d13df71	0.036101762
84	0xbc380231	-0.011230991
85	0xbc777c33	-0.015105295
86	0xbd073a87	-0.0330148
87	0xbce63c34	-0.028104879
88	0xbd4b177a	-0.049582936
89	0xbd1ef16a	-0.03880445
90	0xbc8346c0	-0.016024947
91	0xbd610041	-0.054931883
92	0xbd5459e2	-0.05184353
93	0x3c7876d6	0.015165051
94	0x3c3c2ef7	0.011485807
95	0x3b70cce4	0.0036743218
96	0x39e8f76e	0.00044434838
97	0xbcbb7510	-0.022882968
98	0xbbdd5495	-0.0067544677
99	0x3cc6267d	0.024188275
100	0xbc973e89	-0.018462436
101	0xbd3e69d7	-0.046487655
102	0xbd49a5c3	-0.04923035
103	0xbc8da016	-0.017288249
104	0xbc3fa750	-0.011697605
105	0x3c6b9428	0.014378585
106	0x3c80975e	0.015697177
107	0xbcbcf34c	-0.023065232
108	0x3d044c21	0.032299165
109	0x3c44004d	0.011962962
110	0xbd005f1f	-0.031340715
111	0x3d0ba5de	0.03409373
112	0x3b9c8947	0.004777107
113	0xbbc28d77	-0.005937274
114	0x3c477c48	0.012175627
115	0x3bcce077	0.006252344
116	0x3cb55803	0.022136694
117	0x3cd6c451	0.026216658
118	0x3ce7e545	0.028307566
119	0xbce97787	-0.028499378
120	0xbbaed5e3	-0.005335556
121	0x3d2b7778	0.04186198
122	0xbc268110	-0.010162607
123	0x3c58172d	0.013189119
124	0xbc0bcb9f	-0.008532434
125	0x3d2a1ab9	0.04152939
126	0xbc728be6	-0.014803862
127	0xbc0437ed	-0.008069974
128	0xbc051332	-0.008122252
129	0xbb2ea1ab	-0.0026646655
130	0xbcc2df4d	-0.023788119
131	0xbca02499	-0.019548701
132	0xbc966511	-0.01835874
133	0x3c7ae848	0.015314169
134	0xbd0f18b5	-0.03493567
135	0x3bbb505c	0.0057163667
136	0xbd051f49	-0.03250054
137	0xb908c5fa	-0.00013043723
138	0xb9e3df63	-0.0004346325
139	0xbd022025	-0.031768937
140	0xbc3f1579	-0.011662834
141	0xbd601bde	-0.054714076
142	0x3d1bd6fb	0.03804682
143	0x3d065669	0.03279725
144	0x3cf72bb5	0.030172208
145	0x3d0dbc9b	0.034603696
146	0x3cfdce36	0.030982118
147	0x3cf99de7	0.030470802
148	0x3cbb0f51	0.022834452
149	0xbbd68c27	-0.006547469
150	0x3cfc230d	0.030778432
151	0xbc7e2c70	-0.015513524
152	0x3cc215ba	0.023692
153	0xbc19d4ba	-0.009389097
154	0x3b523abc	0.0032078465
155	0xbcfe952f	-0.031076996
156	0x3cbcd112	0.023048911
157	0xbcc6e216	-0.024277728
158	0xbd1b1cad	-0.037869144
159	0x3cd2f459	0.02575128
160	0xbc226fe1	-0.009914369
161	0xbaa950dc	-0.0012917775
162	0xb8077757	-3.2297652e-05
163	0xbb938831	-0.0045023193
164	0x3ce92708	0.028460994
165	0xbb12669a	-0.0022338987
166	0x3d1373a8	0.03599897
167	0xbd5b1ff5	-0.053497273
168	0x3c9255b9	0.017863141
169	0xbc176627	-0.009240664
170	0xbd30c787	-0.043159034
171	0xbb8ecc89	-0.0043578786
172	0xbcd7a338	-0.026322946
173	0xbbb540f2	-0.0055314237
174	0x3c7a141b	0.015263583
175	0x3c929155	0.017891565
176	0xbd44c409	-0.048038516
177	0xbcd8a805	-0.026447305
178	0x3cf5967e	0.029978987
179	0x3ce63bf8	0.028104767
180	0x3cd9abf5	0.026571253
181	0x3cc671a0	0.024224102
182	0x3c5542fc	0.013016459
183	0xbc129f00	-0.008949041
184	0x3c98c639	0.018649207
185	0xbd0e1cbf	-0.034695383
186	0x3cddf7d5	0.027095715
187	0xbb09eda9	-0.0021046198
188	0xbc20aa7f	-0.009806274
189	0xbd2b9170	-0.041886747
190	0x3d13b914	0.036065176
191	0xbca90149	-0.020630496
192	0xbc3f3d8f	-0.011672392
193	0x3c667c34	0.014067698
194	0xbcf7e1f4	-0.03025911
195	0x3b79c5fc	0.0038112393
196	0xbd05ff7b	-0.03271435
197	0xbd5ddf8d	-0.054168273
198	0x3c0e088c	0.00866903
199	0xbd51880f	-0.051155146
200	0xbbf0d65c	-0.0073497724
201	0xbc64819a	-0.013946915
202	0x3cc6b56c	0.02425643
203	0xbc12a018	-0.008949302
204	0x3bd008aa	0.006348689
205	0x3c585798	0.013204478
206	0xbc6577c8	-0.014005609
207	0x3c06f0b9	0.008236104
208	0x3ce238ed	0.027615035
209	0x3c6939d7	0.0142349815
210	0x3cbfee51	0.023429068
211	0xbcdf3123	-0.02724511
212	0x3caf6acd	0.021413231
213	0x3c23f61a	0.010007406
214	0xbb5d0ee1	-0.0033730792
215	0xbc8dcc43	-0.017309314
216	0xbb66ddd2	-0.003522743
217	0xbc9d21d9	-0.019181179
218	0x3c177a37	0.009245447
219	0xbc108a04	-0.008821968
220	0x3c7ced09	0.015437373
221	0x3bb53650	0.005530156
222	0xbd1d1355	-0.038348515
223	0xbc3987ff	-0.011323928
224	0xbd070683	-0.032965194
225	0x3c86fd6c	0.016478263
226	0xbc1d306a	-0.009594062
227	0x3cf17e29	0.029479103
228	0x3caa1ac0	0.020764709
229	0x3d3e896f	0.046517786
230	0x3c484691	0.012223856
231	0xbcd6a08f	-0.026199607
232	0xbd2e01bd	-0.042482127
233	0xbccb78c7	-0.024837865
234	0x3cb4791a	0.022030402
235	0xbd349f7d	-0.044097412
236	0x3c937690	0.018000871
237	0x3bbcfe30	0.005767606
238	0xbc78eb02	-0.015192749
239	0xbc3952e0	-0.011311263
240	0xbd358634	-0.04431744
241	0xbc78c4bc	-0.015183624
242	0x3d47610a	0.048676528
243	0x3d2a7a92	0.0416208
244	0xbc102f8d	-0.0088003995
245	0x3b3423b8	0.002748711
246	0x3cc7595c	0.024334602
247	0x39ba842f	0.0003557517
248	0x3c7db094	0.015483994
249	0x3c0ba115	0.008522292
250	0x3b0d883f	0.0021596102
251	0xbd00eb63	-0.031474482
252	0xbc2fb701	-0.010724784
253	0xbba7319c	-0.0051023494
254	0x3c8083d6	0.015687864
255	0x3d11a6d7	0.0355595

layer3.0.bias f4 [64]
0	0x3c11a1d7	0.008888683
1	0x3b92977c	0.0044736248
2	0x3d08ec3b	0.033428412
3	0x3d2aee31	0.041731063
4	0x3c546f87	0.012966043
5	0xbd09fa0d	-0.033685733
6	0x3c343e23	0.011001143
7	0xbd159aee	-0.036524706
8	0x3b4b7811	0.0031046907
9	0x3b8f91e2	0.0043814043
10	0xbc7a11a5	-0.015262996
11	0xbd227cad	-0.03966968
12	0xbc2ad5f0	-0.010426983
13	0xbc06b497	-0.008221767
14	0xbc878af5	-0.016545752
15	0x3cb6e5c6	0.022326361
16	0x3b6bd900	0.0035987496
17	0x3c99a95c	0.018757515
18	0x3ca97355	0.020684877
19	0x3d24f0eb	0.04026882
20	0xbc256c2e	-0.010096593
21	0x3b547ed7	0.0032424235
22	0x3cade3b8	0.021226749
23	0xbd05fcb6	-0.032711707
24	0xbd01ee9d	-0.0317217
25	0xba698181	-0.0008907542
26	0x3cd76a34	0.026295759
27	0xbaab4eea	-0.0013069783
28	0x3c97a611	0.018511804
29	0x3bc82380	0.0061077476
30	0xbce2e4c8	-0.027696982
31	0xbb5e38a2	-0.0033908268
32	0xbced3134	-0.028954126
33	0x3c8fb9db	0.017544677
34	0x3cc12c47	0.023580683
35	0xbc56746c	-0.013089281
36	0xbd2450ce	-0.040116124
37	0xbbf07971	-0.0073386957
38	0xbc1ad3e6	-0.009449935
39	0xbb01b370	-0.001979079
40	0x3cad415f	0.021149335
41	0xbc802a36	-0.015645128
42	0x3d2620c5	0.040558595
43	0xbbe5a14d	-0.007007754
44	0x3c47c087	0.012191898
45	0x3d02c76a	0.031928457
46	0x3c45deca	0.012077043
47	0x3aae3477	0.0013290782
48	0x3d0e113f	0.034684416
49	0x3b0df213	0.002165918
50	0x3d073004	0.033004776
51	0x3d23867d	0.03992318
52	0x3c5853e3	0.013203594
53	0x3ce29afe	0.027661797
54	0x3ce2b126	0.027672362
55	0x3c8e8c29	0.017400818
56	0xbcc71778	-0.024303183
57	0xbd09fdd9	-0.033689354
58	0x3b14b545	0.0022691053
59	0xbd081288	-0.033220798
60	0xbc08a14c	-0.008339237
61	0xbbd1c7fc	-0.006402014
62	0x3ce0d3c7	0.027444733
63	0x3c5d9f91	0.013526813

layer3.1.weight f4 [64]
0	0x3f7ea259	0.9946647
1	0x3f8488c4	1.0354238
2	0x3f7efb44	0.9960215
3	0x3f83f45a	1.0308945
4	0x3f79cb49	0.97575814
5	0x3f7c8bdb	0.986509
6	0x3f822c35	1.0169741
7	0x3f7b674a	0.9820448
8	0x3f809e5a	1.0048325
9	0x3f80543e	1.0025709
10	0x3f81345c	1.0094104
11	0x3f8dfc00	1.1092529
12	0x3f7cdbee	0.98773086
13	0x3f7abee7	0.97947544
14	0x3f795901	0.97401434
15	0x3f82b8c9	1.0212642
16	0x3f7ed137	0.99537987
17	0x3f7408ee	0.95326126
18	0x3f7bca0f	0.9835519
19	0x3f800f32	1.0004637
20	0x3f854687	1.0412148
21	0x3f802201	1.0010377
22	0x3f80b152	1.0054114
23	0x3f74b7b7	0.95592827
24	0x3f7e07e6	0.992308
25	0x3f7d7eaa	0.990214
26	0x3f8349ed	1.0256935
27	0x3f821247	1.0161828
28	0x3f805cb5	1.0028292
29	0x3f7e52e4	0.9934523
30	0x3f7f7b77	0.9979777
31	0x3f810389	1.0079204
32	0x3f817dda	1.0116532
33	0x3f80cff9	1.0063468
34	0x3f7bb788	0.9832692
35	0x3f7c69d9	0.9859901
36	0x3f780aed	0.9689167
37	0x3f7a6d01	0.97822577
38	0x3f81e934	1.0149293
39	0x3f815d71	1.0106641
40	0x3f7d2b7b	0.9889447
41	0x3f791662	0.9729978
42	0x3f83428b	1.0254682
43	0x3f7466da	0.9546944
44	0x3f805ca5	1.0028273
45	0x3f85cbf9	1.0452873
46	0x3f7ab066	0.9792541
47	0x3f7c3d58	0.98531103
48	0x3f80b36c	1.0054755
49	0x3f82adda	1.0209305
50	0x3f81f52b	1.0152944
51	0x3f805d88	1.0028543
52	0x3f82efee	1.0229471
53	0x3f7cd7be	0.98766696
54	0x3f80f549	1.0074855
55	0x3f848fea	1.0356419
56	0x3f81fa9d	1.0154606
57	0x3f83d229	1.0298511
58	0x3f791cc3	0.9730951
59	0x3f82af86	1.0209816
60	0x3f75df5c	0.96043944
61	0x3f81ffcf	1.0156192
62	0x3f80114e	1.0005281
63	0x3f7c34a6	0.98517835

layer3.1.bias f4 [64]
0	0xbc9027a2	-0.017597023
1	0xbd1ec3cc	-0.038760945
2	0xbc2e7a21	-0.010649235
3	0xbd038a23	-0.03211416
4	0xbcbc2c01	-0.022970201
5	0xbd1d1152	-0.038346596
6	0xbcb34f88	-0.02188851
7	0xbbdb5cfd	-0.0066944347
8	0xbcd120d3	-0.025528347
9	0xbc2a460a	-0.010392675
10	0xbd014792	-0.031562395
11	0xbd889ac4	-0.06670144
12	0xbc5d3111	-0.013500468
13	0xbc135dd0	-0.008994535
14	0xbd120036	-0.035644732
15	0xbcc1904c	-0.023628376
16	0xbc752a7e	-0.014963744
17	0xbc82a98b	-0.015949985
18	0xbbbf6e56	-0.0058420105
19	0xbcbfa0b3	-0.023392057
20	0xbd0c26f4	-0.034216836
21	0xbc88c67f	-0.016696213
22	0xbd04a470	-0.032383382
23	0xbcf9cdb4	-0.030493595
24	0xbb197b2f	-0.002341937
25	0xbbb8ac8e	-0.0056358045
26	0xbd204688	-0.039129764
27	0xbc8caa1c	-0.017170958
28	0xbc69e64c	-0.014276098
29	0xbc45bb3d	-0.012068567
30	0xbc33ff1c	-0.010986116
31	0xbcc365cd	-0.023852253
32	0xbcd3506d	-0.025795186
33	0xbcf2817d	-0.02960276
34	0xbc63d1bf	-0.013904988
35	0xbcb1b9d8	-0.021695063
36	0xbba402f5	-0.0050052353
37	0xbc9c541c	-0.019083075
38	0xbca4ab1b	-0.02010112
39	0xbcc17c2d	-0.023618782
40	0xbc68743e	-0.014187871
41	0xbc35beea	-0.011092881
42	0xbcb3f676	-0.021968108
43	0xbb4a412c	-0.00308616
44	0x3b5de0ca	0.0033855909
45	0xbd0520e8	-0.032502085
46	0xbcd39502	-0.025827888
47	0xbc61a736	-0.013772776
48	0xbcbb8fc3	-0.0228957
49	0xbd03d30e	-0.0321837
50	0xbcd040ca	-0.025421519
51	0xbd229430	-0.039692104
52	0xbd0b3899	-0.033989523
53	0xbc093605	-0.008374696
54	0xbc42fd51	-0.011901216
55	0xbb65a422	-0.0035040458
56	0xbd219fae	-0.039458923
57	0xbd7fb164	-0.062425032
58	0xbc9956a0	-0.018718064
59	0xbd11c1a6	-0.03558507
60	0xbc458d6e	-0.012057645
61	0xbcee73cd	-0.029107952
62	0xbcb1edf1	-0.021719905
63	0xbc8271e1	-0.015923442

layer3.1.running_mean f4 [64]
0	0xbe9c7639	-0.30558947
1	0xbe111eea	-0.14171949
2	0xbdd740a1	-0.10510374
3	0xbec5d925	-0.3864223
4	0xbe83e3a5	-0.25759616
5	0xbe394aff	-0.18095015
6	0xbe0f1ce1	-0.1397586
7	0xbef089c8	-0.4698012
8	0xbd3e6732	-0.046485133
9	0xbdf95631	-0.12174643
10	0xbe4fd41f	-0.20295762
11	0xbd4b802d	-0.049682785
12	0xbe768066	-0.24072418
13	0x3e78641c	0.24256939
14	0xbdb69674	-0.089154154
15	0x3d7536e2	0.059866793
16	0xbe84961e	-0.2589578
17	0xbe40814f	-0.18799327
18	0x3bddceaa	0.006769021
19	0xbe089c95	-0.13340981
20	0xbeb94de0	-0.36192226
21	0xbdf6d764	-0.12052801
22	0xbd17b1ba	-0.037034728
23	0xbe839ab5	-0.2570397
24	0xbdce9247	-0.10086494
25	0x3d92a622	0.071605936
26	0xbe33ac8b	-0.17546289
27	0xbdfaa3bf	-0.12238263
28	0xbe8b7b1e	-0.27242368
29	0xbed7e3fa	-0.4216612
30	0xbf099555	-0.5374349
31	0x3ebc8fd4	0.36828482
32	0xbf0439f6	-0.5165094
33	0xbf1184c0	-0.56843185
34	0xbd9d7e5f	-0.07690119
35	0xbeaacb1d	-0.33358088
36	0xbd946db7	-0.07247489
37	0xbea6f207	-0.32606527
38	0xbe838975	-0.2569081
39	0x3e4c59af	0.19956087
40	0xbdb74792	-0.08949198
41	0xbecc51de	-0.3990621
42	0xbe278668	-0.16359866
43	0xbd5682ce	-0.05237084
44	0xbe1e0ea1	-0.15435268
45	0xbe12532c	-0.1428954
46	0xbd7efc06	-0.062252067
47	0x3d001747	0.0312722
48	0xbed08138	-0.40723586
49	0xbe1f46b5	-0.15554316
50	0xbe00a9aa	-0.12564722
51	0x3e210ce9	0.15727581
52	0xbe99af72	-0.30016667
53	0xbef99722	-0.48748118
54	0xbbff36ec	-0.0077885296
55	0xbca05ca7	-0.01957543
56	0xbe9d4e44	-0.30723774
57	0xbda76a54	-0.08174577
58	0xbe60a886	-0.21939287
59	0xbd9c4c02	-0.07631685
60	0x3df26bf6	0.11836998
61	0xbe383a73	-0.17991047
62	0xbe2478e6	-0.16061744
63	0xbdc64591	-0.096812375

layer3.1.running_var f4 [64]
0	0x3e329630	0.17440104
1	0x3d933170	0.07187164
2	0x3e2d8b52	0.16947678
3	0x3d8f5225	0.0699809
4	0x3edae97a	0.42756253
5	0x3ddb723a	0.10715146
6	0x3e030b34	0.12797242
7	0x3e21ec89	0.15812887
8	0x3e068ca8	0.13139594
9	0x3de8632a	0.11347039
10	0x3e51cd3a	0.20488444
11	0x3d62313e	0.055222742
12	0x3e2a1e07	0.16613017
13	0x3e78ed3b	0.24309246
14	0x3e0e4a12	0.13895443
15	0x3d91eeb1	0.07125605
16	0x3e0d6911	0.13809611
17	0x3efd9797	0.49529716
18	0x3e139620	0.14412737
19	0x3e45f444	0.19331461
20	0x3d9dfebe	0.07714604
21	0x3e48d774	0.19613439
22	0x3e4f6ffa	0.2025756
23	0x3e83df01	0.25756076
24	0x3e2b59fd	0.16733547
25	0x3e184e85	0.14873703
26	0x3dc2c1da	0.095096305
27	0x3d9d7beb	0.07689651
28	0x3e23bcb9	0.1598996
29	0x3e89cc2b	0.2691358
30	0x3e2785c4	0.16359621
31	0x3e33843a	0.17530909
32	0x3dce5223	0.1007426
33	0x3dbcc539	0.09217305
34	0x3e2566d4	0.16152507
35	0x3ea3531a	0.3189934
36	0x3e96e063	0.29468068
37	0x3e164ff0	0.14678931
38	0x3def53be	0.116858944
39	0x3de6f889	0.11277873
40	0x3e089c56	0.13340887
41	0x3ec871e1	0.39149383
42	0x3d68aaf3	0.056803655
43	0x3ea29b72	0.3175922
44	0x3e2ef3f1	0.17085244
45	0x3db694d5	0.08915106
46	0x3e982a1c	0.29719627
47	0x3e867115	0.2625815
48	0x3e05704d	0.1303112
49	0x3dca6ccc	0.098840326
50	0x3e0b2ac4	0.13590533
51	0x3da4fe0f	0.0805627
52	0x3dbdb1db	0.09262439
53	0x3e835146	0.25647944
54	0x3e091a4a	0.13388935
55	0x3d829827	0.06376677
56	0x3e247640	0.16060734
57	0x3df67fca	0.120360926
58	0x3e953904	0.29145062
59	0x3db04bf2	0.086082354
60	0x3ec2d8e1	0.3805609
61	0x3dbae8b2	0.09126414
62	0x3e140cdb	0.14458029
63	0x3e05de2a	0.1307303
