FAST 3D-CNN P-NET/model/IP/IP_proto_3d-5shotband55-64output.pth (torch, 906071 bytes, 28 tensors)

layer1.0.weight f4 [8, 1, 7, 3, 3]
0	0xbb02d132	-0.0019961116
1	0x3da03a2b	0.07823595
2	0x3dcebc8d	0.10094557
3	0xbde267ad	-0.11054931
4	0x3d34e685	0.044165153
5	0x3de816ef	0.11332499
6	0xbd2198ba	-0.039452292
7	0xbdba671d	-0.091016985
8	0xbdf2d7d7	-0.118575744
9	0xbd7c2c93	-0.061565947
10	0x3ce0a849	0.027423995
11	0x3ce93736	0.02846871
12	0x3d41f3be	0.04735159
13	0x3d881ae2	0.066457525
14	0xbc172eda	-0.009227479
15	0xbd92295f	-0.07136797
16	0x3de25848	0.110519946
17	0x3d42be10	0.04754454
18	0xbde4b312	-0.111669675
19	0xbdbcf611	-0.09226621
20	0x3dde1120	0.1084311
21	0xbdbad383	-0.09122374
22	0xbc025811	-0.007955567
23	0x3db725cd	0.08942757
24	0xbdc40c59	-0.09572668
25	0x3d0710d2	0.032975025
26	0x3df3b552	0.118998185
27	0xbdc9b80b	-0.098495565
28	0x3c1d9e0c	0.009620201
29	0xbba2ffc9	-0.0049743396
30	0x3dc32885	0.09529213
31	0x3d6c6c3d	0.05772041
32	0x3dc75bfc	0.097343415
33	0x3d962b5a	0.073324874
34	0x3de1ff3f	0.110350125
35	0xbc8a2b72	-0.01686642
36	0xbc84cc98	-0.01621084
37	0xbc3fe75f	-0.011712878
38	0xbdf57cbf	-0.11986684
39	0xbdae7450	-0.085182786
40	0x3d483ece	0.04888802
41	0x3d8edb70	0.06975448
42	0xbd30eb54	-0.043193176
43	0x3d57c8f9	0.052681897
44	0xbdd92a8f	-0.106038205
45	0xbda25b75	-0.079276
46	0x3da30fcf	0.079619996
47	0xbdece1ef	-0.11566531
48	0xbb718616	-0.0036853603
49	0x3d2152f1	0.03938574
50	0x3dacd408	0.08438879
51	0xbc5afed8	-0.013366424
52	0x3cbcd2d9	0.023049759
53	0x3db021c6	0.08600192
54	0x3d86ef57	0.06588619
55	0xb9c1a535	-0.00036934917
56	0x3da4f4b2	0.080544844
57	0xbd0f44b7	-0.03497764
58	0xbe0a2f0e	-0.13494512
59	0xbd2120a3	-0.039337765
60	0x3dd8288f	0.10554611
61	0x3c0d96d3	0.008641916
62	0xbca59fd9	-0.020217823
63	0xbd61b0b7	-0.05510017
64	0x3d9cbe96	0.07653539
65	0xbd83e918	-0.064409435
66	0x3d513062	0.051071532
67	0xbcef5cdf	-0.02921909
68	0x3c509fc6	0.012733405
69	0xbd7bcd78	-0.061475247
70	0x3da5749f	0.08078884
71	0x3c965632	0.018351648
72	0x3df40955	0.119158424
73	0x3daa6837	0.08320659
74	0xbda860e7	-0.08221608
75	0x3c0ebe9a	0.008712435
76	0x3d839c59	0.06426305
77	0xbdf02f4d	-0.11727772
78	0x3dc92bf9	0.0982284
79	0xbdea893c	-0.11451957
80	0x3dc46133	0.09588852
81	0x3c9fd174	0.019509055
82	0xbdc54e9c	-0.09634134
83	0xbd968bd9	-0.073508926
84	0xbde13677	-0.109967165
85	0x3c80eb3a	0.015737165
86	0x3dc26cac	0.09493384
87	0x3dccb264	0.09994963
88	0x3d91a59f	0.07111668
89	0x3dada858	0.08479375
90	0x3cfed3c7	0.031106843
91	0xbda49b3d	-0.08037422
92	0x3d10d8da	0.035363056
93	0x3c26de59	0.010184848
94	0xbd2ef30d	-0.04271226
95	0x3ca18730	0.019717783
96	0xbd13a242	-0.036043413
97	0x3d7c7513	0.06163509
98	0x3dd25b74	0.102713495
99	0x3c668d3f	0.014071762
100	0xbd9b3bfe	-0.07579802
101	0xbd85e6b1	-0.065381415
102	0x3ad8565c	0.0016505229
103	0xbde5e1fc	-0.11224744
104	0x3cb9b6d0	0.02267018
105	0x3d267b28	0.040644795
106	0xbd8835e4	-0.06650904
107	0xbdf86469	-0.12128527
108	0x3d3429ff	0.043985363
109	0x3dc6ffd6	0.097167656
110	0x3de12c4f	0.10994779
111	0xbd89bb98	-0.06725234
112	0x3defae91	0.11703218
113	0x3c972220	0.01844889
114	0x3c182b15	0.009287615
115	0x3dd9774f	0.106184594
116	0x3dcee16a	0.10101588
117	0xbdc7cca2	-0.097558275
118	0xbd0bd276	-0.034136258
119	0xbd94162f	-0.07230794
120	0xbc67e145	-0.01415283
121	0xbc07c646	-0.008287018
122	0xbde4df47	-0.11175399
123	0xbda27e1f	-0.07934212
124	0xbcf7f262	-0.030266944
125	0xbd50e121	-0.05099595
126	0x3d06f911	0.032952372
127	0xbdcf9922	-0.1013663
128	0x3d9cf502	0.07663919
129	0x3dc3b018	0.095550716
130	0xbdf9794a	-0.12181337
131	0xbd1dc10c	-0.038514182
132	0x3cdf0229	0.02722271
133	0x3d1d8f9f	0.038467046
134	0xbd1e4fc0	-0.038650274
135	0x3c1297b2	0.0089473
136	0xbd98b78e	-0.07456885
137	0x3d8b7580	0.06809521
138	0xbdd5fe56	-0.10448901
139	0x3db921ad	0.09039626
140	0x3d13be82	0.036070354
141	0x3dc5b64c	0.09653911
142	0xbdbc81c8	-0.09204441
143	0xbd1f7cc8	-0.03893736
144	0xbdcfb472	-0.10141839
145	0x3d5fa45e	0.054600112
146	0xbdb59591	-0.08866418
147	0xbdf394e7	-0.11893635
148	0x3bcba305	0.006214502
149	0x3c2c733d	0.010525522
150	0x3cd0b698	0.025477692
151	0xbd87b3f7	-0.066261224
152	0xbda2946c	-0.079384655
153	0x3d95e073	0.07318201
154	0x3e011c0a	0.12608352
155	0x3da1e6dd	0.07905362
156	0x3e007a48	0.12546647
157	0xbb94f8b8	-0.004546251
158	0x3d29bd55	0.041440327
159	0x3c86c941	0.016453387
160	0xbd9c6b0e	-0.076376066
161	0x3d6aad67	0.057294276
162	0x3c6c6263	0.014427754
163	0x3d551bd5	0.052028496
164	0xbdcc1ccf	-0.09966432
165	0xbd215b39	-0.039393637
166	0xbbce6a1b	-0.00629927
167	0x3d1f510a	0.038895644
168	0x3d5f021c	0.05444537
169	0xbdd68ddd	-0.10476277
170	0x3cccd5c2	0.025004271
171	0x3d270f7c	0.04078625
172	0x3d4fe7ae	0.050758056
173	0xbdc2e765	-0.09516791
174	0x3d22f416	0.03978356
175	0x3dc301b4	0.09521809
176	0x3cdef982	0.027218584
177	0xbce7008e	-0.028198507
178	0xbdee9bae	-0.11650787
179	0xbda90061	-0.082520254
180	0x3e03179f	0.1280198
181	0xbd1ffa1b	-0.03905688
182	0xbc9fd8cd	-0.019512558
183	0x3dc32c99	0.09529991
184	0xbdda64ab	-0.10663732
185	0x3d7e4d6b	0.06208555
186	0x3ddcfc9a	0.107903674
187	0xbca4eeef	-0.020133464
188	0x3c2d4e64	0.010577772
189	0x3b31ea83	0.0027147837
190	0x3dde60d3	0.108583115
191	0x3d61a741	0.055091146
192	0xbde83856	-0.1133887
193	0x3cedbecf	0.029021649
194	0x3dc41891	0.09574998
195	0xbca1aa5b	-0.019734552
196	0xbd58dfcc	-0.052947804
197	0xbb1b59b2	-0.0023704586
198	0xbd9405e9	-0.0722769
199	0xbdec51d3	-0.11539044
200	0x3d9416cf	0.07230913
201	0x3cc122a1	0.023576083
202	0xbd09870d	-0.03357606
203	0x3db8a360	0.09015536
204	0xbe0d8096	-0.13818583
205	0xbe023d00	-0.12718582
206	0x3da767fb	0.081741296
207	0x3d88c6a1	0.066785105
208	0x3dbc9cc1	0.09209586
209	0x3d6b0021	0.05737317
210	0x3dc4ff40	0.096189976
211	0xbd4d1878	-0.050072163
212	0x3d6bf5ce	0.057607464
213	0x3dee8cc4	0.11647943
214	0xbbe82ec4	-0.007085653
215	0xbd3d84b9	-0.046269152
216	0xbda4199a	-0.080126956
217	0xbdc1d490	-0.09464371
218	0xbc067d6d	-0.008208615
219	0x3d3489f0	0.04407686
220	0x3ca32b05	0.019917974
221	0x3cd9c05d	0.026580984
222	0xbd15cc5f	-0.036571857
223	0xbd82924f	-0.063755624
224	0xbd0cf607	-0.034414317
225	0x3dd9ef56	0.10641353
226	0x3d67bd33	0.05657692
227	0x3da5b291	0.080906995
228	0x3bcc5b3b	0.0062364615
229	0xbd6a2a6e	-0.05716937
230	0xbd9aec35	-0.07564584
231	0x3da41c1c	0.08013174
232	0x3dbd0bef	0.09230792
233	0xbdaacf78	-0.08340353
234	0x3c46f798	0.012143992
235	0xbcafb788	-0.02144982
236	0xbdde96c1	-0.10868598
237	0xbdbb0459	-0.091316886
238	0x3d20033c	0.039065585
239	0xbdb57184	-0.08859542
240	0x3d4f75c1	0.05064941
241	0x3db465f5	0.08808509
242	0x3d9769b9	0.07393212
243	0x3d800bf2	0.062522784
244	0xbdcfbc23	-0.10143306
245	0xbc969e03	-0.018385893
246	0xbdaf1bab	-0.08550199
247	0x3d52975e	0.051413886
248	0xbdc061ef	-0.09393679
249	0x3a8e66d1	0.0010864382
250	0x3d39a51f	0.045323487
251	0xbc708702	-0.014680626
252	0x3d9277be	0.07151745
253	0x3d529ae1	0.051417235
254	0xbd04f7f0	-0.032463014
255	0xbdc7c25a	-0.097538665

layer1.0.bias f4 [8]
0	0x3d9a2934	0.0752739
1	0xbc8e54c7	-0.01737441
2	0xbd974723	-0.07386615
3	0x3e039a66	0.12851867
4	0xbe1ab2b2	-0.1510723
5	0xbd025378	-0.031817883
6	0xbdda2890	-0.10652268
7	0x3e0e8506	0.13917932

layer1.2.weight f4 [8]
0	0x3f7e13aa	0.99248755
1	0x3f83bfb1	1.0292875
2	0x3f7f469c	0.99717116
3	0x3f80dd6f	1.0067576
4	0x3f7c24a9	0.9849344
5	0x3f81ae76	1.0131366
6	0x3f69105a	0.91040576
7	0x3f7dccd4	0.9914067

layer1.2.bias f4 [8]
0	0xbc017112	-0.007900493
1	0x3d397733	0.045279693
2	0xbc712bb2	-0.01471989
3	0xbb9ce2ed	-0.004787794
4	0xbd0d8a16	-0.034555517
5	0xbd81db2b	-0.06340631
6	0x3d9deef5	0.07711593
7	0xbb272cf1	-0.0025508965

layer1.2.running_mean f4 [8]
0	0x4470d300	963.2969
1	0x4357c560	215.771
2	0x439ddf15	315.74283
3	0x431ab999	154.72499
4	0x451787c9	2424.4866
5	0x43ccd643	409.67392
6	0x3eaeb7e5	0.34124675
7	0x43e0989e	449.19232

layer1.2.running_var f4 [8]
0	0x489ea759	324922.78
1	0x473fba95	49082.582
2	0x4781c574	66442.91
3	0x46b78fe6	23495.95
4	0x49e5e9a9	1.8834451e+06
5	0x482a3261	174281.52
6	0x42f6ec86	123.46196
7	0x47bbf4cb	96233.586

layer2.0.weight f4 [16, 8, 7, 3, 3]
0	0xbb29751a	-0.0025857151
1	0x3b888c11	0.004167088
2	0x3c31effb	0.010860438
3	0xbb7690fb	-0.0037623036
4	0xbb24c7d0	-0.0025143512
5	0xbcc6d073	-0.024269318
6	0x3c4ac483	0.012375954
7	0xbcceba86	-0.025235426
8	0x3d59c16a	0.05316297
9	0x3ce77182	0.028252367
10	0x3cb30582	0.021853212
11	0xba45efd4	-0.0007550691
12	0xbd19c527	-0.037541535
13	0xbcaeb8e4	-0.021328397
14	0xbc775012	-0.015094774
15	0x3d113d2c	0.03545873
16	0x3ce5dd74	0.028059699
17	0xbcf29bce	-0.02961531
18	0x3ae7d0ff	0.0017686187
19	0x3b2917db	0.0025801572
20	0xbcad3149	-0.021141665
21	0xbc443dcf	-0.011977627
22	0x3d1ab188	0.037766963
23	0xbd05e4cf	-0.032688912
24	0x3c9612c3	0.018319493
25	0xbd291d0c	-0.041287467
26	0x3d03ce47	0.032179143
27	0x3d268399	0.040652845
28	0xbc72ce88	-0.014819749
29	0xbd239b7d	-0.039943207
30	0xbc046bb0	-0.008082315
31	0x3cf1de31	0.029524894
32	0xbbd1ff2b	-0.006408592
33	0xbc8af8ab	-0.016964277
34	0x3c91aeba	0.017783511
35	0x3ca28540	0.01983893
36	0x3cad2038	0.021133527
37	0xbd461c2f	-0.04836672
38	0x3cd2be35	0.025725463
39	0x3c8692d5	0.016427437
40	0xbc8fa156	-0.017532986
41	0x3ba63c35	0.005073095
42	0x3c836abb	0.016042104
43	0xbcba3cc9	-0.022734063
44	0x3d3e4942	0.046456583
45	0xbaaa2f79	-0.0012984119
46	0x3d03be92	0.032164164
47	0xba58b946	-0.0008267354
48	0xbd0db69a	-0.03459797
49	0x3d0fd478	0.035114735
50	0xbb9b0227	-0.004730481
51	0xbca75d6a	-0.020430285
52	0x3cd1c45b	0.025606325
53	0x3d3777b5	0.044791896
54	0xbd095430	-0.033527553
55	0xbd4f8c13	-0.050670695
56	0x3d05b099	0.03263912
57	0xbca28ed0	-0.019843489
58	0xbd35ea1a	-0.04441271
59	0xbc593d2d	-0.013259214
60	0xbd3f6826	-0.046730183
61	0x3d141d62	0.036160834
62	0x3c9b6be9	0.018972354
63	0x3d3252f0	0.043536127
64	0x3d6c0ee6	0.057631396
65	0x3d1417dd	0.03615557
66	0x3cc3148e	0.023813512
67	0x3d22f443	0.039783727
68	0x3d0e3339	0.03471682
69	0x3d1f20e6	0.038849734
70	0x3c3c8213	0.0115056215
71	0xbcb13933	-0.02163372
72	0xbc8d4f16	-0.017249625
73	0x3d2af32e	0.04173582
74	0xbd134001	-0.03594971
75	0xbcbc1c4e	-0.022962715
76	0x3c69dba1	0.014273555
77	0x3c8746f3	0.016513323
78	0xbbe8e74d	-0.0071076513
79	0xbb206053	-0.0024471476
80	0xbb1587c4	-0.0022816518
81	0xbca0c691	-0.019625934
82	0x3d42579d	0.047446836
83	0xbd0c4b92	-0.034251757
84	0x3cb86b46	0.02251209
85	0xba4c0c7b	-0.0007783842
86	0x3ce76ae5	0.028249213
87	0x3d2bfe73	0.04199071
88	0x3d2f11a9	0.04274145
89	0x3ce4c86e	0.027927604
90	0x3d4c0b01	0.04981518
91	0xbc760f08	-0.015018232
92	0xbd4dd8ee	-0.05025571
93	0xbc9a42d1	-0.018830689
94	0xbd38b164	-0.045091048
95	0xbd480d42	-0.04884077
96	0xbd218e18	-0.03944215
97	0xbd68c39c	-0.056827173
98	0xbd52ec22	-0.051494725
99	0x3d5405ea	0.051763453
100	0x3c663843	0.0140515
101	0xbc7475c4	-0.014920656
102	0x3ca0f1ad	0.01964649
103	0x3c326b5d	0.010889855
104	0x3d0e0227	0.03467002
105	0x3d2cb5c3	0.04216553
106	0xbb83b0b3	-0.004018867
107	0x3cf6ea7e	0.030141111
108	0xbbf77f57	-0.007553022
109	0x3b50d79f	0.0031866801
110	0x3d13c17d	0.036073197
111	0xbcdc22f2	-0.026872132
112	0x3c942b35	0.018087009
113	0xbbbaa086	-0.0056954054
114	0xbc220aa7	-0.009890235
115	0xbd402448	-0.0469096
116	0xbc9a0025	-0.018798897
117	0x3c90681f	0.017627774
118	0xbcacdcbd	-0.02110135
119	0xbd739e39	-0.059477065
120	0xbd16efef	-0.036849912
121	0x3c972fe2	0.01845545
122	0xbd6dd06e	-0.058060102
123	0xbd15521d	-0.036455262
124	0xbd5a07d0	-0.053230107
125	0xbd1ba40c	-0.037998244
126	0x3a57b3a3	0.0008228367
127	0xbd139385	-0.036029357
128	0x3d2d9367	0.042376902
129	0xbc9f7b53	-0.019467985
130	0xbc1fb572	-0.00974785
131	0x3c9cf7ed	0.019161189
132	0x3cd33a53	0.025784647
133	0x3d237e0b	0.039915126
134	0x3c8e4535	0.017366985
135	0xbd3d2fae	-0.04618805
136	0xbd04a3f6	-0.032382928
137	0x3d1b7cd8	0.037960857
138	0xbcce6a2a	-0.025197107
139	0x3d0c1f4d	0.03420954
140	0xbd151afd	-0.03640269
141	0xbccda1ce	-0.025101569
142	0xbb3b4849	-0.002857702
143	0xbb6ba60f	-0.0035957133
144	0x391e2223	0.00015080771
145	0xba986c29	-0.0011628914
146	0xbd1d9761	-0.038474444
147	0x3d302ee6	0.043013476
148	0x3cd75a8f	0.026288299
149	0xbd3264c7	-0.04355314
150	0xbd1c5ec5	-0.038176317
151	0x3cc351dd	0.023842746
152	0xbce1281c	-0.027484946
153	0xbcd3a71f	-0.025836525
154	0xbc8bfcbf	-0.017088292
155	0xbbfef87c	-0.0077810865
156	0xbc69b896	-0.0142652
157	0xbc83fa5b	-0.01611059
158	0xbd1a69e5	-0.037698645
159	0xbc62cf21	-0.013843329
160	0x3ce8c120	0.028412402
161	0x3a32c80a	0.0006819969
162	0xbd0027d7	-0.031287994
163	0x3d388ad7	0.045054283
164	0xbb776426	-0.0037748902
165	0xbd01e4fe	-0.031712525
166	0x3ccb9fbc	0.02485644
167	0xbcf49bd3	-0.029859459
168	0xbaf71043	-0.0018849451
169	0x3cf0f4e7	0.029413654
170	0xbcc52b8b	-0.024068614
171	0xbc82f5b1	-0.015986295
172	0x3a838fa1	0.0010037312
173	0x3c994320	0.018708766
174	0x3cf291bf	0.029610513
175	0xbbebb1e0	-0.007192835
176	0xbccf5d95	-0.025313178
177	0xbd1c9d3b	-0.038235884
178	0xbc52777c	-0.01284587
179	0x3c094518	0.00837829
180	0x3c8503e6	0.01623721
181	0xbc5c7e39	-0.013457828
182	0x3d303ac5	0.043024797
183	0xbb9293ee	-0.004473201
184	0xbc33a7a8	-0.010965265
185	0xbcb38867	-0.021915628
186	0x3d0880b2	0.03332586
187	0xbd102783	-0.03519393
188	0xbc2f18cc	-0.010687064
189	0x3d4fa55a	0.0506948
190	0x3c7ec44c	0.0155497305
191	0x3cbd7455	0.02312676
192	0xbc29f6cf	-0.010373785
193	0x3c928815	0.017887155
194	0x3cc0c676	0.023532134
195	0x3d5f194f	0.054467496
196	0x3d256e38	0.040388316
197	0x3d37a652	0.04483635
198	0xbb0fe8c6	-0.0021958812
199	0x3d218e3e	0.039442293
200	0x3c979746	0.01850475
201	0x3d4660ca	0.04843215
202	0x3ccae49a	0.024767209
203	0x3d718ef8	0.058974236
204	0xbca3edee	-0.020010915
205	0x3ccdd553	0.025126135
206	0x3d8212a7	0.06351214
207	0x3b97b89e	0.0046301624
208	0x3d068300	0.032839775
209	0x3cf3a05d	0.029739553
210	0x3cd6cf52	0.026221905
211	0xbd2420ec	-0.04007046
212	0x3c7428f9	0.014902347
213	0xbc75bc25	-0.01499847
214	0xbd212780	-0.03934431
215	0xbd137910	-0.036004126
216	0x3d07bd78	0.033139676
217	0xbc988fb5	-0.018623212
218	0xbc8ba0df	-0.017044483
219	0x3c6bab8d	0.014384163
220	0xbc773529	-0.015088358
221	0x3c5f0394	0.013611693
222	0xbd25ebf9	-0.040508244
223	0xbce6810e	-0.02813771
224	0xbccf2d0e	-0.025290038
225	0x3cc097fe	0.023509976
226	0x3cc7deaa	0.024398167
227	0x3bd16e2c	0.0063913073
228	0x3d421f37	0.04739305
229	0x3ccb0fa4	0.024787731
230	0x3d308ec2	0.043104894
231	0xbb82b374	-0.0039886776
232	0x3c54e78e	0.01299466
233	0x3d0f460e	0.03497892
234	0xbb4a5824	-0.003087529
235	0xbbd4ee31	-0.006498121
236	0x3c06245b	0.008187379
237	0x3d0fbe32	0.035093494
238	0x3c2aa85d	0.0104161175
239	0xbd10338c	-0.03520541
240	0xbcf744b6	-0.030184131
241	0x3c164496	0.009171626
242	0x3caf05d8	0.021365091
243	0x3d1384b1	0.036015216
244	0xbd0c7c33	-0.034298133
245	0x3cad850c	0.021181606
246	0xbc631f8d	-0.013862503
247	0xbb897f46	-0.0041960804
248	0xbbaa1126	-0.0051900325
249	0xbbce43d5	-0.0062947073
250	0xbd074a2b	-0.033029716
251	0x3d5d7430	0.054065883
252	0x3c6d0e33	0.014468717
253	0xbc70b554	-0.0146916695
254	0x3d601279	0.054705117
255	0xbce22666	-0.0276062

layer2.0.bias f4 [16]
0	0xbdc6be62	-0.097042814
1	0xbd2cbd9f	-0.042173024
2	0xbc5e803b	-0.013580377
3	0xbd81fb6c	-0.06346783
4	0xbd77f3b2	-0.06053514
5	0xbbaa233b	-0.005192188
6	0xbd9338a7	-0.0718854
7	0xbda0fc72	-0.0786065
8	0x3c522e0e	0.012828363
9	0xbd30b380	-0.043139935
10	0xbcff153b	-0.031138053
11	0xbc9e278d	-0.019305969
12	0xbdb9cdda	-0.09072466
13	0xbafd2edc	-0.0019316333
14	0xbd30b509	-0.0431414
15	0xbb939483	-0.004503788

layer2.2.weight f4 [16]
0	0x3f8184e1	1.0118676
1	0x3f7f7ef1	0.9980307
2	0x3f789a9b	0.9711091
3	0x3f7ccf93	0.98754233
4	0x3f7aadee	0.97921646
5	0x3f7c20b3	0.98487395
6	0x3f7e1a65	0.99259025
7	0x3f813c41	1.0096513
8	0x3f7343a0	0.9502506
9	0x3f7ebe21	0.99508864
10	0x3f7fdba2	0.9994451
11	0x3f7d1e19	0.9887405
12	0x3f8217d6	1.0163524
13	0x3f7c8c1f	0.9865131
14	0x3f7c2f7e	0.9850997
15	0x3f7ece7c	0.9953382

layer2.2.bias f4 [16]
0	0xbd16b344	-0.036792055
1	0x3be51a9a	0.0069916965
2	0x3dbdfa6f	0.09276282
3	0x3a8c736a	0.0010715548
4	0x3e21282f	0.15737985
5	0x3d2ba8d3	0.04190905
6	0x3e1a163d	0.15047546
7	0x3e24270e	0.16030523
8	0x3e1efd4b	0.15526311
9	0xbd2dd659	-0.042440746
10	0x3e5168ab	0.20450084
11	0x3d4f3489	0.05058721
12	0x3e033529	0.12813248
13	0xbdca97e1	-0.0989225
14	0xbdbe66d2	-0.09296955
15	0xbc623aa4	-0.013807926

layer2.2.running_mean f4 [16]
0	0x3e9c02b9	0.30470827
1	0x3f29e95b	0.663717
2	0x3e1c0c47	0.15239058
3	0x3e45aef3	0.19305019
4	0x3e89b76d	0.26897755
5	0x3e9cbaa0	0.30611134
6	0x3ddfa7b5	0.109206595
7	0x3e63df3c	0.22253126
8	0x3e6611f1	0.22467782
9	0x3eccc244	0.39991963
10	0x3ee794a4	0.4523059
11	0x3e49d511	0.19710185
12	0x3dfe6534	0.12421647
13	0x3ed0af3f	0.40758702
14	0x3e4d2651	0.20034148
15	0x3e7cda38	0.24692619

layer2.2.running_var f4 [16]
0	0x3e6c35df	0.23067425
1	0x3edc3d9a	0.43015748
2	0x3dc7a63f	0.09748506
3	0x3e38ec3e	0.18058869
4	0x3e1dc745	0.15408047
5	0x3e443c1d	0.19163556
6	0x3d9e4b39	0.07729191
7	0x3e871b78	0.26388144
8	0x3d8526df	0.06501555
9	0x3eb95faf	0.36205813
10	0x3e2eb50e	0.17061254
11	0x3e0477ee	0.12936375
12	0x3d9d1740	0.0767045
13	0x3ebabe35	0.3647324
14	0x3e2f1781	0.1709881
15	0x3d9056a0	0.070477724

layer3.0.weight f4 [32, 16, 7, 3, 3]
0	0x3c49f91f	0.0123274615
1	0xbc89a0a0	-0.016800225
2	0x3c59a394	0.013283629
3	0x3c2cdde2	0.010550948
4	0xbcd2504e	-0.025673058
5	0x3c406cb8	0.011744671
6	0x37d5040d	2.5393465e-05
7	0x3c2b353e	0.010449706
8	0xbc42a82d	-0.011880917
9	0xbc9f6c77	-0.0194609
10	0xbac2e06f	-0.0014867912
11	0xbc02ca25	-0.007982765
12	0x3d0b3b8f	0.033992346
13	0xbc41c866	-0.011827564
14	0x3d29c612	0.04144866
15	0x3d20b28f	0.039232787
16	0x3c6513de	0.0139817875
17	0x3d011803	0.03151704
18	0xbc22fd23	-0.009948048
19	0x3bac49dc	0.005257828
20	0xbd1086bd	-0.035284746
21	0x3cc01dc2	0.02345169
22	0x3ba7585c	0.005106969
23	0xbc08681c	-0.008325603
24	0x3b41836c	0.0029527796
25	0xbd602310	-0.05472094
26	0xbca18aea	-0.01971956
27	0x3c035b12	0.008017318
28	0xbc583608	-0.013196476
29	0x3c884b4c	0.016637467
30	0xbc75ff79	-0.015014523
31	0x3ba62254	0.00507001
32	0x3c387028	0.011257209
33	0xbcab6366	-0.02092142
34	0xbc3a9da6	-0.011390125
35	0x3d2b4cf8	0.04182145
36	0x3d2cc9d9	0.042184684
37	0x3d0b4e94	0.034010485
38	0xbc8c84a5	-0.017153094
39	0x3d08c7a4	0.033393517
40	0xbc233087	-0.0099603
41	0x3c840d00	0.01611948
42	0x3cc44bb7	0.023961885
43	0xbca6518e	-0.02030256
44	0x3b0c4f9c	0.0021409756
45	0xbcd22cb8	-0.02565609
46	0x3d2a797b	0.04161976
47	0x3d23e2d6	0.04001125
48	0x3c151740	0.0090997815
49	0xba9befd6	-0.0011897038
50	0x3d0b661a	0.03403292
51	0xbc4f205c	-0.012641992
52	0x3cbdf286	0.023186933
53	0x3d0bd024	0.034134045
54	0xb9e4019a	-0.00043488742
55	0x3ac6d67a	0.001517012
56	0x3c7e9bbb	0.015540059
57	0xbcd805c4	-0.026369937
58	0xbc1eb2cf	-0.009686186
59	0x3c9265ec	0.017870866
60	0xbd02e8a7	-0.031960156
61	0xbc76c859	-0.015062415
62	0x3ce88097	0.028381629
63	0x3d04a268	0.032381445
64	0x3b4d9d47	0.0031374262
65	0x3c007307	0.007839925
66	0x3caa0e4f	0.020758776
67	0x3d3f0197	0.046632376
68	0x3cd76d2b	0.026297173
69	0x3d1b1b45	0.037867803
70	0x3d05e4cc	0.0326889
71	0x3d2e9423	0.042621743
72	0x3c466342	0.012108626
73	0xbbe94d44	-0.0071198065
74	0x3c6e116e	0.014530523
75	0x3b7b5d2e	0.00383551
76	0x3bb740c5	0.005592438
77	0x3c52dc5a	0.012869919
78	0x3c85f065	0.01634998
79	0x3cd5ac04	0.026083
80	0xbc7ad990	-0.01531066
81	0xbcc88635	-0.024478057
82	0x3cc7fcb1	0.024412485
83	0x3c441b66	0.011969423
84	0x3caec70c	0.021335147
85	0x3c70d547	0.014699287
86	0x3d29857a	0.04138706
87	0xbc249a07	-0.010046489
88	0x3c4d0aae	0.012514753
89	0x3c7d5548	0.015462227
90	0x3bc49621	0.005999342
91	0x3c8df9fa	0.017331112
92	0xbb92ef5a	-0.0044840993
93	0xbc268536	-0.010163596
94	0xbc937e95	-0.018004695
95	0x3c6d3d9c	0.014480021
96	0x3c0f3114	0.0087397285
97	0xbcfcbf01	-0.030852797
98	0xbc89919a	-0.016793061
99	0xbd020198	-0.0317398
100	0x3c90e6e5	0.017688224
101	0xbcbe4547	-0.023226393
102	0xbcf8b111	-0.03035787
103	0xbb84cc9b	-0.004052711
104	0xbcf1aecc	-0.029502295
105	0xbc07c898	-0.008287571
106	0xbcb1615c	-0.02165287
107	0xbc9efb66	-0.019406985
108	0xbc2fc532	-0.010728167
109	0xbce86a8b	-0.028371116
110	0xbc32cc54	-0.010912973
111	0x3b6f0e93	0.0036477193
112	0x3c8e8b14	0.017400302
113	0xbc80b24e	-0.015710022
114	0xbcb91005	-0.022590647
115	0xbaad80cc	-0.0013237237
116	0xbc6b4f65	-0.014362191
117	0xbd312578	-0.043248624
118	0x3c6a3800	0.014295578
119	0xbb99dc85	-0.0046954774
120	0xbd805ec1	-0.06268073
121	0xbcef0d37	-0.029181106
122	0x3a8410c2	0.0010075795
123	0xbd25ebc0	-0.04050803
124	0xbc17c81d	-0.009264019
125	0xbc8c7b82	-0.017148737
126	0x3c478cc3	0.012179556
127	0xbc1c7af9	-0.009550803
128	0xbb844ead	-0.004037699
129	0xbce4af73	-0.027915692
130	0xb862a3a2	-5.4034994e-05
131	0xbcca54b8	-0.0246986
132	0x3cdd1b5e	0.026990589
133	0x3ca948c2	0.020664576
134	0x3cc0cdc9	0.023535626
135	0xbd66e3a3	-0.056369435
136	0x3bcdac16	0.0062766178
137	0xbbdb0006	-0.0066833524
138	0xbcbd0ff5	-0.023078898
139	0x3cb4ee2c	0.022086225
140	0xbc0171b7	-0.007900647
141	0xbd569dd3	-0.052396607
142	0xbd555086	-0.052078746
143	0xbd672718	-0.056433767
144	0xbd25012f	-0.040284332
145	0xbc256db5	-0.010096957
146	0x3cae0cc6	0.021246325
147	0xbb7f91a3	-0.0038996718
148	0x3c483d26	0.01222161
149	0xbc4fa847	-0.012674398
150	0x3bf0f979	0.007353958
151	0x3c29a59b	0.010354425
152	0xbb7de69f	-0.0038742197
153	0x3c00a5f9	0.007852071
154	0xbc1c2d3f	-0.009532272
155	0xbc6ad9a1	-0.014334113
156	0xbc18a38e	-0.009316338
157	0xbc93e286	-0.01805235
158	0xbcf97938	-0.03045331
159	0xbd318809	-0.043342624
160	0xbd81a950	-0.06331122
161	0xbd4e9c8f	-0.050442275
162	0xbc8a4bfe	-0.016881939
163	0x3c9704a9	0.01843484
164	0xba813816	-0.0009858634
165	0x3ca53c90	0.02017048
166	0x3c32638d	0.010887993
167	0xbd391bc9	-0.045192514
168	0xbc7f7d87	-0.015593893
169	0x3c6f7f38	0.014617734
170	0xbc3a3d55	-0.011367162
171	0xba7f3d04	-0.000973657
172	0x3c10eae1	0.008845062
173	0x3b93b272	0.0045073563
174	0x3c384de4	0.011249039
175	0xbc4ef87d	-0.012632486
176	0xbc9d47f7	-0.019199355
177	0xbaf2ef42	-0.0018534439
178	0xbc67b204	-0.014141563
179	0x3a3d0f16	0.0007212026
180	0xbbfcab62	-0.00771086
181	0x3c8ac355	0.016938845
182	0xbc592f13	-0.013255852
183	0x3ccd7ed5	0.025084892
184	0xba1aa5a6	-0.00058993173
185	0x3c889346	0.016671788
186	0x3cfdd323	0.030984467
187	0x39e1e4ec	0.00043085904
188	0xbc1b5925	-0.009481703
189	0xbc8fd801	-0.017559053
190	0x3ca3af42	0.01998103
191	0xbcbf3f68	-0.023345664
192	0x3bb2c4fe	0.005455612
193	0xbc61ccfa	-0.01378178
194	0xbc487c01	-0.012236596
195	0xba93b3dc	-0.0011268812
196	0x3b6352b1	0.003468674
197	0xbc516b8c	-0.012781989
198	0x3c860762	0.016360942
199	0xbbc4fa24	-0.0060112644
200	0x3c6d5f6e	0.014488084
201	0x3c812438	0.01576434
202	0x3c9f5611	0.01945022
203	0xbc16e406	-0.009209638
204	0x3b179e85	0.0023135256
205	0x3cb60d4a	0.022223134
206	0xbc70f3aa	-0.014706532
207	0xbd0dfc95	-0.03466471
208	0xbc659610	-0.0140128285
209	0x3bb3a6e7	0.005482543
210	0xbc74d75a	-0.014943922
211	0xbc7ecd1c	-0.015551832
212	0xbc7ad17e	-0.015308736
213	0xbc1c5e50	-0.00954397
214	0x3c0eb204	0.008709434
215	0xbc7c8c66	-0.015414333
216	0x3c469bd4	0.012122113
217	0xbca293a8	-0.019845799
218	0xbcca8bd4	-0.024724878
219	0xbd05c68f	-0.032660063
220	0xbc1663d3	-0.009179073
221	0xbce75ad9	-0.028241562
222	0xbc3410ad	-0.010990304
223	0x3cb62031	0.022232147
224	0x3c6cde39	0.014457279
225	0xbd0edeab	-0.03488032
226	0x3cce6f37	0.025199516
227	0xbbca514b	-0.0061742417
228	0xbceff029	-0.029289322
229	0xbca89382	-0.02057815
230	0x3d1558d5	0.03646167
231	0xbc3806fc	-0.011232134
232	0x3b1841e3	0.002323263
233	0x3d2b6edf	0.04185378
234	0x3cc899d4	0.024487413
235	0x3cde3f5d	0.027129823
236	0x3d145b07	0.036219623
237	0xbbfd8d7f	-0.007737815
238	0xbc8be36d	-0.017076219
239	0x3cfe7eb6	0.03106628
240	0x3c7aeb8b	0.015314947
241	0x3cea79fe	0.028622624
242	0x3c7cf09a	0.015438223
243	0x3c5ab51e	0.013348846
244	0x3bb05f1d	0.005382432
245	0xbc58e3a4	-0.0132378675
246	0xba8d49a5	-0.0010779394
247	0x3cc29b80	0.023755789
248	0x3ca13f84	0.019683607
249	0x3c7a2ace	0.0152689945
250	0x3cf5f2f9	0.030023085
251	0x3cbc9f09	0.023025053
252	0xbcd19368	-0.025582984
253	0x3c7830f7	0.015148393
254	0x3d19c495	0.03754099
255	0xbd570171	-0.05249161

layer3.0.bias f4 [32]
0	0xbd18c884	-0.0373006
1	0xbdf67cc8	-0.12035519
2	0xbca37aea	-0.01995607
3	0xbcf56444	-0.029955037
4	0xbd228f3f	-0.03968739
5	0xba68ef8a	-0.0008885792
6	0xbd9ffa23	-0.07811382
7	0xbd87f607	-0.06638723
8	0xbe0e6466	-0.13905486
9	0xbdc376f9	-0.095441766
10	0xbdd06056	-0.101746246
11	0xbc4dbe83	-0.012557629
12	0xbd9d3eb5	-0.07677976
13	0xbd81ac79	-0.06331725
14	0xbd1f1ad1	-0.038843933
15	0xbd9c29f7	-0.07625192
16	0x3c2134c3	0.0098392395
17	0xbd1cb895	-0.03826197
18	0xbbe16329	-0.006878276
19	0xbcc29de8	-0.023756936
20	0xbd72397c	-0.059136853
21	0xbd1eff62	-0.03881777
22	0xbd849ddd	-0.064754225
23	0xbd975d90	-0.073908925
24	0xbd4e506b	-0.05036966
25	0xbc98e99d	-0.018666083
26	0xbc737d5b	-0.01486143
27	0xbd9adbe4	-0.07561472
28	0xbc8935b0	-0.016749233
29	0xbd1f6a7c	-0.03891991
30	0xbc83f375	-0.0161073
31	0x3cfe34f5	0.031031111

layer3.2.weight f4 [32]
0	0x3f7fb322	0.9988271
1	0x3f7fd196	0.9992918
2	0x3f747bde	0.95501506
3	0x3f7c2f93	0.9851009
4	0x3f7e59b2	0.99355614
5	0x3f694b20	0.91130257
6	0x3f854c60	1.0413933
7	0x3f80fb22	1.007664
8	0x3f86ee23	1.0541424
9	0x3f85bf81	1.0449067
10	0x3f82227a	1.0166771
11	0x3f7f98b3	0.99842376
12	0x3f7c4544	0.9854319
13	0x3f87c3e1	1.0606652
14	0x3f7e8afc	0.99430823
15	0x3f84b14e	1.0366609
16	0x3f6fd08d	0.936776
17	0x3f7d8842	0.9903604
18	0x3f7099a9	0.93984467
19	0x3f80eb8d	1.0071884
20	0x3f71e5e0	0.94491386
21	0x3f7df702	0.9920503
22	0x3f7b5071	0.9816962
23	0x3f866221	1.0498697
24	0x3f83407b	1.0254053
25	0x3f7ce023	0.98779505
26	0x3f7c9357	0.9866232
27	0x3f7fd254	0.9993031
28	0x3f7f4f70	0.99730587
29	0x3f8283b3	1.0196441
30	0x3f7e16cb	0.9925353
31	0x3f769ecb	0.9633605

layer3.2.bias f4 [32]
0	0xbb892b4a	-0.0041860687
1	0xbc411187	-0.011783964
2	0x3d24b1f0	0.040208757
3	0x3c459ff8	0.012062065
4	0xbd5f0bd8	-0.054454654
5	0xbd244371	-0.04010338
6	0x3ba0a82f	0.0049028615
7	0xbdc6df63	-0.097105764
8	0x3c2657c4	0.010152761
9	0xbd66c965	-0.05634441
10	0xbbf45536	-0.007456447
11	0xbcade792	-0.021228585
12	0x3cbcfb9d	0.023069197
13	0xbcbdc21c	-0.023163848
14	0x39a3a955	0.00031215945
15	0xbd9a7e8f	-0.075436704
16	0xbbab448c	-0.0052266773
17	0xbb0acf5e	-0.002118073
18	0xbb91b584	-0.004446687
19	0xbd63c0ff	-0.055603977
20	0x3d5a1f2d	0.053252388
21	0x3c95ef59	0.018302606
22	0x3d91c79b	0.0711815
23	0xbd41f2c6	-0.047350667
24	0xbd32438f	-0.04352146
25	0xbda5e309	-0.08099944
26	0x3d65c497	0.056095686
27	0xbd3ba1cb	-0.045808595
28	0xbc39286b	-0.01130114
29	0x3d158a07	0.036508586
30	0xbd02cdc8	-0.03193453
31	0x3d526a48	0.05137089

layer3.2.running_mean f4 [32]
0	0x3d65f345	0.056140203
1	0x3bbdc260	0.0057909936
2	0x3e923d7f	0.28562543
3	0x3dd47fa5	0.10375909
4	0x3e950f47	0.29113218
5	0x3f40f494	0.75373197
6	0x3d4ffe38	0.05077955
7	0x3dd35927	0.10319739
8	0x3b90b2ff	0.0044158692
9	0x3b7eaddf	0.003886096
10	0x3d73955a	0.059468605
11	0x3e61d961	0.2205558
12	0x3d8c6aa0	0.068562746
13	0x3c3f4ddf	0.011676281
14	0x3d75ea98	0.06003818
15	0x3c887456	0.016657036
16	0x3f4421a3	0.76613826
17	0x3e12e014	0.14343292
18	0x3faa8ef3	1.3324875
19	0x3e3dd207	0.1853715
20	0x3e315c3e	0.17320344
21	0x3ddbad0c	0.107263654
22	0x3d9dff64	0.077147275
23	0x3cc1c6b2	0.023654316
24	0x3d667127	0.056260254
25	0x3e1b07b5	0.15139659
26	0x3d25b83a	0.040458895
27	0x3d0623f6	0.03274914
28	0x3e6dbb8f	0.23216079
29	0x3c8ee452	0.017442856
30	0x3eb722c8	0.35768723
31	0x3eff5f60	0.49877453

layer3.2.running_var f4 [32]
0	0x3d57bb4a	0.052668847
1	0x3b00b498	0.0019638892
2	0x3ecfb89e	0.4057054
3	0x3ddf906d	0.10916219
4	0x3ec11c6d	0.37717
5	0x3f113bcb	0.5673186
6	0x3d54f960	0.051995635
7	0x3e08dd22	0.13365605
8	0x3ae2d118	0.0017304746
9	0x3ad443e4	0.0016194549
10	0x3d4c90ff	0.049942967
11	0x3e63ae47	0.2223445
12	0x3d77c061	0.0604862
13	0x3bcbe5cb	0.006222462
14	0x3d609d29	0.05483738
15	0x3c095977	0.0083831465
16	0x3f03f382	0.5154344
17	0x3e4af848	0.19821274
18	0x3ff6dcb8	1.9286108
19	0x3e802f49	0.25036076
20	0x3e524936	0.2053574
21	0x3db2980f	0.08720409
22	0x3da91fd2	0.08258022
23	0x3c8355d8	0.016032144
24	0x3d38f2ab	0.0451533
25	0x3e34d956	0.17661032
26	0x3cdae1ba	0.026718963
27	0x3ca7f483	0.020502334
28	0x3ead263e	0.3381824
29	0x3c16a5c5	0.009194796
30	0x3f03a98b	0.5143058
31	0x3f78fda9	0.97262055

layer4.0.weight f4 [64, 32, 7, 3, 3]
0	0xbccf2955	-0.025288263
1	0xbc651e49	-0.013984271
2	0x3c678903	0.014131787
3	0x3c0e31ca	0.008678863
4	0x3b898a99	0.0041974303
5	0xbc88c565	-0.016695688
6	0xbc1ff128	-0.009762086
7	0x3bfe89b4	0.0077678803
8	0xbcb4945c	-0.0220434
9	0x3c01ea14	0.007929344
10	0xbb1ef401	-0.0024254324
11	0x3a938114	0.0011253678
12	0xbc968452	-0.018373642
13	0x3c63add9	0.013896429
14	0xbc543746	-0.012952631
15	0x3b294607	0.0025829093
16	0xbc334773	-0.010942328
17	0x3c648c78	0.013949506
18	0x3b971364	0.004610466
19	0xbc360dd2	-0.011111693
20	0xbc9b4c3a	-0.018957246
21	0x3c012cb4	0.007884193
22	0xbd0044f6	-0.031315766
23	0x3bc58dc5	0.006028863
24	0x3c675113	0.014118451
25	0xbc8613b0	-0.01636681
26	0x3bb36f04	0.0054758806
27	0xbc38179c	-0.011236098
28	0x3bc09c32	0.005877995
29	0xbce86a0b	-0.028370878
30	0x3c1b0a46	0.009462899
31	0xbc567cb4	-0.013091255
32	0xbce81c92	-0.028333936
33	0x3c659f35	0.014015009
34	0x3c570296	0.013123175
35	0x3bfdde6e	0.007747463
36	0x3c8d4f15	0.017249623
37	0x3c9078db	0.017635753
38	0xbcc5faed	-0.024167502
39	0x3c237674	0.009976972
40	0xbcbf6d55	-0.023367563
41	0xbc869be3	-0.016431754
42	0xbcc3a8b5	-0.023884157
43	0x3bda185c	0.006655736
44	0xbc1bbd1f	-0.009505539
45	0xbc885fff	-0.016647337
46	0xbca3dbd7	-0.020002289
47	0xbcb6aecd	-0.022300148
48	0xbafff1a0	-0.0019526966
49	0xbbe3b87e	-0.0069494834
50	0x3bbee914	0.005826125
51	0xbcad61e6	-0.021164846
52	0xbbab7a5c	-0.0052330922
53	0xbcc82b86	-0.024434816
54	0xbab4565a	-0.0013758645
55	0x3a568abe	0.00081841263
56	0x3cbb26b0	0.022845596
57	0x3c5c8ed1	0.013461784
58	0x3c0ea119	0.008705401
59	0xbc2e055d	-0.010621396
60	0xbc363c76	-0.011122813
61	0x3cde2eed	0.027121985
62	0x3cdc81ca	0.026917357
63	0xbceb0c41	-0.028692367
64	0x3c426991	0.011865989
65	0xbb07537f	-0.0020649133
66	0xbb08dfc6	-0.0020885332
67	0xbc334a0f	-0.01094295
68	0xbc213cce	-0.009841157
69	0x3a442e51	0.00074837083
70	0x3c79769d	0.0152260335
71	0xbc8a0afa	-0.016850937
72	0x3babd6b2	0.0052440995
73	0xbca23d87	-0.01980473
74	0xbaa5b587	-0.00126426
75	0xbbe8e42b	-0.007107278
76	0x3c4ddda3	0.012565049
77	0x3bc78bfe	0.0060896864
78	0xbccaef0f	-0.024772195
79	0x3c3de507	0.011590249
80	0xbcb828de	-0.022480424
81	0x3b8efe9b	0.0043638474
82	0x3ba02ddb	0.004888279
83	0x3b7d280b	0.0038628604
84	0x3b5733ac	0.0032837195
85	0xbb10ab03	-0.0022074587
86	0x3b1e9edc	0.0024203574
87	0xbcd12e18	-0.025534675
88	0x3bb359ec	0.005473366
89	0x3b103352	0.0022003246
90	0x39acb32a	0.00032939884
91	0x3c18707a	0.00930416
92	0xbc434eb2	-0.011920618
93	0x3b127914	0.002235
94	0xbc6f96a6	-0.01462332
95	0xbbd48a10	-0.006486185
96	0x3b5fceb0	0.0034150295
97	0xbbd0322c	-0.006353637
98	0xb9704465	-0.00022913663
99	0xbc9d0fd1	-0.01917258
100	0x3c8a9566	0.016916942
101	0x3c94feff	0.018187998
102	0x3c3634d8	0.011120997
103	0xbc85abd2	-0.016317282
104	0xbb938204	-0.004501583
105	0x3ccbe616	0.024889987
106	0x3c2ab68a	0.010419497
107	0xbc094fa7	-0.008380807
108	0x3b0dcb1c	0.0021635955
109	0x3bd6e402	0.0065579424
110	0xbc9a3c8a	-0.018827695
111	0xbc1465ae	-0.009057445
112	0x3c71d615	0.014760514
113	0x3c98241c	0.018571906
114	0xbc96e17c	-0.018418066
115	0x38b1a58d	8.470854e-05
116	0xbc6534c8	-0.013989635
117	0x3baa908e	0.0052052205
118	0x3ba556f1	0.0050457646
119	0x3c45fcb7	0.012084178
120	0x3bd0b681	0.0063694124
121	0xbc8b8ac3	-0.01703394
122	0xbb73213f	-0.0037098674
123	0xbc7b8586	-0.015351659
124	0xbba8c368	-0.0051502474
125	0x3bc3b1db	0.0059721298
126	0xbd2ff443	-0.042957556
127	0xbbcbc459	-0.006218475
128	0xbd1a42e9	-0.037661467
129	0xbd0995d2	-0.033590145
130	0xbcf91005	-0.030403147
131	0xbd363676	-0.04448553
132	0xbc925be3	-0.01786608
133	0xbcef0b7d	-0.029180283
134	0xbbcedc5b	-0.0063128895
135	0xbba8bdf0	-0.0051495954
136	0xbc61004b	-0.01373298
137	0xbc97cb55	-0.018529573
138	0xbb1a7c8b	-0.0023572769
139	0xbccd67f6	-0.025073987
140	0xbbf5915d	-0.0074941353
141	0xbcdf48bb	-0.02725636
142	0xbc031d70	-0.008002624
143	0xbc53e50a	-0.012933025
144	0xbd02d849	-0.031944547
145	0xbcc4865d	-0.02398985
146	0xbc16541f	-0.0091753295
147	0x3945a428	0.00018848537
148	0xbb94e6b4	-0.0045441035
149	0xbd0a5484	-0.033772007
150	0xbc0931e2	-0.008373709
151	0xbcdae17e	-0.026718851
152	0xbc6ec0f2	-0.014572369
153	0xbd099299	-0.033587072
154	0xbca90018	-0.020629928
155	0xbcaaf1e4	-0.020867296
156	0xbb2a6ec6	-0.0026005968
157	0xbc7f125d	-0.015568343
158	0xbc5b110c	-0.0133707635
159	0xbc9ccf55	-0.019141832
160	0x3a8e3188	0.0010848502
161	0x3c79b970	0.015241966
162	0xbbcf6961	-0.006329701
163	0x3b80cacd	0.0039304257
164	0xbcb5c110	-0.022186786
165	0x3cb473ae	0.022027817
166	0xbaf3a822	-0.0018589536
167	0xbcabbc22	-0.020963732
168	0x3b5c537d	0.0033619099
169	0x3cbb3f6f	0.022857396
170	0x3b205ee0	0.0024470612
171	0xbc5f3273	-0.013622868
172	0xbcd23509	-0.025660055
173	0xbc960fec	-0.018318139
174	0xbca7732a	-0.020440657
175	0xbbaff8dd	-0.005370243
176	0xbb819874	-0.0039549414
177	0x3be66524	0.0070311
178	0xbcb5f070	-0.022209376
179	0xbcfdf32f	-0.030999748
180	0x3c10f7c3	0.0088481335
181	0xbbf0d30d	-0.007349378
182	0x3d009790	0.03139454
183	0x3c500d19	0.012698435
184	0xbb2467c1	-0.0025086256
185	0xbc5b0190	-0.013367072
186	0xba504caf	-0.0007945997
187	0x3c34fe94	0.011047024
188	0x3ba5727c	0.005049048
189	0x3b641fc5	0.0034808975
190	0xbc80113e	-0.015633222
191	0xbc2a785d	-0.010404673
192	0x3cb5e843	0.022205478
193	0xbc36802e	-0.011138959
194	0xbc8df0c9	-0.01732673
195	0xbaff7656	-0.0019490223
196	0xbbbad2a5	-0.0057013803
197	0xbc333a2c	-0.010939162
198	0x3cb95628	0.02262409
199	0x3bbf7f9f	0.005844071
200	0x3b056505	0.0020354402
201	0x3b8996bb	0.0041988767
202	0xbb4aad0a	-0.0030925893
203	0xbbbfd8f3	-0.00585472
204	0x3ccdb839	0.025112258
205	0xbb22c2c7	-0.0024835335
206	0xbbe76c49	-0.007062469
207	0x3cc9c699	0.024630832
208	0x3be224da	0.0069013657
209	0x3c7c40b5	0.015396287
210	0x3d0a536e	0.03377097
211	0x3c99df6e	0.018783297
212	0xbb653dc6	-0.0034979447
213	0x3c9eb316	0.019372504
214	0xbc490e98	-0.012271546
215	0x3cc09b37	0.023511512
216	0x3d2a7cb9	0.04162285
217	0x3d05567c	0.03255318
218	0x3aaa3e6f	0.0012988577
219	0x3d0fedae	0.03513878
220	0x3cec623f	0.028855441
221	0x3cc262c4	0.023728736
222	0x3d08549d	0.03328382
223	0xbc4121a9	-0.01178781
224	0x3b6c0d18	0.0036018547
225	0x3ce4f4a3	0.027948683
226	0x3c9de362	0.019273464
227	0x3c9379fa	0.018002499
228	0x3cdbc5a0	0.026827633
229	0x3d0bfe6c	0.034178182
230	0x3c9e27ed	0.019306147
231	0xb9196bb8	-0.00014631345
232	0xbba6c477	-0.0050893384
233	0xbb988a2a	-0.0046551423
234	0x3d51af34	0.051192477
235	0xbc936d21	-0.017996373
236	0x3b4253f2	0.0029652086
237	0x3d6f67dc	0.058448657
238	0xbbe2b6e6	-0.006918776
239	0x3ca46984	0.020069845
240	0x3cd3a367	0.025834752
241	0xbcdc4f2e	-0.026893225
242	0xbc571cce	-0.013129426
243	0x3bd810ea	0.006593813
244	0x3c47d6dd	0.0121972235
245	0x3c19d46d	0.009389025
246	0x3cd33f2f	0.025786964
247	0x3c48d72c	0.012258332
248	0x3ab98efb	0.0014156991
249	0xbaac0244	-0.0013123234
250	0x3c81299f	0.015766917
251	0xbb72fd86	-0.0037077381
252	0xbbb74750	-0.005593218
253	0xbca72123	-0.020401543
254	0xbba5c2eb	-0.0050586364
255	0xbcbbe430	-0.022935957

layer4.0.bias f4 [64]
0	0x3a469dab	0.0007576595
1	0x3b800b48	0.003907595
2	0xbd0b2444	-0.033970132
3	0x3d117972	0.03551621
4	0x3e0b8074	0.1362322
5	0x3c761460	0.015019506
6	0xbc4f00b0	-0.012634441
7	0xbcb6f1a7	-0.022332026
8	0xbd3a6511	-0.04550654
9	0xbc1f0c5a	-0.009707535
10	0xbc5b174a	-0.013372252
11	0xba863d9f	-0.0010241753
12	0xbc8a6eed	-0.016898597
13	0x3bb70c65	0.0055861943
14	0x3dd984a0	0.10620999
15	0xbd5fbd6d	-0.05462401
16	0xbc71e73a	-0.014764601
17	0xbd5aad11	-0.053387705
18	0xbbdccf78	-0.0067385994
19	0xbc4b7d0c	-0.01241995
20	0xbd153159	-0.036424015
21	0xbc55d19c	-0.013050463
22	0xbced4e4c	-0.028967999
23	0xbc044704	-0.008073572
24	0x3ccd20bd	0.025040025
25	0xbcc77341	-0.02434695
26	0xbbad458d	-0.005287832
27	0xbb5b894a	-0.0033498579
28	0x3c6d89b1	0.01449816
29	0xbd0b5345	-0.03401496
30	0x3c2c6956	0.010523161
31	0xbb5fcb33	-0.0034148216
32	0x3bc25955	0.0059310594
33	0x3dd27313	0.10275855
34	0xbd0ff86a	-0.035149015
35	0xbc91adb5	-0.017783025
36	0xbcf28ade	-0.029607233
37	0x3ba0f4b4	0.0049119834
38	0x3cf0a2a3	0.029374426
39	0xbcb8550e	-0.022501495
40	0xbd3e1cfb	-0.046414357
41	0x3c30b213	0.010784644
42	0x3e20c4b9	0.15700044
43	0xbd39902e	-0.045303516
44	0xbc42ecce	-0.011897279
45	0x3cac35e6	0.021021795
46	0xbbd55fae	-0.00651165
47	0xbceb2ca1	-0.028707804
48	0x3a86e0fd	0.001029044
49	0xbca32431	-0.019914718
50	0xbc73bc9f	-0.014876514
51	0x3c1168d3	0.00887509
52	0xbb2808c2	-0.0025639986
53	0x3aeac6e7	0.0017912061
54	0x3e246722	0.16054967
55	0x3ba21e45	0.004947456
56	0xbc9c47d4	-0.01907722
57	0xbc488fc5	-0.012241309
58	0x3d06ef44	0.032943025
59	0x3bdc2c23	0.0067191287
60	0x3e2ad81e	0.16684005
61	0xbceb4f97	-0.028724475
62	0xbc5ffe6b	-0.013671498
63	0xbd10ea42	-0.035379656

layer4.2.weight f4 [64]
0	0x3feed03c	1.8657298
1	0x3ff08b23	1.8792461
2	0x3ff32053	1.899424
3	0x3ff8561c	1.9401278
4	0x3ff5ed55	1.9213053
5	0x3ff2706b	1.8940557
6	0x3fed0979	1.8518516
7	0x3fed2c42	1.8529131
8	0x3ff8adb7	1.9428014
9	0x3fed72ba	1.8550637
10	0x3fedb2ad	1.8570153
11	0x3ff1fc0d	1.8905045
12	0x3fed6a45	1.8548056
13	0x3fefd992	1.8738272
14	0x3ff534f1	1.9156781
15	0x3ff2cf7a	1.8969567
16	0x3fee8874	1.8635392
17	0x3fef664d	1.8703095
18	0x3ff9349e	1.9469182
19	0x3ff29912	1.8952963
20	0x3fef7b83	1.8709568
21	0x3fee7139	1.8628303
22	0x3ff7b109	1.9350902
23	0x3ff327da	1.8996537
24	0x3ff30763	1.8986629
25	0x3fed80ae	1.8554895
26	0x3ff14c28	1.8851366
27	0x3ff02225	1.876042
28	0x3ff1102d	1.8833061
29	0x3fed1787	1.8522805
30	0x3ff01690	1.8756886
31	0x3fee0169	1.859418
32	0x3ff54e47	1.9164513
33	0x3ff689f5	1.9260851
34	0x3ff629ac	1.9231467
35	0x3ff2c431	1.8966123
36	0x3ff5ba21	1.9197427
37	0x3fef58a8	1.8698931
38	0x3ff34a63	1.9007076
39	0x3fed9cbb	1.8563455
40	0x3ff72165	1.9307066
41	0x3ff2bd1f	1.8963965
42	0x3ff582dc	1.918056
43	0x3ff65f1f	1.9247779
44	0x3feec7d7	1.8654736
45	0x3ff2d67d	1.8971707
46	0x3fede1a3	1.8584484
47	0x3ff5cb73	1.9202713
48	0x3ff11a62	1.8836176
49	0x3ff2e4fd	1.8976132
50	0x3ff096ee	1.879606
51	0x3ff26092	1.8935721
52	0x3ff5b9a9	1.9197284
53	0x3ff25881	1.8933259
54	0x3ff5ad2f	1.9193476
55	0x3fee26bd	1.8605572
56	0x3ff59949	1.9187404
57	0x3ff5a69f	1.9191474
58	0x3ff9c0c8	1.9511957
59	0x3ff384a3	1.9024853
60	0x3ff6d29e	1.9283025
61	0x3ff46e80	1.9096222
62	0x3ff0af67	1.8803529
63	0x3fee343e	1.8609693

layer4.2.bias f4 [64]
0	0xb9b0c73a	-0.0003371777
1	0xba0fd08a	-0.0005486092
2	0xb9b6a4ff	-0.00034836677
3	0xbaa29658	-0.0012404425
4	0x399ec70a	0.00030284404
5	0xba4aa03f	-0.0007729567
6	0xb94d2640	-0.00019564573
7	0xb98c01f5	-0.0002670434
8	0x39c8ae6a	0.0003827692
9	0xba53e269	-0.0008082749
10	0xb9bba25d	-0.0003578839
11	0xba0556ba	-0.00050864706
12	0xb9f3b5a6	-0.0004648391
13	0xb9bfcf8b	-0.0003658499
14	0x3a34363a	0.00068745355
15	0x3a0e805b	0.00054359966
16	0xb7b2fba5	-2.1336435e-05
17	0xb9bb761a	-0.00035755412
18	0xba423120	-0.0007407833
19	0xba2cafc0	-0.0006587468
20	0xba048d0f	-0.000505642
21	0xba0685d2	-0.0005131635
22	0x3a017ca1	0.00049395306
23	0xba3612fc	-0.0006945578
24	0x389b224f	7.3973664e-05
25	0xb9f041cf	-0.00045825398
26	0xba460cb4	-0.00075549935
27	0xb979706f	-0.00023788375
28	0xba1cb345	-0.0005977641
29	0xb976d2e5	-0.00023538953
30	0xba15ee25	-0.0005719385
31	0xb914fabd	-0.00014207787
32	0xba774b89	-0.0009433558
33	0x39d05fd7	0.00039744258
34	0x39d44cab	0.00040492913
35	0xb9de9f13	-0.0004246166
36	0x39f54e9b	0.00046788607
37	0xba02a62f	-0.000498387
38	0xbaaf325e	-0.0013366451
39	0xb995e19c	-0.00028587587
40	0x3a085c8c	0.0005201779
41	0xba97e612	-0.0011588952
42	0x39e3e73b	0.00043469094
43	0xb9254835	-0.00015762525
44	0xb9fbcc7d	-0.00048026806
45	0xba77574d	-0.0009435311
46	0xba1a6371	-0.0005889452
47	0x39d50066	0.00040626823
48	0xba3edf9f	-0.0007281247
49	0xba191f4f	-0.0005841152
50	0xb963657d	-0.00021686214
51	0xb99fb115	-0.0003045878
52	0xb7791d54	-1.4848385e-05
53	0xba00882b	-0.0004903103
54	0x39bcf6f7	0.00036042157
55	0xb8dfb144	-0.00010666487
56	0x39aea5a3	0.00033311275
57	0x39c52d4e	0.00037608523
58	0xb93e3e7e	-0.00018143092
59	0xba46c211	-0.0007582019
60	0x3a19449b	0.000584671
61	0x39dd7326	0.00042238197
62	0xb9c7bfed	-0.00038099234
63	0xba087a27	-0.00052061904

layer4.2.running_mean f4 [64]
0	0x3d295a13	0.041345667
1	0x3e47bdf2	0.19506052
2	0x3d868ed4	0.06570211
3	0x3edf764c	0.4364494
4	0x409f5a08	4.97974
5	0x3e9ca3b3	0.30593643
6	0x3d219f67	0.03945866
7	0x3d096d37	0.03355142
8	0x3f11e1a5	0.5698493
9	0x3d2661e4	0.0406207
10	0x3c8ddac0	0.017316222
11	0x3e9a1d3b	0.30100426
12	0x3d306c21	0.04307187
13	0x3d94cae3	0.0726526
14	0x408e8b11	4.454476
15	0x3d56efae	0.05247467
16	0x3da462b8	0.080266416
17	0x3d576b50	0.052592576
18	0x3c6fe1ea	0.014641264
19	0x3e8881b4	0.26661456
20	0x3e00fd5e	0.12596652
21	0x3e0ce158	0.13757837
22	0x3f173690	0.5906763
23	0x3e027539	0.1274003
24	0x3d30937f	0.043109413
25	0x3d0e7a8e	0.034784846
26	0x3e623860	0.22091818
27	0x3e466cbd	0.19377418
28	0x3e55ba5e	0.20871875
29	0x3d728f89	0.059218917
30	0x3e4d7589	0.20064367
31	0x3d2d6b09	0.042338405
32	0x3c1e8d0f	0.009677186
33	0x409d290b	4.91126
34	0x3f9715fb	1.1803583
35	0x3e889299	0.26674345
36	0x3f325932	0.6966735
37	0x3da12b42	0.07869579
38	0x3f09eeb3	0.5387985
39	0x3d200c39	0.039074156
40	0x3f3726c1	0.7154351
41	0x3f00632f	0.5015134
42	0x40957043	4.669954
43	0x3cabbbf8	0.020963654
44	0x3d27c5bd	0.040960062
45	0x3e91d018	0.28479075
46	0x3d359068	0.04432717
47	0x3e4cd071	0.20001389
48	0x3e809828	0.25116086
49	0x3dcc1b61	0.099661596
50	0x3e857d64	0.26072228
51	0x3e9aa6fb	0.3020552
52	0x3cd63677	0.026149018
53	0x3e89da24	0.2692424
54	0x40994efc	4.7908916
55	0x3d323ae5	0.043513197
56	0x3f75ffdf	0.96093553
57	0x3f68123c	0.90652823
58	0x3fa28b43	1.2698749
59	0x3e07d72d	0.13265677
60	0x40917c6e	4.546439
61	0x3da8a024	0.082336694
62	0x3e8acca5	0.27109256
63	0x3d9956da	0.07487269

layer4.2.running_var f4 [64]
0	0x3cf7aeee	0.03023478
1	0x3e4c0caa	0.19926706
2	0x3ca4e9c1	0.020130994
3	0x3ee03326	0.43789023
4	0x3f3afead	0.73044854
5	0x3e4655fa	0.19368735
6	0x3d9dbeb6	0.07702391
7	0x3c912955	0.017719904
8	0x3e4d8285	0.2006932
9	0x3cb277ba	0.021785606
10	0x3cccffc5	0.025024304
11	0x3e5b4aad	0.21415205
12	0x3cb4c744	0.022067674
13	0x3d3a7d1f	0.04552948
14	0x3f67e4ed	0.9058369
15	0x3dc0fee1	0.09423614
16	0x3dce5aa6	0.100758836
17	0x3d939315	0.07205788
18	0x3c29e813	0.010370272
19	0x3e2f7708	0.1713525
20	0x3df809a3	0.12111213
21	0x3ded9ed3	0.11602559
22	0x3e5e7b2d	0.21726675
23	0x3d8ef56b	0.069804035
24	0x3e10368a	0.14083305
25	0x3cae5fd5	0.02128593
26	0x3e2b11f1	0.16706063
27	0x3e48de10	0.1961596
28	0x3e237183	0.1596127
29	0x3d5af3ec	0.05345528
30	0x3e273e15	0.16332276
31	0x3d0193aa	0.031634964
32	0x3bfff24f	0.007810868
33	0x3f34eb59	0.7067161
34	0x3e9646db	0.29350933
35	0x3e4fe033	0.20300369
36	0x3e4d821b	0.20069163
37	0x3d418b32	0.047251888
38	0x3e4c66f0	0.19961143
39	0x3cdf024d	0.027222777
40	0x3e74c405	0.239029
41	0x3e451d98	0.1924957
42	0x3f29ff4a	0.66405165
43	0x3d12f9a0	0.035882592
44	0x3caec9ac	0.021336399
45	0x3e4b2168	0.19836962
46	0x3cd48587	0.025942577
47	0x3e159eef	0.1461141
48	0x3e64b312	0.22333935
49	0x3d403a9f	0.046930905
50	0x3e667f22	0.22509435
51	0x3e65f9b4	0.22458535
52	0x3d69e8b9	0.057106707
53	0x3e4df14a	0.20111576
54	0x3f2a3310	0.66484165
55	0x3cffa689	0.03120734
56	0x3e83dab4	0.25752795
57	0x3e7605d7	0.24025665
58	0x3ec55b4e	0.38546222
59	0x3d9e25eb	0.07722076
60	0x3f291d40	0.66060257
61	0x3dc51b35	0.0962433
62	0x3e486473	0.19569568
63	0x3d2ade08	0.04171565

fc1.0.weight f4 [32, 1600]
0	0xbbca03d8	-0.006165009
1	0x3c24474e	0.010026766
2	0xbc34f9e7	-0.0110459095
3	0xbc7f4937	-0.015581421
4	0xbc6501b0	-0.013977453
5	0xbc92f7f8	-0.017940506
6	0xbb38e950	-0.0028215237
7	0xbc865fc6	-0.01640309
8	0xbcc9f315	-0.024652043
9	0x3c8d2cbd	0.017233247
10	0x3c9bb3a1	0.019006552
11	0xbcc07a97	-0.023495955
12	0x3af217e0	0.001847025
13	0xbb54b958	-0.0032459106
14	0x3ae4df50	0.0017461572
15	0x3c88f74d	0.016719485
16	0x3bf184ec	0.007370582
17	0x3b8d29f4	0.0043079797
18	0xbc05726a	-0.008144954
19	0x3c4cd832	0.012502717
20	0xbc522d5a	-0.0128281955
21	0x3cb5166d	0.02210542
22	0xbcb8075b	-0.022464445
23	0x3c9bbae1	0.01901001
24	0x3c65b1c2	0.014019432
25	0x3c79c666	0.015245056
26	0xbcb7940b	-0.02240946
27	0xbacbf4a0	-0.0015560575
28	0xbc9c591e	-0.019085463
29	0x3cb23b1f	0.021756707
30	0xbc86fe66	-0.016478729
31	0x3b7e2bc0	0.0038783401
32	0x3c957501	0.018244268
33	0x3c15804a	0.009124825
34	0x3bdb9504	0.0067011137
35	0x3cb26abb	0.021779409
36	0x3c9442d3	0.01809827
37	0x3c1709f6	0.0092186835
38	0x3c87470f	0.016513376
39	0xbc51939d	-0.012791541
40	0xbc35e72d	-0.01110248
41	0x3c46e90e	0.0121405255
42	0x3c7ddbea	0.015494326
43	0xbc3e879a	-0.01162901
44	0x3c78262e	0.0151458215
45	0x3cc9712f	0.024590103
46	0x3c2beb62	0.010493131
47	0xbcbb8e80	-0.022895098
48	0xbcbd9a07	-0.023144735
49	0x3bf3ed34	0.0074440483
50	0x3c704b3e	0.014666377
51	0x3cacd195	0.02109603
52	0x3ccab199	0.024742888
53	0xbb0f0840	-0.0021824986
54	0x3cb1c7f1	0.021701785
55	0x3c262902	0.010141613
56	0xbbd53d0c	-0.0065075215
57	0xbc762213	-0.015022772
58	0x3c9284a3	0.017885512
59	0xbca67e9a	-0.02032404
60	0xbc8a9d4a	-0.016920704
61	0xbc2a5920	-0.010397226
62	0x3ad232d0	0.0016036872
63	0xbafe7e80	-0.0019416362
64	0xbbbcfd14	-0.005767474
65	0x3c3c6de2	0.0115008075
66	0x3c7ca9d2	0.015421348
67	0xbc4331d0	-0.011913732
68	0x3c3c8a0a	0.01150752
69	0xbb83bb78	-0.0040201508
70	0xbc1e3ffd	-0.009658811
71	0xbc9ed640	-0.019389272
72	0xbc93101b	-0.017952016
73	0xbc86f87e	-0.016475912
74	0xbc83ce56	-0.0160896
75	0x3bb28bc8	0.005448792
76	0x3cb277f3	0.021785712
77	0x3c781be2	0.0151433665
78	0xbb6f7370	-0.0036537312
79	0x3ca385cd	0.019961262
80	0xbc2b0310	-0.010437742
81	0x3c4258a6	0.011861956
82	0xbb901540	-0.0043970644
83	0x3c93308d	0.017967487
84	0x3c38ad6a	0.011271814
85	0xbba0200c	-0.004886633
86	0x3c0858d2	0.008321958
87	0x3c3bca32	0.011461781
88	0x3cc002c7	0.023438824
89	0xbc6437a3	-0.01392928
90	0x3c2bdbc2	0.010489406
91	0xbc918933	-0.017765617
92	0xbcc30f08	-0.023810878
93	0x3c549a02	0.012976171
94	0x3c4994e6	0.012303567
95	0xbc8d05f0	-0.017214745
96	0xbb824de0	-0.0039765686
97	0x3b8214ac	0.0039697494
98	0xbbb8246c	-0.005619576
99	0x3bd5006c	0.0065002944
100	0x3cc18d49	0.02362694
101	0x3bd82ee4	0.0065973867
102	0xbc1c1560	-0.009526581
103	0x3cc9c737	0.024631126
104	0x3c463672	0.012097942
105	0xbca4f24d	-0.02013507
106	0x3c0c024a	0.008545468
107	0x3c9df989	0.019284027
108	0xbcc65b6a	-0.024213511
109	0x3c067b2e	0.008208079
110	0xbca100bd	-0.019653672
111	0xbb5bf040	-0.0033559948
112	0xbbf36320	-0.007427588
113	0x3c624faa	0.013812939
114	0x3c83a961	0.016071977
115	0xbcaf3ea5	-0.021392176
116	0xbc184c20	-0.009295493
117	0x3bec5e04	0.007213356
118	0xbbfa828c	-0.007644957
119	0xbc834506	-0.016024124
120	0x3c1b6ade	0.009485928
121	0x3c30a8be	0.010782419
122	0xbc3ae8dd	-0.011408058
123	0xbcb5986b	-0.022167405
124	0xbca1ad9a	-0.0197361
125	0x3bddee44	0.0067727882
126	0xba2dd400	-0.0006631017
127	0xbcc4c5c7	-0.024020089
128	0x3c88a3dd	0.016679699
129	0xbc5d21e3	-0.013496849
130	0x3c8fbfe1	0.01754755
131	0x3b174830	0.0023083799
132	0xbc88c79e	-0.016696747
133	0x3c225272	0.009907352
134	0x3cc108f7	0.023563845
135	0x3b9bcc68	0.0047545917
136	0xbc979f3d	-0.018508548
137	0xbb2f09a8	-0.0026708636
138	0x3cb15ae1	0.02164978
139	0x3c8f6a61	0.01750678
140	0xbcb6cf27	-0.022315575
141	0xba940eb0	-0.0011295881
142	0xbc1aade3	-0.009440872
143	0x3af816e0	0.0018927716
144	0xbb8b0b88	-0.004243318
145	0x3ca726dd	0.020404274
146	0x3c30e436	0.010796597
147	0x3b36a490	0.0027869083
148	0x3b39ca40	0.002834931
149	0xbcabc6bd	-0.02096879
150	0x3cb5c75f	0.022189794
151	0xbca1053a	-0.019655813
152	0x3cbffa07	0.023434652
153	0xbc6797ed	-0.014135343
154	0xbc9404c5	-0.01806868
155	0x3cc401cf	0.023926644
156	0xbc708d73	-0.014682162
157	0xbca93563	-0.02065534
158	0x3ca356f1	0.019938918
159	0xbc3622da	-0.011116708
160	0x3bc9d9d4	0.0061600003
161	0xbab99160	-0.0014157705
162	0xbccb8297	-0.024842544
163	0x3c9b5de5	0.01896567
164	0xbc9de7a2	-0.01927549
165	0xbc439c07	-0.011939055
166	0xbbbd95a0	-0.005785659
167	0xbb8e8418	-0.004349243
168	0xba086ea0	-0.00052044727
169	0x3c077b6e	0.008269174
170	0xbc4ec55a	-0.0126202945
171	0x3c77afb6	0.015117576
172	0xbc264950	-0.010149315
173	0xbc460de7	-0.0120882755
174	0xbc759953	-0.014990169
175	0x3c60f182	0.013729455
176	0x3cc57caf	0.024107305
177	0x3c776b9a	0.015101338
178	0xbb485450	-0.0030567832
179	0x3bf5438c	0.007484859
180	0x3caf171d	0.021373326
181	0xbb75d8f0	-0.0037513338
182	0x3ca97131	0.020683857
183	0x3abfc000	0.0014629364
184	0x3c5584aa	0.013032118
185	0xbc251f47	-0.010078258
186	0xbcac518e	-0.021034982
187	0x3c24bb4e	0.010054423
188	0xbc684b87	-0.014178163
189	0x3ca7f0e1	0.020500602
190	0xbc05d614	-0.008168716
191	0x3b70ddd0	0.0036753304
192	0xbc9dc740	-0.019260049
193	0x3cb1722d	0.021660889
194	0x3cc98343	0.024598723
195	0xbc72ede0	-0.014827222
196	0x3bedc544	0.007256182
197	0x3bee413c	0.00727096
198	0xbca077c6	-0.019588362
199	0xbc94f3f6	-0.018182736
200	0xbbdf8e54	-0.0068223868
201	0x39aad600	0.0003258437
202	0xbc7261ea	-0.014793852
203	0xbcab0dc3	-0.020880586
204	0x3cc577ab	0.024104914
205	0x3c3d2006	0.0115432795
206	0xbbd76394	-0.00657315
207	0xbbcdb934	-0.0062781814
208	0xbcac37ee	-0.021022763
209	0xbc34b9d7	-0.011030636
210	0xbca5f6bd	-0.020259256
211	0xbcb7e025	-0.022445748
212	0x3caef749	0.02135815
213	0x3cc19599	0.023630904
214	0xbae24500	-0.0017262995
215	0xbc44cc73	-0.012011635
216	0x3c1b590e	0.0094816815
217	0xbc35e45d	-0.011101809
218	0x3b475158	0.0030413475
219	0x3cb3eea9	0.021964388
220	0xbc84e95e	-0.01622456
221	0xbca213e2	-0.019784871
222	0x3c4c928e	0.012486113
223	0xbc9acade	-0.018895563
224	0xbc3e3a9d	-0.011610654
225	0xbb545f58	-0.0032405462
226	0x3c841c0f	0.01612666
227	0x3b892288	0.0041850246
228	0x3bc13e6c	0.005897334
229	0xbc5a177d	-0.013311264
230	0x3c1dfe0e	0.009643091
231	0x3af38500	0.0018579066
232	0xbc45ad13	-0.01206519
233	0x3cb67f21	0.022277417
234	0x3c906d15	0.01763014
235	0x3c33f542	0.010983767
236	0xbc816d1c	-0.015799098
237	0xbc6c9950	-0.014440849
238	0x3caae1f1	0.02085969
239	0x3ba52ee0	0.0050409883
240	0x3cbb138b	0.022836467
241	0x3c64240e	0.013924612
242	0x3b4a8d70	0.0030907057
243	0xbca9d793	-0.020732677
244	0xbcbad1da	-0.022805143
245	0x3c9d3e51	0.019194754
246	0x3a5b80c0	0.0008373372
247	0x3c8fba31	0.017544838
248	0xbcb439d0	-0.022000223
249	0x3c1d8572	0.009614335
250	0x3abaeed0	0.0014261845
251	0xbbb0c380	-0.005394399
252	0x3a9533a0	0.0011383183
253	0xbc92e62a	-0.017932016
254	0x3aa650d0	0.0012688879
255	0x3cc78099	0.024353312
