FAST 3D-CNN P-NET/model/IP/IP_proto_2d-5shotband20.pth (torch, 502961 bytes, 24 tensors)

layer1.0.weight f4 [64, 20, 3, 3]
000000 90 d3 b4 bb 38 98 56 3d 84 35 7f 3d a7 16 8f bd
       -0.0055183843 0.05239126 0.062306896 -0.069867425
000010 2e 74 b8 3c 46 79 61 3d 5e 6e e5 bc e5 4a 4e bd
       0.022516336 0.055047296 -0.028006729 -0.050364394
000020 ff 4f 90 bd 16 77 1f bd be 1c 9c 3c da e6 6b 3c
       -0.07046508 -0.03893193 0.019056674 0.014398301
000030 cb e8 af 3c 1a 2f de 3c cb f8 d9 bc ea e8 44 bd
       0.021473309 0.02712207 -0.026607892 -0.048073687
000040 b5 9d 75 3d 3e df 53 3c 16 7e 7d bd e5 36 24 bd
       0.059964854 0.012931643 -0.061887823 -0.040091414
000050 68 78 90 3d 30 07 69 bd 04 40 18 bc 65 81 20 3d
       0.07054216 -0.05689162 -0.009292606 0.0391859
000060 dc 19 5e bd da c7 ce 3c 98 47 87 3d b1 4e 51 bd
       -0.05422388 0.025241781 0.06605452 -0.051100437
000070 5d c2 5c 3c 6e d3 8c bc 9f 1f 7b 3d d8 ad 21 3d
       0.013474074 -0.017190661 0.061309453 0.03947243
000080 88 ea 2b 3d b2 e0 34 3d b5 5b 7e 3d d6 ad d3 bc
       0.041971713 0.0441596 0.062099177 -0.025839727
000090 b1 37 03 bc 0d 36 c8 3b 03 c4 8c bd 82 60 55 bd
       -0.008008883 0.006109959 -0.06873324 -0.05209399
0000a0 9e b1 04 3d 6b 8c 0d 3d 02 af a5 bc 42 48 3b 3d
       0.03239595 0.03455774 -0.020225052 0.045723207
0000b0 c6 83 63 bd 46 4f 3f bd e5 b3 4f 3d 65 80 b1 bd
       -0.05554559 -0.04670646 0.05070867 -0.086670674
0000c0 87 0a 8f bb 70 95 ca 3c 38 cc 11 3d 6d 7c 1c bc
       -0.0043652686 0.02472946 0.03559515 -0.00955115
0000d0 fe 62 28 3c f3 05 3b 3d 2b bd 34 3d 4e 6b a3 3c
       0.010277508 0.04565997 0.044125717 0.019948628
0000e0 29 fb 5e 3d 29 29 9b bc 0f 60 93 bd 2c 64 d4 bc
       0.054438744 -0.018940525 -0.07196056 -0.025926672
0000f0 66 1a 84 3d a1 8c 2b 3c 88 24 c4 bb 9a 31 f5 bc
       0.064503476 0.01047054 -0.0059858 -0.029930878
000100 58 63 71 3d 4f ff 05 bd 0c 96 00 3d df 1e 4e bc
       0.058932632 -0.032714184 0.031393096 -0.012580602
000110 5b 20 c9 3b cc b4 1c bd e3 d2 74 3d 26 ed cd 3c
       0.0061378903 -0.03825836 0.05977143 0.025137495
000120 e1 ec 99 3d 26 bc 55 3d 76 d0 5e bd f9 0a c1 3b
       0.07515884 0.052181385 -0.054398023 0.0058912006
000130 ee 6e 2e 3d 28 11 93 bd c1 cd 68 3d 53 31 91 bd
       0.04258626 -0.07181007 0.056836847 -0.07089486
000140 68 d0 6e 3d b3 26 64 3c de 5a 5b bd 1a 6c 64 bd
       0.05830422 0.013925242 -0.053553455 -0.055767156
000150 98 29 89 bd 76 28 cb 3b fe 82 44 3d 91 51 65 3d
       -0.066973865 0.0061998917 0.047976486 0.05598599
000160 77 3f 23 3d 4c d3 42 3d 7b ed 0b 3d 1a ad aa bc
       0.039855447 0.04756479 0.034162026 -0.020834494
000170 96 d4 d9 3c 1d f2 4b 3c d2 dd fc bb f3 b5 87 3c
       0.026590627 0.012447861 -0.0077168727 0.016566252
000180 1a cc ba bc 6b 25 20 3d e9 1f 64 3d 89 d5 83 3c
       -0.022802401 0.039098185 0.055694494 0.016093032
000190 73 04 21 bd 2a 72 3c bd 6f 7d d2 3a f7 61 88 bd
       -0.039310884 -0.046007313 0.0016059111 -0.0665931
0001a0 f5 f8 0f 3c 97 eb c0 3c 02 9a 30 bd be b6 91 bd
       0.008787383 0.023549838 -0.043115623 -0.071149334
0001b0 9e 9b 9a 3c 0a 46 74 3d d3 e6 8e 3d 8a 87 4c bd
       0.018873032 0.059637107 0.0697762 -0.049933948
0001c0 5e f4 76 3d 67 a2 e3 39 d5 99 fe bb 16 b2 7d 3d
       0.06029164 0.00043417813 -0.007769803 0.061937414
0001d0 25 ce 88 3d 11 27 6d bd 27 90 b8 bc 4f 09 55 bd
       0.06679944 -0.057898585 -0.022529675 -0.05201083
0001e0 45 79 42 bc 01 c9 d0 bb 37 35 98 bd 69 f3 4e bd
       -0.011869733 -0.006371618 -0.07432025 -0.050525103
0001f0 b7 7a 7a bc 2a cb ab bc 98 08 8e 3c d4 96 5e bd
       -0.015288047 -0.0209709 0.017338082 -0.05434306
000200 9a 50 27 3d dc 18 66 3d 87 7b 8d bd 96 fa db bc
       0.040848352 0.05617605 -0.069083266 -0.026852887
000210 ab eb 13 3c e9 34 b8 3c d3 2a a9 bc f7 e8 36 bc
       0.009028356 0.022486167 -0.020650303 -0.011163942
000220 fd 70 1d bd 7b 33 19 3d 13 a4 94 bd c6 bc 68 3d
       -0.038437832 0.03740261 -0.07257857 0.056820653
000230 cf 1e 9b 3c 01 48 69 3d 13 03 3f bd 2e 15 3b bc
       0.01893559 0.056953434 -0.04663379 -0.011418624
000240 71 b0 5d bd a4 27 3f 3d 06 34 52 bd d8 eb 88 bd
       -0.054123346 0.046668664 -0.051319145 -0.066856086
000250 48 72 8d 3c 12 55 2e 3c 5c f7 8a 3c 25 16 0f bd
       0.017266408 0.0106403995 0.016963653 -0.034933228
000260 39 4f 33 bd 23 d9 ba 3c c4 e6 95 3d ea 3d 45 3d
       -0.043776724 0.022808617 0.07319406 0.04815475
000270 34 bb 87 3d eb f2 b4 ba 7f de 92 3c 43 d9 28 3c
       0.06627503 -0.0013805305 0.01792836 0.0103057055
000280 f5 80 21 bd f5 81 26 3d ca 9e 5b 3c 13 11 3b 3d
       -0.039429624 0.04065128 0.0134045575 0.04567058
000290 b9 5e 51 bd dc ad d5 bc 28 22 eb bb 61 a1 d8 3c
       -0.051115725 -0.02608388 -0.0071757026 0.026444139
0002a0 f0 3a f7 3c d1 b3 86 bd 7a cd 9a 3c 2b 7a 4e 3c
       0.03017947 -0.06577266 0.018896807 0.012602369
0002b0 69 ae 07 3d fd 2f 4f bd 2e cd 5c 3c b0 40 50 3d
       0.033125315 -0.050582875 0.013476653 0.05084294
0002c0 55 b0 24 3c 99 50 e2 bc 63 f8 95 bd e5 3c 35 bd
       0.010051806 -0.027626323 -0.07322767 -0.044247527
0002d0 70 68 9a 3d 27 1a 8c bc db 71 f3 ba ba 64 67 3d
       0.07539451 -0.017102314 -0.001857336 0.056492545
0002e0 87 c5 5a bd 5d 25 69 3d 08 94 73 3d fd 2f 1f bc
       -0.053411033 0.056920398 0.059467345 -0.009716031
0002f0 04 6a 80 3c f4 c7 10 3b f0 fa 75 3d b9 d9 ab 3c
       0.015675552 0.0022091838 0.060053766 0.020977842
000300 7d 15 7e bd 04 63 ba 3c 78 fb 7b 3d eb 94 69 b9
       -0.06203221 0.022752292 0.061519116 -0.00022276088
000310 4e 06 e2 bc 0d bb ee ba 52 32 eb bc 28 c2 6e bd
       -0.027590897 -0.0018213704 -0.028710518 -0.05829063
000320 8c 38 4b 3d 6d b9 0f 3d cb eb 22 3b 76 11 98 3d
       0.049614474 0.035088945 0.0024859782 0.074252054
000330 59 fc 7a bd 46 0e 67 bd e4 2e 84 3d 8d db 99 3c
       -0.061275814 -0.056410097 0.06454256 0.018781448
000340 57 79 57 3d e9 90 05 3d e4 61 54 3d 98 e3 fd bc
       0.052605953 0.0326089 0.05185117 -0.030992314
000350 bd 07 0f 3d 76 cd 64 3d 37 c7 43 3a 0f 43 07 bd
       0.03491949 0.055860005 0.0007468345 -0.033022936
000360 0e 62 50 bd 1a 7b 79 bd ad c8 64 bc 20 d2 b0 3c
       -0.050874762 -0.060908414 -0.01396386 0.02158457
000370 c0 a9 4f 3c ad bd 9c 3c c1 d0 3f bc b7 3a 03 bd
       0.012674749 0.019133413 -0.011707486 -0.032038417
000380 7b 73 c4 bc d0 fe 77 3d 87 5c 2e 3d d9 ce 62 3d
       -0.023980847 0.060545743 0.04256871 0.055373047
000390 d9 19 81 3b 62 3d c9 bc e8 64 19 bd f1 0c 71 3d
       0.003939849 -0.024565402 -0.037449747 0.058850233
0003a0 8e 86 96 3d f0 d2 1a bd 83 6d 2e 3c 5e 1f 14 bc
       0.07349883 -0.037798822 0.010646227 -0.009040682
0003b0 4d f9 7d bd e4 4b 75 bd a9 5b c4 3c 9b 53 36 bd
       -0.06200533 -0.059886828 0.023969488 -0.044513326
0003c0 30 c0 bf 3c 0e d6 49 3d 6a ae 3f 3d a8 ea 1d 3d
       0.023407072 0.049276404 0.046797194 0.038553864
0003d0 f9 65 7d bd 66 6a 5a bc c8 69 82 bd 86 22 c5 3c
       -0.061864827 -0.013331031 -0.063678324 0.024064314
0003e0 26 8e 59 bd 42 55 4e bc 64 6b 8f 3c 34 65 2e bc
       -0.05311408 -0.012593569 0.017507263 -0.010644246
0003f0 76 96 53 3c 1b ff 3e 3c 12 be 0f bd 2c 01 7f bd
       0.012914291 0.011657502 -0.035093375 -0.062256977

layer1.0.bias f4 [64]
000000 00 e9 ec 3c 0f 2c 77 3d 65 c9 48 bd 5b b3 3e bd
       0.028919697 0.060344752 -0.04902019 -0.046557765
000010 85 cd 59 3d d9 c6 35 bd 56 a3 4c 3d 92 9a a2 bb
       0.053174514 -0.04437909 0.049960457 -0.004962274
000020 95 b9 73 3d b8 d0 39 3d 99 ba 06 bd ee d0 80 3d
       0.059503157 0.045365065 -0.032892797 0.0628985
000030 6a ef 72 3d ff 43 11 3d 4a c3 1a 3d f2 fa 95 bc
       0.059310354 0.035465237 0.0377839 -0.018308137
000040 a9 53 d6 bc f8 60 92 3d 86 d9 df 3c dd 3b b1 bc
       -0.02616294 0.071474016 0.027325403 -0.02163499
000050 8d 32 b2 bc 0a 5a 0c 3d b3 69 82 3d 5b db 71 3d
       -0.02175262 0.034265555 0.06367817 0.059047084
000060 f7 6d 86 bc 67 83 8f 3d da 00 83 bd 5d dd be bc
       -0.016409857 0.07007485 -0.06396647 -0.023298914
000070 60 6e 23 bd 7e 3f 8d 3c 0c 9c 36 bc ec e1 86 3d
       -0.039900184 0.01724219 -0.011145603 0.0658606
000080 be 77 89 bd cb 73 43 3d ea a8 1e bb 45 14 04 b8
       -0.06712292 0.04771785 -0.0024209567 -3.149013e-05
000090 1a d8 2d bc e8 89 3e 3d dd 37 ae 3b 35 75 52 bd
       -0.010610605 0.046518236 0.005316718 -0.05138131
0000a0 a0 58 1e bd 3a b4 89 3d 8d 70 ec bc 5c 2a 14 3d
       -0.038658738 0.067238286 -0.028862262 0.03617321
0000b0 f3 f8 c7 3c f6 98 93 3d a4 e1 48 bd 9e 08 3a bd
       0.0244107 0.07206909 -0.049043313 -0.045418374
0000c0 41 e3 1d bc 24 ab 94 3d 3e 34 8f 3d 68 3f 72 3d
       -0.009636701 0.07259205 0.06992386 0.0591425
0000d0 45 21 87 3c 1c 9a df bb 3c e6 ef 3c 4b e7 10 3d
       0.016495356 -0.006823791 0.029284589 0.03537683
0000e0 3a a0 16 3d e3 cb f4 bc 50 af a3 3c f9 49 94 bd
       0.036773898 -0.029882377 0.019981056 -0.07240672
0000f0 34 7d 08 3d ec 8f 8b 3d 40 38 8c 3c a1 33 ce bb
       0.033322528 0.0681456 0.017116666 -0.0062927757

layer1.1.weight f4 [64]
000000 4a fa 7e 3f 55 fa 7e 3f 4a d3 81 3f 7e ae 80 3f
       0.9960066 0.99600726 1.0142605 1.0053251
000010 72 df 7e 3f 6d ad 7e 3f fa 1f 7f 3f ce 6c 80 3f
       0.995597 0.99483377 0.9965817 1.0033205
000020 5f e0 80 3f 5c 84 80 3f c4 90 81 3f 30 0b 7f 3f
       1.0068473 1.0040393 1.0122304 0.99626446
000030 a8 b0 7f 3f 23 1a 7e 3f 24 75 7d 3f 34 82 81 3f
       0.9987893 0.9925863 0.9900687 1.011786
000040 5e f7 7b 3f 6e fa 7c 3f 3d bf 83 3f 9f ed 7f 3f
       0.9842433 0.98819625 1.0292736 0.99971956
000050 a0 da 7f 3f 20 6f 80 3f 49 63 7e 3f 1b 3d 81 3f
       0.9994297 1.0033913 0.9937025 1.0096773
000060 2d 0e 81 3f 2d ad 7d 3f 25 8a 7e 3f bc 7c 82 3f
       1.0082451 0.9909237 0.9942954 1.0194316
000070 21 64 80 3f de ca 81 3f 41 a3 81 3f 68 ea 7d 3f
       1.0030557 1.0140035 1.0127946 0.991858
000080 83 0f 80 3f 00 77 7d 3f 64 b4 82 3f 25 93 7d 3f
       1.0004734 0.99009705 1.0211301 0.9905265
000090 ba ff 81 3f ff d5 7c 3f 6d 67 81 3f 69 98 80 3f
       1.0156167 0.9876403 1.0109688 1.0046512
0000a0 bb 9f 80 3f b2 7f 81 3f 13 c2 7e 3f 43 14 7c 3f
       1.0048746 1.0117095 0.99514884 0.98468417
0000b0 29 e0 7e 3f 51 8e 80 3f 7d f5 80 3f 8d b8 81 3f
       0.9956079 1.0043432 1.0074917 1.0134445
0000c0 e4 d9 7d 3f 09 2f 7d 3f 42 a5 81 3f 22 0a 80 3f
       0.991606 0.98899895 1.0128558 1.0003092
0000d0 22 58 7e 3f 22 e7 80 3f 6a 69 7f 3f 10 a6 7e 3f
       0.9935323 1.0070536 0.99770224 0.9947214
0000e0 b6 db 80 3f e6 fe 7d 3f 9c 98 7f 3f be 53 7c 3f
       1.006705 0.9921707 0.9984224 0.9856528
0000f0 e5 01 80 3f 6d 35 80 3f e7 47 80 3f ce d5 83 3f
       1.0000578 1.0016304 1.0021943 1.0299623

layer1.1.bias f4 [64]
000000 34 1f 1e bc 9c c1 b8 bc dc 5a e1 bb b1 a0 aa bc
       -0.009650994 -0.022553258 -0.0068772864 -0.020828577
000010 fb 3e 83 bc ff f4 cd bc 60 46 67 39 bb ac 64 bc
       -0.016021242 -0.025141237 0.00022056093 -0.013957198
000020 10 97 f3 bb f7 99 f1 bb 25 0f 1f 3c 68 a9 1d 3c
       -0.0074337795 -0.0073730904 0.009708201 0.009622909
000030 9a d3 03 3c 97 32 36 bc 31 77 3d bc 49 86 0c bc
       0.008046055 -0.01112046 -0.011564062 -0.008576938
000040 6c 79 32 3b 3f fc 4f bb 3e cf 83 bc 1e 18 d0 bc
       0.0027233018 -0.0031736044 -0.016090032 -0.025402125
000050 d2 aa cc b8 9a 4b 4b 3c 89 1a be bb d4 44 f2 3b
       -9.759296e-05 0.012408162 -0.005801503 0.007393459
000060 e7 9d b7 bc 47 f3 76 bc b6 5a 6c 3c cc 0a f2 bb
       -0.02241416 -0.01507265 0.014425924 -0.007386541
000070 b7 fa b5 3b 31 17 1c 3b 52 f7 0d 3c d1 69 44 bb
       0.005553569 0.0023817534 0.008664923 -0.0029970298
000080 4d ca c7 bb ae 44 45 bd 1d c0 45 bc 1a 1a ee bb
       -0.006097114 -0.0481612 -0.012069729 -0.007266295
000090 eb 79 c8 ba bb 60 23 bc 7e 94 2d bc 0c c2 6e bc
       -0.0015295123 -0.009971793 -0.010594485 -0.014572632
0000a0 da b4 0e ba 22 4c 13 bc eb 22 8a bb 42 0c 8b bc
       -0.0005443819 -0.008990319 -0.0042155883 -0.016973618
0000b0 a7 ad 5e 3c 4c bd 2d 3c 29 59 01 bc b2 e7 40 3b
       0.013591207 0.010604214 -0.007894793 0.0029434976
0000c0 0b 64 e3 bb 92 54 d9 39 a5 37 00 3b 6d e1 3c bc
       -0.0069394163 0.00041452475 0.0019564417 -0.011528355
0000d0 44 d9 81 3b a9 48 12 bc c4 e6 df 3b b4 fb 2e 3b
       0.0039626677 -0.008928456 0.0068329293 0.002670032
0000e0 ee a7 fc bc 8b 68 2f bb 7c 91 4d bb fb 89 41 bb
       -0.030841794 -0.0026765193 -0.0031367233 -0.0029531706
0000f0 e2 f1 14 ba b1 6d 64 bc af 64 96 bc a6 e9 c6 ba
       -0.00056817953 -0.013942168 -0.018358557 -0.0015175834

layer1.1.running_mean f4 [64]
000000 13 a9 82 c1 a1 42 94 44 af a6 97 42 92 a3 b4 c3
       -16.332556 1186.0822 75.825554 -361.2779
000010 a8 b3 5c 44 53 b4 69 c3 ef e0 9c c4 00 df ee 42
       882.8071 -233.70439 -1255.0292 119.43555
000020 21 61 4d c3 83 7e a1 c3 7c c7 8c 44 35 71 51 44
       -205.37941 -322.98837 1126.2339 837.76886
000030 e1 dd 98 c4 66 f5 37 44 e3 7c 08 c5 e3 bd 49 45
       -1222.9337 735.83435 -2183.8054 3227.868
000040 fb 3a bf c4 e7 1c a5 c4 4d 30 27 c3 c2 9e 33 c3
       -1529.8431 -1320.9032 -167.18867 -179.62015
000050 83 ad 3b 45 1c be 86 c3 d8 6e a6 c4 c1 11 ba c4
       3002.8445 -269.48523 -1331.4639 -1488.5548
000060 01 6c c6 44 c6 dc 6e c4 bd 59 fa 43 75 b9 f0 c3
       1587.3751 -955.4496 500.70108 -481.44888
000070 5b b2 f1 42 d2 22 d2 43 9d 90 a5 c2 fa e0 03 c5
       120.84835 420.27203 -82.78245 -2110.061
000080 22 4c 69 c4 84 14 b5 44 93 1e d1 c2 80 58 d5 c4
       -933.1896 1448.6411 -104.559715 -1706.7656
000090 c9 2a a1 44 19 bb 6c c4 cd 72 e8 42 82 df 23 c4
       1289.337 -946.9234 116.22422 -655.4923
0000a0 b8 31 6f c4 f5 9e 6e c3 27 be 0e c5 60 fb 9e 44
       -956.77686 -238.62093 -2283.8845 1271.8555
0000b0 77 ce c2 c2 b4 8f 50 44 11 a9 ec c3 6e 18 43 c3
       -97.40325 834.24536 -473.32083 -195.09543
0000c0 91 da 02 45 e2 2f a3 c4 e4 1a c9 43 81 9e 62 c4
       2093.6604 -1305.4963 402.21008 -906.4766
0000d0 67 5c e7 c4 6a f0 ad 44 74 94 a8 43 21 d9 1c c5
       -1850.8876 1391.513 337.1598 -2509.5706
0000e0 78 bf 2b 45 a2 1a fb c4 2f 45 36 c4 93 29 ba 43
       2747.9668 -2008.8323 -729.081 372.3248
0000f0 f3 50 88 c3 25 79 98 c3 09 cb d6 43 2d a1 c6 43
       -272.63242 -304.94644 429.5862 397.2592

layer1.1.running_var f4 [64]
000000 72 62 3b 48 16 54 93 48 46 35 c2 48 e7 13 e6 47
       191881.78 301728.7 397738.2 117799.805
000010 b1 ec 17 49 c0 6f b9 48 f7 98 b4 49 8c 8e 17 48
       622283.06 379774.0 1.4794549e+06 155194.19
000020 09 a2 4b 48 2a b3 56 48 e6 f7 f5 47 7a ab 27 48
       208520.14 219852.66 125935.8 171693.9
000030 75 43 d7 48 ba 88 45 49 20 8f 18 49 8f d9 10 49
       440859.66 809099.6 624882.0 593304.94
000040 5f c4 e4 48 65 0d 45 49 bc 81 e3 48 a9 e0 fd 48
       468514.97 807126.3 465933.88 519941.28
000050 86 04 1b 49 1c d3 33 48 c1 bf b3 48 18 aa 05 49
       634952.4 184140.44 368126.03 547489.5
000060 42 b0 9c 48 72 2e 06 49 ae 75 ea 48 79 bb c8 48
       320898.06 549607.1 480173.44 411099.78
000070 7c 0d 2c 48 10 8d 10 49 11 58 a9 47 b5 ab e9 48
       176181.94 592081.0 86704.13 478557.66
000080 34 42 b3 48 c8 27 61 48 7c 21 1a 48 f0 d9 ca 48
       367121.62 230559.12 157829.94 415439.5
000090 62 37 c5 49 23 cb 50 49 a7 0f aa 47 4f d0 33 49
       1.6155962e+06 855218.2 87071.305 736516.94
0000a0 e5 9b 0b 49 33 fb 06 48 f4 37 35 49 fe 0e 08 48
       571838.3 138220.8 742271.25 139323.97
0000b0 91 43 51 49 55 9a 8d 47 1d 7b 86 47 62 5e a3 48
       857145.06 72500.664 68854.23 334579.06
0000c0 64 f0 b3 48 77 f4 41 49 22 84 b8 47 2a ba da 48
       368515.12 794439.44 94472.266 447953.3
0000d0 17 a2 a8 49 e5 00 3a 48 db 25 2a 48 de fe 3d 49
       1.3814429e+06 190467.58 174231.42 778221.9
0000e0 e0 20 a3 48 e1 a3 47 49 03 54 95 48 3c 05 87 48
       334087.0 817726.06 305824.1 276521.88
0000f0 e6 95 43 48 c4 aa 0e 48 db a2 3a 49 43 99 b9 48
       200279.6 146091.06 764461.7 380106.1

layer2.0.weight f4 [64, 64, 3, 3]
000000 cb ac ae 3c d7 a4 80 3c 23 78 84 bb 24 46 20 bd
       0.021322628 0.015703602 -0.0040426417 -0.03912939
000010 4a bc bb 3c b3 21 72 3c 37 de 3c bc d1 b9 f6 ba
       0.022916932 0.014778542 -0.0115275895 -0.0018823688
000020 e8 6f 47 bd df 6c ea bb 78 25 94 3c d3 bc 40 3d
       -0.048690706 -0.0071540917 0.018084273 0.047055077
000030 7d c7 49 3c e1 04 ad 3c 0b 29 7a 3c ae ed f8 bb
       0.012315628 0.02112049 0.0152685745 -0.007596693
000040 f4 0d 11 3d 75 c8 f4 39 05 f4 f3 3b c4 9c 86 ba
       0.035413697 0.0004668866 0.007444861 -0.0010270108
000050 83 c6 41 3c 9d 36 65 bb 29 63 91 3c f9 76 45 3d
       0.011827114 -0.003497518 0.017747479 0.048209164
000060 f8 95 da 3c 15 23 38 bc 4e 82 36 3d 4e ae 9b bc
       0.026682839 -0.011238833 0.044557862 -0.019004013
000070 38 0c e8 bc 6e a5 48 3c 8d a5 41 3d 7e 73 f9 3c
       -0.028326139 0.012246473 0.047277022 0.030450579
000080 63 d4 71 3b 0b 2e 2b 3d 8a 0b 9b bc 86 96 9c 3c
       0.0036900274 0.041791957 -0.0189264 0.019114744
000090 57 77 18 bc 53 f8 c0 3c 0e e1 68 39 34 87 b1 bb
       -0.009305797 0.02355591 0.00022209084 -0.005417729
0000a0 f9 db fd bc e2 64 a3 bc 23 81 2f bd 41 c9 b3 3c
       -0.03098868 -0.019945566 -0.042847764 0.021946551
0000b0 32 52 fe 3c 9b 0b c9 3c 3e 72 0d bc f8 b5 c7 3c
       0.031045053 0.024541667 -0.0086331945 0.024378762
0000c0 0c 56 83 3c fb 73 11 3c 70 02 a6 3c c5 f8 06 bd
       0.016032241 0.00887775 0.020264834 -0.03295209
0000d0 33 85 24 3d 04 be 31 3d 42 dd c3 3c f7 41 31 bd
       0.04016609 0.043394104 0.023909215 -0.0432758
0000e0 d6 80 c7 bc 1d b9 a6 3c 05 69 77 bb 13 d8 2a bd
       -0.024353426 0.02035194 -0.0037751806 -0.04170997
0000f0 d4 15 5b 3c 46 32 4b bd d0 9b 92 3c 12 61 6b bc
       0.013371903 -0.04960849 0.017896563 -0.014366405
000100 91 ce b2 3c bb ff 84 bc fc bb 8d bc 42 09 27 bd
       0.021827014 -0.016235223 -0.017301552 -0.040780313
000110 46 48 c4 3c 36 d3 d6 bc f8 1f d2 bc 91 26 39 bc
       0.023960244 -0.02622376 -0.02565001 -0.011300699
000120 66 6a c2 3b 9a 5c 37 bc eb d5 57 3a 16 ca 6d 3d
       0.005933094 -0.0111915115 0.00082334754 0.058054052
000130 85 93 54 3c c7 f6 7c bc f0 a4 62 3d 69 19 ca 3c
       0.0129746245 -0.015439696 0.055333078 0.02467032
000140 04 16 96 3b 68 92 d1 3c 43 62 1e bd 63 18 1d 3d
       0.004580261 0.025582507 -0.03866793 0.038353335
000150 7b e5 7a bc e6 87 84 3c cb e1 9a bd 5c 27 78 bc
       -0.0153135015 0.016178083 -0.07562598 -0.015146103
000160 92 91 9c bc 84 ef c4 3c c4 df 05 3d 6f 1f 4f bd
       -0.019112382 0.024039991 0.032684103 -0.050567087
000170 56 9d a0 bb 90 09 d4 3c b6 07 d5 bb b6 35 24 bd
       -0.0049015684 0.025883466 -0.0065011634 -0.040090285
000180 32 e3 ce 3c 2e a2 67 bc 92 88 16 3d ab 49 b6 bc
       0.02525482 -0.014137788 0.036751337 -0.022251924
000190 36 ba 22 3c 99 ed 1c bd 3c 51 20 bd 84 2a 03 3d
       0.009932091 -0.03831253 -0.03913997 0.032022968
0001a0 b2 d9 7d 3c 81 23 49 bb ef 2f 95 3c dd 7f 0e bd
       0.015493797 -0.0030691328 0.018211333 -0.03478991
0001b0 9d ab e1 bc f8 1a c8 3c cd 63 f2 3b 6a 25 71 3c
       -0.027547652 0.024426922 0.007397151 0.014718393
0001c0 97 87 bb bc da 6d 28 bd b6 e6 b3 bb 8e 79 03 3d
       -0.022891803 -0.041120388 -0.0054901494 0.032098345
0001d0 b0 0f 89 3c 92 d3 a8 3c 2a c8 0e 3d 2c b4 82 39
       0.016731113 0.020608697 0.03485886 0.0002492977
0001e0 13 5c f3 3b bd 5d 67 3d 62 17 d3 3c a3 4a 5d bc
       0.0074267476 0.05648588 0.025767986 -0.013506564
0001f0 34 46 1d 3c 97 af bf bc b2 d2 63 3c ba 93 c4 3c
       0.009599257 -0.023399157 0.013905214 0.023996223
000200 01 44 85 bc ee 4b 7e 3c 26 e6 12 bd 36 18 78 bb
       -0.016267778 0.015521033 -0.035864018 -0.0037856228
000210 dc 62 0b bd 10 2d db bc ab 34 dc 3c e9 32 bb 3c
       -0.034029827 -0.026754886 0.026880583 0.022851424
000220 79 62 35 3d 21 5f 61 3b 9d 37 f5 bc 9d cf a6 3c
       0.044283364 0.0034388977 -0.029933745 0.02036267
000230 35 ee 6f bc cf 3f 86 bb bb c9 12 bd 07 ea 0e 3c
       -0.014644195 -0.004096962 -0.035836916 0.008722789
000240 e0 81 21 bc 8f 6c 02 3c 87 12 4a 3b 6e e4 96 3b
       -0.009857625 0.007960453 0.0030833797 0.0046048677
000250 bd 6f ab bb fa 37 ab 3a d5 2d 53 3c 41 b3 04 bd
       -0.005231826 0.0013062947 0.012889345 -0.032397512
000260 6e f3 1d bd 03 23 15 bc 42 41 bf bc d7 b2 2a 3d
       -0.03856223 -0.009102586 -0.023346547 0.04167446
000270 68 d8 e1 3c c4 c8 09 bd 3b 1c ef bc 9e a2 0e 3c
       0.02756901 -0.03363873 -0.029188266 0.008705763
000280 0c c3 42 3b c0 37 df bc 82 cb 21 3d be 61 5e 3d
       0.0029718308 -0.027248263 0.03950072 0.054292433
000290 c5 ae 4f 3d cb a3 15 3d cb 0a 01 3d f2 b9 29 3b
       0.050703783 0.03653316 0.031504434 0.0025898186
0002a0 c9 9b cf 3c 04 fd c5 bb 63 91 99 3c e6 4f de bc
       0.025342839 -0.0060421247 0.018746084 -0.027137708
0002b0 9d 31 17 bd 06 f9 a2 3c fd cd 8b bb c8 7b 47 bc
       -0.03691255 0.019894134 -0.004266499 -0.012175508
0002c0 76 85 c9 3c 3a 82 ce 3c 2b b3 4b 3c 3a 96 1a bd
       0.024599772 0.025208581 0.012432854 -0.037740923
0002d0 be d1 4b 3c 47 33 bc bb 05 9e 26 3d 5d 05 e5 bc
       0.012440143 -0.0057434174 0.040678043 -0.027956659
0002e0 fe 5c 41 bc df 7f 17 3d e7 3e 44 bd 92 db a2 3c
       -0.011801956 0.03698718 -0.04791155 0.01988009
0002f0 e7 a6 bf bc 68 81 a1 bb 10 b4 27 bd 3c 63 c9 bc
       -0.023395015 -0.0049287565 -0.040943205 -0.024583451
000300 68 28 dc bc 36 d6 50 bd ea 8b b2 ba 58 a2 16 bc
       -0.026874736 -0.050985537 -0.001362202 -0.009193979
000310 f2 94 76 bd 15 dc 19 bd ad 17 35 3c 5f e1 8d 3c
       -0.06020064 -0.037563402 0.011053008 0.01731938
000320 e9 cc 19 bd be 1f 97 bc 05 19 d4 3b c8 07 d2 bb
       -0.037548933 -0.018447753 0.006472709 -0.006409619
000330 4a 75 3e 3c fa d9 2e bd ee e0 6f 3c b0 00 bb 3c
       0.011624644 -0.042688347 0.01464103 0.022827476
000340 90 26 1f 3d ac b2 1e bd d0 65 a7 3c 57 d1 17 bc
       0.038855135 -0.038744614 0.02043429 -0.009266219
000350 2f 59 12 3d 53 a1 7d bd 3f 01 2d bc c9 1e b6 3b
       0.035729583 -0.06192143 -0.010559379 0.005557869
000360 c8 36 56 bc d5 b7 1f bd 9b ae 92 3c 7f 6f 72 3c
       -0.013074584 -0.038993675 0.017905524 0.014797091
000370 ae e9 ca bc e7 23 cb bc 2c bf 7b 3b 26 40 55 3b
       -0.02476963 -0.024797393 0.0038413508 0.0032539456
000380 c1 8a 64 bb 4f b1 b8 3c 8c ca 82 bc c3 4c 0b bd
       -0.0034872743 0.022545485 -0.015965723 -0.034008753
000390 29 a1 16 3d 52 41 2d bd 65 f9 de bc 30 e2 d9 3b
       0.036774788 -0.042298622 -0.02721853 0.006649278
0003a0 8f 9f 39 bd aa 03 e3 3c f4 91 0f 3d d5 6f 81 3c
       -0.045318183 0.027711708 0.0350513 0.015800396
0003b0 93 5d f2 ba d8 32 d2 bc 6a 8b 88 3c f9 df 52 bb
       -0.0018491022 -0.02565901 0.01666804 -0.0032176955
0003c0 4a 43 2c bd ed a2 26 3c 7b 3d 3e bd e0 bb 1d 3c
       -0.04205636 0.0101706805 -0.04644535 0.009627312
0003d0 b9 37 d8 3c e5 8e d1 ba fb 08 03 bd f8 dc a3 3b
       0.026393758 -0.001598802 -0.031990986 0.0050007068
0003e0 71 d8 2e 3c 5c c0 c7 bb c3 16 24 bd 0c 1b 4c bd
       0.010671721 -0.006095929 -0.04006077 -0.04983048
0003f0 4a cf 44 3d eb 90 09 3d 16 c1 3e 3c 14 06 bb 3c
       0.04804925 0.03358547 0.011642715 0.022830047

layer2.0.bias f4 [64]
000000 fe 14 eb 3c e3 3b 4f bc a8 d7 00 bd a2 5a a2 3c
       0.028696533 -0.012648555 -0.031455666 0.019818608
000010 f6 39 0e 3d 31 6f a1 3a b9 01 c8 bb a1 d7 ec bc
       0.034723245 0.0012316463 -0.006103721 -0.028911414
000020 56 a2 93 ba c9 c6 2a bc 15 ef 29 bd 3f a1 7f 3c
       -0.001126359 -0.010423371 -0.041487772 0.015602409
000030 ed 35 99 bb ef 06 6a 3c 7b 8a 2b bd b9 ad 0b b9
       -0.004675618 0.01428388 -0.041880112 -0.0001332079
000040 a5 6a fe 3c dc 20 ec 3b 94 d7 bc 3a 38 ee f1 3c
       0.031056711 0.0072060656 0.0014407509 0.029532537
000050 16 f0 1e 3d a1 8b 6c 3c 74 52 85 bc 6b bf fc bc
       0.038803183 0.014437587 -0.016274668 -0.030852994
000060 91 4c 08 3d 38 3c 6c 3b ae d9 ad bc 7d fa 30 3d
       0.033276144 0.0036046635 -0.021221962 0.043207634
000070 33 fc f4 3c 23 a0 9f 3c 52 b8 91 bc d3 5d 58 bc
       0.029905414 0.019485539 -0.017788086 -0.013205963
000080 9e 84 03 bc c4 9a aa bc eb 62 03 3c 67 74 21 bd
       -0.008027224 -0.020825751 0.008019189 -0.03941765
000090 93 e6 63 bc ab 1f bf 3c de 85 b1 3b 4f 63 df 3b
       -0.013909954 0.02333053 0.0054175695 0.0068172584
0000a0 09 6e ce bb 53 f7 c3 3c 00 f0 9c 3c fb e4 35 3b
       -0.0062997383 0.023921644 0.01915741 0.0027754891
0000b0 7f 41 d3 bc b3 24 18 bd a6 cf c7 bc af 21 7d bc
       -0.025788067 -0.037144374 -0.024391007 -0.015449925
0000c0 35 db 90 3b b7 97 bf bc 37 60 a4 bc ea f9 01 3d
       0.0044206628 -0.023387773 -0.02006541 0.031732477
0000d0 07 be 41 bc a2 00 da 3b 9d f3 15 bd f7 eb 6c 3c
       -0.011825091 0.0066529075 -0.03660928 0.014460555
0000e0 e7 8a 05 bc 21 89 ba 3c 89 d5 b7 3c 03 5f 1c bd
       -0.008150793 0.022770466 0.022440689 -0.038176548
0000f0 3b b2 0f bd 66 c1 18 bd 09 2d 1f 3d c3 01 c5 3c
       -0.035082083 -0.037293814 0.03886131 0.024048692

layer2.1.weight f4 [64]
000000 bb 0c 81 3f 0e 06 80 3f 24 d1 7f 3f 67 6f 81 3f
       1.008201 1.0001848 0.999285 1.0112122
000010 37 73 7e 3f ef ef 7b 3f df e9 7f 3f b2 bf 7e 3f
       0.99394554 0.98412985 0.99966234 0.99511254
000020 ec 85 80 3f 99 b0 7f 3f 4f 85 7e 3f 0b 3e 82 3f
       1.004087 0.9987884 0.9942216 1.0175184
000030 f1 88 7f 3f 04 b1 80 3f 74 51 7a 3f eb 47 82 3f
       0.9981833 1.0054021 0.9778054 1.0178198
000040 29 78 82 3f 3d 61 7e 3f eb a5 7d 3f 7b b1 80 3f
       1.019292 0.99367124 0.99081296 1.0054163
000050 ba 2f 82 3f 93 ea 7d 3f 1e 24 82 3f 3f e1 7e 3f
       1.0170815 0.99186057 1.0167272 0.9956245
000060 54 8f 7b 3f 9d ac 84 3f af b4 7f 3f fa 1d 7e 3f
       0.98265576 1.0365177 0.99885076 0.9926449
000070 0e 97 81 3f 3c e6 80 3f 8b 6b 7f 3f f8 ab 80 3f
       1.0124223 1.0070262 0.9977347 1.0052481
000080 e4 19 80 3f 97 ee 7c 3f 24 e6 7b 3f 6f de 80 3f
       1.0007901 0.9880156 0.9839804 1.0067881
000090 ad 7f 7f 3f 1e 2b 80 3f 51 95 7a 3f 02 eb 83 3f
       0.9980419 1.0013158 0.9788409 1.0306094
0000a0 21 06 7e 3f 1f b6 7d 3f cb 9d 80 3f d8 39 7f 3f
       0.992281 0.9910602 1.0048155 0.9969764
0000b0 75 dd 7b 3f f4 a9 7d 3f 3a c2 7f 3f 52 44 7d 3f
       0.9838479 0.9908745 0.9990574 0.98932374
0000c0 db 37 83 3f 70 b5 80 3f 19 2f 7f 3f 0e 60 80 3f
       1.0251421 1.005537 0.9968124 1.0029314
0000d0 8e 01 83 3f 48 38 7e 3f fd 1d 84 3f b7 d0 80 3f
       1.023485 0.9930463 1.0321652 1.0063695
0000e0 85 49 81 3f fb 77 81 3f 55 03 7e 3f 1c ee 7b 3f
       1.0100561 1.011474 0.99223834 0.984102
0000f0 ad 54 7e 3f e1 76 7c 3f 5f ad 81 3f 2b db 7b 3f
       0.99347955 0.98618895 1.0131034 0.983813

layer2.1.bias f4 [64]
000000 de 2b 58 bc ed 82 a1 bc f7 8c 62 bc 88 14 50 bb
       -0.0131940525 -0.01971575 -0.013827554 -0.0031750519
000010 f8 10 fc 3a 3a 28 9f bc 99 c3 78 bc c7 2f 3f 3a
       0.0019231131 -0.019428361 -0.015183353 0.0007293191
000020 2e 28 16 3c eb 2b 58 39 21 84 0f bb 38 88 84 3b
       0.009164853 0.00020615726 -0.0021898823 0.004044559
000030 02 d6 3d 3a 62 24 3b bc c1 94 75 bc f6 00 89 bb
       0.00072416675 -0.011422249 -0.014989079 -0.0041810228
000040 4b 9c 60 bc 2e b5 6f bb ea 76 12 3b 22 b6 88 bc
       -0.013709138 -0.0036576497 0.002234871 -0.01668841
000050 4b 58 50 bb 61 48 83 bc e5 cb f4 3b f1 41 b4 ba
       -0.0031790908 -0.016025724 0.007470595 -0.0013752562
000060 2f 9c 62 bc ce 01 37 bc 4b 6e 00 bd d8 ad 0c bd
       -0.013831182 -0.011169864 -0.031355184 -0.034345478
000070 4d a3 29 3c 75 51 bb bc 23 78 32 bd 81 b9 9b bc
       0.010353875 -0.02286599 -0.043571603 -0.019009354
000080 ff d4 f1 3b 18 af ab bc b8 42 b7 bc 07 02 4f 3b
       0.0073801274 -0.020957515 -0.022370681 0.0031586902
000090 9d 59 5e bc f1 9f 0d bc dd 13 e0 bb 8d 1e 18 3c
       -0.01357117 -0.00864409 -0.0068383054 0.009284628
0000a0 c3 6e c0 3a 78 d0 b3 bc 08 85 b8 bc ee 10 ac bb
       0.0014681447 -0.021949992 -0.022524372 -0.0052510416
0000b0 72 31 27 b9 69 4b 12 bc 0c 6a 26 3c ab 09 b4 bc
       -0.00015944781 -0.008929112 0.0101571195 -0.021977266
0000c0 44 76 5e bb 3e b2 da bb d6 7a 8a ba 25 1e 97 bc
       -0.0033945004 -0.00667408 -0.0010565172 -0.018446991
0000d0 bb 87 a7 bc 50 06 b6 3b 56 55 fd bb 32 20 6f bb
       -0.020450464 0.0055549517 -0.00773112 -0.0036487696
0000e0 7b e6 73 bc 48 eb f7 bc 71 74 10 bd 08 4a 20 bd
       -0.014886494 -0.030263558 -0.035267297 -0.0391331
0000f0 48 02 4f bb e6 09 ba 3a f9 8b d2 bc 1f c6 76 bc
       -0.0031587053 0.0014193624 -0.02570151 -0.015061884

layer2.1.running_mean f4 [64]
000000 42 dd c9 bd 6a 95 08 3f 40 f3 ad be 9c b8 13 bf
       -0.09856655 0.5335299 -0.33974648 -0.57703567
000010 b1 08 75 be 82 80 fa be 48 85 82 be e7 32 28 bd
       -0.23929097 -0.4892617 -0.2549231 -0.04106417
000020 31 a2 74 be c0 d9 a0 3c 1d eb 29 be 66 e1 ab be
       -0.23889996 0.019635081 -0.16593595 -0.33570403
000030 6c 81 65 be f9 b5 45 be 1c 1c 1b 3e f6 f0 a7 be
       -0.22412652 -0.19307698 0.15147442 -0.32801026
000040 6d 75 58 be d7 44 10 be f9 7e c3 be b6 fb d2 bd
       -0.21138544 -0.1408876 -0.3818281 -0.10301916
000050 32 2e 0d bd 02 34 1b be ff 0e 82 be de 73 29 3d
       -0.034467883 -0.15156558 -0.25402066 0.041370265
000060 c1 7f a4 be 3a 84 30 bd 28 e5 c0 be cf f7 ae be
       -0.32128718 -0.04309485 -0.37674832 -0.34173438
000070 3e 4a 1b 3c d7 ee 32 3e e6 46 98 bc 98 f9 c1 be
       0.00947815 0.17473923 -0.018588495 -0.37885737
000080 a6 a6 8e 3e f5 b4 08 3e bc 9f 0d bf db da 5d be
       0.27861518 0.1335028 -0.5532186 -0.21665518
000090 9e 77 0c be b7 0b 75 be 7b a6 82 3d 36 57 3f bf
       -0.13717505 -0.2393025 0.0637941 -0.7474245
0000a0 72 09 04 bf 8c 98 e9 bc 8a b1 99 be ee ad 12 bf
       -0.5157691 -0.028515123 -0.30018264 -0.57296646
0000b0 d2 a3 18 be 95 b9 0e 3d df 79 1d bf 69 7b 33 bf
       -0.14906242 0.034844954 -0.61514086 -0.70110184
0000c0 7e 5e 30 3d ae f6 e2 bd cd b4 2d be b1 b2 06 bf
       0.043058865 -0.11082207 -0.16963501 -0.5261641
0000d0 44 76 43 be 53 de 81 be db d6 5c bf e4 4e d9 bb
       -0.19088084 -0.25364932 -0.86265343 -0.006631719
0000e0 fe 7b 5a be de 9e 2b 3d 2f 6d 6a 3d 28 3a cc be
       -0.21336362 0.041899554 0.05723303 -0.3988812
0000f0 11 64 cb be 59 95 ec be 5a 45 e5 be 41 fd 94 3d
       -0.39724782 -0.46207693 -0.44779474 0.07274867

layer2.1.running_var f4 [64]
000000 7f 73 9a 3d d3 56 04 3e f2 df 40 3e ff d3 4b 3e
       0.075415604 0.12923746 0.18835428 0.19905089
000010 14 5d d4 3d bc ba 97 3e 83 09 a7 3d eb a4 40 3e
       0.10369316 0.29634655 0.08156111 0.18812911
000020 96 5b 02 3e 87 81 f8 3d d8 ab d5 3d 98 7c cc 3d
       0.1273025 0.121340804 0.10433167 0.09984702
000030 f9 f9 c1 3d f2 fd 94 3d 04 27 02 3e 36 ba b0 3d
       0.094715066 0.07274999 0.12710196 0.08629267
000040 b2 e1 bd 3d 88 dc fe 3d 19 23 29 3e 09 ca 91 3d
       0.092715636 0.12444407 0.16517295 0.07118613
000050 35 20 ef 3d 63 a9 e0 3d d5 31 10 3e fe 50 e4 3d
       0.11676065 0.10969808 0.1408151 0.111482605
000060 99 8e 17 3e 0a b6 99 3d f6 ae 29 3e be dc f7 3d
       0.1480049 0.07505424 0.16570649 0.1210265
000070 19 26 f6 3d 9d 09 34 3e e7 d5 93 3d a7 16 a7 3d
       0.12018985 0.17581792 0.07218533 0.081586175
000080 45 a8 96 3e d2 e6 da 3d 5d 93 85 3e 46 a8 0a 3e
       0.29425254 0.10688557 0.26088992 0.13540754
000090 0f 3f 60 3e 20 54 0d 3e 74 4e 5c 3e 80 b2 00 3e
       0.21899055 0.13801622 0.21514302 0.12568092
0000a0 e5 80 a8 3e f2 08 c8 3d 5f 14 de 3d b6 ca 3a 3e
       0.3291084 0.09767331 0.10843729 0.1824139
0000b0 f2 f5 88 3e f2 12 48 3e 91 1a 3a 3e de ed 4c 3e
       0.2675014 0.19538477 0.18174197 0.20012614
0000c0 99 45 b9 3d be 4b 17 3e f0 72 31 3e a3 1f 10 3e
       0.09046478 0.14774987 0.17329001 0.14074568
0000d0 a8 95 c1 3d 36 06 0f 3e 07 85 05 3e b9 d8 2c 3e
       0.09452373 0.13967213 0.13039027 0.16879548
0000e0 b2 28 9d 3d 5a 53 61 3d ed 1f c3 3d 94 c5 fe 3d
       0.07673778 0.05501113 0.09527574 0.12440029
0000f0 ee c0 93 3e ff 74 08 3e bc ca 8c 3d a6 17 3e 3e
       0.2885813 0.1332588 0.06874606 0.18563709

layer3.0.weight f4 [64, 64, 3, 3]
000000 23 2f b9 bc a0 f4 01 bd 6c 25 97 3b c0 ed d8 bb
       -0.022605484 -0.031727433 0.0046126153 -0.006620139
000010 3c be c8 bc 4f ea 8a bc e5 64 28 bd a1 ec e7 3c
       -0.024504773 -0.01695743 -0.041111846 0.028311076
000020 ac 6e 9c bd e6 9f 82 bc ed 13 c9 3c c3 5a 9b 39
       -0.076382965 -0.015945386 0.024545634 0.00029631527
000030 45 5b fa ba 18 7f 4e bd ce 9e 0d bb e5 8b 91 3c
       -0.0019100687 -0.050414175 -0.0021609548 0.017766902
000040 08 55 2e 3c 61 6e 57 bb 06 29 b5 3b 1d 5b 16 3d
       0.01064039 -0.0032872187 0.005528572 0.036707986
000050 64 60 8c 3c 38 7a 2f 3d 81 51 ca 3c 8b 41 77 3c
       0.017135806 0.042841166 0.024697067 0.01509131
000060 df a9 af 3c 53 94 d7 bc bc 3e 02 3d 17 3b 12 3d
       0.021443306 -0.026315844 0.03179811 0.035700884
000070 45 b5 f5 bc 39 b7 2b bd 65 f7 e4 3c ef a7 ea 3b
       -0.029993663 -0.04192278 0.027949998 0.0071611325
000080 98 aa 80 bc 88 56 e5 3c 5a 28 27 bc cf 3b 91 ba
       -0.015706345 0.027995363 -0.010202492 -0.0011080446
000090 07 ad 4e 3c d7 73 c2 bc ac 56 b8 bc 93 09 04 3c
       0.012614495 -0.023736877 -0.022502266 0.008058923
0000a0 28 b3 02 3d 0f f2 29 bb 3f 47 2d bc 7b 53 a1 bc
       0.031909138 -0.0025931632 -0.010576068 -0.019693127
0000b0 89 c0 4d 3c a9 17 f4 3c 0f 60 52 3b 74 3a 11 bd
       0.012558111 0.029796438 0.0032100712 -0.035456136
0000c0 47 e6 c5 3c 4b 0d 32 3d df 1f 4d bc da 29 06 3d
       0.024157656 0.04346971 -0.012519806 0.032754757
0000d0 51 28 71 3c 3e ac e5 3c 7c 64 3c bc 4c 31 79 3d
       0.014719085 0.028036233 -0.011498567 0.06083803
0000e0 6c 41 b2 3c 49 24 c1 bc 7b b7 a5 bc 99 cc 3c bb
       0.021759711 -0.023576872 -0.020229092 -0.0028808473
0000f0 01 0a ef 3c c5 42 cb 3a a9 d3 c0 3c ea 76 41 3c
       0.029179575 0.001550757 0.023538427 0.0118081365
000100 0d c2 59 bc a8 23 bf bc 63 0d 2c bd db 0b 4d 3c
       -0.013290894 -0.023332432 -0.042004954 0.012515034
000110 e1 ff 07 bc 24 d8 79 3c c9 c6 6e bc 9a 1e 4f bd
       -0.008300752 0.015249286 -0.014573761 -0.050566293
000120 bb 81 45 bd 87 76 27 3d 2b ae fd b9 ef d0 60 bc
       -0.048219424 0.04088452 -0.00048385686 -0.013721689
000130 53 ce 89 bb 28 25 9d 3c 58 10 d9 bb b5 99 4f 3c
       -0.004205504 0.019182757 -0.006624263 0.012670924
000140 00 6f 8a 3c b4 dd 04 3c 27 aa b4 bc a9 74 a7 bc
       0.016898632 0.008109499 -0.022053791 -0.02044137
000150 5f 6c 4b 3b 29 6a ad bc 51 d2 2e 3d d3 2d 8d bc
       0.0031039936 -0.021168785 0.042681042 -0.017233765
000160 63 c2 2d 3d ca bc e7 bc 04 74 e3 3b bb 0d b3 3c
       0.04242171 -0.028288264 0.0069413204 0.021857133
000170 96 2e ac bc 8e c7 91 bc 9b 5e 83 3c 40 48 61 bc
       -0.021018308 -0.01779535 0.016036322 -0.013750136
000180 d6 12 eb bc e8 91 3a bd 3f 9b 17 bd 08 e8 ed 3b
       -0.028695505 -0.045549303 -0.03701329 0.0072603263
000190 e9 dc a7 3b 65 87 40 3d 07 54 67 3b 5b 56 81 3c
       0.00512277 0.047004122 0.0035297887 0.015788248
0001a0 81 27 ee b9 80 38 8e 3c ff 57 9b bc 6f ac 4c 3b
       -0.0004542433 0.017360926 -0.018962858 0.0031230708
0001b0 2f 51 03 3d 57 d8 05 3d 41 ae 54 bc 10 22 41 bd
       0.032059845 0.03267702 -0.0129809985 -0.047151625
0001c0 c6 fc 12 3d 42 10 a1 bb 32 93 6b bd 6c 0c 09 3c
       0.035885595 -0.004915268 -0.057513423 0.008364778
0001d0 b0 e8 e2 bc 40 a5 b8 bc 9c ee 6e bd 34 26 23 3d
       -0.027698845 -0.022539735 -0.058333024 0.039831355
0001e0 11 13 8f 3c 16 ee 37 3c 54 19 2e bd ae a5 53 3c
       0.017465146 0.011226198 -0.042504624 0.012917919
0001f0 cd b6 50 3b 03 15 06 bd ef a2 da 3c 23 1e 8b bc
       0.003184724 -0.032734882 0.02668902 -0.016982144
000200 d8 bf 7c bc 13 bd a1 bc 28 75 80 bc d7 cc bf bb
       -0.0154265985 -0.019743478 -0.015680864 -0.0058532762
000210 99 14 f3 3c ae 42 0b 3c 16 35 9b 3b 3a df 5c 3c
       0.029672908 0.008499784 0.004736553 0.013480956
000220 b1 1d 20 bd b7 8d e8 bc 90 55 3d 3c 95 e7 08 bb
       -0.039090816 -0.028387887 0.011556044 -0.0020889987
000230 17 24 33 bc a5 78 13 bd a5 54 5b bd 42 0b 69 3b
       -0.010933897 -0.036003727 -0.05354752 0.0035559689
000240 1e 20 ee bc 1f eb 08 bd a4 b9 e8 3c 3a 68 d3 3c
       -0.029068049 -0.033427354 0.028408833 0.025806535
000250 cd 5f 39 bd 47 c2 14 3d c5 cd 5f 3c 45 f9 0a bd
       -0.04525738 0.03631809 0.013659899 -0.03392913
000260 50 ae ad 3c c4 d3 07 3d fd 70 c2 bb a1 3b a2 3c
       0.021201283 0.03316094 -0.0059338794 0.019803824
000270 0a 82 21 bd e7 0d aa 3c a9 40 03 bb 64 ac 2b bc
       -0.039430656 0.020758582 -0.0020027554 -0.010478113
000280 a5 52 be 3b cc e2 ef bc 3f 96 f0 3b be 51 24 3d
       0.005808192 -0.02928295 0.0073421295 0.040117018
000290 a2 af 03 bb 42 e6 8d bc 42 4c 28 3b 4b d2 d4 3c
       -0.00200937 -0.01732171 0.0025680219 0.025979182
0002a0 52 1c a3 ba e6 3f 68 3d 94 af e0 3c 1b 7b 76 bc
       -0.0012444353 0.056701563 0.027427472 -0.015043999
0002b0 9a dc 95 bc db 14 02 bd 96 ef 99 3c c6 18 18 3b
       -0.018293668 -0.03175817 0.018791001 0.0023208125
0002c0 72 e6 e9 3c 9b 43 37 bd a8 a9 2a bc fb f6 15 3c
       0.028552268 -0.044742208 -0.010416426 0.009153123
0002d0 74 ad ac 3c 86 f3 27 3b 27 38 bd 39 e9 aa 80 3d
       0.021078803 0.002562733 0.00036090726 0.062825985
0002e0 43 fe d9 3c 14 e1 9f bc 85 3a c7 3a 02 b5 0d 3c
       0.0266105 -0.019516505 0.0015199935 0.008649113
0002f0 24 01 3a bd 74 3b f0 bc 98 e7 f0 3b be 07 f9 bc
       -0.045411244 -0.029325224 0.007351827 -0.0303992
000300 6c 3e 6a 3b 10 09 79 bc f1 b0 13 3b 99 08 64 3b
       0.0035742773 -0.015199915 0.0022535885 0.0034795164
000310 0f 7c 09 bd b6 5c ea 3c 23 bb 2d bc a4 38 81 bc
       -0.033565577 0.028608661 -0.010603699 -0.015774079
000320 46 fc 67 3c 90 c3 9c 3c 8b 91 9c bc 23 f3 65 3c
       0.014159268 0.01913622 -0.019112369 0.014035019
000330 eb 68 0a 3d 13 76 01 bd ab 64 c6 bc 37 01 fa bc
       0.033791464 -0.031606745 -0.024217924 -0.030518157
000340 a2 00 07 3c d4 9c 35 3b eb 29 a3 bc ea 57 dc bc
       0.008239897 0.0027711885 -0.019917449 -0.02689739
000350 78 18 8d bc c2 82 d7 bc f7 d3 25 3c 87 b5 d1 bc
       -0.017223582 -0.026307467 0.010121337 -0.025599254
000360 49 5d 88 3c 35 79 cc 3c 98 6f b6 3b 4b 32 b2 3a
       0.016646044 0.02496014 0.005567502 0.0013595311
000370 1c e7 05 3d 26 4e ea bb fb 46 57 bc 1c 4e e1 bc
       0.032691106 -0.0071504293 -0.013139482 -0.027503066
000380 d3 33 dd 3c 82 17 ae bc bc eb d3 3a 09 37 7b bd
       0.02700225 -0.021251444 0.0016168277 -0.061331782
000390 f4 6d 12 3d 67 20 1b bd be be 99 3b 95 22 3a 3d
       0.03574939 -0.0378727 0.0046919277 0.045443136
0003a0 b2 5f 10 bd f8 c2 61 bc 09 57 86 bc 18 32 b0 3b
       -0.035247512 -0.013779394 -0.016398923 0.0053770654
0003b0 93 06 8a 3c 23 1c 02 bd 76 71 17 bb b8 cc 70 3d
       0.016848838 -0.031765115 -0.00231084 0.058788985
0003c0 ae 28 92 3c 28 6b 04 bd 6f 7f eb 3b e3 83 be bc
       0.017841663 -0.032328755 0.007186822 -0.023256248
0003d0 ba 64 5c bc ab f6 0d bb 99 4e 05 bc 52 f1 0c bc
       -0.013451749 -0.0021661918 -0.008136415 -0.008602457
0003e0 71 82 1e bd 01 25 13 3c a0 0a 30 bd 2e 5b aa bc
       -0.038698617 0.00898099 -0.042978883 -0.020795431
0003f0 bc 7f b1 3b 07 ce 11 3c 4e 7d 3a bc f1 99 44 3b
       0.0054168385 0.008899218 -0.011382414 0.0029998983

layer3.0.bias f4 [64]
000000 2d f1 1c 3d 1d 8b fd bc 97 5f 1f bd 24 53 16 3d
       0.03831594 -0.030950123 -0.03890952 0.036700383
000010 12 5b 16 3d 4c 37 5b 3c 67 76 2f bc c5 62 58 bc
       0.036707945 0.013379883 -0.010709382 -0.013207142
000020 d1 e8 0b 3c 83 cd 51 3c 41 07 f2 bb a4 26 8f 3c
       0.0085393945 0.0128053455 -0.0073861186 0.01747448
000030 da 50 a6 bc df e1 78 bc 63 55 26 3d 5a 63 ee 3b
       -0.020302225 -0.015190571 0.040608775 0.007275027
000040 ef 40 16 3d 22 b8 e4 ba f3 47 0e 3d 41 07 d2 3c
       0.03668302 -0.0017449895 0.034736585 0.025638225
000050 69 ed aa 3c 53 30 27 3d 91 42 12 3b 95 7f 25 bd
       0.02086516 0.04081757 0.0022317509 -0.040404875
000060 db 73 fe 3c bd 19 eb 3b cc c2 75 3c af 5f 3b bc
       0.031061104 0.007174699 0.0150000565 -0.011436387
000070 1e dc 06 3d 44 23 02 3d 70 42 65 bc 99 16 5a bc
       0.032924764 0.031771913 -0.013992891 -0.013311052
000080 cc 2f e8 3c b4 c3 d5 3a ae 79 e2 3c fd 5d 23 bd
       0.028343104 0.0016308934 0.027645912 -0.039884556
000090 16 a3 e6 bc 9c 71 cf bc 58 e1 88 3c db f4 d5 3b
       -0.028153937 -0.025322728 0.016709015 0.006529433
0000a0 60 2f af bc 2d 14 d2 3b 60 f0 0a 39 b7 cb 97 3c
       -0.021384895 0.0064110965 0.00013250252 0.018529756
0000b0 95 67 d1 3c cc 7a 3e bc 30 62 11 bd 50 bd 68 3b
       0.025562087 -0.011625957 -0.03549403 0.003551323
0000c0 3a 99 ce 3c ae 0a 23 3d df b8 27 bc 8f 4c 54 bc
       0.025219548 0.039805107 -0.010236948 -0.012957706
0000d0 f7 d2 13 bd 04 33 e1 3c ba 71 97 3c 58 18 dc ba
       -0.036089864 0.027490146 0.018486846 -0.0016791923
0000e0 8e 7a 3f 38 d0 1f 11 bd 8b c6 16 3d f6 cd 24 ba
       4.5652087e-05 -0.03543073 0.03681044 -0.0006286794
0000f0 52 53 b6 3c 15 61 b9 bb 30 b9 69 bc 9c 4c 03 3d
       0.022256527 -0.005657325 -0.014265344 0.032055482

layer3.1.weight f4 [64]
000000 2f 14 7c 3f 5c a3 7a 3f cc 22 7e 3f 2e f9 82 3f
       0.984683 0.97905517 0.99271846 1.0232294
000010 8d 5d 78 3f e9 56 79 3f d4 23 77 3f 18 ba 84 3f
       0.9701775 0.9739824 0.96539044 1.0369291
000020 02 80 7c 3f 6b a1 87 3f 7e 8f 7f 3f 70 0f 85 3f
       0.98632824 1.0596136 0.99828327 1.0395336
000030 4f 76 85 3f c3 1b 81 3f 42 bd 7c 3f fa 8d 7b 3f
       1.042673 1.0086597 0.98726285 0.98263514
000040 e4 69 7f 3f f3 4c 7b 3f 0b 51 80 3f b6 0f 79 3f
       0.9977095 0.9816429 1.0024732 0.972896
000050 0a a0 78 3f 76 f0 7c 3f 30 08 87 3f 4e ba 75 3f
       0.971192 0.98804414 1.0549374 0.95987403
000060 fd 17 7e 3f b2 41 84 3f e8 e5 84 3f 0a c1 73 3f
       0.99255353 1.0332549 1.0382662 0.9521643
000070 6e 34 7b 3f ec 92 84 3f f5 4a 79 3f eb 96 86 3f
       0.98126876 1.0357337 0.9738 1.0514807
000080 a3 e1 7d 3f 8b d7 78 3f 2a b2 80 3f 9c 16 80 3f
       0.9917242 0.9720389 1.0054371 1.00069
000090 7c a5 85 3f ae 03 76 3f b8 6b 74 3f fa 71 82 3f
       1.0441127 0.96099365 0.95476866 1.0191033
0000a0 69 1c 81 3f 7b 49 83 3f 33 c4 82 3f 89 26 78 3f
       1.0086795 1.02568 1.0216125 0.969338
0000b0 ee fb 82 3f b1 32 81 3f c8 33 81 3f 12 e5 7b 3f
       1.0233133 1.0093595 1.0093927 0.9839641
0000c0 64 3f 78 3f 0a 99 80 3f 76 17 79 3f 3c a0 7d 3f
       0.96971726 1.0046704 0.97301424 0.99072623
0000d0 4b 0b 81 3f a9 c9 7f 3f 27 b6 80 3f e2 10 7c 3f
       1.0081571 0.99917084 1.0055588 0.9846326
0000e0 fd c3 82 3f 7a 29 7d 3f f1 19 81 3f fa bf 7d 3f
       1.0216061 0.98891413 1.0086042 0.9912106
0000f0 c0 7a 79 3f 55 8e 7f 3f 27 e7 81 3f 75 00 7b 3f
       0.97452927 0.99826556 1.0148667 0.9804757

layer3.1.bias f4 [64]
000000 35 ed 33 bc 88 4a 85 bb 62 fe d7 bc 48 f2 ec bc
       -0.0109818475 -0.0040677227 -0.026366416 -0.028924122
000010 9a 24 73 bc 36 97 2c bc ac 3e a3 bc 23 c4 0d bd
       -0.014840269 -0.010534098 -0.019927345 -0.03461088
000020 ab 3a a5 bc 38 25 3f bd 7e a6 00 bd ae b4 ea bc
       -0.020169577 -0.046666354 -0.03140878 -0.028650608
000030 17 5a 4e bd 6c 34 35 bc a7 86 fb bc 0f 6e aa bc
       -0.050378885 -0.011059862 -0.030703856 -0.020804433
000040 c1 2e 03 bd af b7 45 bc 52 99 ea bb 73 1c 05 bd
       -0.03202701 -0.012067719 -0.0071593905 -0.032497834
000050 e3 e9 a8 bc cd 1e bb bc ea 9e 36 bd fe d6 9a bc
       -0.020619338 -0.022841835 -0.044585146 -0.018901344
000060 4f c6 be bc 0a fb 6c bd 2b 4e 58 bd 92 23 56 bc
       -0.02328792 -0.057856597 -0.05280892 -0.013070004
000070 5e ab 82 3a f5 b5 1c bd 23 30 ba bc 5b 86 25 bd
       0.0009969284 -0.038259465 -0.022728032 -0.040411334
000080 c0 b5 34 bc 02 29 b1 bc 13 00 c4 bc 4c 84 a3 bc
       -0.011029661 -0.021626 -0.023925817 -0.019960545
000090 97 c4 3f bd a4 39 e8 bc 62 40 05 bd 29 3c 2b bc
       -0.046818342 -0.028347798 -0.032532103 -0.010451355
0000a0 3c 2e 08 bd 02 ca 4c bd 92 c5 4f bd 8a c7 96 bc
       -0.033247218 -0.049997337 -0.050725527 -0.018405695
0000b0 7b 79 cb bc c7 5d fe bc 0b 04 ec bc 17 b3 f9 bc
       -0.0248382 -0.031050576 -0.028810522 -0.030480905
0000c0 17 e7 40 bc 2d 6d 84 bc 4c da 58 bc fa 07 02 bd
       -0.011773846 -0.01616534 -0.01323564 -0.03174589
0000d0 e6 cc 06 bc 23 16 f8 bc ec 53 57 bc 8b 37 b7 bc
       -0.0082275625 -0.030283993 -0.013142567 -0.022365352
0000e0 83 77 53 bd c3 e9 cd bc 5b 16 16 bd 76 5c ce bc
       -0.051627647 -0.02513588 -0.036642414 -0.025190573
0000f0 ba 34 2f bc 5b 4d bd bc f1 d9 57 bc 16 5e 3b bc
       -0.010693723 -0.023108175 -0.01317452 -0.011436006

layer3.1.running_mean f4 [64]
000000 e4 6b d2 be 49 03 3f be 00 5f 6b be c9 9b 71 bc
       -0.4109794 -0.18653597 -0.22985458 -0.014746615
000010 ba c9 c5 bd 81 41 96 be 39 c3 e4 bd 96 07 9d be
       -0.09657617 -0.2934685 -0.11170048 -0.3066985
000020 ac 31 1b be 76 72 6a ba 1a da bc be 9a 24 0f 3f
       -0.15155667 -0.00089434476 -0.36885148 0.55915225
000030 2c 5d b0 be f1 05 ce ba 9b 98 c5 3d a9 a5 ef be
       -0.34446084 -0.0015718323 0.09648248 -0.46806076
000040 d9 16 d6 be d1 4e bd be 7b 9f 07 3e 22 55 04 be
       -0.41814306 -0.36974195 0.1324443 -0.129231
000050 50 6b 8d be 40 97 b0 3d fe a4 85 be 2b 4b 9c be
       -0.27620935 0.08622599 -0.26102442 -0.305261
000060 85 f2 6c be 6e bd c0 3d 8d a7 db 3c 03 75 4c be
       -0.23139389 0.09411131 0.026813293 -0.19966511
000070 e0 fc 80 be 9b c8 33 be 07 c8 42 3d b8 35 3e be
       -0.25192928 -0.17556994 0.047554042 -0.1857518
000080 57 e2 9b 3e 5b 2f 6c bd 80 6c 35 3e 79 20 90 be
       0.3044612 -0.05766235 0.1771717 -0.28149775
000090 fa d5 be 3c b3 95 58 3e 21 64 14 3e b8 cf 4e be
       0.023295391 0.21150856 0.14491321 -0.20196426
0000a0 13 fc 86 bd 35 56 a4 be cf d9 a9 3b 7a 3d 1d 3d
       -0.06591048 -0.3209702 0.0051834355 0.038388707
0000b0 c0 1a 9e bd cf 94 0d bd 68 fb 4a be 6b e5 2d 3d
       -0.07719946 -0.034565743 -0.19822466 0.04245512
0000c0 6a 9d 31 bd 4b 7d 15 be 26 32 b9 be fb fa 53 be
       -0.043363012 -0.14598577 -0.36171073 -0.2070121
0000d0 bf 85 6a be d5 98 bc be e1 f1 40 be 64 02 07 bf
       -0.22902583 -0.36835352 -0.1884227 -0.5273802
0000e0 5f e9 8f 3d d7 36 9a be 35 e5 f6 bd b9 c2 95 be
       0.07026934 -0.30119964 -0.120554365 -0.29250124
0000f0 0e 1a 46 bf ea 11 de be fd 67 d5 be ab 23 a3 be
       -0.77383506 -0.43373042 -0.416809 -0.3186315

layer3.1.running_var f4 [64]
000000 3b 24 4e 3e eb 10 98 3e 92 1e ba 3d 5a 6f ae 3d
       0.20131008 0.29700407 0.09087862 0.085173324
000010 46 d6 75 3e 15 fe 2a 3e 78 1e 83 3e 12 bf 77 3d
       0.2400752 0.16698487 0.25609183 0.060484953
000020 82 47 52 3e 8d 1d 8f 3d 0a 53 19 3e ca 90 ac 3d
       0.2053509 0.06988058 0.14973083 0.08426054
000030 fa 96 d8 3d 55 9c c6 3d 3a 7e 19 3e e0 5c 3b 3e
       0.105756715 0.09697787 0.14989558 0.18297148
000040 d7 80 29 3e 74 88 47 3e 7a 65 21 3e cd fb 1e 3e
       0.16553055 0.19485646 0.15761366 0.15525742
000050 13 9f 9a 3e 39 e0 32 3e ea 6f 7c 3d 5f 63 9e 3e
       0.3019949 0.17468347 0.061630167 0.3093519
000060 cd c6 db 3d c4 1f 91 3d a8 eb 32 3d 37 2c a9 3e
       0.107312776 0.07086137 0.04368177 0.33041546
000070 d4 cc db 3d 5d c4 8f 3d 0a 36 0e 3e 50 21 83 3d
       0.10732427 0.07019875 0.13887802 0.06402838
000080 08 86 1b 3e 0e 52 5f 3e 68 80 fb 3d 6d 30 1d 3e
       0.15187848 0.21808645 0.12280351 0.15350504
000090 ca e6 c8 3d bc f8 52 3e f5 f3 85 3e 99 cc 29 3e
       0.098096445 0.20602697 0.26162687 0.16581954
0000a0 77 1e d4 3d f4 01 0d 3e ef 10 7f 3d 9b ed f5 3d
       0.10357373 0.13770276 0.06227201 0.1200821
0000b0 b4 4a 87 3d e8 6f bf 3d 18 88 f9 3d d2 ba 40 3e
       0.06606045 0.09347516 0.12184161 0.18821266
0000c0 de c4 89 3e ff ab 12 3e 2c e7 23 3e 5c 09 0b 3e
       0.2690801 0.14323424 0.16006154 0.13577789
0000d0 af cc 15 3e 7b bf 06 3e bc b4 af 3d f3 1b 3f 3e
       0.14628862 0.13158982 0.08579394 0.18663006
0000e0 b5 af 90 3d ad cf ff 3d 53 a2 cc 3d 8d 9b 3a 3e
       0.070647635 0.12490783 0.099918984 0.182234
0000f0 27 a5 c7 3e 9a b1 27 3e d1 36 a6 3d 3d 54 8b 3e
       0.3899319 0.16376343 0.08115924 0.27212706
