FAST 3D-CNN P-NET/model/IP/IP_proto_2d-5shotband25.pth (torch, 514481 bytes, 24 tensors)

layer1.0.weight f4 [64, 25, 3, 3]
000000 e5 a8 6a 3c 4e ef 79 3d c9 6f 66 3d ce 83 25 bd
       0.014322494 0.061019234 0.05625895 -0.040408902
000010 52 ca 17 3d d5 4c 43 3d 74 d7 12 bc 13 b9 1b bd
       0.037058182 0.047680695 -0.008962501 -0.038018297
000020 a4 31 9e bd 75 aa b2 bc d2 d4 e9 3c d5 0d 54 3c
       -0.07724312 -0.021809796 0.028543863 0.012942751
000030 02 6a 20 3d f8 01 39 3d 7f 7e bb bc c5 5c ee bc
       0.039163597 0.045167893 -0.022887466 -0.02909697
000040 fa 69 83 3d 01 9e c1 3b 7e da 22 bd e0 c3 b7 bc
       0.06416698 0.005908728 -0.03975915 -0.022432268
000050 59 a3 81 3d 18 7f f6 bc a5 1c 33 3c 58 de 15 3d
       0.06329984 -0.0300899 0.010932122 0.036588997
000060 1f 07 14 bd 5e 99 01 3d 5f bb 5b 3d 05 50 25 bd
       -0.036139604 0.031640403 0.053645488 -0.040359516
000070 80 a4 88 3c ac e8 d9 bb ec 08 82 3d b5 33 1d 3d
       0.016680002 -0.006650051 0.06349358 0.03837939
000080 78 d2 0f 3d ad a6 38 3d 48 42 76 3d 1a 9d e0 bc
       0.035112828 0.04508083 0.060121804 -0.027418662
000090 a0 80 17 bc b5 b3 a9 bb d9 d7 94 bd ff 28 40 bd
       -0.009246975 -0.0051788935 -0.07267732 -0.046914097
0000a0 f0 bc 91 3c 51 53 a1 3c 53 22 ab bc ef f0 c2 3c
       0.017790288 0.019693049 -0.02089039 0.023796527
0000b0 68 e8 8c bd ca de 43 bd b8 28 0b 3d 74 f9 9d bd
       -0.068802655 -0.04781989 0.03397438 -0.07713595
0000c0 6c 93 f5 bb ed 1b 47 3b b8 8f 98 3c 3e 4f a9 bb
       -0.0074943807 0.0030381635 0.018623218 -0.005166917
0000d0 4f a9 f6 3a 28 07 df 3c f3 25 67 3d 76 49 ef 3c
       0.0018818768 0.027225092 0.056432676 0.029209834
0000e0 f8 3f 55 3d 44 de 9f ba 84 76 4a bd 13 0d d7 bc
       0.05206296 -0.0012196978 -0.04942943 -0.026251351
0000f0 e6 80 85 3d 6e fd 18 3c a8 0a c2 bc 5a ad 02 bd
       0.06518726 0.009337766 -0.023686722 -0.031903602
000100 4d 74 0e 3d 4d db 2d bd a1 ba cb 3c 0f 53 ca bc
       0.03477888 -0.04244547 0.024869265 -0.024697809
000110 e4 db 2a bc d8 cf 0e bd c6 ac 18 3d 6f a0 e8 39
       -0.010428403 -0.034866184 0.037274145 0.0004437002
000120 61 3b 92 3d 5b 0e 66 3d e0 d7 2b bd d7 b2 d4 3a
       0.07140232 0.056166034 -0.04195392 0.0016227615
000130 62 1c c5 3c 16 08 9b bd e9 66 56 3d 9b c5 86 bd
       0.024061386 -0.07569902 0.052344237 -0.06580659
000140 e7 be 28 3d fc 58 07 3d 5d f2 c7 bc 74 23 fd bc
       0.041197684 0.033043846 -0.02440756 -0.030900694
000150 1d d6 1b bd 44 56 0d 3d 11 6e 4a 3d 1d 17 79 3d
       -0.03804599 0.034506097 0.049421374 0.06081306
000160 35 03 47 3d aa c1 27 3d f5 b4 4f 3c 75 79 3b bd
       0.048587043 0.040956177 0.012677421 -0.045770127
000170 ba c2 86 3c 93 bd 5b bb a4 c4 36 bd d7 95 0f bc
       0.016450275 -0.0033529743 -0.044621125 -0.008763752
000180 d6 35 aa bc b7 9c ed 3c 3f 95 3f 3d 63 25 41 3c
       -0.020777624 0.029005392 0.04677319 0.011788699
000190 13 32 73 bd f9 ca 51 bd 7f 98 11 bc 21 d4 91 bd
       -0.059373926 -0.05121896 -0.008886456 -0.071205385
0001a0 ae 3f c8 bb a0 2d 49 3d b0 98 1f bd 16 aa 88 bd
       -0.006111107 0.049115777 -0.038963974 -0.06673066
0001b0 0f ba b1 3c c6 c9 61 3d 1a 7e 62 3d e2 6c 2d bd
       0.021695165 0.055124067 0.05529604 -0.042340167
0001c0 1d da 54 3d 3e cb 42 bc 2c a1 64 3b 02 fb 7a 3d
       0.05196582 -0.011889277 0.0034886105 0.061274536
0001d0 ad b9 5c 3d 46 65 2e bd 5b 1e 3c bc 85 5f 24 bd
       0.05388801 -0.04257705 -0.011481847 -0.040130157
0001e0 1c dc 52 bc dd f5 4d bc 87 46 9a bd ab 5a 32 bd
       -0.012869861 -0.012570825 -0.07532983 -0.0435435
0001f0 82 b8 b1 bc f9 55 11 bd e5 9f b5 3b bf 87 89 bd
       -0.021694425 -0.03548238 0.0055427426 -0.06715345
000200 0b a4 e5 3c 92 20 30 3d e1 52 aa bd 3b b0 2c bd
       0.028032323 0.04299981 -0.08316589 -0.042160254
000210 39 fe 14 3c 5d 16 f6 3b c7 6f 0c bd ee 54 07 3c
       0.0090938145 0.00750999 -0.034286287 0.008259995
000220 6e 87 f2 bc ae fc 27 3d b0 68 5c bd a3 59 53 3d
       -0.029605594 0.04101246 -0.053810775 0.051599156
000230 bf bf 8c 3c c2 15 6b 3d 69 b1 38 bd 2a 69 b6 bc
       0.017181275 0.057393797 -0.045091067 -0.022266943
000240 f2 57 29 bd a3 06 13 3d 39 b4 1d bd 9b 38 50 bd
       -0.041343637 0.035895 -0.03850195 -0.050835233
000250 f5 bc dc ba 6e 4b ca 3b 70 ac a2 3c 56 e6 c2 bc
       -0.0016840982 0.0061735427 0.019857615 -0.023791473
000260 52 ec e4 bc 6b 23 c3 3c c3 de 90 3d 5c a6 38 3d
       -0.027944718 0.0238206 0.070737384 0.045080528
000270 17 ae 66 3d 3a 59 4b bc c0 11 18 3c 9f 0b ee 3b
       0.05631837 -0.01241141 0.009281576 0.007264569
000280 25 cd 06 bd 5c 2c 14 3d 44 4f 2b 3c f5 49 08 3d
       -0.032910485 0.036175117 0.01045591 0.033273656
000290 b6 f3 3f bd e4 ce 86 bc b2 6c 97 b8 d3 a7 95 3c
       -0.04686328 -0.016456075 -7.220487e-05 0.018268501
0002a0 74 91 15 3d c7 a3 5d bd bb 33 52 3c 6c 9f a4 3c
       0.036515668 -0.05411127 0.012829716 0.02009555
0002b0 a7 89 ee 3c 29 63 37 bd 0d f6 79 3c ab bc 0e 3d
       0.029118372 -0.0447723 0.015256417 0.034847897
0002c0 ab 87 fb 3b f3 6d 7e bc 5b c7 86 bd cd 0b 40 bd
       0.007676085 -0.015529144 -0.06580993 -0.046886254
0002d0 66 f1 71 3d b0 d0 ba bc 15 5a 86 bb fc 40 1c 3d
       0.059068106 -0.022804588 -0.004100094 0.03814791
0002e0 31 e9 90 bd d2 1f d6 3c e5 e0 46 3d 55 59 7b bc
       -0.07075728 0.02613822 0.04855432 -0.015341123
0002f0 00 cc a3 39 7f 2a a1 bb 5e 8a 37 3d ea 44 60 3c
       0.00031241775 -0.004918396 0.04480969 0.013688305
000300 51 f3 84 bd 59 85 49 bb 80 bd f2 3c 27 08 36 bb
       -0.064917214 -0.0030749647 0.029631376 -0.0027775855
000310 e1 98 22 bd a7 46 76 bc 4f 06 de bc 85 c7 52 bd
       -0.039696578 -0.015031493 -0.027102618 -0.051459808
000320 79 57 27 3d a3 6a de 3c 12 c8 67 bc 8a 92 1f 3d
       0.040854905 0.027150458 -0.014146822 0.03895811
000330 b6 b2 66 bd f1 1b 57 bd ab 02 33 3d d8 93 2e 3d
       -0.056322776 -0.05251688 0.043703716 0.042621464
000340 d5 4d 85 3d 28 50 e5 3c f0 6c 55 3d 96 c4 93 bc
       0.06508986 0.027992323 0.052105844 -0.018038075
000350 53 4b b3 3c ea 94 82 3d 55 04 76 3a b3 1e 09 bd
       0.021886503 0.06376059 0.0009384801 -0.033476543
000360 f9 43 f7 bc 98 ea 15 bd 84 cf a0 b8 2a 2f 12 3d
       -0.03018378 -0.03660068 -7.668047e-05 0.03568951
000370 1a 2d 76 3c c0 46 7f 3b 68 19 27 bc ca 1c e1 bc
       0.0150254015 0.0038952082 -0.010198928 -0.027479548
000380 d0 a7 dd bc 91 3c 81 3d 43 c8 36 3d da d4 74 3d
       -0.027057558 0.0631038 0.04462458 0.059773304
000390 ba c9 a6 3c 75 fd 12 bc 22 50 b9 bc fc 56 71 3d
       0.020359863 -0.008971562 -0.022621218 0.058920845
0003a0 82 f6 8d 3d cf f5 db bc c4 64 90 3c cb 60 ef 3b
       0.06931783 -0.02685061 0.017626174 0.00730524
0003b0 42 e0 1a bd 8e ba f2 bc be 88 37 3d 66 55 d7 bc
       -0.037811525 -0.029629972 0.044808142 -0.026285838
0003c0 e5 98 36 3d 80 95 88 3d 30 24 6c 3d 6e 15 15 3d
       0.044579405 0.0666914 0.0576517 0.03639739
0003d0 01 0b 43 bd 0c 78 8d b9 3c 4f 0c bd bd 11 2e 3d
       -0.047617916 -0.00026983058 -0.03425525 0.042497385
0003e0 93 9b 1e bd 7f e4 32 3c bc ac 14 3d f8 f9 ec 3a
       -0.038722586 0.0109187355 0.036297545 0.0018079868
0003f0 86 fa d2 3c d0 7a ab 3c e2 fb 6c bc 13 ff 3f bd
       0.025754225 0.020932585 -0.01446435 -0.046874117

layer1.0.bias f4 [64]
000000 9b 52 26 bd 05 e6 39 3a 3d 5a 66 3d 56 de 6d bd
       -0.040606122 0.00070914655 0.0562384 -0.058073364
000010 35 25 99 3d 58 0c fd 3a fb 5d 21 3d 3f d3 06 3c
       0.074778 0.0019306047 0.039396267 0.008229076
000020 fd c6 19 bd 77 d0 3e 3d a0 d2 34 3d 64 eb c2 bc
       -0.037543286 0.046585526 0.04414618 -0.023793884
000030 ef 90 35 3c 78 e1 cb 3b e3 0e 5e bd 4a 4b 3a 3d
       0.011081918 0.0062219463 -0.054213416 0.045481957
000040 ad f4 55 3c f8 2a fa bb e7 bb 44 3d 7b 79 3e bb
       0.0130588235 -0.007634517 0.04803076 -0.0029064107
000050 5c a7 48 bd b3 8c 8e 3d d3 e8 39 3d 5b e1 43 3d
       -0.04898773 0.0696043 0.045388054 0.047822338
000060 c8 36 92 3d 96 61 06 3d 48 15 46 3d 95 16 96 3d
       0.07139355 0.03280791 0.04836014 0.07328526
000070 8b d3 79 3c c2 09 42 bc e5 20 84 3d 89 a9 59 bd
       0.01524819 -0.011843147 0.06451587 -0.053140197
000080 7c cb de bc e6 69 59 bd 17 3c 83 3b 3c 39 d6 3c
       -0.027196638 -0.05307951 0.004004966 0.026150338
000090 93 9d a5 bc 25 b6 b6 bc 59 74 1d 3d 1d 05 e6 bc
       -0.020216739 -0.02230365 0.038441036 -0.02807861
0000a0 b7 03 a4 bc f8 8c 15 3d 74 bc f3 3b b2 c4 0e bd
       -0.020021303 0.03651139 0.007438237 -0.034855552
0000b0 ff 3c 67 bd 70 3b 0e bb 3e da 5c 3d 5f 97 54 3d
       -0.056454655 -0.0021702908 0.05391907 0.05190217
0000c0 2e 9f d3 3b 1f e5 50 bd 18 d9 31 3d 44 ca 52 3d
       0.0064581847 -0.050999757 0.043419927 0.051462427
0000d0 4e 36 90 3d 7d 4b 53 3d 61 d2 a9 bc ae ad 73 bc
       0.07041608 0.051585663 -0.0207302 -0.014872951
0000e0 8f e2 39 3d de 2f fd bb 5a e6 85 3c c5 f5 29 3d
       0.04538208 -0.0077266535 0.016345192 0.04149415
0000f0 1e df dd bc 45 72 60 3d da 33 66 bd ac 48 86 3d
       -0.02708393 0.054796476 -0.056201793 0.0655683

layer1.1.weight f4 [64]
000000 68 7e 7f 3f 0a 43 80 3f 6b 63 80 3f 0d 24 80 3f
       0.99802256 1.0020459 1.003034 1.0011002
000010 68 b5 7d 3f 16 e1 7d 3f 42 71 7f 3f c7 18 7f 3f
       0.9910493 0.9917158 0.9978219 0.9964718
000020 e5 39 7f 3f 40 92 7e 3f fa 15 81 3f 7c 50 80 3f
       0.99697715 0.9944191 1.0084832 1.0024562
000030 77 cd 80 3f d7 f0 7c 3f eb 97 7d 3f 94 11 81 3f
       1.0062703 0.9880499 0.99059933 1.008349
000040 7d 65 7f 3f 5c 20 7f 3f bf 72 81 3f 4e a8 80 3f
       0.99764234 0.9965875 1.0113143 1.0051363
000050 67 d9 7d 3f 6c 03 7f 3f 0b d0 7e 3f 42 c0 81 3f
       0.99159855 0.99614596 0.995362 1.0136797
000060 8d 93 82 3f 94 b4 81 3f c2 2f 80 3f 9a 04 81 3f
       1.0201279 1.0133233 1.0014575 1.0079529
000070 78 ad 80 3f 3a f0 7f 3f 68 02 7f 3f ef 5d 7e 3f
       1.0052938 0.9997593 0.99613047 0.9936208
000080 52 19 82 3f 3c 58 80 3f 1d 77 7e 3f de 0d 80 3f
       1.0163977 1.0026927 0.994005 1.0004232
000090 fb 4e 7d 3f e2 5f 7d 3f 56 3a 80 3f 3f cc 7d 3f
       0.9894864 0.9897443 1.0017803 0.9913978
0000a0 50 06 81 3f 97 bb 7f 3f 22 82 7f 3f 23 eb 80 3f
       1.0080051 0.99895614 0.9980794 1.0071758
0000b0 7c 05 7f 3f 36 33 80 3f 1d 84 7e 3f 9e df 80 3f
       0.99617743 1.0015628 0.9942034 1.0068243
0000c0 18 8a 7c 3f 23 2b 7f 3f 41 8a 80 3f ca 37 80 3f
       0.98648214 0.99675196 1.0042192 1.0017025
0000d0 a3 b0 83 3f 46 4b 80 3f a7 11 7e 3f 27 31 81 3f
       1.028828 1.0022972 0.99245685 1.0093125
0000e0 ad e6 7d 3f d0 9b 7f 3f 22 48 7f 3f de 7c 80 3f
       0.9918011 0.99847126 0.9971944 1.0038106
0000f0 3e 1e 81 3f 10 33 80 3f e5 f5 80 3f e1 f2 7f 3f
       1.0087354 1.0015583 1.0075041 0.9997998

layer1.1.bias f4 [64]
000000 22 af b8 bb b1 a4 92 bb 55 a1 28 39 fb 81 97 bc
       -0.005636112 -0.004475199 0.0001608183 -0.018494597
000010 cf 58 0c bc fe 5f 4c 3b 0c 44 8c 3b c8 9f 89 3b
       -0.0085660955 0.0031185145 0.0042805728 0.0041999556
000020 5e 7b 9b bc 40 04 12 bc ad b3 72 ba 3a e6 26 bb
       -0.018979724 -0.008912146 -0.0009258341 -0.0025466816
000030 21 e1 a2 bc 95 17 ac bc f4 36 c5 bb 6b b6 3f bc
       -0.01988274 -0.021007339 -0.006018514 -0.011701207
000040 d9 03 21 bc 16 60 e5 bb 52 4f ee ba 70 e5 fb ba
       -0.0098275775 -0.0069999797 -0.0018181598 -0.0019218158
000050 8f a8 2c bc 06 bb 48 bc 14 74 1c bc b8 4e ed 3b
       -0.010538234 -0.012251621 -0.00954916 0.00724205
000060 db 3c 84 bb c9 5d c1 3a c8 b9 82 3b 1b 4a 82 bb
       -0.004035575 0.0014752682 0.003989432 -0.003976119
000070 24 5f a8 bb 4a 63 45 bb cd e4 d9 ba 94 a7 9b ba
       -0.005138295 -0.0030118995 -0.0016623974 -0.0011875504
000080 fb d2 9b bb 10 93 45 bc 9c 1d dc bb dc 35 aa bc
       -0.0047553754 -0.012058988 -0.006717397 -0.020777635
000090 a0 66 97 bc 5b e8 d1 3a c2 21 ce bb d9 04 2b bb
       -0.018481553 0.0016014682 -0.0062906453 -0.0026095419
0000a0 44 83 82 bc 4e 2f 85 bc 2b 1f a4 bb 54 6f 87 ba
       -0.015931733 -0.016257908 -0.0050085983 -0.0010332861
0000b0 78 7f f0 bb 86 51 2a bb d8 99 c8 3a c4 87 35 3b
       -0.007339414 -0.0025988533 0.0015304638 0.002769933
0000c0 1d ce 8b bc f2 91 b8 bc 55 7d 8b bb ac 1d 1a bc
       -0.017066056 -0.02253053 -0.004256884 -0.009406488
0000d0 85 e3 f0 3b b7 af 8c bb ea dd cf bb 90 83 3f bc
       0.007351341 -0.004293408 -0.006343593 -0.011689082
0000e0 ed 87 e2 bb dd 6e 83 bc 8f 13 9a bb 99 a3 c3 bc
       -0.0069131763 -0.016044075 -0.0047020386 -0.02388172
0000f0 0d e7 6e 3b 21 59 89 bc c2 f2 a0 bc e3 c0 67 bb
       0.0036453635 -0.016766133 -0.019647006 -0.0035362772

layer1.1.running_mean f4 [64]
000000 ce 44 23 c4 11 23 d9 44 87 bc 94 c3 77 03 2a 45
       -653.0751 1737.0958 -297.47287 2720.2166
000010 ad aa 5a 44 d7 a6 00 c5 07 28 53 44 76 6a 81 c4
       874.6668 -2058.4275 844.6254 -1035.3269
000020 02 d1 45 44 4c 44 09 44 8f 3b c1 c4 32 0d 5a 42
       791.26575 549.06714 -1545.8612 54.512886
000030 59 21 66 44 2a 3d 21 c4 2c 50 0e c5 8c 57 7a 43
       920.52106 -644.9557 -2277.0107 250.34198
000040 3b 0d 3b 45 b0 56 09 c5 99 6c fc c2 b0 94 8b 44
       2992.827 -2197.418 -126.212105 1116.6465
000050 8c 81 9c 44 4e 63 00 c4 be 74 e4 c2 6c 09 af 44
       1252.0483 -513.55164 -114.22801 1400.2944
000060 d4 0a 20 c1 ee 21 7c 43 ea d4 b5 43 31 45 42 c4
       -10.002644 252.13254 363.6634 -777.0811
000070 60 9a 70 44 6d 9c 62 c4 d4 c0 3e 44 c9 a5 95 45
       962.4121 -906.44415 763.01294 4788.723
000080 64 49 98 44 8b 6c c1 c3 93 78 e5 c3 bb a1 b4 44
       1218.2935 -386.848 -458.942 1445.0541
000090 89 a5 1d 45 c1 b4 30 c5 ee 8f b2 44 0e 20 07 44
       2522.346 -2827.297 1428.4978 540.50085
0000a0 dd cf c7 44 02 97 c6 c3 45 d5 de c2 67 8c 99 43
       1598.4957 -397.17975 -111.41654 307.0969
0000b0 89 8b c9 c4 a2 4a 50 44 d3 0b e2 c4 77 a3 47 44
       -1612.3605 833.16614 -1808.3695 798.55414
0000c0 b8 06 02 44 99 8e 92 c1 99 c3 a2 c0 f6 c5 b9 45
       520.105 -18.319628 -5.0863767 5944.745
0000d0 c4 99 ac 42 26 2b 71 43 d9 f5 1c 45 0a fc 87 43
       86.30032 241.16855 2511.3655 271.96906
0000e0 67 d1 14 c5 39 b4 4f c3 5b c6 19 45 52 28 88 44
       -2381.0876 -207.704 2460.3972 1089.26
0000f0 a7 35 f0 42 03 25 78 c4 ff 85 ea 42 fb bd bd c2
       120.10479 -992.5783 117.26171 -94.871056

layer1.1.running_var f4 [64]
000000 60 cd ac 48 26 46 d6 48 cb a3 1d 49 15 7f 23 49
       353899.0 438833.2 645692.7 669681.3
000010 15 89 75 48 c8 ac b0 49 03 ce d1 48 09 fc 95 49
       251428.33 1.447321e+06 429680.1 1.2286731e+06
000020 c9 a2 35 49 b1 94 ef 48 51 28 0e 49 33 98 ac 48
       743980.56 490661.53 582277.06 353473.6
000030 35 90 90 48 8a 52 2e 49 a2 9c 6f 49 c6 14 17 48
       296065.66 714024.6 981450.1 154707.1
000040 4c a8 15 49 0e 7e 6e 49 bb 10 a2 48 66 77 46 48
       612996.75 976864.9 331909.84 203229.6
000050 9a eb 10 49 04 09 06 48 0d ea 00 49 af 56 ca 48
       593593.6 137252.06 528032.8 414389.47
000060 b1 15 5c 49 4c 11 c3 48 31 11 0f 48 90 70 b5 48
       901467.06 399498.38 146500.77 371588.5
000070 b8 a3 c1 48 7f d3 6c 48 2b 29 c1 48 f2 fc b1 49
       396573.75 242509.98 395593.34 1.4580782e+06
000080 db 61 a4 47 99 21 74 48 40 13 5d 48 b1 a6 70 48
       84163.71 249990.39 226381.0 246426.77
000090 53 f6 66 49 53 97 03 49 c0 3e e9 47 e8 64 88 48
       946021.2 538997.2 119421.5 279335.25
0000a0 7c fa 12 48 9e 93 bf 47 e7 a1 3f 48 18 a5 51 47
       150505.94 98087.234 196231.61 53669.094
0000b0 b3 66 f1 48 d6 76 f6 48 c4 78 6e 49 a6 03 a2 47
       494389.6 504758.7 976780.25 82951.3
0000c0 65 a3 03 49 03 7e c5 48 b3 4d 2f 48 2d f4 b0 49
       539190.3 404464.1 179510.8 1.4496056e+06
0000d0 a5 b1 68 48 a9 0d c3 47 59 92 0c 49 58 e1 8f 48
       238278.58 99867.32 575781.56 294666.75
0000e0 f1 5d 35 49 60 95 97 47 4f 93 f6 48 c5 c8 85 48
       742879.06 77610.75 504986.47 273990.16
0000f0 44 2a 89 48 a7 3f 89 48 2c 2f f9 48 d0 d0 9c 48
       280914.12 281085.22 510329.38 321158.5

layer2.0.weight f4 [64, 64, 3, 3]
000000 b1 d9 04 3d b7 2f 56 3c 1c cd 79 3c 87 a4 3c bd
       0.03243417 0.0130729 0.015246656 -0.046055343
000010 58 91 61 bc 91 49 04 bd 87 15 10 3c ce 64 16 bd
       -0.013767563 -0.03229672 0.008794195 -0.03671723
000020 16 3f f7 3c 0b 62 c6 bc 13 d3 62 3d cc 28 e5 bc
       0.030181449 -0.024216672 0.055377077 -0.027973555
000030 99 a0 d7 bc 95 71 89 bc 9e 89 2e 3c 14 b5 05 3c
       -0.026321696 -0.016777793 0.010652928 0.008160848
000040 f5 c0 90 3c b7 a2 fb bc e7 c1 d5 38 4d d0 f0 bb
       0.017670134 -0.030717237 0.000101927486 -0.00734905
000050 26 a5 0f ba 20 40 fa ba 8b 62 0c 3d ae a9 f1 3c
       -0.0005479626 -0.0019092597 0.034273665 0.029499855
000060 d3 ab 02 3c 78 ba 8c bc 5a e8 29 3c 6d 27 2e bd
       0.007975536 -0.017178759 0.010370338 -0.042518068
000070 42 e7 01 bd 33 ef a1 bc e3 86 b4 bc 8d 3b 12 bc
       -0.031714685 -0.01976738 -0.022036975 -0.008925331
000080 83 75 ae 3c ba ad af bc 0e 42 84 3b 9c ac 78 bc
       0.021296268 -0.021445144 0.0040361946 -0.015177872
000090 ec 84 03 3d 46 80 af 3b 1b 32 f0 3c 09 73 50 bc
       0.032109186 0.0053558676 0.029320767 -0.012722739
0000a0 a4 f6 bc bc b1 71 20 bd 03 fa 6e bc 57 f6 91 bc
       -0.023066826 -0.039170925 -0.014585975 -0.01781766
0000b0 d2 25 15 bd 57 c2 b7 3c fd 0c ff 3c 3f 2b 2c 3d
       -0.03641302 0.022431536 0.031134123 0.04203343
0000c0 77 bb 6f 3c d8 15 27 bb ff fc 1a 3c b8 4d d9 bb
       0.014632097 -0.0025495198 0.009459733 -0.0066315793
0000d0 85 af c0 3c 7b 09 38 3c 41 39 1e bd 7d 8a cc bc
       0.023521194 0.011232729 -0.03862882 -0.02496838
0000e0 77 a6 b3 3c e9 3a d0 3c 19 7c 92 bc 4b 30 65 3c
       0.021929963 0.025418716 -0.01788144 0.013988565
0000f0 f3 57 16 3d 74 21 df bc 15 54 0e bc 2c 9d 5e bd
       0.03670497 -0.027237631 -0.008687039 -0.05434911
000100 73 bb 95 3c 84 0e cb 3c 69 17 75 3c ac 32 38 bc
       0.01827786 0.024787195 0.014959195 -0.01124255
000110 90 44 19 bd 3d a5 26 bb da 12 a1 bc 2d 86 35 bd
       -0.037418902 -0.002542808 -0.01966231 -0.044317413
000120 6a 05 7e bc 39 d5 7d bc db 31 98 3b a7 e0 09 bd
       -0.0155042205 -0.015492731 0.004644615 -0.03366151
000130 73 41 17 3d b0 e0 06 bd 72 c5 f7 bb 36 4b 27 3d
       0.03692765 -0.032929122 -0.007561379 0.04084321
000140 85 06 cc bb 8e ae 8a bc b2 1d db bc 33 c3 90 bb
       -0.006226363 -0.016928937 -0.026747558 -0.004417801
000150 4c 18 e3 bc 29 fb 17 bc 7c 1a 04 bd 7e 25 91 bc
       -0.027721547 -0.00927619 -0.03225182 -0.017718073
000160 96 25 5e bc a6 e0 83 bc 73 a9 f7 bc 6a 89 96 3c
       -0.013558766 -0.016098332 -0.030232167 0.018376071
000170 99 2b 15 bd 64 4d 24 3c 6f 96 07 bd 7c ec 22 bc
       -0.03641853 0.010028217 -0.03310245 -0.009944078
000180 8f c1 8b 3c 99 a9 c6 3c 04 49 c0 3c a5 e4 1a 39
       0.01706007 0.024250792 0.023472317 0.00014771761
000190 8c 0d a0 3c 05 cf 83 bb 30 cf cc 3c 4f fa 50 bc
       0.01953771 -0.0040224814 0.025001138 -0.012754991
0001a0 d5 f2 d8 bc c7 05 e2 bc c7 21 bf bc 9a 18 f6 bb
       -0.026482979 -0.027590645 -0.023331536 -0.007510257
0001b0 f6 18 98 bb e9 6c 08 bd 27 0f ff 3c e8 d8 0d 3c
       -0.0046416475 -0.03330699 0.031135155 0.0086576715
0001c0 88 ca 0a 3d 42 35 0c bd 46 ca d9 3c e1 02 d8 bc
       0.033884555 -0.034230478 0.02658571 -0.02636856
0001d0 88 28 9f 39 ba 5a 9e 3c 16 56 57 3c 6e d1 91 bc
       0.0003035704 0.019330371 0.013143083 -0.01780006
0001e0 b8 35 1a 3d d6 e3 ae 3c ec 93 80 3c 3a 17 c8 bc
       0.037648886 0.021348875 0.015695535 -0.024425138
0001f0 1b 0a d9 3c 57 fe 11 bd e6 9e 6d 3c 73 dc 53 3b
       0.026494076 -0.035642948 0.014503216 0.0032327443
000200 42 8f 1f bd e0 69 83 3c 06 ee bf 3c 99 6c 1f bd
       -0.03895498 0.016041696 0.023428928 -0.038921926
000210 b6 46 be 3b 3e 83 b2 3c 26 ab 11 bd 74 26 b4 3c
       0.0058067692 0.021791097 -0.03556361 0.021990992
000220 f9 fa f4 3c 75 c9 9e 3c 04 b1 b9 bc c3 46 82 3c
       0.02990483 0.019383172 -0.022667415 0.015902882
000230 f0 9e 12 3c 0f 33 95 bc 51 9c 2d 3c 65 13 29 3c
       0.008949026 -0.018212823 0.010596351 0.010319565
000240 fa f7 c3 3c 03 a0 99 bc 84 7c 15 3d 2c 64 fc 3c
       0.023921955 -0.018753057 0.0364957 0.030809484
000250 f7 1e 14 bd 37 35 10 bd 39 43 da bc 3a e9 f2 bc
       -0.036162343 -0.035207 -0.026643382 -0.029652227
000260 be 0b 05 bd 5c 04 cc 3c 0b ee 6d 3c 9d 2a c4 bb
       -0.0324819 0.024904422 0.014522086 -0.005986525
000270 9f 43 af ba 7c 1e 83 3c 8f c8 25 3d 27 eb 38 bd
       -0.0013371593 0.016005747 0.04047447 -0.045146134
000280 2e bc 1c 3d ef 8c 2e bd b6 0d 19 3c 03 dd de bc
       0.0382654 -0.042614873 0.009341648 -0.027204996
000290 de 4e 14 bd 39 3d a3 3c 82 c5 95 3b da e7 a6 3c
       -0.036208026 0.019926654 0.004570664 0.020374227
0002a0 54 c1 dd 3c 86 83 03 3d 89 9a fb bc 47 89 af 3c
       0.027069725 0.032107852 -0.030713337 0.021427764
0002b0 65 46 1e 3d 7c 96 95 3c d6 58 51 3d 2a d4 2c 3d
       0.038641352 0.018260233 0.05111011 0.042194523
0002c0 fe c3 1a bd 8d e0 41 bd b6 f0 eb 3c c2 56 f7 3c
       -0.03778457 -0.04733329 0.028801303 0.030192737
0002d0 19 14 1b bd 49 57 06 bd d2 0d 87 3c 8a af 7e 3c
       -0.037860963 -0.032798085 0.016486082 0.015544781
0002e0 42 3b 08 3c 68 44 a9 bb 5e 42 93 3a 99 27 7a 3c
       0.008314909 -0.0051656254 0.0011234989 0.01526823
0002f0 b6 a5 ca bb 79 0d 1b bd 3e 6d 8d 3c 25 62 c5 bc
       -0.006184305 -0.037854645 0.017264005 -0.02409465
000300 dd 2e f5 bc 87 74 f2 bc f5 af 80 3b b8 ef 4f bd
       -0.029929573 -0.02959658 0.0039272257 -0.050765723
000310 0f 23 34 3c ea 5c 19 bd 14 e1 8c bc 30 70 8d bc
       0.010994687 -0.037442125 -0.01719717 -0.01726541
000320 f0 b6 14 3d 61 e6 f6 3c 71 44 34 3d 95 a9 0d 3c
       0.036307275 0.03013915 0.044010583 0.008646389
000330 3c 8f fc 3c c1 a1 00 bd 0f a0 ee 3c f7 c3 bf b7
       0.030830018 -0.03140426 0.029129056 -2.2860228e-05
000340 60 58 19 3d d3 76 34 3d 5b 25 ad 3c 17 17 70 3c
       0.037437797 0.044058632 0.021135977 0.014653943
000350 5f 67 c4 3c 9c 98 01 bc d1 8d 9a 3c f0 fc 30 bd
       0.023975072 -0.00790992 0.018866451 -0.04320997
000360 4c f6 a1 3b b3 1d ef 3b 24 b7 4b bc 04 61 61 3c
       0.004942691 0.0072972416 -0.012433801 0.0137560405
000370 d0 7e a5 bc 82 39 e3 3c 58 aa df 3c 18 91 dd bb
       -0.02020207 0.027737383 0.027302906 -0.0067616813
000380 8a a4 bb bc 97 c4 2b 3d ad db 9b 3c 59 0c 88 bc
       -0.022905607 0.04193553 0.019025648 -0.01660745
000390 31 78 07 bc eb 2b 7e 3b 68 44 8d 3c 65 21 e1 bb
       -0.008268402 0.0038783501 0.017244533 -0.006870436
0003a0 13 6c 11 3a 89 ab 93 bc fb e0 fa 3c 33 a6 9f 3c
       0.00055474153 -0.01802613 0.030624857 0.01948843
0003b0 ef 9b 0f bd 28 de 0d 3c 62 cd 9d bc d6 23 85 bb
       -0.03506082 0.008658923 -0.019262973 -0.00406311
0003c0 10 ed 92 bc e0 a9 4d bc 35 16 67 bc 39 9c 5d bc
       -0.017935306 -0.012552708 -0.014104416 -0.013526016
0003d0 63 a9 37 bc 9a 53 7e 3b e9 3b 8f 3c c0 76 1b 3d
       -0.011209819 0.0038807155 0.017484622 0.037955046
0003e0 1e 8b 19 3d 46 11 00 3d 01 ac f1 3b aa 84 32 3d
       0.037486188 0.031266473 0.007375241 0.04358355
0003f0 6e 5f fa 3c 84 d0 82 3c 24 89 58 bc 95 da d8 3c
       0.030563083 0.015968569 -0.013216291 0.026471416

layer2.0.bias f4 [64]
000000 b1 5e 7b bc 67 58 ac bc e0 03 c0 3c a6 39 e2 bc
       -0.0153424 -0.021038247 0.023439348 -0.02761538
000010 0e 35 9c 3b 5c 33 be bc 96 d4 22 3d 71 68 24 bd
       0.004767067 -0.02321785 0.03975352 -0.040138666
000020 2f 87 07 3d 5b 24 ef bc 8f ad 1d bd 66 6b 08 bd
       0.033087905 -0.02919214 -0.038495596 -0.033305548
000030 ac 6c 0f bd 2f b1 47 bb 58 69 29 3d be 0e 85 3b
       -0.035015747 -0.00304706 0.04136023 0.0040605953
000040 9a b3 a5 3b 33 14 35 bc 72 f8 1f 3d 36 55 b4 bc
       0.0050568106 -0.011052179 0.039055295 -0.022013288
000050 16 96 a6 3c 82 bc a5 3c 3c 7e 83 3c 30 2f 14 bb
       0.020335238 0.02023149 0.016051404 -0.0022611134
000060 9c de 17 bd 2f 7c 15 bd 13 8c ab 3c e0 20 f0 3c
       -0.03707753 -0.036495384 0.020940816 0.029312551
000070 9d 13 a5 3c aa 4c 08 bd 6f 03 31 3c 96 8f 0d 3b
       0.020150954 -0.033276238 0.010804041 0.0021600476
000080 7b b4 9a 39 f8 ce 88 bb ce 3b d5 3c 10 4f 95 3c
       0.00029507637 -0.004175063 0.026029494 0.018226177
000090 5e 86 a8 bc 24 88 17 3d 4f 56 04 bc e5 4c 0e 3d
       -0.020571884 0.03699507 -0.008077218 0.0347413
0000a0 33 20 0f bc c7 62 ca 3c f0 5c 91 bc 7f ae 28 bd
       -0.008735704 0.024705304 -0.017744511 -0.041182037
0000b0 f4 da 1b bc 8c 80 fd bc 53 4b 16 bd fb 2e 21 bd
       -0.009512652 -0.030945085 -0.03669293 -0.039351445
0000c0 14 4a 3c 3c 9c 67 e7 3c a1 07 b4 3c 3e 19 00 bc
       0.011492271 0.028247647 0.021976294 -0.007818518
0000d0 91 67 f5 bc 9a 88 98 3c 4f c6 03 bd 17 19 14 3d
       -0.02995661 0.018619824 -0.032171544 0.03615674
0000e0 d7 10 20 3d 5b bb b1 ba 9a 4b 09 3d dc 0d 7d 3c
       0.03907856 -0.0013559865 0.033519365 0.015445199
0000f0 f9 55 0c bd 9c 8e 04 3d 1b fb fb bc 23 9b f6 bc
       -0.034261677 0.032362565 -0.030759385 -0.030103272

layer2.1.weight f4 [64]
000000 fe ef 7d 3f dd 70 7c 3f 7c 25 82 3f d0 23 82 3f
       0.99194324 0.98609716 1.0167689 1.0167179
000010 25 3b 7b 3f 1f 6a 7a 3f 9c 57 83 3f 9c fc 7e 3f
       0.9813712 0.9781818 1.0261111 0.996042
000020 fd fe 7d 3f 24 d3 7e 3f 6b 09 81 3f 83 5d 81 3f
       0.99217206 0.99540925 1.0080999 1.0106663
000030 47 b3 82 3f b8 aa 7f 3f 60 18 81 3f a4 1f 81 3f
       1.0210961 0.9986987 1.0085564 1.0087781
000040 32 3a 80 3f 4c 3b 7c 3f ee c9 78 3f 6f 27 82 3f
       1.001776 0.9852798 0.9718312 1.0168284
000050 9f 77 80 3f 55 ee 7f 3f b2 64 7e 3f 64 b8 81 3f
       1.0036505 0.9997304 0.993724 1.0134397
000060 14 41 80 3f 5b 87 7e 3f 43 04 80 3f 46 a8 7c 3f
       1.001986 0.99425286 1.00013 0.98694265
000070 e6 ce 80 3f 31 29 81 3f f1 d2 80 3f 30 26 82 3f
       1.006314 1.0090696 1.0064374 1.0167904
000080 d8 1a 7f 3f 48 2b 7f 3f 26 3a 82 3f ca c4 80 3f
       0.99650335 0.99675417 1.0173995 1.0060055
000090 73 fe 7d 3f a0 df 7f 3f 90 ab 80 3f 7f 64 7d 3f
       0.99216384 0.999506 1.0052357 0.9898147
0000a0 58 40 80 3f 36 e4 80 3f 14 7c 7e 3f 18 ac 7e 3f
       1.0019636 1.0069644 0.9940808 0.99481344
0000b0 3e 8f 81 3f ff c7 7f 3f 02 39 7d 3f f6 08 80 3f
       1.0121839 0.99914545 0.9891511 1.0002735
0000c0 46 b9 7f 3f f7 98 82 3f 47 55 81 3f 81 4c 81 3f
       0.9989208 1.0202931 1.010415 1.0101472
0000d0 dd 6c 81 3f 73 3a 80 3f c8 c1 80 3f ba 9e 7e 3f
       1.0111347 1.0017837 1.0059137 0.9946095
0000e0 59 69 80 3f 53 bb 81 3f f2 37 80 3f 12 07 7f 3f
       1.003215 1.0135292 1.0017073 0.99620163
0000f0 e9 ee 7c 3f ee 91 81 3f 91 50 7b 3f b4 93 7c 3f
       0.9880205 1.0122659 0.9816981 0.9866288

layer2.1.bias f4 [64]
000000 e6 87 24 bc 6b 2f b1 bc 66 47 17 bc de 56 af 3b
       -0.010042166 -0.021629056 -0.009233331 0.0053509315
000010 81 8b 49 bc 94 59 6b bc 65 71 8b bc 0b 84 b3 bc
       -0.012301327 -0.014364619 -0.017021844 -0.021913549
000020 49 3e 95 bc 76 bb a1 bc f9 da 45 bc d1 8b ab bc
       -0.018218176 -0.019742709 -0.012076133 -0.020940693
000030 26 90 b6 bb b5 2f ec bb 1b b4 91 3b 71 79 bd 3a
       -0.005571383 -0.0072078356 0.004446519 0.0014455748
000040 1a 1e 20 bd 0d 88 99 bc 15 2a d4 bc 52 b2 93 3b
       -0.039091207 -0.018741632 -0.025898973 0.0045073414
000050 75 8e 2c 3c f6 e9 10 bb 99 5b de bb 0c 55 20 bc
       0.010532011 -0.0022112108 -0.0067858216 -0.009785902
000060 da 92 84 bb 7c 39 1d bb 5a 27 81 bc df 56 dd bb
       -0.0040458264 -0.0023990562 -0.015765835 -0.0067547406
000070 5e d7 0d bc 2e 36 87 bc a4 c4 23 3c 62 1b 9c bc
       -0.008657305 -0.016505327 0.009995613 -0.019056026
000080 ea 8a 14 bc a2 0a d9 bb 1c 6e 6b bc c8 fe 5c bc
       -0.009066323 -0.006623582 -0.014369514 -0.013488479
000090 31 b8 cf bc 59 61 6f bc 1e a7 c5 bc b6 18 fb bc
       -0.025356384 -0.014610612 -0.02412754 -0.030651432
0000a0 c5 b0 12 ba 07 3f b7 bc d0 2a 4f bc ed 18 b1 38
       -0.0005595799 -0.022368921 -0.012644485 8.4446605e-05
0000b0 94 46 02 bd e2 05 b3 bc 6d 07 e4 3b 39 72 a2 bc
       -0.03180559 -0.021853391 0.006958893 -0.019829856
0000c0 b7 2f 4a bc 31 08 4c 3c d4 e3 10 bc a4 ac c6 bc
       -0.012340478 0.012453125 -0.008843381 -0.024252243
0000d0 cb b8 c4 bc 09 5e 28 bc a7 ee af bc 80 1c 92 bc
       -0.024013897 -0.010276326 -0.021476103 -0.017835855
0000e0 07 80 a9 3a 8e 9e 03 bc 8c 49 9e bb 9d 94 e1 bb
       0.0012931832 -0.008033408 -0.004830545 -0.006884171
0000f0 c2 3f be ba 97 f6 97 3a 02 32 95 bc 2c 41 db bc
       -0.0014514851 0.0011593875 -0.018212322 -0.026764475

layer2.1.running_mean f4 [64]
000000 48 05 ab bd 2a 0e c5 3e 7a 77 ed 3d f5 cf 8f be
       -0.08350617 0.3848737 0.11595054 -0.28088346
000010 90 66 52 3e e5 bd f3 3e 98 76 6f 3d 01 6a 05 bd
       0.20546937 0.47605816 0.05846271 -0.032571796
000020 ec 24 83 3c 3c d7 03 3e 52 20 f7 be a1 76 e5 be
       0.016008817 0.12875074 -0.48266846 -0.4481707
000030 79 fc 3c bd de 04 ef 3d ea fa 07 bf 87 09 42 3d
       -0.046139214 0.1167085 -0.5311724 0.047372367
000040 fc 22 2b bd 68 bd 4a be b3 d3 33 3e 2e 3f 07 bf
       -0.04178141 -0.19798815 0.17561226 -0.5283078
000050 03 ca 98 be fd 2a d3 be 98 73 8d bd e7 ad 2a 3d
       -0.29841623 -0.41243735 -0.069068134 0.041669752
000060 f6 c1 d4 be 39 29 35 3e 48 32 2c bf 3d 08 72 3e
       -0.4155423 0.17691506 -0.67264223 0.23635955
000070 ee 7a 12 bd ee 6a 4f be 87 36 c5 3d 20 e8 cc 3d
       -0.035761766 -0.20255634 0.09629541 0.10005212
000080 c2 3f 8f bd e8 13 d9 3d dc 24 23 bf 8a ef c8 3e
       -0.06994583 0.105995 -0.6372812 0.39245254
000090 83 7f 0c 3e f8 8f f5 bd 4e 22 a9 be 8d 15 d7 3e
       0.13720517 -0.119903505 -0.33033985 0.4200863
0000a0 d1 ed a1 bd 00 1e 91 3c 36 34 96 3e 59 22 56 be
       -0.07906688 0.0177145 0.2933671 -0.2091154
0000b0 c7 07 f4 ba 0b cc 98 bd 36 64 d4 be f2 7c 4c bf
       -0.001861804 -0.07460793 -0.41482705 -0.7987815
0000c0 57 e5 09 be f9 35 84 be 1a 53 4d 3e 09 98 91 3d
       -0.13466392 -0.25822428 0.20051232 0.071090765
0000d0 01 06 38 3d db ac 89 be da 74 4e be 79 1d cb be
       0.0449276 -0.2688969 -0.20161763 -0.39670923
0000e0 7e f2 7a bc f9 d3 0c bf 77 3c 12 3e 63 ee fa 3c
       -0.015316604 -0.55010945 0.14280878 0.03063125
0000f0 0e 48 8e 3e 01 c9 6e be 94 7e 63 3e 86 fa d5 3e
       0.27789348 -0.23318864 0.22216254 0.41792697

layer2.1.running_var f4 [64]
000000 2d c9 d2 3d f1 dc 35 3e 30 c8 6e 3d 81 4f 92 3d
       0.102922775 0.17760064 0.058296382 0.071440704
000010 ce e2 9d 3d 23 17 b0 3d 6e 74 58 3d c0 12 94 3d
       0.07709275 0.08598163 0.05284541 0.07230139
000020 57 25 b5 3d f6 8a a9 3d 8f 12 e6 3d 2c 1f 57 3d
       0.08845013 0.08278458 0.112340085 0.052519962
000030 19 a4 51 3d e9 5c f3 3d a0 4d d6 3d d0 cc 0a 3e
       0.051181886 0.118829556 0.104640245 0.13554692
000040 cc aa 36 3d 10 a7 ec 3d 32 79 b7 3d 49 30 a8 3d
       0.04459648 0.11555302 0.08958663 0.08212335
000050 48 42 11 3e 8e 8a 27 3e 97 d2 89 3d b3 8f 8e 3d
       0.1418544 0.16361448 0.0672962 0.06961002
000060 5c 0f 8e 3d ac 90 3e 3d ba 87 02 3e d2 a1 ee 3d
       0.06936523 0.04652469 0.12747088 0.116519585
000070 c1 46 d5 3d 4c 45 8c 3d 7c 84 be 3d 38 cf cc 3d
       0.10413886 0.06849155 0.09302613 0.10000461
000080 cf e3 88 3d 85 98 15 3e 27 e4 9f 3d 23 e9 eb 3d
       0.06684076 0.14608963 0.078071885 0.11519077
000090 ea 2b 9d 3d 14 0c a8 3d 06 95 94 3d 89 15 a6 3d
       0.076743916 0.08205429 0.072549865 0.08109576
0000a0 f2 89 ba 3d 40 64 c4 3d 2f 20 c7 3d 18 0c 89 3e
       0.09108342 0.09589434 0.097229354 0.2676704
0000b0 ce 48 a5 3d 25 f0 f1 3d 80 b7 c1 3d d8 71 4c 3e
       0.08070527 0.11813382 0.09458828 0.19965303
0000c0 19 af c2 3d 7d 1f 81 3d 3c c2 cb 3d 6e 18 1d 3d
       0.095060535 0.06304834 0.09949157 0.038353376
0000d0 20 18 bb 3d 48 fd ee 3d 2f 24 43 3d d4 9d 63 3d
       0.09135461 0.11669403 0.04764193 0.05557044
0000e0 e7 25 b0 3d 3b 94 49 3e a8 8a 4f 3d 47 74 a0 3d
       0.08600979 0.19685452 0.050669342 0.07834678
0000f0 4f 1c 9f 3d ef ed 0b 3e 47 e0 6f 3d a4 ac 0e 3e
       0.07769071 0.13664983 0.058563497 0.13933045

layer3.0.weight f4 [64, 64, 3, 3]
000000 2e 1d 3d bc 17 95 42 bd df b9 e0 3c f6 08 52 3b
       -0.0115426015 -0.047505464 0.02743238 0.0032048798
000010 bf 7b b6 ba 6e 86 c5 bc f2 45 62 bc 81 ce 85 bb
       -0.0013922377 -0.024111953 -0.013810622 -0.004083455
000020 22 50 34 bd 95 64 0a 3c 32 71 3e 3c d8 f5 47 bd
       -0.044021733 0.008446832 0.011623668 -0.04881844
000030 0b d2 5a bb 52 f4 1e bc bf 4e f9 bc 9c 92 a7 bc
       -0.0033389356 -0.009701805 -0.030433057 -0.020455651
000040 33 dc 8a 3c 73 1d 38 3d af 3b 38 3d 0b c8 80 bc
       0.016950702 0.04494996 0.044978794 -0.015720388
000050 b4 1c 07 bc 6b ed cf 3c eb e3 4c 3d e5 a4 ea bc
       -0.008246589 0.025381764 0.050022047 -0.028643081
000060 a4 16 72 3c 10 61 a4 3c ed ef 88 bc 00 b1 89 bd
       0.014775906 0.020065814 -0.016715968 -0.06723213
000070 91 c8 9b bc d6 54 0e 3d ae b5 31 bd 6f ca 0a 3d
       -0.019016536 0.034748875 -0.043386154 0.033884462
000080 b8 e8 d2 bc f6 d1 e4 3b 14 4c 0e bc 09 1e 09 bd
       -0.025745735 0.006983037 -0.008685131 -0.03347591
000090 b8 85 ff bc e2 d8 0d bd 6a fb bf bc 6a 44 c0 3b
       -0.031191692 -0.034630664 -0.023435313 0.0058675306
0000a0 dd 8a 6f 3c df 1b e3 3b fd 29 c9 bc 61 13 e0 3b
       0.01462051 0.0069308127 -0.024556154 0.0068382476
0000b0 32 02 b3 bb 96 da a5 bc 59 16 93 3b 82 ed 67 3c
       -0.005462908 -0.020245831 0.004488748 0.014155747
0000c0 7a d4 f2 bc 51 60 c7 bc 1f 38 d6 3c e4 2d a3 3b
       -0.029642332 -0.02433792 0.026149807 0.004979836
0000d0 bf 90 4a bc fb a1 e1 b9 5c 69 aa bc e0 71 78 3b
       -0.012363612 -0.0004303603 -0.020802192 0.0037909672
0000e0 d5 3d 1c bd c8 c1 58 3d 01 e3 e8 3c f4 98 ef bc
       -0.038144905 0.05291918 0.028428556 -0.029247738
0000f0 2b bc bb 3c 8e bc 38 3d 0b 42 6f bc fd 0c 97 3c
       0.022916874 0.045101695 -0.014603148 0.01843881
000100 a1 82 46 3c c6 22 ca bc 39 54 60 3c fd de af 38
       0.012116105 -0.024674784 0.013691955 8.386185e-05
000110 d4 0b e6 bb a6 17 e7 bb 99 95 1e bd b5 55 bb 3b
       -0.007020453 -0.0070523797 -0.038716886 0.005717004
000120 1c 01 3c ba 35 da 97 3c 56 cf ad bb 11 79 0e 3d
       -0.0007171796 0.018536666 -0.0053042574 0.034783427
000130 05 28 27 3d 6b de 3a bb 45 7c b5 bc 43 38 08 3d
       0.04080965 -0.002851392 -0.022153983 0.03325678
000140 6f 4a 06 3c f3 e7 7a 3c 24 42 9f bb 44 19 80 3c
       0.008196457 0.01531409 -0.0048601795 0.015637048
000150 d9 26 c3 3c e1 a3 25 3d 7a d9 ea bb 88 a5 bf 3b
       0.023822235 0.04043949 -0.0071670385 0.0058485903
000160 f7 cd 1d bc 86 98 57 bc 8c b0 a3 3c be 16 08 3a
       -0.009631625 -0.013158923 0.019981645 0.0005191377
000170 a6 cd 0d bc 4e 9e 41 3d 0a e8 56 bd 6a f9 1e bd
       -0.008654987 0.04727011 -0.052467383 -0.03881208
000180 4f 2a b8 3c f0 b1 a8 bb 4f 5f 37 bd f3 2b e7 bc
       0.022481112 -0.005148165 -0.044768628 -0.028219199
000190 e9 0e 59 3a ad 2c ec 3c 7d 7c 2f bd 8a 52 f1 bb
       0.0008280115 0.028829897 -0.04284333 -0.0073645758
0001a0 a9 a8 0d bb db 73 4d bd 6c b8 bd b8 e3 98 00 bd
       -0.0021615422 -0.050159317 -9.0465735e-05 -0.031395804
0001b0 7c a7 5f 3a f6 e9 63 3a af e2 22 3d 35 3f f3 bc
       0.0008531732 0.00086942257 0.039766964 -0.029693225
0001c0 56 57 4f 3c bf 9f 7f bc 35 bc 48 bb eb c6 d7 3c
       0.0126551 -0.015602051 -0.0030629758 0.026339969
0001d0 96 03 59 bb 47 1a 1e bc 40 b4 22 3d 7d 1b 46 3c
       -0.003311371 -0.00964982 0.03972268 0.012091515
0001e0 04 d9 23 3d 09 31 9a 3c e0 3e 88 3c 30 ae 1c bd
       0.040001884 0.01882221 0.016631544 -0.038252056
0001f0 1e b7 11 3d fe 71 e0 bb bf d7 ee 3b 51 41 82 3c
       0.035575025 -0.0068495264 0.0072889025 0.015900286
000200 20 ef 41 3d 35 79 88 bc 3e 66 ef 3c 24 91 84 3c
       0.047347188 -0.016659359 0.029223558 0.01618249
000210 b3 cc 27 3d a0 7d 0f bc b5 81 96 bc d1 94 18 3d
       0.0409667 -0.008757979 -0.018372396 0.037251297
000220 43 31 33 bd 29 73 f9 bb ec 7e 73 3c 1c ee 2c bd
       -0.04374815 -0.007612605 0.0148618035 -0.042219266
000230 d7 61 0a bd a8 20 e5 3b 32 bd 1a bd ea 07 ee b8
       -0.033784714 0.0069924183 -0.037778087 -0.000113501985
000240 85 e4 a5 bc 18 17 36 bd ef 7d 3d bd 7e 96 bf ba
       -0.020250568 -0.044455618 -0.046262678 -0.0014616994
000250 5a 05 a7 3c 66 a9 be bc c1 d5 10 3d 3f a7 bc bb
       0.020388294 -0.023274135 0.0353601 -0.005757242
000260 ae 84 d7 3c 9f 55 85 bc f5 c4 e5 bb e9 13 da bc
       0.026308384 -0.016276179 -0.0070120045 -0.026620822
000270 8f 20 08 bd b7 ea 90 3c b4 b2 ce 3c 5a e4 71 bc
       -0.033234175 0.017690046 0.025231697 -0.014763916
000280 b5 ec 98 3b ef 89 4a b9 1c 0d 2e bc c9 7c 45 3c
       0.0046668896 -0.00019315605 -0.010623243 0.012053677
000290 13 f1 4c 3d 01 fa 33 3c 85 c9 e0 3c 97 2b 6b bc
       0.050034594 0.010984899 0.027439842 -0.014353654
0002a0 1c 59 57 3c fd ba 28 bd 4f e7 fb 3a b0 33 31 3d
       0.013143804 -0.04119395 0.0019218716 0.043262184
0002b0 97 c8 e7 bc 91 a4 f0 bb 29 b3 b0 3c 75 07 cf 3c
       -0.02829389 -0.0073438366 0.021569805 0.02527211
0002c0 36 f7 fd bc 3d 9e 06 3d 70 a7 3f 3b d9 2d 15 3c
       -0.031001668 0.03286575 0.0029244088 0.009105169
0002d0 6b e7 de bc 5a 43 e7 bc b7 02 16 bd ff 19 84 3c
       -0.027209958 -0.028230358 -0.036623683 0.016125677
0002e0 56 5e c3 bc e5 dd 49 bc 7a ac 10 3d e0 5a 03 bc
       -0.023848694 -0.01232097 0.035320736 -0.008017272
0002f0 ed ac 7b bc 04 28 c5 bc d0 a6 34 bd cd f7 c5 bc
       -0.015361053 -0.024066932 -0.044104397 -0.024166012
000300 07 02 09 3c 06 cf d4 3c c5 e3 fc bb 87 b7 2f bd
       0.0083623 0.025977623 -0.007717582 -0.042899635
000310 69 a2 aa bc 1a 00 c0 3c 69 a7 13 3d ed bf d8 bc
       -0.020829396 0.023437548 0.036048327 -0.026458705
000320 08 bd f2 bb b5 ff 1d 3c 0a b8 96 3b b0 56 35 3c
       -0.007407788 0.009643485 0.004599576 0.011068031
000330 bb 25 fc 3b 2e 87 e7 bc c1 78 1f bc 19 3f ff bc
       0.0076949275 -0.0282627 -0.00973338 -0.031158017
000340 7f c1 88 3b 74 e1 01 3c 5d 5c 84 3b 12 f1 5f bc
       0.004173457 0.007927287 0.004039331 -0.0136683155
000350 c2 f0 29 bc 2d 79 42 bc 67 49 20 bd 28 bf 93 3b
       -0.010372343 -0.011869711 -0.039132502 0.0045088716
000360 65 32 b6 bc ca fc 29 3c f3 40 22 bc 4c e4 d6 3c
       -0.022240827 0.010375211 -0.00990318 0.026231907
000370 ce a2 a9 bc 53 99 ee 3c 9e 6b 0f 3d e3 20 ed bc
       -0.020707514 0.029125845 0.03501474 -0.028946346
000380 a6 ac c5 3c c6 c7 09 3d 3e 8a fb 3b 71 e7 77 3a
       0.024130177 0.033637784 0.007676392 0.00094567897
000390 d8 36 89 bc b6 ea aa 3b 0a a8 ca 3b b9 80 06 3d
       -0.016749784 0.005215968 0.0061845826 0.032837603
0003a0 a2 01 99 3c 85 3d 71 3c de 45 9f bd 27 ca 19 bd
       0.018677536 0.01472414 -0.07776998 -0.037546303
0003b0 31 15 20 bd 76 f5 44 3c f2 83 b8 3b 39 15 28 3d
       -0.03908271 0.012021413 0.0056309635 0.041035865
0003c0 f3 d1 ae 3c e5 33 0b bc f5 e8 08 bd e6 bb 2a bb
       0.021340346 -0.008496259 -0.03342529 -0.0026051938
0003d0 98 88 1e 3d cf 57 84 bc 75 1e d7 bc 49 8c ef bc
       0.038704485 -0.016155152 -0.02625964 -0.029241698
0003e0 1d 6b ce 3b ff 55 8d bc f4 01 ad 3c e0 e5 34 bd
       0.00629939 -0.01725292 0.021119095 -0.04416454
0003f0 8b fd 90 3c 3e 9f 93 3c 20 d7 02 bc a2 8c ca 3b
       0.017699024 0.018020269 -0.00798586 0.0061813155

layer3.0.bias f4 [64]
000000 8b ac 1d bd 4e 7b 1a bc 77 13 b7 3b da 03 3c 3c
       -0.038494628 -0.009428812 0.005587037 0.011475528
000010 7b 12 08 bd 98 86 b0 3c 8c ba 06 3d f0 43 fe 3b
       -0.03322075 0.021548554 0.03289275 0.0077595636
000020 34 38 c9 bb 50 51 06 3d 9f 73 ce 3b a8 8b 18 3d
       -0.006140733 0.03279239 0.006300404 0.03724256
000030 7c 9f 52 bc 50 d0 cb 39 6a e0 a6 bc c6 10 34 3c
       -0.012855407 0.00038874382 -0.02037068 0.010990327
000040 e5 f9 c3 bc 61 0b d7 bc 73 f4 d6 bc 5d 5b 23 3a
       -0.02392287 -0.026250543 -0.02623961 0.0006231571
000050 2e d9 86 bc fd 40 13 bd fd 8e 5a 3c 59 82 8d bc
       -0.016460981 -0.03595065 0.013339755 -0.017274069
000060 2b bb 2e b8 43 f8 cd bc be 57 ad 3c 40 c5 bb 3c
       -4.1659147e-05 -0.025142794 0.021160003 0.022921205
000070 6f a8 89 bc 94 ee 0e 3b fa a4 21 3b 1f 3b fd bc
       -0.016803948 0.0021809684 0.0024664984 -0.03091198
000080 e5 cc 03 3d a9 71 cd bc 1c f4 55 3c 69 01 08 3d
       0.032177825 -0.025078611 0.0130586885 0.03320447
000090 16 cf 13 bc 07 5e 07 3b d7 89 f6 3c ae 19 9e bc
       -0.009021541 0.002065541 0.030095024 -0.019299354
0000a0 d2 64 dd bc 94 76 69 3c b7 6c 80 3c a0 6a 9c 3c
       -0.027025614 0.014249463 0.01567684 0.019093812
0000b0 71 2a 01 3d 46 3e 13 bd 84 af b7 3c 35 8f ba bc
       0.031534616 -0.03594806 0.02242256 -0.022773365
0000c0 08 a9 07 3c da 2c bc bb aa b1 1f 3d e1 ec 5f bb
       0.008280046 -0.0057426514 0.038987793 -0.003416829
0000d0 51 4b 0e 3d 9f e2 27 bb f3 e6 9c 3c 3a 53 10 3d
       0.034739796 -0.0025617254 0.019153094 0.03523562
0000e0 f3 a2 7f 3c 6e b4 80 bc 94 4f 9d 3c a6 da 65 bc
       0.015602815 -0.015711036 0.019202985 -0.014029181
0000f0 d0 8a 0a 3d da 63 3b 3b b1 a6 28 bd a0 6c f3 3c
       0.03382379 0.0028593452 -0.041174594 0.029714882

layer3.1.weight f4 [64]
000000 bd 83 7b 3f de dd 7a 3f 96 6a 7f 3f 75 e8 7f 3f
       0.9824789 0.9799479 0.9977201 0.99964076
000010 db 23 7c 3f dc 72 82 3f b7 8c 7d 3f c8 8b 89 3f
       0.9849221 1.0191302 0.9904284 1.0745783
000020 62 50 76 3f fc 43 7c 3f 72 b2 83 3f 73 6d 79 3f
       0.96216404 0.98541236 1.0288832 0.9743263
000030 ec bf 7e 3f b8 de 77 3f 18 3b 80 3f 8f 27 82 3f
       0.995116 0.96824217 1.0018034 1.0168322
000040 41 99 7e 3f 5e d9 7f 3f 3e f2 81 3f d9 0b 7b 3f
       0.99452597 0.9994105 1.0152051 0.98064953
000050 d2 92 7f 3f b9 39 82 3f 42 66 77 3f 31 a4 87 3f
       0.99833405 1.0173866 0.9664041 1.0596982
000060 74 ad 7b 3f 89 92 7f 3f e2 6e 79 3f 58 f3 82 3f
       0.98311543 0.9983297 0.9743482 1.0230513
000070 4b c1 80 3f 44 fe 83 3f ac d6 79 3f e2 92 83 3f
       1.0058988 1.0311971 0.9759319 1.02792
000080 ea 3a 79 3f 1d 97 81 3f 1b 33 7e 3f 27 20 79 3f
       0.9735552 1.0124241 0.9929673 0.97314686
000090 84 77 89 3f 25 3b 7b 3f aa 4e 88 3f 75 a9 7b 3f
       1.0739598 0.9813712 1.0649006 0.98305446
0000a0 7c 96 7f 3f d9 36 80 3f 09 7b 7a 3f 40 27 79 3f
       0.99838996 1.0016738 0.97843987 0.97325516
0000b0 aa 02 80 3f 8f 2e 77 3f b5 e6 83 3f 5c 42 86 3f
       1.0000813 0.9655542 1.0304781 1.0489001
0000c0 63 ed 7e 3f d9 7f 83 3f a7 06 82 3f 26 12 81 3f
       0.99580973 1.0273391 1.015828 1.0083663
0000d0 56 da 79 3f cb 75 7e 3f 50 3d 7d 3f 1f 8e 7d 3f
       0.9759878 0.9939849 0.9892168 0.99044985
0000e0 c8 d5 7a 3f 35 95 7b 3f 11 3a 7d 3f 24 d8 7f 3f
       0.97982454 0.98274547 0.9891673 0.9993918
0000f0 0d 74 81 3f 2b f2 80 3f a4 24 80 3f 0c 0a 73 3f
       1.0113541 1.0073904 1.0011182 0.94937205

layer3.1.bias f4 [64]
000000 3e 11 1a bc 5b ee a1 bc 74 a3 ef bc 00 97 45 bc
       -0.009403525 -0.019766977 -0.029252745 -0.012059927
000010 d3 cf 88 bc ce c9 ee bc 92 e7 01 bd c4 3d 21 bd
       -0.01670066 -0.029148962 -0.031714983 -0.039365545
000020 12 eb 2d bd b8 93 09 bd 91 ad 30 bd 46 c7 0e bc
       -0.04246051 -0.03358814 -0.043134276 -0.008714503
000030 de 63 4d bc a2 7f 5d bc 41 7f d0 bc 5f 31 d0 bc
       -0.012536017 -0.0135192 -0.025451304 -0.025414167
000040 6c 7f 09 bc e7 d3 9f bc fb 97 0a bd d8 4b a0 bc
       -0.008392196 -0.019510223 -0.033836346 -0.019567415
000050 0a eb 12 bd 91 53 9d bc ce 62 7e bc 04 50 db bc
       -0.035868682 -0.019204887 -0.015526487 -0.026771553
000060 7b f7 02 bd 78 f6 86 bc d7 40 4e bc 12 39 02 bd
       -0.031974297 -0.016474947 -0.012588701 -0.031792708
000070 09 33 33 bc 83 60 ce bc 32 3a 99 bc b5 bd 29 bd
       -0.010937461 -0.025192505 -0.018704507 -0.041440684
000080 59 13 d8 bc 2e 42 ab bc 48 da ad bc 88 2f a6 bc
       -0.026376413 -0.02090558 -0.021222249 -0.020286337
000090 8c a8 19 bd 1f dc 69 bc f7 19 66 bd 57 f9 91 bc
       -0.037514254 -0.014273672 -0.056177106 -0.01781909
0000a0 6c d9 13 bc 23 05 56 bc c6 3c 06 bc 97 3e c8 bc
       -0.009024005 -0.013062748 -0.0081932 -0.024443908
0000b0 6a 0c a8 bc 1c ed 7e 39 4a 37 45 bd ff d0 e7 bc
       -0.020513732 0.00024311658 -0.04814843 -0.0282979
0000c0 a4 a0 cf bc e7 fd d7 bc e1 57 6e bc 5c 6a dd bc
       -0.025345154 -0.026366187 -0.014547319 -0.027028255
0000d0 87 e0 43 bb bf 12 84 bc de c6 58 bc d9 ca 1a bd
       -0.0029888467 -0.01612222 -0.013231007 -0.037791107
0000e0 da 9b 6d bc e2 b6 1f bc e6 c2 86 bc e3 20 ca bc
       -0.01450249 -0.0097481925 -0.016450357 -0.024673885
0000f0 48 02 3d bc a1 53 58 bc db 7b 71 bc 36 c9 c5 bc
       -0.011536188 -0.013203532 -0.014739002 -0.024143796

layer3.1.running_mean f4 [64]
000000 c7 ab 06 be ca 0e 8d 3c 27 47 ca bd 1b a3 3a 3e
       -0.13151465 0.017218966 -0.098768525 0.18226282
000010 b2 40 7c 3d 0f 81 01 be b1 00 a8 3e 47 4e 03 bf
       0.061585136 -0.12646888 0.32813028 -0.51291317
000020 9b 80 6f 3e 55 25 d2 bd ef b4 ab be 5e ac 89 ba
       0.23388903 -0.10261027 -0.3353648 -0.001050364
000030 66 2c 51 be 91 af 72 3d d3 3c 80 bc 61 0d 77 be
       -0.20427093 0.059249464 -0.015654003 -0.24126197
000040 4b c9 49 be 28 50 32 bd 18 b7 0c 3d 0b 61 77 3d
       -0.19705693 -0.043533474 0.0343543 0.06039528
000050 8e 78 96 be 28 52 5d 3d be 36 9f 3e c3 54 6f bd
       -0.2938885 0.05403343 0.31096452 -0.058430444
000060 6a cb f7 bd 39 f9 41 bd 34 06 22 be 44 68 4a be
       -0.12099345 -0.047356818 -0.15822679 -0.19766337
000070 34 6b 6e 3d 5d 77 0a 3c a1 d2 bc be 49 f6 e6 3c
       0.058207706 0.00845131 -0.36879447 0.02819361
000080 79 9b 55 3e 0e ca 8e 3e e8 84 b5 3d 86 54 4a be
       0.2086009 0.2788853 0.088632405 -0.19758806
000090 47 dd 47 bd 4a f1 33 3e 67 15 f9 3c 2e a1 b4 3d
       -0.04879501 0.17572513 0.030405713 0.08819805
0000a0 fa 2e e4 be 11 93 1a be b9 da d4 be 00 7d 9e 3e
       -0.4456709 -0.15095164 -0.41573122 0.30954742
0000b0 86 4a dd 3c a6 79 36 bf 28 0c d2 3c d3 a6 9f be
       0.027013075 -0.7127937 0.025640562 -0.31181964
0000c0 cc f5 61 bd 0b 05 ea bd 30 38 38 3e 02 d8 11 3e
       -0.05516605 -0.11426743 0.17990184 0.14242557
0000d0 38 f3 02 bf 35 62 c0 be 07 8f ce 3d 67 cd 97 be
       -0.5115237 -0.37574926 0.10085874 -0.29648897
0000e0 c5 08 10 3e 88 c2 24 be 60 31 23 be 3a 2e e5 3e
       0.14065845 -0.16089833 -0.15936804 0.4476183
0000f0 f6 c5 bd be 93 e4 00 bf 47 75 a4 be 97 a9 e0 3e
       -0.37065095 -0.50348777 -0.32120726 0.43879387

layer3.1.running_var f4 [64]
000000 df 93 49 3e c8 8b 06 3e 21 e2 f0 3d cb c2 1c 3e
       0.19685315 0.1313926 0.11761881 0.15308683
000010 69 ac 08 3e 3c 2a d1 3d 3b 39 70 3e e0 a2 8f 3d
       0.1334702 0.10213134 0.23459332 0.07013488
000020 9f bf 9f 3e 4f 1f 3b 3e 16 c3 cc 3d 25 c6 88 3e
       0.31200883 0.18273662 0.09998147 0.26713672
000030 15 39 13 3e 9a 93 52 3e 16 0b 03 3e 9f b7 ba 3d
       0.14377244 0.20564118 0.12797198 0.09117054
000040 a7 b9 33 3e 66 cb ae 3d 58 88 ce 3d 0d 1e 03 3e
       0.1755129 0.08534889 0.10084599 0.12804432
000050 5d 47 f6 3d ee 75 aa 3d 13 b0 89 3e b0 ed c0 3d
       0.1202533 0.083232746 0.26892146 0.09420335
000060 ce e8 3f 3e e5 87 05 3e c5 e2 d4 3e 14 40 8c 3d
       0.18741152 0.13040121 0.4157926 0.068481594
000070 93 97 15 3e 41 c6 69 3d 69 68 1a 3e b7 fa bf 3d
       0.14608602 0.057073835 0.15078892 0.09373992
000080 8b f6 75 3e 39 c2 fa 3d 40 33 31 3e d7 8c 9f 3e
       0.2401983 0.12244076 0.17304707 0.3116214
000090 1e d2 6d 3d e5 01 55 3e 07 17 89 3d 6c 4f 03 3e
       0.05806171 0.20801504 0.06693845 0.12823266
0000a0 93 6b 01 3e 15 60 0e 3e 6d 06 9d 3e 2d 52 72 3e
       0.12638693 0.1390384 0.30668965 0.2366416
0000b0 6f 34 31 3e 79 82 08 3f 1d e7 c7 3d b0 a5 75 3d
       0.17305158 0.53324085 0.09760878 0.059972465
0000c0 00 f9 14 3e 21 b5 42 3d e0 85 62 3d 65 d0 1b 3e
       0.14548111 0.04753602 0.055303454 0.15216215
0000d0 9c 1d e2 3e 52 c3 3b 3e 97 a7 20 3e fa 51 4a 3e
       0.44163215 0.18336228 0.1568893 0.19757834
0000e0 48 b1 09 3e 59 57 1b 3e e4 23 0d 3e 24 24 3d 3e
       0.13446534 0.15170039 0.13783222 0.18470818
0000f0 44 da 01 3e d3 51 d5 3d a4 ce 2c 3e de d4 d6 3e
       0.12680918 0.10415997 0.16875702 0.4195928
