FAST 3D-CNN P-NET/model/IP/IP_proto_2d-5shotband15.pth (torch, 491441 bytes, 24 tensors)

layer1.0.weight f4 [64, 15, 3, 3]
000000 ea 04 57 3b 92 0a 7e 3d dc 13 9b 3d 00 ee 90 bd
       0.0032809325 0.0620218 0.07572147 -0.07076645
000010 ae 48 da 3c 31 07 85 3d eb 9a 93 bc 73 c4 8b bd
       0.026645985 0.06495512 -0.018018207 -0.06824579
000020 53 d6 dc bd 0f 02 3b bd 88 3a 39 3c b0 76 0c 3c
       -0.107830666 -0.04565626 0.011305459 0.008573219
000030 05 a2 07 3d 50 75 e7 3c 28 c5 0a bd 7c fc 46 bd
       0.0331135 0.028254181 -0.03387943 -0.04858063
000040 ba a0 67 3d 3b 52 28 bb 2e 16 93 bd ae 39 52 bd
       0.056549765 -0.0025683779 -0.07181965 -0.05132454
000050 48 53 8e 3d 89 2c 82 bd cc a0 89 bc 82 ab 0b 3d
       0.069494784 -0.06356151 -0.016800307 0.03409911
000060 02 a2 7a bd 59 d6 44 3c af 1e 5a 3d 50 88 86 bd
       -0.06118966 0.012013995 0.05325192 -0.06568968
000070 16 12 37 3c 37 cf 26 bc fe 95 85 3d d7 df f7 3c
       0.011173746 -0.01018124 0.06522749 0.030258102
000080 e4 94 04 3d 37 8c 3d 3d d1 c3 79 3d 84 de 39 bd
       0.032368556 0.046276297 0.06097776 -0.045378223
000090 4f 0f 78 bb cc b0 8c 3b d7 7b 9a bd 3b 4f 60 bd
       -0.0037850922 0.004293537 -0.07543152 -0.05476306
0000a0 82 7d ea 3c 6c d5 19 3d 0b 69 b9 bc e4 df ec 3c
       0.0286243 0.03755705 -0.022633096 0.028915353
0000b0 72 88 c3 bd 4b 3e 2c bd 8b 95 8f 3d ea 25 a7 bd
       -0.09547509 -0.042051595 0.07010945 -0.081615284
0000c0 fe 88 02 3b 6a 6e 0c 3d 44 37 2e 3d f3 11 8b bb
       0.001991808 0.034284987 0.042533174 -0.004244083
0000d0 2a 63 91 3c 64 aa 08 3d 61 68 5a 3d 62 3c 96 3c
       0.01774748 0.033365622 0.0533222 0.01833934
0000e0 b6 be 71 3d 96 04 c0 bc 0b d6 be bd 05 d1 1e bd
       0.059019767 -0.023439687 -0.09318169 -0.038773555
0000f0 8a 56 94 3d 28 76 ee 3a 41 44 15 bd ce de 04 bd
       0.072430685 0.0018193172 -0.036442045 -0.032439046
000100 80 8d 5d 3d e9 fd 1d bd 66 a2 1d 3d 17 e1 bd bc
       0.054090023 -0.038572226 0.038484953 -0.02317862
000110 e9 94 80 b9 48 05 2d bd b9 1c 3b 3d 7a d6 d6 bb
       -0.0002452501 -0.042241365 0.04568169 -0.0065563293
000120 d2 dc a6 3d 75 28 83 3d 7e 6a 5e bd 29 7a c9 3a
       0.08147587 0.06404201 -0.054300778 0.001537149
000130 87 86 f3 3c 0e 48 ce bd 62 1f 85 3d 94 b1 b4 bd
       0.029727234 -0.10072337 0.065001264 -0.08822933
000140 c1 65 3f 3d eb f0 8a 3c 6f 24 7e bd 34 4e 67 bd
       0.0467279 0.016960582 -0.062046465 -0.056471065
000150 6a 01 9a bd ad e9 8a ba 6a 39 51 3d 7d 1e 8a 3d
       -0.07519801 -0.0010598205 0.051080145 0.067440964
000160 8b 46 35 3d 26 8d 06 3d c9 8f ea 3c 88 ca 01 bd
       0.04425673 0.032849453 0.028633015 -0.03168729
000170 9d 9f 36 3d b4 09 a9 3c 15 21 c3 ba 30 ca bb 3c
       0.044585813 0.02063451 -0.0014887179 0.022923559
000180 23 43 31 bc 33 89 7d 3d cd 18 a4 3d 75 cb 97 3c
       -0.010819229 0.06189842 0.08012543 0.018529633
000190 a9 02 47 bd 5b 25 1d bd ee 0c b1 3b e5 12 b2 bd
       -0.04858652 -0.038365703 0.0054031527 -0.0869501
0001a0 22 16 a3 3b d7 a2 f4 3c ce a5 66 bd 79 9e ca bd
       0.0049770037 0.029862804 -0.056310467 -0.098935075
0001b0 f9 08 0c 3d 1e 52 99 3d 8e 1e 99 3d 3f ab 4d bd
       0.034188244 0.07486366 0.07476531 -0.05021214
0001c0 53 f7 91 3d 05 0a 0d bc ee 97 4c b9 b7 b3 88 3d
       0.071272515 -0.008608346 -0.00019511554 0.06674903
0001d0 47 63 59 3d e2 1b 80 bd 4c 3b 82 bc 84 f1 38 bd
       0.053073194 -0.06255318 -0.015897416 -0.045152202
0001e0 8f 8c 3c bc 41 b2 8a bc 98 06 b4 bd fa 16 5f bd
       -0.011508121 -0.016930701 -0.0879032 -0.05446527
0001f0 43 4e d4 bc b6 18 3e bd 11 a5 6b 3c 1c c0 94 bd
       -0.025916224 -0.046410285 0.014382617 -0.072632045
000200 37 5a 23 3d 3f 50 67 3d 4b 35 d5 bd be e8 71 bd
       0.039880957 0.056473013 -0.104105555 -0.05905985
000210 0a 81 50 3b 70 b0 9d ba de 99 80 bd a4 85 63 3b
       0.0031815195 -0.0012030732 -0.06279348 0.0034717107
000220 b7 cf 48 bd c2 7a 46 3d d7 35 aa bd a6 5e 6d 3d
       -0.049026217 0.048456915 -0.083110504 0.057951592
000230 d4 ed c3 3c c9 de 68 3d 1d 90 8e bd 82 17 04 bd
       0.023917116 0.05685309 -0.06961081 -0.03224898
000240 93 c4 89 bd 5a 7c 13 3d 39 73 80 bd 2c b5 b7 bd
       -0.06726947 0.036007263 -0.06271977 -0.08970103
000250 bf 28 03 bc 55 ee db ba f5 c7 3c 3c fb 85 64 bd
       -0.00800532 -0.0016779403 0.011522283 -0.055791836
000260 5f 8d 86 bd 04 a7 e9 3c 47 38 9e 3d da 3a 08 3d
       -0.06569933 0.028522022 0.07725578 0.03325925
000270 cf 8b c5 3d 38 71 98 3b ae 2e 23 3d 7a e1 aa 3c
       0.09645807 0.0046521686 0.03983944 0.020859469
000280 25 a7 34 bd 0e 00 2f 3d ca 22 a7 3b 4a 8d ef 3c
       -0.044104714 0.04272466 0.0051005827 0.029242177
000290 2e 4a 8b bd 00 06 f4 bb 47 27 d8 3b 61 e1 1e 3d
       -0.06801258 -0.0074470043 0.006596479 0.038789157
0002a0 f1 43 25 3d ae 70 93 bd 20 e1 92 3c 28 b7 dd 3c
       0.040347997 -0.07199226 0.017929614 0.027064875
0002b0 09 b7 19 3d 99 e3 77 bd 2d d4 76 3c fd 6e 79 3d
       0.03752807 -0.06051979 0.015065235 0.060896862
0002c0 52 87 a1 3c cf b2 db bc da d1 b7 bd 54 08 7c bd
       0.019717846 -0.026818661 -0.08975573 -0.06153138
0002d0 f1 37 79 3d 31 0d 05 bd 8d 99 87 bc 91 ea 6f 3d
       0.060844366 -0.032483283 -0.01655271 0.05857331
0002e0 da 4b 99 bd 8c c6 8b 3d fd ce 8b 3d 37 f9 53 bc
       -0.07485171 0.06824979 0.06826589 -0.012937835
0002f0 b5 34 76 3c fa 7b 94 bc be 2b 5b 3d 45 ef 64 3b
       0.015027215 -0.018125523 0.053508513 0.0034932655
000300 3a 0e 98 bd 31 b8 5d 3c 7a 48 7a 3d 64 ee 40 3a
       -0.074245885 0.013532684 0.061104275 0.0007359742
000310 f8 4a 0a bd ea a9 70 bb b8 6b 2f bd ba d0 a7 bd
       -0.033762902 -0.003672237 -0.042827338 -0.08194108
000320 64 89 45 3d f0 b1 ba 3c 8c 87 d5 bc 97 4e 76 3d
       0.04822673 0.022789925 -0.02606561 0.060133543
000330 e5 95 a8 bd 5d bb a9 bd 4e e2 70 3d b4 37 0a 3d
       -0.08231715 -0.0828769 0.05880957 0.03374453
000340 a6 b5 6d 3d 36 92 2d 3d da ef 38 3d 1c 7b 54 bd
       0.05803456 0.042375766 0.045150615 -0.05187522
000350 8f d6 39 3d a5 a6 85 3d 7c fd d0 bc 70 e8 12 bd
       0.045370635 0.065259255 -0.025511496 -0.0358662
000360 6f 0c 97 bd 9b 44 b6 bd 7d d3 c0 bc 94 99 4a bb
       -0.073754184 -0.08899804 -0.023538345 -0.0030914294
000370 fe b3 86 bc d9 c6 46 bb bf d1 3a bd 8a 2b 8b bd
       -0.016443249 -0.0030330925 -0.045610186 -0.06795414
000380 4c e1 07 bd f8 18 ae 3d e1 cb 32 3d 63 ac 70 3d
       -0.033173844 0.08500856 0.043651465 0.05875815
000390 c6 2f 2b 3c 07 e4 1d bd 01 75 57 bd 88 25 85 3d
       0.010448402 -0.038547542 -0.052601818 0.06501299
0003a0 d2 75 8a 3d ea c3 48 bd 8f 72 94 3c a0 9f e9 bb
       0.06760754 -0.049014963 0.018121032 -0.0071296245
0003b0 ee 23 84 bd 0b fc 7b bd 23 f4 e1 3c 88 d3 63 bd
       -0.064521655 -0.061519664 0.027582234 -0.055621654
0003c0 9f 2a 16 3d 60 bb 74 3d e7 55 5a 3d 0f bc da 3c
       0.03666174 0.059749007 0.05330458 0.026701001
0003d0 c4 1e ac bd 44 e2 b4 bc a7 59 5f bd 6a c7 01 3d
       -0.084043056 -0.022080548 -0.05452886 0.031684317
0003e0 97 ea 67 bd 9e 2b 3d 3c 51 9f 1a 3d 01 23 48 ba
       -0.056620207 0.011546044 0.037749592 -0.00076346105
0003f0 86 d3 de 3c ea 97 8b 3c 46 db e1 bc 0b f9 b3 bd
       0.027200472 0.017040212 -0.027570378 -0.087877356

layer1.0.bias f4 [64]
000000 c9 f4 c8 3b f2 1f 2f bd cf 6c 2d 3d 3c 40 84 bd
       0.0061326963 -0.042755075 0.042340096 -0.06457564
000010 fd f5 d5 3b 54 3f 1c 3d eb 29 8a 3d 9f 70 03 3d
       0.006529568 0.038146332 0.067462765 0.032089826
000020 f1 d4 5f 3d a2 df bb 3b c1 4a 4c 3c 27 ce 69 3d
       0.054646436 0.005733446 0.012468995 0.057081368
000030 15 e5 50 bd 6b 9b 20 bd cc 1f 6f 3d 43 cd 19 3d
       -0.05099972 -0.039210718 0.058379933 0.03754927
000040 a2 03 6a bd b9 4b 29 bd 32 91 ba bb 0f ff a4 3d
       -0.05713237 -0.04133198 -0.005693578 0.08056461
000050 65 5e 43 3d a6 d2 1f 3d fa 82 dd 3c 50 57 7c 3d
       0.047697444 0.03901925 0.027039994 0.061606705
000060 39 44 0c 3d a5 cc bb bc c9 34 0c 3d 44 c0 28 3c
       0.03424475 -0.02292473 0.034230027 0.010299746
000070 68 69 18 3c c5 4b d3 3c e5 66 34 3d f1 69 8b 3d
       0.009302475 0.025792966 0.04404344 0.06807316
000080 2c 7d 41 bd bb 7d ad bd 11 9b be 3c f9 53 e1 bc
       -0.047238514 -0.08471247 0.0232673 -0.027505862
000090 87 0b 9f 3c 9a ca 4c bc 08 b7 79 3d 13 a7 d7 bc
       0.019414676 -0.012499476 0.060965568 -0.026324784
0000a0 74 0e 1d 3c 99 6c f6 b9 77 6e 86 3c 35 f3 87 3d
       0.009585965 -0.00047001688 0.016410096 0.06638185
0000b0 99 6e 58 3c 63 72 05 bd c2 8d cb bc e2 66 a8 3d
       0.013209962 -0.03257979 -0.024847869 0.08222748
0000c0 d1 53 36 3d 3e 8d e6 bc 3b ad ba 3c 24 88 9b bd
       0.044513527 -0.028143521 0.02278768 -0.07594326
0000d0 89 81 6a 3d 8f f7 7a bd f9 d6 88 bd 45 1f 93 3a
       0.05725244 -0.061271247 -0.06681628 0.0011224529
0000e0 b4 c2 aa bd 40 f5 70 3b db ab 16 bd de af 2c bd
       -0.08337918 0.0036767274 -0.036784988 -0.042159908
0000f0 e4 20 d4 3c fb 71 4c bd 9a 3a a3 bc fe b1 66 3d
       0.02589459 -0.049913388 -0.019925404 0.05632209

layer1.1.weight f4 [64]
000000 80 55 7e 3f c5 56 7e 3f 00 4c 7f 3f ea 22 7c 3f
       0.9934921 0.9935115 0.9972534 0.98490775
000010 47 4d 81 3f 38 86 81 3f af 8e 81 3f ec a7 7e 3f
       1.0101708 1.0119085 1.0121669 0.9947498
000020 e8 51 84 3f 82 6c 81 3f 79 51 80 3f ad 96 7d 3f
       1.0337496 1.0111239 1.0024863 0.9905804
000030 b4 89 7f 3f 2f 8b 80 3f df 15 7f 3f d9 b0 7d 3f
       0.99819493 1.0042475 0.9964275 0.99097973
000040 14 e4 80 3f 48 e3 7a 3f cd 04 7f 3f eb 79 7f 3f
       1.0069604 0.98003054 0.996167 0.9979541
000050 70 52 82 3f 29 7c 7e 3f d4 89 7a 3f 7b 72 7d 3f
       1.0181408 0.99408203 0.9786656 0.9900281
000060 26 91 80 3f e5 88 81 3f 22 55 7e 3f 7b 86 81 3f
       1.0044296 1.0119902 0.9934865 1.0119165
000070 67 45 7f 3f ac 4d 7e 3f bd 2b 80 3f 81 7a 83 3f
       0.99715275 0.9933727 1.0013348 1.027176
000080 ff 3e 7e 3f f8 c1 7c 3f a3 a4 7b 3f 2d b4 7f 3f
       0.99314874 0.9873347 0.9829809 0.998843
000090 79 6c 81 3f 10 07 83 3f 45 1b 82 3f c9 03 82 3f
       1.0111228 1.023653 1.0164572 1.0157405
0000a0 62 12 82 3f af ad 7f 3f 52 0d 81 3f 7c 2a 7e 3f
       1.016186 0.99874395 1.008219 0.99283576
0000b0 3a 2d 7e 3f d7 ba 7f 3f 04 06 83 3f 60 d0 7e 3f
       0.9928776 0.9989447 1.0236211 0.99536705
0000c0 89 02 81 3f c8 a6 7d 3f 7b 72 81 3f 66 35 7f 3f
       1.0078899 0.99082613 1.0113062 0.99690855
0000d0 21 5f 81 3f 02 52 7d 3f 2b e8 7e 3f a7 86 80 3f
       1.0107156 0.9895326 0.9957301 1.0041093
0000e0 07 d4 7e 3f c8 08 7e 3f 2a e8 81 3f 2c 57 81 3f
       0.9954228 0.9923215 1.0148976 1.0104728
0000f0 b0 e9 7e 3f 5a d6 82 3f 0c 8e 7c 3f f6 9a 80 3f
       0.9957533 1.0221665 0.98654246 1.004729

layer1.1.bias f4 [64]
000000 68 ec 22 bc 5e 91 f3 3a 88 28 61 bc 1d 91 70 bc
       -0.009944059 0.0018582752 -0.013742574 -0.014683035
000010 02 5f 74 3b f0 f8 08 bc 08 33 3d bd c1 2a b9 bb
       0.0037288074 -0.008360133 -0.046191245 -0.0056508486
000020 2c cc 92 3b 41 b9 d9 3b 0a b7 61 bc 67 69 50 3c
       0.0044799056 0.0066443984 -0.01377655 0.012720442
000030 c5 6a b9 3b ca c3 46 b9 68 08 41 bb 4b 00 12 bc
       0.00565848 -0.00018955689 -0.0029454473 -0.008911203
000040 cb 38 80 bb dc f9 05 bd 70 e5 5c 3c 3e 97 f5 3a
       -0.0039130202 -0.032708988 0.013482437 0.001873709
000050 28 42 c5 bb a8 b3 35 3b 20 9d 55 3b 51 c0 33 bc
       -0.0060198493 0.0027725492 0.0032594875 -0.010971145
000060 a9 17 c3 ba 95 58 76 bc 45 88 66 bc 7b 85 62 bc
       -0.0014884371 -0.015035768 -0.014070575 -0.01382577
000070 64 df 7a 3b 88 ae d9 bb 65 03 5c bc 01 0f a5 bb
       0.0038280124 -0.00664312 -0.013428544 -0.005037189
000080 80 8b 62 bc d7 47 94 bb a8 45 c5 bc ca d5 67 3b
       -0.013827205 -0.0045251655 -0.024081066 0.003537523
000090 08 ad 14 3c 92 2d 63 3c f4 6f b8 3c cd 0b 2b bc
       0.009074457 0.013865845 0.02251432 -0.010439825
0000a0 d6 61 75 3a de ff 14 3c 11 56 c2 bb 4a 65 f5 3b
       0.0009360587 0.009094207 -0.00593067 0.0074888812
0000b0 b6 56 30 bb e6 4e 24 3c ba 17 a0 bb 8b b4 79 3c
       -0.0026907152 0.0100285765 -0.004885641 0.015240799
0000c0 6a e0 aa bb d3 cd 46 bb 66 14 c7 bc 9c 71 a0 3c
       -0.0052147405 -0.0030335083 -0.024301719 0.019585423
0000d0 f6 2b c7 b9 88 3f 47 bc 1d 2f a5 3a ba 41 2a 3c
       -0.0003798899 -0.012161143 0.0012602542 0.010391647
0000e0 52 7d c9 3c a5 58 ac bc 84 1f dc 3a 01 dd 89 bc
       0.02459589 -0.021038363 0.001679406 -0.016829016
0000f0 ff e9 49 bc 8e d9 8b bc 6e 42 05 bc 29 3c 29 3c
       -0.012323855 -0.017071512 -0.008133514 0.010329285

layer1.1.running_mean f4 [64]
000000 5f 73 2d 44 b0 6c 42 44 3e 16 8f 44 03 48 9b 44
       693.8027 777.69824 1144.6951 1242.2504
000010 ac 2e b0 c4 72 2a f5 44 48 c9 a3 c4 76 67 bc c4
       -1409.4585 1961.3264 -1310.29 -1507.2332
000020 72 24 2a 43 08 c7 44 c5 40 44 c5 43 7c 71 62 c4
       170.14236 -3148.4395 394.5332 -905.7732
000030 db d7 4e 44 0b 57 9f 44 c5 98 00 45 46 4d f2 43
       827.37274 1274.7201 2057.548 484.6037
000040 e7 2b 6f 43 33 80 ac c2 b0 b4 cc 43 11 12 00 c5
       239.1715 -86.25039 409.41162 -2049.1292
000050 97 19 54 44 41 a1 83 44 5d 26 3c c5 4a cb 75 c5
       848.39984 1053.0392 -3010.3977 -3932.7056
000060 75 97 02 45 cd 87 9c 42 57 c0 25 44 67 fc cc 44
       2089.466 78.265236 663.0053 1639.8876
000070 9a 5b 3f 42 e5 f2 00 c5 f3 33 fb 42 40 eb 00 44
       47.839455 -2063.181 125.60146 515.6758
000080 cd 1b 5c 44 e4 b4 82 44 d6 64 0c 45 95 80 03 45
       880.4344 1045.6528 2246.3022 2104.0364
000090 25 a5 81 c4 0c 51 ec 43 97 6f cc 44 5f fa 98 43
       -1037.1608 472.63318 1635.4872 305.95602
0000a0 14 3e c7 c3 77 ba 8f c4 2e 7f f5 43 2e af 2c c5
       -398.485 -1149.827 490.9936 -2762.9487
0000b0 dd e0 cb 44 0b 12 de c3 cb a6 49 c3 95 8e b4 43
       1631.027 -444.14096 -201.65154 361.11392
0000c0 25 76 1f 45 6c d0 6c c4 9f 5e c3 c4 bc 06 db c3
       2551.384 -947.2566 -1562.9569 -438.0526
0000d0 19 0f 90 43 e7 bc 18 c4 c5 b5 34 44 e2 2a 2e c4
       288.11795 -610.9516 722.84015 -696.67004
0000e0 06 33 d2 43 9c a9 bf 44 0f 0e ac 44 39 fc 09 c4
       420.39862 1533.3003 1376.4393 -551.941
0000f0 20 29 0a 44 51 f9 8c 43 a8 76 8a c5 69 46 d0 43
       552.6426 281.94778 -4430.832 416.55008

layer1.1.running_var f4 [64]
000000 79 6e 2d 48 e2 47 3c 48 4d 63 10 49 81 7d da 48
       177593.89 192799.53 591412.8 447468.03
000010 b3 df 6d 49 ab 55 fb 48 2c ba 26 49 2e b3 7a 48
       974331.2 514733.34 682914.75 256716.72
000020 8d 80 05 48 31 97 d1 49 5a ec 03 48 d6 bc 05 49
       136706.2 1.7169661e+06 135089.4 547789.4
000030 79 8a aa 49 09 58 3d 48 8b 56 28 49 20 95 ed 48
       1.3970711e+06 193888.14 689512.7 486569.0
000040 5e d8 fa 48 2a a3 2b 49 30 dc 26 49 1d 81 f2 48
       513730.94 703026.6 683459.0 496648.9
000050 12 8b 01 49 46 1c 45 49 cc e6 4d 49 68 64 c7 49
       530609.1 807364.4 843372.75 1.633421e+06
000060 49 08 3f 49 2e 32 f7 47 6a ae c4 47 36 3b 15 48
       782468.56 126564.36 100700.83 152812.84
000070 fe 03 6c 47 70 db 20 49 52 0a 7b 46 9e a1 06 49
       60419.992 658871.0 16066.58 551449.9
000080 62 0c 7c 48 e1 58 81 48 30 6f fe 48 0b 78 0e 49
       258097.53 264903.03 521081.5 583552.7
000090 62 c4 1b 48 b7 d0 6f 49 c9 f3 84 48 17 7b c5 48
       159505.53 982283.44 272286.28 404440.72
0000a0 39 f1 5e 48 d2 af 6f 48 5d b2 62 49 d1 b4 41 49
       228292.89 245439.28 928549.8 793421.06
0000b0 b9 69 75 48 a7 fd 7c 47 26 41 e3 46 e6 39 db 48
       251302.89 64765.652 29088.574 448975.2
0000c0 4f bc a9 49 e7 fe 99 48 78 e0 7a 48 6d 50 34 48
       1.3904739e+06 315383.22 256897.88 184641.7
0000d0 94 4f 18 47 e7 8c 55 48 c0 01 25 48 dc d9 67 48
       38991.58 218675.61 168967.0 237415.44
0000e0 6e c1 1d 49 39 55 a0 48 26 02 42 48 e4 5a 63 48
       646166.9 328361.78 198664.6 232811.56
0000f0 2d 50 1b 48 f9 e1 3f 48 4b f4 cf 49 18 1e a1 48
       159040.7 196487.89 1.7035614e+06 329968.75

layer2.0.weight f4 [64, 64, 3, 3]
000000 7b 90 26 3d 44 d0 cb bc f8 7f 83 bc 41 d1 8e 3b
       0.04066513 -0.024879582 -0.016052231 0.004358441
000010 ef c2 a1 ba cf 2c fc bc d0 6a 07 3d 10 0c 63 3c
       -0.001234142 -0.030783085 0.03306085 0.013857856
000020 99 28 bf bc cf 6a 17 bc 8b 6a 08 3c 00 9b ba bc
       -0.023334788 -0.009241774 0.008326183 -0.022778988
000030 b7 c0 44 3c 78 5d 93 bc 60 7c a6 3c 55 ff 58 bb
       0.012008837 -0.017988905 0.020322978 -0.0033111174
000040 29 bf c2 bc 94 ff 43 bd ee 2a 61 3c 55 a2 00 bd
       -0.023772793 -0.04785116 0.013743145 -0.031404812
000050 24 3f 06 3c 05 d9 c8 bb c6 9a 77 3c 98 a7 7f bc
       0.008193765 -0.0061293864 0.015112584 -0.015603922
000060 f6 1c 94 3c 3d af e6 3c c1 56 c0 3b b6 8e 07 3d
       0.018080216 0.028159732 0.005869717 0.033095084
000070 2d 7c ad 3b 41 3b 9b bb d3 53 3a bd 3f 79 47 bd
       0.005294344 -0.004737288 -0.045490097 -0.048699614
000080 b6 c4 56 bd 4f 0d 80 3b d6 05 dd 3c 60 16 d7 bb
       -0.052433692 0.0039078365 0.026980322 -0.0065639466
000090 cb de 8f 3c bd bb 67 bc 1f a6 7d 3c eb e6 1d 3d
       0.01756229 -0.014143881 0.015481501 0.0385503
0000a0 e3 de bc 3c b3 65 e1 3b f2 59 c8 bc ae 5f 82 bc
       0.0230555 0.0068785786 -0.024456952 -0.015914764
0000b0 d2 19 85 bb 88 8a bb bc c6 76 bf bc ce e8 b3 bc
       -0.004061916 -0.022893205 -0.023372065 -0.021961596
0000c0 87 ae 39 bd 1a ad ab bc 02 b8 9e bc 3b 2c cd 3c
       -0.045332458 -0.020956565 -0.019374851 0.025045505
0000d0 b9 1e c4 3b 05 fb d1 3c ba a0 01 3d 85 f4 de bc
       0.0059851077 0.02563239 0.03164742 -0.027216205
0000e0 02 d8 a4 bc 21 f3 31 3d 4e c2 c0 3c 17 db ba 3c
       -0.020122532 0.043444756 0.023530152 0.022809548
0000f0 b8 2e ee 3c b8 f9 e5 3a 4b 5a cc 3c 64 08 66 bc
       0.029075012 0.0017545735 0.024945399 -0.014040086
000100 37 6c 0f bd 32 a5 6a bc 15 a0 97 bc 8e 12 df 3c
       -0.03501531 -0.014321612 -0.01850895 0.027230527
000110 b6 9c 4a bc 7a c8 d5 3c eb f9 db bb d6 49 39 3d
       -0.012366464 0.026096571 -0.006713142 0.04523643
000120 97 99 7d 3c 39 73 07 3c db af 88 3c 2f bf 51 3c
       0.015478513 0.008267217 0.016685417 0.012801929
000130 4c 5d 22 bd 88 88 af bc 23 d5 54 3d 8e b8 b2 bc
       -0.039639756 -0.021427408 0.051961076 -0.021816518
000140 70 d1 d2 3c 3f 2e b4 bc 8b a6 24 bd a4 89 de bc
       0.025734633 -0.021994708 -0.04019789 -0.027165242
000150 10 d0 4c 3a 0c 24 ad bc 25 f8 ba 3c 84 7c 5d bc
       0.0007812986 -0.021135353 0.022823403 -0.013518456
000160 aa d1 88 39 45 b4 2a 3d 32 63 06 3d 69 ce f4 bc
       0.00026096153 0.041675825 0.032809444 -0.02988358
000170 ef 6c 97 3c e2 6d e4 3c f1 ad 2d bd fc 07 11 bd
       0.01848456 0.027884427 -0.04240221 -0.035408005
000180 27 7a 76 3c 32 b2 02 3c ee 0a 2e bc 61 e3 4b bb
       0.015043772 0.007977055 -0.010622723 -0.003111087
000190 95 44 c0 bc f5 3c a3 3c 6b 53 29 3c ae 30 c7 bc
       -0.023470202 0.019926528 0.01033483 -0.024315204
0001a0 3f 15 3b 3d 5a c0 9c bc 0e 0d d9 bc 54 06 d4 bc
       0.04567456 -0.01913469 -0.026495483 -0.025881924
0001b0 03 59 fe bb ff 8c e2 bc 3f c3 3a 3c 03 bf 3d 3c
       -0.007762076 -0.027655123 0.011399089 0.011581185
0001c0 93 29 7d 3b 4d b8 e9 bc ab 27 cd 3c 52 8b 87 bc
       0.0038629516 -0.028530264 0.02504333 -0.016545925
0001d0 45 11 e5 bc fc 28 e6 bc 56 1e 92 3c 85 38 ef bc
       -0.027962336 -0.028095715 0.01783673 -0.029201755
0001e0 90 f6 07 bc b9 00 a2 3c a5 3e 1f bb b9 d2 ca 3c
       -0.008298531 0.019775735 -0.0024298814 0.024758684
0001f0 ee 4c ae 3c 66 08 c3 bc fa c3 2a bd 74 58 76 3c
       0.021276917 -0.023807716 -0.041690804 0.015035737
000200 b2 10 0a 3c 3d 0d 35 3c bc 10 54 bc 2a 99 87 3c
       0.008426832 0.0110505195 -0.012943443 0.016552527
000210 c8 4d 88 3b c9 73 70 bc 3b 13 87 bb 98 ff 46 3c
       0.004159663 -0.014676043 -0.0041221655 0.012145899
000220 f2 f5 cd 3c 0b bb c6 3c 23 ba 14 3d 27 5a 41 3d
       0.02514169 0.02425911 0.036310326 0.047205117
000230 f9 29 06 bc b1 90 3a bc e0 58 a2 3c 6b a7 f0 bc
       -0.008188718 -0.011387036 0.01981777 -0.029376706
000240 2a cb d1 3c 6c e1 0d 3c c9 40 68 3c 9e 0a 78 3d
       0.025609571 0.008659702 0.014175602 0.060557
000250 30 17 6c bc 1e 45 e0 b9 a4 01 d4 bb b4 49 b9 39
       -0.014409825 -0.00042776106 -0.006469922 0.00035340863
000260 a2 6e e4 3c bb a2 fd bb 56 2b 52 bc 17 01 95 bb
       0.027884785 -0.0077403462 -0.012827715 -0.004547249
000270 c1 4b 07 3d 8d c6 8a 3c 77 a7 64 3c 76 0d 0d bd
       0.03303123 0.01694038 0.013955942 -0.034436665
000280 30 40 86 3b 50 d5 c9 bc 0f f2 1b 3c 72 fd 0b bc
       0.004097007 -0.024637848 0.0095181605 -0.008544313
000290 ad e3 2f bd 8f a1 0c 3d 9c 90 0e bd 14 e3 a9 3c
       -0.042941738 0.03433376 -0.03480588 0.020738162
0002a0 92 a3 f3 3c 26 aa 2a bc 81 21 b8 3c 6d 27 04 bd
       0.029741082 -0.010416543 0.022476913 -0.03226416
0002b0 ce 16 9f bc 8f 5c f5 3c b1 04 9d bc f5 ea 83 bc
       -0.019420054 0.029951362 -0.019167276 -0.016103247
0002c0 ec be 8d 3c d4 55 37 bc 0f 96 ac bc f4 ed 0b bb
       0.017302953 -0.011189897 -0.021067647 -0.0021351548
0002d0 90 85 23 3d bf dc 08 bd 7f ea 1e bc 58 b8 5a bb
       0.039922297 -0.033413645 -0.009699463 -0.0033374038
0002e0 25 94 d2 bc 63 51 2b bd 7d 99 c7 3c 84 92 2e bc
       -0.025705406 -0.041825663 0.024365181 -0.010655049
0002f0 b0 a3 78 3c 95 2e 36 ba 09 19 5b 3c 9d d7 13 3d
       0.015175745 -0.000694969 0.013372668 0.036094297
000300 bf 74 0b 3c 1e ed e1 bc 85 5c 87 3c 02 42 92 3c
       0.008511721 -0.027578887 0.016523609 0.01785374
000310 4e d4 a2 bc 5b e9 2f bd 1d 52 ca bc ba 4a 80 3c
       -0.019876625 -0.042947154 -0.024697358 0.015660632
000320 1b 24 05 3c 88 bf 26 bd d2 e0 64 3c 05 e7 be bc
       0.008126284 -0.040710002 0.013969617 -0.023303518
000330 0c e4 62 3c 83 bb 8e 3c 28 78 32 3d d0 1b 91 3b
       0.013848316 0.017423397 0.04357162 0.0044283643
000340 57 56 c3 bc 8d 5f 8f bc 38 0b 34 3c 44 ec 46 3b
       -0.023844881 -0.017501617 0.010989003 0.0030353228
000350 49 7c e0 bc 18 c6 5e 3a 16 7e 48 bc 3b 21 23 bd
       -0.027403014 0.0008498146 -0.0122370925 -0.039826613
000360 0a 8c dd 3c 18 d3 29 bd 55 de 46 bc 50 0c 06 3d
       0.027044315 -0.04146108 -0.012137969 0.032726586
000370 12 de 6f bc 34 bc c1 bc f6 f6 60 bc cb af df bc
       -0.014640348 -0.023649313 -0.013730755 -0.027305504
000380 8d 23 c5 bc f7 e3 ba 3b 29 03 22 bc 4d 51 c4 bc
       -0.024064803 0.005703445 -0.009888449 -0.023964548
000390 e3 87 c4 3c f8 33 9c 3c 12 ba 72 3c c1 bc 05 3d
       0.023990577 0.01906775 0.01481487 0.032650713
0003a0 70 f8 d1 bb 88 47 cf bb 42 6f 8b bc c0 41 be 3b
       -0.00640779 -0.006325666 -0.017020825 0.005806178
0003b0 a9 8b b4 3c 45 7d be bc c4 20 bd 3c c1 62 91 3c
       0.022039251 -0.023253093 0.023086913 0.017747285
0003c0 29 41 8d bc a9 02 d0 3c ea 49 1b 3c 87 f8 db bb
       -0.017242985 0.025391893 0.009478072 -0.0067129764
0003d0 84 e3 ed 3c 9c 0f d0 bc 5c 37 ac bc ff 2a 9e 3c
       0.029039152 -0.025398068 -0.021022491 0.019307612
0003e0 b6 63 ee 3b 11 4d 00 3d b2 4c a2 bc bc 3e b9 3b
       0.00727507 0.031323496 -0.019811962 0.0056532305
0003f0 37 8b 40 bd f0 74 60 bd 84 e1 9c 3c b1 4e 9a 3c
       -0.047007766 -0.05479902 0.019150503 0.018836351

layer2.0.bias f4 [64]
000000 3c 63 28 bc 17 56 fb bc de 69 18 39 fb 54 92 bc
       -0.010277566 -0.0306807 0.00014535288 -0.017862787
000010 16 b3 69 3c 85 94 9b 3c 8d 68 bf 3b bb a9 0f 3b
       0.014263889 0.018991718 0.005841321 0.0021921236
000020 38 61 33 3a d2 da c2 3c 6b 4e 8b bc 96 da d0 3c
       0.0006842795 0.023785982 -0.017005166 0.025494855
000030 5a 81 d9 bc eb cc a0 bc 00 a7 a5 3c a2 54 7e bc
       -0.026550937 -0.019628963 0.020221233 -0.015523108
000040 27 d4 0a 3d 28 5d 01 3d 66 1d b9 3c f6 c8 e0 bc
       0.03389373 0.03158298 0.022597026 -0.027439576
000050 45 c1 e9 bc 82 0c e0 3c 77 f2 bf bc 5c 5b 8f bc
       -0.02853454 0.027349714 -0.023431046 -0.017499618
000060 4f 4d 15 bd ea f4 c5 3c d3 ae 05 bd 58 76 9a 3c
       -0.03645068 0.024164636 -0.03263743 0.018855259
000070 86 53 cf 3c e8 b1 80 bc 56 3b 4e 3c 0b 29 c3 3b
       0.025308382 -0.015709832 0.012587389 0.0059558204
000080 f7 53 08 bd c3 e1 21 3d 48 d2 f6 3b 8e ba 09 bd
       -0.0332832 0.039521944 0.0075323917 -0.033625178
000090 9b e4 7a 3a bf ec 22 3d 00 a0 4c bc 64 0e d1 3a
       0.0009570808 0.03977656 -0.012489319 0.0015949723
0000a0 48 e4 03 bd 1c 06 84 3b 12 6b ec bb 57 a6 92 bc
       -0.032200128 0.0040290486 -0.007214912 -0.017901583
0000b0 d5 7a 1b 3d a2 79 83 bc e8 ab 0a bd b3 93 d0 bc
       0.03795894 -0.01604921 -0.03385535 -0.025461053
0000c0 13 c2 34 bc e5 eb 26 3d 66 c0 0c bd 6b 55 e9 3c
       -0.011032599 0.04075231 -0.034363173 0.028483113
0000d0 53 2c 02 3d 4f 54 e6 bc 5e 40 a1 bc b9 29 05 bd
       0.031780552 -0.028116373 -0.019684013 -0.032510493
0000e0 7c ef a5 3a 77 a5 66 3c a0 ea 24 bd 46 c9 50 3b
       0.0012659873 0.014077536 -0.04026282 0.003185825
0000f0 1b 4d 16 bd 65 1a 85 bc f4 aa 78 3c 54 bc 0c 3d
       -0.036694627 -0.016247937 0.015177477 0.03435929

layer2.1.weight f4 [64]
000000 dc 5a 7c 3f 69 3d 7d 3f 50 2c 80 3f e7 af 82 3f
       0.9857614 0.9892183 1.0013523 1.0209931
000010 7d 5a 7a 3f 1f dc 81 3f 9b 94 7a 3f c8 02 7e 3f
       0.97794324 1.0145301 0.97883004 0.99222994
000020 f5 f7 81 3f 1e f8 7b 3f d9 c1 82 3f a9 18 81 3f
       1.0153795 0.9842547 1.0215408 1.0085651
000030 ae ba 7d 3f cf 33 80 3f 96 6a 7f 3f 33 f8 79 3f
       0.99112976 1.0015811 0.9977201 0.97644347
000040 c2 c6 7f 3f 4f de 7c 3f 6e 89 7d 3f 9e 9f 7c 3f
       0.99912655 0.98776716 0.99037826 0.98681056
000050 16 2a 81 3f d9 a6 83 3f 6e c1 81 3f a0 6f 81 3f
       1.0090969 1.0285293 1.0137155 1.011219
000060 e8 99 80 3f 80 89 80 3f 84 57 81 3f 78 a3 7f 3f
       1.0046968 1.0041962 1.0104833 0.9985881
000070 e0 dd 7b 3f da 4b 80 3f 66 90 7f 3f b1 39 7f 3f
       0.9838543 1.0023148 0.9982971 0.99697405
000080 5f 11 80 3f 21 94 7e 3f 9e 62 80 3f e1 5c 80 3f
       1.0005301 0.99444777 1.0030096 1.0028344
000090 9b 7a 7f 3f 43 21 81 3f e1 f2 7f 3f 8a bb 7f 3f
       0.99796456 1.0088276 0.9997998 0.99895537
0000a0 53 f3 80 3f 50 5c 7e 3f 34 52 81 3f 31 fb 7c 3f
       1.0074257 0.9935961 1.0103211 0.9882079
0000b0 fa c4 80 3f 8b ec 81 3f a7 a2 80 3f 09 3f 81 3f
       1.0060112 1.0150312 1.0049638 1.0097362
0000c0 06 c1 81 3f 08 26 81 3f d4 3d 7d 3f 0b 7c 7d 3f
       1.0137031 1.0089731 0.9892247 0.990174
0000d0 04 b3 7f 3f 2a 1e 81 3f 73 4c 7f 3f 3d 5f 7f 3f
       0.9988253 1.008733 0.9972603 0.997547
0000e0 e2 4a 80 3f e2 76 81 3f 57 bb 82 3f 5a 2c 83 3f
       1.0022852 1.0114405 1.0213422 1.024791
0000f0 51 a9 7c 3f d4 f0 80 3f 00 16 7f 3f e9 59 80 3f
       0.98695856 1.0073495 0.99642944 1.0027438

layer2.1.bias f4 [64]
000000 9b c6 79 bc 7f 68 47 bc 3f 87 a6 bc 56 cd b4 bc
       -0.015245105 -0.01217091 -0.020328162 -0.022070568
000010 ae b8 6a bc e4 07 28 bc d1 48 73 bc 5d 6f 67 3b
       -0.014326258 -0.0102557875 -0.014848904 0.003531418
000020 78 d9 91 bc 24 85 d8 bc 20 8c d4 bc a4 8e 2c 3c
       -0.017803892 -0.026430674 -0.025945723 0.010532055
000030 1b 91 a3 ba 74 6d d3 bc e8 f7 7c bc eb 41 3b 3c
       -0.0012479158 -0.025809027 -0.015439965 0.01142929
000040 1f ef 0b bd 64 02 0f bb 5a 73 80 bc ff be 3d bd
       -0.03416359 -0.0021821493 -0.015680004 -0.046324726
000050 41 66 72 bc 2f 84 8f bc 42 81 3b 3a df b9 70 bb
       -0.014794887 -0.017519085 0.0007152745 -0.0036731882
000060 61 c8 a2 bc b6 f1 b2 bc 8b 03 ff bc 42 a0 91 bc
       -0.019870939 -0.021843772 -0.03112962 -0.017776612
000070 a7 f6 e6 bc 58 9d 68 bc 1b 37 f5 ba b4 48 b4 37
       -0.028193785 -0.01419767 -0.0018708439 2.1491527e-05
000080 0e 28 b4 bb 2e 5b 10 bd 1f af 6e bc ac 7b da bb
       -0.005497939 -0.035243206 -0.014568119 -0.006667575
000090 fb 24 93 bc 51 48 70 bc c3 bd b5 bc 93 bf dc bc
       -0.01796197 -0.014665679 -0.022185212 -0.026946818
0000a0 2d 60 95 bc 17 91 68 bc 3a 5e 98 bb 92 b9 a4 3a
       -0.018234337 -0.014194748 -0.0046499046 0.0012567511
0000b0 2d e6 01 bd e1 4b da bc 85 91 90 bc b5 26 f3 bc
       -0.031713653 -0.02664751 -0.017647514 -0.029681543
0000c0 e8 40 4a bc 56 eb 78 bb 39 fd 72 bc 5e ac 8d bc
       -0.012344576 -0.0037982068 -0.014830881 -0.017294105
0000d0 d7 de 0b bc 7f e0 d9 38 99 4f 8e bc 1f f5 9c bc
       -0.008537016 0.00010389182 -0.01737194 -0.019159852
0000e0 81 d0 2c bd 28 44 31 bd a4 91 00 bd 7c b9 7f bc
       -0.042191032 -0.04327789 -0.031388894 -0.015608188
0000f0 27 c8 9d bc 00 53 fa bc ac 1c f8 bc c3 02 05 bd
       -0.01926048 -0.030557156 -0.03028711 -0.032473337

layer2.1.running_mean f4 [64]
000000 b9 8f 04 be a4 1d a3 bd 97 9b c9 be 2e 5a db be
       -0.12945451 -0.07964638 -0.39376518 -0.4284224
000010 fe 0b 84 3e a4 8c 09 bf cc 33 ea 3b af 1e b2 3e
       0.257904 -0.53730226 0.007147288 0.34789035
000020 b6 40 a0 be f6 0c 94 bb 4a 12 53 bc c5 25 1e bd
       -0.3129937 -0.0045181466 -0.012882778 -0.03861024
000030 e0 2d 9c be d2 e7 d5 be b2 23 2e bf 21 9a 92 bd
       -0.3050375 -0.41778427 -0.68023217 -0.07158304
000040 28 61 5c bd 43 03 e6 3e bd d0 a4 be 33 c5 31 3e
       -0.053803593 0.44924363 -0.32190505 0.17360382
000050 5c 64 21 be 81 40 1a bf 38 0f c7 bb a6 2a 4e 3c
       -0.1576094 -0.60254675 -0.0060748123 0.01258341
000060 87 95 67 be b7 f3 7c 3d 44 4f 87 be da 5c d7 3e
       -0.22615634 0.061755862 -0.26427662 0.42063028
000070 c2 ad 0d 3d 37 da 79 bc a3 40 f8 be a6 85 20 bf
       0.034589536 -0.01524978 -0.48486814 -0.6270393
000080 2f 84 e3 be f5 20 81 be 4f 03 c2 3d 1b f1 8c be
       -0.44436786 -0.25220457 0.09473287 -0.275277
000090 11 92 19 bf 25 93 4a 3e 0c 56 af be 4a 99 51 be
       -0.59988505 0.19782694 -0.34245336 -0.20468631
0000a0 10 ce 3f be 78 f4 9e 3c 36 11 4d be ec 7c 3d 3e
       -0.1873095 0.019403681 -0.20026097 0.18504685
0000b0 9d 4c 26 bf 5d 41 93 be 03 f4 97 be 41 23 a3 bd
       -0.6496065 -0.28760806 -0.29678354 -0.079657085
0000c0 ff c4 bd be f4 c5 93 3d f9 bc b2 be be 07 e9 be
       -0.3706436 0.07215491 -0.349098 -0.4551372
0000d0 f9 7f 86 bb 4a 83 52 be 84 6c 89 3e 35 47 90 3c
       -0.004104611 -0.20557895 0.26840603 0.01761208
0000e0 1a c2 6f be be 0d 11 bf b0 8e dd be 07 9f b9 be
       -0.23413888 -0.56661594 -0.43272924 -0.3625414
0000f0 2b 90 ac be c9 d1 c5 be bb b3 fe bd bc 91 0b bf
       -0.3370374 -0.38636616 -0.124366246 -0.5451925

layer2.1.running_var f4 [64]
000000 1f ba 4d 3e 23 0d 83 3e 4d 52 06 3e 1c f9 fd 3d
       0.20090531 0.2559596 0.13117333 0.124010295
000010 ae d3 f5 3d ea d7 15 3e c7 71 8c 3e 3d e3 3d 3e
       0.12003265 0.14633146 0.27430555 0.18543716
000020 c1 fe a8 3d 28 00 08 3e 98 16 12 3e a3 79 d5 3d
       0.082517155 0.1328131 0.14266431 0.10423591
000030 58 07 f4 3d cd 09 a4 3d 38 d8 21 3e 66 a0 37 3e
       0.11915463 0.08009682 0.15805137 0.17932281
000040 aa c1 75 3d f2 20 c0 3d 75 44 e0 3d e3 28 12 3e
       0.059999146 0.09381284 0.10950557 0.1427341
000050 f0 61 b0 3d 44 99 ce 3d ed 4b 93 3d 42 c0 04 3e
       0.0861243 0.10087827 0.07192216 0.12963966
000060 ba 87 cb 3d d9 c9 6e 3d f6 c4 28 3d 83 1c df 3d
       0.09937997 0.058297966 0.04120346 0.1089411
000070 a1 78 bc 3d 58 f9 e8 3d 5b 53 2b 3e eb f2 25 3e
       0.09202696 0.113756835 0.16731016 0.16205947
000080 06 61 e1 3d 58 08 ba 3d 91 ae d3 3d 29 31 a3 3d
       0.11004834 0.09083623 0.1033603 0.07968361
000090 8b 0c d2 3d 4d 8e bc 3d cf 32 27 3e 17 4e 71 3d
       0.10256299 0.09206829 0.16327976 0.058912363
0000a0 a4 01 44 3d d4 3c fc 3d cc 1b be 3d a4 af e3 3d
       0.047853127 0.123162895 0.092826456 0.11117485
0000b0 94 9d da 3d 09 cf 73 3d 03 97 a3 3d 48 cd da 3d
       0.10674587 0.059523616 0.079877876 0.106836855
0000c0 58 d8 ac 3d 0c 60 13 3e 60 77 e7 3d 06 54 c5 3d
       0.08439702 0.14392108 0.11302066 0.09635167
0000d0 1f 31 0e 3e ad 6c ba 3d 9a 3f 14 3e 23 b8 d1 3d
       0.13885926 0.091027595 0.14477387 0.102401994
0000e0 74 89 90 3d 0f 4c 97 3d 02 96 a4 3d 36 c8 ad 3d
       0.07057467 0.07387554 0.08036424 0.08485453
0000f0 ce 85 24 3e f8 51 a2 3d 46 d9 94 3d 37 f1 a1 3d
       0.16066667 0.079257905 0.07268004 0.07907336

layer3.0.weight f4 [64, 64, 3, 3]
000000 04 06 eb bb 11 e8 e0 3c 7a 6b 2b 3c eb 2c b1 b9
       -0.007172348 0.027454408 0.010462636 -0.00033793537
000010 89 f4 80 bc 0a 88 cd bc 53 fc cd bc ae d6 42 bc
       -0.015741603 -0.025089283 -0.025144732 -0.011892004
000020 a2 6d 95 bc 03 2c 90 3c 09 0d 23 3d 65 d5 27 3d
       -0.018240754 0.017599111 0.039807353 0.040974993
000030 02 f5 f6 3c 84 e4 e3 3c 6d ce 00 bb c9 7b a9 bc
       0.030146126 0.027818926 -0.001965429 -0.020688908
000040 fd 45 ab 3b ec 24 a7 3c ef c6 ed bc bd f8 28 bc
       0.005226849 0.020403348 -0.029025523 -0.01031321
000050 96 c2 46 bd 5d 15 1f bc 78 3a b5 bc d5 f2 cd 3c
       -0.048525415 -0.009709683 -0.022122607 0.025140205
000060 25 8a ba 3c 07 cd 51 bc 40 74 19 3c 3b 95 1d 3c
       0.02277095 -0.01280523 0.009366095 0.009618099
000070 fa 3c 53 bd c4 ae 0e bd f3 98 93 bc a5 43 a9 bb
       -0.051571824 -0.03483464 -0.018017268 -0.0051655346
000080 65 13 92 bb 4b c4 c6 bb 4d 94 19 bd 93 8d 86 bc
       -0.0044578784 -0.0060658804 -0.037494946 -0.01642493
000090 02 8d 83 3c 35 15 b2 3c 51 31 05 3c 2a 97 cd 3c
       0.016058449 0.021738628 0.008129434 0.025096495
0000a0 64 42 97 3c d5 34 a1 3c 01 fa 75 3b cd fb 0f bc
       0.018464275 0.019678513 0.0037533047 -0.008788061
0000b0 57 43 19 3c 69 ef d5 3c 71 0b 10 bc a2 af 45 bc
       0.009354434 0.026115136 -0.00879179 -0.0120658
0000c0 2d 00 95 bc c8 52 f1 ba d8 d2 44 3c ac 63 18 3d
       -0.01818856 -0.0018411512 0.01201316 0.03720443
0000d0 75 42 13 bc 3c b7 16 3d dc 22 a3 bc d8 14 e3 3a
       -0.008988013 0.03679584 -0.019914083 0.0017324938
0000e0 ce 47 c5 bc 05 1f 1e 3d 28 47 fd bc ea 33 f2 bc
       -0.02408209 0.0386038 -0.030917719 -0.02956577
0000f0 e3 88 aa bc 2b d6 0d 3d cd da d8 bc e7 45 94 bb
       -0.020817226 0.034628075 -0.02647152 -0.0045249346
000100 cd db af 3c 2e dc 55 3b de c4 2d 3c c0 0b d2 bc
       0.021467114 0.0032632458 0.010606019 -0.025640368
000110 9a db 02 bd 0b 1e a2 3c 36 9a 98 bb 92 36 f4 bc
       -0.03194771 0.019789716 -0.0046570553 -0.029811177
000120 32 fe 93 bc ea ac ca 3c 77 0c 41 3c e2 08 b7 3c
       -0.018065546 0.024740655 0.011782757 0.022343103
000130 20 6e 5b 3d 6e 41 db bc a1 a9 fb bc b6 5d e0 3c
       0.05357182 -0.026764598 -0.030720534 0.027388435
000140 ed f5 52 bc ba 08 80 3b 59 56 1b bd cd cf 0f bd
       -0.012876016 0.0039072903 -0.037924144 -0.035110284
000150 64 94 90 3c 02 60 20 bd d6 fa e1 3c bf 69 53 3d
       0.017648883 -0.03915406 0.027585428 0.05161452
000160 3e 78 0b bd b7 c6 ae 3c 37 17 0e 3c 2f c1 00 bd
       -0.03405022 0.021334989 0.008672527 -0.031434234
000170 4d d6 89 bc 89 f3 24 3d 29 d5 34 3c e0 b3 06 3d
       -0.01682582 0.040271316 0.0110371495 0.032886386
000180 0e 46 00 3d cd 7b 14 3d e4 de 3f 3c cc 17 fb bc
       0.03131681 0.036250878 0.011710856 -0.030650996
000190 f1 0d cc ba ee 8f 8a bc bc 46 c6 bc 4b 22 94 3c
       -0.001556812 -0.016914334 -0.02420365 0.018082758
0001a0 97 d7 2c 3c 36 2b 00 bc 0f 2f 24 bd c6 82 08 bc
       0.0105494475 -0.007822802 -0.04008394 -0.00833196
0001b0 22 35 cf 3a 63 3f 88 3c de f5 3c bd d8 58 37 3c
       0.0015808681 0.016631788 -0.046132915 0.011190616
0001c0 3a 44 55 3d 4a 00 c7 3c f1 67 e6 3a 5a cc 6c bb
       0.05206702 0.02429213 0.0017578584 -0.0036132545
0001d0 4b 75 cb bc 75 16 bb bc b0 4c 23 3c db 0b 25 bd
       -0.024836203 -0.022837857 0.009967014 -0.04029451
0001e0 af 2c 31 bd db 60 8a bc 33 22 ac 3c 99 15 5d bc
       -0.043255504 -0.016891887 0.021012401 -0.013493919
0001f0 5a e6 ad 3c f6 9c 12 bd ef 62 0b 3c c7 16 d8 bc
       0.021228004 -0.03579422 0.008507474 -0.026378049
000200 13 93 c2 3b 61 78 c4 3c 54 a6 6a ba 11 66 6c bc
       0.005937943 0.023983182 -0.00089511764 -0.014428631
000210 79 bc c1 bc 1a 04 9d 3c 74 9c ee 3c d0 fa b0 bc
       -0.023649441 0.019166995 0.029127337 -0.021603972
000220 dd 8a 95 bc ad 11 0a bd f3 87 39 bb 63 7c 98 bb
       -0.018254692 -0.033708263 -0.0028309792 -0.0046535
000230 dd 26 cc 3c dc 13 e9 3c 7b 87 9c bb 96 d1 db bc
       0.024920875 0.028451853 -0.0047768927 -0.026833337
000240 da 7a 98 bc 9e 03 f8 3b 33 7a 86 bc 5b 06 fb bb
       -0.018613268 0.0075687906 -0.016415691 -0.0076606697
000250 19 9e 2e 3c ce 1e b9 3c 56 a6 db bc 7e 41 f5 bc
       0.010657811 0.022597697 -0.026812714 -0.029938456
000260 3b de 5e bb 6e a7 26 bd 8c bc 30 bd a8 e6 fd bb
       -0.0034006971 -0.040687017 -0.043148562 -0.0077484436
000270 06 cc 38 3b 1d 42 48 3c 7f 4f a5 bc d4 d3 0c 3c
       0.002819778 0.012222794 -0.020179508 0.008595426
000280 51 d8 91 b9 07 1d 92 bc cc e6 cf 3c 8b a5 8f bc
       -0.00027817723 -0.017836107 0.025378607 -0.017534992
000290 71 9c f0 3c ba 47 5e bd 70 41 99 ba 6e c4 cb bc
       0.029371472 -0.054267623 -0.0011692476 -0.024873938
0002a0 14 df 8d 3c 27 5e 01 3d a4 73 c1 bc 5f 2e 17 bd
       0.017318286 0.03158393 -0.023614712 -0.036909457
0002b0 b7 cb b0 3c 73 28 a0 bb 61 22 f9 3b 2c e7 ce 3c
       0.021581514 -0.0048876344 0.0076029752 0.025256716
0002c0 da da e2 bb 1a 42 fe 3c a4 63 1f bd 10 a6 80 3c
       -0.006923062 0.031037379 -0.038913384 0.015704185
0002d0 37 a4 1a 3b 0a e6 29 3d 16 47 bc 3c 7c 77 d4 bc
       0.0023596415 0.041479148 0.022983115 -0.02593588
0002e0 04 64 e3 3c 70 25 cb bc d3 49 13 3d 92 af 0c 3d
       0.027757652 -0.024798125 0.035959076 0.034347124
0002f0 e0 5d 50 bc 3c e3 c4 bb b7 cc 73 bc 42 d6 7d 3c
       -0.012717694 -0.0060085338 -0.014880351 0.015492978
000300 77 39 cb bc 35 31 1a 3c b1 20 22 b9 a6 1a 0e bc
       -0.024807675 0.009411146 -0.00015461702 -0.008673346
000310 bd 8a 9f 3c f7 d2 bf 3b 53 55 92 ba 44 07 0e 3c
       0.019475335 0.0058540064 -0.0011164345 0.008668724
000320 c3 f8 8f bc 2d 84 d4 3b b4 90 12 3d 0b ed 75 3c
       -0.017574674 0.006485483 0.03578253 0.015010129
000330 7e 26 00 bd fc 29 70 3c d9 e0 28 bb a3 fd 4a 3d
       -0.03128671 0.014658447 -0.0025768785 0.049558293
000340 e5 64 67 3b 9c 15 4f bc 8a f5 ae 3c fc fe d2 3c
       0.003530794 -0.012639429 0.021357317 0.025756352
000350 ff 59 d1 3c 82 a5 f4 3c 90 6a 50 bc c6 a7 11 3c
       0.025555609 0.029864077 -0.012720719 0.008890098
000360 d7 62 07 bb 71 da 9f 3b 6e 10 0d bd 15 a1 0e bd
       -0.0020658278 0.004878335 -0.034439497 -0.03482159
000370 80 88 16 ba b0 22 0d 3d 15 c3 2d 3c 4f 81 22 3c
       -0.0005742386 0.03445691 0.010605593 0.009918525
000380 d7 30 de b9 81 b4 97 bc 66 f3 05 3d 95 08 e3 bc
       -0.00042379528 -0.018518688 0.032702826 -0.027714053
000390 85 4d c4 3c 70 be a2 3b 0f cc e6 3c ef 33 53 bc
       0.023962745 0.0049665496 0.028173475 -0.0128908
0003a0 84 53 88 3c 12 a1 39 bd 2b 1d 68 bc 6c 71 08 bd
       0.016641386 -0.045319624 -0.01416711 -0.033311293
0003b0 4d 71 ea bc ab c3 20 3b a6 ac 2b 3c 9b 69 50 bc
       -0.02861848 0.002453069 0.010478174 -0.012720491
0003c0 6b b4 6f bc ff 77 e1 3c bb 8b d4 3b 81 80 aa 3c
       -0.014630417 0.027523039 0.0064863837 0.020813229
0003d0 44 76 d9 3c 15 74 a1 3c 89 bf b4 3c aa 0f 71 bc
       0.026545651 0.019708673 0.022063987 -0.014713207
0003e0 d2 e2 bb bc 96 2f 02 bd 18 ed b7 3c 26 e5 b2 3a
       -0.022935305 -0.031783663 0.022451922 0.0013648614
0003f0 9f a6 17 bd a6 ba f9 bc d7 6c 72 bd c7 68 4c bc
       -0.037024137 -0.030484509 -0.05918583 -0.012476153

layer3.0.bias f4 [64]
000000 0e fb 9e 3b b9 4e ea 3c 82 d0 90 3c 67 ca f6 bc
       0.0048517054 0.028601991 0.01767755 -0.03012581
000010 79 b2 11 3c 11 c9 41 bc 8f d0 92 bc f2 12 be 3a
       0.008892649 -0.011827723 -0.017921714 0.0014501496
000020 54 21 a1 3c 00 08 df 3c 42 9e 0a bc 51 75 33 bb
       0.019669212 0.027225494 -0.008460583 -0.0027383158
000030 38 db fe bc 38 e4 dd bc 13 bc 23 3d 11 0e 03 bd
       -0.031110391 -0.027086362 0.039974283 -0.031995837
000040 31 02 5f 3a e6 6e 41 bc eb 20 bc 3b c5 0c 5a bc
       0.00085071014 -0.011806225 0.005741229 -0.013308709
000050 a9 ba 7f bc 12 0b ac ba a7 44 af 36 4e be 47 3c
       -0.015608468 -0.0013125858 5.2233986e-06 0.012191368
000060 9f 52 f5 3c 91 3f 0b bc 8e de b4 3c 1f 9b 2a bd
       0.029946623 -0.008499042 0.022078779 -0.04165184
000070 e6 bc 27 3d 3c 02 48 3c 4f de b3 3c 67 99 b1 bb
       0.040951632 0.012207564 0.021956591 -0.0054198983
000080 7d 14 03 3d 9c e2 ee 3b f2 c2 b7 bc 93 d7 97 bc
       0.03200196 0.0072901975 -0.022431824 -0.018535411
000090 91 f7 9e 3c 54 d5 34 bb da 23 a4 bc 19 26 9b 3c
       0.019405158 -0.0027592974 -0.020036627 0.018939065
0000a0 91 fb 14 3d 65 88 1f 3c 56 17 b1 bc ff 23 f5 3b
       0.036372725 0.009737109 -0.021617573 0.0074810977
0000b0 7e 9b 2a 3b 8d f9 4d 3c 57 52 dc bc 4c f8 99 bc
       0.0026032622 0.012571705 -0.026894731 -0.018795155
0000c0 13 10 a0 bc 91 dd 2c 3c 2c cc 48 3c 58 b1 45 bc
       -0.019538915 0.010550872 0.01225571 -0.012066208
0000d0 a8 fd f4 3c 0d 30 ae bc 4b 80 fc ba eb 37 79 3c
       0.029906109 -0.021263147 -0.0019264309 0.015211086
0000e0 6f 4b 34 3c 2b 7d 17 bc 48 0d 01 bc dc 6a 00 bd
       0.011004313 -0.009246151 -0.007876702 -0.03135191
0000f0 ed fe 51 ba df 05 b9 bc 30 9b b3 bc cc 9c ef bc
       -0.0008010704 -0.022585807 -0.021924585 -0.029249571

layer3.1.weight f4 [64]
000000 47 a0 79 3f a4 a8 79 3f 0e 96 80 3f d9 47 81 3f
       0.9751019 0.9752295 1.0045793 1.0100051
000010 8a cd 7b 3f 09 ce 7c 3f a4 0c 83 3f f6 9d 7c 3f
       0.983605 0.98751885 1.0238233 0.9867853
000020 df a7 7d 3f 56 5c 7d 3f a8 63 75 3f 41 20 7c 3f
       0.99084276 0.9896902 0.9585519 0.98486716
000030 da c9 82 3f 1d e6 73 3f 33 ed 80 3f 46 ef 80 3f
       1.021785 0.95273 1.0072387 1.007302
000040 7d 17 76 3f ce 6e 81 3f e4 29 81 3f bf 3e 7f 3f
       0.9612959 1.011194 1.0090909 0.9970512
000050 49 6d 85 3f 7d 9e 79 3f 01 80 80 3f 89 17 85 3f
       1.0423976 0.9750746 1.0039064 1.0397807
000060 16 c1 7e 3f 45 41 79 3f 5a fc 82 3f 19 e1 80 3f
       0.99513376 0.9736522 1.0233262 1.0068694
000070 92 7d 7b 3f 53 42 80 3f be 2a 85 3f 19 6b 79 3f
       0.9823848 1.002024 1.0403669 0.97429043
000080 a7 07 80 3f 94 d6 82 3f 6f 7f 81 3f bf 8d 80 3f
       1.0002335 1.0221734 1.0117015 1.0043257
000090 74 de 7e 3f 03 fd 79 3f ed f4 7f 3f 26 74 7d 3f
       0.99558187 0.9765169 0.999831 0.99005353
0000a0 35 e7 79 3f 16 f3 7e 3f ed c0 77 3f a5 e9 82 3f
       0.9761842 0.9958967 0.96778756 1.0227553
0000b0 2c e7 81 3f 6d 98 81 3f 13 04 87 3f c3 77 75 3f
       1.0148673 1.0124642 1.0548118 0.95885867
0000c0 c8 0e 7f 3f 3c 10 7f 3f 51 ba 7c 3f 58 b8 88 3f
       0.9963193 0.99634147 0.98721796 1.0681257
0000d0 0b 79 81 3f fe 6e 81 3f 98 04 85 3f 7c 84 80 3f
       1.0115064 1.0111997 1.0392027 1.0040431
0000e0 7a a7 7e 3f 99 41 79 3f 27 ae 7c 3f 84 ad 77 3f
       0.994743 0.9736572 0.98703235 0.9674914
0000f0 04 e0 80 3f 43 24 82 3f eb a8 85 3f cd 85 84 3f
       1.0068364 1.0167316 1.0442175 1.0353333

layer3.1.bias f4 [64]
000000 f8 64 b2 bc 90 da d2 bc b4 c8 f1 bc 3f 0d ec bc
       -0.021776661 -0.025738984 -0.029514648 -0.02881491
000010 af 20 0e bc 07 cd 9e bc 22 c2 3a bd 9d 87 be bc
       -0.008674785 -0.019384874 -0.045595296 -0.023258025
000020 a8 cd 63 bc 3b d1 b9 bc f7 d3 04 bd 15 2a 9d 3b
       -0.013904013 -0.022682777 -0.032428708 0.0047962763
000030 9f 60 d3 bc d0 7f 9f bc fd c6 89 bc 48 d1 d7 bc
       -0.025802908 -0.019470125 -0.016818518 -0.02634491
000040 5e 54 af bc fb 92 9c bc 0f 1a eb bc b9 a7 ba bc
       -0.021402534 -0.019113054 -0.02869895 -0.022785055
000050 23 65 98 bc 9d 96 3a bc 4e 50 2e bc e5 78 81 bd
       -0.018602913 -0.011388448 -0.010639263 -0.06321887
000060 a6 37 f2 bc 9c ae c1 bc 22 31 f5 bc 35 fa c9 bc
       -0.02956755 -0.02364283 -0.029930655 -0.02465544
000070 33 e0 a8 bc a7 a2 de bc 98 81 0a bd 98 af 5c bc
       -0.020614719 -0.027177168 -0.033814996 -0.013469599
000080 dd 56 69 bc ba ca bb bc f8 d6 89 bc 37 96 46 bd
       -0.014241901 -0.022923816 -0.016826138 -0.0484831
000090 dd 03 4f bc d8 92 a8 bc bc d2 c7 bc 67 83 aa bc
       -0.012635198 -0.020577833 -0.024392478 -0.02081461
0000a0 d6 92 29 bd 23 e7 10 bc 44 31 6c bc 47 5a 73 bd
       -0.0413998 -0.00884417 -0.014416043 -0.059412267
0000b0 1c 0f 8c bc 84 ac eb bc e2 79 5c bd a7 83 3f bd
       -0.017097048 -0.028768785 -0.053827174 -0.046756413
0000c0 01 49 f8 bc d2 bb c9 bc 42 ef a8 bc 5a bc 91 bd
       -0.030308248 -0.024625693 -0.0206219 -0.07116003
0000d0 9c 79 78 bc 3f a9 01 bd 31 53 b0 bc a1 13 0f bd
       -0.015165713 -0.031655546 -0.021524044 -0.03493083
0000e0 b6 b2 d6 bc 5a aa 05 bc d6 4e 99 bc c8 49 5b bc
       -0.026208263 -0.008158291 -0.01871435 -0.01338429
0000f0 b6 8d be bc ba 69 0a bd 7c d6 15 bd 97 b3 59 bd
       -0.023260932 -0.033792235 -0.0365815 -0.053149786

layer3.1.running_mean f4 [64]
000000 4f 7f 43 bd 27 b0 a2 3d e0 99 b2 be 0e 3a c6 be
       -0.047728833 0.07943755 -0.34883022 -0.38716167
000010 39 1c e9 be 0c 95 94 be 1d 01 05 bd 06 49 92 be
       -0.45529345 -0.29019964 -0.032471765 -0.28571337
000020 f2 95 33 be 80 45 ed bc 0e a1 ca be 2c 33 15 3b
       -0.17537668 -0.028963804 -0.39576 0.0022766097
000030 4f 19 fd bc 96 75 18 3e 40 24 e0 be a1 a5 2f bf
       -0.030895857 0.14888605 -0.43777657 -0.68612105
000040 47 64 5b 3c 1b cd 25 be e2 09 16 3e f8 21 64 be
       0.013390607 -0.16191523 0.14652207 -0.22278583
000050 2f eb f3 be 7b 47 16 bc 79 7c 5b bd 36 07 97 bd
       -0.47640368 -0.009172316 -0.053585503 -0.07374422
000060 38 4b 47 3e 3c b7 3a bd d5 40 93 be 0c b2 c7 be
       0.19462287 -0.045584902 -0.287604 -0.39003026
000070 68 8b 48 be 86 96 c7 be 19 33 38 be 46 db 07 bf
       -0.1958443 -0.38982028 -0.17988242 -0.5306896
000080 39 e5 1b be bd d7 0c bf e6 13 14 be f3 1f 1f be
       -0.1522416 -0.5501669 -0.14460716 -0.15539531
000090 9c e7 44 be d4 6e 75 be 26 46 b9 bd e1 aa ac be
       -0.19228977 -0.23968059 -0.09046583 -0.3372412
0000a0 d9 77 61 3c f6 33 72 be ff 71 05 be 5a 25 84 3e
       0.013761484 -0.23652634 -0.13031767 0.25809747
0000b0 8d 57 b1 be ea e5 1b be 6e 71 07 bf 6e 99 a2 bd
       -0.34637108 -0.15224424 -0.52907455 -0.07939421
0000c0 34 3f bf 3d db 66 23 bd f0 b8 c0 be ef 20 bc bd
       0.09338227 -0.039893012 -0.37641096 -0.09185969
0000d0 72 8b fe 3d 1f 08 2d 3e fe 43 bf bd d8 59 86 be
       0.12428941 0.16897629 -0.0933914 -0.2624042
0000e0 07 60 8e be 64 05 14 bf 61 39 7f 3e 3d 49 23 be
       -0.27807638 -0.57820725 0.24924232 -0.15945907
0000f0 be e6 da be 53 e9 71 3e 76 aa 8a be d0 47 07 bf
       -0.42754167 0.23624162 -0.27083176 -0.5284395

layer3.1.running_var f4 [64]
000000 b5 a1 33 3e 71 49 23 3e 88 60 0f 3e 56 12 db 3d
       0.17542155 0.15945984 0.14001667 0.10696857
000010 de bc 9d 3e b8 c7 aa 3e f8 24 d1 3d 1c 05 3c 3e
       0.30808157 0.33355498 0.10212129 0.18361324
000020 42 5d b4 3e d9 84 88 3e bb 40 01 3f 57 d8 94 3e
       0.352274 0.26663855 0.50489396 0.29071304
000030 29 59 24 3e 8f e5 4a 3e 74 79 ef 3d fb 59 a0 3e
       0.16049637 0.19814132 0.11693087 0.3131865
000040 fc 61 27 3e b2 af 1b 3e b3 03 de 3d 55 6f f2 3d
       0.16345972 0.15203741 0.10840549 0.11837641
000050 3a c2 02 3e f6 28 42 3e 6f 65 dc 3d 53 76 90 3d
       0.12769404 0.18960938 0.107615344 0.070538186
000060 f9 38 f3 3d 09 76 e6 3d 0e 89 1e 3e 43 29 10 3e
       0.11876101 0.11252982 0.1548197 0.1407824
000070 d4 5c 3e 3e 06 1f 18 3e 44 74 8d 3d 96 40 ef 3e
       0.18590099 0.14855585 0.069069415 0.46728963
000080 56 45 24 3e 70 1d 2a 3e 39 67 fd 3d 6b f0 19 3e
       0.16042075 0.16612792 0.12373204 0.15033118
000090 fb 18 e1 3d 7e 86 32 3e 5d 57 db 3d f8 9b 02 3e
       0.10991093 0.17434117 0.107100226 0.1275481
0000a0 5c 6b a2 3e 1d 0d bb 3d 6d 5f 08 3f 61 19 bd 3d
       0.31722534 0.091333605 0.5327061 0.09233356
0000b0 4d a3 b4 3d 22 d8 e0 3d 08 cb 0e 3e f0 b7 bc 3e
       0.0882021 0.10978724 0.13944638 0.36859083
0000c0 00 04 2f 3e c4 a9 12 3e f3 d6 13 3e 57 92 bf 3d
       0.1709137 0.14322573 0.14437465 0.09354084
0000d0 8d 07 e7 3d 9d 57 9a 3d ef 85 b5 3d 42 0a c2 3d
       0.11280737 0.07536242 0.088634364 0.09474613
0000e0 50 7f 46 3e 52 1f b3 3e 9f 12 2b 3e 7b 44 8d 3e
       0.19384503 0.34984833 0.16706322 0.2759131
0000f0 da 30 c0 3d e2 5a d5 3d 11 e1 9c 3d b6 ff 74 3d
       0.09384318 0.10417725 0.076601155 0.059814177
