FAST 3D-CNN P-NET/model/IP/IP_proto_2d-5shotALLband.pth (torch, 917711 bytes, 24 tensors)

layer1.0.weight f4 [64, 200, 3, 3]
0.008480962 0.02880027 0.033163898 -0.01769859 0.012970169 0.006355186 0.0016524653 0.010913862
-0.026073687 -0.013626461 0.007031395 -0.00411177 0.010992802 0.007209645 -0.0043851407 -0.01167618
0.021449953 0.0069266753 -0.013754416 -0.004518161 0.03136659 -0.012762098 0.0032981343 0.028801514
-0.009471198 0.021465555 0.033050075 -0.0120607745 0.007450724 0.002752482 0.027671708 0.016324433
0.018915411 0.019797109 0.031507753 0.0023028252 0.0011199836 0.0016287774 -0.019257119 -0.011864125
0.010316155 0.017233748 -0.0042593735 0.014323086 -0.012244713 -0.01160983 0.018817699 -0.016507125
0.0044668005 0.012112308 0.020171303 0.0023589842 0.01091045 0.027089603 0.016596727 0.0041932887
0.019828899 -0.0016851544 -0.019680955 -0.00168617 0.024387235 0.0056562936 0.003967507 -0.008201369
0.016378881 -0.0070038927 0.014430154 -0.00250965 0.0076435804 -0.009975618 0.019044964 0.012543918
0.024643257 0.018542066 -0.010857234 0.00539409 0.015303592 -0.016353168 0.021553934 -0.01675017
0.027482504 0.003277946 -0.017993456 -0.011980148 -0.017076751 0.0048308484 0.020773785 0.020557947
0.018385451 0.0238119 0.0065444726 -0.013360386 0.009023987 0.0073987693 -0.00430124 0.007919123
-0.0038849027 0.016516684 0.028266048 0.004115812 -0.014031684 -0.010722833 0.004305296 -0.018803185
0.008920956 0.009319342 -0.007539765 -0.014594698 0.007999325 0.016829368 0.020345189 -0.01072393
0.022558922 0.005002602 0.002824259 0.024700075 0.027999634 -0.01599137 -0.0036462035 -0.0102577
0.0013991566 0.0021108645 -0.014324102 -0.012352477 7.246928e-05 0.0016439669 0.006668162 -0.017419685
0.018079687 0.02314609 -0.01842586 -0.0002611416 0.008167395 0.012904051 0.003051517 0.0021996277
-0.011960775 0.01855808 -0.014430228 0.023151 0.015704611 0.022804746 -0.010127015 0.0033172022
-0.018502505 0.012098343 -0.012804443 -0.019038668 0.0042910357 0.008414091 0.0062836283 -0.008543945
-0.007125519 0.012868252 0.024887046 0.0153817665 0.028173856 0.0050644963 0.013483641 0.0065910234
-0.010837538 0.018146006 0.0034820174 0.014515634 -0.013392201 -0.00038224043 0.007460541 0.019682184
0.014290791 -0.012614726 0.017376866 0.010468427 0.013327625 -0.007485564 0.017425578 0.0238657
0.017962616 -0.0008939001 -0.016560592 -0.0011255242 0.022770468 -0.0046739965 0.0053372737 0.020890879
-0.017314382 0.021495983 0.021715792 -0.00048740965 0.012723621 -0.0020853106 0.01978874 0.011826926
-0.018856172 0.004435662 0.0220389 -4.2976484e-05 -0.0075203907 0.005769932 -0.015876003 -0.025686758
0.009253133 0.0068934127 -0.006940247 0.018610464 -0.024624737 -0.022169251 0.021041334 0.005013237
0.011076536 0.002598622 0.017589679 -0.01265781 0.008812851 0.018726032 -0.0062122103 -0.007286965
-0.019928452 -0.024971182 -0.008829151 0.010050467 0.00045488105 0.0021347601 -0.00831541 -0.015268441
-0.0056005027 0.017351855 0.0030859597 0.006065895 0.0031740598 -0.011478472 -0.018565835 0.015327191
0.018371554 -0.01472348 0.0028876658 -0.006660763 -0.020453949 -0.01375714 0.012087359 -0.014917886
0.012481472 0.021767093 0.02003613 0.013918402 -0.022543065 -0.0043873796 -0.0142810885 0.012922751
-0.017833713 0.0015405953 0.012216566 0.0023986888 0.009836269 0.0015047946 -0.012208678 -0.016788842
00000000: bcf3 0a3c 8bee eb3c ded6 073d a2fc 90bc
00000010: d580 543c 2a3f d03b 8997 d83a 0ed0 323c
00000020: 7c98 d5bc 8541 5fbc 9e67 e63b 07bc 86bb
00000030: 271b 343c e33e ec3b 3ab1 8fbb 734d 3fbc
00000040: d0b7 af3c 2af9 e23b 345a 61bc 150d 94bb
00000050: 417a 003d 1e18 51bc 8325 583b 27f1 eb3c
00000060: 152d 1bbc 88d8 af3c 845f 073d 8e9a 45bc
00000070: 3425 f43b fc62 343b c7af e23c d1ba 853c
00000080: 7ef4 9a3c 8c2d a23c 460e 013d ffea 163b
00000090: 6acc 923a b37c d53a 1bc1 9dbc bf61 42bc
000000a0: 1705 293c ca2d 8d3c 3792 8bbb 60ab 6a3c
000000b0: 0c9e 48bc 2837 3ebc 9327 9a3c f339 87bc
000000c0: 3d5e 923b b472 463c 4a3e a53c 3099 1a3b
000000d0: bec1 323c 04eb dd3c dcf5 873c db67 893b
000000e0: 3770 a23c 66e0 dcba f439 a1bc 7a02 ddba
000000f0: bdc7 c73c 6e58 b93b dc01 823b 095f 06bc
00000100: 012d 863c e980 e5bb 746c 6c3c f178 24bb
00000110: 0077 fa3b c670 23bc 2f04 9c3c 0185 4d3c
00000120: a8e0 c93c 88e5 973c 8ae2 31bc e8c0 b03b
00000130: ebbb 7a3c 14f7 85bc e091 b03c a737 89bc
00000140: fd22 e13c cfd2 563b 0367 93bc 6248 44bc
00000150: 8be4 8bbc 184c 9e3b c92d aa3c 2469 a83c
00000160: 169d 963c 2c11 c33c 0473 d63b 85e5 5abc
00000170: 58d9 133c 6071 f23b 6bf1 8cbb 36bf 013c
00000180: da99 7ebb ff4d 873c 338e e73c efdd 863b
00000190: 26e5 65bc d2ae 2fbc 7113 8d3b 2309 9abc
000001a0: 3429 123c 27b0 183c 2210 f7bb 9a1e 6fbc
000001b0: 9a0f 033c bedd 893c f4aa a63c 6cb3 2fbc
000001c0: 7dcd b83c deec a33b 3417 393b d057 ca3c
000001d0: 7d5f e53c 5500 83bc 25f5 6ebb ea0f 28bc
000001e0: e863 b73a 6e56 0a3b a3af 6abc 0b62 4abc
000001f0: a6fa 9738 607a d73a 9980 da3b bab3 8ebc
00000200: da1b 943c de9c bd3c d4f1 96bc d5e9 88b9
00000210: 8ad0 053c 836b 533c f6fb 473b a127 103b
00000220: 20f7 43bc 1d07 983c c36c 6cbc 2aa7 bd3c
00000230: f5a6 803c 05d1 ba3c c8eb 25bc 6b65 593b
00000240: 9192 97bc 2138 463c bac9 51bc fbf6 9bbc
00000250: d19b 8c3b 41db 093c e5e6 cd3b e7fb 0bbc
00000260: 307d e9bb 5cd5 523c ebdf cb3c ce03 7c3c
00000270: dccc e63c 13f4 a53b 7dea 5c3c 83f9 d73b
00000280: ee8f 31bc efa6 943c 8f32 643b fbd2 6d3c
00000290: f66a 5bbc 7167 c8b9 8e77 f43b 883c a13c
000002a0: ec23 6a3c ffad 4ebc ee59 8e3c c483 2b3c
000002b0: 1c5c 5a3c 7649 f5bb 16c0 8e3c 0082 c33c
000002c0: 5626 933c 9f54 6aba 14aa 87bc 5386 93ba
000002d0: 2289 ba3c 5328 99bb 4ce4 ae3b 5923 ab3c
000002e0: e4d6 8dbc 5818 b03c 51e5 b13c 048b ffb9
000002f0: bc76 503c b5a9 08bb ff1b a23c b9c5 413c
00000300: 4278 9abc 0859 913b ec8a b43c a641 34b8
00000310: 9c6d f6bb b311 bd3b 640e 82bc 096d d2bc
00000320: 749a 173c 23e2 e13b 036b e3bb f974 983c
00000330: d1b9 c9bc 4a9c b5bc e05e ac3c 1446 a43b
00000340: 5c7a 353c a54d 2a3b 3b18 903c b462 4fbc
00000350: c763 103c 5667 993c cc8f cbbb 7ec7 eebb
00000360: fe40 a3bc 5d90 ccbc 25a8 10bc b7aa 243c
00000370: 1a7d ee39 55e7 0b3b 5c3d 08bc 7c28 7abc
00000380: 6c84 b7bb 7a25 8e3c d03d 4a3b 6ac4 c63b
00000390: e303 503b 3310 3cbc 6117 98bc e61e 7b3c
000003a0: f17f 963c c03a 71bc fe3e 3d3b 8842 dabb
000003b0: 0a8f a7bc a165 61bc 0f0a 463c 266a 74bc
000003c0: 177f 4c3c e750 b23c cf22 a43c 020a 643c
000003d0: 3cac b8bc 02c4 8fbb 3afb 69bc f2b9 533c
000003e0: 0218 92bc cded c93a fe27 483c 5233 1d3b
000003f0: 4d28 213c 873c c53a e806 48bc c188 89bc

layer1.0.bias f4 [64]
-0.043328516 0.0025245247 -0.024235938 -0.016820913 -0.04162715 -0.045694884 -0.009177024 0.012039853
0.024814019 0.039228432 -0.004159707 -0.006351338 -0.09118984 0.011159434 -0.0076987306 -0.06003018
0.019958982 -0.01552153 0.03180438 0.012827648 0.02336353 0.007380053 -0.012993342 0.059441723
-0.0007648405 0.0055569694 -0.011907657 -0.02845755 -0.0074589457 0.003554385 0.011079121 0.01992207
0.015207382 0.03423049 -0.01299287 -0.04060839 0.021723531 -0.0011424528 -0.015080256 -0.05209573
-0.029356554 -0.011726198 -0.014939093 0.007768579 -0.033025797 -0.021038793 -0.0006653462 -0.009813522
0.040622238 0.034296818 0.0026803713 0.0018568409 0.059274003 0.035022307 -0.047436196 -0.04497084
-0.0578451 -0.0058066035 0.0029694752 0.015055259 0.016520318 -0.005132765 -0.0026446108 -0.040966235
00000000: 3e79 31bd 7f72 253b 728a c6bc 03cc 89bc
00000010: 3b81 2abd 8f2a 3bbd 3a5b 16bc ce42 453c
00000020: c546 cb3c fead 203d 274e 88bb e21e d0bb
00000030: bdc1 babd 0fd6 363c a245 fcbb 35e2 75bd
00000040: 0581 a33c 044e 7ebc 4f45 023d 0e2b 523c
00000050: e064 bf3c 5fd4 f13b 07e2 54bc 2a79 733d
00000060: 947f 48ba 3d17 b63b 5518 43bc cf1f e9bc
00000070: 2c6a f4bb aff0 683b 3485 353c 9c33 a33c
00000080: 6228 793c 4535 0c3d 0ce0 54bc fc54 26bd
00000090: 8cf5 b13c 5bbe 95ba 2e13 77bc 5562 55bd
000000a0: 287d f0bc 3d1f 40bc 19c3 74bc 908f fe3b
000000b0: 0f46 07bd 8c59 acbc a16a 2eba e5c8 20bc
000000c0: 8163 263d d27a 0c3d 2ba9 2f3b 3e61 f33a
000000d0: 4cc9 723d 8d73 0f3d 754c 42bd 5833 38bd
000000e0: fcee 6cbd 5245 bebb 879b 423b 55aa 763c
000000f0: 9e55 873c c130 a8bb 3551 2dbb 36cc 27bd

layer1.1.weight f4 [64]
1.0034347 1.0065556 0.99996 0.9962241 1.0082942 0.9922711 1.0120544 1.0037513
0.9999842 0.99715143 0.9925627 1.0040578 1.0072954 1.0024073 1.0063124 1.0083512
0.99328613 0.99464095 1.0019296 1.0010635 1.0026237 1.0076257 1.00992 0.9888311
1.0005331 1.0082105 0.9947483 1.0051583 0.9846018 0.9939032 1.0011376 0.9909192
0.9997147 0.99205667 0.99071515 0.9963822 0.9991474 1.0039345 0.9962365 0.9949684
0.9986499 1.0100945 1.0005473 1.0058141 0.9970026 0.9984814 1.0020199 1.0129306
1.0011306 0.9833012 0.9983852 0.99986327 1.0025665 0.99840593 1.0062337 0.9979964
0.98797965 1.0041698 0.99962014 1.0042937 1.0014211 0.9972309 0.99592936 1.0078231
00000000: 8c70 803f d0d6 803f 61fd 7f3f 8b08 7f3f
00000010: c90f 813f 7b05 7e3f 008b 813f ec7a 803f
00000020: f7fe 7f3f 5145 7f3f 9718 7e3f f784 803f
00000030: 0eef 803f e24e 803f d8ce 803f a711 813f
00000040: 0048 7e3f caa0 7e3f 3b3f 803f d922 803f
00000050: f955 803f e1f9 803f 0f45 813f 0924 7d3f
00000060: 7811 803f 0b0d 813f d3a7 7e3f 07a9 803f
00000070: dd0e 7c3f 7170 7e3f 4725 803f e1ac 7d3f
00000080: 4ded 7f3f 6df7 7d3f 829f 7d3f e712 7f3f
00000090: 20c8 7f3f ed80 803f 5b09 7f3f 40b6 7e3f
000000a0: 85a7 7f3f c74a 813f ef11 803f 84be 803f
000000b0: 903b 7f3f 7a9c 7f3f 3042 803f b6a7 813f
000000c0: 0c25 803f a1b9 7b3f 2c96 7f3f 0af7 7f3f
000000d0: 1954 803f 8897 7f3f 44cc 803f b17c 7f3f
000000e0: 3cec 7c3f a388 803f 1be7 7f3f b28c 803f
000000f0: 912e 803f 864a 7f3f 3af5 7e3f 5900 813f

layer1.1.bias f4 [64]
-0.011870605 -0.0031236026 -0.008126258 -0.01639314 0.002113412 0.0052027577 -0.015760591 -0.011542123
0.009184358 -0.010440986 0.00074312376 0.0032047525 -0.01298409 -0.008173538 -0.0031107233 -0.009587612
-0.007743796 0.0058634784 -0.0046389992 0.011192217 -0.009409324 -0.0116941845 0.007822471 -0.017487828
-0.0013178851 -0.021065356 0.009816063 0.0014572935 -0.011555745 -0.018660193 -0.0005185365 0.005675815
-0.004236514 -0.0061850008 0.006065732 0.008266828 -0.011726282 -0.0024134119 -0.01125598 -0.010419821
-0.0033025946 0.0065976824 0.0081311725 -0.018406082 -0.006491723 -0.0064788656 -0.00395393 0.004241956
-0.011605171 -0.011994893 -0.0027377694 -0.010792517 -0.005138357 0.0047329115 -0.013024528 -0.0012753445
-0.0080981245 -0.01500368 0.009828998 -0.008157649 0.003411911 -0.013746208 -0.0016313052 0.007833724
00000000: ed7c 42bc 5bb5 4cbb ff23 05bc e84a 86bc
00000010: 2b81 0a3b e57b aa3b 5b1c 81bc 2c1b 3dbc
00000020: fd79 163c ab10 2bbc 31ce 423a d306 523b
00000030: 38bb 54bc 4eea 05bc 47dd 4bbb 5c15 1dbc
00000040: abbf fdbb 6c22 c03b bf02 98bb 8f5f 373c
00000050: 9129 1abc f798 3fbc d229 003c a242 8fbc
00000060: e3bc acba 4191 acbc 8dd3 203c a802 bf3a
00000070: 4f54 3dbc 43dd 98bc 65ee 07ba 30fc b93b
00000080: 75d2 8abb 8cab cabb 0cc3 c63b 9771 073c
00000090: 971f 40bc 552a 1ebb 006b 38bc e6b7 2abc
000000a0: 5870 58bb 5f31 d83b 9c38 053c 5ac8 96bc
000000b0: 85b8 d4bb aa4c d4bb f88f 81bb 1b00 8b3b
000000c0: 9d23 3ebc 3a86 44bc 266c 33bb 19d3 30bc
000000d0: aa5f a8bb 8a16 9b3b d464 55bc 7629 a7ba
000000e0: ffad 04bc ffd1 75bc ce09 213c a9a7 05bc
000000f0: 5e9a 5f3b c637 61bc 85d1 d5ba 0559 003c

layer1.1.running_mean f4 [64]
-0.06537491 0.12790467 -0.003826474 0.11847695 -0.31386405 -0.90612215 -0.060324937 0.08178336
0.6778834 0.056257494 -0.040204864 -0.35446683 -0.096099995 0.32510778 0.24728914 -0.1498276
-0.19161789 -0.12615731 0.22996837 -0.17092092 -0.17449072 0.43600878 -0.4292958 -0.84400517
-1.0156274 -0.049639825 -0.42902133 0.3391417 0.61179715 -0.19046874 -0.37302762 -0.7169878
0.06668569 0.13008726 -0.7146492 -0.42650104 0.39164218 -0.2374081 -0.25443277 -0.053579144
0.80171245 -0.0687903 -0.06343364 0.15861894 0.15948367 0.010749513 0.4393845 -0.026360976
0.32879534 -0.011016729 -0.29285088 0.39941907 -0.28256968 -0.6361302 -0.44670075 -0.62365425
-0.1804719 0.18824011 -0.23740333 -0.6114831 0.33723763 0.5147357 0.51603556 -0.384263
00000000: 48e3 85bd 71f9 023e 95c5 7abb 0ba4 f23d
00000010: cab2 a0be 9ff7 67bf 4817 77bd 097e a73d
00000020: c489 2d3f 426e 663d dbad 24bd ad7c b5be
00000030: 13d0 c4bd 8774 a63e 5d39 7d3e 686c 19be
00000040: 7b37 44be 622f 01be d47c 6b3e e505 2fbe
00000050: b2ad 32be 8b3c df3e a9cc dbbe b910 58bf
00000060: 1400 82bf 2153 4bbd afa8 dbbe fba3 ad3e
00000070: bd9e 1c3f 3d0a 43be 7afd bebe 838c 37bf
00000080: 8292 883d 9835 053e 40f3 36bf 585e dabe
00000090: 5385 c83e 1c1b 73be 0345 82be ce75 5bbd
000000a0: 073d 4d3f eee1 8cbd 7fe9 81bd 016d 223e
000000b0: b04f 233e ba1e 303c 01f7 e03e f9f2 d7bc
000000c0: dd57 a83e 837f 34bc 8df0 95be a880 cc3e
000000d0: f9ac 90be 6ed9 22bf f6b5 e4be cea7 1fbf
000000e0: a0cd 38be 04c2 403e dc19 73be 288a 1cbf
000000f0: 69aa ac3e b8c5 033f e81a 043f 1fbe c4be

layer1.1.running_var f4 [64]
0.01103902 0.040521566 0.06606077 0.30725926 0.04990082 0.14831121 0.01495514 0.012321111
0.07543729 0.1560194 0.09274102 0.032434557 0.044360418 0.031274438 0.015789717 0.015667053
0.040449295 0.05349552 0.022562256 0.049931984 0.08377488 0.2884865 0.046155475 0.14151634
0.20205075 0.03390693 0.025858091 0.044134047 0.15424669 0.012240953 0.08640088 0.13182005
0.019244587 0.07552449 0.062083967 0.1146023 0.06284456 0.10971512 0.08319269 0.085067086
0.10323594 0.03878934 0.050441343 0.009409966 0.04836427 0.031538047 0.07829741 0.02647243
0.058688287 0.038452305 0.038652796 0.076972395 0.06081984 0.20644884 0.10852981 0.18469313
0.058020506 0.015813481 0.02708645 0.08864639 0.07917581 0.038131025 0.042521812 0.034336116
00000000: 01dd 343c f1f9 253d de4a 873d 1651 9d3e
00000010: cd64 4c3d e5de 173e 6706 753c 7cde 493c
00000020: de7e 9a3d 8dc3 1f3e 01ef bd3d 19da 043d
00000030: 45b3 353d a019 003d 7059 813c 3158 803c
00000040: 29ae 253d 1e1e 5b3d 7bd4 b83c 7b85 4c3d
00000050: 2a92 ab3d 81b4 933e 860d 3d3d a9e9 103e
00000060: 64e6 4e3e fee1 0a3d 59d4 d33c e7c5 343d
00000070: d8f2 1d3e 478e 483c f2f2 b03d d6fb 063e
00000080: d3a6 9d3c 95ac 9a3d c24b 7e3d 9cb4 ea3d
00000090: a6b4 803d 52b2 e03d ee60 aa3d a737 ae3d
000000a0: 5d6d d33d 92e1 1e3d 959b 4e3d 422c 1a3c
000000b0: 9d19 463d 0a2e 013d 645a a03d b6dc d83c
000000c0: 2163 703d 2a80 1d3d 6552 1e3d b4a3 9d3d
000000d0: 391e 793d 5367 533e e144 de3d 3220 3d3e
000000e0: e9a6 6d3d 468b 813c 67e4 dd3c 3d8c b53d
000000f0: ed26 a23d 472f 1c3d 5a2b 2e3d 07a4 0c3d

layer2.0.weight f4 [64, 64, 3, 3]
-0.022468163 0.004411231 -0.009866891 -0.037598662 -0.018737864 -0.009752927 -0.024965052 -0.031267263
0.02995863 0.02593166 -0.0071282326 -0.03286952 0.015538885 0.020938536 0.039865803 -0.012517059
0.021106813 0.03517429 -0.031199738 0.023362495 -0.011075208 -0.023359492 -0.018382398 0.027344065
0.0058414415 0.011717773 0.030573448 -0.041754987 0.0028924036 0.032472786 0.024138268 -0.008366913
-0.016733564 0.022030218 -0.00014241131 -0.020490197 -0.0026273194 0.006119528 0.027926033 0.00045468798
0.011477456 0.005425257 0.036794763 0.012320428 0.023465315 0.034659643 -0.02977183 0.015417892
0.03687699 -0.013307552 0.032593895 -0.004373697 0.0045394115 -0.041765526 0.0035048986 0.0021688843
0.0011194895 0.020376364 0.030742293 -0.015065792 -0.0058494266 0.027661042 -0.020846015 0.02105971
-0.011673384 -0.016141238 0.017464114 0.015944902 -0.011688977 0.030404897 0.0044144485 0.0021933692
0.034753747 -0.026419457 0.015693247 -0.023140522 0.03854403 0.021459214 0.013250729 -0.010129661
0.01737348 -0.017510198 0.007695163 0.03948777 -0.0149945775 -0.015577336 -0.032724217 0.0156891
-0.029641284 -0.020962752 -0.014345482 -0.019290553 -0.0316309 0.016380604 0.034684684 -0.0058553102
-0.05078248 -0.037276976 0.0057061603 -0.020510979 0.036749043 0.017772797 -0.041173924 -0.03674852
-0.0052039777 0.013455967 0.019351209 0.053390168 0.0022389153 -0.020874485 -0.006058224 0.012409852
-0.040478937 0.021610973 0.02158419 0.012626067 0.00020548353 0.023919564 0.015868833 -0.009811321
-0.031213542 -0.0178244 -0.0007490643 -0.0014793187 -0.030595498 -0.028458025 0.015192413 0.03937488
0.016732702 0.021816734 0.02852272 0.004158484 0.015749207 0.024523992 -0.014315294 -0.029575638
0.016559323 -0.029626442 -0.043326348 -0.029086681 0.026137462 -0.014264574 -0.020507455 -0.022543116
0.015345762 -0.016089464 0.0116347065 -0.034547776 -0.022908822 0.017102493 -0.03124733 -0.034071587
-0.016671073 0.033503763 -0.00012163499 -0.010925544 -0.035836264 -0.03942457 -0.008808278 -0.022339556
0.019491967 -0.029998897 0.03877799 -0.021182615 -0.01729781 -0.031595357 0.012136637 0.013043957
-0.024676763 0.022706823 -0.020181816 -0.009824795 0.0019956217 -0.020063192 -0.0069317794 -0.003350225
-0.033143867 0.025079042 0.017181022 -0.025093269 -0.0054707564 -0.01892907 0.016662326 -0.053332444
0.013753034 0.037999086 -0.017450264 -0.025307424 0.01938367 0.042207364 -0.0027158174 0.017594207
0.0055867173 0.0007595454 -0.041333526 -0.018890059 0.009574147 0.027339833 0.02142972 -0.0042680437
-0.02300137 0.008010744 -0.009187016 0.009177005 -0.006226231 0.027214175 -0.03156125 -0.009840377
-0.02826085 -0.050436854 -0.0004285305 -0.029677818 0.010141576 0.009272901 -0.0305179 0.02982667
-0.0069663315 0.037891068 -0.031311236 0.01892005 -0.020533014 0.017678915 0.025178887 0.021713397
-0.022883574 -0.013927989 0.012694022 0.0059013306 0.0016680403 -0.00421219 0.03398122 -0.028692788
0.015015117 -0.00014868371 -0.011568814 0.048137795 0.024072392 -0.011907867 -0.0029219526 -0.025168523
0.019812582 -0.0039214157 0.016326297 -0.009890868 0.005719185 -0.016747607 0.019801825 0.041697744
0.013311532 0.029803347 -0.0049848394 0.030437443 0.0034918122 0.024163287 -0.021976775 0.03282913
00000000: 270f b8bc 168c 903b bea8 21bc 0e01 1abd
00000010: 2680 99bc beca 1fbc 8283 ccbc 1a12 00bd
00000020: cd6b f53c a26e d43c f393 e9bb 31a2 06bd
00000030: cf96 7e3c 4b87 ab3c 534a 233d 5a14 4dbc
00000040: 32e8 ac3c eb12 103d 9896 ffbc b462 bf3c
00000050: ca74 35bc 685c bfbc af96 96bc a900 e03c
00000060: 9069 bf3b e7fb 3f3c 2b75 fa3c 4707 2bbd
00000070: 7b8e 3d3b 2f02 053d 9ebd c53c 6015 09bc
00000080: d414 89bc b778 b43c 3f54 15b9 0fdb a7bc
00000090: 1b2f 2cbb 5286 c83b 23c5 e43c 3063 ee39
000000a0: f10b 3c3c 5bc6 b13b 1bb6 163d 9fdb 493c
000000b0: 553a c03c 45f7 0d3d 0ee4 f3bc 539b 7c3c
000000c0: 540c 173d eb07 5abc 2d81 053d 3b51 8fbb
000000d0: 58bf 943b 5412 2bbd 71b2 653b d723 0e3b
000000e0: d6bb 923a 55ec a63c 43d7 fb3c 83d6 76bc
000000f0: 8cac bfbb 6999 e23c 43c5 aabc 6a85 ac3c
00000100: b941 3fbc a13a 84bc e710 8f3c e29e 823c
00000110: 1f83 3fbc b113 f93c 14a7 903b a1be 0f3b
00000120: f259 0e3d 9e6d d8bc 208f 803c 3191 bdbc
00000130: 58e0 1d3d 3ccb af3c 9619 593c e1f6 25bc
00000140: d452 8e3c 8c71 8fbc b527 fc3b eebd 213d
00000150: d1ab 75bc 1538 7fbc d409 06bd 6d86 803c
00000160: 47d2 f2bc 14ba abbc 5009 6bbc 3907 9ebc
00000170: 678f 01bd 9e30 863c 8711 0e3d e7dd bfbb
00000180: 4a01 50bd beaf 18bd befa ba3b a406 a8bc
00000190: 2a86 163d 4298 913c fda5 28bd 9e85 16bd
000001a0: 2186 aabb 6b76 5c3c 6d86 9e3c a6af 5a3d
000001b0: c4ba 123b f800 abbc 1184 c6bb b152 4b3c
000001c0: 3ecd 25bd 7f09 b13c 54d1 b03c 90dd 4e3c
000001d0: 1177 5739 f6f2 c33c 5bff 813c aabf 20bc
000001e0: 8bb3 ffbc 7a04 92bc db5c 44ba b3e5 c1ba
000001f0: 69a3 fabc ce20 e9bc 99e9 783c 8e47 213d
00000200: 0513 893c 02b9 b23c 7ba8 e93c e443 883b
00000210: 7b04 813c 8ae6 c83c b28a 6abc 9c48 f2bc
00000220: 6ba7 873c 27b3 f2bc f876 31bd 3147 eebc
00000230: 3b1e d63c f6b5 69bc 40ff a7bc 57ac b8bc
00000240: ca6c 7b3c 0dce 83bc 7f9f 3e3c f881 0dbd
00000250: 48ab bbbc 871a 8c3c 67fa ffbc a68e 0bbd
00000260: c691 88bc 3e3b 093d 4a16 ffb8 0e01 33bc
00000270: 0cc9 12bd a87b 21bd 9850 10bc 7201 b7bc
00000280: 9ead 9f3c 3fc0 f5bc abd5 1e3d 2a87 adbc
00000290: 23b4 8dbc 226a 01bd bfd8 463c 52b6 553c
000002a0: ec26 cabc a903 ba3c 5654 a5bc 2df8 20bc
000002b0: fac8 023b 905b a4bc fb23 e3bb 738f 5bbb
000002c0: ddc1 07bd 9072 cd3c 37bf 8c3c 6690 cdbc
000002d0: 0844 b3bb 2311 9bbc 6e7f 883c 1f73 5abd
000002e0: 6854 613c eea4 1b3d dbf3 8ebc 8451 cfbc
000002f0: 81ca 9e3c a1e1 2c3d dbfb 31bb ba21 903c
00000300: c810 b73b 3b1c 473a 584d 29bd 53bf 9abc
00000310: e2dc 1c3c c9f7 df3c 618d af3c f2da 8bbb
00000320: 5e6d bcbc 7f3f 033c 2385 16bc 265b 163c
00000330: 6905 ccbb 43f0 de3c 5f46 01bd 8839 21bc
00000340: 4c83 e7bc e096 4ebd 64ac e0b9 e51e f3bc
00000350: da28 263c 5eed 173c ad00 fabc 1057 f43c
00000360: d345 e4bb aa33 1b3d 3640 00bd 38fe 9a3c
00000370: da34 a8bc 5fd3 903c f443 ce3c 4be0 b13c
00000380: 5576 bbbc 3832 64bc 96fa 4f3c f35f c13b
00000390: 25a2 da3a 6906 8abb e42f 0b3d 230d ebbc
000003a0: f701 763c fbe7 1bb9 1f8b 3dbc 232c 453d
000003b0: 7733 c53c 3719 43bc 3b7e 3fbb 382e cebc
000003c0: ff4d a23c 387f 80bb babe 853c 4f0d 22bc
000003d0: 0068 bb3b 4732 89bc 7037 a23c 41cb 2a3d
000003e0: 9d18 5a3c 2626 f43c dd57 a3bb f257 f93c
000003f0: e3d6 643b 16f2 c53c a308 b4bc d677 063d

layer2.0.bias f4 [64]
-0.0008719156 -0.03857461 -0.031368297 0.0068436405 0.005560035 0.034852426 0.0082031 -0.021536972
0.0031215923 0.015139361 0.0076215644 -0.0043260874 0.0048551937 -0.031717177 -0.026554948 -0.022443436
-0.032494508 -0.028791124 0.031793416 0.021716237 0.023505513 -0.027320933 -0.017626625 -0.033373278
0.021177262 0.021391423 0.036590494 -0.022700427 0.03689259 0.0061081066 -0.0053439494 0.007360552
0.0066850404 -0.011205955 -0.016115092 -0.028306073 -0.008540298 -0.025484951 0.026193688 -0.014880208
-0.029741643 0.020163853 -0.0031587833 0.0013041113 -0.011609024 0.02942276 0.040541753 0.021162162
-0.016373603 0.0026425754 0.0076700896 0.02819833 -0.027130324 -0.01912238 0.013621197 -0.022803014
0.016698424 0.019410638 -0.033711974 -0.04096389 0.011127897 -0.024725424 0.0147122955 -0.034539413
00000000: 4491 64ba 6900 1ebd 0b7c 00bd 9e40 e03b
00000010: f430 b63b 6bc1 0e3d 4c66 063c 4e6e b0bc
00000020: a193 4c3b 150b 783c 51be f93b dac1 8dbb
00000030: 5118 9f3b dfe9 01bd c389 d9bc 4cdb b7bc
00000040: f618 05bd 5ddb ebbc d039 023d 40e6 b13c
00000050: a28e c03c 26d0 dfbc b665 90bc 6bb2 08bd
00000060: f07b ad3c 113d af3c eadf 153d 3ff6 b9bc
00000070: af1c 173d 8326 c83b 4c1c afbb c930 f13b
00000080: 2f0e db3b 2f99 37bc cc03 84bc 23e2 e7bc
00000090: 9bec 0bbc d1c5 d0bc 2594 d63c 1ecc 73bc
000000a0: bfa4 f3bc aa2e a53c 9703 4fbb b7ee aa3a
000000b0: c733 3ebc 0008 f13c 1c0f 263d 455c ad3c
000000c0: ef21 86bc 0f2f 2d3b 6055 fb3b 2f00 e73c
000000d0: 6a40 debc 8aa6 9cbc 712b 5f3c 63cd babc
000000e0: 22cb 883c 0f03 9f3c 9115 0abd c0c9 27bd
000000f0: c851 363c f98c cabc d70b 713c 3379 0dbd

layer2.1.weight f4 [64]
1.0190662 0.99247235 1.0078077 1.0192397 0.9998213 0.9958563 1.0039244 0.9851534
0.97956616 0.98960155 0.98394734 0.993305 0.9998367 1.0156919 1.0264392 0.9909928
0.9842144 1.0108731 0.991556 1.0273099 0.9995254 0.9824247 0.9925259 0.9843431
0.99808997 1.00324 1.0066745 1.0206163 1.0102642 0.99196136 1.0222586 0.99975514
0.9814884 1.0215688 1.0050535 0.9966127 0.9834248 0.99843234 0.9817195 0.984359
0.9792711 0.99109197 0.99100155 1.0106903 1.0082381 0.9825971 1.0191989 0.99687046
1.0189904 1.0045668 1.0048677 0.98144686 1.0147164 0.9782799 1.0095928 0.9963418
0.9874108 0.9912508 0.98723847 1.0394161 1.0155234 1.0359339 0.98466456 0.97670954
00000000: c370 823f ab12 7e3f d8ff 803f 7276 823f
00000010: 4af4 7f3f 70f0 7e3f 9880 803f 0333 7c3f
00000020: d9c4 7a3f 8756 7d3f f9e3 7b3f 3d49 7e3f
00000030: 4cf5 7f3f 3102 823f 5c62 833f b4b1 7d3f
00000040: 7af5 7b3f 4a64 813f 9dd6 7d3f e47e 833f
00000050: e6e0 7f3f 2f80 7b3f 2d16 7e3f e9fd 7b3f
00000060: d382 7f3f 2b6a 803f b6da 803f 8ea3 823f
00000070: 5650 813f 2ef1 7d3f 5fd9 823f f4ef 7f3f
00000080: d342 7b3f c4c2 823f 98a5 803f 0322 7f3f
00000090: bac1 7b3f 4399 7f3f f851 7b3f f4fe 7b3f
000000a0: 83b1 7a3f 34b8 7d3f 47b2 7d3f 4d5e 813f
000000b0: f20d 813f 7c8b 7b3f 1c75 823f e732 7f3f
000000c0: 476e 823f a595 803f 819f 803f 1a40 7b3f
000000d0: 3ae2 813f 8d70 7a3f 563a 813f 4210 7f3f
000000e0: f4c6 7c3f 9dc2 7d3f a9bb 7c3f 960b 853f
000000f0: acfc 813f 7b99 843f fa12 7c3f a309 7a3f

layer2.1.bias f4 [64]
0.006430488 -0.019737395 -0.03524631 -0.00803216 -0.031106072 -0.008937311 -0.023450453 -0.01302792
-0.0013351825 -0.029490253 -0.0006090652 -0.014303713 -0.012104815 -0.01995818 -0.0125460075 -0.027952952
0.0023006499 0.0048754187 -0.011356021 0.0030241574 -0.009666543 -0.016707364 -0.031354602 -0.007435727
0.0045360504 0.012435478 0.0005571982 -0.0121385325 -0.021949494 0.0023691985 0.011868752 0.003875874
-0.029923081 -0.03992657 -0.00623603 0.004580224 -0.011042438 -0.016177857 -0.014780751 -0.015413395
-0.026350027 -0.020269131 -0.011297694 -0.0066890935 -0.017538566 -0.027526958 -0.033353586 -0.037103463
-0.007437085 -0.024921091 -0.0061932774 -0.03216002 -0.01790982 -0.043212477 -0.0018596246 -0.013856752
-0.02840718 -0.010908137 -0.031153912 0.002173156 0.001827396 -0.025944015 -0.041884176 -0.027130466
00000000: d8b6 d23b 51b0 a1bc 6f5e 10bd 5299 03bc
00000010: 29d2 febc cd6d 12bc 2a1b c0bc 0f73 55bc
00000020: 4a01 afba 8b95 f1bc aca9 1fba 1f5a 6abc
00000030: 4653 46bc 567f a3bc c58d 4dbc 97fd e4bc
00000040: 80c6 163b fac1 9f3b 9b0e 3abc f130 463b
00000050: 6c60 1ebc e2dd 88bc af6d 00bd 66a7 f3bb
00000060: 26a3 943b 2dbe 4b3c f010 123a b2e0 46bc
00000070: 6dcf b3bc 8e44 1b3b 2775 423c 6002 7e3b
00000080: 4021 f5bc 0b8a 23bd 9c57 ccbb b415 963b
00000090: 58eb 34bc 6d87 84bc f72a 72bc 7788 7cbc
000000a0: 03dc d7bc 730b a6bc f719 39bc 2f30 dbbb
000000b0: 0aad 8fbc 3780 e1bc c59d 08bd cdf9 17bd
000000c0: cab2 f3bb 5127 ccbc faf0 cabb 3aba 03bd
000000d0: 9db7 92bc 91ff 30bd a6be f3ba 6e07 63bc
000000e0: 2db6 e8bc 0bb8 32bc 7d36 ffbc 826b 0e3b
000000f0: 3c85 ef3a 8b88 d4bc be8e 2bbd b640 debc

layer2.1.running_mean f4 [64]
-0.35378018 -0.15458195 -0.24942659 -0.21305266 0.10831932 -0.44716457 0.2730453 0.19977672
-0.59178096 0.2716141 -0.6818594 -0.025240472 -0.13662586 -0.7871227 -0.14249271 -0.39707664
-0.33865884 -0.233892 -0.15560418 -1.0852559 -0.31367886 -0.5420943 0.17601253 0.6146293
-0.66557854 -0.42396846 -0.8092251 -0.8200452 -0.45403543 -0.09827356 -0.41729847 -0.53741974
0.17345144 0.10655838 0.041787185 -0.28761834 -0.28390515 -0.049477257 0.46270162 -0.3892836
-0.06102333 -0.5360148 -0.16291271 -0.21902026 0.40762508 -0.13607928 -0.05623821 -0.10573627
-0.6863533 -0.44490245 -0.69188017 -0.4826042 -0.4692814 -0.15979838 0.40294838 0.10904566
0.36601102 -0.14453597 -0.009345959 -0.7491849 -0.5606639 -0.20577641 -0.3634042 0.10835949
00000000: ad22 b5be bb4a 1ebe af69 7fbe 7a2a 5abe
00000010: 85d6 dd3d c1f2 e4be 98cc 8b3e 4592 4c3e
00000020: f57e 17bf 0111 8b3e 568e 2ebf 1bc5 cebc
00000030: a6e7 0bbe e080 49bf 9ce9 11be a14d cbbe
00000040: b164 adbe 6281 6fbe b456 1fbe aae9 8abf
00000050: 849a a0be b1c6 0abf a13c 343e 5958 1d3f
00000060: 5b63 2abf 6512 d9be 6029 4fbf 7bee 51bf
00000070: 5577 e8be a643 c9bd 25a8 d5be 5794 09bf
00000080: 419d 313e 483b da3d 0a29 2b3d b642 93be
00000090: 045c 91be aaa8 4abd 3ae7 ec3e 2e50 c7be
000000a0: 99f3 79bd 4438 09bf 97d2 26be d946 60be
000000b0: 3cb4 d03e 5e58 0bbe 0a5a 66bd 428c d8bd
000000c0: dab4 2fbf 41ca e3be 0f1f 31bf e617 f7be
000000d0: a745 f0be 30a2 23be 404f ce3e 5553 df3d
000000e0: cc65 bb3e 3d01 14be cb1f 19bc 95ca 3fbf
000000f0: ab87 0fbf 0db7 52be 1e10 babe 95eb dd3d

layer2.1.running_var f4 [64]
0.18270692 0.19945002 0.056944948 0.099034265 0.0901756 0.11044031 0.11333866 0.30799025
0.19534364 0.1600085 0.31465778 0.12692776 0.16400489 0.1110663 0.054057617 0.11219462
0.21912593 0.15659669 0.35318342 0.19388771 0.17783374 0.11850085 0.3329279 0.5064429
0.20296118 0.1297051 0.23471302 0.20661461 0.34495142 0.16643594 0.1904091 0.20532459
0.1510999 0.05576144 0.13064577 0.30880648 0.18604317 0.08205934 0.13676436 0.29884863
0.26289204 0.14076377 0.36919597 0.18319476 0.15846816 0.15381517 0.07302647 0.14124854
0.16858268 0.12163144 0.11179989 0.15464903 0.14144501 0.10022631 0.13422845 0.16076846
0.14054042 0.14993955 0.13125286 0.18141878 0.13889799 0.059841275 0.31717616 0.16607866
00000000: 8617 3b3e a03c 4c3e 1b3f 693d 7ad2 ca3d
00000010: fcad b83d 872e e23d 191e e83d e6b0 9d3e
00000020: 2a08 483e 45d9 233e d31a a13e 5af9 013e
00000030: e6f0 273e ba76 e33d 856b 5d3d 4bc6 e53d
00000040: 8c62 603e e25a 203e 75d4 b43e 808a 463e
00000050: 0c1a 363e 93b0 f23d 8775 aa3e 3ea6 013f
00000060: 0ed5 4f3e 6ad1 043e 9c58 703e c892 533e
00000070: 799d b03e 2f6e 2a3e 9afa 423e 9c40 523e
00000080: efb9 1a3e 1c66 643d 01c8 053e e21b 9e3e
00000090: 1a82 3e3e ba0e a83d f50b 0c3e b002 993e
000000a0: c999 863e 6124 103e 4107 bd3e 6897 3b3e
000000b0: 7a45 223e b981 1d3e e78e 953d 75a3 103e
000000c0: f0a0 2c3e e819 f93d 57f7 e43d 515c 1e3e
000000d0: f6d6 103e 7443 cd3d 2f73 093e 7da0 243e
000000e0: d4e9 0f3e c189 193e 2667 063e d8c5 393e
000000f0: 463b 0e3e 201c 753d ea64 a23e 8610 2a3e

layer3.0.weight f4 [64, 64, 3, 3]
0.04026584 0.0010888419 -0.017546272 0.037917227 0.04128762 -0.011787333 -0.008886539 0.009769166
0.029143857 0.0507621 -0.0076903347 -0.04417317 -0.016588813 0.018654644 -0.03214124 -0.019637061
-0.020067442 -0.018951155 0.04608783 -0.006796664 -0.026966197 -0.01520015 -0.029109018 0.01026877
0.0023876764 0.025437336 0.019404694 -0.013440749 0.022243502 0.04668978 0.017685348 0.025658414
0.004707778 0.016665364 -0.014002002 -0.018684331 0.04448931 0.013199796 0.027210321 -0.022596374
0.014751876 0.019871539 0.0051357946 -0.05384896 -0.019407053 0.0039626183 0.062847845 0.017312657
0.00020692748 -0.012864882 0.03725965 -0.025276424 -0.0017650496 0.0047069984 0.0034103186 -0.011269449
0.02803507 0.005698269 0.013087875 0.02382863 -0.0012342329 0.00481779 0.034669332 -0.021174645
-0.02916445 -0.0014623797 -0.002626513 0.0024423266 0.006731234 -0.008403984 -0.0018321073 -0.043366447
0.03723879 -0.024466855 0.011176794 0.035581872 -0.012225393 -0.023569053 0.01076974 0.02446747
-0.01956218 0.028316854 0.03144779 0.010200437 -0.009496567 -0.023727275 -0.01908941 -0.017216718
0.017920027 -0.00041663062 0.010095954 -0.010594812 0.040309593 -0.036640044 0.020582722 -0.026429946
-0.016613869 -0.039634515 -0.010726327 0.022224419 0.04939289 0.04327028 -0.023454916 -0.032322288
-0.03161606 0.042656586 0.027213857 -0.0074886433 0.038612008 0.0061942986 -0.029782034 -0.021072548
0.04159135 0.0018841357 -0.032655835 0.022156093 -0.025683252 -0.0056031146 0.06176108 0.047264375
-0.015272242 0.03579145 0.037580907 0.01601637 -0.0007590351 -0.037592005 0.024291826 0.048340898
0.011253327 -0.012657798 -0.0070016845 -0.034231227 -0.014335581 0.018692749 -0.0077865 0.027579954
0.020566689 -0.010074768 -0.038755074 0.033147145 0.010489284 0.009207766 -0.016757121 -0.0061026337
-0.048208077 0.030166632 -0.029882133 -0.046191815 -0.01722026 0.008667407 -0.021975942 -0.03693136
-0.019141672 0.028712584 0.051200878 -0.06400731 0.018031549 -0.016298309 0.0010334948 0.030394198
-0.0056812116 -0.047525626 -0.021338053 0.022413181 0.024500834 0.03339388 -0.034395497 0.025593368
-0.03736672 0.007953615 0.033980325 -0.0020833293 0.0025169586 -0.013233567 -0.025776828 0.012247197
0.008855814 -0.03967315 -0.030260328 0.015788399 0.0028856648 -0.03825582 -0.0029012058 0.015630092
0.013221963 0.024787765 0.029107995 -0.00012969568 0.025982399 -0.019124607 0.029082803 0.019350605
0.028368395 0.036935814 0.025646133 0.012093946 0.011446809 -0.002769141 -0.029718863 0.016288064
0.025508247 -0.027380412 0.024226043 -0.024698175 0.005031369 -0.025155663 0.015554724 0.001527196
-0.02720603 -0.040837716 -0.021940546 -0.024797782 -0.009858014 0.014000192 0.007679238 -0.008085375
-0.0281716 -0.019085767 0.0046610096 -0.016641991 0.020469254 0.008996245 0.022996375 0.02331712
-0.009132348 -0.029586466 -0.033087473 -0.026450898 0.036763165 -0.0135454 0.02359715 0.009125094
0.003586752 -0.032750756 -0.03937494 0.013315469 0.041504987 -0.0049617905 -0.03561734 0.018578948
0.0039008118 0.0050184056 0.0068855863 -0.04255793 -0.0073675993 0.045379713 0.0092246635 -0.034427
-0.037435763 0.047532104 0.025060132 0.011700826 -0.008775838 0.0023586915 -0.02870227 0.019658213
00000000: cbed 243d 79b7 8e3a 33bd 8fbc 184f 1b3d
00000010: 351d 293d a81f 41bc d998 11bc da0e 203c
00000020: 19bf ee3c ebeb 4f3d 34ff fbbb edee 34bd
00000030: 43e5 87bc a0d1 983c 88a6 03bd e7dd a0bc
00000040: 7a64 a4bc 743f 9bbc 98c6 3c3d 8db6 debb
00000050: 37e8 dcbc 0d0a 79bc 0976 eebc 583e 283c
00000060: 907a 1c3b f661 d03c 98f6 9e3c 9636 5cbc
00000070: 0138 b63c c83d 3f3d dde0 903c 9831 d23c
00000080: b443 9a3b cd85 883c a768 65bc e20f 99bc
00000090: 6c3a 363d f543 583c 2ee8 de3c 081c b9bc
000000a0: dab1 713c a3c9 a23c 2b4a a83b ba90 5cbd
000000b0: 8afb 9ebc dad8 813b 5fb6 803d 46d3 8d3c
000000c0: acfa 5839 3ac7 52bc 939d 183d 8110 cfbc
000000d0: 3d59 e7ba 2a3d 9a3b a77f 5f3b 7fa3 38bc
000000e0: cea9 e53c 8bb8 ba3b 876e 563c 4234 c33c
000000f0: fcc5 a1ba 8dde 9d3b 6e01 0e3d 7376 adbc
00000100: 49ea eebc 52ad bfba 9321 2cbb 710f 203b
00000110: af91 dc3b ddb0 09bc 5223 f0ba 04a1 31bd
00000120: b487 183d b76e c8bc df1e 373c 4cbe 113d
00000130: 044d 48bc e313 c1bc 9073 303c 0170 c83c
00000140: dd40 a0bc bff8 e73c 66cf 003d bc1f 273c
00000150: 7d97 1bbc b45f c2bc 6561 9cbc 130a 8dbc
00000160: 05cd 923c 376f dab9 8069 253c dd95 2dbc
00000170: ac1b 253d df13 16bd 199d a83c 9d83 d8bc
00000180: cf19 88bc cd57 22bd 7abd 2fbc fc0f b63c
00000190: 3350 4a3d 2d3c 313d 8624 c0bc 6064 04bd
000001a0: d77f 01bd acb8 2e3d 98ef de3c 4b63 f5bb
000001b0: a027 1e3d 8bf9 ca3b 74f9 f3bc 56a0 acbc
000001c0: b15b 2a3d 1af5 f63a 20c2 05bd b280 b53c
000001d0: af65 d2bc 559a b7bb 30f9 7c3d 4a98 413d
000001e0: 6d38 7abc 0e9a 123d 70ee 193d c334 833c
000001f0: fcf9 46ba 13fa 19bd a7ff c63c 1b01 463d
00000200: e05f 383c a762 4fbc 636e e5bb 0b36 0cbd
00000210: c9df 6abc 8921 993c e525 ffbb 5bef e13c
00000220: 797b a83c a410 25bc a4bd 1ebd 4dc5 073d
00000230: 3fdb 2b3c 2bdc 163c 3b46 89bc 9af8 c7bb
00000240: d575 45bd 0320 f73c 60cb f4bc a133 3dbd
00000250: 8111 8dbc bd01 0e3c e406 b4bc 5645 17bd
00000260: ffce 9cbc a736 eb3c 03b8 513d 4416 83bd
00000270: e6b6 933c 0884 85bc 5576 873a 41fd f83c
00000280: 7529 babb 3baa 42bd 24cd aebc d99b b73c
00000290: f9b5 c83c 05c8 083d 4be2 0cbd 2fa9 d13c
000002a0: d90d 19bd e14f 023c f42e 0b3d 7788 08bb
000002b0: 8ff3 243b 9ad1 58bc ed29 d3bc 78a8 483c
000002c0: fa17 113c 5080 22bd 82e4 f7bc ac56 813c
000002d0: 6c1d 3d3b 22b2 1cbd 2822 3ebb ae0a 803c
000002e0: efa0 583c b60f cb3c e473 ee3c ebfe 07b9
000002f0: 0ad9 d43c 35ab 9cbc 0f3f ee3c 2985 9e3c
00000300: d664 e83c 024a 173d d717 d23c b025 463c
00000310: 668b 3b3c 7a7a 35bb f974 f3bc 8c6e 853c
00000320: acf6 d03c e34c e0bc b275 c63c d453 cabc
00000330: 2fde a43b 4013 cebc 3ed9 7e3c 322c c83a
00000340: 2edf debc 7345 27bd a9bc b3bc b824 cbbc
00000350: 8283 21bc 1061 653c 1ea2 fb3b 8578 04bc
00000360: 21c8 e6bc c159 9cbc 62bb 983b c954 88bc
00000370: 23af a73c fd64 133c e562 bc3c 8b03 bf3c
00000380: d89f 15bc 515f f2bc bb86 07bd 8eaf d8bc
00000390: f994 163d 87ed 5dbc cf4e c13c 6b81 153c
000003a0: b70f 6b3b a825 06bd 9e47 21bd 2029 5a3c
000003b0: 2201 2a3d 8496 a2bb 7de3 11bd e132 983c
000003c0: c3a4 7f3b 7071 a43b 7ca0 e13b 3951 2ebd
000003d0: e76b f1bb 14e0 393d 0b23 173c 5303 0dbd
000003e0: 3e56 19bd 06b1 423d e84a cd3c d2b4 3f3c
000003f0: 88c8 0fbc 4794 1a3b 0621 ebbc 430a a13c

layer3.0.bias f4 [64]
0.01957517 0.0017979146 0.014316915 -0.036695983 -0.024767151 0.009220158 0.006296683 -0.0072993385
-0.0012739998 0.0041857413 -0.027415387 0.0018869721 -0.008262299 0.00014108045 -0.035889506 0.039912656
-0.03433421 0.0036626554 0.010120699 -0.012076925 -0.022837535 0.03602681 0.030923704 0.03409642
0.023944126 0.0023295903 0.012864765 0.008122455 0.031821687 -0.008873646 -0.004646933 0.03798408
-0.039852332 0.0023165648 0.010022692 0.004642173 -0.029068407 0.0068489774 -0.032645766 -0.0075165173
-0.031213306 -0.0060113193 -0.01747196 0.0021852218 -0.027335271 0.04079348 -0.008086641 -0.0074070054
-0.030128963 -0.035562176 -0.0379389 -0.0007185148 -0.008223485 0.024989102 -0.009421081 -0.024185177
-0.0067704413 0.003717432 -0.014884894 0.0038217525 -0.023150058 0.009055651 0.04030002 -0.013734192
00000000: 1b5c a03c 01a8 eb3a 7e91 6a3c 874e 16bd
00000010: 7be4 cabc 2510 173c 6854 ce3b 4a2f efbb
00000020: 57fc a6ba 8b28 893b 3c96 e0bc 4754 f73a
00000030: 985e 07bc ffee 1339 e000 13bd 747b 233d
00000040: 07a2 0cbd 2909 703b 4ad1 253c 4bde 45bc
00000050: c815 bbbc d990 133d b553 fd3c b0a8 0b3d
00000060: 7926 c43c 0aac 183b bcc6 523c 0c14 053c
00000070: 7557 023d c562 11bc 4d45 98bb 3295 1b3d
00000080: 333c 23bd 82d1 173b 3836 243c 5f1d 983b
00000090: de20 eebc 636d e03b 91b7 05bd 1e4d f6bb
000000a0: 0cb3 ffbc 9afa c4bb 5b21 8fbc f035 0f3b
000000b0: 38ee dfbc 1017 273d d57d 04bc 77b6 f2bb
000000c0: 04d1 f6bc a5a9 11bd d265 1bbd b65a 3cba
000000d0: ccbb 06bc f2b5 cc3c e15a 1abc fe1f c6bc
000000e0: 94da ddbb 29a0 733b c5df 73bc 5e76 7a3b
000000f0: 31a5 bdbc 275e 143c a211 253d 6005 61bc

layer3.1.weight f4 [64]
1.0296283 0.9755346 0.99408436 0.9740639 1.0112084 1.0524421 0.9686817 0.99175215
1.0109499 0.9680658 1.0633337 0.9858985 1.0174057 0.9844638 0.9628914 0.9670443
1.0478219 1.0178888 1.0243522 1.0549325 1.0138952 1.0059102 1.0278924 0.9743472
0.97398174 0.99889135 0.97391695 0.9882544 1.0057666 1.0157144 1.031811 0.9989585
0.99350476 0.95403624 0.998858 1.0122159 1.0138447 0.98003316 0.9991287 0.993575
1.0322903 0.97869676 1.0343189 0.99375415 0.9826375 0.9724627 1.0422444 1.0120858
0.98165286 0.96860456 1.0252861 1.0423833 1.011185 1.0134901 0.98598826 0.9840312
0.98278785 0.9861637 0.9929144 0.9982499 1.0160972 0.96382576 0.9783976 0.9698656
00000000: dcca 833f a3bc 793f 507c 7e3f 405c 793f
00000010: 476f 813f 6cb6 863f 86fb 773f 78e3 7d3f
00000020: ce66 813f 29d3 773f 521b 883f d863 7c3f
00000030: 5a3a 823f d205 7c3f 0d80 763f 3790 773f
00000040: 071f 863f 2e4a 823f f91d 833f 0708 873f
00000050: 51c7 813f aac1 803f fa91 833f d16e 793f
00000060: de56 793f 58b7 7f3f 9f52 793f 3efe 7c3f
00000070: f6bc 803f ee02 823f 6212 843f bfbb 7f3f
00000080: 5456 7e3f b83b 743f 28b5 7f3f 4a90 813f
00000090: aac5 813f 74e3 7a3f e6c6 7f3f ee5a 7e3f
000000a0: 1722 843f df8b 7a3f 9064 843f ac66 7e3f
000000b0: 228e 7b3f 51f3 783f 4468 853f 078c 813f
000000c0: 9a4d 7b3f 78f6 773f 933c 833f d16c 853f
000000d0: 836e 813f 0bba 813f ba69 7c3f 78e9 7b3f
000000e0: fc97 7b3f 3975 7c3f a32f 7e3f 4e8d 7f3f
000000f0: 790f 823f 49bd 763f 4478 7a3f 1d49 783f

layer3.1.bias f4 [64]
-0.057672698 -0.030014576 -0.006037652 -0.015615343 -0.0022239902 -0.035989016 -0.014182384 -0.018354055
-0.019332776 -0.023001116 -0.03585845 -0.017476557 -0.0313452 -0.02828044 -0.029874517 -0.02603546
-0.048457798 -0.03725409 -0.03162892 -0.049353555 -0.03363558 -0.041237213 -0.025446413 -0.009075692
-0.018867753 -0.03538777 -0.01580172 -0.019834548 -0.029835723 -0.039132163 -0.043762416 -0.008595599
-0.017363386 -0.025289105 -0.022793869 -0.035433456 -0.03033566 -0.021640182 -0.027044961 -0.01415205
-0.03319599 -0.011477852 -0.021283623 -0.03379172 -0.037178133 -0.024025546 -0.034450933 -0.037425783
-0.017691785 -0.017700387 -0.03795989 -0.052283585 -0.042321574 -0.015290024 -0.04041829 -0.0068460456
-0.031753697 -0.027671475 0.0013327675 -0.030770516 -0.027214076 -0.034497477 -0.031509455 -0.006452468
00000000: 353a 6cbd 21e1 f5bc 7fd7 c5bb 7fd7 7fbc
00000010: 5dc0 11bb 3869 13bd 3b5d 68bc 3e5b 96bc
00000020: c55f 9ebc d66c bcbc 4fe0 12bd ff2a 8fbc
00000030: d363 00bd 62ac e7bc 67bb f4bc 5148 d5bc
00000040: af7b 46bd bf97 18bd 548d 01bd f426 4abd
00000050: 76c5 09bd 5ae8 28bd ff74 d0bc 36b2 14bc
00000060: 8c90 9abc c4f2 10bd 9c72 81bc 107c a2bc
00000070: 0c6a f4bc 0c49 20bd 3840 33bd 8ed4 0cbc
00000080: a93d 8ebc 192b cfbc 35ba babc ac22 11bd
00000090: 7d82 f8bc c046 b1bc 658d ddbc 00de 67bc
000000a0: 85f8 07bd 9a0d 3cbc fe5a aebc 3069 0abd
000000b0: 1948 18bd 39d1 c4bc 6c1c 0dbd c74b 19bd
000000c0: 5dee 90bc 6700 91bc d47b 1bbd 5027 56bd
000000d0: 6359 2dbd 0283 7abc a68d 25bd cb54 e0bb
000000e0: 2a10 02bd 4aaf e2bc 42b0 ae3a 7312 fcbc
000000f0: 0ef0 debc 3a4d 0dbd 0f10 01bd 3a6f d3bb

layer3.1.running_mean f4 [64]
0.08563687 -0.16946073 -0.034702342 -0.123912685 -0.39248747 -0.11637098 -0.21544194 0.16429454
-0.29723957 -0.17511645 -0.55559534 0.005641895 -0.043658044 -0.2742565 -0.063195266 -0.025930582
-0.015527783 -0.023552975 -0.11098375 0.008935 0.14983653 0.20113368 0.23203923 -0.56553644
0.2990904 -0.13266568 -0.13791001 -0.21869355 0.341943 0.13960063 0.10399312 0.08314655
-0.1629262 0.05411151 -0.15288728 0.025596922 -0.3551292 0.10646845 0.2051144 -0.17800215
-0.20201385 -0.038142707 -0.09970816 0.06369416 0.0461223 -0.32538274 0.3097928 -0.41194215
0.010572989 0.072352946 -0.239265 -0.032308538 -0.14404882 0.42208394 -0.0355976 -0.20001623
-0.025712425 -0.053805493 -0.28461778 0.18929812 0.019989781 -0.41037995 -0.04160571 0.22130418
00000000: 6262 af3d 1d87 2dbe 0b24 0ebd efc5 fdbd
00000010: 1ef4 c8be e953 eebd d09c 5cbe d43c 283e
00000020: c92f 98be ba51 33be 7f3b 0ebf a5df b83b
00000030: c7d2 32bd 596b 8cbe 856c 81bd 5f6c d4bc
00000040: 3e68 7ebc 2bf2 c0bc 734b e3bd 1b64 123c
00000050: bf6e 193e fdf5 4d3e b19b 6d3e ffc6 10bf
00000060: 6022 993e 83d9 07be 4838 0dbe 34f1 5fbe
00000070: 2713 af3e 78f3 0e3e 58fa d43d bd48 aa3d
00000080: 20d6 26be 08a4 5d3d 7c8e 1cbe a3b0 d13c
00000090: 7fd3 b5be 210c da3d 8209 523e 3246 36be
000000a0: b8dc 4ebe 873b 1cbd cb33 ccbd 1572 823d
000000b0: bdea 3c3d 9198 a6be 299d 9e3e 15ea d2be
000000c0: 543a 2d3c c82d 943d e201 75be f555 04bd
000000d0: 8981 13be 631b d83e cace 11bd 0ed1 4cbe
000000e0: dda2 d2bc 2663 5cbd 6cb9 91be 5ed7 413e
000000f0: 9cc1 a33c 521d d2be c06a 2abd 909d 623e

layer3.1.running_var f4 [64]
0.07109484 0.3128606 0.12231197 0.16063687 0.10912111 0.090735346 0.22713399 0.14787845
0.18216556 0.4243763 0.08245415 0.28178716 0.17812508 0.24211077 0.16711847 0.2403219
0.12107267 0.115655206 0.11778164 0.0740839 0.099005334 0.11211375 0.11461762 0.29207304
0.33849394 0.16750802 0.20928071 0.22475038 0.13102657 0.14329134 0.12318664 0.15998322
0.151343 0.26524454 0.11689683 0.15631257 0.18115471 0.26337457 0.15363312 0.24171214
0.11332738 0.19525893 0.09431143 0.13346183 0.1582249 0.30324826 0.15200871 0.11204457
0.19984429 0.25014222 0.16070348 0.06968859 0.10872076 0.18046744 0.22377558 0.10652736
0.15567705 0.17594165 0.12203338 0.12146052 0.103857905 0.25963232 0.22565517 0.17864257
00000000: 2c9a 913d 442f a03e b37e fa3d fe7d 243e
00000010: e37a df3d 74d3 b93d d095 683e 736d 173e
00000020: 9c89 3a3e da47 d93e b9dd a83d 6846 903e
00000030: 6c66 363e e3eb 773e 1b21 2b3e f216 763e
00000040: f3f4 f73d a3dc ec3d 8037 f13d 4db9 973d
00000050: 4fc3 ca3d e59b e53d a5bc ea3d 998a 953e
00000060: 144f ad3e 3987 2b3e af4d 563e f724 663e
00000070: d42b 063e f7ba 123e 4749 fc3d a4d2 233e
00000080: a9f9 1a3e 22ce 873e 9b67 ef3d 6710 203e
00000090: 9f80 393e 08d9 863e 0052 1d3e 6383 773e
000000a0: 2f18 e83d f5f1 473e 5a26 c13d 38aa 083e
000000b0: b505 223e 5b43 9b3e 2ca8 1b3e a077 e53d
000000c0: fba3 4c3e a412 803e 748f 243e e4b8 8e3d
000000d0: fda8 de3d 75cc 383e 6d25 653e 042b da3d
000000e0: ce69 1f3e 0c2a 343e a3ec f93d 4bc0 f83d
000000f0: 74b3 d43d 87ee 843e 2612 673e 14ee 363e

layer4.0.weight f4 [64, 64, 3, 3]
0.0066970293 0.05277528 -0.02562528 0.0072320164 -0.0019301657 0.13901532 -0.007766306 0.006435529
-0.020952411 -0.021956002 0.02480008 -0.0717543 -0.036082428 0.027162539 -0.010718958 0.0006525929
-0.0020169334 -0.020011919 -0.038352724 0.015423851 0.012695743 0.016915051 0.02898313 -0.029280987
0.006973161 0.0022603148 -0.016128331 0.008502597 0.013758475 0.029956222 0.040967338 -0.00010208358
-0.041787907 -0.016873369 0.006437589 0.02338922 0.022939563 0.0048253178 -0.043977905 0.019304406
-0.00911382 0.03365338 -0.00031910586 0.0046140957 -0.028238839 0.035580773 0.013707219 -0.03342728
-0.022102963 0.004628278 -0.01089275 0.010673783 -0.017715652 -0.0010877001 -0.035573684 0.037393793
0.016995898 0.013006128 0.026251558 -0.032963563 0.008666069 -0.01766042 -0.011434047 -0.002289092
-0.011578766 0.035948403 -0.010195915 0.01300124 -0.01136064 0.017101109 -0.024238186 -0.026070375
0.016599968 0.00974754 0.035608593 -0.014037081 0.019823618 0.020596113 0.03010127 -0.023276556
-0.020178307 0.023870282 -0.0070250537 0.02774909 0.008849252 0.0016377389 0.021677282 0.010054665
0.010945661 0.008397895 0.0019843464 0.014681256 0.04841407 -0.022681108 0.000146294 0.054370236
0.009685503 0.009936262 -0.03843424 0.014854195 0.006331016 -0.007941364 -0.013534585 -0.014947553
-0.0069390303 -0.027919177 -0.0028893223 0.014971267 -0.041159093 0.042683728 -0.033809736 0.020809261
-0.01667689 -0.013223591 -0.028968949 -0.036246564 0.0027757606 -0.009557902 0.013064232 -0.026306402
-0.020631917 0.029732637 -0.0064587328 0.039175443 -0.0134735145 0.006791174 -0.01482951 0.01585626
0.017686507 -0.01011518 -0.018580757 0.043550346 0.0093225585 0.020484248 -0.02600631 -0.011763756
-0.048939355 0.0043633995 -0.0037303246 -0.01654324 0.039787374 -0.017526437 -0.013045616 -0.0472167
-0.0253628 -0.0105616115 -0.03538133 0.03197089 -0.020595677 -0.03655482 0.010104967 -0.0048362864
-0.017194834 -0.005239263 2.1633593e-06 0.07958824 -0.016472615 -0.0013427556 0.041460544 0.0025075157
-0.005032264 -0.013831609 0.05004582 -0.044645187 0.0060194074 -0.007290831 -0.0063347826 -0.01569319
0.026201537 0.017528825 0.014425356 0.008665565 0.014107012 0.11303878 -0.00014205094 -0.020890933
-0.018708004 0.0075497017 -0.005565663 -0.007728974 0.0013980905 0.011571479 -0.05157482 0.0052048974
0.019652383 -0.027207015 -0.0007494986 -0.006063398 0.012607413 0.020547265 -0.004891251 0.029841756
-0.0070776697 0.0034374292 0.0023363337 0.026480926 0.0030565113 0.0008606623 0.03308483 -0.023561392
0.06402773 -0.0017088328 -0.028205127 0.02994545 -0.0023688201 -0.01034716 -0.006056414 -0.027431622
-0.0054762964 -0.02957857 -0.00016020099 -0.02551163 0.011752548 -0.0033040089 0.006645837 -0.008168004
0.033660676 -0.019960549 0.0053814473 0.023263596 0.012272884 -0.011283418 -0.018162167 0.019095752
0.03708373 -0.033993453 -0.027242042 -0.010833013 -0.0017030982 -0.038024306 -0.0042257523 0.021247383
0.02463739 -0.019571964 -0.02038511 0.0060844594 -0.005264012 0.004299168 0.007332397 -0.017524313
0.02913629 -0.0029177594 0.007726051 -0.022798823 -0.0047896737 0.025157304 -0.016372409 -0.0020988078
0.003827528 0.009974143 0.0054814257 0.014871889 -0.018413082 0.013661696 0.03330776 0.016312871
00000000: c172 db3b e42a 583d 1bec d1bc 8dfa ec3b
00000010: 9dfd fcba 085a 0e3e 7f7c febb 21e1 d23b
00000020: 64a4 abbc 13dd b3bc 8a29 cb3c ebf3 92bd
00000030: 2bcb 13bd f983 de3c 929e 2fbc c512 2b3a
00000040: 872e 04bb 09f0 a3bc bf17 1dbd 52b4 7c3c
00000050: ce01 503c 6f91 8a3c 076e ed3c aede efbc
00000060: 1d7f e43b ca21 143b 901f 84bc 7a4e 0b3c
00000070: 3a6b 613c c066 f53c 5ecd 273d b415 d6b8
00000080: cc29 2bbd 053a 8abc 69f2 d23b c09a bf3c
00000090: c0eb bb3c b31d 9e3b 2d22 34bd 4624 9e3c
000000a0: 2252 15bc 20d8 093d aa4d a7b9 d731 973b
000000b0: 2355 e7bc 25bd 113d 3e94 603c 0beb 08bd
000000c0: 4611 b5bc cfa8 973b 8177 32bc 17e1 2e3c
000000d0: 6a20 91bc 2991 8eba b6b5 11bd 3c2a 193d
000000e0: fb3a 8b3c a817 553c 820d d73c cd04 07bd
000000f0: 21fc 0d3c 96ac 90bc de55 3bbc 9704 16bb
00000100: ddb4 3dbc a23e 133d c40c 27bc 2703 553c
00000110: fa21 3abc a017 8c3c 298f c6bc 8a91 d5bc
00000120: a8fc 873c 25b4 1f3c 51da 113d c9fb 65bc
00000130: 2465 a23c 2eb9 a83c f096 f63c 7aae bebc
00000140: fa4c a5bc 9c8b c33c 6c32 e6bb 0f52 e33c
00000150: 74fc 103c 66a9 d63a 8e94 b13c 52bc 243c
00000160: 6e55 333c 5397 093c cf0b 023b a789 703c
00000170: d54d 463d bbcd b9bc 7f66 1939 53b3 5e3d
00000180: f2af 1e3c b4cb 223c 396d 1dbd 025f 733c
00000190: 6974 cf3b 7f1c 02bc 2ac0 5dbc 95e6 74bc
000001a0: ce60 e3bb c2b6 e4bc c95a 3dbb 0c4a 753c
000001b0: 7096 28bd 22d5 2e3d 147c 0abd 2f78 aa3c
000001c0: f99d 88bc c3a7 58bc 4a50 edbc 4777 14bd
000001d0: 89e9 353b bf98 1cbc 5c0b 563c 8680 d7bc
000001e0: 4404 a9bc dc91 f33c c7a3 d3bb 6e76 203d
000001f0: 04c0 5cbc 7f88 de3b 79f7 72bc fde4 813c
00000200: 4be3 903c 24ba 25bc ac36 98bc d961 323d
00000210: a5bd 183c 95ce a73c 2f0b d5bc c5bc 40bc
00000220: a274 48bd d9fa 8e3b 7678 74bb b085 87bc
00000230: 16f8 223d 9a93 8fbc 48bd 55bc 4c66 41bd
00000240: a6c5 cfbc 9c0a 2dbc 03ec 10bd e8f3 023d
00000250: 44b8 a8bc 82ba 15bd 4e8f 253c b679 9ebb
00000260: 2edc 8cbc 20ae abbb 3b2e 1136 29ff a23d
00000270: 94f1 86bc 67ff afba 88d2 293d 2255 243b
00000280: b1e5 a4bb f99d 62bc d9fc 4c3d dfdd 36bd
00000290: 733e c53b ece7 eebb 0294 cfbb 018f 80bc
000002a0: 9ba4 d63c 9c98 8f3c 5458 6c3c 04fa 0d3c
000002b0: 1921 673c e080 e73d 82f3 14b9 7623 abbc
000002c0: 8741 99bc 7d63 f73b 2a60 b6bb 5543 fdbb
000002d0: 2240 b73a 4d96 3d3c 1e40 53bd d88d aa3b
000002e0: 09fe a03c 3fe1 debc 007a 44ba 78af c6bb
000002f0: 538f 4e3c bd52 a83c ca46 a0bb b376 f43c
00000300: cceb e7bb 7e46 613b 2d1d 193b 87ee d83c
00000310: c04f 483b 129e 613a f583 073d d203 c1bc
00000320: f820 833d eafa dfba 700e e7bc 2950 f53c
00000330: 353e 1bbb 2287 29bc e274 c6bb 48b8 e0bc
00000340: 8172 b3bb c24e f2bc a0fb 27b9 c4fd d0bc
00000350: c28d 403c 1288 58bb 52c5 d93b 18d3 05bc
00000360: c7df 093d 4e84 a3bc da56 b03b 4c93 be3c
00000370: 3514 493c 16de 38bc d3c8 94bc b26e 9c3c
00000380: 1ce5 173d b83c 0bbd b42a dfbc f37c 31bc
00000390: 7e3a dfba 60bf 1bbd 2e78 8abb fe0e ae3c
000003a0: 5ad4 c93c 6255 a0bc adfe a6bc 2560 c73b
000003b0: bc7d acbb 09e0 8c3b 9b44 f03b 268f 8fbc
000003c0: 3baf ee3c e137 3fbb d02a fd3b 99c4 babc
000003d0: b2f2 9cbb b116 ce3c 6e1f 86bc 278c 09bb
000003e0: 44d7 7a3b 966a 233c 889d b33b 39a9 733c
000003f0: 08d7 96bc 4ed5 5f3c b86d 083d 92a2 853c
