FAST 3D-CNN P-NET/model/IP/IP_proto_2d-5shotband60.pth (torch, 595121 bytes, 24 tensors)

layer1.0.weight f4 [64, 60, 3, 3]
000000 ae 96 c5 39 41 74 fd 3c 7e 1a 13 3d ea 47 08 bd
       0.00037687033 0.030939223 0.035913937 -0.033271708
000010 8d 6a d2 3c 81 ae 44 3d 27 15 ab bb 81 8d aa bc
       0.025685573 0.048017982 -0.0052210274 -0.020819427
000020 9a 7d 09 bd 88 e8 c4 bc 69 aa 80 bb 7d a1 32 bb
       -0.03356705 -0.02403666 -0.0039265645 -0.00272569
000030 d4 fc a4 3c 4d 74 5c 3c 5a 71 82 bc 9e dc 6d bc
       0.02014009 0.013455463 -0.01592319 -0.014517931
000040 38 32 0b 3d 25 54 11 3c 6b 08 e6 bc 14 44 be bc
       0.03398344 0.008870159 -0.028080186 -0.023225822
000050 9c 2a 33 3d 2e d2 06 bd 37 96 24 ba 00 2b e4 3c
       0.043741807 -0.032915287 -0.0006278487 0.027852535
000060 7b 3a a9 bc 2b 7e d0 3c 8a 73 3b 3d d4 90 e1 bc
       -0.020657768 0.025450787 0.045764484 -0.02753488
000070 de 2e b2 3b 01 42 b0 3a 2d bb 05 3d 08 3c 65 3c
       0.005437716 0.0013447405 0.032649208 0.013991363
000080 ae 37 de 3c 28 4f f7 3c 19 a4 bd 3c 5b dd 32 bc
       0.02712616 0.030189112 0.023149537 -0.010917033
000090 6a 6d b0 bb 5f a9 0f 3a a1 5b 23 bd c9 07 e3 bc
       -0.005384137 0.00054802553 -0.039882306 -0.027713673
0000a0 3a a1 e6 3c 4d a9 09 3d 03 42 21 bc 9c c8 c0 3c
       0.02815305 0.033608723 -0.009842399 0.023533158
0000b0 1f 81 0d bd 2a 82 d6 bc 85 6d b0 3c ff 8b 3e bd
       -0.034546968 -0.026185114 0.021536598 -0.04652023
0000c0 e9 33 98 3b 06 cd d1 3b a7 b1 ba 3c b6 f3 da 3b
       0.00464486 0.0064026145 0.02278979 0.0066818846
0000d0 3d 33 cc 3b 99 f4 f0 3c ba d7 95 3c ab 70 53 3b
       0.006231694 0.029413508 0.018291343 0.00322632
0000e0 17 26 c5 3c fe bb 76 bc 14 6c 1e bd e1 0c 12 bc
       0.024066014 -0.015059469 -0.03867729 -0.008914203
0000f0 3e 1c 16 3d e4 54 43 bb d6 91 a7 bb 34 6b 57 bc
       0.036648028 -0.0029805237 -0.0051138205 -0.013148118
000100 01 2e eb 3c 60 54 7c bc 13 0b 97 3c d5 dc 9d bc
       0.02870846 -0.015400976 0.018437898 -0.01927034
000110 56 77 4a ba bb ed 74 bc 6f 30 a8 3c 97 b3 b9 3b
       -0.0007723471 -0.0149492575 0.020530907 0.0056671607
000120 f9 a8 3f 3d cc 89 f1 3c 65 f4 c9 bc a4 5e aa 3b
       0.046792004 0.029484652 -0.02465267 0.0051992703
000130 ac ce 4a 3c 28 48 2e bd e2 bf 2d 3d bc 92 34 bd
       0.012378376 -0.042549282 0.04241932 -0.04408525
000140 cd af 10 3d e9 45 47 3c fb 8f 0e bd 69 cd cf bc
       0.035323907 0.012162664 -0.03480528 -0.025366502
000150 ca d6 0c bd 13 b1 89 3a e6 57 f0 3c 9a 37 2a 3d
       -0.034384526 0.0010505043 0.029338788 0.041556932
000160 2f f9 94 3c 54 f5 da 3c 42 40 1a 3c 93 72 a4 bc
       0.018185226 0.02672831 0.009414734 -0.020074164
000170 19 fc 43 3c f3 75 23 bb 85 3a 80 bc 9f a5 0d 3c
       0.01196196 -0.002494213 -0.015652904 0.008645444
000180 fd 3a 6c bc b8 10 d8 3c e9 2c 33 3d a8 5e 93 3c
       -0.014418361 0.02637516 0.043744 0.017989472
000190 01 38 69 bc 3d e1 14 bc a9 5b 4c bb 31 19 1c bd
       -0.014234544 -0.009086904 -0.0031182563 -0.038109962
0001a0 72 e5 86 3c 14 f1 72 3c f0 71 ac bc 8b 38 fd bc
       0.01646683 0.014827985 -0.021050423 -0.03091075
0001b0 00 b2 49 3c 47 f9 30 3d 2e e9 7b 3d 4f 99 5f bc
       0.012310505 0.04320648 0.061501674 -0.013647391
0001c0 22 a0 1b 3d 87 89 ac 3b eb d5 ba 39 6c 45 fb 3c
       0.03799451 0.005265418 0.00035636066 0.030672751
0001d0 88 bd d4 3c b4 9e 1b bd 02 f4 81 bc 35 d0 a2 bc
       0.025969282 -0.037993148 -0.015863422 -0.019874671
0001e0 17 bb 2c bc 59 62 8a bc ac 8d 32 bd 50 d7 22 bd
       -0.010542653 -0.016892599 -0.04359214 -0.03975612
0001f0 3f 68 e3 bb 5c 2b be 3b 38 49 0b 3c bf 07 b2 bc
       -0.0069399173 0.0058035087 0.008501343 -0.02173221
000200 c3 aa 73 ba 17 79 01 3d 54 bd bb bc ae f1 b3 bc
       -0.000929516 0.03160962 -0.022917427 -0.021965828
000210 8f 39 b2 3c 4f 57 cf 3c e1 67 0f bd 20 f0 d0 3b
       0.021755962 0.025310187 -0.035011176 0.0063762814
000220 2a 9e 00 bd 8d 8b a6 3c c0 cf de bc 4b 7e 41 3d
       -0.031400837 0.020330215 -0.027198672 0.047239583
000230 64 c3 63 3c d7 a9 26 3d 66 a2 2c bc d9 85 23 bb
       0.013901565 0.040689316 -0.010536766 -0.0024951606
000240 ee e6 1e bd 71 37 e6 3c 50 21 80 bd 49 a7 30 bd
       -0.03879445 0.028102608 -0.06256354 -0.043128286
000250 5a 81 fb 3c 1e e3 f8 bb 67 cd e1 3c 51 0a 02 bd
       0.030701328 -0.007595434 0.027563764 -0.03174812
000260 18 6d 6f bd a6 65 b8 3c e0 fd 25 3d e8 74 b8 3c
       -0.05845365 0.022509407 0.040525317 0.022516683
000270 23 7e 96 3c aa 5a 0e bc a0 a1 8c 3b 0e 78 01 3c
       0.018370694 -0.008688608 0.004291728 0.007902158
000280 65 09 3b bd ed 4a 5f 3c c4 93 25 3c 76 5a cd 3c
       -0.045663256 0.013628704 0.010106031 0.02506755
000290 4e ab 84 bc 9f dd c3 bc a0 94 e1 ba 28 a5 a0 3c
       -0.016194966 -0.023909388 -0.0017210431 0.019610003
0002a0 72 6d f6 3b b3 75 3e bd 4b 12 3f 3c 5b d8 b4 3c
       0.007520371 -0.046498965 0.011662076 0.022075823
0002b0 fc 25 5a 3c 2f e2 12 bd 2a b5 cf 3c ce 58 05 3d
       0.01331472 -0.035860237 0.02535494 0.032555394
0002c0 ba 03 d7 3c 63 4c a3 3b 62 77 06 bd d2 56 fe bc
       0.026246894 0.0049834712 -0.032828696 -0.031047259
0002d0 ef 74 16 3d 5a 1f 87 bc 39 9c 70 bb 5f cf cf 3c
       0.03673261 -0.016494442 -0.003671421 0.025367437
0002e0 f6 40 f1 bc a0 06 ef 3c fe 69 0a 3d f0 ba 24 bb
       -0.029449921 0.029177964 0.03379249 -0.0025135837
0002f0 bf 43 16 3c 69 c2 ac 3b 0c 37 11 3d 8a d4 e2 3c
       0.009171425 0.005272199 0.035452887 0.027689237
000300 43 ce 0a bd 42 c5 95 3c aa be 17 3d 5c 6b 89 3b
       -0.033888113 0.018282536 0.037047066 0.0041937064
000310 25 49 c8 ba 3e 2a 58 3b c5 f2 cd bc 72 51 43 bd
       -0.0015280588 0.0032984163 -0.025140176 -0.047685094
000320 fb e4 af 3c be 4f 1f 3c f9 71 a8 bb 90 0f 07 3d
       0.021471491 0.009723602 -0.0051405397 0.032973826
000330 6a 7a 21 bd 6d 70 16 bd 7b fd 10 3d c1 ff a8 3c
       -0.039423384 -0.03672831 0.035397988 0.020629765
000340 68 fe 03 3d 8b 41 ba 3c 8b a5 0f 3d aa 0d 23 bc
       0.032225043 0.022736331 0.035069983 -0.009951988
000350 b3 f9 05 3d cb 1b 37 3d 0c 61 70 3b c6 f4 ca bb
       0.032708835 0.04470424 0.0036678938 -0.00619373
000360 95 dd 3d bd c1 a9 3c bd be d8 98 bc fd 90 f3 b9
       -0.046353895 -0.046060327 -0.018658038 -0.00046456596
000370 3c b6 83 bb 46 5c db bb eb 79 b2 bc 72 cf 93 bc
       -0.0040195268 -0.0066943495 -0.02178665 -0.018043254
000380 06 00 61 bb 64 2d f8 3c 3b 0a 87 3c fe 71 cc 3c
       -0.003433229 0.030295081 0.01648437 0.0249567
000390 bc 15 02 bb 19 1d 8c bc f1 11 aa bc 2b f1 fc 3c
       -0.001984938 -0.017103719 -0.020760508 0.030876717
0003a0 66 1e fa 3c b4 84 ad bc 39 26 84 3c b0 fd 25 3a
       0.030532073 -0.021181442 0.016131507 0.0006332053
0003b0 50 3d c3 bc f5 5d a8 bc 67 64 52 3c b5 66 d2 bc
       -0.023832947 -0.020552615 0.012841321 -0.02568374
0003c0 f8 b4 02 3d b2 e9 10 3d e7 93 07 3d fc 40 e4 3c
       0.031910866 0.03537912 0.033100035 0.027863018
0003d0 64 08 14 bd 25 1d d0 ba 77 42 ee bc 42 df 0c 3c
       -0.036140814 -0.0015877826 -0.029084427 0.008598151
0003e0 47 e5 18 bd 04 d6 05 3c b3 0b 22 3c 61 e0 3e bb
       -0.03732803 0.008168701 0.009890485 -0.002912544
0003f0 c5 55 9b 3c ea c0 44 3c 25 70 8e bc 59 65 00 bd
       0.018961797 0.012008885 -0.017387459 -0.031346653

layer1.0.bias f4 [64]
000000 f8 8e 18 bd 76 1b 1a 3d b6 9c 2a 3d 5d 1b 0c 3d
       -0.03724572 0.037623845 0.041653357 0.034205783
000010 be 94 03 bd 29 af a3 3b a6 4e 05 bb 40 1b 80 38
       -0.032124273 0.004995246 -0.0020341068 6.108591e-05
000020 92 e2 99 bc a9 6b 13 bc 91 ee 11 3d 6d 6c e6 3c
       -0.018784795 -0.008997836 0.035627905 0.028127873
000030 df 20 0d bd 89 13 b3 bc 54 73 cb bc fb cc ab bc
       -0.034455176 -0.021859901 -0.024835266 -0.020971766
000040 8c 3f 17 3d 44 8c dd bc 3c 50 1c 3d c3 91 15 3b
       0.036925837 -0.027044423 0.038162455 0.0022822476
000050 d0 3a 13 bd 03 6e c4 3c ca bb 8b bc df 74 db bc
       -0.03594476 0.023978239 -0.017057318 -0.026789127
000060 36 e0 0e 3d ba 50 c2 bc 6b 99 fc bc 58 1c da 3c
       0.034881793 -0.023720134 -0.030834874 0.026624843
000070 60 6e 22 bd 74 da 0a 3d 2f 2d b6 bc f7 6c 96 3c
       -0.039656043 0.03389974 -0.022238342 0.018362505
000080 32 c9 13 bd 44 54 e1 bc 5f d5 88 3c df de 06 3d
       -0.036080547 -0.027506001 0.016703306 0.03292739
000090 9c 82 10 bd 1d fe fe bc 9b 5c 2c 3c 3b 79 ea 3c
       -0.03528081 -0.03112703 0.010520126 0.02862226
0000a0 08 15 78 bc 7a e3 12 bd 01 e5 09 3d 56 3e 91 3b
       -0.015141733 -0.03586147 0.03366566 0.00443248
0000b0 17 36 8a 3c 94 2c ca bc dd 1f 0b 3c 5e 6d cd bc
       0.016871495 -0.02467946 0.0084914835 -0.025076564
0000c0 92 98 17 bd 50 f8 7e bb 90 11 26 3b f9 2e 61 bc
       -0.037010737 -0.003890533 0.0025340058 -0.013744109
0000d0 51 e3 ed bc 08 66 28 bc 9a b0 04 3b 14 f8 c2 3c
       -0.029039057 -0.010278232 0.0020246864 0.023799933
0000e0 ea 66 1d bd 3b f6 e9 3c 15 a0 23 3c ef 26 0a 3c
       -0.038428225 0.028559795 0.009986897 0.008432134
0000f0 0a 86 d9 bc b2 b1 95 3c 00 bc 76 3c 5e 5b fa 3c
       -0.026553173 0.018273208 0.015059471 0.030561145

layer1.1.weight f4 [64]
000000 12 2d 7e 3f 86 fc 7f 3f b9 ba 7f 3f 66 b7 7f 3f
       0.9928752 0.99994695 0.9989429 0.9988922
000010 c4 52 80 3f 0f 0b 7e 3f 48 56 81 3f b5 47 80 3f
       1.0025258 0.99235624 1.0104456 1.0021883
000020 ef ef 7d 3f a5 2d 80 3f 11 96 80 3f 99 82 80 3f
       0.99194235 1.001393 1.0045797 1.0039855
000030 bb f7 7f 3f 74 5a 7e 3f de 2c 80 3f 68 c0 80 3f
       0.9998738 0.9935677 1.0013692 1.0058718
000040 56 69 7d 3f 1c 77 7e 3f bf a1 80 3f fb 2e 80 3f
       0.98988855 0.99400496 1.0049361 1.0014337
000050 3a 0d 81 3f eb 5d 80 3f c4 54 7d 3f f5 75 7e 3f
       1.0082161 1.0028661 0.9895747 0.9939874
000060 83 77 80 3f 78 96 80 3f c3 07 81 3f 36 b7 80 3f
       1.0036472 1.004592 1.0080494 1.0055912
000070 51 9b 80 3f 69 6b 7f 3f ca a5 80 3f 83 78 7f 3f
       1.0047399 0.9977327 1.0050595 0.9979326
000080 70 93 7f 3f 65 7e 80 3f 34 65 7f 3f 4a 62 80 3f
       0.99834347 1.0038573 0.997638 1.0029995
000090 37 b0 7d 3f 4b 13 81 3f 8d b2 7c 3f 7c 21 7f 3f
       0.9909701 1.0084013 0.98709947 0.9966047
0000a0 6d 78 7f 3f 14 35 80 3f 8f 53 80 3f f7 b1 81 3f
       0.9979313 1.0016198 1.00255 1.0132436
0000b0 f7 25 80 3f fa 52 81 3f 45 f8 7e 3f ea 64 80 3f
       1.0011586 1.0103447 0.9959758 1.0030797
0000c0 86 7a 7e 3f 6b 87 7b 3f c1 33 81 3f 15 09 81 3f
       0.99405706 0.98253506 1.0093919 1.0080897
0000d0 fe 66 81 3f b9 62 81 3f ed c8 7f 3f b7 bf 7f 3f
       1.0109556 1.0108253 0.99915963 0.9990191
0000e0 75 c2 80 3f 77 59 7f 3f 1d fe 7f 3f 03 4a 81 3f
       1.0059344 0.9974589 0.9999712 1.0100712
0000f0 5f 89 7f 3f bf d6 7f 3f 48 cf 7d 3f 4f 3b 7d 3f
       0.99818987 0.9993705 0.9914441 0.9891862

layer1.1.bias f4 [64]
000000 82 6c 51 bc 40 00 e7 b9 37 0d 65 bb bc 1a a4 bb
       -0.012782218 -0.0004405994 -0.0034950504 -0.00500807
000010 0b a7 6a bb bd e0 a3 bb 02 a0 39 bc c9 18 00 3c
       -0.0035805132 -0.005001156 -0.011329653 0.007818409
000020 0a 2c 84 bc a6 b5 1c bc 62 95 db ba e3 99 1b ba
       -0.01613428 -0.009564793 -0.0016752894 -0.00059357117
000030 06 e1 3f 3b 70 84 8b bc 3d 9d 59 bc a5 b0 fe bb
       0.0029278412 -0.017030925 -0.013282117 -0.0077725225
000040 c1 e9 d9 3b b3 c0 32 bc 08 74 9a 3b 1c 15 39 b9
       0.00665018 -0.010910201 0.004713539 -0.00017650839
000050 fa 6d 00 bc b3 9e 6b bb df c6 98 3b c7 bc 0e 3b
       -0.00783872 -0.0035952746 0.004662379 0.002178
000060 0d 1d 57 bc 50 ab 3e 3b 6c a1 41 3c 77 01 43 bc
       -0.013129485 0.002909381 0.011818271 -0.011902205
000070 ff e2 05 bb 29 0c 45 bc 11 65 b0 3b 05 e5 93 3b
       -0.002042949 -0.012026825 0.005383142 0.0045133852
000080 f5 c3 c8 bb 8c d3 15 bc 5e 87 06 bc 10 19 90 bb
       -0.0061268755 -0.009144675 -0.008210985 -0.004397519
000090 0d 74 0b bc 5a 82 d9 bb c6 fa ea 3a 91 e6 ca bb
       -0.008511555 -0.0066378536 0.001792752 -0.0061920364
0000a0 b8 60 ab bb 85 f5 ac bb 33 ca 8c bc 69 2b c0 bb
       -0.0052300356 -0.0052782916 -0.01718626 -0.00586455
0000b0 f4 31 04 bc 21 89 86 bc 01 eb 84 bb 63 e9 97 ba
       -0.00806855 -0.01642281 -0.004056335 -0.001158994
0000c0 57 83 0d 3c 76 73 62 b7 92 3a 00 bc 26 27 79 bc
       0.008637271 -1.3497533e-05 -0.007826464 -0.015207088
0000d0 1a 7c 36 bc 4a 05 72 3b d7 7c 89 3b 7f e1 52 3b
       -0.011137987 0.0036929422 0.0041957903 0.0032177863
0000e0 99 eb 0e bc b5 79 60 bc ed 09 9c 3b 83 b6 c1 3a
       -0.008723163 -0.013700892 0.0047619254 0.0014779124
0000f0 27 4e 12 bc d5 ff 1a bb 9a c2 01 bc ea c6 92 bb
       -0.008929766 -0.0023651023 -0.007919932 -0.004479279

layer1.1.running_mean f4 [64]
000000 43 f8 09 45 fc f6 9a 44 b5 35 86 44 02 91 32 44
       2207.5164 1239.7183 1073.6783 714.26575
000010 d0 da 2d 43 a6 21 09 c5 f6 d5 0d 45 e5 de ab c4
       173.85474 -2194.103 2269.3726 -1374.9655
000020 64 55 a7 43 1b d0 2b c4 43 ec 1b 45 c3 32 ba c3
       334.6671 -687.25165 2494.7664 -372.39658
000030 8a a4 f6 c3 3f 67 06 43 9f 5b c1 43 a1 d4 6b 44
       -493.28546 134.4033 386.7158 943.3223
000040 7c f8 d1 44 f9 b1 0d c3 3c c1 c6 43 c1 1c 55 44
       1679.7651 -141.6952 397.50964 852.4493
000050 ce 19 6b 43 29 ae ce 44 90 06 36 44 6c 86 48 c3
       235.1008 1653.4425 728.10254 -200.52509
000060 1b dc ee 43 c4 08 dc 41 e7 29 e9 43 5a 79 31 c4
       477.71957 27.50428 466.32736 -709.8961
000070 7a 88 1f 45 6d 81 15 44 62 ea 66 44 ce 57 a9 c4
       2552.5298 598.0223 923.66223 -1354.7439
000080 c8 89 1c 45 79 0f a4 c0 61 81 fb 42 2e 97 48 44
       2504.6113 -5.1268888 125.75269 802.3622
000090 a7 af 99 c4 32 15 e5 43 b9 c7 4e c5 f0 44 9e 44
       -1229.4891 458.1656 -3308.4827 1266.1543
0000a0 74 95 65 44 39 2f 96 44 6a ad 8a 41 cf 57 d5 c2
       918.3352 1201.4757 17.334675 -106.6715
0000b0 97 51 9e c4 2b 00 7b 40 d0 bc d1 c3 c2 30 8e 43
       -1266.5497 3.9218853 -419.4751 284.38092
0000c0 1d a0 60 c4 22 1a 85 c5 5e bf 01 44 9c 73 49 43
       -898.5018 -4259.2666 518.9901 201.4516
0000d0 3a b1 9e c2 a4 7b b1 44 40 2d 7b 45 34 7f 13 c4
       -79.346146 1419.8638 4018.8281 -589.98755
0000e0 41 8f a0 43 52 41 6a 43 b5 68 07 44 4d 66 b1 44
       321.11917 234.25516 541.63605 1419.1969
0000f0 d8 e1 21 44 fd 8c fb c2 75 e0 0e c4 49 d3 73 c5
       647.5288 -125.77537 -571.50714 -3901.2053

layer1.1.running_var f4 [64]
000000 11 f1 40 49 f4 4f 41 49 a9 f6 80 49 12 25 12 48
       790289.06 791807.25 1.0564691e+06 149652.28
000010 86 79 ad 49 a1 e0 ac 49 73 f2 bf 48 cd b8 ca 48
       1.4211048e+06 1.4162121e+06 393107.6 415174.4
000020 d1 aa 80 48 1d 67 9b 48 fc 5a 1b 49 56 ba 07 49
       263510.53 318264.9 636335.75 555941.4
000030 42 91 71 49 ee ad 49 48 54 92 6d 48 11 eb 33 48
       989460.1 206519.72 243273.31 184236.27
000040 90 04 88 49 0a 40 c5 47 98 f8 98 48 7f 85 99 48
       1.114258e+06 100992.08 313284.75 314411.97
000050 04 2d 0c 48 31 bb b2 48 1e 65 55 49 02 2f 37 48
       143540.06 366041.53 874065.9 187580.03
000060 ac ae c5 47 95 b9 ed 48 3b c4 f7 47 1a e3 8b 49
       101213.34 486860.66 126856.46 1.1459552e+06
000070 12 ce 13 49 cf 32 e1 48 dc 53 9f 48 b1 93 7f 48
       605409.1 461206.47 326302.88 261710.77
000080 94 47 b9 48 ba 41 10 48 13 df ee 48 a8 91 0b 48
       379452.62 147718.9 489208.6 142918.62
000090 3d c5 c4 48 9f 2b fc 47 cc 79 1d 4a ca bc 51 49
       402985.9 129111.24 2.580083e+06 859084.6
0000a0 99 7d ed 48 de 56 d7 47 db b3 03 48 aa 1b c1 48
       486380.78 110253.734 134863.42 395485.3
0000b0 05 7e 20 49 d0 7c d5 47 49 09 5d 48 c5 cc 2b 49
       657376.3 109305.625 226341.14 703692.3
0000c0 41 af ea 48 87 eb 30 4a 43 65 23 48 10 f9 ae 47
       480634.03 2.8986578e+06 167317.05 89586.125
0000d0 8c 35 5e 49 de 17 85 48 ce aa 13 4a 26 77 c1 49
       910168.75 272574.94 2.4193795e+06 1.5848688e+06
0000e0 b4 17 3f 48 30 ec 52 48 74 fe 43 48 3b 06 d0 48
       195678.81 215984.75 200697.81 426033.84
0000f0 85 ed 1f 48 19 27 3a 49 3d ef b7 48 ae b1 1b 4a
       163766.08 762481.56 376697.9 2.5508915e+06

layer2.0.weight f4 [64, 64, 3, 3]
000000 ee 41 08 bd 4d 82 0d bd 50 30 36 bb d3 4e 94 3b
       -0.033266 -0.034548093 -0.0027799793 0.004525998
000010 e2 3f cd bc 1d 7b 2a bd c7 3a c6 3c 06 d3 9e 3c
       -0.025054876 -0.041621316 0.02419795 0.019387733
000020 98 36 47 bd 74 5c 96 3c b2 3c c5 bc 10 cc 81 bb
       -0.04863605 0.018354632 -0.024076793 -0.0039610937
000030 12 5e 28 bd 50 17 89 bc 93 ab ca ba db c9 e6 bc
       -0.041105337 -0.01673475 -0.001546251 -0.028172424
000040 e0 54 72 3b 30 44 ba bc 51 5d 35 bc a0 d9 56 bc
       0.003697686 -0.022737592 -0.011069612 -0.013113409
000050 a7 b8 4e b9 a2 ae 98 bc 47 87 6f bc 0d 22 bc 3c
       -0.0001971448 -0.018637959 -0.014619655 0.022965455
000060 13 0a f0 bc 8e 24 99 ba 5e d1 8a bc 5c d9 fa bb
       -0.029301679 -0.0011683868 -0.016945537 -0.007655306
000070 52 65 a2 bc 78 16 8d bc 8d a6 b9 3b 99 a0 a5 bc
       -0.019823704 -0.017222628 0.0056656064 -0.02021818
000080 d6 75 09 3d 32 02 a3 3c 8b 76 38 3d 8a 37 4f 3d
       0.033559643 0.019898508 0.045034926 0.050590076
000090 df 58 72 3c ca 2f ea bc 5f 34 1d bd 0e 99 2e ba
       0.014791696 -0.02858724 -0.038380023 -0.000666038
0000a0 6d 8e 88 3c 86 c7 99 bc a6 b4 05 bd 9a bf c0 bc
       0.016669476 -0.018771898 -0.032642983 -0.023528863
0000b0 5b 0b 83 bc 82 57 26 3d c9 5d 60 3c e1 ce 09 bd
       -0.015996626 0.040610798 0.013694235 -0.03364456
0000c0 24 a5 e4 bc a9 64 5b bc 2e 49 04 bc 57 16 80 bc
       -0.027910776 -0.0133906985 -0.008074088 -0.015635652
0000d0 b4 6f 53 bc 2f c7 d2 bc 91 b8 27 3d bf 90 12 3d
       -0.01290505 -0.025729744 0.0409475 0.035782572
0000e0 c9 73 0d 3d 28 e2 da bc bf 01 41 3b c8 5c 95 3c
       0.03453425 -0.026719168 0.0029450504 0.018232718
0000f0 cd a1 d4 bc e5 f5 fa bc a8 0d ea bc 72 a6 cf 3c
       -0.025956059 -0.03063483 -0.028570965 0.025347922
000100 63 86 56 3c ad 4f 45 bb c6 d7 f1 3c 38 07 1e ba
       0.013093564 -0.0030107305 0.029521834 -0.00060282974
000110 3c 23 1d bc e5 dd 58 3d ea 27 40 3c 98 2b af bc
       -0.00959092 0.05294599 0.011728266 -0.021383092
000120 56 5a af bc 8e 65 06 3d b3 e8 09 bd 2f 21 14 3d
       -0.02140538 0.032811694 -0.033669185 0.03616446
000130 a9 dc 25 3c 68 86 e6 bc e4 20 9d 3b 4f 2f 69 bc
       0.01012341 -0.028140262 0.0047951806 -0.014232471
000140 06 8f b2 bc a1 8c 4b 3c b6 8a 09 bd 78 f7 02 3c
       -0.021796715 0.012423665 -0.03357955 0.007993571
000150 47 88 cd 3c c0 cc 16 bb b1 d0 b7 ba 67 90 86 3c
       0.025089396 -0.0023010224 -0.0014023987 0.016426278
000160 f5 7d 2b bd 68 2a b4 3b 9e ae 89 bd 7c 97 54 bd
       -0.04186817 0.0054982193 -0.06722759 -0.05190228
000170 6b 18 b5 ba 53 b6 30 bd 78 11 89 3c 28 92 01 bb
       -0.0013816481 -0.043142628 0.016731963 -0.0019770954
000180 16 aa 56 bc fb 47 ab 3c 77 7c c1 3c 16 8d a5 bb
       -0.013102075 0.020908346 0.02361892 -0.005052219
000190 04 b4 69 3b ca ce 90 bc 20 85 8a bb 0a 2f d8 bc
       0.0035660276 -0.01767673 -0.0042272955 -0.026389617
0001a0 be 4c d8 bc 11 ad 82 bc 67 74 1d 39 e5 ff 9c 3c
       -0.026403781 -0.015951665 0.0001501605 0.019164989
0001b0 7d 80 70 3c aa 26 bd 3c fc 1d 40 bc 18 82 4f bb
       0.0146790715 0.023089726 -0.011725899 -0.0031663235
0001c0 18 0a 25 bd 40 e0 5e 3c 79 80 05 3d b9 75 fe bc
       -0.04029283 0.01360327 0.032593224 -0.031061994
0001d0 82 46 f8 3c f8 91 c2 3c 9f a7 ac bc cc 0b 0c 3d
       0.030307058 0.023751244 -0.021076022 0.034190938
0001e0 c4 01 ed 3b 40 e0 8b bc a3 5c 0c bd 20 12 0a bd
       0.0072328765 -0.017074704 -0.034268033 -0.03370869
0001f0 ad 5d 59 3b 76 0c 3c bd 31 ef 23 3d 09 84 f8 bc
       0.0033167407 -0.04591032 0.040023033 -0.030336397
000200 63 27 a9 bc fc 4b bb bc dd f2 08 bd 40 42 f0 bc
       -0.020648664 -0.02286338 -0.033434737 -0.029328465
000210 c7 d9 f1 bc 6c f8 74 bc 0e 9c 2d bb 33 0c 54 bb
       -0.02952279 -0.0149518065 -0.002649072 -0.0032355904
000220 08 3d 11 3d 87 b6 d7 bc bd 5f e5 bc 2f 8c 28 3d
       0.035458595 -0.026332153 -0.027999753 0.041149314
000230 b5 b9 1c bc 35 a9 cf 3c f0 87 12 3d 0d e4 ff bc
       -0.00956576 0.025349239 0.03577417 -0.031236673
000240 d8 86 b2 3c 35 7a 0d 3c 5b 4c dd 3c ac 1e 43 3b
       0.021792814 0.008635093 0.027013948 0.002977292
000250 8e 1d cc bc 02 a8 12 3d ca 84 f5 bc 49 32 96 3c
       -0.024916437 0.035804756 -0.029970545 0.018334525
000260 b7 6c 3e bc c6 39 0f bd a5 c9 3c 3d d9 71 6e 3c
       -0.011622599 -0.034967206 0.04609074 0.014553511
000270 dd 66 a0 3c 39 9f b1 3c 95 5d f8 3b 79 c8 4c bb
       0.019580299 0.021682369 0.007579515 -0.003124742
000280 49 84 08 3d f7 5e e2 bc 3a 72 30 3c 64 8f f9 ba
       0.033329282 -0.027633173 0.010769421 -0.0019039926
000290 72 f8 b6 bc b2 68 4f 3d 8c cf 36 3c 28 58 2e bd
       -0.022335265 0.050636955 0.0111578815 -0.04256454
0002a0 a3 99 9b 3c cb 15 81 3c ab ae 32 bc 05 31 d3 3b
       0.018994158 0.015757462 -0.010905902 0.0064450526
0002b0 7d ee 9e bc d1 20 bc 3c 5b 67 c1 3c 8a a1 4d bb
       -0.01940083 0.022964867 0.023608854 -0.0031376802
0002c0 2d 76 ec 3c 91 bc 5e 3b 03 cb 0b bd 13 02 43 3c
       0.028864944 0.0033986906 -0.034129154 0.01190235
0002d0 c0 38 28 bd ea 19 ca bb 92 20 20 3d da 56 02 bd
       -0.041069746 -0.00616764 0.03909356 -0.03182111
0002e0 10 8b 93 3c 13 8a 47 3d 72 9b 31 3d 4d 5d 26 3d
       0.018010646 0.048715662 0.043361135 0.040616322
0002f0 14 49 c3 bb 06 31 c0 bb e1 2e 4d bd 59 52 01 bd
       -0.0059596393 -0.005865219 -0.050093535 -0.031572673
000300 8b 10 3a bd 56 5e b3 bc 79 08 e0 3c f5 96 76 3a
       -0.045425933 -0.021895569 0.02734779 0.00094066496
000310 13 13 61 bc d8 39 9a bb 18 79 51 bc 11 41 11 bc
       -0.013737458 -0.0047066025 -0.012785219 -0.008865611
000320 f9 77 b8 bc d9 12 9e 3c bb cd 21 bd cb e3 a0 bc
       -0.022518145 0.019296097 -0.03950284 -0.01963987
000330 37 05 03 3d fe 5e 82 3c 14 95 d6 3c e2 6a 50 3a
       0.031987395 0.015914436 0.026194133 0.0007950497
000340 b0 3e 16 3d 90 e2 04 bd 0b a6 93 3c ca c8 19 3c
       0.036680877 -0.03244263 0.018023511 0.009386251
000350 e1 b1 d1 3b 66 2b 2b bd 86 84 a4 bc 79 c1 fe 3c
       0.0063993786 -0.041789435 -0.020082723 0.031098114
000360 69 f3 f5 bc 70 bd 53 bd d9 c4 70 bc ba 52 b6 3c
       -0.030023294 -0.051694334 -0.01469537 0.022256244
000370 6c bf 85 bc d6 54 4c bd b3 fe 2f bc b0 a7 5f bc
       -0.016326629 -0.049885593 -0.010741877 -0.01365082
000380 f0 85 1b bd 5f df fa bc d1 59 8c 3c 5e a5 2a 3d
       -0.03796953 -0.03062409 0.017132672 0.041661613
000390 d4 e7 fc 3c db 18 b8 3c e2 b9 7d bc 91 c2 37 ba
       0.030872263 0.02247279 -0.015486212 -0.00070098886
0003a0 ce 2d c7 bc 15 64 17 bd 84 15 78 3c f4 4f 2b bd
       -0.024313834 -0.03696068 0.0151418485 -0.041824296
0003b0 69 59 b4 b9 27 00 64 3c 85 34 83 bc c8 c6 a5 3c
       -0.0003439889 0.013916052 -0.016016254 0.020236388
0003c0 67 2c 14 3d fd 34 12 3d 8a 31 10 3d 29 e1 e9 3c
       0.036175158 0.035695065 0.035203494 0.028549748
0003d0 2a fc 52 bc 3d 56 97 bb 71 93 9c bc fa 87 fe 3c
       -0.012877503 -0.0046184347 -0.019113274 0.031070698
0003e0 d2 26 2c bd 2c 4f 87 3b 7d ef 0c 3d 3c 30 24 bd
       -0.04202921 0.004129311 0.03440808 -0.040085062
0003f0 8c 91 f9 3c 96 4a 90 bb 73 77 43 bc 7c aa c5 bc
       0.03046491 -0.0044034226 -0.011930334 -0.024129145

layer2.0.bias f4 [64]
000000 80 c3 08 3d 78 52 01 3d 6e 89 e0 bb 0e 5f 08 3d
       0.03338957 0.03157279 -0.0068523204 0.033293776
000010 60 6b 05 3d ce b2 b8 39 f6 f4 0e bc 31 9a bc 3c
       0.032573104 0.00035228435 -0.008725395 0.023022743
000020 97 e6 70 bc a2 9c d1 3b f9 50 a8 3b 4f 1f bd bc
       -0.014703414 0.006396846 0.005136606 -0.023086218
000030 6d 0d ac bc 42 c9 bd 3c dd da 77 bc 02 67 13 3b
       -0.021002496 0.023167256 -0.015127865 0.0022491817
000040 3d da 85 bc d5 16 14 bc 96 f0 bf bb ce c8 2c 3d
       -0.016339416 -0.009038647 -0.0058575375 0.04218369
000050 15 41 07 bc 1a 1f 49 3c b8 a7 ee 3b 74 4b 23 bc
       -0.008255263 0.012275482 0.007283177 -0.00996672
000060 be d0 80 bb 8a 29 1d 3d 86 0d 1a 3c 95 50 0d 3d
       -0.003931134 0.038369693 0.009402638 0.034500677
000070 a2 fc e0 3c 2b dd f8 3c 1e 23 5d bc 86 f5 97 bc
       0.027464215 0.030378899 -0.013497142 -0.018549692
000080 07 c1 ff 3c 37 0e 31 3c e1 cb d8 3c 20 11 b6 bb
       0.031219972 0.010806612 0.026464405 -0.0055562407
000090 29 8f 10 bc 68 c8 11 3d 22 9d a8 ba ec 7a 90 3c
       -0.008823195 0.035591513 -0.0012864212 0.017636739
0000a0 33 64 6a 3c 63 41 b6 3b b1 8d d9 3a 27 17 df bc
       0.014306116 0.005561994 0.0016598013 -0.02723272
0000b0 a7 df 80 bc ae 97 ef bc b6 83 5e bc 30 9a c2 3b
       -0.015731646 -0.029247131 -0.013581207 0.0059387907
0000c0 65 7c d3 3c 33 95 18 bd 3b 8a 47 bc 10 7e 0a 3d
       0.025816152 -0.037251662 -0.012178953 0.03381163
0000d0 35 ee 00 bd fe 77 a3 3c d5 b7 07 bd 5e 33 74 3b
       -0.031477172 0.019954678 -0.0331343 0.0037262063
0000e0 ae 67 b2 bb e0 08 06 bd 0f a6 7a 3b 91 0e 3b 3b
       -0.0054444885 -0.032723308 0.0038245951 0.0028542618
0000f0 ad 55 0c 3d 75 d3 b0 bb ff bb 57 3c 41 66 d9 bc
       0.034261394 -0.0053963014 0.01316738 -0.026538016

layer2.1.weight f4 [64]
000000 30 8b 7c 3f 97 b2 80 3f 8e 30 7e 3f 45 be 83 3f
       0.98649883 1.0054501 0.9929284 1.0292441
000010 d2 c0 7f 3f d7 88 7b 3f b7 f1 80 3f 27 b7 7a 3f
       0.99903595 0.98255676 1.0073766 0.9793572
000020 e8 1e 7f 3f 00 a7 7e 3f b4 d5 7e 3f 9b bf 7c 3f
       0.99656534 0.9947357 0.99544835 0.98729867
000030 05 01 81 3f 30 f5 80 3f ed 67 7e 3f 30 a6 81 3f
       1.0078436 1.0074825 0.9937733 1.0128841
000040 d4 60 7b 3f 4e 20 83 3f f7 5a 7f 3f a2 20 7b 3f
       0.98194623 1.0244234 0.99748176 0.9809667
000050 46 2a 7f 3f 78 25 80 3f 7f 30 82 3f 1c 18 80 3f
       0.9967388 1.0011435 1.017105 1.0007358
000060 da 3f 81 3f 17 b8 81 3f 00 17 80 3f dc 41 80 3f
       1.0097611 1.0134305 1.0007019 1.0020099
000070 c7 3a 7e 3f 64 5c 7d 3f 73 18 81 3f 6d bf 80 3f
       0.9930844 0.989691 1.0085586 1.0058419
000080 b0 dd 7d 3f 7f d8 7f 3f f3 11 7b 3f d0 c1 7e 3f
       0.99166393 0.9993972 0.98074263 0.99514484
000090 51 9a 82 3f 3c ca 7f 3f f3 95 7f 3f 5b df 81 3f
       1.0203344 0.9991796 0.9983818 1.0146288
0000a0 e2 90 81 3f 23 a3 7c 3f 2e 90 80 3f d8 46 80 3f
       1.012234 0.98686427 1.0044 1.002162
0000b0 6f a2 79 3f 5d 82 82 3f 7a 6b 80 3f 76 b7 80 3f
       0.9751348 1.0196034 1.0032799 1.0055988
0000c0 f1 d8 7d 3f de ac 80 3f b0 83 80 3f 12 07 80 3f
       0.9915915 1.0052755 1.0040188 1.0002158
0000d0 e6 a2 80 3f 13 8e 82 3f 35 4d 80 3f ce cb 80 3f
       1.0049713 1.0199608 1.0023562 1.0062196
0000e0 f6 cd 7d 3f 1b 56 81 3f 30 b4 81 3f e7 11 7d 3f
       0.99142396 1.0104402 1.0133114 0.9885544
0000f0 9d 15 7f 3f 75 e9 7c 3f 5e 3a 7d 3f aa 62 84 3f
       0.99642354 0.9879373 0.98917186 1.034261

layer2.1.bias f4 [64]
000000 2e 2c 34 bc dc 24 b4 bc 69 6e 30 bb 67 36 d0 bb
       -0.010996861 -0.021990232 -0.0026921278 -0.0063541415
000010 2b e6 54 bc 28 fb 9e bc b7 31 b7 bc 6c f5 47 ba
       -0.012994329 -0.01940687 -0.022362573 -0.0007627818
000020 cf db 11 ba e8 30 db bb b1 ac 21 bd e3 7f 46 bc
       -0.0005564065 -0.0066891797 -0.039471332 -0.0121154515
000030 16 e8 90 bc 41 8a af bc b7 bb 20 bc b1 22 88 3b
       -0.017688792 -0.02142823 -0.00981038 0.004154526
000040 45 ab f1 bb f9 58 66 bc f3 63 98 bc 51 b4 1d bc
       -0.0073751532 -0.014059299 -0.018602347 -0.00962551
000050 3e 7a 4c bc 72 d6 9c bb 77 37 bd bc 2b f1 40 bc
       -0.012480317 -0.004786306 -0.023097737 -0.011776249
000060 db 10 b3 bb 7e 30 a2 bb 64 78 e1 bc f3 5e ca 3c
       -0.005464656 -0.0049496284 -0.027523227 0.024703478
000070 df d3 65 bb 3b 08 b1 bc be ee 1b bd 7f 62 2e 3c
       -0.0035068912 -0.02161037 -0.03806948 0.0106436005
000080 06 0c 70 bc 1e 82 6b bc 91 91 9e bc a3 90 39 bc
       -0.014651304 -0.014374284 -0.01935652 -0.011325988
000090 37 c2 bf ba 04 f7 5c bd 6c 0a 96 bc 86 31 17 bd
       -0.0014630024 -0.05394651 -0.018315516 -0.036912464
0000a0 53 97 3c 3c 44 84 10 bb e9 6f 81 bc bb f7 76 bc
       0.011510688 -0.0022051493 -0.015800433 -0.015073712
0000b0 6d 28 14 b8 fc 6e 4a 3b 31 62 e0 bc 61 47 13 bc
       -3.53236e-05 0.0030888906 -0.027390571 -0.008989186
0000c0 80 33 db bb b7 f0 80 b9 ab 8d 9e bc ea d8 94 bc
       -0.006689489 -0.0002459341 -0.019354662 -0.018169839
0000d0 ed 7a 1b 3c a8 62 24 bb b6 95 87 bb 14 71 49 bc
       0.009489757 -0.0025083218 -0.00413772 -0.012295026
0000e0 4a ea c4 bb 87 d6 80 bc bd 51 6b bc 3b 0b b8 bc
       -0.0060093747 -0.015727295 -0.01436275 -0.022466293
0000f0 ab c3 5a bc 70 05 12 bb 8b a9 25 bc 0f ec 36 3c
       -0.013352315 -0.0022281073 -0.010111223 0.011164679

layer2.1.running_mean f4 [64]
000000 96 64 85 3d 3b 6d b8 be 94 1c d9 be 0a 7c 12 bf
       0.06513326 -0.36020836 -0.42404616 -0.5722052
000010 14 e6 15 3f 1b ac 21 be 29 9b 42 be 94 b6 96 3e
       0.58554196 -0.1578831 -0.19004501 0.2943617
000020 f4 34 d1 3c 15 7f 1a bd 0b e5 27 bd 45 5e 4a be
       0.025537945 -0.03771885 -0.040989917 -0.19762523
000030 56 13 15 bf c8 19 b9 bd 4d 93 01 bf de ee 77 be
       -0.5823263 -0.090381205 -0.5061539 -0.24212214
000040 04 18 e8 bd 7a 39 c0 be 3c e7 13 bf 59 c4 38 bf
       -0.113327056 -0.3754385 -0.5777471 -0.721746
000050 50 f1 8c bd 49 73 13 bf 56 ee a7 be 71 57 25 be
       -0.06881964 -0.57597786 -0.32799023 -0.16146637
000060 a2 11 7b 3d 8b cf c0 3c 98 de a2 bc 23 54 ad 3e
       0.061296113 0.023536464 -0.019881532 0.33853254
000070 2f c4 af bd 85 7c 62 3c 24 4f d9 bd 25 7c cb be
       -0.08582341 0.013823633 -0.10610798 -0.39743152
000080 df 94 58 be 9a 9d a5 be 5d 79 d5 3e a9 81 fe 3c
       -0.2115054 -0.32346803 0.41694155 0.031067686
000090 35 6e fe be 63 7d 5f be 18 95 d1 be 9b ba 4b be
       -0.49693456 -0.21825175 -0.40934062 -0.19895403
0000a0 e1 67 14 3c c2 80 b6 be b0 b3 07 bf 96 56 77 be
       0.00905797 -0.3564511 -0.53008556 -0.24154124
0000b0 41 21 08 3f b2 1e 2a bf 2c b1 9c be 37 ef dd be
       0.5317574 -0.6645309 -0.3060392 -0.4334657
0000c0 84 b0 2c bd d3 9a b4 bd c9 a1 c6 3d b8 a1 a0 be
       -0.042160526 -0.08818593 0.09698827 -0.31373382
0000d0 af 4d 88 bf 21 4d 02 bf cd 13 d0 be 3e 54 e4 be
       -1.0648707 -0.5089894 -0.40640107 -0.44595522
0000e0 2b 69 b8 3e 0f 4c d9 3d 88 70 73 be 7c 8e 13 bf
       0.36017737 0.1061021 -0.23773396 -0.5763929
0000f0 6c 6a aa be 4f b1 c8 be 6d da ce 3e 8e fb 13 bd
       -0.33284318 -0.39197776 0.4040102 -0.036128573

layer2.1.running_var f4 [64]
000000 d7 df 4f 3e f1 f2 82 3d 87 a8 15 3e 78 0a 35 3e
       0.20300232 0.06393994 0.1461507 0.17679775
000010 1e ff 04 3e 95 a3 f5 3d 86 28 84 3d 44 06 46 3e
       0.12987944 0.119940914 0.06453042 0.19338328
000020 4c 84 f8 3d 05 66 21 3e 42 5e 62 3d ce 4d 84 3e
       0.121346086 0.15761574 0.055265673 0.2584061
000030 34 61 23 3e 30 e3 f3 3d d5 e8 0c 3e 88 9a 24 3e
       0.15955049 0.11908567 0.13760693 0.16074574
000040 c0 2d 0b 3e 86 86 54 3e ac 01 cb 3d 1c 15 f5 3d
       0.13591671 0.20754442 0.09912428 0.11966917
000050 1c 20 98 3e bb 24 f0 3d 47 1c ed 3d f1 0d 0d 3e
       0.29711998 0.11725756 0.11577659 0.1377485
000060 a6 b9 41 3e d8 6b c2 3d 23 84 cf 3d f1 08 51 3e
       0.18918476 0.09493226 0.10132625 0.20413567
000070 98 cb ed 3d 12 e4 18 3e a7 d2 92 3d cc b8 07 3e
       0.11611098 0.14930752 0.07169085 0.13254088
000080 a5 dd 8f 3d 5b 05 96 3e ee a2 1d 3e a2 53 11 3e
       0.07024697 0.2930096 0.15394184 0.1419206
000090 a8 f7 b0 3d 68 a6 90 3d 63 ba d4 3d 07 d5 65 3d
       0.08640987 0.070629895 0.10387113 0.05611136
0000a0 96 87 60 3e 6f a1 55 3e b6 cc 84 3d 00 96 cc 3d
       0.21926722 0.20862363 0.06484358 0.09989548
0000b0 7b 8a b4 3e 49 74 e0 3d 94 80 6f 3d 70 ea 10 3e
       0.35261902 0.1095968 0.05847223 0.14151931
0000c0 c3 d3 20 3e ff 1a c8 3d 1f 6e 07 3e 94 a7 0f 3e
       0.1570578 0.09770774 0.13225602 0.1402877
0000d0 60 f6 c8 3e d4 a5 f2 3d ed 04 54 3e 75 38 ba 3d
       0.3925047 0.118480355 0.20705004 0.090927996
0000e0 43 0e e1 3d cb c3 96 3d 99 43 05 3e 06 59 e4 3d
       0.10989048 0.07361563 0.13014068 0.111497924
0000f0 77 0a 91 3d b1 df 14 3e bd 54 b4 3d 00 16 cb 3d
       0.07082074 0.14538456 0.08805225 0.099163055

layer3.0.weight f4 [64, 64, 3, 3]
000000 0b ee 3f 3d 16 62 a5 bc 33 a8 15 bd 35 9d f2 bb
       0.046857875 -0.020188373 -0.03653736 -0.0074039944
000010 29 2e 70 3c 9d 13 0d bc 68 e3 ba 38 a6 5c d0 bc
       0.014659443 -0.008610633 8.911529e-05 -0.025434803
000020 5d 60 57 3c ce 89 e4 38 59 62 a4 3c 7f 9b 7a bb
       0.013145533 0.00010897555 0.020066427 -0.0038239656
000030 1b 71 51 3c 43 c1 8f 3c 0c 6e 29 bd 56 2e 87 bc
       0.012783314 0.017548209 -0.041364715 -0.016501587
000040 b0 8f 21 3d 78 2f d9 bc b7 bc 69 bc 0e b6 c4 3b
       0.03944367 -0.026511893 -0.0142661845 0.006003148
000050 39 26 04 bd 19 b3 b3 bc 85 dc bb 3c 2b 4d 75 3b
       -0.032263014 -0.021935986 0.0229323 0.003743003
000060 be 8b 11 3d e6 9b e0 bc f1 82 8b bc 61 9d 0d 3d
       0.03553366 -0.027418088 -0.017030211 0.034573916
000070 64 bf d3 bb c0 1a b5 3c f9 ba 40 3c e8 72 b6 3c
       -0.0064620245 0.022107482 0.011763328 0.022271588
000080 75 e0 a7 bb dd 73 51 3b fa 53 30 3c dc e3 71 bb
       -0.005123193 0.003195993 0.010762209 -0.0036909496
000090 3c 91 6b bd b7 d8 8e bc 55 62 c3 bc a6 e0 cc bc
       -0.057511553 -0.017437322 -0.0238506 -0.025009464
0000a0 0e 38 3f bc de d6 c4 3c af a9 e1 bb 4c 17 91 bc
       -0.011671079 0.024028238 -0.006886683 -0.017711304
0000b0 77 d0 d6 3a 8f 88 29 bb 1b 7a e7 bc b8 a8 b1 3c
       0.0016389032 -0.0025868749 -0.028256467 0.021686897
0000c0 2e 5a 81 3c b7 cd ca 3c 3b dc 87 3c 49 3a 00 3d
       0.015790071 0.024756296 0.016584506 0.031305585
0000d0 44 bf 8d bc e1 c8 15 3c c1 a5 f7 3c a4 32 39 bc
       -0.017303117 0.009142132 0.030230405 -0.011303578
0000e0 37 fc 91 3c 59 d9 38 ba 73 8a 1c 3c 8c 27 67 b9
       0.01782046 -0.00070514303 0.009554493 -0.00022044609
0000f0 d0 1c 27 3b 4d 3a 19 3d 65 60 24 3d 0f 16 37 bc
       0.0025499351 0.037409116 0.04013099 -0.011174693
000100 0d 5d 6a bc db 20 0b 3d d0 fb 47 3c 13 3b fc bb
       -0.014304412 0.03396688 0.012206033 -0.007697472
000110 e8 1b 06 bc 48 79 c4 3b fb 0e 8c 3c 60 3d 90 bc
       -0.008185364 0.005995903 0.017096987 -0.01760739
000120 69 48 30 3c 24 3a 8d bc 97 2f a7 3c 9e e6 45 3d
       0.010759451 -0.017239638 0.020408435 0.048315637
000130 34 33 5a 3c 72 84 82 3c 54 ec a2 bc 58 4d 99 3c
       0.013317872 0.015932295 -0.01988808 0.018713638
000140 3d 83 ad bb 6c dd 23 3c ad b7 90 3c 10 50 30 bd
       -0.005295186 0.010001522 0.017665708 -0.043045104
000150 d6 60 80 3c 8a c2 87 3c 1d 84 8b bc 23 fc 03 bd
       0.015671175 0.016572256 -0.01703077 -0.03222288
000160 6a 70 f4 3c b5 dc 03 bc 55 84 2a 3b 8f d1 ae 3c
       0.02983876 -0.008048226 0.0026018817 0.02134016
000170 8e b8 56 3c a6 52 7e 3c 8c 47 d1 bc bd 8a c4 3c
       0.013105525 0.015522635 -0.025546812 0.023991937
000180 62 ed 19 3d e1 bf 0d 3c fe b6 57 3c 7a 61 30 bd
       0.0375799 0.0086517045 0.013166187 -0.04306171
000190 d7 fc b1 bc 29 f8 89 3c 8f fd 0b 3d 6c da 18 3d
       -0.021727009 0.016841965 0.03417736 0.03731768
0001a0 59 45 0f 3b 36 1f 14 3d 40 54 2a bd 6c bc d7 3c
       0.0021861403 0.036162578 -0.041584253 0.026334964
0001b0 5d be fb 3c 4d f6 b9 bc 52 b7 6b 3c 2c 62 47 3c
       0.03073042 -0.022700453 0.014386969 0.012169402
0001c0 61 ea 84 bc 5b af ab bc 60 5a 3d bd a0 37 13 bd
       -0.016225042 -0.02095764 -0.046228766 -0.03594172
0001d0 77 f5 98 3c b6 bb 06 bc d6 8e 51 3c d5 d6 b6 ba
       0.018671734 -0.008223465 0.012790402 -0.0013949523
0001e0 5e 88 d2 3a e9 32 28 bc 01 c6 08 3c bc e9 30 3c
       0.0016062369 -0.010266044 0.008347989 0.010797914
0001f0 a6 d1 10 bd 26 bb 31 3d c6 f4 32 3d 3d 56 a3 3c
       -0.035356186 0.04339137 0.043690465 0.019938583
000200 b8 5b ad bb 47 de 02 3d 4f c6 e6 bc 27 f7 86 bb
       -0.0052904747 0.03195026 -0.028170733 -0.0041188183
000210 11 81 ea bc 71 96 12 bc ea 6a dc 3c 82 e4 ec bc
       -0.028625997 -0.008947001 0.02690645 -0.028917555
000220 5c c5 2b bd 13 c4 2c 3c fd c9 ad 3c af 56 82 bc
       -0.041936263 0.010544795 0.02121448 -0.015910475
000230 0c 1f 51 bc 0d 46 ea bc 00 b6 ae bc b8 68 b5 3c
       -0.01276375 -0.028597856 -0.021327019 0.02214466
000240 3b 0e e5 bc 75 6f 88 bb c1 0a 81 bc c6 e9 6b bb
       -0.027960887 -0.0041636773 -0.015752198 -0.0035997494
000250 8a 8f 95 3b b3 2c 98 bc 40 9c 8a bd bb 1f b7 3a
       0.0045642303 -0.018576002 -0.067680836 0.0013971248
000260 22 81 ef 3b 94 4e 58 3a a2 06 29 bc df 42 0e 3d
       0.007309095 0.0008251455 -0.010316523 0.034731742
000270 3b ba 18 3c 13 2a 22 b9 ea e3 45 bc 44 07 bc 3c
       0.009321745 -0.00015465198 -0.012078265 0.022952683
000280 1f 1d 26 bd 4d 3e 33 3c 27 0a f4 3b 9a 91 8b 3c
       -0.040555116 0.010940147 0.0074474993 0.017037202
000290 a9 a0 4d 3c 94 4e 1c 3d b7 e8 9a bc 6a 70 1e bc
       0.012550511 0.038160875 -0.018909795 -0.009670356
0002a0 7c 45 8d 3b d4 31 83 bc ba b7 92 bb ae ed ca 3c
       0.0043112617 -0.01601497 -0.0044774683 0.024771538
0002b0 38 c4 c7 bc a0 03 39 3d 9a ec bb bb 1e 7e 96 bc
       -0.024385557 0.045169473 -0.005734992 -0.018370684
0002c0 3b 16 6a 3c 7c 09 4e 3c a2 13 2a 3c 1d f7 83 3c
       0.014287527 0.012575503 0.010380657 0.016109044
0002d0 69 3c 3e 3c d5 27 1d 3d 37 19 65 bb 10 65 8e bc
       0.011611083 0.038368065 -0.0034957656 -0.017382175
0002e0 be 70 99 3c 83 88 18 bd 5f 13 17 bd a9 9c ed bc
       0.018730517 -0.037239563 -0.036883708 -0.029005365
0002f0 bc e4 17 bd 71 3c 5d 3d 2c a6 0b bd 2f d3 8f bc
       -0.037083372 0.05401272 -0.03409402 -0.017556755
000300 78 d3 0a bc 21 84 5d bc f7 5e 52 bc c8 1b 29 bc
       -0.00847327 -0.0135202715 -0.012840024 -0.010321565
000310 51 42 d8 3c d8 e8 3d bd 05 3e f8 3a e9 2e a1 bc
       0.02639881 -0.046364635 0.0018939382 -0.019675689
000320 97 8b 53 3c 14 59 29 3b 8d 05 c5 bc 28 ed 01 bd
       0.012911699 0.0025840448 -0.024050498 -0.03172031
000330 02 4d 8e bc 4c 1f 47 3b a8 d3 cf 3b e5 5c 4c 3a
       -0.017370705 0.0030383645 0.00634237 0.0007795825
000340 3c e0 10 3d 06 20 0a bd 35 1a e8 bc 27 55 d2 bc
       0.035370097 -0.033721946 -0.028332809 -0.02567537
000350 48 be d2 3c 0f 55 cd bc 32 d7 55 bb 16 2f c4 bc
       0.025725499 -0.025064973 -0.0032629487 -0.023948234
000360 48 e1 27 3c c8 a4 fe bc de 68 0f 3d c4 09 1d bc
       0.010246582 -0.031084433 0.03501212 -0.009584848
000370 4a 8a ef 3c 89 3e 02 bc a7 ae 4e bb f5 5d c2 3c
       0.029240746 -0.00794948 -0.0031537206 0.023726443
000380 0b 19 66 bc 7b e4 e3 3c c9 99 49 3c f6 7b 27 bc
       -0.014044057 0.027818909 0.012304732 -0.010222426
000390 9f 3f 00 bc e2 8d 65 bd 4b cb 0b bc 3b 4d 16 bd
       -0.007827668 -0.056043513 -0.008532356 -0.036694746
0003a0 4f c8 1e 3c 2d a3 54 3c ac ca ba bc 69 18 04 bd
       0.009691312 0.012978357 -0.02280172 -0.03224984
0003b0 bf 05 1d 3d 3b 0c 3d bd a5 4f 9b 3c c9 29 06 3c
       0.038335558 -0.046154242 0.018958876 0.008188673
0003c0 d0 b2 13 3c 30 b1 d5 3c 2a 3d 95 bc 37 81 99 ba
       0.0090148 0.026085466 -0.018217642 -0.0011711483
0003d0 19 c2 2f 3d a5 2c 25 3d 9d c1 3f bc 5d f5 1d 3d
       0.042909715 0.04032578 -0.011703876 0.038564075
0003e0 c3 b3 e8 3c 0c c5 81 bc fb 27 c4 3b 4e 03 31 bd
       0.02840603 -0.01584103 0.0059862114 -0.043216042
0003f0 be 4d e8 3a 7a b0 3c bb ae 28 29 3c 47 28 80 bb
       0.0017723364 -0.0028791712 0.01032464 -0.0039110514

layer3.0.bias f4 [64]
000000 89 43 a3 3c ae ef 70 3c 46 ae 58 ba b8 92 78 bc
       0.019929664 0.014705582 -0.0008265715 -0.015171699
000010 e6 c3 1e bb a6 74 c0 3c 4d 43 84 3b 04 a3 fd bc
       -0.0024225651 0.023493122 0.004036343 -0.030961521
000020 e8 6a 5a 3c 76 6a 0a bd 1e 4f ba 3c 9d 6d bf 3c
       0.0133311525 -0.033792935 0.022742804 0.023367697
000030 57 9e 03 3d be a0 f0 3c 1d 50 09 bd 98 a5 a7 3c
       0.032133427 0.029373523 -0.033523668 0.020464703
000040 ea 5f b0 bc 3f 57 1e bc 27 81 a2 3c ef 05 9a bc
       -0.02153011 -0.009664356 0.019836975 -0.018801657
000050 06 65 de bc de d4 9e 3a 49 8e 56 bc d3 5a 89 3b
       -0.027147781 0.0012117883 -0.013095447 0.0041917353
000060 a3 7c be bc 00 08 dd 3c 8a 3a 96 3c 41 92 1c 3d
       -0.02325279 0.026981354 0.01833846 0.038225416
000070 51 2e 09 3d 4a c9 cc bb 2f ab b5 3c 96 a3 cd 3c
       0.033491436 -0.0062495815 0.022176353 0.025102418
000080 64 48 99 bc 1e f4 22 3d a8 31 9d 3c 0d 2e 9e 3a
       -0.018711276 0.03978359 0.019188717 0.0012068168
000090 71 1f c9 bc 41 1e 04 3d 3c ad ca bc ee 84 86 3a
       -0.024551125 0.032255415 -0.024740808 0.0010263005
0000a0 ed 7f 2a 3d f9 18 2b bd 8e 31 b9 3b be 54 01 3d
       0.041625906 -0.041771863 0.0056516593 0.031574957
0000b0 5f 4f a3 3c c1 54 17 bc e2 13 dd 3c a0 90 06 bd
       0.019935308 -0.0092365155 0.02698702 -0.03285277
0000c0 08 a4 db bc b0 d2 14 3b 07 dc 9b 3c a0 b0 88 3c
       -0.026811615 0.0022708587 0.019025816 0.016685784
0000d0 24 c5 25 3c 5d ec 24 bc 46 03 19 bd 5b e0 8c bc
       0.010117803 -0.010066119 -0.037356637 -0.017196825
0000e0 85 72 da 3c 79 fc 82 3c ee 26 9c 3c 10 c6 64 bc
       0.026665935 0.015989529 0.019061532 -0.013963237
0000f0 5a 1e fd bc 95 8f d8 3c ad 88 44 bc c8 3d 04 bd
       -0.030898262 0.026435653 -0.011995477 -0.03228548

layer3.1.weight f4 [64]
000000 1b 60 79 3f 71 b6 7d 3f 0f c0 7c 3f e7 06 7b 3f
       0.9741227 0.9910651 0.9873056 0.9805741
000010 1b b9 79 3f b9 8d 7d 3f 12 0b 83 3f 4e 1f 80 3f
       0.97548074 0.99044377 1.0237753 1.0009553
000020 72 74 74 3f 10 ac 82 3f bd a9 79 3f 05 be 81 3f
       0.9549018 1.0208759 0.97524625 1.0136114
000030 b5 61 7e 3f b8 6f 80 3f 22 93 80 3f db 7b 84 3f
       0.9936784 1.0034094 1.0044901 1.0350298
000040 fd 48 82 3f fe 6d 80 3f 70 8f 81 3f 05 51 82 3f
       1.0178524 1.0033567 1.0121899 1.0180975
000050 d2 31 79 3f 48 3f 7e 3f 02 96 81 3f 2a 8e 80 3f
       0.97341645 0.9931531 1.0123904 1.0043385
000060 ed d1 78 3f 8f 48 7e 3f ab be 80 3f 65 07 82 3f
       0.9719532 0.99329466 1.0058187 1.0158507
000070 de 3d 76 3f cf 09 80 3f de 2e 7c 3f 07 e8 79 3f
       0.9618815 1.0002993 0.98509014 0.9761967
000080 4b db 82 3f 65 b7 7f 3f 5b fc 83 3f ed 88 82 3f
       1.0223173 0.9988921 1.0311388 1.0198036
000090 0d 8a 80 3f 34 f3 86 3f 06 cd 7a 3f 9c 64 80 3f
       1.004213 1.054297 0.9796909 1.0030704
0000a0 70 48 7d 3f 10 18 7f 3f af ee 85 3f f0 43 7a 3f
       0.98938656 0.9964609 1.0463465 0.97759914
0000b0 9b c6 82 3f fe 6e 7a 3f 5f 9d 7d 3f 5b f2 84 3f
       1.021686 0.9782561 0.99068254 1.0386461
0000c0 8e b7 88 3f 06 b9 7a 3f 55 e4 79 3f 1b 4c 79 3f
       1.0681016 0.97938573 0.9761403 0.9738175
0000d0 59 c1 81 3f 6a 1d 7c 3f 3d a6 74 3f ae dd 77 3f
       1.013713 0.9848238 0.9556616 0.9682263
0000e0 5d 96 83 3f be cb 7a 3f 66 18 7c 3f 47 75 81 3f
       1.0280262 0.97967136 0.9847473 1.0113915
0000f0 77 69 89 3f eb 02 7d 3f 1a a3 7a 3f aa 22 7a 3f
       1.073531 0.9883258 0.97905123 0.97709143

layer3.1.bias f4 [64]
000000 16 91 fa ba fd e6 8f bc cb 9b 22 bd a3 14 b5 3a
       -0.0019116725 -0.017566198 -0.039699357 0.0013815354
000010 1f 3c 19 bc c0 7e 4d bc 29 7e 2f bd c8 6f da bb
       -0.009352713 -0.012542427 -0.042844925 -0.0066661574
000020 2f 07 6f bc 82 e9 5b bc 5c 88 81 bc bd bf e0 bc
       -0.014589115 -0.013422372 -0.015812092 -0.027435178
000030 93 91 fd bc 1a 56 17 bc 3d 07 1e bd 04 cc 97 bc
       -0.030953204 -0.009236837 -0.03858112 -0.0185299
000040 ad db 06 bd d5 0b a7 bc 6f a8 16 bd a5 41 4d bc
       -0.032924343 -0.020391384 -0.036781725 -0.012527858
000050 2f ef 1e bc b4 3b b2 bb 2c e3 3b bc 35 65 c2 bc
       -0.0097005805 -0.005439246 -0.011467736 -0.0237299
000060 a1 46 51 bc 5f d4 89 bc f8 bd 20 bd 46 90 07 bd
       -0.012773187 -0.0168249 -0.03924367 -0.033096574
000070 72 34 f8 bc 4f b0 f9 bc 87 3c fd bc 88 cd e4 bc
       -0.030298445 -0.030479578 -0.03091265 -0.027930036
000080 37 ea 31 bd e5 5c d4 ba 62 0e 23 bd 20 83 12 bd
       -0.043436255 -0.0016202001 -0.03980864 -0.03576958
000090 e2 00 d2 bc 6f c5 59 bd 77 96 29 ba e0 3a 9c bc
       -0.025635187 -0.053166803 -0.00064692594 -0.019071043
0000a0 f0 25 3b bc 0e 5f f2 bb 34 de 44 bd b5 55 d1 bc
       -0.011422619 -0.0073965853 -0.048063472 -0.025553564
0000b0 58 0c bc bc ad 72 3f bc c6 85 ac bc e2 d1 26 bd
       -0.022955105 -0.011685056 -0.021059882 -0.040727504
0000c0 42 fc 87 bd c5 1a 43 bc f0 2f c7 bc 2c fc a7 bc
       -0.06639911 -0.011908238 -0.02431485 -0.020505987
0000d0 03 79 95 bc f0 ff c3 bb db 24 02 bd 21 af 7d bc
       -0.01824618 -0.005981438 -0.03177343 -0.0154836485
0000e0 ab 80 55 bc ed 57 26 bc 20 e3 58 bc 1f ac a7 bc
       -0.013031165 -0.010152799 -0.013237745 -0.020467816
0000f0 cb 64 78 bd 80 21 8a bc b8 4a bc bc 5e 3f 56 bc
       -0.060643 -0.016861677 -0.022984847 -0.013076631

layer3.1.running_mean f4 [64]
000000 0c df 3c bd 72 77 6b bd 01 a0 2a 3d ac 90 a6 3d
       -0.04611115 -0.05748696 0.041656498 0.08133063
000010 58 42 23 3e d6 d5 66 bf 34 fc 2a be 7c ba 7c be
       0.15943277 -0.9017004 -0.1669777 -0.24680513
000020 15 c8 ec 3d 24 04 8c 3d 9e 06 6a be 93 66 0a be
       0.115616 0.06836727 -0.22854087 -0.13515691
000030 b0 e1 c4 be e8 bf 8d bc 7c c9 80 3d 46 a2 a2 bd
       -0.38453436 -0.017303422 0.0628843 -0.079411075
000040 47 57 12 be 03 2d 5c be 62 f3 d8 be 05 c0 2a be
       -0.14291106 -0.21501546 -0.42373186 -0.16674812
000050 53 32 75 be ad 7b be 3d 67 9a 9d be 35 73 64 bb
       -0.23944978 0.09300933 -0.30781862 -0.0034858708
000060 eb 14 90 3e 0e 83 96 bd 14 a6 96 be 06 e4 f0 bd
       0.2814096 -0.073492154 -0.29423583 -0.11762242
000070 c1 8e 27 be 38 24 9c 3c 59 11 27 be 63 12 21 3d
       -0.1636305 0.01906024 -0.16315211 0.039324176
000080 f1 59 94 3d 61 31 fa bd 30 6e b3 bd ff c9 0a 3d
       0.072437175 -0.122164495 -0.08761251 0.033884045
000090 c9 8f 24 3e 71 ba a4 be 70 d1 f6 bd 15 3a 21 bd
       0.16070475 -0.32173494 -0.12051666 -0.039362032
0000a0 ee f0 d3 be 1b 64 19 be 83 11 1c be 6c 89 20 be
       -0.41394752 -0.14979593 -0.15241055 -0.15677422
0000b0 90 52 31 be 2d ab 5c 3e 90 31 9a bd 4f 2a b4 bc
       -0.17316651 0.21549673 -0.075289845 -0.02199283
0000c0 97 89 b7 bd 02 97 41 be 30 64 58 bb 20 3b 87 be
       -0.0896179 -0.18905261 -0.00330187 -0.26412296
0000d0 51 38 88 be 18 13 a6 bd 46 66 aa be c0 29 e1 be
       -0.26605466 -0.081091106 -0.33281153 -0.43977165
0000e0 5a 02 1d bd 01 1b f7 be 4b ad a1 be ee 56 0f 3e
       -0.03833232 -0.4826279 -0.31577525 0.13998005
0000f0 ad 34 9c bd 4c 7a ba bc b7 f7 bd bd 4d ec d5 3d
       -0.076272346 -0.022763394 -0.092757635 0.104454614

layer3.1.running_var f4 [64]
000000 f4 fd 41 3e 38 9f 62 3e 29 21 1b 3e 84 cd 4d 3e
       0.18944532 0.2213105 0.15149368 0.20097929
000010 cd a6 38 3e 65 3a db 3e 5c 8c be 3d 32 e9 42 3e
       0.1803238 0.4281799 0.09304115 0.1903427
000020 4a 4e 6a 3e 6e e1 d4 3d 4b f8 de 3e 49 c5 16 3e
       0.22881427 0.1039456 0.43548808 0.14723696
000030 fe ed f6 3d 9d dd 39 3e 9e 84 26 3e 87 02 c9 3d
       0.12057112 0.18150945 0.16261527 0.09814935
000040 26 36 e6 3d 2f ab 23 3e 5c 95 18 3e ff 46 07 3e
       0.11240797 0.1598327 0.14900726 0.13210677
000050 66 60 95 3e 82 b9 09 3e 69 17 db 3d 72 35 da 3d
       0.2917511 0.13449672 0.106978245 0.10654725
000060 58 04 0b 3f 20 7e 30 3e af 09 0b 3e a9 7b e6 3d
       0.54303503 0.17235613 0.13577913 0.11254055
000070 08 69 59 3e e6 3c 9c 3d 4b 41 4c 3e 99 7f 7a 3e
       0.21231472 0.07628803 0.19946782 0.24462737
000080 94 eb e3 3d e0 c9 0b 3e ca e6 0f 3e 94 6c 05 3e
       0.11128917 0.13651228 0.14052883 0.130297
000090 7e 47 2a 3e e9 61 8b 3d 45 15 ba 3e 22 d7 e9 3d
       0.16628835 0.06805784 0.36344352 0.114179865
0000a0 cf a2 8e 3e 17 40 fb 3d 04 28 aa 3d ff 00 1c 3e
       0.27858588 0.122680835 0.083084136 0.15234755
0000b0 b6 53 95 3d d9 eb 46 3e 19 72 5f 3e 76 1b 91 3d
       0.07291357 0.19425906 0.21820869 0.07085316
0000c0 73 89 9e 3d 4d b6 c5 3d 4e 12 46 3e 7d ae ee 3d
       0.0774106 0.09653912 0.1934292 0.11654375
0000d0 67 e6 02 3e 8c 56 cb 3d 31 3e 53 3e c6 1a 9b 3e
       0.12783204 0.09928617 0.20629193 0.30293864
0000e0 06 18 d2 3d d2 5e 0c 3e b8 11 28 3e 72 b8 f6 3d
       0.10258488 0.13708046 0.16413009 0.12046899
0000f0 9d 6e 6c 3d d9 7c 04 3e 81 2d 5d 3e 95 18 99 3e
       0.057722677 0.1293825 0.2159939 0.29901567
