FAST 3D-CNN P-NET/model/IP/IP_proto_3d-5shotallband-64output.pth (torch, 906105 bytes, 28 tensors)

layer1.0.weight f4 [8, 1, 7, 3, 3]
0.0015680969 0.09047483 0.10675244 -0.115246356 0.04963904 0.09356603 -0.04211178 -0.09245776
-0.14011127 -0.07416495 0.027942235 0.030462641 0.03642683 0.06238864 -0.015199686 -0.066775896
0.1098842 0.026343485 -0.10248186 -0.06945525 0.114989094 -0.08157523 0.019823778 0.09755895
-0.07449292 0.05739273 0.14390236 -0.090561025 0.028528288 0.008239871 0.0944109 0.06007627
0.095897354 0.0786419 0.11411682 -0.011382487 -0.020391518 0.0013259635 -0.1128357 -0.09312245
0.04232425 0.06373449 -0.032842506 0.07422856 -0.07742074 -0.07434812 0.09346864 -0.10561359
-0.0018897651 0.044247974 0.078125924 0.0010907602 0.027910477 0.074513994 0.06530761 0.00861623
0.104247876 -0.03657535 -0.12692861 -0.020605335 0.10716106 0.0058171363 -0.015757343 -0.045416795
0.082431175 -0.059273914 0.05503916 -0.020578792 0.014875635 -0.04721244 0.09193617 0.014008742
0.123303995 0.09106378 -0.07437248 0.010442042 0.067509696 -0.11294411 0.10370129 -0.10995804
0.0853224 0.028680654 -0.071533725 -0.052634627 -0.10228155 0.028130094 0.10238021 0.10664469
0.08355907 0.08725062 0.035374608 -0.06624456 0.048379887 0.012907079 -0.043427832 0.014450303
-0.036174115 0.051625945 0.08765027 0.024410341 -0.06378771 -0.05825048 0.006480321 -0.108019575
0.021142315 0.041068308 -0.07052768 -0.12804644 0.04285652 0.108654134 0.120269775 -0.06067189
0.120632574 0.021465868 0.016003504 0.107843846 0.090412706 -0.102848664 -0.03076731 -0.0713674
-0.017960422 -0.00499697 -0.11115579 -0.0901713 -0.039223123 -0.06658765 0.026128003 -0.11095908
0.06471649 0.09952699 -0.120345555 -0.037515454 0.027637327 0.03301158 -0.041171137 -0.00088833895
-0.08868906 0.061525334 -0.0996515 0.08974325 0.039014485 0.100333214 -0.08919003 -0.03690253
-0.10624969 0.04688158 -0.09398788 -0.1155202 0.0068653976 0.015973628 0.026412822 -0.067134365
-0.079213105 0.061337825 0.103469044 0.066345476 0.12415428 -0.0073232893 0.04975787 0.022367083
-0.07217242 0.06433405 0.014476668 0.053066365 -0.0843935 -0.024141038 0.0116723925 0.061777472
0.06786862 -0.08895894 0.044484388 0.040833894 0.048576865 -0.08500289 0.045562208 0.101867855
0.039759617 -0.016202305 -0.10638326 -0.06842994 0.12244431 -0.04289555 -0.0050974563 0.0934765
-0.10316189 0.08101842 0.10559673 -0.016055498 0.026082952 -0.002002509 0.10882924 0.059316125
-0.114290364 0.029625287 0.10774138 0.0025996661 -0.040878847 0.015030414 -0.06660141 -0.122605175
0.059360165 0.018148912 -0.038506594 0.090534784 -0.11779258 -0.11738382 0.09588178 0.06933511
0.09073507 0.074204035 0.072231695 -0.074342586 0.06442363 0.11925565 -0.016220652 -0.018659892
-0.081506744 -0.10072521 -0.009108069 0.02635813 0.0065143635 0.028551683 -0.036936425 -0.06953538
-0.024479121 0.11905841 0.06938378 0.09605604 0.0045142104 -0.061501425 -0.05995703 0.10618111
0.10951103 -0.051585093 0.02117374 -0.016956756 -0.09668136 -0.088122375 0.03731572 -0.08192439
0.06357236 0.08693126 0.08076694 0.06009964 -0.10302253 -0.014794288 -0.08479042 0.042266794
-0.08602435 0.011312662 0.04481176 0.001928022 0.0172475 0.0043016546 -0.06675149 -0.13480394
00000000: 9a88 cd3a de4a b93d 06a1 da3d 4806 ecbd
00000010: 4e52 4b3d 8c9f bf3d 677d 2cbd 7e5a bdbd
00000020: 5479 0fbe cbe3 97bd 1de7 e43c ca8c f93c
00000030: 4d34 153d 3b8b 7f3d 1b08 79bc cdc1 88bd
00000040: f80a e13d 4bce d73c 02e2 d1bd 8e3e 8ebd
00000050: 677f eb3d ea10 a7bd 7a65 a23c fdcc c73d
00000060: be8f 98bd a414 6b3d 245b 133e 0f78 b9bd
00000070: 28b4 e93c 8600 073c 805a c13d 8912 763d
00000080: d565 c43d 010f a13d 14b6 e93d 9c7d 3abc
00000090: 1d0c a7bc f4cb ad3a 6716 e7bd fcb6 bebd
000000a0: 315c 2d3d 3a87 823d dd85 06bd 2505 983d
000000b0: c48e 9ebd d443 98bd 7d6c bf3d f04b d8bd
000000c0: ffb1 f7ba 5d3d 353d 7c00 a03d d7f7 8e3a
000000d0: 83a4 e43c cb9a 983d ffbf 853d 172b 0d3c
000000e0: e97f d53d 09d0 15bd 93f9 01be 85cc a8bc
000000f0: 4277 db3d ad9d be3b 8b15 81bc f606 3abd
00000100: add1 a83d 34c9 72bd be70 613d db94 a8bc
00000110: efb8 733c d561 41bd 0849 bc3d ec84 653c
00000120: ce86 fc3d a67f ba3d 9950 98bd 1915 2b3c
00000130: 8642 8a3d 3e4f e7bd 5861 d43d ae31 e1bd
00000140: 83bd ae3d b1f3 ea3c 4680 92bd 6897 57bd
00000150: fd78 d1bd 1571 e63c b7ac d13d 8868 da3d
00000160: 0521 ab3d 74b0 b23d f7e4 103d 3aab 87bd
00000170: fd29 463d 3778 533c 62e1 31bd f7c0 6c3c
00000180: 4f2b 14bd ba75 533d fc81 b33d 32f8 c73c
00000190: 22a3 82bd 0e98 6ebd df58 d43b 5e39 ddbd
000001a0: a632 ad3c 3e37 283d d170 90bd 9b1e 03be
000001b0: 518a 2f3d 0f86 de3d 0050 f63d 1683 78bd
000001c0: 360e f73d 30d9 af3c c819 833c 3cdd dc3d
000001d0: 4c2a b93d 52a2 d2bd ba0b fcbc 1229 92bd
000001e0: bc21 93bc 9fbd a3bb a6a5 e3bd bbab b8bd
000001f0: 6da8 20bd 1b5f 88bd 650a d63c 843e e3bd
00000200: 148a 843d ced4 cb3d bb77 f6bd cea9 19bd
00000210: ad67 e23c 2737 073d 11a3 28bd 6bdf 68ba
00000220: 9ca2 b5bd fd01 7c3d 1616 ccbd 4fcb b73d
00000230: a7cd 1f3d 807b cd3d 43a9 b6bd 1b27 17bd
00000240: 7099 d9bd e606 403d b87c c0bd db95 ecbd
00000250: 21f7 e03b 20db 823c b45f d83c be7d 89bd
00000260: 7b3a a2bd 5f3d 7b3d 94e7 d33d 23e0 873d
00000270: 9944 fe3d 34f8 efbb e9ce 4b3d 2c3b b73c
00000280: 22cf 93bd 92c1 833d 8c2f 6d3c 1e5c 593d
00000290: 80d6 acbd 6dc3 c5bc 903d 3f3c 600a 7d3d
000002a0: b4fe 8a3d 1b30 b6bd 4335 363d 7141 273d
000002b0: 89f8 463d ff15 aebd 709f 3a3d 18a0 d03d
000002c0: fbda 223d b2ba 84bc 77df d9bd ff24 8cbd
000002d0: 15c4 fa3d 3fb3 2fbd 9008 a7bb 9b70 bf3d
000002e0: 8a46 d3bd fcec a53d 1943 d83d d286 83bc
000002f0: eaab d53c 873c 03bb dde1 de3d 77f5 723d
00000300: 1111 eabd bbb0 f23c 83a7 dc3d 295f 2a3b
00000310: 9470 27bd 2042 763c 5266 88bd 6c18 fbbd
00000320: a523 733d 07ad 943c 17b9 1dbd 4d6a b93d
00000330: 3c3d f1bd ee66 f0bd ab5d c43d 91ff 8d3d
00000340: 4fd3 b93d 49f8 973d 36ee 933d ed40 98bd
00000350: 89f0 833d 4e3c f43d 2ce1 84bc a1dc 98bc
00000360: 02ed a6bd 0549 cebd 033a 15bc 01ed d73c
00000370: 7176 d53b 38e5 e93c a64a 17bd 9168 8ebd
00000380: 7088 c8bc e5d4 f33d 1519 8e3d 07b9 c43d
00000390: f1eb 933b ebe8 7bbd 8195 75bd 7b75 d93d
000003a0: 5247 e03d e44a 53bd 8d74 ad3c e5e8 8abc
000003b0: e000 c6bd 8179 b4bd 5ed8 183d f9c7 a7bd
000003c0: 3a32 823d 0409 b23d 2369 a53d 0a2b 763d
000003d0: 7afd d2bd be63 72bc 9aa6 adbd f21f 2d3d
000003e0: 892d b0bd be58 393c 898c 373d afb5 fc3a
000003f0: a14a 8d3c e5f4 8c3b 01b5 88bd 0b0a 0abe

layer1.0.bias f4 [8]
0.14878489 -0.039053146 -0.11332002 0.15720509 -0.11290134 0.024405258 -0.07250443 0.012074244
00000000: 115b 183e 31f6 1fbd 5414 e8bd 5ffa 203e
00000010: d138 e7bd 89ed c73c 347d 94bd 0dd3 453c

layer1.2.weight f4 [8]
0.9841822 1.0007846 1.0131669 0.98239106 0.9909697 1.0212868 1.0131618 0.9860407
00000000: 5df3 7b3f b619 803f 74af 813f fb7d 7b3f
00000010: 31b0 7d3f 87b9 823f 49af 813f 2a6d 7c3f

layer1.2.bias f4 [8]
-0.01440525 0.0064593493 0.045761544 -0.02234691 -0.0005274905 -0.046269055 -0.052676503 0.004027794
00000000: ff03 6cbc f3a8 d33b 7570 3b3d de10 b7bc
00000010: 4a47 0aba 9f84 3dbd 51c3 57bd 96fb 833b

layer1.2.running_mean f4 [8]
0.41485485 0.082260676 0.02507072 0.27417192 0.21476433 0.12247364 9.0458416e-05 0.15042496
00000000: db67 d43e 4978 a83d 1c61 cd3c 4360 8c3e
00000010: 2eeb 5b3e 76d3 fa3d 7eb4 bd38 0009 1a3e

layer1.2.running_var f4 [8]
0.014326431 0.0030164376 0.0011758963 0.0032085176 0.017282965 0.0049105915 7.904638e-06 0.005096319
00000000: 68b9 6a3c 6daf 453b 8820 9a3a fe45 523b
00000010: 0195 8d3c 07e9 a03b 299e 0437 06ff a63b

layer2.0.weight f4 [16, 8, 7, 3, 3]
-0.005100742 0.003235812 0.0053083575 0.002177495 0.0094395 -0.014655671 0.029914608 -0.009952868
0.054499686 0.0078318715 0.0044481275 -0.022819053 -0.046166938 -0.018851167 -0.0198444 0.048274588
0.04130901 -0.030058315 -0.0010832403 0.012444129 -0.013428999 -0.00963416 0.052520607 -0.030709306
0.030443404 -0.02240305 0.025627693 0.027262634 -0.0055793044 -0.036326908 -0.0027275598 0.043909926
-0.009801157 -0.0054382253 0.031587005 0.015232774 0.013418638 -0.030339476 0.025124835 0.012115084
0.004671514 0.0114512155 0.026236378 -0.004952075 0.04173972 -0.0036972107 0.038075797 -0.009315235
-0.027593056 0.04829183 -0.013619822 -0.012830393 0.03658068 0.03227408 -0.006953221 -0.025660917
0.033185955 0.007979973 -0.021242624 -0.009925661 -0.026887363 0.04609859 0.0043063215 0.038617034
0.055207692 0.04862965 0.031070279 0.042323247 0.036133967 0.037767254 0.0060434467 -0.035672665
-0.02920038 0.040301464 -0.020880768 -0.033729747 0.006396394 0.012790714 -2.2268765e-05 -0.0042792545
-0.0071983696 -0.03159405 0.018722411 -0.06699521 0.02350118 -0.019732377 0.0075419517 0.03428114
0.036778156 0.010763747 0.039275303 -0.017376462 -0.04486564 -0.004519982 -0.03880662 -0.0465245
-0.014626844 -0.040370744 -0.04508227 0.055193592 0.009296764 -0.017928943 0.015501773 0.00013057132
0.0272895 0.03541892 -0.019455956 0.009922947 0.011440146 0.023328051 0.06155056 -0.0077496627
0.040183466 0.017247785 0.006452286 -0.026696613 -0.0051855925 0.0072206473 -0.023762029 -0.051835887
-0.041030627 0.02766493 -0.041421853 -0.056210343 -0.050160162 -0.031067258 0.02504223 -0.032221116
0.023176735 0.0012840661 -0.0047128773 0.012256053 0.04567617 0.04945379 0.032567378 -0.022827031
-0.024006456 0.04273117 -0.015345658 0.036150813 -0.016534552 0.0037354606 0.025951805 0.033337094
0.020794038 0.01155246 -0.032003727 0.03554248 0.012322617 -0.03879971 -0.028775673 0.02286055
-0.036137015 -0.018111993 -0.016824545 -0.00817578 -0.020895245 -0.02652688 -0.024639573 -0.02483908
0.015805118 0.0050922236 -0.03850817 0.037691724 -0.013787833 -0.042642318 0.021661006 -0.025581066
-0.0051484974 0.03483908 -0.00848006 -0.022286193 -0.012158285 0.0020467313 0.018481918 -0.017311102
-0.020754576 -0.032497346 -0.005916317 0.023394471 0.025159925 -0.01736039 0.03656947 -0.008484421
-0.0129803335 -0.02069601 0.021795763 -0.035488952 0.009220294 0.04156301 0.010711617 0.01036929
-0.021127222 0.015012223 0.02642933 0.051900126 0.04330024 0.05446676 -0.006891018 0.031916153
0.017277204 0.0559818 0.014219481 0.04856171 -0.020199448 0.001533757 0.04362167 -0.0060364953
0.028318705 0.03780809 0.03373473 -0.029026488 0.019410146 -0.019985111 -0.043862958 -0.043311838
0.0368611 0.003724199 -0.010699185 0.01617449 -0.0092727095 0.023531228 -0.038467843 -0.028419908
-0.027284889 0.009997166 0.032141816 0.0057159066 0.032985777 0.018694645 0.041098345 -0.034385875
-0.020889472 0.004870571 -0.013280437 -0.0031323638 0.010232753 0.01928525 0.01189097 -0.027496418
-0.05492945 -0.009372764 0.012142652 0.01754232 -0.049351975 0.0137264645 -0.020522911 -0.012466111
-0.014440896 -0.02148249 -0.047119975 0.025695393 0.010173252 -0.01604338 0.054955527 -0.031497885
00000000: 2024 a7bb eb0f 543b bbf1 ad3b 4eb4 0e3b
00000010: 22a8 1a3c 571e 70bc 7b0f f53c 5b11 23bc
00000020: 103b 5f3d 4051 003c 99c1 913b 06ef babc
00000030: 8b19 3dbd c36d 9abc b990 a2bc 93bb 453d
00000040: a333 293d db3c f6bc 83fb 8dba 76e2 4b3c
00000050: 4e05 5cbc 99d8 1dbc d91f 573d 1592 fbbc
00000060: 7264 f93c 9a86 b7bc 2bf1 d13c e355 df3c
00000070: 99d2 b6bb 86cb 14bd dcc0 32bb e5da 333d
00000080: 0895 20bc 2433 b2bb 6061 013d e392 793c
00000090: d9d9 5b3c 7e8a f8bc 99d2 cd3c 587e 463c
000000a0: 8013 993b e19d 3b3c aced d63c 0445 a2bb
000000b0: 45f7 2a3d e74c 72bb 5ef5 1b3d ed9e 18bc
000000c0: d50a e2bc a7cd 453d ad25 5fbc 9236 52bc
000000d0: a0d5 153d d331 043d d8d7 e3bb d836 d2bc
000000e0: ffed 073d 6fbe 023c 0305 aebc 3d9f 22bc
000000f0: e342 dcbc e0d1 3c3d 0b1c 8d3b e52c 1e3d
00000100: 7621 623d e22f 473d 1987 fe3c 245b 2d3d
00000110: 3601 143d d6b1 1a3d 1b08 c63b 801d 12bd
00000120: a335 efbc 2613 253d 250e abbc 3428 0abd
00000130: d898 d13b 2590 513c cfcd bab7 fd38 8cbb
00000140: 4de0 ebbb c368 01bd be5f 993c c934 89bd
00000150: 8c85 c03c cba5 a1bc 7a22 f73b 616a 0c3d
00000160: b1a4 163d 6d5a 303c 24df 203d 1559 8ebc
00000170: 09c5 37bd 5b1c 94bb b1f3 1ebd 7990 3ebd
00000180: 6ea5 6fbc cb5b 25bd 30a8 38bd ad12 623d
00000190: 7451 183c b8df 92bc 26fb 7d3c f9e9 0839
000001a0: 3b8e df3c 6e13 113d 1962 9fbc db93 223c
000001b0: 736f 3b3c 781a bf3c 711c 7c3d e2f0 fdbb
000001c0: 6b97 243d 3a4b 8d3c b36d d33b dbb2 dabc
000001d0: e7eb a9bb 2e9b ec3b 96a8 c2bc de51 54bd
000001e0: bb0f 28bd 90a1 e23c f6a9 29bd d13c 66bd
000001f0: be74 4dbd c380 febc 5d25 cd3c 4afa 03bd
00000200: 23dd bd3c 1c4e a83a 7b6e 9abb 9dcd 483c
00000210: f016 3b3d 0f90 4a3d 5f65 053d c1ff babc
00000220: 30a9 c4bc e106 2f3d 5b6c 7bbc e012 143d
00000230: 7873 87bc a1ce 743b e198 d43c 7a8c 083d
00000240: 4258 aa3c 8746 3d3c 5716 03bd fe94 113d
00000250: cde4 493c 72ec 1ebd f6ba ebbc 0c46 bb3c
00000260: 6804 14bd 9a5f 94bc a1d3 89bc b5f3 05bc
00000270: 812c abbc e64e d9bc eed8 c9bc 547b cbbc
00000280: bc79 813c abdc a63b beba 1dbd a362 1a3d
00000290: 5de6 61bc b6a9 2ebd 6c72 b13c 628f d1bc
000002a0: bab4 a8bb 6cb3 0e3d f3ef 0abc 8991 b6bc
000002b0: 8b33 47bc 7422 063b 6467 973c 03d0 8dbc
000002c0: 8005 aabc f01b 05bd aadd c1bb c3a5 bf3c
000002d0: 301c ce3c 6037 8ebc dec9 153d 3e02 0bbc
000002e0: 77ab 54bc ae8a a9bc 078d b23c dd5c 11bd
000002f0: b710 173c fa3d 2a3d c77f 2f3c f4e3 293c
00000300: ff12 adbc d4f5 753c 5382 d83c 3a95 543d
00000310: 985b 313d 8a18 5f3d 0cce e1bb 83ba 023d
00000320: ec88 8d3c 2c4d 653d d3f8 683c a5e8 463d
00000330: 5079 a5bc 5808 c93a a3ac 323d cbcd c5bb
00000340: a1fc e73c a8dc 1a3d 6e2d 0a3d f5c8 edbc
00000350: 0702 9f3c d1b7 a3bc a5a9 33bd c167 31bd
00000360: aafb 163d b111 743b a24b 2fbc 5d80 843c
00000370: 90ec 17bc 90c4 c03c 7590 1dbd ded0 e8bc
00000380: 8f84 dfbc 27cb 233c 23a7 033d 804c bb3b
00000390: 181c 073d 8325 993c bd56 283d 34d8 0cbd
000003a0: 6620 abbc 5099 9f3b 3196 59bc 5848 4dbb
000003b0: 47a7 273c 1afc 9d3c 58d2 423c 2b40 e1bc
000003c0: b4fd 60bd 3990 19bc f9f1 463c e9b4 8f3c
000003d0: 4c25 4abd f7e4 603c aa1f a8bc a93e 4cbc
000003e0: 8299 6cbc 0cfc afbc e000 41bd 257f d23c
000003f0: b6ad 263c 686d 83bc 0c19 613d ed03 01bd

layer2.0.bias f4 [16]
-0.045287542 -0.068792045 -0.019561164 -0.08862005 0.0031848007 0.022700982 -0.06346189 -0.07555759
-0.051087916 -0.039249845 -0.044928137 0.0020995012 -0.05736907 -0.06293 0.0070252544 0.03068482
00000000: 6e7f 39bd d8e2 8cbd bc3e a0bc 6e7e b5bd
00000010: 17b8 503b 69f7 b93c 4ff8 81bd f0bd 9abd
00000020: 9041 51bd 72c4 20bd 9106 38bd c997 093b
00000030: d4fb 6abd 72e1 80bd 1b34 e63b bb5e fb3c

layer2.2.weight f4 [16]
1.0016109 1.0076908 0.9983267 0.99494517 1.0088129 0.993446 0.9816301 1.035311
0.9683365 0.98748183 0.9965225 0.9886854 0.9886237 0.98808074 1.0040568 0.9974455
00000000: c934 803f 03fc 803f 5792 7f3f bab4 7e3f
00000010: c820 813f 7a52 7e3f 1c4c 7b3f 1285 843f
00000020: e7e4 773f 9ccb 7c3f 191c 7f3f 7d1a 7d3f
00000030: 7116 7d3f dcf2 7c3f ef84 803f 9758 7f3f

layer2.2.bias f4 [16]
0.08514032 0.036943715 -0.053254414 0.068693 0.09283306 0.04287296 0.106218636 -0.07298283
0.16337782 0.091416106 -0.030503973 0.12186219 0.09276399 0.028076507 0.07835955 0.0069788764
00000000: 0c5e ae3d 4b52 173d 4d21 5abd eaae 8c3d
00000010: 421f be3d 8f9b 2f3d 2889 d93d 0678 95bd
00000020: 844c 273e 5e38 bb3d 78e3 f9bc e292 f93d
00000030: 0cfb bd3d b400 e63c f97a a03d 0faf e43b

layer2.2.running_mean f4 [16]
0.3269614 0.19897504 0.2635005 0.20320658 0.24469924 0.4569836 0.32450098 0.25041223
0.37486443 0.43301442 0.33481017 0.30595917 0.33209166 0.21258733 0.48717445 0.23368782
00000000: 7c67 a73e 1dc0 4b3e 8ae9 863e 6315 503e
00000010: 7092 7a3e c1f9 e93e fe24 a63e 0836 803e
00000020: 3bee bf3e 11b4 dd3e 3d6c ab3e aea6 9c3e
00000030: eb07 aa3e 7eb0 593e ee6e f93e dc4b 6f3e

layer2.2.running_var f4 [16]
0.24516913 0.12743229 0.35665137 0.10699213 0.17352529 0.31566602 0.2694655 0.24080053
0.3071782 0.37651435 0.21932362 0.26076773 0.2615176 0.15900154 0.52005446 0.13059254
00000000: 9e0d 7b3e 9c7d 023e 029b b63e b11e db3d
00000010: 9db0 313e fa9e a13e 62f7 893e 6a94 763e
00000020: 7646 9d3e 7dc6 c03e 5f96 603e 5983 853e
00000030: a3e5 853e 4dd1 223e 4a22 053f 0dba 053e

layer3.0.weight f4 [32, 16, 7, 3, 3]
0.022625402 0.0040382766 0.023044823 0.025039298 -0.0005255764 0.028684147 0.014647073 0.031210694
0.014317198 -0.023296012 -0.025926312 -0.03214849 0.008037252 -0.043723162 0.0040121926 0.0028480878
-0.02495531 -0.0028204536 0.021498913 -0.0032994458 -0.02219621 0.02430195 0.006360055 0.011005589
0.028325554 -0.025595471 0.018194068 0.05003686 0.0052122744 0.015775915 0.02297843 0.025275148
0.00069842587 0.010523443 0.008283396 0.027033718 0.034761082 0.027859593 -0.009473701 0.018393869
0.0011804457 0.021524386 0.007845727 -0.0055003795 0.014827508 -0.007010956 0.037359193 0.02977447
0.025169916 0.0038299041 0.022753028 -0.005623807 0.0130728325 0.016126364 0.062877394 0.030789508
0.0375969 0.03228236 0.0198081 0.03333204 -0.0003205418 0.00035613636 0.027984247 0.006064359
-0.027411802 -0.038594756 -0.019912802 0.0152169345 -0.021655856 -0.004181354 -0.010691678 -0.011588711
0.0031209753 -0.0120364865 0.0057452964 0.02564882 0.019731127 0.0073796436 0.033381723 0.026249498
-0.028149322 -0.054764967 -0.02541431 -0.042327132 -0.026239276 -0.02525463 -0.01203223 -0.03433319
-0.0052887336 -0.027499845 0.0044546486 0.029039554 0.01359876 -0.012525442 -0.0047518 0.030830393
0.02021158 -0.0017149941 0.0038202968 -0.0506049 0.010147817 -0.023962183 -0.03602038 -0.0020768233
-0.026081134 0.00363923 -0.016137721 -0.0068238243 0.011016601 -0.0067992047 0.014858052 0.028231587
0.046495397 0.022311725 -0.007055042 0.0144288745 0.010754164 -0.028372144 0.0053641335 -0.012927793
-0.03945108 -0.023712628 -0.00869269 -0.012243067 -0.0012838996 -0.020063372 0.01434234 -0.008133606
-0.020894669 -0.041874453 -0.008507541 -0.04130197 -0.022259159 -0.0137005905 0.0015849768 -0.0004871555
0.021418069 0.037579667 0.0021965327 0.018947562 0.017000524 -0.013826302 -0.02395788 -0.019306868
-0.04654418 0.00045205365 0.02068387 -0.016672652 0.028018462 -0.000456174 0.010374905 0.05007486
0.031105647 0.01876869 -0.00147144 0.006194742 -0.01072897 -0.015857114 -0.0181707 -0.007294045
-0.02150328 -0.010782076 -0.03837493 0.015115186 0.007188062 -0.009357084 0.005058029 -0.031846646
-0.01856863 0.04085833 0.023779664 0.0061884313 0.008598315 -0.021823905 0.0046062707 -0.008081048
-0.029813772 -0.01514107 -0.0067169038 0.007287149 -0.03965664 -0.012875784 -0.038682986 -0.004759764
-0.025964629 -0.012784701 0.0037081996 -0.006227005 -0.011177534 0.0024876832 0.02938917 -0.016162854
0.015472173 -0.011625364 -0.016042376 -0.010659361 0.0003718601 -0.01271708 0.01543723 -0.010807761
0.0061811428 0.02188301 0.010742301 -0.019678554 0.029113146 0.024717385 -0.021276979 -0.043626048
-0.006252349 0.008078095 -0.018680604 -0.0043254104 -0.012044204 -0.015466199 0.016547171 -0.008799857
0.021926057 -0.001285485 0.0077701085 -0.010513468 0.012390619 -0.008651615 0.029238883 0.038126178
0.0070353914 -0.031184824 0.011613283 -0.033348408 -0.018399345 -0.031386305 0.017062481 0.0010006585
-0.007922043 0.020874819 0.008206529 -0.012558081 -0.028442165 -0.0064269844 -0.042020187 -0.028154599
0.016351178 0.0146255065 -0.0060578897 0.014028717 0.014977913 -0.009194416 -0.008265025 0.0226326
0.0011192199 0.023327744 0.028747896 0.003944609 -0.0018507107 0.008437895 0.018663237 -0.0024054705
00000000: e858 b93c 8553 843b 7fc8 bc3c 371f cd3c
00000010: d6c6 09ba 04fb ea3c 47fa 6f3c 92ad ff3c
00000020: ae92 6a3c 47d7 bebc 6b63 d4bc 23ae 03bd
00000030: aeae 033c 0f17 33bd b678 833b fca6 3a3b
00000040: 146f ccbc 5cd7 38bb 7d1e b03c 843b 58bb
00000050: d4d4 b5bc e214 c73c 0268 d03b c950 343c
00000060: fe0a e83c 98ad d1bc ba0b 953c 73f3 4c3d
00000070: bacb aa3b 7e3c 813c 433d bc3c d40d cf3c
00000080: 9116 373a 856a 2c3c 15b7 073c d175 dd3c
00000090: a361 0e3d cd39 e43c 9537 1bbc bdae 963c
000000a0: 2fb9 9a3a e953 b03c 5d8b 003c 873c b4bb
000000b0: 13ef 723c 29bc e5bb f405 193d 97e9 f33c
000000c0: 2431 ce3c 21ff 7a3b 8f64 ba3c ea47 b8bb
000000d0: 6f2f 563c 701b 843c ddc5 803d 473a fc3c
000000e0: 35ff 193d 823a 043d 9944 a23c 2d87 083d
000000f0: 640e a8b9 d0b7 ba39 383f e53c 88b7 c63b
00000100: b78e e0bc 8915 1ebd 2c20 a3bc 7350 793c
00000110: 9f67 b1bc bd03 89bb 262c 2fbc 94de 3dbc
00000120: 4789 4c3b af34 45bc 0a43 bc3b 791d d23c
00000130: 2ca3 a13c f0d0 f13b 46bb 083d 3009 d73c
00000140: 6899 e6bc 3b51 60bd ac31 d0bc 375f 2dbd
00000150: c0f3 d6bc cce2 cebc d522 45bc f6a0 0cbd
00000160: 1d4d adbb 5b47 e1bc 4df8 913b 5ce4 ed3c
00000170: 55cd 5e3c 8337 4dbc fdb4 9bbb 0590 fc3c
00000180: c192 a53c a7c9 e0ba f25d 7a3b 1547 4fbd
00000190: 0843 263c 574c c4bc 1b8a 13bd 501b 08bb
000001a0: 1aa8 d5bc 2680 6e3b 4133 84bc 639a dfbb
000001b0: f97e 343c ddcb debb 306f 733c ee45 e73c
000001c0: f571 3e3d 14c7 b63c fb2d e7bb 1667 6c3c
000001d0: 3c32 303c b36c e8bc 9dc5 af3b 18cf 53bc
000001e0: 7597 21bd fc40 c2bc c96b 0ebc 2597 48bc
000001f0: 8648 a8ba f15b a4bc 22fc 6a3c d142 05bc
00000200: 4c2b abbc 8c84 2bbd 3763 0bbc 412c 29bd
00000210: d758 b6bc 7178 60bc ffbe cf3a e868 ffb9
00000220: f274 af3c 23ed 193d b4f3 0f3b eb37 9b3c
00000230: af44 8b3c b787 62bc 5143 c4bc 7029 9ebc
00000240: 1ca5 3ebd 9d01 ed39 3871 a93c 1695 88bc
00000250: f986 e53c a32a efb9 81fb 293c 4c1b 4d3d
00000260: 45d1 fe3c ccc0 993c 55dd c0ba 43fd ca3b
00000270: 90c8 2fbc c7e6 81bc b8da 94bc e202 efbb
00000280: a627 b0bc 4ea7 30bc 082f 1dbd afa5 773c
00000290: d689 eb3b 744e 19bc d3bd a53b a171 02bd
000002a0: 3d1d 98bc 105b 273d 92cd c23c 53c8 ca3b
000002b0: f2df 0c3c 0cc8 b2bc 33f0 963b 5f66 04bc
000002c0: 033c f4bc 4012 78bc 7919 dcbb 09c9 ee3b
000002d0: 006f 22bd f4f4 52bc 0d72 1ebd cbf7 9bbb
000002e0: c6b3 d4bc ec76 51bc 4405 733b e70b ccbb
000002f0: fa21 37bc 6608 233b 8fc1 f03c f667 84bc
00000300: ff7e 7d3c 5078 3ebc 4d6b 83bc 9aa4 2ebc
00000310: 38f6 c239 4d5b 50bc 6fec 7c3c 0913 31bc
00000320: 2f8b ca3b 0044 b33c 7a00 303c eb34 a1bc
00000330: b17e ee3c 1d7c ca3c 0f4d aebc 3ab1 32bd
00000340: 81e0 ccbb fc59 043c 1108 99bc 2cbc 8dbb
00000350: 0e55 45bc f165 7dbc ef8d 873c 472d 10bc
00000360: 469e b33c b87d a8ba 659c fe3b ae40 2cbc
00000370: 0602 4b3c 81bf 0dbc 6286 ef3c 322a 1c3d
00000380: 2489 e63b 5177 ffbc a445 3e3c 5798 08bd
00000390: 39ba 96bc ed8e 00bd 9ec6 8b3c 8728 833a
000003a0: 75cb 01bc ab01 ab3c ad74 063c 69c0 4dbc
000003b0: 8bff e8bc 7499 d2bb 5c1d 2cbd 79a4 e6bc
000003c0: e8f2 853c d29f 6f3c 4381 c6bb b4d8 653c
000003d0: ec65 753c 2da4 16bc 076a 07bc 0168 b93c
000003e0: cab2 923a d319 bf3c b580 eb3c c741 813b
000003f0: 8c93 f2ba 193f 0a3c a5e3 983c 19a5 1dbb

layer3.0.bias f4 [32]
0.011660107 -0.05398467 -0.08489169 -0.037599668 -0.0759257 -0.06553599 0.001710641 -0.08492497
-0.08678859 -0.07902185 -0.12448284 -0.077834 -0.090259254 -0.032061588 -0.03943962 -0.062825166
-0.03624932 -0.050502494 -0.033434436 -0.028924342 -0.010617393 -0.070931494 -0.07561062 -0.10182384
-0.0018448181 -0.025562633 -0.0076623196 -0.06028034 -0.02235445 -0.008995426 -0.07268622 -0.033443674
00000000: 090a 3f3c 081f 5dbd b2db adbd 1c02 1abd
00000010: ef7e 9bbd bc37 86bd 9637 e03a 25ed adbd
00000020: 37be b1bd 35d6 a1bd dcf0 febd 6f67 9fbd
00000030: d8d9 b8bd 0353 03bd 708b 21bd 7baa 80bd
00000040: 2b7a 14bd b4db 4ebd 8cf2 08bd bef2 ecbc
00000050: 93f4 2dbc 8844 91bd bed9 9abd 0489 d0bd
00000060: d3cd f1ba ba68 d1bc 3214 fbbb 85e8 76bd
00000070: ae20 b7bc 8d61 13bc 83dc 94bd 3cfc 08bd

layer3.2.weight f4 [32]
0.97265524 0.999111 1.0457643 0.992247 1.0004829 0.9927514 0.9831242 1.0171118
0.98379016 1.0483557 1.0355175 0.980128 0.9777799 0.99492913 1.0270865 0.99925023
0.9892997 0.99349785 0.9921419 0.9886311 0.984685 1.0102664 0.9843634 0.98707163
0.99584156 1.0365489 0.9953621 0.9884354 0.99085915 0.98942983 0.9961225 0.9965797
00000000: efff 783f bdc5 7f3f 9bdb 853f e603 7e3f
00000010: d30f 803f f524 7e3f 07ae 7b3f b830 823f
00000020: acd9 7b3f 8530 863f d68b 843f abe9 7a3f
00000030: c94f 7a3f adb3 7e3f 9277 833f ddce 7f3f
00000040: bf42 7d3f e055 7e3f 03fd 7d3f ee16 7d3f
00000050: 5114 7c3f 6950 813f 3dff 7b3f bab0 7c3f
00000060: 79ef 7e3f a2ad 843f 0dd0 7e3f 1a0a 7d3f
00000070: f2a8 7d3f 464b 7d3f e201 7f3f d91f 7f3f

layer3.2.bias f4 [32]
0.13988292 0.075616024 0.16513883 0.07182392 0.040356666 -0.20771194 0.037329413 -0.13219233
0.1687597 -0.061088476 -0.0610782 0.07810497 -0.15724897 -0.01868777 0.16682981 0.13674952
-0.016197681 -0.084030956 0.06369925 0.15878767 0.1616881 -0.014858388 0.07657865 -0.11768057
0.1557373 -0.008750332 -0.05881695 0.13913201 0.18845639 0.1682325 0.061479196 0.0905395
00000000: 783d 0f3e 93dc 9a3d 271a 293e 6b18 933d
00000010: 084d 253d 70b2 54be bae6 183d 6d5d 07be
00000020: 58cf 2c3e e937 7abd 222d 7abd 80f5 9f3d
00000030: e005 21be 1817 99bc 6fd5 2a3e 1108 0c3e
00000040: 00b1 84bc 6c18 acbd c174 823d 3c99 223e
00000050: 9191 253e 9970 73bc 44d5 9c3d 8302 f1bd
00000060: 9979 1f3e 8d5d 0fbc 0bea 70bd 9f78 0e3e
00000070: b6fa 403e 2445 2c3e 9cd1 7b3d c66c b93d

layer3.2.running_mean f4 [32]
0.5191586 0.26569238 0.29909807 0.5939662 0.2776746 0.22841772 0.31133866 0.35828516
0.45627558 0.22711428 0.1502892 0.23430638 0.21397509 0.3137912 0.22289324 0.30488527
0.32860875 0.45644504 0.1652473 0.35951614 0.28234488 0.27243257 0.17529786 0.29334658
0.50324744 0.2268347 0.3706849 0.40641937 0.4560618 0.39814413 0.2363741 0.24478279
00000000: 94e7 043f d508 883e 6223 993e 2b0e 183f
00000010: 5d2b 8e3e 56e6 693e c867 9f3e 2771 b73e
00000020: f49c e93e a590 683e 69e5 193e 03ee 6f3e
00000030: 491c 5b3e 3da9 a03e 203e 643e ec19 9c3e
00000040: 683f a83e 2ab3 e93e 9736 293e 8012 b83e
00000050: 828f 903e 487c 8b3e 4881 333e 8631 963e
00000060: d3d4 003f 5b47 683e 69ca bd3e 3316 d03e
00000070: ef80 e93e 8cd9 cb3e 0d0c 723e 57a8 7a3e

layer3.2.running_var f4 [32]
0.48116803 0.25714153 0.24012315 0.84405446 0.17762823 0.24184032 0.3296879 0.39521965
0.4070568 0.25870436 0.10370195 0.16980782 0.1367583 0.28807557 0.1848976 0.1923751
0.2994472 0.3800306 0.10849999 0.33908445 0.23567235 0.24593925 0.127398 0.23278552
0.5423061 0.23891242 0.36052 0.39779475 0.3760965 0.31365347 0.20168436 0.18086784
00000000: a85b f63e 0ea8 833e d8e2 753e f413 583f
00000010: 2de4 353e fda4 773e dacc a83e 3b5a ca3e
00000020: c069 d03e e674 843e b061 d43d 1ae2 2d3e
00000030: 5e0a 0c3e a47e 933e cc55 3d3e fafd 443e
00000040: 2551 993e 5f93 c23e 3e35 de3d 7a9c ad3e
00000050: 1854 713e 80d7 7b3e 9f74 023e 545f 6e3e
00000060: 93d4 0a3f 75a5 743e 1496 b83e c1ab cb3e
00000070: b88f c03e 3097 a03e 5886 4e3e 6b35 393e

layer4.0.weight f4 [64, 32, 7, 3, 3]
-0.0005024118 0.0026792386 0.022022635 0.019630065 0.0021251107 -0.0069220625 0.014514558 0.035041228
0.0036855391 0.016359733 -0.011529887 0.0041400846 -0.016422175 0.006975994 -0.010397628 0.0037961493
-0.012989873 0.023814939 0.0007113714 -0.028975694 -0.0061973804 0.0042696306 -0.036853515 0.015525211
0.020938436 -0.002675933 0.026712064 -0.0038046732 0.008892513 -0.013366955 0.015265005 -0.011466243
-0.0189381 0.017651418 0.015549399 0.016530806 0.018919494 0.020132778 0.0011821042 0.0063776257
-0.017673127 -0.0074861352 -0.021411018 0.011800993 0.010671463 -0.011765347 -0.013480627 -0.0019464053
0.013762065 -0.0003748875 0.02216706 0.016602127 0.0009952373 -0.0070515657 -0.0035737164 0.0039705136
0.022123076 0.010690513 0.007577585 -0.0021227326 -0.0098013645 0.022818197 0.025224367 -0.013484733
0.020583907 -0.013831774 0.010243007 0.0016125242 -0.026764674 -0.0074147577 0.0108603975 -0.0285516
0.015132957 0.0069127167 0.0046444796 0.012066364 0.022499377 -0.026834501 -0.009686597 0.014861022
-0.02423431 0.018094784 0.0294985 -0.023319652 0.01453174 0.005660082 -0.037262365 0.0058479
0.018462583 -0.019296277 -0.0037801117 0.038794234 0.012947325 0.020541972 -0.0023074693 -0.0036525447
0.0015100957 0.0031373855 -0.011765295 -0.0072357384 0.06879885 0.041192986 0.026763994 0.006204549
-0.01578623 0.024362165 0.0053790244 -0.0071811476 -0.0041048964 0.03692548 0.02910789 0.0123015605
0.018292883 0.022165608 0.0046760817 0.009381235 -0.03580209 0.029997839 0.040084746 0.020185383
0.019696442 -0.026933813 -0.023294464 0.0037976513 -0.0030492446 -0.017113166 -0.031134633 -0.024300905
-0.027612844 -0.04802677 -0.042383477 -0.04478161 -0.027361328 -0.025595037 -0.016187139 0.020572111
0.0019630864 -0.0177136 0.0126804495 -0.01708269 -0.008177014 -0.01543165 -0.014870307 -0.034336712
-0.008591052 -0.0056209452 -0.007419762 -0.014769855 -0.0042836443 -0.027037114 0.00068570185 -0.0029183351
-0.01422277 0.009934442 0.017713726 -0.027709553 0.029923841 -0.004067954 -0.025781337 -0.016630992
0.0055887536 -0.0278727 -0.0048316275 0.016887207 -0.017169962 0.0071139773 -0.014234344 -0.02908181
0.00031634036 0.007416665 -0.027399527 0.00979013 0.013738061 -0.0077209226 0.0152802095 0.033238497
-0.008419096 0.004235846 -0.003073319 -0.012563575 -0.02842965 -0.027036918 -0.02127915 -0.003380061
-0.0065556816 -0.03441978 -0.03851725 -0.0118073365 -0.039003413 -0.009367405 -0.008158224 0.0050786487
0.015542509 -0.00094821764 -0.005012586 -0.00037234143 0.00910396 0.0077898945 0.0086774565 0.008910632
-0.012408857 -0.005754731 0.0012425038 -0.011700426 0.0073862798 -0.009701243 -0.017574778 -0.0049600643
0.0019700497 -0.0036427018 -0.00052449666 0.013671151 -0.021877423 -0.0020304832 -0.006697601 0.013998601
-0.0043767258 0.020740634 -0.009276224 -0.015521209 0.0132790515 0.014645249 -0.0070806434 -0.018987905
0.00046386154 -0.028171623 0.002300196 0.011406672 -0.018220559 0.015996112 0.016762769 -0.019239644
-0.014640834 0.007019722 -0.0007224896 -0.019515876 0.004429611 0.00993576 -0.008101658 0.023066623
-0.0050663874 -0.015847547 0.0013541107 -0.032897398 0.0051018493 -0.0034421994 -0.009253345 0.0110829435
-0.0078091174 -0.019950384 0.0150075415 -0.0039253104 -0.024901666 -0.027494386 -0.00376771 -0.036707174
00000000: 49b4 03ba 2a96 2f3b d068 b43c 3bcf a03c
00000010: 7145 0b3b 78d2 e2bb 78ce 6d3c 6487 0f3d
00000020: 1689 713b d904 863c dae7 3cbc 8ca9 873b
00000030: cc87 86bc e196 e43b d05a 2abc d1c8 783b
00000040: 7ad3 54bc 8c17 c33c 547b 3a3a 6f5e edbc
00000050: 6513 cbbb 42e8 8b3b b6f3 16bd 745d 7e3c
00000060: 1587 ab3c b55e 2fbb 42d3 da3c d357 79bb
00000070: e7b1 113c 1301 5bbc 121a 7a3c e9dc 3bbc
00000080: 1324 9bbc b599 903c e8c2 7e3c 9d6b 873c
00000090: 0efd 9a3c 7fed a43c d6f0 9a3a 67fb d03b
000000a0: 3cc7 90bc 414e f5bb 2966 afbc f458 413c
000000b0: 5cd7 2e3c 71c3 40bc d9dd 5cbc 861e ffba
000000c0: 497a 613c 8c8c c4b9 b297 b53c 2f01 883c
000000d0: 9f72 823a d210 e7bb 0335 6abb 151b 823b
000000e0: 743b b53c 4327 2f3c 644d f83b 8b1d 0bbb
000000f0: e795 20bc 3aed ba3c 55a3 ce3c 12ef 5cbc
00000100: 959f a83c aa9e 62bc 49d2 273c 555b d33a
00000110: 9741 dbbc 7ff7 f2bb cfef 313c 0ce5 e9bc
00000120: 39f0 773c 1284 e23b b830 983b 00b2 453c
00000130: 9d50 b83c 07d4 dbbc 88b4 1ebc a57b 733c
00000140: 0887 c6bc 833b 943c d7a6 f13c db08 bfbc
00000150: 8916 6e3c 3678 b93b 6ca0 18bd be9f bf3b
00000160: d83e 973c 3a13 9ebc c0bb 77bb b4e6 1e3d
00000170: 0421 543c a347 a83c e938 17bb 885f 6fbb
00000180: 67ee c53a 989c 4d3b 39c3 40bc c619 edbb
00000190: 69e6 8c3d fab9 283d 2a40 db3c 884f cb3b
000001a0: 2052 81bc 2a93 c73c 8742 b03b d54f ebbb
000001b0: 5e82 86bb 2c3f 173d ab73 ee3c 7c8c 493c
000001c0: f5da 953c a694 b53c d139 993b c0b3 193c
000001d0: 36a5 12bd 07be f53c e72f 243d d15b a53c
000001e0: 6f5a a13c 4da4 dcbc 08d4 bebc 04e2 783b
000001f0: d6d5 47bb e930 8cbc 0f0e ffbc b112 c7bc
00000200: 5534 e2bc b8b7 44bd 4c9a 2dbd ec6c 37bd
00000210: dd24 e0bc afac d1bc e49a 84bc d886 a83c
00000220: 20a7 003b 1d1c 91bc a9c1 4f3c fff0 8bbc
00000230: e2f8 05bc 08d5 7cbc 97a2 73bc a7a4 0cbd
00000240: 7cc1 0cbc e82f b8bb 7a21 f3bb 43fd 71bc
00000250: d05d 8cbb f07c ddbc acc0 333a 8a41 3fbb
00000260: 9f06 69bc 12c4 223c 601c 913c 25ff e2bc
00000270: d822 f53c 794c 85bb 6233 d3bc b83d 88bc
00000280: dd21 b73b 4a55 e4bc a152 9ebb 0a57 8a3c
00000290: 05a8 8cbc 5e1c e93b 2a37 69bc fa3c eebc
000002a0: 7cda a539 7f07 f33b f974 e0bc c866 203c
000002b0: 9b15 613c cbff fcbb d859 7a3c 1725 083d
000002c0: 3ff0 09bc dacc 8a3b bd69 49bb 74d7 4dbc
000002d0: 4ce5 e8bc 877c ddbc 9d51 aebc 0384 5dbb
000002e0: 0bd1 d6bb c1fb 0cbd 44c4 1dbd 8f73 41bc
000002f0: 0bc2 1fbd bf79 19bc 12aa 05bc cb6a a63b
00000300: 02a6 7e3c cf91 78ba 9e40 a4bb d236 c3b9
00000310: c728 153c 5f42 ff3b e42b 0e3c e6fd 113c
00000320: 854e 4bbc 2f92 bcbb 82db a23a 25b3 3fbc
00000330: 9b08 f23b f6f1 1ebc fbf8 8fbc 0988 a2bb
00000340: f31b 013b 65ba 6ebb 607e 09ba f7fc 5f3c
00000350: 4838 b3bc db11 05bb 8d77 dbbb 635a 653c
00000360: a36a 8fbb 43e8 a93c 4efb 17bc ab4c 7ebc
00000370: 6190 593c a0f2 6f3c be04 e8bb 868c 9bbc
00000380: 7132 f339 2dc8 e6bc e3be 163b 0de3 3a3c
00000390: 4843 95bc 470a 833c 1352 893c 759c 9dbc
000003a0: 1ce0 6fbc b205 e63b 7565 3dba c2df 9fbc
000003b0: 4526 913b 99c9 223c d1bc 04bc 37f6 bc3c
000003c0: f003 a6bb b7d2 81bc 6a7c b13a 6cbf 06bd
000003d0: 6a2d a73b 8696 61bb 589b 17bc 3c95 353c
000003e0: a0e3 ffbb fd6e a3bc 31e2 753c e49f 80bb
000003f0: 94fe cbbc e83b e1bc afeb 76bb 435a 16bd

layer4.0.bias f4 [64]
-0.046989683 -0.053838253 -0.11308728 -0.024176627 -0.038999453 -0.036548927 -0.027349748 -0.042518426
-0.093081266 -0.025478112 -0.087294795 -0.045041632 -0.028848136 -0.06303358 -0.043686315 -0.08213132
-0.04959163 -0.09916014 -0.082146406 -0.066924386 -0.073280826 -0.071361236 -0.003766226 0.049706765
-0.06011275 -0.03670001 -0.06351545 -0.0781643 -0.03245505 -0.05792366 -0.06681092 -0.062260922
0.008671623 -0.01680375 -0.070817 -0.023758074 -0.03841772 -0.041085705 -0.04250144 -0.06748163
-0.067778386 0.00220494 -0.083657175 -0.016061785 0.115890965 -0.06300095 -0.029859029 -0.052145626
-0.058869142 -0.06495764 -0.048306856 -0.0022967136 -0.041722346 -0.04646969 -0.022564074 -0.026984556
0.095791444 -0.06714946 -0.074443996 -0.046091434 -0.012684241 -0.016516386 -0.10260354 -0.07365665
00000000: 4178 40bd 8085 5cbd 4e9a e7bd 100e c6bc
00000010: e4bd 1fbd 54b4 15bd 940c e0bc cd27 2ebd
00000020: 64a1 bebd 79b7 d0bc 9dc7 b2bd 937d 38bd
00000030: ed52 ecbc c017 81bd 6cf0 32bd 7734 a8bd
00000040: 9820 4bbd 7914 cbbd 603c a8bd a70f 89bd
00000050: 4214 96bd d725 92bd c9d2 76bb 5299 4b3d
00000060: c938 76bd c052 16bd 6314 82bd 9b14 a0bd
00000070: 96ef 04bd 5c41 6dbd 2ad4 88bd 4f05 7fbd
00000080: 6c13 0e3c 05a8 89bc 8108 91bd 4ba0 c2bc
00000090: e65b 1dbd 7c49 28bd fd15 2ebd cf33 8abd
000000a0: 65cf 8abd c180 103b 7454 abbd 0194 83bc
000000b0: 3e58 ed3d a406 81bd ec9a f4bc a796 55bd
000000c0: c520 71bd 8308 85bd 69dd 45bd 7684 16bb
000000d0: 0de5 2abd 0057 3ebd 4bd8 b8bc b70e ddbc
000000e0: 4e2e c43d a885 89bd 1876 98bd 5fca 3cbd
000000f0: 90d1 4fbc 5f4d 87bc ce21 d2bd 4cd9 96bd

layer4.2.weight f4 [64]
1.9046595 1.9123665 1.9181238 1.9071909 1.90551 1.9105539 1.9056113 1.9191208
1.8905065 1.9023737 1.9109311 1.9167784 1.91494 1.8835775 1.9101527 1.9121878
1.9063637 1.8966941 1.8983479 1.908975 1.9197336 1.9102628 1.9114447 1.9143071
1.9077578 1.9093401 1.9164419 1.9004588 1.9152381 1.9410402 1.8435532 1.8481499
1.9209722 1.9137688 1.9091343 1.9144795 1.9085923 1.9045755 1.9098493 1.9091921
1.9149015 1.9170061 1.91348 1.9148406 1.9123492 1.8827374 1.9202539 1.9191408
1.9131514 1.8604634 1.904283 1.9224075 1.9548258 1.9128811 1.9175972 1.9004599
1.9133273 1.9121503 1.9054246 1.9176782 1.9158447 1.9090214 1.8941123 1.9167107
00000000: e2cb f33f 6dc8 f43f 1585 f53f d51e f43f
00000010: c0e7 f33f 088d f43f 12eb f33f c0a5 f53f
00000020: 1efc f13f fb80 f33f 6499 f43f ff58 f53f
00000030: c11c f53f 1119 f13f e27f f43f 92c2 f43f
00000040: ba03 f43f dfc6 f23f 10fd f23f 4b59 f43f
00000050: d5b9 f53f 7e83 f43f 38aa f43f 0408 f53f
00000060: 6831 f43f 4265 f43f f84d f53f 3c42 f33f
00000070: 8626 f53f 0174 f83f 8df9 eb3f 2d90 ec3f
00000080: 6be2 f53f 60f6 f43f 835e f43f aa0d f53f
00000090: c14c f43f 21c9 f33f f175 f43f 6860 f43f
000000a0: 7e1b f53f 7560 f53f eaec f43f 7f19 f53f
000000b0: dcc7 f43f 8afd f03f e1ca f53f 68a6 f53f
000000c0: 25e2 f43f aa23 ee3f 8cbf f33f 7311 f63f
000000d0: bb37 fa3f 4ad9 f43f d373 f53f 4542 f33f
000000e0: e9e7 f43f 57c1 f43f f4e4 f33f 7b76 f53f
000000f0: 663a f53f d05a f43f 4672 f23f c756 f53f

layer4.2.bias f4 [64]
8.432752e-05 3.4217297e-05 0.00011247758 0.00026019872 0.00048491158 0.00014745386 0.00045316826 3.282385e-05
0.00014703948 0.0009230342 0.00019321802 0.00011226936 -0.0007432069 -2.7640253e-05 -0.00031793318 -0.00015970938
0.00018272115 0.00014225801 0.00013061358 -0.00024386348 -6.232477e-05 0.0006640896 -0.00013156055 -0.00024928126
0.00033963917 -6.394542e-05 0.00084011146 0.00021376899 0.00027926255 0.0005486979 -3.1573167e-05 -0.0001326678
-0.00016430506 -8.784598e-05 0.00017166247 -0.00044216253 -6.229785e-07 0.00018885362 -6.5814136e-05 0.00014857523
0.00034445027 -0.00080964767 0.0007660305 -8.421706e-05 -5.436781e-05 -0.00011078791 -0.00041681778 -0.00018239621
0.00066452957 0.0006018811 0.0006436557 -0.00049368956 -0.0010121448 0.0004766971 3.4691333e-05 0.0004721892
-0.00016605579 8.1847254e-05 0.00026980235 0.0005717105 0.00030658726 -0.00023378659 0.00013338485 0.00014913065
00000000: fed8 b038 8b84 0f38 f1e1 eb38 486b 8839
00000010: bb3b fe39 d89d 1a39 3797 ed39 57ac 0938
00000020: 9c2e 1a39 c7f7 713a 919a 4a39 2772 eb38
00000030: c5d3 42ba fedc e7b7 45b0 a6b9 a977 27b9
00000040: d698 3f39 182b 1539 51f5 0839 9bb5 7fb9
00000050: 5bb4 82b8 4c16 2e3a 84f3 09b9 f7b1 82b9
00000060: 9911 b239 701a 86b8 ed3a 5c3a 2d27 6039
00000070: fc69 9239 7ed6 0f3a 6e6d 04b8 be1c 0bb9
00000080: 4e49 2cb9 f439 b8b8 4b00 3439 0dd2 e7b9
00000090: c23a 27b5 0207 4639 b205 8ab8 dcca 1b39
000000a0: 5597 b439 893e 54ba 70cf 483a b19d b0b8
000000b0: fe08 64b8 ce56 e8b8 5688 dab9 9c41 3fb9
000000c0: d333 2e3a 8fc7 1d3a 01bb 283a f26a 01ba
000000d0: f2a9 84ba 34ed f939 8981 1138 2990 f739
000000e0: 431f 2eb9 69a5 ab38 4274 8d39 d8de 153a
000000f0: 72bd a039 9c24 75b9 39dd 0b39 f45f 1c39

layer4.2.running_mean f4 [64]
0.09719513 0.10626769 0.04389887 0.118475236 0.11379846 0.10994879 0.10504468 0.06239856
0.016398236 0.12237656 0.013999465 0.09817634 0.18665706 0.014822023 0.14068271 0.019814024
0.10769681 0.01930178 0.017192418 0.10917306 0.08725415 0.07523489 0.11507234 0.21012181
0.09786538 0.11559546 0.05578257 0.01796172 0.06221449 0.016234217 0.015323483 0.015657485
0.06453821 0.22110893 0.11260742 0.11436382 0.10848989 0.10431901 0.10976674 0.10570806
0.10145631 0.2019994 0.079714045 0.087796226 0.16503064 0.012957745 0.10375915 0.101052746
0.08075818 0.014547577 0.11589207 0.09854427 0.022965025 0.079450235 0.061544023 0.08506205
0.24045539 0.10389912 0.02777296 0.056637302 0.08728377 0.14219163 0.01904844 0.08696067
00000000: 3e0e c73d e0a2 d93d 4dcf 333d 25a3 f23d
00000010: 2b0f e93d d52c e13d aa21 d73d a295 7f3d
00000020: 9855 863c 90a0 fa3d 035e 653c ad10 c93d
00000030: 0723 3f3e 12d8 723c 210f 103e 0551 a23c
00000040: 2590 dc3d c41e 9e3c 1dd7 8c3c 2096 df3d
00000050: 4eb2 b23d c014 9a3d 0cab eb3d 2c2a 573e
00000060: a56d c83d 50bd ec3d 447c 643d 7524 933c
00000070: 9fd4 7e3d 9ffd 843c 590f 7b3c 2044 803c
00000080: 9c2c 843d 616a 623e b89e e63d 9437 ea3d
00000090: f32f de3d 35a5 d53d 62cd e03d 787d d83d
000000a0: 53c8 cf3d eed8 4e3e 1e41 a33d 82ce b33d
000000b0: cbfd 283e b94c 543c ad7f d43d bef4 ce3d
000000c0: 8b64 a53d f658 6e3c d258 ed3d 94d1 c93d
000000d0: 2621 bc3c ceb6 a23d 9615 7c3d 0335 ae3d
000000e0: f039 763e 10c9 d43d 1e84 e33c 84fc 673d
000000f0: d5c1 b23d af9a 113e 790b 9c3c 7018 b23d

layer4.2.running_var f4 [64]
0.13276437 0.14612931 0.032282747 0.16607396 0.19421074 0.15107587 0.14539078 0.05394037
0.029901719 0.22465956 0.021792162 0.13538769 0.34733364 0.02383571 0.27422342 0.023262274
0.16529924 0.020452436 0.032865677 0.14140677 0.107041 0.0846962 0.15116154 0.39178604
0.13308218 0.18274394 0.04745204 0.032582317 0.04802422 0.028182443 0.026073785 0.027217261
0.05732713 0.39288065 0.16846909 0.17625988 0.16468073 0.15539233 0.16487229 0.15704405
0.14333895 0.25173607 0.09219606 0.106846124 0.29769206 0.018671282 0.15108939 0.14179839
0.09744156 0.024843657 0.20148258 0.13687934 0.03294562 0.0889643 0.052179188 0.106855534
0.4425473 0.1558376 0.035158146 0.046459105 0.10741778 0.2777759 0.019900786 0.10519695
00000000: 62f3 073e eca2 153e ea3a 043d 4b0f 2a3e
00000010: 2edf 463e a2b3 1a3e 52e1 143e 94f0 5c3d
00000020: 73f4 f43c 280d 663e 7a85 b23c 12a3 0a3e
00000030: b7d5 b13e 1b43 c33c 0367 8c3e 8690 be3c
00000040: 3444 293e de8b a73c 299e 063d f0cc 103e
00000050: 5038 db3d 3475 ad3d 17ca 1a3e 2e98 c83e
00000060: b246 083e 3a21 3b3e 125d 423d 0975 053d
00000070: 0bb5 443d dede e63c b198 d53c bcf6 de3c
00000080: dacf 6a3d a727 c93e 2983 2c3e 787d 343e
00000090: 11a2 283e 2b1f 1f3e 48d4 283e 28d0 203e
000000a0: 72c7 123e 8de3 803e 4ad1 bc3d 24d2 da3d
000000b0: 186b 983e 84f4 983c 2db7 1a3e 9933 113e
000000c0: 718f c73d ed84 cb3c 7351 4e3e 192a 0c3e
000000d0: fdf1 063d ea32 b63d d8b9 553d 13d7 da3d
000000e0: 8f95 e23e e493 1f3e fd01 103d e74b 3e3d
000000f0: dafd db3d a538 8e3e f906 a33c 8071 d73d

fc1.0.weight f4 [32, 1600]
-0.006165009 0.010026766 -0.0110459095 -0.015581421 -0.013977453 -0.017940506 -0.0028215237 -0.01640309
-0.024652043 0.017233247 0.019006552 -0.023495955 0.001847025 -0.0032459106 0.0017461572 0.016719485
0.007370582 0.0043079797 -0.008144954 0.012502717 -0.0128281955 0.02210542 -0.022464445 0.01901001
0.014019432 0.015245056 -0.02240946 -0.0015560575 -0.019085463 0.021756707 -0.016478729 0.0038783401
0.018244268 0.009124825 0.0067011137 0.021779409 0.01809827 0.0092186835 0.016513376 -0.012791541
-0.01110248 0.0121405255 0.015494326 -0.01162901 0.0151458215 0.024590103 0.010493131 -0.022895098
-0.023144735 0.0074440483 0.014666377 0.02109603 0.024742888 -0.0021824986 0.021701785 0.010141613
-0.0065075215 -0.015022772 0.017885512 -0.02032404 -0.016920704 -0.010397226 0.0016036872 -0.0019416362
-0.005767474 0.0115008075 0.015421348 -0.011913732 0.01150752 -0.0040201508 -0.009658811 -0.019389272
-0.017952016 -0.016475912 -0.0160896 0.005448792 0.021785712 0.0151433665 -0.0036537312 0.019961262
-0.010437742 0.011861956 -0.0043970644 0.017967487 0.011271814 -0.004886633 0.008321958 0.011461781
0.023438824 -0.01392928 0.010489406 -0.017765617 -0.023810878 0.012976171 0.012303567 -0.017214745
-0.0039765686 0.0039697494 -0.005619576 0.0065002944 0.02362694 0.0065973867 -0.009526581 0.024631126
0.012097942 -0.02013507 0.008545468 0.019284027 -0.024213511 0.008208079 -0.019653672 -0.0033559948
-0.007427588 0.013812939 0.016071977 -0.021392176 -0.009295493 0.007213356 -0.007644957 -0.016024124
0.009485928 0.010782419 -0.011408058 -0.022167405 -0.0197361 0.0067727882 -0.0006631017 -0.024020089
0.016679699 -0.013496849 0.01754755 0.0023083799 -0.016696747 0.009907352 0.023563845 0.0047545917
-0.018508548 -0.0026708636 0.02164978 0.01750678 -0.022315575 -0.0011295881 -0.009440872 0.0018927716
-0.004243318 0.020404274 0.010796597 0.0027869083 0.002834931 -0.02096879 0.022189794 -0.019655813
0.023434652 -0.014135343 -0.01806868 0.023926644 -0.014682162 -0.02065534 0.019938918 -0.011116708
0.0061600003 -0.0014157705 -0.024842544 0.01896567 -0.01927549 -0.011939055 -0.005785659 -0.004349243
-0.00052044727 0.008269174 -0.0126202945 0.015117576 -0.010149315 -0.0120882755 -0.014990169 0.013729455
0.024107305 0.015101338 -0.0030567832 0.007484859 0.021373326 -0.0037513338 0.020683857 0.0014629364
0.013032118 -0.010078258 -0.021034982 0.010054423 -0.014178163 0.020500602 -0.008168716 0.0036753304
-0.019260049 0.021660889 0.024598723 -0.014827222 0.007256182 0.00727096 -0.019588362 -0.018182736
-0.0068223868 0.0003258437 -0.014793852 -0.020880586 0.024104914 0.0115432795 -0.00657315 -0.0062781814
-0.021022763 -0.011030636 -0.020259256 -0.022445748 0.02135815 0.023630904 -0.0017262995 -0.012011635
0.0094816815 -0.011101809 0.0030413475 0.021964388 -0.01622456 -0.019784871 0.012486113 -0.018895563
-0.011610654 -0.0032405462 0.01612666 0.0041850246 0.005897334 -0.013311264 0.009643091 0.0018579066
-0.01206519 0.022277417 0.01763014 0.010983767 -0.015799098 -0.014440849 0.02085969 0.0050409883
0.022836467 0.013924612 0.0030907057 -0.020732677 -0.022805143 0.019194754 0.0008373372 0.017544838
-0.022000223 0.009614335 0.0014261845 -0.005394399 0.0011383183 -0.017932016 0.0012688879 0.024353312
00000000: d803 cabb 4e47 243c e7f9 34bc 3749 7fbc
00000010: b001 65bc f8f7 92bc 50e9 38bb c65f 86bc
00000020: 15f3 c9bc bd2c 8d3c a1b3 9b3c 977a c0bc
00000030: e017 f23a 58b9 54bb 50df e43a 4df7 883c
00000040: ec84 f13b f429 8d3b 6a72 05bc 32d8 4c3c
00000050: 5a2d 52bc 6d16 b53c 5b07 b8bc e1ba 9b3c
00000060: c2b1 653c 66c6 793c 0b94 b7bc a0f4 cbba
00000070: 1e59 9cbc 1f3b b23c 66fe 86bc c02b 7e3b
00000080: 0175 953c 4a80 153c 0495 db3b bb6a b23c
00000090: d342 943c f609 173c 0f47 873c 9d93 51bc
000000a0: 2de7 35bc 0ee9 463c eadb 7d3c 9a87 3ebc
000000b0: 2e26 783c 2f71 c93c 62eb 2b3c 808e bbbc
000000c0: 079a bdbc 34ed f33b 3e4b 703c 95d1 ac3c
000000d0: 99b1 ca3c 4008 0fbb f1c7 b13c 0229 263c
000000e0: 0c3d d5bb 1322 76bc a384 923c 9a7e a6bc
000000f0: 4a9d 8abc 2059 2abc d032 d23a 807e feba
00000100: 14fd bcbb e26d 3c3c d2a9 7c3c d031 43bc
00000110: 0a8a 3c3c 78bb 83bb fd3f 1ebc 40d6 9ebc
00000120: 1b10 93bc 7ef8 86bc 56ce 83bc c88b b23b
00000130: f377 b23c e21b 783c 7073 6fbb cd85 a33c
00000140: 1003 2bbc a658 423c 4015 90bb 8d30 933c
00000150: 6aad 383c 0c20 a0bb d258 083c 32ca 3b3c
00000160: c702 c03c a337 64bc c2db 2b3c 3389 91bc
00000170: 080f c3bc 029a 543c e694 493c f005 8dbc
00000180: e04d 82bb ac14 823b 6c24 b8bb 6c00 d53b
00000190: 498d c13c e42e d83b 6015 1cbc 37c7 c93c
000001a0: 7236 463c 4df2 a4bc 4a02 0c3c 89f9 9d3c
000001b0: 6a5b c6bc 2e7b 063c bd00 a1bc 40f0 5bbb
000001c0: 2063 f3bb aa4f 623c 61a9 833c a53e afbc
000001d0: 204c 18bc 045e ec3b 8c82 fabb 0645 83bc
000001e0: de6a 1b3c bea8 303c dde8 3abc 6b98 b5bc
000001f0: 9aad a1bc 44ee dd3b 00d4 2dba c7c5 c4bc
00000200: dda3 883c e321 5dbc e1bf 8f3c 3048 173b
00000210: 9ec7 88bc 7252 223c f708 c13c 68cc 9b3b
00000220: 3d9f 97bc a809 2fbb e15a b13c 616a 8f3c
00000230: 27cf b6bc b00e 94ba e3ad 1abc e016 f83a
00000240: 880b 8bbb dd26 a73c 36e4 303c 90a4 363b
00000250: 40ca 393b bdc6 abbc 5fc7 b53c 3a05 a1bc
00000260: 07fa bf3c ed97 67bc c504 94bc cf01 c43c
00000270: 738d 70bc 6335 a9bc f156 a33c da22 36bc
00000280: d4d9 c93b 6091 b9ba 9782 cbbc e55d 9b3c
00000290: a2e7 9dbc 079c 43bc a095 bdbb 1884 8ebb
000002a0: a06e 08ba 6e7b 073c 5ac5 4ebc b6af 773c
000002b0: 5049 26bc e70d 46bc 5399 75bc 82f1 603c
000002c0: af7c c53c 9a6b 773c 5054 48bb 8c43 f53b
000002d0: 1d17 af3c f0d8 75bb 3171 a93c 00c0 bf3a
000002e0: aa84 553c 471f 25bc 8e51 acbc 4ebb 243c
000002f0: 874b 68bc e1f0 a73c 14d6 05bc d0dd 703b
00000300: 40c7 9dbc 2d72 b13c 4383 c93c e0ed 72bc
00000310: 44c5 ed3b 3c41 ee3b c677 a0bc f6f3 94bc
00000320: 548e dfbb 00d6 aa39 ea61 72bc c30d abbc
00000330: ab77 c53c 0620 3d3c 9463 d7bb 34b9 cdbb
00000340: ee37 acbc d7b9 34bc bdf6 a5bc 25e0 b7bc
00000350: 49f7 ae3c 9995 c13c 0045 e2ba 73cc 44bc
00000360: 0e59 1b3c 5de4 35bc 5851 473b a9ee b33c
00000370: 5ee9 84bc e213 a2bc 8e92 4c3c deca 9abc
00000380: 9d3a 3ebc 585f 54bb 0f1c 843c 8822 893b
00000390: 6c3e c13b 7d17 5abc 0efe 1d3c 0085 f33a
000003a0: 13ad 45bc 217f b63c 156d 903c 42f5 333c
000003b0: 1c6d 81bc 5099 6cbc f1e1 aa3c e02e a53b
000003c0: 8b13 bb3c 0e24 643c 708d 4a3b 93d7 a9bc
000003d0: dad1 babc 513e 9d3c c080 5b3a 31ba 8f3c
000003e0: d039 b4bc 7285 1d3c d0ee ba3a 80c3 b0bb
000003f0: a033 953a 2ae6 92bc d050 a63a 9980 c73c

fc1.0.bias f4 [32]
-0.0109502105 -0.013140852 0.0008722432 0.01745147 0.021666417 -0.013791225 -0.007614946 0.018634448
0.0055644996 0.02453726 0.02338736 -0.006729087 -0.004310649 0.0076871086 0.024926873 0.019646456
-0.00077523664 0.016910916 -0.011412698 0.022575455 0.0103862565 0.023048094 -0.022379985 0.016163157
0.023980552 0.008178132 0.0013348646 -0.021448622 -0.0141417235 0.024160387 -0.006402787 -0.004686177
00000000: 8368 33bc ba4c 57bc 40a7 643a 63f6 8e3c
00000010: c57d b13c 97f4 61bc cc86 f9bb 45a7 983c
00000020: 6856 b63b 5d02 c93c d996 bf3c ac7f dcbb
00000030: 5840 8dbb 24e4 fb3b 7133 cc3c 9bf1 a03c
00000040: 4039 4bba c388 8a3c 53fc 3abc 29f0 b83c
00000050: 1e2b 2a3c 5bcf bc3c 3b56 b7bc 9968 843c
00000060: dd72 c43c 92fd 053c a0f6 ae3a 05b5 afbc
00000070: b0b2 67bc 01ec c53c 78ce d1bb 808e 99bb
