FAST 3D-CNN P-NET/model/IP/IP_proto_2d-5shotband50.pth (torch, 572081 bytes, 24 tensors)

layer1.0.weight f4 [64, 50, 3, 3]
0.002591843 0.03910975 0.039926846 -0.03725116 0.022720035 0.037309088 -0.0025745344 -0.01699585
-0.037602894 -0.027533708 0.0072920686 0.0019391027 0.017138895 0.026525531 -0.015166789 -0.024618432
0.04660722 0.011226559 -0.03609405 -0.030074911 0.042960484 -0.026907912 0.0055593858 0.03803555
-0.024085436 0.01876184 0.046183888 -0.031911917 0.0137623595 0.0016807143 0.035985872 0.027349724
0.03897358 0.032345872 0.042514503 -0.0049616587 -0.005025414 0.0028839675 -0.04742177 -0.03533653
0.021570975 0.017169885 -0.009554214 0.030311733 -0.042833228 -0.040310077 0.022589022 -0.056402214
-0.016714655 -0.0048535215 0.0073282453 -0.0117973965 -0.00053214043 0.027505472 0.030878503 0.007543057
0.034019675 -0.0064905626 -0.040413138 -0.00880793 0.046734218 0.0039080135 -0.006304258 -0.034275085
0.017320802 -0.034505803 0.00064161164 -0.026864002 -0.019231316 -0.036586527 0.017475601 0.0063738734
0.05414781 0.04470417 -0.023004161 0.013030115 0.041945815 -0.03446661 0.044523317 -0.02677266
0.046189394 0.011654204 -0.030088235 -0.029715294 -0.03895962 0.009238006 0.030051632 0.049443245
0.04185676 0.039400533 -0.00627094 -0.021165919 0.023009414 0.0056400215 -0.0055663143 -0.0098365825
0.006251122 0.0015821256 0.02658187 0.00170872 -0.03715689 -0.026566796 -0.005372107 -0.05882202
-0.00076085684 0.0076530525 -0.03286276 -0.03959815 0.023696326 0.04986393 0.0477683 -0.014617846
0.060240198 0.014238621 0.010396498 0.054486234 0.047962844 -0.034211118 -0.0033784115 -0.024241872
-0.0015147892 0.003913462 -0.04394122 -0.023418728 -0.003307134 -0.01580478 0.0033282822 -0.040673595
0.023405483 0.02481062 -0.041571032 -0.024695827 0.0030606198 0.020115476 -0.020384306 0.004808341
-0.018139482 0.032056034 -0.03393531 0.042674366 0.016244423 0.045622148 -0.017984433 -0.0026425708
-0.042376466 0.02806784 -0.03032754 -0.036070574 0.028227024 0.012692452 0.0051382356 -0.025656952
-0.030710626 0.012590529 0.038467668 0.022441383 0.034746718 -0.016523762 0.0028641832 0.00019905857
-0.03259455 0.023078885 0.015487666 0.037080653 -0.025343113 0.004941823 0.01479416 0.035038296
0.02800254 -0.024932634 0.0212294 -0.0025774834 0.006804612 -0.039232265 -0.013956452 0.023984239
-0.0066610174 -0.016356347 -0.05447112 -0.033803202 0.04113449 -0.0061164545 0.0027443492 0.045166954
-0.029062483 0.03373561 0.050263144 0.0063320603 0.012281362 0.011768407 0.052417602 0.022684807
-0.03210292 0.02175433 0.0415506 0.009611133 -0.0036289042 0.008464757 -0.01904337 -0.04272179
0.032652624 0.017735062 -0.0052542705 0.044116914 -0.039454352 -0.044753764 0.039092205 0.021956088
-0.00011851383 -0.0041661793 0.025249677 -0.029808527 0.016044866 0.029608782 -0.018526036 -0.01874219
-0.036370277 -0.048478544 -0.0058582122 0.022433221 0.025286527 0.014929061 -0.024568014 -0.037373565
-0.024878485 0.043318186 0.025412086 0.0374603 0.008640235 -0.0121954195 -0.020594604 0.03597153
0.041127462 -0.023524003 0.008820914 0.0024495034 -0.031433612 -0.021246655 0.02361041 -0.028034896
0.034630388 0.050045434 0.03840673 0.017751375 -0.039596226 -0.024261637 -0.03197542 0.013996713
-0.06035233 -0.010197224 0.0056836223 -0.008306878 0.022474587 0.018466003 -0.015787713 -0.035613526
00000000: e9db 293b 8c31 203d 558a 233d ac94 18bd
00000010: 5e1f ba3c 6ad1 183d 85b9 28bb e13a 8bbc
00000020: 7e05 1abd 5f8e e1bc 4ef2 ee3b 7d29 fe3a
00000030: de66 8c3c 124c d93c 207e 78bc 98ac c9bc
00000040: 36e7 3e3d 9aef 373c 5bd7 13bd a95f f6bc
00000050: 55f7 2f3d fb6d dcbc 822b b63b 2acb 1b3d
00000060: d24e c5bc 6eb2 993c 512b 3d3d 12b6 02bd
00000070: 857b 613c 6a4b dc3a ec65 133d 870c e03c
00000080: c3a2 1f3d 1b7d 043d b023 2e3d 6995 a2bb
00000090: 3aac a4bb f200 3d3b 543d 42bd 0abd 10bd
000000a0: 9db5 b03c dca7 8c3c 4789 1cbc 5050 f83c
000000b0: e571 2fbd 2e1c 25bd 9d0c b93c 0206 67bd
000000c0: 2ced 88bc 4a0a 9fbb c721 f03b de49 41bc
000000d0: 577f 0bba 2853 e13c eaf4 fc3c c02b f73b
000000e0: 3758 0b3d c9ae d4bb 3f88 25bd 234f 10bc
000000f0: 616c 3f3d cb0e 803b f393 cebb 0864 0cbd
00000100: 5be4 8d3c f555 0dbd d431 283a e511 dcbc
00000110: fe8a 9dbc c1db 15bd fe28 8f3c eddb d03b
00000120: 18ca 5d3d b81b 373d 3973 bcbc 437c 553c
00000130: 60cf 2b3d dc2c 0dbd 155e 363d 5652 dbbc
00000140: 1731 3d3d 46f1 3e3c 9a7b f6bc 7d6d f3bc
00000150: 1f94 1fbd 015b 173c d72e f63c 0085 4a3d
00000160: fe71 2b3d 7462 213d 757c cdbb 2664 adbc
00000170: 3d7e bc3c eecf b83b a165 b6bb 9e29 21bc
00000180: 36d6 cc3b 535f cf3a 39c2 d93c 21f7 df3a
00000190: d331 18bd 9ca2 d9bc 8008 b0bb 5cef 70bd
000001a0: 3d74 47ba 75c6 fa3b 1a9b 06bd ab31 22bd
000001b0: cc1e c23c 1f3e 4c3d b1a8 433d b17f 6fbc
000001c0: 6dbe 763d 1b49 693c 1356 2a3c f52c 5f3d
000001d0: b074 443d f520 0cbd 5768 5dbb e496 c6bc
000001e0: e48b c6ba 803c 803b b5fb 33bd a2d8 bfbc
000001f0: 80bc 58bb 0779 81bc 4f1f 5a3b 5b99 26bd
00000200: dbbc bf3c a43f cb3c 6346 2abd e74e cabc
00000210: ae94 483b 36c9 a43c fdfc a6bc 4a8f 9d3b
00000220: 4099 94bc 304d 033d c0ff 0abd 51cb 2e3d
00000230: 0613 853c 4ade 3a3d 1754 93bc fb2e 2dbb
00000240: f292 2dbd 87ee e53c 7671 f8bc bdbe 13bd
00000250: 5c3c e73c 01f4 4f3c a55e a83b 872e d2bc
00000260: da94 fbbc 8248 4e3c 4690 1d3d fed6 b73c
00000270: 9352 0e3d d75c 87bc 05b5 3b3b 61ba 5039
00000280: dd81 05bd ee0f bd3c fbbf 7d3c e2e1 173d
00000290: 5c9c cfbc 04ef a13b 3463 723c 5184 0f3d
000002a0: 9565 e53c 863f ccbc 47e9 ad3c ffea 28bb
000002b0: 39f9 de3b 03b2 20bd 9aa9 64bc 987a c43c
000002c0: aa44 dabb bffd 85bc 1c1d 5fbd 3a75 0abd
000002d0: a47c 283d 8a6c c8bb 8ada 333b fc00 393d
000002e0: 7214 eebc 5a2e 0a3d bae0 4d3d 2c7d cf3b
000002f0: c437 493c 47d0 403c d7b3 563d 7dd5 b93c
00000300: 5a7e 03bd 2336 b23c f630 2a3d 0378 1d3c
00000310: e9d2 6dbb c4af 0a3c d700 9cbc 0bfd 2ebd
00000320: c2be 053d 1f49 913c 042c acbb f0b3 343d
00000330: e39a 21bd b94f 37bd 261f 203d 41dd b33c
00000340: a18a f8b8 7284 88bb 69d8 ce3c 0331 f4bc
00000350: 8670 833c 1e8e f23c eac3 97bc 3989 99bc
00000360: 00f9 14bd 7091 46bd 3ff6 bfbb e0c5 b73c
00000370: b125 cf3c 0599 743c dc42 c9bc 0615 19bd
00000380: f7cd cbbc 696e 313d 022d d03c f96f 193d
00000390: c68f 0d3c 4ccf 47bc 04b6 a8bc e256 133d
000003a0: 4575 283d 69b5 c0bc 9885 103c d987 203b
000003b0: 88c0 00bd 770d aebc 9e6a c13c 70a9 e5bc
000003c0: 98d8 0d3d 71fc 4c3d 6050 1d3d 556b 913c
000003d0: a72f 22bd 57c0 c6bc a8f8 02bd 7852 653c
000003e0: 0134 77bd 4212 27bc ae3d ba3b 9219 08bc
000003f0: a01c b83c 0446 973c 3c55 81bc 7ddf 11bd

layer1.0.bias f4 [64]
-0.0052610436 0.041658934 0.0007016535 -0.008953081 0.036328007 -0.044536956 0.021699212 -0.038297232
0.027021294 0.03282306 0.01368527 0.014212379 0.034688927 0.0188538 0.028264398 0.0042824848
0.037649594 0.016421169 -0.02805136 -0.005135174 -0.025979813 -0.043664828 -0.033803824 -0.012852702
0.021305067 0.021941174 -0.030851604 0.043509886 -0.025043117 0.0045589404 0.04107172 0.0020096207
-0.046689477 0.012125596 -0.042430487 -0.0045909113 0.009494788 0.011660545 0.032418303 0.013419021
0.013680886 0.030240536 0.029241541 0.0039276103 -0.013383668 0.031820685 0.024194868 0.031052351
-0.014530714 -0.037527114 -0.04325576 0.009399376 0.004820153 -0.03581899 0.01629426 0.024149735
-0.007538856 0.031263005 0.0050299433 0.016288279 -0.01617553 -0.030030265 0.03367165 -0.034741364
00000000: d564 acbb 8fa2 2a3d 2bef 373a f2af 12bc
00000010: adcc 143d 626c 36bd 8cc2 b13c 8fdd 1cbd
00000020: c35b dd3c 7971 063d 2f38 603c 0adb 683c
00000030: fa15 0e3d 4973 9a3c bd8a e73c 1654 8c3b
00000040: 7636 1a3d b085 863c f7cb e5bc f644 a8bb
00000050: 9ed3 d4bc e4d9 32bd e175 0abd 2494 52bc
00000060: f787 ae3c fabd b33c 81bc fcbc 6c37 323d
00000070: 3927 cdbc 2a63 953b d23a 283d d7b3 033b
00000080: 773d 3fbd 70aa 463c 97cb 2dbd 5b6f 96bb
00000090: 0790 1b3c df0b 3f3c 0ec9 043d 74db 5b3c
000000a0: cb25 603c 00bb f73c f58b ef3c 2fb3 803b
000000b0: 2c47 5bbc 6856 023d 5134 c63c 8061 fe3c
000000c0: 3b12 6ebc 08b6 19bd f42c 31bd d7ff 193c
000000d0: 60f2 9d3b efb6 12bd 8a7b 853c aad5 c53c
000000e0: 8208 f7bb a30d 003d 39d2 a43b ff6e 853c
000000f0: 8c82 84bc 0802 f6bc 49eb 093d f64c 0ebd

layer1.1.weight f4 [64]
1.0018277 0.99810106 1.003077 1.007028 0.99410284 0.98975915 1.0056701 1.0038716
0.989049 1.000712 0.9938199 0.98897403 1.0039234 0.99588054 1.003366 0.9967788
0.9965506 1.0033451 0.99884427 1.0030698 1.0047407 1.0071768 0.9993344 1.0033456
1.0159876 1.0019984 0.9874656 1.016627 0.9988129 1.0000806 0.9975919 1.005035
1.0039762 0.9972935 1.0074241 0.9928613 0.9894306 0.99593985 1.0042895 1.0002328
0.97772384 1.0110399 1.01043 1.0093201 1.0143863 0.9892289 0.98445576 0.99012345
1.0087818 0.9986278 0.9853166 0.9968535 0.9964443 1.0063351 1.0185912 1.0139871
0.9974253 0.99356025 1.0033549 0.98663616 1.0041935 1.0054111 0.99273986 1.0110475
00000000: e43b 803f 8d83 7f3f d464 803f 4be6 803f
00000010: 867d 7e3f db60 7d3f ccb9 803f dd7e 803f
00000020: 5132 7d3f 5517 803f fb6a 7e3f 672d 7d3f
00000030: 9080 803f 07f2 7e3f 4c6e 803f e52c 7f3f
00000040: f11d 7f3f 9d6d 803f 42b4 7f3f 9764 803f
00000050: 589b 803f 2beb 803f 61d4 7f3f a16d 803f
00000060: e20b 823f 7c41 803f 8cca 7c3f d520 823f
00000070: 34b2 7f3f a402 803f 2f62 7f3f fda4 803f
00000080: 4b82 803f a04e 7f3f 46f3 803f 282c 7e3f
00000090: 534b 7d3f eaf5 7e3f 8f8c 803f a107 803f
000000a0: 1c4c 7a3f c169 813f c555 813f 6731 813f
000000b0: 69d7 813f 1b3e 7d3f 4b05 7c3f bb78 7d3f
000000c0: c31f 813f 12a6 7f3f b53d 7c3f ca31 7f3f
000000d0: f916 7f3f 97cf 803f 3261 823f 54ca 813f
000000e0: 4457 7f3f f759 7e3f ef6d 803f 3094 7c3f
000000f0: 6a89 803f 50b1 803f 3324 7e3f 016a 813f

layer1.1.bias f4 [64]
-0.019803459 -0.006503882 -0.0138452295 -0.01689889 -0.0020619587 -0.0024255423 0.0010275937 -0.006563657
0.0023130164 0.0006528157 -0.005536353 0.0012059086 -0.0087290015 0.000937886 -0.0019935824 -0.030740356
0.0026959912 -0.011944285 -0.008908849 -0.002770758 -0.015186721 -0.0028398177 -0.0021754915 -0.0066822944
0.011833253 -0.00019446584 -0.007565428 -0.00019952713 0.0017153887 -0.0029645471 -0.00485549 -0.0014811569
0.004707214 0.0066152564 0.003527263 -0.009723786 0.0032606658 -0.0038588447 -0.015310907 -0.006348832
-0.016659256 -0.008546521 -0.006720391 -0.004913732 0.008702799 0.0018743356 0.0010080669 0.0025393188
-0.012233986 -0.0045801983 0.0018706045 0.011930806 0.005816046 -0.0075639384 -0.020435203 -0.005282104
-0.019205801 -0.006735902 -0.0066355695 0.001244981 -0.011718422 -0.006724191 -0.0027143364 -0.012632401
00000000: dd3a a2bc 841e d5bb 1ad7 62bc 8a6f 8abc
00000010: ed21 07bb d9f5 1ebb 53b0 863a f213 d7bb
00000020: fa95 173b b821 2b3a 4c6a b5bb 940f 9e3a
00000030: 1604 0fbc 77dc 753a c3a6 02bb 33d3 fbbc
00000040: 3aaf 303b f6b1 43bc 6cf6 11bc 9b95 35bb
00000050: bad1 78bc 3c1c 3abb b192 0ebb 26f7 dabb
00000060: 43e0 413c 87e9 4bb9 69e7 f7bb 2838 51b9
00000070: e5d6 e03a d948 42bb cd1a 9fbb 6123 c2ba
00000080: f93e 9a3b cbc4 d83b a729 673b 8450 1fbc
00000090: e5b0 553b ace4 7cbb 99da 7abc dd09 d0bb
000000a0: fe78 88bc b506 0cbc ba36 dcbb 5f03 a1bb
000000b0: 2f96 0e3c 44ac f53a 1d21 843a b36a 263b
000000c0: 0e71 48bc 7d15 96bb 122f f53a 6d79 433c
000000d0: 8894 be3b eada f7bb ba67 a7bc 8015 adbb
000000e0: 7c55 9dbc d7b8 dcbb 316f d9bb a12e a33a
000000f0: a0fe 3fbc 9a56 dcbb 02e3 31bb 21f8 4ebc

layer1.1.running_mean f4 [64]
1310.4318 1320.5731 -1795.948 66.76577 728.08636 -4216.102 418.1276 512.8505
-935.91077 678.0321 1367.6802 -4823.6445 -546.8974 1617.8506 1309.5757 190.43361
167.79158 -157.94719 -609.8229 1186.0848 266.91937 -2.7836442 3263.0342 -410.6497
-291.94873 1449.999 -334.1973 444.16068 -497.12698 2825.3787 -1378.443 -618.266
4170.235 3713.9888 73.90062 -993.7276 -1507.833 -387.0393 -1234.9529 1396.8472
-1550.6765 212.72305 -386.40613 532.18585 15.225509 -1290.8689 -2270.585 2184.6653
709.78986 743.8501 -1673.3436 2764.0828 -2232.4773 1210.3151 310.8187 492.4003
5336.0273 -665.8073 -1301.9784 -3253.3745 387.44827 2457.1536 -881.12775 154.0542
00000000: d1cd a344 5712 a544 567e e0c4 1388 8542
00000010: 8705 3644 d1c0 83c5 5510 d143 6f36 0044
00000020: 4afa 69c4 0e82 2944 c4f5 aa44 28bd 96c5
00000030: 6fb9 08c4 383b ca44 6cb2 a344 016f 3e43
00000040: a5ca 2743 7bf2 1dc3 aa74 18c4 b742 9444
00000050: ae75 8543 3a27 32c0 8cf0 4b45 2953 cdc3
00000060: 70f9 91c3 f83f b544 4119 a7c3 9114 de43
00000070: 4190 f8c3 0f96 3045 2d4e acc4 0691 1ac4
00000080: e151 8245 d21f 6845 1ecd 9342 916e 78c4
00000090: a87a bcc4 0885 c1c3 7e5e 9ac4 1c9b ae44
000000a0: a6d5 c1c4 1ab9 5443 fc33 c1c3 e50b 0544
000000b0: af9b 7341 ce5b a1c4 5ce9 0dc5 a58a 0845
000000c0: 8d72 3144 68f6 3944 ff2a d1c4 53c1 2c45
000000d0: a387 0bc5 154a 9744 cb68 9b43 3d33 f643
000000e0: 38c0 a645 ab73 26c4 4fbf a2c4 fe55 4bc5
000000f0: 61b9 c143 7592 1945 2d48 5cc4 e00d 1a43

layer1.1.running_var f4 [64]
251877.19 673225.4 1.9437864e+06 578044.5 263501.3 1.4609842e+06 129618.57 221875.73
370368.25 68014.31 241030.86 2.3315688e+06 539417.1 726080.6 702129.9 89270.45
595224.8 665946.75 360562.6 164891.3 51617.152 370168.12 840958.75 87940.58
208447.31 360198.78 746621.9 139373.33 59197.26 563341.25 427672.25 220826.61
1.2060379e+06 578570.5 296693.06 334247.75 796805.56 278181.88 473678.7 193181.56
1.1242815e+06 141883.78 1.9473102e+06 59243.973 533575.44 1.1007498e+06 1.0158525e+06 1.2173236e+06
2.2517192e+06 147035.48 262216.47 728038.4 959596.8 300152.34 249347.05 234767.23
2.5579478e+06 205536.72 640716.4 1.9143798e+06 56136.766 439479.88 1.3427655e+06 259158.03
00000000: 4cf9 7548 965c 2449 5347 ed49 c81f 0d49
00000010: aaa9 8048 c257 b249 4929 fd47 efac 5848
00000020: 08d8 b448 28d7 8447 b761 6b48 c34e 0e4a
00000030: 92b1 0349 0a44 3149 1e6b 2b49 3a5b ae47
00000040: 8d51 1149 ac95 2249 530e b048 d306 2148
00000050: 27a1 4947 04bf b448 ec4f 4d49 4ac2 ab47
00000060: d48f 4b48 d9e0 af48 de47 3649 551b 0848
00000070: 433d 6747 d488 0949 08d3 d048 a7a6 5748
00000080: af38 9349 a840 0d49 a2de 9048 f834 a348
00000090: 5988 4249 bcd4 8748 d649 e748 64a7 3c48
000000a0: cc3d 8949 f28e 0a48 72b5 ed49 f96b 6747
000000b0: 7744 0249 6e5e 8649 c802 7849 5d99 9449
000000c0: 1d6f 094a df96 0f48 0f09 8048 66be 3149
000000d0: cd46 6a49 0b8f 9248 c380 7348 cf43 6548
000000e0: ef1f 1c4a 2eb8 4848 c66c 1c49 5eb0 e949
000000f0: c448 5b47 fc96 d648 6ce9 a349 8215 7d48

layer2.0.weight f4 [64, 64, 3, 3]
0.036362287 -0.031991802 -0.011000066 0.0029252884 -0.020118669 0.015038531 -0.021920212 0.009668901
0.0021320698 0.025526486 0.043598227 -0.022844728 -0.004400115 -0.019310957 -0.00065486756 0.013976972
-0.032745823 0.0077065933 0.03254908 -0.0031639503 0.028707648 0.012379497 -0.019381411 -0.0013382168
0.011239723 0.012048959 0.0063284435 0.0064825057 0.022641052 -0.0020069736 -0.034610383 0.0049220193
0.017744804 -0.04284823 -0.043308016 0.03869659 0.025676653 0.027121976 0.01821589 0.009739761
0.03351875 0.018029306 -0.025611991 -0.001932602 0.04857273 0.026592856 -0.0069456208 0.03913673
-0.009299838 -0.034544576 0.012313622 0.016069967 -0.023655355 -0.00074491894 -0.022551471 0.01115656
0.023593763 -0.0338978 -0.011788977 0.017614406 -0.010415142 -0.018847253 0.00095913553 0.030224036
-0.03205405 -0.011764104 -0.028338725 -0.016962867 0.054230195 -0.03172734 -0.005900825 -0.009183064
0.0336973 -0.010303848 -0.019994175 0.0063772104 -0.037049282 -0.023946851 -0.009967502 -0.009916621
-0.030226558 0.03655125 0.022402475 0.025055768 -0.047841936 0.016426157 -0.0035674614 -0.010365496
-0.02400128 0.026210686 0.01611762 0.002796336 -0.0013091025 -0.046879128 -0.011925119 0.033869185
-0.020424895 0.021430494 -0.037109587 -0.015916172 0.012984105 0.054730225 -0.0046900916 -0.020321123
-0.038744 0.0063321493 -0.015166206 0.011213847 0.027111845 0.03667241 -0.04104393 0.038319714
-0.025191208 -0.025770606 -0.034871977 -0.037928913 0.024830163 0.0015945537 0.021882813 0.05195997
-0.006216378 0.021720033 -0.029169971 0.04148857 0.0018879699 -0.0009987403 0.014596823 0.0105333235
0.004969596 -0.004254498 -0.032216813 -0.047672413 -0.0036221603 -0.014005493 0.012013677 -0.008095408
-0.030867275 -0.0091904625 -0.0051545864 0.03202596 0.028895164 -0.03752964 0.015645929 -0.010025288
-0.015488966 -0.04130386 -0.009801197 -0.023387372 0.020198189 0.0060770535 -0.05212874 -0.045877993
-0.0019956308 0.022578165 0.013400291 0.0055566356 -0.035949733 -0.025678702 0.0006030383 0.022883998
0.01866268 -0.02508732 0.0285843 -0.0034946292 0.008134063 -0.019108223 -0.008256837 0.07407898
0.03742963 0.0315719 0.03991452 -0.013742592 -0.040664293 0.015040964 0.04525649 -0.012704011
0.052593376 0.01179872 0.016475955 -0.04300896 0.010464241 -0.015764067 -0.021388492 0.042462412
0.013725563 0.012142663 0.02077224 -0.0014585977 0.033119958 -0.015345274 0.019327132 -0.03113337
-0.021956882 0.007819135 -0.033427406 0.0053171716 0.029909391 0.0085808225 -0.026878843 -0.028153088
-0.014368495 -0.02871524 -0.015092143 -0.044726405 -0.024450468 -0.019408159 0.011098047 0.0154987015
-0.01804745 0.006850217 -0.022682946 -0.01261835 -0.008541278 -0.012972396 0.042872995 0.012219278
0.021059407 -0.046404507 -0.027385538 -0.016192567 0.03230015 -0.015258465 -0.004038788 0.009564014
-0.0069627482 -0.008423969 0.004324661 -0.0040219724 0.038031124 -0.005148824 0.03663494 -0.0019900277
0.009974397 -0.0012914649 0.0019374614 -0.03249221 -0.038112976 -0.042944986 0.016287165 -0.019336805
-0.009126378 0.027911356 0.030449098 0.019588081 0.018060697 0.0630848 -0.0031291596 -0.031753004
0.009147453 0.02110065 0.023541529 0.047386188 0.0010486731 -0.044123303 -0.066942774 -0.042312916
00000000: 9ff0 143d d609 03bd 9f39 34bc 32b6 3f3b
00000010: e8cf a4bc 2c64 763c 0492 b3bc 4f6a 1e3c
00000020: 32ba 0b3b ec1c d13c 0e94 323d de24 bbbc
00000030: d72e 90bb 0332 9ebc 6bab 2bba abff 643c
00000040: 7c20 06bd 9787 fc3b 2f52 053d 475a 4fbb
00000050: 4d2c eb3c 60d3 4a3c c4c5 9ebc 1b67 afba
00000060: d126 383c ff68 453c d55e cf3b 336b d43b
00000070: ba79 b93c 6e87 03bb 9ec3 0dbd e448 a13b
00000080: 8d5d 913c a081 2fbd bf63 31bd 5180 1e3d
00000090: d857 d23c e82e de3c 7d39 953c 8593 1f3c
000000a0: f54a 093d 32b2 933c 3dd0 d1bc 5d4f fdba
000000b0: 33f4 463d 43d9 d93c 1798 e3bb d64d 203d
000000c0: 595e 18bc 9d7e 0dbd 13bf 493c 2aa5 833c
000000d0: e0c8 c1bc aa46 43ba ddbd b8bc 01ca 363c
000000e0: b547 c13c 6bd8 0abd 8e26 41bc 164c 903c
000000f0: 46a4 2abc 8e65 9abc 7f6e 7b3a 6698 f73c
00000100: 1c4b 03bd 3abe 40bc 9d26 e8bc b6f5 8abc
00000110: 7b20 5e3d 87f4 01bd b55b c1bb 9074 16bc
00000120: 2e06 0a3d 79d1 28bc d3ca a3bc ebf7 d03b
00000130: fdc0 17bd 302c c4bc bc4e 23bc 5379 22bc
00000140: b09d f7bc c3b6 153d 6585 b73c c141 cd3c
00000150: e8f5 43bd 2690 863c 12cc 69bb 0bd4 29bc
00000160: 559e c4bc cbb7 d63c 1909 843c bc42 373b
00000170: 3196 abba 5404 40bd 9361 43bc 6aba 0a3d
00000180: 1c52 a7bc 018f af3c 3900 18bd a262 82bc
00000190: 49bb 543c cd2c 603d 57af 99bb 7c78 a6bc
000001a0: 07b2 1ebd eb7d cf3b ae7b 78bc 49ba 373c
000001b0: a919 de3c cf35 163d ae1d 28bd 22f5 1c3d
000001c0: cb5d cebc e11c d3bc ebd5 0ebd 595b 1bbd
000001d0: a068 cb3c 5800 d13a 9643 b33c fad3 543d
000001e0: c2b2 cbbb 36ee b13c ddf5 eebc ebef 293d
000001f0: c275 f73a 2ae8 82ba 8327 6f3c f693 2c3c
00000200: fed7 a23b 5169 8bbb c7f5 03bd 2644 43bd
00000210: c461 6dbb 4c77 65bc 03d5 443c 9aa2 04bc
00000220: 5edd fcbc 9893 16bc cee7 a8bb a72d 033d
00000230: 8db5 ec3c aeb8 19bd e42b 803c 1b41 24bc
00000240: 6fc5 7dbc 3c2e 29bd 3395 20bc e096 bfbc
00000250: ac76 a53c 0522 c73b f284 55bd 90ea 3bbd
00000260: 21c9 02bb d8f5 b83c e58c 5b3c 7014 b63b
00000270: 0740 13bd 245c d2bc 3715 1e3a 3977 bb3c
00000280: 7ae2 983c ec83 cdbc 9f29 ea3c 2606 65bb
00000290: bc44 053c d988 9cbc af47 07bc b8b6 973d
000002a0: d04f 193d 8951 013d 687d 233d 9c28 61bc
000002b0: 9a8f 26bd 606e 763c df5e 393d 7c24 50bc
000002c0: 276c 573d 6b4f 413c 95f8 863c 2a2a 30bd
000002d0: 3572 2b3c a523 81bc eb36 afbc 11ed 2d3d
000002e0: 2fe1 603c 05f2 463c 8b2a aa3c 6b2e bfba
000002f0: cba8 073d be6a 7bbc ef53 9e3c 690b ffbc
00000300: ebde b3bc d41b 003c 2deb 08bd ab3b ae3b
00000310: 8a04 f53c 9496 0c3c 0531 dcbc 4ea1 e6bc
00000320: d669 6bbc 393c ebbc 0945 77bc 0933 37bd
00000330: 594c c8bc dcfd 9ebc 95d4 353c 44ee 7d3c
00000340: 3fd8 93bc c977 e03b 96d1 b9bc 32bd 4ebc
00000350: b7f0 0bbc 2c8a 54bc 989b 2f3d 5e33 483c
00000360: c784 ac3c a712 3ebd a357 e0bc 46a6 84bc
00000370: 294d 043d a4fe 79bc cf57 84bb 62b2 1c3c
00000380: c427 e4bb b004 0abc e3b5 8d3b c0ca 83bb
00000390: 86c6 1b3d 77b7 a8bb 850e 163d 206b 02bb
000003a0: a76b 233c 5f46 a9ba 6bf2 fd3a 8d16 05bd
000003b0: 5a1c 1cbd 15e7 2fbd a96c 853c 3868 9ebc
000003c0: ce86 15bc 5ba6 e43c 6370 f93c 2f77 a03c
000003d0: 07f4 933c 9b32 813d 9612 4dbb 700f 02bd
000003e0: 33df 153c 45db ac3c 2ada c03c 0518 423d
000003f0: a173 893a a3ba 34bd 4b19 89bd 4f50 2dbd

layer2.0.bias f4 [64]
0.013449285 -0.042005464 0.03626521 -0.014166863 -0.03973447 0.03926164 0.0006604572 -0.03130343
0.039077293 0.014095531 -0.024870532 -0.0053993925 0.039237246 -0.016864227 0.03866 0.004243139
-0.01647673 -0.007730146 -0.03659639 0.019441338 -0.015620635 -0.038200896 0.013127177 0.012474497
-0.008230612 -0.027656764 0.02101651 0.00049285206 0.018421702 -0.039378915 0.02386685 0.0007499218
0.033734154 -0.035398427 0.04092269 -0.016321542 0.03317263 0.01539836 0.010492513 -0.023474254
0.028280225 0.03153555 0.037532948 -0.03222402 0.0046270485 -0.02534905 -0.007586179 -0.01540678
0.018874103 0.00718344 -0.03238771 -0.02013251 -7.635029e-05 -0.022711506 0.038782343 -0.01926331
0.018342935 -0.022684645 -0.0238754 0.01076058 -0.0026485028 0.00014457585 -0.0053079827 -0.005518167
00000000: 645a 5c3c ec0d 2cbd d48a 143d 211c 68bc
00000010: 9dc0 22bd d0d0 203d 8822 2d3a 0738 00bd
00000020: 830f 203d f1f0 663c 49bd cbbc 63ed b0bb
00000030: 3cb7 203d d926 8abc f359 1e3d 080a 8b3b
00000040: 35fa 86bc 2a4d fdbb 19e6 15bd 7143 9f3c
00000050: b1ed 7fbc 8b78 1cbd 5f13 573c d561 4c3c
00000060: b0d9 06bc 7090 e2bc d12a ac3c be32 013a
00000070: 1ce9 963c c94b 21bd 6a84 c33c 6696 443a
00000080: d32c 0a3d f1fd 10bd 8d9e 273d c1b4 85bc
00000090: 06e0 073d 6749 7c3c cae8 2b3c 144d c0bc
000000a0: eeab e73c 6c2b 013d 26bc 193d 56fd 03bd
000000b0: 7f9e 973b d0a8 cfbc 7b95 f8bb b86c 7cbc
000000c0: dd9d 9a3c 1063 eb3b faa8 04bd efec a4bc
000000d0: 401e a0b8 7b0d babc 3cda 1e3d 17ce 9dbc
000000e0: ec43 963c 26d5 b9bc 5896 c3bc 254d 303c
000000f0: 8192 2dbb 4999 1739 96ee adbb bdd1 b4bb

layer2.1.weight f4 [64]
1.0018047 1.0094955 1.0014671 0.98149365 1.0036539 1.0146836 0.99344105 0.9936264
1.0026557 1.0056896 0.9884798 1.0112199 0.9956958 1.0170221 0.9872588 1.0050236
1.000909 0.98523146 0.9991989 0.9909032 0.99768937 1.0172298 1.0124885 0.98593414
1.0190648 0.99728006 1.0064393 1.0003763 0.99589074 0.98470014 0.9965921 0.9964222
1.0254135 0.99342203 1.0125726 0.99553084 1.0152751 1.0179237 0.98931336 0.9906037
0.9958363 0.9995351 0.99165636 1.01034 0.9899872 0.98576444 0.99615234 0.9965924
1.001868 1.0064512 1.0009016 1.008846 0.9934957 0.9925937 0.9927894 0.99744374
0.9935227 0.9932583 0.9868108 1.0195292 1.0092518 0.99768806 1.008552 0.9940127
00000000: 233b 803f 2637 813f 1330 803f 2b43 7b3f
00000010: bb77 803f 27e1 813f 2752 7e3f 4d5e 7e3f
00000020: 0657 803f 70ba 803f 030d 7d3f a76f 813f
00000030: ece5 7e3f c82d 823f febc 7c3f 9da4 803f
00000040: c91d 803f 2138 7c3f 80cb 7f3f d5ab 7d3f
00000050: 9268 7f3f 9634 823f 3999 813f 2e66 7c3f
00000060: b770 823f bf4d 7f3f 01d3 803f 550c 803f
00000070: b2f2 7e3f 4f15 7c3f a920 7f3f 8615 7f3f
00000080: c040 833f e850 7e3f fb9b 813f 1cdb 7e3f
00000090: 89f4 813f 534b 823f a443 7d3f 3498 7d3f
000000a0: 21ef 7e3f 88e1 7f3f 31dd 7d3f d252 813f
000000b0: cd6f 7d3f 0f5b 7c3f d703 7f3f ae20 7f3f
000000c0: 363d 803f 65d3 803f 8b1d 803f de21 813f
000000d0: bc55 7e3f 9f1a 7e3f 7227 7e3f 7958 7f3f
000000e0: 8157 7e3f 2d46 7e3f a29f 7c3f ef7f 823f
000000f0: 2a2f 813f 7c68 7f3f 3b18 813f 9e77 7e3f

layer2.1.bias f4 [64]
-0.024898855 -0.02154844 0.009962752 -0.032818478 -0.0056441072 -0.00011571841 -0.017948022 -0.021700928
-0.008489138 -0.03669293 0.0012335307 0.008023026 -0.021061752 -0.033353105 -0.019900076 -0.009547712
-0.026811313 -0.006893871 -0.016368287 -0.005056568 0.011868224 -0.047475386 -0.020593146 -0.033648577
0.0076911333 -0.006143797 -0.016078867 0.0106830485 -0.010706052 -0.012992188 -0.0075990097 -0.008698185
0.013880378 -0.009211277 -0.012363181 0.008376442 -0.0072333254 -0.009501483 -0.006126891 -0.022008551
-0.0026623516 -0.010050275 -0.033945687 -0.015451895 -0.02159665 -0.013942481 -0.03034605 -0.02300214
0.0029795298 -0.00980934 -0.030957341 -0.0090398155 -0.007962504 -0.012000444 -0.028742863 0.0026975048
-0.02044689 0.0011133702 -0.046713825 -0.008810482 -0.021350492 0.003959558 -0.01076287 -0.0011389044
00000000: aff8 cbbc 5b86 b0bc d03a 233c ab6c 06bd
00000010: 34f2 b8bb d9ad f2b8 bb07 93bc 25c6 b1bc
00000020: 0716 0bbc 534b 16bd 6cae a13a 0373 033c
00000030: b289 acbc 449d 08bd 7c05 a3bc 026e 1cbc
00000040: 66a3 dbbc fbe5 e1bb c916 86bc 91b1 a5bb
00000050: f072 423c 8d75 42bd f5b2 a8bc 17d3 09bd
00000060: e705 fc3b e851 c9bb d4b7 83bc f407 2f3c
00000070: 7068 2fbc 30dd 54bc 1d01 f9bb d582 0ebc
00000080: 866a 633c e5ea 16bc f18e 4abc 583d 093c
00000090: 8805 edbb 1cac 1bbc 16c4 c8bb 474b b4bc
000000a0: d97a 2ebb e9a9 24bc a20a 0bbd f229 7dbc
000000b0: 75eb b0bc 016f 64bc 4898 f8bc fc6e bcbc
000000c0: 3744 433b 5bb7 20bc 409a fdbc bc1b 14bc
000000d0: 2a75 02bc 839d 44bc 2776 ebbc 9fc8 303b
000000e0: 3c80 a7bc 81ee 913a ff56 3fbd d759 10bc
000000f0: 3ae7 aebc 2ebf 813b c056 30bc 4a47 95ba

layer2.1.running_mean f4 [64]
-0.25872952 -0.15983352 0.24259773 0.2925602 -0.72447455 0.085774995 0.31142926 0.16238032
0.030108396 -0.7233089 -0.00030472566 -0.32471582 -0.0647439 -0.2753838 0.36902434 0.068518914
0.13169044 -0.09280381 -0.42334363 -0.16198385 -0.33040786 -0.2954676 -0.9710961 -0.096190415
-0.48043337 -0.66361064 -0.43501982 0.030503573 -0.18120748 -0.5683315 0.10070573 0.034395415
-0.20520587 -0.13216217 -0.3100208 -0.32081312 -0.4638196 0.075065374 0.16338216 -0.38567325
-0.0693151 -0.3428843 0.05652244 -0.6674391 -0.23340115 0.24199927 -0.37044957 -0.07392814
-0.06765542 -0.3302954 0.117606245 -0.5374233 0.02935433 -0.017379599 -0.22260492 -0.4687698
0.03895081 -0.24159847 0.36144364 -0.03705087 -0.11000306 -0.612901 -0.55777013 -0.4560081
00000000: 3278 84be 66ab 23be 8a6b 783e 73ca 953e
00000010: 2a77 39bf cdaa af3d a873 9f3e 0747 263e
00000020: e2a5 f63c c62a 39bf 96c3 9fb9 2741 a6be
00000030: 7398 84bd 1bff 8cbe c2f0 bc3e a553 8c3d
00000040: dcd9 063e ed0f bebd 7fc0 d8be 18df 25be
00000050: 382b a9be 8747 97be c199 78bf 7bff c4bd
00000060: 5dfb f5be 63e2 29bf ebba debe a1e2 f93c
00000070: 748e 39be 2c7e 11bf ce3e ce3d 35e2 0c3d
00000080: 7d21 52be 8555 07be 0cbb 9ebe 9e41 a4be
00000090: c379 edbe e0bb 993d a74d 273e f776 c5be
000000a0: 13f5 8dbd 888e afbe 1384 673d 4add 2abf
000000b0: b600 6fbe a8ce 773e 91ab bdbe a367 97bd
000000c0: ed8e 8abd 7b1c a9be 8bdb f03d 9394 09bf
000000d0: 7e78 f03c a95f 8ebc 8bf2 63be 9802 f0be
000000e0: e28a 1f3d 9765 77be 240f b93e a7c2 17bd
000000f0: 4949 e1bd 14e7 1cbf 06ca 0ebf e579 e9be

layer2.1.running_var f4 [64]
0.08028173 0.06647862 0.09388414 0.12878942 0.08965279 0.1655885 0.085727245 0.106550306
0.11261329 0.07056144 0.19780579 0.120809324 0.08206042 0.057056304 0.23427737 0.10797205
0.096368976 0.17136595 0.13515243 0.1794407 0.30005792 0.05931181 0.19862378 0.10136046
0.071460016 0.10304242 0.08525006 0.15372047 0.06503195 0.17746837 0.2336887 0.14184803
0.111566916 0.18789555 0.11229778 0.09497381 0.1386367 0.106320575 0.11155549 0.118972294
0.07889964 0.18250339 0.09844078 0.079423994 0.07173519 0.20455834 0.09882768 0.10050546
0.10344832 0.18909648 0.09866516 0.08192445 0.13622117 0.16752109 0.14501712 0.20310257
0.07047353 0.12291167 0.050064802 0.056516014 0.05078176 0.09384077 0.038752418 0.14670199
00000000: bf6a a43d f125 883d 5446 c03d 60e1 033e
00000010: e29b b73d 0890 293e c491 af3d 0c37 da3d
00000020: cca1 e63d 8482 903d 9a8d 4a3e e16a f73d
00000030: 4b0f a83d dfb3 693d 68e6 6f3e 7320 dd3d
00000040: 195d c53d 8e7a 2f3e 6665 0a3e 4ebf 373e
00000050: 31a1 993e f1f0 723d 0864 4b3e 1396 cf3d
00000060: a159 923d e807 d33d 9597 ae3d e668 1d3e
00000070: 792f 853d 45ba 353e 174c 6f3e 9c40 113e
00000080: 327d e43d b167 403e 61fc e53d a181 c23d
00000090: c7f6 0d3e 9abe d93d 3477 e43d bfa7 f33d
000000a0: 2296 a13d 2be2 3a3e 529b c93d 0ca9 a23d
000000b0: e6e9 923d be77 513e 2b66 ca3d ced5 cd3d
000000c0: b6dc d33d 82a2 413e f610 ca3d 02c8 a73d
000000d0: 907d 0b3e a68a 2b3e 5e7f 143e 1ffa 4f3e
000000e0: 6d54 903d 1db9 fb3d c010 4d3d 567d 673d
000000f0: 8900 503d 972f c03d dbba 1e3d 0c39 163e

layer3.0.weight f4 [64, 64, 3, 3]
-0.007899536 0.020642065 0.029987575 0.017319418 0.02478475 0.013992906 0.00696111 0.02921095
0.0012876677 0.0007253951 -0.002917488 0.032362975 -0.03616737 0.02467982 -0.02785001 0.014179835
0.027049303 0.014033968 0.023070091 0.020169666 -0.009265492 -0.013861752 0.033985358 -0.02493755
0.022529908 -0.0042745154 0.024889134 -0.0026925814 0.010334823 -0.002525878 0.036543477 0.032276545
-0.004571005 -0.009275542 0.025579188 0.0367137 0.0135520175 -0.05459219 -0.020151036 -0.029189147
0.014888456 0.017077755 -0.007628274 -0.010463235 -0.015079005 -0.018389542 0.011497193 -0.04865087
-0.011693519 -0.018460866 0.009388896 0.0070288833 -0.034522053 -0.012277763 -0.014909359 0.003160787
-0.025416771 -0.007079148 0.0039248746 0.037126303 -0.048660766 0.022381144 -0.014439945 -0.011662447
-0.028207418 -0.03174917 -0.0021907268 -0.011960601 -0.018631872 -0.040081594 -0.03628691 -0.006377566
0.029063499 0.029198753 -0.042860024 -0.026867097 -0.0046571633 0.015852235 -0.010150754 0.02936433
0.008903351 -0.002651492 0.017496806 -0.019322017 0.040699966 -0.0113790305 -0.036727108 -0.02445303
0.021021273 0.0066000153 0.021524271 0.022956256 -0.010452168 0.021950785 0.01558542 0.037778012
0.032536168 -0.025065482 -0.027315637 -0.002745936 0.0079425825 -0.0041068103 -0.02867401 -0.0031124828
0.028475735 -0.026263176 0.023222951 0.020725587 -0.022801988 -0.034217708 -0.019330498 -0.025341205
-0.0068738353 -0.027980477 0.04233947 -0.049391557 -0.009975504 0.03854899 -0.021515086 -0.059660327
-0.032702383 0.0038755403 -0.026858492 -0.025381822 0.0053712823 -0.011517094 0.018344123 -0.03213626
-0.018237758 -0.010803365 -0.022596538 -0.032002326 0.02157401 -0.006721687 0.01701847 0.044969387
0.031316284 -0.03468493 0.0025958002 -0.018092684 0.04922196 0.015742794 0.044371873 -0.016337678
0.020592563 -0.011262139 0.026607119 -0.0023147417 -0.007374813 0.00033574205 -0.014791086 -0.008397435
0.00624753 -0.029164152 0.0022462113 -0.008058838 -0.038736567 -0.03032841 0.015505393 0.008377201
-0.0154220285 0.021556763 -0.050654776 0.0196752 -0.025334092 -0.029155381 -0.051154073 0.027868208
0.03635562 0.013016568 -0.023111949 -0.01062433 -0.0036037522 0.01009467 -0.022177126 0.02991802
-0.023856593 0.018974202 0.04426727 0.016409494 -0.007748738 0.00775553 -0.023382386 -0.034924455
-0.0051310714 -0.00035052642 -0.014648149 -0.022054983 -0.014291935 -0.019395458 0.030778375 0.031462286
0.00934944 0.020312972 0.007074729 0.04205411 -0.027031887 -0.042725667 -0.035165712 0.031153494
0.0018103183 -0.022566304 -0.030864295 -0.035299584 -0.02404398 0.010263877 0.042045802 -0.009212805
0.05291374 -0.0040256446 0.010914807 0.016751703 -0.012756602 0.044797294 0.012452648 0.03889104
0.013015651 -0.039847653 -0.033585712 0.0416462 0.00022565784 -0.019310623 0.02194085 -0.034413207
0.002203141 0.0038687482 -0.01585592 0.018078946 -0.013297991 -0.008816599 -0.00092399743 0.023818662
0.022643885 -0.019276392 -0.07162464 -0.027885288 -0.007467167 -0.005030501 -0.026810741 -0.0046463604
-0.06512159 -0.041249983 -0.040905964 -0.040622592 -0.021366812 -0.011362966 0.017424183 -0.0022281734
-0.019250365 0.037894316 -0.041744657 -0.024790857 0.008532942 -0.05015311 0.025075117 -0.016757479
00000000: 0e6d 01bc 8c19 a93c 81a8 f53c 74e1 8d3c
00000010: 6309 cb3c 8042 653c 061a e43b cd4b ef3c
00000020: f5c6 a83a 7128 3e3a 5433 3fbb 0a8f 043d
00000030: 3c24 14bd 552d ca3c b425 e4bc 8a52 683c
00000040: 8096 dd3c baee 653c 7dfd bc3c db3a a53c
00000050: 4ace 17bc 671c 63bc 3b34 0b3d d549 ccbc
00000060: a490 b83c 3c11 8cbb 4ce4 cb3c 0576 30bb
00000070: 6453 293c 3389 25bb 9dae 153d 6934 043d
00000080: 5ec8 95bb 71f8 17bc 728b d13c 1b61 163d
00000090: 4809 5e3c 0f9c 5fbd c913 a5bc 141e efbc
000000a0: b6ee 733c a6e6 8b3c 9af6 f9bb fd6d 2bbc
000000b0: ee0d 77bc aaa5 96bc b95e 3c3c 2246 47bd
000000c0: 2c96 3fbc 3e3b 97bc e2d3 193c 8c52 e63b
000000d0: ff66 0dbd ac28 49bc 6246 74bc 3525 4f3b
000000e0: d536 d0bc 33f8 e7bb 3c9c 803b c011 183d
000000f0: 8350 47bd a958 b73c 8595 6cbc d913 3fbc
00000100: 3e13 e7bc 6b0b 02bd 4c92 0fbb 66f6 43bc
00000110: dea1 98bc 992c 24bd 95a1 14bd e7fa d0bb
00000120: 9316 ee3c 3932 ef3c fe8d 2fbd 6318 dcbc
00000130: 1e9b 98bb 8cdc 813c 594f 26bc 778d f03c
00000140: 5cdf 113c a7c4 2dbb 7655 8f3c 3549 9ebc
00000150: 02b5 263d 1d6f 3abc 2a6f 16bd b951 c8bc
00000160: ce34 ac3c f144 d83b ab53 b03c c20e bc3c
00000170: 923f 2bbc 22d2 b33c fd59 7f3c 1ebd 1a3d
00000180: a544 053d 2056 cdbc 0bc5 dfbc 29f5 33bb
00000190: 9b21 023c 6c92 86bb c2e5 eabc ccfa 4bbb
000001a0: f245 e93c df25 d7bc 0f3e be3c b5c8 a93c
000001b0: 3ccb babc de27 0cbd fe5a 9ebc 5c98 cfbc
000001c0: e93d e1bb 5037 e5bc 276c 2d3d cd4e 4abd
000001d0: 4c70 23bc 8ce5 1d3d 6840 b0bc 635e 74bd
000001e0: eff2 05bd c7fc 7d3b 5706 dcbc 8aed cfbc
000001f0: 9501 b03b 32b2 3cbc 6a46 963c 50a1 03bd
00000200: 5a67 95bc 9900 31bc 601c b9bc df14 03bd
00000210: fabb b03c 9941 dcbb 526a 8b3c d231 383d
00000220: 8145 003d c911 0ebd 4d1e 2a3b 1c37 94bc
00000230: f79c 493d 08f7 803c 48bf 353d 98d6 85bc
00000240: bcb1 a83c d684 38bc 2cf7 d93c ecb2 17bb
00000250: 6aa8 f1bb 8906 b039 5056 72bc 6595 09bc
00000260: 15b8 cc3b a9e9 eebc 2c35 133b 3709 04bc
00000270: 3caa 1ebd 4973 f8bc 550a 7e3c 8740 093c
00000280: adac 7cbc cf97 b03c 627b 4fbd e32d a13c
00000290: 7189 cfbc 44d7 eebc ef86 51bd de4b e43c
000002a0: a1e9 143d 7143 553c 4555 bdbc ab11 2ebc
000002b0: ee2c 6cbb 1d64 253c ceac b5bc a316 f53c
000002c0: e76e c3bc c96f 9b3c 9951 353d 346d 863c
000002d0: 20e9 fdbb 1a22 fe3b 6b8c bfbc f20c 0fbd
000002e0: 8c22 a8bb dcc6 b7b9 cafe 6fbc a7ac b4bc
000002f0: b828 6abc 39e3 9ebc ee22 fc3c 99de 003d
00000300: 652e 193c 6467 a63c 21d3 e73b ee40 2c3d
00000310: fa71 ddbc 1c01 2fbd ec09 10bd 9d35 ff3c
00000320: 3448 ed3a f8dc b8bc 1ed7 fcbc 4c96 10bd
00000330: e1f7 c4bc d229 283c 3838 2c3d 4ef1 16bc
00000340: 14bc 583d 8ee9 83bb 05d4 323c de3a 893c
00000350: 1101 51bc 5e7d 373d 3106 4c3c 364c 1f3d
00000360: 993f 553c 4b37 23bd 2c91 09bd 3595 2a3d
00000370: 919e 6c39 5031 9ebc 4cbd b33c ddf4 0cbd
00000380: 9362 103b d38a 7d3b 46e4 81bc 4c1a 943c
00000390: d1df 59bc 7f73 10bc 6b38 72ba 5b1f c33c
000003a0: ab7f b93c 86e9 9dbc f0af 92bd b06f e4bc
000003b0: 23af f4bb e7d6 a4bb 33a2 dbbc 7f40 98bb
000003c0: 785e 85bd bef5 28bd 038d 27bd e063 26bd
000003d0: 7409 afbc bc2b 3abc 29bd 8e3c 8c06 12bb
000003e0: f1b2 9dbc 1237 1b3d 72fc 2abd 3216 cbbc
000003f0: c1cd 0b3c 596d 4dbd 556a cd3c fb46 89bc

layer3.0.bias f4 [64]
0.00213967 0.040068842 -0.0010431835 0.027471274 0.004553424 0.0109482175 -0.031371243 0.005856447
0.009318342 -0.014800105 0.012379018 0.037251465 -0.032047022 -0.030122792 -0.0059002307 0.020058975
0.016072486 -0.016586797 0.031271003 0.007704328 0.02689103 -0.02824275 -0.028653493 -0.0017703993
-0.037906326 0.01970029 0.0070455433 -0.037797797 0.020436544 -0.03815128 -0.01044505 0.015877934
-0.017231569 -0.02142492 0.03125441 -0.032062072 0.013663529 -0.028601613 -0.032603413 -0.021656927
-0.037519403 -0.015383721 -0.0404861 0.00078937004 -0.031865623 0.039033685 0.010967022 -0.036166828
-0.030205274 -0.0109234 0.0068958076 -0.020288818 0.04002041 -0.012589489 0.041288197 0.013763491
0.012421694 0.010170431 0.027806237 0.013529331 -0.020896599 -0.017243125 0.014115969 0.01009805
00000000: b539 0c3b 3a1f 243d 6ebb 88ba 700b e13c
00000010: e434 953b 2760 333c 227f 00bd 70e7 bf3b
00000020: f6ab 183c 247c 72bc 5dd1 4a3c fe94 183d
00000030: bd43 03bd 13c4 f6bc b956 c1bb b852 a43c
00000040: 72aa 833c 09e1 87bc 0616 003d 9674 fc3b
00000050: 944a dc3c 575d e7bc bbba eabc be0c e8ba
00000060: aa43 1bbd 8162 a13c 4dde e63b ddd1 1abd
00000070: 8a6a a73c 8444 1cbd b721 2bbc 7112 823c
00000080: 3829 8dbc 5083 afbc a004 003d 8553 03bd
00000090: ffdc 5f3c ee4d eabc 288b 05bd de69 b1bc
000000a0: f2ad 19bd 010c 7cbc c1d4 25bd baed 4e3a
000000b0: 8785 02bd c9e1 1f3d 06af 333c ab23 14bd
000000c0: 0d71 f7bc 0ff8 32bc 3af6 e13b bc34 a6bc
000000d0: 71ec 233d 2544 4ebc d01d 293d 4480 613c
000000e0: 5c84 4b3c e1a1 263c e8c9 e33c 21aa 5d3c
000000f0: 582f abbc 7441 8dbc aa46 673c 4b72 253c

layer3.1.weight f4 [64]
0.9581716 1.0172408 0.988818 1.0439668 0.99761105 0.99958485 1.0224463 0.95753354
0.9796703 0.99330425 0.9836444 1.0181098 1.0054798 0.9838564 0.97465223 1.0306749
1.0216657 1.0119327 0.9832087 0.97440195 0.96920395 0.98283094 1.0941778 0.9677091
1.0160264 1.008307 0.99988353 0.9934133 1.0536008 1.0063635 0.9790369 1.003234
1.1031249 1.0101674 0.9880433 1.0015795 1.0071608 0.9693388 0.9833485 0.98193616
1.0143714 0.96708405 0.99447423 1.0020617 1.0156486 1.004681 0.99573785 1.0000867
0.9921389 1.0153748 1.0129912 0.98390484 0.95250386 1.0147436 0.97901607 0.9769536
0.983499 1.0003471 1.0134778 0.9686245 0.9702175 0.99859244 0.99156046 1.0556878
00000000: bc4a 753f f234 823f 2d23 7d3f b4a0 853f
00000010: 7063 7f3f cbe4 7f3f 85df 823f eb20 753f
00000020: accb 7a3f 3049 7e3f 1fd0 7b3f 6c51 823f
00000030: 90b3 803f 03de 7b3f cf82 793f 28ed 833f
00000040: f1c5 823f 0387 813f 91b3 7b3f 6872 793f
00000050: c01d 783f cf9a 7b3f 050e 8c3f c9bb 773f
00000060: 270d 823f 3410 813f 5ef8 7f3f 5650 7e3f
00000070: 64dc 863f 85d0 803f 2aa2 7a3f f969 803f
00000080: 3233 8d3f 2a4d 813f 68f0 7c3f c233 803f
00000090: a5ea 803f 9626 783f babc 7b3f 2b60 7b3f
000000a0: ecd6 813f d292 773f dd95 7e3f 8f43 803f
000000b0: c600 823f 6399 803f ade8 7e3f d702 803f
000000c0: d1fc 7d3f cdf7 813f b2a9 813f 30e1 7b3f
000000d0: 4bd7 733f 1ee3 813f cca0 7a3f a219 7a3f
000000e0: 97c6 7b3f 600b 803f a4b9 813f c6f7 773f
000000f0: 2d60 783f c1a3 7f3f e8d6 7d3f c720 873f

layer3.1.bias f4 [64]
-0.017173544 -0.046228927 -0.014541037 -0.04546356 -0.025554867 -0.012120205 -0.048219677 -0.014020393
-0.012688295 -0.010049148 -0.011750134 -0.0417629 -0.014717551 -0.028224912 -0.034925953 -0.013505546
-0.03683804 -0.036944937 -0.027385492 -0.012022024 -0.017494129 -0.013551737 -0.078957625 -0.008618752
-0.02256294 -0.033658568 -0.015318079 -0.0358 -0.04191703 -0.0076867826 -0.019809 -0.012821955
-0.08078873 -0.011999855 -0.026127318 -0.043610357 -0.023241118 -0.03540051 -0.020038964 -0.013444488
-0.014405921 0.011323351 -0.007292319 -0.024907282 -0.039770775 -0.0037767065 -0.015232127 -0.03240231
-0.032925177 -0.008243808 -0.06837903 -0.01817154 -0.019909462 -0.019601047 -0.022349373 -0.029696174
-0.03088207 -0.028629098 -0.026139991 -0.015660621 -0.034362715 -0.016163167 -0.014927951 -0.036702402
00000000: 88af 8cbc 8b5a 3dbd 883d 6ebc ff37 3abd
00000010: 7158 d1bc d393 46bc ff81 45bd cab5 65bc
00000020: 91e2 4fbc 2fa5 24bc a283 40bc 930f 2bbd
00000030: e221 71bc ee37 e7bc 840e 0fbd 5e46 5dbc
00000040: 7ce3 16bd 9353 17bd 8a57 e0bc 06f8 44bc
00000050: d94f 8fbc 1b08 5ebc 89b4 a1bd aa35 0dbc
00000060: ead5 b8bc 91dd 09bd aef8 7abc 05a3 12bd
00000070: 31b1 2bbd 68e1 fbbb 7c46 a2bc 2d13 52bc
00000080: 9074 a5bd 0a9b 44bc f508 d6bc c6a0 32bd
00000090: 2864 bebc 2000 11bd c128 a4bc 4546 5cbc
000000a0: d006 6cbc 9485 393c 68f4 eebb 5b0a ccbc
000000b0: aee6 22bd 9f82 77bb 2c90 79bc 49b8 04bd
000000c0: 8ddc 06bd 0911 07bc 4e0a 8cbd 7bdc 94bc
000000d0: 2b19 a3bc 6092 a0bc 0816 b7bc 6445 f3bc
000000e0: 65fc fcbc 9287 eabc 8923 d6bc b44a 80bc
000000f0: ebbf 0cbd 9e68 84bc 5d94 74bc 4255 16bd

layer3.1.running_mean f4 [64]
-0.33120343 -0.45601586 0.111870944 0.010092314 -0.3358245 -0.013544029 -0.2413646 0.18766433
-0.054698583 -0.37545708 -0.13582279 -0.038812283 -0.09273582 -0.0053285323 -0.24326867 -0.051641535
-0.6964423 -0.003444558 -0.21651609 -0.3413702 -0.26944315 -0.4329633 0.01099232 -0.21092628
-0.46875533 -0.031529102 -0.4489964 -0.2509198 -0.18760055 -0.07297857 0.26585692 -0.29152748
-0.2195494 -0.07901344 0.37988102 -0.20580178 -0.41659668 -0.053926844 0.12108092 -0.25314417
0.06655601 -0.16784798 -0.375272 -0.2606698 0.06964391 0.023572633 -0.06423027 -0.43644273
-0.29149127 -0.020625401 0.16101812 -0.2972403 -0.2716732 -0.100861415 0.07141786 -0.13629885
-0.2251189 -0.24997793 -0.13832197 0.09185128 -0.11283314 -0.025208684 -0.164152 -0.45636275
00000000: 7f93 a9be e97a e9be 981c e53d 3c5a 253c
00000010: 30f1 abbe c6e7 5dbc 4828 77be 142b 403e
00000020: 9f0b 60bd e93b c0be 2115 0bbe a1f9 1ebd
00000030: 47ec bdbd f89a aebb 6c1b 79be 1386 53bd
00000040: 0b4a 32bf 18be 61bb 65b6 5dbe 13c8 aebe
00000050: 74f4 89be 5ead ddbe 2219 343c 0ffd 57be
00000060: b300 f0be a924 01bd dbe2 e5be 8f78 80be
00000070: 5c1a 40be ca75 95bd 661e 883e 1743 95be
00000080: 8fd1 60be ccd1 a1bd c47f c23e b4bd 52be
00000090: 294c d5be 65e2 5cbd 46f9 f73d 1d9c 81be
000000a0: 844e 883d 57e0 2bbe a723 c0be 8376 85be
000000b0: 77a1 8e3d 651b c13c 298b 83bd 6c75 dfbe
000000c0: 583e 95be 9af6 a8bc efe1 243e e12f 98be
000000d0: c018 8bbe 6e90 cebd 8743 923d ed91 0bbe
000000e0: 9285 66be 37fa 7fbe 46a4 0dbe 861c bc3d
000000f0: 1015 e7bd 7182 cebc 7617 28be 61a8 e9be

layer3.1.running_var f4 [64]
0.16853417 0.14567521 0.15005305 0.10101522 0.18521309 0.13703477 0.097790845 0.16895895
0.18720683 0.20593062 0.16065417 0.10536427 0.10592293 0.15719503 0.2904152 0.09451423
0.17409442 0.12622035 0.29664218 0.31002933 0.36382574 0.3324605 0.04213908 0.2682815
0.10387288 0.13244043 0.25633326 0.15893734 0.07170286 0.115100406 0.174924 0.16703948
0.044530515 0.12958086 0.15923257 0.15163396 0.10757212 0.21811776 0.20921335 0.4203633
0.10270466 0.14292355 0.18498315 0.1608378 0.11799441 0.1166601 0.1398856 0.1694354
0.18710919 0.12404676 0.11281653 0.16398087 0.23614414 0.10134768 0.26500142 0.3960322
0.1360693 0.16559547 0.111024685 0.37497187 0.33756584 0.1949625 0.15006515 0.053472225
00000000: 3994 2c3e e22b 153e 82a7 193e 11e1 ce3d
00000010: 80a8 3d3e d852 0c3e 9146 c83d 9303 2d3e
00000020: 26b3 3f3e 7adf 523e 8782 243e 39c9 d73d
00000030: 1fee d83d bcf7 203e 4db1 943e ad90 c13d
00000040: cf45 323e e83f 013e 7ce1 973e 2abc 9e3e
00000050: 5e47 ba3e 4338 aa3e 079a 2c3d 315c 893e
00000060: 4ebb d43d 779e 073e 1d3e 833e 78c0 223e
00000070: f3d8 923d c3b9 eb3d 471f 333e 660c 2b3e
00000080: a165 363d d8b0 043e dd0d 233e ef45 1b3e
00000090: c64e dc3d 435a 5f3e 063c 563e dc39 d73e
000000a0: d256 d23d 8d5a 123e 396c 3d3e aab2 243e
000000b0: 0ea7 f13d 7eeb ee3d 2c3e 0f3e 7980 2d3e
000000c0: 8d99 3f3e 3a0c fe3d 5a0c e73d 9aea 273e
000000d0: c5cf 713e 5f8f cf3d 44ae 873e bcc4 ca3e
000000e0: c055 0b3e dc91 293e e960 e33d 50fc bf3e
000000f0: 6ed5 ac3e 40a4 473e aeaa 193e b105 5b3d

layer4.0.weight f4 [64, 64, 3, 3]
-0.012779948 -0.00014563491 -0.012223862 0.025587782 0.021983616 0.0028201398 0.009868378 0.003458106
-0.022715695 0.018243587 -0.02003661 0.02365704 -0.02488763 -0.03302576 -0.025108242 0.009795973
-0.00060384284 -0.017468441 -0.0013494088 0.0029762457 0.05794791 0.0047319853 0.029514145 0.034246914
0.015066827 0.023237353 -0.0033732427 0.021707114 0.0054691075 -0.013995079 -0.0041126134 0.007921501
0.00073179975 -0.021659289 0.0053362995 -0.0072353943 -0.0072165 -0.01880364 -0.023179373 0.029981043
-0.035851542 0.006256022 -0.028263057 0.035687003 0.02506253 -0.024331054 -0.0070172804 -0.04990949
0.01393126 0.0286978 -0.0019908103 0.004978665 -0.020468958 -0.008835064 -0.0018338942 0.020117283
0.15112443 -0.026104756 0.03676623 0.056662 0.029979015 0.0003882855 -0.009929671 0.0008199895
-0.02566343 0.02063038 0.006271029 0.0008240155 -0.0052385037 -0.021260103 0.011280037 -0.009890183
-0.02958054 0.012665734 -0.04488937 -0.035515767 0.028519934 -0.028545177 0.0127285 0.009453665
-0.02658998 0.0074784476 0.035960108 0.024179742 0.01773396 0.013390949 0.008171139 -0.0074924687
0.012698036 0.003326012 -0.01990378 0.018450305 0.0049786964 -0.0034923784 0.016523747 0.030102171
0.0052367123 -0.03191193 0.010417543 -0.013783989 -0.008780741 0.010634773 0.017012363 0.021692572
-0.013592205 0.008951479 -0.007929422 0.0069022407 -0.00018810097 -0.031230835 -0.04407306 0.0014435463
0.0052519194 -0.010357076 0.01754991 0.025641898 -0.0103535075 0.026355932 -0.03600399 -0.04446819
0.021832792 -0.014264386 -0.0146253025 -0.019129772 0.0001523611 0.024586314 0.013909547 -0.014506345
0.012346921 -0.0028629587 0.013513338 -0.011706499 0.008901452 0.021230675 0.048690114 -0.024190316
-0.0072355736 0.018457524 0.023474235 -0.011285999 0.0063391333 0.017401954 -0.016016122 0.0028020889
0.022158796 -0.01787117 0.012527078 -0.0078798095 0.014350955 0.022108749 -0.007606816 0.017573941
-0.029701386 -0.00090547005 0.047840744 -0.003062098 -0.0030657605 0.010884503 -0.015225448 0.0031971359
-0.00882684 -0.0035790114 -0.0035856566 0.025310135 0.039068807 -0.0058027343 0.007840948 0.034873236
-0.020758096 -0.00634441 -0.0100278845 0.008099999 -0.02629523 0.041850463 -0.016771657 0.015877834
0.013095933 0.008743615 -0.02423515 -0.03883071 -0.0013536261 0.027629869 -0.0069572446 0.015682062
0.012036356 -0.013590991 -0.013905622 -0.028565595 -0.015203954 0.019389806 0.012940137 -0.006149807
0.03653115 -0.035355467 -0.011318198 0.006234271 -0.022999061 0.031248167 -0.0042743403 0.008336315
-0.019045284 0.016369794 -0.016131494 -0.04227393 0.013016881 0.009959441 0.037325595 0.020086354
-0.0073871175 -0.0033317904 0.030253472 -0.03434064 0.0376489 0.016555248 0.026984084 -0.0079044625
0.032630574 -0.018031003 0.017075023 0.019431757 -0.03408416 -0.01873377 -0.0052709416 -0.0052624196
0.036518805 0.008874454 0.040160537 0.06936228 0.015373061 0.017241802 0.060052887 0.011211087
-0.0032453076 -0.025437541 0.006044027 0.009145769 0.025233166 -0.025348052 0.006976794 -0.013508694
0.0089530265 0.00863444 -0.01939555 0.026838444 0.01750666 0.03409839 -0.0132651925 0.012656668
0.0032403984 -0.026686572 0.0045245886 0.020647649 0.013350716 -0.0064838533 -0.029259888 0.0029873725
00000000: fd62 51bc 93b5 18b9 9846 48bc 789d d13c
00000010: fc16 b43c 18d2 383b faae 213c 64a1 623b
00000020: 4416 babc 9373 953c d123 a4bc 69cc c13c
00000030: 25e1 cbbc 0546 07bd cdaf cdbc 4a7f 203c
00000040: 354b 1eba fa19 8fbc a5de b0ba 1e0d 433b
00000050: ca5a 6d3d c50e 9b3b a6c7 f13c 7e46 0c3d
00000060: dada 763c 435c be3c 9f11 5dbb 1ed3 b13c
00000070: 3336 b33b 9e4b 65bc 1ac3 86bb 2fc9 013c
00000080: 40d6 3f3a d26e b1bc 20dc ae3b e316 edbb
00000090: 6478 ecbb 170a 9abc abe2 bdbc ce9a f53c
000000a0: 11d9 12bd 51ff cc3b ed87 e7bc 892c 123d
000000b0: ef4f cd3c eb51 c7bc 37f1 e5bb e56d 4cbd
000000c0: f13f 643c a617 eb3c 4178 02bb 1224 a33b
000000d0: 84ae a7bc f2c0 10bc 475f f0ba 00cd a43c
000000e0: 5dc0 1a3e a4d9 d5bc 3098 163d 6a16 683d
000000f0: 8d96 f53c cc92 cb39 0fb0 22bc 90f4 563a
00000100: 1d3c d2bc 0b01 a93c 347d cd3b be02 583a
00000110: c1a7 abbb ab29 aebc e8cf 383c 6f0a 22bc
00000120: e352 f2bc f083 4f3c ebdd 37bd fb78 11bd
00000130: a3a2 e93c 93d7 e9bc 338b 503c 8ce3 1a3c
00000140: 3bd3 d9bc c40d f53b e84a 133d 9814 c63c
00000150: cf46 913c b665 5b3c 3ee0 053c 6283 f5bb
00000160: 6c0b 503c 39f9 593b 410d a3bc 1825 973c
00000170: 5524 a33b 63e0 64bb cf5c 873c d498 f63c
00000180: ba98 ab3b 15b6 02bd 58ae 2a3c 3dd6 61bc
00000190: 19dd 0fbc 793d 2e3c 835d 8b3c 9fb4 b13c
000001a0: d7b1 5ebc 39a9 123c 68ea 01bc 312c e23b
000001b0: f83c 45b9 cfd7 ffbc f485 34bd 6035 bd3a
000001c0: 4b18 ac3b bab0 29bc d4c4 8f3c f50e d23c
000001d0: c2a1 29bc 65e8 d73c eb78 13bd 4724 36bd
000001e0: afda b23c 2cb5 69bc f79e 6fbc 0ab6 9cbc
000001f0: 1fc3 1f39 3d69 c93c dee4 633c 05ac 6dbc
00000200: bd4a 4a3c 7aa0 3bbb 0c67 5d3c 9ecc 3fbc
00000210: 65d7 113c f4eb ad3c 496f 473d c52a c6bc
00000220: 6418 edbb 3c34 973c 0a4d c03c e9e8 38bc
00000230: 81b8 cf3b 8b8e 8e3c 3e34 83bc 40a3 373b
00000240: 5d86 b53c 8f66 92bc 603e 4d3c 511a 01bc
00000250: 4520 6b3c 681d b53c 9942 f9bb 3af7 8f3c
00000260: 5250 f3bc 115d 6dba a8f4 433d 7bad 48bb
00000270: edea 48bb ea54 323c 2874 79bc 0a87 513b
00000280: 739e 10bc d98d 6abb 56fd 6abb 3357 cf3c
00000290: 9d06 203d dd24 bebb 5277 003c 3dd7 0e3d
000002a0: e20c aabc c5e4 cfbb ff4b 24bc dcb5 043c
000002b0: 1869 d7bc 646b 2b3d b764 89bc 3b12 823c
000002c0: 5390 563c 6141 0f3c cb88 c6bc f30c 1fbd
000002d0: 286c b1ba 0958 e23c 99f9 e3bb ab77 803c
000002e0: 2334 453c bfac 5ebc 68d4 63bc 6502 eabc
000002f0: 011a 79bc 5fd7 9e3c de02 543c 5284 c9bb
00000300: b0a1 153d e5d0 10bd f76f 39bc db48 cc3b
00000310: 8768 bcbc 28fc ff3c c40f 8cbb 0a95 083c
00000320: db04 9cbc f219 863c 3226 84bc 6e27 2dbd
00000330: c244 553c ec2c 233c b9e2 183d 238c a43c
00000340: a20f f2bb 2b5a 5abb 21d6 f73c c5a8 0cbd
00000350: bc35 1a3d df9e 873c ba0d dd3c b881 01bc
00000360: a3a7 053d c1b5 93bc ebe0 8b3c 592f 9f3c
00000370: d59b 0bbd 9077 99bc ddb7 acbb 6070 acbb
00000380: be94 153d 2866 113c 607f 243d d00d 8e3d
00000390: 4bdf 7b3c ae3e 8d3c 04fa 753d b5ae 373c
000003a0: 3aaf 54bb 6462 d0bc f90c c63b 23d8 153c
000003b0: c9b5 ce3c b8a6 cfbc 979d e43b 9253 5dbc
000003c0: b7af 123c 7777 0d3c 6be3 9ebc 4cdc db3c
000003d0: 216a 8f3c c1aa 0b3d 4056 59bc ea5d 4f3c
000003e0: dd5c 543b cc9d dabc 0043 943b 4225 a93c
000003f0: f6bc 5a3c 8176 d4bb 6fb2 efbc cbc7 433b
