FAST 3D-CNN P-NET/model/KSC/KC_proto_3d-5shotallband-64output.pth (torch, 906105 bytes, 28 tensors)

layer1.0.weight f4 [8, 1, 7, 3, 3]
0	0x3bafb431	0.0053620567
1	0x3dac8bb4	0.08425084
2	0x3dcf0be5	0.101096906
3	0xbdc7aa89	-0.09749324
4	0x3d583841	0.052788023
5	0x3de89491	0.11356462
6	0xbc9339d3	-0.017971909
7	0xbd9b44ea	-0.07581504
8	0xbded79bd	-0.11595485
9	0xbd70f5e0	-0.058828235
10	0x3ca71216	0.020394366
11	0x3c799525	0.015233313
12	0x3d861dfa	0.06548686
13	0x3d85db51	0.06535972
14	0xbcb891e3	-0.022530502
15	0xbcb993fb	-0.02265357
16	0x3e0ba87e	0.13638493
17	0x3d47ce73	0.04878087
18	0xbdbf3594	-0.09336391
19	0xbd90f567	-0.07078057
20	0x3df9afbd	0.121917225
21	0xbd801fb7	-0.06256049
22	0x3c7867c6	0.01516146
23	0x3dc4e0f0	0.09613216
24	0xbd0c16a1	-0.034201268
25	0x3da2409b	0.07922479
26	0x3e111373	0.14167576
27	0xbda68ea5	-0.08132676
28	0x3c9cf5b2	0.019160125
29	0xbc9b6cb1	-0.018972727
30	0x3debeba3	0.115195535
31	0x3d8c313a	0.06845327
32	0x3da36be6	0.07979564
33	0x3dec16e4	0.115278035
34	0x3e0c3358	0.13691461
35	0xbca0e993	-0.019642627
36	0xbb96e9ed	-0.004605523
37	0xbbbaea2f	-0.0057041864
38	0xbe083074	-0.13299733
39	0xbd9c733f	-0.07639169
40	0x3d404c46	0.04694774
41	0x3d666a31	0.056253616
42	0xbc92be8e	-0.01791313
43	0x3d7c3301	0.06157208
44	0xbdd41c32	-0.1035694
45	0xbd9033b1	-0.07041109
46	0x3da2df24	0.07952717
47	0xbe0213de	-0.12702891
48	0x3bc5bf65	0.006034779
49	0x3d1ce8cb	0.038307946
50	0x3d9b2e36	0.075771734
51	0x3be8119b	0.007082177
52	0x3cfc5032	0.030799959
53	0x3da939a2	0.08262946
54	0x3d928699	0.07154579
55	0x3bbd54ab	0.0057779155
56	0x3da3a5c7	0.07990604
57	0xbcf71633	-0.030161953
58	0xbe072f80	-0.13201714
59	0xbd343811	-0.04399878
60	0x3dffa024	0.12481716
61	0x3c5774ab	0.013150374
62	0xbcd30530	-0.02575931
63	0xbd6416ed	-0.055685926
64	0x3d93ed73	0.07223024
65	0xbd7033de	-0.058643214
66	0x3d347fac	0.04406707
67	0xbd0954cf	-0.033528145
68	0x3c3f1fd1	0.0116653005
69	0xbd7dea60	-0.061991096
70	0x3da315ba	0.079631284
71	0x3c90c1fb	0.017670622
72	0x3de37adf	0.1110742
73	0x3d985a66	0.07439117
74	0xbdaadbc1	-0.08342696
75	0x3b9aeeba	0.0047281655
76	0x3d688bf6	0.056774102
77	0xbdfb12ad	-0.122594215
78	0x3dcf69da	0.101276115
79	0xbdde496a	-0.10853846
80	0x3dbdf335	0.09274904
81	0x3caaebdc	0.02086442
82	0xbdd52d43	-0.104090236
83	0xbda18af3	-0.078878306
84	0xbddb9ad9	-0.10722894
85	0x3c56c088	0.013107426
86	0x3dbdc5bf	0.09266233
87	0x3ddf2f21	0.10897661
88	0x3da5ae25	0.08089856
89	0x3dadaf5c	0.08480713
90	0x3ce8a1be	0.028397437
91	0xbdb73a66	-0.089466855
92	0x3d08951a	0.03334532
93	0x3c32b43e	0.010907231
94	0xbd43b947	-0.047784116
95	0x3ca5a9ae	0.020222511
96	0xbcd6c2da	-0.02621596
97	0x3d939331	0.07205809
98	0x3de670f1	0.112520106
99	0x3c91bb94	0.01778964
100	0xbda2658c	-0.07929525
101	0xbd87519f	-0.06607365
102	0x3b722b8b	0.0036952223
103	0xbde98f53	-0.1140429
104	0x3cbbb6dd	0.022914344
105	0x3d2d7705	0.042349834
106	0xbd68cabc	-0.056833968
107	0xbde299c0	-0.11064482
108	0x3d1828dc	0.03714834
109	0x3db2cf19	0.08730907
110	0x3de40ada	0.11134882
111	0xbd952176	-0.07281773
112	0x3dd696cc	0.10477981
113	0x3c994792	0.018710885
114	0x3bed5a10	0.0072434023
115	0x3dd8ed73	0.10592165
116	0x3dda5771	0.106612094
117	0xbdcc055b	-0.09961959
118	0xbd251c5a	-0.04031024
119	0xbd8c2628	-0.06843215
120	0xbca2fd6c	-0.019896232
121	0xbc53ee2c	-0.012935203
122	0xbdd301a5	-0.10303048
123	0xbda50d14	-0.08059135
124	0xbcd61aea	-0.02613588
125	0xbd131384	-0.035907283
126	0x3c9acde2	0.018897
127	0xbde18a9e	-0.11012767
128	0x3d8da996	0.069171116
129	0x3dbba5e9	0.09162504
130	0xbdfb4b50	-0.12270224
131	0xbd268412	-0.040653296
132	0x3cbd2e3a	0.023093332
133	0x3d237de4	0.03991498
134	0xbd1fa192	-0.038972445
135	0xbbd11d78	-0.006381687
136	0xbda71fd0	-0.08160365
137	0x3d85f48c	0.06540784
138	0xbddb8cab	-0.1072019
139	0x3dc222e0	0.09479308
140	0x3d2331e3	0.039842498
141	0x3dca346e	0.098732814
142	0xbdb0118f	-0.08597099
143	0xbd16bd89	-0.03680185
144	0xbdc5908c	-0.09646711
145	0x3d87c549	0.06629426
146	0xbda19eee	-0.078916416
147	0xbddd891c	-0.10817167
148	0x3cbe2105	0.023209104
149	0x3ccc5fba	0.02494799
150	0x3d225bb2	0.03963823
151	0xbd549e7c	-0.051908955
152	0xbd9353b5	-0.071937
153	0x3d5f6c0f	0.054546412
154	0x3dee2ed1	0.11630023
155	0x3d95a052	0.07305969
156	0x3df10ead	0.11770377
157	0xbb8164fc	-0.003948806
158	0x3d32f056	0.043686233
159	0x3c9ff449	0.019525664
160	0xbd8fa8d1	-0.07014621
161	0x3d80f99d	0.0629761
162	0x3c875844	0.01652158
163	0x3d89652a	0.06708749
164	0xbda48e80	-0.08034992
165	0xbd0131c2	-0.031541593
166	0x3c8bfd12	0.017088447
167	0x3d858294	0.065190464
168	0x3d847868	0.06468278
169	0xbdb9dc07	-0.0907517
170	0x3d30f513	0.04320247
171	0x3d026cf6	0.031842194
172	0x3d4e6781	0.050391678
173	0xbdb4de0d	-0.08831415
174	0x3d218a6c	0.03943865
175	0x3dd69b68	0.1047886
176	0x3d1791e9	0.037004385
177	0xbc983cf8	-0.01858376
178	0xbde079b0	-0.1096071
179	0xbd97577d	-0.07389734
180	0x3deb9546	0.11503081
181	0xbd169cea	-0.03677074
182	0xbb5ce87c	-0.0033707907
183	0x3dad6720	0.08466935
184	0xbdd58399	-0.10425491
185	0x3da153bb	0.078772984
186	0x3dd7d4e9	0.10538656
187	0xbc7392a6	-0.014866507
188	0x3cc81e00	0.024428368
189	0x3acb03f8	0.0015488854
190	0x3de3cbb8	0.11122841
191	0x3d6f868e	0.05847793
192	0xbde66e6e	-0.112515315
193	0x3cf1221d	0.029435212
194	0x3dd2aa94	0.102864414
195	0xbb13861d	-0.0022510358
196	0xbd36d17b	-0.04463337
197	0x3c594c4b	0.013262819
198	0xbd916ed4	-0.07101217
199	0xbdf029c7	-0.117267184
200	0x3d9fd085	0.07803444
201	0x3cf07ae8	0.029355481
202	0xbd1381a4	-0.036012307
203	0x3dbf857c	0.09351632
204	0xbdf5ea5b	-0.120075904
205	0xbded9ff5	-0.11602775
206	0x3dbff5e4	0.09373072
207	0x3d748ff3	0.059707593
208	0x3dc47879	0.09593291
209	0x3d8ce313	0.068792485
210	0x3dbc9fbd	0.09210155
211	0xbd3f4e94	-0.046705797
212	0x3d91d24f	0.07120191
213	0x3df272d2	0.118383065
214	0xbb20184a	-0.002442854
215	0xbd0b2ff8	-0.033981293
216	0xbdb6dd85	-0.0892897
217	0xbdcc270b	-0.09968384
218	0xbb078316	-0.0020677499
219	0x3d29e1db	0.04147516
220	0x3c8b3aa7	0.016995741
221	0x3cf15408	0.029459015
222	0xbcd861b6	-0.02641378
223	0xbd772be7	-0.060344603
224	0xbcfd0aad	-0.03088888
225	0x3dc9c3f2	0.09851827
226	0x3d7694bf	0.06020045
227	0x3dcca5c0	0.09992552
228	0x3c45592f	0.012045189
229	0xbd5e8113	-0.054322314
230	0xbd8bb280	-0.068211555
231	0x3dba345a	0.090920165
232	0x3dcd85c6	0.10035281
233	0xbd8ba509	-0.06818587
234	0x3c633653	0.013867932
235	0xbc1aff15	-0.00946023
236	0xbdaa4f45	-0.08315901
237	0xbdb1f816	-0.08689897
238	0x3d3a1cff	0.04543781
239	0xbd960f48	-0.073271334
240	0x3d80dd1b	0.062921725
241	0x3dc85a82	0.09782888
242	0x3db56551	0.08857215
243	0x3d71cfa1	0.0590359
244	0xbdc21783	-0.09477141
245	0xb98e5aae	-0.00027151912
246	0xbdb6bb14	-0.08922401
247	0x3d37ccb6	0.044872962
248	0xbdb19375	-0.08670703
249	0x3a829f2f	0.0009965653
250	0x3d2e9b70	0.042628706
251	0xbbcb846b	-0.006210854
252	0x3d356750	0.04428798
253	0x3c9c8d2f	0.01911029
254	0xbd4bc125	-0.049744744
255	0xbdfe1aeb	-0.12407478

layer1.0.bias f4 [8]
0	0x3d7261d8	0.059175342
1	0xbcd62a4a	-0.026143212
2	0xbddb192b	-0.1069816
3	0x3dc71be1	0.09722114
4	0xbdd64192	-0.10461725
5	0x3c37397c	0.011183139
6	0xbdb56c1c	-0.08858511
7	0x3e0025d3	0.12514429

layer1.2.weight f4 [8]
0	0x3f7dbd66	0.99117124
1	0x3f7f4913	0.9972088
2	0x3f8124a2	1.0089304
3	0x3f7bf659	0.9842277
4	0x3f812b81	1.0091401
5	0x3f7fb871	0.9989081
6	0x3f80f853	1.0075783
7	0x3f7f3cc1	0.9970208

layer1.2.bias f4 [8]
0	0x3bc0d7d0	0.005885102
1	0x3c86bff4	0.016448952
2	0xbc06e413	-0.008233088
3	0xbcaed084	-0.021339662
4	0xbbf91317	-0.0076011526
5	0xbc59a9fd	-0.013285157
6	0x3d337e74	0.043821767
7	0x3c63b139	0.013897234

layer1.2.running_mean f4 [8]
0	0x3deb1697	0.11478918
1	0x3b9be032	0.004756951
2	0x3b4e52fe	0.0031482573
3	0x3df1ebab	0.11812528
4	0x3ca88186	0.020569574
5	0x3ce9e94c	0.028553627
6	0x39153764	0.00014230382
7	0x3e19a2b9	0.1500348

layer1.2.running_var f4 [8]
0	0x3c04e8a0	0.008112103
1	0x39efff37	0.00045775782
2	0x395219db	0.00020036793
3	0x3ade9a6d	0.0016983278
4	0x3b45a747	0.003015952
5	0x3adc1694	0.0016791397
6	0x36a1ac35	4.8182214e-06
7	0x3b26f3c6	0.002547489

layer2.0.weight f4 [16, 8, 7, 3, 3]
0	0x3b1084f4	0.0022051902
1	0x3ba3f65a	0.0050037326
2	0x3c681f35	0.014167597
3	0x3a6d498b	0.0009051791
4	0x3ab9c1ec	0.0014172173
5	0xbcaac074	-0.020843722
6	0x3cae515b	0.021279028
7	0xbcc875b7	-0.024470193
8	0x3d45f607	0.048330333
9	0x3ce4865c	0.027896099
10	0x3c4236f9	0.011853927
11	0xbbee1b1b	-0.007266415
12	0xbd153bf9	-0.036434148
13	0xbcae332a	-0.021264631
14	0xbc7698a9	-0.015051045
15	0x3d40ae28	0.04704109
16	0x3d125ccc	0.03573303
17	0xbd00368d	-0.031302024
18	0x3abf5618	0.0014597801
19	0x3a7d338b	0.00096588646
20	0xbc81a593	-0.015826022
21	0xbc014e20	-0.007892162
22	0x3d2f4cf4	0.042797998
23	0xbcd6ff45	-0.026244769
24	0x3d199f0c	0.037505195
25	0xbce90251	-0.028443487
26	0x3d217fe8	0.03942862
27	0x3d2da308	0.042391807
28	0xbc08ec32	-0.008357095
29	0xbcc2d674	-0.0237839
30	0xbbcdf3df	-0.006285175
31	0x3d092a78	0.033487767
32	0x3b14bd30	0.0022695772
33	0xbb680f7f	-0.0035409627
34	0x3cc2f2fa	0.0237975
35	0x3ce7857f	0.028261898
36	0x3cc3402d	0.023834312
37	0xbd1ed380	-0.03877592
38	0x3d21d316	0.039507948
39	0x3c4ce999	0.012506866
40	0xbc4a8d8f	-0.012362852
41	0x3c210013	0.009826678
42	0x3ca0a24d	0.019608641
43	0xbc84a92e	-0.016193952
44	0x3d5e37dd	0.054252494
45	0xbbecddf4	-0.0072286073
46	0x3cd039f5	0.025418261
47	0xbace8161	-0.0015755111
48	0xbcfcfdbd	-0.03088271
49	0x3d0e28d2	0.034706898
50	0xbbfd4579	-0.007729229
51	0xbc8c7e86	-0.017150175
52	0x3ce019e2	0.027356092
53	0x3d2a5ee8	0.041594416
54	0xbcf48b68	-0.02985163
55	0xbd2d0ce7	-0.042248633
56	0x3d0b3eda	0.033995487
57	0xbb831cfb	-0.0040012575
58	0xbcf10e23	-0.029425686
59	0xbc046ae4	-0.008082125
60	0xbd0a3593	-0.0337425
61	0x3d29a746	0.04141929
62	0x3c4ac15a	0.0123752
63	0x3d1f7198	0.03892669
64	0x3d5a9f03	0.0533743
65	0x3caee961	0.021351518
66	0x3cdbf984	0.026852377
67	0x3d24bb03	0.04021741
68	0x3cc04177	0.023468716
69	0x3d25546e	0.04036372
70	0x3bbbea5e	0.005734726
71	0xbce292d8	-0.027657911
72	0xbcb04d3b	-0.021521201
73	0x3d17d620	0.03706944
74	0xbd138b3c	-0.036021456
75	0xbcd0595b	-0.025433233
76	0x3c2bcf69	0.010486462
77	0x3c836112	0.016037498
78	0xbc2b957a	-0.01047265
79	0xbbcd45e4	-0.006264435
80	0xb9bd78d2	-0.00036138907
81	0xbcc9eca1	-0.024648966
82	0x3cff3a50	0.031155735
83	0xbd392523	-0.045201432
84	0x3ca23453	0.01980034
85	0xbca951bb	-0.020668855
86	0x3c8b34de	0.016992982
87	0x3cce6f27	0.025199486
88	0x3cff5181	0.031166794
89	0x3d029992	0.031884737
90	0x3d36cb5f	0.044627544
91	0xbc630e3f	-0.013858377
92	0xbd19ddce	-0.037565045
93	0xbc5a1d91	-0.013312713
94	0xbd1063de	-0.03525149
95	0xbd158704	-0.036505714
96	0xbcd0fc1d	-0.025510842
97	0xbd1fd176	-0.039018117
98	0xbd116601	-0.03549767
99	0x3d647b2f	0.05578154
100	0x3c888147	0.016663207
101	0xbca07faa	-0.019592125
102	0x3cc4b0fd	0.024010176
103	0x3be5df41	0.0070151393
104	0x3cc15a62	0.023602668
105	0x3d311247	0.04323032
106	0xbc4de951	-0.012567834
107	0x3c6f1f93	0.01459493
108	0x3bd39efb	0.006458161
109	0x3c6855bc	0.014180597
110	0x3d2894c1	0.041157488
111	0xbc7ad4bb	-0.015309508
112	0x3cedb7bd	0.029018277
113	0x39e1f5ea	0.00043098564
114	0xb96fefbc	-0.00022882124
115	0xbd240be0	-0.040050387
116	0xbc50f608	-0.012753971
117	0x3d0deac8	0.034647733
118	0xba4c7f6d	-0.00078009703
119	0xbd28fc09	-0.041255984
120	0xbc92bc3c	-0.017912023
121	0x3d015d34	0.031583026
122	0xbd4aaf16	-0.04948338
123	0xbd2a77fb	-0.04161833
124	0xbd4a0457	-0.049320545
125	0xbcc75ec0	-0.024337173
126	0x3af76a60	0.0018876307
127	0xbd152939	-0.036416266
128	0x3d28247c	0.04105042
129	0xbcad7c73	-0.021177506
130	0xbca5c5e0	-0.020235956
131	0x3c6c5182	0.01442373
132	0x3cddb6ed	0.027064765
133	0x3d2e910a	0.04261879
134	0x3cf83a2c	0.030301176
135	0xbd471129	-0.04860035
136	0xbd01c3c2	-0.03168083
137	0x3d310abc	0.043223128
138	0xbcade8b6	-0.02122913
139	0x3d0655b5	0.03279658
140	0xbd05ddd1	-0.032682244
141	0xbc5657bb	-0.01308244
142	0x3bd8c0f0	0.006614797
143	0x3c34f84d	0.011045528
144	0x3c571ae0	0.013128966
145	0x3c195b1f	0.009360104
146	0xbd2ba0aa	-0.041901268
147	0x3d4a3029	0.049362335
148	0x3d025785	0.031821746
149	0xbd3244ef	-0.04352277
150	0xbd0e489c	-0.034737214
151	0x3cd47a4d	0.025937224
152	0xbcd8ed21	-0.02648026
153	0xbc9fb0d1	-0.019493492
154	0xbc88fd6d	-0.016722405
155	0xbc5bd03c	-0.013416346
156	0xbc458445	-0.012055461
157	0xbc84932d	-0.01618346
158	0xbd1f1e47	-0.038847234
159	0xbcc515c4	-0.02405823
160	0x3cbc31c2	0.022972945
161	0x3b0a757b	0.0021127153
162	0xbd21c014	-0.03948982
163	0x3d208e0e	0.039197974
164	0xbac990e3	-0.0015378263
165	0xbd037b09	-0.032099757
166	0x3cc23e5c	0.023711376
167	0xbcb3c833	-0.021946048
168	0x3b31d4ca	0.0027134889
169	0x3d2bcee2	0.041945346
170	0xbb941d4d	-0.0045200945
171	0xbccd53fd	-0.025064463
172	0xb98f180b	-0.00027293
173	0x3cd4554a	0.025919575
174	0x3cb636d4	0.022242941
175	0xbc46d918	-0.01213672
176	0xbc6fa7e6	-0.014627432
177	0xbd306f89	-0.04307512
178	0xbbe6e231	-0.007046007
179	0x3cf2cfea	0.029640157
180	0x3cb81bc1	0.022474172
181	0xbb8def92	-0.0043315375
182	0x3d6f28c1	0.058388475
183	0xbb0ffcfe	-0.0021970863
184	0xbb33c849	-0.0027432612
185	0xbb026a46	-0.001989977
186	0x3d047d35	0.03234597
187	0xbcc7d1e5	-0.024392078
188	0x3ca74fef	0.020423857
189	0x3cbc2297	0.022965712
190	0x3baa5d82	0.0051991353
191	0x3ba6db27	0.005092043
192	0xbd320399	-0.043460462
193	0x3c0abd11	0.0084679285
194	0x3ca223ea	0.019792516
195	0x3d1fab9d	0.038982023
196	0x3cf3d066	0.029762458
197	0x3d2f5308	0.042803794
198	0xbc7196f6	-0.014745465
199	0x3d2b06c0	0.041754484
200	0x3b940d58	0.0045181923
201	0x3d3c8c16	0.046032034
202	0x3ca967fb	0.020679465
203	0x3d386516	0.045018278
204	0xbbff867d	-0.0077980147
205	0x3c9a73b0	0.018853992
206	0x3d39633b	0.04526065
207	0x3b962b80	0.0045828223
208	0x3d507e3e	0.050901644
209	0x3d6c76d2	0.057730503
210	0x3cc4d90f	0.024029283
211	0xbd24bbc4	-0.04021813
212	0x3ccb9685	0.024852047
213	0xbb14ceda	-0.00227063
214	0xbd0f85dd	-0.03503977
215	0xbcd7d2ce	-0.026345637
216	0x3d2b270a	0.041785277
217	0xbb852f22	-0.0040644566
218	0xbc87a6ae	-0.016558971
219	0x3c4feb91	0.012690441
220	0xbc76cd45	-0.0150635885
221	0x3cbf7409	0.02337076
222	0xbc79ae80	-0.015239358
223	0xbc809f55	-0.015700975
224	0xbb65a0ad	-0.0035038397
225	0x3aef4ee8	0.0018257769
226	0x3cc46b60	0.023976982
227	0x3c73e161	0.0148852775
228	0x3cdab4a9	0.026697474
229	0x3c6ef711	0.014585272
230	0x3d4695cb	0.048482697
231	0xbc69d50e	-0.014271988
232	0xbb49aa08	-0.0030771513
233	0x3d0d795e	0.034539573
234	0xbc782eb3	-0.015147853
235	0xbcafd210	-0.02146247
236	0x3c4a08f8	0.01233124
237	0x3cfb7f5b	0.030700376
238	0xbbadb59c	-0.0053011905
239	0xbd1607b1	-0.03662843
240	0xbce36163	-0.027756399
241	0xbb2021fb	-0.0024434316
242	0x3cbb3e16	0.022856753
243	0x3d33af8b	0.043868583
244	0xbcb62575	-0.022234658
245	0x3d1b29a4	0.03788151
246	0x3b2e1992	0.0026565534
247	0x3aaad8b2	0.0013034551
248	0xbacb130c	-0.0015493347
249	0x3ca19a38	0.019726858
250	0xbcbb1536	-0.022837263
251	0x3d610633	0.054937553
252	0x3bcb6727	0.006207365
253	0xbcafc019	-0.021453904
254	0x3d48f33a	0.049060084
255	0xbd1b6e04	-0.037946716

layer2.0.bias f4 [16]
0	0xbd2b9fcd	-0.041900445
1	0xbd415a5b	-0.04720531
2	0x3bbc3838	0.0057440065
3	0xbd889ac5	-0.06670145
4	0xbb8f3a71	-0.0043709804
5	0xbb46334e	-0.0030242982
6	0xbd7ecb19	-0.062205408
7	0xbd5dc8d0	-0.054146588
8	0xbcb44202	-0.022004131
9	0xbd3da353	-0.046298336
10	0xbc84580e	-0.016155269
11	0x3c367c84	0.011138085
12	0xbd54f7e9	-0.051994238
13	0x3b016f43	0.0019750155
14	0x3c1f9dfb	0.009742255
15	0x3cf5b54f	0.029993681

layer2.2.weight f4 [16]
0	0x3f7f25ec	0.9966724
1	0x3f8060f5	1.0029589
2	0x3f808583	1.0040745
3	0x3f80e9ad	1.0071312
4	0x3f8032e4	1.001553
5	0x3f813977	1.0095662
6	0x3f7f56a7	0.99741596
7	0x3f81750b	1.0113844
8	0x3f7fd2e9	0.999312
9	0x3f7fe1b9	0.999538
10	0x3f7c2a80	0.9850235
11	0x3f7e4c2d	0.99334985
12	0x3f7e0a91	0.99234873
13	0x3f7dc206	0.9912418
14	0x3f801c6b	1.0008672
15	0x3f7f8ace	0.99821174

layer2.2.bias f4 [16]
0	0xbd2f2986	-0.04276421
1	0x3b2d95b6	0.002648694
2	0x3d0affd8	0.033935398
3	0xbc9d6e5b	-0.01921766
4	0x3d1dee2b	0.038557213
5	0x3c87f3a6	0.016595673
6	0x3d88fa2e	0.06688343
7	0x3c904efb	0.017615786
8	0x3dc3bf3b	0.09557959
9	0xbc7272d1	-0.014797882
10	0x3d202c0b	0.039104503
11	0x3cf60671	0.030032368
12	0x3d90edf5	0.07076637
13	0xbc791966	-0.015203809
14	0x3c1055e5	0.008809541
15	0x3d5d6b18	0.05405721

layer2.2.running_mean f4 [16]
0	0x3eb70242	0.3574391
1	0x3ea74fc9	0.3267806
2	0x3eec2e84	0.4612924
3	0x3e36ced2	0.17852333
4	0x3dc6e27a	0.09711166
5	0x3e557e7a	0.20849028
6	0x3d012d36	0.031537257
7	0x3dbc9b25	0.09209279
8	0x3d02094b	0.031747144
9	0x3df22f4f	0.1182543
10	0x3ed6d908	0.41962457
11	0x3e092154	0.1339162
12	0x3dc0e5c6	0.09418826
13	0x3f0f3bf9	0.55950886
14	0x3e6e37d9	0.23263492
15	0x3e360053	0.17773561

layer2.2.running_var f4 [16]
0	0x3f44425f	0.76663774
1	0x3d885053	0.06655946
2	0x3e1073bc	0.14106649
3	0x3e930093	0.28711376
4	0x3d21f9df	0.039544936
5	0x3e8965b8	0.26835418
6	0x3cce4bbe	0.025182601
7	0x3d5bcc64	0.05366172
8	0x3cbae0c5	0.022812257
9	0x3ddb0973	0.10695162
10	0x3da71d49	0.081598826
11	0x3e4e3d26	0.20140514
12	0x3d6374e7	0.05553141
13	0x3fd3ad26	1.6537216
14	0x3e57e22c	0.21082371
15	0x3d014ad6	0.03156551

layer3.0.weight f4 [32, 16, 7, 3, 3]
0	0xbc623650	-0.013806894
1	0xbca90683	-0.020632988
2	0x3cbbdbd0	0.022931963
3	0x3af850c0	0.0018944964
4	0xbce59ddb	-0.028029373
5	0x3cab82ba	0.020936359
6	0xbc635aa2	-0.013876589
7	0x3ba78256	0.005111973
8	0xbbeed81b	-0.0072889454
9	0xbd02b102	-0.03190709
10	0xbcbf6b4c	-0.023366593
11	0xbd0a61b6	-0.03378459
12	0x3c9806ee	0.018557992
13	0xbcfc5cd4	-0.030805983
14	0x3cb747c5	0.02237309
15	0x3cc71761	0.02430314
16	0xba8debb1	-0.0010827688
17	0x3c6b05a9	0.014344611
18	0x3c94d1b9	0.01816641
19	0xbb26ddd9	-0.0025461821
20	0xbc851f70	-0.016250342
21	0x3cd0399f	0.0254181
22	0x3baa2ea3	0.005193548
23	0x3c3754a5	0.011189614
24	0x3cfd35b3	0.030909395
25	0xbc9d7891	-0.01922253
26	0x3cd23429	0.025659638
27	0x3ce75c16	0.028242152
28	0xbb8e2e05	-0.004338982
29	0x3c97ea9a	0.018544484
30	0x3c629cd2	0.013831334
31	0x3c9b0982	0.018925432
32	0x3c52aa41	0.0128579745
33	0xbbd1b208	-0.006399397
34	0xbc00668d	-0.00783695
35	0x3ce4aca1	0.027914347
36	0x3cb35b79	0.021894203
37	0x3c5342ce	0.012894345
38	0xbcd28227	-0.025696827
39	0x3c95ab43	0.01827014
40	0xbcc29614	-0.023753203
41	0x3b6d93cd	0.0036251426
42	0x3c74da9d	0.0149447
43	0xbca3eb85	-0.020009765
44	0x3b789305	0.0037929427
45	0xbcfa277a	-0.030536402
46	0x3cf5ede9	0.030020671
47	0x3cd613cd	0.026132489
48	0x3ac36ffa	0.0014910691
49	0xbc8bd1e0	-0.01706785
50	0x3c731b5e	0.014838068
51	0xbcafd4ed	-0.021463836
52	0x3b25ceac	0.0025300188
53	0x3c698ace	0.014254285
54	0x3cb903ba	0.022584785
55	0x3c11a8a1	0.008890302
56	0x3c965f96	0.018356126
57	0x3aed2723	0.0018093329
58	0x3b4a69bf	0.0030885783
59	0x3ca7e1c1	0.02049339
60	0xbc767e09	-0.015044698
61	0xbc325921	-0.010885508
62	0x3cc9b2eb	0.024621448
63	0x3babf447	0.005247626
64	0xbce2bd1f	-0.02767807
65	0xbc8290b8	-0.015938148
66	0xbc4465be	-0.011987148
67	0x3ca81851	0.020519407
68	0x3c80de4c	0.015731
69	0x3b18a99a	0.002329445
70	0x3b3519c6	0.002763377
71	0x3cae4e71	0.021277638
72	0x3c0c42a1	0.008560807
73	0xbc3a8f6a	-0.011386732
74	0x3bfeb72a	0.0077732997
75	0x3941c1bb	0.00018478085
76	0xbaf2ef80	-0.0018534511
77	0x3ba647e0	0.005074486
78	0x3c37f4c3	0.011227789
79	0x3c91916c	0.017769538
80	0xbcc21368	-0.023690894
81	0xbd2c0c65	-0.042004008
82	0xbb6fb92f	-0.0036578884
83	0xbcb76e38	-0.022391424
84	0xbb31b568	-0.0027116183
85	0xbc6629dd	-0.014048067
86	0x3c3b4609	0.011430272
87	0xbc7ef8d4	-0.015562255
88	0xbb1d36d2	-0.0023988974
89	0xbc0cc2f1	-0.0085913995
90	0x3c0cf93b	0.008604343
91	0x3cdce3da	0.026964117
92	0x3c111d37	0.008857063
93	0xbc3d7794	-0.011564154
94	0xbbf1c3c7	-0.007378075
95	0x3d0322fe	0.032015793
96	0x3c868a6d	0.016423428
97	0xbc00b20a	-0.007854948
98	0x3c16ec95	0.009211679
99	0xbcfbfb77	-0.030759556
100	0x3caefbe5	0.021360347
101	0xbc9abc8a	-0.01888873
102	0xbce6bd68	-0.028166488
103	0x3aa1b8a2	0.001233835
104	0xbce06336	-0.027391057
105	0xbb2ef0ba	-0.0026693777
106	0xbc6c6d44	-0.014430348
107	0xbc79a7c9	-0.015237757
108	0x3ca3947c	0.019968264
109	0xbcad7071	-0.02117178
110	0xbcae66a7	-0.021289183
111	0x3ccb31db	0.024804046
112	0x3ca38fdd	0.01996606
113	0xbc957d7f	-0.018248318
114	0xbc3ee7da	-0.011651957
115	0x3b8cd1c6	0.004297468
116	0xbc82540f	-0.015909223
117	0xbcdabf3e	-0.02670252
118	0x3c7c36f4	0.015393961
119	0xbc27acac	-0.010234039
120	0xbd0e8f2d	-0.03480451
121	0xbc95b44a	-0.018274445
122	0xbb0ff15f	-0.0021963937
123	0xbcb402ea	-0.021974046
124	0x3a6d2a7e	0.00090471643
125	0xbc91761a	-0.01775651
126	0x3c381a01	0.011236669
127	0xbbe47f9d	-0.0069732205
128	0xbc8472cc	-0.01616802
129	0xbd07fa57	-0.033197727
130	0xbc0a691d	-0.0084479125
131	0xbd20838d	-0.039187957
132	0xbb5c1ffe	-0.0033588405
133	0xbc74d803	-0.014944079
134	0xbb32c3ff	-0.0027277467
135	0xbb004494	-0.0019572126
136	0x3c8cb34b	0.017175337
137	0x3cc0c82a	0.023532946
138	0x3bbdde2b	0.0057943068
139	0x3cb28c0f	0.0217953
140	0x3c63a1ae	0.013893528
141	0xbc1af44f	-0.009457662
142	0xbcd28c7d	-0.025701756
143	0xbcaeb779	-0.021327721
144	0xbcd01d31	-0.025404545
145	0x3be794ae	0.0070672845
146	0x3d17c1b3	0.03704996
147	0x3be61a55	0.007022182
148	0x3ccd566b	0.025065621
149	0x3b74396c	0.0037265671
150	0x3cb37fae	0.021911468
151	0x3cf66e03	0.030081755
152	0x3c943939	0.018093692
153	0x3c4fb698	0.012677811
154	0xbb6a52f1	-0.0035755003
155	0x3b169976	0.0022979653
156	0xbaf68745	-0.0018808624
157	0xbb191bc0	-0.0023362488
158	0x38ec99b3	0.00011281986
159	0xbc2ab13a	-0.010418231
160	0xbc87fbf9	-0.016599642
161	0x3b8772ae	0.004133544
162	0xbc72411a	-0.014786029
163	0x3cf8e8a8	0.030384377
164	0x3c45389b	0.012037422
165	0x3c85604a	0.016281266
166	0x3c66b019	0.014080071
167	0xbcf3f314	-0.029778995
168	0xbc7f5861	-0.015585036
169	0x3cff87bf	0.031192658
170	0x3c42b415	0.011883755
171	0x3ce78565	0.02826185
172	0x3cfc532f	0.030801384
173	0x3c06629c	0.008202221
174	0x3cd3a42e	0.025835123
175	0xbaf5b1e0	-0.0018745027
176	0xbc4ec972	-0.0126212705
177	0x3afff5a1	0.0019528159
178	0xbaa2c5e5	-0.0012418596
179	0x3d0db731	0.034598533
180	0xbc5a1f8d	-0.013313186
181	0x3c981cd5	0.018568436
182	0xbc84be06	-0.016203891
183	0x3cd3ce42	0.025855187
184	0xbb3a7782	-0.002845258
185	0x3ba426eb	0.005009522
186	0x3ccf9263	0.025338357
187	0x3b26116c	0.0025339974
188	0xbc92bca5	-0.017912218
189	0x3b965f04	0.0045889635
190	0x3ce75390	0.028238088
191	0xbce682f3	-0.028138613
192	0x3c2b5397	0.010456941
193	0xbc885089	-0.016639965
194	0xbcdd0537	-0.026980026
195	0xbc8e6f9a	-0.0173872
196	0xba8e7875	-0.0010869639
197	0xbcb495bb	-0.022044053
198	0x3ced51ae	0.028969612
199	0x3b731489	0.0037091097
200	0x3c38047f	0.011231541
201	0x3d34ce37	0.044141974
202	0x3d0b925f	0.034075137
203	0xbc82b3d2	-0.015954886
204	0x3cf035c4	0.029322512
205	0x3cc5782a	0.02410515
206	0xbd003eb9	-0.031309817
207	0xbb20ba5f	-0.0024525148
208	0x3cb48e7e	0.022040602
209	0x3cb8ae49	0.022544043
210	0x3c2197a7	0.009862817
211	0x3c08ee87	0.008357651
212	0xbbd25422	-0.006418721
213	0x3c2b07df	0.010438888
214	0x3cb66d98	0.022269055
215	0xbc63e806	-0.013910299
216	0x3c18ef8c	0.009334456
217	0xbc743db2	-0.014907287
218	0xbc6e74f9	-0.014554256
219	0xbd2aefdd	-0.041732658
220	0xbca0c9d5	-0.019627491
221	0xbd063f21	-0.03277505
222	0xbca15e01	-0.019698145
223	0x3c0e4edf	0.0086857965
224	0xbac4223f	-0.0014963819
225	0xbcb3584d	-0.021892691
226	0x3cdb599e	0.026776131
227	0xbc4d4168	-0.012527801
228	0xbc9e09e9	-0.019291835
229	0xbc9d443b	-0.019197574
230	0x3cfc6cf0	0.030813664
231	0xbc0abace	-0.008467389
232	0x3b27d8c9	0.0025611392
233	0x3d0e9390	0.034808695
234	0x3cdf0026	0.02722175
235	0x3cf849d1	0.030308636
236	0x3cfa627c	0.03056454
237	0xbc097800	-0.008390427
238	0xbc88fd67	-0.016722394
239	0x3cd4dfa1	0.02598554
240	0x3b1aa5eb	0.002359743
241	0x3caf7bb9	0.0214213
242	0x3c31ffe7	0.0108642345
243	0x3cd4bd3a	0.025969137
244	0x3c70f4ce	0.0147068035
245	0x3b024785	0.0019879055
246	0x3c820969	0.015873628
247	0x3cf8e0e6	0.030380677
248	0x3cee53f5	0.029092768
249	0x3d2bcc15	0.041942675
250	0x3d2b5e91	0.041838232
251	0x3d19a527	0.037511017
252	0xbc563db6	-0.0130762365
253	0xbbbb1960	-0.005709812
254	0x3c6cffc5	0.014465277
255	0xbcade9e3	-0.02122969

layer3.0.bias f4 [32]
0	0xbcf35e3e	-0.029708024
1	0xbbb20c24	-0.005433576
2	0xbd3ee4b3	-0.046604823
3	0xbd1e1219	-0.038591478
4	0xbc500144	-0.012695614
5	0xbc959105	-0.018257627
6	0xbb823f2b	-0.0039748154
7	0xbda62c19	-0.0811388
8	0xbc6157d7	-0.013753853
9	0x3bbc3d1c	0.0057445895
10	0xbd3a741d	-0.04552089
11	0xbcd62096	-0.026138585
12	0xbd38e268	-0.045137793
13	0xbd1f84d3	-0.03894503
14	0xbc8efe0a	-0.01745512
15	0xbd2f1387	-0.042743232
16	0xbc3a61df	-0.011375873
17	0xbd52b85b	-0.051445346
18	0xbcfbc575	-0.030733803
19	0xbd83aab5	-0.06429044
20	0xbd4bbb5c	-0.049739227
21	0xbd32cee3	-0.043654334
22	0xbc6f0da7	-0.014590657
23	0xbd0a3abb	-0.033747416
24	0x3c1910ab	0.009342353
25	0x3be2bc99	0.0069194552
26	0x3d0a01fa	0.03369329
27	0xbd9817ec	-0.07426438
28	0xbcad7d0f	-0.021177797
29	0x3cf65ec6	0.030074488
30	0xbd640c82	-0.05567599
31	0x3d45598c	0.0481811

layer3.2.weight f4 [32]
0	0x3f7f808a	0.9980551
1	0x3f7c9900	0.9867096
2	0x3f7fb8cd	0.9989136
3	0x3f8281cb	1.019586
4	0x3f7a4c3a	0.9777256
5	0x3f7a4b5a	0.9777123
6	0x3f812e68	1.0092287
7	0x3f7f38ee	0.9969624
8	0x3f7c5d1d	0.9857958
9	0x3f7869c4	0.97036386
10	0x3f7df9e5	0.99209434
11	0x3f8560fe	1.0420225
12	0x3f805d97	1.0028561
13	0x3f83ad0a	1.0287182
14	0x3f7f46bc	0.9971731
15	0x3f832087	1.0244302
16	0x3f7bb896	0.9832853
17	0x3f81eb3c	1.0149913
18	0x3f7d3d69	0.9892183
19	0x3f85ac4b	1.0443205
20	0x3f7cda3b	0.98770493
21	0x3f7babae	0.9830884
22	0x3f7f9d46	0.99849355
23	0x3f808549	1.0040675
24	0x3f7b15a2	0.98079884
25	0x3f806a96	1.0032527
26	0x3f78a7a7	0.9713082
27	0x3f842bbd	1.0325848
28	0x3f81cf22	1.0141337
29	0x3f794777	0.9737467
30	0x3f7f9197	0.9983153
31	0x3f7b2369	0.98100907

layer3.2.bias f4 [32]
0	0xbb74edf4	-0.0037373276
1	0xbb68acb1	-0.0035503323
2	0x3cb15f63	0.02165193
3	0x3cba9c7d	0.022779698
4	0x3aac0a37	0.0013125603
5	0x3ccf8672	0.025332663
6	0x3c29a14a	0.010353396
7	0x3ba074c3	0.0048967316
8	0x3cbbaa45	0.02290834
9	0x3bcbd684	0.0062206406
10	0x3c6cdbe7	0.014456726
11	0x3cb3b869	0.02193852
12	0xbbf9ccf5	-0.0076233097
13	0x3c1c0247	0.009522027
14	0x3cbe7597	0.02324943
15	0x3ca4c599	0.020113753
16	0x3ce0f2e4	0.02745957
17	0x3d26b8a2	0.040703423
18	0x3c8b6c65	0.01701946
19	0x3c092ecf	0.008372976
20	0xbbffaf44	-0.0078028757
21	0x3d4aabdf	0.049480315
22	0x3ce7c58d	0.028292442
23	0xbcc24750	-0.023715645
24	0x3d115fad	0.035491634
25	0x3d045817	0.03231057
26	0xba8dadbd	-0.0010809224
27	0x3ca6de05	0.020369539
28	0xbbbc8ba7	-0.0057539525
29	0xbcce636f	-0.025193898
30	0x3d5f8a6b	0.054575365
31	0xbc2f1493	-0.010686058

layer3.2.running_mean f4 [32]
0	0x3ea14066	0.31494445
1	0x3f8e2eb3	1.1108001
2	0x3e98495f	0.29743478
3	0x3d92ea30	0.07173574
4	0x3f067351	0.5251971
5	0x3f148e1f	0.5802936
6	0x3e5e6629	0.21718659
7	0x3e039db5	0.12853129
8	0x3e35db8f	0.17759536
9	0x3f6ebdce	0.9325837
10	0x3e642d8a	0.22282997
11	0x3dea48ac	0.11439642
12	0x3e251d3c	0.16124433
13	0x3d8b7371	0.06809128
14	0x3ec0c0fb	0.37647232
15	0x3dd74c9e	0.105126604
16	0x3e06a50a	0.13148895
17	0x3e0f92cd	0.14020844
18	0x3e4b7075	0.19867118
19	0x3d735bb6	0.059413634
20	0x3ea1cb7a	0.31600553
21	0x3e8f73e3	0.28018102
22	0x3e851564	0.25992882
23	0x3e70b1f2	0.23505381
24	0x3eee327b	0.4652289
25	0x3e9b773a	0.303644
26	0x3fbc952d	1.4733025
27	0x3da96089	0.08270366
28	0x3eaa3f13	0.33251247
29	0x3f6c1532	0.9221984
30	0x3e3c24ac	0.18373364
31	0x3f8cf814	1.1013207

layer3.2.running_var f4 [32]
0	0x3e95bc75	0.29245344
1	0x3f7d5465	0.989569
2	0x3ea4c0e2	0.32178408
3	0x3d01d88d	0.03170066
4	0x3f5448a0	0.82923317
5	0x3f153ad9	0.5829292
6	0x3e2a3f9e	0.1662583
7	0x3dc0f682	0.09422018
8	0x3e1e652d	0.15468283
9	0x3f18ccac	0.59687304
10	0x3eb2897a	0.3487051
11	0x3da3b645	0.079937495
12	0x3e0772e1	0.13227417
13	0x3d5f54ee	0.054524355
14	0x3f043c29	0.516543
15	0x3d7badd1	0.06144506
16	0x3dd2192e	0.10258709
17	0x3def3fc3	0.116820835
18	0x3e486f54	0.19573718
19	0x3cd5f96e	0.026119914
20	0x3f46e45e	0.7769221
21	0x3db9b258	0.090672195
22	0x3e601106	0.21881494
23	0x3e5bac2e	0.214524
24	0x3f23ef00	0.6403656
25	0x3e9dbd45	0.30808464
26	0x3ff41703	1.9069523
27	0x3d406ab8	0.046976775
28	0x3ea4ecd9	0.3221195
29	0x3f09f893	0.5389492
30	0x3e884693	0.26616344
31	0x3f629608	0.8851018

layer4.0.weight f4 [64, 32, 7, 3, 3]
0	0x3b95d1e6	0.004572141
1	0xba56f785	-0.00082003354
2	0x3c9bcbf6	0.019018155
3	0x3ca43963	0.020046895
4	0x3bf3055f	0.007416412
5	0xbc08368a	-0.008313784
6	0xbc04e1bf	-0.008110463
7	0x3c11aa7c	0.008890744
8	0xbc67f8fd	-0.0141584845
9	0x3ce35f02	0.027755264
10	0x3c2d2c59	0.010569655
11	0x3ca896e2	0.020579759
12	0x3a78c151	0.00094892556
13	0x3cd96054	0.02653519
14	0x3bdbc3c2	0.0067066858
15	0x3c16b551	0.009198503
16	0xbc5e9a61	-0.0135866115
17	0x3c5127ce	0.012765838
18	0x3c581e7a	0.01319086
19	0xbacc3539	-0.0015579826
20	0xba1e8d83	-0.00060483086
21	0x3c866b41	0.016408565
22	0xbcaccc22	-0.021093432
23	0x3c78bbec	0.015181523
24	0x3c0dd8ea	0.008657673
25	0xbc8c2374	-0.01710675
26	0x39b5af3a	0.00034653564
27	0x3ba2f0da	0.0049725594
28	0x3caa540f	0.020792035
29	0x3b07c6d8	0.0020717885
30	0x3ca1fca4	0.019773789
31	0xbbe28c4f	-0.0069136987
32	0xbc85a6a9	-0.016314821
33	0x3cef8230	0.029236883
34	0x3c9f4df0	0.019446343
35	0x3cba549a	0.02274542
36	0x3d09b302	0.03361798
37	0x3d01faae	0.031733207
38	0x3c3e8aaa	0.01162974
39	0x3cc692bd	0.024239892
40	0xbc2d3fa1	-0.010574252
41	0x3c0a7847	0.008451528
42	0xbb94e155	-0.0045434632
43	0x3c8cd89a	0.017193127
44	0x3c64fc14	0.013976116
45	0xbd081242	-0.033220537
46	0xbcd6b810	-0.026210815
47	0xbc0ba98f	-0.008524313
48	0xbc986fab	-0.018607935
49	0xbcbfd602	-0.023417477
50	0x3bc7db15	0.0060991147
51	0xbcc5a219	-0.024125146
52	0xbca2cb94	-0.019872464
53	0xbcc14a0f	-0.023594884
54	0x3b90bf43	0.0044173314
55	0x398a8f1b	0.00026428033
56	0x3d0b3ead	0.03399532
57	0x3c47c703	0.012193444
58	0x3b4c86c7	0.0031208263
59	0x3b436252	0.0029813242
60	0xbb49159b	-0.0030683044
61	0x3cb82a97	0.022481246
62	0x3ce1ac54	0.027547993
63	0xbc37b1f9	-0.011211866
64	0x3cf37a75	0.029721478
65	0x3c407c1d	0.011748341
66	0x3c07d79f	0.008291154
67	0x3a6b14e2	0.00089676504
68	0x3b49c783	0.0030789084
69	0x3b62a7ee	0.0034584957
70	0x3ca072d3	0.019586002
71	0xbc5b747f	-0.013394474
72	0x3c87df7b	0.016586056
73	0xbc419d2a	-0.011817256
74	0x3c1c4994	0.009539027
75	0x3bda3ffb	0.006660459
76	0x3cb60d77	0.022223217
77	0x3c933a2c	0.017972074
78	0xbc92e01b	-0.017929127
79	0x3c6e29bb	0.0145363165
80	0xbca7136e	-0.020395007
81	0x3c1d3244	0.009594504
82	0x3c00af8f	0.007854356
83	0x3bd3d724	0.0064648557
84	0x3c8e503c	0.017372243
85	0x3c2fa361	0.010720105
86	0x3c4ecf49	0.012622663
87	0xbc7d8362	-0.015473219
88	0x3c88e939	0.016712772
89	0x3c4a26a3	0.012338313
90	0x3c182ef7	0.009288541
91	0x3c9c24fa	0.0190606
92	0xbc2d8539	-0.010590845
93	0x3c563c2f	0.013075872
94	0xbbf50a83	-0.0074780597
95	0x3b9a056f	0.0047003548
96	0xbaba6dfd	-0.0014223453
97	0x3a8614ec	0.0010229624
98	0x3c4bed78	0.012446754
99	0xbc856665	-0.016284177
100	0x3c680965	0.014162396
101	0x3c2b9966	0.010473585
102	0x3c6ad04c	0.014331888
103	0xbc550d3d	-0.0130036445
104	0xbb45b66f	-0.0030168553
105	0x3c1dcf14	0.009631891
106	0xbb563e7b	-0.003269105
107	0xbc586a1d	-0.013208893
108	0xbbaf6b9b	-0.0053534037
109	0x3bd870a2	0.0066052238
110	0xbc8ae482	-0.016954664
111	0xbbc71fa2	-0.006076769
112	0x3c9e06b7	0.019290311
113	0x3ca1cb97	0.0197504
114	0xbc93cdcc	-0.018042468
115	0x3b169b4a	0.0022980743
116	0xbc68df48	-0.014213391
117	0x3c1f7cad	0.009734315
118	0x3ac6bb5b	0.0015162037
119	0x3b59bcaf	0.0033224036
120	0xb9b13f59	-0.00033807268
121	0xbc959daa	-0.018263657
122	0xbc4ccd69	-0.0125001455
123	0xbca1905e	-0.01972216
124	0xbbfbf583	-0.0076891794
125	0xbb40600e	-0.0029354128
126	0xbc3005b4	-0.010743547
127	0x3c9be0b3	0.019028043
128	0xbbce76cc	-0.006300783
129	0xbb806a0e	-0.0039188927
130	0xb95c4691	-0.00021007123
131	0xbc842fc5	-0.01613606
132	0x3c4ac7ce	0.012376739
133	0xbc2134b2	-0.009839224
134	0x3c845635	0.016154388
135	0x3bb7aa2d	0.0056050033
136	0xbc042b45	-0.008066957
137	0xbbef4736	-0.00730219
138	0x3c323181	0.01087606
139	0xbc502e39	-0.012706333
140	0x3c0e30ee	0.008678658
141	0x3b8dbc98	0.0043254606
142	0xb87d6e8a	-6.0422848e-05
143	0xbb903b37	-0.00440159
144	0xbac0ef13	-0.0014719687
145	0xba8d9115	-0.0010800684
146	0xbae17b0a	-0.0017202806
147	0x3ce27269	0.027642446
148	0x3c5d8b83	0.013522032
149	0xbcdecbcf	-0.027196793
150	0x3cbc6118	0.022995517
151	0xbc850abc	-0.01624047
152	0xbc251aab	-0.010077159
153	0xbba052e6	-0.0048926948
154	0x3c1b3aea	0.009474495
155	0xbd03aeb9	-0.03214905
156	0x3cb4eb1d	0.022084767
157	0x3c430151	0.011902169
158	0xbc1f080b	-0.009706507
159	0xbb53dd08	-0.003232779
160	0x3ca5fad4	0.020261206
161	0x3c82ef02	0.015983108
162	0xbca53cff	-0.020170687
163	0xbbb8dac0	-0.0056413114
164	0xbcfe4dc4	-0.03104294
165	0x3bfae6d2	0.0076569105
166	0xbc8e6d4f	-0.017386107
167	0xbccca9ea	-0.024983365
168	0xbc1fd78c	-0.00975598
169	0x3b853fe2	0.0040664533
170	0x3c0287ee	0.0079669785
171	0xbc8bc8f4	-0.017063595
172	0xbd0b4ee8	-0.034010798
173	0xbc839866	-0.01606388
174	0xbc6b8185	-0.014374142
175	0x39c2ad47	0.00037131665
176	0x3c88b424	0.01668746
177	0x3ccccf5f	0.025001226
178	0xbb9ab70d	-0.0047215284
179	0x3c070837	0.008241705
180	0x3c1ce1a3	0.00957528
181	0xbb8e4818	-0.0043420903
182	0x3cf0a7ad	0.029376829
183	0x3ca73903	0.020412927
184	0x3beaf4af	0.007170282
185	0xbb6a57a1	-0.0035757797
186	0x3c855a2c	0.016278349
187	0x3c81fa9e	0.015866574
188	0x3bd4bf97	0.006492566
189	0x3b99c529	0.004692693
190	0x3b0b98f4	0.0021300884
191	0x3a489314	0.0007651311
192	0x3c4bf3a0	0.012448221
193	0x3b24ced6	0.0025147698
194	0xb89e86c3	-7.5591284e-05
195	0xbc9e304a	-0.019310135
196	0xbc4b2ade	-0.012400357
197	0xbb2a7054	-0.0026006894
198	0x3b4356df	0.0029806418
199	0x3bb10620	0.0054023415
200	0x3bf2142e	0.0073876595
201	0xbc439cfd	-0.011939284
202	0xbae51312	-0.0017476997
203	0x3a6fabc9	0.00091427244
204	0x3c5de4bf	0.013543307
205	0xbaab85e1	-0.0013086164
206	0xbc5e4448	-0.013566084
207	0xbc5c8b12	-0.013460891
208	0xbbe2fcb0	-0.0069270954
209	0xbcda402a	-0.026641924
210	0xbc302051	-0.010749892
211	0x3b5c3f1d	0.0033606954
212	0xbcd4e338	-0.025987253
213	0xbd332f5d	-0.04374634
214	0xbd537d0e	-0.051632933
215	0xbd0f153a	-0.034932353
216	0xbc3056af	-0.0107628545
217	0x3cdf8857	0.027286692
218	0x3ba67065	0.0050793164
219	0xbd02efa1	-0.03196681
220	0x3c8d99f7	0.01728533
221	0x3c25b78c	0.010114562
222	0xbcec655e	-0.02885693
223	0xbd22537d	-0.039630402
224	0xbcf5417f	-0.029938458
225	0xbd0a056e	-0.033696584
226	0xbd135178	-0.035966367
227	0xbca45e48	-0.020064488
228	0xbcaa57fb	-0.020793905
229	0xbc6d8579	-0.014497154
230	0xbc4fe5f9	-0.012689107
231	0xbd3b4a07	-0.045724895
232	0xbd207882	-0.039177425
233	0xbd0388c8	-0.032112867
234	0x3ba9a308	0.0051769055
235	0xbc868de0	-0.016425073
236	0xba6146d5	-0.00085936236
237	0x3c4e5844	0.012594286
238	0xbc4ea1a8	-0.012611784
239	0x3c922b99	0.017843055
240	0x3a2b0bb3	0.00065248756
241	0xbc9520e9	-0.01820417
242	0xbc80eff0	-0.015739411
243	0xbcc1204a	-0.023574967
244	0xbb1a42cf	-0.0023538356
245	0xbb0722da	-0.0020620138
246	0xbc0f53f3	-0.008748042
247	0x3b15ce32	0.0022858498
248	0xbbe0103f	-0.006837874
249	0xbcd22d72	-0.025656436
250	0x3c22351b	0.009900357
251	0xbc27a662	-0.01023254
252	0x3c56442c	0.013077777
253	0xbc23ca0a	-0.0099969
254	0x3bc7b3f5	0.0060944506
255	0xbc0f1af5	-0.008734454

layer4.0.bias f4 [64]
0	0x3c177efa	0.009246582
1	0xba9ac1a2	-0.0011806975
2	0xbcf46910	-0.029835254
3	0x3c0a0e08	0.008426197
4	0x39cb4127	0.0003876772
5	0xb9ff4732	-0.00048690435
6	0xbb8addd6	-0.0042378707
7	0xbcd9433d	-0.02652132
8	0xbcc9ae0e	-0.024619129
9	0xbcd2b522	-0.025721136
10	0xbbdd2b93	-0.006749579
11	0xbcb17013	-0.021659886
12	0xbca74ebb	-0.020423284
13	0x3ca33a02	0.019925121
14	0xbc5f53c7	-0.013630814
15	0xbcbe0a2e	-0.023198213
16	0xbc4e8241	-0.012604297
17	0xbcf176fc	-0.029475681
18	0xbc80014a	-0.015625615
19	0xbcdcc2b4	-0.02694831
20	0xbd1ac2ed	-0.037783552
21	0xbc9af19a	-0.018914033
22	0xbc71bdc8	-0.01475472
23	0xbc924b8f	-0.017858295
24	0xbc108a94	-0.008822102
25	0xbc68d199	-0.014210128
26	0x3be9024c	0.0071108695
27	0xbb7f5e6c	-0.0038966192
28	0x3ba6cb49	0.0050901514
29	0xbd1efa65	-0.038813014
30	0x3becf469	0.0072312844
31	0xbc3a8852	-0.01138504
32	0x3c25454f	0.010087325
33	0xbd0e31cc	-0.03471546
34	0xbcecb673	-0.028895592
35	0xbceac057	-0.028656168
36	0xbbc7c280	-0.0060961843
37	0x372a9332	1.0167061e-05
38	0xbbf5fdde	-0.00750707
39	0xbcd95322	-0.026528899
40	0xbd00ac3d	-0.03141426
41	0xbc6b6563	-0.014367434
42	0xbceeb976	-0.029141169
43	0xbcf1ab0d	-0.029500509
44	0xbcb090ca	-0.021553416
45	0x3b41e9e9	0.0029588884
46	0xbc2acdd7	-0.010425053
47	0xbb46bd47	-0.003032522
48	0xbbb7b3e8	-0.0056061633
49	0xbcf33a4f	-0.02969089
50	0xbc97c406	-0.018526088
51	0x3aca887c	0.0015452052
52	0xbb8e386c	-0.004340222
53	0xbc0a6848	-0.008447714
54	0x3a869e60	0.0010270588
55	0x3b12bcbb	0.0022390324
56	0x3cf8e679	0.030383335
57	0xbc71888a	-0.014742026
58	0xbc5537b6	-0.013013771
59	0xbb689ffe	-0.0035495753
60	0xbc763d47	-0.015029258
61	0x3bf8a706	0.00758827
62	0xbd01d851	-0.031700436
63	0xbcf01e8c	-0.02931144

layer4.2.weight f4 [64]
0	0x3fb6e7bd	1.4289471
1	0x3fb505ee	1.4142435
2	0x3fb545e5	1.4161955
3	0x3fb4e9c0	1.4133835
4	0x3fb5a16c	1.4189887
5	0x3fb5ae24	1.4193769
6	0x3fb443e4	1.4083219
7	0x3fb40911	1.4065267
8	0x3fb5bcee	1.4198282
9	0x3fb8a520	1.4425392
10	0x3fb5818b	1.4180158
11	0x3fb50803	1.414307
12	0x3fb5a8e7	1.419217
13	0x3fb5a796	1.4191768
14	0x3fb6bfce	1.4277284
15	0x3fb658e9	1.4245883
16	0x3fb689e6	1.4260833
17	0x3fb6040d	1.4219986
18	0x3fb51a06	1.4148567
19	0x3fb36fac	1.4018455
20	0x3fb3c32f	1.404394
21	0x3fb533bf	1.4156417
22	0x3fb6d038	1.4282293
23	0x3fb5fb76	1.4217365
24	0x3fb6c57e	1.427902
25	0x3fb5ddca	1.420831
26	0x3fb4f68f	1.4137744
27	0x3fb5418f	1.4160632
28	0x3fb5b405	1.4195563
29	0x3fb2817e	1.3945768
30	0x3fb60935	1.422156
31	0x3fb3bca7	1.4041947
32	0x3fb6b7f0	1.4274883
33	0x3fb736c8	1.4313593
34	0x3fb51783	1.41478
35	0x3fb598bb	1.4187235
36	0x3fb59c0e	1.4188249
37	0x3fb46f67	1.4096497
38	0x3fb2fb25	1.3982893
39	0x3fb54be3	1.4163784
40	0x3fb50fad	1.4145409
41	0x3fb52088	1.4150553
42	0x3fb69f8c	1.426744
43	0x3fb1c326	1.388768
44	0x3fb44e1a	1.4086335
45	0x3fb5b863	1.4196895
46	0x3fb6488b	1.4240888
47	0x3fb73ef5	1.4316088
48	0x3fb4e08f	1.413103
49	0x3fb49b77	1.4109944
50	0x3fb33c12	1.4002707
51	0x3fb5642b	1.4171194
52	0x3fb6a510	1.4269123
53	0x3fb2a56a	1.395673
54	0x3fb73cdf	1.4315451
55	0x3fafc5a2	1.3732188
56	0x3fb56904	1.4172673
57	0x3fb43b0f	1.4080523
58	0x3fb1a70d	1.3879105
59	0x3fb5528f	1.416582
60	0x3fb33c8b	1.4002851
61	0x3fb65ed4	1.4247689
62	0x3fb273ca	1.3941586
63	0x3fb656ea	1.4245274

layer4.2.bias f4 [64]
0	0x3523075d	6.0732947e-07
1	0xb9dc6e80	-0.00042044
2	0xb9ce48bc	-0.00039345573
3	0xb9ae59ca	-0.00033254764
4	0xb9d2d515	-0.0004021308
5	0x39055b62	0.00012717911
6	0xb902e14c	-0.00012481696
7	0x397b7940	0.00023982394
8	0xb9d173fc	-0.00039950002
9	0x39dbf090	0.00041950168
10	0xb9b85fb0	-0.00035166508
11	0xb8d7055f	-0.00010252999
12	0x392516ed	0.00015744167
13	0xb99425b6	-0.00028256857
14	0xb8d311c3	-0.000100645724
15	0xb9ff3275	-0.00048674984
16	0x37fd0383	3.0161586e-05
17	0xb8f13b4a	-0.00011502819
18	0xba2b558b	-0.0006535879
19	0x398c24ad	0.00026730206
20	0xb89e1b88	-7.539155e-05
21	0xb98383b1	-0.00025084385
22	0x380ed334	3.4052136e-05
23	0x3986ecc0	0.00025734864
24	0x3953199c	0.00020132068
25	0xb90bd0f4	-0.00013333914
26	0xb96379d3	-0.0002169379
27	0xba0f3454	-0.00054628146
28	0x396ceac6	0.00022594174
29	0xb8f0234e	-0.00011450668
30	0xb81c88e7	-3.73208e-05
31	0x37a243b4	1.9343432e-05
32	0xb9b67f85	-0.00034808755
33	0x38ddb4be	0.00010571767
34	0xb93b3143	-0.00017852061
35	0x38ecdfeb	0.00011295065
36	0xb9935d94	-0.00028107746
37	0xb933334c	-0.0001708988
38	0xb8e49367	-0.00010899343
39	0xb8e1cdca	-0.00010767167
40	0xb773e999	-1.4538317e-05
41	0xb8a2038b	-7.725422e-05
42	0x39e76a40	0.00044138916
43	0xb88ed809	-6.811327e-05
44	0xb975457d	-0.00023390907
45	0xba061bef	-0.0005115857
46	0x3988f796	0.00026124407
47	0x38fba6d4	0.00011999687
48	0x38c7d593	9.528841e-05
49	0x389a893e	7.3688556e-05
50	0xb860b808	-5.3577154e-05
51	0xb9b61659	-0.00034730395
52	0xb90d0016	-0.0001344684
53	0x3842e477	4.646598e-05
54	0xb6c39c89	-5.829676e-06
55	0xb8eb7c7c	-0.0001122886
56	0xb9301e7c	-0.00016796024
57	0xba110b4b	-0.0005532994
58	0xb8e421bd	-0.000108781715
59	0xb98565ba	-0.0002544353
60	0xb77d77ed	-1.51078975e-05
61	0xb9ffb7d8	-0.00048774364
62	0xb98b15e8	-0.00026528467
63	0xb930593a	-0.00016817907

layer4.2.running_mean f4 [64]
0	0x3e6ed9fa	0.23325339
1	0x3ebf425d	0.3735532
2	0x3d9a29e0	0.07527518
3	0x3ea22e7f	0.316761
4	0x3e067718	0.13131368
5	0x3d31d244	0.043413416
6	0x3d150172	0.03637833
7	0x3d613e75	0.054991204
8	0x3d66a3d1	0.05630857
9	0x3c7e4ddc	0.015521493
10	0x3e3e423c	0.18579954
11	0x3d17364c	0.036917016
12	0x3d0f7626	0.035024785
13	0x3f10b8fb	0.5653226
14	0x3e497ab1	0.1967571
15	0x3df5488c	0.11976728
16	0x3e1913cd	0.1494896
17	0x3e046b95	0.12931664
18	0x3e343228	0.17597258
19	0x3d28e201	0.04123116
20	0x3d0f5612	0.034994192
21	0x3e4fc436	0.20289692
22	0x3e1a3f38	0.15063179
23	0x3d2cf841	0.04222894
24	0x3e1e0271	0.15430619
25	0x3dcca0ef	0.09991633
26	0x3e105d7b	0.1409816
27	0x3e2dacdc	0.16960472
28	0x3d33ec95	0.043926794
29	0x3cd7250d	0.026262784
30	0x3d3e5c0a	0.046474494
31	0x3d2f8a11	0.04285628
32	0x3e2f4141	0.17114736
33	0x3e16231a	0.14661828
34	0x3d6ea0f9	0.058258984
35	0x3df24560	0.118296385
36	0x3ddcc155	0.10779063
37	0x3c74d47b	0.014943237
38	0x3d28bb4a	0.041194238
39	0x3cadbd3c	0.021208398
40	0x3cbf2310	0.023332149
41	0x3d741b65	0.059596438
42	0x3d89c1fd	0.067264535
43	0x3d073ca0	0.0330168
44	0x3d338655	0.04382928
45	0x3dd6eec3	0.10494759
46	0x3e1ebe00	0.15502167
47	0x3e3b0055	0.18261845
48	0x3cba19ed	0.02271744
49	0x3d0d0dfc	0.034437165
50	0x3cd63169	0.026146607
51	0x3e330315	0.17481644
52	0x3e10fbc6	0.14158544
53	0x3cd22571	0.02565262
54	0x3e390cd7	0.18071304
55	0x3cc292e5	0.023751685
56	0x3f2894b2	0.6585189
57	0x3ea7332d	0.32656232
58	0x3df36587	0.11884599
59	0x3dd32f3b	0.10311743
60	0x3d12af36	0.035811625
61	0x3e719ef1	0.23595788
62	0x3dcf1329	0.101110764
63	0x3e8fe998	0.28107905

layer4.2.running_var f4 [64]
0	0x3e6859a2	0.22690442
1	0x3e9b69f4	0.30354273
2	0x3d58a677	0.05289313
3	0x3e958662	0.29204088
4	0x3dc54bbe	0.09633587
5	0x3da78a36	0.081806585
6	0x3dcd1416	0.10013597
7	0x3de9ca8a	0.114155844
8	0x3d784a5c	0.06061779
9	0x3c9831ea	0.018578488
10	0x3e6f7a60	0.23386526
11	0x3dd703ce	0.104987726
12	0x3dc194a8	0.09452182
13	0x3ed3fa9b	0.41402134
14	0x3e90d341	0.28286174
15	0x3da6befa	0.08141895
16	0x3e26e670	0.16298842
17	0x3de53a33	0.11192741
18	0x3e55a801	0.2086487
19	0x3d84ac17	0.06478136
20	0x3dc0b528	0.09409553
21	0x3e8640b7	0.26221249
22	0x3e2b3969	0.16721119
23	0x3d8c019b	0.06836244
24	0x3e3228b2	0.17398337
25	0x3dac83e2	0.08423592
26	0x3e19d801	0.15023805
27	0x3e2c3a0d	0.1681902
28	0x3dad45f5	0.08460609
29	0x3d591961	0.05300272
30	0x3d8b4cca	0.06801756
31	0x3d8ef9ee	0.06981264
32	0x3e47fb40	0.19529438
33	0x3e1cd703	0.15316395
34	0x3d81e214	0.06341949
35	0x3e21b083	0.1578999
36	0x3dce061d	0.1005976
37	0x3c8c5b9a	0.017133523
38	0x3d605f36	0.0547783
39	0x3d0dfb17	0.034663286
40	0x3d2c2db5	0.042035777
41	0x3d8853ea	0.0665663
42	0x3e276089	0.16345419
43	0x3d7dfcb1	0.062008563
44	0x3d95723d	0.0729718
45	0x3dc7f3b9	0.09763283
46	0x3e37c728	0.17947066
47	0x3e4d10df	0.20025967
48	0x3d233074	0.03984113
49	0x3d968905	0.07350353
50	0x3d536a10	0.05161482
51	0x3e30a46b	0.1725022
52	0x3e135cc2	0.14390853
53	0x3d4c68a9	0.0499045
54	0x3e3e9495	0.18611367
55	0x3d3256b8	0.043539733
56	0x3f14e855	0.5816701
57	0x3ea3b4f8	0.31974006
58	0x3e088812	0.13333157
59	0x3dbc9f8a	0.09210117
60	0x3d9334dd	0.07187817
61	0x3e7eda2d	0.24887915
62	0x3dea05e1	0.114269026
63	0x3ee5cf4d	0.4488472

fc1.0.weight f4 [32, 1600]
0	0xbbca03d8	-0.006165009
1	0x3c24474e	0.010026766
2	0xbc34f9e7	-0.0110459095
3	0xbc7f4937	-0.015581421
4	0xbc6501b0	-0.013977453
5	0xbc92f7f8	-0.017940506
6	0xbb38e950	-0.0028215237
7	0xbc865fc6	-0.01640309
8	0xbcc9f315	-0.024652043
9	0x3c8d2cbd	0.017233247
10	0x3c9bb3a1	0.019006552
11	0xbcc07a97	-0.023495955
12	0x3af217e0	0.001847025
13	0xbb54b958	-0.0032459106
14	0x3ae4df50	0.0017461572
15	0x3c88f74d	0.016719485
16	0x3bf184ec	0.007370582
17	0x3b8d29f4	0.0043079797
18	0xbc05726a	-0.008144954
19	0x3c4cd832	0.012502717
20	0xbc522d5a	-0.0128281955
21	0x3cb5166d	0.02210542
22	0xbcb8075b	-0.022464445
23	0x3c9bbae1	0.01901001
24	0x3c65b1c2	0.014019432
25	0x3c79c666	0.015245056
26	0xbcb7940b	-0.02240946
27	0xbacbf4a0	-0.0015560575
28	0xbc9c591e	-0.019085463
29	0x3cb23b1f	0.021756707
30	0xbc86fe66	-0.016478729
31	0x3b7e2bc0	0.0038783401
32	0x3c957501	0.018244268
33	0x3c15804a	0.009124825
34	0x3bdb9504	0.0067011137
35	0x3cb26abb	0.021779409
36	0x3c9442d3	0.01809827
37	0x3c1709f6	0.0092186835
38	0x3c87470f	0.016513376
39	0xbc51939d	-0.012791541
40	0xbc35e72d	-0.01110248
41	0x3c46e90e	0.0121405255
42	0x3c7ddbea	0.015494326
43	0xbc3e879a	-0.01162901
44	0x3c78262e	0.0151458215
45	0x3cc9712f	0.024590103
46	0x3c2beb62	0.010493131
47	0xbcbb8e80	-0.022895098
48	0xbcbd9a07	-0.023144735
49	0x3bf3ed34	0.0074440483
50	0x3c704b3e	0.014666377
51	0x3cacd195	0.02109603
52	0x3ccab199	0.024742888
53	0xbb0f0840	-0.0021824986
54	0x3cb1c7f1	0.021701785
55	0x3c262902	0.010141613
56	0xbbd53d0c	-0.0065075215
57	0xbc762213	-0.015022772
58	0x3c9284a3	0.017885512
59	0xbca67e9a	-0.02032404
60	0xbc8a9d4a	-0.016920704
61	0xbc2a5920	-0.010397226
62	0x3ad232d0	0.0016036872
63	0xbafe7e80	-0.0019416362
64	0xbbbcfd14	-0.005767474
65	0x3c3c6de2	0.0115008075
66	0x3c7ca9d2	0.015421348
67	0xbc4331d0	-0.011913732
68	0x3c3c8a0a	0.01150752
69	0xbb83bb78	-0.0040201508
70	0xbc1e3ffd	-0.009658811
71	0xbc9ed640	-0.019389272
72	0xbc93101b	-0.017952016
73	0xbc86f87e	-0.016475912
74	0xbc83ce56	-0.0160896
75	0x3bb28bc8	0.005448792
76	0x3cb277f3	0.021785712
77	0x3c781be2	0.0151433665
78	0xbb6f7370	-0.0036537312
79	0x3ca385cd	0.019961262
80	0xbc2b0310	-0.010437742
81	0x3c4258a6	0.011861956
82	0xbb901540	-0.0043970644
83	0x3c93308d	0.017967487
84	0x3c38ad6a	0.011271814
85	0xbba0200c	-0.004886633
86	0x3c0858d2	0.008321958
87	0x3c3bca32	0.011461781
88	0x3cc002c7	0.023438824
89	0xbc6437a3	-0.01392928
90	0x3c2bdbc2	0.010489406
91	0xbc918933	-0.017765617
92	0xbcc30f08	-0.023810878
93	0x3c549a02	0.012976171
94	0x3c4994e6	0.012303567
95	0xbc8d05f0	-0.017214745
96	0xbb824de0	-0.0039765686
97	0x3b8214ac	0.0039697494
98	0xbbb8246c	-0.005619576
99	0x3bd5006c	0.0065002944
100	0x3cc18d49	0.02362694
101	0x3bd82ee4	0.0065973867
102	0xbc1c1560	-0.009526581
103	0x3cc9c737	0.024631126
104	0x3c463672	0.012097942
105	0xbca4f24d	-0.02013507
106	0x3c0c024a	0.008545468
107	0x3c9df989	0.019284027
108	0xbcc65b6a	-0.024213511
109	0x3c067b2e	0.008208079
110	0xbca100bd	-0.019653672
111	0xbb5bf040	-0.0033559948
112	0xbbf36320	-0.007427588
113	0x3c624faa	0.013812939
114	0x3c83a961	0.016071977
115	0xbcaf3ea5	-0.021392176
116	0xbc184c20	-0.009295493
117	0x3bec5e04	0.007213356
118	0xbbfa828c	-0.007644957
119	0xbc834506	-0.016024124
120	0x3c1b6ade	0.009485928
121	0x3c30a8be	0.010782419
122	0xbc3ae8dd	-0.011408058
123	0xbcb5986b	-0.022167405
124	0xbca1ad9a	-0.0197361
125	0x3bddee44	0.0067727882
126	0xba2dd400	-0.0006631017
127	0xbcc4c5c7	-0.024020089
128	0x3c88a3dd	0.016679699
129	0xbc5d21e3	-0.013496849
130	0x3c8fbfe1	0.01754755
131	0x3b174830	0.0023083799
132	0xbc88c79e	-0.016696747
133	0x3c225272	0.009907352
134	0x3cc108f7	0.023563845
135	0x3b9bcc68	0.0047545917
136	0xbc979f3d	-0.018508548
137	0xbb2f09a8	-0.0026708636
138	0x3cb15ae1	0.02164978
139	0x3c8f6a61	0.01750678
140	0xbcb6cf27	-0.022315575
141	0xba940eb0	-0.0011295881
142	0xbc1aade3	-0.009440872
143	0x3af816e0	0.0018927716
144	0xbb8b0b88	-0.004243318
145	0x3ca726dd	0.020404274
146	0x3c30e436	0.010796597
147	0x3b36a490	0.0027869083
148	0x3b39ca40	0.002834931
149	0xbcabc6bd	-0.02096879
150	0x3cb5c75f	0.022189794
151	0xbca1053a	-0.019655813
152	0x3cbffa07	0.023434652
153	0xbc6797ed	-0.014135343
154	0xbc9404c5	-0.01806868
155	0x3cc401cf	0.023926644
156	0xbc708d73	-0.014682162
157	0xbca93563	-0.02065534
158	0x3ca356f1	0.019938918
159	0xbc3622da	-0.011116708
160	0x3bc9d9d4	0.0061600003
161	0xbab99160	-0.0014157705
162	0xbccb8297	-0.024842544
163	0x3c9b5de5	0.01896567
164	0xbc9de7a2	-0.01927549
165	0xbc439c07	-0.011939055
166	0xbbbd95a0	-0.005785659
167	0xbb8e8418	-0.004349243
168	0xba086ea0	-0.00052044727
169	0x3c077b6e	0.008269174
170	0xbc4ec55a	-0.0126202945
171	0x3c77afb6	0.015117576
172	0xbc264950	-0.010149315
173	0xbc460de7	-0.0120882755
174	0xbc759953	-0.014990169
175	0x3c60f182	0.013729455
176	0x3cc57caf	0.024107305
177	0x3c776b9a	0.015101338
178	0xbb485450	-0.0030567832
179	0x3bf5438c	0.007484859
180	0x3caf171d	0.021373326
181	0xbb75d8f0	-0.0037513338
182	0x3ca97131	0.020683857
183	0x3abfc000	0.0014629364
184	0x3c5584aa	0.013032118
185	0xbc251f47	-0.010078258
186	0xbcac518e	-0.021034982
187	0x3c24bb4e	0.010054423
188	0xbc684b87	-0.014178163
189	0x3ca7f0e1	0.020500602
190	0xbc05d614	-0.008168716
191	0x3b70ddd0	0.0036753304
192	0xbc9dc740	-0.019260049
193	0x3cb1722d	0.021660889
194	0x3cc98343	0.024598723
195	0xbc72ede0	-0.014827222
196	0x3bedc544	0.007256182
197	0x3bee413c	0.00727096
198	0xbca077c6	-0.019588362
199	0xbc94f3f6	-0.018182736
200	0xbbdf8e54	-0.0068223868
201	0x39aad600	0.0003258437
202	0xbc7261ea	-0.014793852
203	0xbcab0dc3	-0.020880586
204	0x3cc577ab	0.024104914
205	0x3c3d2006	0.0115432795
206	0xbbd76394	-0.00657315
207	0xbbcdb934	-0.0062781814
208	0xbcac37ee	-0.021022763
209	0xbc34b9d7	-0.011030636
210	0xbca5f6bd	-0.020259256
211	0xbcb7e025	-0.022445748
212	0x3caef749	0.02135815
213	0x3cc19599	0.023630904
214	0xbae24500	-0.0017262995
215	0xbc44cc73	-0.012011635
216	0x3c1b590e	0.0094816815
217	0xbc35e45d	-0.011101809
218	0x3b475158	0.0030413475
219	0x3cb3eea9	0.021964388
220	0xbc84e95e	-0.01622456
221	0xbca213e2	-0.019784871
222	0x3c4c928e	0.012486113
223	0xbc9acade	-0.018895563
224	0xbc3e3a9d	-0.011610654
225	0xbb545f58	-0.0032405462
226	0x3c841c0f	0.01612666
227	0x3b892288	0.0041850246
228	0x3bc13e6c	0.005897334
229	0xbc5a177d	-0.013311264
230	0x3c1dfe0e	0.009643091
231	0x3af38500	0.0018579066
232	0xbc45ad13	-0.01206519
233	0x3cb67f21	0.022277417
234	0x3c906d15	0.01763014
235	0x3c33f542	0.010983767
236	0xbc816d1c	-0.015799098
237	0xbc6c9950	-0.014440849
238	0x3caae1f1	0.02085969
239	0x3ba52ee0	0.0050409883
240	0x3cbb138b	0.022836467
241	0x3c64240e	0.013924612
242	0x3b4a8d70	0.0030907057
243	0xbca9d793	-0.020732677
244	0xbcbad1da	-0.022805143
245	0x3c9d3e51	0.019194754
246	0x3a5b80c0	0.0008373372
247	0x3c8fba31	0.017544838
248	0xbcb439d0	-0.022000223
249	0x3c1d8572	0.009614335
250	0x3abaeed0	0.0014261845
251	0xbbb0c380	-0.005394399
252	0x3a9533a0	0.0011383183
253	0xbc92e62a	-0.017932016
254	0x3aa650d0	0.0012688879
255	0x3cc78099	0.024353312
