FAST 3D-CNN P-NET/model/KSC/KC_proto_2d-5shotband10.pth (torch, 479921 bytes, 24 tensors)

layer1.0.weight f4 [64, 10, 3, 3]
0.015531909 0.071693525 0.08905023 -0.081641346 0.048199918 0.09754515 -0.021548199 -0.07598991
-0.10037943 -0.042744774 0.021539858 0.024242517 0.045706287 0.067944214 -0.003668965 -0.04972186
0.097629495 0.04081405 -0.07462696 -0.06402703 0.09956913 -0.06466994 0.015731562 0.08868941
-0.06089635 0.041892383 0.1106333 -0.06483894 0.020825965 0.00092972233 0.089542486 0.070736475
0.0879559 0.070296936 0.10044247 -0.013395496 -0.019410748 -0.01773901 -0.120600894 -0.087973855
0.023332706 0.04463145 -0.056638796 0.024648422 -0.11594573 -0.052074984 0.07348561 -0.08791524
0.0035146433 0.043214392 0.086365744 -0.0021809693 0.02010808 0.07961844 0.06789117 -0.00014511593
0.06487779 -0.025761912 -0.11842571 -0.04137511 0.086775295 -0.0118414 -0.03611656 -0.034312066
0.061754987 -0.051688734 0.045089845 -0.027253028 0.0089866975 -0.052733105 0.063035265 0.015557248
0.11420719 0.07729478 -0.05429706 0.012287597 0.07335944 -0.075831465 0.08778771 -0.0886695
0.101953655 0.0052759536 -0.10237588 -0.084865846 -0.108957015 -0.009053593 0.06228051 0.060421575
0.035963237 0.046743058 0.02274401 -0.067980945 0.022408577 0.008037114 -0.03455951 0.0032277112
-0.029141322 0.0533955 0.08033926 0.012706509 -0.06250392 -0.0551436 -0.00050128245 -0.09471723
0.010760131 0.034835946 -0.052795075 -0.10362579 0.034820586 0.08228046 0.09118809 -0.056087572
0.101098955 0.010128225 0.010455542 0.09365816 0.08568996 -0.08244992 -0.02623931 -0.059822757
-0.016179387 -0.007005497 -0.099836506 -0.07026389 -0.023028042 -0.042954843 -0.009807727 -0.10369033
0.053785823 0.051940594 -0.10691744 -0.029349307 0.0011245748 0.018521056 -0.04218378 -0.0024554562
-0.063990705 0.058399703 -0.089335375 0.08226306 0.028573034 0.08376636 -0.07127939 -0.035432797
-0.118387975 0.01891019 -0.107842006 -0.12215349 -0.009716552 -0.021297716 0.008994533 -0.071132764
-0.09572031 0.045068156 0.10109589 0.05998382 0.10147093 0.0019399299 0.03409071 0.015697332
-0.058942724 0.048178267 0.0077851936 0.052549433 -0.0716369 -0.03327794 0.008812786 0.04230799
0.046640426 -0.08420051 0.02341602 0.031469136 0.05821531 -0.04462223 0.036488455 0.103665195
0.06357195 -0.016224537 -0.089037605 -0.044702757 0.073403016 -0.042071827 -0.020462532 0.062155854
-0.079128526 0.04194805 0.0783303 -0.018774116 0.00999427 -0.019641029 0.08209299 0.023406088
-0.10042779 0.03720525 0.05640539 -0.0021968097 -0.0342812 0.002021366 -0.08480765 -0.113157205
0.042283136 0.015476985 -0.02315124 0.050024997 -0.105102815 -0.095729105 0.06766325 0.032475956
0.07510115 0.041043922 0.0737073 -0.027303966 0.037440665 0.10118037 -0.00049731095 -0.02993172
-0.12896703 -0.116128355 -0.0254381 -0.00945473 0.0093746865 0.02779053 -0.06188276 -0.064855404
-0.03437609 0.100365296 0.079028 0.08571086 0.015432025 -0.014258498 -0.04907105 0.08058246
0.104517564 -0.039130565 -0.0037709698 -0.020770477 -0.09290282 -0.084149405 0.050154272 -0.08356312
0.05329946 0.08499034 0.068922184 0.024035413 -0.10723105 -0.030716922 -0.09656403 0.03498112
-0.10827882 -0.012941536 0.027613241 -0.02113602 0.011998059 0.011812796 -0.052294668 -0.099034145
00000000: 8c79 7e3c 0ed4 923d f85f b63d 9433 a7bd
00000010: 476d 453d c0c5 c73d d985 b0bc 99a0 9bbd
00000020: bb93 cdbd 2515 2fbd 5b74 b03c 3e98 c63c
00000030: 8436 3b3d 5626 8b3d 0573 70bb 26a9 4bbd
00000040: f9f1 c73d a22c 273d 05d6 98bd 9a20 83bd
00000050: e6ea cb3d ac71 84bd 7adf 803c cba2 b53d
00000060: 736e 79bd 5997 2b3d b693 e23d 47ca 84bd
00000070: 379b aa3c 9cb8 733a 0d62 b73d 49de 903d
00000080: 3922 b43d d7f7 8f3d c8b4 cd3d c878 5bbc
00000090: 4a03 9fbc 6651 91bc 9afd f6bd a32b b4bd
000000a0: 3b24 bf3c 78cf 363d 15fe 67bd 7deb c93c
000000b0: f474 edbd 944c 55bd a07f 963d e80c b4bd
000000c0: ee55 663b 9301 313d 86e0 b03d 98ee 0ebb
000000d0: b3b9 a43c fe0e a33d 870a 8b3d 432a 18b9
000000e0: a6de 843d a50a d3bc 2e89 f2bd f378 29bd
000000f0: 3fb7 b13d 6e02 42bc f5ee 13bd cf8a 0cbd
00000100: ccf2 7c3d 91b7 53bd 21b0 383d be41 dfbc
00000110: f13c 133c abfe 57bd a218 813d d4e3 7e3c
00000120: 76e5 e93d ba4c 9e3d 9866 5ebd eb51 493c
00000130: 793d 963d 874d 9bbd 0bca b33d 5b98 b5bd
00000140: 14cd d03d e8e1 ac3b 72aa d1bd 25ce adbd
00000150: db24 dfbd 8555 14bc d919 7f3d 9d7c 773d
00000160: 304e 133d a675 3f3d a551 ba3c 9839 8bbd
00000170: 3192 b73c 19ae 033c 468e 0dbd 0288 533b
00000180: c8b9 eebc 3db5 5a3d e988 a43d f62e 503c
00000190: 0e02 80bd 41de 61bd 7f68 03ba 1bfb c1bd
000001a0: 434b 303c 23b0 0e3d a63f 58bd c239 d4bd
000001b0: 08a0 0e3d a882 a83d d2c0 ba3d 15bc 65bd
000001c0: f80c cf3d dbf0 253c b94d 2b3c d9cf bf3d
000001d0: 387e af3d 81db a8bd d2f3 d6bc b508 75bd
000001e0: a28a 84bc 5e8e e5bb 1577 ccbd 84e6 8fbd
000001f0: 4ea5 bcbc 6bf1 2fbd 97b0 20bc 995b d4bd
00000200: 864e 5c3d a9bf 543d 88f7 dabd f56d f0bc
00000210: 7866 933a 78b9 973c e6c8 2cbd b8eb 20bb
00000220: 8f0d 83bd 8734 6f3d 77f5 b6bd 8979 a83d
00000230: ff11 ea3c b38d ab3d eefa 91bd fb21 11bd
00000240: 6575 f2bd 8be9 9a3c 45dc dcbd 9c2b fabd
00000250: 2c32 1fbc 8c78 aebc ce5d 133c 0eae 91bd
00000260: 0309 c4bd 6399 383d 5d0b cf3d 98b1 753d
00000270: fecf cf3d 3f45 fe3a b3a2 0b3d b197 803c
00000280: ed6d 71bd 9356 453d f01a ff3b 133e 573d
00000290: 5eb6 92bd 734e 08bd 8163 103c 254b 2d3d
000002a0: 080a 3f3d 5171 acbd f4d2 bf3c c8e5 003d
000002b0: 2d73 6e3d cdc5 36bd eb74 153d 6b4e d43d
000002c0: 0332 823d 52e9 84bc 5959 b6bd 3d1a 37bd
000002d0: 5254 963d 8253 2cbd 0aa1 a7bc 2397 7e3d
000002e0: 230e a2bd b8d1 2b3d a36b a03d 2dcc 99bc
000002f0: 02bf 233c 39e6 a0bc 5f20 a83d 20be bf3c
00000300: 16ad cdbd 8864 183d 5709 673d 5af8 0fbb
00000310: 726a 0cbd e578 043b a2af adbd f7be e7bd
00000320: 1531 2d3d 2e93 7d3c aba7 bdbc 03e7 4c3d
00000330: 2540 d7bd 9f0d c4bd 0893 8a3d 8205 053d
00000340: a2ce 993d ac1d 283d daf3 963d 91ac dfbc
00000350: 625b 193d a737 cf3d f95d 02ba 5e33 f5bc
00000360: ef0f 04be b4d4 edbd 9063 d0bc 03e8 1abc
00000370: 4998 193c f7a8 e33c c778 7dbd e9d2 84bd
00000380: f1cd 0cbd 528c cd3d 6fd9 a13d 2d89 af3d
00000390: 9bd6 7c3c 7a9c 69bc bafe 48bd 6b08 a53d
000003a0: 4e0d d63d 5f47 20bd 6022 77bb d926 aabc
000003b0: d543 bebd 8656 acbd 916e 4d3d 2423 abbd
000003c0: 8950 5a3d 6a0f ae3d 1327 8d3d eae5 c43c
000003d0: f49b dbbd 0ea2 fbbc 5dc3 c5bd 5d48 0f3d
000003e0: 49c1 ddbd bc08 54bc 2a35 e23c 7225 adbc
000003f0: 8293 443c 758a 413c ef32 56bd 6ad2 cabd

layer1.0.bias f4 [64]
0.90101 0.85640085 0.7838714 0.99649453 0.87451684 0.97101027 0.9596841 0.85960406
1.016179 0.972653 0.89767194 0.9022521 0.91680497 0.78770113 0.98364425 0.88047147
0.940011 0.8572217 0.9706994 0.7804547 0.8164831 0.9622316 0.8714679 0.99842185
0.9786682 0.8596489 0.85781884 0.90815914 0.9274596 0.98786354 0.9284252 0.8331457
0.97887486 0.9793756 0.7802311 0.890262 0.99935853 0.9454771 0.9464809 0.830248
0.8400233 0.95441043 0.9216036 0.89104414 0.84639347 0.9034815 0.7881246 1.0188543
0.9148239 0.92023 0.86799264 0.8439072 1.0151345 0.9666585 0.87455034 0.8060474
0.858516 0.99229664 0.86750865 0.8411802 0.95414656 0.846948 0.84676003 0.99564797
00000000: 97a8 663f 163d 5b3f ccab 483f 441a 7f3f
00000010: 56e0 5f3f 2194 783f dbad 753f 030f 5c3f
00000020: 2712 823f c9ff 783f d4cd 653f fef9 663f
00000030: bbb3 6a3f c8a6 493f 1cd0 7b3f 9466 613f
00000040: 90a4 703f e272 5b3f c27f 783f e1cb 473f
00000050: 0905 513f cf54 763f 8518 5f3f 9398 7f3f
00000060: 008a 7a3f f311 5c3f 049a 5b3f 1e7d 683f
00000070: fe6d 6d3f a0e4 7c3f 46ad 6d3f 0949 553f
00000080: 8b97 7a3f 5cb8 7a3f 3abd 473f 36e8 633f
00000090: f6d5 7f3f ca0a 723f 924c 723f 228b 543f
000000a0: c40b 573f 3e54 743f 37ee 6b3f 781b 643f
000000b0: 3ead 583f 904a 673f 89c2 493f d169 823f
000000c0: e631 6a3f 3194 6b3f c434 5e3f 4d0a 583f
000000d0: edef 813f ee76 773f 88e2 5f3f 1f59 4e3f
000000e0: b4c7 5b3f 2707 7e3f 0c15 5e3f 9657 573f
000000f0: f342 743f 96d1 583f 44c5 583f c9e2 7e3f

layer1.1.weight f4 [64]
0.98381245 1.0067307 0.99788606 0.98748195 0.9917336 0.9883999 0.9983731 0.9989455
0.9881617 0.99615157 0.99578726 0.9803246 0.97462845 1.0013752 0.9928506 0.99597025
0.9912335 0.99100673 0.9899818 0.99173295 0.99408734 0.9908105 0.9998575 1.0079821
1.0055616 0.97756153 0.99397314 1.00371 0.99192035 1.0124916 0.97842366 0.9882497
0.9813633 0.99254835 0.9885711 0.9939548 0.98983395 0.9937153 0.9904022 0.9879553
0.98903203 0.98470664 0.99480873 0.9764547 0.9921681 0.99734443 0.9916738 1.0033439
0.99319863 0.9975186 0.98223406 0.98427594 1.008482 1.001307 0.98797846 0.9953804
1.0028976 0.99439836 0.99766284 0.9849753 0.9987148 0.9898831 0.9930465 0.9881251
00000000: 22db 7b3f 8ddc 803f 7675 7f3f 9ecb 7c3f
00000010: 41e2 7d3f c707 7d3f 6195 7f3f e4ba 7f3f
00000020: 2af8 7c3f ca03 7f3f eaeb 7e3f 8ef6 7a3f
00000030: 4081 793f 102d 803f 752b 7e3f e8f7 7e3f
00000040: 7bc1 7d3f 9eb2 7d3f 726f 7d3f 36e2 7d3f
00000050: 827c 7e3f c2a5 7d3f a9f6 7f3f 8f05 813f
00000060: 3eb6 803f 7941 7a3f 0675 7e3f 9279 803f
00000070: 7eee 7d3f 5399 813f f979 7a3f effd 7c3f
00000080: a03a 7b3f a617 7e3f ff12 7d3f d273 7e3f
00000090: c265 7d3f 2064 7e3f 008b 7d3f a3ea 7c3f
000000a0: 3431 7d3f bc15 7c3f c9ab 7e3f eff8 793f
000000b0: bbfe 7d3f f751 7f3f 56de 7d3f 936d 803f
000000c0: 4442 7e3f 615d 7f3f b173 7b3f 82f9 7b3f
000000d0: f015 813f d42a 803f 28ec 7c3f 40d1 7e3f
000000e0: f35e 803f e490 7e3f d566 7f3f 5727 7c3f
000000f0: c6ab 7f3f fb68 7d3f 4c38 7e3f c4f5 7c3f

layer1.1.bias f4 [64]
-0.0031341722 0.030134065 -0.001479622 -0.0045552277 -0.017621782 -0.004730918 0.007413568 -0.017815297
0.010214622 -0.008323714 -0.013792585 -0.020367954 -0.00078538683 -0.017141154 -0.005213234 -0.008275609
-0.01056633 0.0007770726 0.013678149 -0.0062037697 0.0036871037 -0.010444066 -0.027881935 -0.0151897
-0.014127322 -0.012918537 -0.00081619294 -0.015889274 0.010904919 -0.02833193 0.010124562 0.0033553622
0.006996619 -0.010548707 -0.007053705 0.0067368043 -0.015146729 -0.0043064854 -0.020604752 0.010114028
-0.025298672 -0.0011888185 0.006627318 0.0007600505 -0.003356203 0.014696453 -0.027845446 0.016621647
0.011509105 0.018176956 -0.025078066 -0.030954545 -0.014729965 -0.008910562 -0.015164551 0.013682378
0.019810595 -0.0051367558 0.016638434 -0.008754008 -0.012188329 -0.0020595419 0.0034946895 -0.009372752
00000000: af66 4dbb b7db f63c e0ef c1ba 0544 95bb
00000010: 8e5b 90bc d105 9bbb 84ed f23b 63f1 91bc
00000020: 3b5b 273c 3060 08bc 4bfa 61bc b2da a6bc
00000030: 6be2 4dba 9b6b 8cbc c7d3 aabb 6c96 07bc
00000040: 661e 2dbc 76b4 4b3a 511a 603c fe48 cbbb
00000050: 56a3 713b 961d 2bbc a868 e4bc 38de 78bc
00000060: 4876 67bc 45a8 53bc c8f5 55ba 392a 82bc
00000070: 8caa 323c 5d18 e8bc 7ee1 253c a3e5 5b3b
00000080: e543 e53b 7cd4 2cbc c422 e7bb 69c0 dc3b
00000090: fc29 78bc 6b1d 8dbb 4ccb a8bc 4fb5 253c
000000a0: 293f cfbc 21d2 9bba f929 d93b 203e 473a
000000b0: bef3 5bbb 64c9 703c 221c e4bc 1f2a 883c
000000c0: af90 3c3c d7e7 943c 8470 cdbc 6394 fdbc
000000d0: f355 71bc 9bfd 11bc bd74 78bc 0e2c 603c
000000e0: d449 a23c 3b52 a8bb 534d 883c f96c 0fbc
000000f0: 8fb1 47bc 61f9 06bb 2907 653b 2c90 19bc

layer1.1.running_mean f4 [64]
1.1169717 0.8628123 0.82653415 1.0406392 1.0218525 1.1051049 0.98959786 0.85471123
1.0419688 1.0915667 0.9417437 0.7721984 0.89974266 0.6910102 0.7886496 0.8545165
0.95001173 0.7581094 1.0342126 0.7531777 0.87103003 1.1007278 0.84959304 0.9591144
0.93930304 0.87136555 0.9420055 0.8770155 0.8834638 0.9413243 0.98321486 1.0418346
0.92127067 0.8733381 0.67993146 0.68533725 1.1523422 0.78537846 0.95742625 1.0688261
0.899804 1.2662511 0.8966084 0.8329469 0.6533313 0.8968429 0.77698904 0.9843248
1.0314894 0.8594184 0.91163564 0.82706755 1.1069661 0.88429254 0.9303042 0.7025197
0.9832282 1.1387022 0.9490606 0.7032957 1.0002825 1.0956188 0.66256577 0.97396564
00000000: eef8 8e3f 44e1 5c3f be97 533f aa33 853f
00000010: 10cc 823f 1474 8d3f 4956 7d3f 5bce 5a3f
00000020: 3c5f 853f 75b8 8b3f 1d16 713f cbae 453f
00000030: 8955 663f 0be6 303f f1e4 493f 98c1 5a3f
00000040: f833 733f 7513 423f 1461 843f 41d0 403f
00000050: d3fb 5e3f a6e4 8c3f ee7e 593f 8588 753f
00000060: 2a76 703f d011 5f3f 4627 713f 1684 603f
00000070: af2a 623f a1fa 703f f8b3 7b3f d65a 853f
00000080: 65d8 6b3f 1693 5f3f fd0f 2e3f 4372 2f3f
00000090: f37f 933f 900e 493f e319 753f 4bcf 883f
000000a0: 8e59 663f 8414 a23f 2188 653f 023c 553f
000000b0: b840 273f 7f97 653f c1e8 463f b6fc 7b3f
000000c0: d807 843f d802 5c3f f460 693f b3ba 533f
000000d0: 11b1 8d3f ff60 623f 6b28 6e3f 55d8 333f
000000e0: d8b4 7b3f fec0 913f a3f5 723f 300b 343f
000000f0: 4209 803f 3d3d 8c3f e99d 293f d055 793f

layer1.1.running_var f4 [64]
0.015608865 0.0002580397 0.0024815516 0.0021052163 0.006676728 0.007911221 0.001314894 0.0016677557
0.0020120884 0.0075739347 0.0020309296 0.0049183816 0.0021222078 0.0061785732 0.0122660985 0.0004796985
0.0023241919 0.0042855954 0.0036409246 0.0010822186 0.003528442 0.0062185153 0.0013098493 0.0013722404
0.0011449979 0.0012192043 0.004724751 0.00068869937 0.0005457226 0.0011887634 0.00085739733 0.01076458
0.0011855537 0.0056963894 0.002197851 0.011069998 0.009202401 0.00905374 0.001454166 0.020785596
0.0018288669 0.028028708 0.000693924 0.0036578723 0.009911612 0.00024698957 0.0016144161 0.0026889786
0.004135095 0.004892557 0.00075503794 0.0048502423 0.0022100646 0.004585338 0.0037330247 0.0045036315
0.004723935 0.005972634 0.0043951944 0.0054906765 0.0011154624 0.016640311 0.011540833 0.0010668627
00000000: 53bc 7f3c 8149 8739 87a1 223b abf7 093b
00000010: 74c8 da3b 119e 013c 8558 ac3a 9898 da3a
00000020: 3edd 033b c52e f83b 5819 053b 602a a13b
00000030: bd14 0b3b a175 ca3b bff7 483c 0b80 fb39
00000040: 7851 183b 2e6e 8c3b 949c 6e3b 3bd9 8d3a
00000050: 6f3d 673b b0c4 cb3b 40af ab3a bfdc b33a
00000060: c113 963a b5cd 9f3a 16d2 9a3b d589 343a
00000070: d30e 0f3a 48d0 9b3a f6c2 603a ec5d 303c
00000080: 9564 9b3a c7a8 ba3b d209 103b f05e 353c
00000090: abc5 163c 2356 143c b799 be3a 8e46 aa3c
000000a0: 97b6 ef3a 769c e53c 74e8 353a eab8 6f3b
000000b0: 5064 223c 617e 8139 d19a d33a 9339 303b
000000c0: b17f 873b be51 a03b bded 453a c8ee 9e3b
000000d0: bbd6 103b 9a40 963b c3a5 743b 3393 933b
000000e0: 3dcb 9a3b 16b6 c33b 9005 903b 22eb b33b
000000f0: b534 923a 4351 883c c315 3d3c f9d5 8b3a

layer2.0.weight f4 [64, 64, 3, 3]
-0.008617224 0.02368669 0.07278878 -0.03541418 -0.022679769 -0.006246591 -0.00424705 -0.024295604
-0.010020955 0.030194141 0.05246192 0.022035727 -0.016364286 0.0077273664 -0.025725592 0.0144489
-0.027044557 -0.013254241 0.022920309 0.0016119166 -0.006533824 -0.018244773 -0.0057849674 -0.03096638
0.012383985 0.029173499 0.04030529 -0.018807398 -0.0064491266 -0.014152069 0.032247223 0.0011168072
-0.027447803 0.03634497 0.01966774 -0.02332038 -0.030868055 -0.02536318 -0.048930503 0.01168952
-0.012591408 -0.03438949 0.026526345 -0.020633107 -0.017787926 -0.030334355 0.01626833 -0.01244038
0.0073176515 0.042748325 -0.0027003656 0.0294474 0.015620307 -0.026085943 -0.02492023 -0.029126566
-0.03650703 0.030805044 -0.032347195 -0.01532924 -0.047897033 0.0009484578 0.00020137246 0.02057806
-0.004587413 0.012353858 0.006376212 -0.0025489095 -0.008986238 -0.004620764 -0.0311969 0.03102562
0.008168887 -0.013834634 -0.010638702 0.039585926 -0.003667174 -0.010143416 -0.014465535 0.002819869
-0.035464305 0.04712581 0.019528635 -0.00824677 -0.015301148 0.0120049715 -0.03832426 -0.036001988
0.0063695074 0.04267934 -0.0027326462 -0.0003621393 -0.02521462 -0.011343049 -0.028580457 0.0567994
-0.045869958 -0.0012660872 -0.04762759 0.006017195 -0.030643702 -0.029235203 0.01231791 -0.03221024
-0.00023253988 -0.03690589 -0.05243927 0.024851331 -0.043145973 0.010828089 -0.03530546 -0.014339397
-0.025046263 -0.012000448 0.009513427 0.045626547 0.02048016 -0.031014636 0.015283425 -0.012603135
0.03031797 0.032074805 0.029392248 -0.013373059 0.0063811345 0.019886037 0.03306665 0.008119279
-0.0008066097 0.020410812 0.04162657 0.0075901276 -0.025832608 -0.0012685512 0.029369583 0.010546646
0.03034613 -0.024440108 -0.018089006 0.05319762 0.0064170295 -0.0312055 -0.009659686 0.007516495
-6.0993163e-05 -0.03259132 -0.056694552 -0.03424899 -0.015953612 -0.015348936 0.0095745735 -0.032419737
0.03334289 0.03579237 0.0026532232 -0.041313063 -0.0043787733 0.048598308 0.0017971726 -0.001491061
-0.0126253925 -0.03831644 -0.024934838 -0.053588647 -0.01772753 0.019094855 0.029697409 0.0015583417
0.024638407 -0.020458894 0.020480253 0.012851758 -0.013745025 0.015143599 -0.019928241 0.02276331
-0.03964085 0.032179076 -0.008434649 -0.02324521 -0.03324814 0.018023048 0.02910174 -0.049337596
-0.014250649 0.0048174453 -0.014474932 0.028633138 -0.010959532 0.0129408045 -0.0076474017 0.013991143
0.040481634 -0.0076470454 -0.032495346 -0.020780612 -0.0046319966 -0.023813799 0.01840979 -0.034923784
-0.0020494014 -0.016839257 -0.0031723098 0.025182096 0.015853781 -0.024696205 -0.007621275 0.014587805
0.007596539 -0.00274199 0.018640429 -0.013936994 -0.021973738 0.023485273 0.009954906 -0.00036725172
0.036723424 0.028283043 0.020105079 -0.012117804 0.009429931 -0.01827646 0.038941562 0.032167334
0.027604444 -0.024855591 -0.026013054 0.03598889 -0.029197609 -0.009244192 -0.045463536 -0.017673222
0.01796846 0.028812647 -0.021200541 0.029664978 -0.022404695 0.046078637 0.014648303 -0.011482631
-0.008994322 0.0104988245 0.020091413 0.0047405274 -0.016962083 0.015344916 0.013745964 0.022745587
-0.0023286792 0.052935556 0.041301884 -0.0071360827 -0.03042277 0.021414533 0.015087599 0.0013971947
00000000: 422f 0dbc 970a c23c 4912 953d 760e 11bd
00000010: ecca b9bc 34b0 ccbb d62a 8bbb 9307 c7bc
00000020: ee2e 24bc b459 f73c 4fe2 563d 4584 b43c
00000030: 650e 86bc d935 fd3b 7abe d2bc 14bb 6c3c
00000040: 8c8c ddbc 5128 59bc 5fc3 bb3c f246 d33a
00000050: b019 d6bb 1076 95bc d38f bdbb 35ad fdbc
00000060: 33e6 4a3c 43fd ee3c 2917 253d f911 9abc
00000070: 3253 d3bb 14de 67bc aa15 043d d561 923a
00000080: 37da e0bc 77de 143d 3e1e a13c 620a bfbc
00000090: 01df fcbc 72c6 cfbc 5a6b 48bd 6785 3f3c
000000a0: 314c 4ebc fedb 0cbd c74d d93c c306 a9bc
000000b0: fcb7 91bc c17f f8bc 2945 853c bcd2 4bbc
000000c0: e9c8 ef3b de18 2f3d 9ef8 30bb ac3b f13c
000000d0: 51ec 7f3c 30b2 d5bc 8325 ccbc d69a eebc
000000e0: 6588 15bd dc5a fc3c 7e7e 04bd 7e27 7bbc
000000f0: ae2f 44bd eda1 783a 8227 5339 5293 a83c
00000100: 0252 96bb d667 4a3c 8bef d03b 9b0b 27bb
00000110: 043b 13bc c769 97bb a490 ffbc 7129 fe3c
00000120: ccd6 053c a9aa 62bc f34d 2ebc da24 223d
00000130: f854 70bb 9230 26bc da00 6dbc 8dcd 383b
00000140: 0543 11bd fe06 413d 84fa 9f3c 761d 07bc
00000150: abb1 7abc 80b0 443c e6f9 1cbd d276 13bd
00000160: 4db7 d03b 88d0 2e3d 3216 33bb 84dd bdb9
00000170: e48e cebc 32d8 39bc 9021 eabc 7da6 683d
00000180: 23e2 3bbd d6f2 a5ba 2615 43bd e42b c53b
00000190: 8008 fbbc aa7e efbc 0fd1 493c e2ee 03bd
000001a0: f3d5 73b9 a12a 17bd 8fca 56bd 0595 cb3c
000001b0: d5b9 30bd 4c68 313c 759c 10bd caef 6abc
000001c0: d22d cdbc 879d 44bc 34de 1b3c e7e2 3a3d
000001d0: 02c6 a73c 6812 febc 5567 7a3c 617d 4ebc
000001e0: 645d f83c df60 033d 03c8 f03c ad1a 5bbc
000001f0: d618 d13b 0be8 a23c e570 073d b906 053c
00000200: a972 53ba 9334 a73c 9f80 2a3d 9bb6 f83b
00000210: e89e d3bc 8445 a6ba 7b98 f03c d7cb 2c3c
00000220: 7298 f83c 9f36 c8bc 652f 94bc bfe5 593d
00000230: f245 d23b ada2 ffbc a943 1ebc ee4c f63b
00000240: e9d2 7fb8 7a7e 05bd 8c38 68bd ab48 0cbd
00000250: 26b1 82bc 1b7a 7bbc acde 1c3c 8fca 04bd
00000260: 8e92 083d 059b 123d b3e1 2d3b e337 29bd
00000270: d07b 8fbb 050f 473d 1b8f eb3a b46f c3ba
00000280: bcda 4ebc b3f1 1cbd 2544 ccbc c57f 5bbd
00000290: 5339 91bc d06c 9c3c fb47 f33c 4541 cc3a
000002a0: 7cd6 c93c 6999 a7bc 34c6 a73c 2e90 523c
000002b0: d032 61bc dc1c 783c 8d40 a3bc 1f7a ba3c
000002c0: 725e 22bd 35ce 033d 7b31 0abc bd6c bebc
000002d0: 342f 08bd 12a5 933c c666 ee3c 3816 4abd
000002e0: 8e7b 69bc a9db 9d3b 4428 6dbc 0b90 ea3c
000002f0: 9c8f 33bc ab05 543c 0e97 fabb 1b3b 653c
00000300: 12d0 253d 1194 fabb d719 05bd 1a3c aabc
00000310: 01c8 97bb 2815 c3bc 21d0 963c 3e0c 0fbd
00000320: 404f 06bb 7bf2 89bc 87e6 4fbb af4a ce3c
00000330: cadf 813c b24f cabc e3bb f9bb b001 6f3c
00000340: 63ec f83b f5b2 33bb d0b3 983c fd57 64bc
00000350: 4502 b4bc 3064 c03c e719 233c b18b c0b9
00000360: 4d6b 163d d7b1 e73c 68b3 a43c c189 46bc
00000370: ff7f 1a3c 84b8 95bc 3081 1f3d e5c1 033d
00000380: b722 e23c f49d cbbc 5419 d5bc 1669 133d
00000390: d32f efbc f474 17bc f937 3abd 6fc7 90bc
000003a0: 9832 933c 8008 ec3c c2ac adbc f803 f33c
000003b0: 0d8a b7bc f4bc 3c3d 70ff 6f3c a521 3cbc
000003c0: ec5c 13bc 4303 2c3c bf96 a43c 6d56 9b3b
000003d0: 11f4 8abc 3e69 7b3c c036 613c f454 ba3c
000003e0: c19c 18bb f4d2 583d 2a2c 293d cdd5 e9bb
000003f0: 2c39 f9bc 886d af3c fa31 773c 1322 b73a

layer2.0.bias f4 [64]
-0.016044062 0.002566278 -0.037190784 0.026634842 0.0008402759 -0.017210495 -0.03319095 -0.03143954
0.014523548 0.029725324 0.012012567 0.0007440836 0.018629493 -0.006595508 0.025413873 -0.033650596
0.021348527 -0.020412508 -0.031804543 -0.014985863 -0.013227338 0.032080483 0.033051096 0.0002786421
0.014940629 -0.0154829575 -0.014064739 0.030162163 -0.0031362846 -0.040026505 0.03345762 -0.041657608
-0.03510906 -0.0033409905 0.032495786 0.03728725 -0.0027107 -0.040262412 0.018794136 -0.038352747
0.0346609 -0.041661106 -0.011827898 -0.0044463696 -0.03891455 0.034084704 0.030961001 -0.023781227
0.0063311616 0.013214502 0.007308869 -0.022314774 0.005447215 0.03675656 0.010333978 -0.0022686627
0.037351616 -0.00041341694 -0.018348472 -0.031914376 -0.037159115 -0.03609722 0.0402439 0.0003275128
00000000: d66e 83bc 002f 283b 5d55 18bd 5031 da3c
00000010: f645 5c3a 06fd 8cbc 3cf3 07bd bfc6 00bd
00000020: 2df4 6d3c 8682 f33c 5cd0 443c 9b0e 433a
00000030: e19c 983c 221f d8bb c130 d03c 35d5 09bd
00000040: 1be3 ae3c 2238 a7bc 7b45 02bd 4487 75bc
00000050: 7ab7 58bc d366 033d 9660 073d b616 9239
00000060: 8ac9 743c 3bac 7dbc cb6f 66bc a416 f73c
00000070: 208a 4dbb d5f2 23bd db0a 093d 2ba1 2abd
00000080: 85ce 0fbd 85f4 5abb 4d1a 053d 84ba 183d
00000090: 00a6 31bb 33ea 24bd 29f6 993c c517 1dbd
000000a0: 96f8 0d3d d6a4 2abd cdc9 41bc dab2 91bb
000000b0: dd64 1fbd 679c 0b3d eda1 fd3c d9d0 c2bc
000000c0: a275 cf3b a381 583c 3d7f ef3b 79cd b6bc
000000d0: 8d7e b23b 0c8e 163d d84f 293c d8ad 14bb
000000e0: 02fe 183d e2bf d8b9 894f 96bc a6b8 02bd
000000f0: 2834 18bd aeda 13bd cad6 243d 06b6 ab39

layer2.1.weight f4 [64]
1.0061 1.0087174 0.9961607 1.0141056 0.98502636 1.0023559 0.9990631 1.0089642
1.0099001 0.9985947 0.99234843 0.996897 0.98257947 0.989497 1.014449 0.9969749
0.9923546 1.0065106 1.0011258 1.0061729 0.99275607 1.0068643 1.0210305 0.99117076
0.993205 0.99987495 0.99259573 1.008051 0.99787486 1.0148238 0.99997354 0.98387355
0.9981569 0.9840675 1.0084832 0.97199047 1.0241822 1.0004289 0.98782367 1.0152668
1.0054914 1.0099779 0.9855151 0.99832296 1.0226295 0.99667215 0.99399364 1.0039064
0.9950563 0.99613535 0.9793669 1.0040811 0.97902036 0.9956012 1.0206944 0.9855652
0.99606943 0.9923428 0.99496657 1.0049602 1.0083363 0.99959654 1.0128325 1.0008854
00000000: e3c7 803f a71d 813f 6304 7f3f 36ce 813f
00000010: b02a 7c3f 334d 803f 99c2 7f3f bd25 813f
00000020: 6844 813f e7a3 7f3f 8c0a 7e3f a434 7f3f
00000030: 548a 7b3f ad4f 7d3f 77d9 813f bf39 7f3f
00000040: f30a 7e3f 57d5 803f e424 803f 46ca 803f
00000050: 4325 7e3f eee0 803f 21b1 823f 5ebd 7d3f
00000060: af42 7e3f cef7 7f3f c11a 7e3f d107 813f
00000070: ba74 7f3f bfe5 813f 44fe 7f3f 23df 7b3f
00000080: 3687 7f3f d9eb 7b3f fa15 813f 5ed4 783f
00000090: 6718 833f 0e0e 803f 03e2 7c3f 43f4 813f
000000a0: f1b3 803f f546 813f b84a 7c3f 1892 7f3f
000000b0: 86e5 823f e825 7f3f 5e76 7e3f 0180 803f
000000c0: 02bc 7e3f ba02 7f3f cab7 7a3f bb85 803f
000000d0: 14a1 7a3f b8df 7e3f 1da6 823f 004e 7c3f
000000e0: 68fe 7e3f 2e0a 7e3f 21b6 7e3f 89a2 803f
000000f0: 2a11 813f 8fe5 7f3f 7fa4 813f 031d 803f

layer2.1.bias f4 [64]
-0.017693412 -0.016326008 -0.008761037 -0.023772046 -0.024645334 -0.013632994 -0.010228379 -0.013300258
-0.043358568 -0.01410631 -0.0077231727 -0.014415938 -0.022763988 -0.008648165 -0.02621381 -0.020833833
-0.025040241 -0.015239781 -0.01207549 -0.0029050831 -0.009335371 0.0012867083 -0.015910598 -0.0016430176
-0.015648356 -0.017034426 -0.017549796 -0.017490922 -0.022720087 -0.011815327 -0.0028087422 -0.008050841
0.00182472 -0.011036679 -0.041834652 -0.02240531 0.005320935 0.0043534287 -0.024828495 -0.019959189
-0.00054917234 0.00012749553 -0.0215489 -0.010694778 -0.00372549 -0.008178947 -0.004788127 0.0012044903
-0.043199517 -0.030582942 -0.018749982 -0.011249466 -0.014178622 -0.016469935 -0.040587835 0.01009047
-0.02782647 -0.016271578 0.006615791 -0.014862466 -0.020769361 -0.0019561853 -0.028205117 -0.024565393
00000000: c6f1 90bc 1fbe 85bc 748a 0fbc 98bd c2bc
00000010: 03e5 c9bc ec5c 5fbc ee94 27bc 53e9 59bc
00000020: c198 31bd 271e 67bc ab12 fdbb d430 6cbc
00000030: 8b7b babc 08b1 0dbc 58be d6bc b7ab aabc
00000040: 3121 cdbc 46b0 79bc 47d8 45bc 3563 3ebb
00000050: 62f3 18bc c4a6 a83a f156 82bc 865a d7ba
00000060: fb30 80bc c88b 8bbc 97c4 8fbc 1f49 8fbc
00000070: 7a1f babc 1395 41bc e012 38bb ade7 03bc
00000080: 712b ef3a 30d3 34bc d05a 2bbd 578b b7bc
00000090: 3d5b ae3b 35a7 8e3b 2165 cbbc 7481 a3bc
000000a0: 55f6 0fba 52b0 0539 5287 b0bc 2639 2fbc
000000b0: 5a27 74bb fd00 06bc b8e5 9cbb fddf 9d3a
000000c0: faf1 30bd 1489 fabc 9099 99bc ae4f 38bc
000000d0: 734d 68bc f5eb 86bc 6e3f 26bd 8052 253c
000000e0: 56f4 e3bc f94b 85bc 47c9 d83b b381 73bc
000000f0: 8224 aabc 5833 00bb 6b0e e7bc 5d3d c9bc

layer2.1.running_mean f4 [64]
-0.19940382 0.13053149 -0.6779865 -0.08421435 0.30247787 0.3179486 -0.06512227 -0.14880542
0.1888382 0.281562 0.16420296 0.19099548 0.19223993 -0.7748531 0.11093186 -0.034608644
0.28887272 -0.23761924 -0.59064573 -0.76710826 0.65003854 -0.54320586 -0.02956781 0.5546069
0.17750761 -0.04585195 -0.2613896 0.3831022 0.2165449 0.15432598 -0.19651893 -0.10110015
-0.3140046 -0.14024104 -0.36085334 -0.20057064 -0.51950204 -0.2309288 -0.25453994 0.013804777
-0.0906462 -0.2501434 0.438216 -0.18966293 0.030126521 -0.1664376 -0.120449275 0.18800162
0.68478197 0.06597128 0.110280186 -0.73695767 0.5082137 -0.22404628 0.22341129 0.3775497
0.4720132 -0.05747454 0.1590177 -0.59881127 0.20803984 0.11871793 -0.117930144 -0.3443427
00000000: 8430 4cbe 0caa 053e 8690 2dbf 9378 acbd
00000010: 61de 9a3e 29ca a23e d35e 85bd 7360 18be
00000020: cd5e 413e e528 903e d224 283e 5294 433e
00000030: 8bda 443e c65c 46bf 3e30 e33d cbc1 0dbd
00000040: 20e7 933e 7552 73be 8f34 17bf 3561 44bf
00000050: ed68 263f 8a0f 0bbf 3138 f2bc b8fa 0d3f
00000060: 8ec4 353e 41cf 3bbd dcd4 85be f925 c43e
00000070: f2bd 5d3e a107 1e3e 423c 49be 980d cfbd
00000080: 36c5 a0be 599b 0fbe c5c1 b8be 6462 4dbe
00000090: 16fe 04bf 9978 6cbe 0f53 82be 6e2d 623c
000000a0: b7a4 b9bd cc12 80be d95d e03e 0037 42be
000000b0: e5cb f63c 9e6e 2abe 1cae f6bd 7f83 403e
000000c0: df4d 2f3f f31b 873d 94da e13d 42a9 3cbf
000000d0: 4b1a 023f 636c 65be eec5 643e 324e c13e
000000e0: b7ab f13e 6c6a 6bbd 89d5 223e b24b 19bf
000000f0: 6508 553e 6322 f33d 5c85 f1bd b04d b0be

layer2.1.running_var f4 [64]
0.11930736 0.098456405 0.17958541 0.10519533 0.17416209 0.22468877 0.2446245 0.15005845
0.07145318 0.11916175 0.14128946 0.09866727 0.034919895 0.6734781 0.07923802 0.20896731
0.10685687 0.082110845 0.20616463 0.0890218 0.11348717 0.1602033 0.032326125 0.22954018
0.06622982 0.15360984 0.104224965 0.048101027 0.14041674 0.076987706 0.14463238 0.20368966
0.1752364 0.17101534 0.049663637 0.08804988 0.1375251 0.08192892 0.23514558 0.05246535
0.064428285 0.33205867 0.43623444 0.068661414 0.44957307 0.18644056 0.101465344 0.10614739
0.09952542 0.17296995 0.2068508 0.23491295 0.3326583 0.11258795 0.07806165 0.71640444
0.3631065 0.13654718 0.38296843 0.103134744 0.27552786 0.055533487 0.060888562 0.12175
00000000: 6b57 f43d 83a3 c93d 3de5 373e a670 d73d
00000010: 8c57 323e d014 663e d87e 7a3e eca8 193e
00000020: 0b56 923d 130b f43d 2fae 103e 1112 ca3d
00000030: 2a08 0f3d 1069 2c3f 8b47 a23d 87fb 553e
00000040: c6d7 da3d bb29 a83d d21c 533e 1051 b63d
00000050: f66b e83d 550c 243e 6668 043d 950c 6b3e
00000060: 80a3 873d e64b 1d3e e673 d53d 9505 453d
00000070: 68c9 0f3e bbab 9d3d 831a 143e 0694 503e
00000080: 2c71 333e a51e 2f3e 196c 4b3d 7f53 b43d
00000090: 61d3 0c3e 59ca a73d 01ca 703e e8e5 563d
000000a0: faf2 833d 9803 aa3e 1f5a df3e 5b9e 8c3d
000000b0: 712e e63e 46ea 3e3e 10cd cf3d ce63 d93d
000000c0: fcd3 cb3d 091f 313e b2d0 533e 058d 703e
000000d0: 3052 aa3e 8394 e63d c9de 9f3d 4866 373f
000000e0: 18e9 b93e 06d3 0b3e 7014 c43e 4f38 d33d
000000f0: fd11 8d3e 1577 633d 4966 793d 1058 f93d

layer3.0.weight f4 [64, 64, 3, 3]
0.025457287 -0.00091897533 0.009104401 -0.019173564 -0.02303847 0.035000183 0.021542264 0.035797887
-0.018759882 0.012193189 -0.024661504 0.03609579 -0.02786329 -0.033926547 -0.038793504 0.000553039
-0.029735463 -0.009040952 -0.025016112 -0.027869543 0.034562815 -0.03939213 -0.044360988 0.03442003
-0.0073950323 -0.039289284 0.03388987 -0.025460145 -0.0047775703 0.0012555269 0.036225688 0.037721917
-0.0141220875 -0.021939375 -0.003371807 -0.036495917 -0.024188556 0.021270473 0.016702192 0.010579577
-0.024628127 0.013315467 -0.01267905 -0.012542712 0.008649737 0.030654859 -0.03589038 0.009979077
0.025012111 -0.048515275 0.017096754 -0.0074112564 -0.048274178 0.0031724358 0.052417714 -0.028596992
0.060882177 0.012551383 0.02112459 -0.007682294 0.0012876865 0.052979216 0.0676264 0.013311962
0.04632893 -0.0052138004 -0.029232424 0.032986987 0.045599822 -0.018470246 0.023534816 -0.008028922
-0.035387605 -0.02629631 -0.0007519932 0.020599062 -0.037113804 -7.827972e-05 -0.0016406298 0.0015573255
0.0400253 -0.0234226 0.029129593 -0.036701668 0.019333683 0.019911325 -0.009865853 -0.03228582
-0.028041964 -0.01676004 -0.019015538 -0.026663955 -0.01965153 0.026757354 -0.012132172 0.025579534
0.028472552 -0.0012572006 0.015712367 -0.029871156 -0.02911253 -0.0024763006 -0.014746965 -0.04781397
-0.028321385 0.011700965 0.030867746 -1.4808374e-05 -0.0044229724 0.028440487 -0.02399143 -0.0029325609
0.0066031325 0.044998523 -0.002431158 0.013126797 0.034334753 0.040712092 0.0018431407 -0.032262884
0.0133758895 -0.015288733 0.033426262 -0.027186599 0.03253912 0.008899115 0.04005341 0.022476211
-2.1638878e-06 0.021891281 0.030343499 -0.031145832 0.014330941 -0.031353172 -0.004110152 -0.01528477
-0.011425438 0.03009764 0.0022039225 0.02514804 0.03342891 -0.011865399 -0.020388398 -0.013670717
-0.029762255 0.00083019043 0.017827196 -0.035381757 0.015909754 0.037071582 0.028238852 0.02089179
0.009269656 0.0034411629 -0.04280472 -0.040613927 0.00953856 0.031793613 -0.023229899 0.00865363
-0.00028937208 0.027524173 0.0046308455 -0.006308205 -0.0031982022 0.027491303 0.025461825 -0.011974343
-0.031045219 -0.030272549 0.024654498 -0.008259217 -0.031164305 0.015781892 -0.0319059 -0.011408331
-0.019012416 0.027992323 -0.007921457 -0.02395627 -0.0075902026 -0.025350492 0.0399096 -0.034872785
-0.031521935 -0.036206167 -0.011365979 0.0022548533 -0.028849186 0.04565534 0.018200086 -0.00037232714
-0.03082907 -0.01222647 -0.0033891872 -0.005280738 -0.045029968 0.020698952 -0.003731003 -0.0152074285
-0.014730922 0.006983709 -0.0006686609 -0.02997304 -0.033498462 0.04683832 0.036577612 0.008160333
0.03012413 -0.04491154 -0.030941367 -0.006498443 -0.03971812 0.02214446 -0.032614972 -0.018685147
0.0150852855 -0.03418276 0.0070881615 0.043736927 -0.010820699 0.0015816764 -0.020032607 0.029491585
-0.03953187 0.030795028 -0.0060921283 -0.027681977 -0.01980786 0.0008683032 -0.029227821 -0.011071171
-0.0117373 -0.014117463 -0.017488359 0.028797962 -0.021119194 0.03435253 -0.018039102 -0.014623041
-0.013326022 -0.012768757 0.043995693 -0.0069817742 -0.010952444 0.021167314 0.025741857 0.033482756
0.0022043507 -0.019681703 -0.022892509 0.013608554 -0.024358 -0.03180345 -0.03391634 -0.017648136
00000000: cd8b d03c 64e7 70ba a02a 153c e111 9dbc
00000010: 2cbb bcbc 5a5c 0f3d 6779 b03c cea0 123d
00000020: 53ae 99bc f1c5 473c ec06 cabc 2ed9 133d
00000030: 8e41 e4bc 90f6 0abd f0e5 1ebd d2f9 103a
00000040: c997 f3bc 8020 14bc 97ee ccbc ab4e e4bc
00000050: bd91 0d3d a459 21bd deb3 35bd 04fc 0c3d
00000060: 0752 f2bb cded 20bd 1bd0 0a3d cb91 d0bc
00000070: 2a8d 9cbb 7e90 a43a 6361 143d 4c82 1a3d
00000080: 5460 67bc 34ba b3bc 89f9 5cbb be7c 15bd
00000090: 1427 c6bc 6a3f ae3c 09d3 883c f655 2d3c
000000a0: edc0 c9bc 1e29 5a3c cabb 4fbc f27f 4dbc
000000b0: a0b7 0d3c e61f fb3c cb01 13bd 487f 233c
000000c0: 33e6 cc3c f4b7 46bd 7e0e 8c3c 20da f2bb
000000d0: 25bb 45bd a4e8 4f3b f5b3 563d 3d44 eabc
000000e0: 975f 793d 51a4 4d3c 7a0d ad3c c1bb fbbb
000000f0: 97c7 a83a bc00 593d b67f 8a3d 6a1a 5a3c
00000100: 67c3 3d3d 87d8 aabb d678 efbc 5d1d 073d
00000110: e1c6 3a3d ea4e 97bc 16cc c03c bd8b 03bc
00000120: 98f2 10bd 5c6b d7bc 6921 45ba 5dbf a83c
00000130: a504 18bd 1b2a a4b8 670a d7ba 2c1f cc3a
00000140: 92f1 233d c1e0 bfbc 2fa1 ee3c 7d54 16bd
00000150: ac61 9e3c 131d a33c 63a4 21bc 233e 04bd
00000160: 43b8 e5bc 5a4c 89bc 79c6 9bbc 5e6e dabc
00000170: 3ffc a0bc 3d32 db3c 04c6 46bc 2c8c d13c
00000180: 453f e93c a7c8 a4ba 39b7 803c 5bb4 f4bc
00000190: 677d eebc 6e49 22bb 419d 71bc 95d8 43bd
000001a0: 4002 e8bc 68b5 3f3c 5bde fc3c 7b71 78b7
000001b0: 95ee 90bb 06fc e83c ad89 c4bc 3530 40bb
000001c0: 175f d83b 5f50 383d 1054 1fbb c711 573c
000001d0: 99a2 0c3d b9c1 263d 8a95 f13a 1626 04bd
000001e0: 8c26 5b3c 987d 7abc fae9 083d 6eb6 debc
000001f0: be47 053d 98cd 113c 0b0f 243d 0820 b83c
00000200: 4f37 11b6 5855 b33c ee92 f83c 8b25 ffbc
00000210: 53cc 6a3c 2f6c 00bd 74ae 86bb f96c 7abc
00000220: c331 3bbc 538f f63c af6f 103b 4303 ce3c
00000230: c1ec 083d 1767 42bc 9205 a7bc 25fb 5fbc
00000240: f9cf f3bc 23a1 593a 570a 923c 76ec 10bd
00000250: 2c55 823c 5fd8 173d 2a55 e73c 4225 ab3c
00000260: c1df 173c 2285 613b 0154 2fbd ca5a 26bd
00000270: 9f47 1c3c 053a 023d a14c bebc f4c7 0d3c
00000280: ddb6 97b9 607a e13c 59be 973b 0fb5 cebb
00000290: ee98 51bb 7135 e13c 5195 d03c 0930 44bc
000002a0: 8b52 febc 23fe f7bc 3bf8 c93c ab51 07bc
000002b0: 494c ffbc 0749 813c c3af 02bd 02ea 3abc
000002c0: edbf 9bbc 2850 e53c 00c9 01bc f13f c4bc
000002d0: 3cb7 f8bb d6ab cfbc 4078 233d c4d6 0ebd
000002e0: 251d 01bd eb4c 14bd 5f38 3abc 29c6 133b
000002f0: 2155 ecbc 1801 3b3d 5918 953c e734 c3b9
00000300: 3f8d fcbc 8851 48bc 201d 5ebb 0b0a adbb
00000310: 5871 38bd d990 a93c d883 74bb 9428 79bc
00000320: f759 71bc 99d7 e43b 1349 2fba 058a f5bc
00000330: af35 09bd 8ad9 3f3d 68d2 153d ebb2 053c
00000340: e1c6 f63c 2af5 37bd c078 fdbc e4f0 d4bb
00000350: 78af 22bd 4c68 b53c 4797 05bd 9811 99bc
00000360: 4628 773c 3903 0cbd cf43 e83b 7e25 333d
00000370: 4d49 31bc 4150 cf3a 6c1b a4bc 5698 f13c
00000380: 2cec 21bd db45 fc3c 7aa0 c7bb 50c5 e2bc
00000390: 1844 a2bc d79e 633a 2f6f efbc db63 35bc
000003a0: ce4d 40bc ee4c 67bc bf43 8fbc b4e9 eb3c
000003b0: 2902 adbc 3db5 0c3d bdc6 93bc 7b95 6fbc
000003c0: 6355 5abc 0c34 51bc d434 343d 5ec7 e4bb
000003d0: e171 33bc 1367 ad3c 96e0 d23c 3725 093d
000003e0: de76 103b 863b a1bc 1289 bbbc 6af6 5e3c
000003f0: 6e8a c7bc 5644 02bd dceb 0abd d392 90bc

layer3.0.bias f4 [64]
-0.0078564845 0.009609768 -0.014544916 0.009141368 0.036113508 -0.0027215667 0.035457157 -0.001987429
-0.02635097 0.004727928 -0.004778444 -0.034088306 -0.018534413 -0.009719153 -0.013708311 0.00031741586
0.03201709 0.019165305 0.016312083 0.029135166 -0.032808628 -0.024612337 -0.01377314 -0.025587881
0.027863707 0.017549912 0.021408116 -0.024319919 0.014991475 0.0021846883 0.018967196 0.020087147
0.031635616 0.009186778 0.020821515 0.0026638764 0.039035507 -0.038223173 0.0052991956 0.03466237
-0.03380298 -0.024434518 0.014041211 -0.03576129 0.010957827 0.00039303515 -0.0010623109 0.029237295
-0.013207081 -0.023006676 0.041092068 -0.029940318 0.02833443 0.011627953 -0.015096768 -0.035397664
-0.012335032 0.0048244195 -0.021103168 0.035743713 0.005810224 -0.006601086 0.01554448 -0.031620387
00000000: 7cb8 00bc 4a72 1d3c cd4d 6ebc adc5 153c
00000010: c2eb 133d 505c 32bb 863b 113d 873f 02bb
00000020: fddd d7bc bcec 9a3b 7e94 9cbb 2ea0 0bbd
00000030: 7bd5 97bc 153d 1fbc d398 60bc d66a a639
00000040: 5a24 033d 8f00 9d3c eba0 853c dfac ee3c
00000050: 5762 06bd d09f c9bc bca8 61bc ad9d d1bc
00000060: 6e42 e43c d5c4 8f3c 1360 af3c 913a c7bc
00000070: ce9e 753c fd2c 0f3b 1861 9b3c cd8d a43c
00000080: 5994 013d 2484 163c e291 aa3c 6e94 2e3b
00000090: b2e3 1f3d e78f 1cbd e0a4 ad3b 21fa 0d3d
000000a0: fe74 0abd e62a c8bc 1c0d 663c 6e7a 12bd
000000b0: 7588 333c 4910 ce39 3d3d 8bba 0d83 ef3c
000000c0: 8362 58bc 7f78 bcbc 2850 283d 6645 f5bc
000000d0: 9b1d e83c 2b83 3e3c 6f58 77bc 24fd 10bd
000000e0: e018 4abc 2a16 9e3b 8de0 acbc 0068 123d
000000f0: b163 be3b ec4d d8bb 46ae 7e3c 6184 01bd

layer3.1.weight f4 [64]
0.98542106 0.9975178 0.98810047 1.0348326 0.999625 0.9807977 0.98533237 1.0037667
0.99096453 1.0198755 0.9919215 1.0207886 0.9834442 0.99997413 1.0096692 0.9712628
1.0118619 1.013111 0.999539 1.0111077 0.99568886 0.97518533 0.99288535 0.99187934
1.0209708 1.0074843 0.9821957 1.0228736 0.98646545 0.97598714 1.0219996 1.0407943
0.98978376 0.9964809 0.97986555 0.9967348 0.99913037 0.9914967 0.99025613 1.0018586
0.976694 0.9915205 1.0205457 1.0232459 0.9787716 1.0061909 1.01929 0.9906907
0.99623364 0.9877217 1.0166491 0.99829936 0.98404056 0.9922859 0.9978823 1.0333718
0.975212 1.008351 0.98624814 1.0086539 0.9984645 0.9904071 1.0344609 0.99019
00000000: 8e44 7c3f 545d 7f3f 27f4 7c3f 6575 843f
00000010: 6de7 7f3f 8f15 7b3f be3e 7c3f 6d7b 803f
00000020: daaf 7d3f 488b 823f 91ee 7d3f 33a9 823f
00000030: 00c3 7b3f 4efe 7f3f d73c 813f aea4 783f
00000040: b184 813f 9fad 813f cae1 7f3f fa6b 813f
00000050: 77e5 7e3f bfa5 793f bc2d 7e3f ceeb 7d3f
00000060: 2caf 823f 3ff5 803f 2d71 7b3f 86ed 823f
00000070: 0089 7c3f 4bda 793f e2d0 823f bf38 853f
00000080: 7862 7d3f 5f19 7f3f 78d8 7a3f 032a 7f3f
00000090: 02c7 7f3f bad2 7d3f 6d81 7d3f e73c 803f
000000a0: 9e08 7a3f 4ad4 7d3f 3ea1 823f b9f9 823f
000000b0: c790 7a3f ddca 803f 1878 823f e89d 7d3f
000000c0: 2b09 7f3f 54db 7c3f 8f21 823f 8c90 7f3f
000000d0: 15ea 7b3f 7306 7e3f 3775 7f3f 8745 843f
000000e0: 7ea7 793f a511 813f c27a 7c3f 921b 813f
000000f0: 5f9b 7f3f 528b 7d3f 3769 843f 187d 7d3f

layer3.1.bias f4 [64]
0.003339837 -0.039900724 -0.02250992 -0.014928207 -0.013865857 -0.015407445 -0.02342081 -0.005987591
-0.022640929 -0.045503926 -0.013904327 -0.03529247 -0.018989684 -0.018065043 -0.020702416 -0.021647904
-0.020931171 -0.023584763 -0.02408662 0.015558271 -0.024970224 -0.009701496 -0.04749302 -0.022763906
-0.041576985 -0.03525766 -0.018472238 -0.049554273 -0.006907089 -0.018310752 -0.020286413 -0.031212833
-0.01663805 -0.028382381 -0.034901656 -0.00055148767 -0.024753582 -0.014265697 -0.020002645 -0.024627112
-0.019739956 -0.01771197 -0.036851197 -0.019099118 -0.010552555 -0.010054887 -0.04544135 -0.018322391
-0.002293272 -0.013995246 -0.023662265 -0.015440842 -0.02265886 -0.039282575 -0.03540518 -0.02646128
-0.009115995 -0.014884285 -0.013511722 -0.03192815 -0.025904374 -0.024936095 -0.032477334 -0.0146483295
00000000: 2be1 5a3b f16e 23bd b966 b8bc 7095 74bc
00000010: 9f2d 63bc 826f 7cbc 00dd bfbc 8e33 c4bb
00000020: 7879 b9bc 5362 3abd f9ce 63bc d68e 10bd
00000030: 4190 9bbc 24fd 93bc 1d98 a9bc f256 b1bc
00000040: d977 abbc d534 c1bc 4e51 c5bc 1ee8 7e3c
00000050: 5b8e ccbc 06f3 1ebc 0a88 42bd 5f7b babc
00000060: a14c 2abd 566a 10bd 1753 97bc 6cf9 4abd
00000070: dd54 e2bb 6e00 96bc b12f a6bc 0eb2 ffbc
00000080: 854c 88bc 2b82 e8bc 0af5 0ebd b691 10ba
00000090: 06c8 cabc acba 69bc 96dc a3bc ccbe c9bc
000000a0: b0b5 a1bc b118 91bc 48f1 16bd c175 9cbc
000000b0: a0e4 2cbc 41bd 24bc b620 3abd d718 96bc
000000c0: b84a 16bb 514c 65bc 5ed7 c1bc 96fb 7cbc
000000d0: 139f b9bc c4e6 20bd 0605 11bd 54c5 d8bc
000000e0: 415b 15bc 37dd 73bc 4560 5dbc 18c7 02bd
000000f0: 6935 d4bc c846 ccbc f406 05bd 8cff 6fbc

layer3.1.running_mean f4 [64]
-0.2601619 0.13394198 -0.327532 -0.20361821 -0.08962075 -0.44491333 -0.0024443793 -0.33490694
-0.021409204 0.06934968 -0.011221341 -0.058210485 -0.3159163 -0.16837193 0.14330575 0.13281466
0.14035483 -0.14201602 0.11848758 0.13880414 -0.05965707 0.11243363 -0.33895257 0.19808766
-0.060317103 -0.2673087 -0.11864183 -0.5139842 -0.40744027 -0.041942377 -0.30702433 -0.20813191
-0.47849107 -0.0062563624 -0.060873363 -0.14506906 -0.18944557 -0.26653802 -0.032841902 0.06256557
-0.493631 -0.18028532 -0.28104365 -0.23835163 -0.24858074 0.022715667 -0.25891024 0.22467098
0.38618192 0.1163683 0.04372454 -0.2122725 -0.17721647 -0.0065180054 -0.09172467 -0.30789912
-0.53280675 -0.049435355 0.20268907 -0.13763162 -0.09806407 -0.14854126 -0.14920317 -0.013355631
00000000: f133 85be 1628 093e 46b2 a7be 4b81 50be
00000010: 158b b7bd aecb e3be e131 20bb ec78 abbe
00000020: 5b62 afbc 3407 8e3d b7d9 37bc 1e6e 6ebd
00000030: c8bf a1be b169 2cbe bebe 123e 9100 083e
00000040: 2db9 0f3e a66c 11be 9ea9 f23d ac22 0e3e
00000050: f95a 74bd 9a43 e63d 318b adbe 7ed7 4a3e
00000060: 110f 77bd b0dc 88be 7dfa f2bd 7894 03bf
00000070: 039c d0be c5cb 2bbd 4b32 9dbe 8820 55be
00000080: c8fc f4be 2c02 cdbb 5956 79bd fc8c 14be
00000090: 05fe 41be ac77 88be 3b85 06bd 6122 803d
000000a0: 34bd fcbe b79c 38be f4e4 8fbe 7312 74be
000000b0: f38b 7ebe 3516 ba3c e28f 84be 2610 663e
000000c0: a3b9 c53e 8152 ee3d 8118 333d f65d 59be
000000d0: 3c78 35be fe94 d5bb 25da bbbd f4a4 9dbe
000000e0: 0666 08bf ba7c 4abd b98d 4f3e 4eef 0cbe
000000f0: d1d5 c8bd 331b 18be b7c8 18be 94d1 5abc

layer3.1.running_var f4 [64]
0.4713838 0.07548084 0.13558209 0.09625827 0.14006077 0.35624027 0.16882373 0.10132851
0.16025925 0.11874025 0.17500396 0.06662054 0.50032175 0.07038763 0.13089392 0.22243297
0.093449414 0.1229608 0.14285609 0.112367876 0.08225067 0.15984565 0.20960587 0.14253594
0.07724744 0.2006236 0.32634196 0.12007343 0.41347557 0.23342341 0.11507251 0.29071438
0.3625419 0.39372352 0.11646532 0.21817137 0.09269315 0.15393656 0.21041793 0.23420377
0.5804778 0.08282793 0.0953278 0.106324635 0.4183458 0.11319836 0.07220283 0.38562757
0.2137886 0.20159228 0.17726088 0.08087903 0.41514796 0.14812627 0.14901038 0.046450313
0.4380264 0.17053987 0.13369569 0.1301571 0.08370296 0.17446627 0.079810016 0.12392861
00000000: 3859 f13e b395 9a3d 08d6 0a3e 0e23 c53d
00000010: 176c 0f3e 2065 b63e 21e0 2c3e 5285 cf3d
00000020: 001b 243e 172e f33d 3d34 333e 5a70 883d
00000030: 1615 003f 6427 903d 0e09 063e 78c5 633e
00000040: 6862 bf3d dfd2 fb3d de48 123e 2121 e63d
00000050: 0a73 a83d 94ae 233e eca2 563e f1f4 113e
00000060: e833 9e3d 4670 4d3e 4b16 a73e 0fe9 f53d
00000070: 12b3 d33e 8c06 6f3e 23ab eb3d 84d8 943e
00000080: 189f b93e 2196 c93e 5f85 ee3d 5168 5f3e
00000090: e8d5 bd3d 8ca1 1d3e cc77 573e 1dd3 6f3e
000000a0: 319a 143f b1a1 a93d 393b c33d bbc0 d93d
000000b0: 6c31 d63e 8bd4 e73d 14df 933d fa70 c53e
000000c0: 66eb 5a3e 356e 4e3e e083 353e e8a3 a53d
000000d0: 468e d43e 6aae 173e 2d96 183e af42 3e3d
000000e0: ff44 e03e 01a2 2e3e 86e7 083e e747 053e
000000f0: 756c ab3d 49a7 323e 6f73 a33d 48ce fd3d

layer4.0.weight f4 [64, 64, 3, 3]
-0.052786645 -0.025523352 -0.02480388 0.04388988 -0.005332306 -0.0035323098 0.023556001 0.023056071
-0.024985718 -0.04885035 0.01141682 -0.007475903 -0.013426572 -0.0053038737 0.034873262 0.0030356108
0.02348062 -0.019485611 -0.04160412 -0.0335479 -0.00790349 0.020616166 -0.0049502235 0.028650299
-0.029952437 0.033091523 -0.03300154 0.020721832 0.014023622 -0.023601273 -0.009170145 -0.0128156645
-0.0019005586 -0.018284706 -0.01641891 -0.012221742 -0.004513322 -6.392342e-05 0.008008584 0.006685451
-0.028530646 0.027249204 0.06811816 -0.0014383297 -0.023743747 -0.03326686 0.020504052 0.02446008
0.023396144 -0.030817121 -0.01989417 0.00048231645 -0.026079342 -0.01881156 -0.03250846 0.015448061
-0.0072096256 -0.034989882 0.0030292866 -0.0017049295 0.008666439 0.0087113995 -0.011274901 0.024991479
-0.007712654 0.0016250759 -0.006262611 -0.032209408 0.019986711 -0.030198406 0.019933721 -0.0134079
0.021002619 -0.0035319293 0.0092149 0.016587684 -0.008425335 0.040732875 0.024518175 0.00860311
0.0027538652 0.0064551285 -0.034956716 -0.004461126 -0.023868427 -0.020223819 -0.019964818 0.040239718
-0.0104656285 0.00029715843 0.025825504 0.0014142245 -0.029555725 0.038361043 -0.03174735 0.023890983
0.018909492 0.03512762 0.00988099 -0.025941119 0.018328495 -0.001092278 0.0012870247 0.013991071
-0.0048097433 -0.020539679 -0.021513851 0.011212866 -0.021347813 0.038364206 -0.0043703164 0.035755564
0.016503902 -0.02278258 0.054148994 -0.021608563 -0.020878982 0.015156836 -0.0008452024 0.033355445
-0.0036203102 0.0050854473 -0.0067052105 0.021223865 -0.023984428 0.034063425 -0.03881478 0.017510463
0.017986085 0.04080877 -0.0033153289 -0.00671638 0.05447346 0.037639424 0.000109106164 0.02468119
0.01621531 0.022380305 -0.004907197 0.012764987 0.011617693 0.0026023674 -0.042150658 0.019169625
-0.006349632 -0.041864432 0.021873808 0.041265666 0.045188908 -0.005519703 -0.0128586935 0.006912887
-0.009968519 0.028265724 -0.011921673 0.034037217 -0.042099617 -0.009301523 0.020676712 -0.05167878
-0.012353942 0.0013836079 -0.020543102 0.020177254 0.025776265 0.032698985 -0.007963212 -0.008161245
-0.028162073 -0.023633804 0.04025658 0.039275486 0.026597675 0.006728556 -0.07565523 -0.03707015
-0.0023466118 -0.037880424 -0.051936515 0.01505914 -0.012148998 -0.0057047717 0.010280941 -0.003543352
0.0045609334 -0.017819952 0.011385175 -0.026110383 -0.0013927766 -0.002442499 0.030845437 0.0139787495
0.0123139415 0.017746542 0.022940896 -0.013513104 -0.009276074 0.04084015 0.015331202 0.0048714257
0.013181144 0.005039403 -0.0174499 -0.019416036 -0.021451857 0.015976937 -0.02994372 -0.04531244
0.04643623 0.029613689 0.05257903 -0.012889095 -0.0091475 0.05566534 -0.020423606 0.016239941
-0.032940768 -0.005501162 0.018258115 -0.041349232 -0.019102266 0.028835293 0.03230372 0.078744344
-0.046443537 -0.0068950644 0.0074200896 -0.028115327 -0.017807316 0.012355783 0.013005764 -0.016880669
0.0006935641 -0.023703715 -0.034222417 0.0187049 -0.016326109 -0.0017662131 -0.01925824 -0.028622797
0.0027681235 0.00694331 -0.0005689427 -0.007578178 0.003601322 -0.03323033 0.00861863 0.040794034
0.02469759 -0.0012223659 0.04285653 -0.014937807 -0.022170406 -0.029275175 0.025212066 0.034151517
00000000: cf36 58bd 5916 d1bc 8231 cbbc e0c5 333d
00000010: a0ba aebb 537e 67bb 84f8 c03c 16e0 bc3c
00000020: d9ae ccbc 4e17 48bd 9d0d 3b3c 6bf8 f4bb
00000030: 20fb 5bbc 1ecc adbb 44d7 0e3d 19f1 463b
00000040: 6e5a c03c 4aa0 9fbc 1569 2abd 8669 09bd
00000050: a47d 01bc 3ce3 a83c 7c35 a2bb 08b4 ea3c
00000060: d05e f5bc fa8a 073d 9f2c 07bd d5c0 a93c
00000070: 55c3 653c 7557 c1bc 603e 16bc cbf8 51bc
00000080: 2a1c f9ba cfc9 95bc f380 86bc b43d 48bc
00000090: 7de4 93bb a00e 86b8 7036 033c a111 db3b
000000a0: 1ab9 e9bc b939 df3c 8981 8b3d 5686 bcba
000000b0: 3f82 c2bc d542 08bd 1df8 a73c 8160 c83c
000000c0: 45a9 bf3c 3074 fcbc 19f9 a2bc 6bdf fc39
000000d0: 58a4 d5bc b31a 9abc 9727 05bd dd19 7d3c
000000e0: b93e ecbb 8d51 0fbd ff86 463b f177 dfba
000000f0: aefd 0d3c 42ba 0e3c 5dba 38bc eeba cc3c
00000100: 6eba fcbb 8000 d53a 9736 cdbb 03ee 03bd
00000110: 2cbb a33c a662 f7bc 0b4c a33c cfac 5bbc
00000120: af0d ac3c f177 67bb 18fa 163c e5e2 873c
00000130: 6b0a 0abc 84d7 263d 57da c83c 0ff4 0c3c
00000140: 317a 343b 8b85 d33b c62e 0fbd a32e 92bb
00000150: b887 c3bc 6cac a5bc 428d a3bc 67d2 243d
00000160: 0778 2bbc eecb 9b39 0290 d33c 805d b93a
00000170: d91e f2bc 7820 1d3d 8209 02bd 06b7 c33c
00000180: 14e8 9a3c fbe1 0f3d e0e3 213c 7882 d4bc
00000190: a425 963c c52a 8fba 62b1 a83a ce3a 653c
000001a0: 0d9b 9dbb d442 a8bc d13d b0bc 2bb6 373c
000001b0: 9ce1 aebc c923 1d3d df34 8fbb 6d74 123d
000001c0: 3133 873c 89a2 babc 56cb 5d3d 7104 b1bc
000001d0: 660a abbc 6154 783c 9390 5dba b89f 083d
000001e0: ba42 6dbb d3a3 a63b 62b7 dbbb acdd ad3c
000001f0: fe7a c4bc 1786 0b3d 3ffc 1ebd 1a72 8f3c
00000200: 8e57 933c 1927 273d fd45 59bb 1415 dcbb
00000210: 901f 5f3d cc2b 1a3d edcf e438 3530 ca3c
00000220: f8d5 843c e756 b73c 8dcc a0bb 3c24 513c
00000230: 2358 3e3c 7b8c 2a3b 2ba6 2cbd 9e09 9d3c
00000240: 9310 d0bb 0a7a 2bbd b330 b33c 3006 293d
00000250: 0118 393d a0de b4bb 45ad 52bc 8085 e23b
00000260: 0053 23bc 858d e73c 1f53 43bc 9c6a 0b3d
00000270: a670 2cbd 6a65 18bc 3562 a93c 21ad 53bd
00000280: 3068 4abc 2d5a b53a 024a a8bc c54a a53c
00000290: bf28 d33c 5fef 053d 2278 02bc beb6 05bc
000002a0: 26b4 e6bc ae9b c1bc 15e4 243d 55df 203d
000002b0: 5ee3 d93c 387b dc3b 21f1 9abd dfd6 17bd
000002c0: 9dc9 19bb 8128 1bbd 62bb 54bd 9cba 763c
000002d0: 970c 47bc 18ef babb 6471 283c 9537 68bb
000002e0: e273 953b 26fb 91bc e388 3a3c 71e5 d5bc
000002f0: d48d b6ba 5512 20bb 92af fc3c 2007 653c
00000300: 6ac0 493c 3261 913c 8cee bb3c 1166 5dbc
00000310: adfa 17bc 0048 273d b92f 7b3c 7ba0 9f3b
00000320: baf5 573c 9421 a53b 18f3 8ebc 610e 9fbc
00000330: cebb afbc 11e2 823c 884c f5bc 8999 39bd
00000340: eb33 3e3d 6898 f23c 1c5d 573d c82c 53bc
00000350: 65df 15bc 5701 643d 684f a7bc a009 853c
00000360: e6ec 06bd 1743 b4bb 0b92 953c d05d 29bd
00000370: 5b7c 9cbc fe37 ec3c e850 043d b744 a13d
00000380: 943b 3ebd feef e1bb 3924 f33b 1d52 e6bc
00000390: a6e0 91bc e96f 4a3c 2116 553c 5449 8abc
000003a0: 4dd0 353a 4b2e c2bc ce2c 0cbd 053b 993c
000003b0: 55be 85bc 4780 e7ba 75c3 9dbc 5b7a eabc
000003c0: 6869 353b b584 e33b 1925 15ba 5d52 f8bb
000003d0: 2804 6c3b 871c 08bd 2735 0d3c a517 273d
000003e0: 9a52 ca3c cb37 a0ba 548a 2f3d b4bd 74bc
000003f0: b69e b5bc 7ed2 efbc 8989 ce3c 76e2 0b3d
